checkpoints/neumf_first_try_Epoch4_HR0.6510_NDCG0.3737.model (torch, 645090 bytes, 13 tensors)

embedding_user_mlp.weight f4 [6040, 8]
0	0xbd7ad4bb	-0.06123803
1	0x3e397078	0.1810931
2	0x3e392dad	0.1808383
3	0x3e4c6543	0.19960503
4	0xbe96f7e3	-0.29485998
5	0xbe64709b	-0.2230858
6	0xbe67018b	-0.22559182
7	0xbe622b0c	-0.22086734
8	0xbdbafe47	-0.09130531
9	0x3debca89	0.1151324
10	0x3de115b3	0.10990467
11	0x3dabb41c	0.083839625
12	0x3d868566	0.065684125
13	0xbd942e71	-0.072354205
14	0x3ce4b550	0.027918488
15	0x3cb4463f	0.022006152
16	0xbe898544	-0.26859486
17	0x3e6deee8	0.23235667
18	0x3e67258c	0.22572917
19	0x3e3ed83e	0.18637177
20	0x3d9f2707	0.07771116
21	0xbe3735ce	-0.17891619
22	0xbd9f5cdc	-0.077813834
23	0xbdd559e1	-0.10417534
24	0xbe8253d2	-0.25454575
25	0x3ebdc3ab	0.37063345
26	0x3ebac520	0.3647852
27	0x3ea801e0	0.3281393
28	0xbe1a2a60	-0.15055227
29	0xbeb1c5d1	-0.34721234
30	0xbe4d9083	-0.20074658
31	0xbe4802e8	-0.19532359
32	0xbe79f08d	-0.24408169
33	0x3ca3c74f	0.019992499
34	0x3c90ba07	0.01766683
35	0x3d98d226	0.07461958
36	0xbe4c329e	-0.19941184
37	0xbdfffe99	-0.124997325
38	0xbe7f05cd	-0.24904557
39	0xbe82dec9	-0.25560597
40	0xbda89bed	-0.082328655
41	0xbc80b10e	-0.015709426
42	0xbb8d7ce3	-0.004317866
43	0x3b1d9be4	0.0024049217
44	0xbdd63e73	-0.1046113
45	0xbd212098	-0.039337724
46	0xbdefc070	-0.117066264
47	0xbe0317e1	-0.12802078
48	0xbe889ace	-0.26680607
49	0x3eb15bb9	0.3464029
50	0x3eab0265	0.33400264
51	0x3ea7dbc0	0.32784843
52	0xbe8fae80	-0.2806282
53	0xbeabb1ff	-0.33534238
54	0xbe981872	-0.2970615
55	0xbe9a7ea7	-0.30174753
56	0xbe0299d2	-0.1275399
57	0x3e2362f2	0.15955713
58	0x3e193599	0.14961852
59	0x3dfc9e9e	0.12334941
60	0x3e1cf2af	0.15326951
61	0xbdee4d2f	-0.11635815
62	0x3cda5b6e	0.026654925
63	0x3c70daaf	0.014700576
64	0xbe4fa69c	-0.202784
65	0x3e50e519	0.20399894
66	0x3e4a5ee0	0.19762754
67	0x3e5009b1	0.20316197
68	0xbe53d2ab	-0.20685832
69	0xbe55fd84	-0.2089749
70	0xbe31d333	-0.17365722
71	0xbe3a5da6	-0.18199787
72	0xbe093253	-0.13398103
73	0xbd3055bf	-0.043050524
74	0xbcd80a34	-0.026372053
75	0x3b01ab6b	0.001978601
76	0x397380f2	0.00023222322
77	0x3c2cda06	0.010550028
78	0xbd3dbc04	-0.046321884
79	0xbd9af687	-0.075665526
80	0x3c9b8887	0.018986
81	0x3e0f3296	0.13984141
82	0x3e05f8f6	0.13083252
83	0x3da15483	0.078774475
84	0x3da48c52	0.080345765
85	0xbd758824	-0.059944287
86	0x3d4e2319	0.05032644
87	0x3d716cb1	0.058941547
88	0xbe51b2b0	-0.2047832
89	0x3d08bae1	0.033381347
90	0x3d09e0a5	0.033661503
91	0x3d46d3d8	0.048541874
92	0xbce64160	-0.028107345
93	0xbd421a7a	-0.04738853
94	0xbdb430cf	-0.08798372
95	0xbdb61fa2	-0.08892752
96	0xbcd4fad3	-0.025998509
97	0x3dd84929	0.10560829
98	0x3dc064d8	0.093942344
99	0x3da0cdbc	0.07851741
100	0x3d81f7c7	0.06346088
101	0xbda4c101	-0.08044625
102	0xbc6dc971	-0.014513359
103	0xbc2284b0	-0.0099193305
104	0xbe2561d4	-0.161506
105	0x3d6c682c	0.057716534
106	0x3d66d971	0.056359712
107	0x3dcc06e8	0.09962255
108	0xbec8bab1	-0.39204934
109	0xbe0cbb7d	-0.13743396
110	0xbe9cbeef	-0.3061442
111	0xbe96d13b	-0.29456505
112	0xbd5cf684	-0.053946033
113	0x3e2ca0e5	0.16858251
114	0x3e3cc13b	0.18433087
115	0x3e17f7fa	0.1484069
116	0xbdf44409	-0.11927039
117	0xbe3b5753	-0.1829503
118	0xbdd698d9	-0.10478372
119	0xbdd14f7d	-0.10220239
120	0xbe803a15	-0.25044313
121	0x3e05d388	0.13068974
122	0x3e03ce73	0.12871723
123	0x3e596b6c	0.21232384
124	0xbee26b14	-0.4422232
125	0xbe88d2d3	-0.26723346
126	0xbee5f9de	-0.44917196
127	0xbedc2cf5	-0.4300305
128	0xbd7e209a	-0.06204281
129	0xbc01c7e5	-0.007921194
130	0x3b2b55b3	0.002614361
131	0x3d69f230	0.057115734
132	0xbe82aa25	-0.25520435
133	0xbdc11b5d	-0.09429047
134	0xbe548e24	-0.20757347
135	0xbe537169	-0.20648731
136	0x3e9d0d44	0.30674183
137	0xbd2b1a00	-0.041772842
138	0xbd0e54d8	-0.034748882
139	0xbdc18e6a	-0.094509915
140	0x3cedad11	0.029013189
141	0x3d88e2ea	0.066839054
142	0x3e2b798a	0.16745582
143	0x3e4c0ca0	0.19926691
144	0xbddb7dd7	-0.107173614
145	0xbc4e0180	-0.0125736
146	0xbc0b125d	-0.008488265
147	0x3c81f7cb	0.015865227
148	0xbe3d60b9	-0.18493928
149	0xbd38f94e	-0.04515963
150	0xbe214e8a	-0.15752617
151	0xbe27fa30	-0.16404033
152	0xbbc48371	-0.0059971143
153	0x3e49618f	0.19666122
154	0x3e44da58	0.19223917
155	0x3e48b235	0.1959923
156	0xbe924782	-0.2857018
157	0xbe6c4bc5	-0.23075779
158	0xbe4eaee6	-0.20183906
159	0xbe32ecb5	-0.17473109
160	0xbe71f75c	-0.23629516
161	0x3c8c4ce2	0.017126504
162	0x3c96f22c	0.018426023
163	0x3d2ca586	0.042150043
164	0xbe024474	-0.12721425
165	0xbd03aca4	-0.032147065
166	0xbe21b5e3	-0.1579204
167	0xbe344bc1	-0.17607023
168	0x3d56ea7c	0.052469715
169	0x3d8cec80	0.06881046
170	0x3d90f9d5	0.07078902
171	0x3c844075	0.016144017
172	0x3e320b8f	0.17387222
173	0xbc93ec80	-0.018057108
174	0x3dd3a253	0.10333695
175	0x3dd39039	0.10330243
176	0xbdc715b9	-0.0972094
177	0xba9e1d63	-0.0012063201
178	0x3c3d5a8a	0.011557231
179	0x3cfaf001	0.03063202
180	0xbd9b21f5	-0.07574836
181	0xbd0201c5	-0.03173997
182	0xbda04e7a	-0.07827468
183	0xbdcf8494	-0.10132709
184	0xbe0bb485	-0.13643081
185	0x3dbde23d	0.09271667
186	0x3dac6d50	0.08419287
187	0x3da42a60	0.08015895
188	0xbd55765f	-0.05211484
189	0xbdaac3c9	-0.08338124
190	0xbdccffb8	-0.10009712
191	0xbe01fd2e	-0.12694237
192	0xbdba6f03	-0.09103205
193	0x3dc495ce	0.095988855
194	0x3dcb7a97	0.099354915
195	0x3e03574b	0.12826268
196	0xbe906389	-0.2820094
197	0xbe2b08e9	-0.16702618
198	0xbe8c640b	-0.27420077
199	0xbe8d00c0	-0.27539635
200	0x3ec5e060	0.38647747
201	0xbdef45d3	-0.1168324
202	0xbde97f08	-0.114011824
203	0xbe524c90	-0.20537019
204	0x3e85571d	0.26043025
205	0x3e6b6657	0.22988258
206	0x3e965587	0.29362127
207	0x3e97c934	0.29645693
208	0xbd1d3610	-0.038381636
209	0x3e4e214b	0.20129888
210	0x3e4d29c9	0.20035471
211	0x3e448da4	0.19194657
212	0xbe47db20	-0.19517183
213	0xbe5c416c	-0.21509331
214	0xbe3170c2	-0.1732817
215	0xbe18ccbd	-0.14921851
216	0xbd78f4bd	-0.060780276
217	0x3d9b716f	0.07589995
218	0x3d886f06	0.06661801
219	0x3db5f4e2	0.08884598
220	0xbe83e25d	-0.2575864
221	0xbde50ff6	-0.11184685
222	0xbe5a2380	-0.21302605
223	0xbe455a60	-0.19272757
224	0xbd8f1267	-0.06985932
225	0x3ea2055f	0.31644723
226	0x3e9407a5	0.28912082
227	0x3e763a8b	0.2404577
228	0x3ea05ad0	0.31319284
229	0xbe655550	-0.22395825
230	0x3e32a3ee	0.17445347
231	0x3e1fddd0	0.15611959
232	0xbe82eb23	-0.2557002
233	0x3e1f36d0	0.15548253
234	0x3e205c6d	0.15660258
235	0x3e3c52e0	0.1839099
236	0xbdf13c73	-0.11779108
237	0xbe512f01	-0.20428087
238	0xbe43f369	-0.19135822
239	0xbe5a6230	-0.21326518
240	0xbdb02a5c	-0.086018294
241	0x3de5f974	0.1122922
242	0x3df9e23b	0.12201353
243	0x3dba43b0	0.090949416
244	0x3d860646	0.06544165
245	0xbdabff9d	-0.08398364
246	0x3c8457bc	0.016155116
247	0x3b8ac41c	0.004234804
248	0xbe26fda3	-0.16307692
249	0x3dadc0b8	0.08484024
250	0x3d8c284a	0.06843622
251	0x3dcd76d1	0.10032428
252	0xbe91d9cd	-0.2848648
253	0xbe052983	-0.13004117
254	0xbe83f7fd	-0.25775138
255	0xbe6b567a	-0.22982207

embedding_item_mlp.weight f4 [3706, 8]
0	0xbf25af3c	-0.6472051
1	0xbf38778d	-0.7205742
2	0xbf1adee1	-0.60496336
3	0x3f28742b	0.6580226
4	0x3f27046d	0.6524113
5	0x3f2a33cd	0.6648529
6	0xbf283cbe	-0.65717685
7	0x3eb15f53	0.3464304
8	0xbe664b75	-0.22489722
9	0xbe78ce65	-0.24297483
10	0xbe846cae	-0.25864166
11	0x3e623386	0.22089967
12	0x3e6a3556	0.22871909
13	0x3e78869e	0.24270102
14	0xbe5a615d	-0.21326204
15	0x3e94ecc9	0.29086903
16	0xbe25b533	-0.16182403
17	0xbe0e1443	-0.13874917
18	0xbe1222d6	-0.14271101
19	0x3e2eec24	0.17082268
20	0x3e222d98	0.15837705
21	0x3e26c9cb	0.16287915
22	0xbe2857df	-0.1643977
23	0x3e0bc4cb	0.1364929
24	0xbf1092e4	-0.5647414
25	0xbf23c073	-0.6396553
26	0xbf17fc95	-0.59369785
27	0x3f111083	0.5666582
28	0x3f102a4f	0.5631456
29	0x3f1410e8	0.57838297
30	0xbf112b5c	-0.56706786
31	0x3edb0cf5	0.42783323
32	0xbee4c6b0	-0.44682837
33	0xbf073563	-0.52815837
34	0xbf03f6df	-0.5154857
35	0x3edaf4d0	0.42764902
36	0x3ee4674d	0.44610062
37	0x3eec09df	0.4610128
38	0xbedcfdba	-0.43162328
39	0x3f07190e	0.52772605
40	0xbf01854c	-0.5059402
41	0xbf0824a2	-0.531809
42	0xbf0836bc	-0.5320852
43	0x3f003afc	0.50090003
44	0x3f03c17e	0.5146712
45	0x3f060528	0.5235162
46	0xbf005497	-0.50129074
47	0x3ed6f586	0.41984195
48	0xbdb94cbd	-0.0904784
49	0xbd8a411f	-0.06750702
50	0xbd8b39a0	-0.067981005
51	0x3da7261f	0.08161568
52	0x3da5264a	0.08063944
53	0x3d9595ae	0.0730394
54	0xbdc566ce	-0.09638749
55	0x3d78c001	0.060729984
56	0xbe4264a9	-0.18983711
57	0xbe819c1e	-0.2531442
58	0xbe7591bc	-0.23981375
59	0x3e5b840a	0.21437088
60	0x3e599402	0.21247867
61	0x3e787e16	0.24266848
62	0xbe557b2b	-0.20847766
63	0x3e949807	0.29022238
64	0xbd4ce97a	-0.050027348
65	0xbd62bb9a	-0.055354692
66	0xbd96215e	-0.07330583
67	0x3d3909b2	0.04517526
68	0x3d4519c1	0.048120264
69	0x3d1e62a4	0.03866829
70	0xbd1e5a79	-0.0386605
71	0x3dd60dc8	0.10451847
72	0xbec26730	-0.3796935
73	0xbe8121a8	-0.2522099
74	0xbe758c87	-0.23979388
75	0x3ecb86e4	0.3975135
76	0x3eb77dab	0.35838065
77	0x3ebe7623	0.37199506
78	0xbecb055c	-0.39652526
79	0x3e3c9664	0.18416744
80	0xbe03f401	-0.12886049
81	0xbe10047c	-0.1406421
82	0xbe140805	-0.14456184
83	0x3e1c7e00	0.1528244
84	0x3e14ff3b	0.14550488
85	0x3e1d2d16	0.1534923
86	0xbe123c1a	-0.1428074
87	0x3e14333f	0.14472674
88	0xbb25fe2f	-0.0025328507
89	0xbd309d0c	-0.04311852
90	0xbd3c9f05	-0.04605009
91	0xbce15904	-0.027508266
92	0xbbe6ac9f	-0.007039621
93	0xbc4ac671	-0.012376414
94	0x3cdd5b80	0.02702117
95	0x3dabce51	0.08388961
96	0xbc4863a2	-0.012230786
97	0xbc450e12	-0.01202728
98	0x3ab58e05	0.0013851529
99	0x3ac79073	0.0015225544
100	0x3bfa7a6a	0.0076439874
101	0xba1c6590	-0.0005966062
102	0xbbc551d7	-0.006021719
103	0xba7cb549	-0.00096400507
104	0xbd749263	-0.059709918
105	0xbdbb6293	-0.09149661
106	0xbdd288b1	-0.10279978
107	0x3d0e1923	0.03469194
108	0x3d415cb9	0.047207568
109	0x3d473fb3	0.048644733
110	0xbc9e60c8	-0.019333258
111	0x3e22877c	0.15871996
112	0xbebfb593	-0.37443218
113	0xbe917faa	-0.28417712
114	0xbe89cc87	-0.26913854
115	0x3ec95ef6	0.39330262
116	0x3eba5349	0.36391667
117	0x3ec0dfff	0.37670895
118	0xbec7c863	-0.3902007
119	0x3e796468	0.24354708
120	0xbebbd3d2	-0.36685044
121	0xbe89ad28	-0.2688992
122	0xbe844d24	-0.25840104
123	0x3eb2d2a8	0.34926343
124	0x3eb0fd34	0.3456818
125	0x3ea6d66d	0.3258547
126	0xbebd056e	-0.36918205
127	0x3e610fce	0.21978685
128	0xbde516bd	-0.111859776
129	0xbe2a19b4	-0.16611367
130	0xbe2c1a99	-0.16807021
131	0x3e114e1f	0.14189957
132	0x3e10412f	0.14087366
133	0x3e0f6795	0.14004357
134	0xbdef9f33	-0.11700287
135	0x3e35a936	0.1774033
136	0xbbb1b9d5	-0.005423764
137	0xbc3a0d9b	-0.011355783
138	0xbd02b2f9	-0.031908963
139	0xbd103e7a	-0.035215832
140	0xbbbc0ae5	-0.0057386034
141	0xbcc5cf41	-0.024146678
142	0x3ce845b4	0.02835355
143	0x3d9ddd33	0.07708206
144	0xbd42345e	-0.047413222
145	0xbd68c4fc	-0.056828484
146	0xbd98618b	-0.0744048
147	0x3cf2699e	0.029591378
148	0x3d4578ea	0.048211016
149	0x3bc60c6f	0.0060439627
150	0xbcedc87a	-0.029026259
151	0x3dd7bf2b	0.10534509
152	0xbe114881	-0.14187814
153	0xbe141f0d	-0.1446497
154	0xbe1efbbf	-0.15525721
155	0x3def9c16	0.11699693
156	0x3e070b55	0.13187917
157	0x3dfa68be	0.12227009
158	0xbe04d6d5	-0.12972577
159	0x3e1b41f7	0.15161882
160	0xbe4927de	-0.19644114
161	0xbe3589ef	-0.17728399
162	0xbe22c730	-0.15896297
163	0x3e6a63ed	0.22889681
164	0x3e500ace	0.20316622
165	0x3e6b4918	0.22977102
166	0xbe6c0120	-0.23047304
167	0x3de5af66	0.11215095
168	0xbe111f87	-0.14172183
169	0xbe5f45b8	-0.2180394
170	0xbe774fa9	-0.24151482
171	0x3e02e981	0.12784387
172	0x3e1a7d2d	0.15086813
173	0x3e20366e	0.15645763
174	0xbdf9d6c2	-0.12199165
175	0x3eac361f	0.3363504
176	0xbeef905e	-0.4678983
177	0xbef9bae0	-0.48775387
178	0xbef26159	-0.47339895
179	0x3eea91a3	0.45814237
180	0x3ef1c8f2	0.47223622
181	0x3eef7fca	0.46777183
182	0xbeef4d12	-0.46738487
183	0x3edb817d	0.4287223
184	0xbf4f4f26	-0.80980146
185	0xbf3026a7	-0.6880898
186	0xbf19b628	-0.60043573
187	0x3f53c750	0.82726
188	0x3f4cc32f	0.79985327
189	0x3f57a66f	0.8423833
190	0xbf57c1c0	-0.84280014
191	0x3e4f6d29	0.20256485
192	0xbe074076	-0.13208184
193	0xbe296998	-0.16544187
194	0xbe158e80	-0.1460514
195	0x3e1e7266	0.15473327
196	0x3e230eb6	0.1592358
197	0x3e241796	0.16024622
198	0xbe1cbdce	-0.1530678
199	0x3df97346	0.1218019
200	0xbc38d847	-0.011282033
201	0xbd9d7954	-0.07689157
202	0xbdad30ea	-0.08456595
203	0xbc90465b	-0.017611673
204	0x3c995541	0.01871741
205	0x3c6578b9	0.014005833
206	0x3cbee47e	0.023302313
207	0x3e1415f7	0.14461504
208	0xbf067eeb	-0.5253741
209	0xbf16c9c3	-0.58901614
210	0xbf0ead7a	-0.55733454
211	0x3f03c451	0.5147143
212	0x3f0532f5	0.5203088
213	0x3f0812a4	0.53153443
214	0xbf0b8f90	-0.54515934
215	0x3ed74cfc	0.42050922
216	0xbf0e3977	-0.55556434
217	0xbeeddcf0	-0.46457624
218	0xbeca8ae7	-0.395591
219	0x3f119774	0.56871724
220	0x3f0a50de	0.54029644
221	0x3f0dec95	0.5543912
222	0xbf13ce9c	-0.57737136
223	0x3e1c42c8	0.1525985
224	0x3d67de87	0.056608703
225	0x3cca5a21	0.02470118
226	0x3d069d66	0.03286495
227	0xbdabe46f	-0.083931796
228	0xbd8abece	-0.06774674
229	0xbd9d6fe4	-0.07687357
230	0x3dbee0e0	0.09320235
231	0xbc9e4d11	-0.019323858
232	0xbe8f104b	-0.27942118
233	0xbeccd19a	-0.40003663
234	0xbed5a12d	-0.4172453
235	0x3e9b3e74	0.30321085
236	0x3ea24f80	0.3170128
237	0x3ea57fd6	0.32324094
238	0xbe928c17	-0.28622505
239	0x3efb0bed	0.49032536
240	0xbd6e2493	-0.05814035
241	0xbd975fef	-0.07391345
242	0xbd87a9b9	-0.06624169
243	0x3d4d43f6	0.05011364
244	0x3d7f0fde	0.06227099
245	0x3d5491f4	0.051897004
246	0xbd8a7696	-0.067609
247	0x3d4ab46c	0.04948847
248	0xbe597683	-0.21236615
249	0xbe712fe2	-0.23553422
250	0xbe60087b	-0.21878235
251	0x3e74821e	0.23877761
252	0x3e70d53a	0.2351884
253	0x3e7cffcc	0.24706954
254	0xbe6728d9	-0.22574176
255	0x3e3e39db	0.18576758

embedding_user_mf.weight f4 [6040, 8]
0	0xbc73bfca	-0.014877269
1	0x3e440d9e	0.1914582
2	0xbe791801	-0.24325563
3	0x3ec6e519	0.38846663
4	0x3d7cc1fd	0.06170844
5	0xbe85104d	-0.25989
6	0x3c6b7beb	0.014372806
7	0xbf092b9c	-0.5358217
8	0xbc638317	-0.013886235
9	0xbe4ee7f2	-0.20205668
10	0x3d1a70c1	0.037705187
11	0x3f3810b0	0.71900463
12	0x3dad8d9a	0.08474274
13	0x3e08fd1f	0.13377808
14	0x3ea575bc	0.32316387
15	0x3d9fda3e	0.07805298
16	0x3e84aec0	0.25914574
17	0xbe61788e	-0.22018644
18	0xbe10cfc9	-0.14141764
19	0x3e1eb316	0.15498003
20	0xbdaa6c2a	-0.08321412
21	0x3ed91b4d	0.4240364
22	0x3e9f5fed	0.31127873
23	0xbeb0d5d7	-0.34538147
24	0xbcc810b1	-0.024422022
25	0xbdaa1770	-0.083052516
26	0x3db2acfb	0.087244
27	0x3ef61349	0.48061588
28	0xbeaba18f	-0.33521697
29	0x3f29fb66	0.6639923
30	0x3ea1673e	0.3152408
31	0xbda4c85d	-0.08046029
32	0xbcdfa5ea	-0.027300794
33	0xbeb7310c	-0.35779607
34	0x3d0b8abf	0.034067865
35	0x3dc390f0	0.09549129
36	0xbf00b3fa	-0.5027462
37	0xbecc1011	-0.39856008
38	0xbe69e8ec	-0.22842759
39	0x3d723ac2	0.059138067
40	0x3e5d2ec3	0.2159987
41	0x3e081766	0.13290176
42	0xbe86a67e	-0.26298898
43	0x3e83a40f	0.25711104
44	0x3ee8b2a8	0.45448804
45	0xbd2438fa	-0.0400934
46	0x3e652b35	0.22379763
47	0xbe5edbc1	-0.21763517
48	0x3efb3334	0.49062502
49	0xbec0d710	-0.3766408
50	0x3dc340ec	0.09533867
51	0x3eb8806f	0.36035487
52	0xbea049b9	-0.31306246
53	0x3ed22984	0.410473
54	0x3e1de7a0	0.15420389
55	0x3bb27f7b	0.0054473258
56	0x3e644f76	0.22295937
57	0xbee1f7c8	-0.44134355
58	0x3dc865f5	0.09785072
59	0x3ee32110	0.44361162
60	0xbe982712	-0.29717308
61	0xbee0e0c2	-0.43921477
62	0x3a7b5bc3	0.00095885637
63	0x3bd84b19	0.006600749
64	0x3d872ed6	0.0660073
65	0xbf1f3d37	-0.6220278
66	0x3b992e10	0.0046746805
67	0x3ec5d113	0.38636073
68	0xbe1cb8b9	-0.15304841
69	0xbeaf0e57	-0.34190628
70	0xbe415965	-0.18881758
71	0xbe4dba08	-0.20090497
72	0x3e352986	0.17691621
73	0x3d5ff56e	0.05467742
74	0xbf132615	-0.57479984
75	0x3e9c526b	0.3053163
76	0x3deecfb6	0.116607115
77	0x3e9c8523	0.30570325
78	0x3ce37c1b	0.027769139
79	0xbef5ece1	-0.48032287
80	0x3dbb3241	0.091404445
81	0xbedfce04	-0.43711865
82	0xbea9a8f1	-0.33136705
83	0xbe2a473d	-0.16628738
84	0xbe488748	-0.19582856
85	0xbea54f74	-0.3228718
86	0xbd2f9d41	-0.04287458
87	0xbed59264	-0.4171325
88	0xbe1ac7dd	-0.15115304
89	0xbe88dd97	-0.2673156
90	0x3e15f6d8	0.14644945
91	0x3e15776e	0.1459634
92	0xbe21f3c7	-0.1581565
93	0x3e9a2452	0.30105835
94	0xbd86d9d6	-0.06584518
95	0xbe46cc32	-0.19413832
96	0x3eab0a94	0.33406508
97	0x3cf00a82	0.029301886
98	0xbdbe0f01	-0.092802055
99	0x3f1a5356	0.6028341
100	0xbd63c900	-0.05561161
101	0x3eed46f9	0.4634321
102	0x3d390bd0	0.04517728
103	0x3d852700	0.06501579
104	0xbc5cf96b	-0.0134872
105	0xbe1ceeaa	-0.15325418
106	0x3d91d897	0.07121389
107	0xbd086d05	-0.033307094
108	0xbe1b6fbc	-0.15179342
109	0x3d3eb5a6	0.046559952
110	0x3e17da13	0.14829282
111	0xbee57bc8	-0.44821
112	0x3f02fecb	0.51170033
113	0xbf23ec6a	-0.64032614
114	0x3e0f7450	0.14009213
115	0x3e694344	0.22779566
116	0x3d303a5b	0.043024402
117	0xbe1a941a	-0.15095559
118	0x3ea15cd3	0.31516132
119	0xbeb713dd	-0.35757342
120	0x3f02b11b	0.5105149
121	0x3d9816c2	0.07426216
122	0x3d938f39	0.07205052
123	0xbe033edd	-0.12816949
124	0x3ea660a0	0.32495594
125	0xbd42ffca	-0.04760722
126	0x3d028bc7	0.031871583
127	0xbb83d29a	-0.0040229084
128	0x3ae6213f	0.0017557516
129	0xbd91eb21	-0.071249254
130	0x3d96d60f	0.07365047
131	0x3e394e24	0.18096215
132	0xbf0c6916	-0.5484785
133	0x3ea06659	0.31328085
134	0xbe7a98bf	-0.2447233
135	0x3e6ff21a	0.23432198
136	0x3ee6c5ce	0.45072788
137	0x3dde588c	0.10856733
138	0xbe3914b3	-0.18074302
139	0x3f093221	0.53592116
140	0xbe6354ea	-0.22200361
141	0x3dd059f8	0.1017341
142	0xbd927dff	-0.07152938
143	0xbe954412	-0.29153496
144	0x3ee2045f	0.4414396
145	0x3e1c8cc9	0.1528808
146	0x3e0138ba	0.12619296
147	0xbc483485	-0.012219553
148	0xbe0e4cae	-0.13896438
149	0x3ef8f505	0.48624435
150	0x3e0c560a	0.13704696
151	0xbec05206	-0.3756258
152	0x3e6a6652	0.22890595
153	0xbed12098	-0.4084518
154	0xbd9a6e95	-0.07540623
155	0x3e5beab8	0.21476257
156	0xbe958a76	-0.292072
157	0x3e829f72	0.25512272
158	0xbc1d2598	-0.009591483
159	0xbe713387	-0.23554812
160	0x3f04021d	0.51565725
161	0x3c0ae90c	0.008478414
162	0xbe223a49	-0.15842547
163	0x3d3921a8	0.045198113
164	0xbe16c156	-0.1472219
165	0x3e21951f	0.15779541
166	0xbe90590c	-0.28192937
167	0xbeaca1bf	-0.33717152
168	0x3ef7de86	0.4841196
169	0xbeeb970c	-0.46013677
170	0xbe72d4f1	-0.23714043
171	0xbde445d4	-0.11146131
172	0xbeeef573	-0.46671638
173	0x3e9a5439	0.30142382
174	0x3dc75200	0.09732437
175	0xbee11a5f	-0.43965432
176	0xbd2c7007	-0.042099025
177	0xbe00b0a5	-0.12567385
178	0xbdc1e8c8	-0.094682276
179	0x3e2c59e9	0.16831173
180	0xbf29296d	-0.66078836
181	0x3ed0a5c5	0.40751472
182	0xbddcb3e1	-0.10776497
183	0x3dee4bc5	0.11635546
184	0xbda4b3ac	-0.08042082
185	0xbeae7c08	-0.34079003
186	0xbf074a6e	-0.52847946
187	0x3e8a985c	0.27069366
188	0xbe8c22e0	-0.27370358
189	0xbe2b3e18	-0.16722906
190	0x3e998a36	0.2998826
191	0xbe6a0577	-0.22853647
192	0x3f15acde	0.584669
193	0xbe8728be	-0.2639827
194	0xbd96eb3f	-0.073690884
195	0x3d9f6769	0.07783396
196	0xbe150b07	-0.14554988
197	0x3eb937bb	0.3617533
198	0xbe973ac4	-0.29537022
199	0xbe4913ae	-0.19636413
200	0x3ef13fbb	0.47118935
201	0xbe938c2b	-0.28817877
202	0xbf0e11d0	-0.5549593
203	0x3d338d07	0.043835666
204	0x3dd9186c	0.10600361
205	0xbe1498bf	-0.14511393
206	0x3f0b5606	0.54428136
207	0xbe64af3f	-0.22332476
208	0xbeb8fcb7	-0.36130306
209	0x3e62bed4	0.22143108
210	0xbe0772b2	-0.13227347
211	0x3e601e88	0.21886647
212	0xbdbe7e58	-0.09301442
213	0x3e727ff6	0.23681626
214	0xba8be850	-0.0010674093
215	0xbe55f0fc	-0.2089271
216	0xbe7944c6	-0.24342641
217	0x3daf9a02	0.085742965
218	0xbe71af79	-0.23602094
219	0x3ea43514	0.32071745
220	0xbe862a24	-0.26204026
221	0xbdb18a74	-0.08668986
222	0x3e03dfcf	0.12878345
223	0xbe522699	-0.20522536
224	0x3da47d6d	0.080317356
225	0xbdd65487	-0.10465341
226	0x3e8f7e3c	0.28025997
227	0x3f01cc2c	0.50702167
228	0xbe2ea370	-0.17054534
229	0x3f248038	0.64258146
230	0x3eca96b1	0.39568093
231	0x3e18cfc8	0.14923012
232	0xbe80f049	-0.25183323
233	0xbe234280	-0.15943336
234	0x3d95c9fa	0.073139146
235	0x3de49760	0.11161685
236	0xbe361525	-0.17781503
237	0xbe9bd192	-0.30433327
238	0xbe362712	-0.17788342
239	0xb8a25d47	-7.742136e-05
240	0xbe32adca	-0.17449108
241	0x3e09942b	0.13435428
242	0xbf316379	-0.6929241
243	0xbd818889	-0.0632487
244	0x3ec3a6ef	0.38213298
245	0x3e98b40a	0.2982486
246	0x3e31bd05	0.17357261
247	0xbd9a3375	-0.07529346
248	0xbdfeb64d	-0.12437115
249	0xbe674b48	-0.22587311
250	0x3d77193f	0.06032681
251	0x3e6598af	0.22421525
252	0xbe4cb58a	-0.19991127
253	0xbe863bbf	-0.26217458
254	0xbd55ab09	-0.052165065
255	0xbdcd7a5d	-0.100331046

embedding_item_mf.weight f4 [3706, 8]
0	0x3ef1435f	0.47121713
1	0x3d68e530	0.056859195
2	0xbe2e875c	-0.17043823
3	0x3db08005	0.08618168
4	0x3d987160	0.074434996
5	0x3e0e4e50	0.13897061
6	0x3ea09e19	0.3137062
7	0x3ed7eb32	0.42171627
8	0xbe383556	-0.17989096
9	0xbed54f46	-0.41662043
10	0x3de084e1	0.10962845
11	0x3b96c8ec	0.0046015885
12	0x3e69b6dd	0.22823663
13	0xbdc9213d	-0.09820793
14	0xbf0dc4b0	-0.55378246
15	0x3e9a149d	0.30093852
16	0x3e0ebf26	0.13940105
17	0xbf438096	-0.7636808
18	0x3e626443	0.2210856
19	0x3f031bb6	0.5121416
20	0xbe90916e	-0.28235954
21	0xbe671459	-0.22566356
22	0x3e1752b7	0.14777647
23	0x3ea8f0f7	0.32996342
24	0x3dc95def	0.098323695
25	0x3ed41685	0.4142343
26	0xbe932602	-0.28739935
27	0x3c0e734e	0.008694483
28	0xbe9230e2	-0.2855292
29	0xbe626e19	-0.22112311
30	0x3d7d639e	0.06186258
31	0x3ee26bdd	0.44222918
32	0xbeb43d1a	-0.35202867
33	0x3ddee337	0.108831815
34	0x3e48b8f6	0.19601807
35	0x3e07ac42	0.13249305
36	0xbd85f136	-0.06540148
37	0x3d8c0de6	0.068385884
38	0xbe288c33	-0.16459732
39	0x3f1f0cd0	0.62128925
40	0xbd97b133	-0.07406845
41	0x3e4ef536	0.20210728
42	0x3f246448	0.6421552
43	0x3ebee858	0.3728664
44	0x3ec11ad8	0.37715793
45	0x3eb0bf9a	0.3452118
46	0x3da6803c	0.081299275
47	0x3ea2fdc8	0.31834245
48	0x3e0db638	0.13839042
49	0xbe4d0b79	-0.20023908
50	0xbe2fe602	-0.17177585
51	0x3f223dd9	0.6337562
52	0xbe971e97	-0.29515526
53	0x3f14ca1c	0.58120894
54	0x3e97751f	0.29581544
55	0x3e8800cc	0.26563108
56	0x3e80b9f1	0.25141862
57	0x3da05170	0.07828033
58	0x3ed94fc0	0.42443657
59	0xbd9ea101	-0.07745553
60	0x3eb469d5	0.35236993
61	0x3e527d33	0.20555572
62	0x3e8ecfc1	0.2789288
63	0x3f43b496	0.7644743
64	0xbdb69d94	-0.089167744
65	0xbf61aa34	-0.88150334
66	0x3e59d544	0.2127276
67	0x3ec2f83b	0.3808001
68	0x3ce6dba9	0.028180914
69	0x3bc49461	0.0059991335
70	0xbe84f0bf	-0.25964925
71	0x3f8149e5	1.0100676
72	0x3e329042	0.17437842
73	0xbebccab2	-0.36873394
74	0x3e1ed302	0.1551018
75	0x3f18938a	0.59600127
76	0x3ddc1c63	0.10747602
77	0x3e37bb71	0.17942597
78	0x3e3f0f9d	0.186583
79	0x3f864453	1.0489601
80	0xbec8a61d	-0.39189234
81	0xbefc701c	-0.49304283
82	0x3e625d30	0.2210586
83	0x3f259242	0.64676297
84	0x3e112a9a	0.14176407
85	0xbe819adc	-0.2531346
86	0xbe9570fe	-0.2918777
87	0x3f745c19	0.9545303
88	0x3ea37342	0.31923872
89	0xbf714ba3	-0.9425604
90	0x3e123a67	0.14280091
91	0x3e7e5252	0.2483609
92	0xbf137b6e	-0.57610214
93	0xbe825d1f	-0.2546167
94	0xbe14cc1b	-0.14530985
95	0x3dead4ec	0.11466393
96	0x3e8483ad	0.2588171
97	0xbef976f2	-0.4872356
98	0xbdbdc739	-0.09266514
99	0x3ebb3c96	0.3656966
100	0xbeba9f7b	-0.364498
101	0xbe38ddb1	-0.18053319
102	0x3e5f241a	0.21791115
103	0x3f1822c6	0.5942806
104	0x3e2a9e13	0.16661863
105	0x3edd9c68	0.4328339
106	0x3f5ef11e	0.87086666
107	0xbd9234ee	-0.07139002
108	0x3e745e97	0.23864208
109	0x3e4dc956	0.20096335
110	0x3ecf9849	0.40545872
111	0x3f650f81	0.8947678
112	0x3df21b92	0.11821665
113	0xbede73f1	-0.4344783
114	0x3e463f34	0.19360048
115	0x3de37dc7	0.111079745
116	0xbe20ec01	-0.15715028
117	0xbda322c0	-0.079656124
118	0x3d8e9652	0.06962265
119	0x3ecfaee8	0.4056313
120	0x3e5937a7	0.21212636
121	0x3e4a7d6c	0.19774407
122	0x3f1a5e84	0.6030047
123	0xbe91a21d	-0.28443995
124	0x3e10ac08	0.14128125
125	0x3e9a4405	0.3013002
126	0x3eb56e61	0.35435775
127	0x3ede2990	0.43391085
128	0xbeb9cf37	-0.36290905
129	0xbec9b7bb	-0.39397988
130	0xbcab0510	-0.020876437
131	0x3e874e2e	0.26426834
132	0xbe3de1ea	-0.1854321
133	0xbdfd3434	-0.123634726
134	0xbed8477b	-0.42242035
135	0x3ecdff4e	0.40233845
136	0xbe0502f2	-0.12989405
137	0xbf41120c	-0.7541816
138	0x3dfcdbee	0.12346636
139	0x3ed8932f	0.42299792
140	0xbbea187a	-0.007144031
141	0xbcb2f9d6	-0.021847647
142	0xbe3e4b89	-0.18583502
143	0x3f6c8401	0.9238892
144	0x3cb76d64	0.022391029
145	0x3df553e1	0.11978889
146	0x3e1888e2	0.14895967
147	0x3edada7d	0.42744818
148	0x3e6e602d	0.23278876
149	0xbf111d95	-0.56685764
150	0x3eab894d	0.3350319
151	0x3eb48204	0.35255444
152	0x3c2969b9	0.010340148
153	0x3cc92664	0.024554439
154	0x3f3ffe24	0.7499716
155	0x3e0139fe	0.12619779
156	0x3e8ce79a	0.27520448
157	0x3ead01b3	0.3379036
158	0x3ed6d6f7	0.4196088
159	0x3f30a90c	0.69007945
160	0xbd940280	-0.07227039
161	0x3ef623e2	0.4807425
162	0x3eead1c1	0.45863155
163	0x3d7db661	0.06194151
164	0xbddd77b3	-0.108138464
165	0xbe1ec3db	-0.155044
166	0xbcba069a	-0.022708226
167	0x3eed0e3e	0.46299928
168	0x3e841ab5	0.25801626
169	0xbd5c73f1	-0.053821508
170	0x3e0a56bc	0.13509649
171	0x3e653587	0.223837
172	0x3e6a7b1f	0.2289853
173	0x3d6217e6	0.055198573
174	0xbf42f73f	-0.7615852
175	0x3e10298f	0.14078353
176	0x3c98f3e0	0.018670976
177	0x3e15c65b	0.14626448
178	0x3f3e29c8	0.74282503
179	0x3e6b3d92	0.22972706
180	0x3ebff14d	0.37488785
181	0x3f153ff2	0.583007
182	0x3e777869	0.24167027
183	0x3f38c70d	0.7217873
184	0x3e5e35a8	0.21700156
185	0x3e635ef5	0.22204192
186	0xbe53f0e7	-0.20697366
187	0x3f0feadc	0.5621774
188	0x3e807f81	0.25097278
189	0xbdfaf649	-0.122540064
190	0x3e4dfcb4	0.2011593
191	0x3f0e7c69	0.55658585
192	0xbe5c991f	-0.21542786
193	0x3e37120e	0.17877981
194	0x3ccbf7ba	0.024898399
195	0xbcdbb10e	-0.026817825
196	0xbed9bacb	-0.42525324
197	0xbede7c86	-0.4345438
198	0x3e53c8cb	0.20682065
199	0xbe1ace66	-0.15117797
200	0xbf15ad53	-0.58467597
201	0xbf2ec859	-0.68274456
202	0x3dea369f	0.114361994
203	0x3ea09866	0.3136627
204	0xbe85eedb	-0.26158795
205	0xbec94a16	-0.39314336
206	0xbede751b	-0.4344872
207	0x3ee11370	0.43960142
208	0xbdf37f94	-0.11889568
209	0xbe286fe7	-0.16448937
210	0x3eea5e95	0.45775285
211	0x3ecf64ae	0.405065
212	0x3f0b1be3	0.54339427
213	0x3ea582ca	0.32326347
214	0x3e6b3df5	0.22972853
215	0x3f1680ee	0.5879048
216	0xbe5d5562	-0.21614602
217	0x3dd48a85	0.10377983
218	0x3dce7b4f	0.10082113
219	0x3ed16f85	0.40905395
220	0x3ceb415d	0.028717691
221	0xbecd19ce	-0.4005875
222	0x3ea91dba	0.33030492
223	0x3d3ca915	0.046059687
224	0x3ef0195c	0.46894348
225	0xbd8f83e9	-0.07007582
226	0xbec1ca7b	-0.37849793
227	0xbd09aa6d	-0.033609796
228	0xbe548f66	-0.20757827
229	0xbf5606cd	-0.8360413
230	0xbedc571e	-0.43035215
231	0xbea853b6	-0.32876366
232	0x3e6179e2	0.22019151
233	0xbd9cafc4	-0.07650712
234	0x3eb37a06	0.35054034
235	0x3e576a4b	0.21036641
236	0x3e52f9d4	0.20603114
237	0xbdc1d1cd	-0.094638444
238	0xbf502ad5	-0.81315356
239	0xbcfaadde	-0.030600484
240	0xbec3a63d	-0.38212767
241	0xbe3138fb	-0.17306893
242	0x3e4a2cc3	0.19743638
243	0x3ea9c76b	0.33159956
244	0x3d7bcfb1	0.061477367
245	0xbe035067	-0.1282364
246	0xbec26a6e	-0.37971824
247	0x3ef197fd	0.4718627
248	0x3bb63c7a	0.0055614086
249	0x3e50d239	0.20392694
250	0xbe8d72fa	-0.27626783
251	0xbe48c851	-0.19607665
252	0xbda03ea2	-0.07824446
253	0xbf05e3c5	-0.52300674
254	0x3d047deb	0.032346647
255	0x3da68424	0.081306726

fc_layers.0.weight f4 [64, 16]
0	0xbf0a519c	-0.54030776
1	0x3e0c5bd5	0.13706906
2	0x3dd08d1b	0.10183164
3	0x3d947acb	0.072499834
4	0xbdea072e	-0.11427151
5	0xbd99c926	-0.07509069
6	0xbe8734dc	-0.26407516
7	0xbea9513d	-0.33069792
8	0x3db65854	0.08903566
9	0x3d0b0988	0.033944637
10	0xbbc88a0b	-0.0061199716
11	0xbe7ae0d1	-0.24499823
12	0xbe091e80	-0.13390541
13	0xbe6c9938	-0.23105323
14	0x3e84cd13	0.2593771
15	0x3dce44ab	0.10071691
16	0xbf2c7868	-0.67371225
17	0x3d885940	0.06657648
18	0x3cdaabcd	0.02669325
19	0x3d3c03d7	0.0459021
20	0xbe675bde	-0.22593638
21	0xbc162dd3	-0.009166199
22	0xbe8801ad	-0.2656378
23	0xbed05c71	-0.40695527
24	0x3d4120c5	0.047150392
25	0x3e616162	0.22009805
26	0x3e8d625a	0.276141
27	0xbd88d059	-0.06680364
28	0xbdaaa900	-0.083330154
29	0xbe0058bb	-0.12533848
30	0x3ce0be5d	0.027434522
31	0xbf11fb03	-0.5702364
32	0x3e773048	0.24139512
33	0x3e92d20c	0.28675878
34	0x3e65a28f	0.22425292
35	0xbbd14022	-0.006385819
36	0x3eaa7b27	0.33297083
37	0x3c082777	0.00831019
38	0x3e57415b	0.21021025
39	0x3e669bb6	0.22520337
40	0x3d859b66	0.065237805
41	0xbc84b782	-0.016200785
42	0xbced0477	-0.028932793
43	0xbdf2e386	-0.11859803
44	0xbd47a256	-0.0487388
45	0xbd70f560	-0.058827758
46	0x3e1380e2	0.14404634
47	0x3da4a6d6	0.08039634
48	0x3ef45301	0.47719577
49	0x3e4bcf3d	0.19903274
50	0x3e3657ea	0.17806974
51	0x3d8c4c23	0.068504594
52	0xbf8d4e77	-1.103957
53	0xbe41f4bf	-0.1894102
54	0xbdf533d3	-0.11972775
55	0x3b874883	0.004128517
56	0x3e0a7074	0.1351946
57	0x3e997035	0.2996842
58	0x3ec70683	0.38872156
59	0x3e0b2b32	0.13590696
60	0xbd946851	-0.07246459
61	0x3d890a9d	0.066914774
62	0xbe028d27	-0.12749158
63	0xbf3cba1c	-0.7372148
64	0x3e518b1f	0.20463227
65	0x3e9189ae	0.28425354
66	0x3e6cfdf5	0.23143752
67	0x3c53f97d	0.012937901
68	0x3ea1cd57	0.31601974
69	0xbb8b0cec	-0.0042434838
70	0x3e2bc9db	0.1677622
71	0x3e5b463b	0.2141351
72	0x3dc7072b	0.09718164
73	0x3ccdd886	0.02512766
74	0x3bb77d66	0.0055996655
75	0xbe17213d	-0.14758773
76	0xbdae4dc5	-0.08510927
77	0xbddbbbcd	-0.107291795
78	0x3e2d9e9a	0.16955033
79	0x3d6548ef	0.055977758
80	0x3e0aac98	0.13542402
81	0x3e20007c	0.15625185
82	0x3e08e5fb	0.1336898
83	0x3d8b1631	0.06791342
84	0xbf518b0c	-0.81852794
85	0xbde2d519	-0.110758014
86	0xbe32737e	-0.1742687
87	0xbe2ffa89	-0.17185415
88	0x3d677f01	0.056517605
89	0x3e84094c	0.25788343
90	0x3eab9805	0.3351442
91	0x3de8f6e0	0.11375213
92	0xbd15d23d	-0.036577452
93	0x3cb23c46	0.021757256
94	0xbe2335d2	-0.159385
95	0xbf3b237d	-0.73101026
96	0x838d7222	-8.313439e-37
97	0x042cc85e	2.0310507e-36
98	0x042c9fc1	2.0291858e-36
99	0x0462cdaf	2.6660618e-36
100	0x02afe624	2.5846033e-37
101	0x84820092	-3.0563377e-36
102	0x8387550e	-7.9541145e-37
103	0x82f7ff94	-3.6440083e-37
104	0x834f873e	-6.0987083e-37
105	0x03dfeeec	1.3161616e-36
106	0x04266ba8	1.956264e-36
107	0x04077d46	1.5926696e-36
108	0x02d6a190	3.1537206e-37
109	0x03b79326	1.0789557e-36
110	0x8414c827	-1.7489222e-36
111	0x84c94cfd	-4.7325575e-36
112	0x3ccc7f13	0.024962937
113	0x3ba2bbf6	0.0049662543
114	0x3bae9ef6	0.005329008
115	0x37d1f5c7	2.502919e-05
116	0x3d1a3dbe	0.03765654
117	0x3bdf9571	0.0068232347
118	0x3d059246	0.0326102
119	0x3ceb0a4c	0.028691433
120	0xbc16dc40	-0.009207785
121	0xbc19139c	-0.009343054
122	0xbb7d4dc8	-0.0038651098
123	0x3c9691b2	0.01838002
124	0x3c349a42	0.011023106
125	0x3c4efbc6	0.01263327
126	0xbcaa219e	-0.020767983
127	0xbbe4627f	-0.0069697495
128	0x88d424b9	-1.2767919e-33
129	0x06d151be	7.873717e-35
130	0x06e76dc5	8.7053834e-35
131	0x08108619	4.3491055e-34
132	0x889793a6	-9.122694e-34
133	0x885a5b96	-6.5709647e-34
134	0x88aaa6b0	-1.0270691e-33
135	0x88b5bc44	-1.0937802e-33
136	0x0947f3c4	2.4068372e-33
137	0x094d58b0	2.4717678e-33
138	0x094d463b	2.4709e-33
139	0x892f6c90	-2.1115905e-33
140	0x8942eb50	-2.3462544e-33
141	0x89462eb0	-2.3855335e-33
142	0x093d5326	2.2789144e-33
143	0x89568144	-2.5820093e-33
144	0xbe8bcbff	-0.27304074
145	0x3da63265	0.08115081
146	0x3d42c19a	0.047547914
147	0x3d537f40	0.051635027
148	0xbf37ea88	-0.7184224
149	0xbd67aafa	-0.05655954
150	0xbe8bc7a5	-0.27300754
151	0xbeace0d5	-0.33765283
152	0x3c646a82	0.013941409
153	0x3e818167	0.2529404
154	0x3ea28ce0	0.31748104
155	0x3ddb3d40	0.10705042
156	0xbcb8deb2	-0.022567127
157	0x3c598fda	0.013278926
158	0xbe227e42	-0.15868476
159	0xbf41e92c	-0.7574642
160	0x3e9009ca	0.28132468
161	0x3d7c49d7	0.061593857
162	0x3d44e5b6	0.048070632
163	0xbd2f7db4	-0.04284449
164	0xbf925486	-1.1432045
165	0xbdc22fd0	-0.09481776
166	0xbe84aee0	-0.2591467
167	0xbe08e4fe	-0.13368604
168	0x3dea5ea8	0.114438355
169	0x3e94bc5f	0.29049966
170	0x3ec96d07	0.39340994
171	0x3e43b382	0.19111446
172	0xbd120673	-0.03565068
173	0x3deac07c	0.11462495
174	0xbe234ad4	-0.15946513
175	0xbf41f1ba	-0.7575947
176	0xbe03ab03	-0.12858205
177	0x3eac4952	0.3364969
178	0x3e98dc23	0.2985545
179	0x3e204e31	0.15654828
180	0x3e981013	0.29699764
181	0xbe11cc70	-0.14238143
182	0x3d61fd30	0.0551731
183	0x3d4f61b7	0.050630298
184	0x3dd749d6	0.1051213
185	0x3d6a4851	0.057197873
186	0x3cc65a2f	0.024212925
187	0xbe43df67	-0.1912819
188	0xbdc8a282	-0.09796621
189	0xbe12d387	-0.14338504
190	0x3e4fc3ba	0.20289508
191	0x3d3a8059	0.045532558
192	0xbebf02eb	-0.37306914
193	0x3e823313	0.25429592
194	0x3e495267	0.1966034
195	0x3e1f78db	0.15573446
196	0xbd839417	-0.0642473
197	0xbe0b9cee	-0.13634083
198	0xbe6af5e3	-0.22945361
199	0xbe7893d6	-0.24275145
200	0x3ddb38a9	0.107041664
201	0x3cd5f8f7	0.026119692
202	0xbc96187f	-0.018322228
203	0xbe892ba5	-0.2679111
204	0xbe124f29	-0.1428801
205	0xbe6c2862	-0.2306228
206	0x3e929bf3	0.28634605
207	0x3e5d82e2	0.21631959
208	0x01074046	2.4841698e-38
209	0x0301c630	3.81372e-37
210	0x0301427e	3.798602e-37
211	0x02a7413b	2.4575885e-37
212	0x031b5ba7	4.565562e-37
213	0x829c520b	-2.296923e-37
214	0x02d69e3f	3.1535303e-37
215	0x02a7c3a1	2.465073e-37
216	0x02698648	1.7156673e-37
217	0x02eba75a	3.4626202e-37
218	0x02d889c9	3.1817432e-37
219	0x828fd2cb	-2.113295e-37
220	0x827e661a	-1.8690275e-37
221	0x82ad0e0f	-2.5428135e-37
222	0x02932345	2.1619952e-37
223	0x82ecc3cc	-3.4789465e-37
224	0xbf1d7989	-0.6151357
225	0xbd85a2bb	-0.06525179
226	0xbd9f21aa	-0.07770093
227	0xbd5376ff	-0.051627155
228	0xbf121186	-0.5705799
229	0x3ce64c2e	0.028112497
230	0xbea8d48e	-0.32974666
231	0xbeea7857	-0.45794937
232	0x3d0b5b63	0.0340227
233	0x3e87982a	0.2648328
234	0x3ea9ba1d	0.33149806
235	0x3c7e01b8	0.0155033395
236	0xbd797729	-0.060904656
237	0xbd64d313	-0.05586536
238	0xbd81f76a	-0.063460186
239	0xbf3db6f9	-0.7410732
240	0xbde4f601	-0.11179734
241	0x3dfdb5bc	0.12388179
242	0x3dd09d52	0.101862565
243	0x3d9674df	0.0734651
244	0xbf421665	-0.7581542
245	0xbdc6e593	-0.097117566
246	0xbe80bc38	-0.251436
247	0xbe8b194c	-0.27167737
248	0x3d2eceb1	0.042677585
249	0x3e8bed3a	0.27329427
250	0x3e9f8d21	0.3116236
251	0x3da01a9d	0.07817576
252	0xbd3a7d26	-0.045529507
253	0xbb41ed8e	-0.0029591057
254	0xbdf5446f	-0.11975943
255	0xbf3cc3be	-0.7373618

fc_layers.0.bias f4 [64]
0	0x3e967a10	0.2939
1	0x3e0da622	0.13832906
2	0x3eb5e69f	0.35527512
3	0xbe842204	-0.25807202
4	0x3eb288cc	0.34869993
5	0xbe340b9c	-0.17582554
6	0x858070e0	-1.2078526e-35
7	0xbd3aea71	-0.045633737
8	0x8ae9bb52	-2.2507546e-32
9	0xbd48ea2a	-0.04905144
10	0xbeabbf38	-0.33544326
11	0x3ea65821	0.32489112
12	0x3ea847dc	0.32867324
13	0x84a9af79	-3.9892855e-36
14	0x3d13dde3	0.03610028
15	0xbdd60a6a	-0.10451205
16	0x95fa417d	-1.0107752e-25
17	0x3e8f8216	0.28028935
18	0x8d21b5e1	-4.9830884e-31
19	0x8b53af5d	-4.076905e-32
20	0x8fc244f9	-1.9156444e-29
21	0x8bb06ed9	-6.795952e-32
22	0x3e9682a6	0.29396552
23	0x3eb7fbb1	0.35934213
24	0x88bbd336	-1.1304309e-33
25	0x3ec09015	0.37609926
26	0x3ea1087b	0.31451783
27	0x3ebd4670	0.36967802
28	0x82b11990	-2.6022485e-37
29	0x8d4a6458	-6.236684e-31
30	0x3eb991b8	0.36243987
31	0xbe5eaa8b	-0.21744744
32	0x82601f47	-1.6465897e-37
33	0x3ebc148b	0.36734423
34	0x926cc87a	-7.4715576e-28
35	0x3ebe222a	0.3713544
36	0x3e072af5	0.1319998
37	0x97e20211	-1.4605429e-24
38	0x8c102d0a	-1.110691e-31
39	0x8381f19f	-7.637412e-37
40	0xbcfb7169	-0.030693727
41	0x3eb8fd2b	0.36130652
42	0x928919bc	-8.65226e-28
43	0x3ebc4f42	0.3677922
44	0x3eb837e7	0.3598015
45	0x3ebaaf6f	0.3646197
46	0x85dc0a67	-2.0692522e-35
47	0x8de18f1c	-1.3901148e-30
48	0xbe04dc2c	-0.12974614
49	0xb1c6d462	-5.7867036e-09
50	0x9d67af51	-3.0663232e-21
51	0x83262f9b	-4.8837664e-37
52	0x93896a9c	-3.4688787e-27
53	0x93f2cf15	-6.1293587e-27
54	0x918143c5	-2.0394378e-28
55	0x85ce20fa	-1.938426e-35
56	0x3ea677f5	0.32513395
57	0x8e5bdac6	-2.709917e-30
58	0x8e03b642	-1.623475e-30
59	0xbd045e85	-0.032316703
60	0x86f55e3c	-9.229722e-35
61	0x3ebbb6d1	0.36662915
62	0x83dab431	-1.2854258e-36
63	0x3eb07c1d	0.3446969

fc_layers.1.weight f4 [32, 64]
0	0x3e52a4ee	0.20570728
1	0x3e6ef8c7	0.23337089
2	0x3e34e614	0.17665893
3	0x3f22cee4	0.6359694
4	0x3e1b0af1	0.15140893
5	0x3e907cb9	0.28220156
6	0x8433fec4	-2.1158332e-36
7	0x3a0e5e99	0.0005430966
8	0x8959b43d	-2.6205173e-33
9	0x3e728c32	0.23686293
10	0x3f4c86bd	0.79893094
11	0x3e51d687	0.20491992
12	0x3e514f3f	0.20440386
13	0x041ed0d2	1.8668696e-36
14	0x3e86c550	0.26322412
15	0x3e7991d0	0.2437203
16	0x15b156a9	7.1626456e-26
17	0x3e5f9a3e	0.21836182
18	0x8bb667c7	-7.0259997e-32
19	0x8a2660b2	-8.010796e-33
20	0x8e866e4d	-3.3139766e-30
21	0x8a33ab2e	-8.650732e-33
22	0x3e4b484a	0.19851795
23	0x3e4621d0	0.19348836
24	0x87d4eca9	-3.203731e-34
25	0x3e1f4c27	0.15556394
26	0x3e59e772	0.21279696
27	0x3e298a9e	0.16556785
28	0x82819ba8	-1.9044189e-37
29	0x8a21c9c5	-7.789817e-33
30	0x3e3748ff	0.1789894
31	0x3eeb4e65	0.45958248
32	0x02b9e516	2.7314796e-37
33	0x3e38af76	0.18035683
34	0x916fdb5c	-1.8921371e-28
35	0x3e1f6c11	0.15568568
36	0x3e68d7f9	0.22738637
37	0x12422215	6.1257616e-28
38	0x8abfb2fd	-1.8459959e-32
39	0x8319fcf2	-4.5253026e-37
40	0xbc0294a7	-0.007970012
41	0x3e2884fc	0.1645698
42	0x0fa95db9	1.6700787e-29
43	0x3e2272ee	0.15864155
44	0x3e1d3b99	0.15354766
45	0x3e1cdce9	0.15318646
46	0x836b0e26	-6.9076535e-37
47	0x8b84ec22	-5.1199844e-32
48	0xbe861fa0	-0.26196003
49	0x30778660	9.0049035e-10
50	0x9a6bc255	-4.875384e-23
51	0x00fd72c0	2.3275545e-38
52	0x11cc0b90	3.219265e-28
53	0x1329b982	2.1422261e-27
54	0x911a9bc6	-1.2196459e-28
55	0x01bbc108	6.896994e-38
56	0x3e60ad1b	0.21941034
57	0x8ce46a31	-3.5192874e-31
58	0x8c676b5d	-1.7827901e-31
59	0xbc82d58a	-0.015970964
60	0x852ab84f	-8.027214e-36
61	0x3e2adee7	0.16686593
62	0x825af080	-1.6085131e-37
63	0x3e3307aa	0.17483392
64	0x3e68ccec	0.22734421
65	0x3e7cc31f	0.24683808
66	0x3e412bf3	0.18864422
67	0x3f2473f3	0.64239424
68	0x3e2ab222	0.16669515
69	0x3e986f98	0.2977264
70	0x843be7e9	-2.2088232e-36
71	0xb9fd1299	-0.00048269777
72	0x89606131	-2.7008718e-33
73	0x3e8891f2	0.26673847
74	0x3f4c7b1f	0.7987537
75	0x3e5a39f9	0.21311177
76	0x3e738719	0.23782004
77	0x0424f057	1.9388466e-36
78	0x3e7d8db6	0.2476109
79	0x3e7d8e06	0.24761209
80	0x15b63b5e	7.360288e-26
81	0x3e7c2075	0.24621756
82	0x8b9e55f6	-6.0988726e-32
83	0x8a21140b	-7.755638e-33
84	0x8e8855a6	-3.3609065e-30
85	0x8a39161c	-8.911584e-33
86	0x3e549e57	0.20763527
87	0x3e42f949	0.19040407
88	0x87d3a735	-3.1846027e-34
89	0x3e3d19d1	0.1846688
90	0x3e76945a	0.24080029
91	0x3e3706d0	0.17873693
92	0x827c2544	-1.8524731e-37
93	0x891bfb24	-1.8775532e-33
94	0x3e3b1c66	0.18272552
95	0x3ef00ca8	0.46884656
96	0x02b8206e	2.7054984e-37
97	0x3e40fb61	0.18845893
98	0x9176d135	-1.9470445e-28
99	0x3e2a3a8f	0.16623901
100	0x3e80e259	0.2517269
101	0x13ee2066	6.0111594e-27
102	0x8a9d6f18	-1.5160339e-32
103	0x831bc8e3	-4.5781013e-37
104	0xbbfe8bf3	-0.007768148
105	0x3e3a58bd	0.18197913
106	0x0fae94d8	1.7215057e-29
107	0x3e44a77d	0.19204517
108	0x3e201439	0.15632714
109	0x3e2b7558	0.16743982
110	0x835eeba0	-6.551042e-37
111	0x8b913103	-5.5925713e-32
112	0xbe89629a	-0.2683304
113	0x3079277b	9.064178e-10
114	0x9a7a76e7	-5.1794837e-23
115	0x010bf350	2.5704836e-38
116	0x11a6b471	2.6301388e-28
117	0x1318c520	1.9282287e-27
118	0x911ca11b	-1.2355875e-28
119	0x02d086e2	3.0640272e-37
120	0x3e6b6526	0.22987804
121	0x8cea2e2c	-3.6081197e-31
122	0x8c66f784	-1.779304e-31
123	0xbc4ed230	-0.012623355
124	0x8526f4e6	-7.850263e-36
125	0x3e4dada9	0.20085777
126	0x82645f64	-1.677817e-37
127	0x3e44900b	0.19195573
128	0x84b69ab1	-4.2930056e-36
129	0x8488838a	-3.2094246e-36
130	0x8365aaec	-6.749326e-37
131	0x83fcffaf	-1.4869931e-36
132	0x8388ca86	-8.039859e-37
133	0x8426b9db	-1.9598547e-36
134	0x8185d723	-4.916519e-38
135	0x818a47d8	-5.0796285e-38
136	0x8185d922	-4.9168054e-38
137	0x8481b697	-3.0495437e-36
138	0x83e117ac	-1.3229746e-36
139	0x8439b159	-2.182808e-36
140	0x84cce588	-4.817096e-36
141	0x8185bc7f	-4.912696e-38
142	0x8477e476	-2.9139615e-36
143	0x846b406f	-2.7653704e-36
144	0x01858973	4.9053714e-38
145	0x84b00027	-4.137754e-36
146	0x81858664	-4.9049325e-38
147	0x01859c5e	4.908086e-38
148	0x0185cc4e	4.9149647e-38
149	0x8185b185	-4.911121e-38
150	0x84bd2b18	-4.4473262e-36
151	0x83803ecd	-7.537582e-37
152	0x0185877d	4.90509e-38
153	0x83d2dfbb	-1.2394057e-36
154	0x84b48e30	-4.2448375e-36
155	0x839de9bc	-9.281293e-37
156	0x8185d74a	-4.916541e-38
157	0x0185b178	4.911114e-38
158	0x83868734	-7.906853e-37
159	0x843739ea	-2.153814e-36
160	0x0185a023	4.908627e-38
161	0x83ab179c	-1.0055897e-36
162	0x8185d3bd	-4.9160313e-38
163	0x83a711f6	-9.8195015e-37
164	0x8456c24a	-2.5244792e-36
165	0x01859aeb	4.907878e-38
166	0x8185d103	-4.91564e-38
167	0x81858717	-4.905033e-38
168	0x8185c142	-4.9133795e-38
169	0x8398ef3a	-8.988681e-37
170	0x018584ea	4.9047206e-38
171	0x83ad2d67	-1.017845e-36
172	0x83d92227	-1.2761955e-36
173	0x83a154a6	-9.482164e-37
174	0x01859305	4.9067447e-38
175	0x8185d1e6	-4.9157673e-38
176	0x03194927	4.5046634e-37
177	0x8185deec	-4.917636e-38
178	0x8185a1be	-4.908857e-38
179	0x0185a29a	4.9089806e-38
180	0x81858878	-4.9052307e-38
181	0x0185a8d8	4.9098763e-38
182	0x0185a2c7	4.909006e-38
183	0x8185c2b4	-4.913587e-38
184	0x8436c4cd	-2.1484364e-36
185	0x8185d87c	-4.9167124e-38
186	0x8185b5d9	-4.911742e-38
187	0x01858e35	4.906054e-38
188	0x01858831	4.905191e-38
189	0x83b056c9	-1.0364275e-36
190	0x8185d243	-4.9158195e-38
191	0x8346459c	-5.826688e-37
192	0x8185d25b	-4.915833e-38
193	0x81859347	-4.9067817e-38
194	0x818b8a14	-5.125867e-38
195	0x81858458	-4.904639e-38
196	0x8186b70d	-4.948649e-38
197	0x8185962f	-4.9071987e-38
198	0x0185b916	4.912207e-38
199	0x01858ef4	4.906161e-38
200	0x0185a563	4.90938e-38
201	0x8185d14a	-4.91568e-38
202	0x8185c53b	-4.9139496e-38
203	0x8185995f	-4.907656e-38
204	0x8185e22e	-4.9181036e-38
205	0x0185a80f	4.9097636e-38
206	0x81859f91	-4.908545e-38
207	0x81858c10	-4.9057464e-38
208	0x8185d604	-4.916358e-38
209	0x8185bc69	-4.912684e-38
210	0x0185d165	4.915695e-38
211	0x0185df9e	4.917736e-38
212	0x8185a08e	-4.908687e-38
213	0x81859152	-4.906501e-38
214	0x819729c0	-5.552855e-38
215	0x818b49c6	-5.1166396e-38
216	0x8185d1f9	-4.915778e-38
217	0x8187d765	-4.9900244e-38
218	0x8185bf7e	-4.913126e-38
219	0x8189a1be	-5.055794e-38
220	0x0185996f	4.907665e-38
221	0x018584e5	4.904718e-38
222	0x818b7f3c	-5.124311e-38
223	0x8185df2d	-4.9176725e-38
224	0x0185a3ba	4.909142e-38
225	0x818b97f0	-5.1278555e-38
226	0x0185967f	4.9072435e-38
227	0x81870716	-4.9601336e-38
228	0x81859e6a	-4.9083797e-38
229	0x01858a19	4.9054644e-38
230	0x8185c0ae	-4.9132966e-38
231	0x8185d3df	-4.9160504e-38
232	0x8185daab	-4.9170257e-38
233	0x818970a2	-5.048747e-38
234	0x0185d979	4.916854e-38
235	0x8187e0a9	-4.991354e-38
236	0x8185cfed	-4.9154843e-38
237	0x8188173d	-4.9991855e-38
238	0x81858936	-4.905337e-38
239	0x0185cd45	4.915103e-38
240	0x0185cb0d	4.914785e-38
241	0x0185c9ea	4.9146216e-38
242	0x8185bbd0	-4.912598e-38
243	0x8185c92b	-4.9145146e-38
244	0x0185aa1e	4.910059e-38
245	0x0185c0f9	4.9133386e-38
246	0x8185beae	-4.9130096e-38
247	0x0185ca3f	4.9146693e-38
248	0x8185d67d	-4.916426e-38
249	0x8185dd57	-4.917409e-38
250	0x81858bb0	-4.9056926e-38
251	0x0185d8bf	4.91675e-38
252	0x8185cb8f	-4.9148576e-38
253	0x818b4e3f	-5.1172814e-38
254	0x8185975c	-4.9073674e-38
255	0x818dbd4c	-5.206685e-38

fc_layers.1.bias f4 [32]
0	0x3be57739	0.007002738
1	0x3d55d92d	0.052209068
2	0x84f6541e	-5.791157e-36
3	0x81859ea7	-4.908414e-38
4	0x3bb4d6be	0.0055187633
5	0x8185deb4	-4.917605e-38
6	0x8185a475	-4.909247e-38
7	0x8185c5d2	-4.914034e-38
8	0x3d9e0baa	0.077170685
9	0x8185a52e	-4.9093505e-38
10	0x86552170	-4.0085413e-35
11	0x87209983	-1.2082175e-34
12	0x8185a64f	-4.9095125e-38
13	0x81858873	-4.905228e-38
14	0x81859c65	-4.90809e-38
15	0x8185c8db	-4.91447e-38
16	0x3baf3699	0.0053470847
17	0x8185be42	-4.912949e-38
18	0x3cea6ee3	0.028617328
19	0x8187afe2	-4.984355e-38
20	0x8185aa98	-4.9101274e-38
21	0x8185c7ec	-4.914336e-38
22	0x8c527c67	-1.6215248e-31
23	0x84c13c87	-4.5429668e-36
24	0x8185a9d8	-4.91002e-38
25	0x850adf18	-6.529705e-36
26	0x3e88ed57	0.26743576
27	0x81ab766c	-6.2985406e-38
28	0x81a357c6	-6.000269e-38
29	0x3d75470a	0.0598822
30	0x850fe821	-6.766463e-36
31	0x812e4186	-3.2005763e-38
