checkpoints/neumf_first_try_Epoch19_HR0.6829_NDCG0.4049.model (torch, 645108 bytes, 13 tensors)

embedding_user_mlp.weight f4 [6040, 8]
0	0xbd3e834b	-0.04651193
1	0x3f0eac05	0.5573123
2	0x3f28da49	0.65958077
3	0x3e813db2	0.25242382
4	0xbec1945f	-0.3780851
5	0xbec6344d	-0.38711777
6	0xbdd2295e	-0.102617964
7	0xbf067519	-0.52522427
8	0xbe173830	-0.14767528
9	0x3e2f7ab9	0.17136659
10	0x3e97ed0c	0.2967304
11	0x3d8d12aa	0.068883255
12	0x3e4a2cbc	0.19743627
13	0x3d40bf84	0.047057644
14	0x3eaae267	0.33375856
15	0x3e5f1298	0.21784437
16	0xbe2a6e1e	-0.16643569
17	0x3e726a75	0.23673423
18	0x3f25727e	0.64627826
19	0x3daccf4e	0.08437978
20	0x3dc81825	0.0977023
21	0xbf575e3f	-0.84128183
22	0xbeae24a1	-0.3401232
23	0xbd57d87a	-0.052696683
24	0x3aea9e51	0.0017899965
25	0x3f50991a	0.81483614
26	0x3f572970	0.84047604
27	0x3ed19ca8	0.40939832
28	0xbf22e947	-0.636372
29	0xbf257086	-0.6462482
30	0xbe29b166	-0.16571578
31	0xbee2c083	-0.442875
32	0xbef008e1	-0.46881774
33	0x3d8c5efc	0.06854054
34	0xbd836607	-0.064159445
35	0x3d784c6e	0.060619764
36	0xbef5c8b1	-0.48004678
37	0xbdf5a88a	-0.11995037
38	0xbf2ebf94	-0.68261075
39	0xbede3fd6	-0.43408078
40	0xbdd1ab63	-0.102377675
41	0x3e1920ae	0.14953873
42	0x3ec93d7c	0.3930472
43	0x3e2fcf4d	0.17168923
44	0xbe9238c6	-0.2855894
45	0xbed104ff	-0.40824124
46	0xbf104b93	-0.5636532
47	0xbe8d06c4	-0.27544224
48	0xbe4e2e32	-0.2013481
49	0x3f2e5288	0.6809468
50	0x3f01b887	0.5067219
51	0x3f4ddb4f	0.80412763
52	0xbe8e58de	-0.27802175
53	0xbf21e9a9	-0.6324716
54	0xbecb89a1	-0.3975344
55	0xbeec52fe	-0.46157068
56	0x3d8f9bd5	0.070121445
57	0x3ddaf400	0.106910706
58	0x3ed35812	0.4127813
59	0x3e8838e5	0.26605907
60	0x3f263574	0.64925313
61	0xbed34b6a	-0.41268474
62	0x3ee26306	0.44216174
63	0x3e22dd78	0.15904796
64	0xbe0bd16c	-0.13654107
65	0x3ed7b603	0.4213105
66	0x3f02e8b4	0.51136327
67	0x3edf630b	0.4363025
68	0xbe9e0ee7	-0.30870745
69	0xbeca553f	-0.39518163
70	0xbec3085b	-0.38092312
71	0xbed25f4e	-0.41088337
72	0xbe0f08c8	-0.13968194
73	0xbe0722f4	-0.13196927
74	0x3c25abc9	0.010111758
75	0xbd0d0142	-0.034425028
76	0xbe638551	-0.22218825
77	0x3dce39cb	0.10069617
78	0x3e8730b9	0.2640436
79	0x3df0b1f6	0.11752693
80	0x3e8a93b5	0.27065817
81	0x3d058cd5	0.03260501
82	0x3e52db3f	0.20591448
83	0x3ee1f4a4	0.44131958
84	0xbd59a5d2	-0.053136654
85	0xbe82cb34	-0.25545657
86	0x3e868375	0.2627217
87	0x3d70727e	0.05870294
88	0xbdcd5940	-0.10026789
89	0x3c27f079	0.010250204
90	0x3ccdc825	0.02511985
91	0x3ec89848	0.3917868
92	0x3e9b9a6e	0.30391258
93	0xbcb8df9c	-0.022567563
94	0xbdaff738	-0.08592075
95	0x3aaf8a41	0.0013392643
96	0x3e2825c0	0.1642065
97	0x3e5dd37d	0.21662708
98	0x3ef4a829	0.47784546
99	0xbcd4b282	-0.025964025
100	0x3ded0029	0.11572296
101	0xbdd4cc68	-0.1039055
102	0x3e67d671	0.22640397
103	0x3dae3596	0.085063145
104	0xbee0e6c8	-0.43926072
105	0xbdf39154	-0.118929535
106	0xbde5cad5	-0.11220328
107	0x3e9f43db	0.31106457
108	0xbf201f68	-0.6254792
109	0xbe315eb8	-0.17321289
110	0xbe7ce7fe	-0.24697873
111	0xbebfe624	-0.3748027
112	0xbe5f0c75	-0.21782096
113	0x3e3810f0	0.17975211
114	0x3df4bd96	0.11950223
115	0x3e150a0b	0.14554612
116	0xbec8b8e2	-0.39203554
117	0xbeee7012	-0.46569878
118	0x3e453c1a	0.19261208
119	0x3db986b8	0.09058899
120	0xbed6ce9b	-0.41954502
121	0xbd9ba64e	-0.076000795
122	0xbead25d1	-0.33817914
123	0x3eaf254e	0.3420815
124	0xbf6ef857	-0.93347687
125	0xbe8ac3ae	-0.27102417
126	0xbf5f2b61	-0.87175566
127	0xbf19534a	-0.59892714
128	0xbccb378a	-0.024806757
129	0xbe1c00c2	-0.15234664
130	0xbda0b027	-0.078460984
131	0x3e83b9b7	0.25727627
132	0xbefc5510	-0.49283648
133	0xbe4ac693	-0.19802313
134	0xbe97d0a2	-0.29651362
135	0xbe7722f3	-0.24134426
136	0x3e952a06	0.29133624
137	0xbe76dace	-0.24106905
138	0x3d886a2a	0.06660874
139	0xbe7b60e3	-0.24548678
140	0x3e92b2e2	0.28652102
141	0x3e4c5220	0.19953203
142	0x3f1f2697	0.6216826
143	0xbde20626	-0.11036329
144	0xbe7d2a8c	-0.24723262
145	0x3e4d2257	0.20032631
146	0xbdfc05a7	-0.123057656
147	0xbebcc715	-0.36870638
148	0xbf14e121	-0.5815602
149	0x3e53a862	0.20669702
150	0xbdaf6d8a	-0.08565815
151	0xbe7e91b0	-0.24860263
152	0x3e0a167a	0.13485137
153	0x3ee9f0ce	0.45691532
154	0x3ef4a974	0.47785532
155	0x3e0e313c	0.13885969
156	0xbeaf4e3d	-0.3423938
157	0xbe20b8cb	-0.15695493
158	0xbe8b0d49	-0.27158573
159	0x3da60573	0.08106508
160	0xbf24fa07	-0.6444401
161	0x3c6dc5e2	0.014512511
162	0x3e496192	0.19666126
163	0x3e10f6a3	0.14156584
164	0xbd87cd04	-0.066309005
165	0xbbf163b9	-0.007366624
166	0xbe793080	-0.24334908
167	0xbe41f9fc	-0.18943018
168	0x3e58d6ab	0.2117564
169	0x3d20f15f	0.03929269
170	0xbdd48608	-0.10377127
171	0x3d8f95fc	0.07011029
172	0x3e46ea00	0.19425201
173	0x3e394084	0.18091017
174	0xbde9430c	-0.11389741
175	0x3e5c528b	0.21515863
176	0x3da355a3	0.07975318
177	0xbdb83e38	-0.08996242
178	0xbe6fbcb6	-0.23411831
179	0x3e05737f	0.1303234
180	0xbe9e4398	-0.30910945
181	0xbd9d8323	-0.07691028
182	0xbede43f8	-0.4341123
183	0xbd407f95	-0.04699667
184	0xbec5446b	-0.3852876
185	0x3d2ae6d7	0.041724052
186	0x3d159eff	0.036528584
187	0xbd87ce65	-0.066311635
188	0xbe0ccf60	-0.13750982
189	0xbe1756fc	-0.14779276
190	0xbe5eed89	-0.217703
191	0xbde1315e	-0.10995744
192	0xbef91629	-0.4864972
193	0xbd808fd4	-0.06277433
194	0x3c028387	0.007965929
195	0x3e9f5a7f	0.3112373
196	0xbeaa0ac5	-0.33211342
197	0xbac66848	-0.0015137279
198	0xbe39b7e9	-0.18136562
199	0xbf480420	-0.78131294
200	0x3efb91cd	0.49134675
201	0x3d0d247b	0.03445862
202	0xbe057392	-0.13032368
203	0x3c7477ba	0.014921123
204	0x3e88e570	0.26737547
205	0x3df1c608	0.118053496
206	0xbda49bbe	-0.08037518
207	0x3eeeb97a	0.46625882
208	0x3d27759a	0.040883638
209	0x3ea712f3	0.32631645
210	0x3df0b748	0.11753708
211	0x3ec350b5	0.38147512
212	0xbf14153b	-0.57844895
213	0xbe93822b	-0.28810248
214	0xbeb475bc	-0.35246074
215	0x3e859ded	0.2609705
216	0x3dfe821f	0.124271624
217	0xbd1e5b2d	-0.03866117
218	0xbc4e48f6	-0.012590637
219	0x3ecbf762	0.39837176
220	0xbef90442	-0.4863606
221	0xbe8e9364	-0.27846825
222	0xbea02eb4	-0.31285632
223	0xbe76a6d5	-0.24087079
224	0xbe065bf8	-0.13121021
225	0x3f28334a	0.6570326
226	0x3f435265	0.762976
227	0x3e6e6aa6	0.2328287
228	0x3e240d7e	0.16020772
229	0x3e543d3f	0.20726489
230	0x3e8d180b	0.27557406
231	0xbe7982a3	-0.2436624
232	0xbd554add	-0.05207335
233	0x3e44cde3	0.19219165
234	0x3f066898	0.5250335
235	0x3e76cd1f	0.24101685
236	0xbebf980c	-0.3742069
237	0xbedbe904	-0.42951214
238	0xbe8bb38e	-0.27285427
239	0xbf205e7e	-0.62644184
240	0xbd48d1ad	-0.049028087
241	0x3e6a0024	0.22851616
242	0x3d7bc65f	0.06146848
243	0x3f02a856	0.5103811
244	0xbe86ab0e	-0.2630238
245	0xbf128719	-0.5723739
246	0xbf4d8b28	-0.8029046
247	0x3d86d30a	0.06583221
248	0x3d2717a9	0.04079405
249	0x3db266bd	0.08711002
250	0x3d07476b	0.033027094
251	0x3e8b2d91	0.27183202
252	0xbf232720	-0.63731575
253	0xbe0b6eae	-0.1361644
254	0xbd23d615	-0.039999086
255	0xbe7b4564	-0.24538189

embedding_item_mlp.weight f4 [3706, 8]
0	0xbf87029c	-1.0547671
1	0xbf901dac	-1.1259055
2	0xbecc9655	-0.39958444
3	0x3f89d6da	1.0768692
4	0x3fb7ac89	1.4349529
5	0x3f818ab9	1.012046
6	0xbf62e2be	-0.8862723
7	0x3e2f517b	0.17120926
8	0xbf2c50a6	-0.6731056
9	0xbe96b70e	-0.29436535
10	0xbe260e8d	-0.16216488
11	0xbd8a4546	-0.06751494
12	0x3d967e3a	0.073482946
13	0xbe52b4f5	-0.20576842
14	0xbe20dba5	-0.15708788
15	0x3eb0536b	0.34438643
16	0xbe6e77c5	-0.23287876
17	0xbd25b30f	-0.040453967
18	0xbe9a93bb	-0.30190834
19	0x3e578ba4	0.21049362
20	0x3e6558e7	0.22397195
21	0x3e85a88a	0.26105148
22	0xbe283249	-0.16425432
23	0x3e46bb3a	0.19407359
24	0xbf36e0ac	-0.7143657
25	0xbf234dfc	-0.6379087
26	0xbf140dda	-0.57833636
27	0x3f12f19f	0.57399935
28	0x3e90f959	0.28315237
29	0x3f8db9b6	1.10723
30	0xbf33fe3f	-0.70309824
31	0x3f2d0047	0.6757855
32	0xbeff55f0	-0.49870253
33	0xbfa1109f	-1.2583197
34	0xbf55a04d	-0.83447725
35	0x3f0ff166	0.5622772
36	0x3ee72ff4	0.45153773
37	0x3f0fbbb2	0.56145775
38	0xbeadd932	-0.3395477
39	0x3f6097a9	0.87731415
40	0xbf43c5fd	-0.7647398
41	0xbf495e5b	-0.786596
42	0xbedd8b5f	-0.43270394
43	0xbd03fd94	-0.032224253
44	0x3f064e33	0.5246307
45	0x3f4a6c46	0.7907146
46	0xbe5705f1	-0.2099836
47	0x3eea3ef6	0.4575116
48	0xbe35b8a1	-0.17746212
49	0xbdb66815	-0.08906571
50	0xbd71ba7c	-0.059015736
51	0xbe8668ae	-0.2625174
52	0xbbd4d860	-0.0064955205
53	0x3e3a1bd3	0.18174677
54	0x3da6f6ee	0.08152567
55	0xbcca8667	-0.024722291
56	0xbeca1772	-0.39471012
57	0xbf19d83c	-0.6009557
58	0xbd777cc3	-0.060421716
59	0xbe826ce6	-0.25473708
60	0x3eafd5d8	0.34342837
61	0x3ec91ba3	0.39278898
62	0xbd185c5b	-0.037197452
63	0x3db2747c	0.08713624
64	0x3d680d4d	0.05665331
65	0x3d919440	0.071083546
66	0xbe6b132c	-0.22956532
67	0xbdc16aac	-0.09444174
68	0x3c645360	0.013935894
69	0xbe5f7ccc	-0.2182495
70	0xbd98cf8f	-0.07461464
71	0x3e27d997	0.16391598
72	0xbe9d0f6d	-0.3067583
73	0xbda6ae72	-0.081387416
74	0xbe7127af	-0.23550294
75	0x3e980cd8	0.296973
76	0x3e85b34e	0.2611336
77	0x3ef4655a	0.47733575
78	0xbea1aa5d	-0.3157529
79	0x3e04353f	0.12910937
80	0xbe06248b	-0.13099878
81	0xbe17e5d8	-0.14833772
82	0xbe80edfe	-0.25181574
83	0x3b8d60fd	0.0043145404
84	0x3e10e5af	0.14150117
85	0x3da8cfa4	0.08242729
86	0xbe2c8013	-0.16845731
87	0x3dad61d6	0.08465926
88	0x3bb8bdae	0.005637846
89	0x3dffb733	0.12486114
90	0x3cb1a6dd	0.021686012
91	0x3d0e5f4e	0.03475886
92	0x3dd79761	0.1052692
93	0xbe55eefb	-0.20891945
94	0x3d0b7a93	0.034052443
95	0x3e15cec8	0.14629662
96	0x3d882b43	0.066488765
97	0x3de2bb8b	0.11070927
98	0xbcd18137	-0.02557431
99	0xbd877336	-0.066137716
100	0xbebec8d4	-0.37262595
101	0xbd51191f	-0.051049348
102	0x3da7854b	0.081797205
103	0xbd2ef577	-0.042714562
104	0x3e940e90	0.2891736
105	0xbcc6ca26	-0.024266314
106	0xbeb310a8	-0.34973645
107	0xbe0d4c5d	-0.13798662
108	0xbe978412	-0.2959295
109	0x3e754ec3	0.23955826
110	0x3d028dcf	0.03187352
111	0x3d080cac	0.03321521
112	0xbf39fd01	-0.7265168
113	0xbde74b06	-0.112936065
114	0xbf01b9a5	-0.50673896
115	0x3e384c99	0.1799797
116	0x3d83d386	0.06436829
117	0x3ca8efac	0.020622097
118	0xbed58f67	-0.4171097
119	0x3eb8579e	0.36004347
120	0xbf55adff	-0.8346862
121	0xbe7be14c	-0.24597663
122	0xbef95232	-0.48695523
123	0x3e3b6011	0.18298365
124	0x3cfe83be	0.031068679
125	0x3df200e6	0.118165776
126	0xbeb348cc	-0.35016477
127	0x3e98c86e	0.29840416
128	0x3e2504b1	0.16115071
129	0xbf49cfea	-0.78832877
130	0xbde76248	-0.112980425
131	0xbea1ca7f	-0.31599805
132	0x3e49363e	0.19649598
133	0x3e0d6b6b	0.13810508
134	0x3e9c3a3b	0.30513176
135	0x3e298660	0.16555166
136	0x3d5ba550	0.05362445
137	0x3d7a7553	0.061147045
138	0xbe9c90e1	-0.30579284
139	0xbe7b5960	-0.24545813
140	0x3e9225df	0.28544518
141	0xbe6465a8	-0.22304404
142	0x3e8d11de	0.27552694
143	0x3d24993b	0.040185194
144	0xbe89e07d	-0.26929083
145	0xbd5305fd	-0.051519383
146	0x3cfa7420	0.03057295
147	0xbda37b7d	-0.07982538
148	0x3e3f3912	0.18674114
149	0x3dbe9495	0.093056835
150	0x3daca1a3	0.08429267
151	0xbe5a7976	-0.21335396
152	0xbdfef3bb	-0.12448832
153	0xbe831fc6	-0.2561018
154	0xbe99c025	-0.30029407
155	0xbdbd5345	-0.09244398
156	0x3d7b16d1	0.061301056
157	0x3e9f7ca4	0.3114978
158	0xbe0bc528	-0.13649428
159	0xbbabd0ee	-0.005243412
160	0xbe92b877	-0.2865636
161	0x3e09e60e	0.13466665
162	0xbd289fde	-0.041168086
163	0x3ece0356	0.4023692
164	0x3e75dcdb	0.24010031
165	0x3eb1dbb9	0.34737948
166	0xbeded579	-0.43522242
167	0x3dad55f0	0.08463657
168	0x3ec466e6	0.38359755
169	0xbf16a6fc	-0.5884855
170	0x3c774c94	0.015093941
171	0xbdffd91f	-0.124925844
172	0x3ea988d7	0.33112213
173	0x3e9d234b	0.3069099
174	0x3eb4b24a	0.35292274
175	0x3eab1601	0.33415225
176	0xbeaf4560	-0.34232616
177	0xbf0ff455	-0.56232196
178	0xbf1c7949	-0.61122566
179	0x3f3a3caf	0.72748846
180	0x3ea9e462	0.33182055
181	0x3f2e1712	0.6800395
182	0xbf32325e	-0.69608104
183	0x3e9aa08c	0.30200613
184	0xbf56c014	-0.8388684
185	0xbf80ac63	-1.0052608
186	0xbf0a0805	-0.53918487
187	0x3f7ad58b	0.9798209
188	0x3f87b140	1.0600967
189	0x3f48e802	0.78479016
190	0xbf51f14d	-0.8200882
191	0x3ddc7ab8	0.10765594
192	0xbdc7db14	-0.09758583
193	0xbe701bbe	-0.23448083
194	0x3e593e41	0.21215154
195	0x3cf57fa3	0.029968088
196	0x3cc03895	0.02346448
197	0x3eb2058b	0.34769854
198	0xbda65e05	-0.081234016
199	0x3e387475	0.18013175
200	0xbe026ae0	-0.12736082
201	0xbccf9614	-0.025340118
202	0x3cba6b6f	0.022756306
203	0xbe501833	-0.20321731
204	0x3c2c21f0	0.010506138
205	0xbe09e91b	-0.13467829
206	0x3e44c21d	0.19214673
207	0xbd70dbd2	-0.058803387
208	0xbf13bbd5	-0.57708484
209	0xbf6b995d	-0.9203089
210	0xbf198427	-0.59967273
211	0x3f0b8a83	0.5450823
212	0x3f05ced1	0.522687
213	0x3f25a4d0	0.6470461
214	0xbf05a4d3	-0.52204627
215	0x3ea7c257	0.32765457
216	0xbf48e137	-0.7846865
217	0xbed8e257	-0.42360184
218	0xbeec14f5	-0.4610974
219	0x3f312600	0.6919861
220	0x3f59f41e	0.8513812
221	0x3f880af1	1.0628339
222	0xbf3b03aa	-0.73052466
223	0x3c6cee21	0.014461071
224	0x3eab55e5	0.3346397
225	0xbe8da7e3	-0.2766715
226	0x3e992fed	0.29919377
227	0xbebe3298	-0.37147975
228	0xbe9594c8	-0.29215074
229	0x3dcccb8f	0.09999763
230	0x3ef985c1	0.4873486
231	0xbe2c42ae	-0.16822311
232	0x3e4ab168	0.19794238
233	0xbf41ff93	-0.757806
234	0x3e559600	0.20858002
235	0xbd9c1d6b	-0.076227985
236	0x3f22f078	0.63648176
237	0x3efb9ac6	0.4914152
238	0x3e383f5f	0.17992924
239	0x3eeebd39	0.4662874
240	0xbd4daf75	-0.050216157
241	0xbe7e4b60	-0.24833441
242	0xbe98a5a2	-0.29813868
243	0x3d3774fa	0.044789292
244	0x3e8b3a8b	0.27193102
245	0xbcba9d92	-0.022780214
246	0x3a75c24c	0.0009374961
247	0x3c4f8a9c	0.012667324
248	0xbdda6c76	-0.106652185
249	0xbf16ee3e	-0.5895728
250	0x3e0a1220	0.13483477
251	0x3e9c9da8	0.30589032
252	0x3e1698b8	0.14706695
253	0x3f7486ba	0.95518076
254	0xbddf073a	-0.1089005
255	0xbd48ebf5	-0.04905315

embedding_user_mf.weight f4 [6040, 8]
0	0x3d45d701	0.048300747
1	0x3e2395ad	0.15975066
2	0xbeabe038	-0.33569503
3	0x3eeb50ce	0.45960087
4	0x3b80c76c	0.003930023
5	0xbed9b4ce	-0.42520756
6	0x3b94862e	0.004532597
7	0xbf8e632c	-1.1124015
8	0xbd6cc10d	-0.057801295
9	0xbe947c37	-0.29001018
10	0xbd226836	-0.039650165
11	0x3f851141	1.039589
12	0x3e6ff27c	0.23432344
13	0x3d486781	0.048926834
14	0x3eb5233c	0.35378444
15	0x3d4ddfa1	0.050262097
16	0x3eb8fecb	0.36131892
17	0xbf118f06	-0.5685886
18	0xbe0e5e18	-0.13903081
19	0xbcc05225	-0.02347667
20	0x3d85383c	0.065048665
21	0x3f38fbfc	0.722595
22	0x3ecd120d	0.40052834
23	0xbf30c5a0	-0.6905155
24	0xbe0eb623	-0.13936667
25	0xbd05d726	-0.032675885
26	0x3ed4f4d4	0.4159304
27	0x3f2da8b0	0.6783552
28	0xbec15306	-0.37758654
29	0x3f5c7fd0	0.86132526
30	0x3ee2c4fe	0.44290918
31	0xbe6e9038	-0.23297203
32	0xbd28b38a	-0.041186847
33	0xbec2c5d8	-0.38041568
34	0xbc888d35	-0.016668895
35	0x3e9c890e	0.30573314
36	0xbf47705e	-0.77905834
37	0xbf095bc6	-0.5365566
38	0xbecdb110	-0.4017415
39	0x3d897b79	0.06713004
40	0x3ea3f0ec	0.32019746
41	0x3e555895	0.20834573
42	0xbf00bf76	-0.50292146
43	0x3ee629ad	0.4495367
44	0x3f389b15	0.72111636
45	0xbd3b8b02	-0.045786865
46	0x3ec303a2	0.3808871
47	0xbe3203a8	-0.17384207
48	0x3f30bf73	0.6904213
49	0xbf0f297f	-0.55922693
50	0x3eef4d71	0.4673877
51	0x3f0fc00f	0.56152433
52	0xbedea839	-0.4348772
53	0x3f249920	0.6429615
54	0x3e1c31bc	0.15253347
55	0xbe9e3522	-0.30899912
56	0x3ed07163	0.40711507
57	0xbf0eb8df	-0.5575084
58	0x3e90f548	0.28312135
59	0x3f468583	0.7754747
60	0xbf08f72d	-0.5350216
61	0xbf3ffd8b	-0.7499625
62	0xbdfd831d	-0.123785235
63	0xbe02cfc1	-0.12774564
64	0x3e8d5489	0.27603558
65	0xbf809a9c	-1.0047183
66	0x3e6c6846	0.23086652
67	0x3f441c92	0.76606095
68	0xbe4ab870	-0.1979692
69	0xbedc8b4e	-0.4307503
70	0xbeb225bc	-0.34794414
71	0xbf2f039f	-0.683649
72	0x3e5ae3b0	0.21375918
73	0x3e5f98e9	0.21835674
74	0xbf30eb9a	-0.691095
75	0x3eda2edb	0.42613873
76	0x3e03bf7f	0.12866019
77	0x3e69b819	0.22824134
78	0x3d0f2132	0.034943767
79	0xbf1402f3	-0.57817
80	0xbcdc8968	-0.02692099
81	0xbf37442c	-0.715884
82	0xbebfba25	-0.37446705
83	0xbe63c7ac	-0.22244138
84	0xbe71e4d5	-0.23622449
85	0xbee4ed3c	-0.44712245
86	0xbd4e5a2a	-0.050378956
87	0xbf1eaebf	-0.6198539
88	0xbea10f36	-0.31456918
89	0xbee78112	-0.4521566
90	0x3e5f2a37	0.21793447
91	0x3dba2b26	0.09090261
92	0xbd200e54	-0.039076164
93	0x3f006dea	0.50167716
94	0xbe720773	-0.23635654
95	0xbf348f4c	-0.70531154
96	0x3eccd5c2	0.40006834
97	0x3dba53f9	0.09098048
98	0xbe8600c8	-0.2617247
99	0x3f944525	1.1583601
100	0xbe0adca5	-0.13560732
101	0x3f149864	0.5804503
102	0xb8f2bb2a	-0.00011574321
103	0x3e61a58c	0.22035807
104	0xbd69b1e8	-0.05705443
105	0xbdac95be	-0.084269986
106	0x3cdb4ff4	0.026771523
107	0xbdd84f02	-0.105619445
108	0xbeb8f001	-0.36120608
109	0x3e1270c6	0.14300832
110	0x3e676dab	0.22600429
111	0xbeb0d6d3	-0.34538898
112	0x3f3a767c	0.7283704
113	0xbf5e0496	-0.8672575
114	0x3ea902b3	0.33009872
115	0x3eb91e4c	0.36155927
116	0x3c9de073	0.019272065
117	0xbe9243ff	-0.28567502
118	0x3edd3e61	0.43211654
119	0xbeed6862	-0.463687
120	0x3f24c0d5	0.6435674
121	0x3e3c5ae5	0.18394049
122	0xbead8510	-0.3389058
123	0x3df8bc4f	0.12145292
124	0x3e9200de	0.28516287
125	0xbcfed3e6	-0.0311069
126	0x3e450747	0.19241057
127	0x3bd64bd3	0.0065398007
128	0x3dd3fec6	0.103513286
129	0xb93384a3	-0.00017120181
130	0x3dd92a7a	0.10603805
131	0x3e9271ac	0.2860235
132	0xbf2fb647	-0.6863751
133	0x3e8aae66	0.2708618
134	0xbe18d850	-0.14926267
135	0x3ee4fb36	0.4472291
136	0x3eff9581	0.4991875
137	0x3d8e1453	0.0693747
138	0xbe77ec9e	-0.24211356
139	0x3f68d97b	0.9095685
140	0xbec4d584	-0.3844415
141	0x3d961260	0.073277235
142	0xbe694e98	-0.22783887
143	0xbebf8def	-0.37412974
144	0x3eec01f5	0.46095243
145	0x3d6840c9	0.05670241
146	0x3e5cf1e4	0.21576649
147	0xbd904f67	-0.07046395
148	0xbe98b072	-0.29822117
149	0x3f2e5270	0.6809454
150	0x3d4983dd	0.04919802
151	0xbf27cdca	-0.65548384
152	0x3ec6ddbd	0.38841048
153	0xbf4b706d	-0.79468423
154	0x3dd4b308	0.1038571
155	0x3d968f0b	0.07351502
156	0xbe8f584f	-0.27997062
157	0x3e82e1c5	0.25562873
158	0x3c467816	0.012113592
159	0xbe2d4160	-0.1691947
160	0x3f2f79aa	0.6854502
161	0x3e2876a7	0.16451512
162	0xbdeb462c	-0.114879936
163	0x3e4368bf	0.19082926
164	0xbea10b07	-0.31453726
165	0x3e8c37d0	0.27386332
166	0xbf111259	-0.5666862
167	0xbf17ef8d	-0.593499
168	0x3f098c19	0.537294
169	0xbf0fdece	-0.5619935
170	0xbe82b2d9	-0.25527075
171	0xbe14fc34	-0.14549333
172	0xbf113c3a	-0.56732523
173	0x3ec0b8d0	0.37641
174	0x3cad6cfe	0.021170136
175	0xbee3b92f	-0.4447722
176	0xbd46e652	-0.048559494
177	0xbe2faa07	-0.17154704
178	0xbe6299c8	-0.22128975
179	0x3d58536f	0.052813943
180	0xbf6aef45	-0.91771346
181	0x3efe2358	0.4963634
182	0xbde52180	-0.1118803
183	0x3e44ff73	0.19238071
184	0xbd8588a8	-0.06520206
185	0xbea3472e	-0.31890243
186	0xbf2fd519	-0.68684536
187	0x3eaa849e	0.33304304
188	0xbe95e994	-0.29279768
189	0xbdfa031d	-0.12207625
190	0x3ea5522a	0.3228925
191	0xbe6f1ffd	-0.23352046
192	0x3f140baa	0.578303
193	0xbe9ccfc1	-0.30627254
194	0xbe080e2f	-0.1328666
195	0x3e9be562	0.30448443
196	0xbe891010	-0.26770067
197	0x3edbefc1	0.42956355
198	0xbed7c010	-0.4213872
199	0xbe799ea7	-0.24376927
200	0x3ef2f3f3	0.47451743
201	0xbe8561fb	-0.26051316
202	0xbf29e9c7	-0.6637234
203	0x3d904bbd	0.07045696
204	0x3dedf2bd	0.11618564
205	0xbe6155cc	-0.22005385
206	0x3f4e5841	0.80603415
207	0xbe80e985	-0.2517816
208	0xbecf825e	-0.4052915
209	0x3e1e01cd	0.15430374
210	0xbe3c0931	-0.18362881
211	0x3eb2213e	0.34790987
212	0xbda6a952	-0.08137764
213	0x3edc8c3d	0.43075743
214	0xbe372012	-0.17883328
215	0xbefaa222	-0.48951823
216	0xbe80a2aa	-0.25124103
217	0x3d2e1abe	0.042505972
218	0xbeae0cd9	-0.33994177
219	0x3edce6a3	0.43144712
220	0xbedac8ef	-0.42731425
221	0xbe4166cc	-0.1888687
222	0x3d75a1ec	0.059968874
223	0xbecc2bfc	-0.39877307
224	0xbc5b0e5d	-0.013370124
225	0xbe847cf0	-0.2587657
226	0x3ee53c68	0.4477265
227	0x3f1a6ae0	0.6031933
228	0xbe8b782d	-0.27240124
229	0x3f861d20	1.0477638
230	0x3ee38667	0.44438478
231	0x3e96b2c9	0.29433277
232	0xbe2244ea	-0.15846601
233	0xbe8cab2d	-0.27474347
234	0x3e8c6bdd	0.27426043
235	0x3eadc357	0.33938095
236	0xbece34e9	-0.40274742
237	0xbeeeb852	-0.46625
238	0xbe6abaca	-0.22922817
239	0xbebf2e87	-0.37340185
240	0xbe450015	-0.19238313
241	0xbdb1fc91	-0.08690751
242	0xbf773e3c	-0.9657934
243	0xbeb0dd59	-0.34543875
244	0x3f30c93b	0.69057053
245	0x3f20fd4d	0.62886506
246	0x3e585475	0.21125968
247	0xbe8c0190	-0.27344942
248	0xbd0eb393	-0.034839224
249	0xbe846de3	-0.25865087
250	0x3db15802	0.08659364
251	0x3eccfa82	0.40034872
252	0xbe9c0b0d	-0.3047718
253	0xbebda091	-0.37036565
254	0x3d6837ea	0.05669395
255	0xbcb8bb05	-0.022550115

embedding_item_mf.weight f4 [3706, 8]
0	0x3ed5c842	0.41754347
1	0xbb2906c2	-0.0025791381
2	0xbe150523	-0.14552741
3	0x3e83d10b	0.25745425
4	0x3e436ddf	0.19084881
5	0x3d327ca8	0.043575913
6	0x3e9e16d4	0.3087679
7	0x3ed3a7fc	0.413391
8	0xbe222c2b	-0.15837161
9	0xbf06d9a8	-0.5267587
10	0x3e2d9b51	0.1695378
11	0x3e0f13f0	0.1397245
12	0x3e30a57c	0.17250627
13	0xbded9d2e	-0.11602245
14	0xbf28fc8a	-0.66010344
15	0x3efadc2c	0.48996103
16	0x3e466e39	0.19377984
17	0xbf71cf59	-0.9445701
18	0x3ea3e6e9	0.32012108
19	0x3f09afbe	0.53783786
20	0xbec9e8b7	-0.3943536
21	0xbe940853	-0.289126
22	0x3e539586	0.20662507
23	0x3e8f6c66	0.2801239
24	0x3ccb6128	0.024826601
25	0x3eb927b9	0.36163118
26	0xbe9f156b	-0.31071028
27	0xbd4b67bf	-0.049659487
28	0xbecdaf9f	-0.4017305
29	0xbeb56245	-0.35426536
30	0x3dce1ca5	0.10064057
31	0x3e2b2020	0.16711473
32	0xbe7b1b72	-0.24522188
33	0x3d8579bb	0.06517359
34	0x3e869ab9	0.2628992
35	0x3d83a269	0.06427462
36	0xbd144db5	-0.03620692
37	0x3d0b0d65	0.03394832
38	0xbe4b50cc	-0.1985504
39	0x3f168a59	0.5880485
40	0xbdd3fa18	-0.10350436
41	0x3e614893	0.22000341
42	0x3f24e387	0.6440968
43	0x3e5f8fdc	0.21832222
44	0x3ebff772	0.37493473
45	0x3ec14276	0.37746018
46	0x3e279f47	0.16369353
47	0x3ed4b588	0.41544747
48	0x3e2a64a5	0.16639955
49	0xbe9671f4	-0.29383814
50	0xbe7baf96	-0.245787
51	0x3f31d849	0.6947065
52	0xbea7555a	-0.32682306
53	0x3f16ec51	0.5895434
54	0x3e91b714	0.2845999
55	0x3e239388	0.15974247
56	0x3e48b2ba	0.19599429
57	0x3e0d4863	0.13797145
58	0x3ec33185	0.38123718
59	0xbe4bb7ca	-0.19894329
60	0x3eaf769c	0.3427018
61	0x3e812a4a	0.25227576
62	0x3ec5fbe3	0.38668737
63	0x3f672c00	0.90301514
64	0xbe2bce37	-0.16777883
65	0xbf7c1930	-0.98475933
66	0x3eaaf875	0.33392683
67	0x3ee8609a	0.453862
68	0x3dfbaeea	0.122892216
69	0x3d241182	0.04005576
70	0xbe96468c	-0.29350698
71	0x3fa5809e	1.2929876
72	0x3e469d13	0.19395857
73	0xbee2e449	-0.44314793
74	0x3e6279cd	0.22116776
75	0x3f2cf022	0.67553914
76	0x3e2128b5	0.15738185
77	0x3e381d36	0.17979893
78	0x3e84879f	0.2588472
79	0x3f857b67	1.0428284
80	0xbecf819c	-0.40528572
81	0xbf0dbae9	-0.5536333
82	0x3e914710	0.2837453
83	0x3f236eb7	0.6384081
84	0x3dd12b29	0.1021331
85	0xbe963d1a	-0.29343492
86	0xbeb453cb	-0.3522018
87	0x3f94c880	1.1623688
88	0x3e9c024e	0.30470508
89	0xbf9bf3f5	-1.2183825
90	0x3e174dbb	0.14775746
91	0x3ea5ef5b	0.32409176
92	0xbf2c56d3	-0.67319983
93	0xbecf3f45	-0.40477958
94	0xbe25c023	-0.16186576
95	0x3c3699b1	0.011145041
96	0x3e83ee95	0.2576796
97	0xbf4245db	-0.7588784
98	0xbe0d7963	-0.13815837
99	0x3f031863	0.51209086
100	0xbec81147	-0.39075682
101	0xbe243e11	-0.16039301
102	0x3e970da6	0.295026
103	0x3f5b5e80	0.8569107
104	0x3e3e6893	0.1859458
105	0x3ee6c89e	0.45074934
106	0x3f87d162	1.0610774
107	0xbe22cd88	-0.15898716
108	0x3e76bf23	0.2409635
109	0x3e85de54	0.26146185
110	0x3f1afdc8	0.6054349
111	0x3f826363	1.018658
112	0x3d36543c	0.044513926
113	0xbf08a107	-0.5337071
114	0x3e7b9e9f	0.24572228
115	0x3e9328bb	0.28742012
116	0xbe4a58f9	-0.19760503
117	0xbd95e366	-0.073187634
118	0x3ddb1a2d	0.10698352
119	0x3f2038a0	0.625864
120	0x3e6877c7	0.22701941
121	0x3e84ffc1	0.25976375
122	0x3f2b3a83	0.66886157
123	0xbe9e926a	-0.3097108
124	0x3e24ec3e	0.16105744
125	0x3ed1d6db	0.40984234
126	0x3ecf57d3	0.40496692
127	0x3f2ca682	0.6744157
128	0xbeb5b379	-0.3548849
129	0xbef3c7ea	-0.4761346
130	0xbd783961	-0.060601596
131	0x3e980217	0.29689094
132	0xbe1dcbe9	-0.15409817
133	0xbe02c6cb	-0.12771146
134	0xbef04ab5	-0.46931997
135	0x3f0de174	0.5542214
136	0xbdb68817	-0.08912676
137	0xbf5e6d30	-0.86885357
138	0x3e0e0497	0.13868938
139	0x3ecb864d	0.397509
140	0xbafd188a	-0.0019309681
141	0xbb04e060	-0.002027534
142	0xbe567756	-0.2094396
143	0x3fa2a494	1.2706475
144	0x3d6055b2	0.054769225
145	0x3dcf5f19	0.1012556
146	0x3da81f1e	0.0820906
147	0x3f0868ca	0.53284895
148	0x3e7e699b	0.24844973
149	0xbf1f9094	-0.62329984
150	0x3ec9e857	0.39435074
151	0x3eec6bd3	0.46176013
152	0xbd86f6c6	-0.06590037
153	0xbc7f5dcc	-0.015586328
154	0x3f5b14c6	0.8557857
155	0x3d835db0	0.06414354
156	0x3ec31201	0.38099673
157	0x3e83a230	0.25709677
158	0x3eec3011	0.46130422
159	0x3f17f303	0.5935518
160	0xbd3e8f1a	-0.04652319
161	0x3f05ddca	0.5229155
162	0x3f0955bc	0.53646445
163	0x3c6c06c0	0.014405906
164	0xbdee3c50	-0.116325974
165	0xbe3ea9c3	-0.18619446
166	0xbdfcc0cb	-0.1234146
167	0x3ef4c729	0.47808197
168	0x3e83e285	0.25758758
169	0xbd9bc271	-0.07605446
170	0x3d4aede2	0.04954327
171	0x3e5fedb3	0.21868019
172	0x3e73dd8e	0.23814985
173	0xbb8cf28d	-0.0043013752
174	0xbf652952	-0.89516175
175	0x3ec52028	0.38501096
176	0xbd9fef48	-0.07809311
177	0x3d8aed3f	0.06783532
178	0x3f59e062	0.85108006
179	0x3e159f03	0.1461144
180	0x3ee1ad06	0.4407732
181	0x3f01303f	0.5046424
182	0x3ec940c6	0.3930723
183	0x3ef2dd07	0.47434255
184	0x3e304b63	0.17216258
185	0x3e5aea74	0.213785
186	0xbe12daa1	-0.14341213
187	0x3f1076ef	0.5643148
188	0x3e98fcf6	0.29880494
189	0xbde507c4	-0.11183122
190	0x3e44963f	0.1919794
191	0x3f05022f	0.51956457
192	0xbe8b2e1d	-0.2718362
193	0x3e01efdb	0.12689154
194	0xbcfebf48	-0.03109707
195	0xbddb828a	-0.10718258
196	0xbef0b609	-0.47013882
197	0xbec569dc	-0.38557327
198	0x3eb81d74	0.3595997
199	0xbe9e7713	-0.3095022
200	0xbf20423f	-0.62601084
201	0xbf594733	-0.84874266
202	0x3e17d611	0.14827754
203	0x3eacc097	0.33740684
204	0xbeaf7259	-0.34266928
205	0xbeece112	-0.46265465
206	0xbee729eb	-0.45149168
207	0x3f00628d	0.50150377
208	0xbe0a1099	-0.13482894
209	0xbe870bed	-0.26376286
210	0x3f118366	0.56841123
211	0x3f081e9c	0.53171706
212	0x3f208ab9	0.62711674
213	0x3e5b15c8	0.21395028
214	0x3e8d6561	0.27616408
215	0x3efd2bc6	0.4944746
216	0xbe8fb928	-0.2807095
217	0x3e12c4dd	0.1433291
218	0x3e031011	0.12799098
219	0x3ed02492	0.406529
220	0xbd0cb9aa	-0.03435675
221	0xbebead7b	-0.3724173
222	0x3ead2398	0.33816218
223	0x3e40c436	0.18824849
224	0x3ef575a2	0.4794131
225	0xbe84c023	-0.2592784
226	0xbf1e7729	-0.61900574
227	0x3d282950	0.041055024
228	0xbe3de171	-0.1854303
229	0xbf79fddf	-0.97653
230	0xbf0b2249	-0.5434919
231	0xbe688ee0	-0.22710752
232	0x3e7d0b57	0.24711357
233	0xbb09f914	-0.0021053003
234	0x3eaa0c86	0.3321268
235	0x3e57d4fc	0.21077341
236	0x3e64b1c8	0.22333443
237	0x3c1c7286	0.009548789
238	0xbf6a9426	-0.91632307
239	0x3e8cffb6	0.27538842
240	0xbed16208	-0.40895104
241	0xbe76d80a	-0.2410585
242	0x3d9b3760	0.07578921
243	0x3e8a5d5a	0.27024347
244	0x3d348330	0.044070423
245	0xbe35e160	-0.17761755
246	0xbece50ea	-0.40296108
247	0x3f084545	0.53230697
248	0xbc4d25a2	-0.012521179
249	0x3e09cdc0	0.13457394
250	0xbec746de	-0.38921255
251	0xbebfa633	-0.37431487
252	0xbdef809e	-0.11694454
253	0xbf170019	-0.58984524
254	0x3d10888d	0.035286475
255	0x3c492bde	0.012278525

fc_layers.0.weight f4 [64, 16]
0	0xbe9db79b	-0.30804142
1	0xbee7def7	-0.45287296
2	0xbe14edc2	-0.14543822
3	0x3ebcaa5b	0.3684872
4	0x3d89e375	0.06732837
5	0xbf180655	-0.5938466
6	0xbf1d7367	-0.61504215
7	0xbe9b94f1	-0.3038707
8	0xbd98a62c	-0.0745357
9	0xbdf3fa33	-0.11912956
10	0x3e86c085	0.26318756
11	0xbe780713	-0.24221449
12	0xbf125e25	-0.57174903
13	0xbee0f52a	-0.43937045
14	0x3e7386ed	0.23781939
15	0x3e775016	0.24151644
16	0xbf4d3266	-0.80155027
17	0x3e94104c	0.28918684
18	0x3d43c3ed	0.04779427
19	0xbec04b63	-0.37557516
20	0xbe867dce	-0.26267856
21	0x3e9eeb25	0.31038776
22	0x3b7a8d89	0.0038231334
23	0xbe40d9df	-0.18833111
24	0xbf05d5c2	-0.52279294
25	0x3defc956	0.11708324
26	0x3eb56ac6	0.35433024
27	0xbe3c112a	-0.18365923
28	0x3ed28ca4	0.41122925
29	0x3e08d503	0.13362508
30	0x3e4c85e7	0.19972955
31	0xbf43c263	-0.76468486
32	0x3ecc0846	0.39850062
33	0x3e422302	0.18958667
34	0x3e7a4256	0.24439368
35	0x3e7bf58e	0.2460539
36	0x3e91f342	0.28505903
37	0xbec23d8a	-0.37937576
38	0x3df2bbd0	0.11852229
39	0x3f1d49fd	0.6144102
40	0x3f206486	0.62653387
41	0x3da0d370	0.078528285
42	0x3dcad814	0.09904495
43	0xbe981b80	-0.2970848
44	0x3f694bf8	0.91131544
45	0x3eb553e8	0.35415578
46	0x3e7e9b16	0.24863848
47	0xbef5d745	-0.480158
48	0x3f2d44ef	0.6768331
49	0x3e2e65ad	0.17030974
50	0xbd6407f0	-0.055671632
51	0x3e330c9c	0.17485279
52	0xbf89d5aa	-1.076833
53	0xbe844c0c	-0.2583927
54	0xbe98d632	-0.29850918
55	0xbd331024	-0.043716565
56	0x3e37b5d2	0.17940453
57	0x3dea4f80	0.11440945
58	0x3f29ba35	0.66299754
59	0x3d873848	0.06602532
60	0xbea885d1	-0.32914594
61	0x3e67887e	0.22610661
62	0xbe2bc194	-0.16773063
63	0xbee620db	-0.44946942
64	0x3ebab576	0.3646657
65	0x3e29cf49	0.1658298
66	0x3e1b6345	0.15174587
67	0x3d11c950	0.035592377
68	0x3ec4af5a	0.38415033
69	0xbefe07e0	-0.49615383
70	0xbbc861d5	-0.006115178
71	0x3e2ff69b	0.17183916
72	0x3f16ee5f	0.58957475
73	0xbc8f6bde	-0.01750749
74	0xbdda392a	-0.106554344
75	0xbe1b5bb7	-0.15171705
76	0x3e4446e6	0.1916767
77	0x3dd70a24	0.10499981
78	0x3e059240	0.13044071
79	0x3cb0a99f	0.021565257
80	0x3e81a41d	0.2532052
81	0x3e057bc0	0.13035488
82	0x3e40e994	0.18839103
83	0x3eed7bba	0.46383458
84	0xbf305da4	-0.68892884
85	0xbeb9ea18	-0.36311412
86	0xbd077274	-0.033068135
87	0xbe075fcb	-0.13220136
88	0x3e5fb19c	0.21845096
89	0xbe389621	-0.1802602
90	0xbb6758d5	-0.003530075
91	0xbd82d133	-0.06387558
92	0xbef7107a	-0.48254758
93	0xbe541511	-0.20711161
94	0xbeb7d3e6	-0.35903853
95	0xbf078d9b	-0.5295045
96	0x3e99b044	0.30017292
97	0xbe224cf9	-0.15849675
98	0xbeb2aa68	-0.34895635
99	0x3eef8a23	0.46785077
100	0x3e143202	0.14472201
101	0xbea8838e	-0.32912868
102	0x3e58ca78	0.21170986
103	0xbf0e76bb	-0.5564992
104	0xbf1a4cb3	-0.60273284
105	0x3eb48aec	0.3526224
106	0xbd78fe6a	-0.060789503
107	0xbdc590cd	-0.09646759
108	0xbe394e2b	-0.18096225
109	0xbd214fe7	-0.03938284
110	0xbe3dcf51	-0.18536116
111	0x3e8885ef	0.26664683
112	0xbd72c6fa	-0.05927179
113	0x3c46784d	0.012113643
114	0x3d8d3f3e	0.06896828
115	0xbd622499	-0.055210683
116	0x3d4deafc	0.050272927
117	0x3c253558	0.010083519
118	0xbc17694b	-0.009241412
119	0xbcd9fd92	-0.02661017
120	0x3d0302fd	0.03198527
121	0xbcc9a0f7	-0.024612887
122	0xbbd2b018	-0.0064296834
123	0xbb797499	-0.0038063882
124	0x3c81d89b	0.015850356
125	0xbd312a05	-0.043252964
126	0x3d110fc5	0.03541543
127	0x3ac84c7e	0.0015281586
128	0x3d7efb5b	0.06225143
129	0xb9862f9e	-0.0002559395
130	0x3e71a764	0.2359901
131	0xbd496589	-0.049169097
132	0x3e6cccdc	0.23125023
133	0xbd061696	-0.032736383
134	0x3de6d549	0.1127115
135	0xbbede031	-0.0072593917
136	0xbe0bdf23	-0.13659339
137	0xbd83a7eb	-0.06428512
138	0x3de9b284	0.11411002
139	0xbd0aabdc	-0.033855304
140	0x3da89b27	0.08232718
141	0xbbc60665	-0.0060432428
142	0x3cb8f856	0.022579353
143	0xbbb7030d	-0.0055850805
144	0xbef04fa9	-0.46935776
145	0x3e126790	0.14297318
146	0x3ed6ae2a	0.41929752
147	0xbce75c10	-0.028242141
148	0xbedcf483	-0.43155298
149	0x3e9b5093	0.3033491
150	0xbeaaf7a6	-0.33392066
151	0xbf37d19e	-0.71804225
152	0xbe9b9772	-0.3038898
153	0x3f046c1b	0.51727456
154	0x3eb71be0	0.35763454
155	0xbdbc475b	-0.091932975
156	0xbe3f6b80	-0.18693352
157	0x3d583dfa	0.05279348
158	0xbe107b54	-0.14109546
159	0xbf7398ad	-0.9515484
160	0x3f3321ba	0.6997334
161	0x3e1401bf	0.14453791
162	0x3deb9a72	0.115040675
163	0xbe04367e	-0.12911412
164	0xbf59e930	-0.8512144
165	0xbf055369	-0.520804
166	0xbf2c8628	-0.67392206
167	0x3d95bf45	0.073118724
168	0x3eb66338	0.35622573
169	0x3e560c00	0.20903015
170	0x3f1c1ec6	0.60984457
171	0x3ecde8f7	0.402168
172	0x3cbf080d	0.023319269
173	0x3ec58d29	0.3858426
174	0xbd09acb9	-0.033611987
175	0xbf0061ca	-0.50149214
176	0x3d005cc3	0.031338464
177	0x3e0dc9cf	0.13846515
178	0x3ed9a8b4	0.42511523
179	0x3e103381	0.14082147
180	0x3e4ed2d5	0.20197614
181	0xbed2f3db	-0.41201672
182	0x3e98536f	0.29751155
183	0xbda0fd50	-0.078608155
184	0x3c68e997	0.014215848
185	0x3f0fcdbc	0.561733
186	0x3d67d91c	0.056603536
187	0xbe67c98f	-0.22635482
188	0x3da41a0b	0.0801278
189	0xbdcb6f64	-0.099333555
190	0x3c64a108	0.0139544085
191	0x3e8f8f9d	0.28039256
192	0xbeb74d5e	-0.35801214
193	0x3d22b55e	0.039723746
194	0x3e8f9ee8	0.28050923
195	0x3f196c69	0.59931046
196	0x3e14f6fc	0.14547342
197	0xbe8dc500	-0.27689362
198	0xbe7274dc	-0.23677391
199	0xbee8e069	-0.4548371
200	0xbeb2e3b6	-0.34939355
201	0x3eb602d8	0.35549045
202	0x3e392cf2	0.18083552
203	0xbe235fe8	-0.15954554
204	0xbed09c93	-0.40744457
205	0xbef0133a	-0.4688967
206	0x3d9e535b	0.077307425
207	0x3d87b43b	0.06626173
208	0xbe4c8516	-0.19972643
209	0xbec4f077	-0.3846471
210	0x3f002a3b	0.5006444
211	0xbe281c43	-0.16417031
212	0x3e0fe10d	0.14050694
213	0xbecf1250	-0.4044366
214	0x3ec78daa	0.3897527
215	0x3e1000c1	0.14062788
216	0x3e4db96a	0.20090261
217	0x3f0187d3	0.50597876
218	0xbec3a1cd	-0.38209382
219	0xbe34746a	-0.17622533
220	0x3e3e5b71	0.1858957
221	0x3ea0d746	0.3141424
222	0xbd774f8e	-0.060378604
223	0x3e22c1e9	0.15894283
224	0xbf477e1e	-0.77926815
225	0x3e2cbc42	0.1686869
226	0x3e9de25c	0.3083676
227	0xbecc0328	-0.39846158
228	0xbf156b38	-0.5836673
229	0x3e81068c	0.25200307
230	0xbe19a98a	-0.1500608
231	0xbe8934af	-0.26798007
232	0xbf01c724	-0.5069449
233	0x3f00d01e	0.5031756
234	0x3e1c848d	0.15284939
235	0xbd02a687	-0.031897094
236	0x3e0b9cf2	0.13634089
237	0x3d963269	0.07333834
238	0xbd5d3946	-0.0540097
239	0xbf91e793	-1.1398796
240	0xbbf9d128	-0.0076238103
241	0x3d69c6a8	0.05707422
242	0x3c91669f	0.017749129
243	0x3ed2e1e4	0.41187966
244	0xbf0a5736	-0.54039323
245	0x3e7ab44e	0.24482843
246	0xbd9b01db	-0.07568713
247	0xbf171a14	-0.5902417
248	0xbed8bec6	-0.4233305
249	0x3e3f6580	0.18691063
250	0x3e31da90	0.17368531
251	0xbeb03fba	-0.3442362
252	0xbd094546	-0.03351333
253	0xbcfb8640	-0.030703664
254	0xbd9664c1	-0.07343436
255	0xbf4ffb47	-0.81242794

fc_layers.0.bias f4 [64]
0	0x3e5b1b21	0.21397068
1	0x3dcec74d	0.10096607
2	0x3e319e05	0.17345436
3	0xbf130773	-0.5743324
4	0x3e86ffb0	0.2636695
5	0xbeffae01	-0.49937442
6	0xbe8eaed9	-0.27867773
7	0xbe13a5bc	-0.14418691
8	0xbe7c68a0	-0.24649286
9	0xbe00de32	-0.12584761
10	0xbf1d0e48	-0.61349916
11	0x3ea8a84b	0.32940897
12	0xbce23b68	-0.027616218
13	0xbe2818ee	-0.1641576
14	0x3e0149d5	0.12625821
15	0xbe8c694e	-0.2742409
16	0xbd866b0a	-0.06563385
17	0x3eacf92f	0.33783862
18	0xbe6d05cb	-0.23146741
19	0xbe9ba2ac	-0.30397546
20	0xbbc1aa24	-0.005910175
21	0xbe2f5796	-0.17123255
22	0x3e477a49	0.19480242
23	0x3ed01278	0.4063909
24	0xbc3e44e7	-0.011613107
25	0x3edb8974	0.42878306
26	0x3ec4d103	0.38440713
27	0x3eeac161	0.4585066
28	0xbe22a156	-0.15881857
29	0xbe5584fe	-0.20851514
30	0x3eee4220	0.46534824
31	0xbf1d446b	-0.6143252
32	0xbd97c174	-0.07409945
33	0x3ee6c7e0	0.45074368
34	0xbe053af3	-0.13010769
35	0x3ee38697	0.4443862
36	0x3dc175ea	0.094463184
37	0xb6d9f6f3	-6.4958526e-06
38	0xbdb24730	-0.08704984
39	0xbeb5450c	-0.3540424
40	0x92d46c73	-1.3405816e-27
41	0x3ef3225d	0.47487155
42	0xbe986ccf	-0.29770514
43	0x3ee7d660	0.45280743
44	0x3ee349a5	0.44392124
45	0x3ee6195a	0.44941217
46	0xbdfe3d04	-0.124139816
47	0xb35b4105	-5.1049046e-08
48	0xbea47648	-0.3212149
49	0xbe865f4a	-0.26244575
50	0xbe52b2c3	-0.20576005
51	0xbef9760d	-0.48722878
52	0xbedfbad5	-0.4369723
53	0xbebae15c	-0.3650006
54	0xbe3736fe	-0.17892072
55	0xab2f9be7	-6.238885e-13
56	0x3eccef6d	0.40026417
57	0xbed2a86a	-0.41144115
58	0xbe84ca88	-0.2593577
59	0xbeb2fd3b	-0.34958825
60	0xbd767e5c	-0.0601791
61	0x3eeabb41	0.45845988
62	0xbee40279	-0.44533136
63	0x3e27e921	0.16397525

fc_layers.1.weight f4 [32, 64]
0	0x3e9d7374	0.30752146
1	0x3e5945dc	0.21218055
2	0xbae10784	-0.0017168378
3	0x3f0ac01e	0.541994
4	0xbc992cf8	-0.0186982
5	0x3dfb27c8	0.12263447
6	0x3f0555a0	0.5208378
7	0x3bf77496	0.00755174
8	0xbd34e1e3	-0.044160735
9	0x3e2a24c1	0.16615583
10	0x3f4ff0de	0.8122691
11	0x3daec7ea	0.08534224
12	0x3df65593	0.12028041
13	0x3f0ab6c0	0.54185104
14	0x3e114315	0.14185746
15	0x3d9ac356	0.075567886
16	0xbabebfa5	-0.0014552964
17	0x3e85dc33	0.2614456
18	0xbd958ddd	-0.07302449
19	0x3f067981	0.5252915
20	0x36c31cad	5.814791e-06
21	0x3c273520	0.010205537
22	0x3e327222	0.1742635
23	0x3e61c7ab	0.22048824
24	0x3838d34e	4.406581e-05
25	0x3de59d78	0.112116754
26	0x3e8a1098	0.26965785
27	0x3dd40e54	0.103542954
28	0xbd536148	-0.051606447
29	0xbf08cd09	-0.5343786
30	0x3dc9edd5	0.09859816
31	0x3ec30278	0.3808782
32	0xbd0f3c42	-0.034969576
33	0x3e16377b	0.14669602
34	0xbc800972	-0.015629504
35	0x3d8d58d4	0.06901708
36	0x3e457a3b	0.19284908
37	0x2f0eba8d	1.2981101e-10
38	0xbed6040f	-0.4179997
39	0xbf0fc6b2	-0.5616256
40	0x87691411	-1.7534869e-34
41	0x3dede0c5	0.11615137
42	0xbf30b317	-0.6902327
43	0x3de3bf21	0.11120439
44	0x3d8b7aa1	0.06810499
45	0x3de52864	0.111893445
46	0xbf142df1	-0.578826
47	0x2a8926a5	2.4362904e-13
48	0xbef7f232	-0.48426968
49	0xbd8db15f	-0.069185965
50	0xbd175439	-0.036945555
51	0xbf45fe20	-0.7734089
52	0xbf39ab77	-0.7252726
53	0xbf372e4a	-0.71555007
54	0x3e060cb5	0.13090785
55	0xa154f8ac	-7.215751e-19
56	0x3e123b44	0.1428042
57	0xbf147c76	-0.5800241
58	0x3f386dee	0.7204274
59	0xbf596693	-0.8492214
60	0x3f25f14b	0.6482131
61	0x3e10b7e2	0.14132646
62	0xbf0f5a17	-0.5599684
63	0x3ed1d0a4	0.40979493
64	0x3ea0896f	0.31354854
65	0x3e63e55a	0.2225546
66	0x3c4907b6	0.012269905
67	0x3f0f7104	0.56031823
68	0x3c9674cb	0.018366238
69	0x3e2727f4	0.16323835
70	0x3f1f4e44	0.622288
71	0x3c20e100	0.009819269
72	0xbd4dc4ec	-0.050236627
73	0x3e6cb3b3	0.23115425
74	0x3f54d2f1	0.8313437
75	0x3e08e68b	0.13369195
76	0x3e262ad1	0.1622727
77	0x3f181b0b	0.59416264
78	0x3e23d303	0.15998463
79	0x3deb8e0f	0.11501705
80	0xbb88fdd4	-0.0041806493
81	0x3e8517d0	0.2599473
82	0xbe154dde	-0.14580485
83	0x3f188541	0.5957833
84	0x370e91fd	8.49785e-06
85	0x3bd5b816	0.006522189
86	0x3e4b873f	0.19875811
87	0x3e28e290	0.16492677
88	0x38aeed37	8.341151e-05
89	0x3e022851	0.12710692
90	0x3e9198a4	0.28436768
91	0x3dd26525	0.10273198
92	0xbd87006e	-0.06591879
93	0xbf0fde13	-0.56198233
94	0x3daae7d2	0.083449975
95	0x3ecf18c0	0.4044857
96	0xbd09902c	-0.03358476
97	0x3e000fa7	0.12505971
98	0xbbe84bf1	-0.007089131
99	0x3d9993ed	0.07498918
100	0x3e49d047	0.19708358
101	0xaf320fc3	-1.6194605e-10
102	0xbf0f01ae	-0.5586194
103	0xbf13811f	-0.576189
104	0x8765ec0f	-1.7297417e-34
105	0x3df002ff	0.117193215
106	0xbf2ccdbe	-0.6750144
107	0x3e069269	0.13141789
108	0x3de9efa1	0.11422659
109	0x3ddcd9cc	0.10783729
110	0xbf0b93c4	-0.5452235
111	0xa9e6a1b7	-1.0242105e-13
112	0xbef93349	-0.4867194
113	0xbd994ad1	-0.07484973
114	0xbcac5712	-0.021037612
115	0xbf4c7aae	-0.79874694
116	0xbf4e3c86	-0.805611
117	0xbf42a0f2	-0.76026833
118	0x3e405cd6	0.18785414
119	0x22b75e0b	4.970182e-18
120	0x3e3d2445	0.18470867
121	0xbf0c84f2	-0.5489036
122	0x3f407339	0.75175816
123	0xbf60b458	-0.8777518
124	0x3f3f8c91	0.7482386
125	0x3e24bc25	0.16087396
126	0xbf16795b	-0.58778924
127	0x3ec3c1e0	0.38233852
128	0x8739011e	-1.3918181e-34
129	0x85026429	-6.130967e-36
130	0x85eac600	-2.2077988e-35
131	0x85d03c3b	-1.9582351e-35
132	0x86556c38	-4.0140354e-35
133	0x85bf74db	-1.800448e-35
134	0x8360cdeb	-6.6064066e-37
135	0x018821a8	5.0006804e-38
136	0x810bdae0	-2.5687303e-38
137	0x860025ea	-2.410198e-35
138	0x85c1690a	-1.8188218e-35
139	0x86806711	-4.829969e-35
140	0x86b5af79	-6.8342467e-35
141	0x83bedde7	-1.1218143e-36
142	0x85a5c65a	-1.5589388e-35
143	0x0402070a	1.5284659e-36
144	0x0256bfb1	1.577725e-37
145	0x86f3bce1	-9.1683973e-35
146	0x85694427	-1.0968125e-35
147	0x862640f7	-3.126886e-35
148	0x8185ccd8	-4.915042e-38
149	0x8185aa78	-4.9101095e-38
150	0x86c1fb77	-7.2968025e-35
151	0x85495956	-9.467383e-36
152	0x8185a1e0	-4.9088763e-38
153	0x860e0d0e	-2.6716823e-35
154	0x871080f1	-1.0871248e-34
155	0x86202679	-3.012092e-35
156	0x858bb7d6	-1.3139028e-35
157	0x82761e54	-1.8081929e-37
158	0x861af4e9	-2.9144112e-35
159	0x8553e745	-9.96365e-36
160	0x836a785d	-6.890459e-37
161	0x85ef6912	-2.2514049e-35
162	0x0185a1d0	4.9088674e-38
163	0x8631baa7	-3.342713e-35
164	0x861ec89d	-2.9863885e-35
165	0x8185bab0	-4.912437e-38
166	0x852c48fe	-8.100808e-36
167	0x0424bda5	1.9365188e-36
168	0x01859bb8	4.907993e-38
169	0x86339156	-3.3772934e-35
170	0x03ec787c	1.3898495e-36
171	0x8615794f	-2.811291e-35
172	0x86b64fb1	-6.8577887e-35
173	0x860bcadc	-2.6292032e-35
174	0x85afda48	-1.6537105e-35
175	0x8185d1e6	-4.9157673e-38
176	0x86716107	-4.5398347e-35
177	0x036293e2	6.658519e-37
178	0x01858448	4.90463e-38
179	0x84be6195	-4.47584e-36
180	0x85053a0b	-6.264291e-36
181	0x03d97a07	1.278213e-36
182	0x84ae7806	-4.1017428e-36
183	0x0185c738	4.914235e-38
184	0x86afe94e	-6.6170494e-35
185	0x047af95f	2.9501864e-36
186	0x852eccc7	-8.219052e-36
187	0x85b4564c	-1.6958819e-35
188	0x852cd6ca	-8.126852e-36
189	0x862012bc	-3.010642e-35
190	0x84713e58	-2.835804e-36
191	0x853d5659	-8.902597e-36
192	0x84e9a02b	-5.4925128e-36
193	0x8496c447	-3.5445083e-36
194	0x85369ec1	-8.5867574e-36
195	0x03e4a948	1.3439501e-36
196	0x851ab8b0	-7.274967e-36
197	0x83c07e0a	-1.1313683e-36
198	0x02d4948e	3.1235867e-37
199	0x0180a210	4.725232e-38
200	0x01e9e8b0	8.592457e-38
201	0x841d1dd9	-1.8468967e-36
202	0x03a4ff72	9.697701e-37
203	0x85188723	-7.171826e-36
204	0x85118462	-6.842182e-36
205	0x0348a9bd	5.8969568e-37
206	0x83f0974a	-1.41406665e-36
207	0x03c0ce2d	1.1332081e-36
208	0x01859304	4.906744e-38
209	0x8505681e	-6.272753e-36
210	0x01ed5f18	8.7196503e-38
211	0x8442e5b9	-2.2910074e-36
212	0x8185a08e	-4.908687e-38
213	0x81859152	-4.906501e-38
214	0x8511b59e	-6.851225e-36
215	0x853fbc90	-9.01541e-36
216	0x8185d1f9	-4.915778e-38
217	0x8571545e	-1.1347261e-35
218	0x857151f6	-1.13468194e-35
219	0x855a376e	-1.02604916e-35
220	0x043e1a2f	2.2346416e-36
221	0x038f186e	8.410393e-37
222	0x85428074	-9.145429e-36
223	0x0404c4ca	1.5606887e-36
224	0x01a489e2	6.044194e-38
225	0x8542ccc0	-9.159443e-36
226	0x0187e06f	4.9913214e-38
227	0x8568b2a5	-1.09413994e-35
228	0x84172c8a	-1.7770416e-36
229	0x01858a19	4.9054644e-38
230	0x81ae1210	-6.3943424e-38
231	0x01ca99e4	7.4423903e-38
232	0x8185daab	-4.9170257e-38
233	0x857f26de	-1.1997181e-35
234	0x841c3345	-1.8361254e-36
235	0x855e9cd0	-1.0467192e-35
236	0x85a22f54	-1.5251792e-35
237	0x855d19fc	-1.03961426e-35
238	0x84841a1d	-3.1057032e-36
239	0x0185cd45	4.915103e-38
240	0x0475120b	2.8807897e-36
241	0x021c5520	1.14855e-37
242	0x0185de38	4.917535e-38
243	0x8425b1b5	-1.9477256e-36
244	0x84592aee	-2.552794e-36
245	0x04424770	2.2837393e-36
246	0x83c0951a	-1.1318978e-36
247	0x0185ca3f	4.9146693e-38
248	0x85614b4f	-1.0593281e-35
249	0x0388b237	8.034278e-37
250	0x84bc8cae	-4.432778e-36
251	0x83b042e5	-1.03597085e-36
252	0x044c299e	2.3999194e-36
253	0x8576bd93	-1.1601684e-35
254	0x81e2269c	-8.307469e-38
255	0x85436c12	-9.188705e-36

fc_layers.1.bias f4 [32]
0	0xbb1ae33f	-0.0023633984
1	0x3d591db3	0.05300684
2	0x872f7093	-1.3198619e-34
3	0x8608f232	-2.5756694e-35
4	0x3bd00f09	0.0063494486
5	0x8185deb4	-4.917605e-38
6	0x972496ba	-5.31815e-25
7	0x92866b66	-8.483065e-28
8	0x3d206879	0.039162133
9	0x981d7860	-2.0352548e-24
10	0x8212a840	-1.0774671e-37
11	0x8190c968	-5.318625e-38
12	0x8185a64f	-4.9095125e-38
13	0x81858873	-4.905228e-38
14	0x81a0e018	-5.9096276e-38
15	0x8185c8db	-4.91447e-38
16	0xbc4a9638	-0.0123649165
17	0x82aa2572	-2.5000748e-37
18	0x3cb57bba	0.022153724
19	0x8187afe2	-4.984355e-38
20	0x81b69448	-6.7069014e-38
21	0x8185c7ec	-4.914336e-38
22	0x8e826e93	-3.2153953e-30
23	0x87cefc01	-3.114355e-34
24	0x838782dd	-7.964632e-37
25	0x832ba770	-5.0444592e-37
26	0x3e9ed8ae	0.31024688
27	0x81ab766c	-6.2985406e-38
28	0x8354f853	-6.2586263e-37
29	0x3d63502d	0.055496383
30	0x8185ac3f	-4.9103645e-38
31	0x84d3df51	-4.9810945e-36

fc_layers.2.weight f4 [16, 32]
0	0x3e417587	0.1889249
1	0x3e655ad0	0.22397923
2	0x85bc6a44	-1.7718471e-35
3	0x8739f15b	-1.3988781e-34
4	0x3e6f0d06	0.23344812
5	0x0185b9ac	4.912291e-38
6	0x956de34c	-4.8041074e-26
7	0x911a2f94	-1.2163119e-28
8	0x3e7b5392	0.24543598
9	0x1807db54	1.7559073e-24
10	0x011d959c	2.8943685e-38
11	0x8185c8b0	-4.9144456e-38
12	0x017a6832	4.5992505e-38
13	0x0185c140	4.9133784e-38
14	0x018595d8	4.90715e-38
15	0x0185c7c3	4.914313e-38
16	0x3e3a2732	0.18179014
17	0x0157c6e8	3.9631972e-38
18	0x3e5d98f2	0.21640375
19	0x0185a1ee	4.908884e-38
20	0x019c31f9	5.7377057e-38
21	0x8185ccca	-4.915034e-38
22	0x8be79e27	-8.9215925e-32
23	0x863065d1	-3.3176724e-35
24	0x8138b300	-3.392389e-38
25	0x03927a61	8.609206e-37
26	0xbf801837	-1.000739
27	0x01858b7d	4.905664e-38
28	0x83794a40	-7.325976e-37
29	0x3e672b71	0.22575165
30	0x018590d0	4.906428e-38
31	0x850416fc	-6.210832e-36
32	0x0185c380	4.913701e-38
33	0x8185cc60	-4.914975e-38
34	0x8185da50	-4.9169747e-38
35	0x01858482	4.9046623e-38
36	0x8185bf70	-4.9131183e-38
37	0x8185aa8c	-4.9101207e-38
38	0x01858b58	4.905643e-38
39	0x0185ab44	4.910224e-38
40	0x8185cbb8	-4.9148806e-38
41	0x81859954	-4.90765e-38
42	0x8185b3b1	-4.911433e-38
43	0x8185b844	-4.912089e-38
44	0x01858899	4.905249e-38
45	0x8185a467	-4.909239e-38
46	0x0185bd05	4.9127714e-38
47	0x8185980a	-4.907465e-38
48	0x0185d8d0	4.9167595e-38
49	0x8185cfaa	-4.915447e-38
50	0x81858ef8	-4.9061634e-38
51	0x8185aaed	-4.910175e-38
52	0x0185cce2	4.9150476e-38
53	0x8185e482	-4.9184377e-38
54	0x0185a4fe	4.9093236e-38
55	0x8185c79d	-4.9142915e-38
56	0x0185d12b	4.9156625e-38
57	0x8185866c	-4.904937e-38
58	0x0185cf28	4.915374e-38
59	0x0185a77d	4.909682e-38
60	0x0185c7d7	4.914324e-38
61	0x818593f8	-4.906881e-38
62	0x8185cdd4	-4.9151833e-38
63	0x0185d439	4.916101e-38
64	0x3e4d32bc	0.20038885
65	0x3e65f78d	0.22457714
66	0x85b92c36	-1.7413557e-35
67	0x8736c8a0	-1.3751117e-34
68	0x3e5f6fcd	0.21819992
69	0x018595b0	4.9071275e-38
70	0x9569f87c	-4.7249995e-26
71	0x91178c95	-1.195512e-28
72	0x3e82dac3	0.25557527
73	0x1805802c	1.7254557e-24
74	0x01220518	2.9758355e-38
75	0x8185d388	-4.9160016e-38
76	0x017a57fc	4.5980874e-38
77	0x0185b683	4.9118375e-38
78	0x0185ce80	4.9152797e-38
79	0x0185870f	4.9050284e-38
80	0x3e37160e	0.17879507
81	0x0158e8d8	3.9839992e-38
82	0x3e52fc28	0.20604002
83	0x0185ae00	4.910616e-38
84	0x019b1d01	5.6979626e-38
85	0x006a77ea	9.77758e-39
86	0x8be3bfb8	-8.7725686e-32
87	0x862d7480	-3.2623274e-35
88	0x813b86d0	-3.44432e-38
89	0x038f91b9	8.438241e-37
90	0xbf6cf282	-0.9255754
91	0x0185c748	4.914244e-38
92	0x83769a88	-7.2470296e-37
93	0x3e7790ad	0.24176283
94	0x0185a0c9	4.90872e-38
95	0x8501e666	-6.1078684e-36
96	0x818625b8	-4.927795e-38
97	0x8185fd40	-4.921988e-38
98	0x8185845c	-4.904641e-38
99	0x0185a372	4.9091016e-38
100	0x81859108	-4.9064594e-38
101	0x0185b41e	4.911494e-38
102	0x018583bb	4.904551e-38
103	0x01858838	4.905195e-38
104	0x8185e420	-4.918383e-38
105	0x8185e362	-4.918276e-38
106	0x0185a61c	4.909484e-38
107	0x0185dc7b	4.917286e-38
108	0x8185bce0	-4.9127506e-38
109	0x8185b746	-4.911947e-38
110	0x0185c03a	4.9132316e-38
111	0x81859c92	-4.908115e-38
112	0x8185caa0	-4.9147237e-38
113	0x0185c937	4.9145213e-38
114	0x81899a18	-5.0546966e-38
115	0x8185a26b	-4.908954e-38
116	0x0185d029	4.915518e-38
117	0x81858f8b	-4.906246e-38
118	0x8185ac67	-4.910387e-38
119	0x0185b8b0	4.91215e-38
120	0x0185bf20	4.9130735e-38
121	0x8185bf05	-4.9130584e-38
122	0x81859538	-4.90706e-38
123	0x8185cf73	-4.915416e-38
124	0x8185871f	-4.9050373e-38
125	0x8185b450	-4.911522e-38
126	0x81859c01	-4.908034e-38
127	0x8185bfd8	-4.9131766e-38
128	0x81859a3c	-4.90778e-38
129	0x8185dcf7	-4.9173553e-38
130	0x0185cb87	4.914853e-38
131	0x0185de61	4.917558e-38
132	0x81858768	-4.905078e-38
133	0x0185c609	4.914065e-38
134	0x0185c52f	4.913943e-38
135	0x8185b1f8	-4.9111857e-38
136	0x8185a597	-4.9094094e-38
137	0x018599c6	4.907714e-38
138	0x0185ddbf	4.9174674e-38
139	0x8185c6ae	-4.9141575e-38
140	0x81859f8b	-4.9085417e-38
141	0x8185ad1d	-4.910489e-38
142	0x8185ce9f	-4.915297e-38
143	0x0185945c	4.906937e-38
144	0x81859202	-4.9065995e-38
145	0x0185e4a8	4.918459e-38
146	0x8185dc08	-4.9172213e-38
147	0x8185e045	-4.9178295e-38
148	0x8185d82b	-4.916667e-38
149	0x8185bc5f	-4.9126783e-38
150	0x0185d00d	4.915502e-38
151	0x8185ca12	-4.914644e-38
152	0x8185b975	-4.91226e-38
153	0x0185d689	4.9164327e-38
154	0x8185c4d2	-4.913891e-38
155	0x0185baf0	4.9124726e-38
156	0x0185de29	4.917527e-38
157	0x8185c1b8	-4.9134457e-38
158	0x8185b6d0	-4.9118807e-38
159	0x0185c499	4.913859e-38
160	0x3e380373	0.17970066
161	0x3e537be3	0.20652728
162	0x85b544f1	-1.7046483e-35
163	0x8732de1b	-1.3456503e-34
164	0x3e4c3024	0.19940239
165	0x01859653	4.907219e-38
166	0x95654343	-4.6299242e-26
167	0x91144f88	-1.1699649e-28
168	0x3e6bc945	0.23025997
169	0x1802aab2	1.6888285e-24
170	0x0110226c	2.647332e-38
171	0x8185c098	-4.913284e-38
172	0x81859fd4	-4.9085826e-38
173	0x0185af78	4.910827e-38
174	0x0185d730	4.9165263e-38
175	0x0185b549	4.9116615e-38
176	0x3e2eb488	0.17061055
177	0x015b8db8	4.0325626e-38
178	0x3e3591a3	0.17731337
179	0x0185b16a	4.911106e-38
180	0x01aacce9	6.274217e-38
181	0x818592e2	-4.906725e-38
182	0x8bdeeab8	-8.5864455e-32
183	0x8629fbe2	-3.1970422e-35
184	0x813e0fc0	-3.490879e-38
185	0x038d0a07	8.289537e-37
186	0xbf6f54d9	-0.9348884
187	0x0185ddec	4.9174926e-38
188	0x8371cba4	-7.1057303e-37
189	0x3e68a6c4	0.22719866
190	0x0185c3fd	4.9137713e-38
191	0x84feb1cd	-5.9878397e-36
192	0x3e657e39	0.22411431
193	0x3e7c1840	0.24618626
194	0x85cee0cb	-1.9454723e-35
195	0x874c548e	-1.5372103e-34
196	0x3e84ed73	0.2596241
197	0x0185c405	4.913776e-38
198	0x958273f5	-5.268953e-26
199	0x91297b0a	-1.3369664e-28
200	0x3e8e0b3d	0.2774295
201	0x18155086	1.9298453e-24
202	0x011da008	2.8951163e-38
203	0x80c43e60	-1.8022133e-38
204	0x017ab176	4.604507e-38
205	0x01859133	4.9064835e-38
206	0x00949520	1.364515e-38
207	0x0185c26d	4.913547e-38
208	0x3e5015cf	0.2032082
209	0x01526770	3.864512e-38
210	0x3e736ce7	0.23772012
211	0x0185e548	4.9185486e-38
212	0x01b23ef9	6.5477235e-38
213	0x8185e35f	-4.9182745e-38
214	0x8bfe7490	-9.8012625e-32
215	0x86417d6d	-3.6391414e-35
216	0x812b66b0	-3.1481414e-38
217	0x03a1420d	9.477894e-37
218	0xbf6ac507	-0.9170689
219	0x01858f84	4.906242e-38
220	0x838914cc	-8.056911e-37
221	0x3e8371b3	0.25672683
222	0x01859491	4.9069666e-38
223	0x8510ef37	-6.814784e-36
224	0x3e1cda04	0.15317541
225	0x3e391e70	0.18078017
226	0x859cd6ca	-1.474907e-35
227	0x871ab412	-1.163859e-34
228	0x3e22bce1	0.15892364
229	0x01859893	4.907542e-38
230	0x95471f00	-4.0212185e-26
231	0x910022b2	-1.0108111e-28
232	0x3e585643	0.21126656
233	0x17e1bbf3	1.4587729e-24
234	0x0113ffe8	2.718324e-38
235	0x8185a1b8	-4.908854e-38
236	0x017ade95	4.6077443e-38
237	0x0185d9df	4.9169114e-38
238	0x01859af8	4.9078853e-38
239	0x0185b1d8	4.911168e-38
240	0x3e20efbf	0.15716456
241	0x015ff7c8	4.1136406e-38
242	0x3e249e66	0.16076049
243	0x0185cd9e	4.915153e-38
244	0x01ab5ac9	6.294575e-38
245	0x006c0f65	9.923756e-39
246	0x8bc0f557	-7.4324856e-32
247	0x86139d3f	-2.7763153e-35
248	0x81481b30	-3.6753705e-38
249	0x0375a698	7.219027e-37
250	0xbf5c386c	-0.8602359
251	0x0185a263	4.90895e-38
252	0x83518a47	-6.1578314e-37
253	0x3e44c8e3	0.19217257
254	0x0185db00	4.9170734e-38
255	0x84dd2bb3	-5.199698e-36
