checkpoints/neumf_first_try_Epoch1_precision0.2594_recall1.0000.model (torch, 645252 bytes, 13 tensors)

embedding_user_mlp.weight f4 [6040, 8]
0	0xbe5a97c9	-0.21346964
1	0xbd578466	-0.0526165
2	0x3c566bf1	0.013087259
3	0x3d436bed	0.047710348
4	0xbe5412a8	-0.20710242
5	0x3ddeee3b	0.108852826
6	0xbd341b80	-0.04397154
7	0x3d59114f	0.052995022
8	0x3d396a0f	0.04526716
9	0x3c1152d0	0.008869842
10	0x3ceaa1cf	0.02864161
11	0xbccab088	-0.02474238
12	0x3d48bad4	0.0490063
13	0xbd5905cf	-0.052984055
14	0x3c111864	0.008855913
15	0xbcae2f7d	-0.021262879
16	0x3c165a82	0.009176852
17	0xbdddcc6e	-0.108300075
18	0x3e32be2c	0.17455357
19	0x3e05909f	0.1304345
20	0x3c20cf79	0.00981509
21	0x3da453c7	0.08023792
22	0xbdef4866	-0.11683731
23	0x3dec8613	0.1154901
24	0xbe4a0e58	-0.19732034
25	0xbe65b9d7	-0.22434174
26	0x3e838529	0.2568753
27	0x3e63f269	0.22260441
28	0xbe4c66ee	-0.1996114
29	0x3e6b4c72	0.2297838
30	0xbe5d8aa6	-0.21634921
31	0x3e6986da	0.22805348
32	0x3d42da4a	0.047571458
33	0xbc61bc41	-0.013777793
34	0x3d67e160	0.05661142
35	0x3ce5aa94	0.02803544
36	0x3d963723	0.07334735
37	0x3c04b318	0.00809934
38	0xbc5a0327	-0.013306416
39	0x3cd3629f	0.025803862
40	0xbd8d8c95	-0.069115795
41	0xbd1a4863	-0.03766669
42	0x3be1ccef	0.006890885
43	0x3cdd364c	0.02700343
44	0xbd69a3fa	-0.057041146
45	0x3db0feba	0.08642335
46	0xbcc0c9bc	-0.023533694
47	0x3cda0671	0.0266144
48	0xbe909a1b	-0.28242573
49	0xbe73dec9	-0.23815455
50	0x3e7af13a	0.24506083
51	0x3e6adfbe	0.22936913
52	0xbe8d1bd2	-0.27560288
53	0x3e86f78b	0.26360735
54	0xbe6cf2db	-0.23139517
55	0x3e7529ec	0.23941773
56	0x3e106ce5	0.1410404
57	0xbd386ff7	-0.045028653
58	0x3daa3868	0.0831154
59	0x3d0ea706	0.034827255
60	0x3e0c608b	0.13708703
61	0xbcac837a	-0.021058787
62	0xbd1f8c74	-0.038952306
63	0x3d4f85d7	0.05066475
64	0xbe6b87a0	-0.23000956
65	0xbe1ccd38	-0.1531266
66	0x3e1866c4	0.14882952
67	0x3e0bf83b	0.13668911
68	0xbe594cc2	-0.21220687
69	0x3e2f9601	0.17147066
70	0xbe0df1a3	-0.13861708
71	0x3e12ea25	0.14347132
72	0xbde739dc	-0.11290333
73	0x3d08aab1	0.03336591
74	0xbd7a44e0	-0.06110084
75	0xbcd55e8a	-0.026046056
76	0xbdcea847	-0.1009069
77	0x3cb10cde	0.02161258
78	0x3d21b849	0.03948239
79	0xbd265ca8	-0.040615708
80	0xbdafc22a	-0.08581956
81	0xbce1b434	-0.027551748
82	0x3c10353f	0.008801757
83	0x3ca809a3	0.020512408
84	0xbd843c98	-0.0645687
85	0x3d598903	0.05310918
86	0xbc912d4a	-0.01772179
87	0x3cb3aa7d	0.021931881
88	0x3c87ecab	0.016592344
89	0xbd8a9c7f	-0.067681305
90	0x3dbb659c	0.0915024
91	0x3d9270e1	0.07150436
92	0x3c7325fe	0.014840601
93	0x3d2cbe05	0.042173404
94	0xbd87c37c	-0.066290826
95	0x3d835f8f	0.06414711
96	0x3d3aeef8	0.045638055
97	0xbe0914fc	-0.13386911
98	0x3e475f99	0.19470061
99	0x3e0d4147	0.13794433
100	0x3d32132c	0.043475315
101	0x3daebe61	0.08532406
102	0xbe148c2b	-0.14506595
103	0x3e04dd0f	0.12974952
104	0xbe620295	-0.22071297
105	0xbdb01bc0	-0.08599043
106	0x3d63a148	0.05557373
107	0x3db33658	0.087505996
108	0xbe5e5514	-0.21712142
109	0x3e05c97a	0.13065138
110	0xbda60e96	-0.08108251
111	0x3dc1b891	0.094590314
112	0xbde6d8b1	-0.11271799
113	0xbdff2d4a	-0.1245981
114	0x3e064dc9	0.1311561
115	0x3df44a84	0.11928275
116	0xbde9c1f8	-0.1141395
117	0x3dde0422	0.10840632
118	0xbdf31332	-0.118688956
119	0x3dfe3666	0.124127194
120	0xbde2a1ff	-0.110660546
121	0xbdc4cb3f	-0.096090786
122	0x3da74d13	0.081689976
123	0x3db74351	0.089483865
124	0xbdd2a257	-0.1028487
125	0x3e06a312	0.13148144
126	0xbdb894be	-0.09012745
127	0x3dcff554	0.101542145
128	0xbd3df1b7	-0.046373095
129	0x3c5888a3	0.0132161705
130	0xbc4f0879	-0.012636297
131	0xbc7a5046	-0.015277928
132	0xbd29c284	-0.04144527
133	0x3cdd4b90	0.02701357
134	0x3cac930e	0.021066215
135	0xbc9713a9	-0.018441992
136	0x3ba84241	0.005134851
137	0x3d1b3eb3	0.03790159
138	0xbd33e1ee	-0.043916635
139	0xbccc09b9	-0.02490698
140	0xbc5e0fe3	-0.013553592
141	0xbce3d7c9	-0.027812855
142	0x3ce57737	0.028010948
143	0xbca712d0	-0.020394713
144	0xbe26a2ae	-0.16272995
145	0xbc8d1873	-0.017223572
146	0xbaf02405	-0.0018321282
147	0x3ca0d64d	0.019633437
148	0xbe1a789b	-0.1508507
149	0x3d921dcd	0.0713459
150	0xbc06ef3e	-0.008235751
151	0x3c70f712	0.014707344
152	0xbe236752	-0.15957382
153	0xbe1c84b9	-0.15285005
154	0x3e33777c	0.17526048
155	0x3e25cbd6	0.16191038
156	0xbe136ea3	-0.14397673
157	0x3e27f4b0	0.16401935
158	0xbe158476	-0.14601311
159	0x3e288ebd	0.164607
160	0xbe090962	-0.13382486
161	0xbcf0daa9	-0.02940114
162	0xbbef3817	-0.0073003876
163	0x3cb30b12	0.021855865
164	0xbdf9f3ba	-0.1220469
165	0x3db91b20	0.09038377
166	0xbc50241f	-0.012703924
167	0x3cd86823	0.026416844
168	0x3d8fa996	0.07014768
169	0xbda00bcc	-0.0781475
170	0x3e051161	0.12994911
171	0x3d76a9ed	0.060220648
172	0x3d66bf2f	0.05633467
173	0x3d5644dc	0.052311763
174	0xbd9ddeee	-0.07708536
175	0x3da7dbbb	0.08196207
176	0xbe168db3	-0.14702491
177	0x3d1f84b1	0.038944904
178	0xbd952bee	-0.072837695
179	0xbd231418	-0.039814085
180	0xbe25090c	-0.16116732
181	0x3c444e78	0.011981599
182	0x3cf8f961	0.03039235
183	0xbd163ae4	-0.036677256
184	0xbd48719a	-0.048936464
185	0xbdebe0f3	-0.11517515
186	0x3e00a378	0.12562358
187	0x3dde51b0	0.108554244
188	0xbd5642f1	-0.052309934
189	0x3dd17d29	0.102289505
190	0xbdef47ae	-0.11683594
191	0x3df44680	0.11927509
192	0xbda7e1c2	-0.08197357
193	0xbe10cc27	-0.14140378
194	0x3e0df3af	0.13862489
195	0x3df988f6	0.12184326
196	0xbd9132f9	-0.070898004
197	0x3de7c50f	0.11316883
198	0xbde9fa6d	-0.11424718
199	0x3e067c56	0.13133368
200	0x3e663a68	0.22483218
201	0x3e14adb4	0.14519387
202	0xbd54838e	-0.051883273
203	0xbe03d5c5	-0.12874515
204	0x3e6ca7c3	0.23110871
205	0xbe7ea9f7	-0.24869524
206	0x3dd7612e	0.105165824
207	0xbe02cae8	-0.12772715
208	0xbe4b46d4	-0.19851238
209	0xbdbe8892	-0.093033925
210	0x3dc994bd	0.09842823
211	0x3dd1a5e6	0.10236721
212	0xbe468eb6	-0.19390377
213	0x3df575f5	0.11985389
214	0xbdc6b067	-0.09701615
215	0x3dc31664	0.09525755
216	0xbe5539d1	-0.20822836
217	0xbe1541a1	-0.14575817
218	0x3e0414a2	0.12898496
219	0x3e0b6e1b	0.1361622
220	0xbe5268bf	-0.2054777
221	0x3e379464	0.179277
222	0xbe260a1a	-0.16214791
223	0x3e224d61	0.1584983
224	0x3e1d5175	0.15363105
225	0xbdf4050c	-0.11915025
226	0x3e58b552	0.21162918
227	0x3e014cd5	0.12626965
228	0x3e2aab53	0.16666918
229	0x3bd9a9ba	0.0066425474
230	0xbe0c76dd	-0.13717218
231	0x3dff30de	0.124604926
232	0x3d7b36bc	0.061331496
233	0xbd3ade91	-0.045622412
234	0x3de2e8fb	0.11079594
235	0x3d403af6	0.04693123
236	0x3d641a83	0.055689346
237	0x3be45ac2	0.006968827
238	0xbd36b304	-0.044604316
239	0x3d46bdad	0.048520733
240	0x3dea2155	0.11432139
241	0x3d08c686	0.03339245
242	0x3cbc603e	0.02299511
243	0xbccd1b36	-0.02503739
244	0x3dd4cc45	0.10390524
245	0xbdad2da3	-0.0845597
246	0x3d14ec7d	0.036358345
247	0xbcb19e44	-0.021681912
248	0xbe0425b9	-0.12905015
249	0xbdcf8327	-0.10132437
250	0x3db7a355	0.089667
251	0x3dd89bea	0.10576613
252	0xbe12c9d6	-0.14334807
253	0x3de613a2	0.112342134
254	0xbdc47737	-0.09593051
255	0x3dde2563	0.10846975

embedding_item_mlp.weight f4 [3706, 8]
0	0xbed1814a	-0.40918952
1	0x3ecee3d0	0.40408182
2	0xbec6c878	-0.3882482
3	0x3ec8faa5	0.39253727
4	0x3ed0dbf8	0.40792823
5	0xbec35810	-0.38153124
6	0x3ed226c4	0.410452
7	0xbecc95bd	-0.3995799
8	0xbe54c0ca	-0.20776668
9	0x3e4f3703	0.20235829
10	0xbe4b217f	-0.19836996
11	0x3e5b1688	0.21395314
12	0x3e5cbe21	0.21556903
13	0xbe5a399e	-0.21311042
14	0x3e56cfb4	0.2097767
15	0xbe4ac2f2	-0.19800928
16	0xbe074d82	-0.1321316
17	0x3e24bec9	0.16088404
18	0xbe194285	-0.14966781
19	0x3e267d4e	0.16258737
20	0x3e1f54e1	0.15559722
21	0xbe23fdc9	-0.1601478
22	0x3e17db8e	0.14829847
23	0xbe18fe6e	-0.14940807
24	0xbe9e81fd	-0.30958548
25	0x3e9eb862	0.31000048
26	0xbe929bd6	-0.28634518
27	0x3e97bde4	0.29637063
28	0x3e99d2b8	0.30043578
29	0xbe97d6cd	-0.29656067
30	0x3e9d76e3	0.30754766
31	0xbe9dad34	-0.30796206
32	0xbeaa9e20	-0.33323765
33	0x3eacf701	0.337822
34	0xbeaeda3b	-0.34150872
35	0x3eaa54bf	0.3326778
36	0x3ea74ed9	0.32677343
37	0xbeb0107f	-0.34387586
38	0x3eae9ebb	0.34105477
39	0xbeafd58c	-0.3434261
40	0xbe9f4ede	-0.31114858
41	0x3e9c2aa9	0.30501297
42	0xbe9d2b3a	-0.30697042
43	0x3e9ebbc8	0.3100264
44	0x3e9b9899	0.3038986
45	0xbe97811f	-0.295907
46	0x3ea06e6c	0.31334245
47	0xbe9e49c4	-0.30915654
48	0xbdbdb16e	-0.09262358
49	0x3db5a441	0.088692196
50	0xbdafec38	-0.08589977
51	0x3da1b67a	0.07896133
52	0x3dba0650	0.09083235
53	0xbdbcbd2d	-0.0921577
54	0x3da0366f	0.078228824
55	0xbda5f8e9	-0.081041165
56	0xbe643e1f	-0.22289322
57	0x3e552c2b	0.2081763
58	0xbe633fb8	-0.22192276
59	0x3e5fd888	0.21859944
60	0x3e64c66c	0.22341317
61	0xbe6c9e25	-0.23107202
62	0x3e6b25d5	0.2296365
63	0xbe683c1b	-0.22679178
64	0xbe632542	-0.22182181
65	0x3e58cbec	0.2117154
66	0xbe6245f2	-0.22096995
67	0x3e5aecf7	0.21379457
68	0x3e6629a1	0.22476818
69	0xbe530e74	-0.20610982
70	0x3e5917f1	0.21200539
71	0xbe64af23	-0.22332434
72	0xbe8bcc85	-0.27304474
73	0x3e86a16b	0.26295027
74	0xbe87c957	-0.26520798
75	0x3e8b60f7	0.27222416
76	0x3e862eb0	0.26207495
77	0xbe8b4852	-0.27203614
78	0x3e846754	0.25860083
79	0xbe8ac978	-0.27106833
80	0xbe7ed08f	-0.24884246
81	0x3e87a33e	0.2649173
82	0xbe8a202d	-0.26977673
83	0x3e8ce541	0.27518657
84	0x3e8b5b1a	0.27217942
85	0xbe84986e	-0.25897545
86	0x3e8c930b	0.27455935
87	0xbe8868aa	-0.26642352
88	0x3c392747	0.011300868
89	0xbc8a5109	-0.016884344
90	0x3c2030fb	0.009777303
91	0xbbaa645c	-0.005199952
92	0xbbf4d910	-0.007472165
93	0xbce33fbc	-0.027740352
94	0xbc007e7a	-0.007842654
95	0x3c1e54d1	0.0096637765
96	0xbd359f5d	-0.044341434
97	0x3d2781b3	0.040895175
98	0xbd332830	-0.043739498
99	0x3d13f408	0.0361214
100	0x3d0e0b87	0.034678962
101	0xbd55c42e	-0.052189045
102	0x3d2f1cf4	0.04275222
103	0xbd00c9f6	-0.031442605
104	0xbe1106f9	-0.14162816
105	0x3e16a004	0.14709479
106	0xbe1ce5e9	-0.15322079
107	0x3e233d7c	0.15941423
108	0x3e16416b	0.14673392
109	0xbe1d38ae	-0.15353653
110	0x3e1d8edc	0.15386528
111	0xbe14d516	-0.14534411
112	0xbe868291	-0.2627149
113	0x3e939b01	0.28829196
114	0xbe87afae	-0.2650122
115	0x3e8c5e3f	0.27415654
116	0x3e8eb21e	0.27870268
117	0xbe86d6f4	-0.2633587
118	0x3e8d41e8	0.27589345
119	0xbe886475	-0.26639143
120	0xbe9afceb	-0.30271086
121	0x3ea040c8	0.31299424
122	0xbe9e8d50	-0.30967188
123	0x3e9af558	0.30265307
124	0x3ea043ae	0.31301636
125	0xbe9fb244	-0.31190693
126	0x3e9d9935	0.3078095
127	0xbe9e68cd	-0.30939332
128	0xbe2a53e2	-0.16633561
129	0x3e1afda6	0.15135822
130	0xbe3863bb	-0.18006794
131	0x3e3e6916	0.18594775
132	0x3e276f37	0.16351019
133	0xbe3609b2	-0.17777136
134	0x3e3205c6	0.17385015
135	0xbe2e4ad0	-0.17020726
136	0xbdf8aa3e	-0.12141846
137	0x3e078f92	0.13238361
138	0xbded99c5	-0.11601595
139	0x3dfe64fc	0.12421605
140	0x3dff6ee3	0.12472322
141	0xbdf9bcfa	-0.121942475
142	0x3dfea221	0.124332674
143	0xbdf9d90a	-0.121996
144	0xbda3f13f	-0.080049984
145	0x3d878a45	0.0661817
146	0xbd7df32c	-0.061999485
147	0x3d88c508	0.06678206
148	0x3d82ea04	0.06392291
149	0xbd376076	-0.044769727
150	0x3d8b134a	0.067907885
151	0xbd86ebb8	-0.065879285
152	0xbe31ba7a	-0.17356291
153	0x3e360c94	0.17778236
154	0xbe3a91bc	-0.18219656
155	0x3e3a1686	0.18172655
156	0x3e2e3d6c	0.17015618
157	0xbe419069	-0.18902744
158	0x3e29c80f	0.16580223
159	0xbe357bdb	-0.17723028
160	0xbe49a9ae	-0.19693634
161	0x3e4c7ecc	0.19970244
162	0xbe4818cd	-0.19540711
163	0x3e4b7d43	0.19872002
164	0x3e3f82a4	0.18702179
165	0xbe4ae93d	-0.19815536
166	0x3e4bc36c	0.19898766
167	0xbe420ca8	-0.1895014
168	0xbe08e58a	-0.13368812
169	0x3e025b69	0.12730183
170	0xbe1a8fca	-0.15093914
171	0x3e1bf080	0.15228462
172	0x3e0fe392	0.14051655
173	0xbe38e809	-0.18057264
174	0x3e13d42e	0.14436409
175	0xbe0ecf63	-0.13946299
176	0xbeb3d156	-0.35120648
177	0x3eaa26f2	0.33232838
178	0xbea29fcc	-0.3176254
179	0x3ea49391	0.32143834
180	0x3eac4013	0.33642635
181	0xbea54275	-0.32277265
182	0x3eab951c	0.335122
183	0xbeabc00c	-0.33544958
184	0xbf04e7da	-0.5191628
185	0x3f02a63b	0.510349
186	0xbeffe3a9	-0.49978378
187	0x3efb6d6e	0.49106926
188	0x3f00724b	0.501744
189	0xbef177e3	-0.4716178
190	0x3f01f6a7	0.50766987
191	0xbf0355f7	-0.51303047
192	0x3c4e2f32	0.012584494
193	0x3b91ff42	0.004455478
194	0xbb1c9a26	-0.002389559
195	0x3b02d6c2	0.0019964431
196	0xbb4b15ad	-0.0030988262
197	0x3c123502	0.008923771
198	0xbc0598a8	-0.008154072
199	0x3c030f42	0.007999243
200	0xbdb6313b	-0.08896109
201	0x3da127e8	0.0786894
202	0xbdc4d366	-0.096106336
203	0x3dc95ea7	0.098325066
204	0x3dab9b73	0.08379259
205	0xbded8d9c	-0.115992755
206	0x3db5e572	0.08881654
207	0xbddb2ed7	-0.10702293
208	0xbeafd3b2	-0.34341198
209	0x3eb53e58	0.35399127
210	0xbeb81f5a	-0.3596142
211	0x3eb58368	0.35451818
212	0x3eb615d7	0.35563537
213	0xbeb36c90	-0.35043764
214	0x3ebc9dde	0.36839193
215	0xbeaf93ca	-0.34292442
216	0xbe96806e	-0.2939486
217	0x3e8de17f	0.27711102
218	0xbe8e03db	-0.27737316
219	0x3e8eae90	0.27867556
220	0x3e966328	0.29372525
221	0xbe8d10a0	-0.27551746
222	0x3e8af730	0.27141714
223	0xbe941332	-0.28920895
224	0x3dbb1a0a	0.09135826
225	0xbdb7a3aa	-0.08966763
226	0x3da65b87	0.08122926
227	0xbdce7ddf	-0.10082602
228	0xbdc34709	-0.09535033
229	0x3dbeb5a6	0.093119904
230	0xbdc3f966	-0.09569053
231	0x3dbf014f	0.093264215
232	0xbe807f2a	-0.25097018
233	0x3e82391f	0.25434205
234	0xbe899d89	-0.26878002
235	0x3e883848	0.2660544
236	0x3e86a936	0.26300973
237	0xbe8cc283	-0.2749215
238	0x3e80e471	0.25174287
239	0xbe899bc6	-0.26876658
240	0xbe0104fe	-0.1259956
241	0x3e02f06a	0.12787023
242	0xbe0a38e5	-0.13498266
243	0x3e066435	0.13124163
244	0x3e08e761	0.13369514
245	0xbe036e99	-0.12835158
246	0x3e028dfb	0.12749474
247	0xbe09cc75	-0.134569
248	0xbde100b6	-0.10986464
249	0x3de80acd	0.11330185
250	0xbdcd5c00	-0.10027313
251	0x3de340bf	0.11096334
252	0x3df0075e	0.11720155
253	0xbde24c8f	-0.11049759
254	0x3dff8194	0.12475887
255	0xbdd5ee49	-0.1044584

embedding_user_mf.weight f4 [6040, 8]
0	0x3e555510	0.2083323
1	0x3d8f1bc3	0.06987717
2	0x3d79e4d9	0.06100926
3	0x3d32351d	0.043507684
4	0x3d12f955	0.035882313
5	0xbe86e122	-0.26343638
6	0xbd97fc84	-0.074212104
7	0x3e0c74ec	0.13716477
8	0x3e8d8946	0.27643794
9	0x3e3d17ca	0.18466106
10	0xbe64c6e0	-0.2234149
11	0xbdb12401	-0.08649445
12	0x3e1a31c9	0.15058054
13	0xbe1f1e19	-0.15538825
14	0x3ca56061	0.020187559
15	0x3e221f39	0.15832223
16	0x3e7fabf6	0.24967942
17	0xbe1e73a5	-0.15473802
18	0xbeb08156	-0.34473675
19	0xbca9aa09	-0.020710962
20	0x3e897bda	0.26852304
21	0xbe84958e	-0.2589535
22	0x3e957635	0.29191747
23	0x3e9e6d45	0.3094274
24	0x3e5b10f0	0.2139318
25	0x3cd791ef	0.026314704
26	0xbeb917b8	-0.36150908
27	0x3dc4a410	0.09601605
28	0x3e910955	0.28327432
29	0xbe8214a4	-0.25406373
30	0xbbe1c4f2	-0.006889933
31	0x3e5ff0c1	0.21869184
32	0xbd33160f	-0.04372221
33	0x3ef66ea7	0.48131296
34	0x3dfb63b8	0.12274879
35	0xbebf4fcb	-0.37365565
36	0x3dac2818	0.08406085
37	0x3e70e558	0.23524988
38	0x3e730323	0.23731665
39	0x3d400e03	0.046888363
40	0x3dbb4ee0	0.091459036
41	0xbcb14917	-0.021641297
42	0x3d876595	0.06611172
43	0x3d94e2a0	0.07269788
44	0xbd93312c	-0.07187113
45	0xbe8a6d60	-0.27036572
46	0x3d06ff91	0.03295857
47	0x3d7e947b	0.06215332
48	0x3e84ced3	0.25939044
49	0xbe048c1c	-0.12944072
50	0xbebab327	-0.36464807
51	0xbe95afb6	-0.2923562
52	0x3e8abd50	0.2709756
53	0xbe2da3df	-0.16957043
54	0x3e78042a	0.24220338
55	0x3e8f8e1d	0.2803811
56	0x3e2d0104	0.16894919
57	0x3e995f68	0.29955602
58	0x3de0c8b0	0.10975778
59	0xbf04af0d	-0.51829606
60	0x3dbaaa0b	0.09114464
61	0xbd556040	-0.052093744
62	0x3eb83090	0.3597455
63	0x3dbb2820	0.091385126
64	0x3e3c9ba2	0.18418744
65	0x3eaf60a4	0.34253418
66	0x3df69374	0.12039843
67	0xbf0397dd	-0.514036
68	0x3d9e1c25	0.07720212
69	0x3c58812f	0.0132143935
70	0x3e45e8c8	0.1932708
71	0x3e0ef384	0.13960081
72	0x3e3136be	0.17306039
73	0xbe2bf942	-0.16794303
74	0xbc468d54	-0.012118656
75	0x3e96a837	0.29425213
76	0xbc8d8cb1	-0.017279001
77	0xbf09023c	-0.53519034
78	0xbc81041d	-0.015749032
79	0x3e21e9b7	0.15811811
80	0x3dbb886d	0.091568805
81	0x3e04daa8	0.12974036
82	0x3e9c4feb	0.30529723
83	0xbe8d8a24	-0.27644455
84	0x3e3c3423	0.18379264
85	0xbd6e54b2	-0.05818624
86	0x3ef86929	0.4851773
87	0x3e2a4f59	0.16631831
88	0x3d1b3047	0.037887838
89	0x3e1fe60a	0.15615097
90	0xbb8ed15d	-0.004358454
91	0x3e159432	0.14607313
92	0x3db94865	0.09047011
93	0x3b40ea35	0.0029436473
94	0xbd444c52	-0.047924347
95	0x3db1f2f2	0.08688916
96	0x3e4babe3	0.19889788
97	0xbe916eea	-0.28404933
98	0xbeeafb6d	-0.45894948
99	0xbcb917a0	-0.022594273
100	0x3e509565	0.2036949
101	0xbe8b04d4	-0.2715212
102	0x3c5560f2	0.013023602
103	0x3e77f62a	0.24214998
104	0x3e3d2d88	0.184744
105	0x3dff9071	0.12478722
106	0x3d4b0c91	0.04957253
107	0xbd937e4b	-0.07201823
108	0x3def5632	0.11686362
109	0xbcc314fa	-0.023813713
110	0x3d26a60d	0.040685702
111	0x3e11378e	0.14181349
112	0x3eaf0ebc	0.3419093
113	0xbb0312e6	-0.0020000278
114	0x3db50ead	0.0884069
115	0xbf33f19e	-0.70290554
116	0x3e185970	0.14877868
117	0xbdbf924e	-0.09354077
118	0x3ed53caa	0.41647846
119	0x3e380870	0.17971969
120	0xbba505ab	-0.005036076
121	0xbe8f89e7	-0.280349
122	0x3e52dcab	0.2059199
123	0xbe8266fd	-0.254692
124	0xbe45b5e6	-0.1930767
125	0x3e032b1a	0.1280941
126	0xbd2de437	-0.04245397
127	0xbe1e58cf	-0.15463565
128	0xbdcd200c	-0.10015878
129	0x3d565bdc	0.052333698
130	0xbee7a8af	-0.45245883
131	0xbdd6cdd6	-0.10488479
132	0x3d4bf338	0.0497925
133	0xbb03a5a2	-0.0020087739
134	0xbe2b5411	-0.16731288
135	0x3da1f127	0.07907324
136	0x3e133e3c	0.1437921
137	0xbe97b1d5	-0.29627863
138	0xbe08c003	-0.13354497
139	0xbd88aa19	-0.066730686
140	0x3d926a4c	0.07149181
141	0xbea2094c	-0.31647718
142	0xbc38d88c	-0.011282098
143	0x3e10e3de	0.14149424
144	0x3e1c4615	0.15261109
145	0xbea94257	-0.33058426
146	0xbead678b	-0.3386806
147	0xbdbe6268	-0.09296113
148	0x3e026bd9	0.12736453
149	0xbdd55584	-0.104167014
150	0xbdca466d	-0.09876714
151	0x3d9d0515	0.07666985
152	0x3e772db1	0.24138524
153	0x3c9e72a1	0.019341769
154	0xbe0bb240	-0.13642216
155	0xbe66b3ae	-0.2252948
156	0x3e6377e8	0.2221371
157	0xbe168376	-0.14698586
158	0x3e7242fd	0.23658367
159	0x3e5e6bf7	0.21720873
160	0x3d96f566	0.07371025
161	0xbe6abac9	-0.22922815
162	0xbdaa664e	-0.08320294
163	0xbe26ba38	-0.16281974
164	0x3da54943	0.08070614
165	0xbe134365	-0.14381178
166	0x3d9aaf1e	0.07552932
167	0x3e26243e	0.16224763
168	0x3e8396b4	0.25700915
169	0xbeb6613f	-0.35621068
170	0xbe265036	-0.16241536
171	0xbe89c9cd	-0.26911774
172	0x3e8c4952	0.2739969
173	0xbe50a65a	-0.20375958
174	0x3ef8d639	0.4860094
175	0x3eb34928	0.3501675
176	0xbc3186f4	-0.010835398
177	0x3dc10d49	0.09426362
178	0xbef7de89	-0.48411968
179	0xbc5490a7	-0.012973941
180	0x3e845970	0.25849485
181	0xbcb1a3ae	-0.021684494
182	0x3b52bc38	0.0032155644
183	0x3e671323	0.22565894
184	0x3e9eb11f	0.30994508
185	0x3e9d66fa	0.30742627
186	0x3d65f536	0.056142054
187	0x3df5785b	0.119858466
188	0x3e83100c	0.2559818
189	0xbeb58cc8	-0.3545897
190	0x3e984494	0.2973982
191	0x3ead7e71	0.3388553
192	0x3de09cad	0.109673835
193	0xbea63cb8	-0.324682
194	0xbe8597f5	-0.26092497
195	0xbed0e302	-0.40798193
196	0x3dce7dd0	0.100825906
197	0xbddc6986	-0.107623145
198	0x3de1114b	0.109896265
199	0x3e2576f9	0.16158666
200	0x3e74df25	0.23913248
201	0xbe345df9	-0.17613973
202	0x3e8599ad	0.26093808
203	0x3ae788d6	0.0017664682
204	0x3e918278	0.28419852
205	0xbf20c9c9	-0.628079
206	0x3f2ad4fd	0.66731244
207	0x3e6c96be	0.23104379
208	0x3d21769b	0.03941975
209	0x3ea6f0a1	0.3260546
210	0xbe45f9d7	-0.19333588
211	0x3ea9b099	0.33142546
212	0x3d148163	0.036256205
213	0xbbe33355	-0.0069336095
214	0xbe89c3af	-0.26907107
215	0xbcaed3f9	-0.02134131
216	0x3e329cf1	0.17442681
217	0x3ee4566d	0.44597188
218	0xbd338b86	-0.04383423
219	0x3e415739	0.18880929
220	0x3d5fb9be	0.054620497
221	0xbe2d594e	-0.16928598
222	0xbc998ebc	-0.018744819
223	0x3e137af9	0.14402379
224	0x3e53beca	0.20678249
225	0xbd11c1d0	-0.035585225
226	0xbf1c9894	-0.61170316
227	0x3e016646	0.1263667
228	0x3e9f85b1	0.31156686
229	0xbe03a3e2	-0.12855485
230	0xbe3bfd4c	-0.18358344
231	0x3e60c45a	0.21949902
232	0x3c8db728	0.01729925
233	0x3ef39427	0.4757397
234	0x3dd7aece	0.10531388
235	0xbe7614cf	-0.24031375
236	0x3c7b9824	0.015356097
237	0x3d857740	0.06516886
238	0xbd6fda73	-0.05855794
239	0xbd9ab2dc	-0.07553646
240	0xbc8cf8c3	-0.017208463
241	0x3d86859a	0.06568451
242	0xbc58b6fb	-0.01322722
243	0x3ee323d0	0.4436326
244	0x3d2a82ca	0.041628636
245	0xbe83a7ad	-0.25713864
246	0xbd28928c	-0.041155383
247	0x3c1269c1	0.0089363465
248	0x3e02cafa	0.12772742
249	0x3ead2ff4	0.33825648
250	0x3dc96027	0.09832793
251	0xbe46d73b	-0.19418041
252	0x3d86aedb	0.0657632
253	0x3d257f2d	0.040404487
254	0x3ddf6a4c	0.109089464
255	0x3ddf9511	0.10917104

embedding_item_mf.weight f4 [3706, 8]
0	0x3e8d6e95	0.2762343
1	0xbf253ec1	-0.6454888
2	0x3e42d742	0.19027427
3	0xbe4c10e4	-0.19928318
4	0x3e465aab	0.19370525
5	0xbe27f031	-0.1640022
6	0x3cc97a04	0.024594314
7	0x3e0e94d8	0.13923967
8	0xbe2d8451	-0.16945006
9	0x3e5b4a25	0.21415003
10	0xbdff6466	-0.12470321
11	0x3c259835	0.01010709
12	0xbe566a52	-0.20938995
13	0xbd945878	-0.072434366
14	0xbe89212f	-0.2678313
15	0x3d803bbd	0.06261394
16	0x3dff0a5e	0.12453149
17	0xbe11e41c	-0.14247173
18	0xbe37769f	-0.17916344
19	0xbef0a95f	-0.4700422
20	0xbebc9033	-0.36828765
21	0xbee6613c	-0.4499606
22	0xbeca0c19	-0.39462355
23	0xbdfecf9d	-0.12441943
24	0x3e8fba61	0.28071883
25	0xbe7d5abb	-0.24741642
26	0xbea8e94d	-0.32990494
27	0x3f0cac5e	0.5495051
28	0xbde9b16a	-0.11410792
29	0x3dbc2edc	0.09188625
30	0xbe2f7b27	-0.17136823
31	0x3d323bb4	0.04351397
32	0x3ec7c8d8	0.3902042
33	0x3e0a66c7	0.13515769
34	0xbe03e238	-0.12879264
35	0x3e8c5288	0.27406716
36	0x3d8b865e	0.06812738
37	0xbec84a47	-0.3911917
38	0x3d224538	0.039616793
39	0x3eacf7d1	0.3378282
40	0x3f034d74	0.5129006
41	0xbe77413e	-0.24145982
42	0x3e961f30	0.2932067
43	0xbdbef08e	-0.09323226
44	0x3eab806f	0.33496425
45	0xbf16be6a	-0.588843
46	0x3e463f4e	0.19360086
47	0x3f0363ec	0.51324344
48	0x3e911b9e	0.28341383
49	0xbdc72401	-0.09723664
50	0x3f066dbf	0.5251121
51	0xbeb8ddb6	-0.36106652
52	0x3d5e8100	0.054322243
53	0xbe57fb41	-0.2109194
54	0xbee22ca2	-0.44174677
55	0x3d5fe894	0.054665163
56	0x3e8d3e26	0.27586478
57	0xbe486d9e	-0.19573066
58	0x3d875ecb	0.06609877
59	0xbe934f9a	-0.2877167
60	0x3e8fa352	0.2805429
61	0xbeb65817	-0.35614082
62	0x3e82de1f	0.2556009
63	0x3e800efb	0.2501143
64	0x3e267480	0.16255379
65	0x3e364628	0.178002
66	0xbcce251b	-0.025164178
67	0xbeb351dc	-0.3502339
68	0xbe15c966	-0.14627609
69	0xbef9f98d	-0.48823205
70	0xbed41ed1	-0.4142976
71	0x3dae673c	0.08515784
72	0x3ed03e56	0.4067256
73	0xbeaa028e	-0.33205074
74	0x3e74104e	0.23834345
75	0xbeba8b38	-0.3643434
76	0x3d3b2412	0.045688696
77	0xbf13af23	-0.5768911
78	0xbd1f3cc3	-0.038876306
79	0x3e707065	0.23480375
80	0x3e49a853	0.19693117
81	0x3e3885ae	0.18019745
82	0xbd145116	-0.036210142
83	0x3db641a7	0.08899241
84	0xbe5024c0	-0.20326519
85	0xbf21dbb0	-0.6322584
86	0xbe7342c3	-0.23755936
87	0x3da1a644	0.07893041
88	0xbdd6cab1	-0.10487879
89	0xbdf5f512	-0.12009634
90	0xbe8534cf	-0.26016852
91	0xbee1eade	-0.44124502
92	0xbf1c87d5	-0.61144763
93	0xbdcb033c	-0.09912726
94	0xbf1a86f0	-0.6036215
95	0xbebbddd8	-0.3669269
96	0x3e71777b	0.23580734
97	0xbe2f234c	-0.17103308
98	0xbe0088f7	-0.12552248
99	0xbe9f49a9	-0.31110886
100	0xbe94504b	-0.2896751
101	0xbe7b69eb	-0.24552123
102	0xbeaef3e1	-0.3417044
103	0xbe139733	-0.14413147
104	0x3ee517f9	0.44744852
105	0xbe8369d2	-0.25666672
106	0x3d74efcd	0.059799004
107	0xbe98ba89	-0.29829815
108	0x3ef47896	0.4774825
109	0xbf2dd121	-0.6789723
110	0x3ee70f05	0.45128646
111	0x3f2185e1	0.6309491
112	0x3e0798db	0.13241903
113	0xbd463abc	-0.048395857
114	0xbe1c3655	-0.15255101
115	0xbe68a6eb	-0.22719924
116	0xbe3d7041	-0.18499853
117	0xbea58040	-0.3232441
118	0xbe9b3152	-0.30311066
119	0x3dc497fa	0.095993
120	0x3ea93492	0.3304792
121	0xbe691197	-0.22760616
122	0x3d948387	0.07251649
123	0xbe9ca8c2	-0.30597502
124	0x3ea3df25	0.32006183
125	0xbebb3dab	-0.36570486
126	0x3e9c8c7a	0.30575925
127	0x3edbd8e0	0.429389
128	0xbccdd240	-0.02512467
129	0x3ea5cb34	0.32381594
130	0xbddc4a76	-0.1075639
131	0x3e0c718c	0.1371519
132	0xbe9f52e2	-0.31117922
133	0xbe538c7c	-0.2065906
134	0xbeca34be	-0.39493364
135	0x3cb2d99b	0.021832278
136	0x3e05d4c8	0.13069451
137	0x3e2e9d82	0.17052272
138	0xbd01af82	-0.031661518
139	0xbe72e996	-0.23721918
140	0xbe3ac590	-0.18239427
141	0xbedc7264	-0.43056023
142	0xbea81ff4	-0.32836878
143	0x3d1ef5ee	0.038808756
144	0x3e2d1dd5	0.16905911
145	0xbef83d96	-0.48484486
146	0xbe7829f3	-0.24234752
147	0x3dc81f1f	0.09771561
148	0x3b4e16b7	0.0031446645
149	0xbecd3e17	-0.40086433
150	0x3ec591af	0.3858771
151	0xba158695	-0.0005703953
152	0x3ee2fc2f	0.44333026
153	0xbda3e1a2	-0.080020204
154	0x3e390484	0.18068129
155	0xbecbcc6a	-0.39804393
156	0x3e960cbb	0.29306588
157	0xbf41c9f2	-0.7569877
158	0x3eae8d5c	0.34092224
159	0x3efde4bb	0.4958857
160	0x3e8e5aee	0.2780375
161	0xbe5808ca	-0.21097103
162	0xbe8ad655	-0.27116647
163	0x3e1b1dfa	0.15148154
164	0x3e379c68	0.17930758
165	0xbeca70b6	-0.39539117
166	0x3ecf3fd7	0.40478393
167	0x3e95085f	0.2910795
168	0xbdccd5e8	-0.10001737
169	0xbe331ece	-0.1749222
170	0x3d3ee624	0.046606198
171	0x3d4c9543	0.049947035
172	0xbcfe75d4	-0.031062044
173	0x3e6fc319	0.23414268
174	0xbe74fc40	-0.2392435
175	0x3dbd3558	0.0923869
176	0x3f2ca224	0.67434907
177	0xbe5f4b90	-0.21806169
178	0x3f090d4b	0.5353591
179	0xbea4acba	-0.3216303
180	0x3f03ea08	0.5152898
181	0xbf5dfbe0	-0.86712456
182	0x3eb44ddb	0.3521565
183	0x3f24861b	0.6426713
184	0x3f1740e1	0.5908337
185	0xbf3f656b	-0.74764127
186	0x3e5fbd3a	0.21849528
187	0x3e919ea5	0.2844135
188	0x3ea1d70a	0.31609374
189	0xbe852957	-0.26008102
190	0x3dfd26c3	0.12360909
191	0x3e8b0d47	0.27158567
192	0x3dd210ce	0.102571115
193	0x3d6f875c	0.058478698
194	0xbec9a12b	-0.39380774
195	0x3e6aaf16	0.22918352
196	0xbe058664	-0.13039547
197	0xbe09288c	-0.13394374
198	0x3d62d0ff	0.055375095
199	0x3c3f11ea	0.011661986
200	0x3c37cba2	0.011217983
201	0x3ee6687c	0.4500159
202	0xbe970813	-0.29498348
203	0x3dc49aef	0.09599864
204	0xbed2041b	-0.41018757
205	0xbeb9a13c	-0.36255825
206	0xbe5e7577	-0.21724497
207	0xbdff3947	-0.12462097
208	0x3f0d6ea4	0.5524695
209	0xbe642146	-0.22278318
210	0x3efed2b3	0.49770126
211	0xbe6382cb	-0.22217862
212	0x3e4ccc30	0.19999766
213	0xbf36039e	-0.7109927
214	0x3de69e6b	0.112606846
215	0x3ef5075e	0.47857183
216	0x3ec5f490	0.3866315
217	0xbe79b9ca	-0.24387279
218	0xbdec60c9	-0.11541898
219	0x3ea2f53c	0.31827724
220	0x3ca4cfbe	0.02011859
221	0xbebaa952	-0.36457306
222	0x3ea42bec	0.3206476
223	0x3dc3f543	0.09568264
224	0xbeb8b06d	-0.36072102
225	0xbecf5bb9	-0.40499666
226	0xbf0d9664	-0.553076
227	0x3e10e87c	0.14151186
228	0xbe85cb54	-0.2613169
229	0x3f011aae	0.50431335
230	0xbe79f603	-0.24410252
231	0xbeb32806	-0.34991473
232	0xbe1ff46a	-0.1562058
233	0xbdfd7f0f	-0.1237775
234	0xbd0376dc	-0.032095775
235	0xbcdad55b	-0.026713064
236	0x3c60770b	0.013700257
237	0x3e3e3e56	0.18578467
238	0xbe66dc2f	-0.22544931
239	0x3e217dd0	0.1577065
240	0x3dd11620	0.10209298
241	0x3e48437f	0.19556998
242	0xbe0f7c2c	-0.14012212
243	0x3e5581d7	0.20850311
244	0xbdac44b4	-0.084115416
245	0xbe80d911	-0.2516561
246	0xbd042e42	-0.032270677
247	0x3e01fdea	0.12694517
248	0xbd9e4274	-0.07727519
249	0xbe3e988e	-0.18612882
250	0xbedf9c4a	-0.43673927
251	0x3edb569d	0.42839518
252	0xbe42b637	-0.19014822
253	0x3e2e42de	0.17017695
254	0x3e3dc3d5	0.18531735
255	0xbd87c5d1	-0.06629527

fc_layers.0.weight f4 [64, 16]
0	0x00588315	8.128547e-39
1	0x81bb64cc	-6.883759e-38
2	0x02280c13	1.2346156e-37
3	0x01e084e6	8.2475304e-38
4	0x00a2c390	1.4947505e-38
5	0x0190db50	5.3211944e-38
6	0x81e087e7	-8.2479615e-38
7	0x01e5a04e	8.435134e-38
8	0x0315aadf	4.3983315e-37
9	0x831996e2	-4.5135864e-37
10	0x0319aa01	4.5157814e-37
11	0x83152bbb	-4.3837365e-37
12	0x8319ef7d	-4.523758e-37
13	0x03169785	4.4254974e-37
14	0x83186c76	-4.4793292e-37
15	0x031d1a20	4.6168143e-37
16	0x8f754ca5	-1.2094194e-29
17	0x8ef06156	-5.92583e-30
18	0x0ea4408b	4.0491274e-30
19	0x0eff0b56	6.287327e-30
20	0x8f72d03a	-1.1971624e-29
21	0x0f67ecba	1.1434771e-29
22	0x8ee8aade	-5.7356955e-30
23	0x0effbba8	6.304306e-30
24	0x0d642cd1	7.031187e-31
25	0x0c52a263	1.6226678e-31
26	0x0d8a0588	8.506238e-31
27	0x0c3afa78	1.4404291e-31
28	0x8c9ef3fc	-2.4490597e-31
29	0x0cfa9768	3.8609723e-31
30	0x8ddfcf97	-1.37934115e-30
31	0x0d070353	4.160409e-31
32	0x86269ce9	-3.133641e-35
33	0x86240718	-3.0850183e-35
34	0x06079f7a	2.5507843e-35
35	0x062ac845	3.212058e-35
36	0x86214ce6	-3.033723e-35
37	0x064416ca	3.6880246e-35
38	0x8625ae37	-3.1161044e-35
39	0x062b5abd	3.222819e-35
40	0x04c16692	4.5468278e-36
41	0x85007034	-6.0391395e-36
42	0x05092f1c	6.450362e-36
43	0x851d72b4	-7.403172e-36
44	0x84eaf707	-5.5239994e-36
45	0x0525fb3a	7.804406e-36
46	0x84974a63	-3.5568243e-36
47	0x04a5dbf7	3.899332e-36
48	0x3e5332e0	0.20624876
49	0xbcbc81d3	-0.023011124
50	0x3ec436d5	0.38323084
51	0x3ccf2200	0.025284767
52	0x3e6f9fac	0.23400754
53	0xbd4a5c92	-0.04940469
54	0xbd16d92b	-0.0368282
55	0x3cec2da7	0.028830362
56	0x3de46b7f	0.11153316
57	0xbe09a32f	-0.13441156
58	0x3df41a27	0.11919051
59	0xbdcfda11	-0.10149015
60	0xbe04d816	-0.12973055
61	0x3d7d38ea	0.061821856
62	0xbdeb0321	-0.11475206
63	0x3dfe43c1	0.12415267
64	0x8ea4aead	-4.0597328e-30
65	0x0fb50f0a	1.7853771e-29
66	0x8fee631e	-2.350679e-29
67	0x8fb2cf3f	-1.7631983e-29
68	0x8ecb9d9b	-5.0195132e-30
69	0x0f7a98d3	1.23553845e-29
70	0x0f978011	1.4939079e-29
71	0x8f99b5e5	-1.5157028e-29
72	0x8fd4756e	-2.0950046e-29
73	0x0fece0ea	2.335803e-29
74	0x8fd886b1	-2.1351126e-29
75	0x0fbf082e	1.8837205e-29
76	0x0fc0ec22	1.9023617e-29
77	0x8fe2e8e3	-2.2375025e-29
78	0x0fb9b46d	1.8311906e-29
79	0x8fe1ec0a	-2.2277632e-29
80	0x06b823e3	6.926584e-35
81	0x0686afde	5.066361e-35
82	0x8554e852	-1.00108626e-35
83	0x866b5dde	-4.426755e-35
84	0x06b6a9c7	6.8710256e-35
85	0x86ccd1a8	-7.7044333e-35
86	0x067590fc	4.6185896e-35
87	0x866f4c60	-4.5007015e-35
88	0x075c5f09	1.6578889e-34
89	0x87647fe6	-1.71904e-34
90	0x07673e22	1.7396768e-34
91	0x8763d238	-1.713936e-34
92	0x876ed270	-1.7966972e-34
93	0x07519fbe	1.5770356e-34
94	0x875f2448	-1.6787317e-34
95	0x0765724e	1.7261636e-34
96	0x83e50bf7	-1.3462157e-36
97	0x82a4c038	-2.4207962e-37
98	0x015ca850	4.0528377e-38
99	0x029aa716	2.2724169e-37
100	0x83eb5091	-1.3830556e-36
101	0x0343a784	5.749765e-37
102	0x82be5c70	-2.7971047e-37
103	0x02dc3945	3.2358966e-37
104	0x82aebfd9	-2.5677117e-37
105	0x02386588	1.3547323e-37
106	0x82533c46	-1.5519129e-37
107	0x02336ba9	1.318174e-37
108	0x027499f0	1.7970467e-37
109	0x822da75d	-1.2758064e-37
110	0x02932cf6	2.1625515e-37
111	0x81d022ca	-7.645705e-38
112	0x3e82477e	0.2544517
113	0x3cc9c21a	0.024628688
114	0x3eb90ea2	0.36143976
115	0xbcbfe17f	-0.023422955
116	0x3e82f95b	0.25580868
117	0xbddeb2f1	-0.10873974
118	0xbc585963	-0.013204905
119	0xbc932ec2	-0.017966632
120	0x3df2ebdc	0.11861393
121	0xbe027c28	-0.12742674
122	0x3d9bc619	0.076061435
123	0xbda306fa	-0.07960315
124	0xbdf67dc3	-0.12035706
125	0x3d51093d	0.0510342
126	0xbda0b3e1	-0.07846809
127	0x3dd696d4	0.10477987
128	0x3e6e076b	0.23245017
129	0xbb1e5451	-0.0024159143
130	0x3ec6d27e	0.38832468
131	0x3c8b0522	0.016970221
132	0x3e6a73f4	0.22895795
133	0xbda14d49	-0.07876069
134	0xbcc6f9f4	-0.024289109
135	0x3ca08e85	0.019599209
136	0x3df2c3ff	0.118537895
137	0xbdecea7d	-0.115681626
138	0x3dabbd97	0.08385771
139	0xbd990d64	-0.07473257
140	0xbdc84636	-0.09779017
141	0x3d520e64	0.051283255
142	0xbdcaf483	-0.09909918
143	0x3ddf2df1	0.108974345
144	0x3e5fa005	0.21838386
145	0xbcaceb7b	-0.02110838
146	0x3ec6ac01	0.38803104
147	0x3c955752	0.018230114
148	0x3e546f06	0.20745477
149	0xbd55b3e7	-0.05217352
150	0xbd036724	-0.032080784
151	0x3c32e554	0.010918934
152	0x3e16e440	0.14735508
153	0xbe0151c1	-0.12628843
154	0x3dd4a832	0.10383643
155	0xbdb7d605	-0.08976368
156	0xbe093eb1	-0.13402821
157	0x3d924948	0.071428835
158	0xbdf87b4a	-0.121328905
159	0x3e00d7e2	0.12582353
160	0x3e7b6b15	0.24552567
161	0x3c399c3c	0.011328753
162	0x3ec82006	0.39086932
163	0x3b40a1a5	0.0029393223
164	0x3e7f6213	0.24939756
165	0xbdb4b963	-0.08824422
166	0x3b97d71a	0.0046337964
167	0xb9daea36	-0.000417547
168	0x3dfaf0f6	0.12252991
169	0xbdf279d5	-0.11839644
170	0x3d65642b	0.05600373
171	0xbd9904f8	-0.07471651
172	0xbdd4840d	-0.10376749
173	0x3d57f29e	0.052721612
174	0xbdde6505	-0.10859112
175	0x3dd181ba	0.102298215
176	0x0802df65	3.938305e-34
177	0x07345572	1.3566805e-34
178	0x8709c00a	-1.036317e-34
179	0x87439408	-1.4713672e-34
180	0x0803096c	3.9432454e-34
181	0x87ca2f2a	-3.0421302e-34
182	0x0708b661	1.0285099e-34
183	0x871d2dc9	-1.1824822e-34
184	0x07be68e5	2.8649674e-34
185	0x87b0333f	-2.6511656e-34
186	0x07d784fc	3.2427766e-34
187	0x87df69c1	-3.3615467e-34
188	0x87c12f1e	-2.9067105e-34
189	0x07de776a	3.3473033e-34
190	0x87cac2aa	-3.0507995e-34
191	0x07b87187	2.7751968e-34
192	0x84c51d36	-4.6341303e-36
193	0x05c1942b	1.8204061e-35
194	0x8609312a	-2.5802956e-35
195	0x85b7180d	-1.7218072e-35
196	0x84e2ef8b	-5.335233e-36
197	0x85915336	-1.3666301e-35
198	0x05ca998f	1.9052397e-35
199	0x85c839e0	-1.882917e-35
200	0x059a5b69	1.4515669e-35
201	0x858f8d44	-1.3499548e-35
202	0x058c4942	1.3192447e-35
203	0x8593dbb2	-1.3904517e-35
204	0x85968520	-1.4154835e-35
205	0x05a01685	1.50546e-35
206	0x858a2dc3	-1.2994268e-35
207	0x05890794	1.2886202e-35
208	0x8408e7e7	-1.6093208e-36
209	0x83caeb1a	-1.192647e-36
210	0x03984468	8.949462e-37
211	0x04143c76	1.7425079e-36
212	0x83b8d7ca	-1.0864091e-36
213	0x038cc862	8.274466e-37
214	0x83e1c6bf	-1.3269941e-36
215	0x040c14c0	1.6466449e-36
216	0x85049f5d	-6.2358806e-36
217	0x04f80d5a	5.831678e-36
218	0x8509e8b8	-6.484453e-36
219	0x04f95af7	5.8623157e-36
220	0x050d62fd	6.6479694e-36
221	0x85008c52	-6.044304e-36
222	0x04fd3cec	5.9535962e-36
223	0x84e05c08	-5.2746664e-36
224	0x8e8e8de2	-3.514233e-30
225	0x8e8065ac	-3.1652343e-30
226	0x0d93b428	9.1029455e-31
227	0x0f275fb9	8.252171e-30
228	0x8e9866f6	-3.757004e-30
229	0x8cdd41f2	-3.409013e-31
230	0x8f32cfdd	-8.8161106e-30
231	0x0eaebf17	4.3078325e-30
232	0x10a8d3ed	6.659084e-29
233	0x90ac4217	-6.7943865e-29
234	0x1098d2c4	6.0278165e-29
235	0x90a35f46	-6.4438956e-29
236	0x90a21615	-6.3931756e-29
237	0x105aa80f	4.3122387e-29
238	0x90a3cd6a	-6.4608654e-29
239	0x109384c7	5.818585e-29
240	0x3e8396e4	0.25701058
241	0x3c0fad76	0.008769384
242	0x3ebeaa2f	0.37239215
243	0xbc57ff27	-0.013183392
244	0x3e845f48	0.25853944
245	0xbdc83008	-0.09774786
246	0x396b132b	0.00022418487
247	0xbae87971	-0.0017736388
248	0x3e033a0e	0.12815115
249	0xbdf5378a	-0.11973484
250	0x3db5e659	0.08881826
251	0xbdc3e835	-0.09565774
252	0xbde143c8	-0.10999256
253	0x3d48eaf9	0.049052212
254	0xbde14b32	-0.110006705
255	0x3db0a281	0.08624745

fc_layers.0.bias f4 [64]
0	0x83852917	-7.826471e-37
1	0x9096d73f	-5.949621e-29
2	0x87122f4a	-1.0997716e-34
3	0x3ea6e941	0.32599834
4	0x92691de7	-7.3558694e-28
5	0x88a5e7a9	-9.985039e-34
6	0x8611721d	-2.7355306e-35
7	0x3ea3272c	0.31865823
8	0x3e95f841	0.29290965
9	0x3ea8eab7	0.32991573
10	0x3e99aa66	0.30012816
11	0x892e7572	-2.099971e-33
12	0x878aa02a	-2.0858068e-34
13	0x86475650	-3.7491153e-35
14	0x9282b449	-8.248597e-28
15	0x3ea3f509	0.32022884
16	0xbde491de	-0.111606345
17	0x3ea7f41c	0.32803428
18	0x842c0c63	-2.022419e-36
19	0x96ce34af	-3.3314343e-25
20	0x9817235e	-1.9534148e-24
21	0x3e8d38fd	0.2758254
22	0x3e6352b4	0.22199517
23	0x82164821	-1.104096e-37
24	0x3eaa74c4	0.3329221
25	0x3eaf1c5f	0.34201333
26	0x3ea0e2ee	0.31423134
27	0x842e1f20	-2.0467894e-36
28	0x3e4cc072	0.19995287
29	0x8892adc6	-8.827909e-34
30	0xbe7faed2	-0.24969032
31	0x9013d74b	-2.9156494e-29
32	0x85621ff1	-1.06323356e-35
33	0x3ea3ac93	0.319676
34	0x86a38440	-6.150811e-35
35	0x3e9e7459	0.3094814
36	0x3d94a07e	0.07257174
37	0x85985647	-1.4325705e-35
38	0x3e890cf9	0.2676771
39	0x3e07aa69	0.132486
40	0x83ade908	-1.02215275e-36
41	0xbdef5760	-0.11686587
42	0x8cecfbbf	-3.6513072e-31
43	0x88a081ee	-9.660196e-34
44	0x3eaffa03	0.3437043
45	0x3a0de06b	0.0005412164
46	0x3e0a68ba	0.13516513
47	0x3e8ff4c6	0.28116435
48	0x8257bfbb	-1.5850729e-37
49	0xbe59685c	-0.21231216
50	0x83658e8e	-6.7460696e-37
51	0x3eaa1d17	0.3322532
52	0x85baeaee	-1.7577655e-35
53	0x8538559b	-8.667362e-36
54	0x3e292f97	0.1652206
55	0x8fc9a9b2	-1.9885495e-29
56	0x830debbb	-4.170678e-37
57	0x3ea410e7	0.32044145
58	0x3dc5baa8	0.096547425
59	0x853b6e9f	-8.8130156e-36
60	0x3e6271a7	0.22113667
61	0x97b3ce80	-1.1619732e-24
62	0x83168799	-4.4236697e-37
63	0x3e9063c0	0.28201103

fc_layers.1.weight f4 [32, 64]
0	0x01ed1b1f	8.709897e-38
1	0x90430559	-3.846109e-29
2	0x066f55e4	4.5014006e-35
3	0x3e2033ea	0.15644804
4	0x90f85522	-9.794992e-29
5	0x8661ae12	-4.2445683e-35
6	0x8523f386	-7.7089514e-36
7	0x3e22f101	0.15912248
8	0x3e3659e8	0.17807734
9	0x3e219864	0.15780789
10	0x3e330c9b	0.17485277
11	0x0893cd2a	8.8954745e-34
12	0x05e00d4a	2.106974e-35
13	0x0576d9b4	1.160685e-35
14	0x0fb237c7	1.757364e-29
15	0x3e325f44	0.17419153
16	0x3e943f40	0.28954506
17	0x3e2b65e0	0.16738081
18	0x82da0673	-3.2035923e-37
19	0x169041f3	2.3306075e-25
20	0x9536a6eb	-3.6886282e-26
21	0x3e3ccd81	0.18437769
22	0x3e42817e	0.1899471
23	0x811a1469	-2.8299976e-38
24	0x3e01fab2	0.12693289
25	0x3e1a85e3	0.15090136
26	0x3e331ba2	0.1749101
27	0x84a8656d	-3.9589755e-36
28	0x3e2c5d55	0.16832478
29	0x06b6095e	6.8474555e-35
30	0x3eb57213	0.35438594
31	0x8e4ad136	-2.4999154e-30
32	0x02cd9c1d	3.0211647e-37
33	0x3e29ddbc	0.16588491
34	0x04eb6845	5.534399e-36
35	0x3e21cd1c	0.158009
36	0x3e7d6ec4	0.24749285
37	0x83e4cd22	-1.3447732e-36
38	0x3e4f8e58	0.20269144
39	0x3e42825a	0.18995038
40	0x8236179a	-1.3378022e-37
41	0x3e93d031	0.28869775
42	0x0b6097c2	4.3255e-32
43	0x87860159	-2.0162871e-34
44	0x3e10118c	0.14069194
45	0x3e752cb8	0.2394284
46	0x3e6957fc	0.2278747
47	0x3e3bb3f8	0.18330371
48	0x8185a5f6	-4.9094626e-38
49	0x3ea94d1b	0.3306664
50	0x82cb4eac	-2.9873325e-37
51	0x3e16293d	0.14664169
52	0x83e72ed9	-1.3587715e-36
53	0x85402c10	-9.0358896e-36
54	0x3e3b7a7b	0.18308441
55	0x8e0f0d00	-1.763237e-30
56	0x01859487	4.906961e-38
57	0x3e4e3ac0	0.20139599
58	0x3e811130	0.25208426
59	0x81779da2	-4.547983e-38
60	0x3e2ed844	0.17074686
61	0x15c9c8ba	8.1499944e-26
62	0x023ab04a	1.3715714e-37
63	0x3e3232b2	0.17402151
64	0x01fe9412	9.3517335e-38
65	0x904d285d	-4.0460216e-29
66	0x067beb29	4.7380622e-35
67	0x3e1015c3	0.14070801
68	0x9102a772	-1.030679e-28
69	0x866d98bc	-4.4686957e-35
70	0x852ca60a	-8.117898e-36
71	0x3e37f49e	0.17964408
72	0x3e5f313d	0.21796127
73	0x3e1e4aee	0.15458271
74	0x3e3b84a3	0.18312316
75	0x089bb388	9.370931e-34
76	0x05ebd2a9	2.2176678e-35
77	0x0581f1f5	1.2219983e-35
78	0x0fbb04f4	1.8441532e-29
79	0x3e329ea0	0.17443323
80	0x3e9c2b7d	0.3050193
81	0x3e1fe2f4	0.1561392
82	0x82e7e587	-3.4074142e-37
83	0x1697c084	2.451686e-25
84	0x953fda37	-3.8744284e-26
85	0x3e474ad6	0.19462141
86	0x3e4571b2	0.19281653
87	0x80f8e152	-2.2856033e-38
88	0x3e2a92c9	0.16657557
89	0x3e33aad2	0.17545632
90	0x3e4dbd21	0.20091678
91	0x84b16dad	-4.171322e-36
92	0x3e3c8ce3	0.18413119
93	0x06bfb713	7.211522e-35
94	0x3eb73cbe	0.3578853
95	0x8e55716d	-2.630889e-30
96	0x02d7431d	3.1629932e-37
97	0x3e33f999	0.17575683
98	0x04f7892d	5.8195397e-36
99	0x3e47d955	0.195165
100	0x3e707bbd	0.23484702
101	0x83f13c3a	-1.4178534e-36
102	0x3e372aad	0.17887373
103	0x3e3f5c90	0.18687654
104	0x8240c979	-1.4163752e-37
105	0x3e97178a	0.29510146
106	0x0b6c9a8c	4.5568215e-32
107	0x878d1e0b	-2.123298e-34
108	0x3e104a1a	0.14090768
109	0x3e88dba7	0.2673008
110	0x3e5f72ac	0.21821088
111	0x3e46d1ac	0.19415921
112	0x81858aad	-4.9055474e-38
113	0x3eab2d89	0.33433178
114	0x82d7df19	-3.1719462e-37
115	0x3e2dd350	0.1697514
116	0x83f3c1e7	-1.4326774e-36
117	0x854a48cb	-9.511364e-36
118	0x3e40d8cc	0.18832701
119	0x8e16a64e	-1.8569e-30
120	0x0185a33a	4.90907e-38
121	0x3e3316de	0.17489192
122	0x3e72d995	0.23715813
123	0x8188ff12	-5.032452e-38
124	0x3e345831	0.17611767
125	0x15d44e50	8.5749673e-26
126	0x02460f5b	1.4551149e-37
127	0x3e5a65e3	0.21327929
128	0x020a94b1	1.0181311e-37
129	0x90576383	-4.2477935e-29
130	0x06844f4b	4.976939e-35
131	0x3e134fbb	0.14385884
132	0x910912cb	-1.0813185e-28
133	0x8679597e	-4.6897443e-35
134	0x85353ea0	-8.5220815e-36
135	0x3e2da208	0.16956341
136	0x3e4b4312	0.19849804
137	0x3e2a62f8	0.16639316
138	0x3e4db048	0.20086777
139	0x08a34ba6	9.8279905e-34
140	0x05f791ed	2.3281373e-35
141	0x0587fb0c	1.2787559e-35
142	0x0fc45cea	1.9362881e-29
143	0x3e3d2db4	0.18474466
144	0x3e911c95	0.2834212
145	0x3e26ee79	0.16301908
146	0x82f29686	-3.56451e-37
147	0x169f84b5	2.5771585e-25
148	0x9549cd4f	-4.0753587e-26
149	0x3e443929	0.1916243
150	0x3e40c4a6	0.18825015
151	0x8175a157	-4.511515e-38
152	0x3e28dce3	0.16490512
153	0x3e324c35	0.17411883
154	0x3e46f581	0.1942959
155	0x84ba31a9	-4.3773996e-36
156	0x3e3094df	0.1724429
157	0x06c956c7	7.5735304e-35
158	0x3ebe7d42	0.3720494
159	0x8e601fbb	-2.762541e-30
160	0x02e42ea2	3.3528355e-37
161	0x3e30d63a	0.17269221
162	0x0501dfc7	6.106652e-36
163	0x3e53b08d	0.20672818
164	0x3e76e61c	0.24111217
165	0x83fea5d3	-1.496685e-36
166	0x3e4517e5	0.19247396
167	0x3e47110f	0.19440101
168	0x824e170e	-1.5141106e-37
169	0x3e9467f1	0.2898555
170	0x0b77f844	4.7757244e-32
171	0x879420bf	-2.2287811e-34
172	0x3e12ea3b	0.14347164
173	0x3e860661	0.26176742
174	0x3e73279d	0.2374558
175	0x3e4644a5	0.19362123
176	0x8185b2c3	-4.9112994e-38
177	0x3eb7b24d	0.3587822
178	0x82e3f71d	-3.3496488e-37
179	0x3e2b1f82	0.16711238
180	0x83ffb6f3	-1.5029556e-36
181	0x8554889b	-9.9932826e-36
182	0x3e43f391	0.19135882
183	0x8e1e3a50	-1.950308e-30
184	0x018594a3	4.9069767e-38
185	0x3e3b346d	0.18281718
186	0x3e77e8bd	0.24209876
187	0x819674d2	-5.5268927e-38
188	0x3e3fce6f	0.18731092
189	0x15dec3e5	8.997415e-26
190	0x0253c098	1.5557103e-37
191	0x3e3b9976	0.1832026
192	0x02061f9c	9.853837e-38
193	0x9054f401	-4.1997602e-29
194	0x0682bee5	4.918106e-35
195	0x3dfcf0ef	0.12350642
196	0x9107b8dc	-1.0706586e-28
197	0x8676647b	-4.634128e-35
198	0x85331ddd	-8.4220246e-36
199	0x3e282f2e	0.16424248
200	0x3e43fea7	0.19140111
201	0x3e0bab29	0.13639511
202	0x3e3213c9	0.1739036
203	0x08a16eaa	9.715852e-34
204	0x05f5125c	2.3046433e-35
205	0x0586f856	1.2692524e-35
206	0x0fc237fa	1.9151438e-29
207	0x3e2fd975	0.17172797
208	0x3e86303a	0.2620867
209	0x3e1da23f	0.15393923
210	0x82efab8b	-3.5216355e-37
211	0x169db850	2.5481036e-25
212	0x95475fe7	-4.0263384e-26
213	0x3e30219f	0.17200325
214	0x3e21e2a0	0.15809107
215	0x8177cfc0	-4.5515788e-38
216	0x3e023fae	0.12719604
217	0x3e168293	0.14698248
218	0x3e2e6e95	0.17034371
219	0x84b80af0	-4.3268237e-36
220	0x3e251c09	0.16123976
221	0x06c71235	7.4882233e-35
222	0x3eb84a88	0.35994363
223	0x8e5d989c	-2.7313832e-30
224	0x02e1d220	3.3181384e-37
225	0x3e2f08de	0.17093226
226	0x0500bbf6	6.053054e-36
227	0x3e382fab	0.17986934
228	0x3e50ab98	0.20377958
229	0x83faf02b	-1.4748819e-36
230	0x3e33b49f	0.1754937
231	0x3e2e12c8	0.16999352
232	0x824c7f06	-1.5024007e-37
233	0x3e8c4472	0.2739597
234	0x0b75d8a9	4.734828e-32
235	0x87925cc6	-2.2022166e-34
236	0x3e049994	0.1294921
237	0x3e766ab3	0.2406414
238	0x3e592cc3	0.21208481
239	0x3e2d74f2	0.16939142
240	0x8185db5e	-4.917126e-38
241	0x3ea81738	0.32830215
242	0x82e10074	-3.3061039e-37
243	0x3e04daf0	0.12974143
244	0x83fc34ee	-1.4823381e-36
245	0x8551b5fa	-9.8605566e-36
246	0x3e27ba1a	0.16379586
247	0x8e1c57d7	-1.9270778e-30
248	0x0185993d	4.907637e-38
249	0x3e34dc18	0.17662084
250	0x3e64918d	0.22321148
251	0x819472c3	-5.453129e-38
252	0x3e1f4f25	0.15557535
253	0x15dc7bc2	8.905255e-26
254	0x0250aae3	1.5330469e-37
255	0x3e33b464	0.17549282

fc_layers.1.bias f4 [32]
0	0xbc32c782	-0.010911824
1	0xbc2ebd3b	-0.010665233
2	0xbc24b269	-0.010052302
3	0xbc191c5b	-0.009345139
4	0xbc28a316	-0.010292789
5	0xbc0f679e	-0.008752732
6	0x8ab76fb9	-1.7664284e-32
7	0x818583cc	-4.9045603e-38
8	0x84a4c80d	-3.8739932e-36
9	0x834b08d1	-5.966646e-37
10	0xbc32f067	-0.010921574
11	0xbc125045	-0.008930271
12	0xbc2e9669	-0.010655978
13	0x82850d49	-1.955022e-37
14	0x8185a6e5	-4.9095966e-38
15	0x81860b60	-4.924015e-38
16	0x8185e44c	-4.9184074e-38
17	0xbc15117a	-0.009098405
18	0x8a183e58	-7.330259e-33
19	0xbc20b5c0	-0.009808958
20	0x86a685c0	-6.263879e-35
21	0x88733d4c	-7.3197207e-34
22	0x8344473b	-5.768099e-37
23	0x828732c9	-1.9865616e-37
24	0xbc1db59a	-0.009625817
25	0x8604c0fc	-2.4968223e-35
26	0x8be881dd	-8.9558546e-32
27	0xbc0f860e	-0.0087599885
28	0xbc32ef51	-0.010921315
29	0x8441401b	-2.2716477e-36
30	0xbc2776ec	-0.010221224
31	0xaa09c7d1	-1.223737e-13
