checkpoints/neumf_first_try_Epoch0_HR0.5257_NDCG0.2963.model (torch, 645090 bytes, 13 tensors)

embedding_user_mlp.weight f4 [6040, 8]
0	0xbe0673c6	-0.13130102
1	0x3de80718	0.11329478
2	0x3de8d705	0.11369137
3	0x3dfc6c43	0.12325337
4	0xbe255a98	-0.1614784
5	0xbdfeb976	-0.124377176
6	0xbe15f99f	-0.14646004
7	0xbe220f45	-0.15826137
8	0xbd379528	-0.04481998
9	0x3d2a0310	0.041506827
10	0x3d1cbae5	0.038264174
11	0x3d11faaa	0.035639443
12	0xbdaaf96c	-0.08348355
13	0xbd0e587e	-0.03475236
14	0xbd350ba2	-0.044200547
15	0xbd20e31d	-0.039279092
16	0xbe0b82a3	-0.13624053
17	0x3e15553c	0.14583296
18	0x3e120d80	0.14262962
19	0x3e1469bc	0.1449346
20	0xbe0b939d	-0.13630529
21	0xbe1fead9	-0.15616931
22	0xbe1743e0	-0.14771986
23	0xbe10fa3f	-0.14157961
24	0xbe509ab7	-0.20371519
25	0x3e7306e3	0.23733096
26	0x3e714fef	0.23565648
27	0x3e6a9113	0.22906904
28	0xbe19ab06	-0.15006647
29	0xbe6df579	-0.23238172
30	0xbe379b19	-0.17930259
31	0xbe389459	-0.1802534
32	0x3d5069d7	0.050882187
33	0xbd01f791	-0.03173024
34	0xbd039873	-0.03212781
35	0xbd3a6578	-0.045506924
36	0x3d84c78f	0.06483375
37	0x3d07eaff	0.033183094
38	0x3d56ed38	0.052472323
39	0x3d661832	0.05617542
40	0x3ab7c035	0.0014019074
41	0x3c554214	0.0130162425
42	0x3cc7ee3e	0.024405595
43	0x3af68125	0.0018806799
44	0x3d1ab104	0.03776647
45	0xbc2289fb	-0.009920592
46	0x3cb787b3	0.022403574
47	0x3b83563c	0.0040080827
48	0xbe3beff3	-0.18353252
49	0x3e547f1d	0.20751615
50	0x3e4ab9ac	0.1979739
51	0x3e4b2257	0.19837318
52	0xbe370d7d	-0.17876239
53	0xbe494372	-0.19654635
54	0xbe49aa86	-0.19693956
55	0xbe4a8062	-0.19775537
56	0x3c69cd97	0.014270208
57	0x3b8afe58	0.004241746
58	0xbaf802a0	-0.0018921681
59	0xbb63a4d8	-0.0034735706
60	0x3ccd4237	0.025055988
61	0xbb408646	-0.0029376908
62	0x3c8ad681	0.016947987
63	0x3cc5413a	0.024078954
64	0xbdbc25b4	-0.09186879
65	0x3dd19a18	0.10234469
66	0x3dc55343	0.096350215
67	0x3db68dc8	0.089137614
68	0xbdc9e233	-0.09857597
69	0xbdb6fe67	-0.08935242
70	0xbdab41dd	-0.08362172
71	0xbdbd8e65	-0.09255675
72	0x3c42bfc1	0.011886538
73	0xbcd736d7	-0.026271267
74	0xbc3f59ad	-0.011679095
75	0xbc94dbc9	-0.018171208
76	0xbcabbf50	-0.020965248
77	0x3c949315	0.01813654
78	0x3a532c6b	0.000805563
79	0xbc0a67df	-0.008447616
80	0xbd0dce90	-0.03462082
81	0x3d2df169	0.042466555
82	0x3d103ef4	0.035216287
83	0x3cf3f5d0	0.029780298
84	0xbbd0926b	-0.0063651106
85	0xbc93a637	-0.018023593
86	0xbcf53d32	-0.029936407
87	0xbcb1450e	-0.021639373
88	0xbd881b8a	-0.06645878
89	0x3d8234c0	0.063577175
90	0x3d87277f	0.0659933
91	0x3d78b2d0	0.060717404
92	0xbd9914ac	-0.07474646
93	0xbd88d4e4	-0.06681231
94	0xbd97d44d	-0.0741354
95	0xbd8526fd	-0.06501577
96	0xbd8137e6	-0.0630949
97	0x3dc7ec7b	0.09761902
98	0x3db07b97	0.08617323
99	0x3d9ddea3	0.0770848
100	0xbc6cadf6	-0.014445772
101	0xbd9b1ec3	-0.07574227
102	0xbd1c36de	-0.038138263
103	0xbd22a5f6	-0.039709054
104	0xbe153a36	-0.14572987
105	0x3de54217	0.11194246
106	0x3de5d246	0.11221747
107	0x3e01b6db	0.1266741
108	0xbe360b05	-0.17777641
109	0xbe023a92	-0.12717655
110	0xbe1b31fa	-0.15155783
111	0xbe208794	-0.15676719
112	0xbdc02754	-0.09382501
113	0x3db02b82	0.086020485
114	0x3dcff237	0.10153621
115	0x3db3ce0a	0.08779533
116	0xbdd1ba7a	-0.10240646
117	0xbde23c5a	-0.110466674
118	0xbdaef83f	-0.08543443
119	0xbdd60c67	-0.10451584
120	0xbc1c6b1d	-0.009547022
121	0xbc62264e	-0.013803078
122	0xbc862d60	-0.016379058
123	0xbaf0081e	-0.0018312966
124	0xbae6b089	-0.0017600219
125	0x3b0518bb	0.002030893
126	0xbc1739d5	-0.009230097
127	0xbc290c4a	-0.010317871
128	0xbc205e7f	-0.009788155
129	0x3cb1af76	0.021690112
130	0x3ced42ca	0.028962512
131	0x3c8ae91a	0.016956855
132	0xb97139b7	-0.00023005051
133	0xbc7636e0	-0.015027732
134	0x3c2fff73	0.010742056
135	0xbb97e260	-0.0046351403
136	0x3ce230c3	0.027611142
137	0xbd2438a4	-0.04009308
138	0xbd0b1cd9	-0.03396306
139	0xbd3d81b6	-0.04626628
140	0xbc8523ab	-0.01625236
141	0x3cd53a94	0.026028909
142	0x3c4d3543	0.012524906
143	0x3c8d2cb1	0.017233225
144	0xbd1c97cf	-0.038230713
145	0x3d245ead	0.040129352
146	0x3d31418f	0.043275412
147	0x3cf395ad	0.029734457
148	0xbcc21277	-0.023690445
149	0xbd49cb98	-0.049266428
150	0xbd10bd1d	-0.035336602
151	0xbd224830	-0.039619625
152	0xbdd79034	-0.105255514
153	0x3ddad7dc	0.10685703
154	0x3dd1c9ca	0.10243566
155	0x3dd4b223	0.103855394
156	0xbdf8b992	-0.1214477
157	0xbde9cf7e	-0.11416529
158	0xbde279e7	-0.11058407
159	0xbde5988b	-0.11210736
160	0xbd3517ff	-0.044212338
161	0x3d83ac75	0.06429378
162	0x3d8947bd	0.06703136
163	0x3d75d61c	0.060018644
164	0xbcb1d7d8	-0.021709368
165	0xbd55d5fa	-0.052206017
166	0xbd1b45a2	-0.037908204
167	0xbd26ed75	-0.0407538
168	0x3b71e628	0.0036910865
169	0x3ccb7835	0.024837593
170	0x3ce10f22	0.027473036
171	0xba9a5b7f	-0.0011776536
172	0x3d9645cf	0.07337534
173	0xbbe88ee6	-0.007097113
174	0x3cc0bb89	0.023526924
175	0x3cbc55a2	0.022990052
176	0xbcca3b1c	-0.024686389
177	0x3bd705b4	0.006561959
178	0x3ca05c4a	0.019575257
179	0x3c82d08d	0.015968585
180	0xbd730962	-0.05933512
181	0xbcd31033	-0.02576456
182	0xbd0a8a8e	-0.033823542
183	0xbd2f1196	-0.04274138
184	0xbd766839	-0.06015799
185	0x3da476f6	0.080305025
186	0x3d967941	0.07347346
187	0x3d7555a3	0.059896123
188	0xbd12d057	-0.03584322
189	0xbd8511c8	-0.06497532
190	0xbd25219a	-0.040315248
191	0xbd6ba38d	-0.05752902
192	0xbdacf6f5	-0.08445541
193	0x3dc8279f	0.09773182
194	0x3dce4ab5	0.10072843
195	0x3dae31eb	0.08505615
196	0xbd9c0d70	-0.076197505
197	0xbdae5c06	-0.08513646
198	0xbd95c9af	-0.07313859
199	0xbdb1fbe1	-0.0869062
200	0x3dcbe398	0.099555194
201	0xbd8bdc8c	-0.06829175
202	0xbd81e4de	-0.06342481
203	0xbd959119	-0.07303066
204	0x3e0fbb2d	0.14036246
205	0x3d994f37	0.07485812
206	0x3df2847a	0.11841674
207	0x3de22bfd	0.11043546
208	0xbd98b0e4	-0.07455614
209	0x3d948bca	0.07253225
210	0x3d925ae1	0.0714624
211	0x3d8de24a	0.06927927
212	0xbcfa000c	-0.0305176
213	0xbd9265a2	-0.07148291
214	0xbd73f085	-0.05955555
215	0xbd6e5925	-0.058190484
216	0xbdf8431e	-0.121221766
217	0x3e0c9d2d	0.13731833
218	0x3e03b529	0.12862076
219	0x3e0b11cf	0.13581012
220	0xbe06561a	-0.13118783
221	0xbe090f38	-0.13384712
222	0xbe0936ba	-0.13399783
223	0xbe0995c5	-0.13436039
224	0xbc35c7b6	-0.011094978
225	0x3d6812af	0.056658443
226	0x3d07432f	0.033023056
227	0x3d0a35f5	0.033742864
228	0x3ccbb0ef	0.024864642
229	0xbcf4f120	-0.029900134
230	0xbbb73c15	-0.005591879
231	0xbbd2312e	-0.006414554
232	0xbd153f27	-0.03643718
233	0x3d55a5f0	0.052160203
234	0x3d5d81df	0.054078933
235	0x3d299bd8	0.04140839
236	0xbd104f99	-0.03523216
237	0xbd537586	-0.05162575
238	0xbd0bd770	-0.034141004
239	0xbd342b32	-0.043986507
240	0x3bd1f2c8	0.0064071156
241	0xbd26e55a	-0.04074607
242	0xbcdccddd	-0.026953632
243	0xbcf8e235	-0.030381301
244	0xbd98dd8b	-0.07464131
245	0x3d0f898e	0.03504329
246	0xbc90181b	-0.01758962
247	0xbc952d3a	-0.018210042
248	0xbde47839	-0.11155743
249	0x3e01fbf4	0.12693769
250	0x3de28695	0.11060826
251	0x3dec8e61	0.11550594
252	0xbd65570e	-0.055991225
253	0xbde9c510	-0.1141454
254	0xbdc36dbf	-0.09542417
255	0xbdc2fa0c	-0.09520349

embedding_item_mlp.weight f4 [3706, 8]
0	0xbe712ccc	-0.23552245
1	0xbe7f9d9b	-0.24962465
2	0xbe690e78	-0.22759426
3	0x3e6d4aba	0.23173037
4	0x3e74d847	0.23910628
5	0x3e7165a6	0.23573932
6	0xbe6dd65c	-0.23226303
7	0x3e6d7fca	0.23193279
8	0xbdecc36e	-0.11560713
9	0xbdda1b5a	-0.10649748
10	0xbdf12165	-0.117739476
11	0x3dd14cb0	0.10219705
12	0x3dde78cf	0.10862886
13	0x3ded54b0	0.115884185
14	0xbdcfe320	-0.101507425
15	0x3ddee819	0.10884113
16	0xbdeec260	-0.11658168
17	0xbde22db3	-0.11043873
18	0xbdf4dbfa	-0.1195602
19	0x3deb6b20	0.11495042
20	0x3ddd163c	0.107952565
21	0x3de18c30	0.11013067
22	0xbddf74c5	-0.10910944
23	0x3df20aad	0.118184425
24	0xbe89f75d	-0.26946536
25	0xbe8822c2	-0.26589018
26	0xbe82539a	-0.25454408
27	0x3e82e8da	0.25568277
28	0x3e8467bf	0.25860402
29	0x3e833396	0.25625294
30	0xbe8612f6	-0.2618634
31	0x3e87d78f	0.26531646
32	0xbe6d713d	-0.23187728
33	0xbe5d6792	-0.2162154
34	0xbe5f3877	-0.21798883
35	0x3e533295	0.20624764
36	0x3e616cd7	0.22014175
37	0x3e667c6d	0.22508402
38	0xbe5bee2f	-0.21477579
39	0x3e5ff26a	0.21869817
40	0xbe6a1f68	-0.22863543
41	0xbe5bf525	-0.21480234
42	0xbe6d6947	-0.23184691
43	0x3e5d7e4a	0.21630207
44	0x3e69c4b6	0.22828946
45	0x3e6a257c	0.22865862
46	0xbe6003c3	-0.21876435
47	0x3e5e6381	0.21717645
48	0xbd9231d7	-0.071384124
49	0xbd88e659	-0.0668456
50	0xbd9204a8	-0.07129794
51	0x3d6dffaf	0.058105167
52	0x3d824c69	0.0636223
53	0x3d5d1b03	0.05398084
54	0xbd92cd56	-0.07168071
55	0x3d8710c8	0.06594998
56	0xbe53d77e	-0.20687672
57	0xbe6393af	-0.22224306
58	0xbe5d5318	-0.21613729
59	0x3e5d75e8	0.21627009
60	0x3e57cbb9	0.21073808
61	0x3e6486c9	0.22317041
62	0xbe60b297	-0.21943127
63	0x3e5f0393	0.21778707
64	0xbe010d31	-0.12602688
65	0xbdf2a62c	-0.11848101
66	0xbe05d5ed	-0.13069887
67	0x3e08486f	0.13308881
68	0x3e03f758	0.12887323
69	0x3e0083f8	0.12550342
70	0xbe01323e	-0.12616822
71	0x3df9f45c	0.12204811
72	0xbe8b6d5e	-0.27231878
73	0xbe87148c	-0.26382864
74	0xbe89789e	-0.26849836
75	0x3e8a76f6	0.27043885
76	0x3e88a30f	0.26686904
77	0x3e8bc986	0.27302188
78	0xbe858ae8	-0.2608254
79	0x3e89c43e	0.26907533
80	0xbe1f22d4	-0.1554063
81	0xbe28f089	-0.16498007
82	0xbe2dba26	-0.16965541
83	0x3e3249aa	0.17410913
84	0x3e2cdf34	0.1688202
85	0x3e2f2153	0.17102556
86	0xbe27fd66	-0.16405258
87	0x3e2748ca	0.1633636
88	0x3d4d5cc9	0.050137315
89	0x3d4472b2	0.047960944
90	0x3d65d1b0	0.056108177
91	0xbd5db42d	-0.054126907
92	0xbd7b650e	-0.06137567
93	0xbd60782b	-0.0548021
94	0x3d4c1ccf	0.04983216
95	0xbd5b5b83	-0.05355407
96	0xbbeffa00	-0.0073235035
97	0xbcc059ba	-0.023480285
98	0xbc15c772	-0.00914179
99	0x3c0d1385	0.008610611
100	0x3c40220f	0.01172687
101	0x3c3f3088	0.011669286
102	0xbbe275a8	-0.0069109984
103	0x3c5a949d	0.013341096
104	0xbe17a028	-0.14807189
105	0xbe0c5589	-0.13704504
106	0xbe0d9cf9	-0.13829412
107	0x3e1e0e6a	0.15435186
108	0x3e0b6067	0.13610993
109	0x3e1c1e1b	0.1524586
110	0xbe0ec626	-0.13942775
111	0x3e19edad	0.15032072
112	0xbe37e19b	-0.17957155
113	0xbe382549	-0.17982973
114	0xbe2cdeec	-0.16881913
115	0x3e39e066	0.18152007
116	0x3e2fce8c	0.17168635
117	0x3e39247a	0.18080321
118	0xbe32f492	-0.17476109
119	0x3e260393	0.16212301
120	0xbe766ed0	-0.24065709
121	0xbe6a3d11	-0.22874857
122	0xbe6acaac	-0.22928876
123	0x3e664478	0.22487056
124	0x3e73a1e7	0.2379223
125	0x3e680ad5	0.22660382
126	0xbe70077d	-0.23440357
127	0x3e701e96	0.23449168
128	0xbd4ba49c	-0.04971753
129	0xbd8b654b	-0.068064295
130	0xbd94940d	-0.07254801
131	0x3d83e7c0	0.06440687
132	0x3d6d34e5	0.057911772
133	0x3d33c5c2	0.04388977
134	0xbd48a6a4	-0.048987046
135	0x3d6db147	0.058030393
136	0xbd8723e2	-0.06598641
137	0xbd7b4c72	-0.0613522
138	0xbd8a3f94	-0.06750408
139	0x3d6d6edd	0.057967056
140	0x3d8773be	0.06613873
141	0x3d84589c	0.064622134
142	0xbd7ecd77	-0.062207665
143	0x3d8d74da	0.06907053
144	0xbdc79ac1	-0.09746314
145	0xbdca392b	-0.09874185
146	0xbddc487a	-0.10756011
147	0x3de65578	0.112467706
148	0x3de7cb68	0.113180935
149	0x3db3686b	0.087601505
150	0xbde5a6dd	-0.11213467
151	0x3de04db8	0.10952324
152	0xbe095963	-0.13413005
153	0xbe068a84	-0.13138777
154	0xbe0aebfa	-0.1356658
155	0x3e01cb29	0.12675156
156	0x3e05519a	0.1301941
157	0x3e052f64	0.1300636
158	0xbe0ab186	-0.13544282
159	0x3e0a4367	0.13502274
160	0xbe093e4a	-0.13402668
161	0xbdff728d	-0.12473021
162	0xbe0234dd	-0.12715478
163	0x3e060588	0.13088048
164	0x3df9743e	0.121803746
165	0x3e02dc79	0.12779416
166	0xbe09df4d	-0.13464089
167	0x3e005243	0.1253138
168	0xbd9752fe	-0.073888764
169	0xbd85aa41	-0.06526614
170	0xbd99aebe	-0.075040326
171	0x3d8943c8	0.06702381
172	0x3d88d1f0	0.066806674
173	0x3d8aea24	0.0678294
174	0xbd960d7c	-0.07326791
175	0x3d87df85	0.0663443
176	0xbe836b0e	-0.25667614
177	0xbe82ad2c	-0.25522745
178	0xbe7f85b2	-0.24953344
179	0x3e7fe0d9	0.24988116
180	0x3e83bbfb	0.25729355
181	0x3e822320	0.25417423
182	0xbe844b17	-0.2583854
183	0x3e8494ee	0.25894874
184	0xbe82bea3	-0.2553607
185	0xbe85948c	-0.26089895
186	0xbe87ef2a	-0.26549655
187	0x3e790aff	0.24320601
188	0x3e806da0	0.25083637
189	0x3e8c6844	0.27423298
190	0xbe82a0c1	-0.2551327
191	0x3e87a10a	0.2649005
192	0xbc434a62	-0.01191959
193	0xbcd27959	-0.025692629
194	0xbc9224e8	-0.017839864
195	0x3c9c7266	0.019097518
196	0x3cbd58e1	0.02311367
197	0x3c0d2987	0.008615858
198	0xbcc30a47	-0.023808612
199	0x3c9fa8ff	0.019489763
200	0xbc9ea6b3	-0.019366598
201	0xbd0d41d5	-0.03448661
202	0xbcec8643	-0.028872615
203	0x3c9d3646	0.019190919
204	0x3ccb619b	0.024826815
205	0x3d0e01ec	0.0346698
206	0xbc91262f	-0.017718403
207	0x3d24de13	0.04025085
208	0xbe65272d	-0.22378226
209	0xbe6761f6	-0.22595963
210	0xbe699f45	-0.22814663
211	0x3e5d1c39	0.21592797
212	0x3e5ca905	0.21548851
213	0x3e62afb4	0.22137338
214	0xbe7e2c07	-0.24821483
215	0x3e6b18f1	0.22958733
216	0xbe2c675e	-0.16836306
217	0xbe344125	-0.17602976
218	0xbe1921f9	-0.14954366
219	0x3e1f18fe	0.15536878
220	0x3e23f266	0.16010436
221	0x3e271710	0.16317391
222	0xbe20e050	-0.15710568
223	0x3e1d3262	0.15351251
224	0x3d94284e	0.0723425
225	0x3d774a07	0.060373332
226	0x3d94950c	0.07254991
227	0xbd87f5e0	-0.06638694
228	0xbda2bc13	-0.079460286
229	0xbd99c176	-0.07507603
230	0x3d97846d	0.07398305
231	0xbd8dfc19	-0.069328494
232	0xbe139e63	-0.14415888
233	0xbe1b7c98	-0.15184247
234	0xbe188137	-0.14893042
235	0x3e259f36	0.16174015
236	0x3e24a620	0.16078997
237	0x3e1f968d	0.15584774
238	0xbe1d75ae	-0.15376922
239	0x3e225659	0.15853252
240	0xbd300c77	-0.042980637
241	0xbd7ce1ad	-0.06173866
242	0xbd5e3da4	-0.054258004
243	0x3d4368ea	0.047707476
244	0x3d5bcc63	0.053661715
245	0x3d52906b	0.05140726
246	0xbd7faffd	-0.062423695
247	0x3d368358	0.044558853
248	0xbd9dd988	-0.077075064
249	0xbdb19d0d	-0.08672533
250	0xbda5b05f	-0.08090281
251	0x3dba073d	0.09083412
252	0x3db4dbe0	0.08831
253	0x3db42552	0.08796181
254	0xbdac786b	-0.084214054
255	0x3daeb4e0	0.08530593

embedding_user_mf.weight f4 [6040, 8]
0	0x3d4163d5	0.047214348
1	0xbdb56f90	-0.088591695
2	0xbe237538	-0.15962684
3	0x3e1af11d	0.1513104
4	0xbd9cb74e	-0.0765215
5	0x3d8acf35	0.06777803
6	0x3e171d7a	0.14757338
7	0xbe1d14aa	-0.15339914
8	0xbd388f17	-0.045058336
9	0xbdffaab4	-0.12483731
10	0xbe18e6b6	-0.14931759
11	0x3e75b127	0.2399336
12	0xbe1b5a0b	-0.15171067
13	0x3de03662	0.10947873
14	0x3e4325ac	0.1905734
15	0xbe05726c	-0.1303193
16	0x3eaa220a	0.33229095
17	0xbe401155	-0.18756612
18	0xbe1c7521	-0.15279056
19	0x3e07062a	0.13185945
20	0xbe3474c4	-0.17622668
21	0x3e605641	0.21907903
22	0x3e135fb4	0.14391977
23	0xbe366d86	-0.17815217
24	0x3e40e199	0.18836059
25	0xbdc31be6	-0.095268056
26	0xbe0ed4a4	-0.13948303
27	0x3e3452c9	0.17609705
28	0xbe31d1e7	-0.17365228
29	0x3e894412	0.26809746
30	0x3e25bcc7	0.16185294
31	0xbdf90f8c	-0.121611685
32	0xbdcbdfef	-0.09954821
33	0xbe2c6df1	-0.16838814
34	0xbd8f3d1d	-0.06994078
35	0x3dd8ac95	0.105797924
36	0xbd8d6851	-0.069046624
37	0xbe1440c6	-0.14477834
38	0xbd1d1f2c	-0.038359806
39	0xbd2285bf	-0.03967833
40	0x3c384715	0.011247416
41	0xbd882c45	-0.06649069
42	0xbddf88dc	-0.10914776
43	0x3d57c72e	0.052680187
44	0xbccd5909	-0.02506687
45	0x3cbbae5a	0.022910286
46	0x3d882582	0.06647779
47	0xbdb0ca62	-0.086323515
48	0x3e699b60	0.22813177
49	0xbe47b63f	-0.19503115
50	0xbe382520	-0.17982912
51	0x3e2de459	0.16981639
52	0xbe4ba259	-0.1988615
53	0x3e8760a4	0.26440918
54	0x3e399af2	0.18125513
55	0xbe42637d	-0.18983264
56	0x3e023a01	0.12717439
57	0xbe5a1cdc	-0.21300071
58	0xbe06135a	-0.1309332
59	0x3dc115dc	0.094279975
60	0xbdfd5e54	-0.12371507
61	0xbe2490f6	-0.16070923
62	0x3d6594a9	0.056049976
63	0xbe1f7cab	-0.15574901
64	0x3de3e545	0.11127714
65	0xbe59bffe	-0.21264645
66	0xbdcd061d	-0.10010932
67	0x3dea3d04	0.11437419
68	0xbde5f60f	-0.112285726
69	0xbcb6370a	-0.022243042
70	0x3dadd915	0.08488671
71	0xbe163011	-0.14666773
72	0x3e01bc8c	0.12669581
73	0xbd8011d0	-0.062533975
74	0xbe6d203f	-0.23156832
75	0x3e60481c	0.21902508
76	0xbe0d74d4	-0.13814098
77	0x3ea59af3	0.3234478
78	0x3e3a1d47	0.18175231
79	0xbe6adc4e	-0.22935602
80	0x3e023852	0.12716797
81	0xbe6df87a	-0.23239318
82	0xbe1e722f	-0.15473245
83	0x3d8851b0	0.06656206
84	0xbd8c5047	-0.06851249
85	0xbe00d1e3	-0.12580065
86	0x3cbce304	0.023057468
87	0xbdffff16	-0.12499826
88	0xbdd95dff	-0.106136315
89	0xbca38750	-0.019961983
90	0x3c0180b1	0.007904218
91	0x3d77778a	0.060416736
92	0xbd2fe346	-0.042941354
93	0x3d76ccba	0.060253836
94	0x3c43c343	0.0119484095
95	0xbd604879	-0.054756615
96	0x3e9b68a7	0.3035328
97	0xbdf50a19	-0.119648166
98	0xbd91cdac	-0.07119307
99	0x3e30f850	0.17282224
100	0xbe4318c8	-0.19052422
101	0x3ea1714d	0.31531754
102	0x3e1fa672	0.15590838
103	0xbdf2de93	-0.11858859
104	0x3dcffc8b	0.101555906
105	0xbe3f09ba	-0.18656054
106	0xbe2cd870	-0.1687944
107	0x3e26d2d0	0.16291356
108	0xbe252def	-0.16130804
109	0x3debbdb8	0.11510795
110	0x3e3b37b2	0.18282965
111	0xbe5ce1f0	-0.21570563
112	0x3ef9a011	0.48754933
113	0xbea5e03d	-0.32397643
114	0xbcd67c41	-0.026182296
115	0xbc824e31	-0.015906425
116	0xbd4dd31a	-0.05025015
117	0xbd1a2b59	-0.037638996
118	0x3d5ca14c	0.053864762
119	0xbe49c3b5	-0.19703563
120	0x3e5c6711	0.21523692
121	0x3d10debd	0.03536867
122	0x3e0e6731	0.13906552
123	0xbe004bc5	-0.12528904
124	0x3e0ec5ee	0.13942692
125	0xbddd9481	-0.108193405
126	0xbdf4d82b	-0.11955293
127	0x3d340713	0.04395206
128	0x3c863969	0.016384797
129	0xbc8a4d9c	-0.01688271
130	0x3b18ae87	0.0023297386
131	0x3d598b1a	0.053111173
132	0xbe2ff312	-0.17182568
133	0x3e5a6717	0.21328388
134	0xbc6f4bd2	-0.014605479
135	0xbc44510c	-0.011982214
136	0x3edbe35d	0.42946902
137	0xbe604e63	-0.21904902
138	0xbe0d8ad6	-0.13822493
139	0x3db1406c	0.086548656
140	0xbe204647	-0.15651809
141	0x3e532ab9	0.20621766
142	0x3e13d734	0.14437562
143	0xbe4e4e5e	-0.20147082
144	0x3eb2bf53	0.34911594
145	0xbc9e7d9d	-0.019347006
146	0xbc8ba1bd	-0.017044896
147	0x3d2950f7	0.04133698
148	0xbdc90a80	-0.09816456
149	0x3ea96dc7	0.33091566
150	0x3dab383f	0.083603375
151	0xbdd3911d	-0.103304125
152	0x3dea156e	0.11429869
153	0xbdf23594	-0.118266255
154	0xbddedd85	-0.10882095
155	0x3d9d0af1	0.076681025
156	0xbda997f3	-0.08280935
157	0x3da72d5c	0.081629485
158	0x3d99240f	0.07477581
159	0xbdf0785f	-0.11741709
160	0x3e743922	0.2384992
161	0xbd194f50	-0.037429154
162	0xbdca0104	-0.09863475
163	0x3ca2a8e4	0.019855924
164	0xbdabc748	-0.08387619
165	0x3d5a6d06	0.05332663
166	0x3c6db84e	0.014509274
167	0xbd5cda2b	-0.053919
168	0x3f264ffd	0.649658
169	0xbe9adc81	-0.30246356
170	0xbe49709e	-0.19671866
171	0x3dab8c2f	0.08376347
172	0xbe6ab331	-0.22919919
173	0x3e6c088d	0.23050137
174	0x3e4fcc8c	0.20292872
175	0xbe599a1f	-0.21250199
176	0x3cf15498	0.029459283
177	0xbe69b99f	-0.22824715
178	0xbe23cb3d	-0.15995498
179	0x3e7366eb	0.23769729
180	0xbe8cb946	-0.27485102
181	0x3ea4bbf9	0.32174662
182	0x3e203a90	0.1564734
183	0xbe27c262	-0.16382745
184	0xbb6e9a46	-0.0036407872
185	0xbe77b302	-0.2418938
186	0xbeaa3539	-0.3324373
187	0x3e7f3742	0.24923423
188	0xbe4ff63d	-0.20308776
189	0x3db141b9	0.08655114
190	0x3e87667e	0.26445383
191	0xbe8dae7d	-0.27672186
192	0x3ede357b	0.43400177
193	0xbe51a454	-0.20472842
194	0xbd8fb321	-0.07016588
195	0x3c93ff33	0.018066024
196	0xbe138fde	-0.1441035
197	0x3e29e84f	0.16592525
198	0x3d3d9797	0.046287145
199	0xbde87ecc	-0.113523096
200	0x3ebb244f	0.3655114
201	0xbead883c	-0.33893
202	0xbeabffd9	-0.33593634
203	0x3dc87f59	0.09789915
204	0xbdb57ce6	-0.08861713
205	0xbdbcdf9b	-0.09222337
206	0x3e3eba8d	0.18625851
207	0xbe87afa1	-0.26501182
208	0xbea141ae	-0.31495422
209	0x3e1ab53d	0.151082
210	0xbd6865b3	-0.056737613
211	0x3e31ad21	0.173512
212	0xbced90a4	-0.028999634
213	0x3e1cdede	0.15319392
214	0x3db3d53f	0.08780908
215	0xbd056e5b	-0.032575946
216	0xbe4b674a	-0.1986362
217	0xbd644ca7	-0.055737164
218	0xbe425d7c	-0.18980974
219	0x3e6f17e2	0.23348954
220	0xbdc79760	-0.09745669
221	0x3d61cb08	0.055125266
222	0x3e412ab5	0.18863948
223	0xbe2c4f16	-0.16827044
224	0x3bcebef4	0.0063093845
225	0x3ab7d10d	0.0014024094
226	0xbe12323e	-0.14276978
227	0x3e68f38a	0.22749153
228	0xbe6014dc	-0.21882957
229	0x3edb9dda	0.4289387
230	0x3e665cfb	0.22496407
231	0xbdea3310	-0.11435521
232	0xbe249a54	-0.16074497
233	0xbda210ed	-0.079133846
234	0xbdd655e8	-0.10465604
235	0x3dc61c13	0.096733235
236	0xbd957101	-0.072969444
237	0xbc6d7a8e	-0.014494551
238	0x3da2961d	0.07938788
239	0xbd603555	-0.05473836
240	0xbe037762	-0.1283851
241	0x3e00e8a2	0.12588742
242	0xbe29b81f	-0.16574143
243	0x3dd00ef8	0.10159105
244	0xbcc33741	-0.023830058
245	0x3e17a76b	0.14809959
246	0x3debc65d	0.11512444
247	0xbcc6236e	-0.024186816
248	0xbd3a3060	-0.04545629
249	0xbe1ca2a6	-0.1529642
250	0xbdf08461	-0.11743999
251	0x3e120594	0.1425994
252	0xbdf3b6e8	-0.11900121
253	0xbcb1a639	-0.021685706
254	0x3dfa51ab	0.12222608
255	0xbe16be7c	-0.14721102

embedding_item_mf.weight f4 [3706, 8]
0	0x3f0da4de	0.5532969
1	0x3de263c6	0.110541865
2	0x3e8d819f	0.27637956
3	0x3f00969d	0.5022982
4	0x3e93e83c	0.28888118
5	0x3e4f3b6b	0.2023751
6	0x3eccf2e5	0.40029064
7	0x3ec3172d	0.3810362
8	0xbdfee989	-0.12446887
9	0xbdc2e2d7	-0.095159225
10	0xbbbbff8f	-0.005737252
11	0xbd27b2e3	-0.040942084
12	0x3d227912	0.039666243
13	0x3c21a1cc	0.009865236
14	0xbe027b5b	-0.12742369
15	0x3d8bdb16	0.06828897
16	0x3ec22919	0.3792198
17	0xbe97cc01	-0.2964783
18	0x3e00369d	0.12520833
19	0x3e195d05	0.1497689
20	0xbdb4036e	-0.08789717
21	0xbc0f1352	-0.008732634
22	0x3de9c1f8	0.1141395
23	0x3d6f6353	0.058444332
24	0x3cd02e81	0.0254128
25	0x3e993869	0.2992585
26	0x3d1a6bd3	0.037700485
27	0x3bd79bbf	0.0065798457
28	0xbd25dfe5	-0.040496726
29	0xbebf9fa6	-0.3742649
30	0x3ba2882d	0.004960081
31	0x3e8bb60e	0.27287334
32	0xbeb2f896	-0.3495528
33	0x3e7fa37c	0.24964708
34	0x3e8614ef	0.26187846
35	0x3e155150	0.145818
36	0x3d8f7b11	0.07005895
37	0x3d53ab26	0.05167689
38	0x3db13d65	0.08654288
39	0x3ecd1254	0.40053046
40	0xbe312822	-0.17300466
41	0x3f126151	0.57179743
42	0x3f4af706	0.7928318
43	0x3f29cba4	0.66326356
44	0x3f2b9dde	0.6703776
45	0x3f08e48b	0.5347373
46	0x3f30163d	0.6878393
47	0x3f3118f7	0.6917872
48	0x3e8c3bc6	0.27389354
49	0xbe5281f0	-0.2055738
50	0xbc79c124	-0.015243802
51	0x3e91a833	0.28448638
52	0x3deb0705	0.11475948
53	0x3efe9c23	0.49728498
54	0x3e2e0c58	0.16996896
55	0x3d850c3c	0.06496474
56	0x3e091d53	0.13390093
57	0x3e2e3fd9	0.17016543
58	0x3ec755ae	0.38932556
59	0x3eb1a983	0.3469964
60	0x3e733239	0.23749627
61	0x3df8ffe0	0.12158179
62	0x3ebcefa2	0.36901575
63	0x3eb584ef	0.35452983
64	0xb9f25e94	-0.00046228303
65	0xbe6b8f0f	-0.23003791
66	0x3dd06230	0.10174978
67	0x3e1cf855	0.15329106
68	0xbcd1583f	-0.025554774
69	0x3e17d022	0.1482549
70	0x3de7f1d9	0.11325426
71	0x3e318952	0.1733754
72	0x3eac890d	0.3369831
73	0x3c548689	0.012971529
74	0x3ee02e99	0.4378555
75	0x3f18e629	0.59726197
76	0x3e7e4423	0.2483068
77	0x3eb18b6a	0.34676677
78	0x3f039463	0.51398295
79	0x3ee741bf	0.45167348
80	0xbe6e020f	-0.23242973
81	0xbcff368b	-0.031153938
82	0x3e1fd318	0.1560787
83	0x3e225509	0.15852751
84	0x3d5d9d70	0.054105222
85	0x3d41a279	0.047274087
86	0x3dd2b103	0.102876686
87	0x3e8168b9	0.2527521
88	0x3eea5ec8	0.45775437
89	0xbed89258	-0.4229915
90	0xbe0c90c2	-0.13727096
91	0xbccc292f	-0.024921982
92	0xbe753ccd	-0.23948975
93	0xbdd1a674	-0.102368265
94	0xbd806e39	-0.06271023
95	0xbe2d911a	-0.16949883
96	0x3ec25164	0.3795272
97	0xbe1f11ab	-0.15534084
98	0x3d9edea7	0.07757311
99	0x3e044a80	0.12919044
100	0xbd759578	-0.059956998
101	0x3c97136f	0.018441884
102	0x3e0fbe39	0.14037408
103	0x3da74e2c	0.08169207
104	0xbccd2793	-0.025043285
105	0x3ec3f070	0.38269377
106	0x3f213989	0.62978417
107	0x3f00ac61	0.5026303
108	0x3ee4d5e5	0.4469444
109	0x3e5a688b	0.21328942
110	0x3f016769	0.50548416
111	0x3ef52eb8	0.47887206
112	0x3e8046f0	0.2505412
113	0xbd9609e4	-0.07326105
114	0x3e19c82d	0.15017767
115	0x3e2576bb	0.16158573
116	0xbc80466d	-0.015658582
117	0xbd9b8835	-0.07594339
118	0x3df9dcac	0.12200293
119	0x3e3134c6	0.17305288
120	0x3dbbf802	0.09178163
121	0x3e7426b0	0.23842883
122	0x3f168c53	0.5880787
123	0x3ee4961f	0.44645783
124	0x3ec6d530	0.38834524
125	0x3e8fbeb3	0.2807518
126	0x3ee97f6f	0.45605037
127	0x3ee11420	0.43960667
128	0xbe752341	-0.2393923
129	0xbd0e1bdc	-0.034694538
130	0xbc57e38a	-0.013176808
131	0xbde271d5	-0.11056868
132	0xbdb2d184	-0.08731368
133	0x3c509096	0.0127297845
134	0xbddb6566	-0.107126996
135	0x3cd70baa	0.026250679
136	0xbcd8ea50	-0.026478916
137	0xbe4e511e	-0.20148131
138	0x3dda0776	0.10645954
139	0x3ddd58e1	0.10807968
140	0xbb63d3e9	-0.003476376
141	0x3e07a7d1	0.1324761
142	0x3d28f04c	0.04124479
143	0x3e0bd691	0.1365607
144	0x3dce3bfd	0.100700356
145	0x3e463231	0.19355084
146	0x3e864350	0.2622323
147	0x3e13c6d7	0.1443132
148	0x3e1d8016	0.15380892
149	0xbe89bbb1	-0.2690101
150	0x3e033afe	0.12815472
151	0x3e5f1c97	0.2178825
152	0xbd351620	-0.044210553
153	0x3e95a72b	0.29229102
154	0x3f214200	0.62991333
155	0x3f043284	0.5163958
156	0x3ea9659b	0.3308533
157	0x3eb57064	0.3543731
158	0x3f16481c	0.5870378
159	0x3f10df71	0.56590945
160	0xbd97676f	-0.07392775
161	0x3ee154b5	0.4400994
162	0x3eba57e2	0.36395174
163	0x3e7a666d	0.24453135
164	0x3e2b78b0	0.16745257
165	0xbe538666	-0.20656738
166	0x3e573acb	0.21018521
167	0x3eb6e855	0.3572413
168	0x3e62d46c	0.22151345
169	0xbdda646d	-0.10663686
170	0xbbaff291	-0.0053694923
171	0x3d8a368c	0.06748685
172	0xbba91799	-0.0051602838
173	0x3c95c366	0.01828165
174	0xbd6f5cc1	-0.058438066
175	0xbd82870e	-0.06373416
176	0xbe44105f	-0.1914687
177	0x3f0cdf48	0.550282
178	0x3f6a5e7f	0.9155044
179	0x3f7c9686	0.9866718
180	0x3f4441cf	0.76662916
181	0x3f577903	0.84169024
182	0x3f6e6b21	0.93132216
183	0x3f6cc49c	0.924875
184	0x3e85729e	0.26064008
185	0x3f01b74d	0.5067032
186	0x3ef9da52	0.48799378
187	0x3f31a43a	0.69391215
188	0x3ef38a8a	0.47566634
189	0x3e39be06	0.18138894
190	0x3f03d45f	0.5149593
191	0x3f2e526f	0.68094534
192	0xbddf533f	-0.1090455
193	0x3e1dca78	0.15409267
194	0x3d024456	0.03180345
195	0xbde087b1	-0.10963381
196	0xbce2bb2e	-0.027677145
197	0xbea91176	-0.33021134
198	0xbd61eaf8	-0.055155724
199	0x3dba1160	0.09085345
200	0xbec02bef	-0.3753352
201	0xbd83f6dc	-0.06443569
202	0x3d4b6bc1	0.04966331
203	0xbde4fde3	-0.111812375
204	0xbde25d43	-0.110529445
205	0xbdcd6bb8	-0.10030311
206	0xbe0a37e4	-0.13497883
207	0x3ddb6978	0.10713476
208	0xbd23d6b3	-0.039999675
209	0x3eb2a464	0.34891045
210	0x3f31927d	0.6936415
211	0x3f300f85	0.6877368
212	0x3f1713d3	0.59014624
213	0x3f118088	0.5683675
214	0x3f349e83	0.7055437
215	0x3f2e19dd	0.68008214
216	0xbe4b4487	-0.1985036
217	0x3ee16d74	0.4402882
218	0x3eb7af51	0.35875943
219	0x3e907aef	0.2821879
220	0x3e33e164	0.17566448
221	0xbddb6537	-0.107126646
222	0x3e8093c9	0.2511275
223	0x3ecccfb6	0.4000222
224	0x3ece9e96	0.40355366
225	0xbe108139	-0.14111795
226	0xbe8f4ef7	-0.27989933
227	0xbe8f8707	-0.28032705
228	0xbea018bb	-0.31268868
229	0xbf069ba6	-0.5258125
230	0xbe8f6ab3	-0.28011093
231	0xbebb8dcb	-0.36631617
232	0x3e031045	0.12799175
233	0xbc3978a0	-0.011320263
234	0x3d0737a1	0.033012036
235	0x3df878f1	0.12132443
236	0xbb9d7e29	-0.004806299
237	0x3aad3f1f	0.0013217664
238	0xbdd651ff	-0.10464858
239	0xbd311dac	-0.043241188
240	0xbe96cfeb	-0.29455504
241	0x3d98010e	0.07422076
242	0x3dca9928	0.098924935
243	0xbc86c250	-0.016450077
244	0x3d073a08	0.033014327
245	0xbd3d5481	-0.046223167
246	0xbc1d98b3	-0.009618926
247	0x3e2c4f2e	0.1682708
248	0xbd31ebc5	-0.043437738
249	0x3dc70fc6	0.097198054
250	0xbd6b1535	-0.05739327
251	0xbe477a9a	-0.19480363
252	0xbe5f2a34	-0.21793443
253	0xbecba84c	-0.39776838
254	0xbe2622b4	-0.16224176
255	0xbcd3fcef	-0.025877444

fc_layers.0.weight f4 [64, 16]
0	0xbe0f7011	-0.14007594
1	0x3e572760	0.21011114
2	0x3e4b6f88	0.19866765
3	0x3e319548	0.17342103
4	0xbdf6a0f2	-0.12042417
5	0xbe3bb81c	-0.18331951
6	0xbe01c7a0	-0.12673807
7	0xbe100a29	-0.14066376
8	0x3e7561ce	0.23963091
9	0x3e6141f3	0.21997814
10	0x3e5f7561	0.2182212
11	0xbe6ea92e	-0.23306724
12	0xbe6f4317	-0.23365436
13	0xbe7a94a3	-0.24470763
14	0x3e77886d	0.24173136
15	0xbe68510c	-0.22687167
16	0xbe37e6c1	-0.1795912
17	0x3e4e3dab	0.20140712
18	0x3e345a81	0.1761265
19	0x3e4b0a07	0.19828044
20	0xbe846bc6	-0.25863475
21	0xbe45501c	-0.1926884
22	0xbe515e9e	-0.2044625
23	0xbe6f7546	-0.2338458
24	0x3e8dd29e	0.2769975
25	0x3e822115	0.25415865
26	0x3e87cf11	0.26525167
27	0xbe8b3257	-0.27186844
28	0xbe856eb9	-0.26061037
29	0xbe8cf9f2	-0.27534443
30	0x3e8a5572	0.27018315
31	0xbe87c5ee	-0.26518196
32	0x3d534043	0.051574957
33	0x3e42c5df	0.19020794
34	0x3e2a1b85	0.1661206
35	0x3d98c32c	0.07459101
36	0x3e7fa9dc	0.2496714
37	0xbd7bfa0b	-0.061517756
38	0x3e01ec75	0.12687857
39	0x3de5b4cf	0.11216127
40	0x3e3722c7	0.1788436
41	0x3e2a9f36	0.16662297
42	0x3e1e931e	0.15485808
43	0xbe3c73ad	-0.18403502
44	0xbe319e94	-0.17345649
45	0xbe34df35	-0.17663272
46	0x3e3c0aad	0.18363447
47	0xbe2086c2	-0.15676406
48	0xbe93b705	-0.2885057
49	0x3e368a39	0.17826165
50	0x3e27720c	0.16352099
51	0x3e4f1a97	0.20224987
52	0xbf04364c	-0.5164535
53	0xbe74f853	-0.23922853
54	0xbebc6c0b	-0.3680118
55	0xbec96707	-0.39336416
56	0x3eadb73c	0.3392886
57	0x3eaa87b6	0.33306664
58	0x3eaa05b6	0.33207482
59	0xbea3fca6	-0.32028693
60	0xbeac2998	-0.33625484
61	0xbea7015f	-0.32618234
62	0x3ea7511d	0.32679072
63	0xbeada1f4	-0.33912623
64	0x3d087f0c	0.033324286
65	0x3e3a5889	0.18197836
66	0x3e2b24e7	0.16713296
67	0x3dab9f4b	0.08379992
68	0x3e7ad1f8	0.24494159
69	0xbd81f565	-0.063456334
70	0x3dd0568e	0.10172759
71	0x3df5bf52	0.11999382
72	0x3e3b9130	0.18317103
73	0x3e3b1d6a	0.1827294
74	0x3e2c335e	0.1681647
75	0xbe3ce503	-0.18446736
76	0xbe3aeb7a	-0.1825389
77	0xbe492c1d	-0.19645734
78	0x3e37c76a	0.17947164
79	0xbe2d6a79	-0.16935147
80	0xbe820304	-0.25392926
81	0x3e2acc21	0.16679431
82	0x3e203cfe	0.15648267
83	0x3e3ab1fd	0.1823196
84	0xbee17e30	-0.44041586
85	0xbe58e219	-0.2118
86	0xbea08df2	-0.31358296
87	0xbeafaf97	-0.34313652
88	0x3e98c021	0.29834083
89	0x3e921ace	0.28536075
90	0x3e957574	0.29191172
91	0xbe9321ae	-0.28736633
92	0xbe93c1bb	-0.28858742
93	0xbe970406	-0.29495257
94	0x3e8b3b17	0.2719352
95	0xbe98b2c2	-0.2982388
96	0x166bfbfd	1.9062662e-25
97	0x948ae26d	-1.4023748e-26
98	0x1445cf02	9.9867834e-27
99	0x958bbde4	-5.644125e-26
100	0x120e7b2a	4.495911e-28
101	0x13b8eada	4.667971e-27
102	0x95ab6078	-6.921855e-26
103	0x15f0b0ea	9.721435e-26
104	0x15108d3e	2.919199e-26
105	0x13dfc235	5.6484617e-27
106	0x13d58e5d	5.390914e-27
107	0x1438bfa8	9.3274236e-27
108	0x149fc245	1.6131523e-26
109	0x93d02589	-5.2543594e-27
110	0x160ea1e3	1.1521751e-25
111	0x962ea1c2	-1.410665e-25
112	0x13847122	3.3433042e-27
113	0x1623787c	1.3205053e-25
114	0x958c9fb9	-5.679755e-26
115	0x9403368c	-6.624567e-27
116	0x959b8664	-6.281603e-26
117	0x15332440	3.6177358e-26
118	0x9524b6d8	-3.3263775e-26
119	0x148cb1d8	1.4206534e-26
120	0x16506121	1.6832755e-25
121	0x95db6e80	-8.8627734e-26
122	0x9405d7e1	-6.757359e-27
123	0x93a4cb2c	-4.1599763e-27
124	0x16293bb7	1.3670554e-25
125	0x94d618f0	-2.1618314e-26
126	0x960a88f9	-1.1190772e-25
127	0x955088da	-4.2113222e-26
128	0x95b6b9bc	-7.380225e-26
129	0x15de4e54	8.9788666e-26
130	0x9483bba5	-1.3301632e-26
131	0x1580cef4	5.20253e-26
132	0x1565d365	4.6412943e-26
133	0x14f81742	2.5050774e-26
134	0x1631f567	1.4375381e-25
135	0x95dcae0c	-8.913189e-26
136	0x93fc4271	-6.367926e-27
137	0x924e95c0	-6.518672e-28
138	0x1748e5b0	6.491339e-25
139	0x95732d9f	-4.9109448e-26
140	0x9515080a	-3.0096652e-26
141	0x169dc483	2.5488734e-25
142	0x953ad72c	-3.7732142e-26
143	0x137e91d1	3.21312e-27
144	0xbe728dc0	-0.23686886
145	0x3e2d3fca	0.16918865
146	0x3e1c190d	0.15243931
147	0x3e42b21d	0.19013257
148	0xbede46a8	-0.4341328
149	0xbe5c7a0a	-0.21530929
150	0xbe9f5101	-0.3111649
151	0xbeac20e2	-0.33618838
152	0x3e95c555	0.29252115
153	0x3e924914	0.2857138
154	0x3e8cf25d	0.27528659
155	0xbe8f018c	-0.27930868
156	0xbe91d962	-0.28486162
157	0xbe92ec6c	-0.28696
158	0x3e887867	0.2665436
159	0xbe968a00	-0.2940216
160	0xbe897103	-0.26844034
161	0x3e22e396	0.1590713
162	0x3e12d874	0.14340383
163	0x3e403c1f	0.18772934
164	0xbf041f42	-0.51610196
165	0xbe6c242d	-0.23060675
166	0xbebca597	-0.36845085
167	0xbebdefba	-0.3709696
168	0x3ea85826	0.32879752
169	0x3ea77143	0.327036
170	0x3ea77250	0.327044
171	0xbea1520e	-0.31507915
172	0xbea495e4	-0.32145607
173	0xbea4b161	-0.3216658
174	0x3ea4c82b	0.32183966
175	0xbead3549	-0.33829716
176	0xbc25f9c9	-0.010130354
177	0x3e608f3a	0.21929637
178	0x3e557297	0.20844494
179	0x3de54d0f	0.111963384
180	0x3e4004e6	0.18751869
181	0xbdbe444d	-0.09290371
182	0x3d92de36	0.071712896
183	0x3d934374	0.071906
184	0x3e3fbe2b	0.18724887
185	0x3e3e5af5	0.18589385
186	0x3e2dc910	0.1697123
187	0xbe3b7d6f	-0.18309568
188	0xbe36618f	-0.17810653
189	0xbe36c578	-0.17848766
190	0x3e3571d4	0.17719203
191	0xbe2d8a16	-0.16947207
192	0xbd9db86a	-0.0770119
193	0x3e73d517	0.23811756
194	0x3e57173a	0.21004954
195	0x3e335892	0.17514256
196	0x3a8c20cc	0.0010690927
197	0xbe1aa995	-0.15103753
198	0xbd80b8b3	-0.062852286
199	0xbd6a68a3	-0.057228696
200	0x3e604feb	0.21905486
201	0x3e658adf	0.22416256
202	0x3e6580b4	0.22412378
203	0xbe657814	-0.22409087
204	0xbe6c86b5	-0.23098262
205	0xbe697299	-0.22797622
206	0x3e6412b2	0.22272757
207	0xbe56d1e7	-0.20978509
208	0x962c94ed	-1.3941042e-25
209	0x1669e8f0	1.8895092e-25
210	0x92a9231f	-1.0674057e-27
211	0x96027562	-1.0538356e-25
212	0x943276f3	-9.010162e-27
213	0x94edbb26	-2.4004701e-26
214	0x920d7b2d	-4.464358e-28
215	0x93ee3a05	-6.013686e-27
216	0x15bde919	7.6704255e-26
217	0x12dcc77a	1.3933127e-27
218	0x143f3ff3	9.6556475e-27
219	0x9709c897	-4.4520267e-25
220	0x1312c147	1.8523084e-27
221	0x950f1372	-2.889396e-26
222	0x1425f862	8.379356e-27
223	0x973ad3ec	-6.0367324e-25
224	0xbe764878	-0.24051082
225	0x3e290ff7	0.16509996
226	0x3e267050	0.16253781
227	0x3e37dc54	0.17955142
228	0xbedd0564	-0.43168175
229	0xbe5f2e0d	-0.2179491
230	0xbe96306e	-0.29333824
231	0xbea667ca	-0.3250106
232	0x3e94f27c	0.2909125
233	0x3e92b880	0.28656387
234	0x3e8fbb76	0.2807271
235	0xbe9749d3	-0.2954851
236	0xbe959363	-0.2921401
237	0xbe984de8	-0.29746938
238	0x3e9417bb	0.28924355
239	0xbe9a0495	-0.3008162
240	0xbe6d22b6	-0.23157772
241	0x3e353627	0.17696439
242	0x3e2e23e9	0.17005886
243	0x3e46707f	0.19378851
244	0xbedd86f2	-0.43267018
245	0xbe6a82fc	-0.22901529
246	0xbea4ce11	-0.32188466
247	0xbea65190	-0.32484102
248	0x3e95b475	0.2923924
249	0x3e992245	0.29908958
250	0x3e8c007e	0.27344126
251	0xbe960fae	-0.29308838
252	0xbe94ae94	-0.29039443
253	0xbe9495cc	-0.29020536
254	0x3e92ccfd	0.2867202
255	0xbe988094	-0.29785597

fc_layers.0.bias f4 [64]
0	0x3e410366	0.18848953
1	0x3df0d9b5	0.11760274
2	0x3ea6cf13	0.3257986
3	0xbdd050dd	-0.101716734
4	0x3eaba2b5	0.33522573
5	0xbbc502a6	-0.0060122786
6	0x9c912003	-9.60357e-22
7	0xa25018e4	-2.8202433e-18
8	0x9a06c7d2	-2.7871964e-23
9	0x3a4ed215	0.0007889581
10	0xbe2b2a68	-0.16715395
11	0x3e93b355	0.28847757
12	0x3e6fdf0d	0.23424931
13	0x99422f24	-1.0039085e-23
14	0x3c0f163a	0.008733327
15	0x3a6fb872	0.0009144611
16	0xa1e99e46	-1.5830589e-18
17	0x3e263ae4	0.16233402
18	0x9eaad6a6	-1.8088227e-20
19	0x98a385db	-4.226967e-24
20	0x9920edc2	-8.319821e-24
21	0x96b514dc	-2.9255291e-25
22	0x3e77def0	0.24206138
23	0x3ea18d91	0.3155332
24	0x9adefbb8	-9.222372e-23
25	0x3eab6263	0.334735
26	0x3e4093ba	0.18806353
27	0x3ea9a902	0.33136755
28	0x99a7262d	-1.7282814e-23
29	0x97732c3e	-7.8573376e-25
30	0x3ea4bd63	0.3217574
31	0xbda773d9	-0.08176393
32	0x9f0ae553	-2.941233e-20
33	0x3ea4297a	0.32062894
34	0x9a0b7e11	-2.8846362e-23
35	0x3eae12be	0.33998674
36	0x3dea2e28	0.11434585
37	0x99a31f54	-1.6866458e-23
38	0xa009afa5	-1.1662467e-19
39	0x97003fb9	-4.143946e-25
40	0x966c70d7	-1.9099534e-25
41	0x3ea84a8a	0.3286937
42	0xa148238b	-6.7809677e-19
43	0x3ea9ec99	0.33188322
44	0x3eb26b5f	0.34847543
45	0x3eaa7698	0.33293605
46	0x99d2c75b	-2.179401e-23
47	0xa2743a6a	-3.309909e-18
48	0xa11e4e3d	-5.363603e-19
49	0x9da98524	-4.487159e-21
50	0x9f3a84a8	-3.9496763e-20
51	0xa17a12d4	-8.4728214e-19
52	0xa0a459c8	-2.7842093e-19
53	0x98440efe	-2.5339975e-24
54	0x9add971d	-9.1647594e-23
55	0x99334f8c	-9.2701475e-24
56	0x3e9172eb	0.28407988
57	0xa341b77b	-1.05014045e-17
58	0x9e9b4c58	-1.6442838e-20
59	0x9efe9083	-2.6953065e-20
60	0xa217cece	-2.0573797e-18
61	0x3ea17fa0	0.31542683
62	0x97e6c701	-1.4913637e-24
63	0x3e9ebe47	0.31004545

fc_layers.1.weight f4 [32, 64]
0	0x3e4c713b	0.19965069
1	0x3e63d62b	0.22249667
2	0x3e4db1ca	0.20087352
3	0x3eb96ae1	0.36214355
4	0x3e3a07fb	0.18167107
5	0x3e6e7b80	0.23289299
6	0x144873df	1.0120271e-26
7	0x93b5a22e	-4.5850745e-27
8	0x1513bcc4	2.9835323e-26
9	0x3e6f3ea5	0.2336374
10	0x3eec167c	0.46110904
11	0x3e4e394a	0.20139042
12	0x3e4e8db1	0.20171238
13	0x1567e31b	4.6829233e-26
14	0x3e7e1331	0.24812008
15	0x3e7bdc0d	0.24595661
16	0x150e084a	2.868321e-26
17	0x3e4e664d	0.20156212
18	0x95efc643	-9.6844133e-26
19	0x96c27c35	-3.1420776e-25
20	0x94a6883c	-1.6815452e-26
21	0x95dbf68d	-8.8842384e-26
22	0x3e4ba489	0.19886984
23	0x3e626ddf	0.22112225
24	0x96de2207	-3.5887509e-25
25	0x3e3f02e0	0.1865344
26	0x3e48c198	0.196051
27	0x3e474bcb	0.19462506
28	0x967366c4	-1.9661811e-25
29	0x93593eb5	-2.7420168e-27
30	0x3e52a5ad	0.20571013
31	0x3e9be60b	0.30448946
32	0x15b20edf	7.191709e-26
33	0x3e56296e	0.20914242
34	0x94171836	-7.6283266e-27
35	0x3e3d4bc6	0.18485937
36	0x3e4c1fa2	0.19933942
37	0x14bb241b	1.8896416e-26
38	0x95a9c613	-6.857106e-26
39	0x96bf1f11	-3.087732e-25
40	0x14938b7a	1.489822e-26
41	0x3e457709	0.1928369
42	0x94269b72	-8.4115144e-27
43	0x3e40647a	0.18788329
44	0x3e339781	0.17538263
45	0x3e3b3f0e	0.18285772
46	0x9909e5fd	-7.12918e-24
47	0x94ae4f7c	-1.7600861e-26
48	0x15daec39	8.842219e-26
49	0x16da0f1b	3.5229332e-25
50	0x154d807f	4.1500786e-26
51	0x93f96959	-6.2960318e-27
52	0x1669166e	1.8828668e-25
53	0x1606ca5c	1.0888287e-25
54	0x140be30c	7.062484e-27
55	0x1579c760	5.044243e-26
56	0x3e552319	0.2081417
57	0x16ca4c47	3.2682998e-25
58	0x144b61ab	1.02681425e-26
59	0x1520c05d	3.246349e-26
60	0x958c6c4a	-5.67164e-26
61	0x3e49263e	0.19643494
62	0x923eff12	-6.0267827e-28
63	0x3e4ea590	0.20180345
64	0x3e4e277f	0.20132254
65	0x3e6e8a55	0.23294957
66	0x3e615823	0.22006278
67	0x3ebc0524	0.36722672
68	0x3e4fb226	0.20282802
69	0x3e7e54f7	0.24837099
70	0x9434c0b8	-9.125685e-27
71	0x15227aa9	3.28124e-26
72	0x14b2fa2c	1.8072082e-26
73	0x3e885987	0.26630804
74	0x3eeb8ad7	0.46004364
75	0x3e58efff	0.21185301
76	0x3e5af7c4	0.21383578
77	0x9585ae47	-5.3993233e-26
78	0x3e739e10	0.23790765
79	0x3e80413f	0.2504978
80	0x15c0abd4	7.781928e-26
81	0x3e5b2d91	0.21404101
82	0x94885998	-1.3767829e-26
83	0x153a85e6	3.7668028e-26
84	0x95da0e3b	-8.807195e-26
85	0x9090ce2a	-5.711563e-29
86	0x3e43e59e	0.19130561
87	0x3e663106	0.22479638
88	0x95b00003	-7.108585e-26
89	0x3e634c4d	0.22197075
90	0x3e50e5c9	0.20400156
91	0x3e5bc38f	0.21461318
92	0x15833de5	5.300813e-26
93	0x947aa798	-1.26548265e-26
94	0x3e5d7aa8	0.21628821
95	0x3ea0bcf1	0.3139415
96	0x14ddd4b0	2.2399188e-26
97	0x3e65b6c0	0.22432995
98	0x948ffca6	-1.4538962e-26
99	0x3e4ed2dc	0.20197624
100	0x3e638be4	0.22221333
101	0x96027562	-1.0538356e-25
102	0x159f9272	6.445064e-26
103	0x1408f02a	6.913609e-27
104	0x95828a2b	-5.272457e-26
105	0x3e5deba7	0.21671925
106	0x94e50dac	-2.3128483e-26
107	0x3e695e6f	0.2278993
108	0x3e3c7da8	0.18407309
109	0x3e5048f0	0.20340323
110	0x990109cb	-6.671121e-24
111	0x945bfc22	-1.1106399e-26
112	0x94e54520	-2.3150356e-26
113	0x96355a2c	-1.4649517e-25
114	0x952798ab	-3.3845815e-26
115	0x95f4f145	-9.893147e-26
116	0x9423dd44	-8.273034e-27
117	0x952f2e03	-3.5377265e-26
118	0x91c8bc35	-3.1670428e-28
119	0x158c214a	5.659807e-26
120	0x3e5d4487	0.21608172
121	0x15016250	2.6128897e-26
122	0x1484f3fe	1.3424832e-26
123	0x92135fc5	-4.6503066e-28
124	0x12aeb196	1.1024722e-27
125	0x3e72b4a0	0.23701715
126	0x152ca9e4	3.4869143e-26
127	0x3e6791ee	0.22614262
128	0x95f55b49	-9.9098735e-26
129	0x9524404d	-3.317026e-26
130	0x951f0afd	-3.2118463e-26
131	0x1479942c	1.2600509e-26
132	0x15f5dcbd	9.9302976e-26
133	0x15e387d4	9.189887e-26
134	0x14c5da6b	1.9978067e-26
135	0x94ee48eb	-2.406062e-26
136	0x172a26c5	5.4978897e-25
137	0x9562438d	-4.5693625e-26
138	0x1524028d	3.3121548e-26
139	0x1202dfc4	4.129658e-28
140	0x93818bf1	-3.270217e-27
141	0x13c53519	4.978215e-27
142	0x961ec105	-1.2824045e-25
143	0x14fec816	2.5726366e-26
144	0x95208787	-3.2418655e-26
145	0x92e47e62	-1.4419979e-27
146	0x15e4c4be	9.239887e-26
147	0x9509a16f	-2.7794278e-26
148	0x95003ea7	-2.5898818e-26
149	0x14bac033	1.885701e-26
150	0x15fc8dbe	1.0200562e-25
151	0x94d0d1b4	-2.1085346e-26
152	0x968546b6	-2.1531934e-25
153	0x15a1273a	6.508927e-26
154	0x14af67a3	1.7711362e-26
155	0x161765b1	1.2229771e-25
156	0x15274e73	3.3787267e-26
157	0x961039b3	-1.1650434e-25
158	0x15908058	5.836363e-26
159	0x1686713c	2.1720329e-25
160	0x950f27ba	-2.890996e-26
161	0x165e1da2	1.7942368e-25
162	0x14eb05ed	2.3731273e-26
163	0x94a3183b	-1.6468351e-26
164	0x96380be4	-1.4867154e-25
165	0x94c5cbd2	-1.997231e-26
166	0x13d1c986	5.2957735e-27
167	0x16148052	1.1995836e-25
168	0x16550bb8	1.7209701e-25
169	0x13c45481	4.9560683e-27
170	0x962068b0	-1.2957731e-25
171	0x94bcafdf	-1.9052518e-26
172	0x1437ebcb	9.285641e-27
173	0x16a69acc	2.6916437e-25
174	0x93c88b4e	-5.0624463e-27
175	0x16696bfd	1.8855665e-25
176	0x94b00223	-1.7772301e-26
177	0x14de1aa4	2.242678e-26
178	0x154bea5c	4.11804e-26
179	0x94dc73e8	-2.226004e-26
180	0x15fd4937	1.023014e-25
181	0x95bf023c	-7.714781e-26
182	0x93d696c7	-5.4169873e-27
183	0x13b65bb6	4.6033693e-27
184	0x140fe98e	7.2657155e-27
185	0x15f58655	9.916665e-26
186	0x13abef9e	4.340275e-27
187	0x94baa6d2	-1.8847e-26
188	0x93ad73ee	-4.3785655e-27
189	0x15c91798	8.122048e-26
190	0x10a060b2	6.3257855e-29
191	0x161d1ecd	1.2692078e-25
192	0x9f561c0a	-4.5339456e-20
193	0x1ea27a8c	1.7203101e-20
194	0xa3af2458	-1.898893e-17
195	0x162b93b6	1.3859879e-25
196	0xa6a3b7ca	-1.1360213e-15
197	0x9eaec88a	-1.8505908e-20
198	0x9578a2ed	-5.0211727e-26
199	0x928b5327	-8.792632e-28
200	0x95835960	-5.305149e-26
201	0x1c8a17c0	9.138213e-22
202	0x962f26b6	-1.4148602e-25
203	0x23864d1c	1.4560966e-17
204	0xa24f17b2	-2.8066275e-18
205	0x952038e1	-3.2356612e-26
206	0xa011e352	-1.2357192e-19
207	0x1d6b34f3	3.1129365e-21
208	0x14c21c39	1.9600126e-26
209	0x202a8431	1.4443299e-19
210	0x9266e302	-7.285501e-28
211	0x95c07da9	-7.774644e-26
212	0x1554df3e	4.2989166e-26
213	0x15dbeef1	8.883038e-26
214	0x218be563	9.479725e-19
215	0x23dbb098	2.3818818e-17
216	0x1405f496	6.76302e-27
217	0xa5a60bd0	-2.8804414e-16
218	0xa23ef83c	-2.5881216e-18
219	0x25333c89	1.5546285e-16
220	0x93656b1c	-2.8956673e-27
221	0x94601b84	-1.13145364e-26
222	0xa43d4bd0	-4.1047058e-17
223	0x9a051a4b	-2.7524995e-23
224	0x94b4a92b	-1.824208e-26
225	0xa4b3401f	-7.77375e-17
226	0x962eb525	-1.4112767e-25
227	0x24ff6dea	1.1077482e-16
228	0x9e21e360	-8.570289e-21
229	0x963ce1a5	-1.525772e-25
230	0x15812e4f	5.217575e-26
231	0x15520784	4.241509e-26
232	0x15acf0b0	6.9849985e-26
233	0xa4dd4029	-9.5952164e-17
234	0x953927ab	-3.7391745e-26
235	0xa57e8bd6	-2.2078366e-16
236	0xa61a7ad8	-5.359597e-16
237	0xa4f30800	-1.05398004e-16
238	0x1400e4ca	6.507469e-27
239	0x959b0d79	-6.262526e-26
240	0x954727d0	-4.0219136e-26
241	0x95e32a46	-9.1751266e-26
242	0x131b8836	1.9630908e-27
243	0x1530df1a	3.5718913e-26
244	0x9365ab21	-2.8988237e-27
245	0x95b10e70	-7.151251e-26
246	0x15b95a03	7.486292e-26
247	0x9471c39b	-1.2205967e-26
248	0xa30536eb	-7.221574e-18
249	0x14c75fcb	2.0131649e-26
250	0x1500fb4e	2.604764e-26
251	0x94634f78	-1.1476244e-26
252	0x13a38182	4.127469e-27
253	0xa3cf837c	-2.249867e-17
254	0x1419d659	7.7667986e-27
255	0xa375cbd0	-1.3324636e-17

fc_layers.1.bias f4 [32]
0	0x3c18c017	0.009323142
1	0x3d37c9fa	0.044870354
2	0x9c340ff4	-5.9577623e-22
3	0xb26ea9ef	-1.3892062e-08
4	0x3b87102a	0.0041218
5	0x998fcc3a	-1.486834e-23
6	0x9b6146ee	-1.8634482e-22
7	0x9704cde0	-4.291135e-25
8	0x3d894987	0.06703477
9	0x98a9d8e4	-4.390448e-24
10	0x9c022785	-4.306447e-22
11	0xa5dc54d4	-3.8221398e-16
12	0x98554f0a	-2.756951e-24
13	0x9bdf7077	-3.6964934e-22
14	0x9786c3d4	-8.708981e-25
15	0x98bbf5c5	-4.858653e-24
16	0x3bf12503	0.0073591485
17	0x9b7dcd3b	-2.0993983e-22
18	0x3ce778f7	0.028255923
19	0x98db28eb	-5.665149e-24
20	0x97345bbe	-5.827693e-25
21	0x9c710061	-7.97407e-22
22	0x9641e9a6	-1.5664142e-25
23	0x988f183c	-3.6989104e-24
24	0x9cc06ebf	-1.2734121e-21
25	0x93555115	-2.6924356e-27
26	0x3e9fee58	0.3123653
27	0x97743ee7	-7.8920046e-25
28	0xb8fb9cd9	-0.00011997828
29	0x3d52c945	0.051461477
30	0xa6eb4d0a	-1.6327282e-15
31	0x9cb16841	-1.1739826e-21
