checkpoints/neumf_first_try_Epoch0_precision0.2594_recall1.0000.model (torch, 645252 bytes, 13 tensors)

embedding_user_mlp.weight f4 [6040, 8]
0	0xbda9d5d0	-0.082927346
1	0x3dc47d81	0.095942505
2	0xbd8b1fdf	-0.06793188
3	0xbde7dc36	-0.11321299
4	0xbd8a1547	-0.067423396
5	0x3dae6a83	0.08516409
6	0x3d896147	0.06708007
7	0x3d8e3518	0.069437206
8	0xbc86a1f1	-0.016434642
9	0x3d04ae6a	0.032392897
10	0xbceadfe0	-0.028671205
11	0xbd477fb1	-0.04870576
12	0xbc2da0cf	-0.010597422
13	0x3cd05ff3	0.025436377
14	0x3c0e323c	0.008678969
15	0x3bb6eba0	0.005582288
16	0xbda72658	-0.0816161
17	0x3dd74e47	0.10512977
18	0xbdbb7dde	-0.09154867
19	0xbd96e3e9	-0.07367689
20	0xbdba34f5	-0.09092132
21	0x3da0a402	0.07843782
22	0x3db70f39	0.0893845
23	0x3da19afa	0.078908876
24	0xbe736427	-0.23768674
25	0x3e1f14af	0.15535234
26	0xbe257d85	-0.16161163
27	0xbdd49bd0	-0.103812814
28	0xbe52b82d	-0.2057807
29	0x3e14b215	0.14521058
30	0x3e5f34fd	0.21797557
31	0x3e762dd5	0.24040921
32	0x3c583909	0.013197192
33	0xbdabaf66	-0.08383064
34	0x3d92c7b7	0.07166999
35	0x3d9d99f3	0.07695379
36	0x3d2006d6	0.03906902
37	0xbd9c9a42	-0.0764661
38	0xbd09b77d	-0.033622254
39	0xbc9dbdd0	-0.019255549
40	0xbd8f55d2	-0.06998791
41	0x3d1a6907	0.037697818
42	0xbd401433	-0.046894263
43	0x3c809826	0.01569755
44	0xbd545b11	-0.05184466
45	0x3d1fc561	0.039006595
46	0x3d60fa46	0.05492618
47	0x3d937f36	0.07201998
48	0xbe3ae4d6	-0.18251356
49	0x3e214a7d	0.15751071
50	0xbe15b4aa	-0.14619699
51	0xbe2290bb	-0.15875523
52	0xbe2fe6b9	-0.17177857
53	0x3e22b8e7	0.15890847
54	0x3e337981	0.17526819
55	0x3e366d39	0.17815103
56	0xbb306c26	-0.002691993
57	0xbd4fec18	-0.050762266
58	0x3cd16a18	0.025563285
59	0x3d84c4ea	0.06482871
60	0x3cb594c7	0.02216567
61	0xbd831e78	-0.06402296
62	0x3c5b2386	0.013375169
63	0x3c572122	0.013130458
64	0xbdd07028	-0.10177642
65	0x3de6c53a	0.11268087
66	0xbddd35c4	-0.108012706
67	0xbdfcd145	-0.123446025
68	0xbddc83f5	-0.10767356
69	0x3de24c12	0.110496655
70	0x3dcebf51	0.100950845
71	0x3dd6fb5a	0.1049716
72	0x3c6e8454	0.014557917
73	0x3b20ddb4	0.0024546208
74	0x3b032bab	0.0020015042
75	0xbccddf3c	-0.02513086
76	0x3bb34180	0.0054704547
77	0x3ca4d9ae	0.020123329
78	0xbbe3f757	-0.0069569754
79	0xbca7aefe	-0.020469185
80	0x3cb52382	0.022111658
81	0xbcbbd87b	-0.022930374
82	0x3cd87576	0.026423197
83	0x3cb40e5f	0.021979509
84	0x3ca5cb23	0.020238465
85	0xbcc235dd	-0.023707325
86	0xbcbe697c	-0.023243658
87	0xbc949a83	-0.018140083
88	0xbd6c8331	-0.0577423
89	0x3ca38827	0.019962383
90	0xbcd453b9	-0.025918828
91	0x3ab6237d	0.0013896074
92	0xbd2a358a	-0.041554965
93	0x3c8f04ac	0.017458282
94	0x3d48a9e1	0.048990134
95	0x3d632f55	0.05546506
96	0xbdfe05bb	-0.12403437
97	0x3dbd4ac2	0.092427745
98	0xbdb85473	-0.090004824
99	0xbd969ec6	-0.073545024
100	0xbde93422	-0.11386897
101	0x3dbac849	0.091202326
102	0x3de67e6f	0.11254584
103	0x3df06908	0.11738783
104	0xbdbe717b	-0.092989884
105	0x3ddc8ce3	0.107690595
106	0xbdc0bb89	-0.094107695
107	0xbe13e5d5	-0.14443143
108	0xbdb2f53d	-0.08738182
109	0x3decc989	0.11561877
110	0x3daec32f	0.08533322
111	0x3dbc1039	0.09182782
112	0xbe0ffcba	-0.14061251
113	0x3dc495f5	0.095989145
114	0xbdd9eb74	-0.10640612
115	0xbd8f524f	-0.06998121
116	0xbdd5d377	-0.10440724
117	0x3db7afca	0.08969076
118	0x3df1c7fb	0.11805721
119	0x3e0d65c7	0.13808356
120	0x3cb95056	0.022621315
121	0x3bb459f0	0.0055038854
122	0x3c0aebf5	0.008479108
123	0xbca55794	-0.020183362
124	0xbb23166e	-0.0024885195
125	0xbae8a75e	-0.0017750075
126	0x3aadcf00	0.0013260543
127	0xbc99a2a8	-0.018754318
128	0xbb8756e3	-0.0041302308
129	0x3ccfe3e0	0.025377214
130	0xbcd47034	-0.025932409
131	0xbd18cbf6	-0.037303887
132	0xbb69cce7	-0.003567511
133	0x3cab6af5	0.020925025
134	0xbb1b8f5b	-0.002373657
135	0xbb19b181	-0.0023451748
136	0xbcae0a46	-0.021245133
137	0x3d1dc40c	0.038517043
138	0xbd06982f	-0.032859977
139	0xbd9396c0	-0.07206488
140	0xbd1697b7	-0.03676578
141	0x3d32e110	0.043671668
142	0x3c8b87b2	0.017032478
143	0x3c6ae0ab	0.014335792
144	0xbc7e6470	-0.015526876
145	0xbbe26fe2	-0.00691031
146	0x3bb4cf40	0.00551787
147	0x3c4c20c5	0.012458985
148	0xbcd1f760	-0.025630653
149	0x3c948edb	0.018134525
150	0x3cafe32c	0.021470629
151	0x3cf5efb8	0.030021533
152	0xbe499d5b	-0.19688933
153	0x3e225d40	0.15855885
154	0xbe283ae1	-0.1642871
155	0xbdc87f16	-0.09789865
156	0xbe3c320c	-0.18378466
157	0x3e163a92	0.1467078
158	0x3e43927f	0.19098853
159	0x3e4a5d42	0.19762138
160	0xbd759fea	-0.05996696
161	0x3e0301af	0.12793611
162	0xbde61c80	-0.11235905
163	0xbe0da2e5	-0.1383167
164	0xbd7167e3	-0.058936965
165	0x3e15fd0c	0.14647311
166	0x3d91d3c2	0.07120468
167	0x3d6c3c22	0.057674535
168	0xbd97eb89	-0.07417972
169	0x3c992388	0.0186937
170	0xbcc08cc8	-0.02350463
171	0x3d4f251f	0.05057251
172	0xbd693652	-0.05693657
173	0xbb3e6c73	-0.002905634
174	0x3d87a1b9	0.06622643
175	0x3d9035a8	0.07041484
176	0x3c3b2d66	0.011424398
177	0x3da4dcb5	0.08049909
178	0xbd428f49	-0.04749993
179	0xbe06e692	-0.13173893
180	0xbc052e68	-0.00812874
181	0x3d9c1777	0.07621663
182	0xba8943ef	-0.0010472516
183	0xbc7f87d4	-0.015596349
184	0xbd62bc59	-0.055355404
185	0x3d8cdaa9	0.068776436
186	0xbd1946af	-0.037420925
187	0xbd7fcc0a	-0.062450446
188	0xbd3e0066	-0.0463871
189	0x3d9f190b	0.077684484
190	0x3d5facf2	0.054608293
191	0x3d9cd172	0.07657136
192	0xbde0fe1e	-0.10985969
193	0x3e0effb8	0.13964736
194	0xbe0b9712	-0.13631848
195	0xbe0beb0b	-0.1366388
196	0xbde132df	-0.10996031
197	0x3e173d6b	0.14769523
198	0x3dd5869d	0.10426066
199	0x3dedb461	0.1160667
200	0x3da54585	0.080699004
201	0xbde56a6c	-0.11201939
202	0x3ddf1865	0.10893325
203	0x3e00aeb8	0.1256665
204	0x3d94eb33	0.07271423
205	0xbe04b965	-0.12961347
206	0xbdbb2b3b	-0.09139105
207	0xbda0f07f	-0.07858371
208	0xbd988c37	-0.07448619
209	0x3da9756b	0.08274349
210	0xbda7edf0	-0.0819968
211	0xbddb9695	-0.107220806
212	0xbd8aca3c	-0.067768544
213	0x3daddb3b	0.084890805
214	0x3d9d4f39	0.07681126
215	0x3d8717cb	0.06596335
216	0xbda95ce0	-0.082696676
217	0x3d715679	0.058920357
218	0xbd4eaa46	-0.050455354
219	0xbd0f588f	-0.034996565
220	0xbd88c947	-0.066790156
221	0x3d5d5c38	0.054043025
222	0x3d721bb2	0.059108444
223	0x3dba56b0	0.090985656
224	0xbd8523de	-0.06500982
225	0x3cc234e2	0.023706857
226	0xbd0d8a8b	-0.034555953
227	0x3c7bb528	0.015363015
228	0xbd3eebcf	-0.046611603
229	0x3c877d7c	0.016539328
230	0x3d405082	0.04695178
231	0x3d9d0692	0.07667269
232	0xbca2ed44	-0.019888528
233	0xbc2a5528	-0.010396279
234	0x3c645df3	0.013938415
235	0x3c95e753	0.01829878
236	0xbc0b936d	-0.008519036
237	0x3a53a5af	0.00080737
238	0xbc1d5ae4	-0.00960419
239	0x3c3c6e81	0.011500956
240	0xbc60d5f8	-0.013722889
241	0xbceec5b2	-0.029147003
242	0x3cda64a6	0.026659321
243	0x3d4a4ae2	0.04938782
244	0x3cba2be8	0.022726014
245	0xbcd059ff	-0.025433538
246	0x3a954306	0.0011387772
247	0x3c920108	0.017822757
248	0xbd239015	-0.03993233
249	0x3db15e98	0.086606205
250	0xbdaba1e3	-0.08380487
251	0xbe0f5890	-0.13998628
252	0xbd3527d0	-0.04422742
253	0x3dc904de	0.098153815
254	0x3d65beed	0.056090284
255	0x3d1c47ff	0.0381546

embedding_item_mlp.weight f4 [3706, 8]
0	0xbe89b24c	-0.26893842
1	0xbe8b2a52	-0.27180725
2	0xbe915743	-0.28386888
3	0xbe89ff21	-0.2695246
4	0x3e937750	0.28801966
5	0xbe8c273a	-0.27373677
6	0x3e8669e7	0.26252672
7	0x3e8ad881	0.27118304
8	0xbdc53be5	-0.096305646
9	0xbdcca049	-0.099915095
10	0xbdd0d929	-0.1019767
11	0xbdb4ff0d	-0.088377096
12	0x3dc456e0	0.095868826
13	0xbdb17196	-0.08664243
14	0x3dc26658	0.09492177
15	0x3dc69294	0.09695926
16	0xbdc76dbe	-0.097377285
17	0xbdb47d90	-0.08813012
18	0xbda54074	-0.08068934
19	0xbdcce319	-0.10004253
20	0x3dbaf91d	0.09129546
21	0xbdcc2bf9	-0.099693246
22	0x3dc8085c	0.097672194
23	0x3dc46d03	0.09591105
24	0xbe7ea43f	-0.24867342
25	0xbe799cc0	-0.24376202
26	0xbe7f3461	-0.24922325
27	0xbe711bff	-0.23545836
28	0x3e732ce3	0.23747592
29	0xbe7555cd	-0.23958512
30	0x3e738d88	0.23784459
31	0x3e73c7cd	0.23806687
32	0xbe7c26fc	-0.24624246
33	0xbe813930	-0.25238943
34	0xbe874c78	-0.2642553
35	0xbe84add8	-0.25913882
36	0x3e885126	0.2662441
37	0xbe772253	-0.24134187
38	0x3e7fa019	0.24963416
39	0x3e845c01	0.25851443
40	0xbe75d4e5	-0.24006994
41	0xbe80c354	-0.25149024
42	0xbe72db5f	-0.23716496
43	0xbe7e5329	-0.2483641
44	0x3e6d4bab	0.23173396
45	0xbe708925	-0.23489816
46	0x3e74d3d5	0.23908933
47	0x3e6fd099	0.23419417
48	0xbdb98974	-0.0905942
49	0xbddb8328	-0.107183754
50	0xbdbe0fe7	-0.09280377
51	0xbdb3787a	-0.087632135
52	0x3da1f488	0.07907969
53	0xbdc81217	-0.09769075
54	0x3db50c0e	0.0884019
55	0x3dcfc23d	0.1014447
56	0xbe20f107	-0.15716945
57	0xbe0d713f	-0.13812731
58	0xbe29d63f	-0.16585635
59	0xbe225893	-0.15854101
60	0x3e28b0a7	0.16473638
61	0xbe2ce1c2	-0.16882995
62	0x3e22dcc5	0.1590453
63	0x3e236b65	0.15958937
64	0xbe111417	-0.1416782
65	0xbe058951	-0.13040663
66	0xbe090fa9	-0.1338488
67	0xbe120826	-0.14260921
68	0x3e05e47d	0.13075443
69	0xbe0b0ae6	-0.13578376
70	0x3e0ee1fc	0.13953394
71	0x3e0aafa0	0.13543558
72	0xbe88a3b6	-0.26687402
73	0xbe8b3e2c	-0.2719587
74	0xbe90a394	-0.282498
75	0xbe90f9b1	-0.283155
76	0x3e94873c	0.29009426
77	0xbe90a8cf	-0.2825379
78	0x3e94ea93	0.29085216
79	0x3e933157	0.2874858
80	0xbe34f00d	-0.17669697
81	0xbe2f2e80	-0.17107582
82	0xbe3cdea0	-0.184443
83	0xbe2ab086	-0.16668901
84	0x3e35f8a8	0.17770636
85	0xbe2699e8	-0.16269648
86	0x3e2acd2d	0.16679831
87	0x3e390e98	0.18071973
88	0x3d37e995	0.044900496
89	0x3cf5a5ea	0.02998634
90	0x3d03eca7	0.03220811
91	0x3d0010ab	0.031265896
92	0xbcde8d04	-0.02716685
93	0x3d22dced	0.039761472
94	0xbcf4bbda	-0.02987473
95	0xbceb02ab	-0.028687796
96	0xbd34c3c4	-0.04413201
97	0xbd557d88	-0.05212167
98	0xbd37c46b	-0.044865053
99	0xbd2b8706	-0.041876815
100	0x3d46df79	0.048552964
101	0xbd45a5cc	-0.04825382
102	0x3d27e0ce	0.040985875
103	0x3d1ce929	0.038308296
104	0xbdc05224	-0.09390667
105	0xbdcbc888	-0.09950358
106	0xbdc8ec20	-0.09810662
107	0xbdbaf883	-0.09129431
108	0x3dcc7622	0.099834695
109	0xbdd09939	-0.10185475
110	0x3dd69a48	0.104786456
111	0x3ddfe5b0	0.10932481
112	0xbe0bf55a	-0.13667813
113	0xbe1ed841	-0.15512182
114	0xbe18f448	-0.14936936
115	0xbe1012fc	-0.14069742
116	0x3e174df0	0.14775825
117	0xbe1ba3e6	-0.15199241
118	0x3e1cdd1c	0.15318722
119	0x3e148236	0.14502797
120	0xbe4ea583	-0.20180325
121	0xbe4aced7	-0.19805466
122	0xbe44ed05	-0.19231041
123	0xbe512f7c	-0.2042827
124	0x3e597cfc	0.21239084
125	0xbe56a232	-0.2096031
126	0x3e4f4c6b	0.20243995
127	0x3e4bf4ce	0.19917604
128	0xbd9daefd	-0.07699392
129	0xbd8345fa	-0.06409831
130	0xbd6d27bc	-0.05789922
131	0xbd7f5ab4	-0.06234236
132	0x3d94d56b	0.07267269
133	0xbd818955	-0.06325022
134	0x3d7b0249	0.061281476
135	0x3d914b8d	0.07094488
136	0xbd739b01	-0.059473995
137	0xbd779351	-0.060443226
138	0xbd600a2e	-0.054697208
139	0xbd88494a	-0.06654604
140	0x3d6b0fa1	0.05738795
141	0xbd8add9e	-0.067805514
142	0x3d8a7b97	0.06761854
143	0x3d7c5ef0	0.061613977
144	0xbd5572c3	-0.0521114
145	0xbd37a816	-0.044838034
146	0xbd680978	-0.056649655
147	0xbd7827e3	-0.060584914
148	0x3d4b7031	0.04966754
149	0xbd549e0c	-0.051908538
150	0x3d45aa7e	0.048258297
151	0x3d8391ec	0.06424317
152	0xbe0e76be	-0.13912484
153	0xbe14a70e	-0.14516851
154	0xbe09c578	-0.13454235
155	0xbe089d0f	-0.13341163
156	0x3e1973c7	0.14985572
157	0xbe0d1e20	-0.13781023
158	0x3e14ee90	0.1454413
159	0x3e1106cd	0.1416275
160	0xbe170a2b	-0.14749973
161	0xbe155ba9	-0.14585747
162	0xbe1c08e8	-0.15237772
163	0xbe19ed92	-0.15032032
164	0x3e1224e2	0.14271882
165	0xbe12b81d	-0.14328046
166	0x3e10d3c9	0.1414329
167	0x3e12e807	0.14346324
168	0xbd98e176	-0.07464878
169	0xbdbb04b9	-0.0913176
170	0xbda738f9	-0.081651635
171	0xbd990cbf	-0.07473134
172	0x3d9fb9a6	0.077990815
173	0xbda90a5d	-0.0825393
174	0x3dae06da	0.084974006
175	0x3da868dc	0.08223125
176	0xbe8c1b90	-0.2736478
177	0xbe8897ce	-0.26678318
178	0xbe8d6ff1	-0.27624467
179	0xbe8bee97	-0.27330467
180	0x3e8cab92	0.27474648
181	0xbe8ae3c0	-0.27126884
182	0x3e8a213b	0.26978478
183	0x3e887728	0.2665341
184	0xbe77552f	-0.24153589
185	0xbe629db9	-0.22130479
186	0xbe75bde0	-0.23998213
187	0xbe7b35e9	-0.24532284
188	0x3e6e999c	0.23300785
189	0xbe782f72	-0.24236849
190	0x3e62ed2c	0.22160786
191	0x3e80533c	0.25063503
192	0xbcaccb90	-0.02109316
193	0xbc9288a4	-0.017887421
194	0xba862700	-0.0010235012
195	0x3af96d5e	0.0019029786
196	0x3b80680e	0.0039186543
197	0xbc051f14	-0.008125085
198	0xbbb02729	-0.005375762
199	0x3b1175fd	0.002219557
200	0xbd538b06	-0.051646255
201	0xbd0ec6c8	-0.03485754
202	0xbd6f7c26	-0.058468007
203	0xbd152f35	-0.036421973
204	0x3d3b493e	0.045724146
205	0xbd5196c2	-0.051169164
206	0x3d2e4d56	0.042554222
207	0x3d311ca6	0.043240212
208	0xbe69d4de	-0.22835109
209	0xbe77e0f2	-0.24206904
210	0xbe6b0c3c	-0.22953886
211	0xbe63a4be	-0.22230813
212	0x3e738a9f	0.23783349
213	0xbe750d82	-0.23930934
214	0x3e6a397d	0.22873493
215	0x3e6b8284	0.22999007
216	0xbe5cc152	-0.21558121
217	0xbe63d4a0	-0.22249079
218	0xbe57952f	-0.21053003
219	0xbe5717c6	-0.21005163
220	0x3e59f500	0.21284866
221	0xbe5bf73a	-0.21481028
222	0x3e558407	0.20851146
223	0x3e5987f4	0.21243268
224	0x3d9d12dd	0.076696135
225	0x3d786984	0.060647503
226	0x3da7e1f9	0.08197398
227	0x3d9d9b66	0.076956555
228	0xbdacaa95	-0.084309734
229	0x3db29f1e	0.087217554
230	0xbdc92a3d	-0.098225094
231	0xbdaf7348	-0.0856691
232	0xbe1b0d82	-0.15141872
233	0xbe13118c	-0.14362162
234	0xbe08c9c9	-0.13358225
235	0xbe11831b	-0.14210169
236	0x3e25f720	0.16207552
237	0xbe109507	-0.1411935
238	0x3e12b721	0.1432767
239	0x3e0f0fb2	0.13970831
240	0xbda26387	-0.079291396
241	0xbd8cc3b5	-0.06873266
242	0xbd92a00d	-0.071594335
243	0xbda2365e	-0.07920526
244	0x3db9af42	0.09066631
245	0xbd8c98fc	-0.06865117
246	0x3d8fbac7	0.07018047
247	0x3da2107a	0.07913299
248	0xbd775f8a	-0.060393848
249	0xbd5dfea5	-0.054197926
250	0xbd94441b	-0.072395526
251	0xbd51ce23	-0.051221978
252	0x3d505168	0.050858885
253	0xbd6441f7	-0.05572697
254	0x3d672244	0.056429163
255	0x3d686353	0.056735348

embedding_user_mf.weight f4 [6040, 8]
0	0xbd69d99d	-0.057092298
1	0x3e3aa120	0.18225527
2	0xbd2912e3	-0.041277777
3	0xbd3580a1	-0.044312123
4	0xbe21bada	-0.15793934
5	0xbe1f8e59	-0.15581645
6	0x3e04c917	0.12967335
7	0xbd65439f	-0.05597269
8	0xbda6cb86	-0.08144288
9	0x3e441ee4	0.19152409
10	0x3d05ed92	0.032697268
11	0xbe4c8457	-0.19972359
12	0xbe58f8aa	-0.21188608
13	0xbdfac801	-0.12245179
14	0x3d4ef01b	0.05052195
15	0x3d64af44	0.05583121
16	0xbe923788	-0.28557992
17	0xbd9062b0	-0.07050073
18	0xbe82f3ee	-0.2557673
19	0xbe5757d1	-0.21029593
20	0xbe61a608	-0.22035992
21	0xbe497dc1	-0.19676878
22	0xbc6dfd28	-0.014525689
23	0x3e9a19c0	0.3009777
24	0xbe17ff3a	-0.14843455
25	0x3d0f5971	0.034997407
26	0xbe2b9349	-0.16755404
27	0xbe2b98da	-0.16757527
28	0xbe30c275	-0.1726168
29	0xbe0adcbf	-0.1356077
30	0x3e1a94aa	0.15095773
31	0x3e611d16	0.21983752
32	0xbd938dbe	-0.072047696
33	0x3ec0b3b1	0.37637094
34	0xbdb0c3e2	-0.08631112
35	0x3b182da1	0.0023220556
36	0x3e22d098	0.15899885
37	0x3ca21fa0	0.01979047
38	0xbe298406	-0.16554269
39	0xbda7c8e8	-0.08192617
40	0x3ca1a4e4	0.019731946
41	0xbbab00af	-0.0052185874
42	0x3c2b84fd	0.010468719
43	0x3cd3e18e	0.025864389
44	0xbe064dff	-0.1311569
45	0xbe166599	-0.14687194
46	0xba93d699	-0.0011279165
47	0x3d1b2903	0.03788091
48	0xbe7dbce8	-0.24779093
49	0x3d4508ea	0.048104204
50	0xbe7797f3	-0.24179058
51	0xbe9502b8	-0.29103637
52	0xbe5cd6eb	-0.2156636
53	0xbe5ec82e	-0.2175605
54	0xbd163c9b	-0.03667889
55	0x3e7d11ec	0.24713868
56	0xbdb7e51e	-0.089792475
57	0x3ebddaca	0.37080985
58	0xbe311096	-0.17291483
59	0xbcb60a45	-0.022221694
60	0xbe0c3375	-0.13691504
61	0x3d2ef55c	0.04271446
62	0xbeb2b143	-0.34900865
63	0x3dfdbdea	0.12389739
64	0xbe219030	-0.1577766
65	0x3e8e6d1f	0.27817628
66	0xbe375679	-0.1790408
67	0xbd56cc9e	-0.052441232
68	0xbd54b348	-0.05192879
69	0xb964fa9f	-0.00021837138
70	0xbe986352	-0.29763275
71	0x3be553bd	0.006998508
72	0xbdfb36d5	-0.12266318
73	0x3cfe3123	0.03102929
74	0xbcb6d039	-0.022316085
75	0xbdcaff7b	-0.0991201
76	0xbe9d9851	-0.3078027
77	0xbee65ed9	-0.44994238
78	0x3e02b892	0.1276572
79	0x3dbeb9a5	0.09312753
80	0xbe15f24f	-0.14643215
81	0x3e7f1f3b	0.24914257
82	0xbe451334	-0.19245607
83	0xbc4618f5	-0.012090911
84	0xbd84ba42	-0.06480838
85	0xbdd5ca6f	-0.10439002
86	0xbe91355f	-0.2836103
87	0x3d4d47ba	0.050117232
88	0xbc579f08	-0.013160475
89	0x3d84b3f8	0.06479639
90	0x3de1093e	0.10988091
91	0xbdaad994	-0.08342281
92	0x3a0455e1	0.00050481973
93	0xbd305975	-0.043054063
94	0x3de84474	0.113411814
95	0xbd924b85	-0.071433105
96	0xbdda48ee	-0.106584415
97	0xbe877f65	-0.26464382
98	0xbe64a4e0	-0.2232852
99	0xbe3f4870	-0.18679976
100	0xbe3abc74	-0.18235952
101	0xbe651dd0	-0.22374654
102	0x3da8666f	0.08222663
103	0x3e708cd6	0.23491225
104	0xbe36e0c3	-0.17859177
105	0x3e5b6ede	0.21429011
106	0xbdc5d04c	-0.0965887
107	0xbe05db5d	-0.13071962
108	0xbda8f824	-0.08250454
109	0xbdfe335c	-0.1241214
110	0x3d377b34	0.04479523
111	0x3df0fb7c	0.11766717
112	0xbe70e97e	-0.2352657
113	0x3d88d213	0.066806935
114	0xbedd7912	-0.43256432
115	0xbd5d0bff	-0.05396652
116	0x3d8abfb6	0.06774847
117	0x3db4d4b1	0.0882963
118	0xbed28b44	-0.41121876
119	0x3e26414c	0.16235846
120	0x3ce56b66	0.028005313
121	0xbe12a728	-0.14321578
122	0xbdea768a	-0.11448391
123	0x3e50049a	0.20314255
124	0x3e35ffb1	0.1777332
125	0x3e4972ee	0.19672748
126	0xbe6b8ae3	-0.230022
127	0x3d867cf9	0.065668054
128	0xbdbd734a	-0.09250505
129	0xbd7605e6	-0.06006422
130	0xbe0371ba	-0.12836352
131	0xbe1825e5	-0.14858206
132	0x3d24b299	0.040209386
133	0x3cdc6aa4	0.026906319
134	0x3e668cbd	0.22514625
135	0x3d7c2922	0.061562665
136	0xbe4da255	-0.20081456
137	0xbe76200c	-0.24035662
138	0xbea2581b	-0.31707844
139	0xbdf7d958	-0.12102002
140	0xbe37022d	-0.17871924
141	0xbe6481b6	-0.22315106
142	0x3c19bff1	0.009384141
143	0x3e7fe71d	0.24990506
144	0xbe4ef5a3	-0.2021089
145	0xbe3d9670	-0.18514419
146	0xbe92725f	-0.28602883
147	0xbe2ef080	-0.17083931
148	0x3c1ac743	0.009446922
149	0xbe01636f	-0.12635587
150	0x3d4c025d	0.04980694
151	0x3e5d3f2e	0.21606132
152	0xbdd71e2f	-0.10503804
153	0x3d6a45e2	0.05719555
154	0xbe225f3e	-0.15856645
155	0xbd36ca29	-0.04462639
156	0xbd57d1c1	-0.05269027
157	0xbd6a7d8a	-0.05724863
158	0xbe0d6dab	-0.13811366
159	0x3db29fa4	0.08721855
160	0xbcd74e5f	-0.026282487
161	0xbdf1053c	-0.117685765
162	0xbdd248bb	-0.102677785
163	0x3d6880a5	0.05676331
164	0x3d02704a	0.03184537
165	0xbd162597	-0.036656942
166	0x3d0a9b4f	0.03383952
167	0x3d6a0fe8	0.057144076
168	0xbeb12bc7	-0.34603712
169	0xbe13f4d3	-0.14448862
170	0xbecce5da	-0.40019113
171	0xbe963c22	-0.29342753
172	0xbe44033e	-0.19141862
173	0xbe9198a8	-0.2843678
174	0xbea20ede	-0.31651968
175	0x3ea8b26a	0.3294862
176	0xbe39dca9	-0.18150581
177	0x3d764668	0.06012574
178	0xbe0e67ea	-0.13906828
179	0xbe639367	-0.22224198
180	0xbdef0b1e	-0.11672042
181	0xbe3562d7	-0.17713486
182	0x3e86e327	0.26345178
183	0x3de019a3	0.1094239
184	0xbe3e6b7e	-0.18595693
185	0x3ebe936e	0.37221855
186	0xbd838c7d	-0.064232804
187	0xbe4d60c8	-0.2005645
188	0xbe99cbe2	-0.30038363
189	0xbe9e4605	-0.30912796
190	0x3c8155ab	0.01578792
191	0x3dafdf7b	0.085875474
192	0xbe54334b	-0.20722692
193	0xbe4a9dfe	-0.19786832
194	0xbead388d	-0.33832207
195	0xbe079858	-0.13241708
196	0xbdab9e75	-0.08379833
197	0xbda555fc	-0.08073041
198	0xbe0842e7	-0.13306771
199	0x3e7e77e9	0.2485043
200	0xbe24bec7	-0.16088401
201	0x3c70fc15	0.014708539
202	0xbe2993ba	-0.1656026
203	0xbd99be28	-0.075069726
204	0xbe89d0d7	-0.26917145
205	0xbe487dbd	-0.19579215
206	0xbed2f09d	-0.41199198
207	0x3e9a785d	0.30169955
208	0x3defcee4	0.11709383
209	0x3e910f46	0.28331965
210	0x3e6aae32	0.22918013
211	0xbd3ddd52	-0.046353646
212	0xbd181312	-0.037127562
213	0xbd4e72d3	-0.050402474
214	0x3e89f782	0.26946646
215	0xbe0587e6	-0.13040122
216	0xbd160670	-0.036627233
217	0x3ef65a49	0.48115757
218	0x3e08deaf	0.13366197
219	0xbd65dea1	-0.05612052
220	0xbd7a98bf	-0.061180826
221	0xbe11288d	-0.14175625
222	0x3e3de990	0.18546128
223	0xbd746953	-0.059670758
224	0xbe03233f	-0.12806414
225	0xbda116d9	-0.07865686
226	0xbdf01ee5	-0.11724643
227	0xbeb757ea	-0.3580926
228	0xbe846668	-0.2585938
229	0xbe2f8897	-0.17141949
230	0x3e989562	0.2980147
231	0x3e3433ce	0.17597887
232	0x3cceb9ea	0.025235135
233	0x3eccacd7	0.39975616
234	0x3d9c8a16	0.07643525
235	0x3d29f986	0.04149773
236	0x3c65cf80	0.014026523
237	0xbd548850	-0.05188781
238	0x3db45f4a	0.088072374
239	0xbd9ede1b	-0.07757207
240	0x3d0c936f	0.03432029
241	0x3e00c529	0.1257521
242	0x3e0185e5	0.12648733
243	0xbd4a4784	-0.04938461
244	0xbdf9c807	-0.12196355
245	0xbe691522	-0.22761968
246	0x3e9767ec	0.29571474
247	0xbb55a0b0	-0.0032596998
248	0xbd806562	-0.06269337
249	0x3e7ce4d2	0.24696663
250	0xbd4bb21d	-0.04973041
251	0xbdbe9d64	-0.09307364
252	0xbd9fe777	-0.0780782
253	0xbd4df64d	-0.05028372
254	0x3c1eb399	0.009686374
255	0x3c5cdd93	0.013480562

embedding_item_mf.weight f4 [3706, 8]
0	0x3e0ab2ad	0.13544722
1	0x3f2e1635	0.68002635
2	0xbe283df0	-0.16429877
3	0xbea6c0cf	-0.32568976
4	0xbe560cc0	-0.20903301
5	0x3e7a1b5c	0.244245
6	0xbea703fd	-0.3262023
7	0xbd860c70	-0.06545341
8	0x3d8a8917	0.06764429
9	0xbe69b3ec	-0.22822541
10	0x3e22d457	0.15901314
11	0x3e4e0a0a	0.20121017
12	0x3dec6df4	0.115444094
13	0x3dd5c418	0.104377925
14	0xbc197ad8	-0.009367667
15	0xbd5623c8	-0.052280217
16	0xbe42b5f4	-0.19014722
17	0x3e0880c7	0.13330375
18	0xbed84234	-0.4223801
19	0x3dfe4a35	0.124164976
20	0xbe18790a	-0.14889923
21	0x3e39565b	0.18099348
22	0xbec891fc	-0.39173877
23	0xbe839e0e	-0.25706524
24	0x3d66e039	0.05636618
25	0x3ec2bd26	0.38034934
26	0x3e09e830	0.13467479
27	0x3e597fa5	0.21240099
28	0x3e9c6902	0.30548865
29	0xbe521c46	-0.20518598
30	0x3e9f23a4	0.3108188
31	0xbd6ca243	-0.057771932
32	0x3eb55ac6	0.35420817
33	0x3df97391	0.12180246
34	0x3ed55011	0.41662648
35	0x3cebe483	0.028795486
36	0xbd4042de	-0.04693877
37	0x3ec21462	0.37906176
38	0x3e543de7	0.20726739
39	0x3d99b4ba	0.07505174
40	0x3f2a9925	0.6663993
41	0x3ede52b5	0.43422475
42	0x3eabeea2	0.335805
43	0xbf19bc90	-0.6005335
44	0xbf0e0a90	-0.5548487
45	0x3f57aa29	0.8424402
46	0xbe7fba97	-0.24973522
47	0x3edc3ede	0.43016714
48	0xb9dc4c7e	-0.0004201866
49	0xbd61a2e0	-0.05508697
50	0xbe5ea9e2	-0.21744493
51	0xbe86fb03	-0.26363382
52	0xbe9477a3	-0.28997526
53	0x3e6bda18	0.23032415
54	0xbef38a76	-0.47566575
55	0x3d89b958	0.06724805
56	0x3e99e67c	0.30058658
57	0x3e90584b	0.28192362
58	0xbb01aca7	-0.0019786747
59	0xbe4b713b	-0.19867413
60	0xbe72f81f	-0.23727463
61	0x3eece38f	0.46267363
62	0xbe21a440	-0.15785313
63	0x3e2b3b9e	0.16721961
64	0xbc474c93	-0.012164253
65	0xbe70cb9e	-0.23515174
66	0xbd8535fe	-0.06504439
67	0x39be5a77	0.00036307026
68	0xbcc47739	-0.023982631
69	0x3ecfac08	0.40560937
70	0xbe9e1e5f	-0.30882546
71	0xbdea1ff2	-0.11431874
72	0x3e9700e5	0.2949287
73	0x3eeb96b3	0.46013412
74	0xbd5aa6a1	-0.053381566
75	0xbeb7b4f1	-0.35880235
76	0xbeb00c6e	-0.34384483
77	0x3f2522ce	0.6450623
78	0xbf05de71	-0.52292544
79	0x3dd44c2f	0.10366093
80	0x3e1e0559	0.15431727
81	0xbd602239	-0.054720137
82	0x3e70b1d8	0.23505342
83	0x3da0a87d	0.078446366
84	0xbe5be85b	-0.21475355
85	0x3ec23b35	0.37935796
86	0x3d11c12f	0.035584625
87	0xbc283c8a	-0.01026834
88	0xbed57138	-0.41687942
89	0x3d58228f	0.052767333
90	0xbef3d7a5	-0.4762546
91	0x3e0daee3	0.13836245
92	0x3d518d7d	0.051160324
93	0x3c173cf2	0.009230839
94	0xbe92c9ee	-0.28669685
95	0xbecde7a9	-0.40215805
96	0xbe3d0685	-0.18459518
97	0x3e56c10a	0.20972076
98	0xbeb1db1d	-0.34737483
99	0xb90b80a5	-0.00013303997
100	0xbde18d45	-0.11013273
101	0x3dd916a7	0.10600024
102	0xbe946924	-0.28986466
103	0xbe0da82a	-0.13833681
104	0x3ef9dcd4	0.4880129
105	0x3f0ed038	0.55786467
106	0x3e2d69a7	0.16934834
107	0xbeca7d24	-0.395486
108	0xbee0634e	-0.43825763
109	0x3f2d1c05	0.6762088
110	0xbc12bdec	-0.008956414
111	0x3e8eba7a	0.27876645
112	0xbcde592f	-0.027142135
113	0x3e267255	0.16254552
114	0xbdc29fdb	-0.09503146
115	0x3cf5f6e3	0.030024951
116	0xbd31df79	-0.04342601
117	0x3e8590f1	0.26087144
118	0xbe5f70e3	-0.21820407
119	0xbe0670dc	-0.1312899
120	0x3ec91b5c	0.39278686
121	0x3ec30564	0.3809005
122	0x3da3563b	0.079754315
123	0xbeb135d9	-0.34611395
124	0xbed37c41	-0.41305736
125	0x3f14d47a	0.58136714
126	0xbe672ca3	-0.22575621
127	0x3e21890c	0.15774935
128	0xbc0a82d8	-0.008454047
129	0xbea060ae	-0.3132376
130	0x3dcc37aa	0.099715546
131	0x3e2dde84	0.16979414
132	0x3d2aebd1	0.0417288
133	0x3e0653d7	0.1311792
134	0x3c8905c8	0.01672639
135	0xbdd49942	-0.10380794
136	0xbd2eca4d	-0.042673398
137	0xbe1fbdaa	-0.15599695
138	0xbd517863	-0.0511402
139	0x3dd70e91	0.10500825
140	0xbddf5c18	-0.10906237
141	0x3ea834db	0.32852826
142	0xbe5d0bd4	-0.21586543
143	0xbdd342f8	-0.10315508
144	0x3e07f01f	0.13275193
145	0x3ef97a5e	0.4872617
146	0x3dd9584b	0.10612544
147	0xbc0ce38e	-0.008599175
148	0xbdd5bce4	-0.10436419
149	0x3da38caf	0.07985818
150	0x3d9000cd	0.07031403
151	0x3ccc18e8	0.02491422
152	0x3ee43a43	0.445757
153	0x3e81bd3f	0.25339696
154	0x3df59910	0.11992085
155	0xbed370c4	-0.4129697
156	0xbf081814	-0.5316174
157	0x3f4b2178	0.79347944
158	0xbe8c90cd	-0.27454224
159	0x3e93de3a	0.28880483
160	0x3e85d825	0.26141468
161	0x3ec749d5	0.38923517
162	0x3e648277	0.22315393
163	0xbccd0ff1	-0.025032016
164	0xbe3d14d7	-0.18464981
165	0x3eaae779	0.33379725
166	0x3ede5d4d	0.43430558
167	0x3c88cec1	0.01670015
168	0x3d782494	0.06058176
169	0x3dd8770e	0.10569583
170	0xbdb2771c	-0.087141246
171	0x3d5ea957	0.054360714
172	0x3db96428	0.090523064
173	0x3dedd08f	0.11612045
174	0xbdc8e8e4	-0.09810045
175	0xbe2ad37c	-0.16682237
176	0x3f4b1280	0.79325104
177	0x3f0d1e6e	0.55124557
178	0x3eda031b	0.42580494
179	0xbf41bcc8	-0.7567868
180	0xbf45e214	-0.7729809
181	0x3f8d6124	1.104527
182	0xbee0af1d	-0.438836
183	0x3f1d70e6	0.61500394
184	0x3ed75313	0.42055568
185	0x3f64311f	0.8913745
186	0x3e452843	0.1925364
187	0xbeebe847	-0.4607565
188	0xbeae48b0	-0.3403983
189	0x3eaff752	0.34368378
190	0xbdecdfaf	-0.11566102
191	0x3e476f95	0.19476159
192	0xbca5e548	-0.020250931
193	0x3d05deec	0.032683298
194	0x3d068769	0.03284398
195	0x3e19fc21	0.15037586
196	0xbc51233b	-0.012764747
197	0xbd186c09	-0.037212405
198	0x3eb1ba64	0.34712517
199	0x3bddc363	0.0067676767
200	0x3baeaf50	0.0053309575
201	0xbec63435	-0.38711706
202	0x3e4211b5	0.18952067
203	0x3e9cadb4	0.30601275
204	0xba8e037c	-0.0010834779
205	0x3df1c6b0	0.11805475
206	0x3e15a08a	0.14612022
207	0xbc58a07c	-0.013221856
208	0x3f140f29	0.5783563
209	0x3eb3ff3c	0.35155666
210	0x3e8aeb12	0.2713247
211	0xbf087a8b	-0.53311986
212	0xbf1323f1	-0.5747672
213	0x3f492683	0.7857439
214	0xbeedc89f	-0.46442124
215	0x3ed34450	0.41263056
216	0x3e6ef373	0.23335056
217	0x3eea3a76	0.45747727
218	0x3e8b229d	0.27174845
219	0xbe1e772c	-0.15475148
220	0xbe81d1ae	-0.25355285
221	0x3e6b07f0	0.22952247
222	0x3eb22833	0.34796295
223	0x3e6ea6b5	0.23305781
224	0xbeb482bd	-0.35255995
225	0x3e2a6d53	0.16643266
226	0xbe337734	-0.17525941
227	0x3ece835c	0.40334594
228	0x3ecf4451	0.4048181
229	0xbebc10b4	-0.36731493
230	0xbaa1e8c2	-0.0012352692
231	0xbef75287	-0.4830515
232	0x3d95eb93	0.07320323
233	0x3e053c40	0.13011265
234	0xbc99f963	-0.018795675
235	0x3dddcb7e	0.10829829
236	0x3e000281	0.12500955
237	0x3dca6e35	0.098843016
238	0xbd57b08a	-0.052658595
239	0xbe41101e	-0.18853804
240	0x3e099d06	0.13438806
241	0xbe2537fe	-0.1613464
242	0x3e9e1863	0.3087798
243	0x3df074cf	0.117410295
244	0xbd65c84f	-0.056099232
245	0x3e39c395	0.18141015
246	0x3ddf20e9	0.10894949
247	0xbd786415	-0.06064232
248	0xbdf24f64	-0.11831549
249	0x3dc4b191	0.096041806
250	0xbc04c2fc	-0.0081031285
251	0x3e71ea8a	0.23624626
252	0x3e7fdeed	0.24987383
253	0xbeadb2ae	-0.33925384
254	0x3eb755b2	0.35807568
255	0xbe15857d	-0.14601703

fc_layers.0.weight f4 [64, 16]
0	0xbda7047d	-0.08155153
1	0x3e9ab147	0.30213377
2	0xbe830415	-0.25589052
3	0xbf1d9f4f	-0.6157121
4	0xbe0fb75d	-0.14034791
5	0x3eb2fe3c	0.3495959
6	0x3e1885f0	0.14894843
7	0x3d9a7114	0.07541099
8	0x3e97a40b	0.29617342
9	0x3e8b72f9	0.27236155
10	0x3e84b085	0.25915924
11	0x3e8c55c1	0.27409175
12	0xbe8c25b2	-0.2737251
13	0x3e9c2412	0.3049627
14	0xbe95daa1	-0.29268363
15	0xbe9c7685	-0.30559173
16	0xbe3a751a	-0.18208733
17	0xbd02a695	-0.031897146
18	0x3a264115	0.00063420954
19	0x3e102f97	0.14080654
20	0xbd937f45	-0.07202009
21	0xbd2a3d46	-0.04156234
22	0x3d8edeaa	0.069760635
23	0x3e851f7d	0.26000586
24	0x3e0ccdc2	0.13750365
25	0x3e170559	0.14748134
26	0x3e1da4db	0.15394919
27	0x3e16bc05	0.14720161
28	0xbe0fdf75	-0.14050086
29	0x3e11ebfe	0.1425018
30	0xbe1748e8	-0.14773905
31	0xbde9461d	-0.11390326
32	0xbe0242d0	-0.127208
33	0x3e6bca16	0.23026308
34	0xbe567e5c	-0.2094664
35	0xbee37fae	-0.4443335
36	0xbe15cb1c	-0.14628261
37	0x3e885e52	0.2663446
38	0x3e1539cd	0.1457283
39	0x3df0564f	0.11735212
40	0x3e87735c	0.264552
41	0x3e7ec505	0.24879844
42	0x3e79a7d2	0.24380425
43	0x3e878f4f	0.26476523
44	0xbe772456	-0.24134955
45	0x3e8420a0	0.2580614
46	0xbe8afa75	-0.2714421
47	0xbe899c59	-0.26877096
48	0x930ac7a3	-1.7516477e-27
49	0x144bfdf1	1.0298962e-26
50	0x160ac87a	1.121081e-25
51	0x159684cd	6.079404e-26
52	0x15ed0725	9.573481e-26
53	0x9294dd42	-9.394657e-28
54	0x170e513b	4.59852e-25
55	0x14a00478	1.6157634e-26
56	0x15a8871a	6.806781e-26
57	0x13fa94a4	6.3255443e-27
58	0x15cca498	8.265463e-26
59	0x15b0a11e	7.134003e-26
60	0x94b11713	-1.7881534e-26
61	0x14c5376f	1.9913781e-26
62	0x94c23ef0	-1.9613818e-26
63	0x148a048a	1.393623e-26
64	0xbe0d57ea	-0.13803068
65	0xbdc3e09a	-0.09564324
66	0x3d983fec	0.07434067
67	0x3e80a338	0.25124526
68	0xbca1811f	-0.01971489
69	0xbdeaacfb	-0.11458775
70	0x3d1bc520	0.03802979
71	0x3e55f1da	0.2089304
72	0x3e2b49da	0.16727391
73	0x3e260820	0.16214037
74	0x3e33aa48	0.17545426
75	0x3e2c6e5e	0.16838977
76	0xbe2c9942	-0.16855338
77	0x3e1652f8	0.14680088
78	0xbe306861	-0.17227317
79	0xbe25da31	-0.16196515
80	0x14b4ff51	1.827606e-26
81	0x95766a44	-4.9763133e-26
82	0x93e84acc	-5.863879e-27
83	0x154692e9	4.0101673e-26
84	0x15e2eefe	9.1657736e-26
85	0x14b47d05	1.8224667e-26
86	0x13d0af76	5.26796e-27
87	0x96828721	-2.108791e-25
88	0x953c15c2	-3.798346e-26
89	0x957920bd	-5.0310975e-26
90	0x1311e65f	1.8415155e-27
91	0x15410b2d	3.8984856e-26
92	0x168e94e2	2.3035296e-25
93	0x1452ed18	1.0649049e-26
94	0x9403d4c1	-6.655768e-27
95	0x925e2b93	-7.010456e-28
96	0xbe2802df	-0.16407345
97	0xbda29ea7	-0.07940417
98	0x3d47b9ac	0.048761055
99	0x3e6ac20c	0.22925586
100	0xbd0433b7	-0.03227588
101	0xbdec9a70	-0.11552894
102	0x3d4d2f77	0.050094094
103	0x3e6b108f	0.22955535
104	0x3e08d538	0.13362586
105	0x3e18ae20	0.14910173
106	0x3e20a65e	0.15688464
107	0x3e21bbbb	0.1579427
108	0xbe0b0bee	-0.1357877
109	0x3e19f263	0.1503387
110	0xbe0433b6	-0.12910351
111	0xbe0d0f9d	-0.13775487
112	0xbe359fcd	-0.1773674
113	0xbda210b8	-0.07913345
114	0x3d4e1a74	0.050318196
115	0x3e612f90	0.219908
116	0xbd1d8883	-0.038460266
117	0xbda917f8	-0.08256525
118	0x3d54f081	0.051987175
119	0x3e840418	0.25784373
120	0x3e079944	0.1324206
121	0x3e0fdb1c	0.14048427
122	0x3e1db440	0.15400791
123	0x3e207c59	0.15672435
124	0xbe14727f	-0.14496802
125	0x3e151c38	0.14561546
126	0xbe0c3024	-0.13690239
127	0xbe06ff99	-0.1318344
128	0xbe2fe524	-0.17177254
129	0xbdb6bae9	-0.08922369
130	0x3d6ea396	0.058261476
131	0x3e6b52cf	0.22980808
132	0xbd1f1ede	-0.038847797
133	0xbdf1d809	-0.118087836
134	0x3d4b2409	0.049594913
135	0x3e7f3a22	0.2492452
136	0x3e0b552b	0.13606708
137	0x3e20164e	0.15633509
138	0x3e17211d	0.14758725
139	0x3e26ba78	0.1628207
140	0xbe0da08b	-0.13830774
141	0x3e19b761	0.1501136
142	0xbe134f0f	-0.14385627
143	0xbe1880ee	-0.14892933
144	0xbe1d1a3e	-0.15342042
145	0xbdc0c951	-0.09413398
146	0x3d7b95c5	0.06142213
147	0x3e633b3d	0.22190566
148	0xbcae0ab6	-0.021245342
149	0xbde91cf3	-0.11382475
150	0x3d409f8e	0.047027163
151	0x3e68b44d	0.2272503
152	0x3e229a9c	0.15879291
153	0x3e1a1098	0.15045393
154	0x3e26e2db	0.16297476
155	0x3e2a2c3e	0.1661844
156	0xbe20752c	-0.15669698
157	0x3e292fa4	0.1652208
158	0xbe29b2e4	-0.16572148
159	0xbe1ef99b	-0.15524904
160	0x93ec2f94	-5.962169e-27
161	0x167152d4	1.9493961e-25
162	0x9543a2fa	-3.9508502e-26
163	0x1654d611	1.7192771e-25
164	0x9551903b	-4.2320992e-26
165	0x15a510e6	6.666963e-26
166	0x154bc1fa	4.1148544e-26
167	0x958c7f16	-5.6746056e-26
168	0x9585110f	-5.3745186e-26
169	0x9605d8ed	-1.0812104e-25
170	0x169ee0a6	2.566805e-25
171	0x135284cd	2.6571202e-27
172	0x9544c798	-3.9739336e-26
173	0x9505f219	-2.7050117e-26
174	0x953f8d36	-3.868354e-26
175	0x152311dd	3.293168e-26
176	0xbdb690a2	-0.08914305
177	0x3e9df177	0.30848286
178	0xbe883545	-0.2660314
179	0xbf1b654c	-0.6070144
180	0xbe065f25	-0.13122232
181	0x3eb76d3f	0.35825536
182	0x3e21c01b	0.15795939
183	0x3d8c9c6c	0.068657726
184	0x3e907cb2	0.28220135
185	0x3e8b61fc	0.27223194
186	0x3e890dfb	0.2676848
187	0x3e9115e9	0.2833703
188	0xbe89d953	-0.26923618
189	0x3e96c58d	0.29447594
190	0xbe99b0f8	-0.3001783
191	0xbea0f691	-0.31438115
192	0xbd9cb7f2	-0.07652272
193	0x3e9f2a9f	0.31087205
194	0xbe860edd	-0.26183215
195	0xbf188ba3	-0.5958807
196	0xbe0e8b5e	-0.13920352
197	0x3eb05041	0.3443623
198	0x3e22301f	0.15838669
199	0x3d8ea0dd	0.06964276
200	0x3e9500d7	0.29102203
201	0x3e92121a	0.28529435
202	0x3e81854c	0.2529701
203	0x3e863360	0.2621107
204	0xbe7f0a95	-0.2490638
205	0x3e924f2a	0.28576022
206	0xbe9df49e	-0.3085069
207	0xbe9ff9e8	-0.3124535
208	0x94379641	-9.268771e-27
209	0x13a84069	4.2472676e-27
210	0x9288c181	-8.630509e-28
211	0x157701d7	4.9882704e-26
212	0x9219df52	-4.855355e-28
213	0x15fabae3	1.0126905e-25
214	0x94393e46	-9.3523944e-27
215	0x9312dacc	-1.8535666e-27
216	0x93eed7b7	-6.0292358e-27
217	0x132410c3	2.0707974e-27
218	0x15701fa3	4.849257e-26
219	0x14b0d3c4	1.7854985e-26
220	0x148508bd	1.3433015e-26
221	0x9524f77c	-3.3314767e-26
222	0x1618d950	1.2347034e-25
223	0x15ad3e02	6.9971975e-26
224	0x96c3f7d9	-3.1660363e-25
225	0x96851eae	-2.150667e-25
226	0x95a61a66	-6.7088515e-26
227	0x15c1d6c3	7.8290913e-26
228	0x964386e0	-1.5794534e-25
229	0x149eb218	1.6024169e-26
230	0x1561f2fd	4.5630072e-26
231	0x932626b7	-2.0971234e-27
232	0x943d6a68	-9.5630464e-27
233	0x935caa9c	-2.785202e-27
234	0x962496f6	-1.3295449e-25
235	0x14908574	1.4592922e-26
236	0x94dab80a	-2.2084965e-26
237	0x950d033a	-2.847727e-26
238	0x95118237	-2.9385238e-26
239	0x9596bffb	-6.088741e-26
240	0x95916b72	-5.873455e-26
241	0x14a4a7b1	1.662591e-26
242	0x1525b19c	3.3461594e-26
243	0x15ec24f6	9.5377955e-26
244	0x142697b0	8.410773e-27
245	0x94727dde	-1.2242701e-26
246	0x941caece	-7.9104614e-27
247	0x94bd4f1b	-1.9115325e-26
248	0x9585c3d1	-5.4027216e-26
249	0x9583847f	-5.311952e-26
250	0x15500da3	4.2016023e-26
251	0x938105fa	-3.257007e-27
252	0x952528a7	-3.3353554e-26
253	0x17043171	4.2713904e-25
254	0x939fb0bd	-4.031152e-27
255	0x14d63acc	2.1631669e-26

fc_layers.0.bias f4 [64]
0	0xbbb5188c	-0.005526608
1	0x3e70ef6a	0.23528829
2	0x3d72a4a8	0.05923906
3	0x9f965680	-6.3670573e-20
4	0x3eab4f3c	0.3345889
5	0xa31dcfda	-8.555001e-18
6	0x3e90b8de	0.28266042
7	0x3e894e65	0.26817623
8	0x3e944bea	0.28964168
9	0x3ea149f0	0.31501722
10	0x97afdae4	-1.1364366e-24
11	0xbc9f92ae	-0.019479122
12	0xbc9bdc60	-0.019025981
13	0x9e31ff5d	-9.42311e-21
14	0x9672763e	-1.9585915e-25
15	0xa304d584	-7.200948e-18
16	0x9eb7053d	-1.9378045e-20
17	0x3e9da3e5	0.30789104
18	0xa039b6b7	-1.5730565e-19
19	0x3e8c0218	0.27345347
20	0x3dd0fd7d	0.10204599
21	0xa09b6ca5	-2.6329916e-19
22	0xa2629158	-3.0705656e-18
23	0x9833ad42	-2.322268e-24
24	0x9b0fa873	-1.1883112e-22
25	0x3ea0c621	0.3140116
26	0xbdf749fa	-0.12074657
27	0x9b16e538	-1.2481774e-22
28	0x3e94b0dc	0.29041183
29	0x979f4cb9	-1.0294502e-24
30	0x9e32abdc	-9.458781e-21
31	0x95e71ddd	-9.334727e-26
32	0x9a0f7768	-2.9668162e-23
33	0x9eb4eb5a	-1.915558e-20
34	0x3e6fed4a	0.23430362
35	0x9870e6f0	-3.1135867e-24
36	0xbda82ddc	-0.08211872
37	0x3e9a54f5	0.30142942
38	0x9f1ac87f	-3.2776615e-20
39	0x3d8dee79	0.06930251
40	0x3e50c5cf	0.20387958
41	0x9b105ae2	-1.1940767e-22
42	0x3e6991f1	0.22809578
43	0x9733e005	-5.812077e-25
44	0x3e9aea65	0.30256954
45	0xa1ad0c94	-1.1726265e-18
46	0xa37d1189	-1.3718871e-17
47	0x3dcceb48	0.10005814
48	0x3e8c5f9e	0.274167
49	0x993cda46	-9.763452e-24
50	0x3e9fcc68	0.31210637
51	0x3e71479d	0.23562475
52	0x3e5e886b	0.21731727
53	0x3e2179d1	0.15769126
54	0xa2779e1c	-3.3558444e-18
55	0x3e5458d4	0.2073701
56	0x970703ce	-4.3625655e-25
57	0xbdadaf2b	-0.08480676
58	0x3dcd8c32	0.10036506
59	0x3e9fc2bc	0.31203258
60	0x9692c96a	-2.3714682e-25
61	0x3e9287c4	0.28619206
62	0x3ea75d6d	0.32688466
63	0x96f4ac23	-3.952896e-25

fc_layers.1.weight f4 [32, 64]
0	0x9f3aa705	-3.9525187e-20
1	0xa5dc3b69	-3.8204174e-16
2	0xa2abc1e8	-4.655495e-18
3	0x15601118	4.5249924e-26
4	0xac7c76a2	-3.5877208e-12
5	0x955aea18	-4.4209417e-26
6	0xa80c252f	-7.779624e-15
7	0xa807be80	-7.5353135e-15
8	0xa971d806	-5.370012e-14
9	0xa9f1dae7	-1.07405235e-13
10	0x9582b693	-5.2794633e-26
11	0x9ee3108d	-2.4041405e-20
12	0x9f8677af	-5.694921e-20
13	0x939f3526	-4.018965e-27
14	0x934932f5	-2.539489e-27
15	0x165c6581	1.7803487e-25
16	0x16028ad6	1.0545125e-25
17	0xaaf95dfb	-4.4296497e-13
18	0x952f2746	-3.537195e-26
19	0xa87348be	-1.3504983e-14
20	0xa3019a05	-7.025719e-18
21	0x962d57ad	-1.4002494e-25
22	0x93cc2926	-5.1537415e-27
23	0x14ec3046	2.384895e-26
24	0x959f4db3	-6.4342176e-26
25	0xab940a3a	-1.0518871e-12
26	0x9827af5d	-2.167278e-24
27	0x93fc9643	-6.3761913e-27
28	0xaa3cc54b	-1.6766204e-13
29	0x9503f9ae	-2.6652202e-26
30	0x130cc14b	1.7765785e-27
31	0x9405b30b	-6.750094e-27
32	0x947f273c	-1.28819476e-26
33	0x160daae8	1.1443818e-25
34	0xa50881b1	-1.1840061e-16
35	0x149d31a6	1.5872532e-26
36	0x9bb32799	-2.9638655e-22
37	0xaa833250	-2.3305186e-13
38	0x13f05a00	6.0673264e-27
39	0xa13cf8ed	-6.402633e-19
40	0xa4d02def	-9.0283435e-17
41	0x156a9c1d	4.7379075e-26
42	0xa568655b	-2.0157133e-16
43	0x94d2ddc2	-2.1292049e-26
44	0xaa2a4b61	-1.5125185e-13
45	0x963e46d7	-1.5370431e-25
46	0x1494f722	1.5041658e-26
47	0xa314d027	-8.067174e-18
48	0xa892a9a6	-1.628283e-14
49	0x9601b562	-1.0477771e-25
50	0xab4fbfc0	-7.380728e-13
51	0x24672275	5.0119327e-17
52	0xad1838a9	-8.652781e-12
53	0xa50bf394	-1.2138856e-16
54	0x9494216e	-1.4957367e-26
55	0xa52f09d5	-1.5182162e-16
56	0x149a0052	1.5550153e-26
57	0x1a895d1b	5.681229e-23
58	0xa349b63a	-1.093482e-17
59	0xab7c6c0d	-8.9678335e-13
60	0x948b1bda	-1.4046399e-26
61	0xa7e8cb3f	-6.4613295e-15
62	0xac33ade7	-2.5533965e-12
63	0x157b61fa	5.0766336e-26
64	0x95272d78	-3.376125e-26
65	0x957b97ba	-5.0808737e-26
66	0x15cb4346	8.2097186e-26
67	0x951d999c	-3.1827074e-26
68	0x96390ae8	-1.4947622e-25
69	0x950ec7d0	-2.8834296e-26
70	0x128feeed	9.0834685e-28
71	0x149d11cb	1.5859967e-26
72	0x14807693	1.2971466e-26
73	0x93f194b6	-6.0983593e-27
74	0x94b2196a	-1.7983431e-26
75	0x952650e0	-3.3587232e-26
76	0x143e497c	9.607041e-27
77	0x122c8857	5.444168e-28
78	0x15f9fabc	1.0096589e-25
79	0x162ffa6c	1.4215407e-25
80	0x13224afe	2.0484249e-27
81	0x9453df4e	-1.0696817e-26
82	0x122392db	5.1614744e-28
83	0x15cbe2a4	8.234862e-26
84	0x9421983e	-8.158447e-27
85	0x9125072f	-1.3018419e-28
86	0x93bb2827	-4.724503e-27
87	0x13aec63a	4.411924e-27
88	0x96e545f5	-3.7041094e-25
89	0x93e21ef5	-5.7080947e-27
90	0x15001338	2.5864555e-26
91	0x9427d4d0	-8.473315e-27
92	0x159f467e	6.4330806e-26
93	0x93df3d99	-5.6353854e-27
94	0x13887595	3.444717e-27
95	0x13c85718	5.057298e-27
96	0x15bd5cca	7.648289e-26
97	0x96c726af	-3.2174597e-25
98	0x9388c2c4	-3.452328e-27
99	0x135e153d	2.803081e-27
100	0x1534b86d	3.6496197e-26
101	0x95e277ae	-9.1469494e-26
102	0x15f4d2ec	9.888359e-26
103	0x14016bd0	6.534098e-27
104	0x951f428b	-3.2162287e-26
105	0x9445264f	-9.953513e-27
106	0x957b226a	-5.0716194e-26
107	0x15831d35	5.295656e-26
108	0x12c49d26	1.2408079e-27
109	0x948871f9	-1.3777445e-26
110	0x14a6c4c5	1.6839328e-26
111	0x942c1eef	-8.6898814e-27
112	0x15936583	5.9532984e-26
113	0x1540cfa6	3.8937897e-26
114	0x13cefd35	5.2251392e-27
115	0x92fef8ca	-1.6090985e-27
116	0x934b9195	-2.569398e-27
117	0x9479156a	-1.25755106e-26
118	0x13d9b235	5.4954227e-27
119	0x96debe62	-3.5986183e-25
120	0x9576a337	-4.9808058e-26
121	0x94dbdaca	-2.2199646e-26
122	0x14129876	7.401184e-27
123	0x94e5fdef	-2.322325e-26
124	0x129c68e3	9.870841e-28
125	0x167e56e8	2.0545379e-25
126	0x14a24d92	1.6388416e-26
127	0x151e5a78	3.1979213e-26
128	0x3e7d237a	0.24720564
129	0x3e22cf06	0.15899286
130	0x3e45ca0f	0.1931536
131	0x94bc6cb0	-1.9026018e-26
132	0x3e046b4c	0.12931556
133	0x15abf17b	6.944734e-26
134	0x3e2b7823	0.16745047
135	0x3e40647b	0.1878833
136	0x3e3417e4	0.17587239
137	0x3e1357d2	0.1438897
138	0x1620090d	1.2927553e-25
139	0x3e8308e1	0.25592712
140	0x3e8230a0	0.25427723
141	0x15be755c	7.692555e-26
142	0x9424779b	-8.303472e-27
143	0x94948fce	-1.5000902e-26
144	0x9444ed70	-9.9422975e-27
145	0x3e168aab	0.14701335
146	0x952e1903	-3.515875e-26
147	0x3e24c8dc	0.16092247
148	0x3e36a39f	0.17835854
149	0x95c2bf40	-7.8657715e-26
150	0x15d280f7	8.5021795e-26
151	0x968379fa	-2.124117e-25
152	0x9433963d	-9.06682e-27
153	0x3e1d8d1e	0.15385863
154	0x3eb01462	0.3439055
155	0x95caf86b	-8.1979085e-26
156	0x3e194b4c	0.1497013
157	0x95781022	-5.0095928e-26
158	0x93e4cc0a	-5.775649e-27
159	0x952f3143	-3.537983e-26
160	0x942eb27a	-8.819953e-27
161	0x94788a7f	-1.2548114e-26
162	0x3e3b4035	0.18286212
163	0x13ac829a	4.3547687e-27
164	0x3e9d541c	0.30728233
165	0x3e2e9e91	0.17052676
166	0x158a7917	5.59288e-26
167	0x3e44d5b6	0.19222149
168	0x3e325c5c	0.17418045
169	0x1585009b	5.371923e-26
170	0x3e35fef0	0.17773032
171	0x94dff4df	-2.261383e-26
172	0x3e2c176f	0.16805814
173	0x160bc126	1.1289277e-25
174	0x15472c8d	4.0222874e-26
175	0x3e365c9f	0.1780877
176	0x3e37168b	0.17879693
177	0x1618e972	1.2352125e-25
178	0x3e154b71	0.1457956
179	0x3e32c723	0.17458777
180	0xbe3e06e3	-0.18557315
181	0x3e28f69e	0.16500327
182	0x95112aaf	-2.9316188e-26
183	0x3e1f6c85	0.1556874
184	0x95961851	-6.062288e-26
185	0x3e9fb550	0.31193018
186	0x3e353304	0.17695242
187	0x3e1a87ce	0.15090868
188	0x966ec2d8	-1.9286969e-25
189	0x3e2e5af1	0.17026879
190	0x3e123453	0.14277773
191	0x95b20b2e	-7.1911266e-26
192	0x94caf1df	-2.0492189e-26
193	0x156e0cd8	4.807385e-26
194	0x9310506a	-1.8215002e-27
195	0x9607411c	-1.0925758e-25
196	0x164c21c7	1.6489647e-25
197	0x935ec886	-2.8119205e-27
198	0x95b0d24a	-7.141761e-26
199	0x15fcf78b	1.02172543e-25
200	0x15ca2e1c	8.16599e-26
201	0x93b138e7	-4.473719e-27
202	0x15a67f02	6.724725e-26
203	0x13924138	3.6919892e-27
204	0x958a1a26	-5.577901e-26
205	0x144a42aa	1.0211541e-26
206	0x95a7d730	-6.779027e-26
207	0x1386cef0	3.403041e-27
208	0x96f76c6b	-3.9973424e-25
209	0x94f360b8	-2.4574878e-26
210	0x1395faa8	3.7860054e-27
211	0x1257e35d	6.8122285e-28
212	0x963a3212	-1.504076e-25
213	0x15d58876	8.624531e-26
214	0x15b77b1b	7.410734e-26
215	0x954a5205	-4.0858277e-26
216	0x11cad842	3.200326e-28
217	0x9460cf7e	-1.13500306e-26
218	0x95eba36d	-9.5173585e-26
219	0x9562cd95	-4.5802512e-26
220	0x15333552	3.6190824e-26
221	0x941b8603	-7.851929e-27
222	0x940c647c	-7.088011e-27
223	0x939e4ab3	-3.9958466e-27
224	0x94eba1ce	-2.3792757e-26
225	0x143c64c2	9.5114454e-27
226	0x9503f560	-2.6648806e-26
227	0x1587beb3	5.4826936e-26
228	0x15d49978	8.586825e-26
229	0x955eb7be	-4.497749e-26
230	0x9590182c	-5.8199273e-26
231	0x931afaf5	-1.9561264e-27
232	0x948dbc45	-1.4311621e-26
233	0x94abd12b	-1.734909e-26
234	0x94135943	-7.439207e-27
235	0x9424c047	-8.317804e-27
236	0x935eda27	-2.8127897e-27
237	0x152d9fe8	3.5063216e-26
238	0x94b1a7ec	-1.7938666e-26
239	0x93d758fb	-5.436137e-27
240	0x96465fde	-1.6024563e-25
241	0x94cb19cc	-2.0507937e-26
242	0x15733278	4.9113272e-26
243	0x13dbbad5	5.5467603e-27
244	0x964e46eb	-1.6662925e-25
245	0x152f6ebb	3.542832e-26
246	0x15952e51	6.0253695e-26
247	0x955c2d12	-4.44642e-26
248	0x95886251	-5.508508e-26
249	0x92e6a97a	-1.455682e-27
250	0x14d193f8	2.116197e-26
251	0x142a94e1	8.612168e-27
252	0x154e1633	4.161888e-26
253	0x95847165	-5.349328e-26
254	0x1555de87	4.319055e-26
255	0x9514acd6	-3.0024705e-26

fc_layers.1.bias f4 [32]
0	0xb4852f1d	-2.480746e-07
1	0x9d52603d	-2.7843023e-21
2	0x3de58e26	0.11208753
3	0x99f17657	-2.4966613e-23
4	0x3e060661	0.13088371
5	0x9d043a42	-1.7500173e-21
6	0x3de8938d	0.11356268
7	0x3de170f9	0.11007876
8	0x3df66c49	0.120323725
9	0x98e979b1	-6.0351965e-24
10	0x992b8180	-8.866645e-24
11	0x3e05331a	0.13007775
12	0x3dfec1f5	0.12439338
13	0x98200761	-2.068324e-24
14	0x3df08dac	0.11745772
15	0x3e0ac750	0.13552594
16	0x3df75adf	0.12077879
17	0x9d313a00	-2.345574e-21
18	0x3e0f1255	0.13971837
19	0x981b0220	-2.0034353e-24
20	0x3e0035ea	0.12520567
21	0x9d1ba4b7	-2.0599235e-21
22	0x9d0e20ad	-1.8810437e-21
23	0x3e041e81	0.12902261
24	0x3ded173e	0.11576699
25	0x9c361b39	-6.0253933e-22
26	0x9c9a7ef0	-1.0223678e-21
27	0x978294dc	-8.43863e-25
28	0x3df3f853	0.119125985
29	0x97e479e1	-1.4764921e-24
30	0x975c6871	-7.1217657e-25
31	0xb8502be2	-4.9631934e-05
