checkpoints/neumf_first_try_Epoch3_HR0.6416_NDCG0.3681.model (torch, 645090 bytes, 13 tensors)

embedding_user_mlp.weight f4 [6040, 8]
-0.09414144 0.1558523 0.15495437 0.16512114 -0.25809526 -0.18029068 -0.20305276 -0.20400637
-0.019748991 0.116650485 0.11272392 0.08599966 0.037390754 -0.07940529 0.04639625 0.049651064
-0.17345905 0.20637435 0.20159365 0.16894977 0.048612457 -0.16093242 -0.039609 -0.04875203
-0.2757825 0.33997077 0.3344993 0.310165 -0.16839156 -0.32079542 -0.23353896 -0.23528194
-0.10620157 0.036641996 0.034767248 0.050559912 -0.085621186 -0.08515388 -0.12475743 -0.12462799
-0.089420885 0.049515974 0.0611115 0.055231344 -0.039625447 -0.08034954 -0.07380011 -0.08833918
-0.21718062 0.34673774 0.33527 0.315573 -0.18871853 -0.30816203 -0.21268205 -0.21744083
-0.029789327 0.14022012 0.13148212 0.09965247 0.13930501 -0.09255972 0.07671871 0.07739819
-0.12370158 0.16583987 0.15926862 0.15153156 -0.17220886 -0.15567762 -0.13162144 -0.1343284
-0.026939271 -0.091886714 -0.07544532 -0.05423798 -0.057169415 0.05091981 -0.039807834 -0.047470637
-0.027666552 0.12757848 0.118943855 0.09355259 -0.013981902 -0.08310407 -0.03714543 -0.026766792
-0.108711116 0.033171162 0.033968855 0.038017944 -0.041060254 -0.046481192 -0.07076857 -0.06575649
-0.071390525 0.1808507 0.16856658 0.13929962 0.111730315 -0.13354246 0.016841484 0.012843168
-0.1838128 0.051513292 0.050449345 0.094455354 -0.37034208 -0.12329544 -0.2916563 -0.2860556
-0.11139609 0.18761303 0.20292962 0.1732563 -0.1343322 -0.2024451 -0.12942518 -0.13710849
-0.2695106 0.1101414 0.107044645 0.17593193 -0.38403305 -0.220007 -0.40825585 -0.40076116
-0.11017999 -0.022245394 -0.012683373 0.028924124 -0.15962942 -0.04577954 -0.14743586 -0.16302958
0.2181716 -0.061060898 -0.054624073 -0.0874776 -0.040520977 0.05470212 0.080033585 0.10884129
-0.12254047 -0.0026004803 0.0015427547 0.023814559 -0.16695763 -0.0529774 -0.15196532 -0.15563664
-0.12441944 0.16052309 0.15593383 0.16210745 -0.25104365 -0.18275703 -0.19130261 -0.18214026
-0.09150012 0.05172965 0.053889737 0.05392019 -0.11284981 -0.054803926 -0.115747154 -0.110838525
0.066949986 0.048834153 0.050706238 -0.0028592271 0.17045489 0.007106922 0.10878775 0.10480366
-0.034436915 -0.018642241 -0.005206351 -0.001873779 -0.06958112 -0.0078043723 -0.0431667 -0.054799106
-0.067861855 0.1383642 0.13014828 0.09952083 0.019657781 -0.098955065 -0.022577846 -0.04500606
-0.13943294 0.1503682 0.15306558 0.16414285 -0.23620382 -0.18960641 -0.24439186 -0.24908684
0.35076553 -0.12902895 -0.12629563 -0.20951475 0.26556927 0.24316503 0.28679335 0.28506756
-0.08337404 0.0939146 0.092970766 0.11212397 -0.19415924 -0.13136044 -0.19069931 -0.17855999
-0.0786894 0.110463694 0.10136536 0.114444 -0.22800408 -0.1244585 -0.190999 -0.17753355
-0.0033825305 0.30709556 0.280466 0.22261372 0.32875803 -0.19985725 0.22199044 0.20391
-0.17695521 0.122320816 0.12305706 0.13192284 -0.07801416 -0.15263017 -0.14682795 -0.16535443
-0.08648016 0.10827852 0.11880486 0.09187496 0.09048594 -0.07492784 0.045890536 0.025666917
-0.1312537 0.06834361 0.052083682 0.08717932 -0.27581564 -0.117100865 -0.25110656 -0.22739327
00000000: 3acd c0bd bf97 1f3e 5cac 1e3e 8415 293e
00000010: 1025 84be 1f9e 38be 10ed 4fbe 0ce7 50be
00000020: a3c8 a1bc 73e6 ee3d ccdb e63d 9720 b03d
00000030: 0c27 193d 3e9f a2bd ff09 3e3d ea5e 4b3d
00000040: 409f 31be cc53 533e 916e 4e3e 2b01 2d3e
00000050: db1d 473d 78cb 24be 0c3d 22bd 35b0 47bd
00000060: 5d33 8dbe a610 ae3e 7e43 ab3e f2cd 9e3e
00000070: d66e 2cbe 4c3f a4be d624 6fbe c0ed 70be
00000080: 3580 d9bd eb15 163d 1a68 0e3d e917 4f3d
00000090: 295a afbd 2865 aebd d380 ffbd f63c ffbd
000000a0: 4c22 b7bd 43d1 4a3d 0d50 7a3d 433a 623d
000000b0: 4b4e 22bd 4d8e a4bd 8324 97bd 2ceb b4bd
000000c0: 9964 5ebe 9c87 b13e 82a8 ab3e c992 a13e
000000d0: 6e3f 41be 6ac7 9dbe 53c9 59be cfa8 5ebe
000000e0: bf08 f4bc dd95 0f3e 40a3 063e 9816 cc3d
000000f0: f9a5 0e3e f38f bdbd b31e 9d3d f182 9e3d
00000100: 4157 fdbd edd1 293e 5017 233e 172b 1b3e
00000110: 8557 30be f469 1fbe c5c7 06be 628d 09be
00000120: bfaf dcbc 1a2f bcbd 1383 9abd a528 5ebd
00000130: 7a2a 6abd 4a91 503d 8a0d 23bd 9270 42bd
00000140: f7a4 e2bc efa3 023e d698 f33d 8098 bf3d
00000150: 5914 65bc 7732 aabd ce25 18bd 0846 dbbc
00000160: efa3 debd 7cde 073d ed22 0b3d b4b8 1b3d
00000170: cc2e 28bd 1063 3ebd 1def 90bd 57ab 86bd
00000180: 3235 92bd ed30 393e b89c 2c3e 8fa4 0e3e
00000190: ddd2 e43d 5bbf 08be 27f7 893c 276c 523c
000001a0: 6c39 3cbe 9aff 523d f9a3 4e3d cf71 c13d
000001b0: 7a9d bdbe 5282 fcbd f953 95be e175 92be
000001c0: a223 e4bd a11d 403e c8cc 4f3e 196a 313e
000001d0: 618e 09be c54d 4fbe 0988 04be 2b66 0cbe
000001e0: 4bfd 89be d091 e13d 393a db3d 8027 343e
000001f0: fb9f c4be 8449 61be e906 d1be 9130 cdbe
00000200: 0ca6 e1bd f93b b6bc eccd 4fbc 49f2 ec3c
00000210: e575 23be 5483 3bbd 6df9 16be 3af1 26be
00000220: 6068 5f3e fe1a 7abd 7ebd 5fbd 7527 b3bd
00000230: 53f9 25bd 550f 603d a6e8 a33d 2fe8 de3d
00000240: 7ff6 fabd d26c 2abb 4236 ca3a c016 c33c
00000250: f1f6 2abe d5fe 58bd cc9c 1bbe 365f 1fbe
00000260: 9fcf febd 2a60 243e 1ead 1f3e 7fff 253e
00000270: cb88 80be a924 3bbe d5e4 43be fa82 3abe
00000280: 6a64 bbbd 78e2 533d 7cbb 5c3d 6bdb 5c3d
00000290: cd1d e7bd 157a 60bd d80c edbd 4fff e2bd
000002a0: 131d 893d 5206 483d 58b1 4f3d df61 3bbb
000002b0: ba8b 2e3e 2fe1 e83b 1dcc de3d 4da3 d63d
000002c0: b90d 0dbd 9db7 98bc 0a9a aabb 9799 f5ba
000002d0: 8c80 8ebd d2bb ffbb 91cf 30bd 0775 60bd
000002e0: 28fb 8abd 58af 0d3e 9745 053e 94d1 cb3d
000002f0: 5b09 a13c f4a8 cabd 2df5 b8bc 4658 38bd
00000300: 82c7 0ebe 1ffa 193e 39bd 1c3e 1015 283e
00000310: 6adf 71be 2f28 42be dc41 7abe 9f10 7fbe
00000320: 8a97 b33e 2a20 04be a453 01be 098b 56be
00000330: b2f8 873e 4100 793e 94d6 923e 60f4 913e
00000340: 02c0 aabd 4c56 c03d 7567 be3d 41a1 e53d
00000350: aed1 46be 5a83 06be ae46 43be 6ed8 36be
00000360: e827 a1bd ca3a e23d a498 cf3d 9e61 ea3d
00000370: e779 69be 19e4 febd 3e95 43be 5bcb 35be
00000380: 72ad 5dbb a13b 9d3e 3d99 8f3e daf4 633e
00000390: f952 a83e 61a7 4cbe 7651 633e c8cd 503e
000003a0: bf33 35be 5683 fa3d 5705 fc3d c816 073e
000003b0: e3c5 9fbd 154b 1cbe 115a 16be ac52 29be
000003c0: 831c b1bd 21c1 dd3d f64f f33d f028 bc3d
000003d0: b150 b93d c473 99bd b7f7 3b3d 6d43 d23c
000003e0: 5f67 06be bcf7 8b3d b355 553d 128b b23d
000003f0: b537 8dbe 94d2 efbd 0a91 80be c8d9 68be

embedding_item_mlp.weight f4 [3706, 8]
-0.656805 -0.6521134 -0.60525995 0.6630102 0.6578484 0.6627231 -0.66327506 0.38347206
-0.19221142 -0.20787881 -0.22651406 0.17322724 0.18728864 0.19323409 -0.17057125 0.25995085
-0.16665597 -0.1574353 -0.16659364 0.16694948 0.1593139 0.16097462 -0.16086745 0.16793473
-0.49863875 -0.51409495 -0.49948132 0.4926801 0.4910189 0.4966748 -0.49560356 0.47062308
-0.46919134 -0.48215932 -0.4870732 0.44739646 0.46236122 0.47507328 -0.45297644 0.49237922
-0.4774569 -0.4746886 -0.48622435 0.47166637 0.48163205 0.48872143 -0.47358137 0.40124553
-0.087597504 -0.08654339 -0.08984946 0.0740626 0.08129561 0.07315311 -0.08619494 0.08767186
-0.20636363 -0.26627696 -0.26994446 0.21781029 0.21961047 0.23807697 -0.21469875 0.33709848
-0.09119725 -0.09506913 -0.10999088 0.09256218 0.093787044 0.08765052 -0.083598614 0.13342454
-0.38175818 -0.34955043 -0.34480995 0.38000098 0.37064958 0.37648088 -0.3737415 0.30189428
-0.17738679 -0.19060946 -0.19454795 0.20145765 0.19446708 0.20218182 -0.19093324 0.19054426
-0.0012275665 -0.023971962 -0.021941261 -0.024244402 -0.011783543 -0.015377585 0.020497361 0.050671257
-0.0018056696 -0.018638512 -0.0058911326 -0.0040736273 0.0039993785 -3.7981317e-05 0.004425127 0.015532056
-0.052601073 -0.069989994 -0.081661515 0.035837512 0.038968816 0.04347962 -0.020902203 0.13790861
-0.34438854 -0.33302408 -0.31862962 0.3475444 0.3367305 0.34392157 -0.34303686 0.29117742
-0.38873625 -0.37212375 -0.3746143 0.36854485 0.3838091 0.36821368 -0.38029245 0.34430164
-0.1276732 -0.18146673 -0.19151022 0.14005545 0.1465116 0.13402385 -0.11883466 0.20863138
-0.078921415 -0.10745781 -0.12753195 0.04062734 0.07456609 0.058479026 -0.042982623 0.16981548
-0.03717658 -0.064429894 -0.08346171 0.027989024 0.04689068 0.011471048 -0.023759268 0.12423506
-0.14209944 -0.12596488 -0.12777103 0.1356499 0.13681749 0.13736242 -0.14818467 0.11052293
-0.19282407 -0.1620955 -0.15289909 0.2115572 0.18717243 0.20499745 -0.2179778 0.114283025
-0.14034973 -0.18509567 -0.20864677 0.123385735 0.14156814 0.14234684 -0.120430835 0.2995849
-0.4304579 -0.42419907 -0.41484278 0.42507657 0.43202442 0.430594 -0.43537402 0.3868556
-0.70720136 -0.68141264 -0.66167945 0.705288 0.7002568 0.72998893 -0.71994704 0.34402674
-0.07301676 -0.09410486 -0.085732475 0.08261983 0.08878364 0.078816816 -0.085735194 0.082061425
-0.031288415 -0.07874198 -0.08380819 0.019076224 0.04109748 0.04579568 -0.013498161 0.13451701
-0.49594483 -0.48171362 -0.4675434 0.4924331 0.48483202 0.4947143 -0.52593064 0.35089618
-0.5488414 -0.52509016 -0.47251728 0.5458657 0.5385953 0.5478531 -0.5511425 0.2726079
0.08364948 0.059811916 0.06787803 -0.08604879 -0.09053553 -0.08875943 0.09572098 -0.050648015
-0.27450737 -0.32482463 -0.33449197 0.29368758 0.3003168 0.30043194 -0.28108433 0.42191303
-0.09026416 -0.09934218 -0.08934858 0.09814533 0.10152218 0.09959973 -0.11462216 0.06434904
-0.18216218 -0.17087615 -0.15544501 0.21006048 0.19440737 0.20251381 -0.20412028 0.1241573
00000000: 5f24 28bf e7f0 26bf 51f2 1abf 09bb 293f
00000010: c168 283f 39a8 293f 65cc 29bf 7356 c43e
00000020: 12d3 44be 2fde 54be 4df3 67be 7b62 313e
00000030: 98c8 3f3e 28df 453e 3baa 2ebe 4718 853e
00000040: dda7 2abe b836 21be 8697 2abe cef4 2a3e
00000050: 2f23 233e 88d6 243e 70ba 24be 15f7 2b3e
00000060: 944d ffbe ba9b 03bf 04bc ffbe 9140 fc3e
00000070: d466 fb3e 294c fe3e c0bf fdbe 82f5 f03e
00000080: d939 f0be 96dd f6be a961 f9be 2611 e53e
00000090: 9cba ec3e ce3c f33e 87ec e7be 2119 fc3e
000000a0: 3b75 f4be 620a f3be 66f2 f8be 417e f13e
000000b0: 7a98 f63e b239 fa3e 4279 f2be 0e70 cd3e
000000c0: 5266 b3bd a93d b1bd fe02 b8bd 22ae 973d
000000d0: 507e a63d 4cd1 953d f986 b0bd 4e8d b33d
000000e0: fd50 53be 7455 88be 2936 8abe a909 5f3e
000000f0: 91e1 603e 73ca 733e fdd9 5bbe 2c98 ac3e
00000100: a0c5 babd 9bb3 c2bd e642 e1bd 3d91 bd3d
00000110: 6c13 c03d 1e82 b33d c035 abbd 71a0 083e
00000120: cf75 c3be 46f8 b2be ee8a b0be 7d8f c23e
00000130: c8c5 bd3e 1ac2 c03e 0c5b bfbe e391 9a3e
00000140: e2a4 35be 202f 43be 9437 47be ea4a 4e3e
00000150: 6122 473e c008 4f3e 0184 43be 091e 433e
00000160: 4ce6 a0ba d960 c4bc 29be b3bc 329c c6bc
00000170: c30f 41bc 44f2 7bbc 15ea a73c aa8c 4f3d
00000180: 38ac ecba cbaf 98bc 670a c1bb 107c 85bb
00000190: 380d 833b 214e 1fb8 a800 913b 2a7a 7e3c
000001a0: 3974 57bd ea56 8fbd 273e a7bd 5bca 123d
000001b0: c49d 1f3d b017 323d 193b abbc ea37 0d3e
000001c0: b253 b0be 2282 aabe 6c23 a3be 57f1 b13e
000001d0: f167 ac3e 7d16 b03e 87a2 afbe 3515 953e
000001e0: 7008 c7be 0187 bebe 72cd bfbe e9b1 bc3e
000001f0: a082 c43e 8186 bc3e b1b5 c2be 4e48 b03e
00000200: c3bc 02be 6ad2 39be 411b 44be b26a 0f3e
00000210: 2307 163e 8c3d 093e 965f f3bd 77a3 553e
00000220: 8da1 a1bd d712 dcbd bc97 02be db68 263d
00000230: 1bb6 983d b487 6f3d 8c0e 30bd 1ce4 2d3e
00000240: 7846 18bd d2f3 83bd f9ed aabd 3d49 e53c
00000250: 7110 403d 10f1 3b3c cca2 c2bc f36e fe3d
00000260: 8482 11be f0fc 00be 69d6 02be cfe7 0a3e
00000270: e219 0c3e bca8 0c3e b9bd 17be d959 e23d
00000280: ac73 45be 5dfc 25be 9491 1cbe 73a2 583e
00000290: 21aa 3f3e daea 513e 9335 5fbe 380d ea3d
000002a0: d7b7 0fbe b889 3dbe 80a7 55be a9b1 fc3d
000002b0: 3df7 103e 5fc3 113e 71a4 f6bd 3163 993e
000002c0: fa64 dcbe 9f30 d9be 4666 d4be a3a3 d93e
000002d0: 4e32 dd3e d176 dc3e 58e9 debe f011 c63e
000002e0: 260b 35bf 0f71 2ebf d363 29bf c18d 343f
000002f0: 0844 333f 8ee0 3a3f 734e 38bf 4624 b03e
00000300: d089 95bd 0dba c0bd 8294 afbd 9634 a93d
00000310: 32d4 b53d b66a a13d ef95 afbd d20f a83d
00000320: 4828 00bd 7a43 a1bd a1a3 abbd be45 9c3c
00000330: d555 283d 4094 3b3d 6427 5dbc d4be 093e
00000340: 7bec fdbe 2ba3 f6be d961 efbe 3120 fc3e
00000350: e73b f83e 314b fd3e 64a3 06bf aaa8 b33e
00000360: df80 0cbf 4f6c 06bf c9ed f1be dbbd 0b3f
00000370: 62e1 093f 1a40 0c3f ad17 0dbf 4393 8b3e
00000380: 6b50 ab3d 57fd 743d a303 8b3d 593a b0bd
00000390: b16a b9bd 81c7 b5bd 5c09 c43d 4b74 4fbd
000003a0: 3b8c 8cbe 6a4f a6be 8842 abbe 385e 963e
000003b0: 20c3 993e 37d2 993e 49ea 8fbe fc04 d83e
000003c0: 6adc b8bd ea73 cbbd 63fc b6bd 6b00 c93d
000003d0: dcea cf3d f1fa cb3d 06bf eabd 6ec9 833d
000003e0: b988 3abe 28fa 2ebe fa2c 1fbe 181a 573e
000003f0: ba12 473e c85f 4f3e e804 51be 2f46 fe3d

embedding_user_mf.weight f4 [6040, 8]
0.04686444 0.19038332 -0.22861034 0.35551417 0.11244686 -0.23985212 -0.010949323 -0.48130706
-0.009649416 -0.16863114 0.017051052 0.62652147 0.119012736 0.08979856 0.30569348 0.15043072
0.27768221 -0.19357802 -0.2528847 0.103823505 -0.1031999 0.38566095 0.29310036 -0.35587245
-0.00853096 -0.066074654 0.060454544 0.50559926 -0.32214478 0.585943 0.36234313 -0.08629382
-0.08179136 -0.36799958 -0.010849686 0.13623665 -0.4883201 -0.39820963 -0.2638031 0.052261703
0.17248556 0.085969485 -0.24620648 0.22326374 0.3581807 -0.032161828 0.20343414 -0.2249792
0.5160882 -0.33242542 0.10215173 0.25855225 -0.26961222 0.34297466 0.15985112 0.053418234
0.18784496 -0.41431144 0.06604244 0.45299327 -0.2621977 -0.4183199 0.07279104 0.012792481
0.113542646 -0.6325605 -0.03983876 0.40565923 -0.20478809 -0.28989428 -0.115088955 -0.18579638
0.11866256 0.11580936 -0.62915814 0.35693 0.18524458 0.28070658 -0.009663495 -0.5118728
0.13267006 -0.41347915 -0.38350558 -0.0592106 -0.2045853 -0.2815601 0.020495364 -0.36679974
-0.20981067 -0.2116188 0.055657208 0.14994353 -0.1753306 0.24163787 0.043069053 -0.18399025
0.33646485 0.048956178 -0.11998919 0.4996044 -0.066962965 0.4091021 0.0066994173 0.03325354
0.051063765 -0.19362167 0.046611097 0.012373038 -0.16958973 0.07431537 0.15134211 -0.40411553
0.469342 -0.58653957 0.15474707 0.10864004 0.11334617 -0.20623323 0.26462072 -0.2859251
0.5107922 0.025935292 0.17085734 -0.16633475 0.34434676 -0.067768894 0.0073447535 0.010711282
-0.019924989 -0.08628125 0.07326979 0.1309746 -0.52594316 0.3345555 -0.2614516 0.18569694
0.4990843 0.13591452 -0.22357833 0.47060826 -0.090800546 0.11166652 -0.09139162 -0.21417144
0.41551062 0.14258152 0.09621506 -0.024434874 -0.1004364 0.41635656 0.14054379 -0.3899709
0.2689315 -0.3486546 -0.051281776 0.16579635 -0.33687535 0.21551257 0.06773637 -0.20477779
0.46419963 0.045078866 -0.16172238 0.047661476 -0.13379498 0.16389376 -0.21380453 -0.27072528
0.59376746 -0.44805875 -0.26048556 -0.1510021 -0.4710767 0.25319055 0.092911474 -0.36220464
-0.06632262 -0.19936219 -0.10976321 0.09970425 -0.73163104 0.43428203 -0.11962639 0.0845604
-0.08374145 -0.2843462 -0.45899072 0.25743756 -0.18804625 -0.1694945 0.2961402 -0.20277844
0.55651826 -0.2516184 -0.05329982 -0.0067158695 -0.091752306 0.28555363 -0.29032227 -0.18917167
0.44937655 -0.2947574 -0.54123676 0.026012592 0.116859086 -0.16976158 0.5584859 -0.16610265
-0.4570425 0.20957196 -0.15495664 0.20704381 -0.10446681 0.28108296 0.05702838 -0.183691
-0.2683258 0.049173735 -0.27163905 0.2521168 -0.18136415 -0.093330115 0.13295111 -0.24896201
0.11076917 -0.060762305 0.25609884 0.42137495 -0.18006119 0.6336993 0.32104602 0.17851673
-0.23232667 -0.22786917 0.059857383 0.10710939 -0.1566144 -0.2650728 -0.12530929 -0.052317202
-0.14669701 0.11195853 -0.5760826 0.02983055 0.26165166 0.28110328 0.2139829 -0.035502672
-0.18925367 -0.19723542 -0.005091195 0.20316036 -0.21250923 -0.19617201 0.011259435 -0.14499286
00000000: edf4 3f3d d8f3 423e d418 6abe f405 b63e
00000010: 8a4a e63d cb9b 75be ca64 33bc e16d f6be
00000020: 9618 1ebc a4ad 2cbe a6ae 8b3c b663 203f
00000030: f3bc f33d 4fe8 b73d db83 9c3e 830a 1a3e
00000040: 5d2c 8e3e 5139 46be 1a7a 81be 6ba1 d43d
00000050: 785a d3bd 5a75 c53e 4011 963e ea34 b6be
00000060: 71c5 0bbc 2652 87bd 2f9f 773d f46e 013f
00000070: 29f0 a4be 5c00 163f 0a85 b93e d0ba b0bd
00000080: 3b82 a7bd 716a bcbe e2c2 31bc 9f81 0b3e
00000090: 1805 fabe 22e2 cbbe 3311 87be 5e10 563d
000000a0: 0ea0 303e c510 b03d 8d1d 7cbe 409f 643e
000000b0: 7663 b73e 1fbc 03bd 0a51 503e f360 66be
000000c0: 5b1e 043f aa33 aabe ed34 d13d f660 843e
000000d0: 9d0a 8abe 609a af3e 03b0 233e 14cd 5a3d
000000e0: 6e5a 403e a120 d4be 4241 873d bcee e73e
000000f0: c73e 86be 072e d6be 7813 953d 8e97 513c
00000100: 0c89 e83d 7cef 21bf f82d 23bd 91b2 cf3e
00000110: f8b3 51be 066d 94be c2b3 ebbd 6841 3ebe
00000120: 5b05 f33d 752d ed3d 8210 21bf 87bf b63e
00000130: c1b0 3d3e c6b8 8f3e a353 1ebc 190a 03bf
00000140: a9da 073e 8ab3 d3be d85a c4be d086 72bd
00000150: cf7e 51be a528 90be e5e5 a73c 2dcd bbbe
00000160: 9cd8 56be 99b2 58be d0f8 633d cc8a 193e
00000170: dd89 33be eb6f 773e 2d69 303d f167 3cbe
00000180: 1f45 ac3e 4686 483d e4bc f5bd 26cc ff3e
00000190: e123 89bd d575 d13e c986 db3b dd34 083d
000001a0: 3d28 513d c244 46be 47eb 3e3d 48b8 4a3c
000001b0: eea8 2dbe a832 983d 6df9 1a3e 3be8 cebe
000001c0: 984d f03e 7527 16bf 0476 1e3e ab7e de3d
000001d0: 0922 e83d ce2e 53be 5e7c 873e c664 92be
000001e0: 47c3 023f 4076 d43c 3af5 2e3e a853 2abe
000001f0: 384e b03e 6bca 8abd 42ac f03b 5f7e 2f3c
00000200: bb39 a3bc 39b4 b0bd 790e 963d 351e 063e
00000210: 36a4 06bf dc4a ab3e fcdc 85be 5727 3e3e
00000220: fa87 ff3e 2d2d 0b3e b8f1 64be 91f3 f03e
00000230: a3f5 b9bd 6bb1 e43d 882b bbbd c24f 5bbe
00000240: cfbd d43e e400 123e 670c c53d a52b c8bc
00000250: 99b1 cdbd b02c d53e b6ea 0f3e 44aa c7be
00000260: 64b1 893e db82 b2be d70c 52bd 85c6 293e
00000270: ed7a acbe 54af 5c3e 5eb9 8a3d 45b1 51be
00000280: 93ab ed3e 9ea4 383d 8d9a 25be ae38 433d
00000290: 8d01 09be c4d3 273e 93ef 5abe 819c 8abe
000002a0: 2501 183f f567 e5be 5d5e 85be 4ba0 1abe
000002b0: f730 f1be 31a2 813e 5f48 be3d e372 b9be
000002c0: 27d4 87bd 9a25 4cbe 89cb e0bd be31 cc3d
000002d0: 2c4c 3bbf 375a de3e aefe f4bd 012e ad3d
000002e0: a380 abbd d395 91be d500 ebbe dbce 833e
000002f0: 328f 40be f78f 2dbe b09f 973e 27a5 4fbe
00000300: fb77 0e3f 20d4 80be e950 5abd cc10 dcbb
00000310: a2e8 bbbd 1634 923e 1fa5 94be 38b6 41be
00000320: af14 e63e 71ea 96be 7e8e 0abf 5c18 d53c
00000330: d153 ef3d fbd5 2dbe eff8 0e3f d016 2abe
00000340: 7901 eabe 089a 563e f4ac 1ebe 4b03 543e
00000350: b2f2 d5bd 1bea 8f3e 9796 693d 7e19 3cbe
00000360: 0062 89be 666a 493d 4614 8bbe 7415 813e
00000370: 86b7 39be dc23 bfbd 5624 083e e6ef 7ebe
00000380: f2da e23d e5e1 78bd 631f 833e 75be d73e
00000390: f661 38be 1e3a 223f 2560 a43e 17cd 363e
000003a0: 0be7 6dbe 8956 69be 042d 753d 2b5c db3d
000003b0: 865f 20be 9fb7 87be 1451 00be 904a 56bd
000003c0: be37 16be 844a e53d 267a 13bf 335f f43c
000003d0: 35f7 853e c5ec 8f3e 551e 5b3e 406b 11bd
000003e0: b7cb 41be 15f8 49be 0ad4 a6bb 4509 503e
000003f0: 059c 59be 51e1 48be 7e79 383c 0279 14be

embedding_item_mf.weight f4 [3706, 8]
0.48726088 0.093693815 -0.1064416 0.09245801 0.09167416 0.15759863 0.29199964 0.5297683
-0.14831777 -0.3784204 0.17187315 -0.0037255518 0.2002073 -0.085915 -0.5586638 0.28762612
0.1197461 -0.7381918 0.27181083 0.49530104 -0.32240263 -0.21595362 0.15192266 0.3581801
0.07599556 0.42231965 -0.31727606 0.01837122 -0.26067743 -0.28634498 -0.0040327045 0.43672425
-0.32568744 0.088908754 0.19733821 0.16571407 -0.033142403 0.025285445 -0.13550512 0.6927108
-0.07822624 0.23609696 0.6202243 0.35273248 0.4201374 0.3320012 0.089342974 0.37533185
0.20353721 -0.15741201 -0.17142309 0.6453076 -0.27948102 0.5720567 0.29021424 0.1794215
0.2158436 0.13025928 0.42428514 -0.078720376 0.35687122 0.18423016 0.26457688 0.67979103
-0.12320836 -0.86330485 0.23365226 0.33477828 0.0303643 -1.1132136e-05 -0.2192182 0.89726996
0.13433695 -0.3519704 0.14518443 0.5959283 0.12593602 0.19725421 0.22443075 1.0444751
-0.37768725 -0.43213552 0.22596194 0.678921 0.027589746 -0.23715182 -0.2728865 0.93757415
0.35242596 -0.89549315 0.12030667 0.19111311 -0.5797745 -0.26149124 -0.14057998 0.08614976
0.21486177 -0.45114386 -0.072636455 0.32680815 -0.40559998 -0.17993402 0.22840306 0.5047329
0.14941563 0.37482452 0.8229776 -0.012307141 0.22152224 0.2030643 0.49744987 0.8108813
0.080012366 -0.39385802 0.20945317 0.10921618 -0.1889661 -0.056503184 0.02654606 0.43685135
0.22103126 0.24263695 0.60711914 -0.21417378 0.19953828 0.30339342 0.34474534 0.37863818
-0.32044324 -0.4414567 0.01746383 0.26526046 -0.15581354 -0.07056262 -0.4075912 0.34256396
-0.13134108 -0.70576286 0.20131847 0.37140197 -0.033340648 -0.0026370606 -0.15420766 0.8870995
0.048004005 0.10762383 0.09433887 0.38351598 0.20152666 -0.56157434 0.28511754 0.30258211
-0.016469942 0.07253004 0.8080204 0.15027568 0.27019516 0.34720913 0.3931522 0.7467442
-0.06750362 0.5032463 0.48927894 0.13933694 -0.046820663 -0.17641594 -0.060390692 0.45821232
0.1743383 -0.07905367 0.12356755 0.17578827 0.13495383 0.024652058 -0.7053578 0.121854685
-0.03187654 0.20408411 0.6957169 0.20190273 0.3580943 0.67797834 0.23170048 0.7882619
0.22852749 0.23279084 -0.19051689 0.6412592 0.2721005 -0.10871894 0.18041484 0.62400866
-0.20659845 0.12754898 0.00028433945 -0.008946595 -0.39343193 -0.41305718 0.22709316 -0.11787718
-0.5555579 -0.63172257 0.12354425 0.25913313 -0.31198815 -0.36864594 -0.37494156 0.35576418
-0.08712921 -0.054827962 0.49563915 0.4526766 0.45014295 0.39036837 0.2136131 0.73049533
-0.27709052 0.18761006 0.14552498 0.38744718 -0.0036944288 -0.33552656 0.314916 0.047186654
0.43678898 -0.09519821 -0.31736866 -0.09682176 -0.23512709 -0.7276057 -0.35702622 -0.33263052
0.1784927 -0.07241913 0.36055693 0.21804939 0.20359401 -0.028490458 -0.8410399 -0.08222781
-0.34357837 -0.17877582 0.17524365 0.3869187 0.10432574 -0.1397649 -0.36130565 0.48322755
0.011181005 0.22273964 -0.22903562 -0.17543125 -0.030774612 -0.5366845 0.077811696 0.081961036
00000000: 427a f93e 8be2 bf3d 0efe d9bd a05a bd3d
00000010: a9bf bb3d 8961 213e fa80 953e e59e 073f
00000020: 9de0 17be 52c0 c1be 84ff 2f3e 6328 74bb
00000030: 2403 4d3e 34f4 afbd 9704 0fbf bb43 933e
00000040: 713d f53d 23fa 3cbf ca2a 8b3e 1998 fd3e
00000050: f511 a5be f222 5dbe 9d91 1b3e 6263 b73e
00000060: 8fa3 9b3d 483a d83e 0272 a2be 3e7f 963c
00000070: 8377 85be cf9b 92be c724 84bb 529a df3e
00000080: 81c0 a6be cb15 b63d 0713 4a3e f3b0 293e
00000090: 54c0 07bd 6c23 cf3c dbc1 0abe 7f55 313f
000000a0: 1435 a0bd 67c3 713e 05c7 1e3f 5a99 b43e
000000b0: 401c d73e 10fc a93e 73f9 b63d 7f2b c03e
000000c0: 0f6c 503e 9d30 21be 8989 2fbe e132 253f
000000d0: 2318 8fbe 4f72 123f f696 943e 45ba 373e
000000e0: 1b06 5d3e b062 053e e73b d93e 2638 a1bd
000000f0: d3b7 b63e d5a6 3c3e 9f76 873e c906 2e3f
00000100: aa54 fcbd 8c01 5dbf 8a42 6f3e 0f68 ab3e
00000110: 8dbe f83c 29c4 3ab7 bc7a 60be 7cb3 653f
00000120: a08f 093e 7735 b4be 3aab 143e c28e 183f
00000130: 5ff5 003e 02fd 493e 2dd1 653e 5cb1 853f
00000140: 3960 c1be de40 ddbe 9162 673e c4cd 2d3f
00000150: e403 e23c edd7 72be c8b7 8bbe dc04 703f
00000160: 2d71 b43e 0a3f 65bf 5863 f63d 28b3 433e
00000170: 1a6c 14bf 2ee2 85be 33f4 0fbe 496f b03d
00000180: b904 5c3e 54fc e6be 6cc2 94bd 6653 a73e
00000190: cdaa cfbe a040 38be 7ee2 693e 2d36 013f
000001a0: 6900 193e 00e9 bf3e a9ae 523f e4a3 49bc
000001b0: bad6 623e 16f0 4f3e c0b1 fe3e eb95 4f3f
000001c0: 86dd a33d c2a7 c9be e47a 563e bcac df3d
000001d0: 5480 41be e26f 67bd 1f77 d93c fbaa df3e
000001e0: 0556 623e d275 783e 296c 1b3f 5f50 5bbe
000001f0: c353 4c3e 6256 9b3e 7682 b03e dddc c13e
00000200: 2311 a4be 9d06 e2be 4e10 8f3c 38d0 873e
00000210: 968d 1fbe 2383 90bd cbaf d0be 8b64 af3e
00000220: 477e 06be e0ac 34bf 6e26 4e3e 6628 be3e
00000230: 3490 08bd 89d2 2cbb 9de8 1dbe f418 633f
00000240: d99f 443d e269 dc3d bd34 c13d 355c c43e
00000250: 015d 4e3e 56c3 0fbf edfa 913e 0bec 9a3e
00000260: f9eb 86bc a18a 943d 6dda 4e3f dee1 193e
00000270: 0557 8a3e 65c5 b13e 3f4b c93e a12a 3f3f
00000280: 573f 8abd c0d4 003f c582 fa3e 58ae 0e3e
00000290: 06c7 3fbd 61a6 34be 3b5c 77bd ce9a ea3e
000002a0: bd85 323e e4e6 a1bd fc10 fd3d d701 343e
000002b0: 5631 0a3e 1df3 c93c 5492 34bf f38e f93d
000002c0: fa90 02bd 6dfb 503e 811a 323f 97bf 4e3e
000002d0: 2358 b73e fd8f 2d3f e442 6d3e 88cb 493f
000002e0: 1c03 6a3e b960 6e3e dc16 43be 9029 243f
000002f0: c250 8b3e 09a8 debd abbe 383e 08bf 1f3f
00000300: 8b8e 53be 339c 023e 6513 9539 bd94 12bc
00000310: e96f c9be 3b7c d3be 1c8b 683e 9769 f1bd
00000320: 0b39 0ebf 92b8 21bf c504 fd3d 19ad 843e
00000330: e9bc 9fbe 29bf bcbe 57f8 bfbe b926 b63e
00000340: cd70 b2bd 4993 60bd 6ac4 fd3e 3ac5 e73e
00000350: 2379 e63e 5dde c73e 64bd 5a3e be01 3b3f
00000360: cfde 8dbe da1c 403e 8004 153e 7a5f c63e
00000370: 3b1e 72bb 23ca abbe ac3c a13e cb46 413d
00000380: cea2 df3e 47f7 c2bd 257e a2be 7d4a c6bd
00000390: 28c5 70be 5e44 3abf 24cc b6be 8c4e aabe
000003a0: cac6 363e 7b50 94bd eb9a b83e 5748 5f3e
000003b0: f37a 503e d264 e9bc 644e 57bf 0e67 a8bd
000003c0: 81e9 afbe 0211 37be 1273 333e 351a c63e
000003d0: bca8 d53d 881e 0fbe 0efd b8be 9a69 f73e
000003e0: 8930 373c dc15 643e 5088 6abe 40a4 33be
000003f0: 0a1b fcbc 2864 09bf bd5b 9f3d 30db a73d

fc_layers.0.weight f4 [64, 16]
-0.487474 0.14052057 0.110971965 0.094329074 -0.17418659 -0.10060831 -0.30633175 -0.37263507
0.11292661 0.07065019 0.052867133 -0.17819883 -0.1321903 -0.18058488 0.19093414 -0.0110308295
-0.49060473 0.12674998 0.09414402 0.13162561 -0.34867042 -0.11200032 -0.34903395 -0.44729152
0.112325 0.22196771 0.25697905 -0.0858027 -0.1238417 -0.140493 0.061088964 -0.4592425
0.15692614 0.2516021 0.1962646 -0.0020148277 0.32351407 0.0073585203 0.19097345 0.19280636
0.073287174 0.0106142415 -0.00785283 -0.10266727 -0.06355269 -0.07024566 0.118553184 0.038795054
0.25270873 0.13724245 0.124359 0.06668844 -1.05168 -0.15000504 -0.23330416 -0.15846607
0.16878903 0.30165192 0.36308417 0.02799218 -0.13080114 -0.029969621 -0.021390734 -0.633477
0.12716086 0.25428462 0.20851766 0.018762661 0.31727996 -0.0058631687 0.15844347 0.19226848
0.07775304 0.024470191 0.0022015611 -0.10462679 -0.072376594 -0.09056509 0.11643676 0.033737715
0.047877032 0.13010429 0.116134875 0.08864586 -0.8204064 -0.12268146 -0.27639547 -0.27830043
0.08836278 0.26950848 0.33347458 0.062421188 -0.07474241 -0.02719109 -0.104588024 -0.66137934
-2.5435824e-36 3.170114e-35 2.9335288e-35 2.3499639e-35 5.1656606e-35 -1.9842739e-35 3.129918e-35 2.7791376e-35
9.346007e-35 1.004916e-34 9.999164e-35 -8.8646727e-35 -9.440239e-35 -9.253608e-35 9.2304896e-35 -1.0456464e-34
3.3234336e-27 1.4434487e-27 1.6871372e-27 1.2667498e-27 2.203951e-28 -1.1240696e-27 1.7127047e-27 2.0415734e-27
2.7631881e-27 2.7175363e-27 3.1064287e-27 -2.3835633e-27 -2.7262253e-27 -2.6823016e-27 2.5000125e-27 -2.4794923e-27
6.8899446e-38 2.9366454e-37 3.1517933e-37 1.6252035e-37 -2.216261e-37 4.7878714e-38 -1.4019182e-37 -1.3133117e-37
-6.074281e-39 -4.747339e-38 -1.4115952e-38 4.768114e-38 3.1388548e-38 2.8188237e-38 1.4520468e-38 3.1292497e-38
-0.119573206 0.11040966 0.08803329 0.1034088 -0.7582829 -0.12294769 -0.3277541 -0.35786274
0.09382325 0.2738926 0.3132183 0.02640759 -0.09477931 -0.056157127 -0.06643617 -0.6432762
0.1472306 -0.015693516 -0.02441601 -0.052258924 -1.1323866 -0.05999652 -0.3342588 -0.23977536
0.13223337 0.27569884 0.34460196 0.07579468 -0.08501426 0.011294643 -0.05996932 -0.6245722
-0.1307986 0.31769693 0.2871388 0.13803758 0.2788244 -0.1225845 0.045354947 0.03563252
0.11217723 0.06732699 0.03794529 -0.14830637 -0.102286756 -0.11947608 0.1539182 0.003566308
-0.3993295 0.25402695 0.20436664 0.16874804 -0.042624515 -0.14400592 -0.2338799 -0.2638867
0.12290804 0.062836155 0.0444729 -0.20206374 -0.14157893 -0.18285076 0.2121512 0.07405307
-1.13506e-33 1.8457307e-33 1.7769278e-33 1.7435816e-33 -3.7485282e-34 -1.739834e-33 -7.806219e-34 -8.0719085e-34
-1.1650338e-34 -4.43715e-35 1.0093867e-35 1.1536071e-34 1.7394801e-34 1.2268822e-34 -1.2652706e-34 -2.229315e-34
-0.3849844 -0.017708817 -0.023771077 0.018195242 -0.6826843 -0.060157686 -0.39618355 -0.47526428
0.09531709 0.2581765 0.29266304 -0.03345039 -0.110972025 -0.09715128 -0.0010822474 -0.5863461
-0.058752798 0.1395912 0.12774992 0.11700114 -0.76909584 -0.14904033 -0.32228896 -0.32254627
0.09176919 0.28904715 0.31367415 0.027255103 -0.091060154 -0.04806746 -0.060155984 -0.65825325
00000000: 3196 f9be a0e4 0f3e 4545 e33d 9a2f c13d
00000010: f85d 32be bb0b cebd 84d7 9cbe 06ca bebe
00000020: 1146 e73d 0cb1 903d 358b 583d c179 36be
00000030: e55c 07be 3eeb 38be 3d84 433e a7ba 34bc
00000040: 8b30 fbbe bfca 013e 94ce c03d ddc8 063e
00000050: ee84 b2be 6c60 e5bd 94b4 b2be 6503 e5be
00000060: a60a e63d 814b 633e c292 833e 53b9 afbd
00000070: b8a0 fdbd 66dd 0fbe 6c38 7a3d d521 ebbe
00000080: 3fb1 203e fed1 803e 96f9 483e 330b 04bb
00000090: a3a3 a53e be1f f13b 8b8e 433e 086f 453e
000000a0: 9617 963d 5be7 2d3c 28a9 00bc 3843 d2bd
000000b0: ea27 82bd f5dc 8fbd 03cc f23d 90e7 1e3d
000000c0: 0a63 813e 4989 0c3e eeaf fe3d f393 883d
000000d0: 739d 86bf ec9a 19be 49e7 6ebe ee44 22be
000000e0: 08d7 2c3e 1f72 9a3e 2be6 b93e db4f e53c
000000f0: bcf0 05be da82 f5bc 9f3b afbc 8c2b 22bf
00000100: 7536 023e 9831 823e a785 553e 27b4 993c
00000110: 8572 a23e d31f c0bb 013f 223e 07e2 443e
00000120: fc3c 9f3d b675 c83c 1148 103b 9246 d6bd
00000130: 2e3a 94bd 317a b9bd 6576 ee3d 8f30 0a3d
00000140: b51a 443d 0f3a 053e 1fd8 ed3d f68b b53d
00000150: 2706 52bf 6b40 fbbd b583 8dbe 657d 8ebe
00000160: 8cf7 b43d 04fd 893e 2ebd aa3e 5cad 7f3d
00000170: 8c12 99bd d9bf debc 3f32 d6bd 2850 29bf
00000180: 5262 5884 5b8d 2806 20f9 1b06 1ae4 f905
00000190: aa53 8906 1301 d385 3c6a 2606 a9c3 1306
000001a0: a175 f806 8593 0507 64e9 0407 d6a9 eb86
000001b0: f0f6 fa86 cb00 f686 7563 f506 81fd 0a87
000001c0: 9fa7 8313 3cb9 e412 35ab 0513 7ab9 c812
000001d0: 26b1 8b11 ae1d b292 c7b1 0713 07c0 2113
000001e0: 1dec 5a13 2f4e 5713 dc1d 7613 68d8 3c93
000001f0: 6bfe 5793 8a83 5493 4712 4613 1472 4493
00000200: e88f bb01 94db c702 fc7f d602 1436 5d02
00000210: b6d4 9682 9856 8201 b8d1 3e82 3cc2 3282
00000220: a024 4280 203c 8181 88b5 9980 e8cc 8101
00000230: 40e5 2a01 ab78 1901 281d 9e00 605f 2a01
00000240: cce2 f4bd 761e e23d cc4a b43d fec7 d33d
00000250: d41e 42bf 00cc fbbd 63cf a7be c939 b7be
00000260: 6726 c03d a73b 8c3e 265e a03e bb54 d83c
00000270: a81b c2bd 0405 66bd b00f 88bd c0ad 24bf
00000280: 9ec3 163e b08f 80bc 1604 c8bc 740d 56bd
00000290: 0bf2 90bf e9be 75bd f823 abbe ac87 75be
000002a0: 2f68 073e 6628 8d3e ab6f b03e 3e3a 9b3d
000002b0: f51b aebd 2b0d 393c 64a2 75bd f7e3 1fbf
000002c0: 11f0 05be 2ca9 a23e db03 933e b959 0d3e
000002d0: 12c2 8e3e 950d fbbd 1cc6 393d 68f3 113d
000002e0: 2dbd e53d bce2 893d 856c 1b3d a0dd 17be
000002f0: b87b d1bd e0af f4bd bc9c 1d3e b8b8 693b
00000300: eb74 ccbe d20f 823e 7d45 513e 49cc 2c3e
00000310: 0b97 2ebd 4a76 13be 367e 6fbe 281c 87be
00000320: 36b7 fb3d 3eb0 803d 3729 363d cce9 4ebe
00000330: 11fa 10be 3b3d 3bbe 2a3e 593e 23a9 973d
00000340: 1d98 bc88 5a56 1909 139f 1309 e1d9 1009
00000350: e721 f987 2d8a 1089 fcb3 8188 1a1e 8688
00000360: 0cdc 1a87 5beb 6b86 3dac 5605 3757 1907
00000370: 7137 6707 a314 2307 ed2e 2887 d429 9487
00000380: ad1c c5be 1512 91bc 90bb c2bc 300e 953c
00000390: 66c4 2ebf e867 76bd 92d8 cabe d755 f3be
000003a0: 9b35 c33d b62f 843e eed7 953e 4703 09bd
000003b0: 4d45 e3bd 40f7 c6bd 32da 8dba c71a 16bf
000003c0: c6a6 70bd fff0 0e3e e0d0 023e 4b9e ef3d
000003d0: 77e3 44bf 079e 18be 0f03 a5be c924 a5be
000003e0: 7cf1 bb3d fdfd 933e e699 a03e 1846 df3c
000003f0: bf7d babd 63e2 44bd 1f66 76bd 4983 28bf

fc_layers.0.bias f4 [64]
0.2791696 0.13912189 0.37527886 -0.2746296 0.37341192 -0.11412675 -6.132904e-34 -2.3859392e-26
-2.6169111e-36 -0.036278613 -0.34423512 0.3284206 0.30546063 -5.8316525e-33 0.048017126 -0.0497875
-7.048294e-33 0.26329735 -2.3799309e-21 -1.5192546e-25 -2.5982256e-35 -2.732637e-36 0.2939399 0.36922172
-4.2768727e-33 0.37722877 0.29058716 0.37876433 -1.9099288e-29 -1.0482997e-35 0.3727795 -0.16776149
-7.1069486e-14 0.37190282 -7.726825e-35 0.37990078 0.13765864 -1.7328762e-37 -1.35140075e-14 -4.161057e-16
-2.6041355e-30 0.37205875 -8.0683986e-35 0.37591007 0.3731528 0.37418818 -9.84056e-31 -6.978551e-35
-1.5802553e-33 -2.0475853e-16 -2.7048863e-33 -8.9189585e-37 -1.9831965e-36 -1.4168022e-35 -9.3172364e-33 -7.0548216e-37
0.32185856 -3.4559603e-37 -2.1059122e-36 -1.14413075e-27 -1.5555903e-36 0.36622405 -9.862433e-20 0.36417532
00000000: 51ef 8e3e f875 0e3e 8d24 c03e 409c 8cbe
00000010: d92f bf3e 49bb e9bd facc 4b88 bf4a ec94
00000020: 479f 5e84 e298 14bd 963f b0be bf26 a83e
00000030: 5665 9c3e c43c f289 9bad 443d faed 4bbd
00000040: 2963 128a e9ce 863e 8fd2 339d 1a13 3c96
00000050: 3725 0a86 9077 6884 4a7f 963e a10a bd3e
00000060: 83a7 b189 2124 c13e d7c7 943e 66ed c13e
00000070: 96b0 c18f ddf2 5e85 f4dc be3e abc9 2bbe
00000080: c508 a0a9 0c6a be3e 0c6a cd86 5b82 c23e
00000090: 63f6 0c3e ecdd 6b82 5c72 73a8 5dde efa5
000000a0: c745 538e 7c7e be3e ad7e d686 4977 c03e
000000b0: e20d bf3e 9895 bf3e 16ac 9f8d 8f85 b986
000000c0: 5048 0389 0d12 6ca5 92b6 6089 8bbf 9783
000000d0: 32b6 2884 06a9 9685 ed82 418a 2a10 7083
000000e0: a5ca a43e 5233 eb82 b526 3384 754b b592
000000f0: c255 0484 b881 bb3e c0de e89f 3075 ba3e

fc_layers.1.weight f4 [32, 64]
0.20202897 0.22508207 0.1913225 0.5076297 0.16811743 0.26244795 -6.1193844e-34 -1.1664425e-26
-1.2754187e-38 0.23917307 0.71974623 0.20503674 0.19613066 -3.2410925e-34 0.2522334 0.25217828
-1.4401884e-33 0.21835253 3.9300615e-21 -2.420076e-26 -4.9273593e-36 -5.2477995e-37 0.19331035 0.20911571
-4.8424442e-33 0.17279224 0.20826218 0.18216115 -1.10259805e-29 1.4246168e-36 0.19477752 0.4097377
1.10802386e-13 0.19648497 -4.5807757e-36 0.17180468 0.20732322 -2.1635959e-38 -6.606904e-15 2.0462175e-16
-1.3846914e-30 0.18101922 1.660594e-35 0.17539112 0.16428947 0.16977751 1.4301372e-31 2.0232061e-36
-6.204863e-34 3.4863274e-17 4.225093e-35 2.5741714e-37 4.993603e-37 -4.854676e-36 -9.095811e-33 7.927936e-37
0.21718504 3.9435218e-38 1.5574251e-37 3.747903e-28 -5.928686e-37 0.18379354 5.921261e-21 0.19036068
0.22131346 0.24385904 0.20413572 0.5135449 0.18369663 0.27967757 -5.776294e-34 -1.1165107e-26
-1.2697827e-38 0.27436122 0.719233 0.21213719 0.22587007 -3.3048542e-34 0.24304923 0.2594491
-1.2846053e-33 0.24492386 3.7661093e-21 -2.5194318e-26 -5.432385e-36 -5.2394886e-37 0.19863746 0.20686607
-5.139988e-33 0.20237134 0.23287608 0.19603346 -1.0882367e-29 1.2995056e-36 0.19930908 0.4195943
1.09784537e-13 0.20542546 -4.4622394e-36 0.1828706 0.23719947 -2.638477e-38 -7.001564e-15 1.9793735e-16
-1.3742793e-30 0.19895104 1.8952487e-35 0.2093476 0.16709082 0.18451956 1.3491033e-31 2.074243e-36
-5.9646337e-34 3.3038904e-17 3.5877982e-35 2.5431437e-37 5.106632e-37 -5.0012987e-36 -9.073244e-33 7.2553665e-37
0.22593696 7.101063e-38 1.4496749e-37 3.8915528e-28 -5.644707e-37 0.21848387 6.0341683e-21 0.20848024
-1.8684235e-33 -1.8695018e-33 -7.872303e-33 -7.4398833e-34 -8.0236394e-33 -8.990306e-34 -4.916519e-38 4.9093516e-38
-4.9168054e-38 -9.556489e-34 -1.9323258e-34 -7.644129e-33 -3.8990237e-33 -4.912696e-38 -1.3392089e-33 -1.0899407e-33
4.9053714e-38 -1.0000447e-33 -4.9049325e-38 4.908086e-38 4.9149647e-38 -4.911121e-38 -4.982364e-33 -7.7774696e-33
4.90509e-38 -7.922264e-33 -1.2172925e-33 -7.970958e-33 -4.916541e-38 4.911114e-38 -7.862447e-33 -7.8335375e-34
4.908627e-38 -7.791494e-33 -4.9160313e-38 -8.094592e-33 -1.41189e-33 4.907878e-38 -4.91564e-38 -4.905033e-38
-4.9133795e-38 -7.8420615e-33 4.9047206e-38 -7.897014e-33 -8.62036e-33 -7.906741e-33 4.9067447e-38 -4.9157673e-38
4.9170616e-38 -4.917636e-38 -4.908857e-38 4.9089806e-38 -4.9052307e-38 4.9098763e-38 4.909006e-38 -4.913587e-38
-7.789359e-33 -4.9167124e-38 -4.911742e-38 4.906054e-38 4.905191e-38 -7.718808e-33 -4.9158195e-38 -7.59842e-33
-4.915833e-38 -4.9067817e-38 -5.125867e-38 -4.904639e-38 -4.948649e-38 -4.9071987e-38 4.912207e-38 4.906161e-38
4.90938e-38 -4.91568e-38 -4.9139496e-38 -4.907656e-38 -4.9181036e-38 4.9097636e-38 -4.908545e-38 -4.9057464e-38
-4.916358e-38 -4.912684e-38 4.915695e-38 4.917736e-38 -4.908687e-38 -4.906501e-38 -5.552855e-38 -5.1166396e-38
-4.915778e-38 -4.9900244e-38 -4.913126e-38 -5.055794e-38 4.907665e-38 4.904718e-38 -5.124311e-38 -4.9176725e-38
4.909142e-38 -5.1278555e-38 4.9072435e-38 -4.9601336e-38 -4.9083797e-38 4.9054644e-38 -4.9132966e-38 -4.9160504e-38
-4.9170257e-38 -5.048747e-38 4.916854e-38 -4.991354e-38 -4.9154843e-38 -4.9991855e-38 -4.905337e-38 4.915103e-38
4.914785e-38 4.9146216e-38 -4.912598e-38 -4.9145146e-38 4.910059e-38 4.9133386e-38 -4.9130096e-38 4.9146693e-38
-4.916426e-38 -4.917409e-38 -4.9056926e-38 4.91675e-38 -4.9148576e-38 -5.1172814e-38 -4.9073674e-38 -5.206685e-38
00000000: afe0 4e3e ea7b 663e 0cea 433e 05f4 013f
00000010: fa26 2c3e 945f 863e f759 4b88 a909 6794
00000020: 7ce1 8a80 c9e9 743e 4a41 383f 27f5 513e
00000030: 7ad6 483e 5568 d787 bc24 813e 831d 813e
00000040: d74a ef88 ce97 5f3e 3979 941d 37ac ef94
00000050: 3196 d184 c892 3283 26f3 453e 6e22 563e
00000060: b325 c989 73f0 303e ae42 553e 7488 3a3e
00000070: 2aa2 5f8f d062 f203 c273 473e 24c9 d13e
00000080: 3a81 f929 5b33 493e 3bd8 c284 91ed 2f3e
00000090: 8a4c 543e 4098 eb80 ef09 eea7 aee9 6b25
000000a0: d5ad e08d 1a5d 393e ab95 b005 bb99 333e
000000b0: 803b 283e 28da 2d3e 76a4 390c 871d 2c04
000000c0: 2331 4e88 4ac7 2024 fca4 6006 6430 af02
000000d0: 6bec 2903 be7e ce84 a0e9 3c8a 08e3 8603
000000e0: c165 5e3e acb4 5601 58fc 5302 348d ed11
000000f0: 24be 4983 6034 3c3e ecb2 df1d e9ed 423e
00000100: ff9f 623e 2fb6 793e f408 513e ae77 033f
00000110: f81a 3c3e e631 8f3e 46f3 3f88 d225 5d94
00000120: 6044 8a80 1379 8c3e a71f 383f 7e3a 593e
00000130: 7c4a 673e 2ea5 db87 e6e1 783e 83d6 843e
00000140: 1171 d588 52cd 7a3e 9347 8e1d 2f83 f994
00000150: 6f11 e784 624a 3283 9e67 4b3e b3d4 533e
00000160: ba81 d589 6f3a 4f3e 1177 6e3e ffbc 483e
00000170: 7bb8 5c8f 7419 dd03 ae17 4c3e 10d5 d63e
00000180: 7a36 f729 0d5b 523e 7ccd bd84 6e42 3b3e
00000190: 6be4 723e 01a7 0f81 0842 fca7 cb34 6425
000001a0: 54fd de8d d2b9 4b3e 9489 c905 385f 563e
000001b0: db19 2b3e b2f2 3c3e a61f 2f0c 0375 3004
000001c0: 7e35 4688 745d 1824 94c2 3e06 d013 ad02
000001d0: 0ac5 2d03 52bb d484 a471 3c8a 28e3 7603
000001e0: 055c 673e 304f c101 cc51 4502 0ea8 f611
000001f0: 5514 4083 3cba 5f3e e5f6 e31d d87b 553e
00000200: f938 1b89 e84f 1b89 5880 238a 873b 7788
00000210: fca4 268a 8860 9588 23d7 8581 30a5 8501
00000220: 22d9 8581 cfc8 9e88 d26c 8087 29c3 1e8a
00000230: 88f5 a189 7fbc 8581 a683 de88 f318 b588
00000240: 7389 8501 3229 a688 6486 8581 5e9c 8501
00000250: 4ecc 8501 85b1 8581 95f5 ce89 1f88 218a
00000260: 7d87 8501 fb89 248a e641 ca88 e28c 258a
00000270: 4ad7 8581 78b1 8501 f04b 238a 2f28 8288
00000280: 23a0 8501 b0d2 218a bdd3 8581 3c1e 288a
00000290: 2997 ea88 eb9a 8501 03d1 8581 1787 8581
000002a0: 42c1 8581 8ddf 228a ea84 8501 ba03 248a
000002b0: b209 338a 7237 248a 0593 8501 e6d1 8581
000002c0: ebda 8501 ecde 8581 bea1 8581 9aa2 8501
000002d0: 7888 8581 d8a8 8501 c7a2 8501 b4c2 8581
000002e0: 56c7 218a 7cd8 8581 d9b5 8581 358e 8501
000002f0: 3188 8501 3950 208a 43d2 8581 21d0 1d8a
00000300: 5bd2 8581 4793 8581 148a 8b81 5884 8581
00000310: 0db7 8681 2f96 8581 16b9 8501 f48e 8501
00000320: 63a5 8501 4ad1 8581 3bc5 8581 5f99 8581
00000330: 2ee2 8581 0fa8 8501 919f 8581 108c 8581
00000340: 04d6 8581 69bc 8581 65d1 8501 9edf 8501
00000350: 8ea0 8581 5291 8581 c029 9781 c649 8b81
00000360: f9d1 8581 65d7 8781 7ebf 8581 bea1 8981
00000370: 6f99 8501 e584 8501 3c7f 8b81 2ddf 8581
00000380: baa3 8501 f097 8b81 7f96 8501 1607 8781
00000390: 6a9e 8581 198a 8501 aec0 8581 dfd3 8581
000003a0: abda 8581 a270 8981 79d9 8501 a9e0 8781
000003b0: edcf 8581 3d17 8881 3689 8581 45cd 8501
000003c0: 0dcb 8501 eac9 8501 d0bb 8581 2bc9 8581
000003d0: 1eaa 8501 f9c0 8501 aebe 8581 3fca 8501
000003e0: 7dd6 8581 57dd 8581 b08b 8581 bfd8 8501
000003f0: 8fcb 8581 3f4e 8b81 5c97 8581 4cbd 8d81

fc_layers.1.bias f4 [32]
0.004929945 0.05112986 -6.9214996e-33 -4.908414e-38 0.0026167105 -4.917605e-38 -4.909247e-38 -4.914034e-38
0.07775106 -4.9093505e-38 -2.63499e-37 -3.7422862e-37 -4.9095125e-38 -4.905228e-38 -4.90809e-38 -4.91447e-38
0.0032981266 -4.912949e-38 0.026727341 -4.984355e-38 -4.9101274e-38 -4.914336e-38 -1.5237498e-33 -6.460494e-36
-4.91002e-38 -1.56985e-36 0.29213578 -6.2985406e-38 -6.0274293e-25 0.05939771 -1.3645809e-37 -1.9636401e-38
00000000: 608b a13b 8b6d 513d 01c1 0f8a a79e 8581
00000010: 1e7d 2b3b b4de 8581 75a4 8581 d2c5 8581
00000020: f33b 9f3d 2ea5 8581 0054 b382 d2af fe82
00000030: 4fa6 8581 7388 8581 659c 8581 dbc8 8581
00000040: 6225 583b 42be 8581 4cf3 da3c e2af 8781
00000050: 98aa 8581 ecc7 8581 262d fd88 4666 0985
00000060: d8a9 8581 4e8c 0584 d292 953e 6c76 ab81
00000070: 378a 3a97 034b 733d b4bc 3982 4cd2 d580

fc_layers.2.weight f4 [16, 32]
0.19485027 0.20736356 -1.2921976e-32 4.9085036e-38 0.22811483 4.912291e-38 -4.910471e-38 4.911746e-38
0.18781283 -4.9143453e-38 4.850544e-39 -2.463153e-38 4.5992505e-38 4.9133784e-38 4.9152186e-38 4.914313e-38
0.19834472 4.9084716e-38 0.21091202 4.908884e-38 4.9073007e-38 -4.915034e-38 -2.926849e-33 -4.0863693e-37
-4.90946e-38 -9.438844e-38 -0.441305 4.905664e-38 1.1620571e-23 0.19578719 7.206632e-38 -8.46196e-39
-4.915012e-38 -4.9136553e-38 -4.9169747e-38 4.9046623e-38 -4.90608e-38 -4.9101207e-38 4.905643e-38 4.910224e-38
-4.9104867e-38 -4.90765e-38 -4.911433e-38 -4.912089e-38 4.905249e-38 -4.909239e-38 4.9127714e-38 -4.907465e-38
-4.916116e-38 -4.915447e-38 -4.911977e-38 -4.910175e-38 4.9150476e-38 -4.9184377e-38 4.9093236e-38 -4.9142915e-38
4.9156625e-38 -4.904937e-38 -4.9071454e-38 4.909682e-38 4.914324e-38 -4.91104e-38 -4.9151833e-38 4.916101e-38
0.20797044 0.20960347 -1.2890113e-32 4.9090596e-38 0.21438828 4.9071275e-38 -4.9124356e-38 4.910718e-38
0.19984645 -4.9174814e-38 -4.729012e-39 -2.4726567e-38 4.5980874e-38 4.9118375e-38 4.910791e-38 4.9050284e-38
0.19698133 4.9134815e-38 0.20210318 4.910616e-38 4.913499e-38 9.77758e-39 -2.9176593e-33 -4.052446e-37
-4.9063736e-38 -9.306106e-38 -0.36174014 4.914244e-38 1.15670296e-23 0.21359956 7.164723e-38 -8.45349e-39
-4.912572e-38 -5.488583e-38 -4.904641e-38 4.9091016e-38 -4.9102793e-38 4.911494e-38 4.904551e-38 4.905195e-38
-5.978062e-38 -4.918276e-38 4.909484e-38 4.917286e-38 -4.9127506e-38 -4.911947e-38 4.9132316e-38 -4.908115e-38
-4.909076e-38 4.9145213e-38 -5.088833e-38 -4.908954e-38 4.915518e-38 -4.906246e-38 -4.910387e-38 4.91215e-38
4.9130735e-38 -4.9130584e-38 -4.9146794e-38 -4.915416e-38 -4.9050373e-38 -5.3507915e-38 -4.908034e-38 -4.9131766e-38
-8.650536e-37 -9.6015715e-37 4.914853e-38 4.917558e-38 -9.631173e-37 4.914065e-38 4.913943e-38 -4.9111857e-38
-9.71148e-37 4.907714e-38 4.9174674e-38 -4.9141575e-38 -4.9085417e-38 -4.910489e-38 -4.915297e-38 4.906937e-38
-7.967986e-37 4.918459e-38 -9.5006655e-37 -4.9178295e-38 -4.916667e-38 -4.9126783e-38 4.915502e-38 -4.914644e-38
-4.91226e-38 4.9164327e-38 2.3308136e-38 4.9124726e-38 4.917527e-38 -9.334935e-37 -4.9118807e-38 4.913859e-38
0.18731104 0.1915887 -1.3250305e-32 4.917411e-38 0.19568583 4.907219e-38 -4.9175425e-38 4.913867e-38
0.17423476 -4.916058e-38 9.77355e-40 -2.7652394e-38 -4.9085826e-38 4.910827e-38 4.9071757e-38 4.9116615e-38
0.18883176 4.9183637e-38 0.17341535 4.911106e-38 4.909146e-38 -4.906725e-38 -2.9978542e-33 -4.185301e-37
-4.9066533e-38 -9.0685557e-38 -0.37410522 4.9174926e-38 1.1910854e-23 0.19896506 7.3434514e-38 -9.919605e-39
0.21834809 0.2178377 -1.4112973e-32 4.9088993e-38 0.24249062 4.913776e-38 -4.9117075e-38 4.9099974e-38
0.20873494 -4.907889e-38 2.648521e-39 -2.7475466e-38 4.604507e-38 4.9064835e-38 4.90936e-38 4.913547e-38
0.20808399 4.9178205e-38 0.22043529 4.9185486e-38 4.906924e-38 -4.9182745e-38 -3.193027e-33 -4.4587577e-37
-4.9119894e-38 -9.418284e-38 -0.350259 4.906242e-38 1.2694692e-23 0.21526681 8.267398e-38 -1.3665104e-38
0.17546076 0.18059179 -1.2407914e-32 4.908286e-38 0.1697927 4.907542e-38 4.9141306e-38 4.904607e-38
0.1699768 -4.9153503e-38 -1.453561e-39 -2.2731073e-38 4.6077443e-38 4.9169114e-38 4.911555e-38 4.911168e-38
0.19015044 4.905028e-38 0.1715519 4.915153e-38 4.9078713e-38 9.923756e-39 -2.805142e-33 -3.9168575e-37
4.906773e-38 -8.5268137e-38 -0.2968702 4.90895e-38 1.11111035e-23 0.17870852 6.6846847e-38 -6.031374e-39
00000000: d486 473e 1d57 543e 8130 868a 479f 8501
00000010: ef96 693e acb9 8501 fdac 8581 e0b5 8501
00000020: 0252 403e fdc7 8581 58d1 3400 581b 0681
00000030: 3268 7a01 40c1 8501 13ce 8501 c3c7 8501
00000040: e11a 4b3e 0e9f 8501 52f9 573e eea1 8501
00000050: e596 8501 cacc 8581 3227 7389 4c0d 0b83
00000060: f1a5 8581 9279 0082 bbf2 e1be 7d8b 8501
00000070: 48c6 6019 707c 483e e52e c401 8024 5c80
00000080: a2cc 8581 2ec3 8581 50da 8581 8284 8501
00000090: 638e 8581 8caa 8581 588b 8501 44ab 8501
000000a0: 19ad 8581 5499 8581 b1b3 8581 44b8 8581
000000b0: 9988 8501 67a4 8581 05bd 8501 0a98 8581
000000c0: 54d4 8581 aacf 8581 7cb7 8581 edaa 8581
000000d0: e2cc 8501 82e4 8581 fea4 8501 9dc7 8581
000000e0: 2bd1 8501 6c86 8581 d095 8581 7da7 8501
000000f0: d7c7 8501 f4b0 8581 d4cd 8581 39d4 8501
00000100: 34f6 543e 4ba2 563e ccdb 858a 27a3 8501
00000110: 9a88 5b3e b095 8501 aeba 8581 b6ae 8501
00000120: 8ca4 4c3e d8dd 8581 907e 3380 ce9f 0681
00000130: fc57 7a01 83b6 8501 38af 8501 0f87 8501
00000140: 79b5 493e f8c1 8501 23f4 4e3e 00ae 8501
00000150: 17c2 8501 ea77 6a00 c063 7289 c9e5 0983
00000160: 6f90 8581 1856 fd81 0136 b9be 48c7 8501
00000170: 28bd 5f19 d8b9 5a3e d50a c301 e40c 5c80
00000180: a1bb 8581 d769 9581 5c84 8581 72a3 8501
00000190: a7ab 8581 1eb4 8501 bb83 8501 3888 8501
000001a0: 03bd a281 62e3 8581 1ca6 8501 7bdc 8501
000001b0: e0bc 8581 46b7 8581 3ac0 8501 929c 8581
000001c0: 44a3 8581 37c9 8501 fd87 8a81 6ba2 8581
000001d0: 29d0 8501 8b8f 8581 67ac 8581 b0b8 8501
000001e0: 20bf 8501 05bf 8581 51ca 8581 73cf 8581
000001f0: 1f87 8581 93a9 9181 019c 8581 d8bf 8581
00000200: 662e 9383 be5c a383 87cb 8501 61de 8501
00000210: addd a383 09c6 8501 2fc5 8501 f8b1 8581
00000220: 763b a583 c699 8501 bfdd 8501 aec6 8581
00000230: 8b9f 8581 1dad 8581 9fce 8581 5c94 8501
00000240: 7991 8783 a8e4 8501 3ca5 a183 45e0 8581
00000250: 2bd8 8581 5fbc 8581 0dd0 8501 12ca 8581
00000260: 75b9 8581 89d6 8501 9acd fd00 f0ba 8501
00000270: 29de 8501 60d3 9e83 d0b6 8581 99c4 8501
00000280: 77ce 3f3e d42f 443e 5a99 898a 5add 8501
00000290: de61 483e 5396 8501 45de 8581 a8c4 8501
000002a0: 996a 323e edd3 8581 78a4 0a00 d08d 1681
000002b0: d49f 8581 78af 8501 0696 8501 49b5 8501
000002c0: 1d5d 413e fee3 8501 cb93 313e 6ab1 8501
000002d0: c1a3 8501 e292 8581 4f0d 7989 1d6b 0e83
000002e0: 6292 8581 9cde f681 b88a bfbe ecdd 8501
000002f0: b163 6619 7fbd 4b3e 63e8 c701 d303 6c80
00000300: a496 5f3e d910 5f3e b88e 928a 09a2 8501
00000310: 764f 783e 05c4 8501 9bb5 8581 b0a9 8501
00000320: 9dbe 553e ff9a 8581 00d7 1c00 3697 1581
00000330: 76b1 7a01 3391 8501 3fa5 8501 6dc2 8501
00000340: f813 553e 35e0 8501 cab9 613e 48e5 8501
00000350: 4594 8501 5fe3 8581 16a2 8489 42b9 1783
00000360: 92b7 8581 ee31 0082 2655 b3be 848f 8501
00000370: 128d 7519 e76e 5c3e 5b0f e101 c0cc 9480
00000380: fcab 333e 0eed 383e e5d9 808a c39d 8501
00000390: 23de 2d3e 9398 8501 7ec6 8501 1f84 8501
000003a0: 660e 2e3e fece 8581 f0d3 0f80 fc84 f780
000003b0: 95de 7a01 dfd9 8501 8bb4 8501 d8b1 8501
000003c0: ccb6 423e 0e87 8501 4dab 2f3e 9ecd 8501
000003d0: df9a 8501 650f 6c00 c60a 6989 a448 0583
000003e0: 3893 8501 381f e881 5fff 97be 63a2 8501
000003f0: 85eb 5619 5eff 363e 74f9 b501 04ad 4180

fc_layers.2.bias f4 [16]
0.14411141 4.9165846e-38 0.11424201 4.9167757e-38 -5.1606042e-37 0.12378692 0.11234734 0.09569919
-4.9079515e-38 0.5594278 0.12424662 -5.414468e-38 0.1384936 -4.90611e-38 0.14776753 4.912488e-38
00000000: f191 133e 98d7 8501 b7f7 e93d edd8 8501
00000010: 349b 2f83 ff83 fd3d 5d16 e63d f0fd c33d
00000020: 6e9b 8581 a936 0f3f 0375 fe3d 5665 9381
00000030: 44d1 0d3e 998e 8581 5f50 173e 0bbb 8501
