checkpoints/neumf_first_try_Epoch33_HR0.6776_NDCG0.4078.model (torch, 645108 bytes, 13 tensors)

embedding_user_mlp.weight f4 [6040, 8]
-0.07204197 0.6242388 0.8574547 0.5228179 -0.5081373 -0.11910126 0.06862882 -0.5822706
-0.3562167 0.20612624 0.197118 0.13850595 0.07459738 0.023619194 0.43752798 0.1088526
0.038575184 0.39160654 0.781933 0.24445634 -0.07099925 -0.4790425 -0.5527967 -0.07383654
0.2518989 0.7647311 0.99896866 0.4745854 -0.8388085 -0.8062399 -0.13813277 -0.38689315
-0.43209934 0.122175656 -0.33691952 0.07641197 -0.6062111 -0.24841712 -0.5377403 -0.6021945
-0.04425756 -0.03563075 0.6191606 0.44183984 -0.43339545 -0.23910688 -0.70753276 -0.42698407
0.018019889 0.6598964 0.7647296 0.90886384 -0.44717744 -0.3894244 -0.46665278 -0.38193294
0.04144134 0.03587929 0.61281246 0.059272945 0.576597 -0.72450477 0.17837673 0.12829505
-0.22410631 0.32029855 0.47813845 0.5113455 -0.6148792 -0.4264545 -0.44515902 -0.29324546
-0.24748269 -0.08445437 0.04076444 -0.07546797 -0.39826518 0.0833802 0.2758638 0.024766756
0.25166413 -0.043188147 0.1726347 0.4981299 -0.03386828 -0.3957597 0.50622606 -0.0541735
0.05507883 0.040117633 0.011000141 0.6419945 0.39161777 -0.009153659 0.16756332 -0.11487992
0.11997376 0.3054538 0.49523968 0.1026428 0.018992925 -0.06801431 0.22529536 -0.09455593
-0.5798349 -0.3169648 0.078612395 0.5686911 -0.6412643 -0.35286662 -0.342299 -0.4710252
-0.37241724 0.09892192 0.07337313 0.05816582 -0.6123095 -0.48415568 0.13582844 0.17627881
-0.5670522 -0.17308728 -0.5260308 0.5272732 -1.2917753 -0.49833807 -0.79314554 -0.7842337
-0.18169369 -0.2843641 -0.033181615 0.5934919 -0.6071091 -0.22437622 -0.33056727 -0.15081951
0.25874147 -0.22298236 0.39880845 -0.31511173 0.3147261 0.4111494 0.31385976 -0.108078994
-0.3436153 0.6220693 -0.12280858 -0.37789226 -0.5838269 -0.024371143 0.037082054 -0.14005187
-0.030114478 0.6787493 0.21212865 0.19443259 -0.7451094 -0.0014681594 -0.7273904 -0.23864803
-0.83105767 -0.05664921 0.38247672 0.20079756 -0.21841761 -0.085666224 -0.21455456 0.15069567
0.08513684 0.10012092 -0.109471925 0.1572724 0.22477986 0.3179594 -0.22136827 0.25303036
0.039351907 -0.10250287 -0.46813256 0.13201389 -0.31459427 -0.24149692 -0.4373936 -0.17811762
-0.6364599 0.010301854 0.09421308 -0.13964543 -0.121081024 0.06274059 -0.29975015 -0.2482267
-0.6598549 -0.52376187 0.103903756 0.70205855 -0.42100048 -0.038849548 -0.011746586 -0.8100253
0.36824843 -0.072878346 0.1560379 -0.006261979 0.34313238 0.26093492 -0.032509316 0.63070863
-0.024721147 0.38129658 0.16704561 0.34681058 -0.5422057 -0.29467282 -0.44093862 0.27855837
0.4465025 -0.003500795 -0.22549134 0.44856897 -0.7972204 -0.44184807 -0.39147896 -0.20827891
-0.070501134 0.7913114 0.75692195 0.37142658 0.14724001 0.3679327 -0.15834014 -0.3544185
-0.0074659684 0.31161827 0.5697606 0.33262658 -0.30823785 -0.31217402 -0.23004316 -0.9557595
-0.12804048 0.36260125 -0.089041986 0.6465924 -0.24142227 -0.6228331 -0.8535739 -0.010254672
0.15846771 0.3459755 0.17244083 0.40546325 -0.9157102 0.085733466 -0.084305346 -0.3830952
00000000: be8a 93bd 1dce 1f3f 2782 5b3f 65d7 053f
00000010: 4915 02bf 5deb f3bd 448d 8c3d b00f 15bf
00000020: 0962 b6be c212 533e 4dd9 493e 81d4 0d3e
00000030: 83c6 983d 0a7d c13c ab03 e03e 1dee de3d
00000040: 0301 1e3d a780 c83e c32c 483f c352 7a3e
00000050: 0e68 91bd 0f45 f5be 1684 0dbf 9d37 97bd
00000060: e5f8 803e 6bc5 433f 69bc 7f3f dcfc f23e
00000070: 27bc 56bf bd65 4ebf ad72 0dbe dc16 c6be
00000080: 203c ddbe 3b37 fa3d b780 acbe e17d 9c3d
00000090: a730 1bbf 0f61 7ebe 59a9 09bf 6b29 1abf
000000a0: 6a47 35bd 8df1 11bd 4f81 1e3f d538 e23e
000000b0: 02e6 ddbe 6fd8 74be de20 35bf a89d dabe
000000c0: 729e 933c f8ee 283f 52c5 433f 4dab 683f
000000d0: 71f4 e4be a362 c7be 1ded eebe b78c c3be
000000e0: 65be 293d 2af6 123d 47e1 1c3f 30c8 723d
000000f0: dc9b 133f 2579 39bf 64a8 363e c75f 033e
00000100: 207c 65be 2cfe a33e 90ce f43e 8ae7 023f
00000110: b968 1dbf 3f58 dabe e2eb e3be 4524 96be
00000120: 1a6c 7dbe 6af6 acbd 9df8 263d f38e 9abd
00000130: 6ae9 cbbe 3dc3 aa3d 053e 8d3e a7e3 ca3c
00000140: 1fda 803e 0ee6 30bd 27c7 303e e20a ff3e
00000150: 77b9 0abd 04a1 cabe 0898 013f 08e5 5dbd
00000160: 579a 613d 6352 243d ef39 343c c059 243f
00000170: 2082 c83e 3bf9 15bc b895 2b3e 2a46 ebbd
00000180: cdb4 f53d 7164 9c3e 0e90 fd3e 6336 d23d
00000190: 0d97 9b3c 164b 8bbd d4b3 663e 8aa6 c1bd
000001a0: 0f70 14bf 3649 a2be 89ff a03d bd95 113f
000001b0: e629 24bf efaa b4be d141 afbe 372a f1be
000001c0: 79ad bebe 9397 ca3d a744 963d 483f 6e3d
000001d0: 51c0 1cbf 41e3 f7be 9c16 0b3e 6f82 343e
000001e0: 552a 11bf cb3d 31be f4a9 06bf 60fb 063f
000001f0: e558 a5bf 2b26 ffbe 960b 4bbf 8ac3 48bf
00000200: e90d 3abe 2c98 91be 72e9 07bd 16ef 173f
00000210: 816b 1bbf e1c2 65be 1d40 a9be 6e70 1abe
00000220: c379 843e 7d55 64be 9f30 cc3e 5356 a1be
00000230: c823 a13e 2d82 d23e 3ab2 a03e 8558 ddbd
00000240: 58ee afbe ef3f 1f3f 1183 fbbd 187b c1be
00000250: ae75 15bf fea5 c7bc 5ae3 173d c269 0fbe
00000260: a3b2 f6bc 84c2 2d3f 4138 593e 5619 473e
00000270: 7dbf 3ebf 416f c0ba 4236 3abf 2660 74be
00000280: 32c0 54bf 0109 68bd fdd3 c33e e09d 4d3e
00000290: dea8 5fbe c671 afbd 31b4 5bbe f74f 1a3e
000002a0: 395c ae3d 320c cd3d d132 e0bd 040c 213e
000002b0: b12c 663e 93cb a23e 5dae 62be 328d 813e
000002c0: 772f 213d 06ed d1bd 12af efbe a62e 073e
000002d0: 8012 a1be f84a 77be 0ef2 dfbe 7764 36be
000002e0: 09ef 22bf 1cc9 283c caf2 c03d 36ff 0ebe
000002f0: 54f9 f7bd 237e 803d da78 99be 242f 7ebe
00000300: 40ec 28bf 4215 06bf 7ecb d43d 1cba 333f
00000310: 608d d7be b420 1fbd c174 40bc d15d 4fbf
00000320: 0f8b bc3e 3e41 95bd 66c8 1f3e 4a31 cdbb
00000330: 0caf af3e 4399 853e 7d28 05bd 1f76 213f
00000340: 0184 cabc 4e39 c33e 010e 2b3e 2891 b13e
00000350: fecd 0abf 5bdf 96be b5c2 e1be 349f 8e3e
00000360: fa9b e43e 986d 65bb 34e7 66be d5aa e53e
00000370: a316 4cbf e939 e2be ee6f c8be 1147 55be
00000380: e662 90bd 6293 4a3f a3c5 413f a02b be3e
00000390: 16c6 163e ad61 bc3e eb23 22be 5776 b5be
000003a0: 15a5 f4bb 6e8c 9f3e d5db 113f 084e aa3e
000003b0: 5ad1 9dbe 46d5 9fbe 6f90 6bbe a8ac 74bf
000003c0: 0b1d 03be dfa6 b93e a55b b6bd 1487 253f
000003d0: 6637 77be fd71 1fbf d283 5abf 3603 28bc
000003e0: 5c45 223e b323 b13e 5494 303e e198 cf3e
000003f0: fc6b 6abf 0795 af3d 48a8 acbd 0e25 c4be

embedding_item_mlp.weight f4 [3706, 8]
-1.0707066 -1.3094589 -0.3732237 1.754687 1.1803834 1.4387618 -0.8362264 0.052590925
-0.70854825 -0.32021695 -0.2780279 0.04979097 0.12985882 -0.35926747 0.017157052 0.3626099
-0.33525142 0.23782064 -0.47038034 0.0023228903 0.33820578 0.47049978 -0.1505303 0.12576164
-0.7958031 -0.8017254 -0.58093923 0.5741878 0.15716797 1.1525364 -0.84205365 0.8404718
-0.47764018 -1.568008 -0.99554336 0.6118403 0.4374981 0.48684883 -0.16699041 1.1910883
-0.88615346 -0.7973377 -0.37908402 -0.4783206 0.4076553 1.1705347 -0.32792345 0.4984405
-0.28685123 -0.15812404 0.008653112 -0.29470626 0.088777676 0.06330503 0.08948635 -0.06982461
-0.16102484 -0.4969992 0.03085556 -0.3626495 0.53282 0.4304374 0.06838979 0.05549321
-0.026023403 0.2393766 -0.31544137 -0.44115382 0.07377324 -0.13651001 -0.07558141 0.15625954
-0.5074013 0.044990465 -0.3393356 0.40280703 0.07728813 0.7122635 -0.21706964 -0.00277573
-0.049964257 -0.20414282 -0.27884474 -0.18494067 0.2586789 0.11826341 -0.25489405 0.124597035
-0.13170683 0.2937715 -0.049553294 -0.06416378 0.21486422 -0.2653585 -0.071656324 0.22490318
0.11337469 0.37966743 -0.041520655 0.10583788 -0.420096 0.04331656 0.17469414 -0.021170447
0.5216341 0.04475209 -0.19131994 -0.4130387 -0.3319515 0.13614865 0.030612106 0.109838426
-0.8052283 -0.036483806 -0.5257534 0.1684245 0.09733323 -0.015746448 -0.5210467 0.42191887
-0.82582265 -0.33213314 -0.52496475 0.21171206 -0.10169732 0.12948155 -0.33117363 0.29562986
0.70734817 -1.0049618 -0.18327975 -0.75756484 0.5122132 0.12876739 -0.16951096 0.42085984
0.119966604 0.04445977 -0.4676764 -0.4008896 0.37187722 -0.27154073 0.22922914 -0.25807685
-0.28906965 -0.14480022 0.28180686 0.24198397 0.0006807907 -0.17985943 0.25981766 -0.38171867
-0.2474887 -0.23959163 -0.23907271 -0.24496527 -0.1220934 0.5500769 -0.13164032 -0.0634269
-0.29750726 0.17213738 0.29418737 0.4366035 0.3489014 0.21449538 -0.51442176 0.18181066
0.33156154 -0.46639463 0.15518332 -0.39756402 0.43547848 0.32708737 0.555201 0.0936185
-0.23870137 -0.73256874 -0.6167243 0.8800304 0.38710463 0.7929939 -0.6460912 0.31831747
-0.9120922 -1.2849777 -0.694737 1.1797383 1.0084229 0.7116829 -0.6129461 0.050353564
-0.018328132 -0.35315162 0.35234237 0.04749585 -0.0054640323 0.368372 -0.019760929 0.21280181
-0.16277757 0.11878404 -0.07869486 -0.35806984 0.05921654 -0.12612793 0.36475936 0.014374526
-0.37599632 -0.9461026 -0.59762824 0.5829845 0.3161659 0.65832895 -0.61143917 0.2851573
-0.7425689 -0.69178295 -0.37614346 0.7576853 1.2769709 1.0862448 -0.6171165 -0.017946323
0.37393147 -0.25632882 0.51779884 -0.67644703 -0.21578941 0.113993004 0.35216302 -0.31632495
0.29801765 -0.5718796 0.17791449 -0.33942223 1.0324433 0.40395552 0.11800335 0.485053
0.05533136 -0.39462245 -0.2173622 0.12575847 0.26386726 -0.15747525 0.088761084 -0.17674996
-0.15776819 -0.65427685 0.24906209 0.46598288 0.20689867 1.1570975 -0.07177042 -0.14306886
00000000: ea0c 89bf 599c a7bf 2d17 bfbe 9599 e03f
00000010: ce16 973f 5929 b83f ef12 56bf 9569 573d
00000020: 6b63 35bf 7af3 a3be ac59 8ebe 9ef1 4b3d
00000030: b6f9 043e e8f1 b7be f28c 8c3c 01a8 b93e
00000040: 13a6 abbe 4187 733e b1d5 f0be a23b 183b
00000050: 4f29 ad3e 59e5 f03e 9d24 1abe a9c7 003e
00000060: c1b9 4bbf e03d 4dbf 6fb8 14bf f9fd 123f
00000070: a4f0 203e 5086 933f d490 57bf 2929 573f
00000080: 418d f4be 7cb4 c8bf eedb 7ebf 91a1 1c3f
00000090: c0ff df3e 4044 f93e 89ff 2abe 9575 983f
000000a0: f4da 62bf 531e 4cbf 4d17 c2be 70e6 f4be
000000b0: 32b8 d03e 15d4 953f 95e5 a7be 9833 ff3e
000000c0: 2ade 92be 45eb 21be c8c5 0d3c bde3 96be
000000d0: 12d1 b53d 11a6 813d 9f44 b73d 3500 8fbd
000000e0: b2e3 24be ae76 febe cdc4 fc3c 32ad b9be
000000f0: e466 083f 4a62 dc3e f20f 8c3d d94c 633d
00000100: 082f d5bc 241f 753e 8881 a1be eade e1be
00000110: 6d16 973d 48c9 0bbe 6dca 9abd 8002 203e
00000120: 0de5 01bf ec47 383d 65bd adbe b93c ce3e
00000130: 3d49 9e3d e756 363f 8147 5ebe 06e9 35bb
00000140: 52a7 4cbd d10a 51be bdc4 8ebe 1661 3dbe
00000150: 9071 843e 1634 f23d 7981 82be bb2c ff3d
00000160: 28de 06be 3869 963e 65f8 4abd 4d68 83bd
00000170: 5e05 5c3e 12dd 87be 8dc0 92bd 054d 663e
00000180: fd30 e83d c563 c23e 9011 2abd 88c1 d83d
00000190: d316 d7be b56c 313d 05e3 323e a56d adbc
000001a0: d089 053f f84d 373d 60e9 43be cf79 d3be
000001b0: 8cf5 a9be 8d6a 0b3e 3dc6 fa3c f8f2 e03d
000001c0: 7123 4ebf 0b70 15bd c697 06bf 7977 2c3e
000001d0: a556 c73d b2fe 80bc 5163 05bf c005 d83e
000001e0: 1d69 53bf 5b0d aabe 1764 06bf 0ccb 583e
000001f0: af46 d0bd d096 043e 978f a9be cc5c 973e
00000200: c514 353f 97a2 80bf b0ad 3bbe c5ef 41bf
00000210: 6720 033f 99db 033e 4894 2dbe f17a d73e
00000220: 0db1 f53d 731b 363d 4873 efbe 6741 cdbe
00000230: b166 be3e 6307 8bbe 0bbb 6a3e a622 84be
00000240: f000 94be 8246 14be fd48 903e a5ca 773e
00000250: 1777 323a 122d 38be d206 853e a170 c3be
00000260: ae6d 7dbe 8257 75be 7acf 74be 2dd8 7abe
00000270: 1b0c fabd d7d1 0c3f b8cc 06be f6e5 81bd
00000280: df52 98be c844 303e ba9f 963e 7e8a df3e
00000290: 34a3 b23e ada4 5b3e 25b1 03bf 932c 3a3e
000002a0: 6fc2 a93e 47cb eebe 60e8 1e3e 838d cbbe
000002b0: 09f7 de3e ff77 a73e a721 0e3f 0ebb bf3d
000002c0: 226e 74be a089 3bbf a5e1 1dbf ac49 613f
000002d0: 9432 c63e a601 4b3f 3c66 25bf 82fa a23e
000002e0: e07e 69bf 267a a4bf 49da 31bf aa01 973f
000002f0: 0014 813f da30 363f 09ea 1cbf 8a3f 4e3d
00000300: e124 96bc 4ad0 b4be 3866 b43e 028b 423d
00000310: a00b b3bb 419b bc3e ace1 a1bc b8e8 593e
00000320: 2aaf 26be 0c45 f33d c52a a1bd ee54 b7be
00000330: 0b8d 723d ae27 01be bdc1 ba3e 2283 6b3c
00000340: 9782 c0be c833 72bf 2afe 18bf 793e 153f
00000350: 7fe0 a13e 3f88 283f 4787 1cbf 2300 923e
00000360: ff18 3ebf b018 31bf e095 c0be aaf7 413f
00000370: c873 a33f 120a 8b3f 59fb 1dbf 2b04 93bc
00000380: f273 bf3e 883d 83be 778e 043f a22b 2dbf
00000390: e6f7 5cbe 2a75 e93d b64e b43e 58f5 a1be
000003a0: c595 983e b466 12bf 372f 363e c0c8 adbe
000003b0: 1a27 843f 42d3 ce3e beab f13d de58 f83e
000003c0: 23a3 623d f40b cabe 3294 5ebe d4c6 003e
000003d0: 9c19 873e 3141 21be 5fc8 b53d f1fd 34be
000003e0: fc8d 21be b07e 27bf 220a 7f3e 4f95 ee3e
000003f0: 3fdd 533e c51b 943f 5ffc 92bd a580 12be

embedding_user_mf.weight f4 [6040, 8]
0.09195853 0.17238928 -0.2539534 0.5945074 -0.029069887 -0.51227957 0.01549108 -1.5115894
-0.029449841 -0.41964853 0.12046966 1.4055083 0.14515422 0.10587678 0.33626902 0.02087647
0.46866748 -0.738936 -0.10963723 -0.026757877 0.08094044 0.8293633 0.37759453 -0.92040086
-0.21799213 -0.07217027 0.58212173 0.77322197 -0.51771986 1.0817609 0.5073467 -0.5473677
-0.010927144 -0.49544138 -0.11079276 0.35825276 -1.0935892 -0.6115792 -0.46367267 0.063087486
0.33514357 0.12068344 -0.5882856 0.56295913 0.68467855 -0.09280929 0.448419 -0.3364358
0.84621835 -0.84223163 0.6399752 0.5443732 -0.5753587 0.9345445 0.39157778 -0.42636186
0.573744 -0.8139579 0.39397496 0.9518571 -0.80131525 -0.80509907 -0.20582594 -0.086500876
0.23683056 -1.257942 0.2887219 0.89158416 -0.25850707 -0.52783686 -0.4926982 -0.85157204
0.27640143 0.29020694 -0.72790873 0.46321872 0.08854361 0.33877483 0.034370065 -0.69816744
0.027516693 -0.7789615 -0.53879803 -0.36027104 -0.38705668 -0.50266445 0.016229551 -0.81357425
-0.39507288 -0.58524054 0.23788781 0.051726613 -0.090995476 0.58421904 -0.23439409 -0.78303343
0.46249917 0.07758205 -0.3632541 1.3531213 -0.21406308 0.6506565 -0.0655662 0.21854274
-0.27936578 -0.17721796 0.03053732 -0.3009984 -0.48307735 0.04130491 0.3222119 -0.3810854
0.7848267 -1.0118358 0.3624716 0.39372233 0.06780597 -0.14755748 0.43905047 -0.5000593
0.73755276 0.307375 -0.34965953 0.2495453 0.3968976 -0.034529496 0.33086598 0.11596762
0.2179632 0.029984893 0.19269417 0.42374054 -0.8564698 0.31935343 -0.26783657 0.64044785
0.5660842 -0.0077356556 -0.20032889 0.98198175 -0.37001944 0.07407372 -0.2791397 -0.48598805
0.49864984 0.08416898 0.2583461 -0.12978306 -0.30846992 0.7800469 0.07336687 -0.82786775
0.46470922 -0.8022242 0.2613424 0.025687287 -0.35197815 0.4907835 -0.11870784 -0.27161393
0.7686937 0.26010895 -0.20307507 0.23346634 -0.43913463 0.29160112 -0.7074136 -0.65439093
0.58759266 -0.58983773 -0.2726544 -0.26760098 -0.6620712 0.5084033 0.09008712 -0.56928015
-0.006038291 -0.18119454 -0.24534298 0.25140983 -1.098599 0.5476366 -0.105600365 0.37315264
-0.095559515 -0.48890102 -0.83138764 0.4158109 -0.37721068 -0.18391478 0.33022025 -0.2538575
0.6859657 -0.44014388 -0.0781631 0.5371899 -0.42054507 0.57492375 -0.57824725 -0.32622153
0.5516386 -0.33922595 -0.8233224 0.04047948 0.12094694 -0.206981 0.9487595 -0.27827182
-0.5349741 0.11971871 -0.28580573 0.45093742 -0.23276114 0.5259241 -0.103890345 -0.58554333
-0.3366558 0.15014648 -0.28039727 0.43117717 -0.5561777 -0.25284 -0.0011193885 -0.61851233
0.07838211 -0.27518207 0.64286554 0.6263536 -0.21988066 1.2705309 0.5890251 0.25174567
-0.16895947 -0.3787402 0.26301473 0.48513237 -0.6303177 -0.6500053 -0.18305059 -0.42665032
-0.29721814 -0.20641597 -1.195438 -0.32676536 0.7363828 0.7818384 0.21036755 -0.4218183
-0.09128693 -0.40950155 0.05512222 0.489958 -0.4108651 -0.39584357 0.14581484 -0.11788378
00000000: c154 bc3d d186 303e 2e06 82be a331 183f
00000010: f923 eebc c124 03bf 4cce 7d3c c37b c1bf
00000020: cb40 f1bc 2cdc d6be ccb8 f63d b2e7 b33f
00000030: 4fa3 143e edd5 d83d 742b ac3e 2105 ab3c
00000040: 2ff5 ef3e e92a 3dbf 7c89 e0bd 5633 dbbc
00000050: 1ac4 a53d 2751 543f 1254 c13e 649f 6bbf
00000060: 5439 5fbe 02ce 93bd ee05 153f e0f1 453f
00000070: 4a89 04bf 2477 8a3f 79e1 013f 4a20 0cbf
00000080: c407 33bc 7eaa fdbe 51e7 e2bd e86c b73e
00000090: bbfa 8bbf 7490 1cbf 8166 edbe 0334 813d
000000a0: f097 ab3e e128 f73d e399 16bf 171e 103f
000000b0: 1847 2f3f cc12 bebd 2d97 e53e 5041 acbe
000000c0: c4a1 583f 7e9c 57bf 6ad5 233f 0b5c 0b3f
000000d0: b54a 13bf 4f3e 6f3f e27c c83e 1a4c dabe
000000e0: e3e0 123f 8c5f 50bf 16b7 c93e e8ac 733f
000000f0: ff22 4dbf f91a 4ebf 09c4 52be 5f27 b1bd
00000100: b683 723e 3e04 a1bf 5bd3 933e dc3e 643f
00000110: 0a5b 84be 5120 07bf f042 fcbe a000 5abf
00000120: 7d84 8d3e 0196 943e 3a58 3abf 012b ed3e
00000130: 5a56 b53d e573 ad3e a0c7 0c3d 1abb 32bf
00000140: b06a e13c 056a 47bf abee 09bf 7275 b8be
00000150: 4b2c c6be 9eae 00bf d6f3 843c 6746 50bf
00000160: fe46 cabe 53d2 15bf dd98 733e 49df 533d
00000170: d65b babd 618f 153f 0105 70be e174 48bf
00000180: b1cc ec3e 56e3 9e3d 71fc b9be 1433 ad3f
00000190: 5a33 5bbe 6d91 263f 9247 86bd abc9 5f3e
000001a0: 0809 8fbe a078 35be 6729 fa3c 761c 9abe
000001b0: ea55 f7be 562f 293d f5f8 a43e a01d c3be
000001c0: 67ea 483f d683 81bf e195 b93e f995 c93e
000001d0: dbdd 8a3d 4f19 17be 39cb e03e e303 00bf
000001e0: 42d0 3c3f 4260 9d3e 9306 b3be ce88 7f3e
000001f0: 2a36 cb3e cd6e 0dbd 4467 a93e 6e80 ed3d
00000200: bf31 5f3e e1a2 f53c 9f51 453e 85f4 d83e
00000210: 9b41 5bbf 4b82 a33e e021 89be 64f4 233f
00000220: e5ea 103f 627b fdbb 0423 4dbe 2863 7b3f
00000230: 3073 bdbe f6b3 973d 66eb 8ebe 6dd3 f8be
00000240: 084f ff3e c960 ac3d f145 843e dae5 04be
00000250: c5ef 9dbe 27b1 473f 5f41 963d 24ef 53bf
00000260: 5eee ed3e 915e 4dbf acce 853e 256e d23c
00000270: 7b36 b4be fa47 fb3e 191d f3bd fb10 8bbe
00000280: 1cc9 443f 002d 853e e9f2 4fbe cd11 6f3e
00000290: 41d6 e0be be4c 953e 0f19 35bf 2a86 27bf
000002a0: 796c 163f 9bff 16bf 5c99 8bbe ff02 89be
000002b0: 807d 29bf b826 023f 997f b83d 58bc 11bf
000002c0: dbdc c5bb 108b 39be 313b 7bbe cab8 803e
000002d0: e49e 8cbf ea31 0c3f 0145 d8bd dd0d bf3e
000002e0: b5b4 c3bd 3c51 fabe d2d5 54bf 2be5 d43e
000002f0: c221 c1be 2854 3cbe a112 a93e 9cf9 81be
00000300: 739b 2f3f 8a5a e1be fa13 a0bd 4785 093f
00000310: af51 d7be 342e 133f 0308 14bf 8206 a7be
00000320: 3038 0d3f 06af adbe 42c5 52bf d0cd 253d
00000330: 07b3 f73d d4f2 53be e7e1 723f a579 8ebe
00000340: 10f4 08bf 152f f53d 2155 92be 45e1 e63e
00000350: f058 6ebe f6a2 063f 76c4 d4bd 2be6 15bf
00000360: 265e acbe 00c0 193e 3b90 8fbe 41c3 dc3e
00000370: a961 0ebf 3f74 81be 72b8 92ba d356 1ebf
00000380: cd86 a03d aae4 8cbe d692 243f b658 203f
00000390: 6528 61be c2a0 a23f 59ca 163f cfe4 803e
000003a0: b603 2dbe 3cea c1be dea9 863e 4563 f83e
000003b0: 805c 21bf bf66 26bf 9d71 3bbe e971 dabe
000003c0: fa2c 98be b55e 53be 1d04 99bf ca4d a7be
000003d0: 9583 3c3f 9026 483f 976a 573e 91f8 d7be
000003e0: a4f4 babd 30aa d1be d6c7 613d c6db fa3e
000003f0: e95c d2be 02ac cabe 7c50 153e 0d6d f1bd

embedding_item_mf.weight f4 [3706, 8]
0.4000961 -0.027945463 -0.13934244 0.25228277 0.229935 0.043494657 0.44217205 0.47869763
-0.17506924 -0.6556702 0.08637071 0.15974784 0.16875756 -0.09711956 -0.77833486 0.5243716
0.19691649 -1.1434845 0.262446 0.55796134 -0.5460507 -0.30608913 0.16520989 0.28079215
0.059332237 0.30780238 -0.38881943 -0.029916689 -0.47954783 -0.42554843 0.0854367 0.09339063
-0.28477222 0.13244413 0.2961787 0.023441883 -0.07417533 0.0032341867 -0.32203144 0.5804168
-0.083333075 0.2641521 0.75811887 0.353684 0.47161415 0.4224626 0.06435145 0.34759462
0.1479437 -0.42759967 -0.3260032 0.8224338 -0.45261788 0.6305092 0.18457933 0.16512986
0.22869146 0.10668248 0.520142 -0.2279628 0.34007323 0.29737994 0.4005796 0.9395234
-0.1467745 -1.1965185 0.2719529 0.40791523 0.059569545 0.07892103 -0.48730204 1.420113
0.17985049 -0.5363565 0.25411186 0.83075565 0.21897842 0.19343941 0.19036055 1.2954237
-0.4298475 -0.6725728 0.28429946 0.7167164 0.089005105 -0.2789348 -0.43008348 1.2308756
0.39730805 -1.403814 0.13618967 0.28353834 -0.85216975 -0.3994248 -0.31041148 -0.0191271
0.29726142 -0.8082834 -0.2323549 0.5655221 -0.5779073 -0.22196174 0.34305173 0.9206951
0.17155707 0.49029988 1.2741265 -0.19303505 0.43830484 0.32456726 0.7550126 1.1676363
0.0895222 -0.6921578 0.2781502 0.27445525 -0.28915712 -0.13497722 0.0943205 0.598185
0.23388152 0.30028656 0.8102725 -0.44498596 0.11773875 0.4082593 0.51848227 0.74314356
-0.40172574 -0.5072443 -0.050120726 0.3878775 -0.14204149 -0.088362806 -0.5151711 0.66187155
-0.072775155 -0.993794 0.07097487 0.39022067 -0.08486796 0.0037204039 -0.30034938 1.3060048
0.03650552 -0.02778274 0.055846803 0.61822385 0.275291 -0.7185501 0.47838166 0.45476905
-0.05542945 -0.032452855 0.9638129 0.0034781413 0.37746212 0.30199465 0.5230671 0.66730267
-0.1031531 0.5814432 0.59742075 -0.01458955 -0.058373503 -0.1830043 -0.08224211 0.64783585
0.27481028 -0.12833622 0.040058196 0.1827607 0.2485825 0.0059516546 -1.0301335 0.41470855
-0.04173744 0.08840064 1.0482506 0.13318214 0.5910674 0.5570594 0.47394276 0.6388439
0.14303507 0.298801 -0.15001826 0.68237567 0.35176516 -0.17098324 0.33728346 0.6118881
-0.36885923 0.14046699 -0.042164657 -0.14047003 -0.5279508 -0.55193824 0.3501473 -0.35279393
-0.7209541 -0.8885928 0.16957414 0.3485649 -0.41822252 -0.49575156 -0.6338769 0.57253176
-0.21790008 -0.34755695 0.6493046 0.59160346 0.71290946 0.21539977 0.42919287 0.6070466
-0.29969737 0.19875813 0.06950697 0.4860867 0.0044924463 -0.40842286 0.38769665 0.20555185
0.517284 -0.3542486 -0.8144587 -0.05864267 -0.38289708 -1.0549774 -0.63532287 -0.34282836
0.17536919 0.09034337 0.4338032 0.1669243 0.31492764 0.10253368 -1.0877107 0.32423046
-0.42166737 -0.28835243 0.14717756 0.332753 0.0854848 -0.19402453 -0.41389254 0.6849814
0.00020837576 0.17160244 -0.35747495 -0.43982935 -0.084170505 -0.7807381 0.0693659 -0.045743868
00000000: 65d9 cc3e e2ed e4bc c9af 0ebe 352b 813e
00000010: 1574 6b3e 7427 323d 6064 e23e db17 f53e
00000020: 5a45 33be 01da 27bf 20e3 b03d f094 233e
00000030: c8ce 2c3e 9fe6 c6bd f440 47bf 383d 063f
00000040: 7aa4 493e b35d 92bf 525f 863e 8ed6 0e3f
00000050: fbc9 0bbf b7b7 9cbe c82c 293e fdc3 8f3e
00000060: 5c06 733d 4698 9d3e 5713 c7be d813 f5bc
00000070: 4b87 f5be 7ce1 d9be 70f9 ae3d 9643 bf3d
00000080: aacd 91be 6f9f 073e bca4 973e 3109 c03c
00000090: 3ce9 97bd a6f4 533b 4ee1 a4be 3296 143f
000000a0: 88aa aabd f23e 873e 1414 423f 1216 b53e
000000b0: 6977 f13e 054d d83e b1ca 833d ecf7 b13e
000000c0: 8e7e 173e 58ee dabe e4e9 a6be 068b 523f
000000d0: 88bd e7be 0d69 213f 5d02 3d3e cd17 293e
000000e0: 182e 6a3e 587c da3d 0728 053f 156f 69be
000000f0: 141e ae3e 2f42 983e c518 cd3e 9b84 703f
00000100: 0e4c 16be 8527 99bf 693d 8b3e 44da d03e
00000110: 32ff 733d 59a1 a13d a77f f9be 43c6 b53f
00000120: ba2a 383e a94e 09bf f31a 823e 67ac 543f
00000130: e13b 603e fb14 463e e0ed 423e 72d0 a53f
00000140: f914 dcbe bb2d 2cbf b38f 913e ba7a 373f
00000150: 4f48 b63d 8bd0 8ebe e733 dcbe 558d 9d3f
00000160: f66b cb3e 2db0 b3bf 4e75 0b3e f02b 913e
00000170: cc27 5abf 6881 ccbe 41ee 9ebe 70b0 9cbc
00000180: a632 983e a9eb 4ebf 71ee 6dbe 0ec6 103f
00000190: bcf1 13bf f049 63be 7aa4 af3e adb2 6b3f
000001a0: a8ac 2f3e 9608 fb3e 9416 a33f fbaa 45be
000001b0: 7e69 e03e ae2d a63e 8148 413f 1b75 953f
000001c0: 6a57 b73d 4131 31bf b469 8e3e 6685 8c3e
000001d0: 670c 94be 7837 0abe 1b2b c13d a722 193f
000001e0: a37e 6f3e 29bf 993e 056e 4f3f 33d5 e3be
000001f0: 0421 f13d 5d07 d13e 41bb 043f a83e 3e3f
00000200: ffae cdbe c3da 01bf 644b 4dbd e197 c63e
00000210: 5373 11be 8ff7 b4bd 41e2 03bf 6a70 293f
00000220: 240b 95bd 4969 7ebf 465b 913d 01cb c73e
00000230: 41cf adbd 05d2 733b 65c7 99be 2a2b a73f
00000240: d086 153d a198 e3bc 9ebf 643d eb43 1e3f
00000250: f1f2 8c3e e6f2 37bf 71ee f43e 7dd7 e83e
00000260: fe09 63bd 49ed 04bd 71bc 763f 87f1 633b
00000270: b742 c13e 0b9f 9a3e bae7 053f 59d4 2a3f
00000280: ef41 d3bd 76d9 143f 91f0 183f 0209 6fbc
00000290: 0e19 6fbd 7b65 3bbe 8d6e a8bd 92d8 253f
000002a0: efb3 8c3e 926a 03be 1014 243d 9f25 3b3e
000002b0: 698c 7e3e 1906 c33b 6adb 83bf ae54 d43e
000002c0: e1f4 2abd 650b b53d 132d 863f e660 083e
000002d0: 3150 173f 729b 0e3f a0a8 f23e 468b 233f
000002e0: c977 123e 72fc 983e 639e 19be 2cb0 2e3f
000002f0: 901a b43e 3b16 2fbe 6bb0 ac3e b3a4 1c3f
00000300: 1edb bcbe 94d6 0f3e d9b4 2cbd 60d7 0fbe
00000310: c927 07bf d34b 0dbf 8246 b33e 68a1 b4be
00000320: 7390 38bf d17a 63bf d8a4 2d3e 1977 b23e
00000330: 4321 d6be 26d3 fdbe c245 22bf 7191 123f
00000340: 3321 5fbe fcf2 b1be d438 263f 5373 173f
00000350: 3c81 363f c291 5c3e 2bbf db3e 6867 1b3f
00000360: ef71 99be 4087 4b3e ac59 8e3d 5be0 f83e
00000370: 5f35 933b cd1c d1be 2d80 c63e 2f7c 523e
00000380: b96c 043f 1360 b5be 5e80 50bf 4c33 70bd
00000390: 160b c4be 8009 87bf 85a4 22bf 3387 afbe
000003a0: fb93 333e f205 b93d 741b de3e 34ee 2a3e
000003b0: 323e a13e 2efd d13d 1b3a 8bbf 8901 a63e
000003c0: c9e4 d7be eea2 93be b7b5 163e 9a5e aa3e
000003d0: a812 af3d 5eae 46be b9e9 d3be f15a 2f3f
000003e0: 717f 5a39 8db8 2f3e f506 b7be 5031 e1be
000003f0: 9661 acbd 74de 47bf b50f 8e3d ec5d 3bbd

fc_layers.0.weight f4 [64, 16]
-0.30409327 -0.39827 -0.16291235 0.46898916 0.094707265 -0.7424052 -0.81525075 -0.37361854
-0.046741158 0.013491221 0.3123824 -0.28345963 -0.6837374 -0.5418749 0.2466067 0.21627058
-0.85791206 0.36943802 -0.045159504 -0.37424207 -0.348879 0.17349766 0.029191945 -0.38497254
-0.5423263 0.18677117 0.35018224 -0.07359731 0.415762 0.24381629 0.45234144 -0.7944309
0.46445364 0.3740643 0.2990536 0.16007638 0.20990388 -0.59435976 0.090108104 1.0090513
0.86938524 0.024326771 0.29385617 -0.5283291 1.2988871 0.4484571 0.3531919 -0.782347
0.79084146 0.21759571 -0.19214065 0.13741517 -0.99304265 -0.5176338 -0.31267458 -0.027339352
0.15253532 0.21306573 0.8111311 -0.14515784 -0.46925896 0.2639048 -0.3176677 -0.3102597
0.4942913 0.039313804 0.22884223 0.0024808561 0.37835374 -0.7855468 -0.0237577 0.26281345
0.7538817 -0.07969854 -0.10225755 -0.022889182 0.2174899 0.08977745 -0.23511271 -0.033325616
0.4635957 -0.049535498 0.25511846 0.43133995 -0.4225133 -0.5944848 -0.42728055 -0.040924687
0.4613544 -0.25699115 -0.2695774 0.052017424 -0.68045557 -0.25779185 -0.43277174 -0.463557
0.27693596 -0.27785906 -0.39747944 0.6441865 0.18158685 -0.46170366 0.46855778 -0.58210963
-0.61618096 0.5797228 0.026138768 -0.42171997 -0.20436172 0.06256856 -0.2858343 0.39767224
0.03510429 0.30279407 -0.16529992 0.10757183 0.02434474 0.09769618 -0.011187318 -0.07835019
-0.24639226 0.044551868 0.20544192 -0.10537934 -0.101195574 -0.09295827 -0.009589813 -0.032390073
0.09347946 0.35470515 0.31529722 -0.46492434 0.6777205 -0.011175724 0.21503027 -0.486524
-0.3085137 -0.20599566 0.4664219 -0.062332086 0.15518914 -0.24886733 -0.072777696 -0.22487456
-0.5568507 0.02142511 0.56992203 0.12338099 -0.4531425 0.280103 -0.5324367 -0.8134803
-0.22911431 0.53799087 0.39588636 -0.048757304 -0.21815743 -0.017845288 -0.17418961 -1.0725948
0.7934193 0.07552176 0.13814093 -0.13176148 -0.7939542 -0.72959846 -0.7998189 -0.058085717
0.3958185 0.32006845 0.6975564 0.35577568 0.00019032627 0.44401357 -0.05518888 -0.42150325
0.056106847 0.29350278 0.24625096 0.07237921 0.20989777 -0.66402483 0.4617143 -0.20144407
-0.018510848 0.46282572 0.13346349 -0.49596158 0.34258348 0.04538817 0.03622167 0.41203043
-0.39719304 0.22785138 0.22051372 0.54150677 0.13041736 -0.23540156 -0.47847247 -0.44574046
-0.42939788 0.30766922 0.19916949 0.15014867 -0.3298379 -0.5153709 0.26379284 0.009157412
-0.41628802 -0.5692276 0.38592818 -0.21694602 0.22640507 -0.69931173 0.600645 0.046211977
0.36614484 0.47605065 -0.43796957 -0.47750318 0.42430443 0.2976439 -0.2422995 0.17000578
-0.90043 0.036674093 0.39315715 -0.397061 -0.70291334 0.16610673 -0.14758033 -0.31254256
-0.4809936 0.5941371 0.07980063 0.09912732 0.05441505 0.16427244 0.025415566 -1.3677363
-0.06563416 0.037493344 -0.09639537 0.564489 -0.44976544 0.2202434 0.2641561 -0.8176079
-0.6420216 0.29031864 0.42733222 -0.33400923 -0.15167077 -0.06613079 0.062420905 -0.6152184
00000000: 1db2 9bbe 0cea cbbe 7fd2 26be 591f f03e
00000010: e2f5 c13d 440e 3ebf 46b4 50bf ee4a bfbe
00000020: a873 3fbd 480a 5d3c 96f0 9f3e 9f21 91be
00000030: 6a09 2fbf 50b8 0abf 7786 7c3e 0976 5d3e
00000040: 20a0 5bbf fb26 bd3e 2cf9 38bd a89c bfbe
00000050: 45a0 b2be 5fa9 313e f223 ef3c 1f1b c5be
00000060: e5d5 0abf f140 3f3e 164b b33e 30ba 96bd
00000070: c2de d43e faaa 793e 4c99 e73e d35f 4bbf
00000080: decc ed3e 5b85 bf3e 8e1d 993e 10eb 233e
00000090: 0bf1 563e f627 18bf 998a b83d 9828 813f
000000a0: 0890 5e3f f048 c73c 5174 963e 9340 07bf
000000b0: ef41 a63f 2b9c e53e 92d5 b43e e547 48bf
000000c0: 9674 4a3f 69d1 5e3e 85c0 44be 90b6 0c3e
000000d0: 0b38 7ebf a683 04bf e216 a0be c7f6 dfbc
000000e0: 3832 1c3e e72d 5a3e 4aa6 4f3f 42a4 14be
000000f0: b642 f0be 881e 873e 57a5 a2be 5cda 9ebe
00000100: c013 fd3e 8307 213d 9e55 6a3e dc95 223b
00000110: 95b7 c13e 9819 49bf 829f c2bc 7c8f 863e
00000120: 64fe 403f fd38 a3bd 686c d1bd 1882 bbbc
00000130: acb5 5e3e 3ddd b73d 63c1 70be 7180 08bd
00000140: 6a5c ed3e bce5 4abd e39e 823e 97d8 dc3e
00000150: aa53 d8be 2830 18bf 84c4 dabe a5a0 27bd
00000160: a536 ec3e 5894 83be 0d06 8abe 3910 553d
00000170: 5632 2ebf 4bfd 83be 4294 ddbe 5857 edbe
00000180: 8dca 8d3e 8b43 8ebe 6d82 cbbe 68e9 243f
00000190: e7f1 393e 6c64 ecbe cee6 ef3e 2305 15bf
000001a0: 09be 1dbf b768 143f f820 d63c aeeb d7be
000001b0: 3344 51be f223 803d e058 92be b29b cb3e
000001c0: 84c9 0f3d d307 9b3e 6244 29be 9f4e dc3d
000001d0: 9f6e c73c ef14 c83d 034b 37bc 1076 a0bd
000001e0: 414e 7cbe 057c 363d 5e5f 523e 20d1 d7bd
000001f0: a03f cfbd e860 bebd 971e 1dbc 74ab 04bd
00000200: 2972 bf3d ea9b b53e a36e a13e 900a eebe
00000210: 177f 2d3f 621a 37bc e530 5c3e ac19 f9be
00000220: 82f5 9dbe 87f0 52be dace ee3e ee4f 7fbd
00000230: e7e9 1e3e 14d7 7ebe 790c 95bd 8445 66be
00000240: c48d 0ebf b683 af3c 69e6 113f 2caf fc3d
00000250: 4b02 e8be a969 8f3e c64d 08bf 3f40 50bf
00000260: f19c 6abe c5b9 093f 9eb1 ca3e bdb5 47bd
00000270: a964 5fbe 4830 92bc c35e 32be c94a 89bf
00000280: 871d 4b3f 27ab 9a3d d174 0d3e 7bec 06be
00000290: 9540 4bbf f7c6 3abf eec0 4cbf 4aeb 6dbd
000002a0: b9a8 ca3e 03e0 a33e 0e93 323f 3b28 b63e
000002b0: 5292 4739 bf55 e33e bc0d 62bd 46cf d7be
000002c0: 4bd0 653d ff45 963e 3629 7c3e 8d3b 943d
000002d0: 71ef 563e 88fd 29bf d165 ec3e 5b47 4ebe
000002e0: 10a4 97bc 7ef7 ec3e a7aa 083e adee fdbe
000002f0: 1a67 af3e f2e8 393d 2d5d 143d a7f5 d23e
00000300: e35c cbbe df51 693e 59ce 613e 30a0 0a3f
00000310: 218c 053e 1b0d 71be 58fa f4be 1838 e4be
00000320: 0ada dbbe d286 9d3e 16f3 4b3e 93c0 193e
00000330: 83e0 a8be 59ef 03bf db0f 873e f808 163c
00000340: b423 d5be e6b8 11bf 6198 c53e 1927 5ebe
00000350: bbd6 673e 1806 33bf dfc3 193f c548 3d3d
00000360: 5677 bb3e e9bc f33e 8c3d e0be 4c7b f4be
00000370: 6e3e d93e c864 983e 5c1d 78be ff15 2e3e
00000380: 9582 66bf 9337 163d e54b c93e 944b cbbe
00000390: 21f2 33bf e217 2a3e 4c1f 17be 9405 a0be
000003a0: cb44 f6be 5e19 183f 836e a33d 4403 cb3d
000003b0: 51e2 5e3d 0937 283e 4e34 d03c fc11 afbf
000003c0: 346b 86bd 9f92 193d f06a c5bd 5a82 103f
000003d0: a847 e6be 7c87 613e 783f 873e c04e 51bf
000003e0: 875b 24bf a5a4 943e 4acb da3e 4203 abbe
000003f0: 954f 1bbe 946f 87bd 10ad 7f3d f47e 1dbf

fc_layers.0.bias f4 [64]
0.23561053 0.17393474 0.18227059 -0.7610182 0.21624684 -0.640504 -0.5301903 -0.37757772
-0.4982244 -0.22442608 -0.85601807 0.3716966 -0.0011670729 -0.29825637 0.16454275 -0.48056763
-0.18053663 0.48419583 -0.42848986 -0.44286764 -2.2285412e-20 -0.28092623 0.23345725 0.5430989
-0.60486114 0.41406187 0.56866753 0.57175744 -0.39377213 -0.3285666 0.59449816 -0.8925663
-0.36761498 0.57610816 -0.38847467 0.34333202 0.104728445 -0.27406332 -0.22574504 -0.5467516
-0.597254 0.5412933 -0.4922466 0.5042997 0.60433257 0.47848117 -0.27454284 -0.3892405
-0.39755687 -0.7524642 -0.54996014 -0.74675006 -0.71142656 -0.5341716 -0.3738372 -0.14819677
0.38179454 -0.6113891 -0.3960141 -0.5050603 -0.17652822 0.539052 -0.77627265 0.17179139
00000000: e343 713e f31b 323e 24a5 3a3e 17d2 42bf
00000010: d06f 5d3e 12f8 23bf 8dba 07bf de51 c1be
00000020: 4517 ffbe f3cf 65be 0024 5bbf 044f be3e
00000030: 78f8 98ba 0fb5 98be e57d 283e f60c f6be
00000040: 98de 38be 84e8 f73e 0663 dbbe 8cbf e2be
00000050: d27a d29e 90d5 8fbe 6b0f 6f3e 8808 0b3f
00000060: 2ed8 1abf ebff d33e 3294 113f b25e 123f
00000070: 809c c9be e239 a8be 0831 183f 3a7f 64bf
00000080: 0838 bcbe d37b 133f 27e6 c6be 37c9 af3e
00000090: de7b d63d 0752 8cbe b529 67be eaf7 0bbf
000000a0: a3e5 18bf 3392 0a3f bf07 fcbe c919 013f
000000b0: 8ab5 1a3f 7cfb f43e e190 8cbe 884a c7be
000000c0: 938c cbbe 7ea1 40bf 30ca 0cbf 032b 3fbf
000000d0: 0d20 36bf 78bf 08bf 9767 bfbe e5c0 17be
000000e0: 937a c33e ff83 1cbf 5cc2 cabe a24b 01bf
000000f0: d0c3 34be 50ff 093f ceb9 46bf 15ea 2f3e

fc_layers.1.weight f4 [32, 64]
0.36856458 0.13972493 -0.08999611 0.5514605 -0.025624966 0.16399801 0.63302517 0.2986674
-0.24355325 0.15714218 0.9426938 0.056132175 0.08341045 0.68788564 0.1576088 0.011209406
0.10841852 0.3113852 -0.08055615 0.41662797 -8.147502e-31 -0.22195394 0.16914216 0.30450085
-0.69228566 0.07941543 0.35429 0.053028084 -0.065293424 -0.56284004 0.141096 0.6555216
-0.20024188 0.20685624 -0.19750367 -0.032305934 0.20259388 -0.37773103 -0.48689836 -0.69454235
0.55477697 0.039212156 -0.5912828 0.02396628 0.09314284 0.022369782 -0.72648585 0.16928999
-0.48302206 -0.9147205 -0.47208694 -0.8194112 -0.67525613 -0.6916698 0.1560765 0.006788531
0.093751535 -0.45101956 0.77135664 -1.0073123 0.5776741 0.081753604 -0.8878643 0.5184871
0.31804124 0.20463254 0.008652717 0.6150535 0.02990972 0.27464998 0.7482528 0.2959639
-0.19707216 0.22372502 1.0101658 0.14992483 0.1154445 0.9111663 0.19955452 0.16820113
0.16700944 0.29305625 -0.10962895 0.5176391 -2.0824135e-27 -0.31390747 0.1729934 0.21887441
-0.9086106 0.1252444 0.35865194 0.07258238 -0.123751126 -0.5854386 0.10638107 0.6956074
-0.051276397 0.15747677 -0.16358046 0.022017682 0.20636308 -0.28758487 -0.5819312 -0.7726189
0.6038894 0.078181215 -0.64984494 0.0820497 0.2037162 0.060587544 -0.67074096 0.26248538
-0.5276511 -0.94810325 -0.5130934 -0.8005562 -0.7787407 -0.78363425 0.26577342 0.014896776
0.07096862 -0.5351053 0.7843791 -0.93976235 0.63367367 0.13812569 -0.96673363 0.47685066
-2.3198396e-30 -5.459819e-30 1.40681255e-30 3.771421e-31 1.2562344e-30 3.5321076e-31 4.1371754e-31 5.451559e-32
8.449226e-31 -2.4950673e-30 1.6688817e-30 3.4442135e-31 -2.2837252e-30 1.4835867e-31 -6.001564e-30 -8.103301e-31
-1.616004e-30 -4.7443042e-30 -4.507468e-31 -7.9826963e-32 -4.9068226e-38 1.1188624e-32 -1.8817964e-30 -6.092646e-30
-8.491014e-32 -2.6452398e-30 -3.272351e-30 -3.363659e-30 -1.8150161e-30 -2.5801262e-31 -5.4052966e-30 -6.266078e-32
-1.0427758e-30 -5.4103484e-30 -6.115537e-31 -1.4877255e-30 -4.069421e-30 1.1662236e-31 -1.5164372e-30 5.3861236e-31
7.8443924e-32 -2.3125564e-30 -9.684379e-31 -2.3934114e-30 -1.2085998e-31 -2.439657e-30 1.9401247e-31 -7.826007e-33
1.1722463e-30 1.6776934e-31 4.8386636e-32 3.377626e-31 -1.5408706e-31 -6.67126e-31 -1.0998299e-30 -4.0848576e-33
-3.2330142e-30 1.6611723e-31 -4.690475e-31 1.2793045e-30 -8.911157e-31 -3.535731e-30 6.8442416e-31 -1.8605145e-30
-4.9395524e-35 -2.2169107e-35 -1.0263705e-32 -2.1003685e-35 -4.048081e-33 -1.5000167e-35 -4.0780734e-35 -1.2638592e-36
4.4641467e-35 -4.3811145e-35 -3.3626822e-36 -6.689727e-36 -5.2479257e-35 -4.378233e-33 -3.6040166e-35 -2.9799717e-35
-3.0923571e-35 -3.390433e-35 1.3984336e-35 -7.700316e-33 -5.2029595e-38 -1.7430856e-35 -5.302553e-35 -1.7302478e-34
-5.8584356e-36 -4.0794128e-35 -2.2481085e-33 -5.2159517e-34 -6.794851e-35 1.5253374e-35 -1.2111611e-34 -2.3439716e-35
-3.1141187e-35 -1.32857e-34 -2.1161389e-33 -3.3187293e-35 -4.518668e-35 2.8035704e-37 -1.7813872e-35 -3.61522e-35
1.3172144e-36 -5.727327e-35 -4.5558852e-35 -7.878118e-35 -7.625317e-33 -6.973618e-35 -1.0140112e-32 -5.7375663e-33
-7.327376e-35 -4.944389e-36 5.8138606e-36 -2.4668245e-35 -1.9419269e-35 -1.4093765e-35 -3.4330637e-35 4.9061634e-38
-7.6739985e-35 -1.3375243e-35 -1.2361218e-32 -3.4676639e-35 1.0017822e-35 -4.5120352e-35 -1.18896985e-35 -1.5225166e-34
00000000: 7fb4 bc3e 0d14 0f3e e14f b8bd 842c 0d3f
00000010: 73eb d1bc 18ef 273e f00d 223f efea 983e
00000020: 0666 79be e1e9 203e 6254 713f daea 653d
00000030: 19d3 aa3d 4619 303f 3464 213e a8a7 373c
00000040: 870a de3d e26d 9f3e 9ffa a4bd 4350 d53e
00000050: 6633 848d e547 63be 9a33 2d3e 89e7 9b3e
00000060: a239 31bf 8fa4 a23d 8065 b53e fa33 593d
00000070: 8fb8 85bd 4916 10bf 787b 103e 43d0 273f
00000080: 350c 4dbe 1fd2 533e 673e 4abe 3a53 04bd
00000090: c574 4f3e f665 c1be be4a f9be 87cd 31bf
000000a0: dd05 0e3f ed9c 203d 4f5e 17bf ef54 c43c
000000b0: acc1 be3d d540 b73c fafa 39bf 5b5a 2d3e
000000c0: ab4e f7be 1f2b 6abf 61b5 f1be efc4 51bf
000000d0: 96dd 2cbf 4611 31bf 85d2 1f3e 5372 de3b
000000e0: ce00 c03d 09ec e6be a177 453f 9cef 80bf
000000f0: 73e2 133f 6f6e a73d 134b 63bf 92bb 043f
00000100: 4dd6 a23e 318b 513e 20c4 0d3c 2574 1d3f
00000110: 3b05 f53c ec9e 8c3e 7f8d 3f3f 9588 973e
00000120: 49cd 49be 2c18 653e 1d4d 813f e585 193e
00000130: 2b6e ec3d 3242 693f 0558 4c3e eb3c 2c3e
00000140: 8604 2b3e 780b 963e 2585 e0bd ff83 043f
00000150: 5dfc 2493 7bb8 a0be 2f25 313e 9d20 603e
00000160: b49a 68bf 1140 003e 3aa1 b73e 12a6 943d
00000170: 3b71 fdbd 4edf 15bf 52de d93d 5413 323f
00000180: 3307 52bd 9741 213e a381 27be 6d5e b43c
00000190: d850 533e 533e 93be 71f9 14bf 5aca 45bf
000001a0: 7f98 1a3f 791d a03d 3d5c 26bf ac09 a83d
000001b0: fb9a 503e a52a 783d aeb5 2bbf 7c64 863e
000001c0: 2414 07bf e5b6 72bf 175a 03bf 40f1 4cbf
000001d0: 8d5b 47bf 419c 48bf 7413 883e 9b11 743c
000001e0: ff57 913d a9fc 08bf 12cd 483f 4494 70bf
000001f0: 7038 223f d270 0d3e db7b 77bf c525 f43e
00000200: 2f35 3c8e 017a dd8e b544 e40d 7bc7 f40c
00000210: efd5 cb0d 343f e50c 4f42 060d d387 8d0b
00000220: b618 890d 856c 4a8e 5165 070e d08a df0c
00000230: 1e47 398e a094 400c ce73 f38e cc7b 838d
00000240: 171b 038e ac73 c08e 9446 128d 1e3e cf8b
00000250: 9093 8581 ee60 680a 62ab 188e a725 f78e
00000260: 7870 dc8b 7b9b 568e 09be 848e 3b72 888e
00000270: 6940 138e b375 a78c cf43 db8e 3bad a28b
00000280: 3633 a98d 4578 db8e e575 468d b365 f18d
00000290: 4913 a58e 6d62 170c 560e f68d 2aca 2e0d
000002a0: eea6 cb0b eb9d 3b8e 5623 9d8d 362d 428e
000002b0: 9ee2 1c8c b2ed 458e b4d7 7b0c 318a 228a
000002c0: 3535 be0d edc6 590c df3c 7b0b 7038 db0c
000002d0: 3504 488c a97e 588d 2675 b28d a8ad a989
000002e0: 8a25 838e eba1 570c f136 188d 3b94 cf0d
000002f0: 7f97 908d 216d 8f8e bc1b 5e0d 60f1 168e
00000300: da50 8386 0dbe eb85 372b 558a 7859 df85
00000310: 9526 a889 5782 9f85 dcd3 5886 d508 d783
00000320: d15a 6d06 a4f0 6886 5e08 8f84 5746 0e85
00000330: 8883 8b86 5cdd b589 559f 3f86 4671 1e86
00000340: fc6a 2486 2f44 3486 fcb4 9405 e7ed 1f8a
00000350: 56a3 8d81 4e5b b985 4ef7 8c86 48fd 6587
00000360: b730 f984 17e6 5886 fbc3 3a89 6954 2d88
00000370: 5ca3 b486 a233 a205 adfd 2087 fa40 f985
00000380: 3093 2586 e598 3087 4ccd 2f89 3474 3086
00000390: ec40 7086 16cd be02 f96d bd85 d337 4086
000003a0: c71c e003 2b42 9886 7f3b 7286 b16f d186
000003b0: 245f 1e8a fc63 b986 159a 528a 4554 ee89
000003c0: 89cb c286 a14f d284 564b f704 ad28 0386
000003d0: 4780 ce85 e1de 9585 7188 3686 f88e 8501
000003e0: 8702 cc86 e03a 8e85 c15d 808a 655f 3886
000003f0: 360e 5505 a4e6 6f86 addd 7c85 8e60 4a87

fc_layers.1.bias f4 [32]
-0.06450188 0.01575454 -8.057072e-30 -1.0952381e-32 0.020381676 -2.7546907e-34 -2.630309e-29 -3.023204e-11
-0.117363684 -4.913611e-38 -1.50598955e-33 -2.2818035e-32 -1.138436e-33 -4.952812e-38 -7.429766e-33 -9.50107e-30
-0.14606483 -7.825735e-37 0.01763286 -3.9073145e-35 -6.020914e-37 -3.0430537e-34 -4.911208e-38 -1.0776292e-30
-4.237116e-36 -7.398295e-24 0.25865614 -4.8342315e-28 -7.293491e-36 0.11368781 -2.2182061e-37 -1.1526606e-34
00000000: 9019 84bd aa0f 813c b66a 238f d978 638a
00000010: 79f7 a63c a214 b787 5d5f 0590 40f6 04ae
00000020: 5f5c f0bd dfc2 8581 b639 fa88 bef4 ec8a
00000030: b627 bd88 10d4 8681 694f 1a8a 60b4 408f
00000040: 0592 15be e225 8583 ca72 903c 9cbf 4f86
00000050: 8fe1 4c83 e03e ca87 20b2 8581 f7da ae8d
00000060: 1c3a b484 951a 0f99 946e 843e f233 1992
00000070: 8b1d 1b85 28d5 e83d 9af6 9682 0237 1987

fc_layers.2.weight f4 [16, 32]
0.12874791 0.19548021 1.9780066e-30 -5.6521855e-34 0.22480804 6.584011e-35 -7.102712e-30 -2.0893582e-11
0.31853384 -4.9103185e-38 7.162553e-34 2.0008e-32 -2.7965727e-34 -2.0712828e-38 -5.877849e-34 -2.0469405e-29
0.060442284 5.951367e-37 0.19142054 8.287826e-36 2.1987696e-38 -7.5568916e-35 -1.8564537e-38 2.2103725e-31
3.6362632e-37 5.3089013e-25 -0.9650849 2.899963e-28 -1.5484839e-36 0.2577924 -3.957388e-38 -1.446202e-35
4.913701e-38 -4.914975e-38 -4.9169747e-38 4.9046623e-38 -4.9131183e-38 -4.9101207e-38 4.905643e-38 4.910224e-38
-4.9148806e-38 -4.90765e-38 -4.911433e-38 -4.912089e-38 4.905249e-38 -4.909239e-38 4.9127714e-38 -4.907465e-38
4.9167595e-38 -4.915447e-38 -4.9061634e-38 -4.910175e-38 4.9150476e-38 -4.9184377e-38 4.9093236e-38 -4.9142915e-38
4.9156625e-38 -4.904937e-38 4.915374e-38 4.909682e-38 4.914324e-38 -4.906881e-38 -4.9151833e-38 4.916101e-38
0.13865407 0.19452211 1.9321262e-30 -5.5057423e-34 0.20822696 6.4220976e-35 -6.9065405e-30 -2.0369609e-11
0.326635 -4.9131957e-38 6.9777983e-34 1.9519782e-32 -2.7208031e-34 -2.0250018e-38 -5.7338447e-34 -1.9977784e-29
0.055774476 5.811479e-37 0.1796563 8.0696726e-36 2.2422704e-38 -7.3615345e-35 -1.8583813e-38 2.1576427e-31
3.5445878e-37 5.1172593e-25 -0.88858193 2.827187e-28 -1.5111543e-36 0.27181637 -3.9366263e-38 -1.4284545e-35
-4.927795e-38 -4.921988e-38 -4.904641e-38 4.9091016e-38 -4.9064594e-38 4.911494e-38 4.904551e-38 4.905195e-38
-4.918383e-38 -4.918276e-38 4.909484e-38 4.917286e-38 -4.9127506e-38 -4.911947e-38 4.9132316e-38 -4.908115e-38
-4.9147237e-38 4.9145213e-38 -5.0546966e-38 -4.908954e-38 4.915518e-38 -4.906246e-38 -4.910387e-38 4.91215e-38
4.9130735e-38 -4.9130584e-38 -4.90706e-38 -4.915416e-38 -4.9050373e-38 -4.911522e-38 -4.908034e-38 -4.9131766e-38
-4.90778e-38 -4.9173553e-38 4.914853e-38 4.917558e-38 -4.905078e-38 4.914065e-38 4.913943e-38 -4.9111857e-38
-4.9094094e-38 4.907714e-38 4.9174674e-38 -4.9141575e-38 -4.9085417e-38 -4.910489e-38 -4.915297e-38 4.906937e-38
-4.9065995e-38 4.918459e-38 -4.9172213e-38 -4.9178295e-38 -4.916667e-38 -4.9126783e-38 4.915502e-38 -4.914644e-38
-4.91226e-38 4.9164327e-38 -4.913891e-38 4.9124726e-38 4.917527e-38 -4.9134457e-38 -4.9118807e-38 4.913859e-38
0.11095484 0.16931403 1.7766243e-30 -5.031388e-34 0.182254 5.8880753e-35 -6.2749416e-30 -1.8608224e-11
0.29544798 -4.916768e-38 6.3847844e-34 1.7879159e-32 -2.4868894e-34 -1.9197453e-38 -5.2658634e-34 -1.8369876e-29
0.040809743 5.3385494e-37 0.14380488 7.3915614e-36 2.4934817e-38 -6.723653e-35 -1.8521438e-38 1.9808892e-31
3.2334516e-37 4.7192184e-25 -0.89777875 2.5879318e-28 -1.3768483e-36 0.25028655 -4.0146865e-38 -1.3112716e-35
0.1775328 0.23145746 2.3004295e-30 -6.614773e-34 0.2646954 7.683088e-35 -8.457381e-30 -2.445306e-11
0.3624015 -6.2624006e-38 8.37608e-34 2.3358857e-32 -3.2728706e-34 8.3921e-40 -6.8406925e-34 -2.3787654e-29
0.09522507 6.945638e-37 0.2264612 9.6712894e-36 1.6361202e-38 -8.8476877e-35 -1.856888e-38 2.5743244e-31
4.239437e-37 6.1878225e-25 -0.8841901 3.3873167e-28 -1.8109883e-36 0.3023001 -3.804985e-38 -1.7221368e-35
0.044009402 0.1027312 1.1879476e-30 -3.2570696e-34 0.09961275 3.9831652e-35 -4.017989e-30 -1.2088683e-11
0.2422738 -4.9080905e-38 3.926144e-34 1.18302244e-32 -1.6010899e-34 -1.6654668e-38 -3.5781543e-34 -1.2366874e-29
-0.010513114 3.4320427e-37 0.08538508 4.910402e-36 3.5525764e-38 -4.4905382e-35 -1.853122e-38 1.3342961e-31
2.4330904e-37 3.0800507e-25 -0.90025914 1.6976892e-28 -8.768241e-37 0.17905596 -4.2350423e-38 -8.5033e-36
00000000: 7ed6 033e f72b 483e 9779 200e 7ad3 3b88
00000010: 1434 663e 7508 af06 640f 108f 2ac8 b7ad
00000020: de16 a33e edab 8581 4304 6e08 63c6 cf0a
00000030: 38dd b987 f08a e180 3653 4388 9d95 cf8f
00000040: 5492 773d b883 4a03 bf03 443e 3743 3005
00000050: c06c ef00 8ae5 c886 6026 ca80 1d76 8f0c
00000060: a478 f702 734d 2417 ce0f 77bf 97ce b711
00000070: feba 0384 5efd 833e f075 5781 5dc9 9985
00000080: 80c3 8501 60cc 8581 50da 8581 8284 8501
00000090: 70bf 8581 8caa 8581 588b 8501 44ab 8501
000000a0: b8cb 8581 5499 8581 b1b3 8581 44b8 8581
000000b0: 9988 8501 67a4 8581 05bd 8501 0a98 8581
000000c0: d0d8 8501 aacf 8581 f88e 8581 edaa 8581
000000d0: e2cc 8501 82e4 8581 fea4 8501 9dc7 8581
000000e0: 2bd1 8501 6c86 8581 28cf 8501 7da7 8501
000000f0: d7c7 8501 f893 8581 d4cd 8581 39d4 8501
00000100: 55fb 0d3e ce30 473e b1c0 1c0e adf5 3688
00000110: 7339 553e 88ba aa06 cf14 0c8f 482c b3ad
00000120: b43c a73e fabf 8581 8be0 6708 7bb4 ca0a
00000130: 11d4 b487 d080 dc80 288a 3e88 4b99 ca8f
00000140: c773 643d 1fc1 4503 d2f7 373e 7a9f 2b05
00000150: 6029 f400 02b4 c386 1c5c ca80 fd09 8c0c
00000160: 6e3b f102 1b5f 1e17 1b7a 63bf bb31 b311
00000170: 078e 0084 842b 8b3e 9054 5681 3be6 9785
00000180: b825 8681 40fd 8581 5c84 8581 72a3 8501
00000190: 0891 8581 1eb4 8501 bb83 8501 3888 8501
000001a0: 20e4 8581 62e3 8581 1ca6 8501 7bdc 8501
000001b0: e0bc 8581 46b7 8581 3ac0 8501 929c 8581
000001c0: a0ca 8581 37c9 8501 189a 8981 6ba2 8581
000001d0: 29d0 8501 8b8f 8581 67ac 8581 b0b8 8501
000001e0: 20bf 8501 05bf 8581 3895 8581 73cf 8581
000001f0: 1f87 8581 50b4 8581 019c 8581 d8bf 8581
00000200: 3c9a 8581 f7dc 8581 87cb 8501 61de 8501
00000210: 6887 8581 09c6 8501 2fc5 8501 f8b1 8581
00000220: 97a5 8581 c699 8501 bfdd 8501 aec6 8581
00000230: 8b9f 8581 1dad 8581 9fce 8581 5c94 8501
00000240: 0292 8581 a8e4 8501 08dc 8581 45e0 8581
00000250: 2bd8 8581 5fbc 8581 0dd0 8501 12ca 8581
00000260: 75b9 8581 89d6 8501 d2c4 8581 f0ba 8501
00000270: 29de 8501 b8c1 8581 d0b6 8581 99c4 8501
00000280: 4b3c e33d a860 2d3e 0b23 100e 5132 2788
00000290: cba0 3a3e 2a88 9c06 b88a fe8e ffad a3ad
000002a0: f544 973e dfd8 8581 bd2b 5408 f5aa b90a
000002b0: 3b48 a587 b00a d180 03fd 2e88 ed4a ba8f
000002c0: 1e28 273d 53a9 3503 9641 133e 7d33 1d05
000002d0: 10c2 0701 d0be b286 3cae c980 2b91 800c
000002e0: ac0e dc02 800d 1217 d4d4 65bf 9807 a411
000002f0: 3442 ea83 8f25 803e 9094 5a81 3570 8b85
00000300: 29cb 353e 2f03 6d3e 0da2 3a0e 44d0 5b88
00000310: 2886 873e 6340 cc06 3c89 2b8f 6517 d7ad
00000320: b08c b93e 907a aa81 e72b 8b08 7e92 f20a
00000330: 0285 d987 6023 0900 2d52 6388 483c f18f
00000340: 5d05 c33d 0a59 6c03 72e5 673e 82af 4d05
00000350: 6028 b200 3e36 eb86 7c32 ca80 4d15 a70c
00000360: b442 1003 fb80 3f17 485a 62bf 5bb2 d611
00000370: d50f 1a84 14c7 9a3e c029 4f81 0621 b785
00000380: 3443 343d bc64 d23d 6ac1 c00d 2b78 d887
00000390: c501 cc3d 09c8 5306 2ffd a28e 97aa 54ad
000003a0: 9f16 783e 669c 8581 f077 0208 43b4 750a
000003b0: 44d2 5487 705a b580 24cf ed87 7bd4 7a8f
000003c0: 323f 2cbc 9e92 e902 5fde ae3d 8bdd d004
000003d0: b06b 4101 0ac2 6e86 80c9 c980 9833 2d0c
000003e0: 6a96 a502 5aa5 be16 6277 66bf 2a35 5711
000003f0: 132f 9583 725a 373e e093 6681 5ed8 3485

fc_layers.2.bias f4 [16]
0.35109684 -5.4505225e-38 0.31880566 -5.734046e-38 -4.91581e-38 0.3206633 0.3445598 0.23733751
-4.9079515e-38 0.7421059 0.33335522 -5.414468e-38 0.34319356 -4.90611e-38 0.33085817 -5.5777996e-38
00000000: f7c2 b33e 9960 9481 7f3a a33e 7818 9c81
00000010: 32d2 8581 fb2d a43e 246a b03e 9b08 733e
00000020: 6e9b 8581 a7fa 3d3f 89ad aa3e 5665 9381
00000030: 11b7 af3e 998e 8581 3e66 a93e 97d7 9781

fc_layers.3.weight f4 [8, 16]
-4.914661e-38 4.9092143e-38 -4.907688e-38 -4.907488e-38 -4.907602e-38 -4.905002e-38 -4.9276963e-38 -4.906603e-38
-4.915975e-38 -5.6137586e-38 -4.913392e-38 4.910288e-38 -4.910181e-38 4.90574e-38 -4.908419e-38 -4.9183614e-38
0.28729787 4.9069257e-38 0.27508125 -4.908836e-38 -4.9138246e-38 0.25065836 0.32131118 0.1774534
-4.90477e-38 -1.2317878 0.29024893 4.910827e-38 0.2731917 4.912945e-38 0.25282502 4.9168043e-38
0.16279706 3.6259102e-38 0.16590537 -4.9163514e-38 -4.9112826e-38 0.15199979 0.19232033 0.07567942
-4.9120405e-38 -0.97505575 0.17475277 -4.904737e-38 0.15930274 4.9118914e-38 0.13429996 4.907742e-38
-4.9090064e-38 -4.9081527e-38 -4.909809e-38 4.9103606e-38 4.9114956e-38 -4.912571e-38 -4.911033e-38 -4.915423e-38
4.917744e-38 -5.854692e-38 -4.9067553e-38 -4.906049e-38 -4.9138e-38 4.9123964e-38 -4.9167146e-38 4.9098286e-38
0.20285667 3.5215774e-38 0.20930745 -3.9747326e-38 -4.9182785e-38 0.18805264 0.25612378 0.14691044
-4.918366e-38 -1.0382622 0.21645007 -4.9163643e-38 0.2101732 4.909736e-38 0.1904904 4.917737e-38
0.10502628 3.7312116e-38 0.080889836 -4.916374e-38 -4.918018e-38 0.08031515 0.122350104 -0.0031469709
-4.9067884e-38 -1.0095814 0.07514944 -4.915163e-38 0.088750914 4.917422e-38 0.06360709 4.914625e-38
-4.9142887e-38 4.9050984e-38 -4.9076656e-38 -4.905624e-38 -4.917787e-38 -4.905984e-38 -4.9063383e-38 -4.9124053e-38
-4.9129715e-38 -4.9056567e-38 -4.913459e-38 -4.907532e-38 -4.905334e-38 -4.909239e-38 -4.9172213e-38 4.909589e-38
-4.914782e-38 -4.9164293e-38 -4.910253e-38 4.906737e-38 4.9054325e-38 -4.9122663e-38 -4.9192885e-38 -4.9181944e-38
4.914086e-38 -6.194811e-38 -4.9109704e-38 -4.9048966e-38 -4.906778e-38 -4.9141867e-38 -4.905706e-38 -4.9091913e-38
00000000: 30ca 8581 3ba4 8501 9899 8581 3398 8581
00000010: ff98 8581 e086 8581 0825 8681 0892 8581
00000020: 58d3 8581 30d2 9881 58c1 8581 b7ab 8501
00000030: f8aa 8581 058c 8501 b09e 8581 fae3 8581
00000040: b518 933e 4894 8501 73d7 8c3e 98a1 8581
00000050: 5cc4 8581 4b56 803e e682 a43e 58b6 353e
00000060: 4285 8581 39ab 9dbf 829b 943e 78af 8501
00000070: c8df 8b3e 3bbe 8501 4872 813e 20d9 8501
00000080: 46b4 263e d069 4501 19e3 293e f8d5 8581
00000090: a5b2 8581 d5a5 1b3e 9fef 443e d0fd 9a3d
000000a0: edb7 8581 419d 79bf 64f2 323e 0785 8581
000000b0: 4220 233e e3b6 8501 ee85 093e f899 8501
000000c0: c8a2 8581 d59c 8581 60a8 8581 38ac 8501
000000d0: 21b4 8501 a0bb 8581 e8b0 8581 80cf 8581
000000e0: acdf 8501 4061 9f81 1893 8581 2c8e 8581
000000f0: 30c4 8581 68ba 8501 80d8 8581 83a8 8501
00000100: a9b9 4f3e a0bb 3f01 b154 563e b067 5881
00000110: 66e3 8581 df90 403e a822 833e b16f 163e
00000120: 02e4 8581 c7e5 84bf 16a5 5d3e 0fd6 8581
00000130: a537 573e dea7 8501 ea0f 433e a0df 8501
00000140: 0518 d73d 8025 4b01 92a9 a53d 20d6 8581
00000150: 95e1 8581 457c a43d b192 fa3d 693d 4ebb
00000160: 5393 8581 f739 81bf f3e7 993d b0cd 8581
00000170: 0ac3 b53d 6edd 8501 6f44 823d f0c9 8501
00000180: 98c7 8581 8c87 8501 7099 8581 368b 8581
00000190: f9df 8581 b88d 8581 3090 8581 78ba 8581
000001a0: 6abe 8581 708b 8581 d0c1 8581 8298 8581
000001b0: 3089 8581 67a4 8581 08dc 8581 d7a6 8501
000001c0: 08cb 8581 83d6 8581 78ab 8581 f792 8501
000001d0: e089 8501 80b9 8581 70ea 8581 d0e2 8581
000001e0: 2ec6 8501 88a3 a881 78b0 8581 2486 8581
000001f0: 4093 8581 e2c6 8581 c88b 8581 12a4 8581

fc_layers.3.bias f4 [8]
-4.911051e-38 0.604141 0.5268883 -4.904939e-38 0.5667858 0.4714991 -4.910168e-38 -4.915217e-38
00000000: 08b1 8581 fca8 1a3f 27e2 063f 7086 8581
00000010: e018 113f 5468 f13e e0aa 8581 10ce 8581
