checkpoints/neumf_first_try_Epoch22_HR0.6806_NDCG0.4044.model (torch, 645108 bytes, 13 tensors)

embedding_user_mlp.weight f4 [6040, 8]
-0.07542479 0.62133926 0.7235899 0.30005535 -0.41488037 -0.28285682 -0.03588829 -0.6002429
-0.23505682 0.12616168 0.2982703 0.080269046 0.08219307 0.00950749 0.3270234 0.20317239
-0.11765071 0.2145696 0.67836076 0.13785774 0.019694185 -0.7092427 -0.3359787 -0.058580115
0.025043597 0.73049635 0.8752551 0.55155915 -0.72488844 -0.713672 -0.26794267 -0.50803185
-0.38804442 0.11875817 -0.17866689 0.12698758 -0.48182037 -0.12301245 -0.6841889 -0.4552832
-0.1663962 0.09101893 0.3846594 0.25111476 -0.30939084 -0.29798824 -0.65866923 -0.35788885
-0.13820966 0.61863685 0.5301226 0.8651692 -0.3354697 -0.6373847 -0.40563425 -0.43389788
-0.030403385 -0.019055119 0.45240173 0.26750365 0.5502674 -0.56065136 0.3580241 0.1662561
-0.15438701 0.47751665 0.46305093 0.41524386 -0.31991273 -0.37383205 -0.4140021 -0.34314826
-0.19023731 -0.183582 0.024512488 -0.09233437 -0.3375697 0.11249973 0.3152416 0.15297809
0.23087129 0.015679676 0.15630758 0.46885684 -0.048385058 -0.2507755 0.45994857 -0.019377358
0.100208454 0.08697391 0.03306627 0.45269632 0.41195756 -0.079541296 -0.12130446 -0.07674469
0.15942636 0.3005709 0.45918262 0.009137979 0.15311724 -0.14025971 0.28043914 0.13235906
-0.5788564 -0.22790462 -0.07389572 0.39234486 -0.5677515 -0.21578254 -0.3053629 -0.4613379
-0.32121488 0.11865588 0.19721124 0.09991347 -0.42327842 -0.5311065 0.20522703 0.13703121
-0.42079678 -0.07044743 -0.39345115 0.39435002 -0.98951477 -0.32284793 -0.9180438 -0.68692183
-0.045517083 -0.16096374 -0.016364774 0.2904717 -0.51342756 -0.1099105 -0.21349102 -0.20613116
0.2529737 -0.2685805 0.11310289 -0.20934547 0.23188667 0.2300653 0.5130756 -0.00870991
-0.26542416 0.40946436 -0.16685152 -0.4243628 -0.5715026 0.21639597 -0.040190294 -0.3347669
0.09759962 0.60257965 0.39951453 0.1906062 -0.5397104 -0.07555098 -0.46621612 0.12960404
-0.8067994 -0.03523106 0.13662352 0.17887548 0.00050671847 0.03266934 -0.28622895 -0.104804575
0.09742932 0.016285006 -0.1192604 -0.0048643975 0.21421205 0.17155492 -0.14875627 0.20794404
-0.06389955 -0.11280283 -0.2646405 0.094476104 -0.33679682 -0.10271391 -0.42877942 -0.10751794
-0.5266042 -0.015957173 0.06639835 -0.10961518 -0.11129554 -0.14836678 -0.26115698 -0.1992664
-0.45745248 -0.20540239 -0.082946345 0.44616356 -0.3057482 0.015931563 -0.15945284 -0.7741376
0.49555954 -0.038525075 -0.10079557 0.02359079 0.29303515 0.1231945 -0.060126245 0.54729545
-0.027575396 0.29642108 0.1483604 0.3874784 -0.59317976 -0.25486544 -0.4733652 0.33512074
0.22945017 0.03852312 -0.11918119 0.39902514 -0.43144864 -0.27841386 -0.2728992 -0.24495332
0.004712998 0.71278965 0.72165686 0.2726336 0.17681031 0.25727117 0.23894756 -0.23537949
0.009464301 0.22018793 0.5697671 0.21337388 -0.37639248 -0.35744134 -0.2152122 -0.7113858
-0.14188965 0.2593836 -0.018480929 0.45666513 -0.23049347 -0.6335795 -0.8062077 0.06543581
0.1419658 0.16286404 0.022827525 0.2670913 -0.7630839 -0.14145786 -0.105061315 -0.39528826
00000000: 5078 9abd 1710 1f3f 303d 393f dba0 993e
00000010: 336b d4be 9cd2 90be 99ff 12bd 85a9 19bf
00000020: bcb2 70be 8730 013e e2b6 983e 1964 a43d
00000030: d754 a83d 4ec5 1b3c 9c6f a73e 6c0c 503e
00000040: dbf2 f0bd 22b8 5b3e 0da9 2d3f 942a 0d3e
00000050: b355 a13c ee90 35bf 6605 acbe b4f1 6fbd
00000060: 3b28 cd3c cf01 3b3f b810 603f fb32 0d3f
00000070: 4a92 39bf 35b3 36bf c82f 89be 600e 02bf
00000080: c2ad c6be 7c37 f33d 74f4 36be 0809 023e
00000090: 29b1 f6be f4ed fbbd 0127 2fbf e11a e9be
000000a0: c463 2abe 2268 ba3d 14f2 c43e 1d92 803e
000000b0: 7a68 9ebe ea91 98be 8c9e 28bf 353d b7be
000000c0: d586 0dbe fc5e 1e3f 1db6 073f bb7b 5d3f
000000d0: afc2 abbe a52b 23bf 4baf cfbe dd27 debe
000000e0: 8510 f9bc 7b19 9cbc 33a1 e73e 3df6 883e
000000f0: 53de 0c3f d986 0fbf ef4e b73e 0a3f 2a3e
00000100: a117 1ebe 107d f43e 0315 ed3e d89a d43e
00000110: 9acb a3be ea66 bfbe 15f8 d3be 21b1 afbe
00000120: 92cd 42be ebfc 3bbe 6ace c83c cd19 bdbd
00000130: f0d5 acbe 4266 e63d 5967 a13e 4aa6 1c3e
00000140: 8669 6c3e aa72 803c 180f 203e 010e f03e
00000150: 692f 46bd a565 80be 617e eb3e 44bd 9ebc
00000160: 173a cd3d 611f b23d 7f70 073d d0c7 e73e
00000170: 1aec d23e 8ce6 a2bd 796e f8bd 522c 9dbd
00000180: aa40 233e 6ee4 993e fc19 eb3e 76b7 153c
00000190: c4ca 1c3e 3ea0 0fbe b895 8f3e 2289 073e
000001a0: ef2f 14bf d45f 69be a456 97bd 6de1 c83e
000001b0: 2a58 11bf 19f6 5cbe 8758 9cbe 7b34 ecbe
000001c0: 4776 a4be db01 f33d bef1 493e 6f9f cc3d
000001d0: f3b7 d8be 98f6 07bf 0927 523e e951 0c3e
000001e0: ad72 d7be be46 90bd 6e72 c9be 3fe8 c93e
000001f0: d750 7dbf 534c a5be eb04 6bbf 1cda 2fbf
00000200: 1f70 3abd aed3 24be 6b0f 86bc b5b8 943e
00000210: fd6f 03bf c218 e1bd 649d 5abe 0c14 53be
00000220: c585 813e 6283 89be 7da2 e73d a95e 56be
00000230: b373 6d3e 3d96 6b3e ec58 033f 03b4 0ebc
00000240: ade5 87be 50a5 d13e 20db 2abe 1546 d9be
00000250: ff4d 12bf e896 5d3e 949e 24bd 9166 abbe
00000260: 4fe2 c73d a942 1a3f 2b8d cc3e 462e 433e
00000270: 762a 0abf 79ba 9abd e1b3 eebe ecb6 043e
00000280: 688a 4ebf 724e 10bd 09e7 0b3e 222b 373e
00000290: 4dd5 043a 49d0 053d 9a8c 92be c8a3 d6bd
000002a0: 0689 c73d 2268 853c cc3e f4bd 8665 9fbb
000002b0: 675a 5b3e 18ac 2f3e 9053 18be 48ef 543e
000002c0: c4dd 82bd 2c05 e7bd f67e 87be b07c c13d
000002d0: a270 acbe ac5b d2bd fa88 dbbe 5e32 dcbd
000002e0: 88cf 06bf 9eb8 82bc dcfb 873d ec7d e0bd
000002f0: ebee e3bd 76ed 17be 5eb6 85be 7e0c 4cbe
00000300: 3637 eabe 0155 52be c6df a9bd 8d6f e43e
00000310: 078b 9cbe e982 823c 9b47 23be e22d 46bf
00000320: fbb9 fd3e 78cc 1dbd e86d cebd 7941 c13c
00000330: b408 963e 664d fc3d f046 76bd 8e1b 0c3f
00000340: cce5 e1bc 81c4 973e caeb 173e 9263 c63e
00000350: a1da 17bf b97d 82be ec5c f2be f294 ab3e
00000360: fcf4 6a3e 6bca 1d3d 4515 f4bd 064d cc3e
00000370: d6e6 dcbe 438c 8ebe 72b9 8bbe 0bd5 7abe
00000380: 7e6f 9a3b 6279 363f 81be 383f a296 8b3e
00000390: c30d 353e 0cb9 833e abae 743e 5207 71be
000003a0: 2810 1b3c f278 613e 42dc 113f af7e 5a3e
000003b0: 84b6 c0be 8d02 b7be 9660 5cbe 611d 36bf
000003c0: 854b 11be edcd 843e 5165 97bc 03d0 e93e
000003d0: 7b06 6cbe 4432 22bf a163 4ebf 3603 863d
000003e0: 7c5f 113e d5c5 263e ca00 bb3c 31c0 883e
000003f0: 7759 43bf 54da 10be 632a d7bd 3963 cabe

embedding_item_mlp.weight f4 [3706, 8]
-1.0125061 -1.1689128 -0.3678405 1.3524226 1.4119691 1.1034766 -0.8266342 0.16686155
-0.6778243 -0.38908705 -0.17116098 -0.08676154 0.10928396 -0.30340707 -0.11216624 0.29097226
-0.20128024 0.07379213 -0.36041307 0.13280672 0.30059737 0.29961658 -0.15612346 0.20458493
-0.61163265 -0.76811665 -0.603791 0.6318318 0.2630171 1.0489318 -0.82772225 0.7278128
-0.46447235 -1.2124635 -0.874824 0.56593156 0.5301884 0.5144321 -0.20045535 0.89947295
-0.72189903 -0.76560426 -0.38592678 -0.20502877 0.5220357 0.9842514 -0.15929613 0.44643414
-0.21846648 -0.095408045 -0.05377169 -0.2841964 0.06816776 0.07777659 -0.017602112 -0.05292568
-0.35907423 -0.57924676 -0.05105094 -0.29578757 0.27995405 0.39471993 -0.0787229 0.1061122
-0.06115755 0.097309455 -0.22868632 -0.15762818 0.09732498 -0.25451073 -0.100049734 0.18523976
-0.39424995 -0.12082819 -0.26567706 0.4110172 0.2448802 0.5170067 -0.24141265 -0.016403276
-0.25037766 -0.19203416 -0.24217388 0.0006166182 0.18996839 0.051558193 -0.19792284 0.097248584
0.008388276 0.17531796 0.05212494 -0.033570997 0.15123259 -0.24503224 -0.05306591 0.14851876
0.0795517 0.09366835 0.0026521268 -0.08804026 -0.41513988 0.0001668082 0.16030844 -0.046454
0.3022149 -0.07651427 -0.29786563 -0.14506817 -0.23515257 0.23690856 0.015893154 0.069447726
-0.8324106 -0.12761742 -0.50733614 0.12030796 0.07741945 -0.024251916 -0.48683572 0.37371382
-0.7595941 -0.23494893 -0.49485093 0.33749995 0.010636281 0.12033994 -0.40047425 0.3083255
0.2233877 -0.8040238 -0.10140516 -0.49042076 0.314758 0.12533516 0.29559854 0.1605433
0.05851185 0.043137398 -0.3712766 -0.26659405 0.3062053 -0.25405976 0.30136737 -0.03787285
-0.25527725 -0.02606917 0.119787864 0.07056307 0.09111263 0.019082772 0.15362862 -0.27694765
-0.1661788 -0.21228805 -0.27647427 -0.10840383 0.052126687 0.36631942 -0.1294311 0.014299313
-0.40053073 0.20932311 0.039738726 0.40134254 0.24460469 0.30611548 -0.45149368 0.13243414
0.30721074 -0.63581795 0.10414631 -0.26294518 0.3510107 0.22663023 0.41915256 0.23748913
-0.27228704 -0.59836257 -0.5875525 0.74265397 0.41370955 0.75532687 -0.6695828 0.29346606
-0.84821904 -1.0863087 -0.56580037 1.0766857 0.96140766 0.71141344 -0.7976953 0.10383053
-0.07152318 -0.21919285 0.29176342 0.011739789 -0.02196183 0.34215438 -0.11802439 0.19505946
-0.1432126 -0.014937866 -0.021509761 -0.24814458 0.07295986 -0.18888693 0.2236188 0.11050173
-0.46341816 -0.83236796 -0.5881487 0.57938844 0.45731667 0.674824 -0.61883575 0.25316074
-0.7807569 -0.47762656 -0.35942042 0.7050595 1.0014709 0.98618656 -0.7230759 -0.015949793
0.28980705 -0.34343898 0.32234198 -0.4710064 -0.26995844 0.1591862 0.4894829 -0.2021956
0.20003298 -0.5889179 0.19135563 -0.10170648 0.76478815 0.4442828 0.075463034 0.4172389
-0.0319844 -0.36906493 -0.21188055 0.07555233 0.29150692 -0.069519 0.08867075 -0.033947278
-0.2027048 -0.7038842 0.17203677 0.38109297 0.17852946 0.97382575 -0.09555995 -0.09790319
00000000: cd99 81bf ef9e 95bf 9755 bcbe 2f1c ad3f
00000010: 67bb b43f b93e 8d3f 4d9e 53bf c1dd 2a3e
00000020: e585 2dbf 6b36 c7be d344 2fbe 09b0 b1bd
00000030: 45d0 df3d 2c58 9bbe 6ab7 e5bd 51fa 943e
00000040: 681c 4ebe 5420 973d 1088 b8be 7cfe 073e
00000050: e6e7 993e 5867 993e d4de 1fbe b67e 513e
00000060: f593 1cbf 4ba3 44bf 0c92 1abf bbbf 213f
00000070: 2daa 863e 6643 863f 9be5 53bf f151 3a3f
00000080: 52cf edbe 0132 9bbf 77f4 5fbf e4e0 103f
00000090: 6dba 073f d2b1 033f 2b44 4dbe dc43 663f
000000a0: 60ce 38bf a4fe 43bf 3298 c5be 10f3 51be
000000b0: 22a4 053f e6f7 7b3f 861e 23be 0493 e43e
000000c0: adb5 5fbe 4b65 c3bd b43f 5cbd 3182 91be
000000d0: 8a9b 8b3d 5549 9f3d 4e32 90bc 99c8 58bd
000000e0: 94d8 b7be 8449 14bf ca1a 51bd 7871 97be
000000f0: 2356 8f3e bb18 ca3e 7939 a1bd 5a51 d93d
00000100: 5780 7abd 2e4a c73d bf2c 6abe 4869 21be
00000110: 5252 c73d 3b4f 82be e0e6 ccbd 7eaf 3d3e
00000120: 21db c9be c574 f7bd d306 88be d970 d23e
00000130: e0c1 7a3e 8d5a 043f e134 77be 2a60 86bc
00000140: 8031 80be 9aa4 44be 6efc 77be 8ca4 213a
00000150: 1387 423e af2e 533d 49ac 4abe 442a c73d
00000160: fb6e 093c 8d86 333e f680 553d be81 09bd
00000170: b7dc 1a3e bbe9 7abe a45b 59bd 4d15 183e
00000180: 00ec a23d 31d5 bf3d 4ecf 2d3b 744e b4bd
00000190: 378d d4be 3ce9 2e39 e527 243e 8d46 3ebd
000001a0: e9bb 9a3e 83b3 9cbd d881 98be c08c 14be
000001b0: d6cb 70be 2898 723e 5c32 823c 9c3a 8e3d
000001c0: dc18 55bf 24ae 02be c8e0 01bf 0564 f63d
000001d0: 178e 9e3d f4ab c6bc 8842 f9be 6b57 bf3e
000001e0: c274 42bf 7496 70be 1a5d fdbe cbcc ac3e
000001f0: cc43 2e3c c974 f63d f60a cdbe d7dc 9d3e
00000200: bfbf 643e 81d4 4dbf 82ad cfbd 6e18 fbbe
00000210: f627 a13e dc57 003e b158 973e 7665 243e
00000220: 1faa 6f3d d7b0 303d f717 bebe 047f 88be
00000230: f1c6 9c3e 1f14 82be d34c 9a3e 9020 1bbd
00000240: b3b3 82be 038f d5bc 5753 f53d 5f83 903d
00000250: 4299 ba3d 7953 9c3c d250 1d3e 15cc 8dbe
00000260: c62a 2abe 0a62 59be 098e 8dbe d402 debd
00000270: cb82 553d 388e bb3e 9689 04be aa47 6a3c
00000280: 5d12 cdbe cc58 563e 13c5 223d c57c cd3e
00000290: a779 7a3e 2bbb 9c3e 2e2a e7be d19c 073e
000002a0: ba4a 9d3e f7c4 22bf a94a d53d c0a0 86be
000002b0: adb7 b33e c111 683e 2a9b d63e 5a30 733e
000002c0: 3569 8bbe 4a2e 19bf d769 16bf 921e 3e3f
000002d0: bdd1 d33e 1a5d 413f c769 2bbf 2f41 963e
000002e0: e224 59bf 2a0c 8bbf 4bd8 10bf d6d0 893f
000002f0: d01e 763f 311f 363f c235 4cbf 1aa5 d43d
00000300: bf7a 92bd 1774 60be 0462 953e 3e58 403c
00000310: 4ce9 b3bc dc2e af3e c5b6 f1bd abbd 473e
00000320: 53a6 12be f3bd 74bc 3d35 b0bc 9d19 7ebe
00000330: fb6b 953d 936b 41be 54fc 643e bb4e e23d
00000340: 2545 edbe 1116 55bf ea90 16bf cd52 143f
00000350: 6925 ea3e 44c1 2c3f 056c 1ebf 499e 813e
00000360: afdf 47bf 788b f4be f405 b8be c87e 343f
00000370: 3330 803f b976 7c3f 811b 39bf 24a9 82bc
00000380: 9761 943e 3cd7 afbe 020a a53e c027 f1be
00000390: fe37 8abe b501 233e 819d fa3e 5d0c 4fbe
000003a0: 72d5 4c3e 53c3 16bf bbf2 433e 7d4b d0bd
000003b0: 28c9 433f 0979 e33e 5d8c 9a3d 56a0 d53e
000003c0: 1302 03bd 14f6 bcbe 37f7 58be 2ebb 9a3d
000003d0: 6540 953e fa5f 8ebd 0399 b53d 4d0c 0bbd
000003e0: d991 4fbe c131 34bf 682a 303e 9e1e c33e
000003f0: 6dd0 363e a54c 793f efb4 c3bd 7881 c8bd

embedding_user_mf.weight f4 [6040, 8]
0.043960467 0.17879507 -0.3480714 0.40148318 -0.029323133 -0.45835888 0.037545297 -1.1514249
-0.033150855 -0.40037787 0.058570296 1.1772636 0.20774089 0.16077736 0.31767592 0.018890742
0.44296464 -0.7080657 -0.09493432 0.092913486 0.042833995 0.6593046 0.40380573 -0.81787187
-0.19170855 -0.05067639 0.49480078 0.6641089 -0.35126072 0.8152821 0.39052585 -0.28644335
-0.016346207 -0.440129 -0.033447154 0.31083068 -0.94550586 -0.4628688 -0.5039608 0.07470001
0.35628814 0.1367692 -0.46472725 0.5148539 0.71579367 -0.11054464 0.42146522 -0.23656231
0.68726283 -0.6325167 0.59235525 0.5921749 -0.4676517 0.6771731 0.21835804 -0.3478698
0.43356666 -0.6225302 0.25516742 0.8835262 -0.6558868 -0.7591398 -0.12214718 -0.15220194
0.2067199 -1.1222817 0.28252143 0.76731044 -0.18151551 -0.45752683 -0.38000435 -0.8380907
0.24774882 0.26976764 -0.7195767 0.42196092 0.12504493 0.26448599 0.034169223 -0.61718255
-0.00072266004 -0.6775628 -0.47711352 -0.31769377 -0.17812967 -0.48662072 -0.053470984 -0.7604359
-0.30917454 -0.42496255 0.3282317 0.090824775 0.0033019364 0.49256513 -0.24066813 -0.6255732
0.3910574 0.059778538 -0.35954842 1.0995978 -0.16137783 0.54948306 0.0163639 0.21140811
-0.1723122 -0.1526515 0.08176414 -0.20641696 -0.35165432 0.07614473 0.2844513 -0.28256992
0.74155074 -0.8455776 0.31011537 0.37448147 0.038435612 -0.26647195 0.48776045 -0.5090528
0.62141174 0.18946235 -0.28141892 0.14032707 0.21184222 -0.04955427 0.24347241 -0.001115219
0.09765969 -0.030073017 0.15361102 0.36018062 -0.72544146 0.3143926 -0.19404453 0.49909464
0.43508935 0.033191852 -0.21304688 0.8865902 -0.31311986 0.1102665 -0.18273756 -0.42322224
0.46547875 0.077888794 0.18745196 -0.06259016 -0.20739393 0.6792368 0.11417698 -0.6880102
0.39026415 -0.6876653 0.11293376 0.11726178 -0.3446 0.348199 -0.09671614 -0.1436276
0.65119535 0.10006983 -0.094867624 0.1777292 -0.36492532 0.1870536 -0.58443594 -0.5687918
0.56144655 -0.6008912 -0.26573506 -0.2406715 -0.5910967 0.36121944 -0.01724821 -0.47688842
-0.07724142 -0.2093535 -0.26006395 0.10117991 -0.9469003 0.5246259 -0.13727005 0.19969898
-0.079975404 -0.3482657 -0.74527997 0.34489885 -0.22959247 -0.15032221 0.37269384 -0.21996726
0.6085955 -0.27946585 -0.1663189 0.25346857 -0.29259768 0.38362134 -0.5099202 -0.27568415
0.48613507 -0.26284513 -0.7057883 0.10592335 0.16242762 -0.20193271 0.8625069 -0.2730284
-0.4397348 0.093202904 -0.12947728 0.42985547 -0.16339639 0.4570058 -0.06239759 -0.5078603
-0.19460365 0.032444894 -0.33190382 0.3786307 -0.4899546 -0.17322922 0.05339452 -0.41911522
0.009263975 -0.27467 0.6032832 0.6906742 -0.24246673 1.1194015 0.49645168 0.31500486
-0.23367013 -0.309938 0.29686633 0.3574259 -0.48052415 -0.5213349 -0.15159982 -0.31266472
-0.24158242 -0.09809462 -1.0508451 -0.3220646 0.6467093 0.67830276 0.21413195 -0.28003326
-0.06227176 -0.2932351 0.10831731 0.3458754 -0.399086 -0.38674533 0.06307687 -0.06802684
00000000: e40f 343d 0e16 373e 6a36 b2be 348f cd3e
00000010: 1137 f0bc 04ae eabe 19c9 193d e461 93bf
00000020: 31c9 07bd 54fe ccbe 68e7 6f3d 93b0 963f
00000030: 07ba 543e d2a2 243e 6ba6 a23e c2c0 9a3c
00000040: 43cc e23e cb43 35bf ed6c c2bd 6d49 be3d
00000050: b372 2f3d 30c8 283f a0bf ce3e 0d60 51bf
00000060: 3f4f 44be 0c92 4fbd 8756 fd3e 0a03 2a3f
00000070: 72d8 b3be 54b6 503f 01f3 c73e b4a8 92be
00000080: 7be8 85bc 9758 e1be e2ff 08bd 3325 9f3e
00000090: ac0c 72bf 24fd ecbe 9303 01bf 52fc 983d
000000a0: 666b b63e 3a0d 0c3e bbf0 edbe 77cd 033f
000000b0: 413e 373f 3a65 e2bd 4aca d73e 643d 72be
000000c0: 75f0 2f3f 9dec 21bf 98a4 173f c698 173f
000000d0: 0b70 efbe 375b 2d3f 4099 5f3e fe1b b2be
000000e0: 73fc dd3e 245e 1fbf 4ea5 823e c62e 623f
000000f0: 33e8 27bf fc56 42bf 4d28 fabd d3da 1bbe
00000100: 62ae 533e eda6 8fbf a6a6 903e 756e 443f
00000110: 34df 39be f540 eabe ee8f c2be 1d8d 56bf
00000120: deb1 7d3e fc1e 8a3e 2e36 38bf 430b d83e
00000130: c70b 003e b56a 873e 07f5 0b3d adff 1dbf
00000140: e570 3dba c174 2dbf 3948 f4be c2a8 a2be
00000150: a067 36be 5a26 f9be 6404 5bbd edab 42bf
00000160: 204c 9ebe b194 d9be fc0d a83e 5702 ba3d
00000170: 4d65 583b 7f31 fc3e b571 76be 9125 20bf
00000180: ad38 c83e 57da 743d bb16 b8be 9fbf 8c3f
00000190: 3b40 25be ecaa 0c3f 960d 863c 5e7b 583e
000001a0: 9c72 30be ad50 1cbe f573 a73d f85e 53be
000001b0: 090c b4be c5f1 9b3d 9aa3 913e 01ad 90be
000001c0: 45d6 3d3f c677 58bf 71c7 9e3e 09bc bf3e
000001d0: a96e 1d3d 036f 88be bdbb f93e 4951 02bf
000001e0: d714 1f3f 6b02 423e 2416 90be e6b1 0f3e
000001f0: 2bed 583e 6bf9 4abd d550 793e 8a2c 92ba
00000200: ce01 c83d b05b f6bc 354c 1d3e 9869 b83e
00000210: 88b6 39bf 11f8 a03e 9cb3 46be 5589 ff3e
00000220: 08c4 de3e 2ef4 073d f628 5abe 93f7 623f
00000230: 3f51 a0be 67d3 e13d 8e1f 3bbe 96b0 d8be
00000240: 3b53 ee3e 2984 9f3d 68f3 3f3e 452f 80bd
00000250: 135f 54be 77e2 2d3f 9fd5 e93d 7021 30bf
00000260: b4d0 c73e d50a 30bf d149 e73d f226 f03d
00000270: 696f b0be 2447 b23e 1d13 c6bd 1d13 13be
00000280: bdb4 263f 69f1 cc3d f549 c2bd a5fe 353e
00000290: 7ed7 babe fb8a 3f3e 989d 15bf 579c 11bf
000002a0: f6ba 0f3f 01d4 19bf 6d0e 88be 9772 76be
000002b0: 1d52 17bf c1f1 b83e 1e4c 8dbc b82a f4be
000002c0: c030 9ebd c460 56be 1a27 85be 6a37 cf3d
000002d0: 0f68 72bf e24d 063f 8590 0cbe e47d 4c3e
000002e0: 25ca a3bd e24f b2be abca 3ebf 9596 b03e
000002f0: 4a1a 6bbe 11ee 19be bad1 be3e 193f 61be
00000300: eacc 1b3f 2616 8fbe 804f 2abe a2c6 813e
00000310: 5dcf 95be 046a c43e 218a 02bf 7926 8dbe
00000320: b2e6 f83e a393 86be 8bae 34bf 57ee d83d
00000330: 6d53 263e 73c7 4ebe 41cd 5c3f 61ca 8bbe
00000340: eb24 e1be 2ae1 be3d b195 04be 0416 dc3e
00000350: 6251 27be aafc e93e 9e94 7fbd 2203 02bf
00000360: 2e46 47be f0e4 043d 4cef a9be e2db c13e
00000370: 54db fabe 0063 31be 36b4 5a3d 4596 d6be
00000380: edc7 173c 8ca1 8cbe c570 1a3f 06d0 303f
00000390: 3349 78be 8c48 8f3f ea2e fe3e 5148 a13e
000003a0: 3947 6fbe 32b0 9ebe ddfe 973e 8700 b73e
000003b0: 4307 f6be 3476 05bf fc3c 1bbe 9715 a0be
000003c0: 6261 77be d5e5 c8bd 1882 86bf a7e5 a4be
000003d0: be8e 253f 40a5 2d3f 6845 5b3e 8560 8fbe
000003e0: ac10 7fbd e922 96be 77d5 dd3d 9516 b13e
000003f0: 0055 ccbe 7c03 c6be 722e 813d a851 8bbd

embedding_item_mf.weight f4 [3706, 8]
0.3878845 0.020146478 -0.07307103 0.24880354 0.19448696 0.07473418 0.33719423 0.42657107
-0.19069763 -0.5524242 0.1573834 0.10556078 0.19241267 -0.13678335 -0.7075831 0.44009703
0.11199574 -0.9871425 0.28083488 0.50182205 -0.38824818 -0.32511374 0.1206865 0.2658592
0.045474675 0.3200896 -0.26270953 -0.043269385 -0.3826313 -0.3213986 0.078566566 0.18421678
-0.23903914 0.115945145 0.3418752 0.0727764 -0.0675709 -0.0151197035 -0.25012136 0.61345136
-0.08992856 0.26327097 0.7198177 0.33662763 0.4241538 0.38888553 0.10910703 0.39349547
0.1782239 -0.34430662 -0.30156967 0.74566394 -0.38753137 0.5667227 0.22590958 0.22555363
0.23931871 0.16887319 0.43410966 -0.1853389 0.29250988 0.19959131 0.35506707 0.88473994
-0.089055814 -1.1041541 0.3121211 0.45684108 0.082320556 0.070492625 -0.32768154 1.3699124
0.19559895 -0.41304603 0.2149993 0.68671256 0.25583735 0.20288967 0.18006039 1.1489551
-0.4340864 -0.63481545 0.27168223 0.62613547 0.11263134 -0.25801212 -0.37700135 1.0989246
0.34323308 -1.2870002 0.12358525 0.28842366 -0.6464871 -0.40193638 -0.18126081 -0.0023390828
0.26898235 -0.7343403 -0.22443037 0.4831933 -0.4721964 -0.22103366 0.2713231 0.85098153
0.1481135 0.5296485 1.0609641 -0.13341294 0.3191767 0.23791246 0.5815561 1.0699966
0.08759607 -0.55352587 0.2636268 0.29525417 -0.21824986 -0.12536857 0.114254996 0.6620371
0.22352944 0.26596063 0.69484514 -0.31000286 0.1573306 0.39151075 0.47773734 0.73677397
-0.30302364 -0.48691502 0.0042915717 0.27167594 -0.20236064 -0.15919101 -0.41055864 0.5912817
-0.08668553 -0.8694672 0.15231262 0.38776374 -0.03455298 0.043318532 -0.20091006 1.2907002
0.06393623 0.06199792 0.026596483 0.52839154 0.24489142 -0.6262072 0.4271135 0.44259346
-0.042258814 -0.0013548402 0.9054682 0.08567774 0.39683235 0.29687172 0.40467325 0.6711073
-0.08125768 0.5315775 0.5270347 -0.032890856 -0.10557639 -0.18201436 -0.046188474 0.47102314
0.2517241 -0.0799378 0.05734378 0.21439147 0.24411789 0.06335173 -0.8722963 0.35922515
-0.035575364 0.11128328 0.8943241 0.2064999 0.51661456 0.55771565 0.47081304 0.5290275
0.17994867 0.1992408 -0.16477998 0.60269326 0.34520662 -0.15005943 0.30360502 0.5503851
-0.3027278 0.09415046 0.05343682 -0.097468644 -0.47103566 -0.46735802 0.2879079 -0.29546598
-0.59270626 -0.8356289 0.09060171 0.42205843 -0.35425416 -0.47579938 -0.5519913 0.57694197
-0.087400004 -0.29017448 0.58874774 0.50755763 0.66933405 0.25340664 0.3532833 0.48224238
-0.26240653 0.17090446 0.04972052 0.39452443 -0.0386056 -0.3914332 0.34423822 0.19308794
0.45442128 -0.30129763 -0.5869079 0.07648722 -0.21067369 -0.9889856 -0.5076653 -0.27830073
0.22600321 0.050394025 0.4528349 0.22095712 0.23693058 0.095161274 -0.94236815 0.33180037
-0.36173004 -0.27100435 0.11536066 0.30678493 -0.010222742 -0.1820608 -0.4340315 0.5442127
-0.04318903 0.16079135 -0.36430448 -0.34475622 -0.10281539 -0.65999 -0.00076209335 -0.0106870355
00000000: cc98 c63e 3a0a a53c 44a6 95bd 5bc6 7e3e
00000010: 9727 473e 3c0e 993d b9a4 ac3e 8667 da3e
00000020: 3d46 43be ac6b 0dbf 1d29 213e 4030 d83d
00000030: d407 453e ef10 0cbe 2b24 35bf 6654 e13e
00000040: 065e e53d 5fb5 7cbf 97c9 8f3e 6977 003f
00000050: 77c8 c6be 4f75 a6be 7c2a f73d b21e 883e
00000060: a743 3a3d c9e2 a33e dd81 86be 3d3b 31bd
00000070: 40e8 c3be 5b8e a4be 82e7 a03d 53a3 3c3e
00000080: adc6 74be a674 ed3d 440a af3e cb0b 953d
00000090: 9d62 8abd a2b8 77bc e80f 80be 260b 1d3f
000000a0: 772c b8bd 74cb 863e f945 383f 755a ac3e
000000b0: b02a d93e 011c c73e 8273 df3d 3d78 c93e
000000c0: 5380 363e f548 b0be 5767 9abe d5e3 3e3f
000000d0: 836a c6be bd14 113f d754 673e 88f7 663e
000000e0: f70f 753e 18ed 2c3e 9f43 de3e 7bc9 3dbe
000000f0: dbc3 953e aa61 4c3e 5acb b53e 517e 623f
00000100: e562 b6bd ec54 8dbf 56ce 9f3e 13e7 e93e
00000110: ae97 a83d 705e 903d e0c5 a7be 4a59 af3f
00000120: 174b 483e c57a d3be c728 5c3e 65cc 2f3f
00000130: 1dfd 823e 4fc2 4f3e c061 383e f610 933f
00000140: 9340 debe 4483 22bf ef19 8b3e 6a4a 203f
00000150: 43ab e63d 2a1a 84be 5206 c1be 90a9 8c3f
00000160: 3fbc af3e 6cbc a4bf 431a fd3d 44ac 933e
00000170: 2e80 25bf 9bca cdbe 6f9c 39be 4c4b 19bb
00000180: 0eb8 893e bafd 3bbf 13d1 65be 1d65 f73e
00000190: bac3 f1be a656 62be ddea 8a3e edd9 593f
000001a0: 11ab 173e 0b97 073f accd 873f 679d 08be
000001b0: 216b a33e 539f 733e dce0 143f a6f5 883f
000001c0: 9165 b33d dfb3 0dbf 18fa 863e 8e2b 973e
000001d0: e47c 5fbe 9e60 00be 86fe e93d 437b 293f
000001e0: e7e4 643e fe2b 883e 5fe1 313f b2b8 9ebe
000001f0: 461b 213e 1974 c83e fd99 f43e 389d 3c3f
00000200: ea25 9bbe ed4c f9be 50a0 8c3b 1c19 8b3e
00000210: a137 4fbe f802 23be be34 d2be 3d5e 173f
00000220: 2f88 b1bd 6795 5ebf d7f7 1b3e f888 c63e
00000230: 6d87 0dbd c66e 313d 5ebb 4dbe aa35 a53f
00000240: 00f1 823d 88f1 7d3d dee0 d93c ab44 073f
00000250: d1c4 7a3e 1d4f 20bf 9fae da3e 9c9b e23e
00000260: 9417 2dbd e594 b1ba c4cc 673f d077 af3d
00000270: 9c2d cb3e 92ff 973e 5531 cf3e b0cd 2b3f
00000280: 6d6a a6bd 7715 083f bfeb 063f 90b8 06bd
00000290: 6f38 d8bd f961 3abe 2030 3dbd f229 f13e
000002a0: fbe1 803e 6eb6 a3bd 50e1 6a3d 7089 5b3e
000002b0: 0afa 793e 8dbe 813d cf4e 5fbf 5cec b73e
000002c0: 79b7 11bd 7de8 e33d 6df2 643f b674 533e
000002d0: da40 043f 74c6 0e3f 680e f13e 596e 073f
000002e0: 7744 383e c805 4c3e 15bc 28be 1b4a 1a3f
000002f0: ecbe b03e 2ea9 19be 1e72 9b3e 0ae6 0c3f
00000300: 23ff 9abe f5d1 c03d 91e0 5a3d a49d c7bd
00000310: 962b f1be 8d49 efbe aa68 933e 5147 97be
00000320: 99bb 17bf c7eb 55bf 648d b93d 0b18 d83e
00000330: cd60 b5be fa9b f3be 4d4f 0dbf 78b2 133f
00000340: c6fe b2bd c091 94be 2cb8 163f 4cef 013f
00000350: 7a59 2b3f 84be 813e 8ce1 b43e 79e8 f63e
00000360: 265a 86be 9401 2f3e bea7 4b3d 1bff c93e
00000370: e820 1ebd ef69 c8be fe3f b03e d8b8 453e
00000380: e8a9 e83e af43 9abe 993f 16bf 55a5 9c3d
00000390: d8ba 57be 292e 7dbf 5af6 01bf 6f7d 8ebe
000003a0: 636d 673e f769 4e3d fad9 e73e 9542 623e
000003b0: ee9d 723e eae3 c23d 0a3f 71bf bde1 a93e
000003c0: ae34 b9be 15c1 8abe 3642 ec3d ea12 9d3e
000003d0: 4a7d 27bc 256e 3abe 6039 debe 8651 0b3f
000003e0: fbe6 30bd 7da6 243e 1e86 babe e383 b0be
000003f0: e090 d2bd 1bf5 28bf 38c7 47ba ad18 2fbc

fc_layers.0.weight f4 [64, 16]
-0.33052742 -0.4766651 -0.13779634 0.38885114 0.10995971 -0.6506235 -0.66133195 -0.3138708
-0.06525367 -0.08714616 0.27890465 -0.25316057 -0.585907 -0.46806666 0.22824508 0.23672807
-0.8197505 0.296517 0.0044592167 -0.36699185 -0.27844918 0.25733274 -0.014782223 -0.25354344
-0.48884994 0.1370493 0.3794098 -0.16445194 0.39598766 0.17752488 0.2989105 -0.77878034
0.3874787 0.22067021 0.28863817 0.23724405 0.2303963 -0.41116393 0.118737966 0.70235175
0.67359656 0.08976024 0.13437466 -0.44753158 1.0465955 0.41041312 0.20355208 -0.5584378
0.6973147 0.21957673 -0.11607416 0.18558599 -1.0339687 -0.31060252 -0.30783892 -0.040271282
0.16842122 0.15803827 0.71541697 -0.016907187 -0.3627204 0.23193026 -0.23455937 -0.38247597
0.37991592 0.1694241 0.1143428 0.039786804 0.38436097 -0.6031561 -0.006567657 0.21155217
0.64757216 -0.0066163205 -0.10483823 -0.08008137 0.16576421 0.11972453 0.007819922 -0.027820565
0.29653323 0.08261181 0.16729072 0.4141609 -0.62685573 -0.45182973 -0.16812634 -0.06841858
0.27982 -0.20299993 -0.08067653 -0.06784703 -0.5088846 -0.21782754 -0.43435633 -0.4951925
0.29638892 -0.16718991 -0.3571718 0.51124126 0.15974885 -0.3861599 0.30464104 -0.5820744
-0.5992998 0.4277831 -0.031217102 -0.23302747 -0.19248937 -0.019533189 -0.22616118 0.2692758
-7.347314e-17 1.6230229e-18 1.3605225e-17 -1.0173134e-17 3.999203e-16 -1.4639542e-18 -5.360722e-20 -5.890153e-19
7.277072e-15 -4.0843577e-16 -3.306753e-16 2.3399995e-14 4.0777483e-17 -1.792474e-15 3.421662e-14 2.1478003e-15
0.15754251 0.13946052 0.21683937 -0.14761508 0.36397722 -0.03631522 0.09025896 -0.048450053
-0.31656504 -0.11688651 0.19208528 -0.11452881 0.059348855 -0.020756802 -0.019518323 -0.11852064
-0.4831919 0.14044027 0.4954536 0.03131609 -0.42884746 0.31526464 -0.3973033 -0.77125555
-0.24027933 0.51025325 0.37281463 -0.12115426 -0.22665855 0.064148016 -0.12104009 -0.97657806
0.7444879 0.101477735 0.13139631 -0.15232933 -0.8280315 -0.58649 -0.7037451 0.055047277
0.36784282 0.2414981 0.6274903 0.43256715 0.022648554 0.40454024 -0.03201477 -0.47502914
0.03499628 0.22161634 0.3842205 0.13691434 0.17830937 -0.48965898 0.31452376 -0.11325711
-0.02038447 0.5999399 0.09541021 -0.32694012 0.09000776 -0.07154956 -0.0032281938 0.28406236
-0.37098864 0.08100456 0.27404952 0.5814738 0.14109628 -0.26156732 -0.25898424 -0.44216958
-0.37131763 0.31987724 0.22182612 -0.08277442 -0.39070153 -0.4776061 0.13610604 0.051314395
-0.23537004 -0.4620436 0.4700852 -0.15245953 0.182845 -0.48662463 0.44371852 0.071272016
0.2674724 0.5191146 -0.398198 -0.32648635 0.24935926 0.30079642 -0.13109717 0.15937628
-0.8200023 0.083885156 0.34446844 -0.39821312 -0.5848481 0.2172732 -0.11728883 -0.29017547
-0.5082039 0.51991165 0.119646356 0.05239437 0.09142582 0.061004177 -0.016671402 -1.2189863
0.002934552 0.102811374 0.03340326 0.42994067 -0.5349144 0.24050987 -0.03013668 -0.6818946
-0.48347938 0.21503252 0.1777069 -0.40145278 -0.059361376 -0.033002142 -0.08024728 -0.72822136
00000000: e43a a9be 730d f4be 7c1a 0dbe 7f17 c73e
00000010: 8e32 e13d 438f 26bf 0d4d 29bf acb3 a0be
00000020: b7a3 85bd b079 b2bd 97cc 8e3e 439e 81be
00000030: 00fe 15bf 6fa6 efbe 14b9 693e d868 723e
00000040: 2bdb 51bf 14d1 973e 9f1e 923b 5be6 bbbe
00000050: e490 8ebe 1ec1 833e 2331 72bc 72d0 81be
00000060: 8a4a fabe a756 0c3e 0042 c23e 1766 28be
00000070: e5be ca3e 15c9 353e cc0a 993e 265e 47bf
00000080: 9c63 c63e 5ff7 613e 62c8 933e 1bf0 723e
00000090: 02ed 6b3e 1484 d2be e42c f33d 53cd 333f
000000a0: d370 2c3f 37d4 b73d 8399 093e dc22 e5be
000000b0: d7f6 853f ab21 d23e f56f 503e c8f5 0ebf
000000c0: 3783 323f b9d8 603e 4ab8 edbd 410a 3e3e
000000d0: 1659 84bf 4b07 9fbe 109d 9dbe 80f3 24bd
000000e0: 9d76 2c3e c9d4 213e 9125 373f f180 8abc
000000f0: 7db6 b9be 207f 6d3e 5530 70be e4d3 c3be
00000100: 5784 c23e 837d 2d3e 8f2c ea3d 7df7 223d
00000110: f6ca c43e 7068 1abf 8035 d7bb 22a1 583e
00000120: 4ac7 253f b8cd d8bb 6db5 d6bd b401 a4bd
00000130: 18be 293e 2232 f53d 211f 003c f4e7 e3bc
00000140: 34d3 973e 6130 a93d 424e 2b3e e60c d43e
00000150: 9e79 20bf 3a56 e7be 5029 2cbe 0a1f 8cbd
00000160: 9144 8f3e 37df 4fbe bd39 a5bd 62f3 8abd
00000170: 4346 02bf 2f0e 5fbe f463 debe df89 fdbe
00000180: 4ac0 973e d533 2bbe 39df b6be b5e0 023f
00000190: 3495 233e c0b6 c5be e9f9 9b3e d402 15bf
000001a0: b66b 19bf 6306 db3e 02bb ffbc c19e 6ebe
000001b0: ef1b 45be 1104 a0bc cc96 67be 85de 893e
000001c0: e36a a9a4 1284 ef21 dcf8 7a23 44a9 3ba3
000001d0: d289 e625 a00a d8a1 2727 7d9f bdd8 2da1
000001e0: 9217 0328 7b72 eba5 109f bea5 b7c4 d228
000001f0: 8e0d 3c24 4f29 01a7 1419 1a29 ecc3 1a27
00000200: d352 213e bdce 0e3e 240b 5e3e 6828 17be
00000210: 395b ba3e 45bf 14bd b1d9 b83d 9073 46bd
00000220: d014 a2be 3262 efbd 01b2 443e 158e eabd
00000230: c917 733d 2b0a aabc e4e4 9fbc f3ba f2bd
00000240: ee64 f7be 93cf 0f3e 18ac fd3e 4d45 003d
00000250: e591 dbbe 5e6a a13e 576b cbbe 0171 45bf
00000260: c90b 76be f59f 023f 8fe1 be3e ba1f f8bd
00000270: 2e19 68be 0960 833d dee3 f7bd 0501 7abf
00000280: c296 3e3f 8fd3 cf3d c18c 063e 38fc 1bbe
00000290: dff9 53bf 3524 16bf a428 34bf 4179 613d
000002a0: e555 bc3e 474b 773e 34a3 203f 7179 dd3e
000002b0: 7689 b93c e61f cf3e eb21 03bd 0537 f3be
000002c0: 4258 0f3d 65ef 623e 8db8 c43e 4633 0c3e
000002d0: bb96 363e 95b4 fabe 4209 a13e 58f3 e7bd
000002e0: 55fd a6bc a995 193f 6e66 c33d b264 a7be
000002f0: fd55 b83d 9388 92bd 1b90 53bb 9f70 913e
00000300: 39f2 bdbe b8e5 a53d 3850 8c3e 78db 143f
00000310: 8b7b 103e 27ec 85be 9599 84be 0d64 e2be
00000320: 581d bebe f3c6 a33e 6326 633e a385 a9bd
00000330: 080a c8be c988 f4be 625f 0b3e 0b2f 523d
00000340: d804 71be fb90 ecbe 02af f03e 5a1e 1cbe
00000350: b83b 3b3e dd26 f9be 132f e33e 10f7 913d
00000360: 24f2 883e b2e4 043f 9ce0 cbbe 3829 a7be
00000370: 0958 7f3e fd01 9a3e 563e 06be 8933 233e
00000380: aceb 51bf fbcb ab3d 2b5e b03e 97e2 cbbe
00000390: 9bb8 15bf de7c 5e3e 2035 f0bd e191 94be
000003a0: a719 02bf ee18 053f 2609 f53d 7b9b 563d
000003b0: 763d bb3d 84df 793d 7792 88bc be07 9cbf
000003c0: 9d51 403b c58e d23d dbd1 083d 2f21 dc3e
000003d0: 26f0 08bf 3848 763e 33e1 f6bc a590 2ebf
000003e0: 9c8a f7be 7c31 5c3e ccf8 353e 388b cdbe
000003f0: ea24 73bd 412d 07bd b058 a4bd b76c 3abf

fc_layers.0.bias f4 [64]
0.19934228 0.14184014 0.15437002 -0.6434421 0.23660529 -0.56111157 -0.35197774 -4.7441967e-10
-0.35155302 -0.14042404 -0.65967333 0.3257475 -0.016770951 -0.18391109 0.14858134 -0.31712374
-0.10814453 0.34635866 -0.30550727 -0.347066 -0.061007027 -6.3965377e-28 0.20042233 0.428653
-0.12465938 0.43169075 0.42362732 0.48193794 -0.21078004 -0.2315593 0.48853594 -0.63313293
-0.1630823 0.47415248 -0.1704529 0.45292026 0.10911722 -0.06993024 -0.11975386 -0.38278973
-0.10770632 0.48790035 -0.3251939 0.45663247 0.49105227 0.4564516 -0.16426125 -0.011479051
-0.31988782 -0.45528388 -0.3030569 -0.53042686 -0.5048502 -0.41083765 -0.212001 -0.08962239
0.41008225 -0.4537231 -0.29078025 -0.38270435 -0.09319315 0.48131108 -0.5256563 0.17035238
00000000: 6220 4c3e 8b3e 113e 2d13 1e3e 9fb8 24bf
00000010: a848 723e 02a5 0fbf 6d36 b4be 5168 02b0
00000020: c2fe b3be 52cb 0fbe 5ae0 28bf 60c8 a63e
00000030: 3c63 89bc 3053 3cbe b525 183e 0b5e a2be
00000040: e17a ddbd ec55 b13e 736b 9cbe a2b2 b1be
00000050: 81e2 79bd e1b6 4a92 833b 4d3e 6878 db3e
00000060: 6b4d ffbd 9206 dd3e aee5 d83e 92c0 f63e
00000070: b9d6 57be e21d 6dbe 6221 fa3e 0015 22bf
00000080: 0cff 26be 1dc4 f23e 348b 2ebe 2ae5 e73e
00000090: d978 df3d 9637 8fbd 8341 f5bd 04fd c3be
000000a0: 2295 dcbd 13ce f93e d17f a6be bbcb e93e
000000b0: 346b fb3e 06b4 e93e 1a34 28be a112 3cbc
000000c0: 56c8 a3be f81a e9be 462a 9bbe 0eca 07bf
000000d0: dd3d 01bf 5059 d2be ca16 59be f28b b7bd
000000e0: 4df6 d13e 654e e8be 26e1 94be d3f1 c3be
000000f0: 0ddc bebd 686e f63e 6991 06bf db70 2e3e

fc_layers.1.weight f4 [32, 64]
0.32253245 0.19866502 -0.014626014 0.5695225 -0.01826441 0.14444567 0.5482114 8.793411e-18
-0.12542063 0.16663067 0.86352473 0.06376257 0.112698935 0.6420928 0.13473155 0.06920424
0.05895275 0.28069493 -0.016672052 0.51595503 0.0056276903 2.119354e-37 0.16727273 0.24379048
-0.025323546 0.11703724 0.28837705 0.10655426 -0.062014006 -0.53657913 0.106074296 0.4752898
-0.008078107 0.15839134 -0.08817639 0.06894879 0.19878192 0.0031246122 -0.40862805 -0.6067185
0.026631843 0.11567109 -0.64579016 0.110781014 0.08675595 0.11180438 -0.6485409 -4.9779017e-05
-0.50073653 -0.48311177 -0.14469437 -0.72993207 -0.76600313 -0.70610344 0.17714712 -0.0039188745
0.11559808 -0.58495665 0.7275781 -0.85680544 0.6019685 0.14513166 -0.7250668 0.43013033
0.30905145 0.222941 0.010906712 0.58450574 0.025915949 0.1892182 0.6582282 1.0416817e-16
-0.12708 0.24597861 0.87899166 0.120654896 0.15417899 0.7057288 0.17326699 0.12720662
0.059789784 0.2653128 -0.10747933 0.5791221 -0.002107593 8.436696e-38 0.19586663 0.17522591
-0.019841881 0.12874225 0.29417932 0.09974675 -0.07794221 -0.56484526 0.0822588 0.49432585
-0.003551833 0.12578128 -0.07322324 0.072257996 0.20834841 0.008792692 -0.5709777 -0.63367
0.0204774 0.11293605 -0.6478619 0.12620364 0.14753781 0.10306444 -0.58842367 -4.6484205e-05
-0.5077208 -0.501475 -0.11263351 -0.74056494 -0.8605085 -0.7490784 0.25478172 0.0016197934
0.15754354 -0.5709957 0.75982773 -0.8831492 0.7149221 0.16025808 -0.7607881 0.40042165
3.7452874e-38 -4.958534e-39 -4.909448e-38 -4.917912e-38 -8.108285e-38 -4.9088315e-38 -4.3571066e-38 5.0006804e-38
-4.909253e-38 -5.848773e-39 -6.265656e-38 -5.9935447e-38 -5.000909e-39 -1.1570847e-37 -1.2808854e-38 -4.9108987e-38
-4.9051993e-38 4.905621e-38 -2.3725252e-37 3.6433076e-38 4.90806e-38 -4.9101095e-38 -4.983342e-39 -3.394987e-37
4.914226e-38 -1.8022541e-37 -2.8112536e-38 -2.768676e-37 2.782638e-38 4.910576e-38 -2.7715666e-37 -4.9142125e-38
4.9116027e-38 -2.483774e-37 -4.906266e-38 -2.9107655e-37 -4.9051365e-38 -4.912437e-38 -4.993806e-38 -4.9077015e-38
4.914838e-38 -2.304618e-37 -2.835015e-38 -2.4790719e-37 -4.9183065e-38 -2.5750081e-37 2.9482613e-38 -4.9157673e-38
5.980374e-38 -4.91493e-38 -4.9138806e-38 -3.5970246e-37 -4.227292e-37 -4.907836e-38 -5.3987434e-38 4.906836e-38
-2.8219913e-37 -4.909773e-38 -4.9149523e-38 -4.9489647e-38 -2.1505456e-37 -2.1722283e-37 -5.039383e-39 -9.139093e-37
-5.922143e-38 -5.411474e-38 -4.909401e-38 -4.9067553e-38 -4.909948e-38 -4.9051096e-38 4.9163066e-38 -4.915818e-38
4.917661e-38 -4.9045446e-38 -4.912688e-38 -4.917804e-38 -4.9097014e-38 -4.915717e-38 4.9174904e-38 -4.91345e-38
-4.9058495e-38 -4.905316e-38 -4.917526e-38 -5.0092945e-38 -5.2029595e-38 -4.906501e-38 -4.9157864e-38 -4.9102395e-38
-4.957817e-38 -4.929194e-38 -4.912181e-38 4.9057733e-38 -4.91041e-38 -4.911459e-38 -6.022987e-38 -4.9161003e-38
4.909123e-38 -4.9183424e-38 4.917683e-38 -5.055116e-38 -4.9124547e-38 -4.917728e-38 -4.91569e-38 -4.907011e-38
-4.908567e-38 -5.20102e-38 -4.929239e-38 -4.906186e-38 -4.917127e-38 -4.9053294e-38 -4.9078315e-38 4.915103e-38
4.907338e-38 -4.9101453e-38 4.914921e-38 -4.91743e-38 4.908023e-38 -5.301594e-38 -4.9051186e-38 4.912123e-38
-4.90893e-38 4.908697e-38 -5.159814e-38 -4.906123e-38 -4.907069e-38 -5.0223075e-38 -4.913849e-38 4.905056e-38
00000000: f922 a53e d86e 4b3e f3a1 6fbc 3acc 113f
00000010: 3e9f 95bc 91e9 133e 9557 0c3f b635 2223
00000020: 446e 00be 3ba1 2a3e f50f 5d3f f395 823d
00000030: b3ce e63d 3260 243f 11f7 093e f4ba 8d3d
00000040: 7078 713d 3fb7 8f3e d493 88bc a115 043f
00000050: 7d68 b83b 5b3c 9002 8b49 2b3e 36a4 793e
00000060: 5373 cfbc 38b1 ef3d 28a6 933e 1f39 da3d
00000070: 6602 7ebd 405d 09bf 7b3d d93d 2f59 f33e
00000080: 095a 04bc 5731 223e d395 b4bd 0635 8d3d
00000090: 7d8d 4b3e 4bc6 4c3b b237 d1be e751 1bbf
000000a0: 062b da3c f7e4 ec3d 8152 25bf 28e1 e23d
000000b0: 1aad b13d b2f9 e43d c706 26bf d0c9 50b8
000000c0: 4530 00bf 6d5a f7be c32a 14be d4dc 3abf
000000d0: c818 44bf 32c3 34bf 0e66 353e e769 80bb
000000e0: b0be ec3d b8bf 15bf 8f42 3a3f 9a57 5bbf
000000f0: 9c1a 1a3f 659d 143e fa9d 39bf 0b3a dc3e
00000100: fe3b 9e3e a54a 643e 11b2 323c 2ba2 153f
00000110: af4d d43c 6ac2 413e a581 283f 0932 f024
00000120: 4221 02be d1e1 7b3e 9905 613f ea19 f73d
00000130: 19e1 1d3e a5aa 343f e76c 313e 7442 023e
00000140: 22e6 743d 14d7 873e 1f1e dcbd 5941 143f
00000150: 8b1f 0abb 31ab e501 4391 483e 6c6e 333e
00000160: 718b a2bc 02d5 033e ac9e 963e 0648 cc3d
00000170: 2aa0 9fbd b399 10bf 4d77 a83d 4718 fd3e
00000180: dfc5 68bb cfcc 003e 11f6 95bd 00fc 933d
00000190: 4959 553e 390f 103c 982b 12bf 3238 22bf
000001a0: 38c0 a73c 044b e73d 47da 25bf 873b 013e
000001b0: 2714 173e 7313 d33d efa2 16bf 09f8 42b8
000001c0: fef9 01bf aa60 00bf 66ac e6bd aa95 3dbf
000001d0: 494a 5cbf 9ac3 3fbf c072 823e 3f4f d43a
000001e0: 1853 213e c62c 12bf 1284 423f 1116 62bf
000001f0: 2205 373f b21a 243e 02c3 42bf 1104 cd3e
00000200: b0e9 4b01 60fe 3580 dca5 8581 d8e0 8581
00000210: 80ba dc81 90a1 8581 3439 6d81 a821 8801
00000220: 80a4 8581 00b0 3f80 4091 aa81 e928 a381
00000230: 8074 3680 847e 1d82 e079 8b80 f8af 8581
00000240: 4088 8581 308b 8501 3877 a182 4c5c 4601
00000250: 309c 8501 78aa 8581 8843 3680 040d e782
00000260: 28c7 8501 644f 7582 280f 1981 246d bc82
00000270: 5080 1701 b8ad 8501 809f bc82 10c7 8581
00000280: e0b4 8501 7209 a982 af8f 8581 b018 c682
00000290: d087 8581 b0ba 8581 c0f1 8781 b099 8581
000002a0: 6ccb 8501 1cd8 9c82 585a 1a81 86b7 a882
000002b0: 98e3 8581 f83e af82 c484 2001 e6d1 8581
000002c0: 20cd a201 10cc 8581 c0c4 8581 02cd f482
000002d0: e8d8 0f83 a09a 8581 c0f7 9281 a893 8501
000002e0: 060e c082 20a8 8581 38cc 8581 40b9 8681
000002f0: ca5b 9282 8ed5 9382 c0df 3680 5d7e 9b83
00000300: 5037 a181 7850 9381 88a5 8581 1893 8581
00000310: 58a9 8581 a087 8581 a8d5 8501 40d2 8581
00000320: 18df 8501 b083 8581 70bc 8581 18e0 8581
00000330: a0a7 8581 8cd1 8581 e8dd 8501 c0c1 8581
00000340: c88c 8581 1089 8581 28de 8581 b05d 8881
00000350: 56a3 8d81 5291 8581 08d2 8581 60ab 8581
00000360: f1f6 8681 782f 8681 e8b8 8581 408c 8501
00000370: 90ac 8581 e0b3 8581 18f6 a381 38d4 8581
00000380: 98a3 8501 d8e3 8581 40df 8501 049d 8981
00000390: d0ba 8581 90df 8581 5cd1 8581 e094 8581
000003a0: b89f 8581 d295 8d81 c82f 8681 208f 8581
000003b0: 60db 8581 2889 8581 989a 8581 45cd 8501
000003c0: 2897 8501 b8aa 8581 00cc 8501 7cdd 8581
000003d0: ee9b 8501 b852 9081 b087 8581 80b8 8501
000003e0: 40a2 8581 a0a0 8501 a876 8c81 b08e 8581
000003f0: 4895 8581 60b8 8881 88c4 8581 4087 8501

fc_layers.1.bias f4 [32]
-0.025361238 0.03817817 -4.247943e-37 -5.705236e-38 -0.014933924 -4.917605e-38 -5.5756795e-24 -7.433524e-32
0.004697274 -7.412262e-37 -1.399888e-31 -2.7997425e-36 -2.0744778e-37 -4.905228e-38 -5.9096276e-38 -4.91447e-38
-0.046849057 -6.3536107e-35 -2.9492368e-05 -4.984355e-38 -1.1520809e-36 -4.914336e-38 -4.911208e-38 -1.3279075e-36
-5.5100536e-30 -8.593884e-37 0.32004127 -6.2985406e-38 -2.645355e-31 0.05961021 -4.9103645e-38 -2.0807128e-30
00000000: 5fc2 cfbc b660 1c3d cd8c 1083 b14f 9b81
00000010: 6bad 74bc b4de 8581 dbb2 d798 3efc c08b
00000020: 97eb 993b e939 7c83 42b7 358c fe2c 6e84
00000030: 802e 8d82 7388 8581 18e0 a081 dbc8 8581
00000040: cce4 3fbd 6fe8 a886 6166 f7b7 e2af 8781
00000050: 3304 c483 ecc7 8581 20b2 8581 87ee e183
00000060: ab83 df8e a537 9283 73dc a33e 6c76 ab81
00000070: 80b1 ab8c d629 743d 3fac 8581 b7ce 288e

fc_layers.2.weight f4 [16, 32]
0.17408207 0.21609874 -4.9169837e-38 -4.9168183e-38 0.22764975 4.912291e-38 5.157841e-30 -5.86377e-31
0.26663196 -4.907558e-38 2.2255897e-33 -5.0498008e-36 9.794593e-38 4.9133784e-38 4.90715e-38 4.914313e-38
0.15830414 3.0961505e-36 0.20759968 4.908884e-38 -4.3410433e-38 -4.915034e-38 -1.8564537e-38 3.0969718e-37
1.2868345e-30 -3.284554e-38 -1.0075504 4.905664e-38 -2.7019285e-30 0.2334677 4.906428e-38 1.8598265e-31
4.913701e-38 -4.914975e-38 -4.9169747e-38 4.9046623e-38 -4.9131183e-38 -4.9101207e-38 4.905643e-38 4.910224e-38
-4.9148806e-38 -4.90765e-38 -4.911433e-38 -4.912089e-38 4.905249e-38 -4.909239e-38 4.9127714e-38 -4.907465e-38
4.9167595e-38 -4.915447e-38 -4.9061634e-38 -4.910175e-38 4.9150476e-38 -4.9184377e-38 4.9093236e-38 -4.9142915e-38
4.9156625e-38 -4.904937e-38 4.915374e-38 4.909682e-38 4.914324e-38 -4.906881e-38 -4.9151833e-38 4.916101e-38
0.18517405 0.21631812 -4.911307e-38 -4.913966e-38 0.2120552 4.9071275e-38 4.7046613e-30 -5.7515815e-31
0.27627197 -4.9144815e-38 2.1836811e-33 -4.958085e-36 9.741751e-38 4.9118375e-38 4.9152797e-38 4.9050284e-38
0.15493396 3.0436027e-36 0.19688112 4.910616e-38 -4.3600875e-38 9.77758e-39 -1.8583813e-38 3.0632694e-37
1.2623076e-30 -3.216054e-38 -0.9329676 4.914244e-38 -2.650414e-30 0.24902411 4.90872e-38 1.8242768e-31
-4.927795e-38 -4.921988e-38 -4.904641e-38 4.9091016e-38 -4.9064594e-38 4.911494e-38 4.904551e-38 4.905195e-38
-4.918383e-38 -4.918276e-38 4.909484e-38 4.917286e-38 -4.9127506e-38 -4.911947e-38 4.9132316e-38 -4.908115e-38
-4.9147237e-38 4.9145213e-38 -5.0546966e-38 -4.908954e-38 4.915518e-38 -4.906246e-38 -4.910387e-38 4.91215e-38
4.9130735e-38 -4.9130584e-38 -4.90706e-38 -4.915416e-38 -4.9050373e-38 -4.911522e-38 -4.908034e-38 -4.9131766e-38
-4.90778e-38 -4.9173553e-38 4.914853e-38 4.917558e-38 -4.905078e-38 4.914065e-38 4.913943e-38 -4.9111857e-38
-4.9094094e-38 4.907714e-38 4.9174674e-38 -4.9141575e-38 -4.9085417e-38 -4.910489e-38 -4.915297e-38 4.906937e-38
-4.9065995e-38 4.918459e-38 -4.9172213e-38 -4.9178295e-38 -4.916667e-38 -4.9126783e-38 4.915502e-38 -4.914644e-38
-4.91226e-38 4.9164327e-38 -4.913891e-38 4.9124726e-38 4.917527e-38 -4.9134457e-38 -4.9118807e-38 4.913859e-38
0.16367827 0.19745341 -4.917858e-38 -4.9150017e-38 0.19243391 4.907219e-38 4.1293954e-30 -5.574306e-31
0.2503191 -4.9109345e-38 2.1191748e-33 -4.8104552e-36 9.440677e-38 4.910827e-38 4.9165263e-38 4.9116615e-38
0.14595644 2.9581112e-36 0.16734055 4.911106e-38 -4.395602e-38 -4.906725e-38 -1.8521438e-38 2.9761795e-37
1.2233945e-30 -3.0841794e-38 -0.94204646 4.9174926e-38 -2.5682863e-30 0.23368838 4.9137713e-38 1.7680977e-31
0.21163252 0.24068457 -5.066629e-38 -4.9133745e-38 0.25619936 4.913776e-38 8.552898e-30 -6.502696e-31
0.30065075 -4.91784e-38 2.4640129e-33 -5.5939953e-36 1.0690738e-37 4.9064835e-38 1.364515e-38 4.913547e-38
0.18206777 3.4218903e-36 0.23129185 4.9185486e-38 -4.206586e-38 -4.9182745e-38 -1.856888e-38 3.4673886e-37
1.42712895e-30 -3.299495e-38 -0.9248913 4.906242e-38 -2.9976406e-30 0.2667497 4.9069666e-38 2.06273e-31
0.13305302 0.16756134 -4.6727362e-38 1.4977571e-38 0.14788602 4.907542e-38 1.9706548e-30 -4.6804635e-31
0.22732253 -4.9093785e-38 1.7857302e-33 -4.056853e-36 8.027876e-38 4.9169114e-38 4.9078853e-38 4.911168e-38
0.12839516 2.5195813e-36 0.14668737 4.915153e-38 -4.5898197e-38 9.923756e-39 -1.853122e-38 2.48682e-37
1.0272806e-30 -3.067449e-38 -0.8677303 4.90895e-38 -2.1555606e-30 0.19442333 4.9170734e-38 1.4847083e-31
00000000: 9242 323e fd48 5d3e 60da 8581 39d9 8581
00000010: 041d 693e acb9 8501 153a d10e 4c4a 3e8d
00000020: fc83 883e b098 8581 0fe5 3809 76cb d684
00000030: 2d51 0502 40c1 8501 d895 8501 c3c7 8501
00000040: 7b1a 223e 18b2 8304 0395 543e eea1 8501
00000050: 5059 6c81 cacc 8581 6026 ca80 dcc4 d202
00000060: 04cd d00d 00d4 3281 69f7 80bf 7d8b 8501
00000070: dc34 5b8e 2812 6f3e d090 8501 566b 710c
00000080: 80c3 8501 60cc 8581 50da 8581 8284 8501
00000090: 70bf 8581 8caa 8581 588b 8501 44ab 8501
000000a0: b8cb 8581 5499 8581 b1b3 8581 44b8 8581
000000b0: 9988 8501 67a4 8581 05bd 8501 0a98 8581
000000c0: d0d8 8501 aacf 8581 f88e 8581 edaa 8581
000000d0: e2cc 8501 82e4 8581 fea4 8501 9dc7 8581
000000e0: 2bd1 8501 6c86 8581 28cf 8501 7da7 8501
000000f0: d7c7 8501 f893 8581 d4cd 8581 39d4 8501
00000100: 449e 3d3e 7f82 5d3e d0b2 8581 58c5 8581
00000110: 0025 593e b095 8501 ffd7 be0e 45a6 3a8d
00000120: 8573 8d3e f0c8 8581 c369 3509 c4e4 d284
00000130: 0c99 0402 83b6 8501 80ce 8501 0f87 8501
00000140: 02a7 1e3e e675 8104 349b 493e 00ae 8501
00000150: c062 6d81 ea77 6a00 1c5c ca80 ae79 d002
00000160: 35d2 cc0d 4019 2f81 f7d6 6ebf 48c7 8501
00000170: f206 578e 2d00 7f3e c9a0 8501 ffcd 6c0c
00000180: b825 8681 40fd 8581 5c84 8581 72a3 8501
00000190: 0891 8581 1eb4 8501 bb83 8501 3888 8501
000001a0: 20e4 8581 62e3 8581 1ca6 8501 7bdc 8501
000001b0: e0bc 8581 46b7 8581 3ac0 8501 929c 8581
000001c0: a0ca 8581 37c9 8501 189a 8981 6ba2 8581
000001d0: 29d0 8501 8b8f 8581 67ac 8581 b0b8 8501
000001e0: 20bf 8501 05bf 8581 3895 8581 73cf 8581
000001f0: 1f87 8581 50b4 8581 019c 8581 d8bf 8581
00000200: 3c9a 8581 f7dc 8581 87cb 8501 61de 8501
00000210: 6887 8581 09c6 8501 2fc5 8501 f8b1 8581
00000220: 97a5 8581 c699 8501 bfdd 8501 aec6 8581
00000230: 8b9f 8581 1dad 8581 9fce 8581 5c94 8501
00000240: 0292 8581 a8e4 8501 08dc 8581 45e0 8581
00000250: 2bd8 8581 5fbc 8581 0dd0 8501 12ca 8581
00000260: 75b9 8581 89d6 8501 d2c4 8581 f0ba 8501
00000270: 29de 8501 b8c1 8581 d0b6 8581 99c4 8501
00000280: 479b 273e 3a31 4a3e 78e0 8581 90cc 8581
00000290: 650d 453e 5396 8501 1882 a70e 86e5 348d
000002a0: d329 803e 38b0 8581 dd0d 3009 389d cc84
000002b0: f57f 0002 78af 8501 30d7 8501 49b5 8501
000002c0: 9b75 153e f5a5 7b04 525b 2b3e 6ab1 8501
000002d0: c051 6f81 e292 8581 3cae c980 5c8c ca02
000002e0: d281 c60d 30eb 2781 f529 71bf ecdd 8501
000002f0: 385d 508e 024c 6f3e fdc3 8501 2083 650c
00000300: 32b6 583e 0476 763e 40ed 8981 39c1 8581
00000310: 902c 833e 05c4 8501 2f79 2d0f 4906 538d
00000320: e5ee 993e 58e0 8581 c2b3 4c09 37f1 ed84
00000330: c983 1102 3391 8501 2095 9400 6dc2 8501
00000340: f96f 3a3e 168d 9104 c5d7 6c3e 48e5 8501
00000350: 4007 6581 5fe3 8581 7c32 ca80 6efa eb02
00000360: 9e90 e70d 40a4 3381 adc5 6cbf 848f 8501
00000370: 8f32 738e 6b93 883e 9194 8501 fbe0 850c
00000380: 0d3f 083e 3395 2b3e 7068 7e81 6017 a300
00000390: 6f6f 173e 9398 8501 e6e0 1f0e c5e3 178d
000003a0: 3dc7 683e 60a5 8581 485a 1409 388f ac84
000003b0: 218a da01 dfd9 8501 f89a 8501 d8b1 8501
000003c0: 057a 033e 9f57 5604 3735 163e 9ecd 8501
000003d0: c0e4 7981 650f 6c00 80c9 c980 843e a902
000003e0: 91af a60d 0002 2781 9323 5ebf 63a2 8501
000003f0: 3ee1 2e8e e916 473e 00db 8501 e5b9 400c

fc_layers.2.bias f4 [16]
0.31055388 -5.4505225e-38 0.27934134 -5.734046e-38 -4.91581e-38 0.2875192 0.2929433 0.24189535
-4.9079515e-38 0.55609375 0.2906248 -5.414468e-38 0.30419236 -4.90611e-38 0.2998455 -5.5777996e-38
00000000: eb00 9f3e 9960 9481 d405 8f3e 7818 9c81
00000010: 32d2 8581 b735 933e aafc 953e 6ab3 773e
00000020: 6e9b 8581 295c 0e3f c6cc 943e 5665 9381
00000030: 1abf 9b3e 998e 8581 5985 993e 97d7 9781

fc_layers.3.weight f4 [8, 16]
-4.914661e-38 4.9092143e-38 -4.907688e-38 -4.907488e-38 -4.907602e-38 -4.905002e-38 -4.9276963e-38 -4.906603e-38
-4.915975e-38 -5.6137586e-38 -4.913392e-38 4.910288e-38 -4.910181e-38 4.90574e-38 -4.908419e-38 -4.9183614e-38
0.27683043 4.9069257e-38 0.26679754 -4.908836e-38 -4.9138246e-38 0.2527085 0.29957175 0.21455273
-4.90477e-38 -1.2139342 0.27796885 4.910827e-38 0.2662323 4.912945e-38 0.25122115 4.9168043e-38
0.18636245 3.6259102e-38 0.19109043 -4.9163514e-38 -4.9112826e-38 0.18754645 0.20439011 0.14627722
-4.9120405e-38 -0.98303014 0.19602059 -4.904737e-38 0.1861825 4.9118914e-38 0.16661377 4.907742e-38
-4.9090064e-38 -4.9081527e-38 -4.909809e-38 4.9103606e-38 4.9114956e-38 -4.912571e-38 -4.911033e-38 -4.915423e-38
4.917744e-38 -5.854692e-38 -4.9067553e-38 -4.906049e-38 -4.9138e-38 4.9123964e-38 -4.9167146e-38 4.9098286e-38
0.2095781 3.5215774e-38 0.21784015 -3.9747326e-38 -4.9182785e-38 0.20733795 0.25086886 0.20196211
-4.918366e-38 -1.0508981 0.22097099 -4.9163643e-38 0.22040537 4.909736e-38 0.20645092 4.917737e-38
0.16909778 3.7312116e-38 0.14731409 -4.916374e-38 -4.918018e-38 0.1546893 0.17854548 0.09998001
-4.9067884e-38 -0.88544 0.1378824 -4.915163e-38 0.15570286 4.917422e-38 0.13407417 4.914625e-38
-4.9142887e-38 4.9050984e-38 -4.9076656e-38 -4.905624e-38 -4.917787e-38 -4.905984e-38 -4.9063383e-38 -4.9124053e-38
-4.9129715e-38 -4.9056567e-38 -4.913459e-38 -4.907532e-38 -4.905334e-38 -4.909239e-38 -4.9172213e-38 4.909589e-38
-1.9726507e-37 -4.9164293e-38 -1.925955e-37 4.906737e-38 4.9054325e-38 -1.7453888e-37 -2.1678818e-37 -1.4362946e-37
4.914086e-38 -7.177732e-35 -1.9610591e-37 -4.9048966e-38 -1.9087918e-37 -4.9141867e-38 -1.8344158e-37 -4.9091913e-38
00000000: 30ca 8581 3ba4 8501 9899 8581 3398 8581
00000010: ff98 8581 e086 8581 0825 8681 0892 8581
00000020: 58d3 8581 30d2 9881 58c1 8581 b7ab 8501
00000030: f8aa 8581 058c 8501 b09e 8581 fae3 8581
00000040: b8bc 8d3e 4894 8501 b099 883e 98a1 8581
00000050: 5cc4 8581 0263 813e 7861 993e b6b3 5b3e
00000060: 4285 8581 3262 9bbf ef51 8e3e 78af 8501
00000070: 9a4f 883e 3bbe 8501 0fa0 803e 20d9 8501
00000080: ccd5 3e3e d069 4501 36ad 433e f8d5 8581
00000090: a5b2 8581 2d0c 403e a44b 513e b2c9 153e
000000a0: edb7 8581 dda7 7bbf 9fb9 483e 0785 8581
000000b0: a0a6 3e3e e3b6 8501 cd9c 2a3e f899 8501
000000c0: c8a2 8581 d59c 8581 60a8 8581 38ac 8501
000000d0: 21b4 8501 a0bb 8581 e8b0 8581 80cf 8581
000000e0: acdf 8501 4061 9f81 1893 8581 2c8e 8581
000000f0: 30c4 8581 68ba 8501 80d8 8581 83a8 8501
00000100: a49b 563e a0bb 3f01 7d11 5f3e b067 5881
00000110: 66e3 8581 6650 543e e271 803e 28cf 4e3e
00000120: 02e4 8581 d483 86bf 3846 623e 0fd6 8581
00000130: f2b1 613e dea7 8501 df67 533e a0df 8501
00000140: f827 2d3e 8025 4b01 81d9 163e 20d6 8581
00000150: 95e1 8581 df66 1e3e a0d4 363e 52c2 cc3d
00000160: 5393 8581 32ac 62bf 0b31 0d3e b0cd 8581
00000170: 9270 1f3e 6edd 8501 bd4a 093e f0c9 8501
00000180: 98c7 8581 8c87 8501 7099 8581 368b 8581
00000190: f9df 8581 b88d 8581 3090 8581 78ba 8581
000001a0: 6abe 8581 708b 8581 d0c1 8581 8298 8581
000001b0: 3089 8581 67a4 8581 08dc 8581 d7a6 8501
000001c0: 6c40 8682 83d6 8581 de12 8382 f792 8501
000001d0: e089 8501 ec91 6d82 d489 9382 907f 4382
000001e0: 2ec6 8501 1dd1 be86 7876 8582 2486 8581
000001f0: d8e7 8182 e2c6 8581 10b0 7982 12a4 8581

fc_layers.3.bias f4 [8]
-4.911051e-38 0.44728076 0.4196774 -4.904939e-38 0.43258384 0.40757903 -4.910168e-38 -1.109447e-35
00000000: 08b1 8581 fc01 e53e f5df d63e 7086 8581
00000010: a17b dd3e 33ae d03e e0aa 8581 0af4 6b85
