checkpoints/neumf_first_try_Epoch14_HR0.6753_NDCG0.3987.model (torch, 645108 bytes, 13 tensors)

embedding_user_mlp.weight f4 [6040, 8]
-0.058272798 0.49677297 0.5801352 0.19841376 -0.3840503 -0.39167395 -0.21022086 -0.37473547
-0.08685678 0.07843047 0.15497907 0.13098931 0.1631468 0.015660103 0.29408178 0.259748
-0.03602274 0.29553652 0.43298626 0.18235375 0.10826325 -0.5878292 -0.3043265 -0.12794626
-0.31503025 0.75802225 0.761655 0.4141799 -0.3949065 -0.45935473 -0.08168283 -0.39404827
-0.48797715 0.039230667 -0.079123415 0.06451028 -0.4459987 -0.14484139 -0.57136804 -0.3062473
-0.14134559 0.07794665 0.23269704 0.14796194 -0.27565417 -0.39049768 -0.49082986 -0.35293162
-0.3060637 0.6321962 0.5655658 0.61308765 -0.25507972 -0.5860265 -0.35966998 -0.23302512
-0.0629645 0.2002351 0.2962538 0.11288369 0.66046685 -0.28331304 0.3204775 0.22803865
-0.224967 0.3636937 0.43925023 0.26787257 -0.3266687 -0.3390766 -0.17321154 -0.34812734
-0.10530299 -0.117713995 0.008575685 -0.07565331 -0.08922254 0.0071113873 0.14982067 0.03146942
0.10981312 0.07794409 0.16304173 0.26818138 0.06466967 -0.18141611 0.08368346 0.09740886
-0.2695185 -0.007939045 0.03474407 0.3528961 0.18092272 -0.14788681 0.0056616855 0.07969838
-0.07088859 0.26311395 0.31663603 0.058997884 0.043900613 -0.16547738 0.10349007 0.07050295
-0.39763093 -0.082129516 -0.16248314 0.23175965 -0.63466835 -0.12517887 -0.29608855 -0.43807954
-0.1365553 0.2051096 0.24877432 0.2153114 -0.3824352 -0.3739466 0.28480807 0.22381157
-0.2651421 -0.015176193 -0.117043845 0.28351998 -0.85340166 -0.4688475 -0.7359318 -0.56931764
0.0126500055 -0.10435592 -0.05173607 0.16590247 -0.43650824 -0.16982125 -0.2894804 -0.31587654
0.2835798 -0.14125356 -0.006623101 -0.24593316 0.26219243 0.10107225 0.63322437 0.22753464
-0.21146382 0.11888934 0.030623073 -0.2557442 -0.4215287 0.27444455 -0.08454485 -0.26246318
0.046925835 0.35285595 0.2993423 0.2106004 -0.4051147 -0.28729752 -0.24203803 -0.11154426
-0.6554792 0.04652871 0.088224486 0.13378805 -0.12489484 -0.057448883 -0.24676333 -0.3630468
0.28960788 0.08350827 -0.03647244 0.089966826 0.2860411 0.070050485 -0.09138859 0.2351616
-0.0012302716 -0.160718 -0.24743061 0.11229418 -0.22231406 -0.007362644 -0.38988978 -0.10530938
-0.33616808 0.050975483 0.05710889 -0.048545964 -0.028077021 -0.0941127 -0.187234 -0.2443761
-0.43137452 0.0066452837 0.03660217 0.18323433 -0.35614544 -0.019207766 -0.23436996 -0.64905655
0.4433919 -0.07158883 -0.111765 0.0020252033 0.2635757 0.10599023 0.023107568 0.30630997
0.091613695 0.25971583 0.21741046 0.2744936 -0.4286002 -0.32165077 -0.18298519 0.060982298
0.048000917 -0.033714026 -0.032197773 0.28959638 -0.46880046 -0.26493156 -0.30583632 -0.18341194
-0.18007416 0.6868639 0.64066255 0.12197322 0.19329613 0.029178776 0.1319278 -0.21584886
-0.24316841 0.30642244 0.34339193 0.2242399 -0.33372846 -0.27332425 -0.27676687 -0.32241043
0.14629245 0.2484964 0.22270195 0.4382825 -0.22333567 -0.5921541 -0.5809287 0.14997615
0.026071345 0.04511226 -0.013739465 0.17461216 -0.6650144 -0.21594666 -0.17863399 -0.14158812
00000000: 75af 6ebd 0759 fe3e be83 143f fa2c 4b3e
00000010: 3ea2 c4be 7d89 c8be 2344 57be 54dd bfbe
00000020: f8e1 b1bd 27a0 a03d d5b2 1e3e 1022 063e
00000030: f40f 273e 9e49 803c e391 963e b1fd 843e
00000040: 958c 13bd 9050 973e 60b0 dd3e f1ba 3a3e
00000050: 1fb9 dd3d f97b 16bf afd0 9bbe 5804 03be
00000060: a54b a1be bf0d 423f d2fb 423f 630f d43e
00000070: 2f31 cabe 8b30 ebbe 5449 a7bd b2c0 c9be
00000080: 24d8 f9be 56b0 203d 750b a2bd f71d 843d
00000090: f159 e4be 4d51 14be 2d45 12bf 72cc 9cbe
000000a0: e6bc 10be 7ea2 9f3d 2248 6e3e 5683 173e
000000b0: 8b22 8dbe 50ef c7be 0d4e fbbe 74b3 b4be
000000c0: 62b4 9cbe 9cd7 213f ecc8 103f 50f3 1c3f
000000d0: cf99 82be d505 16bf aa26 b8be 239e 6ebe
000000e0: 88f3 80bd 6e0a 4d3e 94ae 973e 902f e73d
000000f0: 5b14 293f 680e 91be a015 a43e f782 693e
00000100: c05d 66be 1036 ba3e 68e5 e03e 9826 893e
00000110: 1f41 a7be 739b adbe 5e5e 31be bf3d b2be
00000120: 18a9 d7bd 0914 f1bd 0881 0c3c 1ff0 9abd
00000130: 4fba b6bd a406 e93b 976a 193e 14e6 003d
00000140: b3e5 e03d 27a1 9f3d 69f4 263e 124f 893e
00000150: 8871 843d 25c5 39be 3c62 ab3d 4c7e c73d
00000160: 54fe 89be c512 02bc cc4f 0e3d ccae b43e
00000170: ce43 393e a46f 17be a985 b93b e738 a33d
00000180: 092e 91bd dfb6 863e 1e1e a23e c4a7 713d
00000190: 21d1 333d e772 29be 9af2 d33d da63 903d
000001a0: 4896 cbbe 8533 a8bd fb61 26be 6752 6d3e
000001b0: a079 22bf e42e 00be eb98 97be f64b e0be
000001c0: 27d5 0bbe 4008 523e b2be 7e3e 977a 5c3e
000001d0: 8cce c3be ee75 bfbe 5dd2 913e dc2e 653e
000001e0: b5c0 87be 91a5 78bc afb4 efbd 8829 913e
000001f0: 8878 5abf c80c f0be 0766 3cbf cdbe 11bf
00000200: f841 4f3c 8eb8 d5bd 34e9 53bd 56e2 293e
00000210: 027e dfbe 9fe5 2dbe c636 94be 92ba a1be
00000220: 5f31 913e c6a4 10be 9906 d9bb e7d5 7bbe
00000230: 163e 863e f8fe ce3d fe1a 223f d7fe 683e
00000240: f989 58be 417c f33d 3ddd fa3c e7f0 82be
00000250: 9cd2 d7be ff83 8c3e da25 adbd 9361 86be
00000260: 4e35 403d 89a9 b43e 6543 993e a2a7 573e
00000270: 326b cfbe a918 93be d1d8 77be 5171 e4bd
00000280: 7ccd 27bf e394 3e3d 0aaf b43d bcff 083e
00000290: dec8 ffbd 854f 6bbd 87af 7cbe 45e1 b9be
000002a0: 7c47 943e 6206 ab3d 2064 15bd 8740 b83d
000002b0: fb73 923e a176 8f3d f129 bbbd 34ce 703e
000002c0: 1141 a1ba 4293 24be 735e 7dbe 7efa e53d
000002d0: 4ca6 63be 5642 f1bb a29f c7be 72ac d7bd
000002e0: 391e acbe abcb 503d 03eb 693d 22d8 46bd
000002f0: c801 e6bc 29be c0bd 45ba 3fbe ba3d 7abe
00000300: 1fdd dcbe aec0 d93b 28ec 153d c8a1 3b3e
00000310: b258 b6be 9b59 9dbc aefe 6fbe 9228 26bf
00000320: 4304 e33e 2a9d 92bd 0ce5 e4bd 46b9 043b
00000330: 65f3 863e 6811 d93d 154c bd3c a9d4 9c3e
00000340: f69f bb3d 79f9 843e d9a0 5e3e 6d8a 8c3e
00000350: 7c71 dbbe 69af a4be 7860 3bbe 93c8 793d
00000360: 9c9c 443d b817 0abd d0e1 03bd fa45 943e
00000370: 9d06 f0be 1ca5 87be 9496 9cbe 57d0 3bbe
00000380: 5c65 38be 50d6 2f3f 7602 243f 18cd f93d
00000390: 6cef 453e 5408 ef3c 1518 073e 7c07 5dbe
000003a0: 2401 79be 67e3 9c3e 11d1 af3e 259f 653e
000003b0: 75de aabe 28f1 8bbe 63b4 8dbe fb12 a5be
000003c0: b0cd 153e d775 7e3e fb0b 643e 9066 e03e
000003d0: 1bb2 64be 6997 17bf beb7 14bf 5993 193e
000003e0: 9393 d53c a2c7 383d 7e1b 61bc 88cd 323e
000003f0: 623e 2abf 1f21 5dbe d4eb 36be 7afc 10be

embedding_item_mlp.weight f4 [3706, 8]
-1.0309914 -1.0419581 -0.5867723 0.91542536 1.3751653 0.9041886 -0.9183158 0.13911866
-0.6268245 -0.25049466 -0.17733945 0.0921539 0.12391212 -0.1608648 -0.21198937 0.3361819
-0.2118943 -0.06065811 -0.3811031 0.18923107 0.18348211 0.22615144 -0.22757623 0.14377782
-0.5736153 -0.4757128 -0.734438 0.79124045 0.38226348 1.0208908 -0.7457768 0.6463874
-0.5170267 -1.1166804 -0.75246066 0.52668625 0.49853563 0.59568673 -0.5252607 0.7413666
-0.75158846 -0.7939639 -0.4722464 0.31488296 0.6819461 0.6875823 -0.41718456 0.46370193
-0.06524774 -0.11935376 -0.029828599 -0.09178748 0.07156477 0.0946894 0.04375766 0.0586424
-0.25510934 -0.63031805 0.007508601 0.025807992 0.36817858 0.3445624 -0.07102699 0.119419806
0.0378729 -0.012715658 -0.111991175 -0.008094514 -0.029509472 -0.08660818 0.002186994 0.11548394
-0.33958283 -0.15763912 -0.23413897 0.33066046 0.39019156 0.3769636 -0.35118002 0.14627871
-0.17181313 -0.19580887 -0.25794917 0.08630447 0.21174146 0.09132716 -0.12540491 0.090320595
0.02683833 0.21241519 -0.09321094 0.027846143 -0.033442162 -0.06022762 0.0011189645 0.14105925
0.014350037 -0.031191789 -0.24796052 -0.056545045 -0.28583342 -0.14787054 0.0015520313 0.020778894
0.24842182 -0.14425829 -0.2707348 -0.089917116 -0.13468316 0.10124377 0.1011417 0.104981385
-0.61894387 -0.086509556 -0.38013682 0.29618132 0.12853834 0.10817794 -0.41236502 0.3729875
-0.7292475 -0.21069267 -0.42262363 0.28637305 0.14501598 0.12010438 -0.45793247 0.271537
0.11541485 -0.6241334 0.009187128 -0.18711264 0.20864806 0.22879459 0.2299616 0.3254497
-0.015426928 0.07206409 -0.16734827 -0.18911038 0.083760574 -0.20102191 0.16697827 0.026360396
-0.26683283 0.029057015 0.026593752 -0.08761574 0.267488 -0.010909187 0.060567018 -0.1243174
0.01197747 -0.27617216 -0.26040846 0.07056626 0.03493143 0.1885299 -0.09417661 0.13234535
-0.22743528 -0.03616236 -0.16721007 0.25011277 0.2097666 0.2960226 -0.27883652 0.07216463
0.22219113 -0.7087466 0.05989157 -0.15138946 0.28248215 0.29396537 0.24740118 0.36327335
-0.41083065 -0.64757204 -0.55583364 0.6140484 0.5723241 0.7846063 -0.5989428 0.30445284
-0.8582239 -0.8658599 -0.6464637 0.86966735 1.0776513 0.7811742 -0.8815145 0.13835867
-0.050586227 -0.34284583 -0.0051423213 0.14949226 0.016332025 0.3071397 -0.13257676 0.15584289
-0.16679618 -0.124892496 0.045580197 -0.2651342 0.19286644 -0.072221555 0.24512264 -0.021396644
-0.6854583 -0.82708955 -0.59042746 0.500693 0.62788814 0.607586 -0.58413565 0.3969162
-0.83410096 -0.6697262 -0.42033976 0.61071175 0.65281385 0.8294009 -0.7018856 0.071963094
0.0894089 -0.27824932 0.16450495 -0.41184816 -0.12528974 -0.14895217 0.48935002 -0.10144885
0.07822353 -0.810362 0.008549114 0.08370942 0.5617351 0.64128244 0.02033273 0.4363585
-0.08194514 -0.26296335 -0.21424367 0.0008757522 0.23542763 0.03808934 -0.034518264 0.064786926
-0.10261829 -0.51110166 0.09324867 0.37192756 0.23085487 0.7990395 -0.2313277 0.093801424
00000000: 87f7 83bf e25e 85bf b636 16bf 5159 6a3f
00000010: 6b05 b03f e778 673f bf16 6bbf 1f75 0e3e
00000020: 9277 20bf d640 80be 7998 35be 2fbb bc3d
00000030: a3c5 fd3d beb9 24be be13 59be 0920 ac3e
00000040: d2fa 58be a374 78bd f21f c3be cac5 413e
00000050: bce2 3b3e 3e94 673e be09 69be 7e3a 133e
00000060: 74d8 12bf a190 f3be 2104 3cbf bc8e 4a3f
00000070: 0ab8 c33e 8dac 823f 3aeb 3ebf a579 253f
00000080: dd5b 04bf 62ef 8ebf 43a1 40bf e9d4 063f
00000090: 1040 ff3e ed7e 183f 7c77 06bf 34ca 3d3f
000000a0: 1a68 40bf 3841 4bbf 48ca f1be 5738 a13e
000000b0: 0594 2e3f 6505 303f 3799 d5be 576a ed3e
000000c0: 9ba0 85bd be6f f4bd 1b5b f4bc 13fb bbbd
000000d0: 8d90 923d 84ec c13d 3b3b 333d 0333 703d
000000e0: b19d 82be 865c 21bf b60a f63b 486b d33c
000000f0: e781 bc3e 7c6a b03e 9976 91bd 5f92 f43d
00000100: 9d20 1b3d 5655 50bc a15b e5bd da9e 04bc
00000110: d9bd f1bc a15f b1bd ac53 0f3b d882 ec3d
00000120: cddd adbe 266c 21be 20c2 6fbe 544c a93e
00000130: 30c7 c73e 5f01 c13e decd b3be 16ca 153e
00000140: c8ef 2fbe 1f82 48be ea11 84be 66c0 b03d
00000150: c1d2 583e bc09 bb3d 256a 00be 01fa b83d
00000160: 0fdc db3c 5e83 593e 61e5 bebd 981d e43c
00000170: a6fa 08bd 3db1 76bd 38aa 923a d671 103e
00000180: 6b1c 6b3c ec85 ffbc 5de9 7dbe c79b 67bd
00000190: c258 92be 606b 17be 876d cb3a 8038 aa3c
000001a0: 4a62 7e3e 72b8 13be c09d 8abe 7726 b8bd
000001b0: 62ea 09be e558 cf3d 6123 cf3d 7b00 d73d
000001c0: 1b73 1ebf ec2b b1bd 4ba1 c2be 14a5 973e
000001d0: 8e9f 033e 658c dd3d 8221 d3be 38f8 be3e
000001e0: f7af 3abf d2bf 57be 2062 d8be 7d9f 923e
000001f0: 127f 143e 49f9 f53d 2076 eabe e606 8b3e
00000200: 9f5e ec3d 35c7 1fbf 9c85 163c 759a 3fbe
00000210: d6a7 553e 2149 6a3e 0e7b 6b3e 58a1 a63e
00000220: 3ac1 7cbc 5696 933d 585d 2bbe 27a6 41be
00000230: aa8a ab3d b0d8 4dbe 5afc 2a3e c2f1 d73c
00000240: 509e 88be fa08 ee3c 24db d93c e26f b3bd
00000250: 30f4 883e 72bc 32bc 1f15 783d 1f9a febd
00000260: 263d 443c 7066 8dbe 4254 85be 0b85 903d
00000270: 4214 0f3d fb0d 413e abdf c0bd 8a85 073e
00000280: cbe4 68be fc1e 14bd 1e39 2bbe c80e 803e
00000290: 0ecd 563e 4690 973e a9c3 8ebe 0dcb 933d
000002a0: 1286 633e 6b70 35bf dd50 753d d705 1bbe
000002b0: 80a1 903e a182 963e bc56 7d3e f7fe b93e
000002c0: 6558 d2be 48c7 25bf 1d4b 0ebf 4732 1d3f
000002d0: d583 123f f5db 483f 5154 19bf 3ee1 9b3e
000002e0: 90b4 5bbf ffa8 5dbf a57e 25bf 85a2 5e3f
000002f0: 7af0 893f 08fb 473f efaa 61bf e5ad 0d3e
00000300: 8133 4fbd 7d89 afbe eb80 a8bb 8014 193e
00000310: bdca 853c 6a41 9d3e 34c2 07be 4795 1f3e
00000320: 9ecc 2abe a3c7 ffbd 4db2 3a3d abbf 87be
00000330: c87e 453e e5e8 93bd 6e01 7b3e 0448 afbc
00000340: 327a 2fbf 24bc 53bf 4126 17bf 6b2d 003f
00000350: 47bd 203f c28a 1b3f ea89 15bf 9a38 cb3e
00000360: a487 55bf 2d73 2bbf c636 d7be 9b57 1c3f
00000370: cf1e 273f 9e53 543f c6ae 33bf 6361 933d
00000380: 031c b73d b276 8ebe fc73 283e c3dd d2be
00000390: f44b 00be eb86 18be 168c fa3e 6ac4 cfbd
000003a0: a833 a03d e273 4fbf 9511 0c3c d86f ab3d
000003b0: dfcd 0f3f 162b 243f d390 a63c 626a df3e
000003c0: dbd2 a7bd 22a3 86be b162 5bbe bc92 653a
000003d0: f113 713e 9103 1c3d 0663 0dbd 02af 843d
000003e0: 8a29 d2bd 8fd7 02bf 29f9 be3d 4a6d be3e
000003f0: 3865 6c3e da8d 4c3f 2be1 6cbe f61a c03d

embedding_user_mf.weight f4 [6040, 8]
0.07107804 0.101621605 -0.28478292 0.53045 0.057498943 -0.38618153 -0.03623202 -0.94935465
-0.06476585 -0.32787472 0.040567767 1.0494932 0.11644922 0.07589128 0.37285885 0.10849604
0.35039088 -0.49294096 -0.043248463 0.00028790877 0.012859632 0.688178 0.26266173 -0.676085
-0.037264973 -0.19848353 0.3157946 0.70052433 -0.40233785 0.77154076 0.4303445 -0.27868834
-0.076003455 -0.42755586 -0.013706911 0.28237277 -0.75176644 -0.54470575 -0.41087824 -0.043082252
0.28777286 0.15216927 -0.4049714 0.45462447 0.6555435 -0.024942214 0.3496673 -0.19752808
0.65357786 -0.46104404 0.37899894 0.48172313 -0.30989867 0.63424194 0.12449896 -0.07289743
0.34251988 -0.5648435 0.2981551 0.75278485 -0.5571183 -0.66225517 -0.07554525 -0.15663658
0.16896048 -0.88754964 0.18863207 0.60843956 -0.11063675 -0.41950256 -0.36752295 -0.60660917
0.17129469 0.21708812 -0.56249046 0.35221142 0.09666964 0.26017067 0.04111223 -0.56124413
-0.04365852 -0.63968855 -0.3171899 -0.19093172 -0.2195684 -0.42027894 0.028568998 -0.7039941
-0.30252934 -0.35562935 0.17349145 0.09849038 -0.07810787 0.4765538 -0.18467803 -0.51064223
0.39445412 0.11620645 -0.26438817 1.0649742 -0.15776296 0.47587106 -0.00810124 0.21180087
-0.15857476 -0.13136642 0.018528422 -0.10801832 -0.2535175 0.1487474 0.30938688 -0.32860872
0.65356624 -0.7333087 0.29024372 0.26506278 0.025777446 -0.25807402 0.3065826 -0.41877785
0.63477325 0.23866886 -0.32839617 -0.024480691 0.30694237 -0.009627625 0.14065309 0.0005799733
0.0679881 0.016603395 0.09003315 0.19496757 -0.6282759 0.2697325 -0.17542066 0.3982239
0.47634718 0.057303023 -0.25339505 0.7722472 -0.31114048 0.061541423 -0.12541296 -0.36797807
0.42298627 0.08715354 0.18756385 -0.03061343 -0.17229877 0.5578022 0.074604884 -0.64512163
0.39246666 -0.6313562 0.08274941 0.11368802 -0.3921054 0.31524247 -0.16419797 -0.11771811
0.59419656 0.14617835 -0.17685175 0.16299665 -0.20236185 0.26097748 -0.43921623 -0.53969437
0.53411406 -0.47684467 -0.22251044 -0.20005675 -0.53447807 0.29227784 -0.055729896 -0.37896088
-0.06100734 -0.20001519 -0.17307162 0.112808764 -0.79915106 0.385052 -0.1508677 0.21281148
-0.06790563 -0.27962252 -0.6314206 0.26517102 -0.28224733 -0.085979484 0.32394478 -0.16567463
0.6118248 -0.25861624 -0.16674203 0.16449368 -0.2893788 0.44264758 -0.4802014 -0.18591005
0.49030706 -0.29842582 -0.6562247 0.011695566 0.14937669 -0.18950556 0.7372661 -0.1907274
-0.41878867 0.14388768 -0.1010634 0.28886494 -0.09450346 0.34014192 -0.123198 -0.38389736
-0.16664518 0.116753474 -0.3127341 0.22625017 -0.4374929 -0.15713067 0.08990356 -0.36971837
0.006004344 -0.12068477 0.33480132 0.586406 -0.3370534 0.95175403 0.4359568 0.26018095
-0.16130948 -0.13260168 0.18491894 0.27827647 -0.31248838 -0.43588364 -0.20547156 -0.35997543
-0.22288889 -0.052315947 -0.88305885 -0.3537702 0.65120435 0.56393343 0.11709508 -0.20074373
-0.05857726 -0.306372 0.068019755 0.35318002 -0.31629956 -0.38246465 0.0012558614 -0.113901794
00000000: 5d91 913d fd1e d03d 11cf 91be 92cb 073f
00000010: 0384 6b3d 96b9 c5be 0768 14bd e808 73bf
00000020: f5a3 84bd 32df a7be 632a 263d cb55 863f
00000030: ee7c ee3d e36c 9b3d 5be7 be3e 2c33 de3d
00000040: 6f66 b33e c262 fcbe 4d25 31bd 76f2 9639
00000050: 35b1 523c 6f2c 303f 997b 863e e813 2dbf
00000060: 28a3 18bd 443f 4bbe d4af a13e 9055 333f
00000070: 3aff cdbe b283 453f 1d56 dc3e 3db0 8ebe
00000080: b3a7 9bbd 9ae8 dabe f492 60bc 2a93 903e
00000090: c473 40bf d671 0bbf a25e d2be 0477 30bd
000000a0: f756 933e 43d2 1b3e 6958 cfbe 8ac4 e83e
000000b0: b3d1 273f 9d53 ccbc 9807 b33e cd44 4abe
000000c0: e150 273f f70d ecbe 260c c23e 6aa4 f63e
000000d0: 0aab 9ebe ae5d 223f 50f9 fe3d 3f4b 95bd
000000e0: c45e af3e 9599 10bf c9a7 983e 82b6 403f
000000f0: 4e9f 0ebf 8e89 29bf 78b7 9abd 5765 20be
00000100: fa03 2d3e 7436 63bf c428 413e b2c2 1b3f
00000110: 8595 e2bd 0ac9 d6be f82b bcbe bd4a 1bbf
00000120: e067 2f3e 594c 5e3e 60ff 0fbf 0e55 b43e
00000130: bbfa c53d 1735 853e 4c65 283d b2ad 0fbf
00000140: 47d3 32bd a1c2 23bf b766 a2be 9b83 43be
00000150: 8ad6 60be cd2e d7be 8809 ea3c f538 34bf
00000160: 20e5 9abe 0d15 b6be bea7 313e 53b5 c93d
00000170: 05f7 9fbd dcfe f33e 3d1c 3dbe 73b9 02bf
00000180: e4f5 c93e a6fd ed3d e35d 87be 1351 883f
00000190: 9d8c 21be 5fa5 f33e 10bb 04bc 54e2 583e
000001a0: 6c61 22be eb84 06be ebc8 973c b538 ddbd
000001b0: 0ccd 81be 3d51 183e f567 9e3e 673f a8be
000001c0: 1e50 273f 1eba 3bbf d39a 943e 4fb6 873e
000001d0: 392b d33c 4722 84be 65f8 9c3e 0d6a d6be
000001e0: 8080 223f 9c65 743e 8b23 a8be bb8b c8bc
000001f0: 8d27 9d3e 30bd 1dbc 5d07 103e 5909 183a
00000200: 583d 8b3d d803 883c 4d63 b83d 94a5 473e
00000210: b0d6 20bf 611a 8a3e 79a1 33be 01e4 cb3e
00000220: c7e3 f33e 93b6 6a3d ffbc 81be feb1 453f
00000230: ce4d 9fbe dc12 7c3d 416c 00be 9f67 bcbe
00000240: a891 d83e 8e7d b23d bd10 403e 04c9 fabc
00000250: 176f 30be 20cc 0e3f 72ca 983d b126 25bf
00000260: 64f1 c83e 8fa0 21bf 8678 a93d 44d5 e83d
00000270: 0ac2 c8be 7667 a13e 8323 28be 3116 f1bd
00000280: 441d 183f c7af 153e a018 35be 98e8 263e
00000290: f237 4fbe d79e 853e f3e0 e0be 6929 0abf
000002a0: b3bb 083f fc24 f4be c7d9 63be addb 4cbe
000002b0: 8ed3 08bf 71a5 953e 0845 64bd 2907 c2be
000002c0: d5e2 79bd c8d0 4cbe b039 31be 4808 e73d
000002d0: 2a95 4cbf 8925 c53e 107d 1abe 41eb 593e
000002e0: 1b12 8bbd af2a 8fbe c8a4 21bf 7fc4 873e
000002f0: b982 90be 0316 b0bd 17dc a53e 9ca6 29be
00000300: 8da0 1c3f 5969 84be 6cbe 2abe 0871 283e
00000310: 7529 94be b4a2 e23e f5dc f5be 345f 3ebe
00000320: 8709 fb3e 45cb 98be 58fe 27bf c29e 3f3c
00000330: 34f6 183e bf0d 42be 79bd 3c3f 0b4e 43be
00000340: 786b d6be 4b57 133e 54fa cebd 1be6 933e
00000350: 088b c1bd 1527 ae3e 3c4f fcbd 328e c4be
00000360: 09a5 2abe 721c ef3d af1e a0be 20ae 673e
00000370: 12ff dfbe dde6 20be 5c1f b83d ba4b bdbe
00000380: 17c0 c43b 9429 f7bd 146b ab3e b41e 163f
00000390: 4392 acbe 27a6 733f bb35 df3e 7036 853e
000003a0: 502e 25be bcc8 07be 645b 3d3e 417a 8e3e
000003b0: 7afe 9fbe 242c dfbe 2367 52be b34e b8be
000003c0: fc3c 64be 3f49 56bd 2510 62bf 5e21 b5be
000003d0: 54b5 263f f15d 103f 8ccf ef3d c48f 4dbe
000003e0: b5ee 6fbd cadc 9cbe f14d 8b3d 03d4 b43e
000003f0: 04f2 a1be 68d2 c3be b79b a43a 5845 e9bd

embedding_item_mf.weight f4 [3706, 8]
0.42180842 -0.018471908 -0.12189854 0.15857238 0.16812545 0.070210725 0.3125758 0.34820634
-0.13738865 -0.4977397 0.1066898 0.12169875 0.19476399 -0.082082 -0.62370396 0.44911695
0.20534118 -0.8252998 0.3137459 0.5113386 -0.3099917 -0.25146788 0.16561677 0.25335985
0.020909702 0.30912668 -0.31187496 -0.032207254 -0.32210138 -0.30956173 0.13909355 0.21917312
-0.2569252 0.109314345 0.2589949 0.013472064 -0.05488849 0.05321073 -0.20424555 0.54800504
-0.052385587 0.22242829 0.68509066 0.30924624 0.37706846 0.33766854 0.0775533 0.4421516
0.18273841 -0.26031792 -0.21914826 0.7263362 -0.2779075 0.56323636 0.2611408 0.21034211
0.27821386 0.10295536 0.45922005 -0.14802103 0.31027985 0.2625151 0.34346932 0.79557186
-0.11896867 -0.88346606 0.2819458 0.43460628 0.071855985 0.050167445 -0.3327091 1.179857
0.20826647 -0.3888804 0.22053874 0.67634124 0.22523634 0.21180445 0.16827397 1.0149534
-0.35090128 -0.5123273 0.2473859 0.6719685 0.11227107 -0.26958787 -0.35019505 1.066575
0.34653914 -1.1152474 0.09803919 0.31459 -0.5709539 -0.31961873 -0.21894972 -0.0091727665
0.2982818 -0.6272455 -0.02135705 0.4686348 -0.33031282 -0.23825581 0.32891718 0.8018811
0.15259157 0.42319247 1.0034103 -0.13518853 0.30904627 0.23905915 0.5341141 0.9932463
0.046103325 -0.48473367 0.21932979 0.20287259 -0.16936764 -0.09380124 0.0774191 0.53135335
0.22559622 0.31354332 0.6683611 -0.27352113 0.18937501 0.39307696 0.44934177 0.6670578
-0.29727316 -0.43258867 -0.025492951 0.30680034 -0.16218102 -0.09252515 -0.39107448 0.51727235
-0.052003942 -0.74733084 0.15415968 0.36124274 -0.009476452 0.013492523 -0.14785719 1.1290159
0.023746535 0.038396124 0.08204351 0.5253081 0.228193 -0.6621467 0.455767 0.4104917
-0.06334366 0.06422185 0.8466968 0.062212054 0.447333 0.29453996 0.49210954 0.6490094
-0.033146888 0.46626803 0.5431507 0.013392577 -0.08727767 -0.17548272 -0.0567585 0.42826477
0.26507735 -0.10730242 0.16296506 0.2778975 0.26227894 0.045098137 -0.8249844 0.34274173
-0.034402154 0.120002136 0.9122397 0.1671149 0.42119873 0.48405463 0.28993598 0.49885488
0.1865639 0.22727042 -0.101448424 0.543272 0.3520087 -0.14597906 0.226874 0.51251316
-0.28639135 0.060757205 -0.018841097 -0.07563312 -0.4373476 -0.416726 0.27913314 -0.24809855
-0.5655356 -0.7500138 0.15185605 0.36268464 -0.29981402 -0.44768798 -0.4461394 0.46474126
-0.14383952 -0.32930958 0.47709483 0.46227667 0.5960144 0.24210656 0.29555008 0.5060992
-0.25668442 0.13562576 0.06469707 0.3495769 -0.03026463 -0.3695876 0.26884422 0.19476438
0.50572866 -0.16529804 -0.55834025 0.1293915 -0.0997317 -0.9685054 -0.5023457 -0.2039755
0.2694354 0.02237925 0.3584605 0.23297523 0.23253888 0.018679695 -0.7973851 0.23681481
-0.38864464 -0.21306723 0.13345484 0.28237098 0.010167948 -0.12898697 -0.3863183 0.561208
-0.035283085 0.19577922 -0.24606563 -0.33126292 -0.0643927 -0.54052377 0.104462884 -0.01772783
00000000: 46f7 d73e 6652 97bc f1a5 f9bd cc60 223e
00000010: 1429 2c3e a4ca 8f3d ef09 a03e 1a48 b23e
00000020: 9caf 0cbe bdd7 febe 2f80 da3d 323d f93d
00000030: 3670 473e 9c1a a8bd 10ab 1fbf a8f2 e53e
00000040: f544 523e d946 53bf 4da3 a03e 16e7 023f
00000050: 3bb7 9ebe 66c0 80be 7197 293e 62b8 813e
00000060: d34a ab3c da45 9e3e 13ae 9fbe c1eb 03bd
00000070: 79ea a4be e07e 9ebe 8a6e 0e3e eb6e 603e
00000080: b38b 83be 33e0 df3d fb9a 843e efb9 5c3c
00000090: c1d2 60bd 7ff3 593d bf25 51be 0f4a 0c3f
000000a0: 4592 56bd 3ec4 633e 1a62 2f3f 8655 9e3e
000000b0: 1e0f c13e e4e2 ac3e 44d4 9e3d b261 e23e
000000c0: c71f 3b3e 6448 85be 6768 60be 2bf1 393f
000000d0: e449 8ebe 4230 103f 3fb4 853e ec63 573e
000000e0: 0c72 8e3e 43da d23d e41e eb3e d392 17be
000000f0: 00dd 9e3e 6168 863e 36db af3e 99aa 4b3f
00000100: d9a5 f3bd d52a 62bf 335b 903e b784 de3e
00000110: 3b29 933d 617c 4d3d d958 aabe 8e05 973f
00000120: ce43 553e 551b c7be e8d4 613e b324 2d3f
00000130: 5ba4 663e 44e3 583e 0350 2c3e fee9 813f
00000140: 55a9 b3be e227 03bf bb52 7d3e 2106 2c3f
00000150: 60ee e53d 6c07 8abe c44c b3be 8885 883f
00000160: 946d b13e 6dc0 8ebf c5c8 c83d f111 a13e
00000170: 092a 12bf 11a5 a3be 5b34 60be 5f49 16bc
00000180: 64b8 983e 2993 20bf fbf4 aebc e7f0 ef3e
00000190: c31e a9be 55f9 73be d567 a83e 1448 4d3f
000001a0: f740 1c3e afac d83e c06f 803f dd6e 0abe
000001b0: 503b 9e3e eccb 743e b4bb 083f 6445 7e3f
000001c0: d7d6 3c3d 032f f8be fd97 603e d5bd 4f3e
000001d0: b66e 2dbe dd1a c0bd e88d 9e3d c606 083f
000001e0: b202 673e c088 a03e b719 2b3f f60a 8cbe
000001f0: 86eb 413e 6241 c93e 2010 e63e 4dc4 2a3f
00000200: 3034 98be 437c ddbe 98d6 d0bc ef14 9d3e
00000210: c812 26be d37d bdbd ea3a c8be f66b 043f
00000220: 1602 55bd 1351 3fbf 09dc 1d3e cff4 b83e
00000230: 1f43 1bbc be0f 5d3c e067 17be 9883 903f
00000240: 1888 c23c 4145 1d3d 6e06 a83d 977a 063f
00000250: 6dab 693e 7282 29bf 4b5a e93e f82b d23e
00000260: 52ba 81bd bf86 833d 1fc1 583f 11d2 7e3d
00000270: d508 e53e f1cd 963e c8f5 fb3e 7b25 263f
00000280: 08c5 07bd afba ee3e ed0b 0b3f 8a6c 5b3c
00000290: a3be b2bd beb1 33be 9a7b 68bd 8545 db3e
000002a0: 38b8 873e 5fc1 dbbd 50e0 263e 9548 8e3e
000002b0: 6d49 863e d3b8 383d 2d32 53bf d87b af3e
000002c0: 46e9 0cbd aec3 f53d 8a88 693f 2b20 2b3e
000002d0: 5ca7 d73e 02d6 f73e 7d72 943e e869 ff3e
000002e0: 9b0a 3f3e 94b9 683e 31c4 cfbd e013 0b3f
000002f0: 7c3a b43e 897b 15be a851 683e 1034 033f
00000300: e3a1 92be 8cdc 783d a558 9abc 8ae5 9abd
00000310: 06ec dfbe 1c5d d5be 8aea 8e3e 8c0d 7ebe
00000320: f1c6 10bf e800 40bf 2780 1b3e cdb1 b93e
00000330: 3981 99be 5c37 e5be 626c e4be 91f2 ed3e
00000340: ab4a 13be 449b a8be c645 f43e 87af ec3e
00000350: 6694 183f c8ea 773e 5752 973e b88f 013f
00000360: 246c 83be 7be1 0a3e e67f 843d befb b23e
00000370: 88ed f7bc 963a bdbe f3a5 893e 5070 473e
00000380: 6f77 013f e443 29be 63ef 0ebf 357f 043e
00000390: 2240 ccbd f8ef 77bf ba99 00bf f4de 50be
000003a0: 70f3 893e b054 b73c 2288 b73e 0f91 6e3e
000003b0: ac1e 6e3e 2906 993c 6e21 4cbf 957f 723e
000003c0: 6efc c6be 4c2e 5abe 63a8 083e ee92 903e
000003d0: 7797 263c 2915 04be 83cb c5be 54ab 0f3f
000003e0: ff84 10bd 597a 483e a1f8 7bbe 4b9b a9be
000003f0: 52e0 83bd c45f 0abf a3f0 d53d f439 91bc

fc_layers.0.weight f4 [64, 16]
-0.374862 -0.3236684 -0.19453587 0.40430644 0.053314194 -0.42733338 -0.5544589 -0.29475173
-0.12274016 -0.12230132 0.23346986 -0.27735633 -0.49169916 -0.3760342 0.22807498 0.20666195
-0.76152664 0.22894566 -0.023599468 -0.38863683 -0.3442555 0.27230048 -0.09317002 -0.17016503
-0.5220752 0.10709488 0.34900206 -0.14315222 0.42068073 -0.02971464 0.055538937 -0.7271154
0.4230535 0.20034468 0.09110256 0.28502864 0.37739044 -0.21515866 0.101648174 0.612263
0.41998747 -0.08454769 -0.018673155 -0.200923 0.38509926 0.35768 0.25059268 -0.10827957
0.6024397 0.13066679 0.041686922 0.21915145 -1.0808711 -0.18977635 -0.24482165 0.046137255
0.24496663 0.044036 0.5126031 0.15693092 -0.2622142 0.1865675 -0.15442964 -0.5596312
0.1991188 0.20003101 0.17057727 0.08805892 0.36093265 -0.26251522 0.0034137876 0.13025291
0.54803884 -0.0868105 -0.021088865 -0.1407631 0.16445911 0.18124144 0.25088644 0.062266257
0.29420862 0.09131005 0.16338773 0.45641539 -0.7691464 -0.15856707 0.023810634 -0.27026263
0.17140295 -0.15750797 0.03516113 0.02607622 -0.394292 -0.19275601 -0.24738204 -0.5980427
0.24808878 -0.18055448 -0.254796 0.39572927 0.08318576 -0.19964743 -0.02669566 -0.31994388
-0.44969356 0.15816595 0.048523024 0.014437268 -0.25075346 -0.08490975 -0.124962024 0.15268676
0.0107571725 0.020010432 0.026795685 0.0031327512 0.017137473 -0.010148069 0.0023782358 0.008552022
-0.008436207 0.021049226 -0.014272233 -0.0064861686 -0.0007990373 -0.014796159 -0.0035370097 0.004553808
2.2353514e-21 -4.747174e-22 9.115895e-23 -1.7436586e-21 -6.5093707e-22 1.81517e-21 -1.3808409e-22 -2.2163288e-22
-1.8805391e-22 1.7685774e-21 4.236608e-21 -2.8760494e-21 -4.424589e-22 -4.0250738e-21 2.800926e-21 -9.19534e-22
-0.5110707 0.20957592 0.26754776 -0.17054103 -0.54484147 0.21717401 -0.26646873 -0.6284371
-0.23872839 0.4298047 0.309731 -0.056825023 -0.10812875 -0.020782573 -0.14459115 -0.88633984
0.6660707 0.17535432 0.06318532 -0.13671221 -0.9017627 -0.36179394 -0.5496892 0.18873912
0.32565996 0.21174349 0.5510864 0.33223286 0.006172968 0.32775196 -0.15503769 -0.58471465
-0.012449704 0.20935501 0.4341386 0.20462157 0.22493146 -0.3197929 0.19334644 -0.13368337
0.13216257 0.57746154 -0.058049638 -0.038680542 -0.004432273 -0.19360904 0.015440926 0.25277445
-0.3853346 -0.03123963 0.23546343 0.7206262 0.079460025 -0.37214318 -0.15594178 -0.35642117
-0.23542221 0.27190107 -0.018673567 -0.19549833 -0.4095206 -0.54871124 0.074889675 0.17720106
-0.07602421 -0.060644228 0.44362867 -0.1806393 0.12855387 -0.21625671 0.35207614 0.13217287
0.21106888 0.44854024 -0.27621263 -0.011983676 0.16794819 0.19296834 0.009450821 0.13130695
-0.74211085 0.24178845 0.1604668 -0.3949717 -0.5871141 0.22269861 -0.1670596 -0.32218054
-0.4666084 0.3999879 0.2964745 -0.034265403 0.24600823 -0.008545734 -0.102165826 -1.0168301
-0.034188908 0.06182367 0.086435035 0.3610408 -0.65439045 0.07077275 -0.12121634 -0.5330474
-0.20002711 0.1455684 0.16009335 -0.18970595 -0.0046422947 -0.08803068 -0.08027069 -0.84367925
00000000: e9ed bfbe ddb7 a5be 6934 47be 4101 cf3e
00000010: fc5f 5a3d 71cb dabe 05f1 0dbf b3e9 96be
00000020: 315f fbbd 1d79 fabd b912 6f3e a601 8ebe
00000030: febf fbbe 8e87 c0be 7d8c 693e 319f 533e
00000040: 69f3 42bf bb70 6a3e ac53 c1bc 68fb c6be
00000050: 4242 b0be f86a 8b3e eccf bebd be3f 2ebe
00000060: b8a6 05bf 8f54 db3d 66b0 b23e 7f96 12be
00000070: 7763 d73e 1e6c f3bc cc7c 633d 3c24 3abf
00000080: 789a d83e 2827 4d3e fb93 ba3d 46ef 913e
00000090: 5239 c13e 8d52 5cbe eb2c d03d 45bd 1c3f
000000a0: 9908 d73e 5727 adbd 72f8 98bc c2be 4dbe
000000b0: bb2b c53e d521 b73e af4d 803e aec1 ddbd
000000c0: 7d39 1a3f 84cd 053e e8bf 2a3d 3d69 603e
000000d0: fc59 8abf bb54 42be 87b2 7abe 6bfa 3c3d
000000e0: 88d8 7a3e 185f 343d f539 033f 80b2 203e
000000f0: f140 86be 8d0b 3f3e ce22 1ebe fe43 0fbf
00000100: cce5 4b3e eed4 4c3e cfab 2e3e 3c58 b43d
00000110: 2acc b83e 6568 86be dab9 5f3b 0561 053e
00000120: 464c 0c3f b4c9 b1bd 8ec2 acbc 3424 10be
00000130: f867 283e 5b97 393e 3074 803e e70a 7f3d
00000140: 83a2 963e c300 bb3d 1d4f 273e 47af e93e
00000150: c7e6 44bf 685f 22be 850e c33c dd5f 8abe
00000160: 4184 2f3e c549 21be 1e05 103d cc9d d53c
00000170: a4e0 c9be d561 45be b851 7dbe 5419 19bf
00000180: fc0a 7e3e 46e3 38be 9f74 82be 079d ca3e
00000190: 4c5d aa3d 6070 4cbe dbb0 dabc afcf a3be
000001a0: 3c3e e6be 41f6 213e 14c0 463d 4a8a 6c3c
000001b0: c262 80be 2ae5 adbd 17ec ffbd eb59 1c3e
000001c0: da3e 303c ebec a33c a082 db3c d84e 4d3b
000001d0: e363 8c3c 1644 26bc 2ddc 1b3b c81d 0c3c
000001e0: 0438 0abc 6d6f ac3c 15d6 69bc ed89 d4bb
000001f0: 7c76 51ba 976b 72bc 2dcd 67bb 1c38 953b
00000200: fce5 281d 7b79 0f9c a868 dc1a 43bf 039d
00000210: d1bb 449c 7e26 091d f5ee 269b 07f8 859b
00000220: de57 639b 43a1 051d f50d a01d e34e 599d
00000230: 99b9 059c 2010 989d caa1 531d c0f4 8a9c
00000240: 88d5 02bf 129b 563e 05fc 883e 4fa2 2ebe
00000250: bb7a 0bbf dd62 5e3e 976e 88be 41e1 20bf
00000260: 3775 74be 5d0f dc3e 1095 9e3e 5bc1 68bd
00000270: 9b72 ddbd 3740 aabc b40f 14be 2be7 62bf
00000280: 9c83 2a3f 1590 333e 4e67 813d 49fe 0bbe
00000290: ecd9 66bf 0e3d b9be 6eb8 0cbf d444 413e
000002a0: e7bc a63e 49d3 583e 0014 0d3f 6d1a aa3e
000002b0: 9c46 ca3b 1bcf a73e 33c2 1ebe dcaf 15bf
000002c0: d8f9 4bbc 2961 563e 6a47 de3e 5188 513e
000002d0: 6f54 663e e5bb a3be 9cfc 453e 4be4 08be
000002e0: a055 073e 85d4 133f 75c5 6dbd 7d6f 1ebd
000002f0: 9a3c 91bb 7341 46be f0fb 7c3c a76b 813e
00000300: 944a c5be 41ea ffbc 531d 713e f57a 383f
00000310: f0bb a23d 8d89 bebe 34af 1fbe d67c b6be
00000320: 8512 71be 9e36 8b3e 4ff9 98bc b730 48be
00000330: afac d1be 5778 0cbf c25f 993d 3274 353e
00000340: 95b2 9bbd 1566 78bd 4c23 e33e 82f9 38be
00000350: a0a3 033e 6672 5dbe 5343 b43e 5358 073e
00000360: 7122 583e 11a7 e53e be6b 8dbe 2e57 44bc
00000370: 9cfa 2b3e 7e99 453e 9ed7 1a3c 5475 063e
00000380: fafa 3dbf 6497 773e 6951 243e bb39 cabe
00000390: 1c4d 16bf 1b0b 643e ac11 2bbe d9f4 a4be
000003a0: 4ce7 eebe 37cb cc3e 81cb 973e e159 0cbd
000003b0: 95e9 7b3e 6803 0cbc 513c d1bd 7d27 82bf
000003c0: ab09 0cbd d13a 7d3d da04 b13d 57da b83e
000003d0: 2286 27bf 4ef1 903d 4640 f8bd cb75 08bf
000003e0: e8d3 4cbe e20f 153e 83ef 233e 4742 42be
000003f0: 641e 98bb 6e49 b4bd f664 a4bd 5dfb 57bf

fc_layers.0.bias f4 [64]
0.18975364 0.087363146 0.2197652 -0.5147172 0.33940515 -0.40967557 -0.19449489 -0.07662439
-2.0295376e-20 -0.063888915 -0.53346115 0.31122878 0.014099699 -0.09753379 0.10082792 -0.21107927
-0.07445374 0.29337868 -0.16533172 -0.22220026 -2.6777753e-22 -4.1268074e-36 0.1975122 0.36404288
-0.128399 0.43537578 0.3288612 0.43667072 -0.11220493 -0.16677743 0.4550043 -0.4753393
-0.070687525 0.4460688 -0.066780195 0.4342274 0.09720361 -2.7363132e-14 -0.08556541 -0.25289702
-0.07316468 0.44907886 -0.2465497 0.43941712 0.3903794 0.43180832 -0.15344323 -8.671223e-05
-0.2823197 -6.516569e-15 -0.025508435 -0.36062604 -0.33385515 -0.27516633 -0.10438435 -1.4422155e-27
0.3747419 -0.3408146 -0.19794574 -0.2837789 -0.029886512 0.43579248 -0.2722961 0.16460311
00000000: c74e 423e 73eb b23d 210a 613e 82c4 03bf
00000010: 83c6 ad3e ffc0 d1be ab29 47be 40ed 9cbd
00000020: 35af bf9e 31d8 82bd e990 08bf 6159 9f3e
00000030: 6d02 673c ccbf c7bd de7e ce3d 2a25 58be
00000040: 347b 98bd bb35 963e b84c 29be 7788 63be
00000050: 91dc a19b f488 af84 a340 4a3e d463 ba3e
00000060: 077b 03be 93e9 de3e 7f60 a83e 4e93 df3e
00000070: b3cb e5bd b4c7 2abe 53f6 e83e ac5f f3be
00000080: 9fc4 90bd 2163 e43e 0ec4 88bd 0e53 de3e
00000090: b012 c73d 1677 f6a8 eb3c afbd b87b 81be
000000a0: 5dd7 95bd aaed e53e 8677 7cbe 48fb e03e
000000b0: cfdf c73e fb15 dd3e 3920 1dbe 46d9 b5b8
000000c0: 358c 90be bec8 eaa7 11f7 d0bc faa3 b8be
000000d0: 10ef aabe 9ae2 8cbe 76c7 d5bd 3687 e492
000000e0: 2cde bf3e 407f aebe 4ab2 4abe 784b 91be
000000f0: 8fd4 f4bc 3120 df3e 656a 8bbe b88d 283e

fc_layers.1.weight f4 [32, 64]
0.24351048 0.22318406 0.035601776 0.54009396 0.0006743139 0.14456521 0.33272207 0.00468799
-8.901363e-21 0.14183515 0.7487107 0.14193332 0.13159037 0.3384521 0.18804438 0.052498125
-0.01633996 0.22435687 -0.13379344 0.5045976 1.2762142e-35 -4.9119407e-38 0.19842653 0.15014346
0.0015366555 0.12165822 0.23593193 0.102444105 -0.07308492 -0.6173377 0.097224064 0.35072827
0.00066382636 0.13260101 -0.0030166965 0.07353627 0.19921318 -2.0427597e-15 -0.35012293 -0.4834642
0.0116956495 0.12656221 -0.75844246 0.116813324 0.0673859 0.117438294 -0.074221306 -1.3639909e-14
-0.48886174 6.916855e-26 0.001721094 -0.6147251 -0.6596005 -0.59138787 0.009883792 -3.26399e-38
0.18860434 -0.53546304 0.55141854 -0.797931 0.7055795 0.14174137 -0.21972877 0.30534586
0.27357718 0.22828978 0.032036632 0.55729705 0.019476477 0.16856569 0.38705078 0.0015628366
-9.665392e-21 0.19685835 0.77291703 0.17362726 0.18479727 0.35000002 0.187426 0.07503393
-0.010928952 0.24314451 -0.2115417 0.5704864 1.3003639e-36 -4.911007e-38 0.22633454 0.11277373
0.0024451013 0.13078904 0.26279664 0.0986718 -0.05747507 -0.66015357 0.0830396 0.36998758
0.0012529833 0.117359646 -0.0027066823 0.07447152 0.20851448 -2.3342074e-15 -0.42873156 -0.49596986
0.008443367 0.12299438 -0.7493543 0.13127904 0.090382665 0.10978476 -0.07467354 -1.1478953e-14
-0.49073175 1.8403329e-25 0.0002744721 -0.6826266 -0.73280275 -0.6054046 0.0137389945 -4.513017e-38
0.21827748 -0.5319465 0.5597182 -0.8199614 0.78479946 0.154497 -0.22999275 0.2797417
-1.365212e-34 -8.803162e-35 -4.0408673e-36 -5.777033e-35 -1.3679308e-35 -4.230449e-35 -2.9128635e-35 4.910459e-38
-4.9168054e-38 -1.2824124e-34 -4.4312323e-35 -4.9912495e-35 -9.803762e-35 -1.5467323e-36 -1.2569253e-34 -1.1001693e-34
-4.9171765e-38 -1.0814574e-34 -4.9694207e-36 -3.745017e-35 4.9149647e-38 -4.911121e-38 -9.52527e-35 -6.7198716e-36
-4.9088763e-38 -1.12290375e-35 -1.1012567e-34 -1.339899e-35 3.6172756e-35 -1.691654e-36 -1.0454699e-35 -5.756512e-35
4.908627e-38 -1.3598075e-35 4.9146833e-38 -9.921995e-36 -1.0366275e-34 4.907878e-38 -2.396772e-35 -2.7183978e-35
-1.7602685e-38 -1.3491154e-35 -1.79452e-35 -1.1360297e-35 -6.78493e-35 -7.947762e-36 -1.3969148e-37 -4.9157673e-38
-3.0382302e-35 4.9116117e-38 4.9147237e-38 2.0890463e-37 1.644802e-37 -2.8256537e-35 -3.758251e-38 -4.913587e-38
-5.0414927e-35 -1.4148175e-35 -1.4002916e-36 -1.1093513e-34 -4.699265e-35 -1.0761131e-35 -8.901867e-36 -5.122748e-38
-4.915833e-38 -4.9067817e-38 -5.125867e-38 -4.904639e-38 -4.948649e-38 -4.9071987e-38 4.912207e-38 4.906161e-38
4.90938e-38 -4.91568e-38 -4.9139496e-38 -4.907656e-38 -4.9181036e-38 4.9097636e-38 -4.908545e-38 -4.9057464e-38
-4.916358e-38 -4.912684e-38 4.915695e-38 4.917736e-38 -4.908687e-38 -4.906501e-38 -5.552855e-38 -5.1166396e-38
-4.915778e-38 -4.9900244e-38 -4.913126e-38 -5.055794e-38 4.907665e-38 4.904718e-38 -5.124311e-38 -4.9176725e-38
4.909142e-38 -5.1278555e-38 4.9072435e-38 -4.9601336e-38 -4.9083797e-38 4.9054644e-38 -4.9132966e-38 -4.9160504e-38
-4.9170257e-38 -5.048747e-38 4.916854e-38 -4.991354e-38 -4.9154843e-38 -4.9991855e-38 -4.905337e-38 4.915103e-38
4.914785e-38 4.9146216e-38 -4.912598e-38 -4.9145146e-38 4.910059e-38 4.9133386e-38 -4.9130096e-38 4.9146693e-38
-4.916426e-38 -4.917409e-38 -4.9056926e-38 4.91675e-38 -4.9148576e-38 -5.1172814e-38 -4.9073674e-38 -5.206685e-38
00000000: d05a 793e 5d8a 643e 2bd3 113d 9943 0a3f
00000010: 71c4 303a e708 143e 8c5a aa3e b69d 993b
00000020: 5a24 289e 3c3d 113e 81ab 3f3f f856 113e
00000030: a0bf 063e 9849 ad3e b58e 403e 4608 573d
00000040: 61db 85bc cfbd 653e 2601 09be 4f2d 013f
00000050: dbb5 8705 3bb7 8581 5330 4b3e 35bf 193e
00000060: 9a69 c93a f227 f93d 2498 713e 37ce d13d
00000070: 8cad 95bd d809 1ebf 691d c73d a892 b33e
00000080: a204 2e3a 8fc8 073e c5b3 45bb 2f9a 963d
00000090: 8afe 4b3e 4432 13a7 5043 b3be 9f88 f7be
000000a0: 1c9f 3f3c 8699 013e 4929 42bf d33b ef3d
000000b0: 9e01 8a3d 7d83 f03d 5701 98bd fab6 75a8
000000c0: 164c fabe c740 ab15 5596 e13a a05e 1dbf
000000d0: 94db 28bf 3265 17bf a1ef 213c 61b5 3181
000000e0: 7f21 413e 1b14 09bf c429 0d3f 3545 4cbf
000000f0: dca0 343f a624 113e 9400 61be 4b56 9c3e
00000100: 4f12 8c3e ccc4 693e d838 033d 05ab 0e3f
00000110: 228d 9f3c 7c9c 2c3e 852b c63e 18d8 cc3a
00000120: f892 369e 3c95 493e e4dd 453f 58cb 313e
00000130: 7f3b 3d3e 3433 b33e 9aec 3f3e 64ab 993d
00000140: 590f 33bc e0fa 783e 639e 58be 660b 123f
00000150: d63e dd03 b9b0 8581 3ec4 673e eaf5 e63d
00000160: fe3d 203b 90ed 053e 488d 863e 7114 ca3d
00000170: fb6a 6bbd d3ff 28bf aa10 aa3d 036f bd3e
00000180: 253b a43a 415a f03d 9862 31bb 8684 983d
00000190: d284 553e 8732 28a7 b482 dbbe c3ef fdbe
000001a0: 0c56 0a3c 7ae4 fb3d afd5 3fbf 036e 063e
000001b0: 8c1a b93d d5d6 e03d 71ee 98bd 54c9 4ea8
000001c0: 3141 fbbe 7ad2 6316 06e7 8f39 9ec0 2ebf
000001d0: f698 3bbf ccfb 1abf 8519 613c 47b6 7581
000001e0: 2284 5f3e a52d 08bf b149 0f3f fee8 51bf
000001f0: 9ee8 483f 7634 1e3e 3883 6bbe 4e3a 8f3e
00000200: c277 3587 3707 ea86 26e1 ab84 7394 9986
00000210: 9e76 9185 e3ed 6086 d8df 1a86 e8ac 8501
00000220: 22d9 8581 3c76 2a87 cf9a 6b86 afb0 8486
00000230: 7950 0287 d994 0384 f412 2787 d23c 1287
00000240: b8db 8581 17c0 0f87 3360 d384 881e 4786
00000250: 4ecc 8501 85b1 8581 a139 fd86 76ea 0e85
00000260: e0a1 8581 b2d0 6e85 d361 1287 857b 8e85
00000270: ce53 4006 f6e8 0f84 cc58 5e85 ca08 9986
00000280: 23a0 8501 7b99 9085 58ca 8501 7b04 5385
00000290: 9bca 0987 eb9a 8501 57de fe85 ea88 1086
000002a0: 20ad bf80 6a76 8f85 7bd3 be85 579b 7185
000002b0: d75f b486 bb07 2985 6023 3e82 e6d1 8581
000002c0: 3f8a 2186 f0b4 8501 a0ca 8501 522c 8e02
000002d0: fce0 5f02 ce3c 1686 609e 4c81 b4c2 8581
000002e0: 9f06 8686 ff72 9685 4d3f ee83 4575 1387
000002f0: 15db 7986 2cdd 6485 6052 3d85 5874 8b81
00000300: 5bd2 8581 4793 8581 148a 8b81 5884 8581
00000310: 0db7 8681 2f96 8581 16b9 8501 f48e 8501
00000320: 63a5 8501 4ad1 8581 3bc5 8581 5f99 8581
00000330: 2ee2 8581 0fa8 8501 919f 8581 108c 8581
00000340: 04d6 8581 69bc 8581 65d1 8501 9edf 8501
00000350: 8ea0 8581 5291 8581 c029 9781 c649 8b81
00000360: f9d1 8581 65d7 8781 7ebf 8581 bea1 8981
00000370: 6f99 8501 e584 8501 3c7f 8b81 2ddf 8581
00000380: baa3 8501 f097 8b81 7f96 8501 1607 8781
00000390: 6a9e 8581 198a 8501 aec0 8581 dfd3 8581
000003a0: abda 8581 a270 8981 79d9 8501 a9e0 8781
000003b0: edcf 8581 3d17 8881 3689 8581 45cd 8501
000003c0: 0dcb 8501 eac9 8501 d0bb 8581 2bc9 8581
000003d0: 1eaa 8501 f9c0 8501 aebe 8581 3fca 8501
000003e0: 7dd6 8581 57dd 8581 b08b 8581 bfd8 8501
000003f0: 8fcb 8581 3f4e 8b81 5c97 8581 4cbd 8d81

fc_layers.1.bias f4 [32]
0.026159557 0.07397456 -1.5520728e-34 -4.908414e-38 0.03436796 -4.917605e-38 -4.909247e-38 -4.914034e-38
0.07441584 -4.9233635e-38 -9.374851e-23 -5.318625e-38 -4.9095125e-38 -4.905228e-38 -9.221653e-34 -4.91447e-38
0.020099072 -4.02023e-34 0.05006693 -4.984355e-38 -4.9101274e-38 -4.914336e-38 -5.2941334e-37 -8.998022e-38
-4.91002e-38 -1.4429612e-31 0.32382333 -6.2985406e-38 -1.2309155e-32 0.07554667 -4.9103645e-38 -1.5165079e-32
00000000: 914c d63c f97f 973d 4d4e 4e87 a79e 8581
00000010: 6bc5 0c3d b4de 8581 75a4 8581 d2c5 8581
00000020: 5567 983d d606 8681 84ab e29a 68c9 9081
00000030: 4fa6 8581 7388 8581 9338 9988 dbc8 8581
00000040: cfa6 a43c 5698 0588 fb12 4d3d e2af 8781
00000050: 98aa 8581 ecc7 8581 6826 3483 10f3 f481
00000060: d8a9 8581 9c4e 3b8c 2ccc a53e 6c76 ab81
00000070: b2a6 7f8a 36b8 9a3d 3fac 8581 b27b 9d8a

fc_layers.2.weight f4 [16, 32]
0.19623677 0.22351037 -6.113956e-36 4.9085036e-38 0.23125082 4.912291e-38 -4.910471e-38 4.911746e-38
0.22594318 -4.9143453e-38 7.010533e-24 -4.9144456e-38 4.5992505e-38 4.9133784e-38 -1.0380848e-35 4.914313e-38
0.1961331 -9.575505e-35 0.21702065 4.908884e-38 4.9073007e-38 -4.915034e-38 3.2315378e-38 -3.3272027e-38
-4.90946e-38 -1.1501373e-31 -0.97607774 4.905664e-38 2.1306695e-32 0.22218181 4.906428e-38 -1.5752963e-32
4.913701e-38 -4.914975e-38 -4.9169747e-38 4.9046623e-38 -4.9131183e-38 -4.9101207e-38 4.905643e-38 4.910224e-38
-4.9148806e-38 -4.90765e-38 -4.911433e-38 -4.912089e-38 4.905249e-38 -4.909239e-38 4.9127714e-38 -4.907465e-38
4.9167595e-38 -4.915447e-38 -4.9061634e-38 -4.910175e-38 4.9150476e-38 -4.9184377e-38 4.9093236e-38 -4.9142915e-38
4.9156625e-38 -4.904937e-38 4.915374e-38 4.909682e-38 4.914324e-38 -4.906881e-38 -4.9151833e-38 4.916101e-38
0.20829011 0.22471073 -6.026523e-36 4.9090596e-38 0.21652932 4.9071275e-38 -4.9124356e-38 4.910718e-38
0.23689255 -4.9174814e-38 6.911253e-24 -4.9160016e-38 4.5980874e-38 4.9118375e-38 -1.0305257e-35 4.9050284e-38
0.19374257 -9.4349395e-35 0.2072067 4.910616e-38 4.913499e-38 9.77758e-39 3.2526312e-38 -3.169105e-38
-4.9063736e-38 -1.1333324e-31 -0.8992879 4.914244e-38 2.1004576e-32 0.23890126 4.90872e-38 -1.5531276e-32
-4.8734497e-28 -4.1263776e-28 -4.904641e-38 4.9091016e-38 -7.664739e-28 4.911494e-38 4.904551e-38 4.905195e-38
2.6234813e-28 -4.918276e-38 4.909484e-38 4.917286e-38 -4.9127506e-38 -4.911947e-38 4.9132316e-38 -4.908115e-38
-3.8760857e-28 4.9145213e-38 -6.5406045e-28 -4.908954e-38 4.915518e-38 -4.906246e-38 -4.910387e-38 4.91215e-38
4.9130735e-38 -4.9130584e-38 -6.723274e-29 -4.915416e-38 -4.9050373e-38 -9.287133e-29 -4.908034e-38 -4.9131766e-38
-4.90778e-38 -4.9173553e-38 4.914853e-38 4.917558e-38 -4.905078e-38 4.914065e-38 4.913943e-38 -4.9111857e-38
-4.9094094e-38 4.907714e-38 4.9174674e-38 -4.9141575e-38 -4.9085417e-38 -4.910489e-38 -4.915297e-38 4.906937e-38
-4.9065995e-38 4.918459e-38 -4.9172213e-38 -4.9178295e-38 -4.916667e-38 -4.9126783e-38 4.915502e-38 -4.914644e-38
-4.91226e-38 4.9164327e-38 -4.913891e-38 4.9124726e-38 4.917527e-38 -4.9134457e-38 -4.9118807e-38 4.913859e-38
0.18830115 0.20735297 -5.9902246e-36 4.917411e-38 0.19847958 4.907219e-38 -4.9175425e-38 4.913867e-38
0.21197626 -4.916058e-38 6.873982e-24 -4.913284e-38 -4.9085826e-38 4.910827e-38 -1.01777485e-35 4.9116615e-38
0.18623357 -9.3777685e-35 0.17919809 4.911106e-38 4.909146e-38 -4.906725e-38 3.2676756e-38 -3.13481e-38
-4.9066533e-38 -1.126442e-31 -0.91022563 4.9174926e-38 2.088322e-32 0.22492945 4.9137713e-38 -1.5440531e-32
0.2278857 0.24217425 -6.641487e-36 4.9088993e-38 0.2538369 4.913776e-38 -4.9117075e-38 4.9099974e-38
0.25492638 -4.907889e-38 7.608563e-24 -1.8022133e-38 4.604507e-38 4.9064835e-38 -1.1320639e-35 4.913547e-38
0.21404219 -1.0403923e-34 0.23475687 4.9185486e-38 4.906924e-38 -4.9182745e-38 3.0609695e-38 -3.9896066e-38
-4.9119894e-38 -1.2491969e-31 -0.8902443 4.906242e-38 2.3140088e-32 0.24978255 4.9069666e-38 -1.7110347e-32
0.16732231 0.18720612 -5.353596e-36 4.908286e-38 0.16346118 4.907542e-38 4.9141306e-38 4.904607e-38
0.198614 -4.9153503e-38 6.1522927e-24 -4.908854e-38 4.6077443e-38 4.9169114e-38 -9.189136e-36 4.911168e-38
0.17839536 -8.370968e-35 0.168166 4.915153e-38 4.9078713e-38 9.923756e-39 3.5233755e-38 -2.2937888e-38
4.906773e-38 -1.0060237e-31 -0.83332956 4.90895e-38 1.867498e-32 0.19556876 4.9170734e-38 -1.3807733e-32
00000000: 4bf2 483e e7df 643e 8b07 0285 479f 8501
00000010: 04cd 6c3e acb9 8501 fdac 8581 e0b5 8501
00000020: a65d 673e fdc7 8581 7a9a 0719 b0c8 8581
00000030: 3268 7a01 40c1 8501 b6c6 5c85 c3c7 8501
00000040: 1ed7 483e 838f fe86 a93a 5e3e eea1 8501
00000050: e596 8501 cacc 8581 10f1 2f01 7026 3581
00000060: f1a5 8581 de4b 158c 3be0 79bf 7d8b 8501
00000070: e942 dd0a a183 633e d090 8501 8f96 a38a
00000080: 80c3 8501 60cc 8581 50da 8581 8284 8501
00000090: 70bf 8581 8caa 8581 588b 8501 44ab 8501
000000a0: b8cb 8581 5499 8581 b1b3 8581 44b8 8581
000000b0: 9988 8501 67a4 8581 05bd 8501 0a98 8581
000000c0: d0d8 8501 aacf 8581 f88e 8581 edaa 8581
000000d0: e2cc 8501 82e4 8581 fea4 8501 9dc7 8581
000000e0: 2bd1 8501 6c86 8581 28cf 8501 7da7 8501
000000f0: d7c7 8501 f893 8581 d4cd 8581 39d4 8501
00000100: 014a 553e 921a 663e 832b 0085 27a3 8501
00000110: ddb9 5d3e b095 8501 aeba 8581 b6ae 8501
00000120: f693 723e d8dd 8581 deae 0519 88d3 8581
00000130: fc57 7a01 83b6 8501 282b 5b85 0f87 8501
00000140: 7464 463e dfd2 fa86 fe2d 543e 00ae 8501
00000150: 17c2 8501 ea77 6a00 1017 3101 e08a 2c81
00000160: 6f90 8581 6e1d 138c bb37 66bf 48c7 8501
00000170: be1f da0a 88a2 743e c9a0 8501 3749 a18a
00000180: 1f72 1a92 27c5 0292 5c84 8581 72a3 8501
00000190: c0e7 7292 1eb4 8501 bb83 8501 3888 8501
000001a0: 6b48 a611 62e3 8581 1ca6 8501 7bdc 8501
000001b0: e0bc 8581 46b7 8581 3ac0 8501 929c 8581
000001c0: 16ad f591 37c9 8501 b047 4f92 6ba2 8581
000001d0: 29d0 8501 8b8f 8581 67ac 8581 b0b8 8501
000001e0: 20bf 8501 05bf 8581 8b74 aa90 73cf 8581
000001f0: 1f87 8581 f074 eb90 019c 8581 d8bf 8581
00000200: 3c9a 8581 f7dc 8581 87cb 8501 61de 8501
00000210: 6887 8581 09c6 8501 2fc5 8501 f8b1 8581
00000220: 97a5 8581 c699 8501 bfdd 8501 aec6 8581
00000230: 8b9f 8581 1dad 8581 9fce 8581 5c94 8501
00000240: 0292 8581 a8e4 8501 08dc 8581 45e0 8581
00000250: 2bd8 8581 5fbc 8581 0dd0 8501 12ca 8581
00000260: 75b9 8581 89d6 8501 d2c4 8581 f0ba 8501
00000270: 29de 8501 b8c1 8581 d0b6 8581 99c4 8501
00000280: 04d2 403e 5654 543e c5cb fe84 5add 8501
00000290: 3b3e 4b3e 5396 8501 45de 8581 a8c4 8501
000002a0: 4e10 593e edd3 8581 4ff6 0419 98c0 8581
000002b0: d49f 8581 78af 8501 ef74 5885 49b5 8501
000002c0: 03b4 3e3e c94d f986 b47f 373e 6ab1 8501
000002d0: c1a3 8501 e292 8581 c0e8 3101 e0ac 2a81
000002e0: 6292 8581 7538 128c 8c04 69bf ecdd 8501
000002f0: 1fdd d80a e853 663e fdc3 8501 f957 a08a
00000300: de5a 693e 87fc 773e b23f 0d85 09a2 8501
00000310: e9f6 813e 05c4 8501 9bb5 8581 b0a9 8501
00000320: b685 823e ff9a 8581 c72b 1319 603e c480
00000330: 76b1 7a01 3391 8501 6cc3 7085 6dc2 8501
00000340: e02d 5b3e b74a 0a87 1b64 703e 48e5 8501
00000350: 4594 8501 5fe3 8581 b0a7 2601 0037 5981
00000360: 92b7 8581 b027 228c 0de7 63bf 848f 8501
00000370: e84c f00a ffc6 7f3e 9194 8501 1baf b18a
00000380: 8a56 2b3e f6b2 3f3e 80b7 e384 c39d 8501
00000390: 5e62 273e 9398 8501 7ec6 8501 1f84 8501
000003a0: 7861 4b3e fece 8581 5b01 ee18 b8a1 8581
000003b0: 95de 7a01 dfd9 8501 6a6e 4385 d8b1 8501
000003c0: 46ad 363e db89 de86 b533 2c3e 9ecd 8501
000003d0: df9a 8501 650f 6c00 b0d4 3f01 80c5 f980
000003e0: 3893 8501 df96 028c 1655 55bf 63a2 8501
000003f0: 9dee c10a 2d43 483e 00db 8501 4063 8f8a

fc_layers.2.bias f4 [16]
0.2823295 -5.4505225e-38 0.25178257 -1.6454795e-27 -4.91581e-38 0.2616739 0.2587091 0.22508214
-4.9079515e-38 0.49846748 0.2620592 -5.414468e-38 0.27655613 -4.90611e-38 0.27720135 -5.5777996e-38
00000000: 7e8d 903e 9960 9481 a5e9 803e 4a5e 0293
00000010: 32d2 8581 1ffa 853e 8575 843e ef7b 663e
00000020: 6e9b 8581 2137 ff3e a02c 863e 5665 9381
00000030: c498 8d3e 998e 8581 56ed 8d3e 97d7 9781

fc_layers.3.weight f4 [8, 16]
-4.914661e-38 4.9092143e-38 -4.907688e-38 -4.907488e-38 -4.907602e-38 -4.905002e-38 -4.9276963e-38 -4.906603e-38
-4.915975e-38 -5.6137586e-38 -4.913392e-38 4.910288e-38 -4.910181e-38 4.90574e-38 -4.908419e-38 -4.9183614e-38
0.26427108 4.9069257e-38 0.2556771 1.0221087e-28 -4.9138246e-38 0.24639611 0.28244752 0.21940109
-4.90477e-38 -1.2248892 0.26480934 4.910827e-38 0.2554164 4.912945e-38 0.24149041 4.9168043e-38
0.19175501 3.6259102e-38 0.1975081 7.891823e-29 -4.9112826e-38 0.1991118 0.20454502 0.16897848
-4.9120405e-38 -1.0555004 0.20043652 -4.904737e-38 0.1932889 4.9118914e-38 0.17505637 4.907742e-38
-3.2362771e-35 -4.9081527e-38 -3.1648527e-35 4.9103606e-38 4.9114956e-38 -2.9634287e-35 -3.4564995e-35 -2.6352273e-35
4.917744e-38 2.8398359e-36 -3.227661e-35 -4.906049e-38 -3.1597185e-35 4.9123964e-38 -3.1262416e-35 4.9098286e-38
0.20831539 3.5215774e-38 0.21795209 8.485856e-29 -4.9182785e-38 0.21232966 0.24490729 0.21813966
-4.918366e-38 -1.0838314 0.21905553 -4.9163643e-38 0.22089861 4.909736e-38 0.20809197 4.917737e-38
0.18459411 3.7312116e-38 0.16356464 7.0466154e-29 -4.918018e-38 0.17625336 0.18845749 0.13260998
-4.9067884e-38 -0.9996579 0.15214112 -4.915163e-38 0.1728708 4.917422e-38 0.15270862 4.914625e-38
-1.0192014e-37 4.9050984e-38 -1.0509236e-37 -4.905624e-38 -4.917787e-38 -8.858906e-38 -1.3368809e-37 -7.099126e-38
-4.9129715e-38 -3.344239e-37 -1.0598713e-37 -4.907532e-38 -9.768252e-38 -4.909239e-38 -8.9920807e-38 4.909589e-38
-2.2859256e-33 -4.9164293e-38 -2.3518308e-33 4.906737e-38 4.9054325e-38 -2.122411e-33 -2.6054496e-33 -1.9135404e-33
4.914086e-38 -4.1029046e-34 -2.3911429e-33 -4.9048966e-38 -2.2427567e-33 -4.9141867e-38 -2.182255e-33 -4.9091913e-38
00000000: 30ca 8581 3ba4 8501 9899 8581 3398 8581
00000010: ff98 8581 e086 8581 0825 8681 0892 8581
00000020: 58d3 8581 30d2 9881 58c1 8581 b7ab 8501
00000030: f8aa 8581 058c 8501 b09e 8581 fae3 8581
00000040: 8a4e 873e 4894 8501 1ce8 823e 5391 0111
00000050: 5cc4 8581 434f 7c3e f69c 903e aeaa 603e
00000060: 4285 8581 2bc9 9cbf 1795 873e 78af 8501
00000070: f0c5 823e 3bbe 8501 4349 773e 20d9 8501
00000080: 6d5b 443e d069 4501 903f 4a3e dc14 c810
00000090: a5b2 8581 f7e3 4b3e 4074 513e b208 2d3e
000000a0: edb7 8581 a31a 87bf 3b3f 4d3e 0785 8581
000000b0: 87ed 453e e3b6 8501 fa41 333e f899 8501
000000c0: ec11 2c86 d59c 8581 be45 2886 38ac 8501
000000d0: 21b4 8501 1a90 1d86 6fc7 3786 db1c 0c86
000000e0: acdf 8501 2696 7104 a59c 2b86 2c8e 8581
000000f0: dcff 2786 68ba 8501 3238 2686 83a8 8501
00000100: a150 553e a0bb 3f01 d52e 5f3e 5b24 d710
00000110: 66e3 8581 f26c 593e fac8 7a3e 0160 5f3e
00000120: 02e4 8581 fdba 8abf 1850 603e 0fd6 8581
00000130: 3f33 623e dea7 8501 1016 553e a0df 8501
00000140: 3d06 3d3e 8025 4b01 7d7d 273e 26a7 b210
00000150: 95e1 8581 c37b 343e 00fb 403e e9ca 073e
00000160: 5393 8581 95e9 7fbf e2ca 1b3e b0cd 8581
00000170: 0b05 313e 6edd 8501 a65f 1c3e f0c9 8501
00000180: fcb9 0a82 8c87 8501 580b 0f82 368b 8581
00000190: f9df 8581 9029 f181 80f7 3582 b041 c181
000001a0: 6abe 8581 dc98 e382 2043 1082 8298 8581
000001b0: 64f5 0482 67a4 8581 a8c9 f481 d7a6 8501
000001c0: 43e8 3d89 83d6 8581 e961 4389 f792 8501
000001d0: e089 8501 b152 3089 c973 5889 81f8 1e89
000001e0: 2ec6 8501 a757 0888 fca5 4689 2486 8581
000001f0: 2952 3a89 e2c6 8581 6e4b 3589 12a4 8581
