checkpoints/neumf_first_try_Epoch12_HR0.6738_NDCG0.3970.model (torch, 645108 bytes, 13 tensors)

embedding_user_mlp.weight f4 [6040, 8]
0	0xbe15881b	-0.14602701
1	0x3f041029	0.5158716
2	0x3f0f0619	0.5586868
3	0x3e858050	0.26074457
4	0xbecdc085	-0.40185943
5	0xbec11d65	-0.3771774
6	0xbe4394f3	-0.19099788
7	0xbecb436d	-0.3969988
8	0xbdd56c0d	-0.10421
9	0x3de659ad	0.11247573
10	0x3dd239bb	0.102649175
11	0x3e11f648	0.14254105
12	0x3dac3b95	0.08409802
13	0xbd8870f5	-0.0666217
14	0x3e66e0ae	0.22546646
15	0x3e7fa333	0.249646
16	0xbdcbe94e	-0.09956609
17	0x3ea4fc37	0.32223675
18	0x3eac08a9	0.33600357
19	0x3e5ea8b7	0.21744047
20	0x3d86e01d	0.06585715
21	0xbed0a138	-0.40748
22	0xbeb39a57	-0.3507869
23	0xbdac575c	-0.084151
24	0xbed9a1be	-0.42506212
25	0x3f520833	0.8204376
26	0x3f47023a	0.7773777
27	0x3ed9b715	0.42522493
28	0xbeaabb81	-0.3334618
29	0xbee40978	-0.44538474
30	0xbe03c7ee	-0.12869236
31	0xbecdb537	-0.40177318
32	0xbef9d97a	-0.48798734
33	0x3bc989ca	0.006150459
34	0xbd9514e5	-0.07279376
35	0xbb8a8746	-0.0042275516
36	0xbea1c2e3	-0.31594
37	0xbd6e56e9	-0.058188353
38	0xbeee500d	-0.4654545
39	0xbebdfcd4	-0.37106955
40	0xbd857e26	-0.065182015
41	0x3da5aa5b	0.08089133
42	0x3df7f538	0.12107319
43	0x3e346328	0.1761595
44	0xbe8f9e97	-0.28050682
45	0xbeab3418	-0.33438182
46	0xbed2acdc	-0.41147506
47	0xbe7dab47	-0.24772368
48	0xbe80d763	-0.25164327
49	0x3f1c6849	0.61096627
50	0x3f075935	0.52870494
51	0x3f188a55	0.5958608
52	0xbe4c8db6	-0.19975933
53	0xbf1438f5	-0.5789941
54	0xbeb0dd97	-0.3454406
55	0xbd9f0dff	-0.077663414
56	0xbe1d665c	-0.15371078
57	0x3e4b3df2	0.19847849
58	0x3e61fcb9	0.22069062
59	0x3dc6cbda	0.0970685
60	0x3f06de0d	0.5268257
61	0xbe467638	-0.19381034
62	0x3e501f71	0.20324494
63	0x3e44115c	0.19147247
64	0xbe844d4e	-0.2584023
65	0x3ec2f812	0.38079888
66	0x3ec5b178	0.3861196
67	0x3e95ecc7	0.2928221
68	0xbe99295f	-0.29914376
69	0xbea858ff	-0.328804
70	0xbe75c15e	-0.23999545
71	0xbe8ab864	-0.27093804
72	0xbdbe005f	-0.092774145
73	0xbd86a9de	-0.06575368
74	0xbd0db4b9	-0.03459618
75	0xbd98f8ba	-0.07469316
76	0xbe0ea80e	-0.13931295
77	0x3c57c8f8	0.013170473
78	0x3bd94cec	0.0066314843
79	0xbd13fb13	-0.036128115
80	0x3cd42f34	0.025901414
81	0x3e33d894	0.17563087
82	0x3e30fa40	0.17282963
83	0x3e471b34	0.19443971
84	0x3daee9ce	0.085406885
85	0xbe057781	-0.13033868
86	0x3c490a5f	0.012270539
87	0x3d522583	0.051305305
88	0xbe6f3435	-0.23359759
89	0x3c0c8114	0.0085756965
90	0x3cbede35	0.023299316
91	0x3e972f01	0.2952805
92	0x3e425383	0.1897717
93	0xbe1dbdfc	-0.15404505
94	0x3aea8325	0.0017891867
95	0x3c8f88a8	0.017521217
96	0xbdc31779	-0.095259614
97	0x3e834308	0.25637078
98	0x3e839ae0	0.25704098
99	0x3df4d0b2	0.11953868
100	0x3d6ed4eb	0.058308523
101	0xbe2a0f24	-0.16607338
102	0x3cfd4792	0.030917916
103	0x3d3d6cde	0.046246402
104	0xbeea34f8	-0.45743537
105	0x3ddd9505	0.10819439
106	0x3c1f40ab	0.009720008
107	0x3e57aa91	0.2106116
108	0xbefd1f1a	-0.4943779
109	0xbe16d3a4	-0.14729172
110	0xbeb82c3b	-0.35971245
111	0xbec9c4f0	-0.39408064
112	0xbde4ee0a	-0.11178215
113	0x3e81e5c1	0.253706
114	0x3e81f7fa	0.25384504
115	0x3e724e3e	0.2366266
116	0xbec3ef84	-0.38268673
117	0xbea5db7d	-0.3239402
118	0x3e42246a	0.18959203
119	0x3e3a2397	0.18177639
120	0xbe388d8e	-0.18022749
121	0x3ad409dc	0.0016177255
122	0xbb6127e8	-0.0034356061
123	0x3e915f69	0.28393105
124	0xbf403fec	-0.7509754
125	0xbef2cdc0	-0.474226
126	0xbf2225ab	-0.63338727
127	0xbf13f561	-0.57796293
128	0x3d85f0a3	0.065400384
129	0xbd33718e	-0.043809466
130	0x3cb784f4	0.022402264
131	0x3df7543d	0.12076614
132	0xbecc8d10	-0.39951372
133	0xbe36a05e	-0.17834613
134	0xbe6c20b7	-0.23059355
135	0xbe876975	-0.26447645
136	0x3e831fad	0.25610104
137	0xbdcb182c	-0.0991672
138	0xbc8a3fb8	-0.016876087
139	0xbe54fcab	-0.2079951
140	0x3e441b13	0.19150953
141	0x3d2b5bd7	0.041835632
142	0x3f2befe2	0.6716291
143	0x3ea986ea	0.33110744
144	0xbe89f868	-0.2694733
145	0x3d0c568e	0.034262232
146	0x3cafbb14	0.02145151
147	0xbe8ec4ae	-0.2788443
148	0xbebdba4e	-0.37056202
149	0x3e629d19	0.2213024
150	0xbe0d823a	-0.13819209
151	0xbeaa1b61	-0.33224013
152	0x3cbf0f85	0.02332283
153	0x3e9ffda1	0.3124819
154	0x3e8c8568	0.2744553
155	0x3e749ad6	0.2388719
156	0xbeb674bd	-0.3563594
157	0xbea1a626	-0.31572074
158	0xbe478783	-0.19485287
159	0xbe029536	-0.12752232
160	0xbf1ec643	-0.62021273
161	0x3d2be661	0.041967753
162	0xbc4f7b94	-0.012663741
163	0x3e2cf4d2	0.16890267
164	0xbe3548a3	-0.1770349
165	0xbd4ee069	-0.050506983
166	0xbe804d42	-0.25058943
167	0xbeb05f64	-0.34447777
168	0x3e4d31ea	0.20038572
169	0x3d45f57a	0.048329808
170	0x3ca79c28	0.020460203
171	0x3d2a9fb4	0.04165621
172	0x3e8f6b7a	0.28011686
173	0x3c84d51c	0.0162149
174	0xbdbc8091	-0.092042096
175	0x3e06c2c1	0.1316023
176	0xbd41df9d	-0.047332395
177	0xbe0e4366	-0.13892898
178	0xbe1109a9	-0.14163841
179	0x3d7da619	0.06192598
180	0xbe79bd35	-0.24388583
181	0x3c7cedac	0.015437525
182	0xbe41e991	-0.18936755
183	0xbe4d73f8	-0.2006377
184	0xbeab3563	-0.33439168
185	0x3d9771f4	0.07394782
186	0x3d893296	0.066991016
187	0x3d6fa3eb	0.058505934
188	0x3d2ef44c	0.04271345
189	0xbd81faf6	-0.06346695
190	0xbe4f5502	-0.20247272
191	0xbe8201d1	-0.2539201
192	0xbeb604e8	-0.35550618
193	0x3db6676b	0.08906444
194	0x3ddc9210	0.10770047
195	0x3e609a51	0.21933867
196	0xbedebbde	-0.43502706
197	0xbe6034ec	-0.21895188
198	0xbedf0b50	-0.43563318
199	0xbf1d5736	-0.614612
200	0x3ec9aeec	0.39391267
201	0xbd6b1f02	-0.05740262
202	0xbdbb73ee	-0.09152971
203	0xbd06e3ba	-0.03293202
204	0x3ea3f1b5	0.32020345
205	0x3dab1a81	0.083546646
206	0xbd921b3c	-0.07134101
207	0x3e49d21f	0.19709061
208	0x3d2f5b59	0.042811725
209	0x3e655dd4	0.22399074
210	0x3e426f8c	0.18987864
211	0x3e8a2492	0.26981026
212	0xbecda9dc	-0.40168655
213	0xbea5400b	-0.32275423
214	0xbe2ba6fb	-0.16762917
215	0xbd1b2976	-0.037881337
216	0xbd7574b4	-0.05992575
217	0xbcaea418	-0.02131848
218	0x3b9b6036	0.004741694
219	0x3e9f6ce4	0.31137764
220	0xbec03c19	-0.3754585
221	0xbe93afe9	-0.28845146
222	0xbe9c00bd	-0.30469313
223	0xbe8f6d62	-0.2801314
224	0xbe710c45	-0.23539837
225	0x3f1b5988	0.6068349
226	0x3f1acb47	0.60466427
227	0x3e027011	0.12738062
228	0x3e8d34a1	0.27579215
229	0xbdffa762	-0.124830976
230	0x3d5fae06	0.05460932
231	0xbe4b64aa	-0.19862619
232	0xbe617364	-0.22016674
233	0x3e830260	0.2558775
234	0x3e8c1dea	0.27366573
235	0x3e5fc341	0.21851827
236	0xbea2e541	-0.31815532
237	0xbe85d2ad	-0.26137295
238	0xbe833831	-0.25628808
239	0xbe9049b2	-0.28181225
240	0x3dc0afb6	0.09408514
241	0x3e87be33	0.26512298
242	0x3e734f87	0.23760806
243	0x3ed92c1d	0.42416468
244	0xbe574bf2	-0.21025065
245	0xbf131df4	-0.5746758
246	0xbf0b832f	-0.54497045
247	0x3d84af7d	0.06478784
248	0x3dbea470	0.09308708
249	0x3d6ebf10	0.05828768
250	0x3d8cbcc5	0.068719424
251	0x3e16b48a	0.14717308
252	0xbf10a107	-0.5649571
253	0xbe828073	-0.25488624
254	0xbe524dff	-0.20537566
255	0xbe26874f	-0.16262554

embedding_item_mlp.weight f4 [3706, 8]
0	0xbf83f428	-1.0308886
1	0xbf71d418	-0.94464254
2	0xbf1727c3	-0.59045047
3	0x3f612f44	0.87962747
4	0x3f9dd459	1.2330428
5	0x3f718893	0.9434902
6	0xbf637f32	-0.8886596
7	0x3e96f3c0	0.29482841
8	0xbf21f94a	-0.6327101
9	0xbe7a2ae8	-0.2443043
10	0xbd5a5355	-0.053302128
11	0x3d936467	0.071968846
12	0x3e516155	0.20447285
13	0xbd820f3e	-0.063505635
14	0xbe10ef62	-0.14153817
15	0x3eba5495	0.36392656
16	0xbe17013d	-0.14746566
17	0xbd95578b	-0.07292088
18	0xbec39a55	-0.38203683
19	0x3e8da3b4	0.27663958
20	0x3e284f1a	0.16436425
21	0x3e84e94c	0.2595924
22	0xbe8fd74e	-0.28093952
23	0x3e1b7f46	0.1518527
24	0xbf078edd	-0.5295237
25	0xbf10f8d1	-0.56629664
26	0xbf5530fb	-0.83277863
27	0x3f585eaa	0.84519446
28	0x3ebfcb39	0.37459734
29	0x3f6b63fa	0.9194943
30	0xbf3fcaad	-0.74918634
31	0x3f1abb18	0.6044173
32	0xbeeb3dae	-0.45945495
33	0xbf83de93	-1.0302299
34	0xbf3d9d2c	-0.7406795
35	0x3ef92938	0.4866426
36	0x3eff39bb	0.49848732
37	0x3f365712	0.7122661
38	0xbefb2d48	-0.49057984
39	0x3f314599	0.6924682
40	0xbf293ba1	-0.6610661
41	0xbf3c940b	-0.73663396
42	0xbefd13bd	-0.49429122
43	0x3eb5aea8	0.35484815
44	0x3f295672	0.6614753
45	0x3f1792a0	0.59208107
46	0xbedb0115	-0.42774263
47	0x3ed754fd	0.42057028
48	0xbd301402	-0.04298783
49	0xbdc5722f	-0.096409194
50	0xbd41dff5	-0.047332723
51	0xbce5acdd	-0.02803653
52	0x3d8a866f	0.067639224
53	0x3d4097b6	0.047019683
54	0x3c32b2f4	0.010906924
55	0x3daeb7a8	0.085311234
56	0xbe823162	-0.254283
57	0xbf305ed0	-0.6889467
58	0x3c906186	0.017624628
59	0x3da92b26	0.08260183
60	0x3ed0fd69	0.40818337
61	0x3ea3ad44	0.3196813
62	0xbdaca153	-0.08429208
63	0x3e2a9964	0.16660076
64	0x3c319d71	0.01084076
65	0xbd7ffb14	-0.062495306
66	0xbe306d49	-0.17229189
67	0xbd082a16	-0.03324326
68	0xbd1fc229	-0.039003525
69	0xbda58c99	-0.080834575
70	0x3c0f33b0	0.008740351
71	0x3d24cad9	0.040232513
72	0xbe96f96f	-0.29487178
73	0xbe1ce60b	-0.1532213
74	0xbe1fa54c	-0.155904
75	0x3ec50754	0.38482153
76	0x3eb122ac	0.34596765
77	0x3ec6bd58	0.38816333
78	0xbec32dff	-0.3812103
79	0x3deb5a7f	0.1149187
80	0xbe37efdd	-0.17962594
81	0xbe3a8845	-0.18216045
82	0xbe91c8b6	-0.28473443
83	0x3da4d358	0.08048123
84	0x3d657935	0.056023795
85	0x3c777772	0.015104162
86	0xbdd6ebb8	-0.104941785
87	0x3e29cac8	0.16581261
88	0x3d4169a1	0.047219876
89	0x3e615ef0	0.22008872
90	0xbdd9de63	-0.1063812
91	0xbc7f5a23	-0.015585455
92	0xbe104dfe	-0.14092252
93	0xbde1f3fc	-0.110328645
94	0x3d08c9e8	0.033395678
95	0x3e15b3f7	0.14619432
96	0x3d1bc591	0.03803021
97	0xbdb1353b	-0.08652731
98	0xbe63815e	-0.22217318
99	0xbe02641d	-0.12733503
100	0xbe19ac3d	-0.1500711
101	0xbe067c1d	-0.13133283
102	0x3db7928b	0.08963498
103	0x3d398509	0.045292888
104	0x3e1b6f5e	0.15179202
105	0xbe152b8a	-0.1456739
106	0xbe22468a	-0.15847221
107	0xbda9f383	-0.08298399
108	0xbd8957d1	-0.06706203
109	0x3d0704fd	0.03296374
110	0x3dc61a31	0.09672964
111	0x3dde3d7f	0.10851573
112	0xbf0fb6bc	-0.56138206
113	0xbdc4404f	-0.095825784
114	0xbeaf6d61	-0.34263137
115	0x3ec63d5d	0.3871869
116	0x3e3619a2	0.17783216
117	0x3e250115	0.16113694
118	0xbee95773	-0.4557453
119	0x3ead56d1	0.33855298
120	0xbf1e615f	-0.61867326
121	0xbe53db7a	-0.20689192
122	0xbec688e3	-0.3877631
123	0x3e9a44b7	0.3013055
124	0x3e7f221f	0.2491536
125	0x3e135ed8	0.14391649
126	0xbed93ba1	-0.42428306
127	0x3e726858	0.23672616
128	0x3dee9808	0.116500914
129	0xbf0a3ce3	-0.53999156
130	0x3c7a8e1d	0.0152926715
131	0xbdb8efa3	-0.09030082
132	0x3e5751a5	0.21027239
133	0x3e4e4bfd	0.20146175
134	0x3e24c328	0.16090071
135	0x3e8af51e	0.27140135
136	0xbd2beb6f	-0.041972574
137	0x3d38c261	0.04510725
138	0xbe0cbd05	-0.1374398
139	0xbdfb562b	-0.122722946
140	0x3cec02c5	0.028809914
141	0xbdf9a49d	-0.121896006
142	0x3dc74740	0.09730387
143	0x3d336e46	0.043806337
144	0xbe89c975	-0.26911512
145	0x3ca4d969	0.0201232
146	0xbc96233c	-0.018327348
147	0xbd9005ac	-0.07032332
148	0x3e7481b7	0.23877607
149	0xbbb4e8a6	-0.005520898
150	0x3d438159	0.047730777
151	0xbd4f9488	-0.05067876
152	0xbb92e1bf	-0.0044824774
153	0xbe15faa9	-0.146464
154	0xbe452137	-0.19250952
155	0x3e21d8f6	0.1580542
156	0x3d1423c8	0.036166936
157	0x3e36bac1	0.17844678
158	0xbe2b71a7	-0.16742574
159	0x3deabb30	0.114614844
160	0xbe7db745	-0.24776943
161	0xbdb17d0b	-0.08666428
162	0xbdf382b7	-0.11890166
163	0x3e88672a	0.26641208
164	0x3ea2cb6f	0.31795833
165	0x3eb078f4	0.3446728
166	0xbe8b59b9	-0.2721689
167	0x3daec650	0.08533919
168	0x3e681203	0.22663121
169	0xbf0dd82b	-0.5540797
170	0x3d0c3b14	0.03423603
171	0xbda5c96a	-0.08095057
172	0x3e6a1654	0.2286008
173	0x3e98caf3	0.29842338
174	0x3e23d5c2	0.15999511
175	0x3ec357bd	0.38152876
176	0xbf01085e	-0.5040339
177	0xbf0f966f	-0.5608892
178	0xbf0bf373	-0.5466835
179	0x3f0a0bc4	0.539242
180	0x3f1b49ad	0.60659295
181	0x3f1c082a	0.6094996
182	0xbf10b4d7	-0.5652594
183	0x3eb47ddc	0.35252273
184	0xbf58f3fd	-0.84747297
185	0xbf536d86	-0.82588995
186	0xbf08e45a	-0.53473437
187	0x3f53f7aa	0.8279978
188	0x3f8d0add	1.101894
189	0x3f77803e	0.9668006
190	0xbf54dceb	-0.83149594
191	0x3e2a29ca	0.16617504
192	0xbd121bdd	-0.035671104
193	0xbed4ea38	-0.41584945
194	0xbcb1f632	-0.02172384
195	0x3e04ef86	0.12981996
196	0x3e378c4d	0.17924614
197	0x3eaa4c33	0.3326126
198	0xbddb1a5e	-0.106983885
199	0x3d9ae0fc	0.075624436
200	0xbda213f1	-0.0791396
201	0xbdbd2e84	-0.09237388
202	0x3c96cb80	0.018407583
203	0xbe304439	-0.17213525
204	0x3dc0c811	0.0941316
205	0xbd171a1d	-0.036890138
206	0x3e385be3	0.18003802
207	0x3d6efcf7	0.058346715
208	0xbf21d9a3	-0.6322271
209	0xbf55a330	-0.8345213
210	0xbf0f5c62	-0.5600034
211	0x3ef8f155	0.48621622
212	0x3f4d9b39	0.80314976
213	0x3f27cd0d	0.6554726
214	0xbf0a1134	-0.539325
215	0x3ea5bc8a	0.32370406
216	0xbf475b50	-0.77873707
217	0xbf22ca45	-0.6358989
218	0xbecf1b01	-0.4045029
219	0x3f169caf	0.5883283
220	0x3f5cc8f9	0.8624416
221	0x3f4cd68c	0.8001487
222	0xbf22b11c	-0.635515
223	0x3dee112b	0.11624368
224	0x3e537a3b	0.20652096
225	0xbddc8bc3	-0.10768845
226	0x3e02449b	0.12721483
227	0xbeb42234	-0.35182345
228	0xbe053844	-0.13009745
229	0xbe197879	-0.14987363
230	0x3ed5bba3	0.41744718
231	0xbd9389e4	-0.07204035
232	0x3d3643fa	0.04449842
233	0xbf57e870	-0.84339046
234	0x3cf0e731	0.029407116
235	0x3d9792f1	0.07401074
236	0x3f09abc4	0.5377772
237	0x3f1d49d7	0.61440796
238	0xba65bb67	-0.0008763582
239	0x3ec1a2fc	0.3781966
240	0xbd257a4a	-0.040399827
241	0xbe7d083b	-0.24710171
242	0xbe890f62	-0.2676955
243	0x3c166f5b	0.009181823
244	0x3e126996	0.1429809
245	0x3d498746	0.049201272
246	0xbd1758a6	-0.036949776
247	0x3dc65f01	0.09686089
248	0xbd9868bc	-0.074418515
249	0xbee1950d	-0.4405903
250	0xbd9ed53d	-0.07755516
251	0x3ec28fd4	0.38000357
252	0x3ebc7235	0.36805883
253	0x3f30460f	0.688569
254	0xbe8c21ba	-0.2736948
255	0x3def7420	0.11692071

embedding_user_mf.weight f4 [6040, 8]
0	0x3d76e8ce	0.060280614
1	0x3dc33f96	0.095336124
2	0xbe7236d9	-0.23653735
3	0x3ef61c94	0.48068678
4	0x3c620776	0.013795724
5	0xbee186df	-0.4404821
6	0xbd8e5569	-0.069498844
7	0xbf566a3e	-0.8375586
8	0xbdbe9e8a	-0.09307583
9	0xbea05d55	-0.31321207
10	0xbd19ee08	-0.03758052
11	0x3f7120a1	0.9419041
12	0x3de6977a	0.112593606
13	0x3d7876f4	0.060660318
14	0x3ebde527	0.37088892
15	0x3e202d88	0.15642369
16	0x3ec22769	0.37920693
17	0xbecd65ba	-0.40116674
18	0xbdb74867	-0.089493565
19	0xbd0176f7	-0.031607594
20	0x3d5c7208	0.053819686
21	0x3f315bd4	0.69280744
22	0x3e81d287	0.25355932
23	0xbf11bd62	-0.569296
24	0x3c3e65d9	0.011620962
25	0xbe6d97c1	-0.23202421
26	0x3ebc05d7	0.36723205
27	0x3f1039f1	0.5633841
28	0xbe9caf8e	-0.30602688
29	0x3f33c5e3	0.70223826
30	0x3ec69dd0	0.38792276
31	0xbda87039	-0.0822453
32	0xbcd1b2e0	-0.02559799
33	0xbebf26d1	-0.37334302
34	0xbce8b73b	-0.028407684
35	0x3e82742b	0.25479254
36	0xbf4a7e9f	-0.7909946
37	0xbee7b235	-0.4525315
38	0xbed08f40	-0.4073429
39	0xbc94c847	-0.018161906
40	0x3e93e9e8	0.28889394
41	0x3e227aba	0.15867129
42	0xbed11e08	-0.40843225
43	0x3f021893	0.5081875
44	0x3f24007e	0.6406325
45	0xbd512df2	-0.051069207
46	0x3ed7f5ff	0.42179868
47	0xbe60b5aa	-0.219443
48	0x3f181865	0.59412223
49	0xbee0a39f	-0.43874833
50	0x3ec2f174	0.3807484
51	0x3efbe16a	0.49195415
52	0xbebab274	-0.36464274
53	0x3f0092d0	0.5022402
54	0x3e232fdf	0.1593623
55	0xbd56435b	-0.05231033
56	0x3eaf62d9	0.34255102
57	0xbf122859	-0.57092816
58	0x3e890681	0.26762775
59	0x3f392de8	0.7233567
60	0xbee0d49d	-0.4391221
61	0xbf29bf6e	-0.66307724
62	0xbd378338	-0.044802874
63	0xbe0d149e	-0.13777396
64	0x3e2594ef	0.16170095
65	0xbf50b9ba	-0.81533396
66	0x3e6c265d	0.2306151
67	0x3f065783	0.5247728
68	0xbd3ef6af	-0.046621975
69	0xbeb71217	-0.3575599
70	0xbeaf7fae	-0.342771
71	0xbefa947b	-0.48941407
72	0x3e53663c	0.20644468
73	0x3e641e20	0.22277117
74	0xbf113e8a	-0.5673605
75	0x3ebc8378	0.36819053
76	0x3dc3e82e	0.09565769
77	0x3e8cd13f	0.27503392
78	0x3c980676	0.018557768
79	0xbf0c7684	-0.5486834
80	0x3c14abf7	0.009074203
81	0xbf1abaaf	-0.60441107
82	0xbe981bba	-0.29708654
83	0xbe4015a1	-0.18758251
84	0xbe22a6a4	-0.15883881
85	0xbed15649	-0.40886143
86	0xbd0552ae	-0.032549553
87	0xbf1d1ede	-0.61375225
88	0xbe918507	-0.28421804
89	0xbeae18d0	-0.34003305
90	0x3ddbf587	0.1074019
91	0x3db63e19	0.08898563
92	0xbd840838	-0.0644688
93	0x3ef66e3c	0.48130977
94	0xbe72da41	-0.2371607
95	0xbf0d959c	-0.5530641
96	0x3ea7c73a	0.32769185
97	0x3d93e43b	0.07221266
98	0xbe84258d	-0.258099
99	0x3f76fb26	0.9647697
100	0xbdd26b88	-0.10274416
101	0x3eeb40da	0.45947915
102	0xbdb2c166	-0.08728294
103	0x3e0556e6	0.1302143
104	0xbe5af18d	-0.21381207
105	0xbe1b9f7d	-0.15197559
106	0x3db531db	0.088474
107	0xbe2a92cb	-0.1665756
108	0xbe762361	-0.24036933
109	0x3dd76027	0.105163865
110	0x3e89c198	0.26905513
111	0xbe9da6e4	-0.3079139
112	0x3f270f4e	0.6525773
113	0xbf3cca60	-0.737463
114	0x3e869893	0.2628828
115	0x3e668c2f	0.22514413
116	0x3d1ade99	0.037809942
117	0xbe7a6b03	-0.24454884
118	0x3ea2fd57	0.31833908
119	0xbed4fe0d	-0.41600075
120	0x3f231bff	0.63714594
121	0x3d288f9b	0.041152578
122	0xbea61dd1	-0.32444623
123	0xbd1062ee	-0.035250597
124	0x3ea20fe1	0.3165274
125	0xbd66b46b	-0.056324404
126	0x3e21e4a3	0.15809874
127	0xbd808c1e	-0.06276725
128	0x3d32463a	0.043524005
129	0x3b573e58	0.0032843556
130	0x3e06bdb3	0.13158302
131	0x3e946fca	0.28991538
132	0xbf185799	-0.59508663
133	0x3e9dd458	0.30826068
134	0xbe272bf4	-0.1632536
135	0x3ec58d9e	0.38584608
136	0x3ef36a69	0.47542122
137	0x3d52ce3d	0.051466215
138	0xbe6a8171	-0.2290094
139	0x3f55c5b3	0.8350479
140	0xbea52217	-0.3225257
141	0x3e131e03	0.14366917
142	0xbde08cfe	-0.10964392
143	0xbeb6a4b3	-0.3567253
144	0x3eeab931	0.45844415
145	0x3d10f36a	0.035388388
146	0x3e615918	0.22006643
147	0xbc0a82c7	-0.008454031
148	0xbe322c4e	-0.17399713
149	0x3f048f8f	0.51781553
150	0x3e0dda90	0.13852906
151	0xbf1c90f1	-0.61158663
152	0x3eb31bbe	0.34982103
153	0xbf0f84fc	-0.56062293
154	0x3d9cbd05	0.0765324
155	0x3dc1b917	0.09459131
156	0xbecefa9d	-0.40425578
157	0x3ea3e60e	0.32011455
158	0xbddb6f76	-0.10714619
159	0xbe048ee9	-0.12945141
160	0x3f0afc73	0.54291457
161	0x3e561f3b	0.20910351
162	0xbd7095de	-0.058736674
163	0x3dd54afd	0.104146935
164	0xbe351da5	-0.1768709
165	0x3db8683e	0.090042576
166	0xbed682f1	-0.41896775
167	0xbf0f6f96	-0.5602964
168	0x3f008510	0.5020304
169	0xbef6e304	-0.48220074
170	0xbe66fcef	-0.22557424
171	0xbe06fdf4	-0.13182813
172	0xbf008e52	-0.50217164
173	0x3e8eb5a9	0.2787297
174	0x3ccc0622	0.024905268
175	0xbee47fd1	-0.44628766
176	0xbcfd0127	-0.030884339
177	0xbe23dd78	-0.16002452
178	0xbe628898	-0.22122419
179	0x3dbcf8da	0.09227152
180	0xbf46f3a4	-0.77715516
181	0x3ed813fe	0.42202753
182	0xbd8930eb	-0.066987835
183	0x3e423036	0.18963704
184	0xbdc1ffe8	-0.09472638
185	0xbe616115	-0.2200969
186	0xbf1ee7f8	-0.62072706
187	0x3e6ec3cc	0.23316878
188	0xbe56830a	-0.20948425
189	0xbd7878dd	-0.06066214
190	0x3e93fec4	0.28905308
191	0xbe232f93	-0.15936117
192	0x3f104efe	0.5637053
193	0xbe89d024	-0.2691661
194	0xbe0540c6	-0.1301299
195	0x3de47e07	0.1115685
196	0xbe6e817d	-0.23291583
197	0x3ebcc9d9	0.36872748
198	0xbed21199	-0.4102905
199	0xbe0814d6	-0.13289198
200	0x3f00a787	0.50255626
201	0xbe8e7edf	-0.2783117
202	0xbf176769	-0.59142166
203	0x3d179a9e	0.03701269
204	0x3dda75ca	0.10666998
205	0xbe38933a	-0.18024912
206	0x3f32f3d1	0.69903284
207	0xbe70e27b	-0.23523895
208	0xbec4f803	-0.38470468
209	0x3d875411	0.06607831
210	0xbe523fa8	-0.20532095
211	0x3e6b38ca	0.22970882
212	0xbdfd9d17	-0.12383478
213	0x3ecbf31c	0.39833915
214	0xbde04fdd	-0.10952733
215	0xbed3e433	-0.4138504
216	0xbe39abed	-0.1813199
217	0x3df99c97	0.1218807
218	0xbe489208	-0.19586957
219	0x3e8ab1b1	0.27088693
220	0xbee3a070	-0.44458342
221	0xbe482ede	-0.19549128
222	0x3d2b8371	0.0418734
223	0xbead2f87	-0.33825323
224	0xbdd53c3f	-0.10411882
225	0xbdea7cde	-0.11449598
226	0x3ec6bc20	0.38815403
227	0x3f125a5b	0.5716912
228	0xbe96d6dc	-0.294608
229	0x3f5d4cfa	0.8644558
230	0x3f005548	0.5013013
231	0x3e887063	0.26648244
232	0xbe425998	-0.1897949
233	0xbe5984ad	-0.21242018
234	0x3e63e4fa	0.22255316
235	0x3e4f814a	0.20264164
236	0xbeaf3690	-0.34221315
237	0xbedcdd90	-0.4313779
238	0xbe6ff36f	-0.23432706
239	0xbeaf3911	-0.34223226
240	0xbe2cfa23	-0.16892295
241	0xbda0ea3e	-0.07857178
242	0xbf5f477d	-0.8721846
243	0xbeb95aeb	-0.36202177
244	0x3f0e4e7c	0.5558851
245	0x3f05c952	0.52260315
246	0x3dd77e39	0.10522122
247	0xbe261c5b	-0.16221754
248	0xbd8086bd	-0.06275699
249	0xbe6bf2d6	-0.23041853
250	0x3d885386	0.06656556
251	0x3ec03480	0.37540054
252	0xbec4e29a	-0.38454133
253	0xbe842aee	-0.25814003
254	0x3d420d06	0.0473757
255	0xbdde0bc4	-0.10842088

embedding_item_mf.weight f4 [3706, 8]
0	0x3ed32c20	0.41244602
1	0x3d01bcc9	0.03167418
2	0xbdccf52c	-0.100077
3	0x3e546561	0.20741798
4	0x3e2cd584	0.16878325
5	0x3db348ed	0.08754144
6	0x3e93bafb	0.28853592
7	0x3ec22bba	0.37923986
8	0xbe14ce12	-0.14531735
9	0xbedf2f7d	-0.43590918
10	0x3d8cb15f	0.06869768
11	0x3d7a39a3	0.061090123
12	0x3e459432	0.19294813
13	0xbde37bc0	-0.11107588
14	0xbf208c42	-0.62714016
15	0x3ecc5a9a	0.39912874
16	0x3e065cf4	0.13121396
17	0xbf54b5ee	-0.830901
18	0x3e98a0c7	0.29810163
19	0x3f0513f8	0.51983595
20	0xbeac75a8	-0.33683515
21	0xbe80f322	-0.25185496
22	0x3e1afeea	0.15136304
23	0x3e8105d5	0.25199762
24	0x3bd05039	0.0063572195
25	0x3e93f06c	0.28894365
26	0xbe7fdef7	-0.24987398
27	0x3c5679c6	0.0130905565
28	0xbe924a80	-0.28572464
29	0xbe95d5a7	-0.29264566
30	0x3de99b42	0.11406566
31	0x3e6d1fb5	0.23156627
32	0xbe906517	-0.28202125
33	0x3e3c49cd	0.18387528
34	0x3e98b00d	0.29821816
35	0x3d84913e	0.06473015
36	0xbdbf5232	-0.093418494
37	0xbbd42be8	-0.0064749606
38	0xbe443c04	-0.19163519
39	0x3f0a749d	0.5408419
40	0xbd2d4506	-0.042302154
41	0x3e5b1cae	0.21397659
42	0x3f1d32c7	0.61405605
43	0x3e8ecb38	0.2788942
44	0x3ebb8d42	0.3663121
45	0x3ec45239	0.3834398
46	0x3e1ad795	0.151213
47	0x3ebd3f74	0.36962473
48	0x3e1bef38	0.15227973
49	0xbe7aaa86	-0.24479112
50	0xbe6f7adc	-0.23386711
51	0x3f3b4a68	0.7316041
52	0xbea3ebb4	-0.32015765
53	0x3f08475d	0.5323389
54	0x3e7d1367	0.24714433
55	0x3e82c838	0.2554338
56	0x3e6713ad	0.225661
57	0x3dfd3ff6	0.12365715
58	0x3ec6b73c	0.38811672
59	0xbda89934	-0.08232346
60	0x3eabadac	0.3353094
61	0x3e65be07	0.22435771
62	0x3ea681c2	0.32520872
63	0x3f51e540	0.8199043
64	0xbdf28f4a	-0.118437365
65	0xbf628d41	-0.88496786
66	0x3e875a16	0.26435918
67	0x3edf020f	0.43556258
68	0x3d1daf01	0.038496975
69	0x3bc4a43a	0.0060010226
70	0xbe9f6852	-0.31134278
71	0x3f977104	1.1831365
72	0x3e27320e	0.16327688
73	0xbeac6cf5	-0.33676878
74	0x3e82124b	0.2540458
75	0x3f2be2cf	0.6714296
76	0x3e66a98d	0.22525616
77	0x3e678869	0.2261063
78	0x3e22eecc	0.15911406
79	0x3f80300b	1.0014662
80	0xbeb9a1b2	-0.36256176
81	0xbf0025cc	-0.50057673
82	0x3e9b3c66	0.30319518
83	0x3f2d423a	0.6767918
84	0x3e1de3d0	0.15418935
85	0xbe66519b	-0.22492068
86	0xbea02b73	-0.3128315
87	0x3f86e86a	1.0539677
88	0x3eabb1c0	0.3353405
89	0xbf8d8246	-1.1055381
90	0x3e2034e2	0.15645173
91	0x3e8fbdc1	0.28074458
92	0xbf29be29	-0.66305786
93	0xbeaba7ea	-0.33526546
94	0xbe4d0415	-0.20021088
95	0x3d4f0795	0.05054434
96	0x3e8eccb6	0.27890557
97	0xbf2608f4	-0.6485741
98	0xbdf253ed	-0.11832414
99	0x3eeb87f7	0.4600217
100	0xbebecfc0	-0.37267876
101	0xbe5a3817	-0.21310459
102	0x3e84c469	0.259311
103	0x3f38673e	0.72032535
104	0x3e444536	0.19167027
105	0x3ee14bcb	0.44003138
106	0x3f8114a9	1.008443
107	0xbdf7d6b0	-0.12101495
108	0x3ec41ea4	0.38304627
109	0x3e82408d	0.25439873
110	0x3f071037	0.52759117
111	0x3f7b9d51	0.9828692
112	0x3d7eb040	0.062179804
113	0xbee8a05c	-0.45434844
114	0x3e43ea65	0.19132383
115	0x3e004a4a	0.12528339
116	0xbe4d5720	-0.20052767
117	0xbdf8a348	-0.121405184
118	0x3dd2a9bb	0.1028628
119	0x3f0786a3	0.52939814
120	0x3e5b2617	0.21401249
121	0x3e86f51b	0.26358876
122	0x3f1ad55b	0.60481805
123	0xbe9d42df	-0.3071508
124	0x3e6a7759	0.2289709
125	0x3ec4d878	0.38446403
126	0x3ec35a91	0.38155034
127	0x3f2e702b	0.68139905
128	0xbea55a85	-0.32295623
129	0xbebd381d	-0.36956874
130	0xbda4d4d6	-0.08048408
131	0x3e95f227	0.2928631
132	0xbde034e4	-0.10947588
133	0xbe213003	-0.15740971
134	0xbed16eda	-0.40904886
135	0x3f0b2764	0.5435698
136	0xbde72808	-0.11286932
137	0xbf38c5a4	-0.72176576
138	0x3e024208	0.12720501
139	0x3ed35ff1	0.41284135
140	0x3c1207d9	0.008913004
141	0x3c2beaef	0.010493024
142	0xbe27ba59	-0.1637968
143	0x3f8d9650	1.1061497
144	0x3c9c094a	0.019047398
145	0x3dd1b3ef	0.10239398
146	0x3d6fb16f	0.058518823
147	0x3f006c4d	0.50165254
148	0x3e3542ab	0.17701213
149	0xbf2d79e9	-0.67764145
150	0x3ed28e21	0.4112406
151	0x3edaaa91	0.42708257
152	0xbd5f5f66	-0.05453434
153	0x3decefc7	0.115691714
154	0x3f497917	0.78700393
155	0x3dee7af4	0.11644545
156	0x3ed5c597	0.41752312
157	0x3e907aa4	0.28218567
158	0x3ee54bad	0.447843
159	0x3f2b237a	0.6685101
160	0xbc4b6300	-0.01241374
161	0x3ef74145	0.48291984
162	0x3f0302d8	0.51176214
163	0x3c5d77d8	0.0135173425
164	0xbd655c4b	-0.05599622
165	0xbe3e92c5	-0.18610676
166	0xbd82eba7	-0.06392603
167	0x3eec8a2c	0.46199167
168	0x3e7e3fa1	0.2482896
169	0xbddbb96a	-0.10728724
170	0x3dc5aafc	0.09651753
171	0x3e818e0d	0.2530369
172	0x3e646d13	0.22307234
173	0xbd1044ef	-0.03522199
174	0xbf4a7f14	-0.79100156
175	0x3ec1ffec	0.37890565
176	0xbd03b284	-0.032152668
177	0x3dd2a47f	0.102852814
178	0x3f48d897	0.7845549
179	0x3e50d938	0.20395362
180	0x3eed9be5	0.46408
181	0x3f0323cd	0.512265
182	0x3eb737c3	0.3578473
183	0x3ee5f206	0.44911212
184	0x3e1406d1	0.14455725
185	0x3e870ca7	0.2637684
186	0xbe37c22d	-0.17945166
187	0x3f1064b2	0.5640365
188	0x3e9e25ac	0.30888116
189	0xbe186a17	-0.1488422
190	0x3e6d2341	0.2315798
191	0x3f0a6cda	0.54072344
192	0xbe8e44b4	-0.2778679
193	0x3d8e631e	0.06952499
194	0xbd1da5e5	-0.038488287
195	0xbdc05e4c	-0.09392986
196	0xbecad2e7	-0.3961403
197	0xbed0d2a5	-0.4078571
198	0x3e938da2	0.28818995
199	0xbe8f7120	-0.28015995
200	0xbf1a43ef	-0.6025991
201	0xbf35eed0	-0.71067524
202	0x3df7021e	0.12060951
203	0x3eb468ec	0.352363
204	0xbe9a1081	-0.30090716
205	0xbedf5e17	-0.43626472
206	0xbeca511d	-0.3951501
207	0x3ef268dd	0.4734563
208	0xbe203a50	-0.15647244
209	0xbe813a0b	-0.25239596
210	0x3f05933f	0.52177805
211	0x3f050d5f	0.5197353
212	0x3f01a89a	0.5064789
213	0x3e5cd806	0.21566781
214	0x3e27d531	0.1638992
215	0x3efc9fea	0.49340755
216	0xbe793f9e	-0.24340674
217	0x3df6c54c	0.1204935
218	0x3dbb9bd8	0.09160584
219	0x3eb6362d	0.35588208
220	0xbcad0554	-0.021120705
221	0xbeb7f622	-0.35929972
222	0x3ea2a2cd	0.31764832
223	0x3e7df48f	0.24800323
224	0x3efc2708	0.49248528
225	0xbe676fcd	-0.22601242
226	0xbf042c30	-0.51629925
227	0x3ddd8c8f	0.10817825
228	0xbe106c1e	-0.14103743
229	0xbf62379b	-0.883661
230	0xbeeef55a	-0.46671563
231	0xbe73a221	-0.23792316
232	0x3e908449	0.28225926
233	0xbbc59cfe	-0.006030678
234	0x3eb56db7	0.35435268
235	0x3e53c1a7	0.20679341
236	0x3e81f65e	0.25383276
237	0xbb98a515	-0.004658351
238	0xbf529af8	-0.82267714
239	0x3e54752a	0.2074782
240	0xbec21e09	-0.3791354
241	0xbe4e3ca3	-0.20140319
242	0x3e17d09b	0.1482567
243	0x3e97d248	0.2965262
244	0x3b846add	0.0040410594
245	0xbddcec36	-0.10787241
246	0xbeafd476	-0.34341782
247	0x3f0716d6	0.5276922
248	0xbd44d20e	-0.048051886
249	0x3e41f422	0.18940786
250	0xbe6d05a8	-0.23146689
251	0xbec678e3	-0.38764104
252	0xbd13536c	-0.03596823
253	0xbf00ed6c	-0.5036228
254	0x3da0d7ce	0.078536615
255	0x3d5d4c9a	0.05402813

fc_layers.0.weight f4 [64, 16]
0	0xbee2236f	-0.4416766
1	0xbe8a1290	-0.26967287
2	0xbe787f82	-0.2426739
3	0x3ed0c7da	0.40777475
4	0x3d45ab22	0.048258908
5	0xbe9eeb53	-0.31038913
6	0xbef6e2a5	-0.4821979
7	0xbe707266	-0.2348114
8	0xbdace981	-0.08442975
9	0xbc895a43	-0.016766673
10	0x3e27ef73	0.16399936
11	0xbe9244be	-0.2856807
12	0xbedd0cd7	-0.4317386
13	0xbee13edd	-0.43993273
14	0x3e668e9c	0.22515339
15	0x3e1ea2d3	0.154918
16	0xbf35a0cf	-0.709485
17	0x3e2fb708	0.17159665
18	0x3d3bdace	0.045862965
19	0xbeabccea	-0.33554775
20	0xbeb978a9	-0.3622487
21	0x3e40dc87	0.18834125
22	0xbd923b14	-0.071401745
23	0xbe734ff9	-0.23760976
24	0xbf069464	-0.52570176
25	0x3dda369e	0.10654949
26	0x3ec79512	0.3898092
27	0xbe176488	-0.14784443
28	0x3eb96b1e	0.36214536
29	0xbd90c12a	-0.07068093
30	0x3d1250fa	0.035721757
31	0xbf3d3d42	-0.73921597
32	0x3ec2820f	0.37989852
33	0x3e5b147b	0.21394531
34	0x3ddcb9e6	0.10777645
35	0x3e9245b7	0.28568813
36	0x3ee6d0fa	0.4508131
37	0xbe181803	-0.1485291
38	0x3e2931d9	0.16522922
39	0x3efde858	0.49591327
40	0x3eb55196	0.35413808
41	0xbe3c89c1	-0.18411924
42	0xbcd47cf7	-0.025938494
43	0xbe371891	-0.17880465
44	0x3e07c520	0.13258791
45	0x3e8b413b	0.27198204
46	0x3e857786	0.26067752
47	0x3dd084f0	0.10181606
48	0x3f0564e6	0.52107084
49	0x3db976c0	0.09055853
50	0x3d3d868e	0.0462709
51	0x3e6dd322	0.23225072
52	0xbf8af7b1	-1.085684
53	0xbe4937ec	-0.19650239
54	0xbe424bc6	-0.18974218
55	0x3d06485f	0.032783862
56	0x3e98f978	0.2987783
57	0x3d7d19e6	0.061792277
58	0x3edfa44e	0.43680042
59	0x3e3e7196	0.18598017
60	0xbe2e6a68	-0.17032778
61	0x3e561017	0.20904575
62	0xbe30bb85	-0.17259033
63	0xbf284bb7	-0.6574053
64	0x3e3c8c3b	0.18412869
65	0x3e85a42e	0.26101822
66	0x3e35eb3c	0.17765516
67	0x3e0e54fb	0.13899605
68	0x3ea9635e	0.33083624
69	0xbe17b9de	-0.14816996
70	0x3d0036cd	0.031302262
71	0x3e4f1d41	0.20226003
72	0x3ee87e26	0.45408744
73	0xbe08bf07	-0.13354121
74	0xbb98d418	-0.0046639554
75	0xbe1d430f	-0.15357612
76	0x3db7b3bc	0.089698285
77	0x3e3c1663	0.18367915
78	0x3e8e0f76	0.2774617
79	0x3de0063b	0.10938688
80	0x3ea2585b	0.31708035
81	0x3dce242a	0.100654915
82	0x3e0118d0	0.12607121
83	0x3ee367ab	0.4441503
84	0xbf56cf35	-0.8390992
85	0xbdfaaac0	-0.12239599
86	0xbca299d5	-0.019848743
87	0xbe7e4b1f	-0.24833344
88	0x3e478608	0.19484723
89	0xbe14bb1c	-0.14524502
90	0x3d74b73f	0.05974507
91	0x3d5a500f	0.053299006
92	0xbe956f22	-0.2918635
93	0xbde6519d	-0.11246035
94	0xbe5c41d5	-0.21509488
95	0xbf270d4d	-0.6525467
96	0x3e265365	0.1624275
97	0xbe1ee3a3	-0.15516524
98	0xbe4a5e92	-0.19762638
99	0x3e907b25	0.28218952
100	0x3d347e64	0.044065848
101	0xbdff26c7	-0.12458568
102	0xbd857fa3	-0.065184854
103	0xbda783ff	-0.08179473
104	0xbea59430	-0.3233962
105	0x3dc3ba95	0.09557072
106	0x3dc5770a	0.096418455
107	0x3c7bfa67	0.015379525
108	0xbdf0d13d	-0.11758659
109	0xbde82988	-0.113360465
110	0xbd98ecfc	-0.07467076
111	0x3df46c71	0.11934746
112	0xa1c42a21	-1.3292628e-18
113	0x218edf0c	9.681334e-19
114	0x212510c1	5.592635e-19
115	0x210ae432	4.7058233e-19
116	0x24d1232f	9.0698905e-17
117	0x205961d1	1.841298e-19
118	0x23661564	1.2472855e-17
119	0x223b22ee	2.5361717e-18
120	0xab0bf5e3	-4.9723957e-13
121	0xa8595f41	-1.2066575e-14
122	0x2b562459	7.6078515e-13
123	0x2b3962cd	6.5862317e-13
124	0xa9d3490e	-9.382955e-14
125	0x2ae00f03	3.980081e-13
126	0xab0054d6	-4.559247e-13
127	0xa98660cf	-5.967589e-14
128	0x21d12e7f	1.4174698e-18
129	0xa316f4eb	-8.18338e-18
130	0xa314969f	-8.054991e-18
131	0x1fcfeba3	8.805774e-20
132	0xa2a1d4c7	-4.3864424e-18
133	0x224c84dd	2.7717493e-18
134	0xa25ca0b4	-2.9900635e-18
135	0xa1bec227	-1.2926292e-18
136	0x215c50b2	7.46457e-19
137	0xa232ada0	-2.4215415e-18
138	0xa2a80e3c	-4.5551562e-18
139	0x21e39684	1.5421959e-18
140	0xa2d28f5d	-5.7072406e-18
141	0x219507ec	1.009873e-18
142	0xa1b39277	-1.2168281e-18
143	0x2306aa87	7.300265e-18
144	0xbf0f6261	-0.5600949
145	0x3e780857	0.24221931
146	0x3e643bba	0.22288409
147	0xbe50a27c	-0.20374483
148	0xbf1b954b	-0.6077468
149	0x3e2534d4	0.16133434
150	0xbe58ff61	-0.2119117
151	0xbf076a3a	-0.52896464
152	0xbe4e2818	-0.20132482
153	0x3ec1071c	0.37700737
154	0x3e90a5cb	0.2825149
155	0xbcb504cd	-0.022097016
156	0xbd64c9c7	-0.055856492
157	0xbde9795e	-0.11400102
158	0xbe17b4d7	-0.14815079
159	0xbf578835	-0.8419221
160	0x3f2c387e	0.672737
161	0x3df26c90	0.11837113
162	0x3d841495	0.06449238
163	0xbd91b875	-0.071152605
164	0xbf704af8	-0.93864393
165	0xbead8857	-0.33893082
166	0xbee8893a	-0.45417196
167	0x3dd0cc1b	0.1019518
168	0x3ea4d09f	0.32190415
169	0x3e6b6e70	0.22991347
170	0x3ee89cff	0.4543228
171	0x3eac1503	0.3360978
172	0xbc0c67d4	-0.008569676
173	0x3eabdf71	0.3356891
174	0xbe5145bb	-0.20436756
175	0xbf1f9d73	-0.62349623
176	0xbd1a0c30	-0.03760928
177	0x3e9e65b8	0.3093698
178	0x3ece512c	0.40296304
179	0x3e60774b	0.21920507
180	0x3e76f8d4	0.24118358
181	0xbe542e51	-0.20720793
182	0x3e29aa23	0.16568808
183	0xbd1aaf2b	-0.03776471
184	0x3e3e4372	0.18580416
185	0x3f075757	0.52867645
186	0xbdbf0e58	-0.09328908
187	0xbd07f10f	-0.033188876
188	0xbd0fa0c5	-0.03506543
189	0xbe741735	-0.23836978
190	0x3d3697fc	0.044578537
191	0x3e79d5b2	0.24397925
192	0xbec3fd59	-0.38279226
193	0x3d76f593	0.06029279
194	0x3e1e8320	0.15479708
195	0x3f3c42eb	0.7353961
196	0xbcc2d6cc	-0.023784064
197	0xbeb3e9c4	-0.35139287
198	0xbe452b35	-0.19254763
199	0xbe77eec0	-0.2421217
200	0xbe1decef	-0.15422414
201	0x3e951bb1	0.2912269
202	0xbd8bd51f	-0.06827759
203	0xbe59cf8a	-0.21270576
204	0xbec55773	-0.3854328
205	0xbf265339	-0.6497074
206	0x3de27503	0.110574745
207	0x3e6ada54	0.22934848
208	0x3ca77e34	0.02044592
209	0x3df4861c	0.11939642
210	0x3ebeeb8e	0.3728909
211	0xbe3cab37	-0.18424688
212	0x3cee5be4	0.029096551
213	0xbdf140b4	-0.11779919
214	0x3e974392	0.2954374
215	0x3dbed0ba	0.09317155
216	0x3e44a8f2	0.19205073
217	0x3ec6982d	0.38787976
218	0xbe3497d6	-0.17636046
219	0x3de9e5b1	0.11420763
220	0x3de40871	0.111344226
221	0x3d9fa794	0.07795635
222	0xbda324bd	-0.07965992
223	0x3dbdc4ab	0.09266027
224	0xbf3a46c1	-0.7276421
225	0x3e6295f0	0.22127509
226	0x3e239c13	0.15977506
227	0xbed5a3b7	-0.41726467
228	0xbf1480d6	-0.5800909
229	0x3e685408	0.22688305
230	0xbdf8f071	-0.121552356
231	0xbeb987f3	-0.36236534
232	0xbee55376	-0.44790238
233	0x3eb5c2c5	0.3550016
234	0x3eac0c9b	0.33603367
235	0xbd01d354	-0.03169568
236	0x3e6e5632	0.23275068
237	0xbd818c49	-0.063255854
238	0xbde0e457	-0.10981052
239	0xbf78feb7	-0.97263664
240	0xbe0415e0	-0.1289897
241	0x3db6deba	0.089292005
242	0x3db3dc8d	0.08782301
243	0x3ea2292b	0.31672034
244	0xbf29f576	-0.6639017
245	0x3d8e4b9d	0.06948016
246	0xbda94e5a	-0.082668975
247	0xbedb09e7	-0.42780992
248	0xbdea85fd	-0.114513375
249	0x3dd29baa	0.10283597
250	0x3e212e23	0.15740256
251	0xbddeec7f	-0.10884952
252	0xbd29ebfa	-0.04148481
253	0xbdfb1626	-0.12260084
254	0xbde79877	-0.11308377
255	0xbf59af35	-0.8503297

fc_layers.0.bias f4 [64]
0	0x3e504c1f	0.20341538
1	0x3da1474a	0.078749254
2	0x3e7d30ac	0.24725598
3	0xbef1622c	-0.47145212
4	0x3eac270c	0.3362354
5	0xbea0b23b	-0.3138598
6	0xbe0827bd	-0.13296409
7	0xb2b59f1e	-2.1143531e-08
8	0xa41a8f35	-3.3514728e-17
9	0xbd14d477	-0.036335435
10	0xbf023931	-0.5086852
11	0x3ea72b51	0.32650235
12	0x3d2fae90	0.042891085
13	0xbda30a8e	-0.079609975
14	0x3d748183	0.059693824
15	0xbe4ea272	-0.20179155
16	0xa27a9166	-3.3958291e-18
17	0x3e959f7f	0.29223248
18	0xbe1541d8	-0.14575899
19	0xbe53e694	-0.20693427
20	0xbcb6f358	-0.022332832
21	0xb9f6c59a	-0.00047068
22	0x3e5076c3	0.20357804
23	0x3ec1b42d	0.37832776
24	0xbdcb7ef9	-0.099363275
25	0x3ed88aa2	0.42293268
26	0x3e9d9634	0.30778658
27	0x3ed7b2e4	0.4212867
28	0xbdc05a9a	-0.09392281
29	0xbe1ab1cc	-0.15106887
30	0x3ed9ff70	0.42577696
31	0xbedc282c	-0.429994
32	0x8f578003	-1.06249726e-29
33	0x3ed9e4da	0.42557412
34	0xbce6fa2f	-0.028195469
35	0x3edbd2e4	0.42934334
36	0x3da4d89a	0.08049126
37	0xb73aa947	-1.1125877e-05
38	0xbdf9bd5d	-0.12194321
39	0xbe42d2d7	-0.19025742
40	0xa989c2bd	-6.117804e-14
41	0x3edf02fc	0.43556964
42	0xbe717c30	-0.2358253
43	0x3eda3b08	0.42623162
44	0x3ec0828a	0.37599593
45	0x3edbb779	0.42913416
46	0x849e0c5a	-3.7156965e-36
47	0xbd8f0787	-0.069838576
48	0xbe946678	-0.28984427
49	0xbd9f70e5	-0.07785205
50	0xbcf379b1	-0.029721113
51	0xbe89bc39	-0.26901415
52	0xbe9028b2	-0.28156048
53	0xbe5a2d5d	-0.21306367
54	0xae94ae5c	-6.761233e-11
55	0xbbb5e85b	-0.0055513806
56	0x3ebe7df9	0.37205485
57	0xbe9a17b0	-0.30096197
58	0xbe2bb0c6	-0.16766652
59	0xbe7a96d9	-0.24471606
60	0xbc77263e	-0.015084801
61	0x3edd280a	0.4319461
62	0xbdf9291f	-0.12166046
63	0x3e2a40f9	0.16626348

fc_layers.1.weight f4 [32, 64]
0	0x3e5d2e60	0.21599722
1	0x3e62a71e	0.22134063
2	0x3d9560bc	0.07293841
3	0x3f108a2b	0.5646083
4	0x3d38c490	0.04510933
5	0x3e1f9f26	0.15588054
6	0x3e12f4eb	0.14351241
7	0x26496c3d	6.9882574e-16
8	0x23e4d19b	2.4808581e-17
9	0x3e1e2d04	0.1544686
10	0x3f3ecf65	0.7453521
11	0x3e32d981	0.17465784
12	0x3e2604d4	0.1621278
13	0x3e625c68	0.22105563
14	0x3e7984e2	0.24367097
15	0x3d93225d	0.07184289
16	0x11160425	1.1834191e-28
17	0x3e58118d	0.21100445
18	0xbe25c33c	-0.16187757
19	0x3ef1f9cf	0.472609
20	0x37bfc7ee	2.2862074e-05
21	0x2bc3cd1f	1.3912516e-12
22	0x3e48d24f	0.19611476
23	0x3dfac592	0.12244715
24	0xbca6305d	-0.020286733
25	0x3dfb6da8	0.12276775
26	0x3e61de9b	0.22057573
27	0x3de41a27	0.11137801
28	0xbdae74e8	-0.08518392
29	0xbf382834	-0.71936345
30	0x3de4b012	0.11166395
31	0x3eb94b03	0.36190042
32	0x8c8dc07d	-2.184034e-31
33	0x3e09a56c	0.1344201
34	0xbb066c35	-0.0020511274
35	0x3da235e6	0.079204366
36	0x3e5e15c9	0.21687998
37	0x2cd1f3d5	5.967208e-12
38	0xbe5282ff	-0.20557784
39	0xbec1e529	-0.37870148
40	0x1c97faa5	1.0057132e-21
41	0x3e04ce97	0.12969433
42	0xbf491f0d	-0.78563005
43	0x3df79a3f	0.12089967
44	0x3db293af	0.08719575
45	0x3df962d7	0.12177055
46	0x0185d6c3	4.916465e-38
47	0xbb867d16	-0.004104267
48	0xbefd0273	-0.4941593
49	0x3b92ab95	0.0044760206
50	0x3ae570fa	0.0017504983
51	0xbf020dbc	-0.50802207
52	0xbf0c67c7	-0.5484585
53	0xbeae7f9c	-0.34081733
54	0x244d178d	4.4472237e-17
55	0x375e5323	1.3251588e-05
56	0x3e560dbe	0.2090368
57	0xbee9b85d	-0.4564847
58	0x3ec536a0	0.38518238
59	0xbf3977b1	-0.7244826
60	0x3f146ca6	0.57978284
61	0x3e12c0a4	0.14331299
62	0xbcb964e8	-0.022631124
63	0x3e618e1d	0.22026868
64	0x3e7f4c9a	0.24931565
65	0x3e65fdf6	0.2246016
66	0x3d8d038e	0.06885444
67	0x3f13cb9e	0.5773257
68	0x3d66b6b6	0.05632659
69	0x3e36d9e0	0.1785655
70	0x3e297cf2	0.16551569
71	0x25f18c67	4.1901976e-16
72	0x2405e3cb	2.9032726e-17
73	0x3e50c562	0.20387796
74	0x3f43f8ff	0.7655181
75	0x3e4ff2b2	0.20307425
76	0x3e5d9d1f	0.21641968
77	0x3e6b909a	0.2300438
78	0x3e7287d4	0.23684627
79	0x3db68dca	0.08913763
80	0x11d5b265	3.3715419e-28
81	0x3e716166	0.23572311
82	0xbe681176	-0.22662911
83	0x3f0725ad	0.52791864
84	0x366e84f7	3.554216e-06
85	0x2b835828	9.332578e-13
86	0x3e668009	0.22509779
87	0x3dcc2089	0.09967143
88	0xbc9b2cbc	-0.01894223
89	0x3e07f662	0.13277581
90	0x3e7ee8f9	0.2489356
91	0x3ddfc076	0.10925381
92	0xbd6c39bd	-0.05767225
93	0xbf421eca	-0.7582823
94	0x3dd048c3	0.10170128
95	0x3ec274e1	0.37979797
96	0x8caea90e	-2.691069e-31
97	0x3dface6a	0.122464016
98	0xba94ee06	-0.001136244
99	0x3da7bb8c	0.081900686
100	0x3e6889c2	0.227088
101	0x2ca2fdf3	4.632511e-12
102	0xbe87d0b1	-0.26526406
103	0xbec3b555	-0.38224283
104	0x1dadcb1b	4.6002725e-21
105	0x3e02ca99	0.12772597
106	0xbf48a5f1	-0.78378206
107	0x3e0b7b26	0.13621196
108	0x3dcebd91	0.10094751
109	0x3ded603d	0.115906216
110	0x0185da7a	4.916998e-38
111	0xbb17dfb7	-0.0023174116
112	0xbefc7d8a	-0.4931453
113	0x3ba014f3	0.00488531
114	0xbb3093bf	-0.0026943532
115	0xbf1343d5	-0.5752538
116	0xbf1d9cf9	-0.61567646
117	0xbeb16a7e	-0.3465156
118	0x238100eb	1.3986597e-17
119	0x37300772	1.0492151e-05
120	0x3e72f3ee	0.23725864
121	0xbee63524	-0.44962418
122	0x3ec85437	0.3912675
123	0xbf3e500f	-0.7434091
124	0x3f27385b	0.65320367
125	0x3e20a9d4	0.15689784
126	0xbce95d06	-0.02848674
127	0x3e527d00	0.20555496
128	0x92c523c3	-1.2441264e-27
129	0x931eeaec	-2.005823e-27
130	0x92a7b09d	-1.058272e-27
131	0x910c6bb3	-1.107724e-28
132	0x92b52991	-1.1432953e-27
133	0x90bb4001	-7.385711e-29
134	0x110b5df3	1.0994117e-28
135	0x0185ace8	4.910459e-38
136	0x8185d922	-4.9168054e-38
137	0x9307ea85	-1.7155023e-27
138	0x913355a6	-1.4147003e-28
139	0x92a4ed89	-1.0408412e-27
140	0x920523d1	-4.2011547e-28
141	0x91059471	-1.0537592e-28
142	0x933d08e6	-2.3859541e-27
143	0x9207eddd	-4.289168e-28
144	0x8185dbb8	-4.9171765e-38
145	0x930bc83c	-1.764299e-27
146	0x109b11f8	6.1164405e-29
147	0x8eacdf65	-4.2616395e-30
148	0x0185cc4e	4.9149647e-38
149	0x8185b185	-4.911121e-38
150	0x92252627	-5.2111846e-28
151	0x93161cad	-1.89468e-27
152	0x906c3d60	-4.6590075e-29
153	0x92f3d012	-1.5386749e-27
154	0x930dfeb7	-1.7922286e-27
155	0x930b5050	-1.7583864e-27
156	0x91ee3caf	-3.7587178e-28
157	0x91480f81	-1.5781996e-28
158	0x930e7529	-1.7980684e-27
159	0x90b880ef	-7.2773857e-29
160	0x0185a023	4.908627e-38
161	0x930d9fe0	-1.7875526e-27
162	0x8eaad3b5	-4.2112102e-30
163	0x92f5461d	-1.5478958e-27
164	0x9342fca8	-2.4610812e-27
165	0x01859aeb	4.907878e-38
166	0x9154f33c	-1.6798804e-28
167	0x9099b22a	-6.0622364e-29
168	0x0185a9a8	4.909993e-38
169	0x92f598ea	-1.549937e-27
170	0x9206405b	-4.236227e-28
171	0x92f12755	-1.5218934e-27
172	0x92eb4af0	-1.4849059e-27
173	0x92f71043	-1.55919e-27
174	0x01859305	4.9067447e-38
175	0x8185d1e6	-4.9157673e-38
176	0x92c3d427	-1.235853e-27
177	0x0185b4f0	4.9116117e-38
178	0x8ed9c157	-5.368081e-30
179	0x8f9db194	-1.5549796e-29
180	0x9014701b	-2.9274216e-29
181	0x8fce286a	-2.0328735e-29
182	0x0185a2c7	4.909006e-38
183	0x8185c2b4	-4.913587e-38
184	0x929c0ae2	-9.847667e-28
185	0x90f08155	-9.4862576e-29
186	0x91e0a171	-3.5440465e-28
187	0x0f4641d8	9.774835e-30
188	0x9197ac62	-2.3929838e-28
189	0x92f811e3	-1.565541e-27
190	0x8f06424f	-6.619481e-30
191	0x921f9bf5	-5.0363785e-28
192	0x8185d25b	-4.915833e-38
193	0x81859347	-4.9067817e-38
194	0x818b8a14	-5.125867e-38
195	0x81858458	-4.904639e-38
196	0x8186b70d	-4.948649e-38
197	0x8185962f	-4.9071987e-38
198	0x0185b916	4.912207e-38
199	0x01858ef4	4.906161e-38
200	0x0185a563	4.90938e-38
201	0x8185d14a	-4.91568e-38
202	0x8185c53b	-4.9139496e-38
203	0x8185995f	-4.907656e-38
204	0x8185e22e	-4.9181036e-38
205	0x0185a80f	4.9097636e-38
206	0x81859f91	-4.908545e-38
207	0x81858c10	-4.9057464e-38
208	0x8185d604	-4.916358e-38
209	0x8185bc69	-4.912684e-38
210	0x0185d165	4.915695e-38
211	0x0185df9e	4.917736e-38
212	0x8185a08e	-4.908687e-38
213	0x81859152	-4.906501e-38
214	0x819729c0	-5.552855e-38
215	0x818b49c6	-5.1166396e-38
216	0x8185d1f9	-4.915778e-38
217	0x8187d765	-4.9900244e-38
218	0x8185bf7e	-4.913126e-38
219	0x8189a1be	-5.055794e-38
220	0x0185996f	4.907665e-38
221	0x018584e5	4.904718e-38
222	0x818b7f3c	-5.124311e-38
223	0x8185df2d	-4.9176725e-38
224	0x0185a3ba	4.909142e-38
225	0x818b97f0	-5.1278555e-38
226	0x0185967f	4.9072435e-38
227	0x81870716	-4.9601336e-38
228	0x81859e6a	-4.9083797e-38
229	0x01858a19	4.9054644e-38
230	0x8185c0ae	-4.9132966e-38
231	0x8185d3df	-4.9160504e-38
232	0x8185daab	-4.9170257e-38
233	0x818970a2	-5.048747e-38
234	0x0185d979	4.916854e-38
235	0x8187e0a9	-4.991354e-38
236	0x8185cfed	-4.9154843e-38
237	0x8188173d	-4.9991855e-38
238	0x81858936	-4.905337e-38
239	0x0185cd45	4.915103e-38
240	0x0185cb0d	4.914785e-38
241	0x0185c9ea	4.9146216e-38
242	0x8185bbd0	-4.912598e-38
243	0x8185c92b	-4.9145146e-38
244	0x0185aa1e	4.910059e-38
245	0x0185c0f9	4.9133386e-38
246	0x8185beae	-4.9130096e-38
247	0x0185ca3f	4.9146693e-38
248	0x8185d67d	-4.916426e-38
249	0x8185dd57	-4.917409e-38
250	0x81858bb0	-4.9056926e-38
251	0x0185d8bf	4.91675e-38
252	0x8185cb8f	-4.9148576e-38
253	0x818b4e3f	-5.1172814e-38
254	0x8185975c	-4.9073674e-38
255	0x818dbd4c	-5.206685e-38

fc_layers.1.bias f4 [32]
0	0x3d1715d1	0.03688604
1	0x3daff8fb	0.08592411
2	0x939c4e4b	-3.945714e-27
3	0x81859ea7	-4.908414e-38
4	0x3d32a6f3	0.043616246
5	0x8185deb4	-4.917605e-38
6	0x8185a475	-4.909247e-38
7	0x8185c5d2	-4.914034e-38
8	0x3ddaffd8	0.106933296
9	0x818606d6	-4.9233635e-38
10	0x85591c75	-1.0208518e-35
11	0x8190c968	-5.318625e-38
12	0x8185a64f	-4.9095125e-38
13	0x81858873	-4.905228e-38
14	0x81859c65	-4.90809e-38
15	0x8185c8db	-4.91447e-38
16	0x3d0898ab	0.03334872
17	0x89e3461e	-5.47142e-33
18	0x3d797bb1	0.060908977
19	0x8187afe2	-4.984355e-38
20	0x8185aa98	-4.9101274e-38
21	0x8185c7ec	-4.914336e-38
22	0x8340e5ca	-5.6687514e-37
23	0x84aab99c	-4.0137263e-36
24	0x8185a9d8	-4.91002e-38
25	0x83f64486	-1.4474313e-36
26	0x3eaa840c	0.3330387
27	0x81ab766c	-6.2985406e-38
28	0x8302d56f	-3.8448576e-37
29	0x3dbaee21	0.09127451
30	0x8185ac3f	-4.9103645e-38
31	0x8ca7692b	-2.579372e-31
