checkpoints/neumf_first_try_Epoch9_HR0.6632_NDCG0.3877.model (torch, 645090 bytes, 13 tensors)

embedding_user_mlp.weight f4 [6040, 8]
0	0xbe8cb07a	-0.2747839
1	0x3eb15f08	0.34642816
2	0x3eac1b58	0.33614612
3	0x3e8b1d79	0.27170923
4	0xbea6ea98	-0.32600856
5	0xbe8c1f82	-0.2736779
6	0xbe5b14f6	-0.21394715
7	0xbeada029	-0.33911255
8	0xbaa2ba64	-0.0012415168
9	0x3e095a02	0.13413242
10	0x3e00883a	0.12551966
11	0x3e194286	0.14966783
12	0x3dbc4bb2	0.09194125
13	0xbdec52be	-0.11539219
14	0x3e076af7	0.13224398
15	0x3e3b3903	0.18283467
16	0xbe8cdd0d	-0.27512398
17	0x3e80872b	0.25103125
18	0x3e7a4915	0.24441941
19	0x3e692908	0.22769558
20	0x3e076d50	0.13225293
21	0xbe66f5e8	-0.22554743
22	0xbe38b031	-0.18035962
23	0xbd890ece	-0.06692277
24	0xbe7a5160	-0.24445105
25	0x3f267e71	0.65036684
26	0x3f22eda6	0.6364387
27	0x3ed42381	0.41433337
28	0xbe840bcc	-0.2579025
29	0xbef85fc0	-0.4851055
30	0xbe66f524	-0.22554451
31	0xbe71a227	-0.23597012
32	0xbef3b275	-0.4759709
33	0x3a89b4e8	0.0010506185
34	0xbbec643b	-0.007214097
35	0xbd9f3627	-0.077740006
36	0xbe947be2	-0.29000765
37	0xbd024679	-0.03180549
38	0xbec4be30	-0.38426352
39	0xbee2743a	-0.442293
40	0xbde63b43	-0.11241772
41	0x3df9c0a7	0.12194949
42	0x3e0f2d60	0.13982153
43	0x3dc6f149	0.0971399
44	0xbe460a59	-0.19339885
45	0xbe428252	-0.18995026
46	0xbe5aae0c	-0.21355456
47	0xbe6974e5	-0.22798498
48	0xbe620dbb	-0.2207555
49	0x3f00e460	0.5034847
50	0x3ef2aa9f	0.473958
51	0x3edf42bd	0.43605605
52	0xbe8ec679	-0.27885798
53	0xbee6052e	-0.44925827
54	0xbe9335d7	-0.28752014
55	0xbe551810	-0.2080996
56	0xbe6509fc	-0.2236709
57	0x3e7bb7c5	0.24581821
58	0x3e70ec4d	0.23527642
59	0x3da667c9	0.08125264
60	0x3ed34bcf	0.41268775
61	0xbd92d98b	-0.07170399
62	0x3e0a647b	0.13514893
63	0x3d017214	0.031602934
64	0xbe00e916	-0.12588915
65	0x3ea2c7f3	0.31793174
66	0x3ea862c7	0.3288786
67	0x3e5b7087	0.21429645
68	0xbeaf10ab	-0.34192404
69	0xbeb41ff5	-0.3518063
70	0xbe4792e4	-0.19489628
71	0xbe2c5ae5	-0.16831549
72	0xbddb77bd	-0.10716198
73	0xbdbc71e4	-0.092014104
74	0xbd888865	-0.0666664
75	0xbdf6c9c2	-0.12050201
76	0xbdf0d985	-0.117602386
77	0x3d9beb05	0.07613186
78	0xbd212e69	-0.0393509
79	0xbdf579ab	-0.11986097
80	0x3d5dbc59	0.0541347
81	0x3e20e24b	0.15711324
82	0x3e18cf17	0.14922749
83	0x3e000a50	0.12503934
84	0x3db445ee	0.088024005
85	0xbde4b382	-0.11167051
86	0xbc4b22aa	-0.012398401
87	0x3d9c6bcf	0.0763775
88	0xbe950638	-0.29106307
89	0x3d6851f4	0.05671878
90	0x3d566dbc	0.052350745
91	0x3e880a16	0.26570195
92	0x3e330145	0.17480953
93	0xbe154f95	-0.1458114
94	0xbcbbc7f9	-0.022922503
95	0x3cae962c	0.021311842
96	0xbdf6df3c	-0.12054297
97	0x3e6f6345	0.23377712
98	0x3e6f6244	0.23377329
99	0x3d389fb2	0.045074172
100	0x3de04638	0.10950893
101	0xbdb8a9a0	-0.090167284
102	0xbd80ce1f	-0.062893145
103	0xbda7f2b3	-0.08200588
104	0xbea52cf0	-0.32260847
105	0x3d3f18b3	0.046654414
106	0x3cdcd730	0.026958078
107	0x3d930784	0.07179168
108	0xbf0290f8	-0.51002455
109	0xbe25c19a	-0.16187134
110	0xbecd02e1	-0.4004126
111	0xbebe3d83	-0.37156305
112	0xbd8f3019	-0.06991596
113	0x3e9339ed	0.2875513
114	0x3e9b712f	0.3035979
115	0x3dd620ba	0.10455461
116	0xbe583c40	-0.21116734
117	0xbe5d88de	-0.21634242
118	0x3d0a81f4	0.03381534
119	0xbcf8c202	-0.030365948
120	0xbe3b3823	-0.18283133
121	0x3ad97cd2	0.0016592985
122	0x3be95389	0.007120554
123	0x3eb1104e	0.34582752
124	0xbf2e15f7	-0.68002266
125	0xbf009f83	-0.50243396
126	0xbf25c5e2	-0.6475507
127	0xbf146a9f	-0.5797519
128	0x3d483ccf	0.048886117
129	0xbd56064c	-0.0522521
130	0xbd108adf	-0.035288688
131	0x3da526e8	0.080640614
132	0xbeb84005	-0.35986343
133	0xbe06951f	-0.13142823
134	0xbe712e71	-0.23552872
135	0xbe5b1f2a	-0.21398607
136	0x3ea8a8e8	0.32941365
137	0xbdb8b964	-0.090197355
138	0xbdb1b9c1	-0.08678008
139	0xbdf0e846	-0.11763053
140	0x3e14ff8e	0.14550611
141	0x3e04945b	0.12947218
142	0x3e91ab36	0.28450936
143	0x3e869569	0.26285866
144	0xbe553f5b	-0.2082495
145	0x3cbacf7d	0.022804016
146	0x3cad9381	0.0211885
147	0xbe34d1a1	-0.17658092
148	0xbe849a69	-0.25899056
149	0x3dd198fc	0.102342576
150	0xbe40d5f8	-0.18831623
151	0xbe8d81d5	-0.27638116
152	0xbcee7617	-0.029109044
153	0x3e890101	0.26758578
154	0x3e82a586	0.2551691
155	0x3e4e5fcf	0.20153736
156	0xbe6a95ea	-0.2290875
157	0xbe686841	-0.2269602
158	0xbdbce67c	-0.09223649
159	0xbdb9ead5	-0.09077994
160	0xbf0d2929	-0.5514093
161	0x3d527810	0.05138403
162	0x3d3cd69d	0.04610311
163	0x3e0453d0	0.12922597
164	0xbe340d07	-0.17583095
165	0xbdbc13ac	-0.091834396
166	0xbe95736a	-0.29189616
167	0xbeba1ed4	-0.36351645
168	0x3e68cfb2	0.2273548
169	0x3d020d7b	0.031751137
170	0x3cfe19c8	0.031018153
171	0x3c1d0f22	0.0095861275
172	0x3e3f67a3	0.18691878
173	0xbc888248	-0.016663685
174	0x3de3a25c	0.11114952
175	0x3e62ec2e	0.22160408
176	0x3c14a6bd	0.009072957
177	0xbd776823	-0.060402047
178	0xbd569425	-0.052387375
179	0x3af10c96	0.0018390592
180	0xbe2aaf83	-0.16668515
181	0x3c83a9af	0.016072122
182	0x3bb9e2e5	0.0056728
183	0xbd56929f	-0.052385923
184	0xbec37131	-0.38172296
185	0x3d86f148	0.065889895
186	0x3d4f7fa4	0.050658837
187	0x3da34de2	0.07973839
188	0xbd2a8eda	-0.04164014
189	0xbd0fc46d	-0.035099436
190	0xbe8fc908	-0.28083062
191	0xbeaa87ff	-0.33306882
192	0xbe946a4c	-0.28987348
193	0x3e27e5d0	0.1639626
194	0x3e23181f	0.1592717
195	0x3e4fef6b	0.20306174
196	0xbeeb192f	-0.4591765
197	0xbe8bb42c	-0.27285898
198	0xbeec73d2	-0.46182114
199	0xbf043d0b	-0.51655644
200	0x3eec533c	0.46157253
201	0xbdb37c2e	-0.0876392
202	0xbdba7160	-0.09103656
203	0xbdf36b7c	-0.118857354
204	0x3e5ecbbb	0.21757405
205	0x3df2ba6f	0.11851966
206	0x3e69f556	0.22847494
207	0x3ea83d8e	0.32859462
208	0xbc2a4d40	-0.010394394
209	0x3e4e5a3b	0.20151608
210	0x3e52b32e	0.20576164
211	0x3e1961e1	0.14978744
212	0xbeb8bb49	-0.36080387
213	0xbe8a4322	-0.27004343
214	0xbe46e637	-0.19423757
215	0xbe537b6e	-0.20652553
216	0xbcf8f29a	-0.030389119
217	0x3c5fb65f	0.0136543205
218	0x3c667d89	0.014068016
219	0x3e97ce46	0.29649562
220	0xbebc8137	-0.36817333
221	0xbe8b0bd2	-0.27157456
222	0xbe85c503	-0.2612687
223	0xbe5770ec	-0.2103917
224	0xbe7266fa	-0.23672095
225	0x3ee17b41	0.44039348
226	0x3ed26359	0.4109142
227	0x3e230137	0.15918432
228	0x3e822d8f	0.25425383
229	0xbe5dd1a3	-0.21662001
230	0x3d56af8d	0.052413512
231	0xbd458dcd	-0.048230935
232	0xbe746a84	-0.23868757
233	0x3e07c613	0.13259153
234	0x3e0e36c2	0.13888076
235	0x3e5ed35e	0.21760318
236	0xbe93aeae	-0.28844208
237	0xbe95d099	-0.2926071
238	0xbe852c7d	-0.26010504
239	0xbe87fb77	-0.2655904
240	0xbd92628b	-0.07147702
241	0x3e7f62f1	0.24940087
242	0x3e87f207	0.2655184
243	0x3e9f9c25	0.31173816
244	0xbde30857	-0.11085575
245	0xbec7e1a1	-0.3903933
246	0xbe88dc3c	-0.26730525
247	0xbcb9d2c7	-0.022683514
248	0xbd9309ab	-0.071795784
249	0x3d616907	0.055031803
250	0x3d3a5bb8	0.045497626
251	0x3e56140f	0.20906089
252	0xbef39411	-0.47573903
253	0xbe8a9379	-0.27065638
254	0xbeb86401	-0.36013797
255	0xbe7d7f4d	-0.24755593

embedding_item_mlp.weight f4 [3706, 8]
0	0xbf84f2c1	-1.0386583
1	0xbf771fee	-0.96533096
2	0xbf33cce7	-0.7023453
3	0x3f555bbc	0.833431
4	0x3f99c899	1.2014343
5	0x3f55ec2b	0.8356349
6	0xbf5f7afa	-0.8729702
7	0x3eafe716	0.34355992
8	0xbf0a25dc	-0.5396402
9	0xbdb4982e	-0.088180885
10	0xbe6a3021	-0.22869922
11	0x3e396f91	0.18108965
12	0x3e41e407	0.18934642
13	0xbd15989e	-0.0365225
14	0xbe65f906	-0.22458276
15	0x3eb16da9	0.34653977
16	0xbe29b3f9	-0.1657256
17	0xbda1cbf4	-0.07900229
18	0xbe72275e	-0.2364783
19	0x3e788a57	0.24271522
20	0x3e30f54f	0.17281078
21	0x3e53050d	0.20607395
22	0xbe7117a2	-0.23544171
23	0x3e0bb402	0.13642886
24	0xbf1ca566	-0.6118988
25	0xbf0f6738	-0.56016874
26	0xbf6107ff	-0.87902826
27	0x3f467c47	0.7753338
28	0x3ec34c2c	0.38144052
29	0x3f2bf5bb	0.6717183
30	0xbf3ba817	-0.7330336
31	0x3f19782d	0.59949
32	0xbee6718a	-0.45008498
33	0xbf5d2745	-0.86388046
34	0xbf3e8b80	-0.7443161
35	0x3ef4475b	0.4771069
36	0x3eed8651	0.46391538
37	0x3f15c4ae	0.58503234
38	0xbef362c6	-0.47536296
39	0x3f25bb2f	0.64738744
40	0xbf1a0e8c	-0.60178447
41	0xbf36cc2b	-0.71405286
42	0xbf13d02a	-0.5773951
43	0x3ee10434	0.4394852
44	0x3f328963	0.69740885
45	0x3f119bcd	0.5687836
46	0xbef07be0	-0.4696951
47	0x3ee610b0	0.44934607
48	0x3b9157c0	0.0044355094
49	0xbdb303eb	-0.08740982
50	0xbd05a470	-0.032627523
51	0x3d130d7c	0.03590153
52	0x3d988a69	0.07448275
53	0x3dba3200	0.09091568
54	0xbd1527b2	-0.03641481
55	0x3d71954c	0.05898027
56	0xbe2ec388	-0.17066777
57	0xbf06ca3c	-0.52652335
58	0x3d0082ad	0.031374622
59	0x3df4249b	0.119210444
60	0x3edbfc53	0.42965946
61	0x3ebd42b5	0.36964956
62	0xbde23eef	-0.1104716
63	0x3dd1be40	0.102413654
64	0x3d305bc5	0.04305627
65	0xbc8dee27	-0.017325474
66	0xbdeba639	-0.11506314
67	0x3c714139	0.014725023
68	0xbd37536c	-0.04475729
69	0xbc974f79	-0.018470513
70	0xbc723250	-0.014782503
71	0x3d91dee4	0.07122591
72	0xbe8a9709	-0.27068356
73	0xbe712f34	-0.23553163
74	0xbe68dd21	-0.22740604
75	0x3eb60c05	0.35556045
76	0x3eb4fd43	0.35349473
77	0x3ebd1795	0.36932054
78	0xbeac1d18	-0.33615947
79	0x3e2b4f7d	0.16729541
80	0xbe23331c	-0.15937465
81	0xbe138993	-0.14407949
82	0xbe401825	-0.1875921
83	0x3e170e98	0.14751661
84	0x3df1ed60	0.11812854
85	0x3df6a465	0.120430745
86	0xbe17a2f2	-0.14808252
87	0x3e1e7ae9	0.15476574
88	0x3ba107b1	0.004914247
89	0x3e7a6df7	0.24456011
90	0xbde9d355	-0.114172615
91	0x3c2b535c	0.010456886
92	0xbe54214c	-0.20715827
93	0xbe269d81	-0.1627102
94	0xbcb068b1	-0.021534296
95	0x3dcc299d	0.099688746
96	0xbd97d8e2	-0.07414414
97	0xbc3f1c56	-0.011664471
98	0xbe023108	-0.12714016
99	0xbd840ffd	-0.06448362
100	0xbd34457d	-0.04401158
101	0xbdead6c7	-0.11466747
102	0x3cd3d296	0.025857251
103	0x3c8aa14b	0.016922614
104	0x3ddbedec	0.10738739
105	0x3c3df61f	0.011594324
106	0xbdf091f5	-0.11746589
107	0x3bd9163c	0.006624965
108	0xbd431718	-0.047629446
109	0x3cc543ad	0.024080122
110	0x3cb2ed4d	0.02184167
111	0x3df1a428	0.117988884
112	0xbeff6c62	-0.49887377
113	0xbe11b4fc	-0.14229196
114	0xbea4dbec	-0.32199037
115	0x3ed15dc2	0.40891844
116	0x3e8639c0	0.26215935
117	0x3e4c9b99	0.19981231
118	0xbee34a6b	-0.44392714
119	0x3e918fd6	0.2843005
120	0xbf0c1d00	-0.5473175
121	0xbdf233a5	-0.11826257
122	0xbeaef321	-0.34169868
123	0x3ece6a6a	0.40315562
124	0x3e7f8b3e	0.2495546
125	0x3e166266	0.14685974
126	0xbef18e93	-0.47179088
127	0x3e89ce07	0.26915
128	0xbd79d35e	-0.06099259
129	0xbec19c67	-0.37814638
130	0xbd6fb15f	-0.058518764
131	0x3bc0095b	0.0058604903
132	0x3e51b1c7	0.20477973
133	0x3deb4749	0.11488206
134	0x3ce75392	0.028238092
135	0x3e814186	0.25245303
136	0xbca3f7c3	-0.020015603
137	0x3cbd8af4	0.023137547
138	0xbdd85208	-0.10562521
139	0xbd9b698c	-0.07588491
140	0xbc8ce6dd	-0.017199928
141	0xbdba7eee	-0.09106241
142	0x3d74a61d	0.05972873
143	0x3dc4fd6c	0.09618649
144	0xbea099e2	-0.31367403
145	0x3b3526b8	0.0027641486
146	0x3d2f3f48	0.04278496
147	0xbca427c1	-0.020038487
148	0x3e0d7c22	0.13816884
149	0xbd6f4050	-0.058410943
150	0xbca23bfb	-0.019803992
151	0xbd50e346	-0.050997995
152	0xbdd78bf3	-0.1052474
153	0xbd21dc86	-0.03951695
154	0xbe621165	-0.22076948
155	0x3e5b943d	0.21443267
156	0x3d8c3a59	0.068470664
157	0x3e0e2843	0.13882546
158	0xbe6abb4d	-0.22923012
159	0x3e17b974	0.14816839
160	0xbe8e9e62	-0.27855211
161	0xbe80c4b7	-0.25150082
162	0xbe06211e	-0.1309857
163	0x3e697550	0.22798657
164	0x3eab4f64	0.33459008
165	0x3e9d2ee3	0.30699834
166	0xbe71f1b5	-0.2362736
167	0x3ddae83e	0.10688828
168	0x3e2e618b	0.17029397
169	0xbeee9fa9	-0.46606186
170	0x3cc7fddd	0.024413044
171	0xbd144f77	-0.036208596
172	0x3e53632a	0.20643297
173	0x3e8b4ba3	0.27206144
174	0x3db494f3	0.08817472
175	0x3ea25ab2	0.3170982
176	0xbf0c9b70	-0.5492468
177	0xbf028962	-0.5099088
178	0xbf07ab22	-0.529955
179	0x3f07a51b	0.52986306
180	0x3f125363	0.5715849
181	0x3f108d77	0.5646586
182	0xbf0b3d03	-0.5438997
183	0x3edf3f64	0.4360305
184	0xbf59ab89	-0.85027367
185	0xbf4efc51	-0.80853754
186	0xbf223621	-0.63363844
187	0x3f5f0829	0.87121826
188	0x3f7dbafa	0.9911343
189	0x3f7f77ad	0.99791986
190	0xbf5effeb	-0.8710925
191	0x3e59d528	0.21272719
192	0xbd905b1b	-0.07048627
193	0xbe9909c8	-0.29890275
194	0xbd9b2ae6	-0.075765416
195	0x3e1d45a8	0.15358603
196	0x3e7e133a	0.24812022
197	0x3e924464	0.28567803
198	0xbe06956e	-0.1314294
199	0x3df50265	0.11963347
200	0xbc8b6db4	-0.017020084
201	0xbd96f6b3	-0.07371273
202	0x39ebc4c8	0.00044969306
203	0xbdd418f5	-0.10356323
204	0x3c987f9b	0.018615535
205	0xbcfb74e1	-0.03069538
206	0x3de6f376	0.11276905
207	0x3dbbba5c	0.091664046
208	0xbf257889	-0.6463705
209	0xbf4ab846	-0.7918743
210	0xbf0a9217	-0.54129165
211	0x3f0f035b	0.55864495
212	0x3f503fd7	0.8134741
213	0x3f2c1210	0.6721506
214	0xbf19cb0d	-0.60075456
215	0x3e96ca81	0.29451373
216	0xbf4724b2	-0.7779037
217	0xbf0aa1df	-0.54153246
218	0xbec3d478	-0.38248038
219	0x3f39fea7	0.72654194
220	0x3f4502ab	0.76957196
221	0x3f43953d	0.76399595
222	0xbf3d48bf	-0.73939127
223	0x3dea398b	0.11436757
224	0x3d15bf9a	0.03655968
225	0x3ba49147	0.005022201
226	0x3e0a2331	0.13489987
227	0xbe30a498	-0.17250288
228	0xbcc3128c	-0.023812555
229	0xbdc5ac45	-0.096519984
230	0x3e3c717b	0.18402664
231	0xbd3ea482	-0.046543606
232	0x3c4ef5a1	0.012631805
233	0xbf4cd271	-0.8000861
234	0xbda4ac63	-0.08040693
235	0x3e07f0ad	0.13275404
236	0x3ee18517	0.44046852
237	0x3f0962bc	0.5366628
238	0xbda33490	-0.0796901
239	0x3eb29960	0.3488264
240	0xbe0d5b89	-0.13804449
241	0xbe2897d5	-0.1646417
242	0xbe0db987	-0.13840304
243	0xbb668a6d	-0.0035177723
244	0x3da318d8	0.07963723
245	0xbb172b1a	-0.0023066462
246	0xbd077536	-0.033070765
247	0x3d950b76	0.072775766
248	0xbe4970b1	-0.19671895
249	0xbea7a78c	-0.32745016
250	0xbe24cccf	-0.16093753
251	0x3eb0cf54	0.3453318
252	0x3ed6dee1	0.41966918
253	0x3efdf327	0.49599573
254	0xbe98126a	-0.2970155
255	0x3e02a863	0.12759547

embedding_user_mf.weight f4 [6040, 8]
0	0x3d95f57f	0.07322215
1	0x3e4b9a23	0.19883017
2	0xbe361867	-0.17782746
3	0x3f088e5f	0.5334224
4	0xbccc292e	-0.02492198
5	0xbec71a29	-0.38887146
6	0xbdde43b8	-0.1085276
7	0xbf48b6f8	-0.7840419
8	0xbbd4e8cf	-0.0064974795
9	0xbeb3d3d5	-0.35122553
10	0xbca70342	-0.020387296
11	0x3f63e61a	0.8902298
12	0x3d829b5a	0.06377287
13	0x3df8b7c8	0.121444285
14	0x3ebab907	0.3646929
15	0x3d58204b	0.052765172
16	0x3ea647bf	0.32476613
17	0xbeb53190	-0.35389376
18	0xbe1a3213	-0.15058164
19	0x3a665d10	0.0008787671
20	0x3d12d7b7	0.035850253
21	0x3f0c5332	0.54814446
22	0x3e85d342	0.2613774
23	0xbef50a02	-0.47859198
24	0xbdc407d0	-0.095718026
25	0xbcfc00e3	-0.030762142
26	0x3eac11f4	0.33607447
27	0x3f0a5546	0.54036367
28	0xbe707d4b	-0.23485295
29	0x3f3e2e2a	0.7428919
30	0x3eb835f5	0.35978666
31	0xbdb38a84	-0.08766654
32	0xbd777eb8	-0.060423583
33	0xbead1723	-0.33806714
34	0xbce318df	-0.02772182
35	0x3e3e0375	0.18556006
36	0xbf2b7358	-0.66972876
37	0xbee84d6b	-0.45371565
38	0xbed10fdc	-0.40832412
39	0x3d679108	0.056534797
40	0x3e963bce	0.29342502
41	0x3e58fefe	0.21191022
42	0xbeb3134c	-0.3497566
43	0x3ed1f432	0.4100662
44	0x3f1c503d	0.61059934
45	0xbd337d6a	-0.043820776
46	0x3eb87cb3	0.36032638
47	0xbe3dda3a	-0.18540278
48	0x3eeb8ef5	0.46007505
49	0xbeebe017	-0.46069404
50	0x3e964bd0	0.29354715
51	0x3ee8b69a	0.45451814
52	0xbea1ea57	-0.316241
53	0x3ee75be0	0.45187283
54	0x3e276776	0.16348061
55	0xbd96b002	-0.073577896
56	0x3e83bb1b	0.25728688
57	0xbef3803a	-0.47558767
58	0x3e853f3a	0.260248
59	0x3f135823	0.5755636
60	0xbecf381f	-0.40472504
61	0xbf1cc495	-0.6123746
62	0xbdd4435a	-0.10364409
63	0xbd7ec072	-0.06219525
64	0x3e3fa79e	0.18716285
65	0xbf41c4d7	-0.7569098
66	0x3e137ae7	0.14402352
67	0x3f1c6d27	0.61104053
68	0xbe03b1b2	-0.12860754
69	0xbe96789b	-0.2938889
70	0xbe8b29b2	-0.27180248
71	0xbec71448	-0.3888266
72	0x3e6b18ee	0.22958729
73	0x3e471daa	0.1944491
74	0xbf15cc5f	-0.5851497
75	0x3eb44847	0.35211393
76	0x3da77a62	0.081776395
77	0x3e843221	0.25819495
78	0x3c6456e3	0.013936731
79	0xbf086b20	-0.5328846
80	0x3cdc791c	0.026913218
81	0xbef7f74a	-0.48430854
82	0xbe99d8f5	-0.30048338
83	0xbe1bbd51	-0.15208937
84	0xbe61e548	-0.2206012
85	0xbeb2025c	-0.34767425
86	0xbbb3f869	-0.0054922593
87	0xbf16699a	-0.58754885
88	0xbe7aecc5	-0.24504383
89	0xbe9c0cbc	-0.30478466
90	0x3e32ae4e	0.17449304
91	0x3d8453fd	0.06461332
92	0xbc9f56fc	-0.019450657
93	0x3eab92ad	0.33510342
94	0xbe346bfb	-0.17619316
95	0xbed917e2	-0.42401034
96	0x3ee2f93a	0.4433077
97	0x3e007db3	0.1254795
98	0xbe634117	-0.22192799
99	0x3f57ac74	0.8424752
100	0xbdacfe95	-0.08446995
101	0x3ede094f	0.43366477
102	0xbdabaf00	-0.08382988
103	0x3e2e3a6a	0.1701447
104	0xbe24bca1	-0.16087581
105	0xbe416a98	-0.18888319
106	0x3e2135e5	0.15743215
107	0xbde36f3b	-0.111052
108	0xbe85b76f	-0.2611651
109	0x3e090f62	0.13384774
110	0x3e57c1cb	0.2107002
111	0xbeca4599	-0.39506224
112	0x3f204b07	0.6261448
113	0xbf335ac1	-0.70060354
114	0x3e835f0a	0.25658447
115	0x3e754fb3	0.23956184
116	0x3d8b663a	0.068066075
117	0xbe693e7a	-0.22777739
118	0x3ea56aeb	0.32308134
119	0xbec0c542	-0.37650496
120	0x3f1a0794	0.60167813
121	0x3dc34e1e	0.09536384
122	0xbe026a62	-0.12735894
123	0xbe015a3c	-0.12632078
124	0x3e908e50	0.28233576
125	0xbd184761	-0.037177447
126	0x3e5aad7a	0.21355239
127	0x3ce8a220	0.02839762
128	0x3d180938	0.037118167
129	0xbcb9c3fe	-0.022676464
130	0x3d9abb08	0.07555205
131	0x3e9bd04d	0.30432358
132	0xbf062a42	-0.5240823
133	0x3e90d498	0.28287196
134	0xbe5805de	-0.21095988
135	0x3eb6c77d	0.35699072
136	0x3ec1479e	0.37749952
137	0x3dac10ad	0.08401618
138	0xbe603858	-0.21896493
139	0x3f39a20f	0.72512907
140	0xbe8f546a	-0.2799409
141	0x3d99d577	0.07511418
142	0xbdb3e5c3	-0.08784058
143	0xbeb6b537	-0.3568513
144	0x3ee3467d	0.44389716
145	0x3de384b5	0.11109296
146	0x3dcf14b4	0.10111371
147	0xbcad8125	-0.021179745
148	0xbe3ed19d	-0.18634649
149	0x3f040d05	0.51582366
150	0x3d9d6ce7	0.07686787
151	0xbf06d96c	-0.5267551
152	0x3ebc3713	0.36760768
153	0xbf016899	-0.5055023
154	0x3df23254	0.118260056
155	0x3d9f46f9	0.07777209
156	0xbe9d254d	-0.3069252
157	0x3e8594f5	0.26090208
158	0xbe0640d6	-0.1311067
159	0xbdf882f4	-0.12134352
160	0x3f11c709	0.5694433
161	0x3e8aedb4	0.27134478
162	0xbd84e689	-0.064892836
163	0x3c09000e	0.008361829
164	0xbe5afc29	-0.21385254
165	0x3e188e13	0.14897947
166	0xbebac259	-0.364764
167	0xbef97fd5	-0.4873034
168	0x3f0364b0	0.5132551
169	0xbef9c552	-0.48783356
170	0xbe71851b	-0.23585932
171	0xbe5243e6	-0.20533714
172	0xbee13c9f	-0.43991563
173	0x3e94087f	0.28912732
174	0x3cc7ad0e	0.024374511
175	0xbecdc446	-0.40188807
176	0xbd6ce38c	-0.057834193
177	0xbe08270f	-0.1329615
178	0xbe423095	-0.18963845
179	0x3dac8479	0.08423705
180	0xbf2cfe97	-0.67575973
181	0x3eccdf67	0.40014192
182	0xbddaf475	-0.10691158
183	0x3e3adcba	0.18248263
184	0xbc4fcafb	-0.012682672
185	0xbe842d4a	-0.25815803
186	0xbf2c1f73	-0.6723549
187	0x3e7b0be3	0.24516253
188	0xbe8235ef	-0.25431773
189	0xbe0c44ca	-0.13698116
190	0x3ea988ae	0.3311209
191	0xbe431395	-0.19050439
192	0x3f11a6fd	0.5689543
193	0xbe7fc929	-0.2497908
194	0xbe0cd47b	-0.1375293
195	0x3d1ea3fc	0.038730606
196	0xbdf5fe2a	-0.120113686
197	0x3eb2d44d	0.34927598
198	0xbeb6403d	-0.35595885
199	0xbe000df9	-0.1250533
200	0x3edc8598	0.43070674
201	0xbe87c354	-0.2651621
202	0xbf01c587	-0.5069203
203	0x3d12c754	0.035834625
204	0x3da8811c	0.08227751
205	0xbe151bbd	-0.14561363
206	0x3f2afc5c	0.6679132
207	0xbe77e4ea	-0.24208418
208	0xbee808f7	-0.4531934
209	0x3e5df85f	0.21676777
210	0xbe1c6754	-0.15273792
211	0x3e80fdff	0.25193784
212	0xbe049389	-0.12946905
213	0x3ec21523	0.3790675
214	0xbdcac31a	-0.09900494
215	0xbe9f55bd	-0.311201
216	0xbe62dded	-0.2215497
217	0x3d84ccbe	0.06484364
218	0xbe87d6f8	-0.26531196
219	0x3e9485bc	0.2900828
220	0xbea6f4ed	-0.3260874
221	0xbd8b691f	-0.0680716
222	0x3d641f40	0.055693865
223	0xbe9b66fa	-0.30352002
224	0xbbf90b22	-0.007600204
225	0xbe144ec2	-0.14483169
226	0x3eb1d2b7	0.34731075
227	0x3f0c2313	0.5474102
228	0xbe82a222	-0.25514323
229	0x3f558b96	0.83416116
230	0x3ee89306	0.4542467
231	0x3e9e601f	0.3093271
232	0xbe699289	-0.22809805
233	0xbe472ac1	-0.19449903
234	0x3e778c2f	0.2417457
235	0x3e4e88d5	0.20169385
236	0xbe9c358d	-0.30509606
237	0xbee89475	-0.45425764
238	0xbe574f66	-0.21026382
239	0xbe8eac04	-0.27865613
240	0xbe41941e	-0.18904158
241	0xbd80504d	-0.06265316
242	0xbf508b62	-0.8146268
243	0xbe967c24	-0.29391587
244	0x3f012b34	0.5045655
245	0x3f02c48b	0.5108115
246	0x3dfd4a25	0.123676576
247	0xbe488a53	-0.19584017
248	0xbd9dbbbf	-0.07701825
249	0xbe61f703	-0.22066884
250	0x3ddee0f7	0.108827524
251	0x3eb78285	0.35841766
252	0xbe89c8a9	-0.26910904
253	0xbe8c1180	-0.273571
254	0xbc34a203	-0.011024955
255	0xbe081b5a	-0.13291684

embedding_item_mf.weight f4 [3706, 8]
0	0x3eeb8512	0.45999962
1	0xbaf7b6b5	-0.0018899055
2	0xbe15a58e	-0.14613935
3	0x3e159afc	0.14609903
4	0x3e124ca2	0.14287046
5	0x3d7e5dc2	0.062101133
6	0x3e80f8fe	0.25189966
7	0x3ec8d45f	0.39224526
8	0xbe3fa4a9	-0.18715157
9	0xbefb1c6b	-0.4904512
10	0x3daf15ce	0.08549081
11	0x3c741ed9	0.014899933
12	0x3db0b237	0.08627742
13	0xbd9ae93f	-0.075640194
14	0xbf168d9b	-0.5880982
15	0x3ecbc0f3	0.39795646
16	0x3e416d62	0.18889382
17	0xbf4d22f0	-0.80131435
18	0x3e561fef	0.20910619
19	0x3ef76cdb	0.48325238
20	0xbea960b9	-0.33081606
21	0xbeadfd8c	-0.33982503
22	0x3e212591	0.15736987
23	0x3e7f5cd9	0.24937762
24	0x3d88de10	0.0668298
25	0x3ead9936	0.33905953
26	0xbe9b5447	-0.30337736
27	0xbcc45a07	-0.02396871
28	0xbea61aa9	-0.32442215
29	0xbe777d87	-0.24168979
30	0x3dbef3cf	0.093238465
31	0x3e891106	0.267708
32	0xbe96f60f	-0.29484603
33	0x3e46bb59	0.19407405
34	0x3eaad8d0	0.3336854
35	0x3e222fbb	0.1583852
36	0xbd98240b	-0.0742875
37	0x3d28bbb7	0.041194644
38	0xbe4524ab	-0.19252269
39	0x3f1e002d	0.6171902
40	0xbd3fb718	-0.04680547
41	0x3e2fc4d1	0.17164923
42	0x3f24d093	0.6438076
43	0x3e9e2269	0.30885628
44	0x3e9b5e1c	0.30345237
45	0x3ec97b0c	0.3935169
46	0x3e3dbe74	0.18529683
47	0x3ecf5752	0.40496308
48	0x3e0cf404	0.1376496
49	0xbe8493b3	-0.25893936
50	0xbe6a4f78	-0.22881877
51	0x3f384bee	0.7199086
52	0xbea84de9	-0.3287194
53	0x3f0a8ae6	0.5411819
54	0x3e4e2b0d	0.2013361
55	0x3e6c88aa	0.23099008
56	0x3e4a8636	0.1977776
57	0x3d5dc703	0.05414487
58	0x3edbf23b	0.42958245
59	0xbdc384b8	-0.095467985
60	0x3ea00b9f	0.31258866
61	0x3e7a3cf9	0.24437322
62	0x3eacb412	0.33731133
63	0x3f58d905	0.84706146
64	0xbdc77da6	-0.097407624
65	0xbf61ec60	-0.88251305
66	0x3e8c7cd2	0.2743898
67	0x3ed9b1f3	0.42518577
68	0x3dee61ee	0.11639772
69	0x3d1e1336	0.03859254
70	0xbe8d6d60	-0.2762251
71	0x3f9768c0	1.1828842
72	0x3e5719d2	0.21005943
73	0xbe9e77f7	-0.309509
74	0x3e3b5797	0.18295132
75	0x3f1af84b	0.60535115
76	0x3e512598	0.20424497
77	0x3e3c2c4c	0.18376273
78	0x3e13bf47	0.14428435
79	0x3f865c78	1.0496969
80	0xbed07936	-0.40717477
81	0xbef5f335	-0.48037115
82	0x3e6d58de	0.23178431
83	0x3f207028	0.62671137
84	0x3e465f04	0.19372183
85	0xbe68a45f	-0.22718953
86	0xbea5a38a	-0.32351333
87	0x3f8b9a0f	1.090639
88	0x3eb1b17e	0.34705728
89	0xbf83f96d	-1.0310494
90	0x3e20c336	0.15699467
91	0x3e99b35f	0.30019662
92	0xbf14f6ce	-0.58189094
93	0xbeb09b41	-0.3449345
94	0xbe0f2e64	-0.1398254
95	0x3d153a58	0.036432594
96	0x3e648a30	0.2231834
97	0xbf17ede2	-0.59347355
98	0xbdef748f	-0.11692154
99	0x3ecdb8ba	0.40179998
100	0xbea04e60	-0.31309795
101	0xbe26cd15	-0.1628917
102	0x3e821c98	0.2541244
103	0x3f3263ce	0.6968354
104	0x3e373cc4	0.17894274
105	0x3ed00950	0.40632105
106	0x3f5a32d7	0.85233825
107	0xbcc32c59	-0.023824858
108	0x3e805954	0.25068152
109	0x3e71780b	0.23580949
110	0x3ef422a4	0.4768268
111	0x3f797311	0.974412
112	0x3dad5212	0.08462919
113	0xbee45ea7	-0.44603464
114	0x3e3ed840	0.1863718
115	0x3d6b4af6	0.057444535
116	0xbe75954d	-0.23982735
117	0xbdb0dd46	-0.086359546
118	0x3da20e98	0.0791294
119	0x3ee005f0	0.4375453
120	0x3e61fb75	0.2206858
121	0x3e960e6a	0.29307872
122	0x3f116deb	0.56808347
123	0xbe9907a7	-0.2988865
124	0x3e1441dc	0.14478248
125	0x3eb2b71f	0.34905335
126	0x3ea2d995	0.31806627
127	0x3f1636d3	0.58677405
128	0xbebb4c56	-0.36581677
129	0xbee8ec9e	-0.45493025
130	0xbd83f9ab	-0.06444105
131	0x3e909c91	0.2824445
132	0xbe152ea9	-0.1456858
133	0xbe0c6056	-0.13708624
134	0xbedcf166	-0.43152922
135	0x3eefe9b3	0.46857986
136	0xbd8905d2	-0.06690563
137	0xbf3a9a39	-0.72891575
138	0x3e35d710	0.17757821
139	0x3edfb65e	0.43693823
140	0x3caac925	0.020847866
141	0xbc4495a6	-0.01199857
142	0xbe278b01	-0.1636162
143	0x3f87a4f4	1.0597215
144	0xbbfba960	-0.007680103
145	0x3e15a9cd	0.14615555
146	0x3dbd9946	0.0925775
147	0x3ef284f6	0.47367066
148	0x3e87914a	0.26478034
149	0xbf12ec53	-0.5739185
150	0x3ed913ff	0.42398068
151	0x3edeb3eb	0.43496642
152	0xbd2f621f	-0.042818185
153	0x3dbdf497	0.092751674
154	0x3f504149	0.8134962
155	0x3d7cbcf1	0.061703626
156	0x3e9dc381	0.3081322
157	0x3e9eaa13	0.3098913
158	0x3ecdce40	0.4019642
159	0x3f2e48b4	0.68079686
160	0xbd7d1791	-0.061790053
161	0x3efd9416	0.49527043
162	0x3edee68d	0.4353527
163	0xbbf0800f	-0.0073394845
164	0xbcc0b793	-0.023525035
165	0xbe441e32	-0.19152144
166	0xbd704a28	-0.05866447
167	0x3eed4dac	0.4634832
168	0x3e742b2a	0.23844591
169	0xbde1424c	-0.10998973
170	0x3de4ccbe	0.11171864
171	0x3e778b9a	0.24174348
172	0x3e8e53d2	0.27798325
173	0xbd1bdfc4	-0.038055196
174	0xbf379c1c	-0.7172258
175	0x3eb3f142	0.35145003
176	0xbc924954	-0.017857231
177	0x3dfc92c1	0.123326786
178	0x3f3ab1e2	0.7292768
179	0x3e2908d2	0.16507271
180	0x3ef0ff49	0.47069767
181	0x3f046eec	0.51731753
182	0x3e83cdab	0.2574285
183	0x3f15546e	0.58331954
184	0x3e1b3907	0.15158473
185	0x3e9cae1a	0.3060158
186	0xbe4061ea	-0.18787351
187	0x3f04e080	0.5190506
188	0x3e7cd523	0.2469068
189	0xbdcc4ccd	-0.09975586
190	0x3e6d6213	0.23181944
191	0x3ef00c35	0.46884313
192	0xbe8dc152	-0.27686554
193	0x3d989206	0.07449727
194	0xbd2a1e24	-0.04153265
195	0xbd89d208	-0.067295134
196	0xbed3ffbd	-0.4140605
197	0xbed9557c	-0.42448032
198	0x3e95ed46	0.29282588
199	0xbe8dc129	-0.27686432
200	0xbf1ce885	-0.61292297
201	0xbf3a6633	-0.72812194
202	0x3df3f7bb	0.11912485
203	0x3ec54704	0.38530743
204	0xbe7ade19	-0.24498786
205	0xbecb6d7b	-0.39731964
206	0xbee02942	-0.43781477
207	0x3ef09c95	0.46994463
208	0xbdedd0cf	-0.11612093
209	0xbe23e28d	-0.16004391
210	0x3ef03bdb	0.46920666
211	0x3effd0dd	0.49964038
212	0x3f061915	0.5238202
213	0x3e9af3fb	0.30264267
214	0x3e890fbe	0.26769823
215	0x3f0f96bc	0.5608938
216	0xbe8142b7	-0.25246212
217	0x3e2aa3c2	0.16664031
218	0x3d4c6a6e	0.049906187
219	0x3eb61a63	0.35567006
220	0xbd95a021	-0.07305933
221	0xbebb992e	-0.36640304
222	0x3e91c2bc	0.28468883
223	0x3e19dde3	0.1502605
224	0x3ef0858d	0.4697689
225	0xbe21b214	-0.15790588
226	0xbf0915e5	-0.53549033
227	0x3e12d196	0.14337763
228	0xbe1fda6a	-0.15610662
229	0xbf6e5dee	-0.93112075
230	0xbee7c10c	-0.4526447
231	0xbe53e650	-0.20693326
232	0x3e8144cf	0.2524781
233	0xbc8122ff	-0.015763758
234	0x3ea44892	0.32086617
235	0x3e8dfd22	0.27732188
236	0x3e883762	0.26604754
237	0x3d5cafc8	0.053878576
238	0xbf574a53	-0.84097785
239	0x3e5cbdc2	0.21556762
240	0xbeb2fb06	-0.3495714
241	0xbe6e8f7d	-0.23296924
242	0x3e0180e9	0.12646832
243	0x3ec21256	0.37904614
244	0x3d2d4062	0.04229773
245	0xbe193b22	-0.14963964
246	0xbebf0484	-0.37308133
247	0x3f095da2	0.536585
248	0x3bc37b02	0.0059655914
249	0x3e1d047a	0.15333739
250	0xbe90a01f	-0.28247163
251	0xbe98b7cf	-0.29827735
252	0xbdaab7f2	-0.08335866
253	0xbf12610d	-0.5717934
254	0x3c39d9cd	0.011343432
255	0x3d5185d1	0.051153008

fc_layers.0.weight f4 [64, 16]
0	0xbf1f0a29	-0.6212488
1	0xbe280ecd	-0.16411896
2	0xbe42c507	-0.19020472
3	0x3ec745cc	0.38920438
4	0x3d201cfe	0.03909015
5	0xbe5d4007	-0.21606456
6	0xbe8b5957	-0.27216598
7	0xbe42598c	-0.18979472
8	0xbdca3c9c	-0.098748416
9	0x3dbac9f4	0.09120551
10	0xbd251adc	-0.04030882
11	0xbea39dbe	-0.31956285
12	0xbe78ff23	-0.24316077
13	0xbef83452	-0.48477417
14	0x3e87b0d4	0.26502097
15	0x3e45ba26	0.19309291
16	0xbf2e80db	-0.6816537
17	0x3d9f9a97	0.077931575
18	0x3cfee13a	0.031113256
19	0xbeb594c2	-0.35465056
20	0xbe989005	-0.29797378
21	0x3e36793d	0.17819686
22	0xbd82c5ec	-0.06385407
23	0xbea0c5d0	-0.3140092
24	0xbefc5c93	-0.4928938
25	0x3d64fc60	0.055904746
26	0x3ebc395f	0.3676252
27	0xbde07d08	-0.10961348
28	0x3e799f85	0.24377258
29	0xbde1cdfb	-0.11025616
30	0xbcbed085	-0.02329279
31	0xbf3d19c6	-0.7386745
32	0x3edea808	0.43487573
33	0x3e8443ab	0.25832877
34	0x3e3d57a1	0.18490459
35	0x3ddb05af	0.106944434
36	0x3ea9fd51	0.33201078
37	0xbd5d0f1a	-0.05396948
38	0x3e281e74	0.16417867
39	0x3e8d8c02	0.2764588
40	0x3e9f3bd3	0.3110033
41	0xbdecc894	-0.11561695
42	0xbd3baf77	-0.045821633
43	0xbe38f434	-0.18061906
44	0xbd3e5b64	-0.046473876
45	0x3d912cbf	0.07088613
46	0x3e89deb7	0.2692773
47	0x3e15517b	0.14581864
48	0x3eedb048	0.46423554
49	0x3ddd0c0f	0.107933156
50	0x3db3dec2	0.08782722
51	0x3e48a79d	0.1959519
52	0xbf8cc8c5	-1.099877
53	0xbe80a109	-0.2512286
54	0xbdbf4df2	-0.09341039
55	0x3cd55485	0.026041279
56	0x3ea5bb17	0.323693
57	0x3e2e9042	0.17047217
58	0x3ea17651	0.3153558
59	0x3e70fbf3	0.23533611
60	0xbd963bb0	-0.07335603
61	0x3e38df45	0.1805392
62	0xbe541f69	-0.20715107
63	0xbf372d24	-0.71553254
64	0x3e8f169c	0.27946937
65	0x3e75d068	0.24005282
66	0x3e315156	0.17316183
67	0x3e058a8a	0.1304113
68	0x3e97f5e9	0.29679802
69	0xbd804bb5	-0.0626444
70	0x3d718d5c	0.0589727
71	0x3e4be936	0.19913182
72	0x3e8c6d2c	0.27427042
73	0xbe031b80	-0.12803459
74	0xbc987d0c	-0.018614314
75	0xbe26f398	-0.16303861
76	0x3ab55b94	0.0013836497
77	0x3db77268	0.08957368
78	0x3e840f5f	0.25792977
79	0x3e198d7b	0.14995377
80	0x3e64a26c	0.22327584
81	0x3e10f988	0.14157689
82	0x3e013699	0.12618484
83	0x3eb0e909	0.34552792
84	0xbf5c678c	-0.860955
85	0xbe17e934	-0.14835054
86	0xbcf196c1	-0.02949083
87	0xbe2b192c	-0.16708821
88	0x3e76c86d	0.24099894
89	0x3d5da547	0.0541127
90	0x3de85777	0.113448076
91	0x3dff81b5	0.124759115
92	0xbe07e675	-0.13271506
93	0xbc621c68	-0.013800718
94	0xbe5dbb01	-0.21653368
95	0xbf2daf47	-0.67845577
96	0xbd2d7072	-0.042343564
97	0x3b1d7b62	0.002402984
98	0x3b2ee0c2	0.002668426
99	0x3cd89429	0.026437836
100	0xbcc43ba4	-0.02395422
101	0xbc98289f	-0.018574057
102	0xbd51697d	-0.051125992
103	0xbdad18d6	-0.08452003
104	0xbd9189e4	-0.07106379
105	0xbd7fc320	-0.062441945
106	0x3b868b16	0.004105936
107	0x3c3fdfcd	0.011711073
108	0x3ce1b7bb	0.02755343
109	0x3ce2a167	0.027664853
110	0xbc6e166d	-0.014531714
111	0x3d6a1d09	0.057156596
112	0xbc384b95	-0.011248489
113	0x3cf2e085	0.029648075
114	0x3cf83be7	0.030302001
115	0x3c6d67d8	0.01449009
116	0x3c93f577	0.018061383
117	0x3a2624db	0.00063378894
118	0x3cdf7819	0.027278947
119	0x3c28af65	0.010295724
120	0xbbe707b0	-0.007050477
121	0xbaaf97f3	-0.0013396725
122	0x3b4a5556	0.0030873618
123	0x3c35d26e	0.011097534
124	0xbbd6130a	-0.0065330314
125	0x3c860e34	0.016364194
126	0xbbfe90a2	-0.0077687064
127	0xbcaa22f4	-0.02076862
128	0xab75125f	-8.706698e-13
129	0x31320013	2.5902451e-09
130	0x31279f4f	2.4392255e-09
131	0xb03c637a	-6.8535366e-10
132	0x26759956	8.520926e-16
133	0x3026ab1c	6.063361e-10
134	0xa897a239	-1.683472e-14
135	0xa9b089bb	-7.8398625e-14
136	0x2ae9db5c	4.1541326e-13
137	0xabe0e37b	-1.5979296e-12
138	0x2d072775	7.682623e-12
139	0xa99a567c	-6.8539765e-14
140	0xa902fbc9	-2.9084187e-14
141	0xa848edf1	-1.11538256e-14
142	0x29ff0ba5	1.1326295e-13
143	0x312ff316	2.560403e-09
144	0xbf1404c1	-0.57819754
145	0x3e6a8679	0.2290286
146	0x3e3f93e6	0.18708763
147	0xbe48f4dc	-0.19624656
148	0xbf24dc14	-0.6439831
149	0x3e1335f9	0.14376058
150	0xbdd3540f	-0.10318767
151	0xbed05c37	-0.40695354
152	0xbe18cfe0	-0.14923048
153	0x3e731c6b	0.2374131
154	0x3e8e0265	0.27736202
155	0x3d4df7df	0.050285216
156	0xbc1afd52	-0.00945981
157	0xbdcc650c	-0.09980211
158	0xbe49f826	-0.19723567
159	0xbf55dc01	-0.83538824
160	0x3f2258ca	0.6341673
161	0x3dfd0022	0.12353541
162	0x3dd9be0d	0.106319524
163	0xbdbdf900	-0.092760086
164	0xbf825cac	-1.0184531
165	0xbe753bef	-0.23948644
166	0xbe7039e5	-0.23459585
167	0x3b2e5546	0.002660112
168	0x3e9ec59f	0.31010148
169	0x3e70ccde	0.2351565
170	0x3eb893f3	0.36050376
171	0x3eb51fa7	0.3537571
172	0xbcabdbf5	-0.020978907
173	0x3e9286c7	0.28618452
174	0xbe838489	-0.25687054
175	0xbf36ae21	-0.7135945
176	0xbd371ffe	-0.044708245
177	0x3eb1c92e	0.347238
178	0x3ea6357a	0.32462674
179	0x3e8db939	0.27680376
180	0x3e9dbeb5	0.3080956
181	0xbe377671	-0.17916276
182	0x3dc30c3b	0.09523817
183	0x3d8d2168	0.06891137
184	0x3e4a1b8d	0.19737072
185	0x3ea6fe6b	0.3261598
186	0xbe06c1b3	-0.13159828
187	0xbcdecff7	-0.027198775
188	0xbe078d8d	-0.13237591
189	0xbe3bc59e	-0.18337104
190	0x3d4439d3	0.047906708
191	0x3e2c7bca	0.16844097
192	0xbed00b9e	-0.40633863
193	0x3dc9b046	0.098480746
194	0x3d53c3fe	0.051700585
195	0x3f39ea7a	0.7262341
196	0x3c4ebe5b	0.0126186265
197	0xbea372c1	-0.31923488
198	0xbe05b8a6	-0.13058719
199	0xbd391d18	-0.04519376
200	0xbcacd2b9	-0.021096574
201	0x3e9a1f05	0.3010179
202	0xbe6b42da	-0.2297472
203	0xbe619f78	-0.22033489
204	0xbeba3497	-0.36368248
205	0xbf228007	-0.63476604
206	0x3e1df0f9	0.15423955
207	0x3ea78fc2	0.32726866
208	0x3d46be92	0.048521586
209	0x3e088416	0.13331637
210	0x3e16ea72	0.14737871
211	0xbc0a0a02	-0.008425238
212	0x3ddd4af0	0.10805309
213	0xbc532590	-0.012887374
214	0x3e05d1ad	0.13068266
215	0x3d9e484f	0.077286355
216	0x3db58d5b	0.08864852
217	0x3defdd57	0.11712139
218	0xbd3fe7bf	-0.04685187
219	0x3da2bed7	0.07946556
220	0xbd64b036	-0.05583211
221	0x3c8778e2	0.016537134
222	0xbd83936b	-0.06424602
223	0xbb988ebe	-0.004655688
224	0xbf4098f2	-0.75233376
225	0x3e50ce4a	0.20391193
226	0x3e38d07d	0.18048282
227	0xbed60112	-0.41797692
228	0xbf103915	-0.563371
229	0x3e3fe301	0.18738939
230	0xbde51a0d	-0.111866094
231	0xbedaa135	-0.42701116
232	0xbec1f4ac	-0.37881982
233	0x3e7031b0	0.23456454
234	0x3ec1c5da	0.3784626
235	0xbc595e2f	-0.013267084
236	0x3df31e00	0.118709564
237	0xbdcb2b16	-0.09920327
238	0xbe028a6a	-0.12748113
239	0xbf654260	-0.89554405
240	0xbe764612	-0.24050167
241	0x3d95ef79	0.073210664
242	0x3d683505	0.05669119
243	0x3e60b1e2	0.21942857
244	0xbf46afae	-0.77611816
245	0x3d1cc30e	0.038271956
246	0xbd82a131	-0.06378401
247	0xbea23fc5	-0.31689277
248	0xbc78c069	-0.015182593
249	0x3e054977	0.13016306
250	0x3e0fd70b	0.14046876
251	0xbc0a107e	-0.008426784
252	0xbd95dc89	-0.07317454
253	0xbe1da430	-0.15394664
254	0xbe193429	-0.14961304
255	0xbf46ac98	-0.7760711

fc_layers.0.bias f4 [64]
0	0x3e50707d	0.20355411
1	0x3d846c2c	0.06465945
2	0x3e9cfcc5	0.30661598
3	0xbed7b892	-0.42133003
4	0x3eb38b14	0.35067046
5	0xbe96a083	-0.29419336
6	0xbdb47aa9	-0.08812458
7	0xbdc062b5	-0.09393827
8	0xb85807f1	-5.150581e-05
9	0xbd035365	-0.032061953
10	0xbee57a01	-0.44819644
11	0x3eadda60	0.3395567
12	0x3e081ab6	0.1329144
13	0xbdb0e033	-0.086365126
14	0x3d525885	0.05135395
15	0xbe2a0274	-0.16602498
16	0xbd89fdf2	-0.06737889
17	0x3e8bb036	0.27282876
18	0xbe09b454	-0.13447696
19	0xbe25503d	-0.1614389
20	0x921cabfa	-4.94369e-28
21	0xa11d78ed	-5.3353713e-19
22	0x3e674eee	0.22588703
23	0x3ebb291c	0.365548
24	0xbbdb9de0	-0.00670217
25	0x3ec5ca60	0.38630962
26	0x3e9be7ef	0.3045039
27	0x3ec306f9	0.38091257
28	0xbbe4f8db	-0.0069876737
29	0xbdeacf23	-0.114652894
30	0x3ec29ea7	0.38011667
31	0xbebf7ff1	-0.374023
32	0xbaba9ccc	-0.0014237403
33	0x3ec3f241	0.38270763
34	0xb9a0c12c	-0.00030661502
35	0x3ec07e30	0.37596273
36	0x3dab6829	0.08369476
37	0xbd90b2d0	-0.07065356
38	0xbe3dda35	-0.1854027
39	0xbd6a2df8	-0.057172745
40	0xbd8f0306	-0.069829985
41	0x3ec7f89e	0.39056867
42	0xbdf83e21	-0.12121225
43	0x3ec7badc	0.3900975
44	0x3ebcdb29	0.36885956
45	0x3ec730c1	0.38904384
46	0xbd344ace	-0.04401665
47	0xb71b88cb	-9.2705695e-06
48	0xbe8c209d	-0.27368632
49	0xbd1ff638	-0.039053172
50	0xbc887c71	-0.0166609
51	0xbe0a3fe4	-0.13500935
52	0xbdf8b141	-0.121431835
53	0xad17b163	-8.622744e-12
54	0xa69bd1af	-1.081212e-15
55	0x8be2c2d3	-8.734517e-32
56	0x3eb0e094	0.3454634
57	0xbe4e5a7d	-0.20151706
58	0xbd8685e6	-0.06568508
59	0xbe5099da	-0.2037119
60	0xbcc6d63d	-0.024272079
61	0x3ec6b2a9	0.38808182
62	0xb0bc6e84	-1.3710211e-09
63	0x3e6ba3a2	0.2301164

fc_layers.1.weight f4 [32, 64]
0	0x3e5373fa	0.2064971
1	0x3e8014f2	0.2501598
2	0x3dcfd8cc	0.101487726
3	0x3f2244c2	0.63386166
4	0x3da3ce31	0.07998312
5	0x3e4dff07	0.20116816
6	0x3c8d9e4b	0.017287394
7	0x3c51b4a7	0.0127994185
8	0xb3b8742c	-8.589299e-08
9	0x3e2ed114	0.17071944
10	0x3f4dde2e	0.80417144
11	0x3e3ffbd7	0.18748413
12	0x3e65027a	0.22364226
13	0x3d5f9baa	0.054591812
14	0x3e8de035	0.2771012
15	0x3e0257f3	0.12728862
16	0x39892cf5	0.00026164172
17	0x3e3ec918	0.18631399
18	0xbd9d546d	-0.076821186
19	0x3ed16b36	0.40902108
20	0x8185de10	-4.917513e-38
21	0x8b7268c5	-4.6686324e-32
22	0x3e5d1f84	0.21594054
23	0x3e079a14	0.1324237
24	0xb53b2915	-6.972271e-07
25	0x3dfb147f	0.12259769
26	0x3e3ea38d	0.18617077
27	0x3def6fa3	0.11691215
28	0xbd673ef9	-0.05645654
29	0xbf3bbedf	-0.7333812
30	0x3df2ce45	0.11855749
31	0x3edab188	0.4271357
32	0x371157af	8.663089e-06
33	0x3e0ea3f2	0.13929728
34	0x340d8192	1.3178786e-07
35	0x3dc17cf9	0.09447665
36	0x3e7b2063	0.24524073
37	0x3b82fcfa	0.0039974423
38	0xbdbcb914	-0.09214988
39	0xbbbc3686	-0.0057438044
40	0x3b1ca177	0.0023899951
41	0x3e0546dc	0.13015312
42	0xbf2a4679	-0.6651378
43	0x3df385bf	0.118907444
44	0x3dc196e0	0.09452605
45	0x3dfa5fb4	0.12225285
46	0xb810d9d6	-3.453515e-05
47	0x353f92ae	7.136649e-07
48	0xbee3b858	-0.4447658
49	0xbbb8ecb0	-0.0056434497
50	0x3452ccdc	1.9632301e-07
51	0xbdb29179	-0.08719153
52	0xbd0da862	-0.03458441
53	0x25f6ee33	4.2835608e-16
54	0x268390a4	9.129156e-16
55	0x0aecfe64	2.2821664e-32
56	0x3e520ce3	0.20512728
57	0xbe679e49	-0.22618975
58	0x3e5ea87a	0.21743956
59	0xbf1f4a67	-0.62222904
60	0x3ece0cf4	0.40244257
61	0x3e12afa4	0.14324814
62	0x9f360061	-3.8540313e-20
63	0x3ddd7d9e	0.10814975
64	0x3e75cd26	0.24004039
65	0x3e84cc10	0.25936937
66	0x3ddfd341	0.10928965
67	0x3f24db2a	0.6439692
68	0x3dbe5866	0.092942044
69	0x3e62dcea	0.22154585
70	0x3c8d43a6	0.017244171
71	0x3c33247c	0.0109339915
72	0xb3ef67cb	-1.11481846e-07
73	0x3e59e9e8	0.21280634
74	0x3f519dbc	0.8188131
75	0x3e570482	0.20997813
76	0x3e8c7798	0.27434993
77	0x3d588617	0.052862253
78	0x3e888fea	0.26672298
79	0x3e0df623	0.13863425
80	0xb99f5af0	-0.00030394597
81	0x3e627c64	0.22117764
82	0xbdbd9121	-0.09256197
83	0x3ee26364	0.44216454
84	0x8185b801	-4.9120517e-38
85	0x8c11ed16	-1.1241739e-31
86	0x3e77f649	0.24215044
87	0x3dfe2d73	0.124110125
88	0xb6b0a1e3	-5.264055e-06
89	0x3e10fcea	0.14158979
90	0x3e639220	0.22223711
91	0x3dfcef46	0.12350325
92	0xbd1a1a1b	-0.037622552
93	0xbf40453a	-0.7510563
94	0x3dee51f1	0.11636723
95	0x3ee22646	0.44169825
96	0x36f4bbb1	7.293617e-06
97	0x3e0cea7b	0.13761322
98	0x3477d2ed	2.3080402e-07
99	0x3dd22abc	0.10262057
100	0x3e85bad9	0.26119116
101	0x3b6355cc	0.003468859
102	0xbdeb3773	-0.114851855
103	0xbbd8feb5	-0.0066221603
104	0x3b68be1e	0.003551371
105	0x3e0c2f97	0.13690029
106	0xbf2af91f	-0.6678638
107	0x3e124c14	0.14286834
108	0x3dd3ad5a	0.103357986
109	0x3e001879	0.12509336
110	0xb83d7fe0	-4.5180204e-05
111	0x3539d33a	6.9225246e-07
112	0xbee15d51	-0.44016507
113	0xbc0ec9b3	-0.008715081
114	0xb4b63cf0	-3.394448e-07
115	0xbdd2f6c5	-0.10300974
116	0xbd708357	-0.058719005
117	0x25b0978a	3.063382e-16
118	0x26833c61	9.106317e-16
119	0x0b0ae6bc	2.6751418e-32
120	0x3e6b0c39	0.22953881
121	0xbe5a9879	-0.21347226
122	0x3e61442b	0.2199866
123	0xbf1f98bd	-0.62342435
124	0x3eda3a4d	0.42622605
125	0x3e29e4b7	0.16591154
126	0x9f8011ac	-5.4239344e-20
127	0x3df4a6bd	0.11945865
128	0x8185bf80	-4.9131273e-38
129	0x8185cbc8	-4.9148896e-38
130	0x0149b510	3.7047775e-38
131	0x8185ca20	-4.914652e-38
132	0x816e31c0	-4.374939e-38
133	0x81858df0	-4.9060154e-38
134	0x81287d90	-3.0946813e-38
135	0x0185ace8	4.910459e-38
136	0x8185d922	-4.9168054e-38
137	0x8185a018	-4.908621e-38
138	0x81858a20	-4.9054684e-38
139	0x818599c0	-4.9077104e-38
140	0x81156120	-2.7436662e-38
141	0x01859ee6	4.908449e-38
142	0x8185bbe8	-4.9126116e-38
143	0x8185d1e8	-4.9157685e-38
144	0x8185dbb8	-4.9171765e-38
145	0x8185b760	-4.9119614e-38
146	0x81858490	-4.90467e-38
147	0x81647c80	-4.196631e-38
148	0x0185cc4e	4.9149647e-38
149	0x8185b185	-4.911121e-38
150	0x81557f90	-3.9213443e-38
151	0x014ef5a0	3.8012452e-38
152	0x0185877d	4.90509e-38
153	0x8185a3a0	-4.9091274e-38
154	0x8185ad78	-4.91054e-38
155	0x81106d40	-2.6527006e-38
156	0x818583e8	-4.904576e-38
157	0x01858db8	4.905984e-38
158	0x810e0f80	-2.6092402e-38
159	0x818593f0	-4.9068764e-38
160	0x0185a023	4.908627e-38
161	0x0121cec0	2.9719366e-38
162	0x8185d3bd	-4.9160313e-38
163	0x81637340	-4.1776003e-38
164	0x8185c9d0	-4.914607e-38
165	0x01859aeb	4.907878e-38
166	0x81858af0	-4.905585e-38
167	0x81858717	-4.905033e-38
168	0x0185a9a8	4.909993e-38
169	0x8185af68	-4.910818e-38
170	0x0185c880	4.914419e-38
171	0x8185e3d8	-4.9183424e-38
172	0x8185b628	-4.9117865e-38
173	0x8185b440	-4.911513e-38
174	0x01859305	4.9067447e-38
175	0x8185d1e6	-4.9157673e-38
176	0x8185b7f0	-4.912042e-38
177	0x8185deec	-4.917636e-38
178	0x0185c74a	4.914245e-38
179	0x81148470	-2.7278326e-38
180	0x81141040	-2.7194966e-38
181	0x81858840	-4.9051993e-38
182	0x0185a2c7	4.909006e-38
183	0x8185c2b4	-4.913587e-38
184	0x818203d0	-4.775993e-38
185	0x0185bbc8	4.9125937e-38
186	0x010b3530	2.5568428e-38
187	0x8185e3a8	-4.9183155e-38
188	0x81569878	-3.9414983e-38
189	0x8180a6d0	-4.725914e-38
190	0x018f3a10	5.261322e-38
191	0x014c13e0	3.7483142e-38
192	0x8185d25b	-4.915833e-38
193	0x81859347	-4.9067817e-38
194	0x818b8a14	-5.125867e-38
195	0x81858458	-4.904639e-38
196	0x8186b70d	-4.948649e-38
197	0x8185962f	-4.9071987e-38
198	0x0185b916	4.912207e-38
199	0x01858ef4	4.906161e-38
200	0x0185a563	4.90938e-38
201	0x8185d14a	-4.91568e-38
202	0x8185c53b	-4.9139496e-38
203	0x8185995f	-4.907656e-38
204	0x8185e22e	-4.9181036e-38
205	0x0185a80f	4.9097636e-38
206	0x81859f91	-4.908545e-38
207	0x81858c10	-4.9057464e-38
208	0x8185d604	-4.916358e-38
209	0x8185bc69	-4.912684e-38
210	0x0185d165	4.915695e-38
211	0x0185df9e	4.917736e-38
212	0x8185a08e	-4.908687e-38
213	0x81859152	-4.906501e-38
214	0x819729c0	-5.552855e-38
215	0x818b49c6	-5.1166396e-38
216	0x8185d1f9	-4.915778e-38
217	0x8187d765	-4.9900244e-38
218	0x8185bf7e	-4.913126e-38
219	0x8189a1be	-5.055794e-38
220	0x0185996f	4.907665e-38
221	0x018584e5	4.904718e-38
222	0x818b7f3c	-5.124311e-38
223	0x8185df2d	-4.9176725e-38
224	0x0185a3ba	4.909142e-38
225	0x818b97f0	-5.1278555e-38
226	0x0185967f	4.9072435e-38
227	0x81870716	-4.9601336e-38
228	0x81859e6a	-4.9083797e-38
229	0x01858a19	4.9054644e-38
230	0x8185c0ae	-4.9132966e-38
231	0x8185d3df	-4.9160504e-38
232	0x8185daab	-4.9170257e-38
233	0x818970a2	-5.048747e-38
234	0x0185d979	4.916854e-38
235	0x8187e0a9	-4.991354e-38
236	0x8185cfed	-4.9154843e-38
237	0x8188173d	-4.9991855e-38
238	0x81858936	-4.905337e-38
239	0x0185cd45	4.915103e-38
240	0x0185cb0d	4.914785e-38
241	0x0185c9ea	4.9146216e-38
242	0x8185bbd0	-4.912598e-38
243	0x8185c92b	-4.9145146e-38
244	0x0185aa1e	4.910059e-38
245	0x0185c0f9	4.9133386e-38
246	0x8185beae	-4.9130096e-38
247	0x0185ca3f	4.9146693e-38
248	0x8185d67d	-4.916426e-38
249	0x8185dd57	-4.917409e-38
250	0x81858bb0	-4.9056926e-38
251	0x0185d8bf	4.91675e-38
252	0x8185cb8f	-4.9148576e-38
253	0x818b4e3f	-5.1172814e-38
254	0x8185975c	-4.9073674e-38
255	0x818dbd4c	-5.206685e-38

fc_layers.1.bias f4 [32]
0	0x3d58ce2b	0.052930992
1	0x3dd638f9	0.104600854
2	0x819740e8	-5.5561776e-38
3	0x81859ea7	-4.908414e-38
4	0x3d65aa1c	0.056070432
5	0x8185deb4	-4.917605e-38
6	0x8185a475	-4.909247e-38
7	0x8185c5d2	-4.914034e-38
8	0x3e080bad	0.13285704
9	0x818606d6	-4.9233635e-38
10	0x868eef51	-5.376611e-35
11	0x8190c968	-5.318625e-38
12	0x8185a64f	-4.9095125e-38
13	0x81858873	-4.905228e-38
14	0x81859c65	-4.90809e-38
15	0x8185c8db	-4.91447e-38
16	0x3d4a7d09	0.04943565
17	0x8185be42	-4.912949e-38
18	0x3d9c44e5	0.07630328
19	0x8187afe2	-4.984355e-38
20	0x8185aa98	-4.9101274e-38
21	0x8185c7ec	-4.914336e-38
22	0x819ae418	-5.6897964e-38
23	0x834ac133	-5.9584247e-37
24	0x8185a9d8	-4.91002e-38
25	0x8bd0de9c	-8.045363e-32
26	0x3eb2143d	0.34781066
27	0x81ab766c	-6.2985406e-38
28	0x85595f1f	-1.0220762e-35
29	0x3de99830	0.114059806
30	0x8185ac3f	-4.9103645e-38
31	0x81bd1250	-6.945391e-38
