checkpoints/neumf_first_try_Epoch8_HR0.6636_NDCG0.3883.model (torch, 645090 bytes, 13 tensors)

embedding_user_mlp.weight f4 [6040, 8]
0	0xbe8aa6fc	-0.27080524
1	0x3e98cc6f	0.2984347
2	0x3e95613f	0.29175755
3	0x3e9125f5	0.2834927
4	0xbe9bbde5	-0.30418316
5	0xbe8f5c6e	-0.28000206
6	0xbe72bb16	-0.2370418
7	0xbea74b6a	-0.32674724
8	0x3cfafb2c	0.030637346
9	0x3df1ba4f	0.11803114
10	0x3df2f057	0.118622474
11	0x3e08814b	0.13330571
12	0x3d32f2b0	0.043688476
13	0xbe00e095	-0.12585671
14	0x3dbc859b	0.09205171
15	0x3e055a3c	0.13022703
16	0xbea58cd4	-0.32334006
17	0x3e4b9b98	0.19883573
18	0x3e3e6aa0	0.18595362
19	0x3e057704	0.13033682
20	0x3dc011d3	0.093784
21	0xbdcf32ac	-0.10117087
22	0xbdad3c7c	-0.08458802
23	0xbdf2f531	-0.11863173
24	0xbe774b9d	-0.24149938
25	0x3f1126b1	0.56699663
26	0x3f0d8187	0.5527577
27	0x3ecaa219	0.39576796
28	0xbe8428b9	-0.2581232
29	0xbeedaaa0	-0.4641924
30	0xbe9152fa	-0.2838362
31	0xbe83ba1f	-0.25727937
32	0xbeec6a30	-0.46174765
33	0xbcdd3ce9	-0.027006583
34	0xbd16319b	-0.0366684
35	0xbc129aa0	-0.008947998
36	0xbe8d0f41	-0.275507
37	0xbd97579b	-0.07389756
38	0xbebb5326	-0.36586875
39	0xbed0aec4	-0.40758336
40	0xbe08f110	-0.13373208
41	0x3dcb502d	0.09927402
42	0x3de1e289	0.11029536
43	0x3e32aec4	0.1744948
44	0xbe2c70f2	-0.1683996
45	0xbe76236f	-0.24036954
46	0xbe6ce818	-0.23135412
47	0xbe348744	-0.17629725
48	0xbe86e3da	-0.26345712
49	0x3f031978	0.5121074
50	0x3efa4c85	0.48886505
51	0x3ecc0ae3	0.39852056
52	0xbe7b9910	-0.24570107
53	0xbed13c0e	-0.4086613
54	0xbe7740dd	-0.24145837
55	0xbe613723	-0.21993689
56	0xbe904490	-0.2817731
57	0x3e3e0828	0.18557799
58	0x3e2cbebc	0.16869634
59	0x3d9f30ac	0.07772955
60	0x3e9cd999	0.30634764
61	0xbd8082ed	-0.06274972
62	0x3d65f637	0.056143012
63	0xbd255517	-0.04036435
64	0xbe689908	-0.22714627
65	0x3e907e5d	0.28221408
66	0x3e8d1a1e	0.27558988
67	0x3e40a005	0.18811043
68	0xbe9f02b2	-0.31056744
69	0xbe8d80d3	-0.27637348
70	0xbe562853	-0.2091382
71	0xbe5ca6b5	-0.21547969
72	0xbe303779	-0.17208661
73	0xbdec34e4	-0.115335256
74	0xbdce919f	-0.10086369
75	0xbdaee6a1	-0.08540083
76	0xbdd258b3	-0.10270824
77	0x3da4f125	0.08053807
78	0xbde8a0e3	-0.11358812
79	0xbe2a245e	-0.16615435
80	0x3bcd563a	0.0062663825
81	0x3e335628	0.17513335
82	0x3e253792	0.1613448
83	0x3e2b5c5d	0.16734453
84	0x3d8cf56f	0.0688275
85	0xbe1a7cd9	-0.15086688
86	0xbd1a02c3	-0.03760029
87	0x3d8b43b3	0.06800022
88	0xbe848252	-0.25880677
89	0x3d1ebd3b	0.038754683
90	0x3d18222a	0.037141956
91	0x3e28caa1	0.16483547
92	0x3e0d5c2a	0.13804689
93	0xbda7885a	-0.08180304
94	0xbb3663ae	-0.002783041
95	0x3c97ffdb	0.018554619
96	0xbe442a2b	-0.19156711
97	0x3e8f19a3	0.27949247
98	0x3e8a597a	0.2702139
99	0x3e002cdd	0.12517114
100	0x3e0b4cb9	0.13603486
101	0xbe3ce2ca	-0.18445888
102	0xbe188363	-0.1489387
103	0xbe1a83e9	-0.15089382
104	0xbe9cd98a	-0.3063472
105	0x3d9cdc31	0.07659186
106	0x3d83a6e7	0.064283185
107	0x3c6b4bb3	0.01436131
108	0xbed86604	-0.42265332
109	0xbdc20828	-0.09474212
110	0xbeaeaa1a	-0.34114152
111	0xbeb8479d	-0.35992137
112	0xbdc2676a	-0.09492381
113	0x3e675b2a	0.2259337
114	0x3e730999	0.2373413
115	0x3d93495b	0.07191726
116	0xbe571ce3	-0.21007113
117	0xbe2fb112	-0.1715739
118	0xbdb33321	-0.087499864
119	0xbe163178	-0.14667308
120	0xbe154e19	-0.14580573
121	0x3d7d5176	0.061845265
122	0x3d7fdfe0	0.062469363
123	0x3e9d7e1e	0.30760282
124	0xbf22356a	-0.63362753
125	0xbee708d6	-0.4512393
126	0xbf13f401	-0.57794195
127	0xbf06c832	-0.52649224
128	0x3d2bcd0e	0.041943602
129	0xbd809b72	-0.06279649
130	0xbd3f39d6	-0.046686016
131	0x3d934ec0	0.07192755
132	0xbeb18cb2	-0.34677655
133	0xbdfe6d54	-0.124231964
134	0xbe762e8f	-0.24041198
135	0xbe5e94e4	-0.21736485
136	0x3ea9af77	0.33141682
137	0xbde95d33	-0.113947295
138	0xbddf1e60	-0.108944654
139	0xbe234e0a	-0.15947738
140	0x3de139bb	0.10997339
141	0x3e2c501f	0.16827439
142	0x3e80eb81	0.25179675
143	0x3e8132b6	0.25234002
144	0xbe62afe1	-0.22137405
145	0xbd9b4ac0	-0.07582617
146	0xbd9571fc	-0.072971314
147	0xbe2a36c7	-0.16622458
148	0xbe935723	-0.28777418
149	0x3db90d93	0.09035792
150	0xbe82c0cf	-0.25537726
151	0xbe9f53b1	-0.3111854
152	0x3d8abe20	0.06774545
153	0x3e87856d	0.26468983
154	0x3e856f3b	0.26061425
155	0x3e66ef39	0.22552194
156	0xbe8a5ba2	-0.27023035
157	0xbe8e84bc	-0.27835643
158	0xbddeb414	-0.10874191
159	0xbd683862	-0.056694396
160	0xbf05b453	-0.5222828
161	0x3d990e16	0.0747339
162	0x3d8e66d6	0.06953208
163	0x3ddc08e5	0.10743884
164	0xbe17dabd	-0.14829536
165	0xbd5f1eea	-0.05447284
166	0xbe81a4b4	-0.2532097
167	0xbeaaf5f0	-0.3339076
168	0x3e4b80b2	0.19873312
169	0x3d8cdc13	0.06877913
170	0x3d8c1758	0.0684039
171	0x3d609ca0	0.05483687
172	0x3e28b0f3	0.16473751
173	0xbd9e4631	-0.07728232
174	0x3e011e19	0.12609138
175	0x3e5e1fe5	0.21691854
176	0xbda09de5	-0.07842616
177	0xbd5d6e71	-0.054060403
178	0xbd2ceb95	-0.042216856
179	0x3cad75f4	0.021174408
180	0xbe068354	-0.13136035
181	0xbc133621	-0.008985073
182	0xbcdbb0f2	-0.026817773
183	0xbda15dde	-0.07879232
184	0xbea2c829	-0.31793335
185	0x3d4dd4ed	0.05025189
186	0x3d07c8e9	0.033150587
187	0x3dbd5510	0.0924474
188	0xbd59e18f	-0.053193625
189	0xbd6ddf1c	-0.0580741
190	0xbe7ac6f4	-0.24489957
191	0xbe8c766f	-0.27434108
192	0xbe8c449d	-0.27396098
193	0x3e18ae98	0.14910352
194	0x3e107cc5	0.14110096
195	0x3dafd80f	0.08586132
196	0xbec92864	-0.39288628
197	0xbe219532	-0.1577957
198	0xbeccd5e4	-0.40006936
199	0xbef50b17	-0.47860023
200	0x3effe1fa	0.49977094
201	0xbd8765a4	-0.06611183
202	0xbd875e72	-0.06609811
203	0xbe22ac7a	-0.15886107
204	0x3e4d35a5	0.20039995
205	0x3e088248	0.13330948
206	0x3e979df9	0.2961271
207	0x3eb47778	0.35247397
208	0xbd0db95f	-0.03460061
209	0x3e739158	0.23785913
210	0x3e71ae2d	0.23601599
211	0x3e3ae5a8	0.1825167
212	0xbea1e3f2	-0.3161922
213	0xbe9478ce	-0.28998417
214	0xbe4f0d49	-0.20219912
215	0xbe36e04d	-0.17859001
216	0xbde5a5a3	-0.11213233
217	0x3ccc6cb1	0.024954172
218	0x3cb53f65	0.022124955
219	0x3e722b12	0.23649243
220	0xbec313b6	-0.38100976
221	0xbe62748f	-0.22114776
222	0xbe961b91	-0.29317906
223	0xbe950ef2	-0.29112965
224	0xbe7247c4	-0.23660189
225	0x3ed120a7	0.40845224
226	0x3ebffcc6	0.37497538
227	0x3e310794	0.17288047
228	0x3e60b885	0.21945389
229	0xbe5983ba	-0.21241656
230	0x3d7987ea	0.060920633
231	0xbd0e2e3a	-0.034712054
232	0xbe842509	-0.25809506
233	0x3e660504	0.22462851
234	0x3e6aa21a	0.229134
235	0x3e85791c	0.26068962
236	0xbe5120df	-0.20422696
237	0xbea30833	-0.31842193
238	0xbe45b9e4	-0.19309193
239	0xbe698a4d	-0.22806664
240	0xbda2a9a4	-0.07942513
241	0x3e730768	0.23733294
242	0x3e80ad42	0.25132185
243	0x3e857041	0.26062205
244	0xbda02d5e	-0.07821153
245	0xbead821c	-0.33888328
246	0xbe597a59	-0.21238078
247	0xbd17decf	-0.03707772
248	0xbdd44854	-0.10365358
249	0x3d642673	0.05570073
250	0x3d30361d	0.043020356
251	0x3e1abd29	0.15111221
252	0xbec98c14	-0.39364684
253	0xbe4b653b	-0.19862835
254	0xbe9c3e5e	-0.30516332
255	0xbe75f340	-0.24018574

embedding_item_mlp.weight f4 [3706, 8]
0	0xbf7dce6a	-0.9914309
1	0xbf6982be	-0.9121512
2	0xbf469365	-0.77568656
3	0x3f637426	0.88849103
4	0x3f8ceeec	1.1010413
5	0x3f53d200	0.8274231
6	0xbf66f919	-0.9022384
7	0x3ec3de6d	0.38255635
8	0xbef1cd43	-0.47226915
9	0xbddcfb0a	-0.107900694
10	0xbe72b783	-0.23702817
11	0x3e629f1a	0.22131005
12	0x3e69715f	0.22797154
13	0x3da96d88	0.082728446
14	0xbe7ddbc7	-0.2479087
15	0x3e9f9cf8	0.31174445
16	0xbe1ff254	-0.15619785
17	0xbe25ebdf	-0.16203259
18	0xbe662a02	-0.22476962
19	0x3e7206c0	0.23635387
20	0x3e5b57c0	0.21420193
21	0x3e6feee2	0.2343097
22	0xbe64d32a	-0.22346178
23	0x3e2e5403	0.17024235
24	0xbf1fd1c1	-0.62429434
25	0xbf11639c	-0.56792617
26	0xbf46025b	-0.77347344
27	0x3f2e6379	0.68120533
28	0x3ef9cd76	0.48789567
29	0x3f17d778	0.59313154
30	0xbf2b87fc	-0.6700437
31	0x3f08fb09	0.5350805
32	0xbee0fcab	-0.4394277
33	0xbf46bdaf	-0.77633184
34	0xbf3b35f7	-0.7312922
35	0x3f0a34d7	0.5398688
36	0x3ee10572	0.43949467
37	0x3f1daf37	0.6159548
38	0xbf0448bc	-0.51673484
39	0x3f1ec55a	0.62019885
40	0xbf13027f	-0.57425684
41	0xbf194edc	-0.59885955
42	0xbf21c869	-0.63196427
43	0x3f0996f2	0.5374595
44	0x3f160e93	0.5861599
45	0x3f11d273	0.56961745
46	0xbf09f132	-0.5388366
47	0x3ef5216a	0.47877055
48	0xbd2f9156	-0.042863213
49	0xbd4612d4	-0.0483578
50	0xbc37d950	-0.011221245
51	0x3b4c379f	0.0031161082
52	0x3d3b25cb	0.04569034
53	0x3cb773b5	0.02239404
54	0xbc90a223	-0.017655438
55	0x3d06bce0	0.03289497
56	0xbe05d490	-0.13069367
57	0xbef84b6d	-0.48495045
58	0x3d6c68be	0.057717077
59	0x3e035717	0.12826191
60	0x3ede660b	0.43437228
61	0x3ed8f312	0.42372948
62	0xbdd3e524	-0.103464395
63	0x3e0ae3a0	0.13563395
64	0x3d02a9b8	0.031900138
65	0x3cb56379	0.022142159
66	0xbe19a6aa	-0.15004984
67	0x3d353389	0.0442386
68	0xbd9abf6b	-0.07556041
69	0xbcc7b36b	-0.024377545
70	0xbd25ad32	-0.040448375
71	0x3de27589	0.11057574
72	0xbe9f1b5b	-0.31075558
73	0xbe84373f	-0.258234
74	0xbe7f815b	-0.24951689
75	0x3e9f8b5a	0.31161004
76	0x3ea2dc3f	0.3180866
77	0x3e9b4d1b	0.30332264
78	0xbe9ef6b3	-0.31047592
79	0x3e53bcf0	0.20677543
80	0xbe64b0c2	-0.22333053
81	0xbe3606b2	-0.17775992
82	0xbdb78496	-0.08960836
83	0x3e036537	0.12831579
84	0x3e5cf69c	0.21578449
85	0x3e116482	0.14198497
86	0xbe05dbc3	-0.13072114
87	0x3df5fe77	0.12011426
88	0x3d3f7e7b	0.04675148
89	0x3e1cd3ef	0.15315221
90	0xbdf99ee9	-0.12188513
91	0xbdad2a58	-0.08455342
92	0xbe3d6525	-0.18495615
93	0xbe38a2ab	-0.18030803
94	0x3d996138	0.07489246
95	0x3e0c9e53	0.13732271
96	0xbd9f9b9c	-0.07793352
97	0xbc442422	-0.011971505
98	0xbd432946	-0.047646783
99	0xbd59fba7	-0.05321851
100	0xbb21aa79	-0.002466826
101	0xbda402a0	-0.08008313
102	0x3cb33c74	0.021879412
103	0xbbe3a33b	-0.006946949
104	0x3d50b78a	0.050956286
105	0xbd6c00ce	-0.057617955
106	0xbd90ff93	-0.07079997
107	0x3d28e0e3	0.041230094
108	0x3cd20bb2	0.025640342
109	0x3d916a85	0.07100395
110	0xbca798c4	-0.020458587
111	0x3db58f2a	0.08865197
112	0xbf012afe	-0.50456226
113	0xbe3cdf14	-0.18444473
114	0xbec594e4	-0.38590157
115	0x3ef431bd	0.47694197
116	0x3e80eefb	0.25182328
117	0x3e71bd93	0.23607473
118	0xbefd3341	-0.49453166
119	0x3ea9f399	0.33193663
120	0xbefd7e82	-0.4951058
121	0xbe2e4ab3	-0.17020683
122	0xbeb46525	-0.35233417
123	0x3ec34afc	0.38143146
124	0x3e72cf4b	0.23711888
125	0x3e281ea1	0.16417934
126	0xbede0278	-0.43361259
127	0x3e95dbaa	0.29269153
128	0xbd833567	-0.0640667
129	0xbe86fd35	-0.26365057
130	0xbdbdadfe	-0.09261702
131	0x3da0eee0	0.07858062
132	0x3e2e32f0	0.17011619
133	0x3e13241b	0.14369242
134	0xbd3ca2bb	-0.04605363
135	0x3e45f11e	0.1933026
136	0xbc8e5d6d	-0.017378533
137	0x3d23d014	0.03999336
138	0x3ca88833	0.020572757
139	0xbdb08fae	-0.08621155
140	0xbcb3248d	-0.021868015
141	0xbdae48b7	-0.08509963
142	0x3d879e73	0.06622019
143	0xbb01e720	-0.00198216
144	0xbe8de4b3	-0.27713546
145	0xbcff5277	-0.031167252
146	0x3d2c288e	0.042030863
147	0xbd809c84	-0.06279853
148	0x3ddca319	0.10773296
149	0xbdae7206	-0.08517842
150	0x3ce2b614	0.027674712
151	0xbc212037	-0.009834341
152	0xbdcc4fd8	-0.099761665
153	0xbd123d1b	-0.035702806
154	0xbe255818	-0.16146886
155	0x3e257f96	0.16161951
156	0x3db2a44d	0.08722744
157	0x3df21787	0.11820894
158	0xbe35596d	-0.17709894
159	0x3df2ef1a	0.11862011
160	0xbe94ddd7	-0.290755
161	0xbe5740ee	-0.21020862
162	0xbe223342	-0.15839866
163	0x3e65ccdd	0.2244143
164	0x3e8872dc	0.2665013
165	0x3e72a8cf	0.23697208
166	0xbe7505c8	-0.23927987
167	0x3dd9c0d6	0.10632484
168	0x3e042c9d	0.12907644
169	0xbec795b1	-0.38981393
170	0x3cd1be3c	0.025603406
171	0xbd120044	-0.035644785
172	0x3e317b9a	0.17332307
173	0x3e61fecd	0.22069855
174	0x3d919cd9	0.071099944
175	0x3e7b8652	0.24562958
176	0xbf1cd327	-0.6125969
177	0xbf0ad677	-0.542335
178	0xbf02a86a	-0.5103823
179	0x3f0c93ab	0.54912823
180	0x3f1d708f	0.61499876
181	0x3f0eeece	0.5583314
182	0xbf1189fc	-0.5685117
183	0x3ee0bc22	0.43893534
184	0xbf6ba041	-0.92041403
185	0xbf4e6607	-0.8062443
186	0xbf2b86c8	-0.67002535
187	0x3f60aa74	0.8776009
188	0x3f80e650	1.0070286
189	0x3f6d2da0	0.92647743
190	0xbf64a6eb	-0.89317197
191	0x3e6eb0ce	0.23309633
192	0xbda013cb	-0.07816275
193	0xbe6ee585	-0.23329742
194	0xbdc3519f	-0.09537052
195	0x3e458aee	0.19291279
196	0x3e6abd24	0.22923714
197	0x3e95ca1d	0.29255763
198	0xbe2daef6	-0.16961274
199	0x3db673b1	0.08908785
200	0xbd076807	-0.033058193
201	0xbcc24f86	-0.02371956
202	0x3acce4d2	0.0015632159
203	0xbdd3da4e	-0.10344373
204	0xbc8f0742	-0.017459515
205	0xbd8e0aeb	-0.06935676
206	0x3dced9db	0.101001464
207	0x3d566422	0.052341588
208	0xbf2df3ae	-0.6794995
209	0xbf38438d	-0.71978074
210	0xbef2ee60	-0.4744749
211	0x3f08f982	0.5350572
212	0x3f4d71db	0.80251855
213	0x3f1e5cb7	0.6186022
214	0xbf1650f7	-0.5871729
215	0x3e86cee8	0.26329732
216	0xbf5b14fd	-0.855789
217	0xbf029fc1	-0.51025015
218	0xbeb7448f	-0.35794494
219	0x3f3356fb	0.70054597
220	0x3f4da7a5	0.8033393
221	0x3f2928ca	0.66077864
222	0xbf3f4072	-0.7470771
223	0x3de2dc85	0.11077217
224	0x3c7d53b1	0.015461848
225	0x3d8e1f98	0.0693962
226	0x3e036f72	0.12835482
227	0xbe255155	-0.16144307
228	0xbd38f7de	-0.04515826
229	0xbdff53a2	-0.124671236
230	0x3e274f3d	0.16338821
231	0xbdc5d17c	-0.096590966
232	0x3b32490a	0.002720418
233	0xbf384856	-0.71985376
234	0xbdc02f56	-0.093840286
235	0x3e26669c	0.1625008
236	0x3ecc8656	0.3994624
237	0x3f07b5d6	0.53011835
238	0xbdd3f81d	-0.10350058
239	0x3ebf6263	0.3737975
240	0xbe23aa30	-0.1598289
241	0xbdf28b61	-0.11842991
242	0xbdf95d7a	-0.12176032
243	0x3d785ce8	0.060635477
244	0x3db36b2b	0.08760675
245	0x3d31f1e3	0.04344357
246	0xbdbc1514	-0.09183708
247	0x3d8c2cf3	0.06844511
248	0xbe89da68	-0.26924443
249	0xbe8fefe0	-0.28112698
250	0xbdd66dfb	-0.10470196
251	0x3e9f6b8a	0.31136733
252	0x3edd0fd4	0.43176138
253	0x3ed7c53c	0.42142665
254	0xbe95304b	-0.29138407
255	0x3d51117b	0.05104206

embedding_user_mf.weight f4 [6040, 8]
0	0x3dbf57d9	0.093429275
1	0x3e2cdcb7	0.16881071
2	0xbe37ddbe	-0.17955682
3	0x3f06a029	0.52588135
4	0xbd2417a5	-0.04006161
5	0xbeaea2f8	-0.3410871
6	0xbdad7043	-0.08468678
7	0xbf3d57f4	-0.7396233
8	0xbd9b755b	-0.07590743
9	0xbe9c7d29	-0.3056424
10	0x3c3997a1	0.011327655
11	0x3f6a866c	0.9161136
12	0x3dec4d1f	0.11538147
13	0x3df4f28c	0.11960325
14	0x3ec56d58	0.38559985
15	0x3d0c9ed3	0.034331154
16	0x3e98d0a2	0.29846674
17	0xbec9b7cb	-0.39398035
18	0xbdb84856	-0.08998172
19	0x3cd6e79b	0.026233485
20	0xbc4d365b	-0.012525166
21	0x3f0d4935	0.5518983
22	0x3e9b79c2	0.3036633
23	0xbef78d16	-0.48349828
24	0xbd291dda	-0.041288234
25	0xbd5f5079	-0.054520104
26	0x3eb41826	0.35174674
27	0x3f09c8ba	0.5382191
28	0xbe8662d4	-0.26247275
29	0x3f200625	0.62509376
30	0x3eb06ce6	0.34458083
31	0xbddb8f9b	-0.1072075
32	0xbbb92af2	-0.0056508714
33	0xbec81bc5	-0.39083686
34	0x3cc9d129	0.024635868
35	0x3e5da630	0.21645427
36	0xbf31aa12	-0.6940013
37	0xbed2956c	-0.41129625
38	0xbea3f6cd	-0.32024232
39	0x3c5945c6	0.013261264
40	0x3e8b473e	0.2720279
41	0x3e187201	0.14887239
42	0xbeb3a20d	-0.35084572
43	0x3ed2d32a	0.4117673
44	0x3f08dd09	0.5346227
45	0xbd9f4a2f	-0.07777821
46	0x3eb7c624	0.35893357
47	0xbe30fb9d	-0.17283483
48	0x3ee8c6eb	0.45464262
49	0xbed85af1	-0.42256883
50	0x3e835f41	0.2565861
51	0x3ecb48dc	0.39704025
52	0xbe91ec56	-0.28500623
53	0x3eea1c47	0.457247
54	0x3e3afa7a	0.18259612
55	0xbcbaf09d	-0.022819811
56	0x3e9c0bd4	0.30477774
57	0xbef4dc11	-0.47824147
58	0x3e65ad03	0.2242928
59	0x3f26c4d3	0.6514408
60	0xbedf8452	-0.4365564
61	0xbf162a51	-0.5865832
62	0xbde087a4	-0.109633714
63	0xbd8a5993	-0.06755366
64	0x3e314938	0.17313087
65	0xbf3ccc6b	-0.7374942
66	0x3e1e3dbe	0.1545324
67	0x3ef7fb7e	0.4843406
68	0xbdb16457	-0.086617164
69	0xbea8317a	-0.32850248
70	0xbe7b30e8	-0.24530375
71	0xbec4cc49	-0.38437107
72	0x3e66dd95	0.22545464
73	0x3e32196f	0.17392515
74	0xbf11bd92	-0.56929886
75	0x3ea741ff	0.3266754
76	0x3e0496cc	0.1294815
77	0x3e81e473	0.25369605
78	0x3c978d2b	0.018499931
79	0xbf021c50	-0.5082445
80	0x3df3508a	0.11880596
81	0xbf04d110	-0.51881504
82	0xbe9c4b9b	-0.30526432
83	0xbe12e3c2	-0.14344695
84	0xbe3da60b	-0.18520372
85	0xbea53845	-0.32269493
86	0x3cff0b20	0.031133235
87	0xbf0aae3c	-0.5417211
88	0xbe895899	-0.26825407
89	0xbeaaeb23	-0.3338252
90	0x3e074d36	0.13213047
91	0x3e0b9fd2	0.13635185
92	0xbd955f92	-0.07293619
93	0x3eb95ff5	0.36206022
94	0xbe34d71d	-0.17660184
95	0xbecdd22e	-0.40199417
96	0x3ec6a44d	0.38797227
97	0x3d5a72a8	0.053332
98	0xbe56346b	-0.20918433
99	0x3f4917d0	0.7855196
100	0xbd97215a	-0.07379408
101	0x3ebbccff	0.36679837
102	0xbd46be71	-0.048521463
103	0x3dfc1b04	0.1230984
104	0xbe0c42e0	-0.13697386
105	0xbe1c7030	-0.15277171
106	0x3dfc22c4	0.123113185
107	0xbe165fe7	-0.14685021
108	0xbe8408b1	-0.2578788
109	0x3d8e0f83	0.069365524
110	0x3df6bc7e	0.12047671
111	0xbec83012	-0.39099175
112	0x3f26a37b	0.650932
113	0xbf3d921e	-0.7405108
114	0x3e8195b0	0.25309515
115	0x3e2c4ed5	0.16826947
116	0x3d60dbcb	0.05489711
117	0xbe67d75b	-0.22640745
118	0x3e804957	0.25055954
119	0xbeb1218c	-0.34595907
120	0x3f203452	0.62579834
121	0x3e180ef5	0.14849456
122	0xbdcd95fc	-0.10038373
123	0xbe2733bf	-0.16328333
124	0x3e937a0c	0.28804052
125	0x3c3d0397	0.0115365
126	0x3e6ec947	0.23318969
127	0xbb7a4ef2	-0.0038194028
128	0x3d6f02a8	0.058352143
129	0xbd5809ea	-0.05274383
130	0x3dad7379	0.0846929
131	0x3e9421c3	0.28932008
132	0xbf073ec3	-0.5283014
133	0x3ea28bff	0.31747434
134	0xbe6ef5a2	-0.23335889
135	0x3eb12264	0.3459655
136	0x3ec0330d	0.3753895
137	0x3e10dac9	0.1414596
138	0xbe662dd9	-0.22478427
139	0x3f411c45	0.7543376
140	0xbe90d7ad	-0.28289548
141	0x3dcb2e6a	0.09920962
142	0xbdc68baa	-0.096946076
143	0xbecbb31c	-0.39785087
144	0x3ef737da	0.482848
145	0x3e14d366	0.14533767
146	0x3e060437	0.13087545
147	0xbd27298c	-0.040811107
148	0xbe23da63	-0.16001277
149	0x3f058831	0.52160937
150	0x3db1bdf3	0.08678808
151	0xbef5d34d	-0.48012772
152	0x3e54a126	0.20764598
153	0xbefe231b	-0.49636158
154	0x3db17709	0.08665282
155	0x3dbb7238	0.09152645
156	0xbeb7f985	-0.35932556
157	0x3e8ceddd	0.27525225
158	0xbdcf37f1	-0.10118092
159	0xbe24b71b	-0.16085474
160	0x3f0fde25	0.5619834
161	0x3e7acd58	0.24492395
162	0xbdbbe89a	-0.091752246
163	0x3dada782	0.08479215
164	0xbe52abd4	-0.2057336
165	0x3e5a89bc	0.21341604
166	0xbea83f85	-0.32860962
167	0xbee34759	-0.4439037
168	0x3ee1b8d6	0.4408633
169	0xbee1b9c0	-0.44087029
170	0xbe708a11	-0.23490168
171	0xbe6487af	-0.22317384
172	0xbee862c6	-0.45387858
173	0x3e82f3c0	0.25576591
174	0x3c30d95e	0.010794012
175	0xbee20f35	-0.44152227
176	0x3c733854	0.014844973
177	0xbe1392ec	-0.14411515
178	0xbe4b77aa	-0.19869867
179	0x3df01937	0.11723559
180	0xbf37b8fa	-0.71766627
181	0x3ed0ec35	0.40805212
182	0xbe00fa41	-0.12595464
183	0x3e09669c	0.13418049
184	0xbca096f9	-0.01960324
185	0xbe8e9f38	-0.2785585
186	0xbf21154e	-0.62923133
187	0x3e93fec3	0.28905305
188	0xbe7a50c8	-0.24444878
189	0xbe25a7fc	-0.16177362
190	0x3eb81232	0.35951382
191	0xbe47ce23	-0.19512229
192	0x3f2423e8	0.6411729
193	0xbe898d6b	-0.26865706
194	0xbdf54f2f	-0.11977994
195	0x3da33c54	0.07970491
196	0xbe111dbe	-0.14171502
197	0x3ec3ce61	0.38243392
198	0xbeb11dea	-0.34593135
199	0xbe2aa1d7	-0.166633
200	0x3edb7d36	0.42868966
201	0xbe6a4d06	-0.22880945
202	0xbf09e5e6	-0.5386642
203	0x3c37bc2c	0.011214297
204	0x3dc395cd	0.095500566
205	0xbe194f98	-0.14971769
206	0x3f0ea6ae	0.55723083
207	0xbe811a3a	-0.25215322
208	0xbece438d	-0.40285912
209	0x3e2ec0f5	0.17065795
210	0xbd9c57fc	-0.07633969
211	0x3e8d7a42	0.27632338
212	0xbde6c454	-0.11267915
213	0x3ea2424a	0.316912
214	0xbd5faca4	-0.054608002
215	0xbea473aa	-0.32119495
216	0xbe64a76e	-0.22329494
217	0x3cb34665	0.021884153
218	0xbe85202c	-0.26001108
219	0x3eaa84a9	0.33304337
220	0xbec79102	-0.3897782
221	0xbdbb7c96	-0.09154622
222	0x3d43d949	0.04781464
223	0xbea8b90e	-0.32953686
224	0xbca7646c	-0.020433627
225	0xbde36036	-0.11102335
226	0x3e9722f3	0.29518852
227	0x3ef99c4b	0.48752055
228	0xbe7f9f32	-0.24963072
229	0x3f52af46	0.82298696
230	0x3ef152d7	0.47133514
231	0x3e88c8b4	0.26715624
232	0xbe5238ac	-0.20529431
233	0xbe45947b	-0.19294922
234	0x3e361887	0.17782794
235	0x3e6b0e93	0.22954778
236	0xbe94d656	-0.29069775
237	0xbeaae8a3	-0.33380613
238	0xbe46f3ac	-0.19428891
239	0xbe779d91	-0.241812
240	0xbe841322	-0.25795847
241	0xbd39c293	-0.045351576
242	0xbf4785c2	-0.77938473
243	0xbe887feb	-0.26660094
244	0x3efa797c	0.4892081
245	0x3f080385	0.5313037
246	0x3e09c7ea	0.13455167
247	0xbe543a75	-0.20725425
248	0xbe50accb	-0.20378415
249	0xbe519263	-0.20465998
250	0x3dd9ae0b	0.10628899
251	0x3eaedcec	0.34152925
252	0xbeb2eb30	-0.3494506
253	0xbea43def	-0.32078502
254	0xbcda5260	-0.026650608
255	0xbe243c1a	-0.16038552

embedding_item_mf.weight f4 [3706, 8]
0	0x3ed49cb9	0.4152582
1	0xbc858bcd	-0.016302014
2	0xbdea2f05	-0.114347495
3	0x3e353d42	0.17699149
4	0x3df666c3	0.12031319
5	0x3dc7ceef	0.09756266
6	0x3e943041	0.28943065
7	0x3ec4b30c	0.38417852
8	0xbe1d2e65	-0.1534973
9	0xbee6cf44	-0.45080006
10	0x3d8e1efe	0.06939505
11	0x3bf267cb	0.007397627
12	0x3dc48ff5	0.0959777
13	0xbdaf2681	-0.08552266
14	0xbf122e37	-0.5710177
15	0x3eca4751	0.39507535
16	0x3e1aa56c	0.15102166
17	0xbf537ad4	-0.82609296
18	0x3e6fed9b	0.23430483
19	0x3ef40e2f	0.4766707
20	0xbe82c58b	-0.25541338
21	0xbea0ba4e	-0.3139214
22	0x3e17e0f2	0.14831904
23	0x3e984e69	0.29747322
24	0x3d467db7	0.048459735
25	0x3ea6829f	0.3252153
26	0xbea20e6d	-0.3165163
27	0xbcffd5e0	-0.031229913
28	0xbea78b11	-0.32723287
29	0xbe8f93b1	-0.28042367
30	0x3d58c24e	0.05291968
31	0x3e7377dc	0.23776191
32	0xbe9d4f90	-0.30724764
33	0x3e1ea185	0.15491302
34	0x3e99a07e	0.30005258
35	0x3e46a8bb	0.19400303
36	0xbd078e07	-0.033094432
37	0x3d7c38a3	0.06157745
38	0xbe2644a8	-0.16237128
39	0x3f14a51a	0.58064425
40	0xbda47843	-0.080307506
41	0x3e4fbc96	0.20286784
42	0x3f1d1c96	0.61371744
43	0x3e9194f5	0.28433958
44	0x3ea29ac3	0.317587
45	0x3ec288d1	0.37995008
46	0x3de5ec5a	0.11226721
47	0x3eaad56a	0.33365947
48	0x3e1e4e86	0.15459642
49	0xbe89a588	-0.26884103
50	0xbe63815b	-0.22217314
51	0x3f2a4d0c	0.66523814
52	0xbe9dfeb3	-0.30858383
53	0x3f0a2b42	0.53972256
54	0x3e56bfef	0.20971654
55	0x3e730911	0.23733927
56	0x3e4f69f8	0.20255268
57	0x3dbdfeaa	0.09277089
58	0x3ecc9730	0.39959097
59	0xbe0e36b7	-0.1388806
60	0x3e8dcf9b	0.27697453
61	0x3e6da899	0.23208846
62	0x3ea1af75	0.31579176
63	0x3f591f2b	0.84813184
64	0xbe1ef6f9	-0.155239
65	0xbf5b7e1a	-0.8573929
66	0x3e990866	0.2988922
67	0x3edb28b2	0.42804486
68	0x3ddac9cb	0.1068302
69	0x3bbaceb0	0.0057009086
70	0xbe799478	-0.24373043
71	0x3f8b6f07	1.0893258
72	0x3e5b6021	0.21423389
73	0xbead2a12	-0.3382116
74	0x3e4d1f18	0.20031393
75	0x3f1f39f5	0.6219781
76	0x3e26d93f	0.1629381
77	0x3e1b0c26	0.15141353
78	0x3e3cad65	0.1842552
79	0x3f7b3f0d	0.9814308
80	0xbec2bd7f	-0.380352
81	0xbf009606	-0.5022892
82	0x3e89bf1b	0.26903614
83	0x3f233dca	0.6376616
84	0x3e284e35	0.16436084
85	0xbe7a8aa5	-0.24466951
86	0xbe9fc4d1	-0.31204847
87	0x3f85dd2f	1.0458125
88	0x3eaaccf2	0.33359486
89	0xbf82e622	-1.0226481
90	0x3e0cb229	0.13739838
91	0x3e82a32b	0.25515112
92	0xbf06a6fb	-0.5259854
93	0xbeb37e19	-0.35057142
94	0xbdf7fbdd	-0.12108586
95	0x3ce97932	0.028500173
96	0x3e39d9b6	0.18149456
97	0xbf13ab06	-0.57682836
98	0xbdb158db	-0.08659526
99	0x3ec774e2	0.38956362
100	0xbe99df73	-0.3005329
101	0xbe36c376	-0.17848
102	0x3e83d490	0.2574811
103	0x3f2dd604	0.67904687
104	0x3e0fd236	0.14045033
105	0x3edd6443	0.43240556
106	0x3f66b305	0.9011691
107	0xbc10a078	-0.008827321
108	0x3e8bdf5b	0.27318844
109	0x3ea8c9ca	0.32966453
110	0x3f057486	0.52130926
111	0x3f7fbd90	0.99898624
112	0x3d94cbd7	0.07265442
113	0xbee39f63	-0.4445754
114	0x3e21fd4f	0.15819286
115	0x3d0adcf0	0.03390211
116	0xbe5aeeba	-0.2138013
117	0xbd3b701d	-0.045761216
118	0x3dc63891	0.09678758
119	0x3eeca019	0.46215895
120	0x3e4726bc	0.1944837
121	0x3e818b7a	0.25301725
122	0x3f0c4634	0.5479462
123	0xbe9388bb	-0.28815255
124	0x3e1bbe02	0.15209201
125	0x3e9b4abf	0.30330464
126	0x3ea72b8e	0.32650417
127	0x3f10b065	0.56519157
128	0xbeae93c0	-0.340971
129	0xbef4c232	-0.4780441
130	0xbcff2282	-0.031144384
131	0x3e8ea7cb	0.2786239
132	0xbe203a0c	-0.15647143
133	0xbe07e16d	-0.13269587
134	0xbef5008f	-0.4785199
135	0x3ee2ce92	0.44298226
136	0xbe134311	-0.14381053
137	0xbf28a05a	-0.6586968
138	0x3e0a9468	0.13533175
139	0x3edb44a6	0.42825812
140	0x3a45cdc7	0.0007545617
141	0xbca3af30	-0.019980997
142	0xbe326ca2	-0.17424253
143	0x3f86420a	1.0488904
144	0x3cac7667	0.021052552
145	0x3da95486	0.08268075
146	0x3d98b508	0.07456404
147	0x3ed9b625	0.42521778
148	0x3e3f3c60	0.18675375
149	0xbf14e5e8	-0.5816331
150	0x3ec32ba4	0.38119233
151	0x3eccd131	0.4000335
152	0xbd213700	-0.039359093
153	0x3d49b078	0.04924056
154	0x3f3e352e	0.74299896
155	0x3dbb190d	0.091356374
156	0x3ea04d1b	0.31308827
157	0x3e990d48	0.29892945
158	0x3ebedf28	0.3727963
159	0x3f2a77b6	0.66588914
160	0xbd15a092	-0.036530085
161	0x3efa2ef5	0.4886395
162	0x3efa7ed6	0.48924893
163	0x3d6c5040	0.05769372
164	0xbd58d327	-0.052935746
165	0xbe1fc6a5	-0.1560312
166	0xbd56d639	-0.052450392
167	0x3ef3a108	0.47583795
168	0x3e665ca3	0.22496276
169	0xbdc7f99b	-0.09764405
170	0x3d95f850	0.073227525
171	0x3e8cb3b7	0.27480862
172	0x3e846126	0.25855368
173	0xbcef3c7c	-0.029203646
174	0xbf4aa537	-0.7915835
175	0x3eb84a36	0.35994118
176	0xbcd5e8cf	-0.026111988
177	0x3e04723a	0.12934199
178	0x3f433ddb	0.7626626
179	0x3e354a0f	0.17704032
180	0x3edbca4d	0.4292778
181	0x3f037a81	0.513588
182	0x3ea7d9ff	0.32783505
183	0x3f207132	0.6267272
184	0x3e4ccb0d	0.19999333
185	0x3e7714f9	0.24129094
186	0xbdebb594	-0.11509243
187	0x3f0c11dc	0.5471475
188	0x3e81bbc8	0.25338578
189	0xbdc8d442	-0.0980611
190	0x3e714963	0.23563151
191	0x3ef4035f	0.47658822
192	0xbe85dc96	-0.26144856
193	0x3df5c0e1	0.11999679
194	0xbda58d2b	-0.08083566
195	0xbd51f102	-0.051255234
196	0xbec7c9a0	-0.39021015
197	0xbecab07a	-0.39587766
198	0x3e8043d6	0.25051755
199	0xbe779b1f	-0.24180268
200	0xbf1b12ee	-0.6057576
201	0xbf3f5934	-0.7474549
202	0x3ddb1166	0.10696678
203	0x3ec30bd0	0.3809495
204	0xbe8e7770	-0.278255
205	0xbed626fe	-0.41826624
206	0xbee08494	-0.4385115
207	0x3ed60c0d	0.4180607
208	0xbe0bd539	-0.13655557
209	0xbe4b41ee	-0.19849369
210	0x3ee0fe72	0.43944126
211	0x3ef1c1dc	0.47218215
212	0x3f0107e3	0.5040266
213	0x3e83efb5	0.2576882
214	0x3e74dbfd	0.23912044
215	0x3f0961c4	0.53664804
216	0xbe80947f	-0.25113294
217	0x3e03bbd3	0.12864618
218	0x3d257dca	0.040403165
219	0x3ea2a60f	0.31767318
220	0xbdadb094	-0.08480945
221	0xbec42172	-0.38306767
222	0x3e9309a2	0.28718287
223	0x3df618fc	0.12016484
224	0x3efa5535	0.48893133
225	0xbe28cda9	-0.16484703
226	0xbef7bff7	-0.48388645
227	0x3d990290	0.07471192
228	0xbe1fa213	-0.1558917
229	0xbf67a60c	-0.9048774
230	0xbee96796	-0.45586842
231	0xbe7365c1	-0.23769285
232	0x3e5732a2	0.21015409
233	0xbd39fbbd	-0.045406092
234	0x3eb8878c	0.36040914
235	0x3e4102c9	0.18848719
236	0x3e88820e	0.26661724
237	0xbd008cd6	-0.03138431
238	0xbf5e6575	-0.8687356
239	0x3e239ddc	0.15978187
240	0xbec7b883	-0.3900796
241	0xbe68011d	-0.22656675
242	0x3e31e78f	0.17373489
243	0x3eb01de2	0.343978
244	0x3dcbb068	0.09945756
245	0xbe19e700	-0.15029526
246	0xbec33c4f	-0.3813195
247	0x3f09937b	0.5374066
248	0x3b464674	0.0030254396
249	0x3e0cd5a8	0.13753378
250	0xbe9a9bf5	-0.3019711
251	0xbeb3718e	-0.35047573
252	0xbe0658c0	-0.13119793
253	0xbf09faf6	-0.5389856
254	0xbb384b42	-0.002812103
255	0x3d7f4a38	0.06232664

fc_layers.0.weight f4 [64, 16]
0	0xbf20c8e1	-0.62806517
1	0xbdfdb3f4	-0.12387839
2	0xbe1f9bb2	-0.15586737
3	0x3eae7fd6	0.34081906
4	0x3c61797f	0.013761877
5	0xbe46cb74	-0.19413549
6	0xbe8427ec	-0.25811708
7	0xbe4e3e3b	-0.20140927
8	0xbd84a267	-0.06476288
9	0x3e07cee8	0.13262522
10	0xbd8afa78	-0.067860544
11	0xbea7d0f6	-0.32776612
12	0xbe694572	-0.22780398
13	0xbef46278	-0.47731376
14	0x3e91ceec	0.2847818
15	0x3e2df484	0.16987807
16	0xbf3de925	-0.74183875
17	0x3de184ac	0.11011633
18	0x3d71fa49	0.05907658
19	0xbea9a034	-0.33130038
20	0xbe921d15	-0.28537813
21	0x3e27af66	0.16375503
22	0xbddb0002	-0.10693361
23	0xbeb82081	-0.359623
24	0xbede8912	-0.4346395
25	0x3d44df91	0.048064772
26	0x3ea7429f	0.32668015
27	0xbdd30716	-0.10304086
28	0x3e479280	0.19489479
29	0xbdeb830d	-0.11499605
30	0xbcc1b3f6	-0.023645382
31	0xbf374073	-0.71582717
32	0x3ee2161a	0.44157487
33	0x3e8e82a1	0.27834037
34	0x3e51b1c6	0.20477971
35	0x3d857712	0.065168515
36	0x3e9d9885	0.30780426
37	0xbd4e176c	-0.050315306
38	0x3e34fd04	0.17674643
39	0x3e8b2946	0.27179927
40	0x3e7b736e	0.24555752
41	0xbdc1bd6b	-0.09459957
42	0xbd6955e9	-0.056966696
43	0xbe17e9eb	-0.14835326
44	0xbd369918	-0.044579595
45	0x3d8ad8fb	0.06779667
46	0x3e6cf0e3	0.23138766
47	0x3e249049	0.16070665
48	0x3eed35e4	0.46330178
49	0x3e109540	0.14119434
50	0x3e0066cf	0.12539218
51	0x3e18d144	0.14923579
52	0xbf8e8dfa	-1.1137078
53	0xbe8172fc	-0.2528304
54	0xbd95dd91	-0.07317651
55	0x3cd98fc4	0.02655781
56	0x3e9eb2b9	0.3099573
57	0x3e6e21d5	0.23255093
58	0x3e9c2b95	0.30502
59	0x3e80c36f	0.25149104
60	0xbdbd562c	-0.092449516
61	0x3e142ab7	0.1446942
62	0xbe5eb1bf	-0.21747492
63	0xbf38cf0d	-0.72190934
64	0x3ea6a210	0.3254552
65	0x3e868d34	0.26279604
66	0x3e4a1eaa	0.1973826
67	0x3db19866	0.08671646
68	0x3e90af43	0.28258714
69	0xbd5c11b5	-0.053727824
70	0x3de04e0f	0.109523885
71	0x3e660a23	0.22464804
72	0x3e7dbd57	0.24779259
73	0xbdc76554	-0.09736124
74	0xbb1b045d	-0.0023653724
75	0xbe4049cd	-0.18778153
76	0xbcea305a	-0.028587509
77	0x3d518650	0.05115348
78	0x3e8d3c4b	0.27585062
79	0x3e14fbab	0.14549129
80	0x3e5f289e	0.21792838
81	0x3e12a6ee	0.14321491
82	0x3e0212b8	0.12702453
83	0x3e87715b	0.2645367
84	0xbf6167ab	-0.8804881
85	0xbe1f33c8	-0.15547097
86	0xbd72a916	-0.059243284
87	0xbe209480	-0.15681648
88	0x3e4ed67d	0.20199008
89	0x3e10d5e6	0.14144096
90	0x3e289b01	0.1646538
91	0x3dd9d4b5	0.10636274
92	0xbde6d907	-0.112718634
93	0xbd280ff9	-0.041030858
94	0xbe392048	-0.1807872
95	0xbf2d21f0	-0.6762991
96	0x1ab789e3	7.5909794e-23
97	0x9a267c1f	-3.442826e-23
98	0x9a183413	-3.147493e-23
99	0x99fe49ed	-2.6292843e-23
100	0x1b1efec0	1.3151768e-22
101	0x1a6a0ee5	4.8402098e-23
102	0x1af89aea	1.0282067e-22
103	0x1b03f0ce	1.0913874e-22
104	0x1ad9b804	9.004639e-23
105	0x994c0773	-1.0548057e-23
106	0x1a94047e	6.121862e-23
107	0x9a962b81	-6.210883e-23
108	0x9aa7ccdd	-6.9400556e-23
109	0x9a205b1e	-3.3160828e-23
110	0x1a9a01f8	6.369609e-23
111	0x9a12a1e8	-3.032288e-23
112	0x09bfe435	4.6196182e-33
113	0x0ac24d63	1.871063e-32
114	0x0abaf8ca	1.8004733e-32
115	0x0af8be3b	2.3953088e-32
116	0x0988315b	3.2787223e-33
117	0x8b0083d1	-2.475107e-32
118	0x0896f221	9.084721e-34
119	0x08a76136	1.0073801e-33
120	0x0a1cb299	7.544717e-33
121	0x0ba59b0e	6.378899e-32
122	0x0bcf5dc5	7.987459e-32
123	0x0c433cb6	1.5040523e-31
124	0x89534445	-2.5430301e-33
125	0x0b25fb96	3.1967116e-32
126	0x8c85174d	-2.0505918e-31
127	0x8b7c2bef	-4.8566487e-32
128	0xba913818	-0.0011079339
129	0x3b12ac41	0.0022380503
130	0x3b11bb81	0.0022237005
131	0xbae064f5	-0.0017119931
132	0x37900447	1.716813e-05
133	0x3a685a9f	0.0008863601
134	0xb93a262e	-0.00017752565
135	0xba0946c2	-0.0005236679
136	0x3a85d37c	0.0010210122
137	0xba565043	-0.0008175412
138	0x3883d038	6.2853505e-05
139	0xba054d8a	-0.00050851016
140	0xb9cb9f56	-0.00038837892
141	0xb96c2fb8	-0.0002252449
142	0x3a2cbab2	0.0006589099
143	0x3bb5876f	0.0055398266
144	0xbf0efc05	-0.558533
145	0x3e40fb71	0.18845917
146	0x3e13651c	0.14394039
147	0xbe408efb	-0.18804543
148	0xbf252997	-0.64516586
149	0x3e14ac12	0.14518765
150	0xbdd9e6c0	-0.10639715
151	0xbec13fec	-0.3774408
152	0xbe01d805	-0.12680061
153	0x3e6109fc	0.21976465
154	0x3e994e33	0.29942474
155	0x3d1679cb	0.036737245
156	0xbc74f6a4	-0.014951382
157	0xbde3f4dd	-0.11130688
158	0xbe303aaf	-0.17209886
159	0xbf582f98	-0.8444762
160	0x3f14df62	0.58153355
161	0x3e0ec612	0.13942745
162	0x3dfdd1a9	0.12393505
163	0xbddacccf	-0.106835954
164	0xbf8aa12b	-1.0830435
165	0xbe4ee125	-0.20203073
166	0xbe4b4c6f	-0.19853376
167	0xbcc04f11	-0.023475202
168	0x3e890f0d	0.26769295
169	0x3e75594d	0.23959847
170	0x3ea9cd06	0.33164233
171	0x3eb67584	0.35636532
172	0xbca826ad	-0.020526255
173	0x3e86b563	0.26310262
174	0xbe85b12a	-0.26111728
175	0xbf353649	-0.7078596
176	0xbdad57cb	-0.08464011
177	0x3ea26be9	0.31722954
178	0x3e8f581e	0.27996916
179	0x3eaaa267	0.33327028
180	0x3e9e829d	0.30959025
181	0xbe759946	-0.2398425
182	0x3d7a7671	0.06114811
183	0x3d9b1308	0.07571989
184	0x3e31abeb	0.17350738
185	0x3e7e808c	0.24853724
186	0xbdc60450	-0.09668791
187	0xbda80860	-0.082047224
188	0xbde2a86a	-0.11067279
189	0xbe2e005c	-0.16992325
190	0x3dd9817f	0.106204025
191	0x3e128ddc	0.14311928
192	0xbed2995b	-0.41132626
193	0x3dd110df	0.10208296
194	0x3d3dabd4	0.046306446
195	0x3f2a3a45	0.6649516
196	0x3cca612d	0.02470454
197	0xbeac14cb	-0.33609614
198	0xbe32c509	-0.17457975
199	0xbd807c4c	-0.06273708
200	0x3c7e16a3	0.015508327
201	0x3e8fba98	0.28072047
202	0xbe777667	-0.2416626
203	0xbe7dbd5c	-0.24779266
204	0xbea822af	-0.3283896
205	0xbf160909	-0.58607537
206	0x3e4c5bf3	0.19956951
207	0x3eb22b0f	0.34798476
208	0x3d0ed8bf	0.034874674
209	0x3d335925	0.043786187
210	0x3d2efcef	0.042721685
211	0xbbe45344	-0.006967934
212	0x3e081c86	0.13292131
213	0x3c25f58b	0.010129343
214	0x3d96536e	0.07340132
215	0x3d9ed8b4	0.077561766
216	0xbd3c7458	-0.04600939
217	0x3c62d9d0	0.013845876
218	0xbc206cf1	-0.009791599
219	0x3d8b6a36	0.068073675
220	0x3d06fb44	0.03295447
221	0x3d2b814d	0.041871358
222	0xbd88a18d	-0.06671438
223	0xbcd6b10d	-0.026207471
224	0xbf411582	-0.75423443
225	0x3e3e5c99	0.1859001
226	0x3e21f274	0.15815145
227	0xbed19c3d	-0.40939513
228	0xbf025770	-0.5091467
229	0x3e44f3b2	0.19233587
230	0xbde30be6	-0.11086254
231	0xbeced47a	-0.40396482
232	0xbeb2a149	-0.34888676
233	0x3e4de7f6	0.20108017
234	0x3ecbef89	0.39831188
235	0xbb821a72	-0.0039704377
236	0x3defa623	0.1170161
237	0xbdb58b79	-0.08864493
238	0xbe063427	-0.13105832
239	0xbf6b4c1f	-0.91913027
240	0xbe3f1745	-0.1866122
241	0x3d9ae46f	0.075631015
242	0x3d78b586	0.06071999
243	0x3e2a49ee	0.16629764
244	0xbf533604	-0.82504296
245	0x3a6dd446	0.0009072464
246	0xbde14dd7	-0.11001175
247	0xbe9a35b1	-0.30119088
248	0x3b7fc3f1	0.0039026702
249	0x3e204194	0.15650016
250	0x3dff2fa6	0.1246026
251	0x3c1efecc	0.009704303
252	0xbdb431e8	-0.08798581
253	0xbe1f7d40	-0.15575123
254	0xbe0cf739	-0.13766183
255	0xbf39f31e	-0.7263659

fc_layers.0.bias f4 [64]
0	0x3e6c1e4e	0.23058435
1	0x3d9b99c5	0.075976886
2	0x3ea4380c	0.3207401
3	0xbec890c2	-0.3917294
4	0x3ea7c0dc	0.32764328
5	0xbe90a29a	-0.28249055
6	0x9c2f42ff	-5.7989233e-22
7	0xa0f23c95	-4.1036484e-19
8	0xbd3d9dee	-0.04629319
9	0xbcecc1d6	-0.028901022
10	0xbedb9af7	-0.42891666
11	0x3eb11442	0.34585768
12	0x3e28f8f3	0.16501217
13	0xbcafcfe9	-0.021461444
14	0x3d11c076	0.035583936
15	0xbe34a3d2	-0.17640617
16	0xbd763440	-0.060108423
17	0x3e8b6348	0.27224183
18	0xbdaf3282	-0.085545555
19	0xbde2dbf1	-0.11077107
20	0xb0aa38ee	-1.2385308e-09
21	0xb7bc6a00	-2.2460707e-05
22	0x3e6e3be3	0.23265032
23	0x3eb3f83e	0.3515033
24	0xbd2f7e6c	-0.042845175
25	0x3ec21e51	0.37913755
26	0x3e9e1c98	0.3088119
27	0x3ebc3e65	0.36766353
28	0x3c35b136	0.011089614
29	0xbd9d78f7	-0.07689088
30	0x3eb1e817	0.34747383
31	0xbeb10608	-0.34574914
32	0xbd6f390a	-0.058404006
33	0x3ebb09b1	0.3653083
34	0xbd1eb7dd	-0.038749564
35	0x3ebb6ffb	0.36608872
36	0x3dcb4068	0.09924394
37	0x9a890842	-5.6675213e-23
38	0xbdea1dcc	-0.114314646
39	0x85b962e6	-1.7433646e-35
40	0xbd3c1ae6	-0.04592409
41	0x3ec108fd	0.3770217
42	0xbd900753	-0.07032647
43	0x3ec00c43	0.37509355
44	0x3ebe89c7	0.3721449
45	0x3ebfbcf5	0.3744885
46	0xbd3aa5e2	-0.045568354
47	0x882f5c0d	-5.277035e-34
48	0xbe842f2c	-0.2581724
49	0xa5b04ba7	-3.0582397e-16
50	0xbdc8fe1b	-0.09814092
51	0x9102a2d7	-1.0305371e-28
52	0x859b4037	-1.4599719e-35
53	0xbaf2f8bc	-0.0018537263
54	0x8ac56b36	-1.9010738e-32
55	0xb312b825	-3.4160752e-08
56	0x3eb0c9e4	0.3452903
57	0xbe25a1ee	-0.16175053
58	0xbdb83512	-0.08994497
59	0xbe3cf680	-0.18453407
60	0x3b5e1b10	0.0033890642
61	0x3ec1dc78	0.37863517
62	0xbc2539a4	-0.010084543
63	0x3e889be7	0.26681444

fc_layers.1.weight f4 [32, 64]
0	0x3e5ebf0d	0.21752568
1	0x3e86c752	0.26323944
2	0x3dfaa41e	0.12238334
3	0x3f2a7ecb	0.6659972
4	0x3dc3d6f6	0.09562485
5	0x3e62c48c	0.22145289
6	0x9b14a618	-1.2295941e-22
7	0x926e400f	-7.5178516e-28
8	0xbad85d53	-0.0016507305
9	0x3e30f44b	0.1728069
10	0x3f56700d	0.83764726
11	0x3e4a545c	0.19758743
12	0x3e7a1a10	0.24424005
13	0x3ce55a00	0.027997017
14	0x3e927305	0.28603378
15	0x3e13878a	0.14407173
16	0x3b130827	0.002243528
17	0x3e4a8a64	0.19779354
18	0xb99a330e	-0.00029411208
19	0x3ea6f096	0.32605428
20	0x1cfd8483	1.6776389e-21
21	0xabeb138e	-1.6703182e-12
22	0x3e677467	0.22602998
23	0x3e18abc7	0.14909278
24	0xb8e4dc4c	-0.00010912921
25	0x3e07083c	0.13186735
26	0x3e43fd7f	0.1913967
27	0x3e0395dc	0.12850136
28	0x3baf4ef8	0.00534999
29	0xbf097e15	-0.5370801
30	0x3e07707a	0.132265
31	0x3eeaf8ac	0.45892847
32	0x3c7b01a5	0.015320216
33	0x3e190647	0.14943801
34	0x3b86a7f9	0.0041093794
35	0x3dddbfcd	0.10827599
36	0x3e802866	0.25030822
37	0x99cae78b	-2.097983e-23
38	0xbc5a0a51	-0.013308124
39	0x81c3f002	-7.197608e-38
40	0xba757281	-0.0009363071
41	0x3e0e356b	0.13887565
42	0xbef1cd8d	-0.47227135
43	0x3e009bd4	0.12559444
44	0x3de417f3	0.111373805
45	0x3e0578cc	0.13034362
46	0xbc0e97bf	-0.008703171
47	0x87a9a83f	-2.552718e-34
48	0xbedccfe5	-0.4312736
49	0xa3506980	-1.1298043e-17
50	0x3a0a48c0	0.0005275123
51	0x101aab65	3.0503182e-29
52	0x855c7a99	-1.0366868e-35
53	0x384b1b6b	4.8424507e-05
54	0x099c6c8c	3.765771e-33
55	0x321958ef	8.925993e-09
56	0x3e5b0e72	0.21392229
57	0xbdce6815	-0.10078446
58	0x3d7678db	0.06017385
59	0xbf0af398	-0.54277945
60	0x3e48e5e8	0.19618952
61	0x3e1c11f2	0.1524122
62	0xb63fbf6f	-2.8572647e-06
63	0x3df438be	0.11924885
64	0x3e7f5157	0.24933372
65	0x3e8b2c51	0.27182248
66	0x3e059f2f	0.13049005
67	0x3f2cffb1	0.67577654
68	0x3de00859	0.10939092
69	0x3e770193	0.24121694
70	0x9afd23e0	-1.04696307e-22
71	0x928c1933	-8.841454e-28
72	0xbaf6c10a	-0.0018825841
73	0x3e5630d4	0.20917064
74	0x3f59796e	0.8495091
75	0x3e5be1a0	0.21472788
76	0x3e95786b	0.29193434
77	0x3cc4563e	0.023966905
78	0x3e8a94a7	0.27066538
79	0x3e1bd0d2	0.15216377
80	0x3ae4a78d	0.0017444954
81	0x3e6f6502	0.23378375
82	0xbbb8917f	-0.005632579
83	0x3eb31a97	0.34981224
84	0x1d59c267	2.8820215e-21
85	0xac502c22	-2.9583076e-12
86	0x3e7f5ade	0.24937007
87	0x3e10a305	0.14124687
88	0xba2e29c0	-0.00066437945
89	0x3e1d9fe6	0.15393028
90	0x3e6a1645	0.22860058
91	0x3e0c3675	0.13692649
92	0x3bce6d21	0.0062996303
93	0xbf0babb9	-0.545589
94	0x3e06b243	0.13153939
95	0x3ef247e3	0.4732047
96	0x3c845742	0.016154889
97	0x3e19dab3	0.15024833
98	0x3b975487	0.0046182307
99	0x3def5eaa	0.116879776
100	0x3e88c3dc	0.2671193
101	0x99d10d6c	-2.1615515e-23
102	0xbc8bf0e8	-0.017082646
103	0x02df72ef	3.2832874e-37
104	0x3952c826	0.00020101722
105	0x3e180bce	0.14848253
106	0xbef803da	-0.48440439
107	0x3e1c7a65	0.15281065
108	0x3df1480e	0.117813215
109	0x3e0b9957	0.13632713
110	0xbc1f9ad0	-0.0097415
111	0x8799d9c3	-2.314887e-34
112	0xbedc9035	-0.4307877
113	0xa36e1b5c	-1.29077994e-17
114	0xba316664	-0.00067672716
115	0x10251216	3.2554445e-29
116	0x855fd6b5	-1.0524845e-35
117	0x3856e761	5.1237064e-05
118	0x09ae4267	4.195142e-33
119	0x3233c0b0	1.0462983e-08
120	0x3e6eec36	0.23332295
121	0xbdc8db9b	-0.098075114
122	0x3d7c3917	0.061577883
123	0xbf09f765	-0.5389312
124	0x3e4f65e0	0.20253706
125	0x3e3657d8	0.17806947
126	0xb63f73cc	-2.852862e-06
127	0x3e06fe4a	0.13182941
128	0x82fa3e94	-3.6770117e-37
129	0x8173cd50	-4.4779356e-38
130	0x8185a8ee	-4.9098886e-38
131	0x8185a0d0	-4.908724e-38
132	0x8185b928	-4.912217e-38
133	0x8185d818	-4.9166563e-38
134	0x8185d723	-4.916519e-38
135	0x0185ace8	4.910459e-38
136	0x8185d922	-4.9168054e-38
137	0x8185e0d8	-4.917912e-38
138	0x8185bc24	-4.912645e-38
139	0x818d8680	-5.198822e-38
140	0x82ac8dce	-2.535452e-37
141	0x8185bc7f	-4.912696e-38
142	0x8185a7a8	-4.909706e-38
143	0x8185b538	-4.911652e-38
144	0x01858973	4.9053714e-38
145	0x82f7e9dc	-3.6427617e-37
146	0x81858664	-4.9049325e-38
147	0x8240debc	-1.4169854e-37
148	0x0185cc4e	4.9149647e-38
149	0x8185b185	-4.911121e-38
150	0x8287fd78	-1.998195e-37
151	0x8185dc37	-4.9172477e-38
152	0x0185877d	4.90509e-38
153	0x81859ed0	-4.908437e-38
154	0x83030d1e	-3.85125e-37
155	0x8185b5e0	-4.911746e-38
156	0x8185d74a	-4.916541e-38
157	0x81859dc0	-4.9082844e-38
158	0x81858d9e	-4.9059695e-38
159	0x8185d770	-4.916562e-38
160	0x0185a023	4.908627e-38
161	0x8185db5f	-4.9171266e-38
162	0x8185d3bd	-4.9160313e-38
163	0x818f3ed0	-5.2620035e-38
164	0x820eefb4	-1.0501304e-37
165	0x01859aeb	4.907878e-38
166	0x0185dda0	4.91745e-38
167	0x81858717	-4.905033e-38
168	0x00347198	4.816196e-39
169	0x819dc890	-5.7960485e-38
170	0x8185ae58	-4.9106655e-38
171	0x81a0ba48	-5.904202e-38
172	0x81ba63a8	-6.846861e-38
173	0x818d7d28	-5.197481e-38
174	0x01859305	4.9067447e-38
175	0x8185d1e6	-4.9157673e-38
176	0x8185bc24	-4.912645e-38
177	0x8185deec	-4.917636e-38
178	0x0185c74a	4.914245e-38
179	0x0185a29a	4.9089806e-38
180	0x81858878	-4.9052307e-38
181	0x81858840	-4.9051993e-38
182	0x0185a2c7	4.909006e-38
183	0x8185c2b4	-4.913587e-38
184	0x817578d0	-4.5086072e-38
185	0x814b3ad0	-3.7327407e-38
186	0x0034df80	4.855622e-39
187	0x802b4a20	-3.975517e-39
188	0x81858dd1	-4.905998e-38
189	0x8185e058	-4.91784e-38
190	0x018f3a10	5.261322e-38
191	0x8185ccde	-4.9150454e-38
192	0x8185d25b	-4.915833e-38
193	0x81859347	-4.9067817e-38
194	0x818b8a14	-5.125867e-38
195	0x81858458	-4.904639e-38
196	0x8186b70d	-4.948649e-38
197	0x8185962f	-4.9071987e-38
198	0x0185b916	4.912207e-38
199	0x01858ef4	4.906161e-38
200	0x0185a563	4.90938e-38
201	0x8185d14a	-4.91568e-38
202	0x8185c53b	-4.9139496e-38
203	0x8185995f	-4.907656e-38
204	0x8185e22e	-4.9181036e-38
205	0x0185a80f	4.9097636e-38
206	0x81859f91	-4.908545e-38
207	0x81858c10	-4.9057464e-38
208	0x8185d604	-4.916358e-38
209	0x8185bc69	-4.912684e-38
210	0x0185d165	4.915695e-38
211	0x0185df9e	4.917736e-38
212	0x8185a08e	-4.908687e-38
213	0x81859152	-4.906501e-38
214	0x819729c0	-5.552855e-38
215	0x818b49c6	-5.1166396e-38
216	0x8185d1f9	-4.915778e-38
217	0x8187d765	-4.9900244e-38
218	0x8185bf7e	-4.913126e-38
219	0x8189a1be	-5.055794e-38
220	0x0185996f	4.907665e-38
221	0x018584e5	4.904718e-38
222	0x818b7f3c	-5.124311e-38
223	0x8185df2d	-4.9176725e-38
224	0x0185a3ba	4.909142e-38
225	0x818b97f0	-5.1278555e-38
226	0x0185967f	4.9072435e-38
227	0x81870716	-4.9601336e-38
228	0x81859e6a	-4.9083797e-38
229	0x01858a19	4.9054644e-38
230	0x8185c0ae	-4.9132966e-38
231	0x8185d3df	-4.9160504e-38
232	0x8185daab	-4.9170257e-38
233	0x818970a2	-5.048747e-38
234	0x0185d979	4.916854e-38
235	0x8187e0a9	-4.991354e-38
236	0x8185cfed	-4.9154843e-38
237	0x8188173d	-4.9991855e-38
238	0x81858936	-4.905337e-38
239	0x0185cd45	4.915103e-38
240	0x0185cb0d	4.914785e-38
241	0x0185c9ea	4.9146216e-38
242	0x8185bbd0	-4.912598e-38
243	0x8185c92b	-4.9145146e-38
244	0x0185aa1e	4.910059e-38
245	0x0185c0f9	4.9133386e-38
246	0x8185beae	-4.9130096e-38
247	0x0185ca3f	4.9146693e-38
248	0x8185d67d	-4.916426e-38
249	0x8185dd57	-4.917409e-38
250	0x81858bb0	-4.9056926e-38
251	0x0185d8bf	4.91675e-38
252	0x8185cb8f	-4.9148576e-38
253	0x818b4e3f	-5.1172814e-38
254	0x8185975c	-4.9073674e-38
255	0x818dbd4c	-5.206685e-38

fc_layers.1.bias f4 [32]
0	0x3d7c926a	0.06166307
1	0x3de49c29	0.11162598
2	0x83035080	-3.858985e-37
3	0x81859ea7	-4.908414e-38
4	0x3d823334	0.063574225
5	0x8185deb4	-4.917605e-38
6	0x8185a475	-4.909247e-38
7	0x8185c5d2	-4.914034e-38
8	0x3e0e4d5f	0.13896702
9	0x818606d6	-4.9233635e-38
10	0x8b51c68e	-4.0401312e-32
11	0x8190c968	-5.318625e-38
12	0x8185a64f	-4.9095125e-38
13	0x81858873	-4.905228e-38
14	0x81859c65	-4.90809e-38
15	0x8185c8db	-4.91447e-38
16	0x3d709260	0.058733344
17	0x8185be42	-4.912949e-38
18	0x3dacbbc8	0.08434254
19	0x8187afe2	-4.984355e-38
20	0x8185aa98	-4.9101274e-38
21	0x8185c7ec	-4.914336e-38
22	0x819ae418	-5.6897964e-38
23	0x870f0314	-1.0759029e-34
24	0x8185a9d8	-4.91002e-38
25	0x837e97b6	-7.4818047e-37
26	0x3eb55cc0	0.35422325
27	0x81ab766c	-6.2985406e-38
28	0x82f22300	-3.5578793e-37
29	0x3df72d6c	0.120692104
30	0x8185ac3f	-4.9103645e-38
31	0xa19b6c05	-1.0531801e-18
