checkpoints/neumf_first_try_Epoch28_HR0.6770_NDCG0.4072.model (torch, 645108 bytes, 13 tensors)

embedding_user_mlp.weight f4 [6040, 8]
000000 0a 9b 5d be c9 5f 0f 3f ee a4 2d 3f 62 72 0d 3f
       -0.21641174 0.5600553 0.6782979 0.5525266
000010 2c 94 e5 be 2f de 5f be 61 46 b9 3c ad 71 0c bf
       -0.4483961 -0.218621 0.022616567 -0.54860955
000020 89 2d 8a be 2b 9c 22 3e bb ba 88 3e 09 10 c3 3d
       -0.26987866 0.15879886 0.26704964 0.09524543
000030 1b b7 4c 3d 26 16 be 3c 38 57 db 3e 1d 7c 44 3e
       0.04997931 0.02320392 0.4283998 0.1918797
000040 9b f6 ba bd dd 54 87 3e ad 60 3f 3f 59 32 4c 3e
       -0.091290675 0.26431933 0.7475689 0.19941081
000050 d4 6f dd bd ea c4 08 bf 80 5d 0c bf e3 d9 06 be
       -0.10812345 -0.53425467 -0.5483017 -0.13169055
000060 74 bd 66 3e 28 67 2b 3f 56 78 69 3f 80 2e d6 3e
       0.22533208 0.6695428 0.91199243 0.41832352
000070 cd e6 4f bf 64 0e 46 bf a6 92 65 bd 4c a9 d3 be
       -0.8121155 -0.7736571 -0.056048058 -0.413401
000080 31 10 c6 be ef 87 c5 3d a6 f8 99 be 01 67 ec 3d
       -0.38684228 0.09645068 -0.30072516 0.11543084
000090 8c 99 14 bf fd 85 c1 bd f1 26 11 bf 84 a0 04 bf
       -0.58046794 -0.09449384 -0.56700045 -0.5180743
0000a0 6f 07 d2 3b a4 61 fa 3c df 1f 1c 3f d2 f0 c4 3e
       0.0064095776 0.030564137 0.6098613 0.3846498
0000b0 06 b7 d6 be ae 60 82 be db 94 42 bf ca 4e a5 be
       -0.4193651 -0.25464386 -0.76008385 -0.32286674
0000c0 1d 28 03 3d be 43 34 3f 10 51 2c 3f 19 6f 58 3f
       0.032020677 0.70415866 0.6731119 0.8454452
0000d0 09 2c c0 be 80 19 12 bf 44 ac e3 be 6c 8e bf be
       -0.37533596 -0.5707016 -0.44467366 -0.37413347
0000e0 c7 3d ba bb 37 b2 46 3d b3 e0 0a 3f 37 f7 df 3d
       -0.005683634 0.048509803 0.54249114 0.10935824
0000f0 8e 40 16 3f bc e7 1e bf ce 80 80 3e 1b 08 5f 3e
       0.5869225 -0.6207235 0.2509827 0.21780436
000100 91 e0 0a be a3 86 c5 3e a9 47 d6 3e ed 83 ef 3e
       -0.13562228 0.38579282 0.41851547 0.4678034
000110 1b a9 05 bf ef c5 dd be db 72 ef be 8e f8 a2 be
       -0.5221116 -0.43315074 -0.46767315 -0.31830257
000120 e6 fb 31 be 99 a9 1a be 9d 90 8d 3d 4e 4e 3b bd
       -0.17381248 -0.15103759 0.069123484 -0.045728974
000130 09 f8 8e be 34 bc f4 3d 9c 2b 9b 3e f5 82 0e 3e
       -0.2792361 0.119499594 0.3030671 0.13917144
000140 d4 ab e5 3d 1f 6c 8a bc f3 1b 54 3e 9e 87 ed 3e
       0.11214414 -0.01689726 0.20713787 0.4639253
000150 f3 27 90 bd da a6 bb be 79 c3 dc 3e 1c 80 85 bc
       -0.0703887 -0.36650735 0.43117884 -0.016296439
000160 5c 08 a8 3d 4e 59 e8 bb 65 45 0e 3d 43 77 22 3f
       0.082047194 -0.007090724 0.03473415 0.6346323
000170 2a 82 9b 3e cf d0 96 bd 9d f7 c7 3d a3 16 46 be
       0.30372745 -0.07364046 0.09764025 -0.19344573
000180 4d 97 b1 3d ae 77 af 3e a3 c1 01 3f 92 6b 03 bd
       0.086714365 0.34270996 0.5068609 -0.03208501
000190 81 80 d9 3d 17 24 07 be c2 27 c5 3e b1 1e bc 3c
       0.10620213 -0.13197361 0.38506895 0.022963854
0001a0 39 2b 0e bf 2f 46 8f be ba 64 e9 3c d4 69 fe 3e
       -0.555347 -0.27983233 0.028490413 0.49690115
0001b0 a1 e8 24 bf 2b 2c b2 be 91 3b ac be 2f 58 cf be
       -0.64417464 -0.34799322 -0.33639196 -0.40496966
0001c0 2b c7 bc be 99 62 3d 3d 14 95 1d 3e a2 46 9b 3d
       -0.36870703 0.04623661 0.153889 0.075818315
0001d0 23 1b 0a bf cd 32 0e bf 5d 5f 01 3e 96 e7 15 3e
       -0.5394766 -0.55546266 0.12634034 0.14639124
0001e0 b6 63 c4 be 9b 6e f1 bd d4 77 e3 be 74 9f 02 3f
       -0.38357323 -0.117886744 -0.4442736 0.51024556
0001f0 60 f1 88 bf f5 32 cd be 56 d8 54 bf dd 90 27 bf
       -1.0698662 -0.4007794 -0.831426 -0.6545542
000200 dd 1b 9d bd 11 c0 36 be e4 39 a3 bd 0e e0 f6 3e
       -0.0767133 -0.17846705 -0.07970026 0.48217815
000210 45 c1 08 bf 2e fc 99 bd 68 15 b6 be c4 fd 44 be
       -0.53419906 -0.075188026 -0.35563207 -0.19237429
000220 af ac 50 3e ee 4b 8b be c3 70 39 3e a2 8e a3 be
       0.20378374 -0.27206367 0.18109421 -0.31944758
000230 06 b9 92 3e 67 c5 96 3e 61 f2 f0 3e c0 0f fc bd
       0.28656787 0.2944748 0.4705992 -0.123076916
000240 68 ef c9 be be 85 f0 3e 61 65 dd bd 8c 58 8c be
       -0.39440465 0.46977037 -0.10810352 -0.27411306
000250 47 b5 14 bf 26 d2 d9 3c 6c d8 7b bb b3 df 6d be
       -0.5808911 0.026589464 -0.0038428558 -0.23229866
000260 96 3f 8b 3c 1d d1 24 3f 8e 2c 99 3e 26 65 10 3e
       0.016998094 0.6438158 0.29916805 0.14101085
000270 3a 2f 2b bf f1 d4 85 3d df 0b 25 bf 65 b4 b2 bd
       -0.66868937 0.06534756 -0.6447124 -0.08725814
000280 20 cf 70 bf 6b 4b 1d be 70 16 6a 3e be 42 62 3e
       -0.9406605 -0.15360801 0.22860122 0.22095773
000290 a9 87 ed bd 2e 80 d3 bd fc 03 81 be 1c 17 e4 3c
       -0.11598141 -0.10327183 -0.25198352 0.02784305
0002a0 23 85 a9 3d 1f ba a6 3d 1a b6 c2 bd c9 86 78 3d
       0.08277347 0.081409685 -0.09507389 0.060675416
0002b0 0b a2 4e 3e d8 7a 85 3e 1a 4b 59 be 3f a6 9e 3e
       0.20179002 0.26070285 -0.21220055 0.3098621
0002c0 98 af 8a bc a4 02 17 be a0 de ba be 4f 9e 81 3d
       -0.016929433 -0.14747101 -0.36497974 0.06329023
0002d0 f5 e2 c8 be 8b 04 fa bd 01 77 df be bf c0 01 be
       -0.39235654 -0.12207898 -0.4364548 -0.12671183
0002e0 5a c4 10 bf 1a b5 ab bd cc b2 87 3c 5c 91 b8 bd
       -0.5654961 -0.08384152 0.01656475 -0.090121
0002f0 2d 75 ed bd 93 a1 9b bc a5 90 66 be 3e 3e 38 be
       -0.11594615 -0.018997943 -0.22516115 -0.17992494
000300 7f 8f 0e bf 5c 21 d0 be 83 e1 9d 3d a6 47 11 3f
       -0.5568771 -0.4065045 0.077090286 0.5674995
000310 90 3d b5 be bf 2a f1 bd 5c a1 99 3c ac a5 4a bf
       -0.3539853 -0.11775731 0.0187537 -0.79159045
000320 89 29 cd 3e 03 77 e2 bc 00 84 1b 3d d1 6f 23 bd
       0.4007075 -0.02764464 0.037967682 -0.03990156
000330 39 b6 a4 3e 66 7b 31 3e 06 db ac bd 06 49 1b 3f
       0.32170275 0.17332229 -0.08440213 0.606583
000340 76 40 4a bd ce 32 ae 3e db 60 ab 3d 65 c9 bf 3e
       -0.04937788 0.34023136 0.08368083 0.3745834
000350 37 72 19 bf 26 d3 74 be 9d 33 f0 be 5e 5b 47 3e
       -0.59939903 -0.23908672 -0.46914378 0.19468448
000360 10 49 cc 3e f3 84 f1 3b b6 29 b2 be b1 24 01 3f
       0.39899492 0.007370585 -0.34797448 0.5044661
000370 55 11 25 bf 1a 2b 9f be 00 55 a4 be ee e1 91 be
       -0.6447957 -0.3108757 -0.320961 -0.28492683
000380 d7 26 0a be fb f3 1a 3f 90 8c 39 3f bc 65 b1 3e
       -0.13491379 0.60528535 0.72480106 0.3464793
000390 c2 58 55 3e 4b 47 db 3e 58 c1 76 bd 33 b3 b9 be
       0.2083464 0.4282783 -0.06024298 -0.3626953
0003a0 58 ee 3e 3d 60 86 6b 3e fc be 10 3f 99 d1 80 3e
       0.04661402 0.23000479 0.5654142 0.2515991
0003b0 cd 63 d9 be e8 a5 c3 be ae 7b 13 be 15 7d 61 bf
       -0.42458954 -0.38212514 -0.14402649 -0.88081485
0003c0 30 ae cb bd ec 05 71 3e 93 41 2c be 9e 88 19 3f
       -0.09945333 0.23537415 -0.1682189 0.59974086
0003d0 18 48 5b be 2e 16 27 bf 35 67 60 bf 7f 79 b1 3c
       -0.2141422 -0.6526822 -0.8765748 0.02166438
0003e0 90 02 fc 3d b0 55 5a 3e ce 23 0e 3e 1e 32 d4 3e
       0.12305176 0.2132175 0.13880846 0.41444486
0003f0 81 8d 4e bf 64 ae 5c bd 75 83 a7 bd 2c a5 af be
       -0.8068467 -0.05387725 -0.0817937 -0.34305704

embedding_item_mlp.weight f4 [3706, 8]
000000 17 df 7b bf 75 2f a8 bf 8c 62 bf be 89 08 c2 3f
       -0.98387283 -1.3139483 -0.37379873 1.5158855
000010 cf 91 a1 3f 2b 7a a2 3f 1d 4a 4e bf dd 36 15 3e
       1.2622622 1.2693533 -0.8058184 0.1457171
000020 48 0e 37 bf 0b e0 d2 be 7c 1f 59 be 2e ae ba bb
       -0.71506166 -0.41186556 -0.21203417 -0.0056970334
000030 ca 90 a5 3d 0a 81 8f be 8f 1e 3f be d5 c4 b0 3e
       0.08084257 -0.28028136 -0.18664001 0.3452517
000040 a4 ca 85 be 16 8c f9 3d a5 1a e5 be ef 2a 62 3c
       -0.26131165 0.121849224 -0.4474689 0.0138041815
000050 75 aa 71 3e b7 ba ef 3e 0c 36 6d bd 78 4d ff 3d
       0.2360018 0.4682214 -0.05791287 0.12465948
000060 85 da 2c bf 57 ba 5a bf 8d 9d 1d bf 6c 77 1a 3f
       -0.67520934 -0.8544058 -0.6156853 0.60338473
000070 83 d1 6a 3e b3 a6 99 3f 3b 2c 61 bf 0b d4 3c 3f
       0.22931485 1.2003998 -0.87958115 0.7376105
000080 4e ad ef be 29 33 a5 bf 2e 89 78 bf 98 0d 00 3f
       -0.46811908 -1.2906238 -0.9708432 0.5002074
000090 6d f2 c6 3e c2 86 02 3f 68 f0 6c be 6d 12 85 3f
       0.3885683 0.50986874 -0.23138583 1.0396248
0000a0 d1 aa 4d bf 28 f1 39 bf 67 7b b5 be 69 bd bd be
       -0.8033877 -0.726336 -0.3544571 -0.3705857
0000b0 8c d3 ea 3e d0 38 93 3f fd 79 1d be 3c ff e5 3e
       0.45864522 1.1501713 -0.15378566 0.4492129
0000c0 e6 6e 7b be 4c 6e 0e be d8 d4 33 bd 86 6d 60 be
       -0.24554023 -0.13909262 -0.043904155 -0.2191678
0000d0 40 2c 71 3d 25 fd ce 3d 84 f0 ba 3d f1 ff d3 bd
       0.05888009 0.10106877 0.09127906 -0.10351551
0000e0 5b c8 2c be 42 94 fc be 1a e8 25 3d 9b 9f 79 be
       -0.16873305 -0.49331862 0.040504552 -0.24377291
0000f0 29 9c 08 3f 90 3f da 3e 8c 6f 60 3d 43 cd 74 3d
       0.5336328 0.4262662 0.05479388 0.059766065
000100 58 ff 6e bd 69 ac 72 3e 66 12 a2 be b1 76 99 be
       -0.058348984 0.23698582 -0.31654662 -0.29973367
000110 d4 b8 9f 3c db 42 3b be 01 6d 36 be 3a ab 36 3e
       0.019497313 -0.18287222 -0.17815019 0.17838755
000120 81 3e e6 be c4 38 55 3d a2 60 c9 be a5 42 d2 3e
       -0.44969562 0.05205609 -0.39331537 0.4106647
000130 6d 8e c3 3d be 27 37 3f 3f 9d 28 be f5 3b 0b bc
       0.0954865 0.71545017 -0.16466235 -0.008498182
000140 6a ca 5a be 3d c4 00 be 5f a1 8f be bf 2e b2 bd
       -0.21366277 -0.12574859 -0.28052804 -0.08700322
000150 6a 77 1f 3e fd 81 ce 3d cc 25 90 be bd c3 21 3e
       0.15572897 0.10083387 -0.28153837 0.15797324
000160 47 0d f1 bd ce 16 90 3e cc 7f e8 bc 94 f0 91 3c
       -0.117701106 0.281424 -0.02838125 0.017814912
000170 36 e3 3d 3e d8 3c 95 be 5e 1d 97 bd 27 49 1e 3e
       0.18543705 -0.29147983 -0.07378648 0.15457593
000180 24 74 0f 3d 2a 56 85 3e 84 8f b1 3b 5f a0 99 3c
       0.03502287 0.260423 0.0054187197 0.018753229
000190 f0 03 c1 be a0 0a b0 3d 2a d0 e4 3d 00 9f f9 bc
       -0.37698317 0.085957766 0.11172517 -0.030471325
0001a0 cd c6 aa 3e 28 ee 39 3b 7e 41 45 be 4d 33 90 be
       0.33354798 0.0028370712 -0.19263265 -0.2816414
0001b0 29 88 91 be 74 55 5c 3e f2 ed b8 3d 0e 96 d8 3d
       -0.28424194 0.21516973 0.090297595 0.10575496
0001c0 eb e7 49 bf 8d 8b af bd 8d 79 f9 be c9 2b 43 3e
       -0.78869504 -0.08571539 -0.48725548 0.19059671
0001d0 b7 e6 56 3e e6 77 a5 bc 76 af 09 bf 4e 83 c8 3e
       0.20986448 -0.020198774 -0.5378336 0.39162678
0001e0 ed a2 53 bf 25 57 a1 be 31 22 f4 be 06 5c 46 3e
       -0.8267048 -0.31511799 -0.47682336 0.19371042
0001f0 89 ef c3 bd a5 ea 79 3d 96 ef bf be 0b a0 91 3e
       -0.09567172 0.06101479 -0.37487477 0.28442416
000200 5e 5f 0c 3f 22 18 5c bf 13 6b 88 be 0c 45 11 bf
       0.5483302 -0.85974324 -0.2664419 -0.5674598
000210 7d 89 e6 3e 5f 92 00 3e 2b 6c e7 3c 18 de cc 3e
       0.4502677 0.12555836 0.02824982 0.40013194
000220 a2 44 bf 3d 6c 19 0f 3d dc 4e d6 be 67 41 ac be
       0.093392625 0.034936354 -0.4185704 -0.33643648
000230 f0 6f a9 3e da da 97 be d0 b9 84 3e a7 4a 30 be
       0.33093214 -0.29659158 0.25923014 -0.17215978
000240 21 69 9a be e5 ca da bd 77 76 4d 3e e1 c6 8a 3d
       -0.30158332 -0.1068323 0.20064722 0.067762144
000250 18 af 10 3d d2 65 a9 bd 8a 8f 62 3e f0 f9 d1 be
       0.035323232 -0.08271374 0.22125068 -0.41011
000260 2d 0c 4b be 7f ca 5a be 43 58 62 be 2e d2 44 be
       -0.19828863 -0.21366309 -0.22103982 -0.19220802
000270 79 52 98 bd ca 28 f5 3e 74 aa 03 be a7 36 a2 bd
       -0.074376054 0.47882682 -0.12857991 -0.0792058
000280 f5 0c b5 be ad fe 67 3e 90 be f7 3d c9 0d bc 3e
       -0.35361448 0.22655745 0.12096894 0.36729267
000290 d4 1a 9b 3e a5 f5 97 3e 72 23 d9 be 13 3b 33 3e
       0.30293906 0.296796 -0.42409855 0.17503004
0002a0 de cc 7f 3e 41 76 0e bf 35 64 24 3e 9c db e4 be
       0.24980494 -0.5564919 0.16053851 -0.446988
0002b0 c0 ad b4 3e 8e 4b 93 3e 6c 27 12 3f b1 de c9 3d
       0.3528881 0.2876858 0.57091403 0.09856928
0002c0 21 4e 6c be d1 69 30 bf e7 fc 29 bf fb 9c 45 3f
       -0.23076679 -0.68911463 -0.66401523 0.7719266
0002d0 25 52 e3 3e f8 cd 34 3f fb 53 3e bf 4f 8c 86 3e
       0.4439861 0.70626783 -0.74346894 0.26278922
0002e0 2c d1 5a bf 06 bf a2 bf ca f7 34 bf 69 9a 8b 3f
       -0.8547542 -1.2714546 -0.70690596 1.0906497
0002f0 28 b0 87 3f e3 f5 2c 3f 8d 50 23 bf d1 4d a0 3d
       1.0600634 0.67562693 -0.63794786 0.07827342
000300 4c 9a c6 bc 1d bc 8f be 6e c2 b9 3e 29 2b b2 bc
       -0.024243496 -0.28073207 0.3628115 -0.021749096
000310 56 03 8c 3b 66 7d ae 3e 89 cc 85 bd 7a 40 64 3e
       0.0042728586 0.34080046 -0.065331526 0.22290221
000320 c5 f6 a0 bd 08 10 f5 3b 52 26 8e bc 43 45 a3 be
       -0.078595676 0.0074787177 -0.017352257 -0.3188878
000330 e0 b0 2b 3d d8 25 65 be 94 dd b2 3e 06 64 4c 3c
       0.041916728 -0.22377717 0.34934676 0.012475019
000340 d9 bb e0 be c3 09 75 bf 8c 18 05 bf 2e b4 27 3f
       -0.43893316 -0.9571802 -0.5199058 0.6550931
000350 46 b1 e3 3e 64 aa 27 3f 4b 69 f6 be e3 97 95 3e
       0.44471186 0.6549437 -0.48127207 0.29217443
000360 2f 38 3b bf 2d d8 17 bf 08 76 d6 be 4e 85 3a 3f
       -0.73132604 -0.59314233 -0.41886926 0.72859657
000370 1c e9 97 3f 8c 98 81 3f 62 01 39 bf 65 43 86 bc
       1.1868014 1.0124679 -0.72267735 -0.016389558
000380 c0 1e 92 3e 88 ea bd be 00 aa d6 3e dc 0d 15 bf
       0.28539085 -0.37092996 0.41926575 -0.5822427
000390 2b cd 45 be 2e 73 3b 3e f4 5e ba 3e f0 f0 51 be
       -0.19316547 0.18305656 0.36400568 -0.20502067
0003a0 09 6b 65 3e 82 88 0d bf ec fb 46 3e fc a2 90 be
       0.22404112 -0.5528642 0.19432038 -0.28249347
0003b0 90 6f 6b 3f 1c 92 a8 3e 7e c5 92 3d ec 70 cd 3e
       0.91967106 0.32923973 0.07166575 0.40125215
0003c0 52 a9 96 3c a3 ae a8 be 3e fc 7b be b9 60 8a 3d
       0.018391285 -0.32945737 -0.24607942 0.0675673
0003d0 32 95 78 3e bd 73 59 bd 07 f6 02 3e a8 2c 0f be
       0.24275663 -0.053088892 0.12789164 -0.13981879
0003e0 3e 2c 05 be 40 78 45 bf da 3d 4c 3e 22 35 0a 3f
       -0.13005158 -0.7713661 0.1994547 0.53987324
0003f0 05 d1 81 3d 50 84 8c 3f ac d0 8a bd d4 77 b7 bd
       0.063386954 1.0977879 -0.06778082 -0.08958402

embedding_user_mf.weight f4 [6040, 8]
000000 8c 61 ae bd 9a 1c e4 3d 83 4f 59 be 75 4f 07 3f
       -0.08514699 0.11138268 -0.21221738 0.52855617
000010 ca d4 b6 bd ab 11 06 bf 40 e9 14 3d b1 86 9e bf
       -0.08927305 -0.5237071 0.036355257 -1.2384855
000020 b6 3a 0f bc 6b e6 e0 be 1b ba cd 3c e6 05 a2 3f
       -0.008742025 -0.43925795 0.025113156 1.265805
000030 13 b2 e8 3d 8f b3 c6 3d a4 7b c3 3e 6b 07 84 3d
       0.1136209 0.09702217 0.38180268 0.06446727
000040 de 69 fc 3e 2c 77 3c bf 59 d0 e7 bd 2a 0a 3e 3b
       0.4929952 -0.7361934 -0.11319036 0.0028997757
000050 f9 6d 10 3e 42 4b 55 3f b6 cd aa 3e 4d 93 4a bf
       0.14104451 0.8331796 0.3336007 -0.79131013
000060 85 dd 26 be 94 a8 2c be ac 04 01 3f 6a 2c 45 3f
       -0.1629544 -0.16861182 0.50397754 0.77020895
000070 e3 33 f5 be 58 07 6e 3f d2 d6 ea 3e 84 b2 ea be
       -0.4789115 0.92979956 0.4586702 -0.45839322
000080 6b 57 04 3d d2 36 e1 be 9b 11 7b bd a2 dd ca 3e
       0.03230993 -0.43987137 -0.061296087 0.39622217
000090 6d 1e 79 bf 44 94 0f bf db c0 e7 be 05 fb 98 3d
       -0.9731205 -0.5608561 -0.45264325 0.07469753
0000a0 4d a7 b3 3e 36 0e 0b 3e 5d 80 11 bf 8a c6 f1 3e
       0.35088578 0.1357964 -0.5683649 0.47221786
0000b0 c9 67 45 3f 33 56 8c bd 25 0d cf 3e 8d 2d 96 be
       0.7711149 -0.06852379 0.40439716 -0.29331627
0000c0 05 7a 45 3f d4 f1 46 bf d6 bb 19 3f fd 9d 15 3f
       0.7713931 -0.7771275 0.6005224 0.58444196
0000d0 56 27 09 bf 72 e5 38 3f 10 c3 95 3e b0 10 ed be
       -0.53575647 0.72225106 0.29250383 -0.46301794
0000e0 d0 7e 06 3f a4 cc 38 bf 4b 30 9f 3e b5 9e 7e 3f
       0.5253725 -0.72187257 0.31091532 0.9946092
0000f0 48 50 40 bf fd 20 52 bf 87 2c 20 be 41 bb 18 bd
       -0.751225 -0.82081586 -0.15641986 -0.037287954
000100 b8 e7 8e 3e a1 f7 a0 bf fc dc a2 3e a4 ff 50 3f
       0.27911162 -1.257557 0.31809223 0.81640077
000110 4d c7 97 be d8 d2 df be 37 c9 eb be 98 38 57 bf
       -0.29644242 -0.4371555 -0.46051952 -0.8407073
000120 05 8f 76 3e b9 04 ab 3e 59 ba 37 bf 22 fd ed 3e
       0.24077995 0.3340204 -0.7176872 0.46482188
000130 03 ea f4 3d bb b2 99 3e 69 a6 5c bd 59 e8 37 bf
       0.11958697 0.30019173 -0.05386964 -0.7183891
000140 0a 73 97 3c 4f 52 33 bf 9b 95 fa be c5 53 ac be
       0.018487472 -0.7004747 -0.48942265 -0.3365766
000150 b9 d5 a0 be 21 94 f0 be c0 9c 0d bd c0 52 27 bf
       -0.31413057 -0.46988013 -0.034573317 -0.6536064
000160 3b c4 a2 be af 8d 08 bf 95 4a 50 3e e8 a6 86 3c
       -0.31790337 -0.5334119 0.20340951 0.016437009
000170 d7 6e 7d bd cb 5b 0c 3f 42 6d 49 be 7d 2a 28 bf
       -0.061873283 0.54827565 -0.19670585 -0.6568983
000180 70 d6 da 3e 9c eb 96 3d 33 f4 b0 be f2 55 9d 3f
       0.42741728 0.07369158 -0.3456131 1.2291853
000190 91 9d 05 be 8b b5 13 3f 9a 4d 03 3d 74 98 84 3e
       -0.13048388 0.5769889 0.03205643 0.25897563
0001a0 d6 9f 94 be 8b 0a 1d be 51 2b c8 3d a6 6a 88 be
       -0.29028195 -0.15336053 0.09773887 -0.26643866
0001b0 38 ed cd be 64 f6 ad 3d 88 12 b3 3e e3 f5 b7 be
       -0.40220046 0.08494261 0.34975076 -0.35929784
0001c0 49 fe 3d 3f b5 7b 61 bf 33 7a b9 3e 41 e9 ce 3e
       0.74216133 -0.88079387 0.36226043 0.40412334
0001d0 3c ed 93 3a 6b cb 51 be d2 d1 db 3e aa e1 00 bf
       0.0011285911 -0.20487754 0.42933518 -0.50344336
0001e0 04 26 40 3f ae 71 86 3e 11 63 cc be 35 d2 1a 3e
       0.7505801 0.26258606 -0.39919332 0.1511925
0001f0 b0 ec 8c 3e 15 d3 a6 3b 31 9f 7a 3e c6 32 29 3d
       0.27524328 0.005091081 0.24474789 0.041308187
000200 58 1b 0a 3e f6 18 ed 3c e0 51 6c 3e 3b fb bc 3e
       0.13486993 0.028942566 0.23078108 0.36910424
000210 1e 64 36 bf 80 18 82 3e 9d 09 4c be a9 57 02 3f
       -0.71246517 0.25409317 -0.19925542 0.5091501
000220 50 65 10 3f 0b 4b b8 3c 49 ba 57 be 8f 85 85 3f
       0.5640459 0.02249672 -0.21067156 1.0431384
000230 d8 f6 b2 be 9e 3e 10 3e b9 36 6f be 58 88 db be
       -0.34953952 0.14086387 -0.23360719 -0.4287746
000240 70 7a d2 3e 1e a8 31 3d 95 ed 93 3e 2d 90 0e bd
       0.41109037 0.04337322 0.28892198 -0.034805465
000250 97 36 92 be dc 4f 32 3f 01 89 0f 3e 59 74 42 bf
       -0.28557274 0.69653106 0.14017107 -0.7595878
000260 d8 d5 fb 3e f9 9f 54 bf cd a5 26 3e 6c bd 2c 3e
       0.49186587 -0.830566 0.16274185 0.16869134
000270 80 e5 e4 be 1c 09 0c 3f 19 bd cb 3b fe 72 7d be
       -0.44706345 0.547014 0.0062176106 -0.24750897
000280 1c fe 21 3f c2 8b ca 3d 6f 33 08 be 2d c5 38 3e
       0.63278365 0.09889938 -0.1330087 0.18043967
000290 fb 73 d9 be 55 cd 3b 3e 33 b0 23 bf 28 43 1d bf
       -0.424713 0.18340047 -0.63940734 -0.614306
0002a0 b7 3c 02 3f ff 61 1f bf ae 93 8b be 95 6b 63 be
       0.50873893 -0.62258905 -0.27261108 -0.22209008
0002b0 4c 5b 1c bf 13 6a e1 3e 7f ec ad 3b cd 38 14 bf
       -0.6107681 0.4402624 0.0053077335 -0.5789917
0002c0 38 c3 40 bd c4 db 3c be 1b 2e 83 be aa e2 30 3e
       -0.047061175 -0.18443209 -0.25621113 0.17273965
0002d0 0a 88 82 bf 44 dd 12 3f c4 c7 0e be d7 45 9e 3e
       -1.0197766 0.57368875 -0.13943392 0.3091266
0002e0 e0 8a 11 be ea 1f db be 63 c6 47 bf 24 3c b7 3e
       -0.14213133 -0.42797786 -0.7803709 0.3578807
0002f0 3f 54 86 be 07 44 45 be de d7 af 3e 72 4d 4f be
       -0.2623615 -0.19264232 0.3434438 -0.20244387
000300 eb 41 2c 3f 7c e5 83 be 3a 6e 64 be 30 bb c3 3e
       0.6728808 -0.2576102 -0.22307673 0.3822875
000310 09 88 cd be 1a 1b 09 3f e6 df 17 bf 76 18 84 be
       -0.4014285 0.5355698 -0.59326017 -0.25799912
000320 0d dc 09 3f b5 64 a5 be 90 0e 34 bf 9c f6 8f 3d
       0.53851396 -0.32303396 -0.7033472 0.07029459
000330 e6 1e 10 3e b2 d0 3a be 4d 7b 73 3f e1 a6 96 be
       0.14074287 -0.18243673 0.9511002 -0.29424194
000340 33 44 e4 be dc cc e1 3d 2c 43 54 be 5b a4 fb 3e
       -0.44583282 0.11025402 -0.20728749 0.4914883
000350 9a e9 22 be 66 a7 eb 3e 45 f6 c3 bd e1 0a 0d bf
       -0.15909424 0.46026152 -0.095684566 -0.55094725
000360 30 84 93 be 41 46 f4 3d 86 d9 95 be f2 be da 3e
       -0.2881179 0.11927462 -0.2926752 0.42723805
000370 42 39 10 bf 2b 73 04 be b7 66 a6 bc 12 92 11 bf
       -0.5633737 -0.12934558 -0.02031265 -0.5686351
000380 83 7b 05 3d fd fd b6 be 67 87 1a 3f 14 11 24 3f
       0.032588493 -0.35740653 0.6036286 0.6408856
000390 52 ae 9c be a6 13 9c 3f b2 16 14 3f 2d d3 50 3e
       -0.30601746 1.2193496 0.5784713 0.20393057
0003a0 8d 6f 17 be 9a b4 ae be 46 bc 42 3e 6b c2 02 3f
       -0.14788647 -0.34122163 0.19017133 0.5107791
0003b0 66 f1 0c bf e0 17 22 bf cd 3e 4c be 17 5e bd be
       -0.55055845 -0.6331768 -0.19945832 -0.36985847
0003c0 2e 81 73 be 77 02 02 be b6 b3 89 bf d2 87 a9 be
       -0.23779747 -0.12696253 -1.0757968 -0.33111435
0003d0 c4 b5 40 3f 22 22 4d 3f 7b c9 4f 3e 36 10 8b be
       0.7527735 0.8013021 0.20291702 -0.27160805
0003e0 09 37 5c bd 79 f4 b8 be 64 eb 3d 3d b9 31 f8 3e
       -0.053763423 -0.36124018 0.046367064 0.48475435
0003f0 91 c4 da be a2 e4 e0 be 96 1f 2d 3c 7b b7 88 3b
       -0.42728093 -0.43924433 0.010566613 0.004172263

embedding_item_mf.weight f4 [3706, 8]
000000 d9 2d e8 3e 42 f8 6d bc 73 35 93 bd 3f 42 8d 3e
       0.4534748 -0.014524521 -0.07187929 0.27589604
000010 49 92 5d 3e b0 2b 72 3d 37 f2 c6 3e ac ad d3 3e
       0.21637835 0.059123695 0.3885667 0.4134344
000020 a3 45 58 be 38 89 1b bf 6b 93 2e 3e 55 29 d8 3d
       -0.21120314 -0.60756254 0.17048423 0.105547585
000030 0d 32 78 3e 3f 3c 11 be f2 54 3f bf 49 50 16 3f
       0.24237843 -0.14183138 -0.7473899 0.58716255
000040 26 b6 09 3e cd dd 85 bf 8e b2 9e 3e e2 2e 06 3f
       0.1344839 -1.0458313 0.309956 0.5241529
000050 c6 b1 fa be c6 98 76 be dc 43 09 3e d3 28 94 3e
       -0.48963755 -0.24081716 0.13404793 0.28937396
000060 cf 55 aa 3c 72 77 9e 3e 9d d9 92 be 5a a0 89 bc
       0.02079287 0.30950505 -0.2868165 -0.016800094
000070 d7 2a e3 be 28 66 af be 65 e5 e7 3d e0 af 2c 3e
       -0.44368622 -0.34257627 0.113230504 0.16863966
000080 7e b5 8b be 12 b4 9a 3d bf 16 a3 3e c7 71 76 3d
       -0.27286905 0.07553877 0.3185329 0.0601671
000090 9d 73 dc bd f2 e3 f0 ba 2c ab 84 be d9 d1 21 3f
       -0.10764239 -0.001837848 -0.25911844 0.6321083
0000a0 83 d4 f8 bd f4 60 7c 3e 67 16 3d 3f 34 85 88 3e
       -0.121499084 0.2464636 0.7386231 0.26664126
0000b0 85 af d3 3e 69 f6 e1 3e a5 ed a5 3d ae d5 a6 3e
       0.41344848 0.4413331 0.08101968 0.325849
0000c0 dc 88 88 3e c1 96 c5 be 82 5d a7 be 71 7e 50 3f
       0.26666915 -0.3859158 -0.32688528 0.81442934
0000d0 81 47 d0 be e4 d0 19 3f 06 02 5f 3e e1 75 2e 3e
       -0.40679553 0.60084367 0.21778116 0.17037155
0000e0 74 ec 56 3e a0 bd 2a 3e 02 05 fd 3e 51 9f 90 be
       0.20988637 0.16673899 0.49417883 -0.2824655
0000f0 24 65 ab 3e 6a 1d 6f 3e 37 80 aa 3e 4e b3 69 3f
       0.33475602 0.23351064 0.33300945 0.9128922
000100 1f 4d ea bd 60 b3 8f bf b3 d8 93 3e 88 45 cd 3e
       -0.11440491 -1.1226616 0.28876266 0.4009211
000110 a3 05 16 3d b4 f7 a6 3d 86 32 c1 be 7e 27 ae 3f
       0.03662647 0.08152714 -0.3773386 1.3605802
000120 9e af 58 3e 21 99 f4 be 60 cd 7b 3e f2 0c 48 3f
       0.21160743 -0.47773078 0.24590063 0.7814475
000130 65 b4 4c 3e 45 bd 22 3e b6 0f 43 3e f3 5a 96 3f
       0.1999069 0.15892513 0.19048962 1.1746505
000140 2d 65 df be 76 24 14 bf 4d 0d 81 3e 74 94 23 3f
       -0.43631878 -0.57868135 0.2520546 0.63898396
000150 52 25 2a 3e 77 59 58 be 02 be ab be 4f b6 9a 3f
       0.16615799 -0.21127878 -0.33543402 1.2086886
000160 3b 96 bb 3e 07 4a a6 bf d0 3c b5 3d 5f 32 99 3e
       0.36638054 -1.2991341 0.0884949 0.29921243
000170 88 b1 3f bf 99 44 d6 be 2e ee 78 be 0f 58 88 bd
       -0.74880266 -0.4184921 -0.24309608 -0.06657421
000180 fb a4 a0 3e c7 ba 5e bf 84 18 4c be 7f 00 10 3f
       0.3137587 -0.8700375 -0.19931227 0.56250757
000190 d6 69 09 bf 29 7e 75 be f3 23 84 3e 0e 73 63 3f
       -0.5367712 -0.23973908 0.25808677 0.88847435
0001a0 fe 39 2b 3e 10 04 fb 3e db 15 98 3f a3 97 6b be
       0.16721341 0.49026537 1.188167 -0.23007064
0001b0 42 3c 91 3e 22 fd 9a 3e e9 2b 2f 3f 0c 38 99 3f
       0.28366286 0.3027125 0.68426377 1.1970229
0001c0 ec 38 96 3d d9 bb 25 bf fe a5 80 3e 14 86 98 3e
       0.07335076 -0.6473976 0.25126642 0.29789793
0001d0 cc 1c 56 be 64 88 01 be 19 3f e4 3d f2 71 28 3f
       -0.20909423 -0.12649685 0.111448474 0.65798867
0001e0 f5 63 82 3e 96 b4 98 3e 12 b4 35 3f e7 79 b3 be
       0.25466886 0.29825276 0.7097789 -0.35053942
0001f0 2f 3b 7f 3e c6 48 eb 3e 4f af ed 3e 7b 57 30 3f
       0.2492492 0.4595396 0.46422812 0.68883485
000200 5d 5c a9 be 1d 3e f3 be 6e f5 f4 3b d9 e0 9a 3e
       -0.3307828 -0.47508326 0.0074755466 0.3024967
000210 c3 6a 29 be 3c 17 e3 bd 78 a9 00 bf 43 08 20 3f
       -0.16544633 -0.11088416 -0.5025859 0.62512606
000220 81 f5 8f bd bc 6f 6b bf 94 cc d2 3d 87 0d ba 3e
       -0.07029248 -0.9196737 0.102929264 0.36338446
000230 4b f4 3e bd dc e0 d4 3c 48 69 98 be 8a 16 a5 3f
       -0.046619695 0.025986128 -0.29767823 1.2897503
000240 ef 31 79 3d 3e 10 89 3c 62 68 db 3d d5 95 11 3f
       0.060838636 0.016731378 0.10713269 0.5686925
000250 5b 22 7c 3e ff 79 39 bf bd b1 f0 3e 6e 00 cd 3e
       0.2462248 -0.72451776 0.47010604 0.4003939
000260 b2 57 c3 bd af 07 6c 3b 0d d9 75 3f a9 7b 87 3c
       -0.09538211 0.0036015322 0.9603432 0.016538458
000270 2b 0a cb 3e 4c 42 a0 3e 02 76 f2 3e fa 8e 19 3f
       0.39656195 0.3130058 0.47355658 0.5998379
000280 fc 6f 2a bd dd 18 09 3f 2c 49 11 3f 66 bf 30 bd
       -0.041610703 0.53553563 0.56752276 -0.04315128
000290 0b ae 2a be 66 4f 57 be da 1a e9 bd 6c 07 19 3f
       -0.16667955 -0.21026382 -0.11382075 0.5977695
0002a0 e1 c5 87 3e 92 01 08 be 7e a8 87 3d 3e 03 8f 3e
       0.26518157 -0.13281849 0.06623934 0.2793216
0002b0 76 3e 8a 3e 5e dd d4 bc c6 4f 84 bf f5 dd d6 3e
       0.2700078 -0.025984462 -1.0336845 0.41966215
0002c0 7a 19 de bd b8 84 06 3e 2f b4 77 3f 6c 8b 6d 3e
       -0.10844703 0.13136566 0.96759313 0.23197716
0002d0 79 a5 12 3f 19 f2 00 3f d3 ec ea 3e 39 42 26 3f
       0.5728374 0.5036941 0.45883808 0.649448
0002e0 8a d9 3e 3e 1e 8b 8c 3e 6a 70 54 be 8e 1e 2f 3f
       0.18637672 0.27449888 -0.20746008 0.68406
0002f0 57 12 de 3e a5 17 2c be c7 83 a0 3e fe c6 09 3f
       0.43373367 -0.16805895 0.31350538 0.53819263
000300 a6 f5 a9 be 09 27 06 3e 5a c2 4d bd 22 75 fd bd
       -0.33195227 0.13100828 -0.050234176 -0.12375857
000310 47 f5 00 bf 12 d6 f4 be 37 47 ab 3e 9e 84 af be
       -0.50374264 -0.47819573 0.3345277 -0.34280866
000320 4d d1 1b bf f5 7d 66 bf ab 25 1f 3e 0d 7d c0 3e
       -0.6086624 -0.90035945 0.15541713 0.37595406
000330 98 ac af be fe 1b e1 be 36 78 0d bf 02 70 0a 3f
       -0.34311366 -0.4396667 -0.5526155 0.5407716
000340 00 3a fc bd 1f e4 a5 be c4 60 18 3f 4c ca 10 3f
       -0.1231575 -0.32400605 0.5952265 0.5655868
000350 4c b1 3e 3f 21 ed 4a 3e 41 38 c9 3e 64 f8 21 3f
       0.74489284 0.1981702 0.3930073 0.6326964
000360 3a 6d 9d be 7c 31 3c 3e 7f aa c9 3d 3a ec f4 3e
       -0.30747396 0.18378252 0.09846973 0.47836477
000370 f8 7f c5 3b d0 3e ed be f2 72 a7 3e 70 d0 60 3e
       0.006027218 -0.46336985 0.32704884 0.21954513
000380 3a 55 09 3f 0a 46 9e be 23 ab 2d bf 1e a0 9d 3b
       0.5364567 -0.3091281 -0.6783926 0.004810347
000390 fe 0b a0 be f4 c3 86 bf 9d 1c 1b bf 82 a3 8c be
       -0.3125915 -1.052855 -0.60590535 -0.27468497
0003a0 c5 bc 81 3e 80 74 8d 3d c4 5a d7 3e 3c 79 65 3e
       0.25339332 0.06906986 0.42061436 0.22409528
0003b0 6a b2 95 3e 7b 81 84 3d b0 0d 77 bf 94 b2 a4 3e
       0.29237682 0.06470009 -0.9650526 0.32167494
0003c0 c4 e7 db be 14 67 91 be b5 dd 54 3e 42 8a 9a 3e
       -0.4295026 -0.28398955 0.207877 0.30183607
0003d0 d3 9b e0 3c d2 5b 27 be 3b 12 e7 be a2 23 10 3f
       0.027418053 -0.1634362 -0.45131096 0.5630437
0003e0 fe 7c c6 bc 08 23 f6 3d a4 26 cd be df 34 d5 be
       -0.024229523 0.120184004 -0.40068543 -0.416419
0003f0 eb b4 0a be ee e5 32 bf 0b d4 46 3d 33 40 cd bc
       -0.13545577 -0.69882095 0.048542064 -0.025055027

fc_layers.0.weight f4 [64, 16]
000000 14 db 94 be 9f 92 dc be 51 60 00 be a9 5f e9 3e
       -0.29073393 -0.43080613 -0.12536742 0.45580795
000010 42 3e dd 3d 52 0e 37 bf 29 7e 3c bf 29 d9 b9 be
       0.1080289 -0.71506226 -0.73630005 -0.36298493
000020 28 97 56 bd eb f2 79 bc 1f b2 98 3e 4b f1 92 be
       -0.052390248 -0.01525567 0.29823396 -0.28699717
000030 6d 81 22 bf c9 53 07 bf f2 37 60 3e 1f de 81 3e
       -0.6347874 -0.5286222 0.21896341 0.25364777
000040 ad 4e 52 bf 02 61 a5 3e 7c de ec bc 87 55 be be
       -0.821513 0.32300574 -0.028914683 -0.37174627
000050 76 f2 a2 be c7 d2 65 3e 4b 2c 0e 3d db 2b aa be
       -0.31825608 0.22443686 0.03471021 -0.33236584
000060 b0 82 06 bf ad 8d 2d 3e b5 d1 b1 3e c6 04 c3 bd
       -0.52543163 0.16948576 0.34730306 -0.09522395
000070 65 77 e8 3e e5 f0 80 3e e2 dd cf 3e 38 fe 4a bf
       0.4540359 0.25183788 0.4059897 -0.7929416
000080 d2 fa f6 3e b2 16 a6 3e 1c 21 88 3e 82 92 4c 3e
       0.48238236 0.3243919 0.2658776 0.19977763
000090 6a 5c 5f 3e 77 dd 07 bf 72 c4 5b 3d 90 36 66 3f
       0.21812597 -0.53072304 0.05365414 0.89927006
0000a0 08 69 48 3f c1 20 5d 3d 77 66 72 3e b8 3f 09 bf
       0.78285265 0.053986315 0.236719 -0.5361285
0000b0 1a 04 96 3f 73 3c e3 3e 6b 26 85 3e 08 00 2b bf
       1.1720002 0.44382057 0.26005873 -0.6679692
0000c0 da 8d 40 3f dd 37 7c 3e d4 6d 4e be 2a 74 20 3e
       0.7521645 0.24630685 -0.20159084 0.15669313
0000d0 84 ef 7f bf a1 d9 e2 be 82 28 af be 35 54 73 bd
       -0.99974847 -0.44306663 -0.34210593 -0.059406478
0000e0 cb 2a 16 3e 27 74 3b 3e fe 51 45 3f ba dd f6 bd
       0.14664762 0.18306027 0.77078235 -0.1205401
0000f0 a0 17 e5 be e4 bc 87 3e 2f 78 a1 be d7 6e aa be
       -0.44744587 0.265113 -0.31537005 -0.3328769
000100 52 77 ee 3e 28 0f d2 3d a7 95 0e 3e cb de a2 bc
       0.4657541 0.10256797 0.13924275 -0.019881627
000110 e6 1c c7 3e bf bd 31 bf c6 94 48 bd 7c 01 86 3e
       0.38889235 -0.69430155 -0.048970006 0.26173007
000120 23 6e 35 3f b1 7d f7 bd 1f 77 b0 bd e1 20 18 bd
       0.7087118 -0.120845206 -0.086164705 -0.03714073
000130 85 42 3d 3e de b2 97 3d d2 ef 76 bd 7f 9b 68 bd
       0.18482406 0.07407163 -0.060287304 -0.056788918
000140 c1 a5 c9 3e 4b b8 42 bc 67 50 4e 3e 8f f0 cd 3e
       0.39384273 -0.011884759 0.20147859 0.40222594
000150 d8 e3 02 bf 57 24 0c bf 81 2a bf be 5a 1a cb bd
       -0.5112891 -0.5474295 -0.37337115 -0.099171355
000160 9b 63 d1 3e 31 b3 81 be 4b df 6a be 90 ab 27 bd
       0.40896305 -0.25332025 -0.22936742 -0.0409351
000170 1b b5 16 bf ef 04 6c be 52 6a ce be 5e d1 ee be
       -0.58870095 -0.23048757 -0.4031549 -0.4664411
000180 48 99 85 3e 34 95 75 be fa 7c b9 be 48 45 13 3f
       0.26093507 -0.23982698 -0.36228162 0.5752759
000190 8b 9f 2e 3e 68 e5 d8 be b3 19 d5 3e 72 aa 1b bf
       0.17053048 -0.42362523 0.4162117 -0.60806954
0001a0 dc 4b 18 bf 89 af 07 3f e7 ef 8a bc b1 d2 a1 be
       -0.5949075 0.5300222 -0.016960097 -0.31606057
0001b0 ca 1a 3d be 6e 0d 96 3c 8b b2 95 be 40 4c b4 3e
       -0.1846725 0.01831695 -0.2923778 0.35214424
0001c0 87 c0 90 8f 5b 77 14 0f 73 a1 5c 0c cd d0 90 8c
       -1.4273655e-29 7.3199504e-30 1.6996768e-31 -2.231238e-31
0001d0 ea a7 0b 0e f3 d0 8a 0f 9e e5 22 07 fb 96 86 0b
       1.721392e-30 1.3688335e-29 1.2255004e-34 5.184209e-32
0001e0 94 bc 4f 91 75 09 80 12 7e 90 08 0f cc 29 b7 10
       -1.6387531e-28 8.080267e-28 6.733146e-30 7.224517e-29
0001f0 09 bb 3e 0d 7c 75 cc 0e 8a 63 a4 11 b5 88 a6 10
       5.8773406e-31 5.0403016e-30 2.5935983e-28 6.5686086e-29
000200 3c 53 31 3e c2 f4 93 3e 61 0e 8c 3e 40 4d ec be
       0.17316908 0.28897673 0.2735472 -0.46152687
000210 9c 3d 0e 3f 8a 94 1c 3d 80 22 65 3e 22 e8 a5 be
       0.5556276 0.038227595 0.22376442 -0.32403666
000220 56 8c a4 be c8 60 7e be bd 34 bd 3e a3 10 cd bd
       -0.32138318 -0.24841607 0.369543 -0.10012939
000230 39 bf 03 3e 5d ae 36 be 5b 98 da bd 60 58 8e be
       0.12865914 -0.17839952 -0.10673591 -0.278018
000240 f1 14 0c bf 63 7d 85 3d 70 0f 04 3f a8 90 d2 3d
       -0.54719454 0.06518056 0.51586056 0.10281497
000250 bf a2 e2 be 97 29 90 3e 5f 48 05 bf 47 4d 4c bf
       -0.4426479 0.2815673 -0.52063555 -0.79805416
000260 84 46 70 be 4a 14 02 3f f1 0e c9 3e 1a e0 58 bd
       -0.234644 0.5081221 0.39269212 -0.052948095
000270 d8 bd 49 be 4e c0 e6 3b b0 b7 1c be eb 32 86 bf
       -0.19701326 0.0070419675 -0.15304446 -1.0484289
000280 3a 2f 47 3f 0d df ae 3d 1e ba 3d 3e 5e ae 08 be
       0.77806437 0.08538637 0.1852803 -0.13347766
000290 86 25 4b bf e2 79 29 bf fa 42 40 bf b1 cd 33 bc
       -0.7935413 -0.66201603 -0.751022 -0.010974334
0002a0 2d 6e c8 3e 9b 02 92 3e 15 4b 2a 3f 8b 7c c4 3e
       0.39146557 0.28517613 0.66520816 0.3837627
0002b0 11 29 20 3c df 91 de 3e 01 0d e3 bc 1c 85 e2 be
       0.009775416 0.43470666 -0.027716162 -0.4424218
0002c0 aa 34 5c 3d 80 8a 65 3e a3 3f aa 3e a6 1c ba 3d
       0.053761162 0.22416115 0.33251676 0.090874955
0002d0 23 09 2d 3e 60 08 28 bf 3b 14 c6 3e 28 29 4d be
       0.16898017 -0.6563778 0.3868731 -0.20035231
0002e0 cf 60 f3 bc 2e d9 f0 3e ef 4f ed 3d 46 a8 d1 be
       -0.029709248 0.47040695 0.11587512 -0.40948695
0002f0 76 d0 8b 3e 8b d5 71 3d da 53 92 3c 80 48 b6 3e
       0.2730748 0.05904154 0.01786225 0.35602188
000300 9d c1 b0 be d1 2b 40 3e a3 96 70 3e 7c fe 13 3f
       -0.34522715 0.18766715 0.23494963 0.5781019
000310 af 76 2d 3e 05 6e 5e be 3c 86 b0 be 34 5a c9 be
       0.16939805 -0.21721657 -0.34477413 -0.39326632
000320 96 ff e0 be 99 bb 9f 3e b1 66 59 3e 56 a2 c7 3d
       -0.43944997 0.31197813 0.2123058 0.0974776
000330 ba a2 a5 be 82 f3 01 bf be eb 6b 3e ad 55 b8 bc
       -0.32350713 -0.5076219 0.23039147 -0.02250179
000340 f1 10 b3 be 44 cc 08 bf 6c 04 ae 3e 68 1b 49 be
       -0.34973863 -0.53436685 0.3398775 -0.19639361
000350 f1 8b 5d 3e be 61 11 bf 9a e5 0c 3f 08 7e 97 3d
       0.21635415 -0.5678977 0.55037844 0.073970854
000360 1c e2 af 3e 34 19 02 3f 17 96 cb be 15 fb eb be
       0.34352195 0.50819707 -0.39762947 -0.46089998
000370 bf cf a9 3e c6 52 af 3e 22 a2 79 be 4c b7 34 3e
       0.3316631 0.3424284 -0.24378255 0.17648047
000380 53 be 54 bf 89 26 59 3d 28 12 bd 3e 97 f2 cb be
       -0.8310291 0.053015266 0.36927915 -0.3983352
000390 fc 85 24 bf 1e a9 69 3e 21 bc 0b be e9 81 ba be
       -0.64266944 0.2281842 -0.13645984 -0.3642724
0003a0 86 5e f5 be 80 82 10 3f b3 9a c4 3d 39 c5 e8 3d
       -0.47923678 0.5644913 0.09599819 0.11365742
0003b0 78 63 dd 3d 42 53 25 3e b1 18 c1 3c b0 a0 a6 bf
       0.10809988 0.16145042 0.023571344 -1.3017788
0003c0 53 f6 9b bc 6b e7 63 3d 8e 43 49 bd a4 1e 01 3f
       -0.019038355 0.05564062 -0.04913669 0.5043738
0003d0 22 b0 f8 be 16 d4 92 3e 02 86 35 3e 3c ca 40 bf
       -0.4857188 0.28677434 0.17726901 -0.75308585
0003e0 0d 8e 15 bf 57 97 60 3e fe f4 ab 3e 30 62 d0 be
       -0.5841988 0.21932732 0.33585352 -0.4069991
0003f0 c6 9d 07 be af 29 38 3c 6e b5 8b bd 39 89 25 bf
       -0.1324378 0.011240407 -0.06821714 -0.6466251

fc_layers.0.bias f4 [64]
000000 f0 d5 63 3e 29 d0 18 3e 20 e8 2e 3e 6f 35 33 bf
       0.2224958 0.14923157 0.17080736 -0.7000341
000010 43 e5 74 3e 11 44 1b bf 90 12 fa be 60 f7 73 9d
       0.23915581 -0.60650736 -0.48842287 -3.2288672e-21
000020 23 cf d5 be 4c ca 3c be 15 47 44 bf b2 9b ac 3e
       -0.41759595 -0.18436545 -0.7667096 0.33712536
000030 18 af b4 bc 89 34 84 be 18 65 29 3e 14 51 d7 be
       -0.022056147 -0.2582133 0.1654247 -0.42054045
000040 c3 67 04 be ee 0b db 3e 98 ba bc be 96 2d d8 be
       -0.12930207 0.4278254 -0.3686111 -0.4222228
000050 76 c5 57 b1 ea f8 45 be 9a 9b 65 3e 48 45 f4 3e
       -3.1398861e-09 -0.19333234 0.22422639 0.47709107
000060 58 5a d4 be f2 02 d6 3e bc 89 fa 3e f8 8e 09 3f
       -0.41475177 0.41799122 0.48933208 0.5373378
000070 6e 5e a6 be a4 a0 93 be 75 4c 0d 3f bd f0 49 bf
       -0.3249392 -0.28833497 0.5519479 -0.7888296
000080 1c 0c 82 be 95 0f 09 3f c4 10 99 be 1b ee e7 3e
       -0.25399864 0.535394 -0.29895604 0.45298848
000090 e1 56 c9 3d 95 45 27 be 94 8c 3d be a6 b7 f3 be
       0.09831024 -0.16335137 -0.18510658 -0.4760105
0000a0 8d 7a c6 be 98 0f 04 3f dd d8 cf be a7 63 fb 3e
       -0.38765374 0.51586294 -0.4059514 0.49099466
0000b0 1a 1a 0e 3f 5c d8 f5 3e 0f 6d 6f be 8f e5 88 be
       0.5550858 0.48016632 -0.23381446 -0.2673764
0000c0 49 e7 b7 be 8f eb 1d bf f5 87 d6 be 42 93 26 bf
       -0.35918644 -0.6168756 -0.41900602 -0.6506845
0000d0 af 30 1f bf fb 0a f3 be 1b 32 93 be 55 3d 8f bd
       -0.6218366 -0.47469315 -0.28749165 -0.0699412
0000e0 10 7e d1 3e 9c d0 07 bf 7d ac b6 be 14 27 e1 be
       0.4091649 -0.5305269 -0.35678473 -0.43975127
0000f0 79 07 0c be 14 33 00 3f dc d8 2b bf ad 29 3b 3e
       -0.13674726 0.5007794 -0.67127776 0.18277617

fc_layers.1.weight f4 [32, 64]
000000 fb f5 b2 3e 2d c6 38 3e 8b 30 62 bd 93 7a 15 3f
       0.34953293 0.18044348 -0.055222075 0.5839016
000010 4f e8 a9 b9 13 6c 13 3e ff 74 11 3f 44 09 64 0e
       -0.00032407275 0.14396696 0.56819147 2.8107631e-30
000020 6f 8b 70 be df ff 2b 3e f4 13 6a 3f bf d5 45 3d
       -0.2349069 0.16796826 0.91436696 0.048299547
000030 94 e7 c8 3d 17 98 32 3f 23 c6 24 3e 7d 9a 02 3d
       0.09809795 0.6976332 0.16091208 0.031885613
000040 81 ff 44 3e 63 da 94 3e c7 6a f1 3b 42 97 f7 3e
       0.19238092 0.29072866 0.007367465 0.48357588
000050 d0 c8 99 22 19 43 5c be 8d fa 1e 3e dd 56 93 3e
       4.168335e-18 -0.2150997 0.15525265 0.2877721
000060 9a 13 2f bf f8 96 dc 3d 58 da a8 3e 86 20 b2 3d
       -0.68389285 0.107709825 0.32979083 0.086976096
000070 14 c6 60 bd bf 9e 15 bf f6 cb f4 3d a9 de 19 3f
       -0.054876402 -0.5844535 0.11952965 0.6010538
000080 16 03 c5 bd e5 8e 35 3e 2a 94 4a be 48 6b 26 3d
       -0.09619729 0.17730291 -0.19783083 0.040629655
000090 a5 52 4a 3e 89 be 0a bd d1 d3 e0 be b1 d1 28 bf
       0.19758089 -0.033873115 -0.43911603 -0.65944964
0000a0 2b e5 a7 3e f8 e4 ac 3d c6 f1 21 bf 7d 88 9d 3d
       0.3279203 0.0844211 -0.6325954 0.07692049
0000b0 d4 29 de 3d 20 53 97 3d 0b 95 32 bf 83 b7 15 3e
       0.10847822 0.07388902 -0.6975867 0.14620785
0000c0 1c 54 fe be e9 e0 44 bf 1a 14 bf be 04 f2 4b bf
       -0.49673545 -0.76905686 -0.37320024 -0.7966616
0000d0 b0 b2 33 bf e6 01 32 bf 9f df 1a 3e 62 50 98 ba
       -0.7019453 -0.69534147 0.15124367 -0.0011620636
0000e0 a6 f9 a9 3d ea 5a 08 bf 6a d1 46 3f d0 db 64 bf
       0.0829957 -0.53263724 0.7766329 -0.8939791
0000f0 c8 85 09 3f 4b e6 e8 3d 22 fa 5d bf 68 1e f6 3e
       0.5371976 0.1137205 -0.867098 0.48070073
000100 a0 fe a0 3e d7 6d 66 3e 9d cf 5a 3b f1 bd 1c 3f
       0.31444263 0.22502838 0.0033387907 0.6122733
000110 a1 2e 3f 3d be d6 64 3e 09 8b 37 3f 01 76 cd 0f
       0.04667533 0.22347543 0.71696526 2.0260014e-29
000120 2c 30 38 be ad 66 81 3e 34 07 6f 3f ac 2d 06 3e
       -0.17987126 0.25273648 0.93370366 0.1310336
000130 78 d1 11 3e 31 f1 55 3f eb 2c 4d 3e 33 1e 1f 3e
       0.14240062 0.83571154 0.20036666 0.15538864
000140 f3 2a 4e 3e 81 1f 8b 3e 96 ad ae bd 54 d6 0e 3f
       0.20133571 0.27172473 -0.08529203 0.5579579
000150 0a 14 89 24 c0 37 7b be 39 c3 45 3e 26 20 5c 3e
       5.9448227e-17 -0.24532986 0.19312753 0.21496639
000160 21 6f 2e bf 6c e5 fe 3d 4b 06 a7 3e 86 b6 bb 3d
       -0.6813832 0.124461025 0.3262199 0.09165673
000170 5b 17 d6 bd c9 8f 17 bf 71 e7 cd 3d e7 7f 21 3f
       -0.104536735 -0.59203774 0.100539096 0.6308579
000180 ed 0f ac 3b 28 47 13 3e 80 3e 48 be dc b5 73 3d
       0.005250922 0.14382613 -0.19555092 0.059499606
000190 32 6b 51 3e 8a 24 fb bc 41 bf 11 bf e9 3d 39 bf
       0.20451048 -0.030657072 -0.56932455 -0.7236009
0001a0 96 6c ba 3e 92 30 c2 3d 20 73 25 bf e4 37 db 3d
       0.3641097 0.0948192 -0.6462879 0.1070402
0001b0 a5 c2 45 3e 2f 68 a8 3d 8e ee 1e bf 10 e4 0c 3e
       0.19312532 0.082229964 -0.62082756 0.13758874
0001c0 70 2d 06 bf 6c 82 49 bf 7f a7 c4 be 71 70 41 bf
       -0.5241308 -0.78714633 -0.3840904 -0.75562197
0001d0 d2 28 49 bf 01 bb 44 bf 4f 7c 86 3e 99 e1 03 bc
       -0.7857791 -0.76847845 0.26266715 -0.008049392
0001e0 7b 3d ee 3d b8 26 09 bf c1 d5 4c 3f d4 84 63 bf
       0.1163282 -0.53574705 0.8001366 -0.88874555
0001f0 43 17 24 3f 7f 91 15 3e 45 96 68 bf 31 6e ed 3e
       0.64097995 0.14606284 -0.90854293 0.46373132
000200 44 32 df 92 13 dc 95 92 d2 e9 c4 92 94 74 9c 91
       -1.408567e-27 -9.457474e-28 -1.242698e-27 -2.4684307e-28
000210 77 a6 0e 92 5a 3c 2b 90 a5 7b 19 91 30 ce 85 81
       -4.5012483e-28 -3.3770297e-29 -1.2107673e-28 -4.915235e-38
000220 24 24 a8 10 64 3c 9e 92 cf 8f 7d 91 57 29 74 92
       6.632e-29 -9.986089e-28 -2.0002495e-28 -7.704378e-28
000230 5f 5c 2a 92 72 f8 8a 10 1f 7f b2 92 fa be 07 92
       -5.37564e-28 5.4814193e-29 -1.1264717e-27 -4.2833886e-28
000240 85 91 20 90 c0 01 b8 92 52 7e 8a 10 42 5d 94 90
       -3.166654e-29 -1.1612464e-27 5.462603e-29 -5.8519393e-29
000250 90 93 85 81 7a 19 8b 8e a0 63 85 92 00 8a ca 92
       -4.9068226e-38 -3.429068e-30 -8.4180395e-28 -1.2782012e-27
000260 58 96 6d 90 18 33 89 92 f3 c3 cd 92 64 50 97 92
       -4.685583e-29 -8.658511e-28 -1.2985624e-27 -9.549258e-28
000270 35 19 63 92 a5 2a 9f 8f 23 e2 af 92 5a be 5b 91
       -7.165964e-28 -1.5695037e-29 -1.10998e-27 -1.733471e-28
000280 49 66 50 90 6f 43 c7 92 7e d6 76 90 a9 31 54 92
       -4.1099565e-29 -1.2575289e-27 -4.8680184e-29 -6.6956616e-28
000290 4d f7 d9 92 3f 25 80 8e e5 53 2d 91 08 0d b3 90
       -1.375559e-27 -3.1590303e-30 -1.3673146e-28 -7.062313e-29
0002a0 f3 bc 18 11 10 1a 87 92 12 43 aa 91 ea 1b 7c 92
       1.204891e-28 -8.526123e-28 -2.6862606e-28 -7.9551586e-28
0002b0 4f a0 b7 92 71 9a 7b 92 61 40 a9 91 bc ff 40 10
       -1.1588443e-27 -7.9392e-28 -2.6703175e-28 3.8062334e-29
0002c0 05 69 8d 92 0f 47 0e 90 8c 08 dd 0f 94 b5 45 11
       -8.92424e-28 -2.8059304e-29 2.1795575e-29 1.5596513e-28
0002d0 76 d7 6a 11 45 f3 db 90 51 dd 86 0e a0 46 9f 81
       1.8525739e-28 -8.6755085e-29 3.324667e-30 -5.850872e-38
0002e0 8d 05 6e 92 96 b9 15 91 d2 53 24 91 08 2b fb 91
       -7.51064e-28 -1.1811216e-28 -1.2963148e-28 -3.9627337e-28
0002f0 a0 bc cf 91 f8 fa 88 92 9a 8f 2e 90 cd 62 42 11
       -3.277509e-28 -8.644675e-28 -3.4426076e-29 1.5334347e-28
000300 50 37 a1 81 78 50 93 81 88 a5 85 81 18 93 85 81
       -5.922143e-38 -5.411474e-38 -4.909401e-38 -4.9067553e-38
000310 58 a9 85 81 a0 87 85 81 a8 d5 85 01 40 d2 85 81
       -4.909948e-38 -4.9051096e-38 4.9163066e-38 -4.915818e-38
000320 18 df 85 01 b0 83 85 81 70 bc 85 81 18 e0 85 81
       4.917661e-38 -4.9045446e-38 -4.912688e-38 -4.917804e-38
000330 a0 a7 85 81 8c d1 85 81 e8 dd 85 01 c0 c1 85 81
       -4.9097014e-38 -4.915717e-38 4.9174904e-38 -4.91345e-38
000340 c8 8c 85 81 10 89 85 81 28 de 85 81 b0 5d 88 81
       -4.9058495e-38 -4.905316e-38 -4.917526e-38 -5.0092945e-38
000350 56 a3 8d 81 52 91 85 81 08 d2 85 81 60 ab 85 81
       -5.2029595e-38 -4.906501e-38 -4.9157864e-38 -4.9102395e-38
000360 f1 f6 86 81 78 2f 86 81 e8 b8 85 81 40 8c 85 01
       -4.957817e-38 -4.929194e-38 -4.912181e-38 4.9057733e-38
000370 90 ac 85 81 e0 b3 85 81 18 f6 a3 81 38 d4 85 81
       -4.91041e-38 -4.911459e-38 -6.022987e-38 -4.9161003e-38
000380 98 a3 85 01 d8 e3 85 81 40 df 85 01 04 9d 89 81
       4.909123e-38 -4.9183424e-38 4.917683e-38 -5.055116e-38
000390 d0 ba 85 81 90 df 85 81 5c d1 85 81 e0 94 85 81
       -4.9124547e-38 -4.917728e-38 -4.91569e-38 -4.907011e-38
0003a0 b8 9f 85 81 d2 95 8d 81 c8 2f 86 81 20 8f 85 81
       -4.908567e-38 -5.20102e-38 -4.929239e-38 -4.906186e-38
0003b0 60 db 85 81 28 89 85 81 98 9a 85 81 45 cd 85 01
       -4.917127e-38 -4.9053294e-38 -4.9078315e-38 4.915103e-38
0003c0 28 97 85 01 b8 aa 85 81 00 cc 85 01 7c dd 85 81
       4.907338e-38 -4.9101453e-38 4.914921e-38 -4.91743e-38
0003d0 ee 9b 85 01 b8 52 90 81 b0 87 85 81 80 b8 85 01
       4.908023e-38 -5.301594e-38 -4.9051186e-38 4.912123e-38
0003e0 40 a2 85 81 a0 a0 85 01 a8 76 8c 81 b0 8e 85 81
       -4.90893e-38 4.908697e-38 -5.159814e-38 -4.906123e-38
0003f0 48 95 85 81 60 b8 88 81 88 c4 85 81 40 87 85 01
       -4.907069e-38 -5.0223075e-38 -4.913849e-38 4.905056e-38

fc_layers.1.bias f4 [32]
000000 f5 f6 2b bd 93 f4 dc 3c bb 57 1c 93 b1 4f 9b 81
       -0.041983563 0.02697209 -1.9733223e-27 -5.705236e-38
000010 24 34 18 bc 45 15 f2 91 82 6b da 96 17 13 fb 04
       -0.009289775 -3.8193976e-28 -3.5287646e-25 5.9027348e-36
000020 b0 7c 7c bd 95 a9 10 bd 7f 6f d5 8d 13 a9 a1 8b
       -0.06164235 -0.035317976 -1.315398e-30 -6.226934e-32
000030 24 dd 11 8b d0 33 c6 85 61 06 df 8e ee 6f bc 86
       -2.8092352e-32 -1.8638863e-35 -5.4979887e-30 -7.0882206e-35
000040 ec da e9 bd 6e 1b 26 a1 06 09 16 3b f8 ae e9 9a
       -0.11418709 -5.627929e-19 0.0022893562 -9.664922e-23
000050 70 9d d9 81 cd d5 3f 86 20 b2 85 81 d0 28 b2 89
       -7.993912e-38 -3.6080183e-35 -4.911208e-38 -4.289032e-33
000060 75 bb a1 85 08 0a 93 8e a5 6d a1 3e 6c 76 ab 81
       -1.5209228e-35 -3.6247958e-30 0.31528965 -6.2985406e-38
000070 6b f2 ad 84 87 e6 c5 3d 9b 8a 19 8e 2b fa 12 83
       -4.089473e-36 0.0966311 -1.8925442e-30 -4.3192723e-37
