checkpoints/neumf_first_try_Epoch30_HR0.6790_NDCG0.4048.model (torch, 645108 bytes, 13 tensors)

embedding_user_mlp.weight f4 [6040, 8]
-0.06964694 0.6106667 0.77176327 0.52692455 -0.51329845 -0.20557335 0.13017474 -0.5256117
-0.24868698 0.17722511 0.17480475 0.107494995 0.08447403 0.0124328565 0.3832658 0.113531075
-0.013360144 0.31283367 0.7885779 0.20021771 -0.12012613 -0.47439128 -0.49628186 -0.027766641
0.31849077 0.7263097 0.97197604 0.4074293 -0.826081 -0.7461447 -0.14331819 -0.4079407
-0.43828157 0.05782098 -0.3085032 0.086272515 -0.5599502 -0.13155924 -0.59395045 -0.53891474
0.017740754 -0.013162699 0.55921364 0.4467833 -0.4289104 -0.17224783 -0.6954626 -0.3515199
0.070758544 0.6969429 0.7165367 0.8965228 -0.42863947 -0.4880232 -0.39317948 -0.30028385
-0.06025004 -0.037788544 0.6170136 0.09394257 0.5607613 -0.645972 0.19655615 0.13879472
-0.10291411 0.35941288 0.3867165 0.46160108 -0.5353006 -0.38786307 -0.41866222 -0.2683876
-0.19426519 -0.16251329 0.076429844 -0.03212736 -0.33020222 0.10143089 0.29544526 0.074923
0.09478961 -0.09533187 0.1565629 0.47828135 -0.11333142 -0.34015703 0.4585232 0.026117297
0.06575133 -0.0061633573 0.08789141 0.62039316 0.29299802 -0.059100144 0.081521854 -0.15453896
0.08267982 0.2890531 0.44148204 0.0017412126 0.0594799 -0.08940392 0.34986517 0.044126403
-0.5751628 -0.29009584 0.040068 0.5095068 -0.6590107 -0.35115042 -0.28308225 -0.4602171
-0.38826367 0.061036136 0.12587872 0.06327716 -0.50240093 -0.54080796 0.1747164 0.1742621
-0.4609322 -0.1370161 -0.46051747 0.5459468 -1.2127397 -0.5345468 -0.82311 -0.69317013
-0.118803516 -0.23247942 -0.056653246 0.483315 -0.5818595 -0.06807022 -0.31726566 -0.20546007
0.2573708 -0.22651057 0.31629875 -0.37524444 0.30161193 0.35788307 0.40902928 -0.12983808
-0.35101697 0.4305414 -0.15818524 -0.36876997 -0.556192 -0.034053 0.026316492 -0.20840894
-0.08126813 0.5807278 0.33149886 0.16605261 -0.74173737 0.053964164 -0.5925478 -0.2241352
-0.8668804 -0.14635164 0.2790025 0.2039048 -0.10319406 -0.08847819 -0.2045013 0.030015815
0.10195778 0.07097043 -0.11393397 0.137256 0.2608674 0.29933265 -0.22419357 0.37227082
-5.5212477e-05 -0.1029976 -0.39775681 0.121634014 -0.32289135 -0.18513556 -0.43332815 -0.18500246
-0.61996895 -0.045722533 0.024398072 -0.13909593 -0.19035302 0.039582063 -0.324063 -0.20427321
-0.562515 -0.45812273 0.07009529 0.65178823 -0.33745366 -0.09982705 -0.06477357 -0.80969054
0.41747993 -0.10782424 0.055506513 -0.007851308 0.3066054 0.24644038 -0.09528264 0.6636751
-0.0412955 0.35695088 0.063140534 0.31315666 -0.5932197 -0.27906 -0.56125635 0.16508411
0.44639447 0.08098358 -0.36019197 0.5478083 -0.7142486 -0.46182984 -0.37290418 -0.30867022
-0.13595329 0.6613314 0.67405605 0.47484547 0.14124064 0.36524436 -0.113922566 -0.36708528
0.02505833 0.28391662 0.5417631 0.30954278 -0.36195248 -0.2966639 -0.14755808 -0.9444172
-0.15430462 0.19939822 -0.20048712 0.7356914 -0.22390616 -0.6868136 -0.81491756 -0.03188722
0.119480215 0.17091769 0.13221179 0.4003706 -0.894464 -0.06732986 -0.1418135 -0.3982432
00000000: 0ea3 8ebd a754 1c3f 4792 453f 87e4 063f
00000010: 8767 03bf d281 52be 874c 053e 7d8e 06bf
00000020: cda7 7ebe 807a 353e 0400 333e 5626 dc3d
00000030: b800 ad3d 2eb3 4b3c 6a3b c43e fb82 e83d
00000040: 81e4 5abc bc2b a03e 3ee0 493f df05 4d3e
00000050: b004 f6bd 6ae3 f2be a818 febe de76 e3bc
00000060: 3911 a33e 6fef 393f 6cd3 783f 939a d03e
00000070: 0b7a 53bf 5703 3fbf 01c2 12be 9add d0be
00000080: 7166 e0be b1d5 6c3d 22f4 9dbe a5af b03d
00000090: e558 0fbf 77b7 06be 230d 18bf 51f6 09bf
000000a0: 0f55 913c 5ca8 57bc a028 0f3f c8c0 e43e
000000b0: 259a dbbe bc61 30be d609 32bf 6bfa b3be
000000c0: dbe9 903d da6a 323f f36e 373f 8582 653f
000000d0: a276 dbbe 2dde f9be d24e c9be cebe 99be
000000e0: bfc8 76bd 29c8 1abd 9af4 1d3f f664 c03d
000000f0: 0d8e 0f3f 6c5e 25bf 0446 493e 3420 0e3e
00000100: a2c4 d2bd f704 b83e b5ff c53e fa56 ec3e
00000110: 7609 09bf fd95 c6be e55a d6be 196a 89be
00000120: 74ed 46be e269 26be 4087 9c3d fb97 03bd
00000130: 4410 a9be 00bb cf3d 9a44 973e 3b71 993d
00000140: 0e21 c23d 5b3d c3bd 0652 203e 4be1 f43e
00000150: 4e1a e8bd 1029 aebe 8ec3 ea3e f1f3 d53c
00000160: a2a8 863d fdf5 c9bb 6900 b43d 16d2 1e3f
00000170: d603 963e fe12 72bd eef4 a63d 763f 1ebe
00000180: 0a54 a93d c5fe 933e ef09 e23e 6639 e43a
00000190: 32a1 733d 6719 b7bd 8721 b33e e3bd 343d
000001a0: df3d 13bf 7187 94be 581e 243d 0a6f 023f
000001b0: edb4 28bf fdc9 b3be 28f0 90be 93a1 ebbe
000001c0: 7fca c6be 0701 7a3d 5ae6 003e 7597 813d
000001d0: 599d 00bf 6472 0abf dbe8 323e c471 323e
000001e0: 4eff ebbe f34d 0cbe f2c8 ebbe 2bc3 0b3f
000001f0: 0e3b 9bbf 0fd8 08bf 56b7 52bf 9973 31bf
00000200: 424f f3bd 160f 6ebe 3c0d 68bd 1075 f73e
00000210: bff4 14bf 6668 8bbd a570 a2be 2064 52be
00000220: 1bc6 833e 63f2 67be e9f1 a13e 0a20 c0be
00000230: e16c 9a3e 733c b73e 496c d13e 46f4 04be
00000240: 7fb8 b3be ec6f dc3e 50fb 21be 6bcf bcbe
00000250: 9962 0ebf 297b 0bbd af95 d73c 2769 55be
00000260: e86f a6bd 94aa 143f 38ba a93e b209 2a3e
00000270: 80e2 3dbf 8709 5d3d 36b1 17bf b383 65be
00000280: e0eb 5dbf 34dd 15be 6ad9 8e3e 6bcc 503e
00000290: 6857 d3bd 0e34 b5bd ca68 51be bae3 f53c
000002a0: 3ecf d03d f258 913d 3756 e9bd d68c 0c3e
000002b0: 6990 853e 2142 993e 0093 65be 489a be3e
000002c0: f293 67b8 68f0 d2bd c8a6 cbbe 411b f93d
000002d0: 0452 a5be 2d94 3dbe 30dd ddbe 4971 3dbe
000002e0: 49b6 1ebf 8d47 3bbd 77de c73c 2a6f 0ebe
000002f0: e7eb 42be cd20 223d 96eb a5be ff2c 51be
00000300: fc00 10bf 108f eabe 1f8e 8f3d 98db 263f
00000310: bac6 acbe 2072 ccbd 01a8 84bd e147 4fbf
00000320: eebf d53e f5d2 dcbd cc5a 633d c6a2 00bc
00000330: 62fb 9c3e de5a 7c3e 8b23 c3bd 9de6 293f
00000340: 7825 29bd 44c2 b63e d34f 813d 1256 a03e
00000350: 3fdd 17bf f4e0 8ebe 7fae 0fbf cf0b 293e
00000360: d18d e43e b8da a53d 156b b8be 2a3d 0c3f
00000370: ffd8 36bf f674 ecbe 4ced bebe 060a 9ebe
00000380: 5737 0bbe 044d 293f f08e 2c3f f21e f33e
00000390: 63a1 103e 4f01 bb3e 3c50 e9bd 9af2 bbbe
000003a0: 2047 cd3c 855d 913e fdb0 0a3f 647c 9e3e
000003b0: d651 b9be 55e4 97be 7719 17be 53c5 71bf
000003c0: 0802 1ebe 0c2f 4c3e 7f4c 4dbe 4656 3c3f
000003d0: a847 65be 04d3 2fbf 709e 50bf 2c9c 02bd
000003e0: 0bb2 f43d 0c05 2f3e 8762 073e 60fd cc3e
000003f0: 98fb 64bf 3de4 89bd 8f37 11be 88e6 cbbe

embedding_item_mlp.weight f4 [3706, 8]
-1.0886761 -1.2488934 -0.43068707 1.6710399 1.1784856 1.2523738 -0.9131976 0.12326792
-0.7402979 -0.32029316 -0.21430479 -0.045788012 0.119557 -0.2880288 -0.12513871 0.28835997
-0.25581878 0.12656611 -0.49468657 -0.0080189565 0.26631975 0.46996263 -0.10175614 0.123635136
-0.7723695 -0.8104735 -0.54980516 0.60437316 0.27097175 1.1711414 -0.7930967 0.7505518
-0.45196378 -1.4029623 -0.981918 0.47778687 0.45944488 0.5176884 -0.23873192 1.1009957
-0.8822699 -0.7519542 -0.3502691 -0.46870568 0.34318832 1.0448948 -0.3142402 0.52770454
-0.25730544 -0.099620156 -0.036604606 -0.18552165 0.07781803 0.11561472 0.07284756 -0.023445899
-0.10105265 -0.48191184 -0.037133843 -0.30176088 0.5061091 0.44339517 0.05655623 0.040684648
-0.102100715 0.29843011 -0.28896505 -0.33669937 0.07201525 -0.19501264 -0.19234064 0.13580705
-0.54581404 0.0830362 -0.36606735 0.32857308 0.04951436 0.6504473 -0.19641124 -0.03134003
-0.17620459 -0.15254438 -0.20356101 -0.23160101 0.28506845 0.12723683 -0.2858417 0.09927897
-0.076877 0.26333204 -0.13243307 0.0050224382 0.18858978 -0.24988554 -0.11344466 0.20795208
0.054122824 0.33583945 0.018333027 -0.05700888 -0.42725766 0.047053434 0.1363483 0.010319558
0.43712854 0.016028386 -0.2294482 -0.30924985 -0.2937425 0.13902535 0.12257387 0.13182265
-0.7546555 -0.1020259 -0.49253798 0.17221934 0.1474977 -0.04441608 -0.5411838 0.40780196
-0.8324574 -0.29988402 -0.50248307 0.22101326 -0.14243504 0.10388138 -0.3404696 0.33820412
0.68602157 -0.8879711 -0.2514177 -0.6045718 0.50108886 0.19114283 -0.064058356 0.36806136
0.067979515 0.036104206 -0.43992153 -0.36288437 0.4336285 -0.2736815 0.2209518 -0.195421
-0.25417876 -0.17129137 0.17330527 0.08560075 -0.0062888516 -0.076017976 0.26670915 -0.3119805
-0.2790024 -0.2462286 -0.24482998 -0.17492469 -0.12821542 0.46083114 -0.10247232 -0.0392918
-0.2982024 0.1274677 0.21157105 0.39315307 0.26016134 0.2771951 -0.44509616 0.19534928
0.32274622 -0.4869877 0.13938549 -0.41496888 0.38391763 0.26458755 0.5458866 0.058023743
-0.14556056 -0.6881175 -0.72250235 0.76664424 0.50993085 0.7017174 -0.7139955 0.3422277
-0.8859026 -1.2323359 -0.74096715 1.0924977 0.9833816 0.77826124 -0.6849586 0.028073046
0.015810248 -0.34952646 0.40055716 -0.033082575 -0.0042847404 0.3814014 -0.033757664 0.27157837
-0.053016383 0.10796119 -0.07665739 -0.28248107 0.13923918 -0.17558041 0.35056144 0.11340658
-0.40341938 -0.9494404 -0.5426124 0.65189064 0.38135523 0.680624 -0.63777894 0.33164945
-0.6738401 -0.61366975 -0.40184218 0.8056523 1.2488308 1.0015354 -0.6660397 -0.06981561
0.2867812 -0.20378675 0.4399394 -0.67197734 -0.21207951 0.17942618 0.41675103 -0.20533663
0.23369114 -0.5463365 0.24138576 -0.32909155 0.9183574 0.3817128 0.0714157 0.45162216
0.0103721265 -0.3416939 -0.25907844 0.078597374 0.26802275 -0.11000077 0.13075188 -0.13033012
-0.106498465 -0.7136229 0.27737975 0.5160237 0.108339444 1.0647657 -0.059820455 -0.13489951
00000000: bd59 8bbf bddb 9fbf 0483 dcbe a3e4 d53f
00000010: 9ed8 963f c94d a03f 51c7 69bf e473 fc3d
00000020: 2a84 3dbf 77fd a3be b772 5bbe 368c 3bbd
00000030: 4dda f43d 8378 93be 5d24 00be eba3 933e
00000040: aefa 82be 8c9a 013e 8f47 fdbe f161 03bc
00000050: 105b 883e f19e f03e 8665 d0bd 6b34 fd3d
00000060: 02ba 45bf 317b 4fbf 08c0 0cbf 33b8 1a3f
00000070: cfbc 8a3e f6e7 953f 6308 4bbf 2a24 403f
00000080: cc67 e7be 4594 b3bf fa5e 7bbf 7ba0 f43e
00000090: 5c3c eb3e 3a87 043f 2476 74be 6ded 8c3f
000000a0: 71dc 61bf 1280 40bf 7956 b3be 31fa efbe
000000b0: 61b6 af3e 1dbf 853f 17e4 a0be a517 073f
000000c0: 8abd 83be a705 ccbd b6ee 15bd 63f9 3dbe
000000d0: 0f5f 9f3d 69c7 ec3d 1a31 953d 9d11 c0bc
000000e0: b1f4 cebd 26bd f6be a819 18bd 6780 9abe
000000f0: 5e90 013f b104 e33e 81a7 673d f2a4 263d
00000100: 2e1a d1bd d5cb 983e 3af3 93be dc63 acbe
00000110: bb7c 933d 65b1 47be f2f4 44be 0111 0b3e
00000120: 78ba 0bbf e20e aa3d 2e6d bbbe bb3a a83e
00000130: 92cf 4a3d b783 263f 0720 49be 675e 00bd
00000140: fa6e 34be 9834 1cbe 4c72 50be d128 6dbe
00000150: 7ef4 913e 5f4a 023e d859 92be c652 cb3d
00000160: b071 9dbd 75d3 863e 899c 07be 4493 a43b
00000170: ae1d 413e ffe1 7fbe ad55 e8bd 64f1 543e
00000180: e5af 5d3d 26f3 ab3e 252f 963c 2582 69bd
00000190: 84c1 dabe 1abb 403d e49e 0b3e 5d13 293c
000001a0: 50cf df3e f64d 833c 78f4 6abe ff55 9ebe
000001b0: 6b65 96be a95c 0e3e 0208 fb3d 84fc 063e
000001c0: 1a31 41bf f4f2 d0bd f02d fcbe 445a 303e
000001d0: a309 173e a3ed 35bd 068b 0abf 6bcb d03e
000001e0: ee1b 55bf 668a 99be bba2 00bf 4d51 623e
000001f0: 7eda 11be c3bf d43d 0852 aebe 1729 ad3e
00000200: 1c9f 2f3f 1352 63bf d2b9 80be 38c5 1abf
00000210: 5c47 003f f2ba 433e 0731 83bd 8a72 bc3e
00000220: d838 8b3d 01e2 133d 653d e1be fbcb b9be
00000230: 8e04 de3e fb1f 8cbe 3041 623e 711c 48be
00000240: b823 82be 0167 2fbe f076 313e 724f af3d
00000250: b612 cebb 50af 9bbd 1a8e 883e e8bb 9fbe
00000260: 67d9 8ebe 5a23 7cbe b6b4 7abe 751f 33be
00000270: e74a 03be 0ff2 eb3e 02dd d1bd 70f0 20bd
00000280: fcad 98be e586 023e 15a6 583e 5c4b c93e
00000290: de33 853e 84ec 8d3e a5e3 e3be a409 483e
000002a0: fe3e a53e 7456 f9be 12bb 0e3e cd76 d4be
000002b0: da90 c43e 0578 873e 39bf 0b3f 4eaa 6d3d
000002c0: d40d 15be 7828 30bf eaf5 38bf cc42 443f
000002d0: d48a 023f c0a3 333f 69c8 36bf 7838 af3e
000002e0: 83ca 62bf 2fbd 9dbf 06b0 3dbf f7d6 8b3f
000002f0: e6be 7b3f 213c 473f 7259 2fbf 72f9 e53c
00000300: 7e84 813c 22f5 b2be d415 cd3e 9881 07bd
00000310: 0267 8cbb 0b47 c33e 7a45 0abd 520c 8b3e
00000320: b527 59bd c21a dd3d 8dfe 9cbd 5ca1 90be
00000330: b794 0e3e 5acb 33be ca7c b33e b641 e83d
00000340: fc8c cebe 870e 73bf a5e8 0abf 4ee2 263f
00000350: fe40 c33e 603d 2e3f 7b45 23bf f5cd a93e
00000360: c980 2cbf 7619 1dbf 42be cdbe 3b3f 4e3f
00000370: b0d9 9f3f 5032 803f 9481 2abf 7dfb 8ebd
00000380: fcd4 923e 79ad 50be bd3f e13e b506 2cbf
00000390: 5f2b 59be 7fbb 373e 6460 d53e c443 52be
000003a0: bb4c 6f3e b5dc 0bbf d42d 773e b07e a8be
000003b0: 7819 6b3f dc6f c33e 6542 923d 053b e73e
000003c0: daef 293c 81f2 aebe eea5 84be a9f7 a03d
000003d0: 473a 893e 1548 e1bd d2e3 053e 4275 05be
000003e0: de1b dabd feaf 36bf b804 8e3e 211a 043f
000003f0: 12e1 dd3d 3e4a 883f 4b06 75bd 1923 0abe

embedding_user_mf.weight f4 [6040, 8]
0.027682185 0.15601893 -0.2350127 0.5492983 -0.001691099 -0.53093433 0.00958836 -1.3718358
0.013015773 -0.44372755 0.012677201 1.2972403 0.11129705 0.033553105 0.45395532 0.013238131
0.44965857 -0.8028243 -0.08812787 0.05554795 0.09337514 0.9097499 0.42550927 -0.7988938
-0.20222957 -0.20655328 0.5241055 0.8299372 -0.57910836 0.98726726 0.48483443 -0.4995223
-0.019738449 -0.47789198 -0.033470124 0.37414876 -1.0378231 -0.56350195 -0.46290106 0.09689122
0.27404886 0.10821393 -0.5450635 0.56987596 0.76568407 -0.019537278 0.47655752 -0.3210577
0.7875361 -0.75791216 0.59388876 0.49527133 -0.5165528 0.80860853 0.378088 -0.4405485
0.5060642 -0.7875423 0.316417 0.9636721 -0.856279 -0.84317833 -0.18249197 -0.11062856
0.29535866 -1.3056995 0.3237368 0.9418699 -0.30196205 -0.46998748 -0.40960705 -0.87221754
0.26637015 0.29532036 -0.7883118 0.46255007 0.15461785 0.30549598 0.0593544 -0.6360314
0.04615304 -0.82659984 -0.5304788 -0.36797616 -0.30836397 -0.4911948 0.034781724 -0.70439714
-0.4257561 -0.47410542 0.2431659 0.052405845 -0.072144896 0.5353585 -0.2536621 -0.66589826
0.45989278 0.05129922 -0.24143918 1.3420688 -0.14106868 0.6688269 0.059937123 0.29951173
-0.25335318 -0.08696441 0.071730725 -0.324222 -0.4485961 0.08536878 0.34826803 -0.38326198
0.79320323 -0.9006987 0.35093927 0.3703859 0.09469345 -0.1597361 0.4367049 -0.52757007
0.68558294 0.27017292 -0.2872791 0.2127484 0.35300344 -0.065324284 0.27303565 0.1078386
0.18046843 0.026554042 0.18275675 0.4086175 -0.7679912 0.33723745 -0.22760127 0.5692869
0.5538446 0.04568757 -0.19871081 0.9365118 -0.28915814 0.09023396 -0.20988761 -0.50053227
0.5163055 0.091591075 0.19745192 -0.09074563 -0.27835655 0.7983172 0.13782908 -0.81158066
0.44243822 -0.80750084 0.099107556 0.16377023 -0.47136578 0.5849442 -0.06512345 -0.40897918
0.6558534 0.14993659 -0.13898006 0.25460908 -0.49299008 0.22582985 -0.70209414 -0.61744946
0.55727094 -0.56695867 -0.25222632 -0.23616077 -0.6646165 0.46658507 0.061702065 -0.5842166
-0.048820328 -0.19070913 -0.30763847 0.14001231 -1.0154307 0.51955575 -0.15594943 0.27673122
-0.1326277 -0.4018033 -0.86358035 0.43656296 -0.31517765 -0.18429554 0.288463 -0.18830264
0.7332536 -0.3351708 -0.13703844 0.47836378 -0.4396119 0.58266824 -0.5311303 -0.205255
0.52551377 -0.27233016 -0.7003876 0.03825536 0.16770849 -0.21957831 0.96110857 -0.30257452
-0.51254076 0.1466413 -0.15878302 0.4138417 -0.16964494 0.49860963 -0.09052673 -0.44719023
-0.23705097 0.10399971 -0.311761 0.39084896 -0.5188857 -0.20064159 0.018476546 -0.6153571
0.042583533 -0.25037223 0.6050527 0.61970794 -0.2248147 1.1880506 0.52377623 0.21718979
-0.12185454 -0.3435822 0.2774312 0.45794848 -0.54427093 -0.5834466 -0.24471481 -0.33064264
-0.29357034 -0.16932471 -1.013262 -0.29704532 0.7284257 0.85342956 0.19964403 -0.35010228
-0.05748344 -0.4309924 0.08806177 0.48001343 -0.42402306 -0.52487844 0.036460467 -0.122296385
00000000: c0c5 e23c 6dc3 1f3e 2ba7 70be d09e 0c3f
00000010: dea7 ddba 50eb 07bf 7f18 1d3c 5198 afbf
00000020: 1c40 553c 4230 e3be 09b4 4f3c f80b a63f
00000030: b5ef e33d fb6e 093d d56c e83e bfe4 583c
00000040: a639 e63e e585 4dbf 627c b4bd 3f86 633d
00000050: 773b bf3d 5fe5 683f 5adc d93e 4e84 4cbf
00000060: 4515 4fbe b482 53be c72b 063f c476 543f
00000070: 7240 14bf 8cbd 7c3f 383c f83e 63c1 ffbe
00000080: 87b2 a1bc 42ae f4be f817 09bd 6d90 bf3e
00000090: 63d7 84bf aa41 10bf 5e01 edbe e76e c63d
000000a0: 2250 8c3e 449f dd3d 4889 0bbf 64e3 113f
000000b0: df03 443f a40c a0bc 59ff f33e ad61 a4be
000000c0: f79b 493f 8806 42bf 1809 183f 3494 fd3e
000000d0: ce3c 04bf f800 4f3f c094 c13e 938f e1be
000000e0: 6c8d 013f 5f9c 49bf 6901 a23e 37b3 763f
000000f0: 1a35 5bbf 89da 57bf 2ddf 3abe 3a91 e2bd
00000100: 4039 973e 2921 a7bf d4c0 a53e 631e 713f
00000110: c59a 9abe 33a2 f0be 04b8 d1be a649 5fbf
00000120: ab61 883e 3b34 973e cdce 49bf 5dd3 ec3e
00000130: 2454 1e3e f869 9c3e 991d 733d f4d2 22bf
00000140: f80a 3d3d 0c9c 53bf 75cd 07bf 5f67 bcbe
00000150: e2e1 9dbe e37d fbbe 4877 0e3d 5f53 34bf
00000160: b4fc d9be f2bd f2be 7b00 793e 83a7 563d
00000170: b4c0 93bd 410d 093f 00e0 81be 4f78 2abf
00000180: 1177 eb3e 221f 523d d53b 77be e9c8 ab3f
00000190: 4f74 10be 3d38 2b3f a180 753d 9a59 993e
000001a0: 82b7 81be 661a b2bd 8fe7 923d 6d00 a6be
000001b0: 63ae e5be d4d5 ae3d 3050 b23e ea3a c4be
000001c0: 5e0f 4b3f 3194 66bf 50ae b33e 38a3 bd3e
000001d0: a4ee c13d dc91 23be c997 df3e d50e 07bf
000001e0: 5d82 2f3f 1b54 8a3e 3f16 93be b7da 593e
000001f0: debc b43e bdc8 85bd 54cb 8b3e 7cda dc3d
00000200: b7cc 383e dd87 d93c 9624 3b3e 5036 d13e
00000210: 129b 44bf 63aa ac3e 4f10 69be c9bc 113f
00000220: c2c8 0d3f e422 3b3d d97a 4bbe 3dbf 6f3f
00000230: 890c 94be 95cc b83d c7ec 56be e222 00bf
00000240: 992c 043f 1a94 bb3d d630 4a3e d8d8 b9bd
00000250: c084 8ebe 845e 4c3f 1123 0d3e c0c3 4fbf
00000260: 4387 e23e 60b8 4ebf e7f8 ca3d 62b3 273e
00000270: db56 f1be e7be 153f 715f 85bd b865 d1be
00000280: 02e6 273f fa88 193e ca50 0ebe 1f5c 823e
00000290: 3269 fcbe f13f 673e 71bc 33bf 2b11 1ebf
000002a0: 4fa9 0e3f 3424 11bf cf23 81be 21d4 71be
000002b0: 4f24 2abf 3de4 ee3e 4ebb 7c3d 388f 15bf
000002c0: d3f7 47bd 4149 43be ca82 9dbe 635f 0f3e
000002d0: a2f9 81bf 9b01 053f 35b1 1fbe b7af 8d3e
000002e0: 8ecf 07be 2ab9 cdbe 9a13 5dbf 2e85 df3e
000002f0: f75e a1be f8b7 3cbe 6cb1 933e 68d2 40be
00000300: 82b6 3b3f 829b abbe ce53 0cbe 19ec f43e
00000310: d014 e1be bf29 153f 28f8 07bf 5e2e 52be
00000320: 1288 063f dc6e 8bbe 9a4c 33bf a7b1 1c3d
00000330: c6bb 2b3e 23d9 60be 360b 763f 0ceb 9abe
00000340: df35 03bf 2329 163e 0498 22be 0fe3 d33e
00000350: 67b7 2dbe c349 ff3e 1466 b9bd 1ef6 e4be
00000360: 7dbd 72be cdfd d43d 239f 9fbe 5b1d c83e
00000370: b1d5 04bf fd74 4dbe 205c 973c 0b88 1dbf
00000380: 126c 2e3d ca30 80be bce4 1a3f 2ea5 1e3f
00000390: d335 66be 0b12 983f 3316 063f 0067 5e3e
000003a0: e08e f9bd 02ea afbe 760b 8e3e 3978 ea3e
000003b0: 5755 0bbf c25c 15bf 8596 7abe fe49 a9be
000003c0: da4e 96be 7563 2dbe 92b2 81bf 5316 98be
000003d0: 1b7a 3a3f 5c7a 5a3f 7c6f 4c3e 9b40 b3be
000003e0: c173 6bbd 09ab dcbe bb59 b43d 52c4 f53e
000003f0: 8d19 d9be 6f5e 06bf 9257 153d 8776 fabd

embedding_item_mf.weight f4 [3706, 8]
0.46294972 -0.038114298 -0.09354597 0.32277262 0.21819113 0.08993207 0.3608092 0.49698785
-0.16832931 -0.6122102 0.1341037 0.17097215 0.21311316 -0.17844717 -0.7740797 0.5061129
0.17215198 -1.0134399 0.27645373 0.5038382 -0.47409284 -0.3235793 0.10169019 0.29060176
0.08514151 0.28442127 -0.28891295 -0.057076775 -0.4961512 -0.38089493 0.060565554 0.19132474
-0.27237546 0.08803468 0.34576213 0.05522715 -0.123776965 -0.032836325 -0.31351167 0.6736758
-0.09130201 0.18601571 0.76452225 0.2893041 0.4513356 0.4217271 0.04433741 0.36153182
0.19045897 -0.37502807 -0.348663 0.8385327 -0.43853283 0.5981909 0.18273051 0.1326002
0.25491822 0.10728359 0.5022927 -0.2381548 0.36714813 0.21527457 0.3469215 0.93648577
-0.14744753 -1.1802845 0.26444355 0.49419695 -0.007270878 0.0475112 -0.36878258 1.4281124
0.23372726 -0.50432473 0.250236 0.73823744 0.28030026 0.23506245 0.22141574 1.1736268
-0.40042555 -0.6275352 0.27395838 0.6673284 0.11471432 -0.26511693 -0.4092512 1.184274
0.25062707 -1.3234526 0.15721574 0.29673174 -0.84041226 -0.41500917 -0.27921164 -0.0026155608
0.33115387 -0.86567646 -0.18839327 0.5190465 -0.42286792 -0.21451771 0.3023635 0.91384983
0.14629503 0.49862927 1.1836556 -0.18875955 0.38064826 0.31199896 0.6662131 1.2235501
0.044383712 -0.673729 0.2643573 0.25692886 -0.3350435 -0.2048081 0.1189995 0.6006716
0.21016103 0.30655178 0.7234085 -0.38947842 0.21077828 0.44913366 0.4691521 0.740112
-0.39049107 -0.52936035 -0.036946785 0.35342106 -0.18022203 -0.13726714 -0.48602384 0.65238065
-0.14121515 -0.94240516 0.09811942 0.41428453 -0.104332 0.020282412 -0.28019682 1.3073598
0.029577415 0.017743545 0.11471003 0.52876294 0.27308157 -0.72908884 0.41057184 0.4429935
-0.07467248 0.01845041 0.9615404 -0.042336255 0.41552305 0.29596514 0.45962772 0.6307964
-0.06353508 0.5299906 0.5745025 -0.028239278 -0.07480627 -0.20274208 -0.06290812 0.5657988
0.28170153 -0.08992539 0.08334951 0.23870161 0.2795764 -0.018671196 -1.054747 0.38094422
-0.052766785 0.09581735 1.0271944 0.20688134 0.5438697 0.5570421 0.52390885 0.54164094
0.19470668 0.27631253 -0.12292263 0.68041927 0.41223478 -0.17734922 0.31061336 0.56338215
-0.33774674 0.09922784 -0.0052664513 -0.06258287 -0.5738912 -0.50413823 0.3278727 -0.32811376
-0.6548491 -0.8654998 0.16103104 0.3834266 -0.38818628 -0.41712576 -0.63563436 0.6083223
-0.12685135 -0.3302195 0.6500723 0.5728987 0.7759024 0.18631826 0.43638077 0.5517998
-0.30087307 0.14669928 0.14598359 0.3842625 -0.07618684 -0.38226768 0.3748713 0.20809057
0.47701785 -0.35902613 -0.715425 -0.0150617305 -0.35197526 -1.0206305 -0.6485566 -0.31586632
0.2278618 0.07166456 0.40811366 0.22713424 0.3054049 0.045645792 -1.0114971 0.3130347
-0.46208146 -0.25665432 0.15047339 0.3234377 0.042106353 -0.17693646 -0.46310207 0.61931574
-0.018736465 0.12348045 -0.3596112 -0.45230654 -0.15404207 -0.6762876 -0.03058095 -0.019247647
00000000: bf07 ed3e bd1d 1cbd 0895 bfbd 7442 a53e
00000010: 7f6d 5f3e 4e2e b83d fcbb b83e 3175 fe3e
00000020: 855e 2cbe cfb9 1cbf 7b52 093e 5313 2f3e
00000030: 563a 5a3e dbba 36be 162a 46bf 9d90 013f
00000040: 9c48 303e 66b8 81bf 588b 8d3e 8afb 003f
00000050: 4cbc f2be 30ac a5be f242 d03d c1c9 943e
00000060: ac5e ae3d aa9f 913e 66ec 93be 56c9 69bd
00000070: 8807 febe a904 c3be 9613 783d a2ea 433e
00000080: cc74 8bbe 874b b43d bc07 b13e dd35 623d
00000090: c77e fdbd 627f 06bd 9a84 a0be 0476 2c3f
000000a0: 8cfc babd e77a 3e3e bbb7 433f ab1f 943e
000000b0: 7615 e73e 9dec d73e 259b 353d b31a b93e
000000c0: ad07 433e ae03 c0be f583 b2be 14aa 563f
000000d0: 6087 e0be 0a23 193f b51d 3b3e 59c8 073e
000000e0: a484 823e 80b7 db3d 4196 003f dade 73be
000000f0: d7fa bb3e f070 5c3e b29f b13e 88bd 6f3f
00000100: 7cfc 16be 9013 97bf 2565 873e 6207 fd3e
00000110: 8c40 eebb 1b9b 423d 12d1 bcbe 63cc b63f
00000120: 3356 6f3e 6d1b 01bf ef1e 803e 21fd 3c3f
00000130: 8483 8f3e 36b4 703e cfba 623e 6739 963f
00000140: 9404 cdbe 26a6 20bf 4644 8c3e 09d6 2a3f
00000150: 57ef ea3d 68bd 87be 6089 d1be 4a96 973f
00000160: 3152 803e e566 a9bf 2afd 203e 39ed 973e
00000170: 4225 57bf 157c d4be d4f4 8ebe d469 2bbb
00000180: 008d a93e f99c 5dbf 2aea 40be 3be0 043f
00000190: 2582 d8be 88aa 5bbe 64cf 9a3e 10f2 693f
000001a0: 5dce 153e 564c ff3e 0782 973f 2f4a 41be
000001b0: 54e4 c23e 54be 9f3e f18c 2a3f 4a9d 9c3f
000001c0: b2cb 353d 8179 2cbf d759 873e 2e8c 833e
000001d0: d28a abbe 37b9 51be 03b6 f33d 9dc5 193f
000001e0: 7434 573e 5bf4 9c3e 4d31 393f b769 c7be
000001f0: 43d6 573e d9f4 e53e b434 f03e fb77 3d3f
00000200: 72ee c7be 2984 07bf 8355 17bd 9bf3 b43e
00000210: 208c 38be c28f 0cbe 1ed8 f8be 6b02 273f
00000220: b49a 10be 7741 71bf d6f2 c83d 1a1d d43e
00000230: 04ac d5bd 4d27 a63c f575 8fbe 9157 a73f
00000240: 564c f23c e95a 913c 18ed ea3d 025d 073f
00000250: 59d1 8b3e 91a5 3abf 7936 d23e 0bd0 e23e
00000260: e3ed 98bd 5025 973c 8327 763f c868 2dbd
00000270: 70bf d43e be88 973e 5354 eb3e df7b 213f
00000280: ae1e 82bd 77ad 073f 9912 133f 0f56 e7bc
00000290: 0834 99bd 9f9b 4fbe f9d5 80bd 31d8 103f
000002a0: 2f3b 903e ce2a b8bd 26b3 aa3d 326e 743e
000002b0: a324 8f3e 56f4 98bc f301 87bf 1f0b c33e
000002c0: fc21 58bd e33b c43d 1b7b 833f b4d8 533e
000002d0: 0b3b 0b3f 509a 0e3f e41e 063f fba8 0a3f
000002e0: 3061 473e d678 8d3e dcbe fbbd f52f 2e3f
000002f0: 7010 d33e 099b 35be b708 9f3e d039 103f
00000300: 24ed acbe f737 cb3d 3292 acbb 732b 80bd
00000310: 89ea 12bf 340f 01bf eede a73e 87fe a7be
00000320: 31a4 27bf 6591 5dbf 52e5 243e 7e50 c43e
00000330: 5ac0 c6be 8291 d5be efb8 22bf 03bb 1b3f
00000340: 52e5 01be 8812 a9be 236b 263f 7da9 123f
00000350: 8aa1 463f 37ca 3e3e 4d6d df3e c042 0d3f
00000360: 090c 9abe 5638 163e b97c 153e 0ebe c43e
00000370: d907 9cbd 97b8 c3be 22ef bf3e b215 553e
00000380: af3b f43e 46d2 b7be 1826 37bf 7ac5 76bc
00000390: 1a36 b4be 05a4 82bf ce07 26bf 3bb9 a1be
000003a0: 9b54 693e dec4 923d 46f4 d03e e195 683e
000003b0: 085e 9c3e 15f7 3a3d bd78 81bf 1646 a03e
000003c0: f195 ecbe 3268 83be b215 1a3e a099 a53e
000003d0: b677 2c3d d52e 35be b71b edbe 7a8b 1e3f
000003e0: 377d 99bc 51e3 fc3d f61e b8be b994 e7be
000003f0: 34bd 1dbe 2f21 2dbf e784 fabc 3ead 9dbc

fc_layers.0.weight f4 [64, 16]
-0.314679 -0.41936433 -0.17538008 0.45786968 0.09401662 -0.69209415 -0.7661302 -0.38488588
-0.03889389 0.008125787 0.30425826 -0.28706256 -0.67173994 -0.5288381 0.22715104 0.23217146
-0.8398759 0.3289767 -0.02252532 -0.36694318 -0.32093185 0.23532164 0.014254582 -0.39151213
-0.52545637 0.17568497 0.33003157 -0.10723354 0.41946298 0.24766123 0.42912832 -0.7932408
0.47596565 0.34251672 0.28837678 0.18300046 0.20612557 -0.58535075 0.05224373 0.86802137
0.82350093 0.0334449 0.25338107 -0.4948748 1.2470655 0.42049626 0.33479112 -0.7208347
0.7632979 0.23602371 -0.20301734 0.1317303 -1.0059918 -0.47805387 -0.32192647 -0.07699481
0.13873774 0.18360633 0.782804 -0.1411542 -0.43828285 0.2426164 -0.30171397 -0.3027222
0.50280225 0.100365244 0.18739106 0.015845822 0.37944192 -0.7311578 -0.03289813 0.25229058
0.7022367 -0.083839014 -0.10810715 -0.016762502 0.19589303 0.09982917 -0.15511169 -0.045758847
0.4145501 -0.052198883 0.20806944 0.40130323 -0.50341654 -0.5933921 -0.4128257 -0.08091218
0.42017534 -0.24919914 -0.26125395 -0.015219987 -0.60446197 -0.23065124 -0.43223754 -0.4673119
0.2728058 -0.25738987 -0.38179827 0.60131407 0.20028052 -0.4734142 0.43423632 -0.55880105
-0.6118781 0.55717224 -0.02585144 -0.35602343 -0.19240971 0.014590533 -0.28478843 0.36155197
0.07151476 0.09743181 0.016964326 0.036168985 0.060747724 0.035640232 0.029143082 0.05876515
-0.06418959 -0.005216705 0.08703109 -0.09473828 -0.016643923 -0.03935519 0.03050798 0.04184388
0.107257314 0.35800856 0.352858 -0.419619 0.5938506 -0.042923726 0.20417874 -0.40760136
-0.36873034 -0.2631649 0.3515547 -0.07123171 0.16341911 -0.24133028 -0.09466621 -0.20023662
-0.5272914 0.051402163 0.53250694 0.10372378 -0.4454206 0.29179218 -0.53631866 -0.77999496
-0.25996062 0.51034415 0.3960631 -0.060667675 -0.18303496 0.0043502217 -0.15411793 -1.0734683
0.76245356 0.09433553 0.16409647 -0.15007114 -0.7936777 -0.7004425 -0.7751928 -0.033508115
0.39614555 0.31321326 0.68428236 0.3684211 0.00059041544 0.42587608 -0.04812861 -0.42428145
0.06309359 0.23561375 0.30823287 0.087270595 0.20309262 -0.6319423 0.4183491 -0.20921962
-0.04969006 0.48813418 0.12209585 -0.46048117 0.2890187 0.067036584 0.011650778 0.36183113
-0.36141375 0.21269758 0.21363868 0.5573726 0.19519387 -0.22908959 -0.3694917 -0.3861151
-0.4237643 0.33307225 0.21411853 0.11652565 -0.3453747 -0.52160877 0.24508178 -0.023425043
-0.3581967 -0.5275662 0.40292734 -0.21389686 0.19178405 -0.63153946 0.5509427 0.043148488
0.35048333 0.47856742 -0.4200296 -0.48435298 0.37323773 0.3738918 -0.2513406 0.17796801
-0.8585244 0.042160857 0.36667252 -0.39484674 -0.6919543 0.1968276 -0.15910493 -0.34668282
-0.4901186 0.5761074 0.07081683 0.078571446 0.08376165 0.15420496 0.022524213 -1.3161658
-0.0035956842 0.048729647 -0.08610604 0.5200158 -0.5058064 0.25170037 0.21018988 -0.8005986
-0.60375994 0.24550104 0.36259645 -0.37228942 -0.10838906 -0.032111984 0.019451777 -0.63875484
00000000: 9b1d a1be ecb6 d6be d696 33be e56d ea3e
00000010: c98b c03d 152d 31bf 1c21 44bf c30f c5be
00000020: 334f 1fbd 0522 053c bdc7 9b3e ddf9 92be
00000030: 26f7 2bbf ef61 07bf 489a 683e 5bbe 6d3e
00000040: 1b02 57bf a26f a83e 0587 b8bc fadf bbbe
00000050: 2e51 a4be 28f8 703e 0d8c 693c 4774 c8be
00000060: 4f84 06bf c3e6 333e e6f9 a83e 429d dbbd
00000070: dac3 d63e e89a 7d3e b5b6 db3e d411 4bbf
00000080: c5b1 f33e 5a5e af3e 1fa6 933e 7964 3b3e
00000090: 9512 533e 8cd9 15bf 85fd 553d a636 5e3f
000000a0: f5d0 523f 85fd 083d 2abb 813e 3b60 fdbe
000000b0: d89f 9f3f 494b d73e be69 ab3e 9f88 38bf
000000c0: 7e67 433f 33b0 713e c7e3 4fbe 4fe4 063e
000000d0: 57c4 80bf 7ac3 f4be 8cd3 a4be 74af 9dbd
000000e0: 4411 0e3e 4c03 3c3e d865 483f ba8a 10be
000000f0: 9c66 e0be 6f70 783e 417a 9abe 67fe 9abe
00000100: a6b7 003f 4b8c cd3d 71e3 3f3e 19cf 813c
00000110: 3646 c23e 282d 3bbf 31c0 06bd 3b2c 813e
00000120: c9c5 333f cab3 abbd 4867 ddbd 8451 89bc
00000130: 2f98 483e 3c73 cc3d 99d5 1ebe a16d 3bbd
00000140: e93f d43e 7fce 55bd 2810 553e 9e77 cd3e
00000150: e8df 00bf 8be8 17bf e45d d3be 49b5 a5bd
00000160: 3921 d73e 0f2e 7fbe 14c3 85be 415d 79bc
00000170: 05be 1abf d72f 6cbe 3d4e ddbe 8143 efbe
00000180: 34ad 8b3e 9bc8 83be 107b c3be b8ef 193f
00000190: 5616 4d3e 5963 f2be 3954 de3e 960d 0fbf
000001a0: 0ba4 1cbf d7a2 0e3f 66c6 d3bc b448 b6be
000001b0: 0d07 45be 220d 6f3c cacf 91be 571d b93e
000001c0: 5576 923d 548a c73d c5f8 8a3c ee25 143d
000001d0: 9bd2 783d 7efb 113d 79bd ee3c bab3 703d
000001e0: d575 83bd e5f0 aabb 5b3d b23d 2506 c2bd
000001f0: d658 88bc e832 21bd dfeb f93c 7d64 2b3d
00000200: b9a9 db3d e64c b73e cea9 b43e 4dd8 d6be
00000210: 9806 183f cad0 2fbd 3b14 513e 20b1 d0be
00000220: 39ca bcbe 8dbd 86be fafe b33e eee1 91bd
00000230: 5757 273e 491f 77be 5ce0 c1bd d40a 4dbe
00000240: 92fc 06bf 138b 523d 6052 083f 226d d43d
00000250: 2b0e e4be c965 953e 2e4c 09bf c0ad 47bf
00000260: 8f19 85be eaa5 023f c8c8 ca3e ab7e 78bd
00000270: 846d 3bbe 4e8c 8e3b 17d1 1dbe 6967 89bf
00000280: 2830 433f fd32 c13d e808 283e 40ac 19be
00000290: 762e 4bbf 3350 33bf 0973 46bf ce3f 09bd
000002a0: 97d3 ca3e 7d5d a03e 212d 2f3f b1a1 bc3e
000002b0: 1cc6 1a3a 6e0c da3e 8122 45bd 6b3b d9be
000002c0: 3637 813d bb44 713e b3d0 9d3e edba b23d
000002d0: 83f7 4f3e f8c6 21bf da31 d63e ab3d 56be
000002e0: ce87 4bbd b9ec f93e 640d fa3d 30c4 ebbe
000002f0: 42fa 933e 7a4a 893d e8e2 3e3c ee41 b93e
00000300: 390b b9be 65cd 593e 19c4 5a3e f9af 0e3f
00000310: e7e0 473e 7696 6abe 042e bdbe e1b0 c5be
00000320: a2f7 d8be 7288 aa3e e341 5b3e 00a5 ee3d
00000330: f4d4 b0be 2788 05bf b8f6 7a3e e0e5 bfbc
00000340: 8f65 b7be 940e 07bf 7e4c ce3e c707 5bbe
00000350: 0a63 443e 92ac 21bf 950a 0d3f 78bc 303d
00000360: 8d72 b33e ca06 f53e 1f0e d7be 1dfd f7be
00000370: 0419 bf3e bf6e bf3e b7af 80be 3f3d 363e
00000380: 41c8 5bbf ddb0 2c3d 80bc bb3e 5a29 cabe
00000390: eb23 31bf 2d8d 493e 67ec 22be 6980 b1be
000003a0: d3f0 fabe c67b 133f 6a08 913d 11ea a03d
000003b0: 3a8b ab3d e8e7 1d3e b384 b83c 1f78 a8bf
000003c0: 92a5 6bbb bd98 473d 5d58 b0bd c11f 053f
000003d0: 877c 01bf dfde 803e 043c 573e 08f4 4cbf
000003e0: 0390 1abf a064 7b3e 3ea6 b93e b89c bebe
000003f0: 15fb ddbd db87 03bd 5559 9f3c 7085 23bf

fc_layers.0.bias f4 [64]
0.2368858 0.15257575 0.1814448 -0.7421047 0.24743025 -0.6069584 -0.5049075 -0.20080851
-0.4854345 -0.20653129 -0.81145287 0.36133277 -0.023368051 -0.2650342 0.18372548 -0.43342867
-0.14633727 0.46038866 -0.37697342 -0.42352822 -0.07980612 -0.23768316 0.21398155 0.50834113
-0.48883358 0.42526075 0.5293664 0.5542298 -0.36706817 -0.2936515 0.5495361 -0.8119508
-0.282038 0.55641973 -0.33551252 0.42088288 0.09740377 -0.21704547 -0.20610198 -0.4919268
-0.5207257 0.5224751 -0.45589888 0.49451193 0.5654997 0.47941917 -0.23387285 -0.33998272
-0.37153536 -0.6663289 -0.46223706 -0.6961618 -0.65160507 -0.48963246 -0.37123373 -2.1179412e-11
0.4016751 -0.5805 -0.36374944 -0.46091977 -0.14417183 0.52607656 -0.7179687 0.1744237
00000000: 3192 723e d13c 1c3e aacc 393e 93fa 3dbf
00000010: 5b5e 7d3e a061 1bbf 9e41 01bf bfa0 4dbe
00000020: df8a f8be f07c 53be 60bb 4fbf 9c00 b93e
00000030: 5b6e bfbc 90b2 87be 8822 3c3e 5dea ddbe
00000040: 70d9 15be 10b8 eb3e a902 c1be b1d8 d8be
00000050: 6471 a3bd 3763 73be fb1d 5b3e a522 023f
00000060: 6548 fabe c7bb d93e 8e84 073f 01e2 0d3f
00000070: 5cf0 bbbe 7d59 96be 66ae 0c3f 02dc 4fbf
00000080: 4967 90be 8671 0e3f 4cc8 abbe f67d d73e
00000090: a17b c73d 2b41 5ebe 660c 53be d4dd fbbe
000000a0: 484e 05bf eec0 053f 946b e9be ab30 fd3e
000000b0: 97c4 103f 6e76 f53e 5d7c 6fbe 3712 aebe
000000c0: e239 bebe 8894 2abf 56aa ecbe a937 32bf
000000d0: 97cf 26bf 1bb1 fabe 5912 bebe cc4b baad
000000e0: 5ca8 cd3e a69b 14bf 5e3d babe adfd ebbe
000000f0: c8a1 13be f4ac 063f cccc 37bf 209c 323e

fc_layers.1.weight f4 [32, 64]
0.3538056 0.16355228 -0.07225924 0.5762157 -0.0064908266 0.1422751 0.57697797 0.009479245
-0.24122854 0.17020695 0.945647 0.04696643 0.08379282 0.69497234 0.15625751 0.034165658
0.12713158 0.3001368 -0.024982452 0.45670575 -0.01902252 -0.24617933 0.14507566 0.29742393
-0.6751857 0.10115612 0.34681988 0.07578725 -0.06964716 -0.5813245 0.12449136 0.63674206
-0.10999782 0.18996204 -0.22891426 0.019796785 0.20692706 -0.16805477 -0.467348 -0.6812411
0.48014253 0.07208301 -0.611042 0.059778906 0.10704965 0.057234075 -0.7083577 0.17229375
-0.5032686 -0.84025156 -0.38987082 -0.78744715 -0.6748294 -0.681109 0.16330731 -9.692501e-18
0.07796936 -0.49502918 0.7658045 -0.94150376 0.5364032 0.103736065 -0.88593864 0.4962192
0.3096309 0.21436754 0.0022872123 0.61771196 0.039326813 0.23904513 0.7236073 0.019804804
-0.17293754 0.23946752 0.9765097 0.13803345 0.12529492 0.8594852 0.19358471 0.16865693
0.16393963 0.27679724 -0.100401975 0.54435337 -0.019997718 -0.2897709 0.17901671 0.22369488
-0.7594589 0.1270661 0.3409735 0.08351415 -0.11974574 -0.59426975 0.101223074 0.673701
0.0096877385 0.1516384 -0.2160765 0.047160786 0.20564106 -0.13339098 -0.5824315 -0.74110955
0.5157891 0.090172485 -0.6315566 0.09758819 0.19940452 0.0751477 -0.6401339 0.17910916
-0.5243597 -0.85941744 -0.40573293 -0.7799139 -0.7868673 -0.7730542 0.27795443 -1.5918117e-15
0.09709999 -0.52246606 0.7871899 -0.9075694 0.63467133 0.14436059 -0.9383751 0.47265512
-1.3932527e-37 -7.982244e-39 -4.961211e-38 3.278433e-38 -3.286379e-38 -5.419756e-38 1.2023096e-38 4.915643e-38
3.8128053e-38 -2.2946274e-38 -5.0655796e-38 -4.6340918e-38 -4.201788e-39 3.9363034e-38 -4.5521708e-38 -7.549165e-39
2.7987047e-38 -9.489258e-38 2.2279973e-38 -8.119895e-38 -4.9068226e-38 3.3554036e-38 -4.0318653e-38 -9.216822e-39
3.8840406e-38 3.12864e-39 -8.720355e-38 -2.7478006e-38 -5.20149e-38 2.1103734e-38 -1.4124461e-38 3.2142424e-38
4.4547884e-38 -2.2274951e-38 -1.1246777e-37 -1.7924603e-38 -5.3293875e-38 -4.911724e-38 -2.3004119e-38 1.466238e-38
4.782522e-38 -2.1214717e-38 9.233682e-39 -2.2432076e-38 -5.0622434e-38 -1.7522778e-38 1.3866801e-38 4.91654e-38
-4.2690594e-38 -4.9191764e-38 4.4989842e-38 -4.9165935e-38 -4.3940998e-38 1.5365585e-38 -4.900379e-38 -5.850872e-38
-4.7756745e-38 2.9302115e-38 -4.6826328e-38 -4.8065793e-38 2.657804e-39 -2.9052034e-38 3.833697e-38 -5.848827e-38
-2.6097644e-36 7.154943e-37 -2.6061075e-36 1.0940991e-36 -4.757851e-36 1.6815649e-38 4.195656e-37 4.6457102e-38
-4.6645634e-37 2.8048856e-37 -8.2075885e-37 -8.415262e-37 3.858092e-37 -7.630371e-37 3.4632766e-37 1.7015772e-36
1.9020777e-38 -2.2592565e-36 -3.9377594e-37 3.7663046e-38 -5.2029595e-38 -3.072313e-37 -1.6268342e-36 -1.14849265e-36
-2.51113e-37 -5.2707075e-36 -4.2676138e-36 -3.9505518e-36 1.5396391e-37 -2.526131e-36 -2.5476019e-36 8.563055e-37
-3.675122e-37 -2.2912049e-36 -6.408269e-37 -4.3168068e-36 -3.961781e-37 -5.3943794e-37 -1.10183125e-36 1.7106474e-36
-6.5558984e-37 -5.160933e-36 1.1499975e-36 -4.4480056e-36 -4.32139e-36 -4.337404e-36 -1.5236163e-36 -1.9672352e-37
-1.2555281e-36 -3.9666522e-38 -3.2724028e-37 -7.133912e-37 -8.268678e-37 -5.510695e-38 -7.3389e-37 4.912123e-38
-6.7765906e-37 2.6067219e-36 -1.6088623e-36 -4.094367e-37 -8.392828e-37 -4.7926058e-36 -1.2275464e-38 -7.404364e-36
00000000: 0226 b53e 407a 273e a7fc 93bd df82 133f
00000010: 00b1 d4bb 90b0 113e d4b4 133f d64e 1b3c
00000020: 9d04 77be bb4a 2e3e ec15 723f df5f 403d
00000030: 929b ab3d b5e9 313f f801 203e 4af1 0b3d
00000040: c82e 023e 88ab 993e 00a8 ccbc 56d5 e93e
00000050: 1ed5 9bbc 6f16 7cbe b78e 143e f347 983e
00000060: f8d8 2cbf f12a cf3d 6092 b13e 5936 9b3d
00000070: 2ca3 8ebd afd1 14bf 53f5 fe3d 8701 233f
00000080: 8946 e1bd 6985 423e 8068 6abe de2c a23c
00000090: b0e4 533e 8d16 2cbe 3d48 efbe d165 2ebf
000000a0: 3ed5 f53e 42a0 933d 406d 1cbf bada 743d
000000b0: d93c db3d 476e 6a3d ee56 35bf c66d 303e
000000c0: 36d6 00bf ba1a 57bf 269d c7be 2396 49bf
000000d0: 9fc1 2cbf 295d 2ebf 083a 273e 8bcb 32a3
000000e0: 66ae 9f3d 7774 fdbe c40b 443f 6406 71bf
000000f0: b851 093f 9373 d43d e0cc 62bf 7110 fe3e
00000100: f187 9e3e 2a83 5b3e 0ee5 153b 5f22 1e3f
00000110: 2715 213d 3fc8 743e 543e 393f af3d a23c
00000120: 8a16 31be f936 753e 8afc 793f a458 0d3e
00000130: 504d 003e 3907 5c3f 123b 463e 67b4 2c3e
00000140: cadf 273e 5eb8 8d3e 8d9f cdbd be5a 0b3f
00000150: 41d2 a3bc da5c 94be 2850 373e 4510 653e
00000160: e66b 42bf 9e1d 023e 1494 ae3e 7709 ab3d
00000170: 413d f5bd 1022 18bf 0b4e cf3d ab77 2c3f
00000180: 52b9 1e3c 1947 1b3e 2843 5dbe ab2b 413d
00000190: 9293 523e a597 08be 3b1a 15bf 5bb9 3dbf
000001a0: c10a 043f 5aac b83d b1ad 21bf 51dc c73d
000001b0: b330 4c3e 0ae7 993d d1df 23bf 6468 373e
000001c0: 703c 06bf c802 5cbf 3abc cfbe 70a8 47bf
000001d0: 2370 49bf e1e6 45bf 0b50 8e3e 7c67 e5a6
000001e0: 5cdc c63d 56c0 05bf 4785 493f 7856 68bf
000001f0: d279 223f 43d3 133e 5a39 70bf daff f13e
00000200: c5a3 3d82 40eb 5680 980e 8781 b07e 3201
00000210: 70ed 3281 308a 9381 80eb 8200 08d1 8501
00000220: c096 4f01 e0dc f980 f0e5 8981 d04d 7c81
00000230: e0c0 2d80 1050 5601 00d8 7781 0034 5280
00000240: 4060 1801 3d29 0182 809b f200 690b dd81
00000250: 9093 8581 80af 3601 0084 5b81 c05c 6480
00000260: a077 5301 6011 2200 0164 ed81 c09a 1581
00000270: 1899 8d81 a0cc e500 40cd 9980 0000 2f01
00000280: b08a 7201 808d f280 4c15 1982 802e c380
00000290: 6914 9181 b8b5 8581 207e fa80 c0a8 9f00
000002a0: 5031 8201 0002 e780 c08b 6400 8043 f480
000002b0: b0ce 8981 60ce be80 00ff 9600 48d7 8501
000002c0: 016e 6881 a8e9 8581 b0f2 7401 a8d7 8581
000002d0: d03c 6f81 0051 a700 a866 8581 a046 9f81
000002e0: 9801 8281 3089 1f01 60f2 7e81 f8d8 8281
000002f0: e0f0 1c00 a02c 1e81 f0b9 5001 6038 9f81
00000300: a303 5e84 5878 7303 ffb3 5d84 bd26 ba03
00000310: 6960 ca84 301b b700 52c5 0e03 c0ef 7c01
00000320: 14ba 1e83 00e4 be02 17a5 8b83 a32d 8f83
00000330: b948 0303 f4d2 8183 cab2 eb02 12c1 1004
00000340: 301e cf00 4032 4084 b9fe 0583 a00e 4d01
00000350: 56a3 8d81 3e17 d182 5065 0a84 e967 c383
00000360: 0ee6 aa82 ec30 e084 3386 b584 b309 a884
00000370: 9890 5102 43e6 5684 dbb9 5884 5db1 9103
00000380: a81d fa82 06ea 4284 e50f 5a83 dd9d b784
00000390: fbcf 0683 ac8f 3783 8577 bb83 9a86 1104
000003a0: ee15 5f83 9585 db84 75a9 c303 7e32 bd84
000003b0: c5cf b784 267e b884 6d9d 0184 12e2 8582
000003c0: f69d d583 10f7 5781 4cb5 de82 23c1 7283
000003d0: 2caf 8c83 f003 9681 d6ba 7983 80b8 8501
000003e0: 6e98 6683 60c1 5d04 ebdd 0884 f852 0b83
000003f0: eccb 8e83 dbda cb84 00ab 8580 3179 1d85

fc_layers.1.bias f4 [32]
-0.05020247 0.020814244 -1.4863606e-37 -3.7939927e-36 0.0018071166 -7.726891e-26 -0.006545139 -2.1006002e-29
-0.088357426 -8.701962e-17 -3.3447277e-35 -1.3454556e-33 -1.383373e-37 -3.7014032e-37 -2.212174e-36 -2.2018466e-17
-0.11163922 -4.843499e-35 0.008674448 -2.126134e-36 -5.304048e-37 -2.5693463e-28 -4.911208e-38 -3.6367474e-29
-1.03855124e-32 -8.9714864e-36 0.27438688 -6.2985406e-38 -2.9302514e-31 0.10651455 -8.712103e-30 -6.172025e-27
00000000: 1ba1 4dbd a282 aa3c 1c50 4a82 ec60 a184
00000010: c5dc ec3a fd4e bf95 9b78 d6bb b306 d58f
00000020: bdf4 b4bd 51a7 c8a4 13d6 3186 5a8d df88
00000030: 844b 3c82 8ae7 fb82 e230 3c84 a215 cba3
00000040: 1aa3 e4bd 25c3 8086 461f 0e3c 19df 3484
00000050: c67c 3483 07da a291 20b2 8581 ae67 3890
00000060: dbb2 578a 6bcd 3e85 707c 8c3e 6c76 ab81
00000070: 272f be8c 4d24 da3d d3b3 308f c57f f493

fc_layers.2.weight f4 [16, 32]
0.13835606 0.1974558 -2.5048804e-38 9.30508e-36 0.22126374 2.862322e-26 0.0054018837 6.657762e-30
0.30944195 -3.677051e-28 -3.7006763e-36 9.126767e-34 -7.559433e-39 9.192473e-39 -1.801451e-38 -1.3713267e-18
0.088689454 -2.4236324e-34 0.19204918 -5.4450916e-38 8.2499496e-38 1.0788495e-27 -1.8564537e-38 -1.6151586e-30
1.609955e-32 1.8890694e-34 -0.9981874 4.905664e-38 -9.5015855e-32 0.24867386 4.740971e-31 -4.5834637e-26
4.913701e-38 -4.914975e-38 -4.9169747e-38 4.9046623e-38 -4.9131183e-38 -4.9101207e-38 4.905643e-38 4.910224e-38
-4.9148806e-38 -4.90765e-38 -4.911433e-38 -4.912089e-38 4.905249e-38 -4.909239e-38 4.9127714e-38 -4.907465e-38
4.9167595e-38 -4.915447e-38 -4.9061634e-38 -4.910175e-38 4.9150476e-38 -4.9184377e-38 4.9093236e-38 -4.9142915e-38
4.9156625e-38 -4.904937e-38 4.915374e-38 4.909682e-38 4.914324e-38 -4.906881e-38 -4.9151833e-38 4.916101e-38
0.14855652 0.19678698 -2.3253707e-38 9.0846564e-36 0.20488995 2.7943558e-26 0.0052218875 6.4957464e-30
0.3179302 -2.4023756e-28 -3.619141e-36 8.912585e-34 -8.029642e-39 9.800076e-39 -1.879269e-38 -1.3389058e-18
0.08437181 -2.3667075e-34 0.18051404 -5.292796e-38 8.166374e-38 1.0539441e-27 -1.8583813e-38 -1.5946692e-30
1.5727344e-32 1.8435255e-34 -0.92246246 4.914244e-38 -9.2701653e-32 0.26309952 4.6290784e-31 -4.4719468e-26
-4.927795e-38 -4.921988e-38 -4.904641e-38 4.9091016e-38 -4.9064594e-38 4.911494e-38 4.904551e-38 4.905195e-38
-4.918383e-38 -4.918276e-38 4.909484e-38 4.917286e-38 -4.9127506e-38 -4.911947e-38 4.9132316e-38 -4.908115e-38
-4.9147237e-38 4.9145213e-38 -5.0546966e-38 -4.908954e-38 4.915518e-38 -4.906246e-38 -4.910387e-38 4.91215e-38
4.9130735e-38 -4.9130584e-38 -4.90706e-38 -4.915416e-38 -4.9050373e-38 -4.911522e-38 -4.908034e-38 -4.9131766e-38
-4.90778e-38 -4.9173553e-38 4.914853e-38 4.917558e-38 -4.905078e-38 4.914065e-38 4.913943e-38 -4.9111857e-38
-4.9094094e-38 4.907714e-38 4.9174674e-38 -4.9141575e-38 -4.9085417e-38 -4.910489e-38 -4.915297e-38 4.906937e-38
-4.9065995e-38 4.918459e-38 -4.9172213e-38 -4.9178295e-38 -4.916667e-38 -4.9126783e-38 4.915502e-38 -4.914644e-38
-4.91226e-38 4.9164327e-38 -4.913891e-38 4.9124726e-38 4.917527e-38 -4.9134457e-38 -4.9118807e-38 4.913859e-38
0.12315528 0.17393498 -1.9057659e-38 8.474002e-36 0.18124637 2.606122e-26 0.004742662 6.0634383e-30
0.28870332 -9.5488967e-29 -3.390449e-36 8.321671e-34 -8.332053e-39 1.1362266e-38 -2.1309288e-38 -1.2497656e-18
0.0716304 -2.216549e-34 0.14698645 -4.659898e-38 8.150455e-38 9.843316e-28 -1.8521438e-38 -1.4699698e-30
1.4712418e-32 1.7193284e-34 -0.93218476 4.9174926e-38 -8.651822e-32 0.2439215 4.3180534e-31 -4.1699166e-26
0.18360671 0.22984318 -3.5033134e-38 1.0697495e-35 0.25759315 3.290569e-26 0.006496677 7.618354e-30
0.3502657 -3.9231247e-27 -4.244758e-36 1.0484633e-33 -6.914657e-39 1.6935398e-38 -1.2909569e-38 -1.5752577e-18
0.12002571 -2.7766072e-34 0.22352535 -6.807131e-38 8.7978955e-38 1.2391748e-27 -1.856888e-38 -1.8610308e-30
1.8455106e-32 2.1725732e-34 -0.9167825 4.906242e-38 -1.091763e-31 0.2896233 5.447343e-31 -5.271932e-26
0.07325628 0.12491451 -2.400368e-39 6.181216e-36 0.11722615 1.9052806e-26 0.0028403234 4.4732292e-30
0.25011778 -9.653539e-31 -2.5200024e-36 6.0914746e-34 -9.888504e-39 3.041284e-38 -2.9213463e-38 -9.15786e-19
0.035335254 -1.6390005e-34 0.106861345 -2.289475e-38 6.696804e-38 7.2590644e-28 -1.853122e-38 -1.1986895e-30
1.0863439e-32 1.2513677e-34 -0.8763863 4.90895e-38 -6.303023e-32 0.18664485 3.1683532e-31 -3.030473e-26
00000000: 36ad 0d3e da31 4a3e f060 0881 ade5 4505
00000010: f692 623e 3ebc 0d15 4902 b13b 1409 070f
00000020: 2d6f 9e3e 900f e991 cc68 9d84 f9a4 9708
00000030: a050 5280 e018 6400 2029 c480 425f caa1
00000040: d1a2 b53d f813 a187 8aa8 443e c03a 9481
00000050: c295 e001 56f3 aa12 6026 ca80 8809 038e
00000060: f22f a70a b319 7b07 3689 7fbf 7d8b 8501
00000070: deac f68b 5ca4 7e3e 72da 190d 4ef6 6295
00000080: 80c3 8501 60cc 8581 50da 8581 8284 8501
00000090: 70bf 8581 8caa 8581 588b 8501 44ab 8501
000000a0: b8cb 8581 5499 8581 b1b3 8581 44b8 8581
000000b0: 9988 8501 67a4 8581 05bd 8501 0a98 8581
000000c0: d0d8 8501 aacf 8581 f88e 8581 edaa 8581
000000d0: e2cc 8501 82e4 8581 fea4 8501 9dc7 8581
000000e0: 2bd1 8501 6c86 8581 28cf 8501 7da7 8501
000000f0: d7c7 8501 f893 8581 d4cd 8581 39d4 8501
00000100: 331f 183e 8782 493e e035 fd80 9335 4105
00000110: acce 513e ab5e 0a15 5e1c ab3b d8bf 030f
00000120: bfc7 a23e c644 9891 f5f0 9984 f215 9408
00000130: 606f 5780 a0b6 6a00 60a2 cc80 6e96 c5a1
00000140: 21cb ac3d 714b 9d87 acd8 383e 6815 9081
00000150: 524f de01 0d01 a712 1c5c ca80 fc5f 018e
00000160: 7452 a30a ec0b 7507 8026 6cbf 48c7 8501
00000170: d1aa f08b fbb4 863e e138 160d a970 5d95
00000180: b825 8681 40fd 8581 5c84 8581 72a3 8501
00000190: 0891 8581 1eb4 8501 bb83 8501 3888 8501
000001a0: 20e4 8581 62e3 8581 1ca6 8501 7bdc 8501
000001b0: e0bc 8581 46b7 8581 3ac0 8501 929c 8581
000001c0: a0ca 8581 37c9 8501 189a 8981 6ba2 8581
000001d0: 29d0 8501 8b8f 8581 67ac 8581 b0b8 8501
000001e0: 20bf 8501 05bf 8581 3895 8581 73cf 8581
000001f0: 1f87 8581 50b4 8581 019c 8581 d8bf 8581
00000200: 3c9a 8581 f7dc 8581 87cb 8501 61de 8501
00000210: 6887 8581 09c6 8501 2fc5 8501 f8b1 8581
00000220: 97a5 8581 c699 8501 bfdd 8501 aec6 8581
00000230: 8b9f 8581 1dad 8581 9fce 8581 5c94 8501
00000240: 0292 8581 a8e4 8501 08dc 8581 45e0 8581
00000250: 2bd8 8581 5fbc 8581 0dd0 8501 12ca 8581
00000260: 75b9 8581 89d6 8501 d2c4 8581 f0ba 8501
00000270: 29de 8501 b8c1 8581 d0b6 8581 99c4 8501
00000280: d638 fc3d 031c 323e 0085 cf80 db38 3405
00000290: a698 393e 850c 0115 5568 9b3b 58f6 f50e
000002a0: ecd0 933e e217 f290 b836 9084 7944 8a08
000002b0: 60ba 5a80 60b9 7b00 a009 e880 cf6e b8a1
000002c0: f6b2 923d a150 9387 9e83 163e 80b5 7d81
000002d0: 62e0 dd01 3cf9 9b12 3cae c980 2884 ee8d
000002e0: 51c8 980a b789 6407 a9a3 6ebf ecdd 8501
000002f0: 389d e08b 8fc6 793e fc20 0c0d f97b 4e95
00000300: 6603 3c3e 035c 6b3e 10bd 3e81 b482 6305
00000310: 40e3 833e ebf0 2215 14e2 d43b c184 1a0f
00000320: 0756 b33e 3669 9b93 528d b484 b234 ae08
00000330: 404b 4b80 0069 b800 a092 8c80 8e77 e8a1
00000340: 0ad0 f53d 8689 b887 d4e3 643e c84e b981
00000350: 6280 ef01 e75a c412 7c32 ca80 19fc 168e
00000360: 16a6 bf0a 6b64 9007 42b2 6abf 848f 8501
00000370: 0cb8 0d8c 8149 943e c1c6 300d d786 8295
00000380: 6307 963d 2ed3 ff3d 4023 1a80 be75 0305
00000390: 4414 f03d 9ab0 bc14 b824 3a3b ab74 b50e
000003a0: 700f 803e 3ba3 9c8d cb60 5684 896c 4a08
000003b0: 20ad 6b80 5095 2501 a00d 1f81 6b25 87a1
000003c0: b3bb 103d 4cdc 5987 1fda da3d 404d f980
000003d0: ea4d b601 870c 6612 80c9 c980 9d7f c28d
000003e0: f39f 610a d655 2607 da5a 60bf 63a2 8501
000003f0: c6a2 a38b d41f 3f3e 4ca3 cd0c cf0f 1695

fc_layers.2.bias f4 [16]
0.3410993 -5.4505225e-38 0.3092417 -5.734046e-38 -4.91581e-38 0.31333354 0.3311154 0.2490345
-4.9079515e-38 0.67471206 0.32271558 -5.414468e-38 0.3338312 -4.90611e-38 0.32414535 -5.5777996e-38
00000000: 91a4 ae3e 9960 9481 ee54 9e3e 7818 9c81
00000010: 32d2 8581 416d a03e f587 a93e e602 7f3e
00000020: 6e9b 8581 eeb9 2c3f fa3a a53e 5665 9381
00000030: eceb aa3e 998e 8581 61f6 a53e 97d7 9781

fc_layers.3.weight f4 [8, 16]
-4.914661e-38 4.9092143e-38 -4.907688e-38 -4.907488e-38 -4.907602e-38 -4.905002e-38 -4.9276963e-38 -4.906603e-38
-4.915975e-38 -5.6137586e-38 -4.913392e-38 4.910288e-38 -4.910181e-38 4.90574e-38 -4.908419e-38 -4.9183614e-38
0.28372875 4.9069257e-38 0.27211896 -4.908836e-38 -4.9138246e-38 0.2512799 0.3138256 0.19274566
-4.90477e-38 -1.2304175 0.2860008 4.910827e-38 0.27077144 4.912945e-38 0.25247797 4.9168043e-38
0.16761845 3.6259102e-38 0.17096046 -4.9163514e-38 -4.9112826e-38 0.16096549 0.19257994 0.1002328
-4.9120405e-38 -1.0452381 0.17853667 -4.904737e-38 0.16523236 4.9118914e-38 0.14268048 4.907742e-38
-4.9090064e-38 -4.9081527e-38 -4.909809e-38 4.9103606e-38 4.9114956e-38 -4.912571e-38 -4.911033e-38 -4.915423e-38
4.917744e-38 -5.854692e-38 -4.9067553e-38 -4.906049e-38 -4.9138e-38 4.9123964e-38 -4.9167146e-38 4.9098286e-38
0.2045128 3.5215774e-38 0.2114676 -3.9747326e-38 -4.9182785e-38 0.1939381 0.253637 0.16769585
-4.918366e-38 -1.0385574 0.2173267 -4.9163643e-38 0.2129849 4.909736e-38 0.19549264 4.917737e-38
0.12666231 3.7312116e-38 0.10325373 -4.916374e-38 -4.918018e-38 0.105176434 0.14148572 0.032982007
-4.9067884e-38 -1.0380424 0.09639591 -4.915163e-38 0.111274496 4.917422e-38 0.08749634 4.914625e-38
-4.9142887e-38 4.9050984e-38 -4.9076656e-38 -4.905624e-38 -4.917787e-38 -4.905984e-38 -4.9063383e-38 -4.9124053e-38
-4.9129715e-38 -4.9056567e-38 -4.913459e-38 -4.907532e-38 -4.905334e-38 -4.909239e-38 -4.9172213e-38 4.909589e-38
-4.914782e-38 -4.9164293e-38 -4.910253e-38 4.906737e-38 4.9054325e-38 -4.9122663e-38 -4.9192885e-38 -4.9181944e-38
4.914086e-38 -6.194811e-38 -4.9109704e-38 -4.9048966e-38 -4.906778e-38 -4.9141867e-38 -4.905706e-38 -4.9091913e-38
00000000: 30ca 8581 3ba4 8501 9899 8581 3398 8581
00000010: ff98 8581 e086 8581 0825 8681 0892 8581
00000020: 58d3 8581 30d2 9881 58c1 8581 b7ab 8501
00000030: f8aa 8581 058c 8501 b09e 8581 fae3 8581
00000040: e544 913e 4894 8501 2d53 8b3e 98a1 8581
00000050: 5cc4 8581 c2a7 803e c0ad a03e 1e5f 453e
00000060: 4285 8581 527e 9dbf b26e 923e 78af 8501
00000070: 8ea2 8a3e 3bbe 8501 cb44 813e 20d9 8501
00000080: 2ca4 2b3e d069 4501 4210 2f3e f8d5 8581
00000090: a5b2 8581 23d4 243e ad33 453e db46 cd3d
000000a0: edb7 8581 5dca 85bf 51d2 363e 0785 8581
000000b0: ac32 293e e3b6 8501 d51a 123e f899 8501
000000c0: c8a2 8581 d59c 8581 60a8 8581 38ac 8501
000000d0: 21b4 8501 a0bb 8581 e8b0 8581 80cf 8581
000000e0: acdf 8501 4061 9f81 1893 8581 2c8e 8581
000000f0: 30c4 8581 68ba 8501 80d8 8581 83a8 8501
00000100: ce6b 513e a0bb 3f01 f68a 583e b067 5881
00000110: 66e3 8581 b697 463e b5dc 813e 76b8 2b3e
00000120: 02e4 8581 73ef 84bf e48a 5e3e 0fd6 8581
00000130: b718 5a3e dea7 8501 392f 483e a0df 8501
00000140: c4b3 013e 8025 4b01 b176 d33d 20d6 8581
00000150: 95e1 8581 be66 d73d a2e1 103e 2418 073d
00000160: 5393 8581 93de 84bf 386b c53d b0cd 8581
00000170: e2e3 e33d 6edd 8501 4831 b33d f0c9 8501
00000180: 98c7 8581 8c87 8501 7099 8581 368b 8581
00000190: f9df 8581 b88d 8581 3090 8581 78ba 8581
000001a0: 6abe 8581 708b 8581 d0c1 8581 8298 8581
000001b0: 3089 8581 67a4 8581 08dc 8581 d7a6 8501
000001c0: 08cb 8581 83d6 8581 78ab 8581 f792 8501
000001d0: e089 8501 80b9 8581 70ea 8581 d0e2 8581
000001e0: 2ec6 8501 88a3 a881 78b0 8581 2486 8581
000001f0: 4093 8581 e2c6 8581 c88b 8581 12a4 8581

fc_layers.3.bias f4 [8]
-4.911051e-38 0.5631615 0.49463603 -4.904939e-38 0.53345305 0.45181596 -4.910168e-38 -4.915217e-38
00000000: 08b1 8581 5a2b 103f ef40 fd3e 7086 8581
00000010: 6190 083f 6c54 e73e e0aa 8581 10ce 8581
