checkpoints/neumf_first_try_Epoch31_HR0.6811_NDCG0.4064.model (torch, 645108 bytes, 13 tensors)

embedding_user_mlp.weight f4 [6040, 8]
-0.0701903 0.5886622 0.85592127 0.5201799 -0.51863056 -0.20895246 0.09914714 -0.5631948
-0.3048302 0.15281078 0.17043777 0.123795465 0.11804518 0.037028387 0.4234573 0.100654066
0.014843007 0.3136724 0.84565383 0.20576516 -0.11026873 -0.4994816 -0.5496993 -0.06621117
0.33152583 0.71862787 0.95855075 0.4552107 -0.8863457 -0.83428985 -0.12803778 -0.47762412
-0.45292655 0.031221515 -0.32790345 0.0926825 -0.67010486 -0.17791225 -0.5758403 -0.56980336
-0.015064587 -0.018963154 0.59607047 0.42259818 -0.44792053 -0.1732771 -0.70755297 -0.39423677
0.109697305 0.69615394 0.74144524 0.87772363 -0.42606556 -0.4498964 -0.47479138 -0.26903003
-0.07918166 -0.00043187835 0.60680425 0.04752921 0.5888975 -0.60703975 0.20906408 0.17954357
-0.2108589 0.3518477 0.4245652 0.46831435 -0.5455869 -0.41927657 -0.46937415 -0.26582775
-0.26186538 -0.16691694 0.03911406 -0.10412509 -0.34739512 0.09473869 0.3427727 0.094585806
0.18812136 -0.046554714 0.20265608 0.5390048 -0.14689176 -0.41491258 0.44541842 -0.038116485
0.10868911 0.06898904 0.072932616 0.62649024 0.37285966 -0.043337137 0.11319494 -0.1426997
0.0486052 0.3386759 0.49510553 -6.24756e-05 0.07161943 -0.08863891 0.32142293 -0.098468885
-0.6100969 -0.27937615 0.073901534 0.48687375 -0.65398175 -0.35219878 -0.3127298 -0.45945066
-0.3813975 0.0588935 0.14811584 0.06534922 -0.5736573 -0.565831 0.19641286 0.12911959
-0.46854362 -0.19362748 -0.5304496 0.5543985 -1.2085693 -0.52715963 -0.79416335 -0.7110715
-0.16154686 -0.26538515 -0.0703142 0.51782364 -0.6552236 -0.16552329 -0.33252978 -0.17998049
0.24839178 -0.27173957 0.28952512 -0.3254896 0.3218013 0.4021746 0.3503362 -0.15865155
-0.34334588 0.55201906 -0.0839029 -0.39604557 -0.57967633 0.04356098 0.021417705 -0.14639218
-0.15930513 0.59925085 0.2718587 0.16283162 -0.73098916 0.0463958 -0.64787215 -0.25784165
-0.8851907 -0.16430485 0.3192967 0.15837134 -0.12171601 -0.076582514 -0.21148314 0.007767907
0.12733507 0.076797895 -0.12941022 0.12283378 0.15738818 0.24238294 -0.22061493 0.3596097
0.07563704 -0.11561536 -0.37174052 0.1398881 -0.34684044 -0.2483708 -0.43192422 -0.19939524
-0.58843106 -0.016042767 0.09156762 -0.09222633 -0.1340978 0.008716771 -0.26384586 -0.18222561
-0.58554405 -0.47211826 0.03447506 0.6622592 -0.31880563 -0.1254241 -0.043632563 -0.8012712
0.3999748 -0.08026738 0.06576391 -0.017358001 0.30519664 0.27852422 -0.15664186 0.6017863
-0.05844195 0.4344405 0.12493595 0.28347322 -0.5515256 -0.2565766 -0.49410626 0.22047253
0.46432954 0.122075915 -0.31848717 0.485054 -0.7677492 -0.42899618 -0.33119637 -0.2775312
-0.16605307 0.61562246 0.6817238 0.35022944 0.1415034 0.42266318 -0.15516117 -0.32395634
0.033192568 0.35100204 0.5752288 0.29474068 -0.37128314 -0.27857244 -0.19234736 -0.8924104
-0.15625842 0.21358396 -0.16304488 0.69949645 -0.18955086 -0.6519395 -0.8137893 -0.008580965
0.037512843 0.24356818 0.15769544 0.3526402 -0.92576796 0.064991124 -0.14776315 -0.356039
00000000: efbf 8fbd 91b2 163f a81d 5b3f 832a 053f
00000010: f9c4 04bf a2f7 55be a80d cb3d 892d 10bf
00000020: b412 9cbe 6e7a 1c3e 3d87 2e3e 7a88 fd3d
00000030: acc1 f13d 14ab 173d 65cf d83e b823 ce3d
00000040: 1530 733c ab99 a03e c57c 583f 1ab4 523e
00000050: 92d4 e1bd 0dbc ffbe 18b9 0cbf b999 87bd
00000060: c1bd a93e fff7 373f 9563 753f 6011 e93e
00000070: 8de7 62bf 0594 55bf 561c 03be 268b f4be
00000080: fde5 e7be 43c4 ff3c f6e2 a7be 53d0 bd3d
00000090: fe8b 2bbf a12e 36be 456a 13bf a2de 11bf
000000a0: 75d1 76bc 9e58 9bbc 1398 183f ca5e d83e
000000b0: d755 e5be 8d6f 31be 3122 35bf 67d9 c9be
000000c0: fba8 e03d 2537 323f 5bcf 3d3f 7fb2 603f
000000d0: 4425 dabe d258 e6be db17 f3be 4ebe 89be
000000e0: ff29 a2bd bb6d e2b9 8657 1b3f fdad 423d
000000f0: fdc1 163f f566 1bbf e514 563e 45da 373e
00000100: 65eb 57be 6225 b43e 9c60 d93e e6c6 ef3e
00000110: 95ab 0bbf 6bab d6be cf51 f0be 931a 88be
00000120: 3813 86be 46ec 2abe 1136 203d 893f d5bd
00000130: c6dd b1be 5c06 c23d e77f af3e 34b6 c13d
00000140: e3a2 403e 28b0 3ebd 1385 4f3e 38fc 093f
00000150: cb6a 16be 6c6f d4be e20d e43e 0820 1cbd
00000160: 6598 de3d 204a 8d3d b25d 953d aa61 203f
00000170: 76e7 be3e 4882 31bd c0d2 e73d df1f 12be
00000180: 3f16 473d ed66 ad3e 797e fd3e 5505 83b8
00000190: 35ad 923d 5188 b5bd 8c91 a43e 0eaa c9bd
000001a0: 4f2f 1cbf 640a 8fbe b059 973d 8447 f93e
000001b0: 596b 27bf 6653 b4be 1f1e a0be 1e3d ebbe
000001c0: 8846 c3be 503a 713d aeab 173e d0d5 853d
000001d0: 34db 12bf 4dda 10bf 7420 493e ed37 043e
000001e0: f3e4 efbe 4846 46be 8ccb 07bf 0fed 0d3f
000001f0: 66b2 9abf eff3 06bf 4a4e 4bbf c808 36bf
00000200: 8a6c 25be 90e0 87be e400 90bd 1790 043f
00000210: bcbc 27bf f07e 29be 5841 aabe ce4c 38be
00000220: 6a5a 7e3e 7321 8bbe a33c 943e 93a6 a6be
00000230: 24c3 a43e d4e9 cd3e 445f b33e 8d75 22be
00000240: 08cb afbe 1f51 0d3f 49d5 abbd 7cc6 cabe
00000250: ab65 14bf 006d 323d 2f74 af3c d5e7 15be
00000260: e220 23be 8168 193f 1031 8b3e 55bd 263e
00000270: 1b22 3bbf 8609 3e3d f3da 25bf d203 84be
00000280: dc9b 62bf 883f 28be db7a a33e 192c 223e
00000290: 3e46 f9bd 4bd7 9cbd 098f 58be ed89 fe3b
000002a0: 2064 023e 3748 9d3d 1d84 04be 4790 fb3d
000002b0: 5e2a 213e 3c33 783e e1e8 61be c31e b83e
000002c0: 98e7 9a3d bfc7 ecbd c654 bebe d33e 0f3e
000002d0: 1295 b1be ea54 7ebe 2c25 ddbe 442e 4cbe
000002e0: 6ba3 16bf 1f6c 83bc ce87 bb3d 28e1 bcbd
000002f0: ef50 09be cad0 0e3c ce16 87be 5a99 3abe
00000300: 37e6 15bf 7cb9 f1be b835 0d3d d289 293f
00000310: 7e3a a3be 2d6f 00be 0fb8 32bd 1c20 4dbf
00000320: 7fc9 cc3e 3963 a4bd 3baf 863d 5e32 8ebc
00000330: bc42 9c3e ba9a 8e3e b966 20be ab0e 1a3f
00000340: d360 6fbd fc6e de3e 6bde ff3d 6723 913e
00000350: c830 0dbf 025e 83be 7ffb fcbe 8dc3 613e
00000360: 9abc ed3e f002 fa3d c010 a3be ff58 f83e
00000370: 368b 44bf 63a5 dbbe 9292 a9be 9218 8ebe
00000380: d109 2abe 6f99 1d3f 7385 2e3f 4651 b33e
00000390: 44e6 103e 4f67 d83e 92e2 1ebe 9bdd a5be
000003a0: eef4 073d 8ab6 b33e 3242 133f 40e8 963e
000003b0: d318 bebe 0ca1 8ebe b5f6 44be 0275 64bf
000003c0: 3502 20be c1b5 5a3e 3df5 26be 3312 333f
000003d0: 9f19 42be 82e5 26bf 7f54 50bf 2d97 0cbc
000003e0: 11a7 193d f069 793e ea7a 213e 428d b43e
000003f0: 21ff 6cbf 111a 853d 394f 17be be4a b6be

embedding_item_mlp.weight f4 [3706, 8]
-1.0688971 -1.2585087 -0.34673423 1.7677051 1.1509553 1.322041 -0.86808217 0.10442209
-0.67245215 -0.3388331 -0.19422984 -0.08980847 0.14507489 -0.2973952 -0.07887481 0.3569219
-0.24226357 0.1911713 -0.35402873 0.07479872 0.34837836 0.47382367 -0.13025673 0.08666228
-0.73505664 -0.8468173 -0.6030425 0.5705555 0.25426877 1.1665565 -0.79857373 0.85167456
-0.50464463 -1.4432604 -1.0118572 0.5296549 0.38600153 0.474662 -0.2054142 1.1170634
-0.88570046 -0.7910486 -0.35320875 -0.52632797 0.3715885 1.0703919 -0.23426862 0.46130797
-0.28199857 -0.11393558 -0.017348103 -0.2525752 0.12975241 0.098765194 0.08188105 -0.059344463
-0.1457692 -0.5238973 -0.05517343 -0.33515167 0.5305794 0.40974474 0.1279511 0.049215067
-0.10250063 0.26967633 -0.2943266 -0.3490145 0.011853511 -0.20927174 -0.09091696 0.10466297
-0.48870683 0.03712008 -0.28901637 0.37605387 0.057645302 0.7486637 -0.19879863 -0.036949173
-0.18881315 -0.1660911 -0.1520206 -0.23486623 0.2756059 0.0705462 -0.27467665 0.03726694
-0.08443653 0.26201135 -0.06115687 0.06326932 0.1971016 -0.2676146 -0.06959803 0.25178206
0.037528917 0.30130145 0.015215141 -0.05635376 -0.40330592 0.050211813 0.1931245 0.02430361
0.45447513 0.039335728 -0.27937365 -0.30974835 -0.3536713 0.11749294 0.05066418 0.15338552
-0.8242932 -0.08668133 -0.46218333 0.13405931 0.12998071 -0.055853523 -0.494272 0.41796815
-0.7701803 -0.322659 -0.52748287 0.19780238 -0.13246934 0.15157743 -0.38224077 0.34117696
0.65250826 -0.98077285 -0.13043216 -0.58107716 0.48022208 0.15915199 -0.10310309 0.38609466
0.09067253 0.06828866 -0.51858 -0.42436436 0.41174844 -0.28539798 0.24411604 -0.2227278
-0.27695933 -0.12132163 0.20101254 0.16316766 0.03701133 -0.11333984 0.25333983 -0.4333284
-0.26614815 -0.19879436 -0.25376907 -0.11852667 -0.08898123 0.43540627 -0.117396325 -0.03010043
-0.2623966 0.21056472 0.30600446 0.40243804 0.32193184 0.2650156 -0.49986714 0.14996798
0.32168028 -0.4783634 0.15362804 -0.41833857 0.40157476 0.31259587 0.5478887 0.05046672
-0.15207067 -0.7293604 -0.62232 0.823229 0.46177128 0.7624312 -0.7070973 0.3810251
-0.91365784 -1.2108339 -0.7417933 1.1270875 1.0613579 0.7428361 -0.6703981 -0.0023527672
-0.022887336 -0.32671 0.4504336 -0.044988513 -0.0013084536 0.33640966 -0.019014327 0.27730033
-0.11024236 0.098210655 -0.07368359 -0.29447457 0.119312726 -0.20751745 0.42389834 0.1386011
-0.3842775 -0.9454213 -0.5444853 0.6229309 0.2950163 0.7242114 -0.6172699 0.3060766
-0.66419905 -0.6757698 -0.37566602 0.82368475 1.2131603 1.0767468 -0.663324 -0.055731785
0.2908484 -0.23477963 0.43505666 -0.6747594 -0.21829271 0.19423762 0.39908952 -0.20194192
0.26817533 -0.5387452 0.2324491 -0.2976216 1.0002548 0.33890855 0.08072698 0.43711174
0.047883593 -0.33923587 -0.2342832 0.115952216 0.25653973 -0.061990134 0.11138998 -0.13678123
-0.12100932 -0.7166658 0.22278795 0.48950827 0.12740095 1.145956 -0.096743315 -0.06608827
00000000: 9fd1 88bf d016 a1bf 2687 b1be 2944 e23f
00000010: 8152 933f a438 a93f a23a 5ebf 40db d53d
00000020: d325 2cbf 887b adbe 30e4 46be 81ed b7bd
00000030: 838e 143e 2f44 98be 1e89 a1bd 78be b63e
00000040: f113 78be 69c2 433e 4143 b5be 1230 993d
00000050: a65e b23e 0499 f23e 0562 05be fe7b b13d
00000060: ac2c 3cbf 05c9 58bf fe60 1abf ed0f 123f
00000070: 842f 823e b951 953f 546f 4cbf 5807 5a3f
00000080: 6430 01bf c2bc b8bf 8984 81bf 7797 073f
00000090: fea1 c53e e606 f33e 1a58 52be effb 8e3f
000000a0: 44bd 62bf 2982 4abf c7d7 b4be 6ebd 06bf
000000b0: d940 be3e 9a02 893f 1de4 6fbe 8f30 ec3e
000000c0: 1e62 90be 0f57 e9bd 9c1d 8ebc 8951 81be
000000d0: d1dd 043e 6845 ca3d 40b1 a73d 2e13 73bd
000000e0: 8544 15be 221e 06bf 89fd 61bd 0099 abbe
000000f0: 0dd4 073f 10ca d13e 9d05 033e bd95 493d
00000100: daeb d1bd 0413 8a3e fab1 96be 07b2 b2be
00000110: 3b35 423c 554b 56be ac32 babd 8a59 d63d
00000120: c837 fabe 3a0b 183d f4f9 93be 228a c03e
00000130: 7b1d 6c3d 6da8 3f3f de91 4bbe 0458 17bd
00000140: 3c58 41be c913 2abe 4aab 1bbe c680 70be
00000150: 371c 8d3e 877a 903d 6ba2 8cbe 38a5 183d
00000160: 0fed acbd 5a26 863e a07f 7abd 5893 813d
00000170: 00d5 493e c804 89be 6989 8ebd 94e9 803e
00000180: ecb7 193d 2f44 9a3e ed48 793c 33d3 66bd
00000190: 1d7e cebe e7aa 4d3d 6ec2 453e 5d18 c73c
000001a0: f7b0 e83e 801e 213d 100a 8fbe 5697 9ebe
000001b0: 6814 b5be 23a0 f03d 3e85 4f3d 1811 1d3e
000001c0: e104 53bf fb85 b1bd 4ba3 ecbe d846 093e
000001d0: aa19 053e aac6 64bd 3811 fdbe ecff d53e
000001e0: 892a 45bf 8f33 a5be 1e09 07bf b58c 4a3e
000001f0: 0ba6 07be 1d37 1b3e 10b5 c3be bfae ae3e
00000200: c80a 273f ee13 7bbf 0290 05be 79c1 14bf
00000210: abdf f53e bdf8 223e b627 d3bd 33ae c53e
00000220: 85b2 b93d edda 8b3d a9c1 04bf 4946 d9be
00000230: b1d0 d23e af1f 92be 8ef9 793e c212 64be
00000240: 9dcd 8dbe 7a77 f8bd 3bd6 4d3e 6c15 273e
00000250: 3199 173d b81e e8bd c2b5 813e 38dd ddbe
00000260: 9244 88be c090 4bbe 05ee 81be 1cbe f2bd
00000270: cb3b b6bd 92ed de3e 7c6d f0bd 2d95 f6bc
00000280: d958 86be 479e 573e 9eac 9c3e 5c0c ce3e
00000290: 40d4 a43e 20b0 873e 96ee ffbe 3591 193e
000002a0: 47b3 a43e 0cec f4be ab50 1d3e 7930 d6be
000002b0: 359b cd3e 910c a03e 6f42 0c3f 31b6 4e3d
000002c0: 6ab8 1bbe 5db7 3abf 5d50 1fbf 23bf 523f
000002d0: 496d ec3e b12e 433f 5404 35bf b915 c33e
000002e0: 7be5 69bf 9bfc 9abf 2ae6 3dbf 6744 903f
000002f0: 93da 873f 822a 3e3f 369f 2bbf e230 1abb
00000300: 397e bbbc 8846 a7be 3c9f e63e e045 38bd
00000310: 6b80 abba e33d ac3e efc3 9bbc 4ffa 8d3e
00000320: bfc6 e1bd ab22 c93d 6ce7 96bd 5fc5 96be
00000330: 3b5a f43d 747f 54be 3409 d93e 72ed 0d3e
00000340: 05c0 c4be 2107 72bf 6363 0bbf 6678 1f3f
00000350: 600c 973e eb65 393f 6605 1ebf 12b6 9c3e
00000360: f308 2abf 40ff 2cbf 4c57 c0be 01dd 523f
00000370: d648 9b3f d7d2 893f 9acf 29bf 0347 64bd
00000380: 15ea 943e 126a 70be bfbf de3e 08bd 2cbf
00000390: 2088 5fbe 3ae6 463e 7655 cc3e ddc9 4ebe
000003a0: 474e 893e 35eb 09bf 2307 6e3e dc61 98be
000003b0: 5908 803f 6c85 ad3e 3054 a53d 1ccd df3e
000003c0: 9621 443d 53b0 adbe efe7 6fbe 5b78 ed3d
000003d0: 2d59 833e 5ee9 7dbd 6e20 e43d 6110 0cbe
000003e0: bcd3 f7bd 6977 37bf 8622 643e d4a0 fa3e
000003f0: 6575 023e b0ae 923f 5c21 c6bd 4959 87bd

embedding_user_mf.weight f4 [6040, 8]
0.04226105 0.14239582 -0.2482776 0.5316615 -0.050608493 -0.51301455 -0.02493914 -1.4124792
-0.030078664 -0.4099483 0.025180312 1.3390591 0.13607894 0.10325599 0.4034832 -0.0048274836
0.43828133 -0.80701673 -0.10476265 0.019921558 0.09241452 0.9164291 0.3889299 -0.8424069
-0.21970181 -0.15412113 0.52021956 0.81187725 -0.6121634 1.0247616 0.53338045 -0.5222444
-0.0259009 -0.47412038 -0.04011491 0.35399452 -1.0246298 -0.60042447 -0.4582307 0.08442989
0.301856 0.14675537 -0.55360353 0.67580545 0.7332734 -0.0024564771 0.5081314 -0.34512407
0.79383856 -0.78415567 0.6681141 0.4701605 -0.5691851 0.83970475 0.38691384 -0.4179894
0.49434814 -0.839488 0.3172505 0.9816319 -0.8303888 -0.84062874 -0.20045114 -0.13036382
0.270321 -1.2553843 0.3450112 0.887346 -0.3406168 -0.51623464 -0.43485314 -0.8847602
0.2764057 0.2912327 -0.7823857 0.48047328 0.14294185 0.28401864 0.022577949 -0.64078957
0.028319592 -0.7803906 -0.56157756 -0.2854967 -0.3769856 -0.4712684 0.059260484 -0.75202847
-0.4030546 -0.49681512 0.28294295 0.04546164 -0.12681088 0.52439874 -0.2743436 -0.6980149
0.5026906 0.052554067 -0.32601494 1.2920555 -0.1784194 0.6210161 0.021160068 0.23039524
-0.29751554 -0.13279387 0.047881946 -0.31603646 -0.45159245 0.07865019 0.32705328 -0.37786254
0.70648426 -0.95251983 0.39063784 0.2816926 0.087335184 -0.14421661 0.40900454 -0.5399995
0.6860086 0.28208566 -0.33568284 0.21582147 0.35747644 -0.08849508 0.3106651 0.107551925
0.16432515 0.033816144 0.17590985 0.41035143 -0.8024544 0.28468314 -0.23298313 0.5917135
0.61230135 0.02583152 -0.15421765 1.004004 -0.30911827 0.108173706 -0.21246582 -0.48873872
0.5142853 0.06867603 0.19700772 -0.04787816 -0.3159099 0.79976773 0.12180888 -0.7738389
0.4777026 -0.7887741 0.13597251 0.08912007 -0.4090152 0.53971136 -0.15600145 -0.36058876
0.7174911 0.188784 -0.16855784 0.23559833 -0.47291353 0.23368935 -0.77219796 -0.63174504
0.6154699 -0.5398135 -0.28434047 -0.2735376 -0.65014917 0.42907962 -0.015266156 -0.57526684
-0.049746223 -0.22023061 -0.24728222 0.15244123 -1.0679837 0.5478077 -0.15217756 0.30191913
-0.099598415 -0.41393578 -0.8456071 0.430757 -0.3804145 -0.19358918 0.29524982 -0.19752285
0.7493959 -0.356001 -0.15755571 0.54067856 -0.37455815 0.56671965 -0.49371234 -0.2510886
0.57957447 -0.32700503 -0.75863725 0.06251169 0.1382281 -0.20649971 0.96809137 -0.25845817
-0.47891003 0.1136197 -0.2199398 0.45207325 -0.25983542 0.50225097 -0.08098302 -0.5098937
-0.28589097 0.1284976 -0.32166076 0.3805525 -0.5605885 -0.18160081 0.00516114 -0.6428322
0.008963884 -0.211905 0.6184979 0.65937865 -0.24278726 1.3139174 0.5678438 0.2417492
-0.1264305 -0.32038537 0.25899073 0.475877 -0.6132889 -0.57795 -0.1921335 -0.3969351
-0.2741878 -0.15780221 -1.0247678 -0.33711702 0.79454195 0.8166762 0.20218696 -0.3020557
-0.007969516 -0.38486058 0.1174781 0.4983373 -0.40536007 -0.44737646 0.1331697 -0.19869539
00000000: ec19 2d3d 36d0 113e 7c3c 7ebe f81a 083f
00000010: da4a 4fbd ec54 03bf 2b4d ccbc 1ecc b4bf
00000020: 8867 f6bc bee4 d1be f146 ce3c 4a66 ab3f
00000030: 4758 0b3e e077 d33d 5a95 ce3e de2f 9ebb
00000040: 6966 e03e a698 4ebf cd8d d6bd 8932 a33c
00000050: d343 bd3d 199b 6a3f d221 c73e fba7 57bf
00000060: 83f9 60be eed1 1dbe 1c2d 053f 30d7 4f3f
00000070: beb6 1cbf 632b 833f 9f8b 083f cfb1 05bf
00000080: 202e d4bc e8bf f2be 884f 24bd c53e b53e
00000090: 1227 83bf 6bb5 19bf 379d eabe 94e9 ac3d
000000a0: df8c 9a3e 0a47 163e f6b8 0dbf 9601 2d3f
000000b0: ceb7 3b3f d9fc 20bb e614 023f 1ab4 b0be
000000c0: 0139 4b3f 6dbe 48bf 8709 2b3f e1b8 f03e
000000d0: 1db6 11bf e4f6 563f 9219 c63e b502 d6be
000000e0: 331b fd3e b0e8 56bf a86e a23e 3a4c 7b3f
000000f0: 5c94 54bf 7233 57bf 1043 4dbe 187e 05be
00000100: 8467 8a3e 6fb0 a0bf 4fa5 b03e 1c29 633f
00000110: 5365 aebe f427 04bf 12a5 debe a57f 62bf
00000120: 0c85 8d3e 741c 953e 6e4a 48bf 9800 f63e
00000130: 595f 123e e46a 913e 64f5 b83c c90a 24bf
00000140: 7dfe e73c aec7 47bf 8cc3 0fbf a02c 92be
00000150: 4204 c1be 174a f1be 1fbb 723d f084 40bf
00000160: 2c5d cebe 8d5e febe e6dd 903e fc35 3a3d
00000170: b6da 01be ff3e 063f c476 8cbe 1bb1 32bf
00000180: 55b0 003f ef42 573d 6eeb a6be 1362 a53f
00000190: 93b3 36be e9fa 1e3f e157 ad3c bbec 6b3e
000001a0: f553 98be 1efb 07be dc1f 443d 88cf a1be
000001b0: 2037 e7be 5a13 a13d 8773 a73e 3377 c1be
000001c0: 27dc 343f 57d8 73bf af01 c83e 033a 903e
000001d0: cadc b23d 85ad 13be 0b69 d13e 683d 0abf
000001e0: 429e 2f3f 886d 903e 9fde abbe 4e00 5d3e
000001f0: 2707 b73e e93c b5bd 7f0f 9f3e 2f44 dc3d
00000200: da44 283e cc82 0a3d b621 343e 9519 d23e
00000210: a76d 4dbf fdc1 913e 2193 6ebe 897a 173f
00000220: c8bf 1c3f a09c d33c 3beb 1dbe 3483 803f
00000230: c044 9ebe 2d8a dd3d a490 59be f63b fabe
00000240: 34a8 033f 05a6 8c3d 64bc 493e e41b 44bd
00000250: f1be a1be 94bd 4c3f ef76 f93d 4e1a 46bf
00000260: 6f95 f43e 19ed 49bf 613c 0b3e 9584 b63d
00000270: 716a d1be 862a 0a3f d8be 1fbe 179f b8be
00000280: 7fad 373f 9850 413e 6d9a 2cbe b040 713e
00000290: b921 f2be 434c 6f3e c4ae 45bf 0bba 21bf
000002a0: 6f8f 1d3f 3831 0abf 1395 91be 1f0d 8cbe
000002b0: 2d70 26bf 53b0 db3e e61e 7abc b044 13bf
000002c0: b2c2 4bbd 2284 61be 8d37 7dbe 8e19 1c3e
000002d0: b1b3 88bf 203d 0c3f 6fd4 1bbe 2595 9a3e
000002e0: 41fa cbbd 64ef d3be b579 58bf 2e8c dc3e
000002f0: b0c5 c2be 3e3c 46be fc2a 973e 6e43 4abe
00000300: 69d8 3f3f c345 b6be 4956 21be e969 0a3f
00000310: 16c6 bfbe 8a14 113f ddc7 fcbe af8e 80be
00000320: fe5e 143f 346d a7be 0d36 42bf 2106 803d
00000330: ab8b 0d3e a974 53be d6d4 773f a154 84be
00000340: b233 f5be 72b1 e83d e637 61be 2576 e73e
00000350: 2609 85be 8593 003f 6dda a5bd 6588 02bf
00000360: 4d60 92be e094 033e b8b0 a4be c7d7 c23e
00000370: ba82 0fbf 90f5 39be c81e a93b a790 24bf
00000380: 41dd 123c a0fd 58be e155 1e3f 0acd 283f
00000390: 399d 78be 722e a83f 365e 113f 1a8d 773e
000003a0: ff76 01be 8d09 a4be 6f9a 843e 26a6 f33e
000003b0: 8000 1dbf 88f4 13bf a5be 44be 143b cbbe
000003c0: 5862 8cbe e796 21be 972b 83bf 9a9a acbe
000003d0: 1a67 4b3f b111 513f 190a 4f3e 0ba7 9abe
000003e0: 9392 02bc 720c c5be 5c98 f03d 1126 ff3e
000003f0: 5b8b cfbe 870e e5be a35d 083e ce76 4bbe

embedding_item_mf.weight f4 [3706, 8]
0.44882134 0.0046844403 -0.12225151 0.26978928 0.18345577 0.090255044 0.41147822 0.4963315
-0.17821382 -0.66658485 0.07979194 0.1309056 0.17619225 -0.13766956 -0.8175715 0.5214736
0.18799233 -1.0572546 0.29138303 0.5239693 -0.52724093 -0.28751722 0.14523408 0.266844
0.019724214 0.34725282 -0.33106226 -0.09193355 -0.48334423 -0.37611723 0.093914814 0.13947175
-0.3605871 0.10899315 0.27029932 0.09135523 -0.13173892 0.030715276 -0.29554534 0.6061237
-0.11924379 0.21828316 0.73150474 0.2964383 0.415186 0.44918227 0.09051885 0.40647173
0.22578903 -0.38378516 -0.3482574 0.80362684 -0.5106388 0.57045716 0.19811915 0.17279309
0.2003065 0.09314101 0.47254393 -0.25400293 0.29867357 0.25683308 0.33252272 0.9904449
-0.15434219 -1.1683683 0.19086313 0.4266914 -0.024322337 0.039986085 -0.43268493 1.3650146
0.21327549 -0.5154759 0.27780592 0.7701062 0.26330018 0.23298167 0.20050982 1.2008945
-0.39371705 -0.60428643 0.29389206 0.6785127 0.06634312 -0.28492332 -0.422423 1.1861999
0.3174253 -1.4404349 0.11710094 0.27490622 -0.79850465 -0.39069453 -0.28406176 -0.018035864
0.33289033 -0.9132605 -0.20315251 0.53788525 -0.49428493 -0.22721829 0.32056472 0.9118062
0.13542007 0.54754335 1.2426655 -0.18292303 0.35037586 0.31169024 0.726825 1.2027935
0.033676926 -0.6842902 0.17956518 0.21177255 -0.2570001 -0.10020391 0.121091306 0.60412914
0.25543234 0.32412022 0.75619775 -0.42487934 0.19007531 0.426546 0.52740103 0.76549476
-0.37838835 -0.53482693 -0.023103794 0.37251228 -0.20209697 -0.15556414 -0.47768363 0.6924033
-0.09668659 -0.8838803 0.10066944 0.40780702 -0.06841113 0.008486314 -0.2898961 1.3196185
0.062633194 0.016095398 0.09958318 0.5766443 0.28513202 -0.74274796 0.40721846 0.42600316
-0.032962915 -0.008638287 0.9634269 -0.068249725 0.41663784 0.2630854 0.4571288 0.6521524
-0.06725349 0.5332242 0.5916073 -0.022664992 -0.1020567 -0.20162405 -0.07626841 0.5957245
0.29027948 -0.092391305 0.07322929 0.22661147 0.2572228 -0.01102977 -1.0192013 0.44259626
-0.021034632 0.09422863 1.0140406 0.19518349 0.56906855 0.51308584 0.4532468 0.5827804
0.20025034 0.28694212 -0.14438342 0.7459201 0.42512268 -0.22578374 0.32869208 0.57876104
-0.34524214 0.09398573 -0.07106567 -0.10269914 -0.5746073 -0.4824299 0.33271286 -0.3286366
-0.62630105 -0.8567929 0.121368565 0.3687821 -0.4120764 -0.44923842 -0.68122774 0.5658964
-0.13955604 -0.37342635 0.6937625 0.5311428 0.7936977 0.20108737 0.43095022 0.55764866
-0.27692634 0.17223969 0.13138233 0.44749594 -0.001304306 -0.36816403 0.36814204 0.23523146
0.47626093 -0.34217337 -0.72501296 -0.0025688072 -0.343208 -1.0861129 -0.6657415 -0.29624927
0.14771064 0.033117246 0.38795188 0.16817448 0.27362758 0.0051759332 -1.0981834 0.28156242
-0.43939933 -0.22214992 0.12451721 0.30267227 0.087345354 -0.1945923 -0.46400705 0.6561759
-0.046923812 0.16164742 -0.3583104 -0.42793503 -0.14070144 -0.72919 0.012399689 -0.0048067104
00000000: e9cb e53e ef7f 993b 005f fabd d221 8a3e
00000010: d4db 3b3e a3d7 b83d 46ad d23e 2a1f fe3e
00000020: af7d 36be 4ea5 2abf f569 a33d 1e0c 063e
00000030: be6b 343e 40f9 0cbe 5e4c 51bf 4b7f 053f
00000040: 1081 403e 1e54 87bf 2830 953e da22 063f
00000050: 43f9 06bf 7535 93be 3eb8 143e c79f 883e
00000060: ad94 a13c 1fcb b13e fe80 a9be a847 bcbd
00000070: e578 f7be 7092 c0be 6956 c03d afd1 0e3e
00000080: df9e b8be cd37 df3d ac64 8a3e 7318 bb3d
00000090: 91e6 06be 9a9e fb3c b851 97be ec2a 1b3f
000000a0: 1736 f4bd 9f85 5f3e e543 3b3f c3c6 973e
000000b0: 4293 d43e 38fb e53e f261 b93d 101d d03e
000000c0: 3d35 673e 7d7f c4be cb4e b2be 7dba 4d3f
000000d0: 39b9 02bf 7b09 123f bfdf 4a3e acf0 303e
000000e0: 261d 4d3e b7c0 be3d 47f1 f13e ac0c 82be
000000f0: beeb 983e a07f 833e 6b40 aa3e cc8d 7d3f
00000100: e10b 1ebe 188d 95bf a071 433e 4c77 da3e
00000110: a33f c7bc 73c8 233d e188 ddbe ccb8 ae3f
00000120: e464 5a3e 3bf6 03bf 943c 8e3e ae25 453f
00000130: 48cf 863e bf92 6e3e 7252 4d3e e9b6 993f
00000140: 4895 c9be 84b2 1abf 0579 963e 02b3 2d3f
00000150: e7de 873d 78e1 91be d447 d8be 66d5 973f
00000160: 9285 a23e 2c60 b8bf 9ed2 ef3d 82c0 8c3e
00000170: cd6a 4cbf 1d09 c8be 8b70 91be f3bf 93bc
00000180: 9a70 aa3e 71cb 69bf 3607 50be d9b2 093f
00000190: ea12 fdbe e9ab 68be 0f21 a43e 226c 693f
000001a0: 8fab 0a3e cd2b 0c3f aa0f 9f3f 2d50 3bbe
000001b0: 7764 b33e dd95 9f3e 3411 3a3f 23f5 993f
000001c0: d1f0 093d a42d 2fbf efdf 373e e7da 583e
000001d0: 8495 83be b537 cdbd b8fe f73d 35a8 1a3f
000001e0: 07c8 823e 16f3 a53e 2d96 413f c989 d9be
000001f0: 1aa3 423e 3d64 da3e c103 073f 77f7 433f
00000200: 1ebc c1be 6bea 08bf 2b44 bdbc eeb9 be3e
00000210: 82f2 4ebe 354c 1fbe f392 f4be 5841 313f
00000220: 9e03 c6bd fb45 62bf c82b ce3d 15cc d03e
00000230: 221b 8cbd 2e0a 0b3c 436d 94be 42e9 a83f
00000240: d545 803d 7fda 833c 44f2 cb3d f69e 133f
00000250: d3fc 913e bb24 3ebf f07e d03e 161d da3e
00000260: 1f04 07bd 9a87 0dbc 25a3 763f 83c6 8bbd
00000270: 8e51 d53e 21b3 863e c90c ea3e 76f3 263f
00000280: 33bc 89bd 6281 083f 9373 173f efab b9bc
00000290: 1a03 d1bd 8976 4ebe 9d32 9cbd 6781 183f
000002a0: 839f 943e a737 bdbd 3df9 953d d60c 683e
000002b0: b5b2 833e 35b6 34bc 3075 82bf fa9b e23e
000002c0: d250 acbc f1fa c03d 15cc 813f 2ede 473e
000002d0: 7aae 113f 9859 033f f70f e83e 1931 153f
000002e0: 6d0e 4d3e 14ea 923e 3fd9 13be 9ff4 3e3f
000002f0: aea9 d93e da33 67be 544a a83e af29 143f
00000300: 94c3 b0be 977b c03d e18a 91bd ed53 d2bd
00000310: 7719 13bf 0d01 f7be 5759 aa3e 0e43 a8be
00000320: 4455 20bf c856 5bbf 1590 f83d 02d1 bc3e
00000330: aefb d2be 9402 e6be f164 2ebf 96de 103f
00000340: c7e7 0ebe bd31 bfbe 6b9a 313f f9f8 073f
00000350: c62f 4b3f d9e9 4d3e 82a5 dc3e 10c2 0e3f
00000360: 4ac9 8dbe 9a5f 303e 1789 063e 301e e53e
00000370: 3ff5 aaba ff7f bcbe 1d7d bc3e 84e0 703e
00000380: 79d8 f33e 5931 afbe 739a 39bf 6f59 28bb
00000390: f5b8 afbe bf05 8bbf 096e 2abf fcad 97be
000003a0: 7541 173e f3a5 073d a1a1 c63e ee35 2c3e
000003b0: ea18 8c3e e09a a93b 4691 8cbf f328 903e
000003c0: f3f8 e0be 457b 63be e102 ff3d dcf7 9a3e
000003d0: 1fe2 b23d 3443 47be 5592 edbe 25fb 273f
000003e0: 2f33 40bd e786 253e 7674 b7be 4d1a dbbe
000003f0: 0a14 10be 32ac 3abf 1128 4b3c 9c81 9dbb

fc_layers.0.weight f4 [64, 16]
-0.30624437 -0.42992446 -0.18827137 0.455761 0.0863273 -0.72037685 -0.7774481 -0.35427818
-0.05483115 0.020703439 0.31708753 -0.27490735 -0.66017777 -0.5367004 0.23302239 0.21577789
-0.82996505 0.3406376 -0.037647955 -0.37069914 -0.34465152 0.2132174 0.027912281 -0.3780607
-0.5232354 0.19767492 0.32977912 -0.0931181 0.41146335 0.2353533 0.41949615 -0.809048
0.495624 0.34047687 0.27257013 0.19459125 0.22459924 -0.5807218 0.055396453 0.8472522
0.8403102 0.03398266 0.24555166 -0.52095956 1.2886794 0.46750975 0.3268857 -0.73572594
0.77815497 0.23122157 -0.21731447 0.13155045 -1.0014176 -0.4856625 -0.3219494 -0.052464727
0.16917613 0.1919198 0.8007512 -0.14565709 -0.46227634 0.25987592 -0.30193165 -0.3191233
0.4978609 0.08581237 0.19499576 0.007611091 0.40153903 -0.74680364 -0.016471315 0.2679187
0.7093977 -0.077047564 -0.13488781 -0.042926922 0.22786804 0.07743303 -0.18536897 -0.032667555
0.4294075 -0.038681246 0.2236973 0.38917258 -0.46306723 -0.57677406 -0.41045466 -0.0977279
0.4205214 -0.25243285 -0.30908102 -0.008744108 -0.6311594 -0.21253324 -0.41787592 -0.47913605
0.2943576 -0.24931623 -0.36217418 0.59798586 0.17354676 -0.47029242 0.45268625 -0.5958712
-0.629049 0.5683838 -0.0018693906 -0.369017 -0.22452186 0.030146288 -0.3006822 0.37221915
0.0024469323 0.20387287 -0.0591829 0.076758325 0.0007037175 0.08518573 -0.024674058 -0.050443828
-0.15170366 0.0284553 0.15410368 -0.058110755 -0.03522402 -0.044656657 -0.04578316 -0.0015932323
0.084814735 0.3944126 0.32767355 -0.4005908 0.6659489 -0.04841258 0.21122508 -0.4244071
-0.36331597 -0.2203252 0.40583235 -0.088496305 0.10908055 -0.24678412 -0.062296852 -0.22947127
-0.5305316 0.034714982 0.53537554 0.102728665 -0.4493193 0.29508343 -0.5236829 -0.7925256
-0.24046354 0.5310635 0.38932285 -0.07633025 -0.20784593 0.017041182 -0.15611614 -1.0759233
0.7724916 0.08640258 0.17333004 -0.14434184 -0.7950201 -0.7034628 -0.7625209 -0.02342405
0.387817 0.31300235 0.70406836 0.35384315 0.011947931 0.4331443 -0.04702686 -0.43820888
0.057733767 0.2748572 0.29008517 0.0790424 0.21757936 -0.65076506 0.44109586 -0.18956639
-0.032500625 0.48072544 0.123064846 -0.47786665 0.32063073 0.078582995 0.027057795 0.378728
-0.38733482 0.22561944 0.20685516 0.5482077 0.18286176 -0.22125566 -0.40822896 -0.40826255
-0.43023998 0.3171526 0.2276289 0.115991086 -0.33895764 -0.5029897 0.23308848 -0.04281477
-0.36040643 -0.56300896 0.3821722 -0.21217552 0.21123356 -0.6641347 0.5770228 0.03879027
0.36151487 0.48156714 -0.42169416 -0.46008316 0.37904492 0.3329859 -0.2475295 0.17142005
-0.8842571 0.028583871 0.36156896 -0.3970985 -0.6863239 0.18701045 -0.15131855 -0.32042232
-0.4698204 0.59004956 0.06464015 0.07947293 0.057638526 0.15006682 0.031316023 -1.3515294
-0.036814466 0.053281497 -0.08718226 0.5362489 -0.47043443 0.24174665 0.24246974 -0.7986866
-0.6512666 0.2514475 0.36235365 -0.32955906 -0.09995184 -0.038147155 -0.012629759 -0.6396517
00000000: 10cc 9cbe 0f1f dcbe 36ca 40be 8159 e93e
00000010: 5ecc b03d 9e6a 38bf d706 47bf f363 b5be
00000020: a196 60bd 429a a93c 4c59 a23e a8c0 8cbe
00000030: 6901 29bf 3365 09bf 6c9d 6e3e e1f4 5c3e
00000040: 9778 54bf 0d68 ae3e be34 1abd 47cc bdbe
00000050: 2a76 b0be a955 5a3e 4ca8 e43c 2c91 c1be
00000060: c1f2 05bf 4b6b 4a3e cfd8 a83e b4b4 bebd
00000070: 53ab d23e 7500 713e 33c8 d63e c51d 4fbf
00000080: 6ec2 fd3e fc52 ae3e 508e 8b3e ee42 473e
00000090: 58fd 653e 2faa 14bf 64e7 623d 85e5 583f
000000a0: 921e 573f 6731 0b3d e571 7b3e 9b5d 05bf
000000b0: 72f3 a43f 705d ef3e 905d a73e 8958 3cbf
000000c0: 2a35 473f 59c5 6c3e af87 5ebe 29b5 063e
000000d0: 742e 80bf c1a8 f8be 8dd6 a4be 41e5 56bd
000000e0: 823c 2d3e a086 443e 08fe 4c3f 2227 15be
000000f0: 7caf ecbe 750e 853e c996 9abe 2164 a3be
00000100: a0e7 fe3e 65be af3d f8ac 473e 7566 f93b
00000110: 8696 cd3e 862e 3fbf daee 86bc a42c 893e
00000120: 169b 353f 1dcb 9dbd 0820 0abe 24d4 2fbd
00000130: 3d56 693e 3595 9e3d 5dd1 3dbe 6ace 05bd
00000140: 4ddb db3e 3a70 1ebd e810 653e a141 c73e
00000150: 2617 edbe 77a7 13bf 1d27 d2be 9125 c8bd
00000160: 954e d73e e13e 81be de3f 9ebe 7243 0fbc
00000170: aa93 21bf 50a2 59be d5f3 d5be 5251 f5be
00000180: 0ab6 963e c14c 7fbe e56e b9be 9a15 193f
00000190: 3eb6 313e 2bca f0be 7ec6 e73e 048b 18bf
000001a0: 5b09 21bf 9a81 113f 5706 f5ba ccef bcbe
000001b0: 0fe9 65be 59f5 f63c 04f3 99be 8293 be3e
000001c0: b65c 203b 0dc4 503e c569 72bd 7833 9d3d
000001d0: af79 383a db75 ae3d 4021 cabc 309e 4ebd
000001e0: 3458 1bbe 171b e93c 5bcd 1d3e 8b05 6ebd
000001f0: 1047 10bd e6e9 36bd 1f87 3bbd 01d4 d0ba
00000200: 59b3 ad3d 73f0 c93e d4c4 a73e 3d1a cdbe
00000210: a17b 2a3f 454c 46bd 634b 583e e34b d9be
00000220: 8d04 babe ee9c 61be 42c9 cf3e 8d3d b5bd
00000230: a065 df3d fab4 7cbe fc2a 7fbd 84fa 6abe
00000240: ebd0 07bf 4c31 0e3d 5f0e 093f 6863 d23d
00000250: 2e0d e6be 2d15 973e 1510 06bf f5e2 4abf
00000260: 133c 76be c7f3 073f 5355 c73e 0953 9cbd
00000270: 90d5 54be f399 8b3c e9dc 1fbe dbb7 89bf
00000280: 02c2 453f d6f3 b03d 6e7d 313e 59ce 13be
00000290: 7086 4bbf 2316 34bf 9234 43bf cbe3 bfbc
000002a0: f38f c63e d841 a03e d33d 343f ee2a b53e
000002b0: 41c1 433c 17c5 dd3e 3d9f 40bd ea5c e0be
000002c0: 3e7a 6c3d 15ba 8c3e 0b86 943e fbe0 a13d
000002d0: 20cd 5e3e 8a98 26bf 51d7 e13e b11d 42be
000002e0: 601f 05bd a521 f63e 6c09 fc3d f0aa f4be
000002f0: b629 a43e 1ff0 a03d 4fa8 dd3c a3e8 c13e
00000300: c050 c6be c808 673e d7d1 533e 5757 0c3f
00000310: 1d40 3b3e d890 62be 6303 d1be ca07 d1be
00000320: 6a48 dcbe d361 a23e 8d17 693e bc8c ed3d
00000330: db8b adbe efc3 00bf bfae 6e3e 8a5e 2fbd
00000340: 3187 b8be 5b21 10bf 13ac c33e 8a44 59be
00000350: 9c4d 583e bb04 2abf c4b7 133f 8ce2 1e3d
00000360: 7a18 b93e f88f f63e 4ce8 d7be 0590 ebbe
00000370: 2d12 c23e 217d aa3e 6078 7dbe bd88 2f3e
00000380: ac5e 62bf b928 ea3c 911f b93e 7f50 cbbe
00000390: ecb2 2fbf ab7f 3f3e 40f3 1abe 650e a4be
000003a0: 4d8c f0be 7d0d 173f 0e62 843d b4c2 a23d
000003b0: 6016 6c3d 1eab 193e 3b45 003d eafe acbf
000003c0: c4ca 16bd b33d 5a3d 9d8c b2bd 9c47 093f
000003d0: c8dc f0be 6f8c 773e fd49 783e ba76 4cbf
000003e0: 68b9 26bf babd 803e 6b86 b93e f7bb a8be
000003f0: 8db3 ccbd 3140 1cbd 0ced 4ebc 37c0 23bf

fc_layers.0.bias f4 [64]
0.24322262 0.1627451 0.18375657 -0.73148656 0.23931916 -0.6254717 -0.5147265 -0.27663732
-0.46755734 -0.22833523 -0.8281153 0.36165088 -0.015504126 -0.27400982 0.17438251 -0.45721567
-0.16480343 0.46491012 -0.40181988 -0.41376656 -0.03245786 -0.2735514 0.22817974 0.50703096
-0.5259902 0.4216463 0.54301554 0.56318223 -0.36188683 -0.30039042 0.5699501 -0.8561797
-0.28739643 0.5634952 -0.35728717 0.40599012 0.08708519 -0.24120665 -0.20844306 -0.52453595
-0.54210895 0.52625453 -0.46869943 0.49825943 0.5790638 0.4775621 -0.2504778 -0.37644878
-0.37985584 -0.7102417 -0.50150555 -0.7267731 -0.67189234 -0.5151203 -0.34363538 -5.7497656e-31
0.39220104 -0.5847866 -0.38528085 -0.48283812 -0.16716221 0.52813977 -0.7389057 0.16273896
00000000: 5a0f 793e a7a6 263e af2a 3c3e b442 3bbf
00000010: 1510 753e ea1e 20bf 1ec5 03bf 68a3 8dbe
00000020: ad63 efbe b6d0 69be 5dff 53bf 4e2a b93e
00000030: 0505 7ebc 044b 8cbe 5491 323e 2c18 eabe
00000040: 3bc2 28be b308 ee3e 56bb cdbe 36d9 d3be
00000050: 88f2 04bd ee0e 8cbe f3a7 693e c8cc 013f
00000060: 4ba7 06bf 06e2 d73e 1103 0b3f b62c 103f
00000070: 3b49 b9be c6cc 99be 40e8 113f 982e 5bbf
00000080: a025 93be 3941 103f 58ee b6be f0dd cf3e
00000090: b859 b23d e0fe 76be 1972 55be fd47 06bf
000000a0: a7c7 0abf 9eb8 063f 5ff9 efbe dc1b ff3e
000000b0: 863d 143f 0583 f43e a03e 80be e5bd c0be
000000c0: 777c c2be 66d2 35bf ab62 00bf cd0d 3abf
000000d0: 2301 2cbf edde 03bf faf0 afbe 2f97 3a8d
000000e0: 93ce c83e 93b4 15bf 8843 c5be 8f36 f7be
000000f0: 922c 2bbe 2b34 073f ed28 3dbf 0ba5 263e

fc_layers.1.weight f4 [32, 64]
0.3548402 0.14171359 -0.0707592 0.56908643 -0.004869348 0.13231017 0.6050666 0.08458599
-0.27543667 0.15806141 0.9480172 0.061317693 0.07034576 0.6773049 0.14806804 0.02599363
0.09985828 0.29576004 -0.08833606 0.4532688 -0.0013607413 -0.22427227 0.15171596 0.30240312
-0.6768352 0.089846775 0.33627182 0.06854544 -0.06706688 -0.55754817 0.13370037 0.6324971
-0.16832598 0.19925375 -0.25445238 0.004175052 0.19197024 -0.2342395 -0.49111485 -0.6966412
0.5191416 0.058271457 -0.62363654 0.04685896 0.10432769 0.043079652 -0.7571795 0.17276461
-0.5019838 -0.8509258 -0.40518597 -0.8172805 -0.6726924 -0.7219043 0.13105102 4.820442e-38
0.084423564 -0.4772619 0.74643 -0.9662403 0.5359874 0.09436714 -0.86970454 0.4942438
0.31277972 0.20417097 0.006049198 0.61918056 0.03988559 0.23450832 0.7490029 0.08608695
-0.2246921 0.23457254 0.9934471 0.15590619 0.11314261 0.86820257 0.19549564 0.17578205
0.15168305 0.27476698 -0.14367718 0.53608036 -0.0031440442 -0.2798578 0.1792645 0.22070277
-0.8168251 0.124448165 0.3386255 0.080371805 -0.12625663 -0.58079135 0.105473235 0.6746766
-0.026173683 0.1532359 -0.22831407 0.042803023 0.20039721 -0.16440931 -0.6028806 -0.766495
0.56098914 0.08521549 -0.6549706 0.09303651 0.20542961 0.06876039 -0.65924627 0.20828563
-0.5300061 -0.86892736 -0.44154838 -0.7963359 -0.7762138 -0.8040129 0.2549379 -2.026231e-36
0.09218541 -0.5342903 0.7673774 -0.91215086 0.6203874 0.1409847 -0.92638916 0.4666186
-3.8582104e-22 -6.6658797e-22 -3.384912e-22 -4.0458824e-23 -2.54794e-22 -3.9867287e-24 2.9422555e-23 5.2753523e-24
-1.0900601e-22 -4.312702e-22 -4.8049606e-23 -2.8045366e-22 -1.3371801e-22 6.4475665e-23 -9.517433e-22 -1.3855212e-22
-9.593701e-23 -5.6996637e-22 5.0304232e-24 -3.865037e-23 -4.9068226e-38 2.2673965e-25 -3.547831e-22 -6.346718e-22
-2.516093e-23 -4.8173254e-22 -5.469458e-22 -5.6402207e-22 -1.5553875e-22 1.6998738e-23 -4.993907e-22 -1.1344595e-23
-1.0112864e-22 -5.9275544e-22 -8.439936e-23 -3.7987119e-22 -7.2337343e-22 -4.4774943e-23 -1.3751003e-22 -4.3627678e-23
-5.733175e-23 -5.0406606e-22 -7.916073e-23 -5.37944e-22 -4.817616e-22 -4.964285e-22 -3.5474734e-23 -3.3689892e-23
-3.6139197e-22 8.7619175e-24 -1.0747465e-23 -1.7928163e-23 -9.479662e-23 -3.7707103e-23 -5.1057867e-23 -5.850872e-38
-2.657287e-22 -2.4879545e-23 1.2314368e-23 -1.24301815e-23 -3.0155817e-22 -4.986354e-22 -3.072776e-23 -2.6774782e-22
-1.7020517e-22 -1.2151862e-22 -1.4189769e-22 -2.5472102e-22 -5.3732036e-23 8.910464e-26 6.352479e-23 6.295429e-24
2.5116702e-24 -1.7164679e-22 -2.007066e-22 -2.7818116e-23 -2.4785406e-22 5.542137e-23 -2.0161033e-22 -1.2714793e-22
-8.9692444e-23 -1.6913699e-22 -1.5205264e-22 -4.79493e-23 -5.2029595e-38 -4.8525277e-23 -2.7484106e-22 -1.9454575e-22
-1.7716245e-23 -1.6787411e-22 -1.4767923e-22 -1.3554288e-22 -9.2583215e-23 -6.571299e-23 -1.7791628e-22 -9.1718144e-23
-2.9640688e-23 -2.0127978e-22 -1.1071696e-23 -5.8405034e-23 -1.5368377e-22 3.325753e-23 -4.504598e-23 3.8942343e-23
3.461372e-24 -1.15478e-22 -1.0246391e-22 -1.0749228e-22 -2.8984842e-22 -1.2263389e-22 -2.1989557e-22 5.2369387e-24
1.1097809e-26 -3.6779914e-23 -3.9055194e-25 9.050948e-24 4.3966247e-23 4.0035546e-23 -1.6754948e-23 4.912123e-38
-2.5173874e-22 1.2652771e-23 2.4549736e-23 -8.0617085e-23 -1.4047464e-22 -2.0287276e-22 -1.1075376e-23 1.4189239e-22
00000000: 9dad b53e 5e1d 113e 33ea 90bd a6af 113f
00000010: 0d8f 9fbb 517c 073e a5e5 1a3f 6b3b ad3d
00000020: 0906 8dbe dada 213e 41b1 723f 4328 7b3d
00000030: 7011 903d db63 2d3f 269f 173e 98f0 d43c
00000040: 7f82 cc3d dc6d 973e 89e9 b4bd d912 e83e
00000050: e75a b2ba a1a7 65be 6e5b 1b3e 95d4 9a3e
00000060: 1245 2dbf 9601 b83d d22b ac3e 8d61 8c3d
00000070: 5c5a 89bd 7abb 0ebf c0e8 083e 54eb 213f
00000080: a55d 2cbe 2d09 4c3e 9547 82be e0ce 883b
00000090: d993 443e 7bdc 6fbe 6873 fbbe 1457 32bf
000000a0: 77e6 043f 0dae 6e3d a5a6 1fbf 2eef 3f3d
000000b0: c2a9 d53d 4a74 303d 84d6 41bf 35e9 303e
000000c0: 0382 00bf 46d6 59bf 8974 cfbe 4b39 51bf
000000d0: 9235 2cbf b8ce 38bf 3d32 063e 9439 8301
000000e0: 43e6 ac3d ac5b f4be 0916 3f3f 865b 77bf
000000f0: 7836 093f 8f43 c13d f5a4 5ebf 860d fd3e
00000100: aa24 a03e 3212 513e 5a38 c63b 9e82 1e3f
00000110: 135f 233d f322 703e a7be 3f3f 5b4e b03d
00000120: b015 66be c933 703e 8d52 7e3f dfa5 1f3e
00000130: 50b7 e73d 8642 5e3f 0230 483e 3600 343e
00000140: cd52 1b3e 42ae 8c3e 1c20 13be 903c 093f
00000150: 4f0c 4ebb 8649 8fbe 1d91 373e e8ff 613e
00000160: 731b 51bf aede fe3d 5260 ad3e f999 a43d
00000170: 6b49 01be beae 14bf 5a02 d83d 9bb7 2c3f
00000180: 316a d6bc dfe9 1c3e 2acb 69be 3952 2f3d
00000190: ed34 4d3e ea5a 28be 6256 1abf 0439 44bf
000001a0: fc9c 0f3f 7585 ae3d 27ac 27bf ed89 be3d
000001b0: 245c 523e 3fd2 8c3d 5dc4 28bf d448 553e
000001c0: 7bae 07bf 0672 5ebf a112 e2be abdc 4bbf
000001d0: f3b5 46bf cad3 4dbf 3887 823e 675f 2c84
000001e0: b4cb bc3d 40c7 08bf d872 443f b882 69bf
000001f0: b5d1 1e3f 4b5e 103e d727 6dbf a2e8 ee3e
00000200: ea36 e99b bf76 499c fa9a cc9b 99a5 439a
00000210: 7603 9a9b a63a 9a98 5c47 0e1a 8f14 cc18
00000220: bac7 039b ea57 029c 885a 689a 1a86 a99b
00000230: b8a7 219b 81e4 9b1a c9d2 8f9c ce7f 279b
00000240: 22f6 e79a 0343 2c9c e69a c218 d7e6 3a9a
00000250: 9093 8581 5558 8c16 0774 d69b 5ad1 3f9c
00000260: 7257 f399 4098 119c e24d 259c 1877 2a9c
00000270: e908 3c9b d666 a419 7cee 169c b76f 5b99
00000280: 9983 f49a 3b26 339c ac10 cc9a 389e e59b
00000290: 4fa0 5a9c b284 589a 4b3d 269b 73f8 529a
000002a0: a29e 8a9a 3958 189c 1e66 bf9a 6795 229c
000002b0: 809a 119c 4b09 169c 988b 2b9a 11ea 229a
000002c0: b372 da9b ea7a 2919 dee2 4f99 fb63 ad99
000002d0: 4434 e59a 2257 369a 94e6 769a a046 9f81
000002e0: 869f a09b c59e f099 cc31 6e19 476f 7099
000002f0: de47 b69b 0cb4 169c 2097 149a f8d7 a19b
00000300: f3c3 4d9b 31e8 129b 358b 2b9b 2bf8 999b
00000310: 85ea 819a c69c dc15 f197 991a e98a f318
00000320: c154 4218 1c82 4f9b afa3 729b 2985 069a
00000330: 8fd1 959b 2b00 861a 60bb 739b 61b6 199b
00000340: efdc d89a 5d79 4c9b 03d2 379b 5cde 679a
00000350: 56a3 8d81 62a7 6a9a 9821 a69b fe30 6b9b
00000360: 4c57 ab99 85f2 4a9b 8288 329b 7ddc 239b
00000370: 3cda df9a 5fe2 9e9a 6c16 579b c8c2 dd9a
00000380: 6555 0f9a 1355 739b 6228 5699 f736 8d9a
00000390: d3ca 399b d4d2 201a 39d4 599a 4950 3c1a
000003a0: c5e7 8518 b69a 0b9b 17be f79a 40f3 019b
000003b0: df33 af9b 5a41 149b 31eb 849b 2198 ca18
000003c0: 94d0 5b14 54db 319a 6dbd f196 2012 2f19
000003d0: 949b 541a 9b99 411a 3e0b a299 80b8 8501
000003e0: af2a 989b 7dbd 7419 346e ed19 8feb c29a
000003f0: ccd2 299b 1442 759b 9b3a 5699 9189 2b1b

fc_layers.1.bias f4 [32]
-0.057673838 0.026214775 -1.096397e-21 -2.1011051e-22 0.017532272 -2.0123538e-37 -1.1287575e-07 -1.928372e-30
-0.094036214 -5.050743e-37 -4.2370318e-35 -2.6345351e-23 -3.9527867e-37 -3.3114157e-30 -1.1390636e-26 -5.25516e-35
-0.11756346 -6.540161e-33 0.019603096 -3.0652138e-30 -1.13658765e-30 -3.794043e-37 -4.911208e-38 -6.5034254e-26
-2.0623637e-35 -1.5637255e-35 0.2794655 -6.2985406e-38 -1.1197843e-29 0.11590219 -1.2874876e-24 -2.4084115e-36
00000000: 673b 6cbd 5ec0 d63c ceae a59c 0e02 7e9b
00000010: d79f 8f3c 26f4 8882 1a66 f2b3 b872 1c8e
00000020: 0f96 c0bd 2dde 2b83 7d47 6186 eecb fe99
00000030: a181 0683 b553 868e 639d 6194 c4b4 8b86
00000040: 1cc5 f0bd 76d5 078a ac96 a03c 00ae 788e
00000050: 016c b88d c71a 0183 20b2 8581 5b04 a195
00000060: e14e db85 a848 a685 1a16 8f3e 6c76 ab81
00000070: 861e 638f 215e ed3d a33a c797 8fe2 4c84

fc_layers.2.weight f4 [16, 32]
0.13393791 0.19674954 -2.228505e-22 -1.933857e-22 0.22125126 2.951314e-38 3.6796656e-08 4.570899e-31
0.30996457 -5.3496486e-37 -2.9621855e-35 1.5492588e-24 -4.605278e-39 -9.503307e-31 -2.2764332e-26 -5.0557005e-36
0.07975753 1.329043e-32 0.19076253 -3.6902575e-29 -1.1665559e-30 -3.93629e-38 -1.8564537e-38 3.3892558e-26
2.7207101e-34 -4.6816527e-36 -0.9870171 4.905664e-38 4.1945814e-31 0.25338426 1.9836606e-23 -5.346143e-37
4.913701e-38 -4.914975e-38 -4.9169747e-38 4.9046623e-38 -4.9131183e-38 -4.9101207e-38 4.905643e-38 4.910224e-38
-4.9148806e-38 -4.90765e-38 -4.911433e-38 -4.912089e-38 4.905249e-38 -4.909239e-38 4.9127714e-38 -4.907465e-38
4.9167595e-38 -4.915447e-38 -4.9061634e-38 -4.910175e-38 4.9150476e-38 -4.9184377e-38 4.9093236e-38 -4.9142915e-38
4.9156625e-38 -4.904937e-38 4.915374e-38 4.909682e-38 4.914324e-38 -4.906881e-38 -4.9151833e-38 4.916101e-38
0.14400409 0.19594368 -2.174853e-22 -1.8916118e-22 0.20476536 2.9247902e-38 2.9252021e-08 4.4613344e-31
0.31820515 -5.2130675e-37 -2.8996263e-35 1.5115825e-24 -5.315966e-39 -9.27535e-31 -2.2209534e-26 -4.943455e-36
0.075293176 1.2974018e-32 0.17910814 -3.5986666e-29 -1.13839105e-30 -3.9441597e-38 -1.8583813e-38 3.3067025e-26
2.6557333e-34 -4.5724603e-36 -0.9113069 4.914244e-38 4.096963e-31 0.26761606 1.935073e-23 -5.2029773e-37
-4.927795e-38 -4.921988e-38 -4.904641e-38 4.9091016e-38 -4.9064594e-38 4.911494e-38 4.904551e-38 4.905195e-38
-4.918383e-38 -4.918276e-38 4.909484e-38 4.917286e-38 -4.9127506e-38 -4.911947e-38 4.9132316e-38 -4.908115e-38
-4.9147237e-38 4.9145213e-38 -5.0546966e-38 -4.908954e-38 4.915518e-38 -4.906246e-38 -4.910387e-38 4.91215e-38
4.9130735e-38 -4.9130584e-38 -4.90706e-38 -4.915416e-38 -4.9050373e-38 -4.911522e-38 -4.908034e-38 -4.9131766e-38
-4.90778e-38 -4.9173553e-38 4.914853e-38 4.917558e-38 -4.905078e-38 4.914065e-38 4.913943e-38 -4.9111857e-38
-4.9094094e-38 4.907714e-38 4.9174674e-38 -4.9141575e-38 -4.9085417e-38 -4.910489e-38 -4.915297e-38 4.906937e-38
-4.9065995e-38 4.918459e-38 -4.9172213e-38 -4.9178295e-38 -4.916667e-38 -4.9126783e-38 4.915502e-38 -4.914644e-38
-4.91226e-38 4.9164327e-38 -4.913891e-38 4.9124726e-38 4.917527e-38 -4.9134457e-38 -4.9118807e-38 4.913859e-38
0.117894664 0.17235692 -2.0226334e-22 -1.7593053e-22 0.18038286 2.8030453e-38 1.5342273e-08 4.1448406e-31
0.28840864 -4.8380522e-37 -2.684136e-35 1.4032574e-24 -5.793439e-39 -8.617992e-31 -2.0632683e-26 -4.5900827e-36
0.06187512 1.2023281e-32 0.14484607 -3.345847e-29 -1.057784e-30 -3.8984034e-38 -1.8521438e-38 3.0711677e-26
2.4676205e-34 -4.2423515e-36 -0.9210525 4.9174926e-38 3.8033066e-31 0.24771878 1.7961388e-23 -4.797233e-37
0.1803129 0.23029472 -2.56606e-22 -2.2265116e-22 0.25872716 3.5667732e-38 1.3390215e-07 5.272428e-31
0.35176563 -6.1926218e-37 -3.4217074e-35 1.7883021e-24 -7.323393e-39 -1.0957927e-30 -2.6254625e-26 -5.83926e-36
0.112189084 1.5369884e-32 0.22338766 -4.2515803e-29 -1.3445915e-30 -3.941236e-38 -1.856888e-38 3.9104504e-26
3.1376692e-34 -5.4024448e-36 -0.9057764 4.906242e-38 4.8391176e-31 0.2954861 2.2896715e-23 -6.2398677e-37
0.06333728 0.118699536 -1.4521017e-22 -1.2734837e-22 0.111161 2.1572015e-38 6.2859407e-10 2.9632494e-31
0.24583414 -3.3594115e-37 -1.9403258e-35 1.0037865e-24 -2.852864e-39 -6.1653644e-31 -1.4315454e-26 -3.2399e-36
0.021665763 8.4926e-33 0.09966046 -2.3837734e-29 -7.544237e-31 -3.9354156e-38 -1.853122e-38 2.1877971e-26
1.7644059e-34 -3.047563e-36 -0.87926143 4.90895e-38 2.7151794e-31 0.18638968 1.273102e-23 -3.2642606e-37
00000000: 0527 093e b678 493e 72b4 869b fac9 699b
00000010: b18f 623e 50af 2001 5a0a 1e33 8b55 140d
00000020: adb3 9e3e 030a 3683 2e7f 1d86 77bc ef17
00000030: a425 3280 3133 9a8d 7072 e194 b40b d784
00000040: ea57 a33d 0604 8a0a 4157 433e 481e 3b90
00000050: d648 bd8d e04f 5681 6026 ca80 ecd3 2715
00000060: 7cd2 b407 af22 c784 27ad 7cbf 7d8b 8501
00000070: 381f 080d 95bb 813e 0fd9 bf19 79eb 3583
00000080: 80c3 8501 60cc 8581 50da 8581 8284 8501
00000090: 70bf 8581 8caa 8581 588b 8501 44ab 8501
000000a0: b8cb 8581 5499 8581 b1b3 8581 44b8 8581
000000b0: 9988 8501 67a4 8581 05bd 8501 0a98 8581
000000c0: d0d8 8501 aacf 8581 f88e 8581 edaa 8581
000000d0: e2cc 8501 82e4 8581 fea4 8501 9dc7 8581
000000e0: 2bd1 8501 6c86 8581 28cf 8501 7da7 8501
000000f0: d7c7 8501 f893 8581 d4cd 8581 39d4 8501
00000100: cf75 133e 76a5 483e 3876 839b 8dae 649b
00000110: 03ae 513e a03d 1f01 e045 fb32 51c7 100d
00000120: c9eb a23e 3964 3183 ab2b 1a86 f4e7 e917
00000130: c0e2 3980 4c80 968d dcf3 db94 7545 d284
00000140: 4f33 9a3d dbba 860a 2068 373e 5d79 3690
00000150: eab6 b88d 90bd 5681 1c5c ca80 6fbd 2315
00000160: f680 b007 af7d c284 694b 69bf 48c7 8501
00000170: 3df4 040d f904 893e 1626 bb19 530c 3183
00000180: b825 8681 40fd 8581 5c84 8581 72a3 8501
00000190: 0891 8581 1eb4 8501 bb83 8501 3888 8501
000001a0: 20e4 8581 62e3 8581 1ca6 8501 7bdc 8501
000001b0: e0bc 8581 46b7 8581 3ac0 8501 929c 8581
000001c0: a0ca 8581 37c9 8501 189a 8981 6ba2 8581
000001d0: 29d0 8501 8b8f 8581 67ac 8581 b0b8 8501
000001e0: 20bf 8501 05bf 8581 3895 8581 73cf 8581
000001f0: 1f87 8581 50b4 8581 019c 8581 d8bf 8581
00000200: 3c9a 8581 f7dc 8581 87cb 8501 61de 8501
00000210: 6887 8581 09c6 8501 2fc5 8501 f8b1 8581
00000220: 97a5 8581 c699 8501 bfdd 8501 aec6 8581
00000230: 8b9f 8581 1dad 8581 9fce 8581 5c94 8501
00000240: 0292 8581 a8e4 8501 08dc 8581 45e0 8581
00000250: 2bd8 8581 5fbc 8581 0dd0 8501 12ca 8581
00000260: 75b9 8581 89d6 8501 d2c4 8581 f0ba 8501
00000270: 29de 8501 b8c1 8581 d0b6 8581 99c4 8501
00000280: c272 f13d 557e 303e 7985 749b ddaf 549b
00000290: 49b6 383e c09c 1801 04ca 8332 fd81 060d
000002a0: 4caa 933e 61a1 2483 91b6 0e86 c124 d917
000002b0: c015 3f80 bdd5 8b8d 1156 cc94 933d c384
000002c0: c470 7d3d bab6 790a 8752 143e 94a7 2990
000002d0: a1a2 ab8d d03f 5481 3cae c980 ad13 1815
000002e0: 6300 a407 1e73 b484 19ca 6bbf ecdd 8501
000002f0: 45d9 f60c fea9 7d3e 3eb6 ad19 cb3d 2383
00000300: f2a3 383e 61d2 6b3e db1b 9b9b 9995 869b
00000310: e377 843e 9031 4201 bec6 0f34 9e19 2b0d
00000320: a01a b43e 58b9 5283 deed 3586 f95c 0a18
00000330: a4be 4f80 73cd b18d b101 0295 e95f f884
00000340: 64c3 e53d 299c 9f0a bcbf 643e ab94 5790
00000350: 252c da8d d094 5681 7c32 ca80 d9a2 4115
00000360: ad88 d007 6acb e584 f6e0 67bf 848f 8501
00000370: d109 1d0d f449 973e 8571 dd19 ea54 5483
00000380: fab6 813d be18 f33d 5f8c 2f9b 69f4 199b
00000390: 61a8 e33d 00e6 ea00 60c9 2c30 6d53 c00c
000003a0: f2bb 7b3e 34a1 e482 b154 ce85 1454 9b17
000003b0: a010 1f80 d813 488d fdc5 8d94 63cf 8984
000003c0: 667c b13c 6862 300a c91a cc3d 4cbe f18f
000003d0: 12d3 748d b043 5681 80c9 c980 3fab d814
000003e0: 9f87 6a07 06a1 8184 4717 61bf 63a2 8501
000003f0: a839 b00c f0dc 3e3e f540 7619 7127 de82

fc_layers.2.bias f4 [16]
0.35317013 -5.4505225e-38 0.32119012 -5.734046e-38 -4.91581e-38 0.32452655 0.34433272 0.2550096
-4.9079515e-38 0.68617237 0.33503327 -5.414468e-38 0.34572035 -4.90611e-38 0.33522463 -5.5777996e-38
00000000: b7d2 b43e 9960 9481 0873 a43e 7818 9c81
00000010: 32d2 8581 5828 a63e 614c b03e 9e90 823e
00000020: 6e9b 8581 fea8 2f3f 7b89 ab3e 5665 9381
00000030: 4202 b13e 998e 8581 90a2 ab3e 97d7 9781

fc_layers.3.weight f4 [8, 16]
-4.914661e-38 4.9092143e-38 -4.907688e-38 -4.907488e-38 -4.907602e-38 -4.905002e-38 -4.9276963e-38 -4.906603e-38
-4.915975e-38 -5.6137586e-38 -4.913392e-38 4.910288e-38 -4.910181e-38 4.90574e-38 -4.908419e-38 -4.9183614e-38
0.2856731 4.9069257e-38 0.27380368 -4.908836e-38 -4.9138246e-38 0.25194862 0.31691223 0.18895243
-4.90477e-38 -1.192402 0.28807813 4.910827e-38 0.27234814 4.912945e-38 0.2533964 4.9168043e-38
0.16572046 3.6259102e-38 0.16880208 -4.9163514e-38 -4.9112826e-38 0.15795575 0.19159216 0.09339322
-4.9120405e-38 -1.0108842 0.17674579 -4.904737e-38 0.16301207 4.9118914e-38 0.13993922 4.907742e-38
-4.9090064e-38 -4.9081527e-38 -4.909809e-38 4.9103606e-38 4.9114956e-38 -4.912571e-38 -4.911033e-38 -4.915423e-38
4.917744e-38 -5.854692e-38 -4.9067553e-38 -4.906049e-38 -4.9138e-38 4.9123964e-38 -4.9167146e-38 4.9098286e-38
0.20475039 3.5215774e-38 0.21148369 -3.9747326e-38 -4.9182785e-38 0.19289535 0.25508705 0.16212535
-4.918366e-38 -0.99939746 0.21773557 -4.9163643e-38 0.21285534 4.909736e-38 0.19467385 4.917737e-38
0.12155349 3.7312116e-38 0.09794948 -4.916374e-38 -4.918018e-38 0.09912478 0.13717951 0.02357452
-4.9067884e-38 -0.9831904 0.09144304 -4.915163e-38 0.105891995 4.917422e-38 0.0816562 4.914625e-38
-4.9142887e-38 4.9050984e-38 -4.9076656e-38 -4.905624e-38 -4.917787e-38 -4.905984e-38 -4.9063383e-38 -4.9124053e-38
-4.9129715e-38 -4.9056567e-38 -4.913459e-38 -4.907532e-38 -4.905334e-38 -4.909239e-38 -4.9172213e-38 4.909589e-38
-4.914782e-38 -4.9164293e-38 -4.910253e-38 4.906737e-38 4.9054325e-38 -4.9122663e-38 -4.9192885e-38 -4.9181944e-38
4.914086e-38 -6.194811e-38 -4.9109704e-38 -4.9048966e-38 -4.906778e-38 -4.9141867e-38 -4.905706e-38 -4.9091913e-38
00000000: 30ca 8581 3ba4 8501 9899 8581 3398 8581
00000010: ff98 8581 e086 8581 0825 8681 0892 8581
00000020: 58d3 8581 30d2 9881 58c1 8581 b7ab 8501
00000030: f8aa 8581 058c 8501 b09e 8581 fae3 8581
00000040: bf43 923e 4894 8501 ff2f 8c3e 98a1 8581
00000050: 5cc4 8581 69ff 803e 5242 a23e bf7c 413e
00000060: 4285 8581 a1a0 98bf fa7e 933e 78af 8501
00000070: 3771 8b3e 3bbe 8501 2cbd 813e 20d9 8501
00000080: a0b2 293e d069 4501 74da 2c3e f8d5 8581
00000090: a5b2 8581 27bf 213e bc30 443e f244 bf3d
000000a0: edb7 8581 a764 81bf d9fc 343e 0785 8581
000000b0: a3ec 263e e3b6 8501 3a4c 0f3e f899 8501
000000c0: c8a2 8581 d59c 8581 60a8 8581 38ac 8501
000000d0: 21b4 8501 a0bb 8581 e8b0 8581 80cf 8581
000000e0: acdf 8501 4061 9f81 1893 8581 2c8e 8581
000000f0: 30c4 8581 68ba 8501 80d8 8581 83a8 8501
00000100: 16aa 513e a0bb 3f01 2e8f 583e b067 5881
00000110: 66e3 8581 5c86 453e c59a 823e 3004 263e
00000120: 02e4 8581 83d8 7fbf 13f6 5e3e 0fd6 8581
00000130: c0f6 593e dea7 8501 9558 473e a0df 8501
00000140: 09f1 f83d 8025 4b01 bd99 c83d 20d6 8581
00000150: 95e1 8581 ef01 cb3d c978 0c3e 5a1f c13c
00000160: 5393 8581 5eb2 7bbf 7d46 bb3d b0cd 8581
00000170: e7dd d83d 6edd 8501 5e3b a73d f0c9 8501
00000180: 98c7 8581 8c87 8501 7099 8581 368b 8581
00000190: f9df 8581 b88d 8581 3090 8581 78ba 8581
000001a0: 6abe 8581 708b 8581 d0c1 8581 8298 8581
000001b0: 3089 8581 67a4 8581 08dc 8581 d7a6 8501
000001c0: 08cb 8581 83d6 8581 78ab 8581 f792 8501
000001d0: e089 8501 80b9 8581 70ea 8581 d0e2 8581
000001e0: 2ec6 8501 88a3 a881 78b0 8581 2486 8581
000001f0: 4093 8581 e2c6 8581 c88b 8581 12a4 8581

fc_layers.3.bias f4 [8]
-4.911051e-38 0.58682036 0.5118984 -4.904939e-38 0.5542789 0.46469107 -4.910168e-38 -4.915217e-38
00000000: 08b1 8581 dc39 163f c60b 033f 7086 8581
00000010: 39e5 0d3f fdeb ed3e e0aa 8581 10ce 8581
