checkpoints/neumf_first_try_Epoch2_precision0.2594_recall1.0000.model (torch, 645252 bytes, 13 tensors)

embedding_user_mlp.weight f4 [6040, 8]
0	0xbe772340	-0.2413454
1	0xbda5cc60	-0.08095622
2	0x3d197baf	0.03747147
3	0x3d91ec50	0.07125151
4	0xbe6ec103	-0.23315816
5	0x3e0b05fe	0.13576505
6	0xbd8bedcd	-0.06832466
7	0x3da5061a	0.080578044
8	0x3da8643e	0.08222245
9	0x3c45a482	0.0120631475
10	0x3d41376e	0.047172002
11	0xbd11dad7	-0.035609093
12	0x3da9c306	0.08289151
13	0xbdf4040f	-0.119148366
14	0x3b946f84	0.0045298953
15	0xbcbbf4cf	-0.022943882
16	0x3c53afbc	0.012920316
17	0xbe04124a	-0.12897602
18	0x3e49a4f2	0.19691828
19	0x3e221e30	0.15831828
20	0x3c77d326	0.015126025
21	0x3e0333c6	0.12812719
22	0xbe078fa0	-0.13238382
23	0x3e13b612	0.14424923
24	0xbe5729cd	-0.2101204
25	0xbe8bbdab	-0.27293143
26	0x3ea0675f	0.31328866
27	0x3e8a3c6f	0.26999232
28	0xbe594655	-0.21218236
29	0x3e876a8a	0.2644847
30	0xbe86b575	-0.26310316
31	0x3e8caec3	0.27477083
32	0xbbd9f532	-0.006651544
33	0xbd51a1ea	-0.051179804
34	0x3d89b2c8	0.06723553
35	0x3d76b56c	0.06023161
36	0x3c9963b6	0.018724304
37	0x3d7b7d2f	0.06139868
38	0xbd3b600f	-0.045745905
39	0x3d805a96	0.06267278
40	0xbdb17c44	-0.0866628
41	0xbd667363	-0.056262385
42	0x3ab6f831	0.0013959465
43	0x3d1bc442	0.038028963
44	0xbd9a8535	-0.075449385
45	0x3dbc4a2c	0.09193835
46	0xbd29bf5f	-0.04144227
47	0x3d2dd63e	0.042440645
48	0xbea66c55	-0.32504526
49	0xbe8e88de	-0.27838796
50	0x3e96a7b1	0.29424813
51	0x3e8a2413	0.26980647
52	0xbea2cd35	-0.31797186
53	0x3e9afd09	0.30271176
54	0xbe8ab9cf	-0.27094886
55	0x3e8f2c37	0.2796342
56	0x3e54dcab	0.20787303
57	0xba3c9049	-0.0007193131
58	0x3dc8baf3	0.09801283
59	0xbbe110e6	-0.0068684695
60	0x3e4e282e	0.20132515
61	0xbe047d61	-0.12938453
62	0xbcad60f9	-0.021164404
63	0x3c4c02d9	0.012451851
64	0xbe4b5db5	-0.19859965
65	0xbe073454	-0.13203555
66	0x3e03e05d	0.12878557
67	0x3debc819	0.11512775
68	0xbe3a8864	-0.18216091
69	0x3e075cb4	0.13218957
70	0xbdfb5fd9	-0.12274141
71	0x3df8dd24	0.12151554
72	0xbe08ff68	-0.1337868
73	0x3ca7326e	0.020409789
74	0xbd8f21f1	-0.06988896
75	0xbc8da42a	-0.017290194
76	0xbdf952e0	-0.1217401
77	0x3d7d68d1	0.06186754
78	0x3d0af2ca	0.033922948
79	0xbd0243e8	-0.03180304
80	0xbdc1865d	-0.09449456
81	0xbdc0322a	-0.09384568
82	0x3da2c2b9	0.07947297
83	0x3da5f7b6	0.08103888
84	0xbd9171a9	-0.07101757
85	0x3de3c660	0.111218214
86	0xbd96ad2a	-0.07357247
87	0x3da9984d	0.08281002
88	0xbbc34453	-0.0059590726
89	0xbd795df6	-0.060880624
90	0x3d54ca1f	0.05195057
91	0x3d8fabd4	0.070151955
92	0xbbce4f9f	-0.0062961127
93	0x3db0c67f	0.0863161
94	0xbd55b5c2	-0.05217529
95	0x3d764730	0.060126483
96	0x3da068cb	0.07832488
97	0xbdd56352	-0.104193345
98	0x3e3b85ef	0.1831281
99	0x3ddbb37d	0.10727594
100	0x3d95bd4c	0.07311496
101	0x3d2b93b4	0.041888908
102	0xbdf9949a	-0.121865466
103	0x3dcdea96	0.10054509
104	0xbe94d75f	-0.29070565
105	0xbda51935	-0.080614485
106	0x3c39af7d	0.011333344
107	0x3d9d5a8b	0.07683285
108	0xbe945a4f	-0.2897515
109	0x3de00033	0.10937538
110	0xbda2159f	-0.0791428
111	0x3db3c5bc	0.08777949
112	0xbd9d5100	-0.07681465
113	0xbe06072c	-0.13088673
114	0x3e2dc671	0.1697023
115	0x3e04ae66	0.12957153
116	0xbda1b030	-0.07894933
117	0x3da7d883	0.08195593
118	0xbe09f26a	-0.1347138
119	0x3e06564f	0.13118862
120	0xbe6b387b	-0.22970764
121	0xbe1d4482	-0.15358165
122	0x3dd27475	0.10276119
123	0x3e1047a6	0.14089832
124	0xbe64c80e	-0.2234194
125	0x3e3c4b6c	0.18388146
126	0xbe11d028	-0.14239562
127	0x3e21671d	0.15761991
128	0xbd4395e9	-0.047750387
129	0xbca91b3e	-0.020642873
130	0x3c09b9cb	0.008406113
131	0x3cae3401	0.021265032
132	0xbd1e509c	-0.038651094
133	0x3dd5de01	0.104427345
134	0x3ac85378	0.0015283665
135	0x3c6bba74	0.014387716
136	0x3cf90c18	0.030401275
137	0x3caefc94	0.021360673
138	0xbc840597	-0.016115947
139	0xbc02ebb9	-0.007990771
140	0x3c05848d	0.008149278
141	0xbdb8ec43	-0.09029438
142	0xbba80054	-0.0051269922
143	0xbadef165	-0.0017009197
144	0xbe5aff35	-0.21386416
145	0xbc33bec8	-0.010970779
146	0xbd5386c1	-0.051642183
147	0x3c399b29	0.011328497
148	0xbe4dd861	-0.20102073
149	0x3de4dfd0	0.11175501
150	0x3c1635ab	0.009168069
151	0x3bf4ade3	0.007467018
152	0xbe4be2d7	-0.19910751
153	0xbe17e9df	-0.14835308
154	0x3e14cbbe	0.14530846
155	0x3e18c634	0.14919358
156	0xbe40a334	-0.18812257
157	0x3e28a59b	0.16469423
158	0xbe07d904	-0.13266379
159	0x3e1fe37a	0.15614119
160	0xbe4fda49	-0.20298113
161	0xbdc161d6	-0.09442489
162	0x3d08363d	0.03325485
163	0x3da7de7d	0.08196733
164	0xbe447abe	-0.19187447
165	0x3e1ed551	0.15511061
166	0xbd91f08c	-0.07125959
167	0x3dba4417	0.09095018
168	0x3d30572f	0.043051895
169	0xbd5aed3e	-0.053448908
170	0x3dd14c22	0.10219599
171	0x3d15425b	0.036440235
172	0x3cf7f481	0.030267956
173	0x3d27acf4	0.040936425
174	0xbd416501	-0.047215465
175	0x3d64c210	0.055849135
176	0xbe0ebadb	-0.13938467
177	0x3d05b8ff	0.03264713
178	0xbd73df9b	-0.05953942
179	0xbd08e297	-0.033419218
180	0xbe1dc16b	-0.15405814
181	0x3c696c4c	0.014247011
182	0x3d02c1d9	0.03192315
183	0xbd00c614	-0.031438902
184	0xbd708df1	-0.058729116
185	0xbe1217b2	-0.14266852
186	0x3e16acef	0.14714406
187	0x3e0a7cb0	0.13524127
188	0xbd7428b1	-0.05960912
189	0x3e1cee2b	0.15325229
190	0xbe0b388d	-0.13595791
191	0x3e15fa2a	0.14646211
192	0xbe056a6b	-0.13028876
193	0xbe3aad2d	-0.18230124
194	0x3e3241d7	0.17407928
195	0x3e26c1d3	0.16284876
196	0xbdef4354	-0.11682764
197	0x3e436241	0.1908045
198	0xbe1604ea	-0.14650312
199	0x3e33c3b6	0.17555127
200	0x3e6c601b	0.23083536
201	0x3e670326	0.22559795
202	0xbd945147	-0.07242065
203	0xbe4b23ad	-0.19837828
204	0x3e71c969	0.23611988
205	0xbea21792	-0.31658608
206	0x3e29adf1	0.1657026
207	0xbe57ba37	-0.21067129
208	0xbe53f96b	-0.20700614
209	0xbe089ba1	-0.13340618
210	0x3e1c6fb3	0.15276985
211	0x3e1683a5	0.14698656
212	0xbe4d65df	-0.20058392
213	0x3e392184	0.18079191
214	0xbe0da0c7	-0.13830863
215	0x3e0e4525	0.13893564
216	0xbe5ef1a2	-0.21771863
217	0xbe058c0d	-0.13041706
218	0x3de39aa1	0.111134775
219	0x3df19cd8	0.11797494
220	0xbe5d3a7c	-0.21604341
221	0x3e1cbcca	0.15306392
222	0xbe1a0326	-0.15040264
223	0x3e130622	0.14357808
224	0x3e7bf436	0.24604878
225	0xbe0b1436	-0.13581929
226	0x3e8bae1d	0.27281275
227	0x3e0eaab0	0.139323
228	0x3e836dde	0.2566976
229	0xbda10e83	-0.07864096
230	0xbe2bff66	-0.16796646
231	0x3e0d1df2	0.13780954
232	0x3d4348ca	0.04767684
233	0xbdf783f8	-0.12085718
234	0x3e23028c	0.1591894
235	0x3df1cc7b	0.1180658
236	0x3d3424b9	0.043980334
237	0x3dcde4e6	0.100534245
238	0xbdd09d81	-0.101862915
239	0x3df410d5	0.11917273
240	0x3dfe345e	0.12412332
241	0x3c67be6d	0.014144522
242	0x3d149380	0.03627348
243	0xbb116b3c	-0.002218916
244	0x3dea2d64	0.11434439
245	0xbd8e9ff9	-0.06964106
246	0x3ce47e9a	0.0278924
247	0xbb0aa193	-0.0021153435
248	0xbe6209d3	-0.2207406
249	0xbdea635d	-0.11444733
250	0x3d89c09d	0.06726191
251	0x3de84f8e	0.11343299
252	0xbe721c36	-0.23643574
253	0x3e0f5426	0.13996944
254	0xbdde12b2	-0.108434096
255	0x3df82bd2	0.12117733

embedding_item_mlp.weight f4 [3706, 8]
0	0xbf076b34	-0.52897954
1	0x3f0646b4	0.52451634
2	0xbf0003f2	-0.5000602
3	0x3efd926b	0.4952577
4	0x3f06c12c	0.52638507
5	0xbed0cd91	-0.40781835
6	0x3f06b515	0.5262006
7	0xbf0450f0	-0.51686
8	0xbe792d31	-0.24333645
9	0x3e6f7866	0.23385772
10	0xbe7bcf1b	-0.24590723
11	0x3e883662	0.2660399
12	0x3e8231cf	0.25428626
13	0xbe8d36e3	-0.27580938
14	0x3e8158ec	0.25263155
15	0xbe73d2d5	-0.23810895
16	0xbe13eb61	-0.14445259
17	0x3e2a8fe8	0.16656458
18	0xbe3d3424	-0.18476921
19	0x3e545a55	0.20737584
20	0x3e2fd084	0.17169386
21	0xbe718d09	-0.23588957
22	0x3e3009ae	0.17191193
23	0xbe2ccf51	-0.1687596
24	0xbeeb5e79	-0.45970514
25	0x3eebff5e	0.46093267
26	0xbed844b8	-0.42239928
27	0x3ed68669	0.41899422
28	0x3ee5dc7d	0.44894782
29	0xbe9875f7	-0.297775
30	0x3ee7c960	0.45270824
31	0xbee8759f	-0.45402238
32	0xbee38e67	-0.44444582
33	0x3ee48d02	0.4463883
34	0xbeea70a1	-0.45789054
35	0x3ee38ab2	0.44441754
36	0x3ee17141	0.44031718
37	0xbed8afb9	-0.42321566
38	0x3eea3f63	0.45751485
39	0xbeea4c32	-0.45761257
40	0xbec13170	-0.3773303
41	0x3ebcbc7b	0.3686255
42	0xbec52110	-0.38501787
43	0x3ecb01a8	0.396497
44	0x3ebe7b68	0.37203526
45	0xbed7e581	-0.42167285
46	0x3ec4f3df	0.3846731
47	0xbec1d55d	-0.37858096
48	0xbd977a5e	-0.073963866
49	0x3d96bd93	0.07360377
50	0xbd73aaef	-0.059489187
51	0x3d4e9643	0.05043627
52	0x3d8eaf8f	0.06967079
53	0xbd71268c	-0.05887465
54	0x3d62a6e2	0.055334933
55	0xbd74055e	-0.05957543
56	0xbe9bc0a1	-0.30420402
57	0x3e92ea92	0.28694588
58	0xbe9efe18	-0.31053233
59	0x3e9c09e7	0.30476305
60	0x3e9d36ca	0.30705863
61	0xbea5ef16	-0.3240897
62	0x3ea1a97c	0.3157462
63	0xbe9f9c8f	-0.31174132
64	0xbe5c54f0	-0.21516776
65	0x3e497c7a	0.1967639
66	0xbe801299	-0.2501419
67	0x3e8345dc	0.25639236
68	0x3e674857	0.22586189
69	0xbe9cec1e	-0.30648893
70	0x3e65e690	0.22451234
71	0xbe6b723e	-0.22992799
72	0xbecf0d0b	-0.40439638
73	0x3ecb52ac	0.3971151
74	0xbec09d1c	-0.37619865
75	0x3ec0379d	0.3754243
76	0x3ec73410	0.38906908
77	0xbe968b9b	-0.29403386
78	0x3ec27f03	0.37987527
79	0xbeca4263	-0.39503774
80	0xbe8cc149	-0.27491215
81	0x3e953135	0.29139104
82	0xbe93ee05	-0.28892532
83	0x3e93fb82	0.28902823
84	0x3e97ecc8	0.29672837
85	0xbe7b2c98	-0.2452873
86	0x3e985e15	0.2975928
87	0xbe948377	-0.2900655
88	0x3d3e5c0a	0.046474494
89	0xbd6feee2	-0.058577426
90	0x3ca5e3a8	0.020250157
91	0xbc036992	-0.008020775
92	0xbd13827c	-0.03601311
93	0xbd3aacf3	-0.045575093
94	0xbce87573	-0.028376317
95	0x3d044f9b	0.03230248
96	0xbd71f3b6	-0.05907031
97	0x3d779714	0.060446814
98	0xbd4aba54	-0.049494103
99	0x3d302912	0.043007918
100	0x3d42bb8d	0.047542144
101	0xbd59274e	-0.053016
102	0x3d54ad81	0.05192328
103	0xbd31c6cd	-0.04340248
104	0xbdac3229	-0.08408005
105	0x3da4196a	0.0801266
106	0xbe06be8d	-0.13158627
107	0x3e1a6eee	0.15081379
108	0x3dc74feb	0.0973204
109	0xbe4e046c	-0.20118874
110	0x3def354e	0.11680089
111	0xbdd38afd	-0.10329244
112	0xbeb83aac	-0.35982263
113	0x3ec48c44	0.38388264
114	0xbeb71f7b	-0.35766205
115	0x3eba04d4	0.3633181
116	0x3ebfe08d	0.37476006
117	0xbe9938be	-0.29926103
118	0x3ebec6bf	0.37261006
119	0xbeb93e6a	-0.3618043
120	0xbed0c656	-0.40776318
121	0x3ed663c9	0.41873005
122	0xbecd9ddb	-0.40159497
123	0x3ec64051	0.38720945
124	0x3ed51c7c	0.41623294
125	0xbea04b82	-0.31307608
126	0x3ed0afa8	0.40759015
127	0xbed24267	-0.41066286
128	0xbdf35594	-0.11881557
129	0x3dc77fe6	0.097411916
130	0xbe22d63e	-0.1590204
131	0x3e306984	0.17227751
132	0x3dfba6b4	0.122876555
133	0xbe4b06c3	-0.19826798
134	0x3e116cd2	0.14201668
135	0xbe08a09e	-0.1334252
136	0xbdfd1689	-0.12357814
137	0x3e021c7c	0.12706178
138	0xbe148455	-0.14503606
139	0x3e275808	0.16342175
140	0x3e087644	0.13326365
141	0xbe4a486e	-0.19754192
142	0x3e10d253	0.14142732
143	0xbe0a2163	-0.13489299
144	0xbd57c739	-0.052680228
145	0x3d1fd1e0	0.03901851
146	0xbd2fc262	-0.042909987
147	0x3d544244	0.05182101
148	0x3d1f9b12	0.038966246
149	0xbd2b3f23	-0.04180826
150	0x3d391284	0.045183674
151	0xbd329627	-0.043600228
152	0xbe1d3018	-0.15350378
153	0x3e187230	0.14887309
154	0xbe49bfa9	-0.19702019
155	0x3e5a8896	0.21341166
156	0x3e213683	0.15743451
157	0xbe94e2aa	-0.2907918
158	0x3e27eb66	0.16398391
159	0xbe2db03b	-0.16961758
160	0xbe6b6952	-0.22989395
161	0x3e697886	0.22799882
162	0xbe785c3a	-0.24253932
163	0x3e7965d9	0.24355258
164	0x3e65c12c	0.2243697
165	0xbe7e9edf	-0.24865292
166	0x3e7702b6	0.24122128
167	0xbe69c5da	-0.2282938
168	0xbe1fedfe	-0.1561813
169	0x3e0dbbe6	0.13841209
170	0xbe582f61	-0.21111824
171	0x3e629f5b	0.22131102
172	0x3e30be8e	0.17260191
173	0xbe943ffd	-0.2895507
174	0x3e43679c	0.19082493
175	0xbe3732b0	-0.1789043
176	0xbefc2e6c	-0.49254167
177	0x3ef0f22a	0.47059757
178	0xbeef7d24	-0.46775162
179	0x3ef1b37d	0.4720725
180	0x3ef558fd	0.47919455
181	0xbece8f13	-0.40343532
182	0x3ef76d79	0.48325709
183	0xbef55df5	-0.47923246
184	0xbf2797fb	-0.6546628
185	0x3f25d6c5	0.6478084
186	0xbf1c3d0a	-0.6103064
187	0x3f14aedc	0.58079314
188	0x3f227850	0.6346483
189	0xbebbeaa0	-0.36702442
190	0x3f21c5d3	0.6319248
191	0xbf245c42	-0.64203274
192	0xbca5dae4	-0.020245977
193	0x3d211c2f	0.03933352
194	0xbce6bb87	-0.028165592
195	0x3cc96d42	0.024588231
196	0x3ce5ea60	0.02806586
197	0xbbe07fd5	-0.0068511763
198	0x3caa73ae	0.020807113
199	0xbcb63e2d	-0.022246445
200	0xbd9642df	-0.073369734
201	0x3d6b6811	0.057472292
202	0xbdccf6b8	-0.10007995
203	0x3dd36cf2	0.10323514
204	0x3d96d980	0.073657036
205	0xbe104fa0	-0.14092875
206	0x3daea9ee	0.08528505
207	0xbdc9a8fc	-0.09846684
208	0xbef68bcd	-0.48153535
209	0x3efc9ba3	0.4933749
210	0xbef7a2da	-0.48366433
211	0x3eef9f6e	0.46801323
212	0x3efbc3b4	0.49172747
213	0xbeb0fbde	-0.3456716
214	0x3f003654	0.500829
215	0xbef46cc6	-0.47739238
216	0xbec9794a	-0.3935035
217	0x3ec3b3f8	0.38223243
218	0xbead0966	-0.33796233
219	0x3ea5c98c	0.3238033
220	0x3ec515be	0.3849315
221	0xbe665c0e	-0.22496054
222	0x3eb376cf	0.3505158
223	0xbebfd333	-0.3746582
224	0x3de10e29	0.10989029
225	0xbde33721	-0.110944994
226	0x3db5b1c6	0.08871798
227	0xbdd9a382	-0.1062689
228	0xbde1b9fe	-0.11021803
229	0x3dbebbfa	0.093131974
230	0xbdda470e	-0.10658084
231	0x3dd81978	0.10551733
232	0xbe8dac14	-0.27670348
233	0x3e8b4f83	0.272091
234	0xbea81577	-0.32828876
235	0x3ead0bae	0.33797973
236	0x3e978a30	0.29597616
237	0xbed42c97	-0.4144027
238	0x3e97c05b	0.29638943
239	0xbe9d351d	-0.30704585
240	0xbe18312e	-0.1486251
241	0x3e187a37	0.14890371
242	0xbe21db0a	-0.15806213
243	0x3e1d06b3	0.15334587
244	0x3e1f41db	0.15552466
245	0xbe11feec	-0.14257401
246	0x3e194512	0.14967754
247	0xbe1ef2e3	-0.15522341
248	0xbe096228	-0.1341635
249	0x3e1349ff	0.14383696
250	0xbdd26523	-0.102731965
251	0x3dda413d	0.106569745
252	0x3e0aca46	0.13553724
253	0xbdb08228	-0.08618575
254	0x3e0c1269	0.13678898
255	0xbdf516ae	-0.119672164

embedding_user_mf.weight f4 [6040, 8]
0	0x3e887856	0.2665431
1	0x3e077fe4	0.1323238
2	0x3e27f20f	0.16400932
3	0xbd976450	-0.0739218
4	0xbe1eaa62	-0.15494683
5	0xbec6c976	-0.38825577
6	0xbe07d222	-0.13263753
7	0x3dfeb0e2	0.124360815
8	0x3ed502bd	0.41603652
9	0x3e93daf2	0.2887798
10	0xbe7c83cc	-0.24659652
11	0xbdf1d8dd	-0.118089415
12	0x3c8c67f2	0.017139409
13	0xbe4be005	-0.19909675
14	0x3c23c7a4	0.0099963285
15	0x3d3ac7d5	0.04560073
16	0x3e8f1964	0.2794906
17	0xbe299083	-0.16559033
18	0xbe99d559	-0.30045584
19	0x3d0b1fae	0.03396576
20	0x3e8930d0	0.26795053
21	0xbe6e3cb8	-0.2326535
22	0x3ea7d7b9	0.3278177
23	0x3ecb8ada	0.39754373
24	0x3e8f571b	0.27996144
25	0x3d9186e5	0.07105807
26	0xbefff759	-0.499934
27	0x3e21a2c7	0.15784751
28	0x3eaf89d6	0.34284848
29	0xbe55cfd2	-0.20880058
30	0xbd96c117	-0.07361048
31	0x3e25c997	0.16190182
32	0xbe3534b0	-0.1769588
33	0x3effec6b	0.4998506
34	0x3e343c64	0.17601162
35	0xbec9f637	-0.3944566
36	0x3e1b6229	0.15174164
37	0x3e6d19cd	0.23154373
38	0x3ea77201	0.32704166
39	0x3ddc1422	0.107460275
40	0x3e4c1ad3	0.19932108
41	0xbc7948c8	-0.015215106
42	0x3dfd5e53	0.123715065
43	0x3df4d96a	0.11955531
44	0xbe5e6f04	-0.21722037
45	0xbece5c20	-0.4030466
46	0xbd17379e	-0.036918275
47	0x3d086050	0.033294976
48	0x3e9db871	0.3080478
49	0xbe037d93	-0.12840872
50	0xbec72578	-0.38895774
51	0xbeb54896	-0.3540694
52	0x3e8d04dd	0.27542773
53	0xbe597ae4	-0.21238285
54	0x3e8c7335	0.27431646
55	0x3e8128ad	0.25226346
56	0x3dd8b564	0.105814725
57	0x3ee21cd5	0.44162622
58	0x3de8d3bb	0.113685094
59	0xbf186d00	-0.5954132
60	0x3d9e44e1	0.07727981
61	0xbd946113	-0.07245078
62	0x3eb5d411	0.35513356
63	0x3c7317ed	0.014837247
64	0x3e41c593	0.18923025
65	0x3ede6eb8	0.43443847
66	0x3db901e7	0.09033566
67	0xbf0ffd6e	-0.5624608
68	0x3dd2465c	0.10267326
69	0xbd3cffc0	-0.04614234
70	0x3e817530	0.2528472
71	0x3eb1800a	0.34668
72	0x3e7666d8	0.2406267
73	0xbe08ada4	-0.13347489
74	0x3ce5ebd2	0.02806655
75	0x3e8ca7ea	0.27471858
76	0xbd9bb436	-0.07602732
77	0xbf268c45	-0.65057784
78	0xbd95c14e	-0.073122606
79	0x3e787a41	0.24265386
80	0x3d3f60f6	0.04672333
81	0x3dd53f42	0.10412456
82	0x3eab01cc	0.33399808
83	0xbdf8af40	-0.12142801
84	0x3e82b0d0	0.25525522
85	0xbe07e29a	-0.13270035
86	0x3f1046e8	0.56358194
87	0x3e90a5c7	0.28251478
88	0x3e02379a	0.12716523
89	0x3e5c075b	0.21487181
90	0xbd49f15c	-0.049302444
91	0x3e08196f	0.13290952
92	0x3e41ecab	0.18937938
93	0x3d594d1d	0.053052057
94	0xbc2d90cf	-0.010593607
95	0x3e0754d6	0.13215956
96	0x3e88d585	0.26725402
97	0xbe72d64e	-0.23714563
98	0xbf004872	-0.5011054
99	0xbc969776	-0.01838277
100	0x3df12004	0.117736846
101	0xbeb4c443	-0.35305986
102	0xbe08fc0d	-0.133774
103	0x3e82be0b	0.25535616
104	0x3e8106e7	0.2520058
105	0x3e238fe9	0.15972866
106	0x3c44b70d	0.012006533
107	0xbddf3de6	-0.10900478
108	0x3e26e76a	0.16299215
109	0x3bdd3e49	0.0067518097
110	0x3d5d49bf	0.054025408
111	0x3e14c6a6	0.14528903
112	0x3eeff183	0.46863946
113	0xbd45efe9	-0.0483245
114	0x3da5d2da	0.08096857
115	0xbf2fd45a	-0.686834
116	0x3e087d1b	0.13328974
117	0xbded3230	-0.11581838
118	0x3eecfb84	0.4628564
119	0x3dc165d7	0.094432525
120	0x3debb7d3	0.11509671
121	0xbec2a919	-0.38019636
122	0x3e8ab344	0.27089894
123	0xbeabcbe2	-0.33553988
124	0xbe6d94c7	-0.23201285
125	0x3e118c70	0.14213729
126	0xbd6eeaf3	-0.058329534
127	0xbe6d9ab4	-0.23203546
128	0xbea1ff11	-0.31639913
129	0x3e075808	0.13217175
130	0xbef694c9	-0.4816039
131	0xbe2bdb8d	-0.1678297
132	0x3c8c9baa	0.01716407
133	0xbcaeba6e	-0.021329131
134	0xbe2c3242	-0.16816047
135	0x3e161d4e	0.14659616
136	0x3e6fc1b8	0.23413742
137	0xbe75b10e	-0.23993322
138	0xbdd1d922	-0.10246493
139	0xbe1d409e	-0.15356681
140	0x3bae18c7	0.0053130123
141	0xbedb6b69	-0.42855385
142	0xbdda9bd1	-0.10674251
143	0x3e75df26	0.24010906
144	0x3e608e12	0.21929196
145	0xbebb1996	-0.36542958
146	0xbe9e4dea	-0.3091882
147	0xbdb193d4	-0.08670774
148	0x3e67489b	0.2258629
149	0xbe2d727d	-0.16938205
150	0xbd9b113f	-0.07571649
151	0x3db97ede	0.09057401
152	0x3e872443	0.26394853
153	0xbd3017d3	-0.04299147
154	0xbe4cd26a	-0.20002142
155	0xbe9ed35e	-0.31020635
156	0x3e9005b9	0.28129366
157	0xbd941e41	-0.07232333
158	0x3e8b11dc	0.27162063
159	0x3e6745dc	0.22585243
160	0x3d80ff94	0.06298748
161	0xbe963182	-0.29334646
162	0xbd854530	-0.06507337
163	0xbe71feb3	-0.23632316
164	0x3dd4a350	0.10382712
165	0xbe4c5090	-0.19952607
166	0x3d19da61	0.037561778
167	0x3eb3b352	0.35097748
168	0x3e0438c7	0.12912284
169	0xbecf65ea	-0.40507442
170	0xbe48e66b	-0.19619147
171	0xbe66a8ce	-0.22525331
172	0x3eb6f28a	0.35731918
173	0xbe387226	-0.18012294
174	0x3f10d2e0	0.5657177
175	0x3ee2ee05	0.4432222
176	0xbe2deb21	-0.16984226
177	0x3da4e9a0	0.08052373
178	0xbf06324a	-0.52420485
179	0x3ad324e3	0.0016109016
180	0x3eaec673	0.3413578
181	0xbc6a1565	-0.014287327
182	0x3d7cc234	0.061708644
183	0x3eb51b9c	0.35372627
184	0x3ea25634	0.31706393
185	0x3e938d9f	0.28818986
186	0x3de13a30	0.109974265
187	0x3dce12d5	0.10062186
188	0x3e7c2fef	0.2462766
189	0xbeaf9d5f	-0.34299752
190	0x3e92a1ef	0.2863917
191	0x3ea5b70e	0.32366222
192	0x3d785f86	0.060637973
193	0xbeb2cb38	-0.3492067
194	0xbe6f130a	-0.23347107
195	0xbeca529a	-0.39516145
196	0x3d92e5dd	0.07172749
197	0xbdf91403	-0.1216202
198	0x3cf23ff2	0.029571507
199	0x3ea0ae86	0.3138315
200	0x3e93e740	0.28887367
201	0xbe50a24e	-0.20374414
202	0x3e699d2c	0.22813863
203	0x3cb69039	0.022285568
204	0x3e5878a8	0.21139777
205	0xbf2b75b1	-0.6697646
206	0x3f3340e2	0.7002088
207	0x3dbabd93	0.0911819
208	0x3cff1c46	0.031141412
209	0x3e925e62	0.28587633
210	0xbe5265ee	-0.20546696
211	0x3ea92dfa	0.3304289
212	0x3d25497b	0.04035328
213	0x3ca47773	0.02007649
214	0xbe9f880b	-0.3115848
215	0xbd10fea7	-0.035399105
216	0x3e13100c	0.1436159
217	0x3ef796de	0.4835729
218	0xbd55205d	-0.052032817
219	0x3e283ea8	0.16430151
220	0xbbcd0fe9	-0.006258
221	0xbe56171a	-0.2090725
222	0xbd18beaa	-0.037291206
223	0x3dd84022	0.10559107
224	0x3e88180f	0.26580855
225	0xbbadf922	-0.00530924
226	0xbf2e4683	-0.6807634
227	0x3e1173df	0.14204358
228	0x3ea3132c	0.31850564
229	0xbd4890a0	-0.04896605
230	0xbe9ab9bd	-0.30219832
231	0x3e0718a8	0.13193
232	0x3d7adb04	0.061244026
233	0x3f13b7d3	0.5770237
234	0x3dad9032	0.08474769
235	0xbe9ed065	-0.31018367
236	0x3ddaa681	0.10676289
237	0x3d0443cc	0.03229122
238	0x3d2690d7	0.040665474
239	0xbcbd5b05	-0.02311469
240	0x3d1f0879	0.03882644
241	0x3caf4075	0.02139304
242	0x3d671e5a	0.05642543
243	0x3f0a2047	0.539555
244	0x3d97da80	0.074147224
245	0xbe9109e3	-0.28327855
246	0xbcaf822c	-0.021424375
247	0x3dd8cc66	0.10585861
248	0x3dca2ebc	0.09872195
249	0x3ebc31ec	0.36756837
250	0x3dc2f4ca	0.09519346
251	0xbe34077a	-0.17580977
252	0x3c4da848	0.012552328
253	0x3d76fd79	0.060300324
254	0x3cb6ee1f	0.022330342
255	0x3e31a47f	0.17347907

embedding_item_mf.weight f4 [3706, 8]
0	0x3e663153	0.22479753
1	0xbf075515	-0.528642
2	0x3e436d66	0.19084701
3	0xbe38fd04	-0.18065268
4	0x3df06284	0.1173754
5	0xbd3b7e3b	-0.04577468
6	0xbcacf526	-0.02111299
7	0x3d665bb9	0.056239817
8	0xbec830f2	-0.39099842
9	0x3e7dcbe4	0.2478481
10	0xbe19aa1b	-0.15006296
11	0x3d486c49	0.048931394
12	0xbe8faa10	-0.28059435
13	0xbe18407f	-0.14868353
14	0xbea6a8f8	-0.32550788
15	0x3e6e3726	0.23263225
16	0x3e42e55f	0.1903281
17	0xbe5543d2	-0.20826653
18	0xbe52b6de	-0.20577571
19	0xbeddc81c	-0.43316734
20	0xbf0d377c	-0.5516279
21	0xbf18dd39	-0.5971256
22	0xbee93279	-0.4554632
23	0xbe813f41	-0.2524357
24	0x3eb56b07	0.35433218
25	0xbe8e1f3c	-0.27758205
26	0xbea759e4	-0.3268577
27	0x3f089b2e	0.53361785
28	0xbe4196c3	-0.18905167
29	0x3db08ba2	0.08620383
30	0xbe5cca12	-0.21561459
31	0x3dfa10bb	0.12210222
32	0x3e930621	0.28715613
33	0x3e4d5ba4	0.2005449
34	0xbe4e3dc3	-0.20140748
35	0x3e82c73e	0.25542635
36	0xbcd83d6d	-0.026396478
37	0xbeba94e7	-0.36441728
38	0xbdd3e7ac	-0.10346922
39	0x3eea7eb1	0.45799783
40	0x3ec13f77	0.37743732
41	0xbdc2665b	-0.09492179
42	0x3e3e9627	0.18611966
43	0xbca09836	-0.01960383
44	0x3e5eb32d	0.21748038
45	0xbf0524f4	-0.5200951
46	0x3dbb7bf5	0.09154502
47	0x3f3a7701	0.72837836
48	0x3efd8b6c	0.49520433
49	0xbdb8bd96	-0.09020536
50	0x3f0c2a2e	0.5475186
51	0xbe81d053	-0.2535425
52	0x3be5d9ab	0.0070144734
53	0xbe8df648	-0.2772696
54	0xbf06cfd9	-0.526609
55	0xbd5d2383	-0.053988945
56	0x3e400454	0.18751651
57	0xbe4f7eba	-0.20263186
58	0x3d2ef616	0.042715155
59	0xbe9989be	-0.299879
60	0x3ea991a9	0.33118942
61	0xbe8233db	-0.25430188
62	0x3e959d13	0.292214
63	0x3eab5af3	0.33467826
64	0x3d0155f7	0.031576123
65	0x3e64adc5	0.22331913
66	0xbdd3f68a	-0.10349758
67	0xbe98a266	-0.298114
68	0xbe6f0c3a	-0.23344508
69	0xbf26c8a9	-0.65149933
70	0xbf1801e5	-0.5937789
71	0x3d52810e	0.051392607
72	0x3ed47580	0.41495895
73	0xbea829a0	-0.32844257
74	0x3e46935f	0.19392155
75	0xbe9f9f38	-0.31176162
76	0xbe0cfc92	-0.13768223
77	0xbf1886af	-0.5958051
78	0xbe7cb330	-0.2467773
79	0x3e065f1c	0.13122219
80	0x3d931262	0.071812406
81	0x3dc61a6a	0.09673007
82	0xbda6e1bf	-0.081485264
83	0x3e3a9c8e	0.18223783
84	0xbe847a47	-0.2587454
85	0xbf4767ab	-0.7789256
86	0xbeb9afb6	-0.3626687
87	0x3e49e50a	0.19716278
88	0xbe0115f0	-0.12606025
89	0xbd6a6353	-0.05722363
90	0xbe996f6b	-0.29967818
91	0xbedcd8f0	-0.4313426
92	0xbf305036	-0.6887239
93	0xbe5689cd	-0.20951004
94	0xbf27c2f9	-0.6553188
95	0xbede2f42	-0.4339543
96	0x3ebb7d3c	0.36618984
97	0xbe322532	-0.17397001
98	0xbe047c6a	-0.12938085
99	0xbe9884c2	-0.29788786
100	0xbec94ed8	-0.39317966
101	0xbec15272	-0.37758213
102	0xbecf29eb	-0.40461668
103	0xbe75bf5c	-0.23998779
104	0x3eb177a9	0.34661606
105	0xbe503e81	-0.20336343
106	0xbda53aea	-0.080678776
107	0xbeca94da	-0.3956669
108	0x3eda3027	0.42614862
109	0xbf0f81c2	-0.5605737
110	0x3ed79e50	0.4211297
111	0x3f381925	0.7191337
112	0x3df2b427	0.118507676
113	0xbda10196	-0.078616306
114	0xbe3723b2	-0.1788471
115	0xbe6ac060	-0.22924948
116	0xbe892bdd	-0.26791278
117	0xbee15945	-0.4401342
118	0xbeb2792c	-0.34858072
119	0x3dade295	0.08490483
120	0x3e33af3b	0.17547314
121	0xbe0c020e	-0.13672659
122	0x3da9d29b	0.08292123
123	0xbec2a749	-0.38018253
124	0x3eb1ee0e	0.34751934
125	0xbe7ddbb5	-0.24790843
126	0x3ea015df	0.31266686
127	0x3f04bb18	0.5184798
128	0xbd70167f	-0.058615204
129	0x3ea70e9f	0.32628343
130	0xbe4b4d90	-0.19853806
131	0x3e2d04c5	0.1689635
132	0xbed81995	-0.42207018
133	0xbeb29b44	-0.34884083
134	0xbf00ed8b	-0.5036246
135	0x3e3aa66b	0.18227546
136	0x3d605917	0.054772463
137	0x3e492941	0.19644643
138	0xbdbfe3fc	-0.093696564
139	0xbe31c68f	-0.173609
140	0xbe7058d9	-0.23471393
141	0xbf13c521	-0.5772267
142	0xbef2a0d7	-0.47388336
143	0x3da5035a	0.0805728
144	0x3dc4d83b	0.09611555
145	0xbf05cb0e	-0.5226296
146	0xbe024324	-0.12720925
147	0x3e095329	0.1341063
148	0xbd3b9848	-0.045799524
149	0xbef6038e	-0.48049587
150	0x3ed40523	0.4141017
151	0xbe0f870d	-0.14016362
152	0x3e971f61	0.29516128
153	0xbd97f002	-0.07418825
154	0x3db05ed7	0.08611839
155	0xbee61ea7	-0.4494526
156	0x3e878b90	0.26473665
157	0xbf23d3d4	-0.639951
158	0x3e9a2fab	0.30114493
159	0x3f1c985d	0.6116999
160	0x3e1c45d3	0.15261011
161	0xbded7dc7	-0.11596256
162	0xbe99cf7a	-0.30041105
163	0x3dd744b1	0.10511149
164	0x3e38c1fd	0.1804275
165	0xbeb7d6ee	-0.35906166
166	0x3e990455	0.29886118
167	0x3ebc15fb	0.3673552
168	0xbe942e3f	-0.28941533
169	0xbdcde949	-0.10054261
170	0xbdab3fd4	-0.083617836
171	0x3d30cc26	0.04316344
172	0xbd51be54	-0.0512069
173	0x3e4730db	0.1945223
174	0xbec246c7	-0.37944624
175	0x3edc9daa	0.43089038
176	0x3efb96bb	0.49138436
177	0xbe0a26c1	-0.13491346
178	0x3ee14632	0.43998867
179	0xbe941c4b	-0.28927836
180	0x3ea47442	0.32119948
181	0xbf4228b4	-0.7584336
182	0x3e81a4c5	0.25321022
183	0x3f27a77e	0.6548995
184	0x3ecb705e	0.39734167
185	0xbf2897a0	-0.6585636
186	0x3e4d23c2	0.20033172
187	0x3e834f79	0.2564657
188	0x3d976034	0.07391396
189	0xbe6dfc9b	-0.23240893
190	0x3ce64e00	0.028113365
191	0x3e055acf	0.13022922
192	0x3e5a4417	0.21315037
193	0x3b100a32	0.0021978733
194	0xbea8245d	-0.32840243
195	0x3e5faf1b	0.21844141
196	0xbe922331	-0.28542474
197	0xbe772f0e	-0.24139044
198	0x3d993a07	0.07481771
199	0xbdfa1d84	-0.12212661
200	0xbdae7392	-0.08518137
201	0x3f03f3d3	0.5154392
202	0xbeb36b10	-0.3504262
203	0x3e44d9cd	0.1922371
204	0xbf102281	-0.5630265
205	0xbf01d854	-0.50720716
206	0xbea2d87a	-0.31805784
207	0xbdc1676c	-0.09443554
208	0x3eac8557	0.3369548
209	0xbe442fd7	-0.19158874
210	0x3eef8eb0	0.4678855
211	0xbe4e6e97	-0.20159374
212	0xbc8ab44d	-0.016931677
213	0xbf37bf5b	-0.7177636
214	0x3d6824fc	0.056675896
215	0x3eed5157	0.4635112
216	0x3ead452f	0.33841845
217	0xbe848fdb	-0.25891003
218	0xbd251c0c	-0.04030995
219	0x3e6dbc68	0.23216403
220	0xbe3eccd6	-0.18632826
221	0xbef59a2e	-0.47969192
222	0x3e97dee2	0.29662234
223	0xbe3a0a13	-0.18167906
224	0xbeabecd0	-0.3357911
225	0xbedb1229	-0.42787293
226	0xbf1687cb	-0.58800954
227	0x3e524ae4	0.20536381
228	0xbe99537d	-0.2994651
229	0x3ede5445	0.43423668
230	0xbe708da7	-0.23491536
231	0xbea1fbee	-0.3163752
232	0xbea3ad1d	-0.31968012
233	0xbd9acc02	-0.07558443
234	0xbe2e8227	-0.17041837
235	0xbd25dbc5	-0.04049279
236	0x3d0a9da1	0.033841733
237	0x3e16887b	0.147005
238	0xbea80946	-0.32819575
239	0x3eef301c	0.46716392
240	0x3d1f2c84	0.038860813
241	0x3e429385	0.19001587
242	0xbe116876	-0.14200005
243	0x3e85504a	0.26037818
244	0xbe36daab	-0.17856853
245	0xbec65357	-0.38735458
246	0xbe31c7dd	-0.17361398
247	0x3e919835	0.28436437
248	0xbd93cb54	-0.07216516
249	0xbe24af0a	-0.16082397
250	0xbebd2b28	-0.36946988
251	0x3ec9d085	0.394169
252	0xbe87ab21	-0.26497748
253	0x3e138aa4	0.14408356
254	0x3e80bd9e	0.25144666
255	0xbdbbffde	-0.09179662

fc_layers.0.weight f4 [64, 16]
0	0x044913df	2.363656e-36
1	0x851ddcc9	-7.422656e-36
2	0x0515743c	7.027295e-36
3	0x0506d781	6.3402315e-36
4	0x04e59694	5.3975925e-36
5	0x04df7294	5.253227e-36
6	0x8510939e	-6.7979605e-36
7	0x052bd26a	8.079028e-36
8	0x850fbe8e	-6.758827e-36
9	0x05456a3f	9.28241e-36
10	0x854e5118	-9.700968e-36
11	0x0533b026	8.448893e-36
12	0x054ef8b8	9.731756e-36
13	0x857bfe33	-1.1848652e-35
14	0x055a94c2	1.0277633e-35
15	0x853575c1	-8.532207e-36
16	0x85b3bd19	-1.6902543e-35
17	0x8544fa6b	-9.26187e-36
18	0x84a22fb9	-3.8129843e-36
19	0x053bc5b0	8.829007e-36
20	0x85c07ede	-1.8102197e-35
21	0x05baba02	1.7559684e-35
22	0x8520f29c	-7.567724e-36
23	0x05592a6f	1.0211085e-35
24	0x03c61278	1.1641634e-36
25	0x839da437	-9.2653325e-37
26	0x03b054a4	1.0363783e-36
27	0x8340083c	-5.643318e-37
28	0x83eceffe	-1.3925933e-36
29	0x0401e658	1.5269646e-36
30	0x83a08651	-9.434792e-37
31	0x0423f362	1.9272314e-36
32	0xa56c5b0d	-2.0500586e-16
33	0xa3e0b5a0	-2.436305e-17
34	0xa4a61b0d	-7.203685e-17
35	0xa3208340	-8.701411e-18
36	0xa5721fbc	-2.1000906e-16
37	0xa4aedcb4	-7.583436e-17
38	0xa3f709d4	-2.6783956e-17
39	0x22f9f90a	6.7755266e-18
40	0xa4ee34cf	-1.0330551e-16
41	0x248f78d9	6.222109e-17
42	0xa56820fb	-2.0133967e-16
43	0x25809936	2.230828e-16
44	0x2507a301	1.1764611e-16
45	0xa5ae98f2	-3.0287828e-16
46	0x252e69a6	1.5127889e-16
47	0xa52c4bcd	-1.4944304e-16
48	0x3e4d2931	0.20035245
49	0xbbd69ae1	-0.0065492247
50	0x3ece4b60	0.40291882
51	0x3b597261	0.0033179747
52	0x3e6acb40	0.22929096
53	0xbdc0a723	-0.09406879
54	0xbcaeeb11	-0.021352323
55	0x3c082fcb	0.008312176
56	0x3df23677	0.118267946
57	0xbe25afb4	-0.16180307
58	0x3d728c06	0.059215568
59	0xbccc74f6	-0.024958115
60	0xbdf0bb8f	-0.11754524
61	0xbd59ff3e	-0.053221934
62	0xbda18e69	-0.07888491
63	0x3dc959a0	0.09831548
64	0x029ecb63	2.3332752e-37
65	0x01196470	2.8173722e-38
66	0x80c384ac	-1.7955515e-38
67	0x80920298	-1.3408913e-38
68	0x029718cc	2.2201689e-37
69	0x8272dfa4	-1.7843534e-37
70	0x806357f2	-9.123263e-39
71	0x80a85372	-1.5458298e-38
72	0x823acb2c	-1.3723429e-37
73	0x024f3602	1.5223458e-37
74	0x823d92a1	-1.3927607e-37
75	0x022e4717	1.2803903e-37
76	0x0253e795	1.5568293e-37
77	0x82073b08	-9.935175e-38
78	0x0234acb4	1.3273875e-37
79	0x8240bb1e	-1.4159632e-37
80	0x1b8ab81c	2.2949163e-22
81	0x1b2a89d3	1.4106604e-22
82	0x9d00d2b8	-1.7049598e-21
83	0x9cfc8eca	-1.6712871e-21
84	0x9b821a4c	-2.152369e-22
85	0x9d43bb86	-2.5904982e-21
86	0x186b1bba	3.0387036e-24
87	0x9d0c3c7b	-1.8560113e-21
88	0x1e14e9a7	7.883373e-21
89	0x9e18949b	-8.077544e-21
90	0x1dde8e68	5.8910155e-21
91	0x9dadfa59	-4.6051572e-21
92	0x9dfab7dc	-6.6364555e-21
93	0x1d6c7714	3.1295902e-21
94	0x9e04c9ec	-7.029778e-21
95	0x1e13b415	7.819355e-21
96	0x8396a354	-8.853706e-37
97	0x8394ca5f	-8.74512e-37
98	0x03a7af64	9.8556455e-37
99	0x039ac2ee	9.09606e-37
100	0x8399505b	-9.0109805e-37
101	0x0364838b	6.715418e-37
102	0x8393719f	-8.66597e-37
103	0x039b40cf	9.1249605e-37
104	0x837d8edb	-7.4514008e-37
105	0x038287e0	7.671909e-37
106	0x836dd1e2	-6.9888974e-37
107	0x035efadf	6.5527922e-37
108	0x0377d226	7.2828015e-37
109	0x8334a440	-5.3085796e-37
110	0x036916c1	6.8498666e-37
111	0x837f10ae	-7.495691e-37
112	0x3e7ab3e4	0.24482685
113	0x3cfe449d	0.031038577
114	0x3ecdeee6	0.40221328
115	0xbd0f3cb1	-0.03496999
116	0x3e7c7f8b	0.24658029
117	0xbe24d448	-0.16096604
118	0xbc4b3526	-0.012402808
119	0xbce9018d	-0.028443122
120	0x3e014315	0.12623246
121	0xbe207559	-0.15669765
122	0x3c8bb891	0.017055782
123	0xbba3f9b1	-0.005004131
124	0xbde025b1	-0.10944689
125	0xbd80ffd3	-0.062987946
126	0xbd31df90	-0.043426096
127	0x3da3bbe4	0.07994822
128	0x3e651e8e	0.22374937
129	0x3c631e16	0.0138621535
130	0x3ed455c1	0.41471675
131	0xbb9d2803	-0.0047960295
132	0x3e61b439	0.22041406
133	0xbe0ad1b8	-0.13556564
134	0xbc48f0cd	-0.012264443
135	0xba61368f	-0.0008591199
136	0x3e033b0f	0.12815498
137	0xbe15f974	-0.1464594
138	0x3ce36648	0.027758732
139	0xbb222394	-0.0024740444
140	0xbdb63c9e	-0.088982806
141	0xbd74f318	-0.059802145
142	0xbd887af5	-0.06664077
143	0x3db1057b	0.086436234
144	0x3e5aaab2	0.21354178
145	0xbc1aa3d3	-0.009438473
146	0x3ed39f39	0.41332415
147	0x3a8c0bb1	0.0010684637
148	0x3e5074c3	0.20357041
149	0xbdbfcf3c	-0.09365699
150	0xbcb1a27a	-0.02168392
151	0xbb9a19cd	-0.0047027827
152	0x3e1c1e70	0.15245986
153	0xbe1bf015	-0.15228303
154	0x3d2d8aed	0.042368818
155	0xbc464d49	-0.012103387
156	0xbdf698a8	-0.120408356
157	0xbd376bd4	-0.044780567
158	0xbdabb876	-0.083847925
159	0x3dc9ff2c	0.09863123
160	0x3e734576	0.23756966
161	0x3cb04170	0.021515578
162	0x3edaa5f6	0.42704743
163	0xbc4c680a	-0.012475977
164	0x3e77bfab	0.2419421
165	0xbe133f7e	-0.14379689
166	0x3c184ae8	0.009295203
167	0xbc708f5c	-0.014682617
168	0x3e06d2f7	0.13166414
169	0xbe18ace4	-0.14909703
170	0xbaa445fd	-0.0012533065
171	0xbace20e7	-0.0015726358
172	0xbdc18bb2	-0.09450473
173	0xbd75f807	-0.06005099
174	0xbd99fb28	-0.075186074
175	0x3da22f05	0.079191245
176	0x0f011130	6.363501e-30
177	0x0ef53db5	6.0456585e-30
178	0x0e9b19ae	3.823518e-30
179	0x8ecfc20b	-5.1216296e-30
180	0x0f0884bf	6.730884e-30
181	0x8fddad13	-2.1858948e-29
182	0x8dfc649e	-1.5554922e-30
183	0x8ea797b1	-4.1314752e-30
184	0x0f4c5801	1.00749255e-29
185	0x8f86f9be	-1.3309617e-29
186	0x0d993a70	9.443421e-31
187	0x8d39c04c	-5.7238995e-31
188	0x8f2db530	-8.564454e-30
189	0x8f86e228	-1.3300532e-29
190	0x8f10c1cf	-7.137074e-30
191	0x0f3c399b	9.28021e-30
192	0x13e5fb34	5.8055433e-27
193	0x11c23a50	3.064374e-28
194	0x131a8192	1.9501416e-27
195	0x11108e00	1.1403354e-28
196	0x13efde38	6.0551207e-27
197	0x9391d332	-3.68114e-27
198	0x920ed7a5	-4.50731e-28
199	0x11851bab	2.1000752e-28
200	0x9283a902	-8.308926e-28
201	0x11a6875d	2.6273606e-28
202	0x91766718	-1.9437746e-28
203	0x9184625e	-2.0886551e-28
204	0x12445352	6.1949395e-28
205	0x1273845a	7.6840416e-28
206	0x0ed71a08	5.302666e-30
207	0x914ad391	-1.6000184e-28
208	0x0285cb17	1.9659161e-37
209	0x83129e92	-4.3087574e-37
210	0x0359aa46	6.3966033e-37
211	0x032418db	4.82238e-37
212	0x0266467f	1.6917963e-37
213	0x00ec1185	2.1679462e-38
214	0x8325de01	-4.874399e-37
215	0x031298be	4.3080883e-37
216	0x83315676	-5.2114877e-37
217	0x032faac9	5.162393e-37
218	0x832983ca	-4.9815923e-37
219	0x0342c41a	5.723659e-37
220	0x0333b6e8	5.281334e-37
221	0x832c090d	-5.0556647e-37
222	0x033592ee	5.3359786e-37
223	0x832de45a	-5.1102265e-37
224	0x9347b807	-2.5208064e-27
225	0x92ce9028	-1.3035965e-27
226	0x92911248	-9.155293e-28
227	0x1285f748	8.45444e-28
228	0x93606b29	-2.8325609e-27
229	0x125e0bf8	7.00656e-28
230	0x92686ae5	-7.333805e-28
231	0x12bcd50d	1.1916989e-27
232	0x13322ae4	2.2487905e-27
233	0x93302575	-2.223279e-27
234	0x13010d37	1.6288605e-27
235	0x92de8722	-1.40434825e-27
236	0x932fca05	-2.2187709e-27
237	0x12dbb056	1.3864313e-27
238	0x931a4ad7	-1.9474432e-27
239	0x131b82e8	1.9628292e-27
240	0x3e7cf030	0.24701
241	0x3c82a2d3	0.015946781
242	0x3ed2f08e	0.41199154
243	0xbcd12fde	-0.02553552
244	0x3e7ee90c	0.24893588
245	0xbe19cf00	-0.1502037
246	0x3af6ea11	0.0018838068
247	0xbc5595e2	-0.013036223
248	0x3e0b2d9a	0.13591614
249	0xbe18a195	-0.14905389
250	0x3cf38e70	0.029731005
251	0xbcaaf234	-0.020867445
252	0xbdcaf0a0	-0.09909177
253	0xbd863f19	-0.06555004
254	0xbd991e31	-0.07476462
255	0x3d7bb057	0.061447468

fc_layers.0.bias f4 [64]
0	0x86a54c20	-6.217796e-35
1	0x86e02f72	-8.432915e-35
2	0xa74be433	-2.8295616e-15
3	0x3eaa83e5	0.33303753
4	0x83b9e605	-1.0926133e-36
5	0xa0378d2a	-1.554741e-19
6	0x851d3d06	-7.393313e-36
7	0x3ea5a465	0.32351986
8	0x3e9a11e3	0.3009177
9	0x3eac4650	0.33647394
10	0x3e9c7e67	0.30565187
11	0x90aeede7	-6.8997445e-29
12	0x94aed3da	-1.7653071e-26
13	0x850ee65a	-6.719117e-36
14	0x94805b76	-1.2960772e-26
15	0x3ea6be65	0.32567134
16	0xbe213204	-0.15741736
17	0x3ea9e89a	0.33185273
18	0x8aec386d	-2.2747198e-32
19	0x918f266e	-2.2585106e-28
20	0x8f2c7032	-8.501863e-30
21	0x3e90b053	0.28259525
22	0x3e75934a	0.23981968
23	0x92a16bd1	-1.0187107e-27
24	0x3eabdbf1	0.3356624
25	0x3eb11d79	0.34592798
26	0x3ea3c351	0.31984952
27	0x88dda330	-1.3339319e-33
28	0x3e624afe	0.2209892
29	0x8a40ce72	-9.283292e-33
30	0xbea76f55	-0.32702127
31	0x87b03b88	-2.6516526e-34
32	0x87e05f15	-3.3759658e-34
33	0x3ea642af	0.3247275
34	0x893b9100	-2.2577485e-33
35	0x3ea13b7c	0.31490695
36	0x3d786434	0.060642436
37	0x8a99ff6b	-1.4829442e-32
38	0x3e8f0ca4	0.27939332
39	0x3e2f0721	0.17092563
40	0x9210b162	-4.565703e-28
41	0xbe21cc3c	-0.15800565
42	0x82fe5a7b	-3.737388e-37
43	0x8784f80e	-2.0006946e-34
44	0x3eb0f68f	0.3456311
45	0xbd00c4d8	-0.031437725
46	0x3e1159c3	0.14194398
47	0x3e93b5a2	0.28849512
48	0x877e59f6	-1.9135273e-34
49	0xbe8c32d1	-0.2738252
50	0x8a26873b	-8.018043e-33
51	0x3eab6252	0.3347345
52	0x96148e7a	-1.2000302e-25
53	0x8e65f7fd	-2.8345831e-30
54	0x3e3c9d71	0.18419434
55	0x87e5221f	-3.4476145e-34
56	0x8cf9531c	-3.8414544e-31
57	0x3ea6c0b8	0.32568908
58	0x3dfca7eb	0.12336715
59	0x890d9e0e	-1.7046575e-33
60	0x3e72a4da	0.23695698
61	0x8e4a85a7	-2.4962774e-30
62	0x9565b911	-4.6392173e-26
63	0x3e9358c8	0.28778672

fc_layers.1.weight f4 [32, 64]
0	0x8340d936	-5.6673075e-37
1	0x04c6bb1c	4.672141e-36
2	0xa4cad0d9	-8.795734e-17
3	0x3e1ab85a	0.15109387
4	0x80e0648e	-2.0607223e-38
5	0x9e4bdb05	-1.0792023e-20
6	0x84ab12aa	-4.0219047e-36
7	0x3e2105b1	0.15724827
8	0x3e3191a4	0.17340714
9	0x3e1cd459	0.15315379
10	0x3e30192b	0.17197101
11	0x8ff12952	-2.3780351e-29
12	0x13a843b1	4.247591e-27
13	0x03a71695	9.820562e-37
14	0x13ccea52	5.1727898e-27
15	0x3e2f51d5	0.1712106
16	0x3eaa9180	0.33314133
17	0x3e28e750	0.16494489
18	0x88390829	-5.5681005e-34
19	0x9145eab4	-1.5612883e-28
20	0x0d92b4e5	9.0414935e-31
21	0x3e382d58	0.17986047
22	0x3e43ef78	0.19134319
23	0x90acb369	-6.811846e-29
24	0x3dfdb613	0.123882435
25	0x3e180ef0	0.14849448
26	0x3e302e4d	0.17205162
27	0x87b62706	-2.7407252e-34
28	0x3e37f8f4	0.17966062
29	0x0a50407f	1.0026966e-32
30	0x3efe43a7	0.4966099
31	0x85894142	-1.290739e-35
32	0x87604368	-1.6871696e-34
33	0x3e26645a	0.16249219
34	0x0773b131	1.833336e-34
35	0x3e1f6029	0.15564026
36	0x3e80ff67	0.25194857
37	0x07d5f030	3.2189848e-34
38	0x3e43f6a0	0.19137049
39	0x3e4cc0bb	0.19995396
40	0x8e9c066a	-3.8463146e-30
41	0x3ea9cce2	0.33164126
42	0x00519bd0	7.49457e-39
43	0x06bbdfce	7.0670433e-35
44	0x3e0c261a	0.1368641
45	0x3e7cddfe	0.24694058
46	0x3e6c5dd3	0.23082666
47	0x3e372ca2	0.1788812
48	0x048a729b	3.2548893e-36
49	0x3edafdc5	0.42771736
50	0x8980dd37	-3.102291e-33
51	0x3e12e796	0.14346156
52	0x95787121	-5.0172444e-26
53	0x0c993d2b	2.3610197e-31
54	0x3e482271	0.19544388
55	0x867d9350	-4.769224e-35
56	0x0b07a8b7	2.612698e-32
57	0x3e4bf956	0.19919333
58	0x3e85912f	0.2608733
59	0x090b2f26	1.6753685e-33
60	0x3e2efb23	0.17087989
61	0x0c36ffa0	1.4097694e-31
62	0x93e800be	-5.8565765e-27
63	0x3e2ea3f1	0.17054726
64	0x834b70e9	-5.9785953e-37
65	0x04d14846	4.9202037e-36
66	0xa4d60203	-9.2811114e-17
67	0x3e0b33f0	0.13594031
68	0x81058ddb	-2.4530018e-38
69	0x9e5702d1	-1.1382588e-20
70	0x84b41d9e	-4.2344996e-36
71	0x3e368df5	0.1782759
72	0x3e5ae993	0.21378164
73	0x3e1a1bfe	0.1504974
74	0x3e391c9f	0.18077324
75	0x8ffe7a41	-2.5093424e-29
76	0x13b18c11	4.4819198e-27
77	0x03b114d7	1.040791e-36
78	0x13d8045c	5.4530364e-27
79	0x3e301f98	0.17199552
80	0x3eb2c0f3	0.34912834
81	0x3e1df7bb	0.15426533
82	0x88433487	-5.8742424e-34
83	0x9150b24e	-1.6463251e-28
84	0x0d9ad3a3	9.541932e-31
85	0x3e4337d6	0.19064268
86	0x3e47881f	0.1948552
87	0x90b61646	-7.182066e-29
88	0x3e27f36d	0.16401453
89	0x3e31bb57	0.1735662
90	0x3e4b52a4	0.19855744
91	0x87c03ae1	-2.8923555e-34
92	0x3e48cca7	0.19609319
93	0x0a5b7f0a	1.056836e-32
94	0x3f002ed0	0.5007143
95	0x8590b6be	-1.3608824e-35
96	0x876c66e4	-1.7784904e-34
97	0x3e310b51	0.17289473
98	0x0780805a	1.9334738e-34
99	0x3e45ea20	0.19327593
100	0x3e75b910	0.23996377
101	0x07e1a8d3	3.3953463e-34
102	0x3e2c3847	0.16818343
103	0x3e4a495f	0.19754551
104	0x8ea4a93c	-4.059209e-30
105	0x3ead5d00	0.33860016
106	0x004c712e	7.020099e-39
107	0x06c60b1a	7.4495634e-35
108	0x3e0cf040	0.13763523
109	0x3e8cf69f	0.27531907
110	0x3e632754	0.22182971
111	0x3e42d86e	0.19027874
112	0x04921494	3.4343333e-36
113	0x3edd2952	0.43195587
114	0x8987ff7b	-3.274032e-33
115	0x3e2b187a	0.16708556
116	0x9582fb1c	-5.290276e-26
117	0x0ca18afe	2.488963e-31
118	0x3e4e2aab	0.20133464
119	0x8685ab82	-5.028105e-35
120	0x0b0f0278	2.7542655e-32
121	0x3e316eb6	0.17327389
122	0x3e7c8b64	0.24662548
123	0x0912c7f0	1.766812e-33
124	0x3e352128	0.1768843
125	0x0c40eacc	1.4861799e-31
126	0x93f4afe7	-6.1767713e-27
127	0x3e5754fd	0.21028514
128	0x8355a844	-6.2788234e-37
129	0x04dbb93b	5.165676e-36
130	0xa4e086d6	-9.7372936e-17
131	0x3e0ef7dd	0.1396174
132	0x811b15e9	-2.8484724e-38
133	0x9e617af5	-1.1936828e-20
134	0x84bd3ac8	-4.448767e-36
135	0x3e2cc880	0.1687336
136	0x3e478f5d	0.19488283
137	0x3e26baf7	0.16282259
138	0x3e4bcbd7	0.19901977
139	0x9005add1	-2.6363528e-29
140	0x13ba4ee8	4.703081e-27
141	0x03b9db96	1.0923737e-36
142	0x13e28bb1	5.7188167e-27
143	0x3e3b349b	0.18281786
144	0x3ea7f2ff	0.3280258
145	0x3e258a5f	0.16166066
146	0x884ccbc2	-6.1628533e-34
147	0x915b080b	-1.7278532e-28
148	0x0da28ebc	1.0018383e-30
149	0x3e40b310	0.18818307
150	0x3e436633	0.19081955
151	0x90beedcf	-7.530819e-29
152	0x3e26c825	0.16287287
153	0x3e30e782	0.17275813
154	0x3e451789	0.19247259
155	0x87c9bbf7	-3.0353594e-34
156	0x3e3d5f9e	0.18493506
157	0x0a663d38	1.1085611e-32
158	0x3f03e05e	0.5151423
159	0x8597dd3d	-1.4281242e-35
160	0x8777f88d	-1.8655257e-34
161	0x3e2e732a	0.17036119
162	0x0786de47	2.0292722e-34
163	0x3e5246fb	0.2053489
164	0x3e7c94b0	0.24666095
165	0x07ecb3e6	3.5615068e-34
166	0x3e3aad98	0.18230283
167	0x3e5277c9	0.20553507
168	0x8eacb1c2	-4.257245e-30
169	0x3eaae47f	0.33377454
170	0x003656a7	4.990202e-39
171	0x06cfc44d	7.8153184e-35
172	0x3e1019a6	0.14072284
173	0x3e8a5b16	0.27022618
174	0x3e774c25	0.2415014
175	0x3e42d7de	0.1902766
176	0x0499541a	3.6047362e-36
177	0x3ee9c91e	0.45661253
178	0x898eb4c3	-3.4355244e-33
179	0x3e28efb8	0.16497695
180	0x95897e72	-5.5533355e-26
181	0x0ca989d3	2.6121523e-31
182	0x3e51c4d9	0.20485248
183	0x868c2b38	-5.272565e-35
184	0x0b160483	2.8892343e-32
185	0x3e3a12ef	0.18171285
186	0x3e8108bc	0.25201976
187	0x0919f9f2	1.8534229e-33
188	0x3e41198f	0.18857406
189	0x0c4a558d	1.5587258e-31
190	0x94005b32	-6.480334e-27
191	0x3e392078	0.18078792
192	0x8351cde9	-6.1655953e-37
193	0x04d86e14	5.0882447e-36
194	0xa4dc49ba	-9.553469e-17
195	0x3df407b5	0.119155325
196	0x8113ea09	-2.7167548e-38
197	0x9e5d469f	-1.1714247e-20
198	0x84ba2c69	-4.3769174e-36
199	0x3e2732d4	0.16327983
200	0x3e40295d	0.18765779
201	0x3e07e96c	0.13272637
202	0x3e301538	0.17195594
203	0x900300b0	-2.5835724e-29
204	0x13b70186	4.6197197e-27
205	0x03b6d2a2	1.07453575e-36
206	0x13de746a	5.615547e-27
207	0x3e2dc083	0.16967969
208	0x3e9cf798	0.3065765
209	0x3e1c1cbc	0.15245336
210	0x8848ef17	-6.046636e-34
211	0x91575798	-1.6987501e-28
212	0x0d9fa87f	9.8396955e-31
213	0x3e2c7f9b	0.16845553
214	0x3e246b2d	0.1605651
215	0x90bbc81a	-7.40668e-29
216	0x3e0013d6	0.12507567
217	0x3e15025e	0.14551684
218	0x3e2c750f	0.1684153
219	0x87c5ea7d	-2.9779085e-34
220	0x3e31c092	0.17358616
221	0x0a61f24b	1.0878926e-32
222	0x3f00b404	0.5027468
223	0x85953fee	-1.4035377e-35
224	0x8773769b	-1.8316143e-34
225	0x3e2c8214	0.16846496
226	0x0784ac74	1.9962511e-34
227	0x3e36ab5c	0.17838806
228	0x3e56497d	0.20926471
229	0x07e86a8e	3.4970107e-34
230	0x3e292e8c	0.16521662
231	0x3e395b91	0.18101336
232	0x8ea9a2b3	-4.181839e-30
233	0x3ea2aeec	0.3177408
234	0x003fd3ca	5.861612e-39
235	0x06cc05bb	7.674469e-35
236	0x3e01a96c	0.12662286
237	0x3e7efb93	0.24900655
238	0x3e5d369d	0.21602865
239	0x3e29ed66	0.16594467
240	0x04967407	3.5371385e-36
241	0x3eda239f	0.42605302
242	0x898bfd73	-3.3701375e-33
243	0x3e029416	0.12751803
244	0x9586ed7a	-5.449684e-26
245	0x0ca68ed9	2.5662323e-31
246	0x3e356e21	0.17717792
247	0x868990cf	-5.174645e-35
248	0x0b138d70	2.8417576e-32
249	0x3e33980f	0.17538475
250	0x3e6e99fa	0.23300925
251	0x09171807	1.8187261e-33
252	0x3e2082d6	0.1567491
253	0x0c46a272	1.5302249e-31
254	0x93fc3ce3	-6.3673782e-27
255	0x3e311a05	0.17295082

fc_layers.1.bias f4 [32]
0	0xbd02ffdc	-0.031982288
1	0xbd001998	-0.031274408
2	0xbcf73877	-0.030178292
3	0xbcf240c0	-0.02957189
4	0xbcfa0968	-0.030522063
5	0xbce7d8b1	-0.028301569
6	0x832d81be	-5.0989067e-37
7	0x818583cc	-4.9045603e-38
8	0x88286b2f	-5.0681655e-34
9	0x8185b234	-4.9112193e-38
10	0xbd02b5e2	-0.03191174
11	0xbceaf7a7	-0.028682543
12	0xbcff61e9	-0.031174617
13	0x8805f29f	-4.030843e-34
14	0x8185a6e5	-4.9095966e-38
15	0x81860b60	-4.924015e-38
16	0x8185e44c	-4.9184074e-38
17	0xbce94a7b	-0.028477898
18	0x83ef4339	-1.4062591e-36
19	0xbcf0eade	-0.029408868
20	0x0453c507	2.4893401e-36
21	0x8185924f	-4.9066426e-38
22	0x88cc5c8e	-1.2299563e-33
23	0x81938a7f	-5.4198004e-38
24	0xbcf3bc66	-0.029752921
25	0x81218382	-2.9665382e-38
26	0x819af1c5	-5.691759e-38
27	0xbce4e80d	-0.027942682
28	0xbd02deda	-0.03195081
29	0x88a3b7b9	-9.853399e-34
30	0xbcf9e16c	-0.030502997
31	0x8875f97f	-7.4020287e-34
