checkpoints/neumf_first_try_Epoch21_HR0.6820_NDCG0.4052.model (torch, 645108 bytes, 13 tensors)

embedding_user_mlp.weight f4 [6040, 8]
-0.08691345 0.55384624 0.72609264 0.3223299 -0.38906392 -0.3167154 -0.003964115 -0.59875655
-0.15632701 0.11086044 0.24086168 0.06799381 0.068524614 0.08914369 0.294777 0.23244801
-0.088221036 0.19243133 0.69179064 0.08448618 0.03839457 -0.8465777 -0.3353643 -0.029708518
-0.05399018 0.7134336 0.8851519 0.48186558 -0.7260147 -0.7484167 -0.23067875 -0.5285458
-0.41814023 0.14951757 -0.09490221 0.12409402 -0.5095503 -0.09461127 -0.70321244 -0.47201154
-0.0832111 0.072725445 0.29033986 0.24673139 -0.2507463 -0.35211036 -0.63848835 -0.27042872
-0.09892262 0.63891107 0.4692262 0.8424908 -0.28225717 -0.62807816 -0.43255264 -0.45155403
0.053299535 0.05236181 0.42501178 0.25733107 0.61483234 -0.48785713 0.32295597 0.15517952
-0.18112285 0.4479149 0.4437421 0.4168374 -0.37829334 -0.36687356 -0.4483731 -0.36037064
-0.10955905 -0.19068734 0.007965117 -0.08632355 -0.3022135 0.15607694 0.3056969 0.12118023
0.16209577 0.012079564 0.124182075 0.4444917 -0.035125986 -0.2115076 0.36591396 0.01986636
-0.015815156 0.07728977 0.056078162 0.44253913 0.41028005 -0.04161055 -0.1365124 -0.0132458145
0.13470066 0.35742807 0.46428272 0.02212843 0.18994491 -0.10658865 0.2636884 0.16759817
-0.561045 -0.18082497 -0.09945495 0.37344843 -0.52894145 -0.19254474 -0.26587698 -0.4356297
-0.275769 0.10774307 0.15120196 0.15615594 -0.4200508 -0.5455709 0.19312994 0.14477445
-0.4620252 -0.092010945 -0.3522771 0.39297137 -0.96897 -0.30575258 -0.92531747 -0.65891427
-0.06384214 -0.16665845 -0.017757019 0.2912903 -0.5222856 -0.12398085 -0.26877746 -0.24473314
0.2510767 -0.23093048 0.12375206 -0.18812144 0.26298285 0.22694367 0.57014745 -0.013489902
-0.24054699 0.28618538 -0.18056011 -0.4189957 -0.5435791 0.273387 -0.067560025 -0.33526656
0.10587297 0.6178499 0.4692225 0.17334345 -0.51780224 -0.0813658 -0.42809102 0.13004535
-0.7304848 0.004234644 0.19638044 0.16902436 -0.0022007106 0.0081622945 -0.26035187 -0.120331295
0.1522324 0.057219386 -0.103954785 0.016850533 0.22887827 0.15173563 -0.18332589 0.24072815
0.07737041 -0.1368115 -0.26949236 0.12843375 -0.246634 -0.1531688 -0.4676149 -0.04517599
-0.47301584 -0.009615899 0.01874282 -0.085984826 -0.15248615 -0.19223756 -0.2793974 -0.16773014
-0.44854116 -0.16828649 -0.07493425 0.43668428 -0.28299424 -0.011622626 -0.1335901 -0.76673675
0.47466952 -0.028046872 -0.06844963 0.054639004 0.30037332 0.044758312 -0.0036671862 0.55200005
-0.0756744 0.28641963 0.10771893 0.45410556 -0.55947214 -0.2951852 -0.37212077 0.30282733
0.18918557 -0.04796456 -0.16884644 0.43788987 -0.46054578 -0.2889653 -0.3565846 -0.2644011
-0.02214195 0.6719957 0.7126558 0.2533285 0.13181466 0.24541034 0.31293327 -0.2591323
-0.036596224 0.26482454 0.5121789 0.28015596 -0.36579493 -0.38680568 -0.22305778 -0.6750514
-0.15486002 0.26221114 -0.040507186 0.5672571 -0.25138122 -0.6408983 -0.7931299 0.054295763
0.14172842 0.16815762 0.026417565 0.22180097 -0.7927331 -0.18280305 -0.09294158 -0.3690426
00000000: aeff b1bd dec8 0d3f 35e1 393f 6d08 a53e
00000010: 6333 c7be 8528 a2be 68e5 81bb 1c48 19bf
00000020: 3014 20be cc0a e33d 72a4 763e 5740 8b3d
00000030: a256 8c3d f890 b63d 03ed 963e da06 6e3e
00000040: 3bad b4bd b80c 453e 3119 313f 1707 ad3d
00000050: a043 1d3d 51b9 58bf dfb4 abbe 475f f3bc
00000060: cf24 5dbd 96a3 363f 5199 623f 16b7 f63e
00000070: 19dc 39bf 3d98 3fbf 0d37 6cbe c74e 07bf
00000080: 7a16 d6be 221b 193e 175c c2bd 0125 fe3d
00000090: e371 02bf 8ec3 c1bd bb05 34bf 7fab f1be
000000a0: 956a aabd 14f1 943d 6da7 943e 27a7 7c3e
000000b0: d261 80be cf47 b4be f973 23bf a275 8abe
000000c0: f197 cabd ad8f 233f 6b3e f03e 7aad 573f
000000d0: 0384 90be bbc9 20bf 8a77 ddbe 1732 e7be
000000e0: 9d50 5a3d 5679 563d 259b d93e e6c0 833e
000000f0: a765 1d3f 69c8 f9be 7c5a a53e 61e7 1e3e
00000100: 4578 39be 1a55 e53e 2a32 e33e b66b d53e
00000110: aaaf c1be dad6 bbbe 2991 e5be 8082 b8be
00000120: 7f60 e0bd 8b43 43be 1f80 023c 67ca b0bd
00000130: babb 9abe a2d2 1f3e 4e84 9c3e 572d f83d
00000140: 6ffc 253e 5de9 453c 2c53 fe3d 6b94 e33e
00000150: 44e0 0fbd 7395 58be 1359 bb3e c7be a23c
00000160: c98e 81bc 194a 9e3d 37b2 653d 7d94 e23e
00000170: 3a10 d23e d36f 2abd e8c9 0bbe f904 59bc
00000180: f8ee 093e d000 b73e 77b6 ed3e ae46 b53c
00000190: eb80 423e 264b dabd 2a02 873e db9e 2b3e
000001a0: a5a0 0fbf 2e2a 39be 09af cbbd a234 bf3e
000001b0: b568 07bf 732a 45be 0721 88be db0a dfbe
000001c0: 9831 8dbe 66a8 dc3d b0d4 1a3e 58e7 1f3e
000001d0: e610 d7be 89aa 0bbf dbc3 453e c13f 143e
000001e0: 918e ecbe 3c70 bcbd aa5d b4be 8b33 c93e
000001f0: 6b0e 78bf 9a8b 9cbe 9be1 6cbf 9bae 28bf
00000200: abbf 82bd 83a8 2abe 2b77 91bc 0124 953e
00000210: 82b4 05bf ace9 fdbd 339d 89be 539b 7abe
00000220: 208d 803e 0a79 6cbe b871 fd3d e8a2 40be
00000230: b0a5 863e ec63 683e 2ff5 113f c004 5dbc
00000240: f351 76be e486 923e c0e4 38be 9b86 d6be
00000250: 0028 0bbf 62f9 8b3e e95c 8abd 0fa8 abbe
00000260: edd3 d83d 692b 1e3f ee3d f03e f280 313e
00000270: b08e 04bf 1da3 a6bd bf2e dbbe 9c2a 053e
00000280: 0d01 3bbf c5c2 8a3b f417 493e b914 2d3e
00000290: cc39 10bb 25bb 053c d74c 85be 4170 f6bd
000002a0: cfe2 1b3e e05e 6a3d 3fe6 d4bd 210a 8a3c
000002b0: 115f 6a3e 9660 1b3e c8b9 3bbe 7181 763e
000002c0: 6174 9e3d 5018 0cbe e7fa 89be 2384 033e
000002d0: a08d 7cbe 48d8 1cbe 386b efbe 750a 39bd
000002e0: 222f f2be 018c 1dbc 8b8a 993c d018 b0bd
000002f0: 5425 1cbe ecd9 44be 2d0d 8fbe 73c1 2bbe
00000300: 30a7 e5be 4b53 2cbe 2177 99bd 1595 df3e
00000310: 9fe4 90be d46c 3ebc d8cb 08be dc48 44bf
00000320: e207 f33e 8ec2 e5bc 522f 8cbd 26cd 5f3d
00000330: 88ca 993e 7e54 373d 2d55 70bb e04f 0d3f
00000340: 2efb 9abd 98a5 923e be9b dc3d 8680 e83e
00000350: 9139 0fbf 8422 97be 9d86 bebe 2f0c 9b3e
00000360: ddb9 413e 7d76 44bd 15e6 2cbe 1a33 e03e
00000370: a8cc ebbe 43f3 93be 4292 b6be 955f 87be
00000380: 0963 b5bc e907 2c3f 9c70 363f 46b4 813e
00000390: 6cfa 063e d94c 7b3e ca38 a03e fdac 84be
000003a0: ece5 15bd 1597 873e 281e 033f 9a70 8f3e
000003b0: 7949 bbbe 650b c6be 4269 64be 2bd0 2cbf
000003c0: a093 1ebe 8a40 863e ddea 25bd c337 113f
000003d0: 0ab5 80be e911 24bf 900a 4bbf 3c65 5e3d
000003e0: 4121 113e 8331 2c3e a669 d83c cb1f 633e
000003f0: 8ef0 4abf b930 3bbe 2858 bebd 27f3 bcbe

embedding_item_mlp.weight f4 [3706, 8]
-1.0081481 -1.1921803 -0.40746066 1.2898518 1.3975135 1.1178683 -0.83298564 0.18903908
-0.6975215 -0.3410577 -0.16067462 -0.016753675 0.010801792 -0.26657152 -0.18897629 0.34235093
-0.23490696 0.027197892 -0.34669232 0.13404003 0.2641395 0.36182752 -0.12980135 0.17629378
-0.5488244 -0.71543604 -0.4904702 0.6229881 0.40972933 1.0539916 -0.7888794 0.74960315
-0.49557346 -1.1936256 -0.8502067 0.576111 0.50274915 0.54355097 -0.31869498 0.885308
-0.7302098 -0.78227043 -0.38130608 -0.16527492 0.60894483 0.87425065 -0.16852285 0.4283771
-0.20549588 -0.10215048 -0.08010024 -0.24212024 0.06514684 0.12622426 -0.010382452 -0.018249176
-0.37433955 -0.59461534 -0.027831137 -0.27200204 0.3317388 0.34658206 -0.056060888 0.045665067
-0.045430098 0.10072437 -0.25252274 -0.15362078 0.07782069 -0.22034962 -0.058128282 0.16137059
-0.29430342 -0.10974523 -0.2751215 0.35789877 0.16883117 0.5123591 -0.2789911 0.02577381
-0.13634136 -0.19034198 -0.2726495 0.033458397 0.124435745 0.049584415 -0.15625833 0.0977044
0.032857493 0.16544636 0.019925999 0.06182012 0.07168628 -0.21604392 -0.055230137 0.189928
0.15478672 0.17541441 -0.0064096753 -0.0805227 -0.42610472 -0.0019627637 0.16230336 -0.07244987
0.288068 -0.17505899 -0.29448605 -0.14667419 -0.2761061 0.2693201 0.034497052 0.02318406
-0.73868084 -0.10915449 -0.5170357 0.21648514 0.08075357 0.020073116 -0.4720586 0.41393897
-0.7617577 -0.23581831 -0.48499325 0.28394696 -0.023018032 0.079281054 -0.34899446 0.3021641
0.20626579 -0.8557809 -0.07952474 -0.38697225 0.25545675 0.09912677 0.3580491 0.22850084
0.05921487 0.09814605 -0.34534606 -0.26100698 0.25988004 -0.28933153 0.30907032 -0.021469181
-0.24506499 -0.04208359 0.13099928 -0.015193111 0.09322735 0.06353865 0.11976567 -0.32114816
-0.14785239 -0.27290276 -0.304678 -0.082455896 0.05591297 0.33673248 -0.10297585 0.047303926
-0.37537113 0.20398965 -0.016762659 0.40502146 0.22208938 0.3698238 -0.43440866 0.11184198
0.3478877 -0.57679486 0.08694427 -0.25783223 0.34195548 0.22412767 0.3778726 0.26054427
-0.27459684 -0.5713521 -0.5816953 0.6977124 0.43148857 0.7197388 -0.6887638 0.33153275
-0.8293228 -1.0819864 -0.56654507 1.0441446 0.9851491 0.8184047 -0.81256723 0.11301453
-0.12006002 -0.2604884 0.29785064 0.0052032648 -0.018463869 0.407821 -0.076878615 0.19759785
-0.16453013 -0.08775671 -0.057812165 -0.2725091 0.048819285 -0.11166624 0.26427814 0.0768647
-0.50400007 -0.93540657 -0.6352416 0.55639 0.3954076 0.6331241 -0.53399324 0.35801
-0.81749964 -0.47967124 -0.395262 0.6540891 0.9445797 0.9871277 -0.6961655 -0.017638601
0.29902956 -0.35013622 0.3216487 -0.4596501 -0.28348893 0.12452529 0.5139338 -0.23527676
0.1955836 -0.7240736 0.16897169 -0.09591164 0.6426698 0.46122104 0.14155523 0.44823757
-0.046895515 -0.23300794 -0.2809081 0.14792077 0.29105997 -0.040723804 0.013474145 -0.004383032
-0.18066032 -0.6904485 0.14549786 0.38859373 0.25389707 0.9556412 -0.09756374 -0.068859905
00000000: ff0a 81bf 5d99 98bf af9e d0be dd19 a53f
00000010: b9e1 b23f 4f16 8f3f 8c3e 55bf 7693 413e
00000020: c590 32bf 1d9f aebe e387 24be 013f 89bc
00000030: 00fa 303c 107c 88be 0083 41be 9f48 af3e
00000040: 738b 70be 1dce de3c a881 b1be ca41 093e
00000050: 4b3d 873e 7541 b93e a5ea 04be 5b86 343e
00000060: c27f 0cbf d126 37bf e91e fbbe 267c 1f3f
00000070: 0bc8 d13e 32e9 863f 00f4 49bf fee5 3f3f
00000080: cebb fdbe b9c8 98bf 25a7 59bf 037c 133f
00000090: 2bb4 003f 2826 0b3f fd2b a3be 8ca3 623f
000000a0: 08ef 3abf e042 48bf 8d3a c3be d43d 29be
000000b0: cfe3 1b3f e4ce 5f3f 4191 2cbe 3e54 db3e
000000c0: 836d 52be 4534 d1bd 980b a4bd 5eee 77be
000000d0: b56b 853d ef40 013e 291b 2abc 4c7f 95bc
000000e0: 6fa9 bfbe b638 18bf 20fe e3bc da43 8bbe
000000f0: abd9 a93e 3473 b13e 1aa0 65bd 4b0b 3b3d
00000100: e914 3abd 9448 ce3d a94a 81be c44e 1dbe
00000110: 7460 9f3d 55a3 61be ec17 6ebd 553e 253e
00000120: f0ae 96be 1bc2 e0bd badc 8cbe 823e b73e
00000130: 14e2 2c3e f729 033f ecd7 8ebe 9923 d33c
00000140: 129d 0bbe 02e9 42be b798 8bbe ac0b 093d
00000150: 2bd8 fe3d 0719 4b3d 2f02 20be 3f19 c83d
00000160: 9495 063d c56a 293e d93b a33c 1837 7d3d
00000170: 42d0 923d 9e3a 5dbe ff38 62bd 7c7c 423e
00000180: 6980 1e3e d69f 333e 4108 d2bb 16e9 a4bd
00000190: 662a dabe b6a1 00bb da32 263e 9960 94bd
000001a0: a67d 933e aa42 33be e0c6 96be c231 16be
000001b0: c75d 8dbe 53e4 893e c84c 0d3d 7fec bd3c
000001c0: 301a 3dbf 648c dfbd 745c 04bf 48ae 5d3e
000001d0: 2162 a53d 6070 a43c aab1 f1be cfef d33e
000001e0: 8d02 43bf 5b7a 71be 0951 f8be 7f61 913e
000001f0: 5090 bcbc 1b5e a23d 67af b2be 41b5 9a3e
00000200: 5737 533e 7514 5bbf dedd a2bd 3a21 c6be
00000210: 3acb 823e fa02 cb3d 3652 b73e 20fc 693e
00000220: 4b8b 723d cc00 c93d 33d1 b0be b5a2 85be
00000230: ff0e 853e 4323 94be 773e 9e3e 23e0 afbc
00000240: 51f2 7abe d85f 2cbd ad24 063e 87ec 78bc
00000250: fbed be3d 8d20 823d b447 f53d 886d a4be
00000260: 9e66 17be e9b9 8bbe c1fe 9bbe a3de a8bd
00000270: 0005 653d 3368 ac3e 01e5 d2bd c3c1 413d
00000280: a530 c0be aae2 503e d851 89bc f95e cf3e
00000290: 666b 633e 8c59 bd3e d06a debe 680d e53d
000002a0: 561e b23e d4a8 13bf d60f b23d 9602 84be
000002b0: ca14 af3e b981 653e 8478 c13e 0f66 853e
000002c0: f597 8cbe 2244 12bf fce9 14bf 489d 323f
000002d0: 12ec dc3e cd40 383f d352 30bf a9be a93e
000002e0: 804e 54bf 887e 8abf 1909 11bf 88a6 853f
000002f0: bb32 7c3f f882 513f 6804 50bf 2974 e73d
00000300: 07e2 f5bd bc5e 85be e17f 983e 2680 aa3b
00000310: 8a41 97bc eacd d03e 8972 9dbd 1757 4a3e
00000320: 967a 28be cab9 b3bd 73cc 6cbd 5086 8bbe
00000330: bbf6 473d 45b1 e4bd 774f 873e 3d6b 9d3d
00000340: 2606 01bf ce76 6fbf 329f 22bf 936f 0e3f
00000350: dd72 ca3e 6c14 223f c8b3 08bf 164d b73e
00000360: a847 51bf 7897 f5be c85f cabe 6272 273f
00000370: facf 713f 67b4 7c3f e737 32bf d47e 90bc
00000380: 671a 993e 0e45 b3be 23af a43e 4257 ebbe
00000390: 7625 91be 1e07 ff3d 2a91 033f 64ec 70be
000003a0: 1147 483e e35c 39bf ea06 2d3e 526d c4bd
000003b0: 0286 243f 2a25 ec3e dbf3 103e 657f e53e
000003c0: 8315 40bd a299 6ebe 30d3 8fbe 8b78 173e
000003d0: d005 953e 01ce 26bd a9c2 5c3c 8a9f 8fbb
000003e0: 05ff 38be 3cc1 30bf 64fd 143e c2f5 c63e
000003f0: ccfe 813e e7a4 743f 80cf c7bd 6c06 8dbd

embedding_user_mf.weight f4 [6040, 8]
0.058017317 0.1026346 -0.31469497 0.43099955 -0.023349661 -0.48076612 0.06725985 -1.0854509
-0.062362555 -0.41018867 0.051310025 1.1610109 0.18144047 0.13584268 0.3646077 -0.018065808
0.33618113 -0.6649942 -0.12213441 0.053506795 0.068365954 0.6912325 0.48562652 -0.7526775
-0.15839851 -0.068722285 0.44388998 0.68566364 -0.4355646 0.86203486 0.44942728 -0.30638823
-0.027542064 -0.45088983 -0.05445725 0.31137523 -0.88851243 -0.47255212 -0.4610216 0.0077983327
0.36035043 0.17949484 -0.4572081 0.4889679 0.73636293 -0.108567305 0.36023432 -0.22618526
0.78404677 -0.59875876 0.5745034 0.58478767 -0.4413126 0.68052435 0.1621463 -0.29226336
0.4432794 -0.6199289 0.27138534 0.81613606 -0.56658894 -0.7344591 -0.13854125 -0.06566807
0.19853161 -1.0963627 0.27002928 0.7245965 -0.18475156 -0.3925171 -0.40171978 -0.75675684
0.23178302 0.23305783 -0.780984 0.36685878 0.06558797 0.28264996 0.05672934 -0.61838686
-0.021806726 -0.69868827 -0.38767424 -0.29385692 -0.24977195 -0.49726835 -0.061173905 -0.71656644
-0.30231565 -0.41399094 0.2742371 0.08648623 0.0043302714 0.5091652 -0.27593082 -0.66291124
0.4232186 0.038409565 -0.33940795 1.1050502 -0.14267296 0.47007716 0.07011321 0.17643726
-0.110812366 -0.1637196 0.032149002 -0.16287917 -0.3857214 0.17097835 0.22106782 -0.29302686
0.7245688 -0.9063988 0.3534441 0.3256741 0.09120322 -0.28551367 0.4504122 -0.46918228
0.5659767 0.26057774 -0.32852754 0.14127296 0.2524468 -0.014177188 0.19241786 0.03918464
0.07954933 0.0044329595 0.1355383 0.35899502 -0.6882297 0.34449005 -0.13492396 0.49260604
0.41228965 -0.0062334263 -0.23280305 0.91268283 -0.35961834 0.082893744 -0.18237574 -0.39641792
0.50230634 0.077931784 0.24105428 -0.14705628 -0.20660068 0.6909721 0.09502899 -0.68637633
0.3758989 -0.6425969 0.14882264 0.09853166 -0.34415984 0.32977268 -0.021842504 -0.11608064
0.6185386 0.11936225 -0.050096475 0.15495566 -0.34734106 0.2240481 -0.5606022 -0.57115436
0.5107379 -0.57487893 -0.2578962 -0.23614274 -0.57028365 0.3619356 -0.040256314 -0.43954512
-0.045042668 -0.18919103 -0.23450671 0.12565015 -0.96675384 0.52367073 -0.118499786 0.23877312
-0.051017005 -0.35222223 -0.73956615 0.33886558 -0.2905251 -0.12490994 0.38663033 -0.2551469
0.5943603 -0.28245744 -0.1497285 0.236116 -0.21412987 0.39538997 -0.47539505 -0.25385663
0.47366804 -0.2522756 -0.69744754 0.065124065 0.11544337 -0.1841706 0.83978856 -0.29460368
-0.41728437 0.10357132 -0.1463328 0.3776377 -0.14726414 0.40660474 -0.057979677 -0.46339658
-0.17343682 0.08977715 -0.29644755 0.38276517 -0.38020656 -0.16569433 0.020925436 -0.36549014
-0.047330067 -0.2020009 0.52201384 0.6734825 -0.2681738 1.1441078 0.51102394 0.3230103
-0.25411183 -0.3150697 0.25237557 0.35378438 -0.4497157 -0.52201605 -0.14570953 -0.3089337
-0.15639733 -0.08411955 -0.94781154 -0.30716246 0.6252048 0.61973 0.21727578 -0.24956974
-0.029536353 -0.30014324 0.055805787 0.34690815 -0.3739441 -0.3778755 -0.005961245 -0.002341241
00000000: 91a3 6d3d 1732 d23d b31f a1be f9ab dc3e
00000010: ca47 bfbc fa26 f6be 88bf 893d 0ef0 8abf
00000020: e16f 7fbd 4004 d2be 762a 523d 019c 943f
00000030: 88cb 393e 581a 0b3e dcad ba3e bffe 93bc
00000040: ef1f ac3e 0f3d 2abf 9b21 fabd f129 5b3d
00000050: 7303 8c3d 9df4 303f 0aa4 f83e 79af 40bf
00000060: 3833 22be 45be 8cbd 8c45 e33e a787 2f3f
00000070: 5302 dfbe 51ae 5c3f 551b e63e ebde 9cbe
00000080: e59f e1bc 08db e6be 910e 5fbd 936c 9f3e
00000090: 8d75 63bf 5af2 f1be 060b ecbe 2889 ff3b
000000a0: da7f b83e 7fcd 373e 2e17 eabe 005a fa3e
000000b0: 4882 3c3f 8958 debd a270 b83e 1c9d 67be
000000c0: 4ab7 483f 4148 19bf a812 133f a5b4 153f
000000d0: baf3 e1be d836 2e3f ae09 263e 8ba3 95be
000000e0: 84f5 e23e a9b3 1ebf 05f3 8a3e 4bee 503f
000000f0: f90b 11bf 8305 3cbf c2dd 0dbe fb7c 86bd
00000100: df4b 4b3e 9d55 8cbf 4741 8a3e 287f 393f
00000110: 832f 3dbe 00f8 c8be 37ae cdbe d1ba 41bf
00000120: 8758 6d3e b6a6 6e3e 91ee 47bf ead4 bb3e
00000130: fc52 863d 7fb7 903e 065d 683d 9a4e 1ebf
00000140: 05a4 b2bc 3cdd 32bf 3d7d c6be 6a74 96be
00000150: 38c4 7fbe f599 febe 7d91 7abd e670 37bf
00000160: 1ec9 9abe 9ff6 d3be ce68 8c3e b11f b13d
00000170: f3e4 8d3b a758 023f ce46 8dbe 8db4 29bf
00000180: 1cb0 d83e 5953 1d3d e1c6 adbe 4972 8d3f
00000190: dc18 12be f4ad f03e 8497 8f3d f8ab 343e
000001a0: 98f1 e2bd 1ca6 27be acae 033d ccc9 26be
000001b0: 467d c5be f314 2f3e 9a5f 623e 9e07 96be
000001c0: 577d 393f c009 68bf a0f6 b43e c1be a63e
000001d0: c1c8 ba3d d92e 92be 6e9c e63e a938 f0be
000001e0: d9e3 103f 726a 853e c334 a8be dca9 103e
000001f0: b540 813e 7047 68bc 3009 453e 1380 203d
00000200: c2ea a23d 5c42 913b 8dca 0a3e 32ce b73e
00000210: d22f 30bf 0061 b03e 8229 0abe dc36 fc3e
00000220: a117 d33e c541 ccbb ec63 6ebe 95a5 693f
00000230: e51f b8be 32c4 a93d b5c0 3abe 4af7 cabe
00000240: 2697 003f b39a 9f3d efd6 763e ec95 16be
00000250: 218f 53be 8ce3 303f 8f9e c23d 5cb6 2fbf
00000260: d275 c03e 3b81 24bf f664 183e f8ca c93d
00000270: b835 b0be f7d7 a83e 0def b2bc b0bb edbd
00000280: 8c58 1e3f 3274 f43d f631 4dbd b2ac 1e3e
00000290: b0d6 b1be dd6c 653e a083 0fbf 2c37 12bf
000002a0: b8bf 023f 442b 13bf f90a 84be 67cf 71be
000002b0: 1cfe 11bf 9f4f b93e cee3 24bd 0f0c e1be
000002c0: a97e 38bd 4bbb 41be 8722 70be 6faa 003e
000002d0: 2e7d 77bf 490f 063f 04b0 f2bd f180 743e
000002e0: 35f7 50bd 7956 b4be 3554 3dbf ca7f ad3e
000002f0: b5bf 94be c8d0 ffbd 69f4 c53e 9da2 82be
00000300: ff27 183f 439e 90be 6e52 19be 65c8 713e
00000310: dc44 5bbe 8e70 ca3e fb66 f3be 7ff9 81be
00000320: 9e84 f23e 442a 81be ec8b 32bf c45f 853d
00000330: 936d ec3d 3897 3cbe 62fc 563f 4bd6 96be
00000340: 4ca6 d5be 331d d43d 44d8 15be bb59 c13e
00000350: 69cc 16be 7f2e d03e 197c 6dbd 5142 edbe
00000360: 6c99 31be 15dd b73d f9c7 97be ccf9 c33e
00000370: 6faa c2be c6ab 29be d26b ab3c 8621 bbbe
00000380: 2cdd 41bd 53d9 4ebe b3a2 053f 5969 2c3f
00000390: 144e 89be 2072 923f 77d2 023f 9b61 a53e
000003a0: f21a 82be d150 a1be 5f37 813e 3a23 b53e
000003b0: 2341 e6be d8a2 05bf e134 15be 8f2c 9ebe
000003c0: 9f26 20be df46 acbd c7a3 72bf 6644 9dbe
000003d0: 6c0d 203f a0a6 1e3f 8b7d 5e3e 368f 7fbe
000003e0: 39f6 f1bc 60ac 99be 9c94 643d f29d b13e
000003f0: 9a75 bfbe e678 c1be 8c56 c3bb 826f 19bb

embedding_item_mf.weight f4 [3706, 8]
0.4793223 0.06532666 -0.09462524 0.24218301 0.19364457 0.06810071 0.35947308 0.42316163
-0.18984124 -0.5498904 0.18930793 0.09512238 0.14867291 -0.16375788 -0.6518947 0.46480656
0.1779533 -0.9206628 0.26838613 0.50291747 -0.34904322 -0.29868606 0.14241 0.28288594
0.07844739 0.31777716 -0.32103413 -0.04555248 -0.43190238 -0.33609316 0.088239305 0.15108459
-0.31166208 0.089490406 0.32444546 0.04320129 -0.1270128 -0.012171508 -0.2359014 0.54937506
-0.0361286 0.19845684 0.6323684 0.3020209 0.3694074 0.38669047 0.11034632 0.331052
0.18058404 -0.33809525 -0.27491212 0.70624256 -0.3455573 0.5473753 0.2769911 0.21936971
0.21885656 0.13987035 0.4358864 -0.18988074 0.32016364 0.21353962 0.2545084 0.83652425
-0.14099878 -1.0205063 0.30518734 0.3924112 0.09131169 0.06235223 -0.35348856 1.3639007
0.15137151 -0.43087745 0.25920087 0.6689867 0.21002118 0.22120124 0.17833623 1.0928084
-0.40157047 -0.5585503 0.24484977 0.62525 0.0931847 -0.30346915 -0.3659865 1.1029197
0.3101708 -1.2414808 0.15090814 0.3273363 -0.6813805 -0.39045852 -0.20750205 0.0065253517
0.23963831 -0.7210009 -0.19580263 0.47895202 -0.40804008 -0.28109273 0.24316852 0.8001033
0.13788544 0.5071967 1.0655624 -0.16678351 0.3133213 0.23788083 0.5796397 1.0641624
0.08742022 -0.55347896 0.27090064 0.3064184 -0.18573248 -0.13403025 0.10797541 0.618277
0.23565459 0.27114525 0.6668838 -0.31675562 0.15254131 0.35404715 0.4034851 0.62345606
-0.31482893 -0.43067974 -0.06764908 0.28423944 -0.1624879 -0.17280957 -0.45559454 0.56195885
-0.024454301 -0.8921592 0.13972712 0.3832365 -0.046112984 0.024409726 -0.26702967 1.2137104
0.036755428 0.030768353 0.08159229 0.5072934 0.20288868 -0.6462708 0.45919067 0.44638947
-0.05695783 0.03837958 0.8677442 0.04339837 0.33413136 0.29128623 0.47875684 0.619961
-0.090041086 0.53141874 0.52631027 0.011032939 -0.07178977 -0.18855919 -0.10652245 0.49884826
0.23365428 -0.07710179 0.058728423 0.22153783 0.2108993 0.032420322 -0.9031341 0.37875584
-0.023312734 0.11042961 0.8906636 0.14455844 0.48589867 0.55178803 0.37446004 0.49115026
0.19787823 0.2776163 -0.16271174 0.63012075 0.35134956 -0.1876976 0.24433425 0.5224081
-0.29653114 0.085735604 0.007800992 -0.12705503 -0.46938664 -0.4255261 0.32064793 -0.30681294
-0.63835734 -0.82789886 0.15067127 0.3587581 -0.2907023 -0.471843 -0.54510844 0.60960776
-0.15251388 -0.26477024 0.59312004 0.4758033 0.60289985 0.29935417 0.32019222 0.5264402
-0.23053566 0.16443855 0.069882944 0.35871187 -0.10648611 -0.35697773 0.33857137 0.13975091
0.4492934 -0.29725286 -0.60641897 0.047225222 -0.2410932 -0.97187346 -0.51384026 -0.31046906
0.21161577 0.04924037 0.4346042 0.17950806 0.2671129 0.061553262 -0.9536143 0.34827545
-0.36620307 -0.2838635 0.17104386 0.29727277 0.027590567 -0.20650119 -0.40813392 0.60491264
-0.09124656 0.15343279 -0.37655655 -0.33220583 -0.12400721 -0.6446125 -0.020694673 0.0052003297
00000000: bc69 f53e fcc9 853d e1ca c1bd d3fe 773e
00000010: c34a 463e 6378 8b3d db0c b83e a4a8 d83e
00000020: be65 42be 9ec5 0cbf f0d9 413e 86cf c23d
00000030: b63d 183e 25b0 27be 92e2 26bf 20fb ed3e
00000040: 6439 363e 8fb0 6bbf e869 893e 33bf 003f
00000050: cbb5 b2be 61ed 98be edd3 113e 6dd6 903e
00000060: 06a9 a03d b0b3 a23e 965e a4be 3d95 3abd
00000070: 4f22 ddbe 6714 acbe cfb6 b43d ebb5 1a3e
00000080: 2c92 9fbe bf46 b73d b71d a63e d6f3 303d
00000090: a50f 02be 016b 47bc 2390 71be d8a3 0c3f
000000a0: 95fb 13bd 4538 4b3e e5e2 213f 7ca2 9a3e
000000b0: f722 bd3e 4bfc c53e 40fd e13d a67f a93e
000000c0: 06eb 383e d21a adbe 48c1 8cbe 50cc 343f
000000d0: e3ec b0be ca20 0c3f c7d1 8d3e 74a2 603e
000000e0: ef1b 603e 2c3a 0f3e 812c df3e 1970 42be
000000f0: 7dec a33e 21aa 5a3e ed4e 823e 7426 563f
00000100: fc61 10be f39f 82bf 8441 9c3e 1fea c83e
00000110: a001 bb3d 0d65 7f3d 74fc b4be 4c94 ae3f
00000120: 2201 1b3e f89b dcbe fab5 843e b642 2b3f
00000130: cb0f 573e 9482 623e c69d 363e 25e1 8b3f
00000140: a59a cdbe 27fd 0ebf e6b9 7a3e 6210 203f
00000150: 9fd7 be3d 4f60 9bbe 9562 bbbe 792c 8d3f
00000160: b5ce 9e3e d8e8 9ebf aa87 1a3e a098 a73e
00000170: f46e 2ebf 2eea c7be 6b7b 54be 9ed2 d53b
00000180: bf63 753e 8493 38bf 7c80 48be 3339 f53e
00000190: a1ea d0be 63eb 8fbe 2b01 793e 92d3 4c3f
000001a0: d731 0d3e a5d7 013f 5964 883f 4cc9 2abe
000001b0: a66b a03e 0897 733e 4463 143f 7936 883f
000001c0: 5f09 b33d ccb0 0dbf 7db3 8a3e dfe2 9c3e
000001d0: a830 3ebe 3a3f 09be 3622 dd3d 6747 1e3f
000001e0: 704f 713e 8dd3 8a3e e6b8 2a3f cb2d a2be
000001f0: ca33 1c3e ab45 b53e 9995 ce3e d19a 1f3f
00000200: 4231 a1be 0e82 dcbe 9a8b 8abd d587 913e
00000210: 3a63 26be fef4 30be b043 e9be 89dc 0f3f
00000220: 6354 c8bc 8c64 64bf a014 0f3e 9337 c43e
00000230: f8e0 3cbd e8f6 c73c 1db8 88be dd5a 9b3f
00000240: dc8c 163d ea0d fc3c dc19 a73d fbdd 013f
00000250: 0dc2 4f3e 0172 25bf 0a1b eb3e 298d e43e
00000260: 9d4c 69bd e833 1d3d 7c24 5e3f 7dc2 313d
00000270: 4413 ab3e 7823 953e 9e1f f53e c4b5 1e3f
00000280: 7667 b8bd 0f0b 083f 45bc 063f 80c3 343c
00000290: 8406 93bd a915 41be 7128 dabd 0a69 ff3e
000002a0: 1143 6f3e 8be7 9dbd 378d 703d d0da 623e
000002b0: fcf5 573e 2ccb 043d cc33 67bf 49ec c13e
000002c0: 59fa bebc eb28 e23d 8802 643f 2107 143e
000002d0: b6c7 f83e fb41 0d3f 3ab9 bf3e 0c78 fb3e
000002e0: 97a0 4a3e b923 8e3e e89d 26be 984f 213f
000002f0: 17e4 b33e cd33 40be c232 7a3e 8abc 053f
00000300: eed2 97be 2696 af3d 779f ff3b b71a 02be
00000310: 7253 f0be 8fde d9be f72b a43e 9616 9dbe
00000320: 636b 23bf 2ef1 53bf 9249 1a3e 24af b73e
00000330: efd6 94be 6895 f1be 3a8c 0bbf 410f 1c3f
00000340: 992c 1cbe f78f 87be b7d6 173f 7d9c f33e
00000350: a557 1a3f f344 993e 3cf0 a33e c9c4 063f
00000360: 8a11 6cbe 9462 283e ca1e 8f3d 15a9 b73e
00000370: 6415 dabd c9c5 b6be 3a59 ad3e dd1a 0f3e
00000380: c909 e63e 8731 98be 463e 1bbf 3c6f 413d
00000390: 23e1 76be b3cc 78bf 098b 03bf cdf5 9ebe
000003a0: ceb1 583e 45b0 493d 7184 de3e f6d0 373e
000003b0: 06c3 883e 461f 7c3d 1120 74bf 2951 b23e
000003c0: f87e bbbe 8f56 91be 1f26 2f3e 2334 983e
000003d0: 9d05 e23c 0c75 53be eef6 d0be 8edb 1a3f
000003e0: 7adf babd 7c1d 1d3e 05cc c0be e216 aabe
000003f0: 7ef7 fdbd 5305 25bf e087 a9bc 8767 aa3b

fc_layers.0.weight f4 [64, 16]
-0.30662403 -0.46754763 -0.12479894 0.38098276 0.101126105 -0.6282881 -0.64683783 -0.3075391
-0.066056676 -0.10669375 0.29215038 -0.2574709 -0.5984929 -0.45765427 0.22902071 0.21845569
-0.79057527 0.29765728 0.033652782 -0.3789666 -0.27128795 0.2749372 0.0055879503 -0.24182801
-0.4844906 0.12746665 0.37665123 -0.17055367 0.42213616 0.21674885 0.27672595 -0.77601635
0.39291906 0.20599224 0.2783105 0.25033388 0.25451347 -0.4356211 0.114976496 0.6241295
0.65479267 0.06862098 0.1595177 -0.41038597 1.0056249 0.35436752 0.2284282 -0.55518377
0.69575673 0.17389432 -0.1093405 0.17719205 -1.0338706 -0.29036286 -0.2957943 -0.033625226
0.15871896 0.15406546 0.69330037 0.012574052 -0.35582814 0.22346911 -0.20769446 -0.41691157
0.34061718 0.16725147 0.097803324 0.07904465 0.3716151 -0.581725 -0.022884415 0.20037891
0.63085973 -0.04328353 -0.11174124 -0.090099186 0.17575371 0.11572015 0.045110684 -0.0027534026
0.2803555 0.12564225 0.20911783 0.4370033 -0.6616178 -0.44890162 -0.1250088 -0.12935522
0.2634614 -0.19746776 -0.061264478 -0.08957553 -0.50929743 -0.2665043 -0.38014013 -0.48152167
0.28213271 -0.17835166 -0.38708484 0.51804787 0.15964596 -0.34341538 0.29325658 -0.5349804
-0.59504247 0.41291225 -0.04499001 -0.21221343 -0.21846455 -0.030336577 -0.2219927 0.25874752
-9.214371e-05 1.1290418e-05 7.578694e-05 -5.0271126e-05 0.00016983309 -8.357478e-06 -2.823738e-06 -8.033584e-06
0.00022300142 -0.00011560934 -4.613007e-05 0.0002422691 4.7137135e-05 -0.00018822575 0.00023011859 6.609036e-05
0.16675812 0.10399153 0.19816104 -0.11475548 0.27072275 -0.04796059 0.08418669 -0.048584867
-0.25252467 -0.12047263 0.15805629 -0.14850137 0.054144707 -0.056261245 0.06199774 -0.07788585
-0.49270257 0.13962598 0.47118565 0.01699837 -0.43362832 0.3198295 -0.36522225 -0.75864
-0.27136466 0.5037029 0.3688926 -0.108307794 -0.1980895 0.050765466 -0.117060155 -0.9571464
0.7257002 0.10956505 0.13669874 -0.16096552 -0.82653356 -0.55323815 -0.6945479 0.05221844
0.36909422 0.22625896 0.61887044 0.4248458 0.0022922016 0.40817276 -0.0151356645 -0.47720352
0.035113934 0.18423755 0.41613027 0.15742134 0.1562326 -0.49368754 0.2846578 -0.11054201
-0.023419337 0.5574455 0.093848094 -0.3282553 0.09367693 -0.0512986 0.005687497 0.2881943
-0.3531702 0.060209766 0.24709529 0.5799323 0.15720212 -0.24073932 -0.24857098 -0.45254427
-0.37657413 0.3317332 0.18454069 -0.12825727 -0.398624 -0.51176685 0.1082939 0.05877073
-0.22983587 -0.46534294 0.4491296 -0.18564689 0.16844912 -0.43723893 0.42626587 0.08269121
0.25450316 0.51885414 -0.37730515 -0.29097214 0.21740675 0.31997827 -0.07670951 0.15660276
-0.80745655 0.13382137 0.33926347 -0.37756667 -0.6034359 0.20892139 -0.15421034 -0.3110974
-0.5178798 0.5232527 0.12682903 0.034938816 0.11541594 0.10108238 -0.025907964 -1.1729777
0.008046694 0.05900969 0.010461467 0.41674262 -0.53528243 0.2629356 -0.058167383 -0.6578495
-0.44735068 0.21038392 0.17983957 -0.42190343 -0.06967775 -0.032589346 -0.044758696 -0.76199347
00000000: d3fd 9cbe 6762 efbe 9696 ffbd 2c10 c33e
00000010: 341b cf3d 7dd7 20bf 2a97 25bf c475 9dbe
00000020: b948 87bd 4182 dabd bc94 953e 3ad3 83be
00000030: d536 19bf a951 eabe 6884 6a3e d9b2 5f3e
00000040: 2463 4abf 8966 983e 80d7 093d e907 c2be
00000050: 41e6 8abe 92c4 8c3e 201b b73b c3a1 77be
00000060: 270f f8be 9e86 023e 6ed8 c03e 9fa5 2ebe
00000070: 3b22 d83e 69f3 5d3e 06af 8d3e 02a9 46bf
00000080: b02c c93e a1ef 523e b77e 8e3e c32b 803e
00000090: 974f 823e bb09 dfbe cc78 eb3d f3c6 1f3f
000000a0: 7ea0 273f 2889 8c3d 9c58 233e 1c1e d2be
000000b0: 51b8 803f a96f b53e 15e9 693e 8620 0ebf
000000c0: 1d1d 323f 5a11 323e e9ed dfbd d571 353e
000000d0: df55 84bf 71aa 94be 5a72 97be 9bba 09bd
000000e0: 3987 223e 56c3 1d3e 227c 313f 6603 4e3c
000000f0: 1b2f b6be 16d5 643e dbad 54be 6f75 d5be
00000100: 6065 ae3e f843 2b3e 1c4d c83d 29e2 a13d
00000110: 5644 be3e eeeb 14bf 1978 bbbc 2130 4d3e
00000120: 0680 213f 124a 31bd 97d8 e4bd ec85 b8bd
00000130: c8f8 333e b0fe ec3d fbc5 383d 6e72 34bb
00000140: c28a 8f3e 5da8 003e fc22 563e e6be df3e
00000150: c95f 29bf 6fd6 e5be 4f02 00be b275 04be
00000160: 6ae4 863e fd34 4abe 76f0 7abd 6073 b7bd
00000170: 5161 02bf 4073 88be baa1 c2be 028a f6be
00000180: b373 903e d1a1 36be fc2f c6be c99e 043f
00000190: 3b7a 233e 24d4 afbe ba25 963e 7af4 08bf
000001a0: b454 18bf 3c69 d33e 7247 38bd 7a4e 59be
000001b0: 2cb5 5fbe 6a84 f8bc 0e52 63be 8e7a 843e
000001c0: 473d c1b8 fa6b 3d37 ceef 9e38 36da 52b8
000001d0: 3915 3239 1837 0cb7 737f 3db6 fbc7 06b7
000001e0: 7dd5 6939 4b73 f2b8 c97b 41b8 9e09 7e39
000001f0: 1db5 4538 775e 45b9 fd4b 7139 fe99 8a38
00000200: a4c2 2a3e 83f9 d43d baea 4a3e ec04 ebbd
00000210: 2c9c 8a3e 5372 44bd 126a ac3d ed00 47bd
00000220: ea4a 81be 5bba f6bd 82d9 213e be10 18be
00000230: d7c6 5d3d 3172 66bd 58f1 7d3d 9e82 9fbd
00000240: 8343 fcbe 1dfa 0e3e 3f3f f13e 2a40 8b3c
00000250: 8804 debe b1c0 a33e 69fe babe 3b36 42bf
00000260: 4ff0 8abe acf2 003f 7edf bc3e 7ad0 ddbd
00000270: f9d7 4abe 73ef 4f3d 3cbd efbd 8c07 75bf
00000280: 7dc7 393f a463 e03d c1fa 0b3e 25d4 24be
00000290: b497 53bf 04a1 0dbf e4cd 31bf 01e3 553d
000002a0: ebf9 bc3e 6eb0 673e 4b6e 1e3f 6485 d93e
000002b0: c338 163b 05fc d03e 94fb 77bc 0554 f4be
000002c0: a1d3 0f3d c5a8 3c3e 070f d53e 0f33 213e
000002d0: 70fb 1f3e 9dc4 fcbe abbe 913e d963 e2bd
000002e0: e9d9 bfbc c0b4 0e3f 6e33 c03d 1411 a8be
000002f0: b1d9 bf3d 7b1e 52bd 2f5e ba3b 348e 933e
00000300: b9d2 b4be 849e 763d 8c06 7d3e 7176 143f
00000310: 98f9 203e 5e84 76be 6489 7ebe e2b3 e7be
00000320: 53ce c0be efd8 a93e 3cf8 3c3e e055 03be
00000330: 7218 ccbe 2703 03bf 31c9 dd3d 94b9 703d
00000340: 185a 6bbe 6e41 eebe 51f4 e53e 381a 3ebe
00000350: ed7d 2c3e c8dd dfbe 853f da3e 025a a93d
00000360: 3d4e 823e a0d3 043f 242e c1be 4dfa 94be
00000370: e09f 5e3e 31d4 a33e e019 9dbd 795c 203e
00000380: 79b5 4ebf 7808 093e f1b3 ad3e 6b50 c1be
00000390: c67a 1abf 7def 553e 51e9 1dbe 2948 9fbe
000003a0: c593 04bf e4f3 053f 78df 013e 011c 0f3d
000003b0: 315f ec3d 4704 cf3d f03c d4bc 2224 96bf
000003c0: 48d6 033c 25b4 713d 9366 2b3c 4a5f d53e
000003d0: 4508 09bf 7f9f 863e ec40 6ebd d368 28bf
000003e0: 260b e5be e26e 573e dd27 383e ba03 d8be
000003f0: 35b3 8ebd 687c 05bd e554 37bd 0112 43bf

fc_layers.0.bias f4 [64]
0.21189907 0.11676471 0.17085539 -0.6309617 0.26131445 -0.5277531 -0.31608003 -0.011457215
-0.33491623 -0.1432495 -0.65092444 0.3343501 -0.028047375 -0.19458362 0.12958604 -0.29343674
-0.101124935 0.33772027 -0.25870427 -0.3388645 -4.8337146e-29 -2.375577e-09 0.20368157 0.42012668
-1.4026575e-27 0.4273668 0.4259766 0.4676281 -0.19273275 -0.21777746 0.47199902 -0.63172346
-0.1655164 0.44562504 -0.17909713 0.44917843 0.10819698 -0.08143156 -0.11960946 -0.36858657
-0.05500958 0.4791162 -0.33499405 0.45453465 0.4719201 0.44829708 -0.15298623 -0.07404905
-0.3248891 -0.43838522 -0.26425081 -0.5266021 -0.4784547 -0.37469015 -0.18979041 -0.08167016
0.40037128 -0.4355997 -0.27606595 -0.38146147 -0.08937283 0.4629063 -0.50357455 0.16480409
00000000: 12fc 583e 5622 ef3d b7f4 2e3e b586 21bf
00000010: 02cb 853e d41a 07bf 3ed5 a1be 0bb7 3bbc
00000020: 247a abbe ffaf 12be fca2 26bf f02f ab3e
00000030: 9cc3 e5bc ee40 47be 34b2 043e 573d 96be
00000040: 971a cfbd ace9 ac3e e374 84be a67f adbe
00000050: 3419 7590 983f 23b1 e791 503e d81a d73e
00000060: 8c42 de92 d2cf da3e 9b19 da3e f36c ef3e
00000070: bc5b 45be 0e01 5fbe dba9 f13e a1b8 21bf
00000080: 227d 29be f728 e43e 3d65 37be b7fa e53e
00000090: 6196 dd3d 97c5 a6bd cef5 f4bd 61b7 bcbe
000000a0: ba51 61bd b84e f53e 5784 abbe c4b8 e83e
000000b0: 839f f13e 3287 e53e 6ca8 1cbe 07a7 97bd
000000c0: dd57 a6be 0774 e0be e24b 87be 65cf 06bf
000000d0: 04f8 f4be 63d7 bfbe 6b58 42be af42 a7bd
000000e0: 77fd cc3e ed06 dfbe 8458 8dbe eb4e c3be
000000f0: 1a09 b7bd 0e02 ed3e 43ea 00bf 67c2 283e

fc_layers.1.weight f4 [32, 64]
0.32114205 0.20498665 -0.010808646 0.55427307 -0.027695486 0.14456496 0.52818584 1.2896195e-05
-0.09084179 0.16088134 0.8468223 0.07198927 0.122215085 0.60707414 0.13835752 0.07970201
0.020866992 0.27442038 -0.04184869 0.51479965 -4.906667e-38 3.1390612e-16 0.16889694 0.23058136
1.601197e-36 0.11314386 0.2824993 0.10307344 -0.07209576 -0.532732 0.09843511 0.43807128
-0.04342144 0.14922048 -0.043179054 0.06738041 0.194199 0.0021125954 -0.4314501 -0.59240353
0.01909139 0.1144207 -0.6771555 0.10855031 0.08042893 0.109537795 -0.6337099 -0.0030805632
-0.49133176 -0.36233807 -0.1131375 -0.7505911 -0.7634266 -0.7120639 0.13680016 0.0065217908
0.118711054 -0.5815996 0.7349585 -0.85635346 0.623749 0.1411168 -0.6442941 0.4158266
0.3154155 0.22401106 0.008433705 0.5683313 0.013327503 0.1860957 0.6298175 3.3620363e-05
-0.097142264 0.23697828 0.8590777 0.12509394 0.16267742 0.6669323 0.16847253 0.13123584
0.0218551 0.2664036 -0.12393055 0.5799769 -4.9078113e-38 1.6295049e-16 0.19428247 0.16782473
9.5901176e-36 0.12686917 0.29509622 0.09890652 -0.07793132 -0.5598024 0.07817013 0.46052465
-0.029431079 0.12167934 -0.026409378 0.071134 0.20308627 0.008736684 -0.5937839 -0.61408293
0.0129227005 0.113085024 -0.6702647 0.12571308 0.13545299 0.10242987 -0.5827964 -0.0016582594
-0.49372512 -0.37451944 -0.088798106 -0.77624094 -0.861897 -0.76216155 0.20585714 0.011092691
0.16400427 -0.55753785 0.76967365 -0.8893372 0.7260604 0.15837546 -0.6789886 0.38267273
1.876467e-33 -3.876439e-33 -1.2555361e-33 2.1457678e-34 5.4783995e-35 -1.4506334e-34 -5.5955813e-34 5.0006804e-38
-4.7058226e-37 -1.3912943e-33 8.456901e-35 -4.5489115e-34 4.861598e-34 8.640057e-34 -5.5599696e-33 -7.784831e-34
-2.7676768e-35 6.794291e-34 1.1466544e-33 -3.1943616e-34 -4.915042e-38 -4.9101095e-38 3.7460946e-34 -1.1528598e-33
-4.9088763e-38 -6.116556e-34 7.2663396e-35 -8.038723e-34 -8.3616265e-34 -2.3394138e-34 -1.0807641e-33 3.7596872e-35
1.3128605e-34 -8.845113e-34 3.4978218e-35 -4.3637734e-34 -3.3359384e-33 -1.4652425e-38 -3.4193928e-34 -3.7430973e-34
-1.1328031e-34 -4.9368416e-34 2.2869383e-34 -4.8223705e-34 -1.0277573e-33 -6.391204e-34 -5.0902435e-35 -4.9157673e-38
1.4393889e-33 -7.9939564e-36 -2.0246025e-35 1.6148662e-34 9.049762e-35 4.5937135e-34 -1.2039531e-34 -1.018021e-36
6.1956083e-34 -2.6556578e-34 -1.197214e-34 -1.4804153e-33 8.6699835e-34 -6.5947717e-34 -9.781556e-35 1.5313435e-34
-1.31856736e-23 -7.046592e-24 -1.7990568e-23 -1.8836573e-24 -1.594806e-23 -3.3645466e-24 3.9941142e-25 -4.915818e-38
-4.4573387e-25 -5.6332222e-24 -2.3701139e-24 -2.099494e-23 -1.0722014e-23 -1.8401618e-24 -6.655769e-24 -1.7800143e-24
-1.0535133e-24 -8.868295e-24 -1.6093021e-24 -3.5477883e-24 -4.908687e-38 -4.906501e-38 -2.1651758e-23 -9.075413e-24
-4.915778e-38 -1.1497362e-23 -9.576848e-24 -1.3276412e-23 5.5562874e-24 -6.2450067e-24 -1.4391453e-23 -1.7955064e-24
-2.0347274e-25 -1.29138976e-23 -1.393075e-25 -1.2202074e-23 -3.9558925e-24 3.1758073e-29 -1.2717371e-24 -1.4181069e-24
1.5315791e-25 -1.1869375e-23 2.6257243e-24 -1.2091344e-23 -1.8095212e-23 -1.2108564e-23 -7.8572055e-25 4.915103e-38
-5.6442394e-24 -1.6701125e-26 -2.5396947e-26 -6.5990093e-25 -1.7497856e-24 1.1243225e-25 -1.3057666e-24 -1.2892493e-28
-1.7355284e-23 -1.0389708e-24 -2.5989113e-24 -4.4060284e-24 -6.4125694e-24 -1.2172321e-23 -3.501927e-25 -7.883082e-24
00000000: bb6c a43e 05e8 513e bf16 31bc d7e4 0d3f
00000010: a5e1 e2bc d608 143e 3037 073f bc5c 5837
00000020: 430b babd 14be 243e 59c9 583f 1c6f 933d
00000030: e74b fa3d 3669 1b3f 98ad 0d3e cf3a a33d
00000040: 41f1 aa3c d480 8c3e 8869 2bbd e9c9 033f
00000050: 7a92 8581 5ef4 b425 52f3 2c3e 851d 6c3e
00000060: fc36 0804 f8b7 e73d c0a3 903e 2b18 d33d
00000070: f1a6 93bd 2061 08bf 5998 c93d e14a e03e
00000080: aeda 31bd 41cd 183e 85dc 30bd befe 893d
00000090: 1adc 463e 7873 0a3b 07e7 dcbe c2a7 17bf
000000a0: 8c65 9c3c 6655 ea3d 105a 2dbf a04f de3d
000000b0: ecb7 a43d 5a55 e03d d03a 22bf 46e3 49bb
000000c0: d68f fbbe 6084 b9be a2b4 e7bd bd26 40bf
000000d0: ed6f 43bf d249 36bf 5715 0c3e bfb4 d53b
000000e0: c81e f33d b6e3 14bf 3e26 3c3f fb39 5bbf
000000f0: 04ae 1f3f ec80 103e 75f0 24bf 39e7 d43e
00000100: 247e a13e 2863 653e 862d 0a3c 297e 113f
00000110: 995b 5a3c df8f 3e3e b83b 213f 9703 0d38
00000120: 86f2 c6bd 6faa 723e 84ec 5b3f a018 003e
00000130: e994 263e 13bc 2a3f 1084 2c3e b062 063e
00000140: 7709 b33c 0d66 883e 4dcf fdbd 5e79 143f
00000150: 749a 8581 7fde 3b25 fcf1 463e 3fda 2b3e
00000160: 91f5 4b05 fee9 013e da16 973e 808f ca3d
00000170: 759a 9fbd 364f 0fbf a917 a03d e3c9 eb3e
00000180: 7219 f1bc 0533 f93d 7b58 d8bc b4ae 913d
00000190: d9f5 4f3e 4f24 0f3c 3902 18bf 8a34 1dbf
000001a0: bcb9 533c 1f99 e73d 7896 2bbf eeba 003e
000001b0: 30b4 0a3e c0c6 d13d 2532 15bf f459 d9ba
000001c0: 8ac9 fcbe 03c1 bfbe c8db b5bd bab7 46bf
000001d0: 48a5 5cbf 051d 43bf 37cc 523e 1ebe 353c
000001e0: bcf0 273e cdba 0ebf 5509 453f 9aab 63bf
000001f0: 18df 393f 2d2d 223e 32d2 2dbf aeed c33e
00000200: 0ae4 1b09 5f05 a189 999c d088 599c 8e07
00000210: 0ea4 9106 7fd2 4087 f1f1 3988 a821 8801
00000220: 7f21 2083 1d2b e788 b0d2 e006 dc29 1788
00000230: e78d 2108 bd8e 8f08 bdf3 e689 0259 8188
00000240: aa27 1386 70c7 6108 4985 be08 3f4d d487
00000250: d8cc 8581 78aa 8581 7ff8 f807 3c8d bf88
00000260: e0a1 8581 e741 4b88 252c c106 f290 8588
00000270: 6dee 8a88 107b 9b87 9f92 b388 36e6 4706
00000280: 5482 2e07 f3f6 9288 e2f9 3906 e102 1188
00000290: c891 8a89 008d 9f80 f441 e387 80c5 f887
000002a0: 4b93 1687 010e 2488 3dfe 9707 3140 2088
000002b0: f6c3 aa88 5a62 5488 6752 8786 e6d1 8581
000002c0: d528 ef08 3d03 2a85 ec4a d785 0da7 5607
000002d0: 7d95 f006 fea6 1808 6708 2087 1135 ad83
000002e0: 68e2 4d08 ad7f b087 1523 1f87 e7f9 f588
000002f0: 080e 9008 1d26 5b88 e904 0287 eb8c 4b07
00000300: 4b0c 7f99 094d 0899 7dfe ad99 adbd 1198
00000310: 7c3d 9a99 db28 8298 4439 f716 40d2 8581
00000320: adf2 0997 bbec d998 f160 3798 f40c cb99
00000330: d764 4f99 2960 0e98 c6bd 0099 d1b8 0998
00000340: f605 a397 ab89 2b99 0607 f997 983f 8998
00000350: 8ea0 8581 5291 8581 2867 d199 458b 2f99
00000360: f9d1 8581 2e64 5e99 413e 3999 ce66 8099
00000370: cef2 d618 8d97 f198 832f 8b99 abeb 0a98
00000380: 16e3 7b96 86ca 7999 4f74 2c96 be05 6c99
00000390: 4309 9998 5608 2110 b2ca c497 0171 db97
000003a0: ae99 3d16 4c96 6599 d427 4b18 6fe1 6999
000003b0: 9301 af99 b436 6a99 322b 7397 45cd 8501
000003c0: d759 da98 6266 a594 e984 fb94 bd3a 4c97
000003d0: 1362 0798 342f 0b16 bf0e ca97 886e 2391
000003e0: 9ad9 a799 e0c5 a097 be14 4998 3173 aa98
000003f0: 0313 f898 6a72 6b99 40c2 d896 227b 1899

fc_layers.1.bias f4 [32]
-0.015901737 0.045740247 -6.488921e-33 -1.2288009e-23 -0.0064461385 -4.917605e-38 -3.1992837e-05 -1.2126965e-31
0.025959507 -3.986666e-33 -2.3150776e-31 -5.318625e-38 -4.183034e-37 -4.905228e-38 -5.9096276e-38 -4.91447e-38
-0.03413034 -1.0611292e-34 0.008554033 -4.984355e-38 -1.0401662e-31 -4.914336e-38 -4.911208e-38 -4.9151843e-36
-2.3041185e-37 -2.339361e-35 0.32735163 -6.2985406e-38 -1.916501e-37 0.061086975 -4.9103645e-38 -1.03137655e-35
00000000: 5c44 82bc 205a 3b3d 06c5 068a 46af 6d99
00000010: 213a d3bb b4de 8581 0c30 06b8 c16a 1d8c
00000020: 08a9 d43c 8199 a589 d341 968c 68c9 9081
00000030: 5e57 0e83 7388 8581 18e0 a081 dbc8 8581
00000040: 41cc 0bbd 5b0c 0d87 3726 0c3c e2af 8781
00000050: 7305 078c ecc7 8581 20b2 8581 9e11 d184
00000060: 68cf 9c82 77c3 f885 a29a a73e 6c76 ab81
00000070: 286e 8282 5636 7a3d 3fac 8581 7b59 5b85

fc_layers.2.weight f4 [16, 32]
0.17957117 0.21945858 -3.4792223e-33 4.5979188e-24 0.22982444 4.912291e-38 1.3691576e-07 8.348055e-33
0.2578557 -3.457232e-33 -4.4608205e-31 -4.9144456e-38 5.297715e-39 4.9133784e-38 4.90715e-38 4.914313e-38
0.16735485 8.175972e-35 0.21092652 4.908884e-38 -8.297369e-32 -4.915034e-38 -1.8564537e-38 -1.5161731e-37
-5.736871e-38 1.9594667e-36 -0.9999379 4.905664e-38 7.868907e-39 0.23272696 4.906428e-38 -1.0530991e-35
4.913701e-38 -4.914975e-38 -4.9169747e-38 4.9046623e-38 -4.9131183e-38 -4.9101207e-38 4.905643e-38 4.910224e-38
-4.9148806e-38 -4.90765e-38 -4.911433e-38 -4.912089e-38 4.905249e-38 -4.909239e-38 4.9127714e-38 -4.907465e-38
4.9167595e-38 -4.915447e-38 -4.9061634e-38 -4.910175e-38 4.9150476e-38 -4.9184377e-38 4.9093236e-38 -4.9142915e-38
4.9156625e-38 -4.904937e-38 4.915374e-38 4.909682e-38 4.914324e-38 -4.906881e-38 -4.9151833e-38 4.916101e-38
0.19077721 0.21979521 -3.4131547e-33 4.512795e-24 0.21433562 4.9071275e-38 1.3076635e-07 8.195952e-33
0.2676447 -3.393327e-33 -4.3795186e-31 -4.9160016e-38 4.431063e-39 4.9118375e-38 4.9152797e-38 4.9050284e-38
0.16410223 8.0317557e-35 0.20031695 4.910616e-38 -8.142804e-32 9.77758e-39 -1.8583813e-38 -1.4765637e-37
-5.529712e-38 1.9232966e-36 -0.92529714 4.914244e-38 8.63211e-39 0.24842568 4.90872e-38 -1.0332613e-35
-4.927795e-38 -4.921988e-38 -4.904641e-38 4.9091016e-38 -4.9064594e-38 4.911494e-38 4.904551e-38 4.905195e-38
-4.918383e-38 -4.918276e-38 4.909484e-38 4.917286e-38 -4.9127506e-38 -4.911947e-38 4.9132316e-38 -4.908115e-38
-4.9147237e-38 4.9145213e-38 -5.0546966e-38 -4.908954e-38 4.915518e-38 -4.906246e-38 -4.910387e-38 4.91215e-38
4.9130735e-38 -4.9130584e-38 -4.90706e-38 -4.915416e-38 -4.9050373e-38 -4.911522e-38 -4.908034e-38 -4.9131766e-38
-4.90778e-38 -4.9173553e-38 4.914853e-38 4.917558e-38 -4.905078e-38 4.914065e-38 4.913943e-38 -4.9111857e-38
-4.9094094e-38 4.907714e-38 4.9174674e-38 -4.9141575e-38 -4.9085417e-38 -4.910489e-38 -4.915297e-38 4.906937e-38
-4.9065995e-38 4.918459e-38 -4.9172213e-38 -4.9178295e-38 -4.916667e-38 -4.9126783e-38 4.915502e-38 -4.914644e-38
-4.91226e-38 4.9164327e-38 -4.913891e-38 4.9124726e-38 4.917527e-38 -4.9134457e-38 -4.9118807e-38 4.913859e-38
0.1695946 0.20124611 -3.3203946e-33 4.3921984e-24 0.1950304 4.907219e-38 1.2247351e-07 7.978248e-33
0.24196112 -3.3031715e-33 -4.263989e-31 -4.913284e-38 3.044158e-39 4.910827e-38 4.9165263e-38 4.9116615e-38
0.15543424 7.825094e-35 0.17109025 4.911106e-38 -7.921168e-32 -4.906725e-38 -1.8521438e-38 -1.4328862e-37
-5.287115e-38 1.8727476e-36 -0.93432397 4.9174926e-38 9.582796e-39 0.23339467 4.9137713e-38 -1.0051867e-35
0.21630727 0.24322398 -3.840562e-33 5.0778207e-24 0.25755775 4.913776e-38 1.7567073e-07 9.215281e-33
0.2911712 -3.8160657e-33 -4.9222876e-31 -1.8022133e-38 1.1336213e-38 4.9064835e-38 1.364515e-38 4.913547e-38
0.19030607 9.015355e-35 0.23380144 4.9185486e-38 -9.168737e-32 -4.9182745e-38 -1.856888e-38 -1.7100648e-37
-6.7365955e-38 2.1631975e-36 -0.91695154 4.906242e-38 4.210756e-39 0.26521346 4.9069666e-38 -1.1638641e-35
0.14039741 0.17280158 -2.8166303e-33 3.7320232e-24 0.15189712 4.907542e-38 8.377901e-08 6.791833e-33
0.22035062 -2.8113334e-33 -3.631771e-31 -4.908854e-38 -4.824637e-39 4.9169114e-38 4.9078853e-38 4.911168e-38
0.13931575 6.690408e-35 0.15186417 4.915153e-38 -6.722229e-32 9.923756e-39 -1.853122e-38 -1.1564569e-37
-3.8352978e-38 1.598588e-36 -0.8602588 4.90895e-38 1.2127779e-38 0.19560789 4.9170734e-38 -8.5234605e-36
00000000: 81e1 373e c0b9 603e 7085 9089 95df b118
00000010: 1957 6b3e acb9 8501 1e03 1334 e061 2d0a
00000020: aa05 843e 999b 8f89 0cc3 108d b0c8 8581
00000030: e0af 3900 40c1 8501 d895 8501 c3c7 8501
00000040: 125f 2b3e c85a d906 1ffd 573e eea1 8501
00000050: 7a69 d78b cacc 8581 6026 ca80 ec5e 4e82
00000060: 282c 9c81 68b1 2604 eefb 7fbf 7d8b 8501
00000070: 50af 5500 fa4f 6e3e d090 8501 2bf8 5f85
00000080: 80c3 8501 60cc 8581 50da 8581 8284 8501
00000090: 70bf 8581 8caa 8581 588b 8501 44ab 8501
000000a0: b8cb 8581 5499 8581 b1b3 8581 44b8 8581
000000b0: 9988 8501 67a4 8581 05bd 8501 0a98 8581
000000c0: d0d8 8501 aacf 8581 f88e 8581 edaa 8581
000000d0: e2cc 8501 82e4 8581 fea4 8501 9dc7 8581
000000e0: 2bd1 8501 6c86 8581 28cf 8501 7da7 8501
000000f0: d7c7 8501 f893 8581 d4cd 8581 39d4 8501
00000100: 1a5b 433e ff11 613e e3c6 8d89 8f94 ae18
00000110: cc7a 5b3e b095 8501 c868 0c34 2839 2a0a
00000120: ba08 893e 0bf4 8c89 9e1f 0e8d 88d3 8581
00000130: 0040 3000 83b6 8501 80ce 8501 0f87 8501
00000140: 6a0a 283e 4c85 d506 e31f 4d3e 00ae 8501
00000150: 3766 d38b ea77 6a00 1c5c ca80 bcfa 4882
00000160: 7888 9681 b19d 2304 46e0 6cbf 48c7 8501
00000170: d0fe 5d00 4d63 7e3e c9a0 8501 19c0 5b85
00000180: b825 8681 40fd 8581 5c84 8581 72a3 8501
00000190: 0891 8581 1eb4 8501 bb83 8501 3888 8501
000001a0: 20e4 8581 62e3 8581 1ca6 8501 7bdc 8501
000001b0: e0bc 8581 46b7 8581 3ac0 8501 929c 8581
000001c0: a0ca 8581 37c9 8501 189a 8981 6ba2 8581
000001d0: 29d0 8501 8b8f 8581 67ac 8581 b0b8 8501
000001e0: 20bf 8501 05bf 8581 3895 8581 73cf 8581
000001f0: 1f87 8581 50b4 8581 019c 8581 d8bf 8581
00000200: 3c9a 8581 f7dc 8581 87cb 8501 61de 8501
00000210: 6887 8581 09c6 8501 2fc5 8501 f8b1 8581
00000220: 97a5 8581 c699 8501 bfdd 8501 aec6 8581
00000230: 8b9f 8581 1dad 8581 9fce 8581 5c94 8501
00000240: 0292 8581 a8e4 8501 08dc 8581 45e0 8581
00000250: 2bd8 8581 5fbc 8581 0dd0 8501 12ca 8581
00000260: 75b9 8581 89d6 8501 d2c4 8581 f0ba 8501
00000270: 29de 8501 b8c1 8581 d0b6 8581 99c4 8501
00000280: 35aa 2d3e 7613 4e3e 7eec 8989 3aea a918
00000290: 0db6 473e 5396 8501 4381 0334 a4b3 250a
000002a0: a8c4 773e 5835 8989 d65f 0a8d 98c0 8581
000002b0: e025 2100 78af 8501 30d7 8501 49b5 8501
000002c0: 272a 1f3e d506 d006 4832 2f3e 6ab1 8501
000002d0: 31a5 cd8b e292 8581 3cae c980 cc08 4382
000002e0: d0ed 8f81 d550 1f04 db2f 6fbf ecdd 8501
000002f0: f058 6800 03ff 6e3e fdc3 8501 92c7 5585
00000300: a77f 5d3e b50f 793e dc87 9f89 4d70 c418
00000310: 9cde 833e 05c4 8501 01a0 3c34 d764 3f0a
00000320: 6414 953e 5f83 9e89 c4bc 1f8d 603e c480
00000330: c070 7b00 3391 8501 2095 9400 6dc2 8501
00000340: 98df 423e 54ab ef06 a569 6f3e 48e5 8501
00000350: b608 ee8b 5fe3 8581 7c32 ca80 10c3 6882
00000360: 3863 b781 4506 3804 56bd 6abf 848f 8501
00000370: e0d9 2d00 0fca 873e 9194 8501 ca86 7785
00000380: 57c4 0f3e e6f2 303e 1aff 6989 2b60 9018
00000390: eb8a 1b3e 9398 8501 ffe9 b333 940f 0d0a
000003a0: 98a3 613e 738e 6989 25b7 eb8c b8a1 8581
000003b0: 2089 3480 dfd9 8501 f89a 8501 d8b1 8501
000003c0: caa8 0e3e 8fdc b106 4882 1b3e 9ecd 8501
000003d0: e084 ae8b 650f 6c00 80c9 c980 a468 1d82
000003e0: 40d0 5081 2afe 0704 ec39 5cbf 63a2 8501
000003f0: 500f 8400 6f4d 483e 00db 8501 2246 3585

fc_layers.2.bias f4 [16]
0.31136015 -5.4505225e-38 0.28024185 -5.734046e-38 -4.91581e-38 0.2887266 0.29294708 0.24446492
-4.9079515e-38 0.5493852 0.29134992 -5.414468e-38 0.3050916 -4.90611e-38 0.30137298 -5.5777996e-38
00000000: 996a 9f3e 9960 9481 dc7b 8f3e 7818 9c81
00000010: 32d2 8581 f9d3 933e 29fd 953e 0355 7a3e
00000020: 6e9b 8581 82a4 0c3f d12b 953e 5665 9381
00000030: f734 9c3e 998e 8581 8f4d 9a3e 97d7 9781

fc_layers.3.weight f4 [8, 16]
-4.914661e-38 4.9092143e-38 -4.907688e-38 -4.907488e-38 -4.907602e-38 -4.905002e-38 -4.9276963e-38 -4.906603e-38
-4.915975e-38 -5.6137586e-38 -4.913392e-38 4.910288e-38 -4.910181e-38 4.90574e-38 -4.908419e-38 -4.9183614e-38
0.27673692 4.9069257e-38 0.26681346 -4.908836e-38 -4.9138246e-38 0.25345996 0.29869083 0.21700817
-4.90477e-38 -1.1947528 0.2776814 4.910827e-38 0.26637703 4.912945e-38 0.25160685 4.9168043e-38
0.18903813 3.6259102e-38 0.19388409 -4.9163514e-38 -4.9112826e-38 0.19104479 0.20633046 0.1514405
-4.9120405e-38 -0.96344334 0.19850895 -4.904737e-38 0.18908925 4.9118914e-38 0.16973755 4.907742e-38
-4.9090064e-38 -4.9081527e-38 -4.909809e-38 4.9103606e-38 4.9114956e-38 -4.912571e-38 -4.911033e-38 -4.915423e-38
4.917744e-38 -5.854692e-38 -4.9067553e-38 -4.906049e-38 -4.9138e-38 4.9123964e-38 -4.9167146e-38 4.9098286e-38
0.21126214 3.5215774e-38 0.21967314 -3.9747326e-38 -4.9182785e-38 0.20985353 0.25186566 0.2061408
-4.918366e-38 -1.0264465 0.22249776 -4.9163643e-38 0.22232543 4.909736e-38 0.20856848 4.917737e-38
0.17401767 3.7312116e-38 0.15240377 -4.916374e-38 -4.918018e-38 0.16039559 0.18289004 0.107264005
-4.9067884e-38 -0.8555226 0.14266045 -4.915163e-38 0.16084374 4.917422e-38 0.13935773 4.914625e-38
-4.9142887e-38 4.9050984e-38 -4.9076656e-38 -4.905624e-38 -4.917787e-38 -4.905984e-38 -4.9063383e-38 -4.9124053e-38
-4.9129715e-38 -4.9056567e-38 -4.913459e-38 -4.907532e-38 -4.905334e-38 -4.909239e-38 -4.9172213e-38 4.909589e-38
-1.1889159e-27 -4.9164293e-38 -1.0985695e-27 4.906737e-38 4.9054325e-38 -1.074354e-27 -1.1993542e-27 -9.179313e-28
4.914086e-38 5.266829e-29 -1.1239391e-27 -4.9048966e-38 -1.1550802e-27 -4.9141867e-38 -1.1477321e-27 -4.9091913e-38
00000000: 30ca 8581 3ba4 8501 9899 8581 3398 8581
00000010: ff98 8581 e086 8581 0825 8681 0892 8581
00000020: 58d3 8581 30d2 9881 58c1 8581 b7ab 8501
00000030: f8aa 8581 058c 8501 b09e 8581 fae3 8581
00000040: 76b0 8d3e 4894 8501 c69b 883e 98a1 8581
00000050: 5cc4 8581 81c5 813e 01ee 983e 6437 5e3e
00000060: 4285 8581 a9ed 98bf 422c 8e3e 78af 8501
00000070: 9262 883e 3bbe 8501 9dd2 803e 20d9 8501
00000080: 3693 413e d069 4501 8d89 463e f8d5 8581
00000090: a5b2 8581 3fa1 433e 4b48 533e 3813 1b3e
000000a0: edb7 8581 39a4 76bf ee45 4b3e 0785 8581
000000b0: 9da0 413e e3b6 8501 aecf 2d3e f899 8501
000000c0: c8a2 8581 d59c 8581 60a8 8581 38ac 8501
000000d0: 21b4 8501 a0bb 8581 e8b0 8581 80cf 8581
000000e0: acdf 8501 4061 9f81 1893 8581 2c8e 8581
000000f0: 30c4 8581 68ba 8501 80d8 8581 83a8 8501
00000100: 1a55 583e a0bb 3f01 fff1 603e b067 5881
00000110: 66e3 8581 d8e3 563e 89f4 803e 9316 533e
00000120: 02e4 8581 9962 83bf 74d6 633e 0fd6 8581
00000130: 47a9 633e dea7 8501 fa92 553e a0df 8501
00000140: b031 323e 8025 4b01 bc0f 1c3e 20d6 8581
00000150: 95e1 8581 be3e 243e 8747 3b3e 3bad db3d
00000160: 5393 8581 8703 5bbf 9515 123e b0cd 8581
00000170: 39b4 243e 6edd 8501 cbb3 0e3e f0c9 8501
00000180: 98c7 8581 8c87 8501 7099 8581 368b 8581
00000190: f9df 8581 b88d 8581 3090 8581 78ba 8581
000001a0: 6abe 8581 708b 8581 d0c1 8581 8298 8581
000001b0: 3089 8581 67a4 8581 08dc 8581 d7a6 8501
000001c0: 2964 bc92 83d6 8581 4613 ae92 f792 8501
000001d0: e089 8501 fa3c aa92 960b be92 b873 9192
000001e0: 2ec6 8501 ad87 8510 6318 b292 2486 8581
000001f0: 9f07 b792 e2c6 8581 8cdd b592 12a4 8581
