checkpoints/neumf_first_try_Epoch17_HR0.6810_NDCG0.4041.model (torch, 645108 bytes, 13 tensors)

embedding_user_mlp.weight f4 [6040, 8]
000000 4d 0d 84 bc 7b df 0d 3f 7a d1 2a 3f 3d 88 71 3e
       -0.016119624 0.5541913 0.66725886 0.23587127
000010 82 12 e8 be b8 d8 cd be bc 3c 72 be bb 9d ed be
       -0.4532662 -0.40204406 -0.23655981 -0.464094
000020 73 43 4a be e0 f9 a5 3d 28 5d 69 3e ac 0a 80 3d
       -0.19752292 0.081043005 0.22789443 0.062520355
000030 12 3e 0c 3e 21 45 a2 3d 08 17 a5 3e 2c c1 48 3e
       0.13695553 0.079233415 0.32244134 0.19604939
000040 7a 19 e1 bd 87 86 92 3e 41 37 16 3f aa 35 34 3e
       -0.109911874 0.2861826 0.5867806 0.17598596
000050 8d 15 1e 3d 81 f6 41 bf 34 18 9f be 4b 11 2d bd
       0.03859477 -0.7576676 -0.31073153 -0.04225282
000060 24 e1 1e be e9 78 4f 3f ff 17 5b 3f ef b1 c5 3e
       -0.15515572 0.8104387 0.8558349 0.38612315
000070 5a 76 0b bf f4 90 0f bf 09 ad 09 be 74 9f 00 bf
       -0.54477465 -0.56080556 -0.13444914 -0.50243306
000080 5c 09 e2 be 48 0f 9b bb e8 df 2a be 2c 94 00 3d
       -0.44147766 -0.0047320463 -0.16686976 0.031391308
000090 c2 8c f4 be 00 df eb bd ff 84 2d bf 13 63 ae be
       -0.4776364 -0.11517143 -0.6778106 -0.34059963
0000a0 ef c9 13 be ef b7 18 3e 39 9f b9 3e f3 15 36 3e
       -0.144325 0.14913915 0.3625429 0.1778181
0000b0 37 b5 9c be bb d2 f3 be d8 0d 06 bf 1f 19 b5 be
       -0.30607006 -0.47621712 -0.52364874 -0.35370728
0000c0 29 4d 62 be 71 8e 35 3f 6a 96 14 3f 9d 2e 40 3f
       -0.22099747 0.70920473 0.58042014 0.75071126
0000d0 1e 50 4c be c7 10 14 bf bf 50 a6 be 35 97 ce be
       -0.19952437 -0.578381 -0.3248348 -0.40349737
0000e0 bf f5 2f 3d 14 9e ec 3d 11 d6 d6 3e 1c f7 24 3e
       0.04295897 0.115535885 0.41960195 0.1610989
0000f0 a9 7c 21 3f cc 11 a4 be 7c 4b de 3e e8 ef 7b 3e
       0.6308084 -0.32044828 0.43416965 0.24603236
000100 d0 e9 17 be cb a1 b3 3e 80 d7 ef 3e ac 50 e2 3e
       -0.14835286 0.35084376 0.468441 0.44202173
000110 be 82 b7 be 88 d8 ce be ad 06 a2 be 5e 39 cf be
       -0.35841936 -0.40399575 -0.31645718 -0.40473455
000120 2a 4b c3 bd 72 26 24 be 73 a9 e8 bb 9e af 9c bd
       -0.09535821 -0.1603029 -0.007100278 -0.07650684
000130 d6 6d 32 be d7 21 92 3d 5c 8d 39 3e 56 4b cb 3d
       -0.17424712 0.07135361 0.1812033 0.099264786
000140 fc f1 34 3e 70 3a 41 3d 2c 32 5d 3e e1 bd c4 3e
       0.17670435 0.04717487 0.2160117 0.38426116
000150 f0 1d 3f 3d 5d 43 3b be bf 3c 7d 3e 2b 5e 35 3e
       0.04665941 -0.18287416 0.24730204 0.17711703
000160 b1 d2 2d be f3 41 24 3d 76 b4 e4 39 f8 e5 c7 3e
       -0.16974904 0.040101957 0.00043622003 0.3904264
000170 08 23 67 3e 43 b8 46 bd ce e3 e2 bd 46 2c f1 3c
       0.22571957 -0.04851557 -0.110786065 0.029440057
000180 11 e7 cf 3c 58 cc 8c 3e 09 23 d3 3e f0 af 50 3c
       0.025378736 0.27499652 0.41237667 0.012737259
000190 ee 11 f0 3d ed 0a 0d be 2b 61 23 3e a1 c3 52 3d
       0.1172217 -0.13773699 0.15955035 0.051456098
0001a0 83 3c c2 be 8c c7 55 bd 62 3a 0c be 6f e0 97 3e
       -0.37936792 -0.052192256 -0.13694146 0.29663417
0001b0 42 b7 18 bf d5 f5 09 be 44 27 5a be e5 72 c0 be
       -0.5965463 -0.13472684 -0.21304041 -0.37587658
0001c0 df ad 5c be c2 3a 0e 3e 0f 2a 44 3e 7d d3 6b 3e
       -0.21550702 0.13889602 0.19156669 0.23029895
0001d0 b9 d7 a1 be 24 34 ed be bf ba 80 3e c8 2d 04 3e
       -0.31609896 -0.46328843 0.25142476 0.12908089
0001e0 2f 7f d8 be c2 03 11 bc b2 d0 9a be 51 03 a9 3e
       -0.42284533 -0.008850994 -0.30237347 0.33010343
0001f0 c3 42 6f bf d0 4e 9c be 9c 27 60 bf af 20 28 bf
       -0.93461245 -0.3052888 -0.8756044 -0.6567487
000200 87 1a 87 bd 16 2d f3 bd f7 00 dc bd e2 b3 72 3e
       -0.065968566 -0.11873834 -0.107423715 0.23701432
000210 2d 27 f0 be 9e 13 3a be ed 4d ac be bc f8 97 be
       -0.4690489 -0.18171546 -0.33653203 -0.29681957
000220 b0 8a 9a 3e 6a e6 8b be 1b fa b6 3d 78 69 1b be
       0.30183935 -0.2732423 0.089344226 -0.15176952
000230 69 8e ac 3e fa 4f a0 3d 5e 0f 35 3f cc 3a a0 3d
       0.337024 0.07827754 0.70726573 0.078237146
000240 cc 30 71 be c9 b9 22 3e d8 d1 35 bd d1 1a b1 be
       -0.23553771 0.15891184 -0.044389576 -0.34590772
000250 78 f0 0b bf 2d f2 83 3e de b7 bd bd 6e 29 7d be
       -0.546638 0.25770703 -0.092635855 -0.24722835
000260 87 8c 59 3d 19 07 c8 3e a1 f0 d4 3e d5 73 26 3e
       0.053112533 0.39067915 0.41589835 0.16255124
000270 8e 74 b9 be 44 72 47 be 72 24 52 be 70 84 f9 bb
       -0.36221737 -0.19477183 -0.20521715 -0.0076146647
000280 c0 3a 22 bf cb bd fd 3b fb c2 3b 3e ec e4 12 3e
       -0.63370895 0.0077435724 0.18336098 0.1434514
000290 5a 78 f8 bd de a5 c3 bd 4b dd a0 be bb f5 93 be
       -0.1213233 -0.09553121 -0.31418833 -0.28898415
0002a0 00 2a 7b 3e e0 c2 87 3d 56 4a a5 bb 9b 9d e9 3c
       0.2452774 0.06628966 -0.005044262 0.028517535
0002b0 17 81 77 3e 27 a0 e5 3d 67 b3 4c bd 9c a3 43 3e
       0.24170338 0.11212187 -0.04997578 0.19105381
0002c0 64 c4 d5 3c 88 89 18 be 8e 0e 89 be 52 8f 0c 3e
       0.026094623 -0.14896214 -0.26768917 0.13726547
0002d0 34 3a 4b be 38 79 b1 bd f0 d8 e3 be 4c 2f 97 bd
       -0.19846421 -0.08665699 -0.44501448 -0.07382068
0002e0 a7 c2 e5 be 2a 85 08 bd a5 3d 92 3d 3f 48 17 be
       -0.4487507 -0.03333012 0.07140664 -0.14773653
0002f0 c3 bc 13 be d5 3b 1f be 0f 68 41 be de 43 5a be
       -0.14427476 -0.15550168 -0.18887351 -0.21314952
000300 2f 1e d7 be e4 c9 8d bd 5d 48 8f bd b6 ea 85 3e
       -0.42015216 -0.06923273 -0.06996224 0.26155633
000310 e0 af 93 be a6 00 ca bb 4f 87 4e be 6e cd 2c bf
       -0.2884512 -0.006164628 -0.20168804 -0.6750096
000320 cd 27 03 3f 14 59 8a 3a d6 d1 c2 bd 4d d3 1c 3d
       0.51232606 0.0010555112 -0.09512679 0.03828745
000330 b0 a4 82 3e a0 4c f0 3d ac 56 3a 3c 31 d8 df 3e
       0.25516272 0.11733365 0.011373203 0.43719628
000340 24 d9 58 3d 89 a9 8b 3e 9e 8c 3a 3e 50 4d bd 3e
       0.052941456 0.27277783 0.18217704 0.36973047
000350 4c 54 0a bf 5b dd a1 be 88 fb 87 be dc 29 73 3e
       -0.54034877 -0.31614193 -0.2655909 0.23746437
000360 33 9f 2c 3e 86 fd 0d bc ad d8 74 3d eb 4f cf 3e
       0.16857605 -0.008666402 0.05977695 0.4049066
000370 c2 3a cf be f2 c2 94 be ed aa 47 be 77 72 1c be
       -0.40474516 -0.2905498 -0.19498797 -0.1527804
000380 64 39 a7 bd 5f 0e 21 3f e0 72 26 3f e8 75 3e 3e
       -0.08165243 0.62912554 0.65019035 0.18599665
000390 f2 32 51 3e aa 76 1e 3e 72 ad 94 3e 45 ac 38 be
       0.2042959 0.15474954 0.29038578 -0.18034466
0003a0 ed c1 04 be d0 81 01 3e c4 fb ee 3e 33 f6 7d 3e
       -0.12964602 0.12647176 0.46676457 0.24800949
0003b0 c9 61 b7 be 3a d0 e8 be 8c bd c0 be 5c 55 15 bf
       -0.35816792 -0.45471364 -0.37644613 -0.58333373
0003c0 3e ed 7d 3d 59 fa 74 3e f0 4f dd 3d 37 a9 df 3e
       0.06199383 0.23923625 0.108062625 0.43683788
0003d0 d8 6a 9a be 38 6d 19 bf aa 5f 4e bf 11 7d 7a 3d
       -0.3015964 -0.5993228 -0.8061472 0.06115443
0003e0 72 3a e4 3c 2e fa 1e bc 81 61 02 3d a0 eb 5b 3e
       0.0278599 -0.009703202 0.03183127 0.21476603
0003f0 ea b6 29 bf 8d 8d 4e be ee 67 8b bd 77 46 82 be
       -0.6629473 -0.20171185 -0.068069324 -0.25444385

embedding_item_mlp.weight f4 [3706, 8]
000000 c7 b3 89 bf 27 ac 80 bf 2a da e9 be 95 49 8a 3f
       -1.0757989 -1.0052537 -0.45674258 1.0803705
000010 e9 40 b9 3f 16 e9 78 3f fc 3f 73 bf 39 30 50 3e
       1.4472934 0.9723066 -0.9501951 0.20330895
000020 85 05 2e bf 8e 52 9f be ae 47 43 be c4 82 34 bd
       -0.6797717 -0.31117672 -0.19070312 -0.04407002
000030 45 c7 2a 3d 13 46 49 be a7 e7 2e be 44 94 b8 3e
       0.041693944 -0.19655637 -0.17080556 0.36050618
000040 fe b1 1a be e0 8e 0a bc 4f 3e b9 be 7d 0b 6e 3e
       -0.15106961 -0.008456916 -0.3618035 0.2324657
000050 5e 0c 78 3e 34 4a 9e 3e 50 95 49 be 03 e2 2e 3e
       0.24223468 0.30915987 -0.19685864 0.17078404
000060 e6 0a 18 bf 38 07 28 bf de dd 1d bf 5f 28 2b 3f
       -0.5939163 -0.65636015 -0.6166667 0.66858476
000070 1c 6c b0 3e b6 9f 89 3f f9 5f 2d bf 55 8a 36 3f
       0.3445748 1.0751865 -0.6772457 0.7130483
000080 04 c6 bd be ec 67 97 bf ca 6e 4d bf 8b 18 13 3f
       -0.37065136 -1.182859 -0.80247176 0.57459325
000090 2f b2 0f 3f 8b 28 13 3f ef dd d1 be 25 b0 5a 3f
       0.5613126 0.5748374 -0.40989634 0.85425025
0000a0 df d0 41 bf 51 d1 41 bf 9b af e5 be 3a 5e c6 3d
       -0.75709337 -0.75710016 -0.4486054 0.09685941
0000b0 9e 77 10 3f 3c 7e 3d 3f ef b9 9b be b4 3f da 3e
       0.5643252 0.74020743 -0.30415294 0.42626727
0000c0 ef 90 57 be ad f6 b4 bd 8f fa 8b bc 25 59 74 be
       -0.21051382 -0.08836112 -0.01708725 -0.23862131
0000d0 b3 8d 2a 3d e1 55 21 3e 3a 47 99 3d ce a0 96 3c
       0.04163904 0.15755416 0.074842885 0.018387225
0000e0 86 a1 a8 be 93 2a 23 bf 75 00 31 bc 13 ff c9 bd
       -0.32935733 -0.6373684 -0.010803332 -0.09863105
0000f0 44 f2 b1 3e 05 d2 cc 3e 54 d4 24 bd 83 c8 8d 3d
       0.34755147 0.40003982 -0.040241554 0.0692301
000100 8c 87 a9 bb ba ae 2d 3d 42 bf 35 be 98 d5 d1 bd
       -0.005173629 0.04240296 -0.1774874 -0.10245818
000110 09 f7 7e bd 6f 8e 0d be 4f dc 57 bc 4e 61 04 3e
       -0.06224731 -0.13823865 -0.013175084 0.12927744
000120 c8 f9 9e be 62 37 39 be fa 28 92 be 42 63 9d 3e
       -0.31049943 -0.18087533 -0.28546888 0.3073979
000130 f0 42 84 3e 67 5c d3 3e 7a da c4 be d8 af d3 3d
       0.2583232 0.41281435 -0.38447934 0.10336274
000140 ab 31 1e be de e8 1f be 8f 06 94 be b0 8e 14 3d
       -0.15448634 -0.15616176 -0.28911254 0.03626889
000150 3e a8 1b 3d 8b da 57 3d 61 d4 24 be b8 15 29 3e
       0.038002245 0.052698653 -0.16096641 0.16512191
000160 d3 f6 aa 3d c1 8b e8 3d 5f 53 66 bd 84 8e 5e 3d
       0.08347859 0.11354781 -0.056231853 0.054335132
000170 9f 7d 17 bd 6a 7a 05 be a1 c0 d4 3b f7 0f fc 3d
       -0.036985036 -0.13034979 0.0064926897 0.123077326
000180 1c 7e 83 3c ef e8 e0 3b e5 e0 e1 bd c3 9b c0 bd
       0.016051345 0.0068637053 -0.11029223 -0.09404709
000190 60 39 b2 be 78 8d 2e bc 6e 1a 1b 3d 71 c9 11 3c
       -0.348094 -0.010653846 0.037867002 0.008898125
0001a0 9d e5 6c 3e ae b8 de bd 58 4c 91 be 41 79 0e be
       0.23134466 -0.108750686 -0.28378558 -0.13913442
0001b0 65 8c 7c be d9 8f 87 3e 40 c8 bf 3d 03 39 53 3d
       -0.24662931 0.26476935 0.093643665 0.051568042
0001c0 61 9f 28 bf a6 3c b0 bd c2 58 ea be e3 a5 35 3e
       -0.6586819 -0.08605318 -0.45770842 0.17739062
0001d0 8a 7e 31 3d fe 9a 45 3d a3 20 d3 be 12 b9 b6 3e
       0.043333568 0.048243515 -0.41235837 0.35688072
0001e0 69 2d 47 bf 36 c5 61 be 2f 50 00 bf 35 14 6c 3e
       -0.77803665 -0.22047886 -0.5012235 0.23054583
0001f0 d8 39 07 3e be 7e d0 3d 7a c1 d2 be fe 1d 9b 3e
       0.1320566 0.10180424 -0.41163236 0.3029632
000200 d9 0f 20 3e 86 f8 3e bf 40 cc 0e be 8d 02 98 be
       0.15631045 -0.74597967 -0.13945103 -0.29689446
000210 ac a1 1f 3e 80 fb 5d 3e 4e 08 95 3e c7 19 88 3e
       0.15589017 0.21677971 0.29107898 0.26582167
000220 cb 4d c6 3c d2 be 25 3d ff 28 57 be 75 28 61 be
       0.024207016 0.040465184 -0.21011733 -0.2198809
000230 69 9a 57 3e 07 06 82 be 56 c3 6a 3e eb ae e5 3c
       0.21054997 -0.25395223 0.22926077 0.028037509
000240 9e 4a 63 be a4 2d 59 bd 14 0b de 3d 7a 1c 08 be
       -0.22196433 -0.053022042 0.10841957 -0.13292113
000250 28 ca 36 3e f5 d5 95 bc fa f6 eb 3d 6f 59 89 be
       0.17850554 -0.0182905 0.115217164 -0.26826045
000260 08 0d c6 bd 8d 10 49 be 8a 81 a7 be 1c 67 d1 ba
       -0.09670454 -0.1963522 -0.32716018 -0.0015976164
000270 41 f5 ba 3d 31 dc 5f 3e b6 71 07 be be 71 5c 3d
       0.0912881 0.2186134 -0.13226971 0.05381941
000280 b9 c6 ab be ce 5c bf 3d fe 50 0c be 93 1b bd 3e
       -0.3355005 0.09343873 -0.13702771 0.369351
000290 65 59 4a 3e c7 fe 9e 3e 04 c3 ef be aa c2 38 3d
       0.19760664 0.31053755 -0.46828473 0.04510752
0002a0 84 3a 91 3e 99 6e 1f bf 09 34 ca 3c d3 16 80 be
       0.28364956 -0.62278134 0.024683015 -0.25017413
0002b0 c7 4e bb 3e d9 11 99 3e 9e 27 b6 3e 32 f1 aa 3e
       0.3658354 0.2989643 0.355771 0.33387142
0002c0 cd 6a b5 be b7 0a 19 bf bf 35 1d bf 3e 96 26 3f
       -0.35433045 -0.59781975 -0.61410135 0.65073
0002d0 35 17 f3 3e 33 60 18 3f 96 9c 1e bf 9b 27 aa 3e
       0.47478643 0.5952179 -0.6195768 0.33233342
0002e0 90 d0 4f bf b2 7b 5c bf 6f cf 22 bf c3 8e 6b 3f
       -0.81177616 -0.86126244 -0.6359777 0.9201471
0002f0 9a 9a 82 3f fb fa 50 3f 5e ed 62 bf 05 7f bb 3d
       1.0203431 0.81632966 -0.88643444 0.091550864
000300 de f8 b0 bd 5f da 8d be 3d 74 00 3e e0 c2 cc 3d
       -0.08641218 -0.27705666 0.12544341 0.09998107
000310 63 60 04 3d 6e 59 bf 3e 70 01 a5 bd 84 a1 11 3e
       0.032318484 0.37372917 -0.08056915 0.1422177
000320 87 12 cd bd 1e ce 29 bd 21 0c a3 bd ba 0e 56 be
       -0.100132994 -0.041456334 -0.07961298 -0.20904055
000330 50 92 9a 3d c2 42 ce bd 66 63 23 3e 1f 42 13 3d
       0.07547438 -0.10071327 0.15955886 0.03595173
000340 c7 e3 12 bf c6 7b 70 bf fc 4c 2c bf 72 72 d2 3e
       -0.5737881 -0.93938863 -0.6730497 0.4110294
000350 a6 3d f3 3e e5 11 17 3f 0c 19 06 bf 7e a6 00 3f
       0.47507972 0.5901168 -0.5238197 0.50254047
000360 0d 6c 46 bf 08 4f e9 be 3d 4e c8 be 9e b8 1b 3f
       -0.7750862 -0.4556811 -0.3912219 0.6082858
000370 57 3e 46 3f 83 58 78 3f c7 79 26 bf 46 83 5f 3d
       0.77438873 0.9701006 -0.6502957 0.05456855
000380 77 fc 70 3e 2f 2d 9a be 97 c1 86 3e f8 cc 99 be
       0.23533808 -0.30112597 0.26319572 -0.3003919
000390 23 25 80 be e9 9b 15 bd 3e 7e dc 3e f4 48 fb bd
       -0.25028333 -0.03652564 0.43065065 -0.12269774
0003a0 bc 44 22 3e 8e ca 4c bf ff bd f5 3d f5 48 10 bd
       0.15846533 -0.79996574 0.119991295 -0.035225827
0003b0 b1 5e 11 3f e6 91 0b 3f 4d ca 24 3e dc a3 e4 3e
       0.5678511 0.545195 0.16092797 0.44656265
0003c0 c3 55 e5 bd 8c 5b 54 be 58 97 8a be 8d 2d 6e bc
       -0.111979984 -0.20738047 -0.2706859 -0.014537227
0003d0 40 c8 75 3e 76 3b 2f 3d ad 12 5b bd 55 1b 02 3b
       0.2400217 0.042781316 -0.053484607 0.0019852717
0003e0 95 20 07 be d6 52 15 bf a2 a5 41 3e 56 df c2 3e
       -0.13196023 -0.5832952 0.1891084 0.38061017
0003f0 5f e6 1e 3e d8 ba 65 3f 8d fd 3a be 1d 48 79 3c
       0.15517567 0.89738226 -0.18260784 0.015214947

embedding_user_mf.weight f4 [6040, 8]
000000 71 75 a5 3d 26 fc 39 3e 07 dc 8f be 37 a5 0b 3f
       0.08079041 0.18162593 -0.28097555 0.5454897
000010 0b 09 b7 3c e1 3c de be 28 ec 75 bb d8 ae 84 bf
       0.02234318 -0.43405822 -0.0037524793 -1.0365858
000020 0e 28 92 3b 01 70 d1 be 1b cf 18 bd e0 80 94 3f
       0.0044603413 -0.40905765 -0.037306886 1.160183
000030 8e 39 0b 3e dd b2 ba 3d 43 c0 9d 3e 33 37 da 3c
       0.13596174 0.09116147 0.30810747 0.02663765
000040 f8 5b bf 3e 5b a9 ed be d4 74 ad bd a5 42 a8 3d
       0.37374854 -0.4641827 -0.08469549 0.082158364
000050 17 cf 02 3d eb 2c 3b 3f 51 f8 a6 3e 9d 45 29 bf
       0.031935778 0.73115414 0.32611325 -0.66121846
000060 0c 6c 02 be 68 54 e5 bd 97 69 93 3e cc b8 26 3f
       -0.12736529 -0.1119774 0.28791496 0.6512573
000070 12 74 ab be 27 79 4c 3f 5a 08 e8 3e ca 0d a5 be
       -0.33486992 0.79872364 0.45318872 -0.32237083
000080 d4 7d 10 3c 70 27 cf be fa 7c a7 3c 8c f4 96 3e
       0.008819062 -0.40459776 0.020445336 0.2948345
000090 98 42 54 bf af 91 06 bf 3f 98 d5 be 6f 2d 0a 3d
       -0.82914114 -0.52566046 -0.41717717 0.033734735
0000a0 3b 49 9a 3e 1a 4e 25 3e 92 4a f0 be 90 6d 03 3f
       0.30133995 0.16143075 -0.46931893 0.51339054
0000b0 02 f7 23 3f 9a 9a 74 3b a0 62 bd 3e 80 dd 7f be
       0.6404878 0.0037323595 0.36989307 -0.2498684
0000c0 77 a7 23 3f a5 d2 00 bf 54 dd c0 3e dc 2b 17 3f
       0.63927406 -0.5032142 0.3766886 0.590513
0000d0 9a a5 cb be 20 e3 17 3f f3 ff 1e 3e 10 6d 8b be
       -0.3977478 0.5933094 0.15527324 -0.27231646
0000e0 e3 32 da 3e 28 7d 06 bf 78 27 7c 3e 7e 8a 3d 3f
       0.42616948 -0.52534723 0.24624431 0.7403945
0000f0 48 66 01 bf 6e bb 34 bf 51 74 18 be 47 af 94 bd
       -0.50546694 -0.70598495 -0.14888121 -0.07259994
000100 b7 9a 8c 3e c4 9b 72 bf d4 c7 77 3e 2b bf 2d 3f
       0.27461788 -0.9476893 0.24197322 0.67869824
000110 07 66 22 be bf 66 cd be 27 f9 94 be 79 12 16 bf
       -0.15859233 -0.40117452 -0.29096338 -0.5862194
000120 3c 46 79 3e 51 c4 6e 3e e5 78 3b bf 2f ea b9 3e
       0.24343199 0.23317076 -0.73231345 0.3631148
000130 52 14 0f 3e 3a 03 89 3e ec ef 91 3b 06 3a 1d bf
       0.13972595 0.26760274 0.0044536497 -0.6141666
000140 b2 09 8f bd 6f f2 22 bf 44 e7 b1 be 42 ec 53 be
       -0.06984271 -0.63651174 -0.34746754 -0.20695594
000150 b7 46 75 be ea c5 ce be e7 35 de 3a 23 a9 14 bf
       -0.23952757 -0.4038537 0.001695332 -0.5807058
000160 47 65 83 be c1 e2 c8 be 50 01 80 3e c2 c3 ce 3d
       -0.25663206 -0.392355 0.25001 0.100959316
000170 5a eb c2 bc 85 99 f4 3e 3a 0f 6e be ad 69 1a bf
       -0.023793865 0.47773376 -0.23247996 -0.603175
000180 a5 c6 f1 3e c0 bf af 3d 58 68 73 be bc c4 8e 3f
       0.47221866 0.08581495 -0.23770273 1.1153789
000190 e5 ce 31 be fb 87 01 3f 5d 56 5b 3c bc 70 57 3e
       -0.1736408 0.50598115 0.01338729 0.21039099
0001a0 80 3c 09 be 34 25 69 3c 4a 8b 9e 3b 8c 8f ea bd
       -0.13401985 0.014230061 0.004838382 -0.11453161
0001b0 3e b8 b3 be 51 7c 3f 3e e1 3c 6d 3e 82 e7 cf be
       -0.35101503 0.18699767 0.23167755 -0.40606314
0001c0 88 a1 2f 3f 61 4a 50 bf ac 39 a2 3e 66 b8 9b 3e
       0.6860585 -0.81363493 0.31684625 0.30414122
0001d0 ce 27 8a 3d 9c 93 74 be 0f 4e c0 3e 10 0a e1 be
       0.067458734 -0.23884434 0.37559554 -0.4395299
0001e0 7c 4e 18 3f 59 81 59 3e e6 9a 9a be 21 1f 9f bc
       0.5949476 0.21240748 -0.30196303 -0.019424023
0001f0 2c 88 76 3e 18 e8 a8 bd 20 a0 3e 3e fd 4a 37 3d
       0.24075383 -0.08247393 0.1861577 0.04474925
000200 52 4d ef 3d 9f 1b 87 bd 17 83 bf 3d 03 e3 75 3e
       0.116846696 -0.06597065 0.09351175 0.2401238
000210 68 fa 3a bf 87 f0 8d 3e ab f6 f4 bd d8 4c ee 3e
       -0.7303834 0.2772257 -0.11961111 0.46543002
000220 7b 8e e6 3e 4c 59 64 3d cb f6 5c be dd 9b 4c 3f
       0.4503058 0.055749223 -0.21578519 0.7992533
000230 51 be 8a be 85 14 89 3d c5 f0 29 be 4b 79 bd be
       -0.27098325 0.06693367 -0.16595753 -0.37006602
000240 e6 69 df 3e 21 69 bb 3d e6 12 2e 3e ea 5c 8f bd
       0.43635482 0.09150911 0.16999397 -0.07000144
000250 3f 82 7b be fd 49 1e 3f 67 3a ca 3d 6b eb 22 bf
       -0.24561404 0.6183165 0.098744206 -0.6364047
000260 b0 16 bb 3e 4e 08 36 bf c0 3d 68 3c 10 68 f5 3d
       0.36540747 -0.7110642 0.014174879 0.11982739
000270 f6 35 ab be c9 ea 91 3e cd d7 08 3c 39 f1 68 be
       -0.33439606 0.2849944 0.008352232 -0.22748269
000280 f7 63 24 3f 0c a2 47 3e 1f 79 b0 bd a5 c8 cb 3d
       0.64215034 0.1949541 -0.08616852 0.09950379
000290 58 34 56 be b2 2a 88 3e 22 1d 14 bf 61 e5 0b bf
       -0.20918405 0.26595074 -0.57856953 -0.5464688
0002a0 2f 8f fe 3e d7 77 09 bf 7a 66 85 be 3c 1a 21 be
       0.49718615 -0.53698486 -0.26054746 -0.15732664
0002b0 46 4c 0d bf 62 49 cd 3e 5f 14 02 3d 39 38 f3 be
       -0.5519451 0.4009505 0.03175771 -0.47503832
0002c0 df 1f ae bc d7 ad 0b be 28 42 88 be b0 95 e1 3d
       -0.021255432 -0.13640533 -0.26612973 0.11014879
0002d0 e8 9a 71 bf 33 86 e2 3e c8 02 fc bd 64 2d 51 3e
       -0.94376993 0.4424301 -0.12305218 0.20427471
0002e0 54 d0 a5 bd e1 58 a9 be e1 61 2e bf 2a b2 ab 3e
       -0.08096376 -0.33075622 -0.681181 0.33534366
0002f0 a2 76 63 be 76 6b 19 be dd 14 b2 3e aa a7 96 be
       -0.22213224 -0.149824 0.34781542 -0.29424793
000300 4e ed 26 3f 2c ba 8c be 2f 4b da bd b2 b9 5a 3e
       0.6520585 -0.27485788 -0.106588714 0.213599
000310 f0 91 ac be cf 22 fc 3e 30 c2 e3 be 7e b3 82 be
       -0.3370509 0.49245307 -0.4448409 -0.25527567
000320 b5 6b ff 3e 58 5c 95 be ad 1e 17 bf fa 69 ac 3d
       0.4988686 -0.29172015 -0.5903118 0.08418651
000330 e9 72 ff 3d 7e d3 42 be 1c 48 44 3f ea 9b 35 be
       0.12473089 -0.1902599 0.7667253 -0.17735258
000340 3e ca d1 be d2 c2 10 3e c1 ac 50 be 7c 12 ba 3e
       -0.4097461 0.14136818 -0.203784 0.36342227
000350 c3 b9 19 be 29 3f c1 3e b7 45 2b be 74 2b f2 be
       -0.15012269 0.377435 -0.16725813 -0.47298777
000360 91 d6 83 be 5f d8 02 3e a0 91 b2 be b8 cf ba 3e
       -0.2574964 0.12777852 -0.34876728 0.36486602
000370 65 2e ec be 25 12 0e be 02 5d b8 3c 6f eb b5 be
       -0.46129146 -0.13874109 0.022505287 -0.35531184
000380 1b 8c 16 3d 86 9b 48 be 5e db e1 3e 3d 0c 11 3f
       0.03675471 -0.19590577 0.44112676 0.566593
000390 8e f0 87 be f5 92 80 3f d7 20 de 3e a3 df ab 3e
       -0.26550716 1.0044848 0.4338443 0.3356906
0003a0 e3 34 20 be 01 78 81 be f6 a8 7b 3e 5d e5 9c 3e
       -0.15645175 -0.25286868 0.24576172 0.3064374
0003b0 9a 15 b1 be e6 05 ea be 46 a5 59 be e0 23 e2 be
       -0.34586793 -0.45707625 -0.21254453 -0.44167995
0003c0 3e d8 28 be fc 62 aa bd 9f 62 7e bf c9 fe b4 be
       -0.1648874 -0.08319661 -0.99369234 -0.35350636
0003d0 b2 9c 20 3f 64 85 14 3f c1 67 80 3e bc 68 30 be
       0.627391 0.5801604 0.25079158 -0.17227453
0003e0 b2 0f 92 bd b7 50 9f be 44 77 fd 3d 44 6e a8 3e
       -0.071319 -0.31116268 0.12376264 0.32896626
0003f0 17 a8 8a be ec 75 bb be 8d 72 05 3d 89 d3 ce bd
       -0.27081367 -0.36613405 0.032579947 -0.10098941

embedding_item_mf.weight f4 [3706, 8]
000000 21 a1 eb 3e 55 04 87 bb 7e fb b5 bd 37 5b a5 3e
       0.4602137 -0.0041203895 -0.08885859 0.32296154
000010 9b 1e 3d 3e 1d a9 83 3d 31 88 a0 3e 78 fd c4 3e
       0.18468706 0.0642874 0.31353906 0.3847463
000020 15 8f 59 be 71 3a 03 bf fa cc be 3d ca 0f f5 3d
       -0.21245988 -0.5126105 0.0931644 0.11965902
000030 fe 68 27 3e 82 2d 10 be 3d 02 2a bf 6b 2a 00 3f
       0.16348645 -0.1407986 -0.66409665 0.50064725
000040 f3 40 43 3e 80 c6 5f bf d2 70 9a 3e a1 82 06 3f
       0.19067745 -0.8741226 0.301642 0.52543074
000050 ba 5a d1 be c4 33 95 be 61 58 13 3e e8 f3 a1 3e
       -0.4088953 -0.29141057 0.14389183 0.31631398
000060 22 9b 37 3d 51 1a 8a 3e 57 a2 7b be 0e a1 11 bc
       0.04482568 0.26973203 -0.24573646 -0.008888496
000070 23 cc ba be f9 e8 9b be 13 81 8f 3d d5 15 41 3e
       -0.3648387 -0.30451182 0.07007041 0.18855985
000080 82 ca 8c be 5d 32 c8 3d 66 40 69 3e 12 ba ec 3c
       -0.2749825 0.09775231 0.22778472 0.028897319
000090 81 9a 74 bd 05 e0 75 3d 47 b1 45 be dc 25 11 3f
       -0.05971766 0.060028095 -0.19305907 0.56698394
0000a0 50 d2 c9 bc eb 6e 85 3e a8 9f 1c 3f e1 f4 74 3e
       -0.024636418 0.26061186 0.61181116 0.23921539
0000b0 f5 bb b7 3e 95 5d b6 3e a9 2d 04 3e cf 5b b8 3e
       0.35885587 0.35618272 0.12908043 0.36007544
0000c0 ca 89 32 3e b8 0b 9f be ea 69 7b be 3c 1c 3f 3f
       0.17435375 -0.31063628 -0.24552122 0.7465246
0000d0 8b 8a 96 be a3 9f 14 3f 5f dc 8d 3e 5a 91 51 3e
       -0.29402575 0.58056086 0.27707192 0.20465603
0000e0 59 08 88 3e 72 8f fd 3d a5 05 c0 3e 93 17 39 be
       0.2656887 0.12380876 0.37504306 -0.18075399
0000f0 65 ab a0 3e 1d 33 7c 3e 21 55 a7 3e 57 0a 50 3f
       0.31380764 0.24628873 0.32682136 0.8126578
000100 24 1e cc bd ed de 7a bf 9e 30 8f 3e b4 cd e1 3e
       -0.09966686 -0.9799641 0.2796678 0.44102252
000110 82 ed a2 3d b0 e0 7d 3d 4c a7 a0 be a5 2e 9d 3f
       0.07955457 0.061981857 -0.31377637 1.227986
000120 06 4c 2a 3e 55 fb b2 be df 1c 6b 3e c0 aa 3a 3f
       0.16630563 -0.34957376 0.22960232 0.72916794
000130 5e 41 7c 3e 8f 66 63 3e b6 27 4a 3e 98 9d 7b 3f
       0.2463431 0.22207092 0.19741711 0.98287344
000140 9d dd d4 be 25 b2 0a bf 58 61 7f 3e 80 11 25 3f
       -0.41575328 -0.54178077 0.24939477 0.6447983
000150 d7 fb 30 3e 41 39 79 be 20 0e aa be 6a 6a 81 3f
       0.1728357 -0.24338247 -0.33213902 1.01106
000160 97 5c 93 3e 49 dd 8d bf 0b f1 4a 3e c1 73 99 3e
       0.28781578 -1.1083156 0.19818513 0.29971126
000170 a3 c8 21 bf 21 ff c5 be 22 fc 79 be 54 33 1b 3d
       -0.6319677 -0.3867121 -0.24412587 0.037890747
000180 f4 0d 91 3e 5a 5e 38 bf bc 5c a9 bd 87 fa 02 3f
       0.28330958 -0.7201897 -0.08269641 0.51163524
000190 79 89 c9 be af 53 60 be 74 8d 95 3e 9b 02 57 3f
       -0.39362696 -0.21906923 0.29209483 0.8398835
0001a0 ac bd 05 3e a1 c7 02 3f 59 e2 83 3f ff 44 22 be
       0.13060635 0.5108586 1.0303451 -0.15846632
0001b0 47 2b 78 3e 67 75 91 3e 19 0f 19 3f e0 33 83 3f
       0.24235259 0.28409883 0.5978866 1.0250206
0001c0 e8 f2 32 3d 66 f7 0a bf 84 02 92 3e e1 32 a5 3e
       0.043688685 -0.5428375 0.28517544 0.3226538
0001d0 05 bd 34 be a3 04 62 bd b9 c4 2a 3e 6d 83 13 3f
       -0.1765023 -0.055180203 0.16676606 0.57622415
0001e0 6e 69 89 3e 5a eb a3 3e dd be 34 3f b1 51 a4 be
       0.2683825 0.32015496 0.70603734 -0.32093576
0001f0 7e f8 4e 3e 0e f4 ad 3e 46 72 cb 3e 0c d6 38 3f
       0.2021198 0.3397526 0.3973562 0.7220161
000200 94 bc 9c be 99 8d e9 be 98 d2 6a bd 69 ea 7e 3e
       -0.30612624 -0.45615843 -0.057329744 0.24894108
000210 5e 36 d3 bd c8 6a 07 be 9d 18 e0 be bc cd 00 3f
       -0.10313104 -0.13224328 -0.43768778 0.50313926
000220 04 53 b7 bd cd 17 54 bf e7 6c 2b 3e 0b b5 d2 3e
       -0.08951381 -0.8284882 0.16740762 0.4115375
000230 1f cd 20 bd 39 a4 a8 3c 5b d0 62 be c7 82 9b 3f
       -0.03925812 0.02058612 -0.22149794 1.2149285
000240 ad 90 8d 3d d8 19 7a 3c 14 26 a1 3d c0 72 f6 3e
       0.0691236 0.015264951 0.07868591 0.48134422
000250 23 f6 3c 3e 98 44 17 bf 00 e5 e8 3e 4c 9c de 3e
       0.18453269 -0.5908904 0.45487213 0.4347862
000260 13 24 79 bd 67 26 44 ba 11 ff 55 3f 76 c1 d5 3c
       -0.06082542 -0.0007482529 0.83592325 0.026093226
000270 bf 31 bb 3e f3 68 82 3e f0 ab e3 3e 19 a5 1f 3f
       0.3656139 0.25470695 0.44467115 0.62361294
000280 89 a0 2c bd b0 53 06 3f 23 f8 0e 3f c2 07 19 3d
       -0.042145286 0.52471447 0.55847377 0.037360914
000290 5e 7e c0 bd 63 b5 29 be 73 5d b7 bd 20 53 0a 3f
       -0.09399103 -0.165731 -0.08953371 0.5403309
0002a0 5e 4e 89 3e 7b 30 be bd 9b 2f 62 3d bf 0f 83 3e
       0.26817602 -0.09286591 0.05522118 0.2559795
0002b0 38 77 89 3e 3f 7b 08 3d c3 c7 55 bf dc 29 cb 3e
       0.2684877 0.03332066 -0.8350794 0.39680374
0002c0 6c 84 27 bc f6 e5 95 3d 11 5e 52 3f 36 95 39 3e
       -0.010224443 0.07319252 0.82174784 0.18123326
0002d0 13 c3 c7 3e 95 11 fc 3e 85 d1 d5 3e 00 8c f3 3e
       0.39016017 0.49232164 0.41761413 0.4756775
0002e0 75 04 1f 3e cb 29 85 3e 6f 4c 23 be da 8b 14 3f
       0.15529044 0.26008448 -0.15947126 0.58025897
0002f0 04 f0 8c 3e e0 9e 0f be f3 a2 7b 3e e4 8d 0e 3f
       0.27526867 -0.1402545 0.24573879 0.5568526
000300 b5 46 9e be 38 1b 81 3d 03 83 fc bc 4b 6c 10 be
       -0.3091332 0.0630402 -0.03082419 -0.1410381
000310 ec ba f7 be f7 9d d4 be ed 0e 8d 3e 64 b6 72 be
       -0.48384798 -0.41526768 0.2755045 -0.23702389
000320 96 8e 17 bf 05 2e 3d bf 08 f5 33 3e af 64 c5 3e
       -0.59201944 -0.73898345 0.17573941 0.38553378
000330 28 12 b1 be d3 9d e7 be c4 54 eb be 9e 96 09 3f
       -0.34584165 -0.45237598 -0.4596311 0.5374545
000340 b9 04 fa bd f4 9a a8 be 64 cc f2 3e a4 f9 e6 3e
       -0.12207932 -0.3293072 0.47421563 0.45112336
000350 62 51 1a 3f c3 03 64 3e 40 87 91 3e 0d ee 07 3f
       0.6028043 0.2226706 0.284235 0.5309761
000360 84 05 63 be 2f cd bd 3d 72 11 49 3d 57 4f b2 3e
       -0.22170073 0.09267651 0.049088903 0.34826156
000370 9d 70 0b bd 78 0f df be e2 d4 a9 3e e6 07 17 3e
       -0.034042943 -0.4356649 0.3317023 0.14749107
000380 35 80 e2 3e 1d 49 65 be ce 4f 09 bf 65 be 90 3d
       0.4423844 -0.22391172 -0.536374 0.07067565
000390 82 ba 20 be 58 4d 7b bf d6 3b 04 bf 4f 20 4e be
       -0.15696147 -0.9816489 -0.516538 -0.20129512
0003a0 f7 4f 6d 3e 32 0b f6 3b 56 58 ab 3e f1 a0 3f 3e
       0.23175035 0.007508659 0.33465832 0.18713738
0003b0 a3 a5 6a 3e ee 61 71 3c e8 88 62 bf 0e 6d 83 3e
       0.22914748 0.014732821 -0.8849015 0.2566914
0003c0 e5 4e cd be d5 12 6d be 67 7f 0c 3e 81 f7 96 3e
       -0.40099254 -0.23151715 0.13720475 0.29485705
0003d0 05 58 00 3d cc 68 ec bd b2 a4 b4 be 02 cd 16 3f
       0.031333942 -0.11543426 -0.35281903 0.5890657
0003e0 19 de 44 bc 4a 0d 35 3e 51 5a 91 be e8 56 c5 be
       -0.012015843 0.1768085 -0.28389218 -0.38542867
0003f0 f3 37 f7 bd 13 5c 1a bf e8 d1 27 3c ec d3 2a 3c
       -0.12071218 -0.60296744 0.010242917 0.010426503

fc_layers.0.weight f4 [64, 16]
000000 b2 e9 a4 be 00 40 d2 be 3b 2f 22 be 7f 78 cb 3e
       -0.32209545 -0.41064453 -0.1583833 0.3974037
000010 0b 14 62 3d e1 bf 0a bf 78 60 19 bf 82 14 95 be
       0.055194896 -0.54199034 -0.59912825 -0.2911721
000020 06 07 bc bd b7 d8 f6 bd 8b 6e 86 3e 10 61 76 be
       -0.09181027 -0.12053054 0.26256213 -0.24060464
000030 82 73 11 bf 50 c4 cd be 75 bb 57 3e 21 5f 61 3e
       -0.56816876 -0.40188837 0.21067603 0.22008945
000040 c4 e4 50 bf 41 ef 77 3e 96 fc b1 bb 46 20 c0 be
       -0.8159907 0.24212362 -0.005431722 -0.37524623
000050 57 50 91 be 77 fd 95 3e 1f 52 4b bd 6d 8a 47 be
       -0.28381607 0.2929494 -0.049638864 -0.19486399
000060 11 40 03 bf b1 b8 ee 3d 50 12 b4 3e 07 5c 40 be
       -0.5126963 0.11656321 0.3517022 -0.18785106
000070 c5 b6 c2 3e cc cf 93 3d 26 58 08 3e bd 3d 40 bf
       0.38030067 0.072173685 0.13314876 -0.75094205
000080 50 ef b7 3e 87 cf 40 3e 86 c9 3f 3e c0 04 69 3e
       0.35924768 0.18829165 0.18729219 0.22755718
000090 a7 68 c1 3e 04 c9 9c be 98 dc f2 3d ba 38 10 3f
       0.37775156 -0.30622113 0.11858481 0.5633656
0000a0 71 b1 08 3f b0 03 b6 3d ab 1c a2 3c 1c d3 5d be
       0.53395754 0.08887422 0.01978906 -0.21662563
0000b0 96 08 51 3f ab 40 b3 3e 8e ad 6e 3e 4b a2 ca be
       0.81653726 0.35010275 0.23308393 -0.39576945
0000c0 11 db 2c 3f af 88 0f 3e 5b 97 a7 bc 25 7f 49 3e
       0.6752177 0.14016984 -0.020457914 0.19677408
0000d0 45 07 8a bf c5 c4 80 be a8 02 8f be e1 8e 42 bc
       -1.0783468 -0.25150123 -0.27931714 -0.011874885
0000e0 be 3f 46 3e 99 d2 b8 3d 45 6d 20 3f 1d c5 ed 3d
       0.19360253 0.09024543 0.6266673 0.11609862
0000f0 0b 75 a9 be a9 58 51 3e 29 6b 18 be f6 bd f3 be
       -0.3309711 0.20443977 -0.14884628 -0.47605866
000100 fa a1 8e 3e 40 7d f2 3d cc bc 2f 3e 05 30 49 3d
       0.27857953 0.11840296 0.17161864 0.04911806
000110 82 80 c4 3e ad a5 cd be f2 29 74 3b 9d 9b e2 3d
       0.38379294 -0.40165463 0.0037256447 0.11064837
000120 6a 9e 0c 3f d9 52 2e bd 9b b6 e0 bd 5b b1 f2 bd
       0.5492922 -0.04255948 -0.10972329 -0.11850234
000130 52 59 41 3e fb 1a 0a 3e 50 a1 2e 3e 81 0c 9d 3d
       0.18881729 0.13486855 0.17053723 0.076684006
000140 89 4a 56 3e c9 d1 01 3e c0 a2 42 3e bf f3 e4 3e
       0.2092687 0.12677683 0.19007397 0.44717214
000150 5c f8 40 bf ff f8 81 be f8 3d 31 3c c7 ad 68 be
       -0.75378966 -0.2538528 0.010817997 -0.22722541
000160 98 2f 2c 3e a7 b2 12 be ff 23 ed bb 05 55 9c bc
       0.1681503 -0.14325963 -0.007236957 -0.01908351
000170 fb a1 e3 be 56 6e 8d be 4c f9 a8 be e5 73 0f bf
       -0.4445952 -0.27623242 -0.33002698 -0.56036216
000180 2a c8 96 3e bf 5e cc bd 96 d4 a4 be d4 33 f2 3e
       0.29449588 -0.09979009 -0.3219344 0.47305167
000190 ae a3 1d 3e f7 63 90 be a3 22 26 3e 77 b0 ff be
       0.1539447 -0.28201267 0.1622415 -0.4993932
0001a0 4d a0 10 bf 04 20 94 3e d5 14 0d bd ce d4 36 bd
       -0.564946 0.28930676 -0.034443695 -0.04463654
0001b0 db c8 66 be 62 ff a6 bd b5 7d 1a be 0b 39 53 3e
       -0.22537558 -0.08154179 -0.15087016 0.20627229
0001c0 42 83 ec 06 53 ac 47 07 be 7e cf 07 6d 97 85 81
       8.89662e-35 1.5021738e-34 3.122039e-34 -4.907377e-38
0001d0 96 1d 02 07 29 a8 85 01 f5 83 9e 04 11 c5 64 05
       9.788808e-35 4.909778e-38 3.7266805e-36 1.0756704e-35
0001e0 37 d3 2a 8c 2e 2a 06 08 79 43 94 8b 9b 54 58 84
       -1.3159884e-31 4.037374e-34 -5.710905e-32 -2.5429527e-36
0001f0 ee 60 0e 89 df ec 7c 84 61 85 ab 85 91 bd 9d 0c
       -1.7138204e-33 -2.9731224e-36 -1.6129758e-35 2.4303771e-31
000200 74 27 02 3d ea 72 43 bc 56 87 19 3e 74 3c 90 bc
       0.031775907 -0.011929253 0.14993033 -0.017606951
000210 1a 93 d9 3d 05 56 15 bc 70 9d 6d 3d a1 2c 0c bd
       0.106237605 -0.009114747 0.058011472 -0.03422225
000220 b9 d2 77 bd cf fb 0f bd 1f 29 86 3d 84 3b 5b bd
       -0.060503695 -0.035152253 0.06550812 -0.053523555
000230 e2 d3 83 3d 0e 2f 9a bd a1 37 1f 3d e1 44 86 3d
       0.06436898 -0.07528506 0.03887141 0.06556106
000240 1d 42 ff be bc 02 36 3e 87 05 cb 3e a3 b2 84 bd
       -0.49855128 0.1777448 0.39652655 -0.06479385
000250 9e 65 03 bf c0 75 8e 3e fb 3e 9f be 1a 8d 33 bf
       -0.5132693 0.2782421 -0.31102738 -0.7013718
000260 bc 61 88 be e5 ff ff 3e e4 c3 a8 3e e9 05 df bd
       -0.26637065 0.4999992 0.32961953 -0.10889799
000270 5c 51 36 be 39 03 af 3d 9e 40 09 be fd bc 64 bf
       -0.17804474 0.085455365 -0.13403556 -0.89350873
000280 6f 8f 2f 3f b3 b6 0f 3e 63 15 c2 3d 1a 49 0a be
       0.6857824 0.14034538 0.094767354 -0.13504449
000290 65 8b 5f bf 3d b9 f6 be 68 fd 1f bf 23 b5 17 3e
       -0.87322074 -0.481882 -0.6249604 0.14815192
0002a0 f9 ca b8 3e 69 a6 51 3e 18 98 18 3f 75 c8 c3 3e
       0.36092356 0.20473637 0.59607077 0.38238874
0002b0 7e 6d 4e 3c 3e 9d bc 3e b7 a2 a8 bd d1 21 05 bf
       0.012599347 0.36838716 -0.082341604 -0.52004725
0002c0 fe 10 97 bc 2a 93 27 3e 2d 08 eb 3e 6e df 34 3e
       -0.01844072 0.16364732 0.45904675 0.17663357
0002d0 58 51 43 3e 43 07 c4 be 56 83 81 3e b1 c1 df bd
       0.19073999 -0.3828679 0.25295514 -0.109256156
0002e0 db 9b 52 3d 9b 24 10 3f b9 02 50 3d 1e 89 40 be
       0.051418167 0.56305856 0.050783847 -0.18802306
0002f0 a6 c5 78 3d 58 30 11 be 16 e6 70 3d 8f 98 8b 3e
       0.060735367 -0.14178598 0.058813177 0.2726483
000300 d7 ef c2 be af 82 e0 ba dd 16 8b 3e 39 8f 24 3f
       -0.38073608 -0.001712879 0.2716588 0.6428104
000310 cc 13 16 3e 56 ea a7 be 4d c3 62 be 28 ed ee be
       0.1465599 -0.32795972 -0.22144814 -0.4666531
000320 04 86 9a be 1a cf a5 3e 83 2a a7 3d 00 ef 35 be
       -0.3018037 0.32384568 0.08162405 -0.17766953
000330 97 30 d3 be 5f 12 ee be ce e9 5f 3d 31 a0 ae 3d
       -0.4124801 -0.4649839 0.054666333 0.08526648
000340 01 f0 48 be 19 94 a8 be 9a 89 06 3f b3 0c 34 be
       -0.19622804 -0.3292549 0.52553713 -0.1758297
000350 6b 01 f0 3d 2a 90 af be 95 7b a6 3e 47 01 1e 3e
       0.117190205 -0.34289676 0.3251616 0.15430175
000360 a0 ea 62 3e 88 c6 ed 3e 77 82 b0 be fc 11 12 be
       0.22159815 0.4644053 -0.34474537 -0.14264673
000370 d9 16 28 3e a4 d9 a0 3e 03 11 f4 3c 93 d9 0a 3e
       0.16414966 0.31416047 0.029793268 0.1355956
000380 ed a9 3e bf 75 1d 43 3e fd 9d 80 3e 02 62 d2 be
       -0.74478036 0.19054206 0.25120535 -0.410904
000390 3c 01 0f bf e7 bd 73 3e ae 51 23 be 7a 9f 9d be
       -0.5586126 0.23802911 -0.15949127 -0.30785733
0003a0 64 0b fd be b2 80 dc 3e 3f a5 52 3e b4 42 38 bd
       -0.49422753 0.43066937 0.20570849 -0.044985488
0003b0 d0 01 2e 3e 79 c8 a3 3d a8 9a c6 bd 80 7f 8c bf
       0.16992879 0.079972215 -0.09697467 -1.097641
0003c0 93 a0 8b 3b ad 17 20 3d 54 fa 78 3d 6e da c7 3e
       0.0042610853 0.03908508 0.060785607 0.39033836
0003d0 38 b9 17 bf 18 b8 3a 3e 8c 1b c2 bd 57 ad 20 bf
       -0.59266996 0.18234289 -0.094779104 -0.62764496
0003e0 39 5c ac be d2 fd 32 3e 57 8b f3 3d 88 c1 9c be
       -0.3366411 0.17479637 0.11891811 -0.30616403
0003f0 c7 52 96 bd 27 ce 9e bd cf 2b 99 bd 77 8b 51 bf
       -0.07340007 -0.07754164 -0.07479059 -0.8185343

fc_layers.0.bias f4 [64]
000000 f1 35 4e 3e 3f e0 e2 3d ab b5 37 3e 21 f3 0c bf
       0.20137765 0.11077928 0.17940395 -0.55058485
000010 25 1f a7 3e d7 56 ea be 9b 1d 78 be f0 49 40 95
       0.3264095 -0.4576938 -0.24230044 -3.8832418e-26
000020 2b 73 15 be 8d 53 ad bd 06 87 15 bf fe 37 a1 3e
       -0.14594714 -0.08463202 -0.58409154 0.3148803
000030 95 d6 7b bc 30 c4 0d be 9c 61 02 3e e2 91 71 be
       -0.015370985 -0.13844371 0.12732548 -0.23590806
000040 40 1c 38 b4 a6 29 a4 3e 37 6b 3b be b5 c0 92 be
       -1.7146613e-07 0.32063025 -0.18302618 -0.2866265
000050 6a ef 94 bd 5c 8d 3b be db d9 41 3e 14 a1 c3 3e
       -0.07272227 -0.18315643 0.18930762 0.3820883
000060 4d ee de 94 77 c4 dc 3e 80 37 b9 3e 06 50 e6 3e
       -2.2510265e-26 0.4311864 0.36175156 0.44982928
000070 1b f9 20 be ca 6b 4f be 62 fe e6 3e e0 38 0f bf
       -0.15720026 -0.20255962 0.45115954 -0.5594616
000080 9f e1 dd 8b b5 64 e6 3e fb ac b5 91 2f 81 e1 3e
       -8.546558e-32 0.44998708 -2.8663372e-28 0.44043872
000090 45 b6 f1 3d 6e 82 bc bd 9b b4 b9 bd 86 90 a8 be
       0.11802343 -0.09204565 -0.09067651 -0.32922763
0000a0 2f fc 2c bc 85 ad e9 3e d5 7f 90 be 11 7c e3 3e
       -0.010558172 0.45640197 -0.28222528 0.44430593
0000b0 b1 be da 3e 0c d1 e2 3e 5f 4e 00 be 16 76 9e bd
       0.4272361 0.44300115 -0.12529896 -0.07737367
0000c0 b7 e3 9c be a4 f0 26 be c9 3b 5c 84 24 d1 e0 be
       -0.30642483 -0.16302735 -2.5888328e-36 -0.43909562
0000d0 ec b0 c9 be e2 76 ac be 35 9e 31 be b1 90 87 bd
       -0.39392793 -0.3368445 -0.17345507 -0.066193946
0000e0 0c de bd 3e 69 b5 c2 be 84 e6 6b be d4 35 aa be
       0.3708347 -0.3802903 -0.23037153 -0.33244193
0000f0 70 ff 40 bd ba cc e7 3e c0 99 c0 be 0c be 24 3e
       -0.047118604 0.4527338 -0.37617302 0.16088122

fc_layers.1.weight f4 [32, 64]
000000 7b a3 92 3e e6 96 5c 3e 94 dc ef 3b 0f 49 0d 3f
       0.2864035 0.21541938 0.007319996 0.55189604
000010 85 35 b3 bc 5e 1f 09 3e 4a 34 f6 3e c4 5f 2c 0f
       -0.021876106 0.13390872 0.48086768 8.4986985e-30
000020 44 8a 2f bd 84 37 20 3e e3 e2 4c 3f bd 58 d9 3d
       -0.04285647 0.15646178 0.800337 0.106126286
000030 af b0 03 3e 4d 6c fd 3e ac 36 1c 3e 0a 88 8d 3d
       0.12860368 0.4949669 0.1525523 0.06910713
000040 27 f2 d5 a3 09 c4 74 3e 1f 44 b6 bd 0d 10 0a 3f
       -2.3196062e-17 0.23902906 -0.08899712 0.5393074
000050 fc 89 31 3c 03 23 aa 3c ca 08 3f 3e 6e 53 45 3e
       0.010836121 0.020768648 0.18655697 0.19270107
000060 36 35 1f 01 6e 5b eb 3d 8c 0d 7e 3e ab b3 d0 3d
       2.9241865e-38 0.11492048 0.24809855 0.10190519
000070 75 cb 8d bd 7d 29 07 bf 91 15 c3 3d f3 2a bc 3e
       -0.06923572 -0.5279768 0.09525598 0.36751518
000080 eb d6 85 81 b6 dd 0e 3e bb 87 5e 01 4c e8 8e 3d
       -4.9164876e-38 0.13951764 4.0872342e-38 0.06977901
000090 9d 55 46 3e 7c 25 88 3b 00 e3 cf be 1f f6 05 bf
       0.19368596 0.004154859 -0.40602875 -0.52328676
0000a0 68 70 ce b8 d1 45 f3 3d b0 76 37 bf 4c 1f e2 3d
       -9.843783e-05 0.11878551 -0.7166548 0.11041126
0000b0 f4 82 94 3d cf 14 e6 3d 38 53 db be de da 5a 3b
       0.0725154 0.11234438 -0.42836928 0.0033394615
0000c0 9f a8 f5 be 6d ad 6c bc d4 d1 85 81 1a eb 41 bf
       -0.4798021 -0.014445645 -4.915757e-38 -0.7574936
0000d0 78 ac 3a bf 28 cc 39 bf 3e 04 de 3d 6e f4 b5 ba
       -0.72919416 -0.7257714 0.10840653 -0.001388205
0000e0 c2 67 1d 3e c9 f1 0d bf 50 97 35 3f 1e a5 55 bf
       0.15371612 -0.5544706 0.7093401 -0.83455074
0000f0 c6 f5 2f 3f cd cd 0e 3e c4 f3 e4 be 68 49 bc 3e
       0.68734396 0.13945694 -0.44717228 0.36774755
000100 bc bf 9b 3e be 68 64 3e df 02 4f 3c 70 03 12 3f
       0.3041972 0.22305581 0.012634962 0.57036495
000110 e5 0b 04 3c 47 3e 2c 3e 60 90 10 3f 06 24 7a 0f
       0.0080594765 0.16820632 0.564703 1.23328895e-29
000120 e8 d4 26 bd 4c 90 60 3e f7 40 52 3f 99 a2 13 3e
       -0.040730387 0.21930045 0.8213038 0.14417495
000130 7b a7 33 3e 65 86 06 3f 7a 35 26 3e d0 41 cf 3d
       0.17544357 0.5254882 0.16231337 0.101199746
000140 5a b7 49 a4 50 82 7d 3e d7 1c 28 be 45 3b 1c 3f
       -4.3740232e-17 0.24756742 -0.16417252 0.6102794
000150 06 3d 1c 3c 39 96 8c 3c f9 ea 58 3e 66 64 0f 3e
       0.0095360335 0.017161475 0.21183385 0.14003143
000160 06 2d 46 03 c0 5d 01 3e ff 3d 8a 3e b4 ab c8 3d
       5.8238655e-37 0.12633419 0.27000424 0.09798375
000170 f3 36 a2 bd 5b 2b 10 bf 93 cf a0 3d 88 35 c7 3e
       -0.07920637 -0.56316155 0.07852092 0.3890803
000180 e7 bf 85 81 4b 03 f3 3d c3 9a 74 00 02 0a 93 3d
       -4.913185e-38 0.118658625 1.0708436e-38 0.07179643
000190 9e f6 4c 3e ec 28 57 bb 34 06 07 bf 2b da 09 bf
       0.20015952 -0.0032830788 -0.5274384 -0.5384852
0001a0 a7 17 f2 b8 11 33 ef 3d bb 84 34 bf e0 27 02 3e
       -0.00011543865 0.11679662 -0.7051503 0.12710524
0001b0 e4 93 db 3d 4d 4b d8 3d b1 41 d5 be b2 eb 65 ba
       0.10721567 0.105612375 -0.4165168 -0.0008770778
0001c0 0c 70 f7 be 61 93 18 bc d3 ce 85 81 1a b8 4c bf
       -0.48327672 -0.009312482 -4.915326e-38 -0.79968417
0001d0 f6 85 4f bf a5 04 41 bf d3 36 12 3e a6 78 e8 3a
       -0.81063783 -0.7539771 0.14278726 0.0017736151
0001e0 b2 fd 40 3e 96 d3 08 bf 1d 94 3b 3f 1e b2 5c bf
       0.18846777 -0.53447855 0.7327288 -0.86209285
0001f0 7b be 46 3f e8 2c 1f 3e f7 ad ef be f9 33 ad 3e
       0.776344 0.15544474 -0.46812412 0.33828714
000200 9b 99 e2 85 8e 59 c5 85 19 89 8d 86 28 7a d5 85
       -2.1309364e-35 -1.8558688e-35 -5.323975e-35 -2.0075297e-35
000210 70 70 96 86 d2 01 41 85 07 9d 84 04 e8 ac 85 01
       -5.658894e-35 -9.075151e-36 3.1177258e-36 4.910459e-38
000220 98 59 84 82 10 5e 55 86 87 1e 10 86 08 f4 6a 86
       -1.944708e-37 -4.0129954e-35 -2.7105818e-35 -4.4189794e-35
000230 c3 b0 a0 85 69 89 2d 85 3d 28 4d 86 6f d2 90 85
       -1.511126e-35 -8.159659e-36 -3.8585777e-35 -1.3618996e-35
000240 b8 db 85 81 49 d0 1d 86 24 79 4e 04 5e 73 9e 05
       -4.9171765e-38 -2.9681442e-35 2.4270809e-36 1.4900628e-35
000250 d8 cc 85 81 3c bc 0a 82 f6 25 1b 86 e6 ba f1 85
       -4.915042e-38 -1.0192659e-37 -2.918015e-35 -2.2732187e-35
000260 e0 a1 85 81 cd 13 95 86 d6 93 7b 86 ab 5a 78 86
       -4.9088763e-38 -5.6076665e-35 -4.7316466e-35 -4.6710228e-35
000270 3b cc 13 85 cc 77 dc 84 63 2e 5b 86 e2 4f 0b 85
       -6.949418e-36 -5.1831767e-36 -4.1223402e-35 -6.550421e-36
000280 23 a0 85 01 83 ef 4b 86 58 ca 85 01 df 06 83 86
       4.908627e-38 -3.8356022e-35 4.9146833e-38 -4.928682e-35
000290 07 6a 11 86 b0 ba 85 81 88 53 66 85 16 c4 4c 85
       -2.7349366e-35 -4.912437e-38 -1.082989e-35 -9.628049e-36
0002a0 b8 9b 85 01 a9 2c 91 86 25 4f a9 04 cb 58 8f 86
       4.907993e-38 -5.460856e-35 3.9804392e-36 -5.392109e-35
0002b0 07 8e c4 86 ae 73 87 86 61 9f 8e 85 e6 d1 85 81
       -7.3935696e-35 -5.095133e-35 -1.3412162e-35 -4.9157673e-38
0002c0 e1 78 ca 85 60 7f 69 81 a0 ca 85 01 2d fc c2 84
       -1.9040393e-35 -4.2886728e-38 4.9147237e-38 -4.5840768e-36
0002d0 67 7e 6c 85 52 67 76 85 22 7f da 84 38 c7 85 01
       -1.1119883e-35 -1.1585841e-35 -5.1368307e-36 4.914235e-38
0002e0 ee 46 19 86 29 c3 a2 84 e2 a9 a8 85 41 ce 00 86
       -2.8828213e-35 -3.8265243e-36 -1.5861049e-35 -2.4225656e-35
0002f0 4d d0 a6 85 24 fd 99 86 8f 5a 83 84 a4 c3 8a 86
       -1.5687083e-35 -5.792416e-35 -3.0881117e-36 -5.21973e-35
000300 5b d2 85 81 47 93 85 81 14 8a 8b 81 58 84 85 81
       -4.915833e-38 -4.9067817e-38 -5.125867e-38 -4.904639e-38
000310 0d b7 86 81 2f 96 85 81 16 b9 85 01 f4 8e 85 01
       -4.948649e-38 -4.9071987e-38 4.912207e-38 4.906161e-38
000320 63 a5 85 01 4a d1 85 81 3b c5 85 81 5f 99 85 81
       4.90938e-38 -4.91568e-38 -4.9139496e-38 -4.907656e-38
000330 2e e2 85 81 0f a8 85 01 91 9f 85 81 10 8c 85 81
       -4.9181036e-38 4.9097636e-38 -4.908545e-38 -4.9057464e-38
000340 04 d6 85 81 69 bc 85 81 65 d1 85 01 9e df 85 01
       -4.916358e-38 -4.912684e-38 4.915695e-38 4.917736e-38
000350 8e a0 85 81 52 91 85 81 c0 29 97 81 c6 49 8b 81
       -4.908687e-38 -4.906501e-38 -5.552855e-38 -5.1166396e-38
000360 f9 d1 85 81 65 d7 87 81 7e bf 85 81 be a1 89 81
       -4.915778e-38 -4.9900244e-38 -4.913126e-38 -5.055794e-38
000370 6f 99 85 01 e5 84 85 01 3c 7f 8b 81 2d df 85 81
       4.907665e-38 4.904718e-38 -5.124311e-38 -4.9176725e-38
000380 ba a3 85 01 f0 97 8b 81 7f 96 85 01 16 07 87 81
       4.909142e-38 -5.1278555e-38 4.9072435e-38 -4.9601336e-38
000390 6a 9e 85 81 19 8a 85 01 ae c0 85 81 df d3 85 81
       -4.9083797e-38 4.9054644e-38 -4.9132966e-38 -4.9160504e-38
0003a0 ab da 85 81 a2 70 89 81 79 d9 85 01 a9 e0 87 81
       -4.9170257e-38 -5.048747e-38 4.916854e-38 -4.991354e-38
0003b0 ed cf 85 81 3d 17 88 81 36 89 85 81 45 cd 85 01
       -4.9154843e-38 -4.9991855e-38 -4.905337e-38 4.915103e-38
0003c0 0d cb 85 01 ea c9 85 01 d0 bb 85 81 2b c9 85 81
       4.914785e-38 4.9146216e-38 -4.912598e-38 -4.9145146e-38
0003d0 1e aa 85 01 f9 c0 85 01 ae be 85 81 3f ca 85 01
       4.910059e-38 4.9133386e-38 -4.9130096e-38 4.9146693e-38
0003e0 7d d6 85 81 57 dd 85 81 b0 8b 85 81 bf d8 85 01
       -4.916426e-38 -4.917409e-38 -4.9056926e-38 4.91675e-38
0003f0 8f cb 85 81 3f 4e 8b 81 5c 97 85 81 4c bd 8d 81
       -4.9148576e-38 -5.1172814e-38 -4.9073674e-38 -5.206685e-38

fc_layers.1.bias f4 [32]
000000 ee a3 01 3c d9 a6 71 3d ea 6a 21 87 a7 9e 85 81
       0.007912619 0.05899701 -1.2143713e-34 -4.908414e-38
000010 8e 66 93 3c b4 de 85 81 75 a4 85 81 d2 c5 85 81
       0.017993238 -4.917605e-38 -4.909247e-38 -4.914034e-38
000020 98 a2 6b 3d b8 b1 0a 9b c3 00 30 88 68 c9 90 81
       0.05752811 -1.1472516e-22 -5.296397e-34 -5.318625e-38
000030 4f a6 85 81 73 88 85 81 18 e0 a0 81 db c8 85 81
       -4.9095125e-38 -4.905228e-38 -5.9096276e-38 -4.91447e-38
000040 ba 65 2a bb 01 f6 02 8c bb 3c 01 3d e2 af 87 81
       -0.0026000575 -1.0088865e-31 0.031552058 -4.984355e-38
000050 b5 07 8d a1 ec c7 85 81 c4 8d 3d 82 a4 93 19 82
       -9.556572e-19 -4.914336e-38 -1.3926212e-37 -1.1283036e-37
000060 be 6d ed 8b fe 45 4e 83 18 a5 a8 3e 6c 76 ab 81
       -9.14542e-32 -6.0618306e-37 0.32938457 -6.2985406e-38
000070 5a 46 47 88 13 93 4a 3d 3f ac 85 81 3d 42 3c 84
       -5.996708e-34 0.049456667 -4.9103645e-38 -2.2129709e-36
