checkpoints/neumf_first_try_Epoch23_HR0.6781_NDCG0.4023.model (torch, 645108 bytes, 13 tensors)

embedding_user_mlp.weight f4 [6040, 8]
000000 d0 1b 75 bd 73 db 1d 3f df 6b 3c 3f 19 a9 9e 3e
       -0.059840977 0.6166298 0.736021 0.30988386
000010 70 59 cd be 28 7e 8f be 8a e6 91 bd fa 75 0f bf
       -0.40107298 -0.28025937 -0.0712405 -0.5603939
000020 2c 13 8d be 8a f5 2f 3e c3 00 a4 3e 3e 07 2c 3c
       -0.2755369 0.1718351 0.3203183 0.010499774
000030 86 70 00 3d e4 78 91 3c 7b 71 bb 3e b4 cd 17 3e
       0.03135731 0.01775784 0.36610016 0.14824563
000040 96 9d 0c be 95 6a 5a 3e 42 27 3b 3f 3f 0b d0 3d
       -0.1373199 0.2132972 0.7310678 0.10158395
000050 a0 15 21 bd 4d f2 1e bf 4a 01 b6 be fd c2 09 be
       -0.039327264 -0.6208847 -0.35547858 -0.13453288
000060 d3 60 96 3d 43 57 36 3f 96 97 5f 3f 49 fc 04 3f
       0.073426865 0.712269 0.87340677 0.51947457
000070 4d 6a 38 bf 36 d0 35 bf c9 98 5a be 32 65 03 bf
       -0.720372 -0.7102083 -0.21347345 -0.51326287
000080 83 d2 c1 be 91 29 b9 3d 43 91 38 be d4 fd a1 3d
       -0.3785592 0.09041131 -0.18024163 0.07909742
000090 18 10 06 bf dc 61 06 be 27 63 27 bf a6 0a e6 be
       -0.5236831 -0.13123268 -0.6538567 -0.4493
0000a0 af 8d e5 bd 9e 1f a0 3d b1 74 d4 3e 10 f6 8e 3e
       -0.112086646 0.078185305 0.41495278 0.27922106
0000b0 81 a0 94 be cf b0 9a be da 3c 31 bf fd e6 94 be
       -0.29028705 -0.3021302 -0.6923348 -0.2908248
0000c0 f7 ac 24 bd 42 40 2b 3f 2a 27 0f 3f 2a 46 67 3f
       -0.040204015 0.66894925 0.55919135 0.90341437
0000d0 5d bd a0 be cb 11 29 bf 0e 5f 03 bf ef 1f dd be
       -0.31394473 -0.66042775 -0.51316917 -0.43188426
0000e0 52 78 6b 3d da 78 76 3d 21 45 ee 3e 5f 5f 36 3e
       0.057487793 0.060173847 0.46537116 0.17809819
0000f0 1f c7 1e 3f 36 da 14 bf 96 a6 bf 3e 05 8b 19 3e
       0.62022585 -0.58145463 0.37431782 0.14994438
000100 3c ed 55 be 31 3a fa 3e 58 c6 db 3e df 4b e9 3e
       -0.20891279 0.48872522 0.42924762 0.45565698
000110 6a 19 c7 be 42 ab d6 be 64 07 f2 be 5e bd c4 be
       -0.38886577 -0.41927534 -0.47271264 -0.38425726
000120 20 a1 3d be d3 f3 0c be 38 d8 0d 3d 72 c8 25 bd
       -0.18518496 -0.13764887 0.03463003 -0.040474363
000130 2c 9c a7 be 92 d9 e9 3d b1 2e 9e 3e d5 62 03 3e
       -0.32736337 0.11418451 0.30894998 0.1283067
000140 04 a4 2d 3e 90 18 ce 3c b9 fc 38 3e 1c a7 ef 3e
       0.16957098 0.025158197 0.18065156 0.46807182
000150 ea f3 f6 bc 71 7d 59 be 4a f7 ca 3e d5 6c 0a bd
       -0.030145604 -0.21239258 0.39641792 -0.033795197
000160 ae f0 94 3d 3b f2 c0 ba d5 91 4e 3d 0e 11 ec 3e
       0.072724685 -0.0014720628 0.050432045 0.46106762
000170 61 c3 b6 3e f1 9c 87 bd 64 f2 47 bd bb 57 23 be
       0.35695937 -0.06621731 -0.048815146 -0.15951435
000180 fb 3f 22 3e 6b f7 a4 3e d5 e5 eb 3e ba 87 64 bd
       0.15844719 0.32220015 0.46073785 -0.0557935
000190 fe ad 18 3e f3 31 f6 bd b5 ec a0 3e 75 b1 cb 3d
       0.14910123 -0.12021246 0.31430593 0.099459566
0001a0 41 42 0b bf b5 6e 71 be 66 3f 13 bd a5 ac c8 3e
       -0.5439797 -0.23577388 -0.035949133 0.39194217
0001b0 3c 59 0e bf 45 92 87 be 9c 01 87 be 9e 14 ce be
       -0.5560491 -0.26478782 -0.26368415 -0.40250105
0001c0 f5 99 94 be 5c 48 1e 3e ef d4 3b 3e b0 f5 bb 3d
       -0.2902371 0.1545729 0.18342946 0.091777205
0001d0 8c 69 df be 27 bc 00 bf e7 af 2f 3e 32 1d f4 3d
       -0.43635213 -0.502871 0.17156945 0.11919631
0001e0 d1 48 de be 0b 5c c6 bd 5f eb d7 be 34 58 d3 3e
       -0.4341493 -0.096855246 -0.4217176 0.4127823
0001f0 da db 80 bf 93 e8 a2 be 0d 7e 66 bf f8 5e 36 bf
       -1.0067093 -0.31818065 -0.9003609 -0.7123866
000200 d4 00 a0 bd 14 ea 34 be e9 1c 73 bd 4c f6 c2 3e
       -0.07812658 -0.17667419 -0.059353743 0.38078535
000210 73 53 0e bf 32 ac 19 be 19 e2 81 be f7 aa 45 be
       -0.55596083 -0.15007094 -0.2536781 -0.19303499
000220 2d 6a 78 3e fe 0a 93 be 63 b7 35 3e 79 2c 8e be
       0.24259253 -0.28719324 0.17745738 -0.27768305
000230 16 67 87 3e e7 d3 9e 3e be 7e fe 3e 4e 02 f7 bd
       0.26445836 0.31021044 0.49706072 -0.120609865
000240 0f 00 8a be 4c e1 d5 3e 0f 65 36 be 09 fb e6 be
       -0.2695317 0.4177345 -0.17811988 -0.451134
000250 7e 2f 12 bf 23 27 4c 3e 52 7e 8b bc 5b 87 8d be
       -0.5710372 0.19936804 -0.017028008 -0.2764233
000260 a6 2f e3 3d 07 1b 1f 3f a7 06 cc 3e a1 d7 34 3e
       0.110930726 0.62150615 0.39848825 0.17660381
000270 be 1b 15 bf ac 9f ec bc 2a aa 09 bf ed 0c c5 3d
       -0.58245456 -0.028884731 -0.53775275 0.09621606
000280 f4 0f 61 bf c8 12 35 bd 7c 7f 1a 3e e2 4f 4f 3e
       -0.8791497 -0.044207364 0.15087694 0.20245317
000290 71 86 22 3c 18 a1 92 3c b8 f4 aa be c8 67 79 bd
       0.009919749 0.017899081 -0.3338983 -0.06088999
0002a0 b7 a1 39 3e df 24 b5 3d c8 34 a6 bd e5 ba 50 3d
       0.18128096 0.08844923 -0.08115536 0.050959487
0002b0 c3 15 76 3e 7b 4f 19 3e 36 cb 34 be fb 5a 89 3e
       0.24031739 0.14971726 -0.17655644 0.26827225
0002c0 c2 82 c6 bd 52 ef b8 bd 07 e3 88 be 61 f5 c2 3d
       -0.09692909 -0.09030022 -0.26735708 0.095194586
0002d0 7a d3 ca be 5b 2c 11 be 18 fb f1 be f6 18 c1 bd
       -0.3961447 -0.14177077 -0.47261882 -0.09428589
0002e0 80 32 0a bf 15 f7 a1 bd 97 67 0d 3d cd b7 b5 bd
       -0.53983307 -0.07908455 0.03452262 -0.08872948
0002f0 34 ec 17 be 8e 8e 28 be 80 e3 90 be bf a2 80 be
       -0.14836198 -0.1646063 -0.2829857 -0.25124165
000300 d0 f5 f0 be 1a 9e 31 be d3 4c d5 bc a6 c9 f0 3e
       -0.4706254 -0.17345467 -0.02603761 0.47028846
000310 90 d7 8e be 2c da f7 3b 0c c2 27 be 58 9e 40 bf
       -0.27898836 0.00756385 -0.16382617 -0.75241613
000320 4e 94 e4 3e 4f a6 6e bd 16 3a b6 bd 58 c2 3d bc
       0.44644397 -0.058264073 -0.08897798 -0.01158198
000330 c8 a7 a0 3e 1d 3b 07 3e 08 ba 62 bc aa 50 0a 3f
       0.31378007 0.13206144 -0.013838299 0.54029334
000340 3b c7 88 bd f1 df af 3e f4 1b 70 3d e6 79 ad 3e
       -0.06678625 0.3435054 0.05862041 0.33882064
000350 e3 0d 0a bf 2b 2c 26 be 42 1d f7 be d6 3b 9b 3e
       -0.5392744 -0.16227786 -0.4826451 0.3031909
000360 d9 e7 8c 3e aa 0e c0 3a f5 22 06 be 68 9d e7 3e
       0.27520636 0.0014652808 -0.13099273 0.4523728
000370 af cb ef be f0 2d 93 be ee 81 99 be 25 0c 73 be
       -0.46835086 -0.28745985 -0.2998194 -0.23735102
000380 49 7a 7b bd 60 b8 33 3f c3 40 33 3f 60 75 96 3e
       -0.061395917 0.7020321 0.70020694 0.29386425
000390 d4 eb 0a 3e e1 df c5 3e 3c 47 81 3e b1 78 49 be
       0.13566524 0.3864737 0.2524966 -0.19674946
0003a0 57 94 ac bc 3d 4e 8d 3e 35 07 0b 3f 53 13 62 3e
       -0.021066828 0.27598754 0.5430787 0.22077684
0003b0 f0 be c5 be ca c2 96 be a0 22 2d be 72 94 49 bf
       -0.38622236 -0.29445487 -0.1690774 -0.78742135
0003c0 4a 9d c9 bd 0e d6 42 3e 3b d0 33 bd d5 4f 06 3f
       -0.09844454 0.19026968 -0.043899756 0.52465564
0003d0 b9 04 85 be c4 8f 32 bf dd 64 57 bf ad 3a a0 3d
       -0.25980166 -0.6975062 -0.8413828 0.078236915
0003e0 ef 62 2f 3e f2 8a 1f 3e 44 21 9b 3d e3 0c 98 3e
       0.17127584 0.15580347 0.07574704 0.29697332
0003f0 da fc 3c bf f2 09 26 be fd 51 dc bd a4 35 a2 be
       -0.7382332 -0.16214731 -0.107578255 -0.3168155

embedding_item_mlp.weight f4 [3706, 8]
000000 46 a1 7a bf 09 ed 94 bf fe 32 bd be c5 24 b2 3f
       -0.97902334 -1.1634837 -0.36952966 1.3917471
000010 a1 47 ad 3f b7 51 96 3f 55 18 56 bf 56 c7 2f 3e
       1.3537484 1.1743687 -0.8363088 0.17165884
000020 08 ec 24 bf 47 bf f1 be fa 5a 41 be f9 57 d9 bd
       -0.64422655 -0.47216246 -0.18882361 -0.106124826
000030 45 55 7b 3d a6 5a 94 be ea 22 c9 bd 11 05 a2 3e
       0.061360616 -0.2897541 -0.098211125 0.3164449
000040 b1 0d 5f be 5c 1b 73 3d a0 0d bf be ce 69 87 3d
       -0.21782567 0.059352264 -0.37315083 0.066119775
000050 39 55 73 3e 59 54 9d 3e 6e 08 06 be f0 79 2a 3e
       0.23762979 0.30728415 -0.13089153 0.16648078
000060 7d 79 27 bf ad 0e 49 bf 09 08 07 bf 25 db 14 3f
       -0.6541975 -0.7853802 -0.52746636 0.5814689
000070 ed 15 91 3e 7b 4a 88 3f 07 c6 56 bf e2 8a 3d 3f
       0.2833704 1.064773 -0.83895916 0.74040043
000080 7e 26 f7 be 88 eb a4 bf 91 30 5b bf 1c cd 08 3f
       -0.48271555 -1.2884378 -0.8562098 0.5343797
000090 14 02 0b 3f fd 70 f1 3e 48 5d 3f be 54 40 61 3f
       0.54300046 0.47156516 -0.18687928 0.8798878
0000a0 18 9e 45 bf 44 a9 46 bf fd 6d ec be bf 85 5f be
       -0.77194357 -0.7760203 -0.46177664 -0.21828364
0000b0 56 2b d8 3e 5b 22 61 3f 29 36 88 be 24 ba 03 3f
       0.42220563 0.8794305 -0.2660382 0.51455903
0000c0 64 8c 10 be e8 f6 b7 bd e3 08 69 bd ed f9 98 be
       -0.14116055 -0.089826405 -0.05689324 -0.29878178
0000d0 1a df 28 3d d7 ff 21 3e 08 fc 3e 3d 08 32 d4 bc
       0.04122839 0.15820251 0.046627074 -0.025902763
0000e0 ce eb 91 be 6a 41 0c bf cf 75 bb bd 6e 04 85 be
       -0.28500217 -0.54787314 -0.091533296 -0.25979942
0000f0 1f da 98 3e 41 95 d3 3e cd e0 83 bd 9c ca 18 3e
       0.29853913 0.4132481 -0.06439362 0.1492104
000100 60 ee ae bd e6 49 17 3e e4 e0 79 be 90 34 61 be
       -0.0854156 0.14774284 -0.24402195 -0.21992707
000110 b4 bc bb 3d 43 8b 67 be 25 e2 df bd c7 1b 1b 3e
       0.09166852 -0.22611718 -0.109318055 0.15147315
000120 1a 3a e3 be 6b c6 28 bd 0f 7a 8a be e5 75 d2 3e
       -0.44380265 -0.04120485 -0.27046248 0.4110557
000130 f7 13 11 3e 9e 3d 0a 3f 1d 40 5a be 36 c3 cd 3c
       0.14167772 0.5400027 -0.2131352 0.025117498
000140 09 84 68 be 6a 44 39 be 5e d5 8d be 9f 39 92 bc
       -0.22706617 -0.18092504 -0.2770185 -0.017849742
000150 be 64 f8 3d a9 30 88 3d d4 55 60 be 41 a1 eb 3d
       0.1212859 0.06649906 -0.21907741 0.11505366
000160 db 94 6c bc 10 7e 47 3e 7d 91 a4 3d a7 e7 61 3c
       -0.014439787 0.19481683 0.08035562 0.01378814
000170 87 b3 38 3e 7c 1f 63 be b8 d6 56 bd 6d 58 41 3e
       0.18037234 -0.22179979 -0.052450866 0.18881388
000180 87 0c 67 3d 77 e4 11 3e 96 ba 24 bd 6e cf 59 bd
       0.05640843 0.14247309 -0.040217005 -0.053176336
000190 95 95 d9 be ba 56 02 bc 60 8c aa 3d 8a fe f1 bc
       -0.42496935 -0.007955248 0.08327556 -0.029540319
0001a0 16 af 98 3e 05 26 78 bd c1 dc 56 be 3e 32 62 be
       0.2982108 -0.060583133 -0.20982648 -0.22089478
0001b0 2f 9d 83 be 19 cc 8d 3e be 3f 1f 3d 17 1f f6 3c
       -0.2570586 0.27694777 0.03887915 0.030044122
0001c0 da 4d 4f bf d3 5b 17 be 8c a9 08 bf cb 39 50 3e
       -0.8097817 -0.14781122 -0.5338371 0.20334546
0001d0 0b 4d c0 3d ae ec 33 bd 18 03 fc be 04 8d cd 3e
       0.09389695 -0.043926887 -0.4922111 0.4014665
0001e0 7d a1 4c bf bd 8b 81 be a1 35 00 bf dc d9 6b 3e
       -0.7993391 -0.25301924 -0.5008183 0.23032326
0001f0 e9 1a 95 bd ff a2 06 3e 37 d8 be be 95 c8 92 3e
       -0.07280523 0.13148116 -0.37274334 0.28668657
000200 44 c0 85 3e 5e d2 45 bf 22 ba 16 be e0 9e 0f bf
       0.2612325 -0.7727412 -0.14719442 -0.561018
000210 6e 1c b3 3e e8 b8 2e 3e 04 21 8d 3e 49 21 69 3e
       0.34982628 0.17062724 0.2756425 0.22766604
000220 b2 85 b4 3d f6 11 9c 3d 04 02 c2 be 39 5a a4 be
       0.08814563 0.07620613 -0.37892163 -0.32100084
000230 3a 88 96 3e cc cd 97 be ad af 9f 3e 20 60 7c bc
       0.29400808 -0.29649198 0.31188717 -0.015403777
000240 08 bc 9b be 21 78 14 bd 9f f7 eb 3d b6 7e b0 3d
       -0.30416894 -0.036247376 0.11521839 0.08617918
000250 04 e3 97 3d c1 eb f9 bb d9 bb 35 3e 38 bf b1 be
       0.07416347 -0.007626981 0.1774744 -0.347162
000260 1c ee f7 bd d7 92 77 be 57 0f 77 be 69 cf 19 be
       -0.12105963 -0.24177109 -0.24126945 -0.15020527
000270 4d 16 92 bd a1 10 ac 3e fe b7 ee bd 81 f3 c9 bd
       -0.0713316 0.33606437 -0.116561875 -0.09860898
000280 dc f1 c2 be 4e 19 51 3e 7e e5 f0 3c 3a b0 e1 3e
       -0.3807515 0.20419809 0.029406305 0.44079763
000290 6e f7 6a 3e 93 1b a6 3e 55 d8 ee be 57 a6 11 3e
       0.2294595 0.32442912 -0.46649423 0.1422361
0002a0 e6 ff 9e 3e 37 b5 24 bf 44 69 92 3d 05 57 a7 be
       0.3105461 -0.6433901 0.07148984 -0.32683578
0002b0 d9 99 89 3e f6 7c 80 3e 44 e7 e2 3e 99 e4 33 3e
       0.2687519 0.25095338 0.44317067 0.17567672
0002c0 35 e8 49 be 18 76 0a bf 94 1f 29 bf 3a 0c 39 3f
       -0.19717486 -0.54086447 -0.6606381 0.7228428
0002d0 fa 86 bd 3e ff a5 33 3f 83 e7 38 bf c2 8d 97 3e
       0.3701704 0.70175165 -0.7222826 0.2960034
0002e0 e7 83 6f bf 7f 24 8c bf d6 5b 1b bf 70 e3 83 3f
       -0.9356064 -1.0948638 -0.60687006 1.0303783
0002f0 bd 9e 73 3f 8a f7 36 3f dd 30 40 bf 10 02 84 3d
       0.9516409 0.71471465 -0.7507456 0.06445706
000300 76 33 93 bd 00 42 70 be c8 6d 8a 3e f0 a0 0c bd
       -0.0718755 -0.23462677 0.2703688 -0.03433317
000310 da 04 1a bd be bd ae 3e 97 3b 33 bd 25 ee 89 3e
       -0.037602283 0.34129137 -0.043758 0.26939502
000320 ce ae 48 bd 0b 11 a0 3c b2 73 72 3c 61 8f a7 be
       -0.04899483 0.019539377 0.014798092 -0.32726577
000330 67 f1 83 3d d6 0a 70 be 5d 0e 6d 3e 22 44 ba 3d
       0.06442528 -0.23441634 0.2315001 0.090950266
000340 43 f7 e2 be 26 8a 63 bf 22 7e 13 bf 43 49 22 3f
       -0.4432927 -0.8888267 -0.5761434 0.6339304
000350 9d 96 e5 3e b1 74 20 3f 5b ba 0a bf 1c 1d 94 3e
       0.4484147 0.62678057 -0.54190606 0.2892846
000360 9d 47 30 bf d5 1c fc be f4 86 cf be 21 1b 4b 3f
       -0.68859273 -0.49240747 -0.4053265 0.7933827
000370 90 c2 89 3f 4e bd 7c 3f 3f 11 3f bf f0 66 d1 3c
       1.0762501 0.98726356 -0.7463569 0.02556178
000380 e4 ca 9b 3e 88 81 a3 be cb 03 b8 3e 04 51 01 bf
       0.3042823 -0.31934762 0.35940394 -0.50514245
000390 ae 19 88 be 30 bf 58 3e db a8 f2 3e 31 3e 36 be
       -0.26582092 0.21166682 0.47394451 -0.17797162
0003a0 c0 c8 8c 3e 73 1a 17 bf ec f5 c2 3d f8 64 33 be
       0.2749691 -0.59024733 0.09519562 -0.17518985
0003b0 bf df 4d 3f 60 d9 ba 3e c6 ef c0 3d 5e 96 ef 3e
       0.80419534 0.3649397 0.09420733 0.4679441
0003c0 7b 2a 98 bd c5 60 80 be 24 61 80 be 22 6b c5 3d
       -0.074299775 -0.2507383 -0.25074112 0.096395746
0003d0 bc 98 84 3e fe b2 da bd 4c 53 7c 3d f1 8f 9d bd
       0.25897777 -0.10678671 0.061602876 -0.0769347
0003e0 7f 44 1b be f9 e2 2b bf db da 76 3e c7 93 cc 3e
       -0.15162848 -0.6714321 0.24106924 0.39956495
0003f0 c1 60 04 3e 7e 96 77 3f f7 00 da bd 7c fb 20 be
       0.12927534 0.9671401 -0.10644715 -0.15720934

embedding_user_mf.weight f4 [6040, 8]
000000 3d c2 9e 3d 18 e5 1a 3e b9 24 d1 be 7a e9 cd 3e
       0.07751892 0.15126455 -0.4084833 0.4021719
000010 61 e3 a6 bd 8a bf da be fb 18 1e 3d 72 ae 95 bf
       -0.08148838 -0.42724258 0.038598042 -1.1693861
000020 18 27 85 bd 99 82 cf be 70 63 37 3d f2 39 95 3f
       -0.06501597 -0.40529326 0.044772565 1.1658309
000030 49 14 3e 3e 25 24 55 3e 25 36 a4 3e b7 c9 5f 3d
       0.18562426 0.2081457 0.3207256 0.05463573
000040 6e ba db 3e 63 24 3f bf 60 19 93 bd 1a 1c ca 3d
       0.42915672 -0.74664897 -0.07182574 0.09868641
000050 f0 20 0a 3d 0c ca 28 3f e4 bb ce 3e 45 d9 4f bf
       0.033722818 0.659333 0.40377724 -0.811909
000060 c9 13 f4 bd 2b 9c 06 be ea 5f fd 3e 91 07 36 3f
       -0.11917836 -0.13145511 0.4948724 0.71105295
000070 d1 7d b0 be bc bc 5e 3f 50 56 cc 3e 03 fd 96 be
       -0.3447099 0.87006736 0.399096 -0.29489908
000080 50 2f 3a bd 50 ee fe be af 47 ee bc 3a 34 b3 3e
       -0.045455277 -0.49791193 -0.029086916 0.35000783
000090 71 2b 70 bf 45 e8 02 bf 8a 3c f9 be de e2 a0 3d
       -0.93816286 -0.51135665 -0.48679 0.078557715
0000a0 9a d6 b9 3e 42 d9 2e 3e b5 19 01 bf fa 24 00 3f
       0.3629654 0.17075065 -0.5042985 0.5005642
0000b0 e4 89 3a 3f 85 aa a4 bd 14 c3 dd 3e c2 78 82 be
       0.72866654 -0.080403365 0.43312895 -0.25482756
0000c0 7d c9 36 3f 83 96 33 bf d7 7e 15 3f 40 ea 19 3f
       0.71401197 -0.7015154 0.5839667 0.6012306
0000d0 42 bd 01 bf df 2d 27 3f 77 4a 43 3e fe f2 97 be
       -0.5067941 0.6530437 0.19071375 -0.29677576
0000e0 57 b9 dc 3e 78 57 28 bf 95 ac aa 3e 13 c6 69 3f
       0.43110153 -0.65758467 0.33334795 0.9131786
0000f0 88 ea 25 bf 6f d2 44 bf e1 8b 3b be ad d3 78 bd
       -0.6481099 -0.76883596 -0.18315078 -0.060748745
000100 de 46 6a 3e 67 6e 91 bf a3 2d 87 3e be c8 3c 3f
       0.22878596 -1.1361817 0.26402006 0.7374381
000110 13 38 02 be 13 6b d9 be d1 1c e1 be 64 a0 4c bf
       -0.12716703 -0.42464504 -0.43967298 -0.79932237
000120 12 6e 93 3e 8d 6d 6f 3e 9c fd 34 bf f8 c8 cf 3e
       0.28794914 0.23381634 -0.7069948 0.40583014
000130 c1 5c c9 3d 78 6d 93 3e c5 9a a0 3c 32 5b 1d bf
       0.098321445 0.28794456 0.01960505 -0.6146728
000140 6c bf 29 bc 17 d5 37 bf ce 38 f7 be 5c 8e 94 be
       -0.01036058 -0.71809524 -0.48285526 -0.29014862
000150 2e c7 9f be 99 c1 e9 be 19 a0 70 bc 65 91 40 bf
       -0.3120665 -0.45655516 -0.014686608 -0.75221854
000160 d7 50 af be 22 0a e1 be 1d 8d a0 3e 62 b6 dc 3d
       -0.34241363 -0.43953043 0.3135766 0.10776974
000170 90 16 08 bc 5d 7b ff 3e 43 ad 73 be 5c 86 2a bf
       -0.008306161 0.49898806 -0.23796563 -0.66611266
000180 d9 98 dd 3e b5 31 82 3d b9 3b aa be 3c 28 92 3f
       0.43280676 0.06357137 -0.3324869 1.1418529
000190 66 02 30 be 11 42 1a 3f 8b 2c 05 3c 1a f0 7a 3e
       -0.17188415 0.6025706 0.008128296 0.24505654
0001a0 71 fd 56 be 09 d3 2b be ce 16 cd 3d ad 99 51 be
       -0.20995118 -0.16779722 0.10014115 -0.20468779
0001b0 c9 32 cf be 87 7a 0a 3e 4f 88 9e 3e 85 c1 af be
       -0.40468433 0.13523303 0.3096337 -0.3432733
0001c0 f2 46 43 3f 48 f4 5e bf 51 76 a9 3e 8b 97 9e 3e
       0.7628013 -0.87091494 0.3309808 0.30974993
0001d0 c2 b3 b7 3d 6f b1 93 be 09 c6 eb 3e 86 a2 fe be
       0.08969833 -0.2884631 0.46049526 -0.4973337
0001e0 9c 63 1d 3f 87 05 3b 3e a4 fb a1 be 68 64 0b 3e
       0.61480117 0.18263827 -0.316373 0.1361252
0001f0 5f 84 51 3e d6 2f 78 bd 7d f6 6e 3e 22 ca e0 3c
       0.20460652 -0.060592495 0.23336215 0.027440134
000200 b4 91 ef 3d 9e 7c cc bc c0 f6 0c 3e 32 cf af 3e
       0.116977125 -0.024961766 0.13766003 0.34337765
000210 4a 54 47 bf bf bc 8f 3e 0f 9e 2c be 57 3b 08 3f
       -0.7786299 0.2807369 -0.1685717 0.53215545
000220 52 27 e3 3e 8b ce 1a 3b 07 eb 2e be 80 69 6c 3f
       0.44365937 0.0023621644 -0.17081843 0.9234848
000230 b0 de b2 be 48 8b f4 3d 44 a9 44 be 5c 64 d4 be
       -0.34935522 0.11940628 -0.19205195 -0.41482818
000240 f2 7c ef 3e 10 70 a3 3d ab b5 65 3e 52 2f 78 bd
       0.46775013 0.079803586 0.22432582 -0.060592003
000250 f1 66 95 be bf 1e 37 3f c0 12 f5 3d 9a 84 36 bf
       -0.291801 0.7153129 0.11966467 -0.71296084
000260 19 d0 b5 3e bf 1c 3a bf 28 2e 25 3e 0f 04 08 3e
       0.35510328 -0.72700113 0.16130888 0.13282798
000270 08 da a8 be 19 95 ba 3e 1b cc d9 bd 9b 0e 16 be
       -0.32978845 0.36441877 -0.10634633 -0.14654009
000280 c9 1c 22 3f 20 8c 41 3e b9 fe 38 be b3 ab 1b 3e
       0.6332517 0.1890111 -0.18065919 0.15202217
000290 81 76 9f be 70 f7 09 3e 16 4d 1e bf b2 86 15 bf
       -0.311451 0.13473296 -0.61836374 -0.58408654
0002a0 c6 95 0d 3f eb a9 13 bf fd 2a 83 be 82 ed 64 be
       0.5530666 -0.5768115 -0.25618735 -0.22356227
0002b0 a3 7e 0f bf 19 1e b9 3e e5 65 2e 3c 0d f8 e9 be
       -0.5605261 0.36155775 0.010644411 -0.4569706
0002c0 2d 10 8e bc 42 a0 47 be 56 89 80 be ee 43 96 3d
       -0.017341698 -0.19494727 -0.2510478 0.07337175
0002d0 83 c2 67 bf 12 eb 01 3f 05 4d 27 be 8e 4c 83 3e
       -0.90531176 0.50749314 -0.16337974 0.25644344
0002e0 a2 7e 10 be e0 13 c4 be 5e c7 3e bf fa 18 c4 3e
       -0.14110807 -0.38296413 -0.7452296 0.38300306
0002f0 e5 7c 8c be 27 02 23 be 6a 52 9f 3e 08 5e 88 be
       -0.27439037 -0.1591879 0.31117564 -0.2663424
000300 cf 9c 19 3f be 20 6a be 38 9e 39 be e9 84 a6 3e
       0.60004896 -0.22864053 -0.18126762 0.32523277
000310 f6 cc 86 be 9c dd cb 3e 38 cf 01 bf 99 b1 85 be
       -0.26328248 0.39817512 -0.50706816 -0.2611206
000320 1f b6 fe 3e 63 5f a5 be 5b 45 41 bf 89 05 ad 3d
       0.49748322 -0.32299337 -0.75496453 0.08448321
000330 7b 05 e1 3d 2d b1 31 be 6c af 61 3f ed 8a 7f be
       0.109873734 -0.17352743 0.881583 -0.2495534
000340 4b 5c e0 be 59 a6 07 3e f7 b2 03 be ba cc d4 3e
       -0.43820414 0.1324705 -0.12861238 0.41562444
000350 ef 51 5d be 5a 2a f3 3e c9 b0 a5 bd 65 2c 08 bf
       -0.21613286 0.4749325 -0.0809036 -0.5319274
000360 7b c6 83 be 7f fc 5e 3d 7b f4 ab be 5b 7d cb 3e
       -0.25737366 0.054440018 -0.3358496 0.39744076
000370 38 97 fc be b9 25 34 be 51 5f 25 3d f2 fb f4 be
       -0.4933412 -0.17592515 0.040374104 -0.4784847
000380 c0 db 9a 3d 04 df 8c be 6e 39 12 3f 5d fc 36 3f
       0.07561445 -0.27513897 0.5711888 0.71478826
000390 4e 1c 97 be fc 13 91 3f b2 7b 04 3f 06 24 ac 3e
       -0.29513782 1.1334224 0.51751244 0.33621234
0003a0 1f 4e 40 be cb 48 a2 be 1d cc 91 3e 84 d2 b6 3e
       -0.18779801 -0.31696162 0.2847604 0.35707486
0003b0 91 eb e3 be bd fd 06 bf 19 84 15 be 81 57 92 be
       -0.4451566 -0.52730924 -0.14601173 -0.28582385
0003c0 ab eb 9b be 95 9f 9e bd bf 92 85 bf cc f1 ab be
       -0.30453238 -0.077452816 -1.0435408 -0.33582914
0003d0 a6 17 36 3f 8d 04 3b 3f b6 1f 34 3e b2 85 5f be
       0.71129835 0.7305382 0.17590222 -0.21828344
0003e0 af e9 30 bd 25 b4 ab be 14 e6 59 3d a8 fd c9 3e
       -0.043191608 -0.33535877 0.053197935 0.39451337
0003f0 44 c6 f1 be 91 01 b2 be d9 33 c5 3d e4 18 a9 bd
       -0.47221577 -0.3476682 0.0962903 -0.08256701

embedding_item_mf.weight f4 [3706, 8]
000000 41 de da 3e 32 de da 3b d0 b3 b5 bd 06 0c 8f 3e
       0.4274769 0.00667932 -0.08872187 0.2793886
000010 8e b8 44 3e 5e bc aa 3d aa 13 a5 3e d9 b5 da 3e
       0.19211027 0.083367094 0.32241565 0.42716864
000020 29 57 59 be 98 41 0a bf c4 18 52 3e e4 d6 e7 3d
       -0.21224655 -0.5400634 0.2051726 0.11320284
000030 64 6d 3e 3e 33 62 dc bd 8d 42 30 bf dd 0e 03 3f
       0.18596417 -0.107609175 -0.6885155 0.51194555
000040 55 d4 cc 3d 53 35 83 bf fe 56 87 3e a0 85 05 3f
       0.100014366 -1.0250648 0.26433557 0.5215702
000050 90 74 c9 be 96 89 9d be d5 d5 0f 3e 05 43 96 3e
       -0.39346743 -0.30769032 0.14046414 0.29348007
000060 f0 ee 4a 3d ed bc aa 3e a8 66 81 be 74 a3 36 bd
       0.049544275 0.33347264 -0.25273633 -0.044589475
000070 20 49 d4 be fb 04 a1 be d6 df 86 3d a7 b9 33 3e
       -0.4146204 -0.31449112 0.06585662 0.1755129
000080 55 cb 83 be b2 5a dd 3d c9 0d b2 3e 15 0b af 3d
       -0.25741068 0.108083144 0.34776142 0.085470356
000090 94 af d2 bd 42 6c 51 3d dd 48 82 be 73 ff 10 3f
       -0.10287395 0.051128633 -0.25446215 0.56639785
0000a0 24 21 8d bd 01 0a 81 3e da 52 33 3f 57 cd a3 3e
       -0.06891087 0.25202945 0.70048296 0.319926
0000b0 e1 8c be 3e 76 67 e8 3e f3 35 13 3e b6 04 b7 3e
       0.37216857 0.45391434 0.14376049 0.35745782
0000c0 bc f5 5f 3e 07 35 bd be 07 8b 8e be 46 6a 42 3f
       0.21871084 -0.3695452 -0.27840444 0.7594341
0000d0 05 67 ca be 41 c7 0a 3f ad 42 39 3e 8d 88 58 3e
       -0.39531723 0.5421029 0.18091841 0.2114584
0000e0 c2 80 75 3e 51 22 13 3e 83 ae f1 3e 63 31 75 be
       0.23974898 0.1436856 0.47203454 -0.23944621
0000f0 c7 ee 93 3e 0d 8e 95 3e 6e b0 a6 3e c4 7c 64 3f
       0.2889311 0.2920994 0.3255648 0.8925288
000100 d1 32 00 be f5 ec 88 bf 47 c1 84 3e 57 c5 d2 3e
       -0.12519385 -1.0697314 0.2592871 0.41166183
000110 3e 5e ae 3d 24 9d 49 3d 5f 4f c4 be ef 2e af 3f
       0.08514069 0.049222127 -0.38341805 1.3686198
000120 69 7c 6d 3e a7 1c d9 be fa ee 73 3e 5d b6 26 3f
       0.2319199 -0.42404673 0.23821631 0.65122014
000130 56 d9 80 3e 9b 83 6d 3e 9d 36 23 3e ee 76 94 3f
       0.25165814 0.23194735 0.15938802 1.1598794
000140 43 ed d9 be b9 e8 10 bf a9 5f 96 3e 2a 95 20 3f
       -0.4256383 -0.56605107 0.29369858 0.62727606
000150 15 7f d5 3d ef 4d 6f be 6f 21 d4 be 75 04 8e 3f
       0.104246296 -0.23369573 -0.41431758 1.109511
000160 6d b8 a7 3e 1b ff a5 bf b9 ec 08 3e cf 23 9b 3e
       0.32757893 -1.2968477 0.13371553 0.30300757
000170 e1 d3 34 bf 88 c1 cf be e6 eb 51 be 2b 2a e5 bb
       -0.706358 -0.4057734 -0.20500144 -0.006993552
000180 06 f9 97 3e a8 96 45 bf 9c ac 3b be e3 2e 0e 3f
       0.29682177 -0.7718301 -0.18327564 0.55540293
000190 52 ad 02 bf ba 5b 58 be 64 a8 a3 3e 75 4d 62 3f
       -0.51045716 -0.21128741 0.3196441 0.8839944
0001a0 e6 b5 43 3e 16 3b e5 3e 20 57 8f 3f cb 6f 05 be
       0.19112357 0.44771641 1.1198463 -0.13030927
0001b0 7e e9 b4 3e c5 a6 80 3e 34 f7 1d 3f 25 19 89 3f
       0.3533439 0.25127235 0.6170533 1.0710799
0001c0 39 32 cf 3d c4 10 10 bf 8a c2 94 3e f0 4a a0 3e
       0.10117001 -0.5627558 0.29054672 0.31307173
0001d0 77 0d 61 be ed af 0c be 6e 00 e8 3d 67 d7 23 3f
       -0.21977793 -0.13738985 0.11328207 0.6400055
0001e0 09 24 4f 3e 88 d6 89 3e aa f4 2a 3f 38 b6 9a be
       0.2022859 0.26921487 0.6677958 -0.30217147
0001f0 4b 7c 3f 3e 1d 8b d0 3e e7 a6 f5 3e a3 4a 34 3f
       0.18699758 0.40731135 0.479789 0.70426387
000200 b5 cf ad be da 91 ef be f6 3a 36 bd 99 c8 85 3e
       -0.3394753 -0.46790963 -0.044489823 0.26129606
000210 d7 00 48 be c8 3e ef bd 33 53 de be ed 09 1f 3f
       -0.1953157 -0.116818964 -0.4342285 0.6212452
000220 c7 3b 99 bd cd 60 62 bf 7f 13 ad 3d a6 fc b4 3e
       -0.07482105 -0.88428956 0.08450984 0.35349005
000230 cb 9a 03 bd d6 b6 2c 3d 8b 61 68 be e0 03 9f 3f
       -0.032130044 0.042166553 -0.2269346 1.2423058
000240 34 f9 81 bc c1 cd 86 3d 0b 1f 60 3d 36 3f 00 3f
       -0.0158659 0.06582213 0.054717105 0.5009645
000250 56 d8 6c 3e ef 21 2d bf 20 bc db 3e 7c b6 c9 3e
       0.231294 -0.67629904 0.42916965 0.39397037
000260 3f da ff bd 9f 98 2d 3d 63 a2 60 3f 31 18 41 bc
       -0.12492799 0.04238188 0.8774778 -0.011785553
000270 24 58 a8 3e 27 e7 9d 3e 01 76 f0 3e e7 86 15 3f
       0.32879746 0.30840418 0.4696503 0.5840897
000280 ef 1e 6e bd bb a9 f1 3e 3c 94 21 3f bc 70 6f 3c
       -0.05813497 0.47199807 0.6311681 0.01461428
000290 bd b3 76 bd da eb 40 be 97 8e 20 bd 23 96 ed 3e
       -0.060230006 -0.1883997 -0.039198484 0.46403608
0002a0 6e 97 72 3e da 3a d6 bd 90 50 c6 3d 47 ef 6a 3e
       0.23690578 -0.10460444 0.09683335 0.2294284
0002b0 57 d8 79 3e 18 84 d4 3c 4a ad 54 bf d2 51 da 3e
       0.24398933 0.025941893 -0.8307692 0.4264055
0002c0 7b 2c 87 bd f1 17 ac 3d 01 d7 63 3f 20 bf 69 3e
       -0.06600281 0.08403004 0.88999945 0.22826815
0002d0 ed 98 06 3f f7 28 03 3f a9 5c c6 3e 63 15 08 3f
       0.52577096 0.5123438 0.3874257 0.53157634
0002e0 20 23 29 3e df b3 81 3e 7f 87 ec bd 86 d9 25 3f
       0.16517305 0.25332543 -0.11549281 0.6478504
0002f0 f3 e2 cd 3e c5 ad 5b be aa 08 9d 3e ee 0b 12 3f
       0.4021221 -0.21453007 0.30670673 0.57049453
000300 e2 96 a8 be 7f b1 a4 3d 3e 37 a0 3c d7 a3 a4 bd
       -0.32927614 0.08041667 0.019557592 -0.080390625
000310 c7 5a e1 be 80 9e eb be d8 a7 a4 3e fe 6e 9b be
       -0.4401457 -0.46019363 0.32159305 -0.30358118
000320 f7 c9 1f bf 08 c2 54 bf 8d 99 c0 3d bc 9d bf 3e
       -0.6241755 -0.8310857 0.094042875 0.3742503
000330 b7 23 b5 be e9 98 e1 be 65 10 16 bf fe d6 05 3f
       -0.3537881 -0.44061974 -0.58618766 0.5228118
000340 1e b5 e2 bd fb 21 a2 be 81 ad 12 3f 4b f7 0c 3f
       -0.110697016 -0.3166655 0.57295996 0.5506484
000350 1e 8d 1f 3f f5 a9 68 3e a1 20 aa 3e 48 04 fe 3e
       0.623247 0.22721083 0.3322802 0.4961264
000360 8d 21 7c be 0c d3 cb 3d 15 29 b6 3d f8 dd e5 3e
       -0.24622174 0.09952363 0.088945545 0.4489591
000370 66 3f cc bd 8c dd aa be 03 84 bc 3e 75 15 80 3e
       -0.0997303 -0.33372152 0.36819467 0.2501637
000380 48 8f df 3e 33 5c 8f be b0 60 1a bf bd 2e 4c 3d
       0.43664002 -0.2800003 -0.60303783 0.04984926
000390 7b e3 7b be 01 13 82 bf b8 b4 04 bf 76 67 a9 be
       -0.24598496 -1.016205 -0.51838255 -0.33086747
0003a0 07 42 74 3e cd 35 65 3d 1a 4d cb 3e 7f b4 6f 3e
       0.23853312 0.05595951 0.3970726 0.23408698
0003b0 7b 92 7d 3e ff e6 a9 3d 53 41 77 bf 26 5c 99 3e
       0.24762909 0.08296012 -0.9658405 0.29953116
0003c0 c3 7a d3 be 94 ae 89 be 40 9d 15 3e 07 70 8c 3e
       -0.41304597 -0.26891005 0.14610767 0.2742922
0003d0 04 b5 2f 3b 8a 09 88 bd cd c9 be be db d8 10 3f
       0.0026810775 -0.066424444 -0.37263337 0.56580895
0003e0 07 29 81 bc 83 d6 f5 3d 86 2c b7 be a3 5c cf be
       -0.015766634 0.120038055 -0.35776156 -0.40500364
0003f0 3a eb 17 be e8 87 2f bf 71 31 3b 3d 3c 0f 07 bd
       -0.14835826 -0.6856675 0.045701448 -0.032973513

fc_layers.0.weight f4 [64, 16]
000000 53 ce 8c be a5 c7 f5 be 17 1d 15 be 84 aa d6 3e
       -0.27501163 -0.4800388 -0.14561878 0.41926968
000010 50 53 dc 3d 97 70 24 bf 85 22 34 bf 73 d8 a3 be
       0.10758078 -0.642343 -0.7036517 -0.32001075
000020 ea 68 8d bd af 80 c9 bd c3 93 8b 3e 12 8e 7a be
       -0.069047764 -0.098389976 0.2726117 -0.24468258
000030 d1 1f 1d bf 5c 56 fc be b8 15 66 3e a9 e0 69 3e
       -0.61376673 -0.49284637 0.22469223 0.22839607
000040 3f 85 52 bf e6 81 99 3e 06 6e 2f bb 55 d4 ad be
       -0.8223457 0.29981917 -0.002676846 -0.3395106
000050 be a7 84 be 4c a8 8e 3e 9a 2f 0b bc e0 96 84 be
       -0.25909227 0.27862775 -0.008495236 -0.25896358
000060 af 3c fa be 6c 50 15 3e 6b 01 c0 3e 02 d2 0f be
       -0.48874423 0.1458146 0.37501082 -0.14044955
000070 c6 72 d9 3e ce 39 68 3e ac 11 a2 3e 35 10 46 bf
       0.42470378 0.226783 0.31654108 -0.7736848
000080 d1 ba ce 3e d5 a2 5d 3e 44 f5 8e 3e 86 69 70 3e
       0.40376905 0.21644147 0.27921498 0.23477754
000090 72 76 62 3e fd 73 ef be 58 88 ac 3d 78 f8 38 3f
       0.22115496 -0.4676818 0.08424443 0.72254133
0000a0 a6 04 36 3f 0b c4 f7 3d 2d 63 3d 3e 65 bb db be
       0.7110084 0.12097939 0.18494864 -0.42916408
0000b0 eb e8 89 3f 36 83 d0 3e 19 ff 47 3e 9a aa 19 bf
       1.0774206 0.40725106 0.19530906 -0.6002594
0000c0 01 58 32 3f a8 30 5b 3e 70 1a 11 be 39 22 31 3e
       0.69665533 0.2140528 -0.14170241 0.17298211
0000d0 dd 42 82 bf 5e d6 a9 be 19 7c 98 be d6 56 59 bd
       -1.0176655 -0.33171362 -0.2978218 -0.05306133
0000e0 60 39 27 3e aa 18 1b 3e 61 c5 3c 3f 4b 48 1c bd
       0.1633048 0.15146127 0.73738676 -0.03815488
0000f0 e8 b0 c5 be 66 8a 73 3e b4 ef 80 be 83 57 c6 be
       -0.3861153 0.23783264 -0.2518288 -0.3873864
000100 a6 af c4 3e 62 7a 20 3e f8 10 e2 3d d1 b7 b5 3c
       0.3841526 0.15671685 0.11038393 0.022182377
000110 17 96 bf 3e 71 5e 18 bf 43 9f 2a bd 9f f5 5d 3e
       0.37419197 -0.59519106 -0.04165579 0.21675728
000120 24 a4 31 3f 89 c9 e3 bc 85 4c cf bd f5 0e 37 bd
       0.69391084 -0.02780606 -0.10122017 -0.044692
000130 aa 79 0f 3e f7 4c e4 3d fa d0 bd bc fc 36 bc bc
       0.14011255 0.111474924 -0.023170937 -0.022975437
000140 80 ea 85 3e 6e 25 8e 3d 7f 40 55 3e a6 b9 d9 3e
       0.26155472 0.06940733 0.20825385 0.4252445
000150 8e e0 23 bf ca e4 f9 be dc 99 7e be 21 49 09 be
       -0.6401452 -0.48807365 -0.2486338 -0.13406803
000160 ea dc a6 3e 20 52 77 be 09 a4 f2 bd 1b 39 ea bd
       0.3259042 -0.24152422 -0.118476935 -0.11436673
000170 00 af 04 bf dd de 50 be 84 b1 ca be 94 37 f5 be
       -0.5182953 -0.20397516 -0.3958856 -0.47893965
000180 6b 7a 99 3e af bf 45 be df 88 c7 be a0 9e ff 3e
       0.2997621 -0.19311403 -0.38971612 0.4992571
000190 d2 bd 1f 3e fe 4f c5 be 13 38 ba 3e 34 4d 17 bf
       0.15599754 -0.38537592 0.36370906 -0.5910218
0001a0 01 48 18 bf 1f 49 fd 3e 76 95 49 bd 0c 97 87 be
       -0.5948487 0.4946985 -0.049214803 -0.26482427
0001b0 19 e7 38 be 34 0f 5b bd 39 44 6e be 15 b5 91 3e
       -0.18056907 -0.053481296 -0.23268212 0.28458467
0001c0 8e 5e a1 00 34 d6 85 81 ef db 85 81 dd 90 85 01
       1.4819435e-38 -4.916385e-38 -4.9172073e-38 4.906435e-38
0001d0 73 1f 92 02 85 d6 85 01 aa 94 85 01 6a aa 85 01
       2.1470823e-37 4.9164304e-38 4.9069806e-38 4.9101016e-38
0001e0 7e b2 85 05 d4 d2 b1 82 39 07 c3 82 74 77 b3 06
       1.2572828e-35 -2.6128822e-37 -2.865682e-37 6.7507837e-35
0001f0 8d c0 28 81 05 2d 18 84 44 96 22 07 b9 5d 9d 04
       -3.0994875e-38 -1.7888186e-36 1.2231685e-34 3.6996593e-36
000200 1b bc 59 3e 00 52 47 3e c2 2f 88 3e 81 5c 39 be
       0.21263163 0.19464874 0.26598936 -0.18101694
000210 84 e3 d3 3e 0c e6 55 bd b0 8d 34 3e e0 5e 07 be
       0.41384518 -0.052221343 0.17632174 -0.13219786
000220 fa 79 8b be f7 bc 08 be 04 29 76 3e 23 0c 2f be
       -0.27241498 -0.13353334 0.24039084 -0.17094474
000230 80 1a 98 3d f8 e0 be bd 08 1d 09 3d db 7b 25 be
       0.074269295 -0.09320253 0.033474952 -0.16160528
000240 97 f3 e9 be 9f 85 fe 3d c4 bb 01 3f 16 6e 76 3d
       -0.45693657 0.1242783 0.5067713 0.06016358
000250 51 5d de be d5 d7 9a 3e 44 1f dc be 15 1c 45 bf
       -0.4343057 0.30242792 -0.42992604 -0.76995975
000260 b4 b3 82 be 12 48 02 3f 69 e0 bf 3e 73 33 dc bd
       -0.25527728 0.5089122 0.374759 -0.10752001
000270 59 ea 4c be 8c 3c 28 3d 6a c0 e3 bd e8 99 7c bf
       -0.20011272 0.041073367 -0.111206844 -0.9867234
000280 ce 0d 3d 3f 53 74 cc 3d ec a9 14 3e 75 72 1f be
       0.7384919 0.099831246 0.14517945 -0.15571006
000290 70 d3 52 bf dc 3a 17 bf 3c e6 36 bf 40 98 bc 3c
       -0.8235388 -0.5907419 -0.7144506 0.023021817
0002a0 20 45 be 3e dc cf 7c 3e 8b 2d 22 3f e3 11 d1 3e
       0.37162113 0.24688667 0.63350743 0.4083396
0002b0 5f 1f 79 3c a6 65 d8 3e b8 c7 98 bc 4b 82 f4 be
       0.015205233 0.42265052 -0.01864992 -0.47755656
0002c0 64 67 99 3d 2e fd 45 3e e9 85 b6 3e 94 82 13 3e
       0.07490423 0.19334862 0.3564904 0.1440528
0002d0 2d f6 24 3e f5 51 09 bf 9a 88 a7 3e 23 fb 06 be
       0.16109534 -0.5364068 0.32721406 -0.13181739
0002e0 db 49 32 bd ae dc 15 3f 30 30 06 3e 6a 54 bc be
       -0.043527465 0.58539855 0.1310432 -0.36783153
0002f0 27 59 e1 3d 4e 5d 12 bd 99 f9 e1 3c cc 4f 9d 3e
       0.110033326 -0.035733514 0.027584838 0.30724943
000300 5d 6e a7 be 12 40 f0 3d 94 21 94 3e 92 74 15 3f
       -0.32701388 0.117309704 0.28931868 0.58381
000310 ed 90 39 3e a8 10 7b be a2 e1 86 be 75 cb e5 be
       0.18121691 -0.24518073 -0.2634402 -0.44881788
000320 c1 68 d1 be 7f f2 9d 3e aa 84 59 3e f7 12 9f bd
       -0.40900233 0.30849072 0.21242014 -0.07767289
000330 55 ff b4 be 61 5f ff be 79 cc 38 3e bf 73 3d 3d
       -0.35351053 -0.49877456 0.1804675 0.046252962
000340 1d fb 80 be 79 7d f5 be 2f d9 d2 3e ea 46 2d be
       -0.25191584 -0.4794729 0.41181323 -0.16921583
000350 0e 8f 68 3e 0e d6 fe be 45 43 f3 3e 34 72 bb 3d
       0.22710821 -0.49772686 0.4751226 0.09152642
000360 dd 5e 91 3e cb 09 fa 3e 95 c5 cc be 12 c3 b7 be
       0.28392687 0.48835596 -0.39994493 -0.35891014
000370 16 61 8c 3e b5 49 ab 3e a5 a2 2c be ca 88 30 3e
       0.2741782 0.33454672 -0.16858919 0.17239681
000380 97 c9 49 bf 8d bf 88 3d 69 cc b7 3e af b5 c7 be
       -0.78823227 0.066771604 0.3589814 -0.390058
000390 0f f6 1c bf 72 3f 6e 3e c4 1a 08 be 85 a8 a8 be
       -0.61312956 0.2326639 -0.1329146 -0.3294107
0003a0 66 9d 00 bf 9f 0f 08 3f 94 97 eb 3d 99 f2 ab 3d
       -0.5024017 0.53148836 0.115035206 0.08395881
0003b0 38 10 b8 3d 6a 38 f2 3d a2 d2 31 3b 8c d8 9b bf
       0.089874685 0.118271664 0.0027133604 -1.217546
0003c0 b8 71 28 bc 49 49 a4 3d 1c ef 91 3b 8e 5c ee 3e
       -0.010281019 0.080217905 0.004453553 0.4655499
0003d0 e2 39 00 bf ad 97 8f 3e 80 3a c9 3c 5c f6 2b bf
       -0.5008832 0.28045407 0.024564028 -0.6717279
0003e0 2b e3 00 bf d4 ee 70 3e 4d 6e 5d 3e 5a 28 cf be
       -0.5034663 0.23528606 0.21624108 -0.40460473
0003f0 2a 27 c7 bc e1 e0 35 bd c9 5d 54 bd 88 f5 36 bf
       -0.024310667 -0.044403914 -0.051847253 -0.714684

fc_layers.0.bias f4 [64]
000000 88 b9 66 3e 79 33 0c 3e 59 54 28 3e e6 dc 24 bf
       0.22531712 0.1369151 0.16438426 -0.64399564
000010 e0 21 77 3e 3a 5f 0c bf d6 fb b7 be 68 c7 8b 90
       0.24134016 -0.54832804 -0.35934323 -5.5133067e-29
000020 88 cb ac be 94 7a 34 be dc 25 2b bf e8 71 9e 3e
       -0.33749032 -0.17624885 -0.66854644 0.3094628
000030 fb 62 34 bd 7a 1d 5f be fe 6f 23 3e d1 5a ac be
       -0.044039708 -0.21788588 0.1596069 -0.33663037
000040 d4 fd 15 be a3 ce b8 3e b1 2e 9b be 19 58 b2 be
       -0.14647609 0.3609515 -0.3030906 -0.34832838
000050 20 25 ba bd 1a 94 56 bd 7f 00 58 3e 9c 08 de 3e
       -0.09089112 -0.052387334 0.21093939 0.43365943
000060 26 0f 47 be 21 dc da 3e 46 60 e1 3e a4 68 fc 3e
       -0.19439372 0.4274607 0.44018763 0.49298584
000070 3b 27 74 be 42 98 86 be 33 a1 fc 3e e6 d1 2d bf
       -0.2384309 -0.26288038 0.49341735 -0.67898405
000080 db 21 1f be b0 09 ef 3e e1 e4 50 be fd b7 e8 3e
       -0.15540259 0.46687078 -0.2039981 0.45452872
000090 b7 e0 d1 3d f5 bc fd bb ac 56 12 be 81 17 c1 be
       0.10247939 -0.0077434727 -0.14290875 -0.37713245
0000a0 d4 64 3d be 63 29 fb 3e 27 49 ae be be 4c ec 3e
       -0.18495494 0.49055013 -0.34040186 0.461523
0000b0 13 77 fe 3e 02 82 eb 3e 7d 7b 33 be 4f f9 da b1
       0.4970022 0.45997626 -0.17527576 -6.372978e-09
0000c0 87 19 a7 be ef c4 02 bf 04 04 a8 be e5 0a 0f bf
       -0.32636663 -0.51081747 -0.32815564 -0.55876
0000d0 08 0d 04 bf a5 51 ce be e1 3d 59 be 8b 46 0b bd
       -0.51582384 -0.40296665 -0.21215011 -0.034002822
0000e0 52 29 cf 3e f3 0a eb be 47 48 9c be 78 d7 cd be
       0.40461212 -0.4590679 -0.30523893 -0.40203452
0000f0 08 da cb bd 48 e7 fa 3e e7 2b 0b bf 5b b9 39 3e
       -0.099536955 0.4900458 -0.54363865 0.18137114

fc_layers.1.weight f4 [32, 64]
000000 72 d2 ad 3e 66 71 44 3e 18 ff de bc 6d da 0d 3f
       0.3394962 0.19183883 -0.027221248 0.55411416
000010 c6 c9 ca bc e1 72 1d 3e ac d5 0f 3f 16 9d 85 81
       -0.024754416 0.15375854 0.5618541 -4.908189e-38
000020 b1 c7 d2 bd 78 21 32 3e d4 e3 59 3f a6 bb 7f 3d
       -0.10291994 0.1739558 0.85113263 0.062434815
000030 e1 8f ed 3d 03 60 2b 3f 42 9b 09 3e 50 80 81 3d
       0.11599708 0.6694338 0.13438132 0.06323302
000040 31 8b bb 3d cf d5 91 3e bb ea c1 bc d0 5e 01 3f
       0.09157408 0.28483436 -0.023671499 0.505353
000050 5d 68 32 3c 43 72 2f bb 13 f2 2b 3e 55 89 84 3e
       0.01088914 -0.0026770986 0.16791563 0.25886026
000060 b7 de 51 be 4b d8 eb 3d 3c 5a 97 3e 75 c2 d7 3d
       -0.20495115 0.11515864 0.2956103 0.105351366
000070 67 3f 8b bd e3 20 09 bf ca 23 dc 3d 18 b6 fc 3e
       -0.067992024 -0.53565806 0.10749014 0.49357677
000080 54 a5 8f bd 36 d5 2a 3e 31 3b b4 bd eb 27 84 3d
       -0.07013956 0.16682896 -0.08800352 0.06452926
000090 a1 40 3f 3e c5 cf 68 39 f1 68 dc be ef a6 1d bf
       0.18676998 0.00022202644 -0.43048814 -0.61582845
0000a0 93 57 2e 3d 28 3b e4 3d 81 8e 28 bf 9f d1 df 3d
       0.042563986 0.11144096 -0.65842444 0.10928654
0000b0 d8 0a a3 3d 03 1b e2 3d 3a 87 2f bf d7 5e 1f a7
       0.07961053 0.11040308 -0.68565714 -2.2117095e-15
0000c0 60 4b fc be bd dd 18 bf f5 ec 4f be cc 62 39 bf
       -0.49276257 -0.59713346 -0.20305236 -0.7241638
0000d0 10 cf 3f bf c9 97 36 bf fb 09 49 3e f7 d3 c5 b9
       -0.7492533 -0.71325356 0.19632713 -0.00037732694
0000e0 85 61 d8 3d 10 73 16 bf 9b bd 3d 3f ab 5e 5a bf
       0.105654754 -0.5876932 0.7411744 -0.853007
0000f0 9f b1 1a 3f a4 78 12 3e 1b 91 3d bf 92 a1 df 3e
       0.6042728 0.14303833 -0.7404954 0.43677956
000100 79 4b a4 3e cf ef 5d 3e f2 11 e3 3a bd bf 11 3f
       0.3208883 0.21673511 0.0017324074 0.56933194
000110 92 49 ab 3c 5b fd 4e 3e 06 04 31 3f 76 6e 33 01
       0.020909104 0.20213835 0.69146764 3.295636e-38
000120 97 30 d5 bd fa c2 80 3e 0c ea 5d 3f 0e 0a ff 3d
       -0.104096584 0.25148755 0.8668525 0.1245309
000130 4f 83 21 3e b7 af 3f 3f 85 37 32 3e 94 a0 06 3e
       0.15772747 0.74877495 0.17403992 0.13147193
000140 01 31 ce 3d 90 b7 88 3e 93 19 d9 bd a5 6e 11 3f
       0.100679405 0.26702547 -0.10600581 0.56809455
000150 27 03 bf 3a 44 7e 3f bc 0b 1e 4c 3e 1a b6 3e 3e
       0.0014573083 -0.011687819 0.19933335 0.18624154
000160 9d 89 25 be fd ba 01 3e f2 41 98 3e d4 04 ce 3d
       -0.16165777 0.12668987 0.29737812 0.10059515
000170 39 4c b6 bd 05 88 10 bf ab 2c ac 3d 82 60 03 3f
       -0.08901257 -0.5645755 0.08406957 0.51319134
000180 a0 2b 3b bd 78 b2 06 3e 74 26 a7 bd 38 6b 8f 3d
       -0.0456959 0.13154018 -0.08161631 0.07002872
000190 ba 17 47 3e 19 5c 60 3a b1 87 16 bf 18 09 26 bf
       0.19442645 0.00085586455 -0.588008 -0.64857626
0001a0 f6 94 37 3d 0b 34 e2 3d 8d f4 2a bf 32 be 00 3e
       0.044819795 0.11045083 -0.66779405 0.12572554
0001b0 c1 b1 14 3e 74 18 d3 3d 47 e8 1d bf ca 04 74 a8
       0.14520933 0.103073984 -0.6168255 -1.3545759e-14
0001c0 9a 2b 01 bf 09 3e 1d bf 26 64 48 be 3e b3 37 bf
       -0.50457156 -0.61422783 -0.19569454 -0.71757877
0001d0 15 2a 57 bf bb e7 41 bf 48 73 95 3e 11 2a 56 39
       -0.8404859 -0.7574422 0.29189515 0.00020424301
0001e0 3a 95 1b 3e aa 5d 13 bf 8b 3a 47 3f 70 ba 60 bf
       0.15193644 -0.57564795 0.77823704 -0.8778448
0001f0 8b 8f 38 3f 6e 36 24 3e 41 3d 46 bf 65 3d d2 3e
       0.7209403 0.16036388 -0.77437216 0.41062465
000200 89 b8 5a 82 e0 83 48 00 20 82 31 80 f9 1a 92 81
       -1.606907e-37 6.659464e-39 -4.54662e-39 -5.3670634e-38
000210 cc 49 04 82 a0 58 5c 01 e8 be 85 01 a8 21 88 01
       -9.719007e-38 4.0471204e-38 4.913042e-38 5.0006804e-38
000220 70 dd 85 81 38 3a dd 81 d0 e3 3a 81 10 be 82 80
       -4.917423e-38 -8.126612e-38 -3.4326252e-38 -1.2006796e-38
000230 a0 89 51 01 5c 99 85 01 78 4c e1 81 40 6c 0d 00
       3.8485978e-38 4.9076544e-38 -8.2761674e-38 1.232694e-39
000240 38 ba 85 01 a1 ce 8f 81 20 df 42 80 a0 10 17 80
       4.9123695e-38 -5.28264e-38 -6.141185e-39 -2.11818e-39
000250 df dd 85 01 00 da 6f 81 00 71 dd 80 62 41 93 82
       4.9174853e-38 -4.4053774e-38 -2.0336181e-38 -2.1637237e-37
000260 58 fd 87 01 48 2d 07 82 61 11 17 82 9c fa 26 82
       4.99547e-38 -9.931229e-38 -1.1098715e-37 -1.2267675e-37
000270 2d 57 46 82 20 25 ab 80 90 23 46 82 c4 dd cc 81
       -1.4571761e-37 -1.5717188e-38 -1.4556949e-37 -7.5255983e-38
000280 40 d3 85 01 f8 65 43 82 00 f1 3a 01 f0 0f 07 82
       4.9159613e-38 -1.4355601e-37 3.4335714e-38 -9.922807e-38
000290 70 1d 46 82 b0 ba 85 81 90 8e 54 81 a0 62 9e 00
       -1.4555191e-37 -4.912437e-38 -3.9040534e-38 1.4545388e-38
0002a0 20 6c 3d 00 dc 93 1b 82 a7 bc 85 01 d0 e8 18 82
       5.640753e-39 -1.1430035e-37 4.9127187e-38 -1.123401e-37
0002b0 a8 cb 9e 81 0c f8 18 82 e0 e0 f7 80 e6 d1 85 81
       -5.8332266e-38 -1.1238382e-37 -2.2764038e-38 -4.9157673e-38
0002c0 3e 5e 2b 82 10 bf 72 81 a8 6f 90 01 84 ab 19 81
       -1.2590142e-37 -4.458546e-38 5.3057465e-38 -2.8224718e-38
0002d0 80 4d cb 81 40 6b 63 80 b0 70 ba 81 a8 93 85 01
       -7.468163e-38 -9.130188e-39 -6.848731e-38 4.906836e-38
0002e0 f0 0b df 81 e0 19 0b 80 e0 52 49 01 50 2a 5e 01
       -8.193439e-38 -1.019473e-39 3.697733e-38 4.0805318e-38
0002f0 e0 ca 85 01 20 e3 25 82 e0 6b 7b 00 48 6d f7 82
       4.9147595e-38 -1.2187467e-37 1.1334464e-38 -3.6356112e-37
000300 50 37 a1 81 78 50 93 81 88 a5 85 81 18 93 85 81
       -5.922143e-38 -5.411474e-38 -4.909401e-38 -4.9067553e-38
000310 58 a9 85 81 a0 87 85 81 a8 d5 85 01 40 d2 85 81
       -4.909948e-38 -4.9051096e-38 4.9163066e-38 -4.915818e-38
000320 18 df 85 01 b0 83 85 81 70 bc 85 81 18 e0 85 81
       4.917661e-38 -4.9045446e-38 -4.912688e-38 -4.917804e-38
000330 a0 a7 85 81 8c d1 85 81 e8 dd 85 01 c0 c1 85 81
       -4.9097014e-38 -4.915717e-38 4.9174904e-38 -4.91345e-38
000340 c8 8c 85 81 10 89 85 81 28 de 85 81 b0 5d 88 81
       -4.9058495e-38 -4.905316e-38 -4.917526e-38 -5.0092945e-38
000350 56 a3 8d 81 52 91 85 81 08 d2 85 81 60 ab 85 81
       -5.2029595e-38 -4.906501e-38 -4.9157864e-38 -4.9102395e-38
000360 f1 f6 86 81 78 2f 86 81 e8 b8 85 81 40 8c 85 01
       -4.957817e-38 -4.929194e-38 -4.912181e-38 4.9057733e-38
000370 90 ac 85 81 e0 b3 85 81 18 f6 a3 81 38 d4 85 81
       -4.91041e-38 -4.911459e-38 -6.022987e-38 -4.9161003e-38
000380 98 a3 85 01 d8 e3 85 81 40 df 85 01 04 9d 89 81
       4.909123e-38 -4.9183424e-38 4.917683e-38 -5.055116e-38
000390 d0 ba 85 81 90 df 85 81 5c d1 85 81 e0 94 85 81
       -4.9124547e-38 -4.917728e-38 -4.91569e-38 -4.907011e-38
0003a0 b8 9f 85 81 d2 95 8d 81 c8 2f 86 81 20 8f 85 81
       -4.908567e-38 -5.20102e-38 -4.929239e-38 -4.906186e-38
0003b0 60 db 85 81 28 89 85 81 98 9a 85 81 45 cd 85 01
       -4.917127e-38 -4.9053294e-38 -4.9078315e-38 4.915103e-38
0003c0 28 97 85 01 b8 aa 85 81 00 cc 85 01 7c dd 85 81
       4.907338e-38 -4.9101453e-38 4.914921e-38 -4.91743e-38
0003d0 ee 9b 85 01 b8 52 90 81 b0 87 85 81 80 b8 85 01
       4.908023e-38 -5.301594e-38 -4.9051186e-38 4.912123e-38
0003e0 40 a2 85 81 a0 a0 85 01 a8 76 8c 81 b0 8e 85 81
       -4.90893e-38 4.908697e-38 -5.159814e-38 -4.906123e-38
0003f0 48 95 85 81 60 b8 88 81 88 c4 85 81 40 87 85 01
       -4.907069e-38 -5.0223075e-38 -4.913849e-38 4.905056e-38

fc_layers.1.bias f4 [32]
000000 d9 88 f1 bc ee 9b 1e 3d 30 53 a7 82 b1 4f 9b 81
       -0.0294842 0.038722925 -2.4586192e-37 -5.705236e-38
000010 91 84 75 bc 0e 28 4e 8c 28 6f ed 8c f3 b3 c6 84
       -0.01498522 -1.5881716e-31 -3.6582531e-31 -4.6714834e-36
000020 03 3c 58 ba 39 06 2c 84 a1 7b 81 83 3c 00 19 92
       -0.00082486885 -2.022136e-36 -7.610322e-37 -4.8278576e-28
000030 2b 75 b2 8a 73 88 85 81 18 e0 a0 81 db c8 85 81
       -1.718485e-32 -4.905228e-38 -5.9096276e-38 -4.91447e-38
000040 be c0 5f bd 65 8f 28 a5 9b 81 cc b9 35 f2 c4 8c
       -0.054627173 -1.4620261e-16 -0.00039006476 -3.0344355e-31
000050 2c 2d ef 96 ec c7 85 81 20 b2 85 81 21 fc 23 83
       -3.864104e-25 -4.914336e-38 -4.911208e-38 -4.8190825e-37
000060 21 b8 39 84 87 88 01 83 d7 1a a7 3e 6c 76 ab 81
       -2.1831193e-36 -3.806642e-37 0.32637665 -6.2985406e-38
000070 e0 d0 26 83 89 e2 94 3d 3f ac 85 81 aa 75 c7 97
       -4.9022792e-37 0.07269771 -4.9103645e-38 -1.2889776e-24
