checkpoints/neumf_first_try_Epoch36_HR0.6803_NDCG0.4084.model (torch, 645108 bytes, 13 tensors)

embedding_user_mlp.weight f4 [6040, 8]
-0.08918948 0.592573 0.7515208 0.5944319 -0.57955235 -0.13856277 0.063970365 -0.6231321
-0.44610146 0.1987485 0.272525 0.1471167 0.027261702 0.049664937 0.60046756 0.14552778
0.0795798 0.26581287 0.82489777 0.2106551 -0.07625627 -0.5627625 -0.6305416 -0.04915648
0.4639057 0.7882143 0.8740872 0.5239785 -0.83700097 -0.89370406 -0.13609552 -0.49309552
-0.47516263 0.103679135 -0.29598966 0.13540122 -0.55267596 -0.24881987 -0.63105494 -0.5932264
-0.100084014 -0.039719556 0.6300117 0.45374057 -0.45584434 -0.16015512 -0.80789685 -0.29556528
0.001108805 0.68750006 0.83830094 0.9676542 -0.47204706 -0.40703192 -0.5245073 -0.32468045
-0.005935089 -0.030035462 0.599832 0.08289755 0.5500925 -0.6971874 0.18022594 0.11619722
-0.21153381 0.43651944 0.5426228 0.4848043 -0.59142303 -0.33798808 -0.42149702 -0.4192345
-0.2267048 -0.13012996 0.058344048 -0.0752633 -0.42808953 0.103639916 0.31903452 0.09315037
0.08490797 -0.13183928 0.24357131 0.5584868 0.039892 -0.47013107 0.47389314 -0.009816969
0.0012357873 0.13198508 0.026657099 0.6781797 0.4945637 -0.017315729 0.1190545 -0.16547976
0.07439629 0.29969007 0.62720835 0.07715215 0.108856864 -0.055790637 0.2068698 -0.11879205
-0.5599304 -0.2800526 0.09959046 0.55453795 -0.7665327 -0.28506103 -0.3637797 -0.53512585
-0.3716343 0.06380327 0.08133076 0.07802549 -0.6985281 -0.5651964 0.14066108 0.250848
-0.49014345 -0.3321582 -0.5222874 0.61614513 -1.2790415 -0.51805204 -0.71985 -0.8416119
-0.20255928 -0.29949138 -0.10709812 0.6696292 -0.6962578 -0.16880877 -0.3296983 -0.18822227
0.3249413 -0.19878791 0.39225087 -0.29051393 0.30690497 0.48678944 0.28144428 -0.17816664
-0.26990703 0.62775236 -0.17604885 -0.33514124 -0.6072884 -0.1679658 -0.01731389 -0.19852138
-0.04647621 0.5255106 0.19135787 0.2468292 -0.6649995 -0.07431179 -0.71038634 -0.22016674
-0.8956591 -0.1280429 0.39669698 0.14557749 -0.28806144 -0.10277064 -0.14831257 0.13475043
0.0019411574 0.10122027 -0.028802222 0.11820227 0.20025934 0.35940307 -0.23903352 0.36193013
0.01161232 0.0115145985 -0.40479538 0.12958923 -0.3967918 -0.21711235 -0.39221337 -0.20366748
-0.655314 0.001717119 0.103343345 -0.22896133 -0.32612285 0.045830477 -0.33412772 -0.2912203
-0.67052215 -0.56837565 0.067640066 0.75518167 -0.40968776 -0.062368482 0.049243145 -0.7560203
0.29839593 -0.038666256 0.15883556 0.038345292 0.3716894 0.27068546 -0.12843259 0.6261835
-0.08505008 0.44817004 0.09535145 0.46935686 -0.500516 -0.21754177 -0.49589658 0.25791466
0.4981677 0.15604742 -0.2588059 0.5281852 -0.76066774 -0.4601763 -0.39153036 -0.2840393
-0.040984992 0.7628855 0.7761673 0.36154303 -0.073489375 0.41567463 -0.18838683 -0.30802813
0.056116406 0.39855275 0.639623 0.27090237 -0.44453642 -0.32135814 -0.25996208 -0.979088
-0.09935279 0.2734338 -0.14905459 0.66382337 -0.18455034 -0.7132391 -0.84310985 -0.051501457
0.17974505 0.37197813 0.10248741 0.44759044 -0.99796873 0.08616745 -0.1415514 -0.37319073
00000000: f9a8 b6bd ddb2 173f ab63 403f b02c 183f
00000010: 8b5d 14bf 66e3 0dbe e502 833d 9685 1fbf
00000020: 6967 e4be ba84 4b3e 6688 8b3e c3a5 163e
00000030: ef53 df3c 766d 4b3d 3eb8 193f 3c05 153e
00000040: bcfa a23d a018 883e 802c 533f f8b5 573e
00000050: 3f2c 9cbd 3411 10bf 2d6b 21bf 4e58 49bd
00000060: 0c85 ed3e 6ac8 493f 2ec4 5f3f 7423 063f
00000070: b245 56bf cac9 64bf a05c 0bbe 0477 fcbe
00000080: 8448 f3be ba55 d43d f58b 97be 9ea6 0a3e
00000090: 2c7c 0dbf a3ca 7ebe d18c 21bf afdd 17bf
000000a0: d9f8 ccbd f9b0 22bd 7248 213f af50 e83e
000000b0: 6e64 e9be b4ff 23be 54d2 4ebf 5554 97be
000000c0: 5255 913a 0100 303f e49a 563f 30b8 773f
000000d0: 27b0 f1be 7d66 d0be 1c46 06bf 843c a6be
000000e0: 237b c2bb ee0c f6bc 978e 193f 31c6 a93d
000000f0: ddd2 0c3f e07a 32bf 268d 383e cff8 ed3d
00000100: 529c 58be 7a7f df3e 54e9 0a3f 4538 f83e
00000110: 8067 17bf c60c adbe 75ce d7be e8a5 d6be
00000120: 4e25 68be ca40 05be 2bfa 6e3d a523 9abd
00000130: 8d2e dbbe 2a41 d43d 7e58 a33e 9fc5 be3d
00000140: 3be4 ad3d e000 07be c26a 793e fef8 0e3f
00000150: cb65 233d 05b5 f0be 1fa2 f23e 5ad7 20bc
00000160: 24fa a13a 1927 073e fd5f da3c 2f9d 2d3f
00000170: 7437 fd3e b7d9 8dbc d8d2 f33d 8773 29be
00000180: 155d 983d fa70 993e ba90 203f f201 9e3d
00000190: 59f0 de3d b984 64bd add5 533e 3f49 f3bd
000001a0: 9957 0fbf 0e63 8fbe 15f6 cb3d 33f6 0d3f
000001b0: 7d3b 44bf 85f3 91be 5541 babe 02fe 08bf
000001c0: da46 bebe 4aab 823d be90 a63d d4cb 9f3d
000001d0: bdd2 32bf b6b0 10bf 7509 103e 266f 803e
000001e0: 15f4 fabe a410 aabe a1b4 05bf b0bb 1d3f
000001f0: a2b7 a3bf 0f9f 04bf 1748 38bf e173 57bf
00000200: b36b 4fbe ef56 99be 4256 dbbd d26c 2b3f
00000210: f43d 32bf 35dc 2cbe 37ce a8be 57bd 40be
00000220: b55e a63e 0f8f 4bbe 1bd5 c83e 3ebe 94be
00000230: a622 9d3e 773c f93e 7719 903e 5171 36be
00000240: 4131 8abe 61b4 203f 2646 34be a297 abbe
00000250: 4177 1bbf 3aff 2bbe dcd5 8dbc 3049 4bbe
00000260: d75d 3ebd dd87 063f 51f3 433e cbc0 7c3e
00000270: 683d 2abf c830 98bd e1db 35bf 6473 61be
00000280: ea49 65bf ae1d 03be de1b cb3e 4412 153e
00000290: ca7c 93be 6a79 d2bd 40df 17be 04fc 093e
000002a0: 6f6e fe3a 934c cf3d a3f2 ebbc 0814 f23d
000002b0: c910 4d3e ae03 b83e 34c5 74be e84e b93e
000002c0: 9a41 3e3c baa7 3c3c 5741 cfbe 0ab3 043e
000002d0: 4b28 cbbe b352 5ebe 31d0 c8be 358e 50be
000002e0: a9c2 27bf f410 e13a ada5 d33d d774 6abe
000002f0: 93f9 a6be bdb8 3b3d ca12 abbe d41a 95be
00000300: 57a7 2bbf 1181 11bf e086 8a3d 9653 413f
00000310: 98c2 d1be 1876 7fbd 2eb3 493d 8c8a 41bf
00000320: 5ac7 983e 8260 1ebd caa5 223e f40f 1d3d
00000330: 134e be3e 4997 8a3e d583 03be 904d 203f
00000340: bd2e aebd 8b76 e53e 9f47 c33d 8b4f f03e
00000350: d121 00bf 45c3 5ebe 28e6 fdbe 640d 843e
00000360: d60f ff3e e5ca 1f3e 3582 84be 2537 073f
00000370: 1fbb 42bf 3a9c ebbe ab76 c8be 996d 91be
00000380: e1df 27bd 774c 433f e6b2 463f 2b1c b93e
00000390: 9981 96bd 4ed3 d43e 7ae8 40be ddb5 9dbe
000003a0: 51da 653d 1b0f cc3e 55be 233f b7b3 8a3e
000003b0: 479a e3be 0e89 a4be c019 85be 83a5 7abf
000003c0: 7a79 cbbd 84ff 8b3e c4a1 18be 54f0 293f
000003d0: c4fa 3cbe d696 36bf 0cd6 57bf 31f3 52bd
000003e0: 160f 383e eb73 be3e ebe4 d13d 932a e53e
000003f0: e17a 7fbf 8f78 b03d daf2 10be db12 bfbe

embedding_item_mlp.weight f4 [3706, 8]
-1.0334034 -1.3117054 -0.33085844 1.8013983 1.1926817 1.4406027 -0.84999406 0.02166784
-0.7037486 -0.25238177 -0.2558525 -0.021153884 0.17111176 -0.27793235 -0.00014244685 0.30718294
-0.3554382 0.17739569 -0.52631605 -0.0076073254 0.25246987 0.59238076 -0.13669832 0.07832261
-0.7730871 -0.79862416 -0.62067556 0.49656397 0.1520681 1.2517081 -0.791402 0.79475105
-0.41749582 -1.3982294 -0.98695683 0.5239068 0.55223584 0.47605476 -0.3345917 1.3245674
-0.90563154 -0.89183784 -0.39736432 -0.51461715 0.3627628 1.10152 -0.35245752 0.5049816
-0.17554441 -0.12931842 -0.055473074 -0.28574193 0.12418367 0.15497608 0.06812244 -0.06335462
-0.0939824 -0.5953271 -0.05708973 -0.37651896 0.593227 0.40175998 0.12892231 0.08447357
-0.07084241 0.31608492 -0.39080334 -0.4459787 0.10062945 -0.06475546 -0.047137704 0.03369136
-0.52474785 0.02844487 -0.41091335 0.4663481 0.03746373 0.7029941 -0.22479588 0.014093344
-0.22008799 -0.14684264 -0.30368528 -0.2651302 0.18880649 0.023329461 -0.30178562 0.088413715
-0.10590423 0.27710313 -0.12378218 -0.033563644 0.11149654 -0.28778505 -0.061427604 0.24105337
0.034114882 0.37215135 0.054414656 -0.019216014 -0.48124284 0.08312519 0.23642509 -0.06474968
0.46309468 -0.0037642461 -0.1662462 -0.3347101 -0.3253658 0.13631324 0.0057319263 0.22312139
-0.88670003 -0.056285776 -0.5585329 0.11918927 0.08625101 -0.03349129 -0.44003332 0.4566602
-0.90894145 -0.34878805 -0.50821984 0.20526616 -0.15046304 0.15332398 -0.34510493 0.27180794
0.7883061 -1.0873038 -0.089709155 -0.73134077 0.57084733 0.13682336 -0.16834562 0.38338095
0.09818728 0.049071077 -0.5726619 -0.3310903 0.3641947 -0.20583765 0.28596562 -0.29601464
-0.3014537 -0.15474291 0.2412509 0.27805817 0.01611337 -0.21438769 0.28253114 -0.3350654
-0.25465393 -0.23042418 -0.18461496 -0.16270308 -0.16843393 0.53810227 -0.16253592 -0.019688506
-0.17299557 0.23939659 0.2538723 0.4349588 0.3303516 0.1540069 -0.55818355 0.24305663
0.37805885 -0.44235635 0.12757231 -0.48241395 0.4213183 0.24378364 0.5060351 0.04548841
-0.2501621 -0.68745494 -0.6410952 0.75503755 0.3951919 0.7688945 -0.6555265 0.3492448
-0.95702225 -1.3336048 -0.7195616 1.1703329 1.0254741 0.6789821 -0.64303493 0.0009552509
-0.055345546 -0.37664843 0.34003302 -0.04913728 0.051444445 0.32643542 0.044533808 0.17228097
-0.24305989 0.21366131 -0.039052304 -0.35197878 0.08496267 -0.16561885 0.32280934 -0.06753164
-0.38835856 -1.0385851 -0.5781833 0.53541523 0.28691226 0.68900484 -0.59331536 0.30402276
-0.70150054 -0.7397754 -0.44511178 0.85068166 1.2900501 1.007772 -0.672097 -0.1116185
0.3521466 -0.3179794 0.44864097 -0.8011798 -0.16116303 0.18076919 0.35950023 -0.25340658
0.4045399 -0.47407928 0.16217436 -0.4287543 1.025293 0.46136135 0.11184642 0.4373606
0.10420195 -0.42023352 -0.21236071 0.15245712 0.2555841 -0.15814604 0.08081143 -0.17500937
-0.09633844 -0.7040821 0.29598704 0.5276523 0.15292394 1.1380321 -0.2132713 -0.11901434
00000000: 9046 84bf f6e5 a7bf 4766 a9be 3894 e63f
00000010: cba9 983f ab65 b83f 3699 59bf c180 b13c
00000020: de28 34bf 2f38 81be 19ff 82be e94a adbc
00000030: ec37 2f3e 264d 8ebe c95d 15b9 1547 9d3e
00000040: fffb b5be 37a7 353e a6bc 06bf df46 f9bb
00000050: bb43 813e 44a6 173f a5fa 0bbe 9b67 a03d
00000060: 09e9 45bf a272 4cbf 98e4 1ebf a23d fe3e
00000070: bdb7 1b3e f937 a03f 5299 4abf ce74 4b3f
00000080: 03c2 d5be 2ef9 b2bf 34a9 7cbf c21e 063f
00000090: 545f 0d3f 73bd f33e 9a4f abbe 6d8b a93f
000000a0: 78d7 67bf 7c4f 64bf 5673 cbbe f3bd 03bf
000000b0: 0cbc b93e 9bfe 8c3f 5075 b4be 7946 013f
000000c0: eac1 33be 0c6c 04be bc37 63bd c44c 92be
000000d0: 0254 fe3d 0db2 1e3e c783 8b3d 11c0 81bd
000000e0: d879 c0bd 5b67 18bf ecd6 69bd 18c7 c0be
000000f0: badd 173f 7cb3 cd3e 3604 043e 7b00 ad3d
00000100: d315 91bd e2d5 a13e 6017 c8be 5257 e4be
00000110: d016 ce3d 839e 84bd 7713 41bd f4ff 093d
00000120: e055 06bf 3705 e93c 3c63 d2be 2ec5 ee3e
00000130: 9173 193d 6cf7 333f e430 66be c5e7 663c
00000140: bf5e 61be eb5d 16be a37c 9bbe 25bf 87be
00000150: 7d56 413e 6d1d bf3c a583 9abe 4012 b53d
00000160: 51e4 d8bd 76e0 8d3e 8381 fdbd 087a 09bd
00000170: 4c58 e43d 9058 93be 839b 7bbd b2d6 763e
00000180: 0cbc 0b3d 9f8a be3e e7e1 5e3d e76a 9dbc
00000190: 7665 f6be 8a3d aa3d 6b19 723e 7b9b 84bd
000001a0: bf1a ed3e 92b1 76bb 723c 2abe 1f5f abbe
000001b0: 5996 a6be b395 0b3e e2d2 bb3b ef79 643e
000001c0: c6fe 62bf ea8b 66bd 03fc 0ebf 8119 f43d
000001d0: 5fa4 b03d 2a2e 09bd 0c4c e1be 5ecf e93e
000001e0: 63b0 68bf 5994 b2be b21a 02bf 4b31 523e
000001f0: fc12 1abe f600 1d3e 98b1 b0be 692a 8b3e
00000200: 6ece 493f c52c 8bbf 6fb9 b7bd 2639 3bbf
00000210: 0d23 123f 6c1b 0c3e cb62 2cbe 824a c43e
00000220: 6a16 c93d c1fe 483d f899 12bf ab84 a9be
00000230: ba77 ba3e 1bc7 52be 166a 923e 3b8f 97be
00000240: 2458 9abe ed74 1ebe 7a0a 773e a45d 8e3e
00000250: 3000 843c 7288 5bbe eca7 903e b18d abbe
00000260: 0062 82be 51f4 6bbe b40b 3dbe a39b 26be
00000270: f279 2cbe 12c1 093f d16f 26be ca49 a1bc
00000280: c025 31be 6124 753e 8dfb 813e ebb2 de3e
00000290: d823 a93e fcb3 1d3e 1ee5 0ebf d6e3 783e
000002a0: ee90 c13e 887c e2be 51a2 023e f6fe f6be
000002b0: 08b7 d73e 6ba2 793e 848b 013f 0e52 3a3d
000002c0: 3f15 80be 0cfd 2fbf d11e 24bf 244a 413f
000002d0: 9856 ca3e 45d6 443f 96d0 27bf 37d0 b23e
000002e0: 69ff 74bf 90b3 aabf 3035 38bf 78cd 953f
000002f0: bc42 833f c5d1 2d3f f09d 24bf cd69 7a3a
00000300: 03b2 62bd 10d8 c0be cf18 ae3e 2c44 49bd
00000310: 69b7 523d 8b22 a73e 1569 363d 6c6a 303e
00000320: b1e4 78be 08ca 5a3e 4ff5 1fbd 9036 b4be
00000330: e900 ae3d fd97 29be 4447 a53e 074e 8abd
00000340: efd6 c6be 5bf0 84bf d203 14bf f910 093f
00000350: 2ae6 923e 9f62 303f 84e3 17bf dfa8 9b3e
00000360: 8a95 33bf ec61 3dbf b1e5 e3be 46c6 593f
00000370: 5d20 a53f acfe 803f 8d0e 2cbf 3d98 e4bd
00000380: 8f4c b43e 32ce a2be 45b4 e53e 1f1a 4dbf
00000390: ec07 25be 8f1b 393e 6a10 b83e 82be 81be
000003a0: db1f cf3e 85ba f2be 0911 263e af85 dbbe
000003b0: cd3c 833f 8e37 ec3e bc0f e53d bbed df3e
000003c0: d567 d53d d928 d7be 1675 59be b81d 1c3e
000003d0: ebdb 823e 09f1 21be 7780 a53d a835 33be
000003e0: 174d c5bd b93e 34bf 9d8b 973e 3914 073f
000003f0: 1898 1c3e 09ab 913f cb63 5abe cabd f3bd

embedding_user_mf.weight f4 [6040, 8]
0.052395377 0.17672725 -0.25941896 0.6090188 0.022069396 -0.5161561 0.02087348 -1.5898168
-0.046463076 -0.44653523 0.08644999 1.4724039 0.15227692 0.035632014 0.325842 0.06831246
0.5243685 -0.84268486 -0.08269735 -0.012577537 0.07471911 0.9697399 0.45587885 -0.9580649
-0.13770476 -0.1828845 0.5195452 0.9065482 -0.6338759 1.1634427 0.59060025 -0.6251581
-0.024368748 -0.60165864 -0.10246616 0.35896015 -1.0646757 -0.5951168 -0.45829543 0.033064134
0.31613562 0.1493036 -0.6585479 0.66186935 0.7232699 -0.09791465 0.43506232 -0.37739658
0.7686561 -0.84501266 0.63718116 0.56484455 -0.51607305 0.93486017 0.4025183 -0.3325074
0.56658983 -0.8848802 0.28445613 0.99869406 -0.8916696 -0.8596248 -0.16804214 -0.20683047
0.27120015 -1.343091 0.2530468 0.94752103 -0.27332792 -0.50656575 -0.41406712 -0.8599973
0.25978985 0.24238743 -0.81431884 0.4910667 0.11637438 0.27057692 0.08325814 -0.68639994
0.061069515 -0.8124765 -0.52065676 -0.37714934 -0.3671397 -0.4817858 -0.03810793 -0.86105317
-0.44534186 -0.6263527 0.22240683 0.07111963 -0.014003968 0.6095512 -0.2913078 -0.76730514
0.38709268 0.089180835 -0.2758102 1.363914 -0.11347625 0.71668196 -0.045003742 0.20507856
-0.22167504 -0.14129248 -0.037874997 -0.2586572 -0.5228301 0.17445475 0.43203852 -0.34424773
0.73880607 -1.0381844 0.32335344 0.3980028 0.014769635 -0.1672035 0.4185614 -0.53912765
0.6871732 0.3125885 -0.36781555 0.21830268 0.35774785 0.023144122 0.24709383 0.054196306
0.17041658 0.053864967 0.18682203 0.45380184 -0.8702269 0.29066658 -0.2239062 0.58679956
0.57901394 0.026385665 -0.23166603 1.017882 -0.3741895 0.16847749 -0.24525791 -0.5084958
0.548715 0.12102689 0.27051097 -0.052775003 -0.34346423 0.84744525 0.07210519 -0.8357647
0.5203308 -0.8966585 0.11557129 0.15530197 -0.46319517 0.54044616 -0.11340648 -0.32781845
0.80385166 0.11810578 -0.2553268 0.23403208 -0.46877784 0.27267873 -0.66185266 -0.6776657
0.6449792 -0.64660347 -0.3575048 -0.2872526 -0.7383405 0.5383455 0.02724371 -0.6520982
-0.04195645 -0.26881018 -0.28156692 0.24845782 -1.1014447 0.59867626 -0.08581705 0.3478736
-0.106222965 -0.3706365 -0.87464976 0.45625812 -0.3663897 -0.14597186 0.4075604 -0.22110407
0.6688239 -0.38628554 -0.19705726 0.5722108 -0.46215945 0.6186169 -0.5291693 -0.43744388
0.6098581 -0.32168457 -0.8186757 0.023852887 0.116973795 -0.28924534 0.99916875 -0.25296846
-0.5020009 0.086028084 -0.2977284 0.45995575 -0.23917165 0.57919705 -0.10310594 -0.57068354
-0.2527563 0.10938534 -0.38163102 0.4686944 -0.5674923 -0.2138292 0.07008403 -0.6258474
0.06818403 -0.30070636 0.69845736 0.712455 -0.25932816 1.3650237 0.6324676 0.30877462
-0.13198514 -0.45160556 0.244232 0.4850708 -0.57753164 -0.62348944 -0.22109945 -0.51364285
-0.33602074 -0.2416775 -1.1786855 -0.32200766 0.7479986 0.8560293 0.20887306 -0.38551638
-0.11608179 -0.5042769 0.1249943 0.34567907 -0.4417426 -0.40857226 0.10366267 -0.085383214
00000000: 899c 563d fdf7 343e 90d2 84be a8e8 1b3f
00000010: e1ca b43c ce22 04bf dcfe aa3c 1e7f cbbf
00000020: 1150 3ebd 44a0 e4be b10c b13d bb77 bc3f
00000030: 7bee 1b3e e0f2 113d c3d4 a63e 67e7 8b3d
00000040: 043d 063f 32ba 57bf 3a5d a9bd 0412 4ebc
00000050: 5506 993d e040 783f f468 e93e be43 75bf
00000060: 7a02 0dbe 1346 3bbe ea00 053f 8b13 683f
00000070: b145 22bf b1eb 943f 9431 173f 5c0a 20bf
00000080: f8a0 c7bc 4d06 1abf c7d9 d1bd a0c9 b73e
00000090: 4b47 88bf 9359 18bf b3a5 eabe 426e 073d
000000a0: 87dc a13e 0be3 183e 9896 28bf 4570 293f
000000b0: 3728 393f 7a87 c8bd 7dc0 de3e 203a c1be
000000c0: a5c6 443f c052 58bf 4e1e 233f a799 103f
000000d0: 5d1d 04bf ff52 6f3f e116 ce3e 693e aabe
000000e0: 080c 113f 8287 62bf 3ca4 913e 6aaa 7f3f
000000f0: 7544 64bf 5f10 5cbf 3d13 2cbe 5ecb 53be
00000100: bfda 8a3e 68ea abbf 5a8f 813e bd90 723f
00000110: a3f1 8bbe 4bae 01bf 9b00 d4be c828 5cbf
00000120: 2d03 853e 6934 783e 3377 50bf 186d fb3e
00000130: b155 ee3d 0f89 8a3e 3e83 aa3d e8b7 2fbf
00000140: 0724 7a3d 76fe 4fbf c349 05bf b819 c1be
00000150: bcf9 bbbe a1ac f6be 1017 1cbd fb6d 5cbf
00000160: d903 e4be a758 20bf 9ebe 633e 2ba7 913d
00000170: e670 65bc 8c0b 1c3f 4c26 95be 1c6e 44bf
00000180: 0331 c63e 71a4 b63d ff36 8dbe bc94 ae3f
00000190: 3c66 e8bd 7878 373f d855 38bd 1d00 523e
000001a0: c8fe 62be faae 10be d022 1bbd b76e 84be
000001b0: 32d8 05bf 44a4 323e 2734 dd3e 3d41 b0be
000001c0: 6522 3d3f 3ae3 84bf 958e a53e 06c7 cb3e
000001d0: 57fc 713c 6537 2bbe ae4d d63e 4504 0abf
000001e0: 95ea 2f3f 9a0b a03e 5252 bcbe bd8a 5f3e
000001f0: ba2a b73e be98 bd3c 2a06 7d3e f2fc 5d3d
00000200: af81 2e3e 83a1 5c3d 464e 3f3e b758 e83e
00000210: 31c7 5ebf 40d2 943e ab47 65be 7f38 163f
00000220: 423a 143f c026 d83c dc39 6dbe f549 823f
00000230: c495 bfbe 5d85 2c3e e424 7bbe c82c 02bf
00000240: 9678 0c3f f2dc f73d 6a80 8a3e 9a2a 58bd
00000250: 8bda afbe 2cf2 583f e3ab 933d adf4 55bf
00000260: 6634 053f 698b 65bf a4b0 ec3d 7b07 1f3e
00000270: eb27 edbe ae5a 0a3f a841 e8bd d2d7 a7be
00000280: 39c9 4d3f 71e1 f13d 32ba 82be 1ba6 6f3e
00000290: a603 f0be 8c9c 8b3e 2d6f 29bf 807b 2dbf
000002a0: 5b1d 253f ce87 25bf df0a b7be c612 93be
000002b0: e203 3dbf 03d1 093f 332e df3c e8ef 26bf
000002c0: 87da 2bbd 7da1 89be 8a29 90be ba6b 7e3e
000002d0: 24fc 8cbf d942 193f d9c0 afbd 7d1c b23e
000002e0: 6d8b d9bd 11c4 bdbe 0ce9 5fbf aa9a e93e
000002f0: 6e97 bbbe a679 15be c2ab d03e 1b69 62be
00000300: 0b38 2b3f 38c7 c5be 61c9 49be 687c 123f
00000310: 2aa0 ecbe ad5d 1e3f a477 07bf a5f8 dfbe
00000320: a91f 1c3f d7b3 a4be bb94 51bf 2167 c33c
00000330: f58f ef3d f717 94be 86c9 7f3f 1585 81be
00000340: 2283 00bf 7e2f b03d db6f 98be 527f eb3e
00000350: 6ae9 74be 4246 143f 3529 d3bd 5118 12bf
00000360: 4669 81be 6c05 e03d 2465 c3be b6f8 ef3e
00000370: 2d47 11bf 0bf6 5abe 3788 8f3d 8937 20bf
00000380: 12a4 8b3d 2ff6 99be 1ace 323f 7363 363f
00000390: a9c6 84be 19b9 ae3f 66e9 213f b517 9e3e
000003a0: 1d27 07be d838 e7be f417 7a3e 335b f83e
000003b0: 1dd9 13bf 019d 1fbf e567 62be 197e 03bf
000003c0: e90a acbe 4e7a 77be 2bdf 96bf 30de a4be
000003d0: d67c 3f3f bc24 5b3f d2e2 553e 6762 c5be
000003e0: 4abc edbd 4a18 01bf 03fd ff3d d9fc b03e
000003f0: 162c e2be 6230 d1be 184d d43d 65dd aebd

embedding_item_mf.weight f4 [3706, 8]
0.5253337 -0.039243527 -0.20179254 0.34719235 0.15646245 0.056119513 0.38193366 0.43302006
-0.1539747 -0.6701521 0.15291855 0.11932847 0.17838602 -0.11181436 -0.7761302 0.490713
0.21945441 -1.1051309 0.24817464 0.5509835 -0.51551753 -0.3218344 0.10843622 0.29187402
0.042767607 0.372512 -0.35783204 -0.10763797 -0.49178252 -0.42044204 0.041043602 0.17352892
-0.28782645 0.06891879 0.32477844 0.04527184 -0.18845206 -0.01111783 -0.26311335 0.5293243
-0.10707697 0.23859964 0.8390378 0.2954217 0.3926362 0.42212513 0.11249368 0.36647758
0.17660537 -0.41496378 -0.3788175 0.8123501 -0.4162493 0.62172467 0.17065541 0.10678564
0.2554057 0.16966312 0.48996255 -0.30588815 0.39120817 0.26403013 0.31307602 1.0412664
-0.12221725 -1.2395172 0.2582294 0.45695555 0.026514478 0.08511653 -0.38883987 1.4431332
0.20042217 -0.54546505 0.24813162 0.82270616 0.22938535 0.19553 0.14042374 1.2535245
-0.44967666 -0.61017555 0.34818965 0.7454251 0.14754681 -0.251449 -0.4129793 1.2833596
0.33311415 -1.4608556 0.12180699 0.19252746 -0.8653066 -0.43201816 -0.3219756 -0.018294903
0.2668883 -0.92038816 -0.18246213 0.56424785 -0.56419694 -0.22082417 0.38531134 0.9727084
0.14731394 0.5439832 1.2429377 -0.2661186 0.32741913 0.27283964 0.6543616 1.1551626
0.079524145 -0.6769375 0.28501925 0.26181448 -0.23074992 -0.20100662 0.14055453 0.62632585
0.31353465 0.28560233 0.83295053 -0.43957368 0.20869365 0.48379084 0.5020517 0.7790674
-0.36706457 -0.56123006 -0.08906906 0.40621364 -0.20310701 -0.11464888 -0.46105802 0.64795476
-0.07731544 -1.0320579 0.03875464 0.4143319 -0.113233246 -0.03126907 -0.34097752 1.2743756
0.07381591 -0.031786047 0.114972025 0.6188877 0.3794847 -0.78699654 0.4720242 0.474281
-0.031389847 -0.031738833 0.9999357 -0.06516121 0.4517426 0.3257433 0.4793958 0.67043775
-0.09001649 0.52193683 0.62075084 -0.073834494 -0.064786665 -0.17453715 -0.099870436 0.6200691
0.2567572 -0.11752006 0.07737688 0.28117162 0.24394378 -0.01994879 -1.1041234 0.3963819
-0.057215504 0.057645496 1.0752437 0.26858565 0.66845256 0.6011655 0.50946796 0.62157214
0.17593323 0.32040814 -0.15663663 0.774234 0.44772393 -0.27807733 0.33971465 0.6732082
-0.3419067 0.07896193 -0.007545631 -0.17570062 -0.60744995 -0.57530266 0.34889042 -0.434788
-0.68159026 -0.93981427 0.22040688 0.41264087 -0.4256872 -0.46747795 -0.6600102 0.61623764
-0.08348533 -0.40000185 0.74631065 0.5913667 0.8594985 0.18619221 0.43864152 0.64173007
-0.29606834 0.22828408 0.13033019 0.51051956 0.016861612 -0.46234378 0.3882628 0.2255325
0.5315408 -0.34583765 -0.8368108 0.00019670733 -0.42594573 -1.1065814 -0.6794072 -0.30988437
0.25368932 0.105098665 0.50949675 0.26848716 0.28720006 0.09462387 -1.1308122 0.3460628
-0.40470427 -0.2670924 0.16975294 0.37928993 0.08191355 -0.14263111 -0.4795327 0.6539963
-0.034802526 0.13680258 -0.45774463 -0.46023518 -0.1545779 -0.78812987 -0.04192486 -0.056493413
00000000: 457c 063f d2bd 20bd b4a2 4ebe 32c3 b13e
00000010: b137 203e 93dd 653d cf8c c33e ceb4 dd3e
00000020: 8bab 1dbe 178f 2bbf ae96 1c3e 7c62 f43d
00000030: d3aa 363e edfe e4bd 78b0 46bf bc3e fb3e
00000040: a8b8 603e ee74 8dbf 7e21 7e3e 410d 0d3f
00000050: f5f8 03bf 7ac7 a4be cf13 de3d 8370 953e
00000060: 162d 2f3d e5b9 be3e c335 b7be 4c71 dcbd
00000070: ebca fbbe 2e44 d7be 561d 283d 91b1 313e
00000080: fd5d 93be 4b25 8d3d 5c49 a63e f76e 393d
00000090: 94f9 40be 8f27 36bc cbb6 86be cc81 073f
000000a0: 2c4b dbbd 7753 743e 2ecb 563f 8341 973e
000000b0: 9d07 c93e c920 d83e 1663 e63d f3a2 bb3e
000000c0: 0ad8 343e 2276 d4be 5ef4 c1be 2df6 4f3f
000000d0: a11e d5be 5929 1f3f 4bc0 2e3e 6eb2 da3d
000000e0: 89c4 823e 2bbc 2d3e 5fdc fa3e 5f9d 9cbe
000000f0: 704c c83e f52e 873e 804b a03e 3848 853f
00000100: 0a4d fabd 80a8 9ebf a536 843e 14f6 e93e
00000110: e434 d93c 9351 ae3d 0516 c7be 97b8 b83f
00000120: 783b 4d3e 99a3 0bbf 3716 7e3e df9c 523f
00000130: fee3 6a3e 0439 483e 3ecb 0f3e 7e73 a03f
00000140: 053c e6be 7734 1cbf ea45 b23e 2ed4 3e3f
00000150: 8316 173e ecbd 80be 0672 d3be 2145 a43f
00000160: f08d aa3e 51fd babf f175 f93d eb25 453e
00000170: bc84 5dbf 7c31 ddbe fcd9 a4be 31df 95bc
00000180: 95a5 883e 8f9e 6bbf 5ad7 3abe 8c72 103f
00000190: 366f 10bf bb1f 62be 8747 c53e 6b03 793f
000001a0: 77d9 163e 7c42 0b3f 9518 9f3f b240 88be
000001b0: 7ba3 a73e a3b1 8b3e 3e84 273f 5edc 933f
000001c0: 8edd a23d c74b 2dbf 0bee 913e 8c0c 863e
000001d0: b549 6cbe aed4 4dbe 87ed 0f3e e456 203f
000001e0: 9d87 a03e 783a 923e 3f3c 553f cd0f e1be
000001f0: cab3 553e 6fb3 f73e 7686 003f f670 473f
00000200: e3ef bbbe c6ac 0fbf d769 b6bd 3cfb cf3e
00000210: 49fb 4fbe 08cd eabd cc0f ecbe 5de0 253f
00000220: 8f57 9ebd 791a 84bf 2fbd 1e3d 5023 d43e
00000230: d5e6 e7bd ff13 00bd 9b94 aebe bd1e a33f
00000240: cc2c 973d 1632 02bd 7476 eb3d 6d6f 1e3f
00000250: d24b c23e 9b78 49bf 28ad f13e f6d4 f23e
00000260: a492 00bd 9400 02bd c9fb 7f3f 3e73 85bd
00000270: ce4a e73e d3c7 a63e 5e73 f53e cfa1 2b3f
00000280: 915a b8bd a79d 053f 87e9 1e3f 8a36 97bd
00000290: dfae 84bd deb9 32be df88 ccbd d9bc 1e3f
000002a0: ae75 833e 5bae f0bd c577 9e3d baf5 8f3e
000002b0: 66cc 793e a56b a3bc ea53 8dbf 92f2 ca3e
000002c0: ce5a 6abd af1d 6c3d 96a1 893f 0f84 893e
000002d0: b51f 2b3f fbe5 193f 7e6c 023f 5a1f 1f3f
000002e0: d727 343e 890c a43e 5a65 20be 3334 463f
000002f0: 123c e53e 2760 8ebe 14ef ad3e 5f57 2c3f
00000300: 650e afbe cbb6 a13d 5741 f7bb ddea 33be
00000310: d781 1bbf 0947 13bf c4a1 b23e 889c debe
00000320: b37c 2ebf ab97 70bf 57b2 613e aa45 d33e
00000330: acf3 d9be 4559 efbe 6ef6 28bf c0c1 1d3f
00000340: 5bfa aabd 0bcd ccbe 370e 3f3f cf63 173f
00000350: 1808 5c3f 2ca9 3e3e 9f95 e03e 6c48 243f
00000360: 4596 97be 4dc3 693e 4775 053e 69b1 023f
00000370: 5d21 8a3c 53b8 ecbe 62ca c63e fef1 663e
00000380: 0f13 083f a211 b1be 3c39 56bf 3943 4e39
00000390: 8f15 dabe 76a4 8dbf a1ed 2dbf 2aa9 9ebe
000003a0: 91e3 813e f83d d73d 616e 023f 2677 893e
000003b0: e30b 933e 29ca c13d 74be 90bf 252f b13e
000003c0: 6635 cfbe 56c0 88be b7d3 2d3e 4a32 c23e
000003d0: 4bc2 a73d e40d 12be 4f85 f5be 4d6c 273f
000003e0: 188d 0ebd fa15 0c3e 815d eabe f2a3 ebbe
000003f0: ab49 1ebe e1c2 49bf 67b9 2bbd a365 67bd

fc_layers.0.weight f4 [64, 16]
-0.28808933 -0.37400413 -0.173827 0.49596733 0.08194131 -0.747578 -0.8570228 -0.37097824
-0.027218696 0.057991005 0.29436776 -0.28311637 -0.7231639 -0.5346901 0.24702075 0.19539788
-0.82095397 0.36585116 -0.057176743 -0.42524633 -0.31527293 0.18393376 0.057004217 -0.3834611
-0.54038817 0.21601199 0.36244962 -0.039586406 0.4404136 0.26786348 0.46744832 -0.8348139
0.4979243 0.395912 0.32539752 0.1879264 0.22531213 -0.70688766 0.10845709 0.9053899
0.845625 0.061805215 0.31022695 -0.56671524 1.40329 0.45396966 0.36977455 -0.82901305
0.76158756 0.18264206 -0.22047727 0.11963614 -0.9923634 -0.5503075 -0.29789704 -0.031134509
0.16015154 0.23999001 0.81683385 -0.15844232 -0.50389713 0.26654518 -0.3203692 -0.28393793
0.46487787 0.024521304 0.17087986 0.03628528 0.39108032 -0.8126017 -0.01183754 0.3062335
0.8055653 -0.11306857 -0.12276882 -0.060581833 0.22943664 0.07295265 -0.23868756 -0.04636381
0.4809872 -0.08100676 0.20107573 0.44056985 -0.40366566 -0.6032026 -0.4999757 -0.13823976
0.46158615 -0.25894105 -0.29252148 0.058183085 -0.69919425 -0.28334925 -0.42096037 -0.46022373
0.27292758 -0.27004352 -0.38961878 0.6493768 0.19703202 -0.4773102 0.50810033 -0.5522335
-0.6247276 0.59324723 0.028128518 -0.42469162 -0.21660814 0.08231453 -0.29372624 0.44286236
0.05840655 0.3843927 -0.22284748 0.1976329 -0.026871573 0.14339918 -0.0054806178 -0.06924749
-0.30578965 0.018482141 0.28592107 -0.10938411 -0.12382759 -0.13887165 0.022707978 -0.11650452
0.008060947 0.37707806 0.3525059 -0.44566566 0.8084775 -0.07386822 0.24683681 -0.49699095
-0.338332 -0.23553577 0.4742534 -0.04224361 0.20235719 -0.26403928 -0.1733845 -0.25967237
-0.5314018 0.013543937 0.5898715 0.12204418 -0.48328832 0.26111767 -0.5578607 -0.8120733
-0.21236038 0.47969234 0.3726831 -0.07941711 -0.22539128 -0.030591447 -0.19037853 -1.1120845
0.8002776 0.09380076 0.14274026 -0.1512856 -0.7770045 -0.7841935 -0.8279144 -0.076733425
0.3972591 0.35020038 0.7001088 0.34841886 -0.015806789 0.47687933 -0.06298726 -0.40802413
0.035033446 0.34113368 0.24730514 0.07402015 0.22517613 -0.6715894 0.4450488 -0.199957
-0.0037572226 0.44259918 0.10273543 -0.4588444 0.3680508 0.059788514 0.041054554 0.43055797
-0.38601816 0.25615034 0.23849349 0.59949964 0.16475734 -0.19663663 -0.49498144 -0.4633484
-0.39979005 0.3178574 0.20603979 0.14747532 -0.30582374 -0.51752615 0.28414768 -0.019614635
-0.4158299 -0.6038878 0.38651228 -0.22381397 0.18104185 -0.76246655 0.61654574 0.038371257
0.38667363 0.49801472 -0.47157142 -0.4768468 0.4177506 0.35851187 -0.2647346 0.18983674
-0.89636433 0.009995894 0.4033378 -0.40153298 -0.73247194 0.1903519 -0.18679121 -0.33437982
-0.5138668 0.62021697 0.09463876 0.14473598 0.082346074 0.16082044 0.016797518 -1.4009407
-0.056039706 0.013897859 -0.1124417 0.6190552 -0.48467058 0.25756153 0.23672085 -0.8794372
-0.6891615 0.32307482 0.42357165 -0.27601412 -0.1332327 -0.00010576382 0.040565897 -0.6366531
00000000: 7280 93be 787d bfbe b5ff 31be 6eef fd3e
00000010: d8d0 a73d 4661 3fbf d965 5bbf dcf0 bdbe
00000020: bef9 debc fa87 6d3d 5fb7 963e a1f4 90be
00000030: 4521 39bf 73e1 08bf 02f3 7c3e 6216 483e
00000040: 0a2a 52bf d850 bb3e 2932 6abd e3b9 d9be
00000050: 746b a1be 2259 3c3e 417d 693d 0355 c4be
00000060: e156 0abf 3f32 5d3e ff92 b93e 5b25 22bd
00000070: e47d e13e 6725 893e 6355 ef3e 5db6 55bf
00000080: efef fe3e fab4 ca3e 819a a63e c76f 403e
00000090: 39b8 663e 97f6 34bf c01e de3d a2c7 673f
000000a0: e17a 583f 7727 7d3d 11d6 9e3e 4014 11bf
000000b0: 029f b33f b66e e83e 1753 bd3e 333a 54bf
000000c0: 67f7 423f 8506 3b3e cbc4 61be cb03 f53d
000000d0: 870b 7ebf f4e0 0cbf f685 98be cc0d ffbc
000000e0: c4fe 233e f1bf 753e 061c 513f b43e 22be
000000f0: 67ff 00bf 9c78 883e 6f07 a4be 5060 91be
00000100: 7904 ee3e e7e0 c83c 21fb 2e3e e09f 143d
00000110: ae3b c83e aa06 50bf 3ef2 41bc a3ca 9c3e
00000120: 8739 4e3f 7f90 e7bd 386e fbbd a824 78bd
00000130: 70f1 6a3e 3368 953d 836a 74be fae7 3dbd
00000140: f443 f63e dfe6 a5bd cce6 4d3e 5f92 e13e
00000150: 44ad cebe 7c6b 1abf d1fc ffbe b98e 0dbe
00000160: 0555 ec3e ec93 84be 60c5 95be 6351 6e3d
00000170: 65fe 32bf 2713 91be 1e88 d7be 72a2 ebbe
00000180: 2abd 8b3e 2543 8abe 1d7c c7be 8f3d 263f
00000190: c3c2 493e 0162 f4be dd12 023f 2d5f 0dbf
000001a0: 26ee 1fbf 0ddf 173f c76d e63c 2e71 d9be
000001b0: 86ce 5dbe 8594 a83d 4963 96be dbbe e23e
000001c0: b53b 6f3d 1fcf c43e 2132 64be 4760 4a3e
000001d0: c621 dcbc 3cd7 123e c196 b3bb a1d1 8dbd
000001e0: 7690 9cbe dc67 973c 3f64 923e c704 e0bd
000001f0: 5299 fdbd 5f34 0ebe 1506 ba3c ec99 eebd
00000200: 1012 043c 6010 c13e a77b b43e 4a2e e4be
00000210: 62f8 4e3f 3948 97bd cac2 7c3e 9975 febe
00000220: da39 adbe 4a30 71be 57d1 f23e a307 2dbd
00000230: b936 4f3e 2830 87be b58b 31be c7f3 84be
00000240: f309 08bf 64e7 5d3c d201 173f 4df2 f93d
00000250: 9171 f7be 37b1 853e f5cf 0ebf 09e4 4fbf
00000260: 0075 59be 3c9a f53e 52d0 be3e 70a5 a2bd
00000270: f9cc 66be ea9a fabc 97f2 42be c958 8ebf
00000280: fede 4c3f 9d1a c03d 812a 123e 9dea 1abe
00000290: c4e9 46bf e8c0 48bf 33f2 53bf 6a26 9dbd
000002a0: 8b65 cb3e 774d b33e 553a 333f f563 b23e
000002b0: 3d7d 81bc 8729 f43e 77ff 80bd 8ae8 d0be
000002c0: 3b7f 0f3d 13a9 ae3e 8f3d 7d3e e097 973d
000002d0: 9294 663e 48ed 2bbf 70dd e33e 87c1 4cbe
000002e0: bc3b 76bb 5c9c e23e f466 d23d a7ed eabe
000002f0: 2871 bc3e cde4 743d d228 283d 1872 dc3e
00000300: 2ca4 c5be 2326 833e a337 743e cf78 193f
00000310: 26b6 283e 1d5b 49be 356e fdbe 003c edbe
00000320: 48b1 ccbe 35be a23e 18fc 523e c503 173e
00000330: ee94 9cbe 987c 04bf ce7b 913e dfae a0bc
00000340: a8e7 d4be 6498 1abf f0e4 c53e 7d2f 65be
00000350: 0963 393e 0231 43bf f1d5 1d3f 2e2b 1d3d
00000360: 16fa c53e c9fb fe3e cf71 f1be 4425 f4be
00000370: 68e3 d53e de8e b73e 4b8b 87be 9064 423e
00000380: 2278 65bf d1c5 233c 4b82 ce3e bb95 cdbe
00000390: 4883 3bbf 9ceb 423e 3246 3fbe d533 abbe
000003a0: c68c 03bf 8ac6 1e3f f7d1 c13d ab35 143e
000003b0: 0fa5 a83d 1dae 243e f39a 893c 0652 b3bf
000003c0: e489 65bd d8b3 633c d647 e6bd 677a 1e3f
000003d0: be26 f8be 1bdf 833e f366 723e cc22 61bf
000003e0: e36c 30bf 106a a53e 62de d83e b951 8dbe
000003f0: 276e 08be 85cd ddb8 6d28 263d b3fb 22bf

fc_layers.0.bias f4 [64]
0.2614713 0.16279082 0.21376127 -0.8130005 0.20244752 -0.67182535 -0.59449005 -0.48212877
-0.5080898 -0.27391452 -0.91338533 0.40462804 -0.013390334 -0.31673858 0.13568881 -0.5026848
-0.17215797 0.5058757 -0.43055367 -0.44447446 -0.13780661 -0.33174372 0.22097504 0.5713365
-0.689207 0.43227896 0.60512286 0.5655762 -0.4158198 -0.35647413 0.624476 -0.9406584
-0.4301936 0.6124663 -0.4418029 0.13739465 0.072753266 -0.31930217 -0.25111133 -0.6034859
-0.73702496 0.53191507 -0.53884953 0.4703792 0.6327103 0.4081059 -0.30252776 -0.42150325
-0.40592802 -0.83706087 -0.5923064 -0.798442 -0.74683505 -0.57337075 -0.4246944 -1.2604723e-13
0.35522348 -0.6743276 -0.4255096 -0.54731387 -0.20456903 0.5617583 -0.8401546 0.1853719
00000000: 91df 853e a3b2 263e 3ce4 5a3e cd20 50bf
00000010: 674e 4f3e bffc 2bbf 8030 18bf 95d9 f6be
00000020: 2c12 02bf 863e 8cbe 9fd3 69bf 682b cf3e
00000030: 2263 5bbc 8f2b a2be 02f2 0a3e f3af 00bf
00000040: 2e4a 30be 1281 013f 8871 dcbe 2892 e3be
00000050: 2d1d 0dbe 50da a9be 4847 623e 1c43 123f
00000060: df6f 30bf ab53 dd3e 55e9 1a3f 9ac9 103f
00000070: 55e6 d4be c783 b6be a9dd 1f3f fdce 70bf
00000080: 5642 dcbe 97ca 1c3f fd33 e2be 2fb1 0c3e
00000090: aaff 943d 937b a3be aa91 80be 0d7e 1abf
000000a0: abad 3cbf 962b 083f 0bf2 09bf 8bd5 f03e
000000b0: 4df9 213f 42f3 d03e ebe4 9abe 46cf d7be
000000c0: ccd5 cfbe 9f49 56bf 64a1 17bf b266 4cbf
000000d0: 9530 3fbf 6dc8 12bf 8b71 d9be a4ea 0daa
000000e0: dadf b53e bca0 2cbf 65dc d9be c31c 0cbf
000000f0: 8b7a 51be 64cf 0f3f 5f14 57bf 22d2 3d3e

fc_layers.1.weight f4 [32, 64]
0.36647668 0.117372625 -0.11784858 0.52311826 0.0040518753 0.16454388 0.62765086 0.52343184
-0.25921154 0.16280162 0.9865834 0.060464475 0.08337367 0.71315116 0.17944321 0.016790895
0.113243155 0.29945248 -0.10574309 0.40022728 -0.029638173 -0.26184505 0.18274508 0.32620043
-0.7119779 0.07980112 0.3648732 0.043362305 -0.07391351 -0.5829124 0.15683523 0.69572216
-0.20557821 0.22613966 -0.21535271 -0.0418915 0.2129974 -0.40479365 -0.49139085 -0.7398639
0.7228539 0.026710542 -0.58291817 0.0075882515 0.111489184 0.006796553 -0.7074059 0.19643284
-0.46604687 -0.9757083 -0.5089184 -0.76984245 -0.6315614 -0.7018919 0.19275022 -1.5505979e-22
0.101961076 -0.46427336 0.77749306 -1.0686973 0.57482094 0.06331668 -0.88558257 0.5392476
0.31653628 0.17850757 0.004900121 0.61903465 0.043351363 0.2765168 0.7683003 0.5200795
-0.23314907 0.20911881 1.0705718 0.13030492 0.1111794 0.9385501 0.19968618 0.20784664
0.15722637 0.29773068 -0.10373903 0.51656616 0.029560339 -0.36290592 0.15662858 0.23214854
-0.9402664 0.13405974 0.3817395 0.06281366 -0.1304295 -0.59928143 0.10501639 0.7410364
-0.044227924 0.16223525 -0.17251201 0.004831345 0.20006514 -0.36177942 -0.570824 -0.82550067
0.78084844 0.06293669 -0.6508448 0.06542387 0.2072978 0.04445745 -0.71546495 0.3624973
-0.5267431 -1.0090983 -0.57075524 -0.798861 -0.76615894 -0.8031117 0.24760549 1.7361156e-20
0.04280816 -0.52950263 0.75824136 -0.9900189 0.6059378 0.12047636 -0.9889021 0.490764
-4.9544206e-26 -1.385299e-25 -2.6226297e-25 -5.9044476e-26 -1.3180412e-25 5.7756636e-27 5.475564e-26 -1.9200314e-27
-7.513031e-27 -1.8892652e-25 -8.231018e-26 3.0874275e-26 7.403246e-27 -1.905087e-26 -2.4544177e-25 -1.2898154e-26
-6.1604965e-26 -8.399515e-26 9.9755914e-27 5.51859e-26 6.1038425e-27 -8.236923e-27 6.54747e-27 -1.6581922e-25
7.53063e-27 -1.4307774e-25 -1.5193932e-25 -9.2949915e-26 -1.2181797e-25 -2.4604304e-26 -1.0859167e-25 -1.6764682e-26
-4.0109313e-27 -1.479832e-25 -7.548714e-27 -2.654874e-26 -1.8629383e-25 -3.7808478e-27 -1.19482714e-26 -2.2183037e-28
2.0325908e-27 -1.0777201e-25 6.181645e-27 -9.9132366e-26 -1.7317881e-25 -1.00799476e-25 -7.816324e-26 2.8663132e-26
-2.4688765e-25 -2.8466814e-27 -1.4375324e-27 2.4160209e-26 2.0237046e-26 -3.4051517e-26 3.2013276e-26 4.908809e-38
-2.6884814e-26 8.669559e-27 -4.92841e-27 -9.387854e-27 -5.963522e-26 -8.447035e-26 -2.5908827e-26 -2.2787453e-27
-4.8750854e-32 -3.705395e-32 -7.7508794e-32 -3.9669257e-33 -4.933438e-32 -1.1615409e-33 -2.0248518e-32 4.071182e-34
-3.5829325e-33 -7.076432e-33 -2.4358706e-33 -6.222092e-32 -4.799138e-33 -2.9192285e-32 -1.5857262e-32 -6.379541e-33
-1.3558964e-32 -4.3563377e-32 -1.5988895e-32 -1.4198796e-32 -2.2012783e-32 -2.5981152e-32 -2.4142697e-32 -9.864716e-32
-1.4642296e-33 -8.0725705e-32 -1.141974e-31 -1.2209276e-31 8.764921e-33 -1.257793e-32 -1.3152124e-31 -2.4814734e-33
-2.0372545e-32 -1.0393261e-31 -1.6078586e-33 -4.6383917e-32 -8.8555294e-33 1.882201e-33 -2.9238585e-32 -5.4228218e-33
-2.2546959e-33 -1.0708409e-31 2.7654433e-32 -1.0006045e-31 -1.1200719e-31 -8.6110286e-32 -3.8040578e-32 -1.8444751e-32
-7.302069e-33 -8.5689285e-35 -1.1403139e-32 -3.5851966e-32 -2.3606119e-32 -1.8817185e-33 -4.3312947e-32 4.9061634e-38
-5.218208e-32 2.2563054e-33 -1.77852e-32 -2.6474192e-33 1.5411322e-32 -1.1275209e-31 -8.429799e-34 -1.467423e-31
00000000: d5a2 bb3e 0f61 f03d 995a f1bd 14eb 053f
00000010: 98c5 843b 317e 283e baad 203f a1ff 053f
00000020: 60b7 84be 78b5 263e bb90 7c3f 99a9 773d
00000030: d1bf aa3d 1391 363f f6bf 373e 0f8d 893c
00000040: 07ec e73d d651 993e d58f d8bd 97ea cc3e
00000050: c1cb f2bc 8e10 86be 8721 3b3e be03 a73e
00000060: 2f44 36bf c56e a33d a9d0 ba3e ac9c 313d
00000070: f75f 97bd bf39 15bf 6a99 203e d91a 323f
00000080: 1883 52be 2891 673e 6c85 5cbe 6c96 2bbd
00000090: fe1b 5a3e 1d41 cfbe 9597 fbbe b867 3dbf
000000a0: f40c 393f 11d0 da3c 203a 15bf dea6 f83b
000000b0: 7154 e43d 9eb5 de3b 8e18 35bf b125 493e
000000c0: b29d eebe 05c8 79bf 7a48 02bf 6514 45bf
000000d0: 02ae 21bf 30af 33bf 5060 453e ae74 3b9b
000000e0: f8d0 d03d 3db5 edbe c909 473f 13cb 88bf
000000f0: 7727 133f 2dac 813d 8ab5 62bf 210c 0a3f
00000100: 0b11 a23e b0ca 363e 3291 a03b 0e79 1e3f
00000110: 3391 313d 9c93 8d3e 54af 443f ee23 053f
00000120: a1be 6ebe 3e23 563e 7f08 893f a76e 053e
00000130: 06b2 e33d d244 703f 897a 4c3e c0d5 543e
00000140: f3ff 203e 2870 983e 2175 d4bd ae3d 043f
00000150: 8628 f23c cece b9be 3e63 203e 59b8 6d3e
00000160: 4cb5 70bf f546 093e 5c73 c33e 73a4 803d
00000170: 508f 05be 826a 19bf d512 d73d 90b4 3d3f
00000180: 5728 35bd ff20 263e fda6 30be 4250 9e3b
00000190: e0dd 4c3e 273b b9be 8621 12bf 0354 53bf
000001a0: afe5 473f f4e4 803d c49d 26bf f3fc 853d
000001b0: e045 543e 0419 363d b628 37bf 3f99 b93e
000001c0: a3d8 06bf 222a 81bf 041d 12bf 2882 4cbf
000001d0: fe22 44bf ba98 4dbf 4b8c 7d3e b3f8 a31e
000001e0: 9c57 2f3d 7c8d 07bf 1b1c 423f e171 7dbf
000001f0: bd1e 1b3f 4fbc f63d b028 7dbf 6b45 fb3e
00000200: be54 7595 e17d 2b96 3a55 a296 e22f 9295
00000210: 652a 2396 30cc e413 8391 8715 dd1e 1893
00000220: 98cf 1494 34e1 6996 46ca cb95 cbe1 1815
00000230: eba2 1214 b2ab bc94 cdeb 9796 6979 7f94
00000240: c986 9895 40f6 cf95 4296 4514 38a2 8815
00000250: 51cc f113 2926 2394 9eaf 0114 3546 4d96
00000260: d528 1514 251f 3196 7e17 3c96 0222 e695
00000270: a8cd 1696 52ab f394 136e 0696 8507 a694
00000280: ade3 9e93 c031 3796 8784 1594 8776 0395
00000290: df9e 6696 5ac6 9593 efa8 6c94 099a 8c91
000002a0: d709 2113 506a 0596 54e1 f413 9a70 f595
000002b0: 8e62 5696 4291 f995 d785 c195 d6ee 0d15
000002c0: e9d0 9896 8f89 6193 3ec9 e392 6845 ef14
000002d0: 026b c814 6d9d 2895 a685 1e15 68a1 8501
000002e0: 8d20 0595 e3b7 2b14 043c c393 13f2 3994
000002f0: 50a6 9395 7223 d195 574b 0095 728a 3493
00000300: 0021 7d8b 2665 408b 6e39 c98b 97c7 a489
00000310: 5214 808b 7cfe c088 cb45 d28a c949 0708
00000320: 46d4 9489 c4f8 128a 3d5d 4a89 e588 a18b
00000330: 3059 c789 3493 178b d5ab a48a 757f 048a
00000340: e9cd 8c8a a931 628b c609 a68a e072 938a
00000350: 0498 e48a e0e6 068b 4cb6 fa8a 240d 008c
00000360: 7049 f388 6f93 d18b 983c 148c 477c 1e8c
00000370: 500a 360a e09d 828a 6eb9 2a8c 1a27 4e89
00000380: 848f d38a 89e9 068c 5f93 0589 cdd6 708b
00000390: 12ec 378a fd5d 1c09 bfd0 178b 5541 e189
000003a0: 1450 3b89 cb00 0b8c 0c97 0f0b cae2 018c
000003b0: c664 118c 1a8e df8b 9a84 458b 8f8a bf8a
000003c0: 75a8 178a 1bcd e386 7dd5 6c8a 7027 3a8b
000003d0: d423 f58a ba53 1c89 c8e4 608b f88e 8501
000003e0: f178 878b 4f72 3b09 2cb1 b88a 61f0 5b89
000003f0: 520a a00a 4f5c 128c 6610 8c88 7e7b 3e8c

fc_layers.1.bias f4 [32]
-0.051362127 0.014617203 -1.7086193e-25 -2.0510902e-31 0.036290795 -1.5470102e-37 -1.3253451e-37 -1.0322556e-36
-0.15218703 -4.913611e-38 -1.3253093e-33 -1.7088763e-34 -6.7272876e-35 -1.3666072e-33 -8.398853e-36 -9.54256e-36
-0.17611176 -6.8620827e-31 0.03470417 -7.613964e-33 -1.0181389e-36 -8.8653655e-36 -4.911208e-38 -6.591615e-36
-6.144401e-32 -6.2690327e-38 0.24895996 -1.3974457e-35 -5.5503356e-37 0.11926682 -6.5856783e-32 -1.2589166e-30
00000000: 1861 52bd fe7c 6f3c 4f84 5396 951f 858c
00000010: a8a5 143d 7091 5282 8965 3482 13a1 af83
00000020: ebd6 1bbe dfc2 8581 6c34 dc88 0c26 6387
00000030: 8cd7 b286 0b11 e388 b59f 3285 a3f2 4a85
00000040: a456 34be f4af 5e8d f625 0e3d c722 1e8a
00000050: 343a ad83 a48b 3c85 20b2 8581 2a30 0c85
00000060: 8d84 9f8b c8a8 aa81 5cef 7e3e 179a 9485
00000070: 3ede 3c83 2a42 f43d 57f9 aa8b 5a45 cc8d

fc_layers.2.weight f4 [16, 32]
0.12215328 0.19547205 5.060785e-24 -1.2428999e-31 0.22922952 -7.16263e-39 -1.3268237e-38 7.530792e-37
0.32796982 -4.9103185e-38 -2.6222443e-33 1.5683351e-34 4.352097e-38 4.132552e-33 4.6111033e-37 -9.2290885e-36
0.02949186 -1.7585532e-32 0.19208604 7.761798e-33 5.090364e-37 -1.1571288e-36 -1.8564537e-38 -4.9730683e-36
2.1960295e-33 -3.8486696e-38 -0.9383031 -6.909564e-36 -5.2283105e-37 0.2584646 3.321823e-32 -4.1764054e-32
4.913701e-38 -4.914975e-38 -4.9169747e-38 4.9046623e-38 -4.9131183e-38 -4.9101207e-38 4.905643e-38 4.910224e-38
-4.9148806e-38 -4.90765e-38 -4.911433e-38 -4.912089e-38 4.905249e-38 -4.909239e-38 4.9127714e-38 -4.907465e-38
4.9167595e-38 -4.915447e-38 -4.9061634e-38 -4.910175e-38 4.9150476e-38 -4.9184377e-38 4.9093236e-38 -4.9142915e-38
4.9156625e-38 -4.904937e-38 4.915374e-38 4.909682e-38 4.914324e-38 -4.906881e-38 -4.9151833e-38 4.916101e-38
0.13185522 0.19431108 4.9322017e-24 -1.2122931e-31 0.21255985 -5.501296e-39 -1.0989692e-38 7.3653158e-37
0.33585367 -4.9131957e-38 -2.556382e-33 1.5301271e-34 4.4482322e-38 4.0243835e-33 4.4877065e-37 -9.04944e-36
0.024513854 -1.713262e-32 0.18020181 7.56583e-33 4.994574e-37 -1.13637655e-36 -1.8583813e-38 -4.8453907e-36
2.1385837e-33 -4.0113323e-38 -0.8607498 -6.741436e-36 -5.10482e-37 0.27219856 3.239803e-32 -4.0702758e-32
-4.927795e-38 -4.921988e-38 -4.904641e-38 4.9091016e-38 -4.9064594e-38 4.911494e-38 4.904551e-38 4.905195e-38
-4.918383e-38 -4.918276e-38 4.909484e-38 4.917286e-38 -4.9127506e-38 -4.911947e-38 4.9132316e-38 -4.908115e-38
-4.9147237e-38 4.9145213e-38 -5.0546966e-38 -4.908954e-38 4.915518e-38 -4.906246e-38 -4.910387e-38 4.91215e-38
4.9130735e-38 -4.9130584e-38 -4.90706e-38 -4.915416e-38 -4.9050373e-38 -4.911522e-38 -4.908034e-38 -4.9131766e-38
-4.90778e-38 -4.9173553e-38 4.914853e-38 4.917558e-38 -4.905078e-38 4.914065e-38 4.913943e-38 -4.9111857e-38
-4.9094094e-38 4.907714e-38 4.9174674e-38 -4.9141575e-38 -4.9085417e-38 -4.910489e-38 -4.915297e-38 4.906937e-38
-4.9065995e-38 4.918459e-38 -4.9172213e-38 -4.9178295e-38 -4.916667e-38 -4.9126783e-38 4.915502e-38 -4.914644e-38
-4.91226e-38 4.9164327e-38 -4.913891e-38 4.9124726e-38 4.917527e-38 -4.9134457e-38 -4.9118807e-38 4.913859e-38
0.10090801 0.16585428 4.4048747e-24 -1.0905368e-31 0.18327603 -4.501464e-39 -1.3731853e-38 6.6419597e-37
0.30213487 -4.916768e-38 -2.2885457e-33 1.3654385e-34 4.8401494e-38 3.6123944e-33 4.0292748e-37 -8.064418e-36
0.006579613 -1.5428259e-32 0.14106245 6.733646e-33 4.457134e-37 -1.0165038e-36 -1.8521438e-38 -4.320107e-36
1.9105049e-33 -4.3152145e-38 -0.87288654 -6.043555e-36 -4.5034926e-37 0.24777849 2.9125782e-32 -3.6348375e-32
0.17475118 0.23528641 6.0252364e-24 -1.4705839e-31 0.27292976 -2.155076e-38 -1.8489075e-38 8.968327e-37
0.37518567 -6.2624006e-38 -3.1136278e-33 1.867712e-34 3.6647167e-38 4.9018706e-33 5.5165726e-37 -1.098701e-35
0.06792385 -2.0790651e-32 0.23095281 9.269575e-33 6.0887826e-37 -1.3801093e-36 -1.856888e-38 -5.923686e-36
2.6134169e-33 4.918513e-38 -0.8577084 -8.201454e-36 -6.3534325e-37 0.30679473 3.9335435e-32 -4.971156e-32
0.022202509 0.08532891 2.4567042e-24 -6.3823e-32 0.08218948 2.0399139e-38 -3.0928375e-38 3.8039684e-37
0.2373738 -4.9080905e-38 -1.2984573e-33 7.2423074e-35 4.908796e-38 2.3084522e-33 2.1102905e-37 -4.5007766e-36
-0.04994863 -9.35319e-33 0.06593373 3.5625986e-33 1.9869762e-37 -4.1472143e-37 -1.853122e-38 -2.352704e-36
1.0621717e-33 -2.8807333e-38 -0.87327766 -3.2564017e-36 -2.2270592e-37 0.16424823 1.6836307e-32 -2.0133847e-32
00000000: 802b fa3d d329 483e 96c7 c318 6f56 218c
00000010: 25bb 6a3e 80fe 4d80 727a 9080 3a21 8003
00000020: a9eb a73e edab 8581 f8d8 5989 ae77 5007
00000030: 61f3 6c01 d5a8 ab09 60e8 1c03 f047 4485
00000040: ea98 f13c 5d9e b68a 34b2 443e cc34 210a
00000050: 5337 2d03 11e0 c483 6026 ca80 eb87 d384
00000060: 6270 3609 a08a 5181 a234 70bf 3ff3 1285
00000070: 02e9 3183 7955 843e 9a7a 2c0b f3d9 588b
00000080: 80c3 8501 60cc 8581 50da 8581 8284 8501
00000090: 70bf 8581 8caa 8581 588b 8501 44ab 8501
000000a0: b8cb 8581 5499 8581 b1b3 8581 44b8 8581
000000b0: 9988 8501 67a4 8581 05bd 8501 0a98 8581
000000c0: d0d8 8501 aacf 8581 f88e 8581 edaa 8581
000000d0: e2cc 8501 82e4 8581 fea4 8501 9dc7 8581
000000e0: 2bd1 8501 6c86 8581 28cf 8501 7da7 8501
000000f0: d7c7 8501 f893 8581 d4cd 8581 39d4 8501
00000100: 0e05 073e 7cf9 463e 29ce be18 595d 1d8c
00000110: 4aa9 593e 60e7 3b80 caaa 7780 f3a0 7a03
00000120: 03f5 ab3e fabf 8581 3b60 5489 8763 4b07
00000130: 4f2f 7201 962a a709 70b5 1803 d675 4085
00000140: 47d1 c83c 51ea b18a d386 383e da22 1d0a
00000150: e0f4 2903 2e58 c183 1c5c ca80 a219 ce84
00000160: a5aa 3109 d065 5a81 195a 5cbf de5f 0f85
00000170: 41b5 2d83 9c5d 8b3e 5e38 280b 3f57 538b
00000180: b825 8681 40fd 8581 5c84 8581 72a3 8501
00000190: 0891 8581 1eb4 8501 bb83 8501 3888 8501
000001a0: 20e4 8581 62e3 8581 1ca6 8501 7bdc 8501
000001b0: e0bc 8581 46b7 8581 3ac0 8501 929c 8581
000001c0: a0ca 8581 37c9 8501 189a 8981 6ba2 8581
000001d0: 29d0 8501 8b8f 8581 67ac 8581 b0b8 8501
000001e0: 20bf 8501 05bf 8581 3895 8581 73cf 8581
000001f0: 1f87 8581 50b4 8581 019c 8581 d8bf 8581
00000200: 3c9a 8581 f7dc 8581 87cb 8501 61de 8501
00000210: 6887 8581 09c6 8501 2fc5 8501 f8b1 8581
00000220: 97a5 8581 c699 8501 bfdd 8501 aec6 8581
00000230: 8b9f 8581 1dad 8581 9fce 8581 5c94 8501
00000240: 0292 8581 a8e4 8501 08dc 8581 45e0 8581
00000250: 2bd8 8581 5fbc 8581 0dd0 8501 12ca 8581
00000260: 75b9 8581 89d6 8501 d2c4 8581 f0ba 8501
00000270: 29de 8501 b8c1 8581 d0b6 8581 99c4 8501
00000280: dca8 ce3d b4d5 293e c467 aa18 4d8f 0d8c
00000290: b6ac 3b3e 4004 3180 d286 9580 a103 6203
000002a0: 6cb1 9a3e dfd8 8581 fc1f 3e89 777f 3507
000002b0: ebc2 8301 910d 9609 ef1b 0903 de82 2b85
000002c0: cb99 d73b 5937 a08a ad72 103e 34da 0b0a
000002d0: 1dab 1703 fcf2 ac83 3cae c980 cdc1 b784
000002e0: f2b7 1e09 50f1 6a81 7e75 5fbf 3e88 0085
000002f0: f43e 1983 a5b9 7d3e ce3a 170b 47bb 3c8b
00000300: f9f1 323e ecee 703e 0d17 e918 88e4 3e8c
00000310: 73bd 8b3e c0aa ea80 0554 c980 9396 9803
00000320: 5618 c03e 907a aa81 c555 8189 f242 7807
00000330: b286 4701 a19d cb09 20b8 3b03 f9aa 6985
00000340: a91b 8b3d 08e7 d78a e57e 6c3e 8485 400a
00000350: c730 4f03 3dd0 ea83 7c32 ca80 3bf7 fb84
00000360: 3b1d 5909 08e5 8501 c792 5bbf f66c 2e85
00000370: 3432 5883 3314 9d3e c33d 4c0b 000f 818b
00000380: 09e2 b53c ecc0 ae3d 0a14 3e18 a9b1 a58b
00000390: f552 a83d 8020 de00 dd63 2881 3d71 0103
000003a0: 1e12 733e 669c 8581 44be d788 9788 c006
000003b0: 51a1 8501 59c7 3f09 729e 8f02 1e71 bf84
000003c0: ef96 4cbd 1742 428a 4308 873d 0cfc 9309
000003d0: 023a 8702 551f 0d83 80c9 c980 5b25 4884
000003e0: ca7b b008 90d7 1c81 208f 5fbf 1383 8a84
000003f0: d890 9782 b030 283e 95d6 ae0a f214 d18a

fc_layers.2.bias f4 [16]
0.36265552 -5.4505225e-38 0.32990623 -5.734046e-38 -4.91581e-38 0.3286838 0.35986474 0.22885935
-4.9079515e-38 0.78280604 0.34563386 -5.414468e-38 0.35402867 -4.90611e-38 0.3387775 -5.5777996e-38
00000000: fcad b93e 9960 9481 78e9 a83e 7818 9c81
00000010: 32d2 8581 3e49 a83e 3140 b83e 1b5a 6a3e
00000020: 6e9b 8581 fa65 483f ecf6 b03e 5665 9381
00000030: 3f43 b53e 998e 8581 3f74 ad3e 97d7 9781

fc_layers.3.weight f4 [8, 16]
-4.914661e-38 4.9092143e-38 -4.907688e-38 -4.907488e-38 -4.907602e-38 -4.905002e-38 -4.9276963e-38 -4.906603e-38
-4.915975e-38 -5.6137586e-38 -4.913392e-38 4.910288e-38 -4.910181e-38 4.90574e-38 -4.908419e-38 -4.9183614e-38
0.29118982 4.9069257e-38 0.27820924 -4.908836e-38 -4.9138246e-38 0.24991062 0.32910004 0.15740225
-4.90477e-38 -1.2898636 0.29486144 4.910827e-38 0.27589878 4.912945e-38 0.25327268 4.9168043e-38
0.15724361 3.6259102e-38 0.1599862 -4.9163514e-38 -4.9112826e-38 0.14156143 0.19173846 0.043738984
-4.9120405e-38 -0.9610169 0.1703357 -4.904737e-38 0.15254265 4.9118914e-38 0.124623545 4.907742e-38
-4.9090064e-38 -4.9081527e-38 -4.909809e-38 4.9103606e-38 4.9114956e-38 -4.912571e-38 -4.911033e-38 -4.915423e-38
4.917744e-38 -5.854692e-38 -4.9067553e-38 -4.906049e-38 -4.9138e-38 4.9123964e-38 -4.9167146e-38 4.9098286e-38
0.20206214 3.5215774e-38 0.20792015 -3.9747326e-38 -4.9182785e-38 0.18249863 0.25970283 0.12124299
-4.918366e-38 -1.0706086 0.2165549 -4.9163643e-38 0.20817529 4.909736e-38 0.18595095 4.917737e-38
0.07457266 3.7312116e-38 0.04942161 -4.916374e-38 -4.918018e-38 0.046352975 0.09414325 -0.05220428
-4.9067884e-38 -0.9762327 0.044883993 -4.915163e-38 0.057396542 4.917422e-38 0.030758882 4.914625e-38
-4.9142887e-38 4.9050984e-38 -4.9076656e-38 -4.905624e-38 -4.917787e-38 -4.905984e-38 -4.9063383e-38 -4.9124053e-38
-4.9129715e-38 -4.9056567e-38 -4.913459e-38 -4.907532e-38 -4.905334e-38 -4.909239e-38 -4.9172213e-38 4.909589e-38
-4.914782e-38 -4.9164293e-38 -4.910253e-38 4.906737e-38 4.9054325e-38 -4.9122663e-38 -4.9192885e-38 -4.9181944e-38
4.914086e-38 -6.194811e-38 -4.9109704e-38 -4.9048966e-38 -4.906778e-38 -4.9141867e-38 -4.905706e-38 -4.9091913e-38
00000000: 30ca 8581 3ba4 8501 9899 8581 3398 8581
00000010: ff98 8581 e086 8581 0825 8681 0892 8581
00000020: 58d3 8581 30d2 9881 58c1 8581 b7ab 8501
00000030: f8aa 8581 058c 8501 b09e 8581 fae3 8581
00000040: d516 953e 4894 8501 7171 8e3e 98a1 8581
00000050: 5cc4 8581 92e8 7f3e cd7f a83e 0e2e 213e
00000060: 4285 8581 401a a5bf 14f8 963e 78af 8501
00000070: 9b42 8d3e 3bbe 8501 f5ac 813e 20d9 8501
00000080: 7804 213e d069 4501 6cd3 233e f8d5 8581
00000090: a5b2 8581 7bf5 103e 1657 443e a627 333d
000000a0: edb7 8581 3405 76bf 7b6c 2e3e 0785 8581
000000b0: 2434 1c3e e3b6 8501 a13a ff3d f899 8501
000000c0: c8a2 8581 d59c 8581 60a8 8581 38ac 8501
000000d0: 21b4 8501 a0bb 8581 e8b0 8581 80cf 8581
000000e0: acdf 8501 4061 9f81 1893 8581 2c8e 8581
000000f0: 30c4 8581 68ba 8501 80d8 8581 83a8 8501
00000100: 61e9 4e3e a0bb 3f01 05e9 543e b067 5881
00000110: 66e3 8581 ece0 3a3e c5f7 843e 3f4e f83d
00000120: 02e4 8581 b409 89bf 91c0 5d3e 0fd6 8581
00000130: e72b 553e dea7 8501 ed69 3e3e a0df 8501
00000140: 8db9 983d 8025 4b01 506e 4a3d 20d6 8581
00000150: 95e1 8581 9edc 3d3d 2dce c03d 28d4 55bd
00000160: 5393 8581 63ea 79bf 47d8 373d b0cd 8581
00000170: a318 6b3d 6edd 8501 0dfa fb3c f0c9 8501
00000180: 98c7 8581 8c87 8501 7099 8581 368b 8581
00000190: f9df 8581 b88d 8581 3090 8581 78ba 8581
000001a0: 6abe 8581 708b 8581 d0c1 8581 8298 8581
000001b0: 3089 8581 67a4 8581 08dc 8581 d7a6 8501
000001c0: 08cb 8581 83d6 8581 78ab 8581 f792 8501
000001d0: e089 8501 80b9 8581 70ea 8581 d0e2 8581
000001e0: 2ec6 8501 88a3 a881 78b0 8581 2486 8581
000001f0: 4093 8581 e2c6 8581 c88b 8581 12a4 8581

fc_layers.3.bias f4 [8]
-4.911051e-38 0.64391494 0.55882835 -4.904939e-38 0.6021185 0.49387005 -4.910168e-38 -4.915217e-38
00000000: 08b1 8581 9cd7 243f 600f 0f3f 7086 8581
00000010: 7024 1a3f 89dc fc3e e0aa 8581 10ce 8581
