checkpoints/neumf_first_try_Epoch10_HR0.6724_NDCG0.3920.model (torch, 645108 bytes, 13 tensors)

embedding_user_mlp.weight f4 [6040, 8]
00000000: ee9a 8ebe 14c6 ca3e e320 c93e 2ee9 8a3e
00000010: 21cc babe 6c63 96be 93f5 4abe 94bd b2be
00000020: 851c 2cbd 1089 1d3e 2b13 1c3e 99fc ce3d
00000030: 594b 8f3d 3392 b9bd e7ae 0e3e 0f85 103e
00000040: 1d99 3dbe 63d7 7e3e a76e 883e 682b 363e
00000050: 8362 ae3d 094a 85be ef1d 77be 864a f1bd
00000060: 8268 a0be c1a2 2e3f 8895 2c3f 6aee ca3e
00000070: 3204 85be d8db e9be 2f98 61be 2fe8 9cbe
00000080: 4e12 e8be 6ac2 323d 6372 0d3d 5dea 03bd
00000090: e1dd 9abe 7386 afbd eaca aebe 5531 c5be
000000a0: 3762 45be 09f1 0a3e 4b86 183e 3e04 ff3d
000000b0: ccb8 64be 00b6 3cbe 2a99 99be 398a 9abe
000000c0: 1f08 83be fdb4 fb3e 3168 e53e 7225 f53e
000000d0: e92e 60be 4a89 e5be 4717 7fbe be0e f9bd
000000e0: 8190 49be df85 413e 260c 393e 68ae 913d
000000f0: 9970 de3e 67fc 09bd d5e0 1d3e e498 b23d
00000100: e186 e7bd e981 a33e cfbb a83e 7d39 743e
00000110: 2aa9 9cbe 60db b6be 7609 4abe df64 06be
00000120: bfb2 f1bd 2df1 b4bd 75af 7fbd 0368 b5bd
00000130: a1e2 fcbd 3291 393d 20be 25bd 6756 f7bd
00000140: 55e5 a43d 5e83 1b3e 132f 1c3e e61a 3e3e
00000150: 597f 6c3d 82b2 36be 54ec 23bd a625 d23d
00000160: 9595 68be 8313 323d 693f 353d 19c2 8c3e
00000170: 1726 3d3e 64f5 13be 8def 8bbc 11de c03c
00000180: f86b fdbd 7963 8d3e b057 8a3e d3c9 093e
00000190: 3414 cb3d b5d9 56be aeaa 16bd 2d60 043c
000001a0: ac7c cdbe d0d5 0b3e 2b2b c93d 22ab 9b3d
000001b0: 2dd1 e4be f40c c7bd 6b93 a3be 8aa0 c4be
000001c0: cfc4 86bd c45b 693e 97a2 723e d58a 033e
000001d0: 52c3 7bbe 8ed2 61be 8442 093e 3459 ac3d
000001e0: a7d2 15be 6532 853d d65f 8f3d b2f0 a63e
000001f0: 281a 3abf c404 02bf 2cf3 22bf b3c5 14bf
00000200: f06e 4fbd 6848 22bc b6de 6a3b f694 323d
00000210: c940 bdbe 7f55 99bd a5f2 5cbe 943d 92be
00000220: bb7e a23e 45c4 d3bd 2866 aebd 3850 1ebe
00000230: dff4 f03d 393e 103e b871 ce3e 7ae8 993e
00000240: afbc 49be 64c0 0d3d bf5c 273d 819b 82be
00000250: 7778 acbe e454 053e 2b89 55be 2a18 9ebe
00000260: 336a f63c fa56 ad3e 83ad a53e fce0 1d3e
00000270: 309d 7bbe a6bd 64be 5629 aabd 84af c3bd
00000280: 8dd5 11bf 07bb 333d 1b87 a83c 9298 2c3e
00000290: 73a8 19be 20fe b6bd 9667 61be 42c7 96be
000002a0: 2660 713e 7edc 0e3c fc8b 8a3b ff20 253d
000002b0: 9690 5e3e d6f7 edbc 582f 263d 0f71 723e
000002c0: 5d6e 9dbc 470e 1abe e96a 12be c4e6 193b
000002d0: 2e5e 5cbe f74a 193d 1638 2bbd 344a d1bd
000002e0: aa1c a7be 706d 773d bc81 4f3d ae9b 863d
000002f0: 8738 58bd 926d bbbc 6ef1 74be 9e7d 99be
00000300: c805 b7be 5430 e63d 3a7a d53d 4c7f 233e
00000310: 28ea dbbe 195c 44be 7693 e4be 20fb 0ebf
00000320: ca08 f23e cdd5 cebd 2693 e9bd bfef 84bd
00000330: 61bd 7c3e 74ae e53d 52f9 103e 4508 b13e
00000340: 1687 e93c 063d 5a3e 2b44 5d3e 3eca 603e
00000350: 6625 bfbe 214c a0be 55b8 40be b6f8 2abe
00000360: 7083 a2bb 638b 96bc dc8a 61bc 8281 a43e
00000370: 8dd1 cbbe 4411 a0be 06c7 99be 6eea 5dbe
00000380: 004b 5bbe 52c6 013f 0e64 003f 57c6 0f3e
00000390: e13e 7e3e b122 70be a112 cb3d 747e 5ebd
000003a0: aec6 50be 94f3 803e ed12 813e 91f8 8f3e
000003b0: 4cee 9dbe 902d b2be 2332 94be 6cd0 61be
000003c0: 535f 04bd 1e78 803e 0d80 893e b650 a23e
000003d0: 200e 1bbe 89bb ddbe 8687 bbbe 0d15 23bd
000003e0: be34 053d 1ed0 743c 5bb5 a93c 08d8 4a3e
000003f0: 5599 edbe 5dcd 94be 51d2 a2be 8171 3bbe
-0.27852577 0.39604247 0.39282903 0.27131027 -0.36483863 -0.29372728 -0.19820242 -0.34910262
-0.042019386 0.15384316 0.15241687 0.10106773 0.06996793 -0.090610884 0.13933907 0.14113258
-0.1851544 0.24886851 0.2664692 0.17789996 0.08514883 -0.26033047 -0.24132513 -0.11781792
-0.31329733 0.6821709 0.67415667 0.3963502 -0.25979763 -0.4567554 -0.2203071 -0.30645892
-0.45326465 0.04364244 0.034532916 -0.032205928 -0.30247405 -0.08570566 -0.34139186 -0.385142
-0.19275747 0.1356851 0.14894979 0.12451981 -0.2233612 -0.18428802 -0.29999667 -0.3018358
-0.25592133 0.4916152 0.44806054 0.4788013 -0.21892895 -0.44831306 -0.24911223 -0.12161015
-0.1968403 0.18898724 0.1807104 0.071133435 0.4344528 -0.033687975 0.15417798 0.08720568
-0.11305023 0.3193505 0.32955787 0.23850055 -0.30597812 -0.35714245 -0.19730172 -0.13124417
-0.11801671 -0.08835063 -0.06242319 -0.08857729 -0.123479135 0.045304485 -0.04046452 -0.12077027
0.08051554 0.15186831 0.15252332 0.18564948 0.057738636 -0.17841533 -0.040020302 0.10261087
-0.22713311 0.04347564 0.044249926 0.27491835 0.18471561 -0.14449078 -0.017082 0.02354339
-0.12374109 0.27614954 0.27020025 0.13455896 0.09915963 -0.20981486 -0.036783867 0.008079571
-0.4013418 0.13655782 0.09822687 0.07601 -0.44690838 -0.097192675 -0.31948408 -0.38403732
-0.06580507 0.22788912 0.23694836 0.12845929 -0.24586228 -0.22052976 0.1340428 0.08415452
-0.14631139 0.065037526 0.07000701 0.3260551 -0.7269616 -0.5078852 -0.636523 -0.58114165
-0.050642908 -0.009904958 0.0035838312 0.04359909 -0.3696349 -0.0748701 -0.21576937 -0.28562605
0.31737313 -0.1034017 -0.085155785 -0.15460289 0.117654555 0.14086236 0.40321136 0.30060178
-0.19700883 0.034607306 0.040859934 -0.25509265 -0.33685657 0.13020664 -0.20853107 -0.3087781
0.030079937 0.3385542 0.3235894 0.15417856 -0.24571681 -0.2233797 -0.083086655 -0.09554961
-0.5696648 0.043879535 0.020572236 0.16855076 -0.15005665 -0.08935189 -0.22012171 -0.29448897
0.23571834 0.008719562 0.004228113 0.04031467 0.21734843 -0.029048841 0.040572494 0.23675941
-0.019217664 -0.15044509 -0.14298595 0.0023483494 -0.21520302 0.037425008 -0.041801535 -0.10219231
-0.32639056 0.060407102 0.050660834 0.06572662 -0.052788284 -0.022879396 -0.23920223 -0.2997865
-0.35746598 0.112396866 0.104237035 0.15966529 -0.42952085 -0.19175757 -0.44643754 -0.55851936
0.4727233 -0.10099373 -0.114050195 -0.064910404 0.24681617 0.11214915 0.14157608 0.34576622
0.028506797 0.21312341 0.21608035 0.2195215 -0.3733322 -0.31308082 -0.18820317 -0.16696438
-0.004959516 -0.018377012 -0.013766017 0.32130057 -0.39808312 -0.31263173 -0.30034655 -0.21671459
-0.21415329 0.5069324 0.5015267 0.14040504 0.24828674 -0.23450734 0.099156626 -0.054319814
-0.2038829 0.25185835 0.25209752 0.2811933 -0.3084587 -0.34800386 -0.289445 -0.22052163
-0.03231747 0.25091642 0.26855507 0.31702203 -0.15142107 -0.4330714 -0.36626834 -0.039814997
0.032521002 0.014942197 0.02071636 0.19808972 -0.46406046 -0.2906293 -0.31801084 -0.18305017

embedding_item_mlp.weight f4 [3706, 8]
00000000: d3af 8bbf 947c 70bf 7652 20bf 8b83 583f
00000010: f111 a03f 425f 563f 549d 63bf 2824 b93e
00000020: cb52 11bf 3570 20be 0775 31be 9abf 1a3e
00000030: 25df 753e 6cc9 8a3a b6af 47be d1b4 b43e
00000040: ec2c 2dbe 7ea5 95bd c62b 94be 7a5b 943e
00000050: 1f18 3b3e 667a 753e 5cb7 8ebe 868b 2a3e
00000060: 6ac0 13bf b6b1 10bf 8ae1 55bf 49ff 433f
00000070: f29e c43e 5142 413f a96d 36bf 1197 1e3f
00000080: f838 d6be d743 5ebf ecd2 3cbf 3f7c 023f
00000090: 87e2 d83e fd6c 223f edc6 fdbe 5805 2f3f
000000a0: 2417 2bbf df76 3ebf 88e0 0abf fc2e c23e
000000b0: da3d 323f f547 033f 5b47 e2be 6b4f db3e
000000c0: b7d7 a13c 6bbf a0bd 8cdc f0bc 911e 323d
000000d0: 46db ac3d 2be8 dd3d cda8 15bd 7a9f 753d
000000e0: d45d 5dbe 2e32 18bf 46dc e13d b919 8d3d
000000f0: 91d2 f43e 641d bc3e 6a1f 67bd 9ba6 d13d
00000100: 1f4c 353d a692 22bd 5766 00be c7df 063c
00000110: 2afd 24bd 46b5 9bbc 7a6f 5dbc f339 353d
00000120: 821f 87be 2ab5 13be e13a 71be ce31 d83e
00000130: 1c97 963e a42c ad3e be7f d1be 164e f83d
00000140: d2bc 09be 77b9 1dbe a1a8 49be 6221 cd3d
00000150: a48a e43d e4e3 c23d 7b56 c9bd 9fc9 253e
00000160: cfdf 9f3d 7ff3 4c3e 813b 87bd 8b29 40bd
00000170: 263b 35be a5b1 16be 1498 403d 7d40 973d
00000180: 878e 4bbd 21cb 56bc bda6 69be a7ec 89bd
00000190: 5be0 f0bd fc3c 1ebe 070b 803c 4a82 b83c
000001a0: 5b30 033e edaf d6bd ad51 7bbe 4f2a 9ebd
000001b0: b948 95bd d106 15bd a805 c83d ba6e 3d3e
000001c0: 8246 fdbe d1b1 e7bd bbfc c8be 03e6 d03e
000001d0: e654 413e 04a6 1b3e cdfc e0be 1b40 b33e
000001e0: 9a5c 0ebf d7b5 debd d2cd c0be 1777 c63e
000001f0: c150 633e 2161 ec3d 8c16 ebbe a294 9e3e
00000200: 4fb7 37bd f9de e6be 6cd5 7bbd 2162 98ba
00000210: deb0 583e 2523 043e 2c9b f43c bcea 683e
00000220: 647a b6bc fbec 363d 2086 8abd 664b 06be
00000230: 5cc2 313b d843 fcbd e371 de3d f9c5 6a3d
00000240: d318 92be 8075 393d 8f33 ec3c 41f5 0fbd
00000250: b6a4 1a3e 001e 2bbd 3606 333c 37e3 ddbc
00000260: 1b61 21be a305 b1bd 87c5 59be 98f7 243e
00000270: 9bfe d43d cae2 e83d 64d0 42be fe5e 133e
00000280: 4be5 45be fe70 41be f227 50be dcda 873e
00000290: 4c13 7f3e 617c a43e d7cc 87be ea78 d43d
000002a0: 1e97 383e 69dd 02bf 2128 0e3d fc8e 1cbd
000002b0: b976 6e3e 87cf 983e b5fc ca3d ae36 b73e
000002c0: d11a 12bf a71a 14bf 5857 09bf f724 053f
000002d0: 9496 1d3f c238 173f 3801 0ebf 52bd cb3e
000002e0: e67f 5ebf 21a5 4cbf d2bc 0dbf bdeb 593f
000002f0: 0101 833f 28bd 813f 8bac 5bbf 0db5 413e
00000300: 7e2f e9bc 3598 b5be fe82 8abd a1c7 0b3e
00000310: 37a7 6e3e 8133 963e d997 dbbd 91da d43d
00000320: ed47 37bd 55ae 42bd b9b8 b4bb c052 a8bd
00000330: 9d25 d03c a8c6 85bc 80c3 c23d 396d da3d
00000340: 846d 22bf 8eb9 52bf ae76 16bf bc28 043f
00000350: c3a8 4a3f 9a3e 273f bc3c 10bf 7068 ae3e
00000360: a3c2 2fbf b704 22bf 64e9 cfbe 1b41 2e3f
00000370: c808 3e3f 4a9b 643f 444e 29bf afe6 2f3e
00000380: 74d5 cb3d 3985 2dbd bb96 2c3e b2bb 7cbe
00000390: 8995 cbbc ae62 a5bd c978 923e 81d6 813b
000003a0: 9546 d13d 7048 4fbf 6279 a7bd bf00 cc3d
000003b0: 9f22 cd3e e7a9 0b3f d2a0 e3bc 3e28 c23e
000003c0: af7a d7bd 8c25 67be 098c 28be 739c ef3c
000003d0: c67e 0a3e 927b 763d 38a7 7abd 1f87 0e3d
000003e0: b9a4 22be 3612 c3be 47e8 c6bd 6890 b43e
000003f0: c77f f33e 48d5 163f 527a 8fbe 4755 d73d
-1.0913032 -0.9394009 -0.62625825 0.8457572 1.2505475 0.837391 -0.8891194 0.36160398
-0.5676696 -0.15667804 -0.17329799 0.15112153 0.24010904 0.0010588593 -0.19500622 0.35294202
-0.16911668 -0.07306956 -0.28939646 0.2897604 0.1827092 0.23972473 -0.27874267 0.16654786
-0.57715476 -0.56521165 -0.8354727 0.7656141 0.38402516 0.75491816 -0.7126108 0.6194926
-0.4184034 -0.86822265 -0.7375934 0.50970834 0.42360327 0.6344755 -0.4956583 0.6836753
-0.66832185 -0.7440013 -0.5424886 0.3792647 0.6962563 0.5128167 -0.44195065 0.4283403
0.019756181 -0.0784901 -0.02940204 0.04348618 0.084402606 0.10835298 -0.036537934 0.05996654
-0.21617824 -0.5945157 0.11028342 0.06889672 0.478169 0.36741173 -0.056426443 0.102368556
0.044262048 -0.039690636 -0.1253904 0.008232064 -0.0402805 -0.019007336 -0.013515348 0.044244718
-0.26391226 -0.14424577 -0.23557617 0.42225498 0.29412162 0.3382312 -0.40917772 0.12124269
-0.13450935 -0.1540278 -0.19693233 0.10016133 0.11159256 0.09516123 -0.09830948 0.16190194
0.0780636 0.20014761 -0.06603146 -0.04691462 -0.17698345 -0.14716204 0.047020033 0.07385347
-0.04969647 -0.013109953 -0.22817512 -0.06734591 -0.117615424 -0.15452951 0.015630258 0.022523064
0.12811415 -0.10482774 -0.24542876 -0.077229135 -0.07289261 -0.036383454 0.09766704 0.1849927
-0.49467856 -0.11313213 -0.39255318 0.40800485 0.18880042 0.15200049 -0.43942872 0.35009846
-0.5561005 -0.10874527 -0.37657028 0.38762733 0.22198774 0.11541963 -0.4591564 0.30972773
-0.04485255 -0.4509199 -0.06148283 -0.0011625924 0.2116122 0.12904032 0.029859148 0.22745794
-0.022275157 0.044659596 -0.067638636 -0.131147 0.0027123904 -0.12317628 0.10861566 0.057317708
-0.28534564 0.045278072 0.028833179 -0.035146 0.15101895 -0.041776657 0.010926774 -0.027085884
-0.15759699 -0.08643653 -0.21266757 0.16110075 0.10400125 0.113713816 -0.19024807 0.14391705
-0.1932575 -0.1889076 -0.20327738 0.26534164 0.24909705 0.32126144 -0.26523468 0.10374625
0.18026397 -0.51119095 0.03470624 -0.038222298 0.23287477 0.2984583 0.09911481 0.35783905
-0.5707217 -0.5785317 -0.536489 0.5200953 0.6155789 0.5907098 -0.5547061 0.39792877
-0.8691391 -0.79939467 -0.5536624 0.85125333 1.0234681 1.0135851 -0.85810155 0.18916722
-0.028465029 -0.35467687 -0.06763266 0.13650371 0.23305975 0.2933617 -0.10722322 0.10393251
-0.04474633 -0.047529537 -0.0055151847 -0.08218908 0.02540856 -0.016330078 0.09509945 0.10665364
-0.6344836 -0.82314384 -0.5877484 0.51624656 0.7916376 0.653299 -0.56342673 0.34064054
-0.6865637 -0.63288444 -0.4060775 0.68068093 0.7423215 0.8929945 -0.6613505 0.17177843
0.09952822 -0.04236338 0.16854374 -0.24680975 -0.024851577 -0.08075462 0.28607777 0.0039623384
0.102185406 -0.80969906 -0.08177449 0.0996108 0.40065476 0.54556125 -0.027786646 0.37921327
-0.10521447 -0.22572917 -0.16459669 0.029249405 0.13524923 0.06017644 -0.06119463 0.03479683
-0.15883149 -0.3809983 -0.09712272 0.35266423 0.47558424 0.5891919 -0.2802301 0.10514312

embedding_user_mf.weight f4 [6040, 8]
00000000: 38fa c63d 0c1c f13d a856 5abe 6673 f63e
00000010: 07ca eabc a623 e5be d4fa 04be 32d0 4abf
00000020: 5bc1 87bc 498b a7be 0f9d 03bd 2145 6f3f
00000030: ef2a d53d f490 a83d 5684 b33e 9734 903d
00000040: a790 a83e abc2 debe 191e 01be 13bc 5abc
00000050: 97d1 983c ea2c 1d3f 9e54 8f3e 2277 12bf
00000060: f778 eebd 1da9 88bd a3a0 ce3e 4522 1b3f
00000070: aa0c 66be 569a 373f 265c b93e b383 09be
00000080: e6ed 21bd 8317 c0be 465d f5bc 7136 933e
00000090: 7174 39bf fee0 d5be 4834 bdbe f53b f93b
000000a0: c8c5 9b3e 415c 4d3e f68e bcbe 7d94 da3e
000000b0: cc15 1a3f a0d6 17bd c54e a93e a40d 3dbe
000000c0: a4d7 053f 3bfb 07bf 29e5 b43e b313 f53e
000000d0: 4e48 b0be 2daa ee3e 57dd 2a3e 61a0 95bd
000000e0: bb2d 9a3e ce05 00bf e83b 713e 7fde 253f
000000f0: 776b e3be c97a 2dbf 8d4b 90bd cc4f d0bd
00000100: a8cb 373e 973d 4fbf 8833 0b3e cfdb 183f
00000110: 16e1 e4bd 369b b3be 057e 84be 4a55 dcbe
00000120: 848c 763e 78dd 593e f954 0fbf 4a53 ac3e
00000130: a2f6 2c3e 5d09 343e e54a 903c 250a 14bf
00000140: 9206 2b3d a578 0cbf 9027 a7be 367f 53be
00000150: 1ca1 60be 21f2 c8be 4d28 9bbd 9bc4 2abf
00000160: 6546 b8be 2dfa 99be 5ae7 e33d 7412 da3d
00000170: b77a 33bd 9101 c03e 8c30 12be af56 e9be
00000180: 6d81 af3e 6153 eb3d 6a17 84be b096 553f
00000190: df5d 70bd da1e ce3e 7d09 07bd fd6f 0d3e
000001a0: 2d37 48be 784a 13be fd09 413e c1a0 07be
000001b0: 5b31 5abe ea82 bb3d ba6f 4e3e afaa bcbe
000001c0: 1bc0 233f 897f 3abf d2eb 893e bfc4 613e
000001d0: 8f4b c53d 9272 7fbe 7d9d a23e 90b2 c5be
000001e0: 4a45 193f d28d e23d 921b 60be 141e b4bd
000001f0: 8890 7d3e 6825 5cbd dca6 2c3e 04cf c03c
00000200: 3b6f 9b3d 6fa3 fdbc 7a85 e63d 5699 793e
00000210: 9802 0bbf e952 933e bbd2 6abe a8f5 c13e
00000220: 3f8f fa3e 9ccb a83d 96f1 1cbe ce4c 453f
00000230: 6213 8fbe d46f cb3d fe01 fbbd 2324 aebe
00000240: ba78 dc3e f96a cd3d 9fe9 183e 8982 28bd
00000250: 1fd3 33be 0f8a eb3e 6eaa ad3d 8298 0ebf
00000260: 40af c33e f7f8 04bf 9408 193e bde5 8f3d
00000270: 5b62 a5be d2e7 933e d600 91bd bda0 9abd
00000280: 959e 0f3f 2d72 7d3e 433c c7bc 2b67 633d
00000290: 7fab 60be 5bc3 273e 50ff bbbe 9641 e6be
000002a0: 2cc2 023f 0641 00bf 59ee 51be 6361 3ebe
000002b0: 6a70 eebe e7aa 963e f22c 2fbc 938b cdbe
000002c0: a02f 80bd 35bd 18be e268 21be 9cff b13d
000002d0: 0bd3 3bbf 6d76 ed3e 52dc a9bd 8f7f 293e
000002e0: 9bb2 1bbd 041e a2be 03cc 2dbf 7187 923e
000002f0: 9377 92be dd1c ddbd e5af a93e 3cfb 45be
00000300: 4c1f 203f 36a0 81be 5d82 1dbe 8120 d93d
00000310: ef44 2cbe 0a15 cb3e deaf c9be 60c4 d9bd
00000320: 771d f63e ea39 90be 43ab 04bf 0815 cd3c
00000330: 5e35 f33d 16fc 39be aa5b 283f 9264 5abe
00000340: c4df d9be 739b 273e ac04 13be 9fe2 9a3e
00000350: de74 f0bd 65c4 a73e deba e1bd 3396 d5be
00000360: 906e 7dbe a62d dd3d 28db 91be c467 873e
00000370: eb7d b3be f9d1 00be 7d30 823d 38db 9abe
00000380: dae1 4fbd 3b88 16be 5df0 b03e 7ea1 103f
00000390: ddc9 7bbe 75f5 583f 6f81 003f 4a29 9a3e
000003a0: 7b36 43be ab07 1ebe 3387 603e 4d83 603e
000003b0: 04a5 9ebe cb0e d5be 11b8 28be c669 9cbe
000003c0: 11bc 77be 34c1 1ebd 4e09 59bf 0aa9 8fbe
000003d0: 7f1a fc3e 4129 113f 7d5f 193e e964 55be
000003e0: 3293 99bd 30b1 77be bfe6 e03d 11c8 a83e
000003f0: 0f7e abbe 48ef 9abe 695b 0cbd e86c 9bbd
0.09715694 0.11772928 -0.21322119 0.48134917 -0.028660787 -0.4475376 -0.12986308 -0.7922393
-0.016571691 -0.32723454 -0.032132205 0.9346486 0.104085796 0.082307726 0.35061902 0.07041281
0.3292286 -0.43507895 -0.12609138 -0.013350504 0.018654628 0.6139666 0.27994245 -0.5721303
-0.11644166 -0.06672881 0.4035693 0.60599166 -0.22465768 0.7171987 0.36203116 -0.13429146
-0.03953352 -0.37517938 -0.029951703 0.28752473 -0.724433 -0.41773218 -0.3695395 0.0076060244
0.30424333 0.20054723 -0.3682782 0.42691413 0.6018951 -0.037069917 0.3306791 -0.18462235
0.52282166 -0.5311772 0.35331085 0.47866592 -0.34430164 0.4661421 0.16685997 -0.073059805
0.30113015 -0.5000886 0.23558009 0.6479263 -0.44417927 -0.6776548 -0.0704566 -0.1017147
0.17948782 -0.80953354 0.13593876 0.597104 -0.11175744 -0.35079354 -0.25877395 -0.4303382
0.2407704 0.2127589 -0.55989033 0.33657295 0.16890958 0.17581697 0.017613837 -0.5782798
0.041754313 -0.5487159 -0.3264737 -0.20653996 -0.21936458 -0.3924723 -0.07576046 -0.66706246
-0.35991207 -0.3007368 0.11128111 0.10648051 -0.043818202 0.37501195 -0.14276332 -0.45573947
0.34278432 0.11490513 -0.25799114 0.83433056 -0.058683272 0.40257913 -0.032968033 0.13812251
-0.19552298 -0.14383876 0.18851466 -0.13244916 -0.2130789 0.09155829 0.20159808 -0.3684897
0.63965005 -0.72850853 0.2693773 0.22047709 0.09633552 -0.24946049 0.3176078 -0.38612795
0.5987135 0.11062206 -0.21885517 -0.087947994 0.24762166 -0.05374661 0.16860527 0.023536213
0.07589575 -0.03096172 0.112559274 0.243749 -0.5430083 0.28774193 -0.2293195 0.37882733
0.48937413 0.082419604 -0.15326533 0.7707032 -0.27944475 0.09933439 -0.12256239 -0.34011945
0.43060857 0.10030169 0.1493287 -0.041140113 -0.17561005 0.46003768 0.084797725 -0.5570146
0.38219643 -0.5194239 0.14944679 0.07026241 -0.32301602 0.28887802 -0.070802376 -0.0755019
0.5610135 0.24750586 -0.024320727 0.05551831 -0.2194042 0.16383116 -0.36718225 -0.44971913
0.5107753 -0.5009922 -0.20501079 -0.18591838 -0.4657014 0.29427263 -0.010691868 -0.4014555
-0.06259084 -0.14915927 -0.15762666 0.08691332 -0.733689 0.46379414 -0.08293976 0.16552566
-0.03801213 -0.31663525 -0.6788942 0.2861896 -0.28606853 -0.10796521 0.3314201 -0.1933412
0.62547755 -0.25317544 -0.15381761 0.10601903 -0.16823171 0.3966449 -0.3939199 -0.10633159
0.48069355 -0.28169185 -0.51823825 0.025034443 0.11875413 -0.1816257 0.6576487 -0.21327427
-0.42553532 0.16367893 -0.14357251 0.30251023 -0.11741041 0.32767025 -0.1102197 -0.41716155
-0.24749207 0.107997224 -0.28487515 0.26446354 -0.35057005 -0.12580098 0.06356905 -0.30245376
-0.0507525 -0.14700405 0.34558383 0.5649642 -0.24588723 0.8474954 0.501975 0.30109626
-0.19063751 -0.15432613 0.21926574 0.21925087 -0.30985272 -0.4161285 -0.16476466 -0.3054945
-0.24192835 -0.03875847 -0.8477982 -0.28058654 0.49238965 0.56703573 0.14977832 -0.20839275
-0.074987784 -0.24188685 0.10981511 0.3296514 -0.33494613 -0.30260682 -0.034266863 -0.075891316

embedding_item_mf.weight f4 [3706, 8]
00000000: 5154 ed3e 42af 333d ff24 c3bd dea1 413e
00000010: 296c 493e bba7 423d 054d 8a3e 1bd4 b53e
00000020: 34a1 41be 82ac ecbe cf34 cd3d 4127 863d
00000030: f46a e13d 34a5 05be 6cd1 10bf bda3 c03e
00000040: efba 093e 6120 59bf 09e6 3e3e 1149 f53e
00000050: 6466 a1be 2b4c 8abe 0f87 233e 12fe 6e3e
00000060: ecf8 c13d 5bc7 973e 0d68 7abe 5035 4b3d
00000070: af49 a2be 16cd 96be 0b82 d43d 8810 6c3e
00000080: af24 95be 29a3 073e 3f22 9d3e 11a0 313e
00000090: f9be e0bc ef5b 243d 56b4 2abe 66c0 0f3f
000000a0: 828d 81bd 37e4 3e3e 32ad 283f 731d 9f3e
000000b0: 8205 a13e 05ab b63e a642 133e 10fb c23e
000000c0: 0418 2c3e c71f 77be 5f6f 79be 4713 323f
000000d0: 71a8 8dbe 27f5 0c3f 477b 603e 9216 3d3e
000000e0: 7418 673e c0b9 7f3d 49c3 d13e 7d2a fcbd
000000f0: c6d0 b53e e755 713e 417f 9a3e 10d6 4d3f
00000100: 180a edbd dc68 69bf d60f 653e cfea e13e
00000110: e1bd 9b3d 161d 763d ccd4 94be 5eb6 9b3f
00000120: 2506 0f3e e067 acbe 0cb5 313e 8f7c 183f
00000130: 19e0 593e c765 573e e8f4 2f3e de7d 803f
00000140: b4ab cfbe 0eee 00bf 7a29 793e 14da 1f3f
00000150: 0b4a 1e3e 61c6 89be 2a5e 9fbe 6945 8b3f
00000160: 1e08 af3e b2df 8bbf 881d f03d 93f5 863e
00000170: 358d 27bf c0e4 a3be f07b 2cbe 56f9 233d
00000180: 436e 8b3e ce7d 1ebf 1e69 cebd 77b2 d43e
00000190: 580d a6be 7337 1abe 79e9 913e 546a 353f
000001a0: 75e9 0e3e 6610 df3e 5478 693f 10eb a8bd
000001b0: c496 693e 7a56 8b3e 3449 0c3f fbd3 7d3f
000001c0: 2024 033d 036e f4be 6fec 2f3e 8cb4 2e3d
000001d0: b69c 6dbe e5ca 71bd 8b28 f73d ab1d 043f
000001e0: 7fd0 483e 5f37 8b3e 6fbf 0f3f 33e2 8bbe
000001f0: ac03 f33d 43ac b43e d6f7 c83e 96ea 133f
00000200: b09c b4be 2e7e e0be b7ed 29bd 5f19 823e
00000210: b84d 0fbe 9339 e0bd 4b11 cfbe dff1 043f
00000220: 68f0 cfbd 57b6 3dbf 902d cb3d 1cdf c33e
00000230: 845c 1f3c 7e4c 08bd 5c4b 20be 8335 883f
00000240: 0937 9f3d 5ed5 3d3d ebb6 773d 379a ed3e
00000250: 506d 4f3e 610f 1cbf b475 c73e 8c27 ca3e
00000260: 9592 a1bd 361d 85bb ae63 533f 3c7b 7c3d
00000270: c054 c73e b577 a93e 84d4 e33e aef7 313f
00000280: 3fa3 86bd 63ce ff3e 814e ea3e 7b3c 033c
00000290: dd5e 54bd c73f 04be 7591 b3bc 19a2 053f
000002a0: ba28 793e 32e2 f4bd eec2 1a3e b4eb 863e
000002b0: 4f6d 943e 43de e3bc 7eb5 36bf 67f8 b43e
000002c0: 430f 6abd f990 dc3d 1717 4a3f 76ef 583e
000002d0: d643 bb3e 080c 083f f005 963e aa50 133f
000002e0: 72ab 4c3e 6410 813e b2ee 15be fd6e 103f
000002f0: 06f9 873e 00ed acbd df40 9f3e f090 fa3e
00000300: 491b 9fbe 78cc ed3d 0a3d 35bd 0770 d3bd
00000310: fe23 cdbe 8341 d9be 0e30 923e c18f 71be
00000320: 9a02 1abf b256 2bbf b57e 1f3e ed44 b93e
00000330: 5d9f 53be 7306 f8be fb8c d2be 2499 f53e
00000340: 73b3 b7bd c884 3dbe 5c7f e93e f3f3 fd3e
00000350: 1a7e 0a3f a04d 9b3e 4a3b 823e 0097 0f3f
00000360: 1612 64be 4690 123e fcce a13d 35cf cb3e
00000370: ddec a8bc 88f1 b8be 5ea7 983e c9e1 253e
00000380: 0694 033f 69d7 34be fbd2 07bf 6e8f 133e
00000390: a9e8 1ebe bbb9 78bf 31ca edbe 3947 4ebe
000003a0: 1c5a 4a3e f5f4 46bc cdd9 aa3e d9f3 4b3e
000003b0: 81a0 673e ac8e dbbc 4f96 50bf b3c9 423e
000003c0: 0171 bfbe 723f 5fbe 490e 593e b132 a73e
000003d0: 992b 8e3d dc31 efbd 5806 aebe daac 113f
000003e0: c30e b73c 9c4a 453e 4a9c 8cbe d412 98be
000003f0: d68d c0bd 78ad 0bbf f246 9a3d 9623 f43c
0.4635339 0.04386831 -0.09528541 0.18909404 0.19670166 0.04752324 0.27011886 0.35513386
-0.1890915 -0.46225363 0.10019838 0.06550456 0.11006728 -0.13051301 -0.5656955 0.37624922
0.13450216 -0.8481503 0.18642439 0.47907308 -0.3152343 -0.27011237 0.1596949 0.23339108
0.09471306 0.29644284 -0.24453755 0.04961139 -0.3169684 -0.29453343 0.10376366 0.23053181
-0.2912955 0.13245834 0.3069019 0.17346217 -0.027434813 0.040126737 -0.16670355 0.5615295
-0.063258186 0.18641745 0.65889275 0.31077155 0.31449515 0.35677353 0.14380893 0.3808217
0.16806036 -0.24133216 -0.24358891 0.69560665 -0.27667573 0.5506157 0.21922027 0.18465641
0.22567922 0.062433004 0.40969303 -0.123127915 0.35510844 0.23567925 0.30175212 0.8040476
-0.11574191 -0.9117563 0.22369322 0.44124457 0.07604576 0.060086332 -0.290686 1.2165029
0.13967188 -0.33673 0.1735422 0.5956506 0.21276893 0.21034919 0.17183268 1.0038412
-0.40560687 -0.5036324 0.24332228 0.62442136 0.15457933 -0.26909164 -0.3112653 1.0880557
0.3418588 -1.0927641 0.11724383 0.26359233 -0.6544984 -0.3201046 -0.16844153 0.040032707
0.2723256 -0.6191071 -0.10078643 0.41542408 -0.32432055 -0.15060215 0.28498438 0.7086537
0.13956244 0.435672 0.9119923 -0.082479596 0.22811419 0.27214414 0.547992 0.9915158
0.032016873 -0.47740182 0.17180036 0.04265265 -0.23204312 -0.059031386 0.1206828 0.5160777
0.19610785 0.27190682 0.5615148 -0.27321014 0.11865935 0.35287675 0.39251584 0.57779825
-0.35275793 -0.43846267 -0.04148647 0.25409982 -0.13994491 -0.109484814 -0.4044288 0.51931566
-0.10153276 -0.74106354 0.099208 0.38256156 0.009726647 -0.033276074 -0.15653747 1.064133
0.07774169 0.04634606 0.06047718 0.4640672 0.20256543 -0.60960966 0.38956988 0.39483297
-0.078892864 -0.00406232 0.82573974 0.061640963 0.38931847 0.33099142 0.44498074 0.69518554
-0.065741055 0.49962148 0.4576302 0.008010025 -0.05184828 -0.12914954 -0.021919945 0.52200466
0.24331942 -0.11957206 0.15113422 0.26351702 0.28989646 -0.027815944 -0.71370685 0.35345766
-0.05714346 0.10769839 0.7894148 0.21185097 0.36575192 0.5314336 0.29301405 0.5754496
0.19987276 0.25207818 -0.14641836 0.56419355 0.26557177 -0.08443642 0.3110418 0.48938704
-0.31075504 0.11611265 -0.044247665 -0.10324102 -0.40066522 -0.42432794 0.28552288 -0.23589994
-0.6016022 -0.6692916 0.15575679 0.361854 -0.20666261 -0.4844242 -0.41123185 0.479684
-0.08969774 -0.18507683 0.4560498 0.4960018 0.54098666 0.3033266 0.2543586 0.5608978
-0.22272524 0.14312848 0.07900807 0.39806524 -0.020620758 -0.36121774 0.2981519 0.16199411
0.5139774 -0.17660297 -0.53056306 0.14410183 -0.1551844 -0.971584 -0.46443322 -0.20144357
0.19760936 -0.012143363 0.33369294 0.19917239 0.22619821 -0.02680143 -0.8147935 0.19022255
-0.37390903 -0.21801546 0.21196856 0.32655862 0.06941909 -0.11679432 -0.33989215 0.56904376
0.022345906 0.19266742 -0.2746299 -0.29701865 -0.09402053 -0.5456157 0.07533063 0.029802125

fc_layers.0.weight f4 [64, 16]
00000000: b9cc 0ebf b2f2 52be 8264 62be 01c3 d43e
00000010: 6058 1c3d 962e 85be d4f3 b7be 57ec 45be
00000020: fa4e c0bd f218 903d 1aef 2c3d 1c99 9dbe
00000030: f0c1 92be 4b45 ecbe 85c8 813e 56f2 3c3e
00000040: 390b 28bf b7e0 de3d 637a 653d 24f1 b0be
00000050: 2b62 a1be e1c0 263e 71bd 2fbd 48a9 8bbe
00000060: 0424 08bf dc5c bc3d eb2f cd3e def6 dcbd
00000070: 38da 8a3e 10c8 e2bd a24e c2bc 5a0b 40bf
00000080: 9a98 c43e 78c8 803e 7459 2f3e e9cc 3c3e
00000090: 6693 c73e 47f2 9abd 7f16 433e 9ab8 aa3e
000000a0: 3b98 ae3e 3cd9 25be 5431 a1bc d24e 26be
000000b0: 59b7 0dbc 3e37 1b3e 6e8c 843e ea0d 0b3e
000000c0: 7285 e63e f46b a03d 3135 813d 1ab7 4b3e
000000d0: b52a 8bbf 53fe 6dbe 55f5 08be a8e1 273c
000000e0: 8aa5 b13e e899 013e 4da7 aa3e 6564 6e3e
000000f0: cdda d0bd c6ef 5c3e 845c 51be 213b 34bf
00000100: 4b3d 693e d18d 6f3e d234 253e e7e6 143e
00000110: ac62 a03e e0e3 85bd 0d14 713d 4392 533e
00000120: 3374 b33e a551 10be 384a 77bc 1cb7 3abe
00000130: a34e 253c d4fc d93d bcf1 913e ea2b 143e
00000140: f672 6b3e 6874 073e 6e40 083e 84cd ba3e
00000150: 17ac 5bbf 0b35 f7bd 6fb3 58bc df42 3bbe
00000160: de31 813e 763d 35bc b01f c53d fb94 cd3d
00000170: 4988 3abe 8f6c 1fbd 0195 54be 3bb0 2cbf
00000180: 6ce3 313d 235f d03b d935 5a3c 3504 af3d
00000190: 0548 fdbb 8b01 8bbd f5ea 3cbd 7130 83bd
000001a0: 5e29 bbbd 07cd d8bb 236c 503d 1813 22bd
000001b0: 2c30 e6bc d14a 80bd b24e ce3c 8c86 213d
000001c0: 4edc c6bb 0fcc 623c 5286 633c e8f8 c83b
000001d0: 0fb9 203c c744 af3a 74d5 623c f2d1 8e3b
000001e0: 53a2 92bb e82d cab9 54fa 423b eecd f33b
000001f0: c6cf afbb 2cf8 383c 9827 a2bb d722 75bc
00000200: 162f 1d8a 223e d713 2128 c013 c2bb 2592
00000210: 16dd 1604 396e 7112 53f4 7f86 16e6 ba87
00000220: e690 5009 3369 f58a f740 2a0e 8e00 9b87
00000230: 9b20 c586 e488 f885 11cd 1008 478b 3013
00000240: 02bc 10bf c0ce 5f3e 86b0 3c3e a743 54be
00000250: 6fe5 25bf 42ab 163e 7145 02be 58be dcbe
00000260: 1f19 2bbe af62 973e a121 883e e4bc 313d
00000270: 3a8a 23bd 84e1 07be cc46 50be 7c33 57bf
00000280: 8c81 243f 6a0d f43d 1829 ca3d 8146 b8bd
00000290: 8ae3 79bf f5ec 90be a034 a0be ae7d 8b3c
000002a0: 4ec3 a63e de21 633e 1717 c33e c7e0 ae3e
000002b0: 4e0f 94bc ef9f 9d3e 47c1 71be 3148 30bf
000002c0: 4d17 41bd 4cab b33e b7a0 b33e 4214 773e
000002d0: 8f5f 8a3e 24b3 1fbe 456b f13d 236f 503d
000002e0: 7fa6 583e 1fc1 d33e f89d ffbd 8870 e7bc
000002f0: 26d1 0ebe c370 62be 710e 3b3d 9dbd 573e
00000300: c1a5 c7be 3dbb b83d 0a8f 8c3d 8548 3d3f
00000310: 825b e3bc 5acb aabe 19f6 2fbe 4e9c a7bd
00000320: 8a4b 6dbd ff7d ad3e 6728 25be 1627 53be
00000330: 86fc c5be 49ca 27bf 7516 023e 415f 8f3e
00000340: 1ba2 eb3c 32b8 4b3e be68 7d3e 1cbf 9cbd
00000350: d239 963d eabe 39bc 6d36 353e a2b1 9f3d
00000360: e349 e53d 0db2 3a3e c2e0 b4bd b9f2 003e
00000370: 046a acbc ffff 1b3d 45cd d5bd b0df 433d
00000380: c0b6 37bf 0ae5 4c3e b9de 313e 4fab d5be
00000390: e0b0 14bf 1f4f 3c3e 5ce9 bbbd 4560 c3be
000003a0: 1057 ddbe 3765 913e cee9 c23e d7d4 c5ba
000003b0: 752a 223e 98ae d3bd f5d6 17be 5e49 6cbf
000003c0: 6edc 79be fc28 923d c561 7d3d 7efd 823e
000003d0: 2691 49bf eab4 123d 81b5 99bd b915 babe
000003e0: cd28 fbbc 61e7 ae3d 634e db3d 6a6c cebc
000003f0: 987b 94bd 0545 09be 0b54 17be 3fc0 46bf
-0.5578113 -0.20600393 -0.22108653 0.41555026 0.03817022 -0.26012105 -0.35928214 -0.19328438
-0.093900636 0.07036008 0.042220213 -0.30780876 -0.28663588 -0.46146616 0.25348297 0.18451819
-0.65642124 0.10882705 0.05602492 -0.34558976 -0.3152021 0.16284515 -0.042905275 -0.2727759
-0.53179955 0.09197399 0.4007562 -0.10789274 0.27119613 -0.11073315 -0.023719136 -0.7501732
0.38397676 0.25152946 0.17123967 0.18437542 0.38979644 -0.07565742 0.1905155 0.33343965
0.34100518 -0.1619615 -0.019676842 -0.16241005 -0.0086496705 0.15157792 0.2588839 0.13579527
0.45023686 0.078330904 0.063089736 0.19894066 -1.0872408 -0.23241548 -0.13374837 0.010246672
0.3469661 0.12656367 0.33330765 0.23280485 -0.10197983 0.21575841 -0.20445448 -0.70402724
0.22777288 0.23393942 0.1613343 0.14541207 0.3132528 -0.06537604 0.058857013 0.20661263
0.3504959 -0.14093645 -0.015093379 -0.18233913 0.010089549 0.10643926 0.2850474 0.14469877
0.22993073 0.13227999 0.13305828 0.3648492 -0.85809463 -0.12070664 -0.013226374 -0.18287228
0.25233358 -0.011062017 0.096251845 0.100381814 -0.18216051 -0.03892189 -0.20759965 -0.67456406
0.043429777 0.0063589974 0.013318502 0.08545724 -0.0077295327 -0.06787404 -0.04612251 -0.06405724
-0.091387495 -0.006616238 0.050884377 -0.03956899 -0.028099142 -0.0626427 0.02518401 0.039434955
-0.006068743 0.013842597 0.013887005 0.0061331876 0.009809746 0.0013371938 0.0138448365 0.0043585235
-0.004474917 -0.00038562645 0.0029751258 0.00744032 -0.0053653447 0.011289638 -0.0049485676 -0.01496192
-7.568131e-33 5.4334898e-27 4.8507184e-27 -5.229625e-28 1.7733933e-36 7.618205e-28 -4.813967e-35 -2.8121402e-34
2.510522e-33 -2.3632213e-32 2.0985397e-30 -2.3322134e-34 -7.4151073e-35 -2.3372094e-35 4.357448e-34 2.2282992e-27
-0.5653688 0.21856213 0.18426713 -0.20728932 -0.6480321 0.14713767 -0.12721802 -0.4311397
-0.16708802 0.29567477 0.26588157 0.04339303 -0.039926745 -0.13269621 -0.20339507 -0.84062934
0.6426017 0.11916621 0.09871119 -0.089978226 -0.9761282 -0.28305784 -0.3129015 0.017027702
0.3257088 0.22180888 0.38103554 0.34155867 -0.018073704 0.30786082 -0.23608886 -0.68860155
-0.047141362 0.35091627 0.35083553 0.24128821 0.2702603 -0.1559568 0.11788038 0.05088724
0.21157263 0.41358277 -0.12481302 -0.028251901 -0.13946971 -0.22113328 0.04566807 0.21068425
-0.38993648 0.09020088 0.0686322 0.7393878 -0.027753595 -0.3335827 -0.17183723 -0.0818411
-0.057933368 0.3388519 -0.16128694 -0.20620379 -0.38669223 -0.6554304 0.12703879 0.2800236
0.028763821 0.19894484 0.24746987 -0.07653639 0.07335247 -0.011337021 0.17696543 0.07797553
0.111957334 0.18231983 -0.08831932 0.12592591 -0.021046646 0.038085934 -0.10439543 0.047820747
-0.7176323 0.20009246 0.17370118 -0.4173226 -0.5808239 0.18389557 -0.09175369 -0.38159385
-0.43230486 0.28397533 0.38069004 -0.0015093338 0.15836509 -0.103360355 -0.14828093 -0.9229945
-0.24400494 0.071367234 0.06186082 0.25584024 -0.78737104 0.035817064 -0.07505322 -0.36344698
-0.030659104 0.08540226 0.107083105 -0.02519818 -0.07250136 -0.13405235 -0.14778154 -0.77637094

fc_layers.0.bias f4 [64]
00000000: 4d50 483e 3609 523d a50e 973e 52fd dbbe
00000010: ce76 b13e 7890 96be 09db f4bd 33d6 a5bd
00000020: 6b9a 20a2 c9f9 06bd 171f efbe a0b9 af3e
00000030: c4c4 e53d f5c1 99bd 8e5a 3f3d 93c1 17be
00000040: f30f 0cbd 6bf8 8c3e 4f4d 24be c61a 19be
00000050: e1fb 92bd f100 9fbd a4c6 743e 068f be3e
00000060: 1621 86b1 c6b1 cf3e d527 993e 2a78 cc3e
00000070: 73df 96bd 7c9d 10be 1c0d cc3e 5356 c8be
00000080: 0a4d 8eaa 5f24 cd3e 3d52 e1a6 a093 c53e
00000090: 205f cb3d 96e6 87bd a091 51be 414f b2bd
000000a0: d0ca 42bd 17f5 d23e bc79 1fbe 4976 d13e
000000b0: 020a c23e 0da0 d03e c1df ddb9 8112 1f90
000000c0: acd4 87be 6218 01be 1087 83b2 54a4 31be
000000d0: e6ee 37be 1add 8d8c f1f6 db84 a550 28bd
000000e0: 0b77 ba3e ddd8 7abe 348a e6bd 591b 65be
000000f0: 9e18 08bc 03ad d13e e79c 0192 b965 483e
0.19561882 0.051278315 0.2950336 -0.42966706 0.34660953 -0.29407096 -0.1195584 -0.08097496
-2.1765792e-18 -0.032953057 -0.46703407 0.34321308 0.11219171 -0.075076975 0.04671722 -0.14819936
-0.034194898 0.27533278 -0.16045116 -0.1495162 -0.07176948 -0.077638514 0.239039 0.37218493
-3.9036747e-09 0.40565318 0.29913202 0.39935428 -0.07366838 -0.14122576 0.39853752 -0.3912836
-2.5277724e-13 0.4006681 -1.5634802e-15 0.3858919 0.09930253 -0.06635778 -0.20465708 -0.08706523
-0.0475567 0.41202614 -0.15573782 0.40910557 0.3789826 0.4074711 -0.00042319114 -3.1371476e-29
-0.26529443 -0.12606958 -1.5311826e-08 -0.17347842 -0.17962226 -2.185756e-31 -5.1713432e-36 -0.041092534
0.36418948 -0.2449679 -0.11256829 -0.22373714 -0.00830665 0.4095231 -4.089862e-28 0.19570054

fc_layers.1.weight f4 [32, 64]
00000000: 728b 4e3e 3cc9 6c3e 6247 bc3d 8e8b 143f
00000010: 743c 9c3d 4ed2 253e 5a3d 473c 9cfb 023c
00000020: 407d a899 7bc9 273e 4ada 3f3f 564f 483e
00000030: 134f 593e a813 aa3d c931 873e 2b70 de3d
00000040: 5853 ac39 d35e 3d3e 2e83 07be dba9 e53e
00000050: fb4f 1039 f7f9 a53b 7bef 5d3e e417 053e
00000060: cc43 10a2 1d90 fd3d ad8a 423e 2840 ef3d
00000070: ea85 85bd d23f 45bf 157d f13d 9357 c03e
00000080: 2270 dd1f e65b 0e3e 8598 8219 73b4 ba3d
00000090: 87d5 673e 041e 3e3b 2e9a b4bd 0a7f 89bd
000000a0: 5898 833a f01c 073e a73b 40bf bdea f83d
000000b0: 8158 c43d 823f fe3d 8cb2 4aa2 07ee 170e
000000c0: bb01 f0be 3bf5 d23c 43cb 921c 729c 7fbe
000000d0: 7e50 71be 6d9c 0b03 055b 1f85 ceaa a43b
000000e0: f9cb 5d3e 17a9 95be 84eb 933e 51a0 29bf
000000f0: 95d8 f73e 00ea 133e 70b1 8501 1a96 0e3e
00000100: a751 723e 9736 753e d89d c93d 8323 173f
00000110: 2f3f b63d 21fc 3a3e ed5e 8d3c b2f7 dc3b
00000120: 400a 049a aa57 563e 25cb 433f b555 623e
00000130: 49c6 863e babe aa3d 4630 833e 51ad fa3d
00000140: b6f8 8f39 6357 5f3e 6dec 28be 859c f93e
00000150: 0074 d5ba a37a ca3a b3de 783e fa13 f53d
00000160: a56b f8a3 a2b0 0f3e b069 663e 6cfe f83d
00000170: 677e 09bd cb09 4cbf c55d ea3d dd1a c83e
00000180: c365 731f c0a9 0a3e dd8e 551a 9e26 cb3d
00000190: 2476 773e 2423 213b 4772 05be 539d 95bd
000001a0: 37ae cc3a 249f 0b3e 2604 40bf 9c7b 123e
000001b0: a1de da3d 050c ff3d 5b5e d2a2 8a4f 130e
000001c0: ebd5 ebbe fc3f d53c b9e7 5c9d ad66 95be
000001d0: 4083 90be 8e00 a502 9ad5 2285 a21a a53b
000001e0: b10e 793e 4d57 8dbe 68b0 953e 216d 2bbf
000001f0: ab98 063f fc90 283e d1db 8501 a01e 133e
00000200: 391f 1e8d 0867 d00c 01ff cd8c a621 698d
00000210: d282 e98d 0378 2d8d 3e16 a88c e8ac 8501
00000220: 22d9 8581 8eb8 488d ba82 818d 23ad 7e8e
00000230: 9410 208e 5f9e 478b f544 8d8c 0e35 bc8d
00000240: b8db 8581 d258 a78c 1f97 308b 480d 268d
00000250: 4ecc 8501 85b1 8581 06ab 448e 627a ab8d
00000260: 7d87 8501 ca09 1d8e eebe b18c 79d8 d58d
00000270: 83f9 598d 5280 df0a 3e7e 038e 5241 598d
00000280: 23a0 8501 917d d98d bdd3 8581 c0c3 ea8d
00000290: 1744 3e0d eb9a 8501 a113 9f0c 9898 a007
000002a0: a8a9 8501 653e 278e 01b2 4f8d 023a 2b8e
000002b0: c8f8 428e 6cbc 268e 0593 8501 e6d1 8581
000002c0: c2ed 868c e8fd 8c89 4ac7 8501 0a9d 9c8b
000002d0: 025b 5a8a 4088 8581 c7a2 8501 b4c2 8581
000002e0: d0a1 828e e74c 5b8c 1585 6d8c 0559 968d
000002f0: 62bf 9a0d 4cf0 198e 103a 8f01 bc63 8e8c
00000300: 5bd2 8581 4793 8581 148a 8b81 5884 8581
00000310: 0db7 8681 2f96 8581 16b9 8501 f48e 8501
00000320: 63a5 8501 4ad1 8581 3bc5 8581 5f99 8581
00000330: 2ee2 8581 0fa8 8501 919f 8581 108c 8581
00000340: 04d6 8581 69bc 8581 65d1 8501 9edf 8501
00000350: 8ea0 8581 5291 8581 c029 9781 c649 8b81
00000360: f9d1 8581 65d7 8781 7ebf 8581 bea1 8981
00000370: 6f99 8501 e584 8501 3c7f 8b81 2ddf 8581
00000380: baa3 8501 f097 8b81 7f96 8501 1607 8781
00000390: 6a9e 8581 198a 8501 aec0 8581 dfd3 8581
000003a0: abda 8581 a270 8981 79d9 8501 a9e0 8781
000003b0: edcf 8581 3d17 8881 3689 8581 45cd 8501
000003c0: 0dcb 8501 eac9 8501 d0bb 8581 2bc9 8581
000003d0: 1eaa 8501 f9c0 8501 aebe 8581 3fca 8501
000003e0: 7dd6 8581 57dd 8581 b08b 8581 bfd8 8501
000003f0: 8fcb 8581 3f4e 8b81 5c97 8581 4cbd 8d81
0.20170382 0.2312364 0.09193303 0.58025444 0.07628718 0.16193506 0.012160623 0.007994559
-1.7421381e-23 0.16385452 0.7494246 0.19561514 0.2122157 0.083045304 0.2640517 0.10861238
0.00032868492 0.18493204 -0.13233635 0.44856152 0.00013762705 0.0050651985 0.21673386 0.12997395
-1.955153e-18 0.12381003 0.18998213 0.11682159 -0.06519683 -0.7705051 0.11791436 0.37566814
9.378265e-20 0.13902244 1.3503287e-23 0.09116449 0.22640048 0.002900959 -0.0881847 -0.06713684
0.0010039909 0.13194633 -0.7509102 0.12154148 0.09587193 0.12414457 -2.7470627e-18 1.8726793e-30
-0.4687632 0.0257517 9.714011e-22 -0.24962023 -0.23565862 4.1027997e-37 -7.492862e-36 0.0050252443
0.2165984 -0.29230568 0.28890622 -0.6626025 0.48407426 0.14444733 4.9111094e-38 0.13924447
0.2366396 0.23946606 0.098445594 0.5903856 0.0889877 0.18260242 0.017257178 0.006743395
-2.730524e-23 0.20931879 0.7648185 0.22103007 0.26323155 0.083371595 0.25622767 0.12240089
0.0002746039 0.21810679 -0.1649644 0.48752227 -0.0016285181 0.0015447926 0.24303703 0.11966701
-2.6933803e-17 0.14032224 0.22501254 0.12157902 -0.033567812 -0.7970244 0.11443666 0.39082995
5.1541427e-20 0.13541317 4.4162772e-23 0.09919475 0.24166161 0.0024587596 -0.13031875 -0.07305398
0.0015615885 0.13634926 -0.7500633 0.14304966 0.10686994 0.124534644 -5.7020517e-18 1.8157446e-30
-0.46061644 0.026031487 -2.9236555e-21 -0.29179898 -0.28225136 2.424489e-37 -7.656436e-36 0.0050385753
0.2432201 -0.27605668 0.2923615 -0.6696339 0.525767 0.16461557 4.9171905e-38 0.14367151
-4.872509e-31 3.2109484e-31 -3.1738726e-31 -7.183917e-31 -1.43912275e-30 -5.34542e-31 -2.5897885e-31 4.910459e-38
-4.9168054e-38 -6.185191e-31 -7.98171e-31 -3.139128e-30 -1.9729505e-30 -3.844515e-32 -2.1765992e-31 -1.1599167e-30
-4.9171765e-38 -2.578388e-31 -3.4010058e-32 -5.1168686e-31 4.9149647e-38 -4.911121e-38 -2.424121e-30 -1.0568151e-30
4.90509e-38 -1.9356457e-30 -2.738608e-31 -1.3179252e-30 -6.7168626e-31 2.1522388e-32 -1.620778e-30 -6.6946914e-31
4.908627e-38 -1.3403887e-30 -4.9160313e-38 -1.44684885e-30 5.863023e-31 4.907878e-38 2.4509643e-31 2.416381e-34
4.909993e-38 -2.0614381e-30 -6.4001064e-31 -2.1105307e-30 -2.403213e-30 -2.0551802e-30 4.9067447e-38 -4.9157673e-38
-2.0789064e-31 -3.3942546e-33 4.914245e-38 -6.03253e-32 -1.0513435e-32 -4.9051993e-38 4.909006e-38 -4.913587e-38
-3.2203294e-30 -1.6894288e-31 -1.8297864e-31 -9.265894e-31 9.5370565e-31 -1.8974405e-30 5.261322e-38 -2.193859e-31
-4.915833e-38 -4.9067817e-38 -5.125867e-38 -4.904639e-38 -4.948649e-38 -4.9071987e-38 4.912207e-38 4.906161e-38
4.90938e-38 -4.91568e-38 -4.9139496e-38 -4.907656e-38 -4.9181036e-38 4.9097636e-38 -4.908545e-38 -4.9057464e-38
-4.916358e-38 -4.912684e-38 4.915695e-38 4.917736e-38 -4.908687e-38 -4.906501e-38 -5.552855e-38 -5.1166396e-38
-4.915778e-38 -4.9900244e-38 -4.913126e-38 -5.055794e-38 4.907665e-38 4.904718e-38 -5.124311e-38 -4.9176725e-38
4.909142e-38 -5.1278555e-38 4.9072435e-38 -4.9601336e-38 -4.9083797e-38 4.9054644e-38 -4.9132966e-38 -4.9160504e-38
-4.9170257e-38 -5.048747e-38 4.916854e-38 -4.991354e-38 -4.9154843e-38 -4.9991855e-38 -4.905337e-38 4.915103e-38
4.914785e-38 4.9146216e-38 -4.912598e-38 -4.9145146e-38 4.910059e-38 4.9133386e-38 -4.9130096e-38 4.9146693e-38
-4.916426e-38 -4.917409e-38 -4.9056926e-38 4.91675e-38 -4.9148576e-38 -5.1172814e-38 -4.9073674e-38 -5.206685e-38

fc_layers.1.bias f4 [32]
00000000: 3ff4 3b3d 6277 c93d 24b2 2a8f a79e 8581
00000010: 33b3 4e3d b4de 8581 75a4 8581 d2c5 8581
00000020: 07c0 013e d606 8681 137a 5e89 68c9 9081
00000030: 4fa6 8581 7388 8581 659c 8581 dbc8 8581
00000040: 99fe 273d 42be 8581 6496 8f3d e2af 8781
00000050: 98aa 8581 ecc7 8581 18e4 9a81 401e 1c94
00000060: d8a9 8581 6a61 9e88 8fdd b03e 6c76 ab81
00000070: 2eb2 5789 9d09 dd3d 3fac 8581 d286 c186
0.045887228 0.098372236 -8.415956e-30 -4.908414e-38 0.050463866 -4.917605e-38 -4.909247e-38 -4.914034e-38
0.12670909 -4.9233635e-38 -2.6779677e-33 -5.318625e-38 -4.9095125e-38 -4.905228e-38 -4.90809e-38 -4.91447e-38
0.041014288 -4.912949e-38 0.070111066 -4.984355e-38 -4.9101274e-38 -4.914336e-38 -5.6897964e-38 -7.881953e-27
-4.91002e-38 -9.532181e-34 0.34544036 -6.2985406e-38 -2.5963463e-33 0.10792849 -4.9103645e-38 -7.279663e-35

fc_layers.2.weight f4 [16, 32]
00000000: 4f30 443e 32dc 593e 702e 018f 479f 8501
00000010: 58c4 673e acb9 8501 fdac 8581 e0b5 8501
00000020: 187c 4f3e fdc7 8581 bd49 5809 b0c8 8581
00000030: 3268 7a01 40c1 8501 13ce 8501 c3c7 8501
00000040: 006b 443e 0e9f 8501 bde6 573e eea1 8501
00000050: e596 8501 cacc 8581 8098 8501 7b8e a315
00000060: f1a5 8581 c42e 4307 b59b 67bf 7d8b 8501
00000070: 02c3 be07 6ff1 513e d090 8501 568b a905
00000080: 80c3 8501 60cc 8581 50da 8581 8284 8501
00000090: 70bf 8581 8caa 8581 588b 8501 44ab 8501
000000a0: b8cb 8581 5499 8581 b1b3 8581 44b8 8581
000000b0: 9988 8501 67a4 8581 05bd 8501 0a98 8581
000000c0: d0d8 8501 aacf 8581 f88e 8581 edaa 8581
000000d0: e2cc 8501 82e4 8581 fea4 8501 9dc7 8581
000000e0: 2bd1 8501 6c86 8581 28cf 8501 7da7 8501
000000f0: d7c7 8501 f893 8581 d4cd 8581 39d4 8501
00000100: 60eb 503e a477 5b3e 0d9d fe8e 27a3 8501
00000110: 9c0d 593e b095 8501 aeba 8581 b6ae 8501
00000120: f516 5b3e d8dd 8581 0522 5509 88d3 8581
00000130: fc57 7a01 83b6 8501 38af 8501 0f87 8501
00000140: 9858 423e f8c1 8501 6f37 4e3e 00ae 8501
00000150: 17c2 8501 ea77 6a00 50cd 8501 6b2e a115
00000160: 6f90 8581 644e 4007 13f9 53bf 48c7 8501
00000170: d2e8 bb07 4076 633e c9a0 8501 2d02 a705
00000180: d143 1990 6d0f 3190 5c84 8581 72a3 8501
00000190: 8355 2e90 1eb4 8501 bb83 8501 3888 8501
000001a0: 5077 3590 62e3 8581 1ca6 8501 7bdc 8501
000001b0: e0bc 8581 46b7 8581 3ac0 8501 929c 8581
000001c0: 450d 0c90 37c9 8501 073a 2990 6ba2 8581
000001d0: 29d0 8501 8b8f 8581 67ac 8581 b0b8 8501
000001e0: 20bf 8501 05bf 8581 5578 088e 73cf 8581
000001f0: 1f87 8581 5460 2d90 019c 8581 d8bf 8581
00000200: 3c9a 8581 f7dc 8581 87cb 8501 61de 8501
00000210: 6887 8581 09c6 8501 2fc5 8501 f8b1 8581
00000220: 97a5 8581 c699 8501 bfdd 8501 aec6 8581
00000230: 8b9f 8581 1dad 8581 9fce 8581 5c94 8501
00000240: 0292 8581 a8e4 8501 08dc 8581 45e0 8581
00000250: 2bd8 8581 5fbc 8581 0dd0 8501 12ca 8581
00000260: 75b9 8581 89d6 8501 d2c4 8581 f0ba 8501
00000270: 29de 8501 b8c1 8581 d0b6 8581 99c4 8501
00000280: eba5 3c3e 00e5 493e 1a60 008f 5add 8501
00000290: 1ec7 463e 5396 8501 45de 8581 a8c4 8501
000002a0: a8c0 413e edd3 8581 1ee3 5609 98c0 8581
000002b0: d49f 8581 78af 8501 0696 8501 49b5 8501
000002c0: a3dc 3a3e fee3 8501 50bb 313e 6ab1 8501
000002d0: c1a3 8501 e292 8581 58a8 8501 0250 a215
000002e0: 6292 8581 e5a7 4107 f5be 56bf ecdd 8501
000002f0: 0341 bd07 8b59 553e fdc3 8501 082d a805
00000300: 97ce 613e 672c 6a3e 334c 0b8f 09a2 8501
00000310: e314 7c3e 05c4 8501 9bb5 8581 b0a9 8501
00000320: 1a74 6a3e ff9a 8581 fa86 6909 603e c480
00000330: 76b1 7a01 3391 8501 3fa5 8501 6dc2 8501
00000340: e2f5 533e 35e0 8501 ab3f 673e 48e5 8501
00000350: 4594 8501 5fe3 8581 7094 8501 e4a1 b015
00000360: 92b7 8581 d5ce 5207 d76e 51bf 848f 8501
00000370: c403 ce07 bd72 6b3e 9194 8501 9e2c b705
00000380: 2dbb 2a3e ffd3 383e 8190 e98e c39d 8501
00000390: b77c 263e 9398 8501 7ec6 8501 1f84 8501
000003a0: 4892 373e fece 8581 2934 4309 b8a1 8581
000003b0: 95de 7a01 dfd9 8501 8bb4 8501 d8b1 8501
000003c0: ff6a 363e 0e87 8501 7103 2a3e 9ecd 8501
000003d0: df9a 8501 650f 6c00 a0ae 8501 7b50 9315
000003e0: 3893 8501 a699 2f07 3d6e 43bf 63a2 8501
000003f0: 809a ab07 eed0 3a3e 00db 8501 6e7e 9805
0.19159053 0.21275404 -6.3691346e-30 4.9085036e-38 0.22633493 4.912291e-38 -4.910471e-38 4.911746e-38
0.20262182 -4.9143453e-38 2.6034726e-33 -4.9144456e-38 4.5992505e-38 4.9133784e-38 4.9152186e-38 4.914313e-38
0.19181442 4.9084716e-38 0.21084113 4.908884e-38 4.9073007e-38 -4.915034e-38 4.907531e-38 6.605997e-26
-4.90946e-38 1.4683913e-34 -0.90471965 4.905664e-38 2.8702638e-34 0.20502256 4.906428e-38 1.5943868e-35
4.913701e-38 -4.914975e-38 -4.9169747e-38 4.9046623e-38 -4.9131183e-38 -4.9101207e-38 4.905643e-38 4.910224e-38
-4.9148806e-38 -4.90765e-38 -4.911433e-38 -4.912089e-38 4.905249e-38 -4.909239e-38 4.9127714e-38 -4.907465e-38
4.9167595e-38 -4.915447e-38 -4.9061634e-38 -4.910175e-38 4.9150476e-38 -4.9184377e-38 4.9093236e-38 -4.9142915e-38
4.9156625e-38 -4.904937e-38 4.915374e-38 4.909682e-38 4.914324e-38 -4.906881e-38 -4.9151833e-38 4.916101e-38
0.20402288 0.21432358 -6.276707e-30 4.9090596e-38 0.21196598 4.9071275e-38 -4.9124356e-38 4.910718e-38
0.21395476 -4.9174814e-38 2.5654938e-33 -4.9160016e-38 4.5980874e-38 4.9118375e-38 4.910791e-38 4.9050284e-38
0.18979108 4.9134815e-38 0.20138334 4.910616e-38 4.913499e-38 9.77758e-39 4.9151093e-38 6.5100617e-26
-4.9063736e-38 1.4467512e-34 -0.8280193 4.914244e-38 2.8273472e-34 0.22213078 4.90872e-38 1.5705404e-35
-3.0226173e-29 -3.491898e-29 -4.904641e-38 4.9091016e-38 -3.4381325e-29 4.911494e-38 4.904551e-38 4.905195e-38
-3.578787e-29 -4.918276e-38 4.909484e-38 4.917286e-38 -4.9127506e-38 -4.911947e-38 4.9132316e-38 -4.908115e-38
-2.7620354e-29 4.9145213e-38 -3.3374076e-29 -4.908954e-38 4.915518e-38 -4.906246e-38 -4.910387e-38 4.91215e-38
4.9130735e-38 -4.9130584e-38 -1.6821232e-30 -4.915416e-38 -4.9050373e-38 -3.4192443e-29 -4.908034e-38 -4.9131766e-38
-4.90778e-38 -4.9173553e-38 4.914853e-38 4.917558e-38 -4.905078e-38 4.914065e-38 4.913943e-38 -4.9111857e-38
-4.9094094e-38 4.907714e-38 4.9174674e-38 -4.9141575e-38 -4.9085417e-38 -4.910489e-38 -4.915297e-38 4.906937e-38
-4.9065995e-38 4.918459e-38 -4.9172213e-38 -4.9178295e-38 -4.916667e-38 -4.9126783e-38 4.915502e-38 -4.914644e-38
-4.91226e-38 4.9164327e-38 -4.913891e-38 4.9124726e-38 4.917527e-38 -4.9134457e-38 -4.9118807e-38 4.913859e-38
0.18422668 0.19716263 -6.329396e-30 4.917411e-38 0.19411895 4.907219e-38 -4.9175425e-38 4.913867e-38
0.18921149 -4.916058e-38 2.5866103e-33 -4.913284e-38 -4.9085826e-38 4.910827e-38 4.9071757e-38 4.9116615e-38
0.18248229 4.9183637e-38 0.1735661 4.911106e-38 4.909146e-38 -4.906725e-38 4.9098045e-38 6.555751e-26
-4.9066533e-38 1.4569046e-34 -0.8388513 4.9174926e-38 2.847577e-34 0.20834939 4.9137713e-38 1.5815186e-35
0.22051464 0.228685 -6.8679045e-30 4.9088993e-38 0.24617343 4.913776e-38 -4.9117075e-38 4.9099974e-38
0.22895852 -4.907889e-38 2.810982e-33 -1.8022133e-38 4.604507e-38 4.9064835e-38 4.90936e-38 4.913547e-38
0.20699266 4.9178205e-38 0.22582881 4.9185486e-38 4.906924e-38 -4.9182745e-38 4.906948e-38 7.134125e-26
-4.9119894e-38 1.5859427e-34 -0.81809753 4.906242e-38 3.0997648e-34 0.22992988 4.9069666e-38 1.7225627e-35
0.16672964 0.1804962 -5.7578087e-30 4.908286e-38 0.16258512 4.907542e-38 4.9141306e-38 4.904607e-38
0.17926896 -4.9153503e-38 2.3496797e-33 -4.908854e-38 4.6077443e-38 4.9169114e-38 4.911555e-38 4.911168e-38
0.17814253 4.905028e-38 0.16602875 4.915153e-38 4.9078713e-38 9.923756e-39 4.910706e-38 5.94998e-26
4.906773e-38 1.321069e-34 -0.76340085 4.90895e-38 2.5820027e-34 0.18243763 4.9170734e-38 1.4340454e-35

fc_layers.2.bias f4 [16]
00000000: feee 8d3e 9960 9481 d0c8 7c3e 4afd 0a90
00000010: 32d2 8581 a9a0 833e 4969 803e 4afd 643e
00000020: 6e9b 8581 d60c 123f ac7d 833e 5665 9381
00000030: f905 8b3e 998e 8581 2ea5 8c3e 97d7 9781
0.277214 -5.4505225e-38 0.24685979 -2.7410828e-29 -4.91581e-38 0.2570851 0.25080326 0.22362247
-4.9079515e-38 0.57050836 0.25681818 -5.414468e-38 0.27152994 -4.90611e-38 0.27469772 -5.5777996e-38

fc_layers.3.weight f4 [8, 16]
00000000: f4d4 c78a 3ba4 8501 940d c98a 3398 8581
00000010: ff98 8581 dad2 b88a 4389 d98a 56aa a88a
00000020: 58d3 8581 d319 c387 3ebc cc8a b7ab 8501
00000030: 09c8 c38a 058c 8501 7636 c38a fae3 8581
00000040: 3e3f 7b3e 4894 8501 94bf 723e 8a30 b590
00000050: 5cc4 8581 7bbd 6b3e 54e0 853e b228 543e
00000060: 4285 8581 ac78 adbf 1a41 7b3e 78af 8501
00000070: 1ce9 723e 3bbe 8501 0faf 643e 20d9 8501
00000080: 0bff 393e d069 4501 0617 403e db66 8890
00000090: a5b2 8581 7552 443e 87d3 443e 9c7d 293e
000000a0: edb7 8581 8919 99bf ba41 423e 0785 8581
000000b0: 734b 3c3e e3b6 8501 42b2 293e f899 8501
000000c0: 4758 a391 d59c 8581 4656 a291 38ac 8501
000000d0: 21b4 8501 371b 9691 bd33 b091 0aa8 8791
000000e0: acdf 8501 7ef7 0990 4cb1 a591 2c8e 8581
000000f0: 77a6 9f91 68ba 8501 7e1f 9f91 83a8 8501
00000100: d6b5 463e a0bb 3f01 bfc2 503e a3ba 9790
00000110: 66e3 8581 4fa0 4d3e a0d8 693e 17a9 573e
00000120: 02e4 8581 4666 9fbf 1f10 513e 0fd6 8581
00000130: b355 543e dea7 8501 9256 473e a0df 8501
00000140: ed0d 383e 8025 4b01 0ace 223e d3b4 7c90
00000150: 95e1 8581 b04b 323e 6fee 393e fa98 093e
00000160: 5393 8581 131c 8ebf a040 163e b0cd 8581
00000170: 10c5 2c3e 6edd 8501 571e 183e f0c9 8501
00000180: 009d 8a93 8c87 8501 2dc4 7f94 368b 8581
00000190: f9df 8581 20ac 1d94 5efc 9294 023a 3394
000001a0: 6abe 8581 dc15 fd95 1bb4 7094 8298 8581
000001b0: 4586 c893 67a4 8581 2905 9792 d7a6 8501
000001c0: 27d5 7193 83d6 8581 4f6d 7093 f792 8501
000001d0: e089 8501 004c 5e93 cef8 8193 2fe2 4993
000001e0: 2ec6 8501 36ec 0912 7838 7593 2486 8581
000001f0: 717c 6c93 e2c6 8581 01cc 6c93 12a4 8581
-1.9243107e-32 4.9092143e-38 -1.9360703e-32 -4.907488e-38 -4.907602e-38 -1.7797869e-32 -2.0947972e-32 -1.6241885e-32
-4.915975e-38 -2.9355517e-34 -1.9715294e-32 4.910288e-38 -1.8853062e-32 4.90574e-38 -1.8798303e-32 -4.9183614e-38
0.24535844 4.9069257e-38 0.23705894 -7.14667e-29 -4.9138246e-38 0.230215 0.2614771 0.20718649
-4.90477e-38 -1.3552451 0.24536553 4.910827e-38 0.23721737 4.912945e-38 0.22332405 4.9168043e-38
0.18163697 3.6259102e-38 0.18758783 -5.3801015e-29 -4.9112826e-38 0.1917208 0.19221316 0.16551822
-4.9120405e-38 -1.1960918 0.18970385 -4.904737e-38 0.18388157 4.9118914e-38 0.16571906 4.907742e-38
-2.577127e-28 -4.9081527e-38 -2.5612263e-28 4.9103606e-38 4.9114956e-38 -2.36826e-28 -2.779979e-28 -2.1402807e-28
4.917744e-38 -2.7209147e-29 -2.6141678e-28 -4.906049e-38 -2.5188369e-28 4.9123964e-38 -2.5105185e-28 4.9098286e-38
0.19405302 3.5215774e-38 0.2038679 -5.984656e-29 -4.9182785e-38 0.20080684 0.22836542 0.21060596
-4.918366e-38 -1.2453086 0.20416306 -4.9163643e-38 0.20735817 4.909736e-38 0.19466618 4.917737e-38
0.17974062 3.7312116e-38 0.1589891 -4.983754e-29 -4.918018e-38 0.17411685 0.18157361 0.13437262
-4.9067884e-38 -1.1102318 0.1467309 -4.915163e-38 0.16872048 4.917422e-38 0.14855324 4.914625e-38
-3.499091e-27 4.9050984e-38 -1.2912899e-26 -4.905624e-38 -4.917787e-38 -7.96042e-27 -1.4841774e-26 -9.0486306e-27
-4.9129715e-38 -1.02220374e-25 -1.2152423e-26 -4.907532e-38 -5.0619498e-27 -4.909239e-38 -9.530712e-28 4.909589e-38
-3.0523569e-27 -4.9164293e-38 -3.0346152e-27 4.906737e-38 4.9054325e-38 -2.805781e-27 -3.280952e-27 -2.5481284e-27
4.914086e-38 4.352073e-28 -3.0951189e-27 -4.9048966e-38 -2.9848742e-27 -4.9141867e-38 -2.988797e-27 -4.9091913e-38
