checkpoints/neumf_first_try_Epoch2_HR0.6263_NDCG0.3574.model (torch, 645090 bytes, 13 tensors)

embedding_user_mlp.weight f4 [6040, 8]
00000000: 89f0 2fbe 9a2f f63d d84d f53d c743 0a3e
00000010: ce04 8cbe b8c6 15be ac0a 64be 34a8 6dbe
00000020: 3b9d 1d3c e4b7 7e3d 05fe 6d3d 53f8 223d
00000030: f7ae 84bc 576f 17bd 5b2d b83c 1e11 ec3c
00000040: 3c94 acbd c336 213e f579 1d3e 3aa6 093e
00000050: 8df5 853b 9d92 07be 0407 28bd 1007 23bd
00000060: ea8e 74be ce8b a03e 6e5f 9e3e 4753 8d3e
00000070: 2b39 07be acfd 8cbe 6b5f 44be b7c4 48be
00000080: 3cea c3bd da13 843d c93c 813d 5b31 923d
00000090: 4eb4 f2bc 594f c7bd d9ec 8fbd 238b 90bd
000000a0: 2237 55bd 27b3 9b3c 825a fa3c ea71 7d3c
000000b0: f57b 153d 78a4 dabc da13 b93b 843f 6ebc
000000c0: c219 86be 8578 933e bee0 8d3e 9db2 8c3e
000000d0: 9466 8dbe 0888 8ebe 2fb0 93be 5358 94be
000000e0: 7a91 233d 1534 543d 4cfa 353d 06d8 e03c
000000f0: c16c 743d f389 e4bc 6c8f 5d3d d118 803d
00000100: 6db2 10be e229 083e 1245 013e a40f fd3d
00000110: a30c 43be a24e 04be a32c 18be f493 1bbe
00000120: dff9 40bd 59a7 cabc d5e8 17bc d1d5 7cbb
00000130: cb7b 5bbd 50a7 2dba 4727 5cbd 2610 80bd
00000140: 4ed5 ab3c bd5c e03c ff82 9e3c 3a2e f439
00000150: 1ee6 193b e306 843c ffe8 da3a c6a9 0b3c
00000160: b108 68bd 9a55 4b3d 47a1 503d d824 413d
00000170: ee27 35bd 691d 62bd eaf6 5bbd eef8 33bd
00000180: f90f 00bd 52c4 153e eb46 093e 675f d53d
00000190: 0465 c33d 5707 c4bd bc48 043d d298 ef3c
000001a0: 585b 28be c8f7 873d 2609 863d 293d c83d
000001b0: d1d2 a4be 50d2 ecbd 072f 83be 4a02 82be
000001c0: 6abd 06be 2684 083e f279 173e 08c0 083e
000001d0: a9c3 0ebe e023 23be 4438 05be e4b9 14be
000001e0: 03d2 7fbe 1551 973d f269 903d c1f2 083e
000001f0: bc03 9cbe 3eb8 2cbe e3e5 adbe fe29 acbe
00000200: 94fc bbbd 70b0 d73a 6ef0 253c 82f8 9c3c
00000210: 7b5a 48bd ae39 afbc 03d8 6cbd 0405 a3bd
00000220: 5e09 083e 7c88 36bd 69ea 1bbd fff8 84bd
00000230: b81c 9c3b 3462 303d caed 9a3d e08e bb3d
00000240: 120a 7ebd 69e2 12bd f0a7 01bd 766d 94bc
00000250: 0782 16be 1220 33bc 8a9c ebbd 17c5 eabd
00000260: 52fb 10be 52e1 a53d da28 9d3d 89e6 bb3d
00000270: cc26 7fbe 1d60 e3bd 8002 44be ca82 3fbe
00000280: a040 94bd 3e69 ec3c 4338 023d 628b 243d
00000290: 9473 05be 8c63 3cbd b219 f8bd 0f1d e6bd
000002a0: 19db 1c3d 2b6c 943d cfdc 973d a0b6 c73c
000002b0: 9b51 2c3e eca6 b4bc a0bb c03d a49c b63d
000002c0: 0224 44bc ab7e 52bd 3dbd 1cbd 2401 eabc
000002d0: 5fd3 e2bd 09f9 2b3c 247b 7bbd 0af7 8ebd
000002e0: bbfb 0dbe 2f04 3e3e 558c 353e 2938 1f3e
000002f0: 0db2 b13a 8cfc 1bbe c8c8 83bd 7bb1 bebd
00000300: 7902 29be 9f22 213e 7777 233e 1c20 153e
00000310: 93d5 f0bd d105 1abe 42ca 1cbe f714 2bbe
00000320: 721d c63e 207c debd fd57 d6bd 0698 3bbe
00000330: edd5 953e f529 5f3e 431a a33e 404a a23e
00000340: c114 27be a677 1a3e a92c 193e fdc1 1d3e
00000350: cd8e 13be beb6 25be 91c7 2cbe ce48 28be
00000360: 582f 14be ac83 043e 9f95 f53d 3253 0e3e
00000370: a8c7 50be a002 13be 0c2e 41be 948f 3dbe
00000380: 0375 6d3d 2da4 853e c981 703e 2a3d 3e3e
00000390: 3d04 953e 5fb2 26be c995 5e3e 60b5 543e
000003a0: 9ef4 f1bd a721 c53d a8e5 c63d 7240 b83d
000003b0: 921b 22bd e430 dcbd 1205 babd 1c82 d9bd
000003c0: 7bee 593d f26b 023d b182 323d a09d 283c
000003d0: 7cbf b23d 931e 283c b4db eb3d fbab d83d
000003e0: e886 31be db6b a03d 7392 7d3d b24b c53d
000003f0: 79b2 64be c24a f0bd 4510 69be eede 5bbe
-0.171816 0.12020798 0.11977738 0.13502418 -0.27347416 -0.14626586 -0.22269696 -0.23208696
0.009620006 0.06218709 0.05810358 0.0397876 -0.016196711 -0.036971416 0.022482565 0.028816756
-0.08426711 0.15743546 0.15378554 0.13442317 0.00408811 -0.13239522 -0.041022316 -0.039801657
-0.23882642 0.31356663 0.30932182 0.27602598 -0.13205402 -0.27537286 -0.19177024 -0.19606291
-0.09566161 0.06449099 0.06310422 0.0713832 -0.029626992 -0.09731931 -0.07027597 -0.07057788
-0.052054532 0.019006325 0.030560736 0.015469054 0.036495168 -0.026689753 0.0056481184 -0.0145415105
-0.26191527 0.28802887 0.27710527 0.2748002 -0.27617323 -0.2783816 -0.28845355 -0.28973636
0.03993366 0.05180748 0.044428155 0.027446758 0.05967403 -0.02789781 0.054091856 0.06254733
-0.14130564 0.13297227 0.12624004 0.12356499 -0.1904779 -0.12920621 -0.14860778 -0.15193158
-0.047113296 -0.024738 -0.00927182 -0.0038579593 -0.053584855 -0.0006624358 -0.053748395 -0.0625308
0.020975735 0.027387971 0.019349573 0.00046573748 0.0023483108 0.016116565 0.0016701518 0.008524364
-0.056648914 0.049642183 0.050935056 0.047154278 -0.044227533 -0.05520383 -0.053702272 -0.04393857
-0.031265233 0.14625672 0.1340596 0.10418587 0.095407516 -0.095717125 0.032295927 0.029247675
-0.16441095 0.066390574 0.06544714 0.097772904 -0.3219209 -0.115635514 -0.25621817 -0.2539237
-0.13158193 0.1333166 0.14792612 0.13354504 -0.13941826 -0.15931654 -0.13009745 -0.14524037
-0.24982457 0.07388512 0.070514575 0.13373853 -0.304716 -0.16867158 -0.33964452 -0.33625787
-0.09179035 0.0016455781 0.010128124 0.019161467 -0.048914414 -0.021389809 -0.057823192 -0.07959941
0.13284823 -0.044563755 -0.038065348 -0.06492805 0.0047641657 0.043062404 0.07564886 0.091581106
-0.062021323 -0.035860453 -0.0316543 -0.018118601 -0.14698039 -0.010932939 -0.11504467 -0.11463373
-0.14158371 0.08099617 0.076738074 0.091748305 -0.24917144 -0.111023165 -0.19141579 -0.18702236
-0.07238889 0.028858777 0.031791937 0.04017199 -0.13032371 -0.045993373 -0.12114276 -0.11236011
0.038294885 0.07247194 0.07415163 0.024379075 0.16828005 -0.02205225 0.09410787 0.089165956
-0.011971476 -0.05139033 -0.03826641 -0.028564997 -0.11075472 0.010496386 -0.061396733 -0.06980713
-0.13865559 0.18556283 0.17729314 0.15548767 0.0013557092 -0.15233058 -0.0643478 -0.093111955
-0.1650485 0.15735863 0.15963541 0.1456303 -0.11759486 -0.15041281 -0.1531153 -0.16707216
0.3869434 -0.10863519 -0.10466001 -0.18319711 0.29264775 0.21793349 0.31855974 0.31697273
-0.1631651 0.15084705 0.14958443 0.15406032 -0.14409943 -0.16182992 -0.16873004 -0.16434023
-0.14471185 0.12940854 0.119914286 0.13898924 -0.20388663 -0.1435647 -0.18865222 -0.18511802
0.05797292 0.2610182 0.23487009 0.1857802 0.29104796 -0.1627898 0.21736826 0.20772314
-0.11814235 0.09625559 0.09711772 0.08996667 -0.039577074 -0.10751513 -0.09082998 -0.106205195
0.05320595 0.031841226 0.04358167 0.010291487 0.08727929 0.010261196 0.115165144 0.10579678
-0.17336619 0.07833072 0.061907243 0.09633578 -0.22333707 -0.11733009 -0.22760113 -0.2147176

embedding_item_mlp.weight f4 [3706, 8]
00000000: 2f2d 09bf c9f2 0abf 6433 04bf 470b 093f
00000010: ca7d 093f f75d 093f 8605 09bf 5a60 013f
00000020: a7e2 58be 858a 57be c164 63be 6fc2 4a3e
00000030: 56ea 533e 4bb8 5b3e e1fa 48be 5836 643e
00000040: 552f 34be 98ca 27be 29ad 2fbe 758f 343e
00000050: 4cff 2b3e 65af 2d3e b641 2fbe f7a3 253e
00000060: 7bbc e5be 59e2 e7be 90b1 e0be 693f e03e
00000070: 7c4b e03e 9aec e03e 1ff6 e2be 7fb0 ee3e
00000080: e765 dcbe a211 d7be bfca d6be ea21 d03e
00000090: c4f1 d63e e6e6 da3e b985 d4be 79c1 d63e
000000a0: 05c9 c4be 09fd bfbe 7f8b c7be ab86 bf3e
000000b0: c608 c63e d100 c73e 778a c1be d7e0 be3e
000000c0: 1aea 9dbd 8132 91bd 6e78 98bd fc22 853d
000000d0: 28cf 8d3d d113 773d 6f16 a2bd f228 883d
000000e0: f523 65be ac75 80be 0589 7bbe 8290 713e
000000f0: ae3a 6d3e e10a 7d3e dcac 72be 1c99 843e
00000100: 6217 2dbe f093 2bbe 378d 38be 3d84 313e
00000110: a92b 303e 4480 2c3e 2be8 28be e5e9 383e
00000120: 37c2 c6be aca8 bdbe c9a0 bdbe 7ab7 c53e
00000130: 5a8c c23e f6d6 c53e 3822 c2be 8dd5 b43e
00000140: 8004 49be bf2a 59be f804 5fbe 116b 5b3e
00000150: b7a4 583e c1e3 5b3e e57a 51be e932 623e
00000160: e997 0fbb fa24 65bc ec5b 02bc 494c 4bbc
00000170: 6c7e 30bc 873b 0ebc 6e55 153c 6d05 df3c
00000180: 3bf7 09bd 6a54 66bd b0f1 36bd e9d0 ef3c
00000190: 39d9 1a3d 4e26 0f3d 5c38 debc adfa 7e3d
000001a0: d653 a5bd 7596 b2bd b253 bfbd 2f97 9d3d
000001b0: bb46 8f3d 9228 a83d d898 77bd 2fe0 073e
000001c0: 6720 b8be 8565 b4be 6bd4 adbe 350a ba3e
000001d0: 3b3e b43e 28b6 b83e e88f b7be f029 a03e
000001e0: b642 babe 7183 b1be 473c b1be 8413 b23e
000001f0: 2dc3 b83e 191f b33e e3e0 b7be 6c90 af3e
00000200: 19ff a4bd 6a25 debd 7bd1 e9bd 2d01 c63d
00000210: ccbf be3d 69e3 a43d c11e a3bd db12 e53d
00000220: 882c a5bd d28e acbd 330f bebd d226 8e3d
00000230: a239 a73d 8b71 a13d 8787 93bd b7d8 dc3d
00000240: 7fbe e1bc f8b0 0abd d1dd 39bd 4380 113d
00000250: 2a4b 253d 1854 463c a53b 0cbd 8d05 703d
00000260: 4856 e6bd 0a1c e7bd d9f1 f2bd 50c6 ce3d
00000270: 16fb db3d 8c7d da3d 6ab2 e0bd e5df fb3d
00000280: 6924 68be 2ccd 5ebe e175 61be ebe7 673e
00000290: 55a2 5d3e 3eda 653e 5429 6ebe 79af 553e
000002a0: c553 33be 2a7f 41be 3ed9 4fbe 903b 2a3e
000002b0: 26de 313e e424 343e d626 2cbe f80f 693e
000002c0: 9fa0 d9be 09cf d6be 220f d3be 5628 d73e
000002d0: cf7f da3e 0301 da3e 0c24 dcbe 057c d13e
000002e0: ad42 0abf 6b77 09bf c36e 09bf 7dc5 073f
000002f0: b4bd 083f 1544 0f3f 7427 0bbf 9373 023f
00000300: 2940 8dbd 6ec7 b2bd 6c06 a5bd 64e4 9a3d
00000310: e331 a83d 1b24 8c3d 043f a3bd 87ed b03d
00000320: 741c 0cbd b205 5ebd e812 49bd 39df 113d
00000330: 7195 303d a277 5b3d 796a 09bd 8f6f 833d
00000340: caab d9be 90e3 d9be b11c dabe 9e8a d53e
00000350: d8fd d43e b70b d83e c974 e6be 705d de3e
00000360: 9233 e6be 9cbc e5be df6f d6be fda3 e03e
00000370: 7f32 e13e 9b34 e33e c4c2 e2be f722 cd3e
00000380: dedd bc3d 45e2 963d 5c24 a93d 73e4 bebd
00000390: 65f5 ccbd 3834 cabd b603 cf3d e3d6 8dbd
000003a0: 6ed7 8bbe 29ed 96be 9018 96be 0f08 963e
000003b0: 409e 973e 08c6 963e 119b 91be d471 a23e
000003c0: a9c3 d6bd 1cb5 eebd 284c dabd 2ef1 e83d
000003d0: 4f65 ed3d a471 ec3d d3d1 04be 8034 ad3d
000003e0: 4220 07be 6baf 05be 8ed2 f8bd ccba 193e
000003f0: aae1 103e 4a75 133e a43e 14be 0464 d93d
-0.5358457 -0.5427671 -0.51640916 0.5353283 0.53707564 0.53659004 -0.53524053 0.50537646
-0.21180211 -0.21048935 -0.22206403 0.19800733 0.20694861 0.21457021 -0.19626953 0.22286355
-0.1759618 -0.16385877 -0.17155899 0.1763285 0.16796607 0.16961439 -0.1711491 0.16175829
-0.44870362 -0.45289877 -0.4388547 0.43798378 0.4380759 0.43930513 -0.443284 0.4661903
-0.43046495 -0.4200564 -0.41951558 0.40650874 0.41981328 0.42754287 -0.41508272 0.41944483
-0.38434616 -0.37497738 -0.38973615 0.3740743 0.3867857 0.3886781 -0.37800953 0.37280914
-0.07710667 -0.07089711 -0.07444845 0.06500813 0.069242775 0.060321633 -0.07914435 0.06648435
-0.22376998 -0.25089777 -0.24563988 0.23590282 0.23166916 0.24711181 -0.23698753 0.25898063
-0.16903451 -0.16755652 -0.18022619 0.17335601 0.17204155 0.16845804 -0.16494815 0.18057974
-0.3882005 -0.3704275 -0.37036732 0.38616544 0.37997705 0.38640565 -0.37916732 0.35319176
-0.19630623 -0.21207713 -0.21779239 0.21427561 0.21156584 0.214736 -0.20457037 0.22089733
-0.0021910614 -0.013985867 -0.007956486 -0.0124083245 -0.010772329 -0.008681185 0.009114606 0.027224267
-0.033683043 -0.056232847 -0.044664085 0.02927442 0.037804816 0.03494864 -0.027126484 0.06225078
-0.08072631 -0.08720104 -0.093421355 0.076948516 0.06995913 0.08210863 -0.060448498 0.13269113
-0.3596222 -0.35233703 -0.33951125 0.36335912 0.35203728 0.36076474 -0.3585198 0.31281996
-0.3637902 -0.34670594 -0.346163 0.34780514 0.36086407 0.34984663 -0.35913762 0.34289873
-0.080564685 -0.1084698 -0.11416908 0.09668193 0.09313926 0.080511875 -0.0796485 0.11185237
-0.08065134 -0.08425678 -0.09280243 0.06940998 0.081652895 0.07882985 -0.07203584 0.107835226
-0.027556656 -0.033860177 -0.045377556 0.03552271 0.040354885 0.01210501 -0.03423657 0.058599044
-0.112469256 -0.11284645 -0.11862535 0.10096419 0.1074125 0.106684774 -0.1097153 0.12298564
-0.2267014 -0.21757954 -0.22017623 0.22647063 0.21643956 0.22446534 -0.23257953 0.20867719
-0.17512424 -0.18896165 -0.20297715 0.16624284 0.17369899 0.17592198 -0.1681169 0.22759998
-0.42505357 -0.4195483 -0.41222483 0.4202296 0.42675635 0.42578897 -0.42996252 0.40914932
-0.5400799 -0.5369784 -0.53684634 0.5303572 0.53414464 0.5596326 -0.54357076 0.509576
-0.06897003 -0.087294444 -0.080578655 0.07563093 0.0821264 0.06842824 -0.07971004 0.08639055
-0.034206823 -0.05420465 -0.049090296 0.035613272 0.04311127 0.053580888 -0.033548806 0.064177625
-0.42513877 -0.4255643 -0.42600015 0.4170732 0.41599917 0.42196438 -0.45010975 0.43430662
-0.4496122 -0.4487046 -0.41882226 0.43875113 0.43983838 0.44376072 -0.4428922 0.4006574
0.09222005 0.07367376 0.08258888 -0.09320917 -0.10007743 -0.09873241 0.1010813 -0.06925752
-0.27312797 -0.29477814 -0.29315615 0.29303023 0.29612923 0.2944796 -0.2843862 0.3172747
-0.10486538 -0.116556376 -0.10659057 0.113741264 0.11591589 0.11545113 -0.12970667 0.08457279
-0.13195899 -0.13055198 -0.12149535 0.15012664 0.14148584 0.14400211 -0.1447702 0.106147796

embedding_user_mf.weight f4 [6040, 8]
00000000: a3af ca3d 9e5c 983d 8a7e 85be 8ece 9e3e
00000010: 2388 e73d 260e 0bbe d6ac 273b cb16 d2be
00000020: 45e3 48bd 2481 4abe e71b 7a3c 492d 153f
00000030: 56a9 e43c f500 7e3d 0afe 973e d67f bc3d
00000040: cee2 b53e 3e2c 76be 5ac5 7dbe dfdb 193e
00000050: 2941 08be 7e19 bd3e 6c83 5d3e a0f9 77be
00000060: 818d 223c 0e67 73bd 81a1 d7bc 68ef d13e
00000070: be67 98be c8a7 093f d2c3 af3e 671b 34bd
00000080: 39f7 fbbd 8808 d0be 59ad 02bc bfd1 d73d
00000090: 41c2 ccbe 1a5b b7be 590d 69be ef95 123d
000000a0: d215 273e 9a9b c13d ef7b 87be f992 2a3e
000000b0: f742 b03e 1bab 91bd ebf2 2d3e a490 44be
000000c0: 8c7f e83e f1a0 9ebe 4082 4f3d 1382 6b3e
000000d0: 2679 8bbe 5b65 ab3e 4786 403e 307f 77bd
000000e0: d417 0b3e 9380 f8be 2be4 bf3c 52d5 ba3e
000000f0: 54fc 79be 7e62 dcbe 7c3d 643c 8388 04bd
00000100: 72ad 713d aff9 03bf 8bb1 abbd 5233 a13e
00000110: 3edd 6cbe 4994 71be 9a4e d8bd ca14 1fbe
00000120: a9cc 153e a0cd 233e 05c3 0fbf 99db 9d3e
00000130: a695 863e 8b1a 753e d37c 4abd d9c0 fcbe
00000140: 2cf1 193e 68ed d0be a43e f8be 607f 1fbd
00000150: 44fc 04be 5acd 99be 343e 0bbd 666b a8be
00000160: 19fe 6bbe a682 1ebe 2bf0 2e3d 0c08 083e
00000170: c114 06be 08e2 c43d 0a39 be3d 4343 04be
00000180: 34cd 9c3e 672b 32bd 23e1 00be 3377 f03e
00000190: fa20 c6bd fa78 e23e 0c3f ba3d c48c 173b
000001a0: 83f8 ec3c d1ea 49be 0d94 293c a3fa af3d
000001b0: fd4a 2ebe 83c0 493d 9da2 1a3e 8949 b1be
000001c0: 3997 f83e d687 14bf ded4 e63d 8f4e f63d
000001d0: 1fc1 543c 53cf 17be c25f 8d3e e99d 9bbe
000001e0: 80ce e53e bfc4 303d 99a7 403e 4982 26be
000001f0: a81c ad3e 8893 e1bd f321 8fbd 6e1a 6a3c
00000200: 6a35 6bbc ae68 8fbd b5be 623d fd9b e63d
00000210: 72cf 01bf 482b bf3e 66d2 a7be c1a2 0e3e
00000220: 32e7 e23e aa7d 743d 23c9 50be bb35 ca3e
00000230: bd49 123c ed0b 353e 989e 59bd d96e 32be
00000240: f490 dd3e 3df3 e53d 60c6 393d 1510 49bd
00000250: 98a8 c3bd c9a1 cf3e 4a2a 0a3e c7bc a9be
00000260: db9e 8c3e e32a b1be 06fd 80bd a0ff 023e
00000270: d300 96be af2e 503e e932 633d 44f3 5abe
00000280: 4e9a f03e 6e74 86bd 5ea4 3cbe 00cf 1a3d
00000290: 9b09 f5bd 876b 083e 25a9 28be e5c4 53be
000002a0: 081b 1b3f cc99 c2be f3f5 65be e526 00be
000002b0: fdcf e8be f322 563e e82a da3d 3af8 8bbe
000002c0: d3ba 9fbd fa89 32be 35dd 04be f9ff 493d
000002d0: 27b1 20bf 7c6b ea3e 2b89 10be 5040 843d
000002e0: 546a 02bd ea59 8fbe f224 dfbe f1d8 7b3e
000002f0: 0219 16be e74a a2bd afef 813e 4591 9ebe
00000300: 2ab8 0c3f 2d67 5cbe 771b 9ebd 1de9 0b3d
00000310: f996 cbbd faf0 933e 34d4 77be c2f3 29be
00000320: 7c5e e33e df42 9ebe cab6 08bf 0084 90bc
00000330: 5c68 0a3e 32fe 29be c930 123f 272c 2bbe
00000340: 4dbd adbe 65a2 4a3e 19da b7bd af80 3d3e
00000350: aafc 86bd ad6a 933e 78d5 8c3c fa98 07be
00000360: dce5 87be 20a6 983c c430 8cbe 415c a03e
00000370: 9281 1cbe c8bc d2bc e83b 093e 9e74 78be
00000380: bcb2 1cbc a15f 523d 001f 1d3e befe be3e
00000390: 73a3 e1bd a516 213f 79d7 aa3e 92df 353e
000003a0: 5d8e 86be b9fe 92be a5e4 043d f3d7 dc3d
000003b0: 0e26 12be c611 5dbe b697 8b3c f49d 58bd
000003c0: 31bf 00be 24b2 353e 89fb 0bbf 0a5f 893d
000003d0: b5f3 4b3e 2c68 213e 71bd 693e 451f 58bd
000003e0: c145 20be b9a7 69be 0c07 f1bc d529 333e
000003f0: 8021 35be bc54 0abe baec 393d 9d44 23be
0.09896781 0.0743954 -0.26073104 0.31016964 0.11305263 -0.13579616 0.0025585196 -0.41033015
-0.049044866 -0.19775826 0.0152654415 0.58272225 0.027912777 0.06201263 0.29686004 0.0920407
0.355246 -0.24040315 -0.24782315 0.1502528 -0.13306107 0.36933511 0.21632165 -0.24216318
0.0099214325 -0.059424452 -0.026322128 0.41002965 -0.2976665 0.5377164 0.34329087 -0.043971445
-0.12303013 -0.4063151 -0.0079759 0.10538053 -0.39991954 -0.35811692 -0.22758998 0.03578752
0.16316918 0.09453507 -0.2646174 0.16657628 0.3442609 -0.07112714 0.16987197 -0.19195801
0.4540981 -0.30982164 0.050661325 0.22998838 -0.27240866 0.33475766 0.18801223 -0.06042403
0.13583308 -0.48535594 0.023424229 0.36490875 -0.24412662 -0.43043894 0.013930675 -0.03235675
0.0590033 -0.5155286 -0.08383473 0.31484467 -0.23131272 -0.23591723 -0.10561867 -0.15535274
0.14628853 0.15996408 -0.5615695 0.30831602 0.26286048 0.23935907 -0.049435448 -0.4936588
0.15033406 -0.40806127 -0.4848529 -0.038939834 -0.12986857 -0.30039483 -0.03399487 -0.32894439
-0.2304615 -0.15479526 0.04270951 0.1328432 -0.13093854 0.096134245 0.09288223 -0.12916283
0.30625308 -0.043498423 -0.12585883 0.46965942 -0.096742585 0.44232923 0.090940565 0.0023124674
0.028927093 -0.19718482 0.010350239 0.08592727 -0.17020793 0.04925586 0.15101095 -0.34626415
0.48552874 -0.5801977 0.1127107 0.120267026 0.012985497 -0.14825182 0.2761212 -0.30393913
0.4488411 0.04315638 0.18813933 -0.16260637 0.33810925 -0.110144675 -0.06988897 0.014288528
-0.014355997 -0.07002388 0.055357654 0.11260221 -0.5070716 0.37337708 -0.3277771 0.13929273
0.44317013 0.059690155 -0.20389228 0.39494118 0.008928713 0.1768033 -0.053129762 -0.17425098
0.43274653 0.11228035 0.0453552 -0.049087603 -0.09553641 0.4055312 0.13492694 -0.33151838
0.27464947 -0.34603032 -0.062982604 0.12792826 -0.29297504 0.20330308 0.055468474 -0.21381861
0.46992725 -0.06565176 -0.18422076 0.037795067 -0.11964723 0.13322268 -0.16470774 -0.20680578
0.6058812 -0.38007963 -0.22457103 -0.12514837 -0.45471182 0.2091177 0.10652715 -0.2733782
-0.07799306 -0.17435446 -0.12975009 0.04931638 -0.62770313 0.4578513 -0.14114825 0.06457579
-0.031839684 -0.27998286 -0.43582875 0.24594475 -0.14657977 -0.07924443 0.25378177 -0.30970207
0.5496851 -0.21523733 -0.07720082 0.03415786 -0.09940905 0.28894788 -0.24202043 -0.16596892
0.44408023 -0.30910394 -0.53403914 -0.017641068 0.13516372 -0.16600874 0.5710569 -0.16716062
-0.33933488 0.19788511 -0.08977146 0.1850612 -0.065911606 0.28792325 0.017191634 -0.1324195
-0.26542556 0.018633902 -0.27380955 0.31320384 -0.15283802 -0.025724784 0.13401759 -0.24263236
-0.009564098 0.05136073 0.15343857 0.37303728 -0.110175036 0.6292518 0.33367518 0.17761067
-0.2628049 -0.28709963 0.032444615 0.107833765 -0.14272329 -0.21588811 0.017040115 -0.05288501
-0.12572934 0.17743737 -0.5468069 0.067075804 0.19917186 0.15762395 0.22826172 -0.052764196
-0.15651609 -0.22817887 -0.029422306 0.17496426 -0.1768856 -0.13508886 0.045391776 -0.15944143

embedding_item_mf.weight f4 [3706, 8]
00000000: b8a0 053f 3af2 ed3d 876b 95bd 47e3 383e
00000010: 560c 163e 0235 ba3d c125 893e 1fda 163f
00000020: 2a69 abbd e1d4 c5be 6bb3 503e 231b ce3c
00000030: ab8a a23d 7a45 4dbd d9b7 0ebf 3413 7a3e
00000040: 8b72 553e fd4e 2ebf 4acf 953e e4e1 db3e
00000050: d290 b7be 4819 1cbe 4bb4 4a3e 4ecc 9d3e
00000060: 001c d53d 4f87 c63e 23d4 aebe 59f3 973d
00000070: fcf0 4cbe 071d 93be f6b7 abbc 42ee 033f
00000080: b8cf b2be 5240 803d 616b 663e cb5e 2d3e
00000090: f9c4 a9bd 5027 993c 152d 56be b609 4b3f
000000a0: 6bde 0bbe dc6d 733e 4330 1e3f e48d b03e
000000b0: 1d9c 8f3e c091 bf3e 7a1b e33d d7b8 e93e
000000c0: 4b7b 013e bcb4 56be 2086 00be ff2a 153f
000000d0: c7b8 7bbe 705d 163f 126c 8b3e 9f24 283e
000000e0: f62f 6e3e e084 873d cc82 ec3e 43fd e7bc
000000f0: 7bc8 c43e 4c6c df3d 659d 833e 16fb 193f
00000100: 9718 1ebe 36d6 4fbf 5aac a83e 7e8a a43e
00000110: 598b 07be cedf 033e d282 0abe 95a3 4d3f
00000120: 18ea 443e 29c9 a4be d8d2 463e 51aa 0f3f
00000130: 2a6c da3c 5908 503e 3624 4a3e 1ae9 783f
00000140: 27bd aabe f0fb c5be d828 633e 66db 043f
00000150: 5d23 b4bc 0bee fbbd a45c 6bbe 3a8b 413f
00000160: 4a69 b63e 8c0b 4cbf 1c67 9b3d a0d2 203e
00000170: 4656 1cbf 80cf 51be f435 82bd 88a3 ac3d
00000180: f16e 823e fbbe e8be f6a2 ea3c 09be 853e
00000190: 8135 d5be 178f f0bd 8a74 4d3e 1380 f73e
000001a0: b39a 9b3d f710 a43e e149 583f 63b4 533d
000001b0: 9e03 853e dc87 093e 410f dc3e f34d 4c3f
000001c0: 4d01 de3d 5a81 aebe 1178 8c3e d128 173e
000001d0: 244e 67be 654d 9bbd 874b 463d 0f39 f63e
000001e0: 83f3 1b3e 222b 053e d30a 233f 3981 08be
000001f0: 142f 993e ce5e 8e3e a6ad a53e 3c90 d43e
00000200: da81 92be 373f c0be 96de 993d d95e 0c3e
00000210: 06fd 89be daa4 02bd b28a d1be bcf9 863e
00000220: c243 0abe 856b 20bf f930 853e 33bf 9e3e
00000230: ba47 0abe bbd7 2e3d c89d f5bd 4c67 3d3f
00000240: fcab da3d d6b3 ed3d a3b6 3a3e fd05 a43e
00000250: 0b69 563e 3984 ebbe c23b a53e 5a77 883e
00000260: dcac 773c a15c f53d f666 533f f745 383e
00000270: 6d18 a23e 83cf 9a3e ea5b a93e 961d 483f
00000280: 4163 9ebd c22b d83e 90bb e73e 6454 113e
00000290: de57 18bc 3bdc 35be 5023 8abd 395b ea3e
000002a0: 19cc 573e edf6 c1bd 38e4 0b3e b1ce 133e
000002b0: 8f2e e73d 40e2 063d 0ebf 2dbf 8b2b 303d
000002c0: c6bc 37bd f62a 3a3e 1efb 3a3f 8f10 ba3e
000002d0: e783 c53e b1bb 293f 0c6a 813e 407f 583f
000002e0: 42b2 7c3e 98ae c03e 7800 13be 6e64 133f
000002f0: 2ef9 8a3e d293 36bd 0dda 083e 27ce 2f3f
00000300: 189f 3cbe 2a61 e43d 11bc 403c a0eb 0e3c
00000310: 02a0 abbe b4be c2be 159b 553e 6932 25bc
00000320: 9cd9 00bf f6cc 0fbf c864 3f3e 0962 1e3e
00000330: 3949 a8be 2907 83be 14ca b3be 4163 c33e
00000340: e8e0 c9bb c86f 4dbd 9120 fc3e 239b c23e
00000350: 34ac c33e bf56 ed3e 5709 013e 6599 3d3f
00000360: a087 2dbe 3ffc 503e 883c 1b3e 7009 cb3e
00000370: a063 f5bc 900f a5be e731 9f3e 54b7 123e
00000380: 7d0d e93e e72f a3bd c8ed a1be 1442 18be
00000390: d1f8 99be 3d13 38bf d71a b0be 5e51 cbbe
000003a0: a59d 513e 739c c5bd be8c a23e 9c44 863e
000003b0: 3f94 0f3e fd2a 9d3c dc4e 41bf 6e38 e0bd
000003c0: 127d afbe 242b d5bd 5479 613e f0bb b33e
000003d0: de82 573d 3afa c1bd 5e71 afbe 27e5 e63e
000003e0: 7f5d 21bd 0973 673e 205f 26be fae5 6dbe
000003f0: 1369 debd d834 05bf 7350 fc3c e8e6 673d
0.5219836 0.11618467 -0.072959 0.1805545 0.14653143 0.09092142 0.26786616 0.58926576
-0.08369668 -0.38638976 0.20380943 0.025159424 0.07936605 -0.050115086 -0.5574928 0.24421388
0.20844476 -0.68089277 0.29259712 0.42945778 -0.35852677 -0.15244019 0.19795339 0.30819935
0.10405731 0.38775107 -0.34146222 0.07419462 -0.20013803 -0.28733084 -0.020961743 0.5153543
-0.34924102 0.06262268 0.225019 0.16930692 -0.08289523 0.018695503 -0.20915635 0.7931169
-0.13659064 0.23772377 0.6179239 0.34483254 0.28048792 0.37415886 0.11089225 0.45648834
0.12644689 -0.20967382 -0.12551165 0.5826873 -0.24582206 0.58736324 0.2723089 0.1642022
0.23260483 0.06617141 0.4619354 -0.028319007 0.38434204 0.10909328 0.2570602 0.6014875
-0.15439068 -0.81186235 0.32943994 0.3213691 -0.1323675 0.12878343 -0.13526466 0.8032773
0.19229925 -0.32184723 0.19416368 0.5611926 0.026662905 0.20315684 0.19740376 0.97230685
-0.33347437 -0.38668776 0.2218355 0.51897275 -0.021989519 -0.123012625 -0.22984558 0.7560307
0.35627204 -0.7970512 0.07588026 0.15705347 -0.6106914 -0.20489311 -0.06357947 0.084296286
0.25475267 -0.45458207 0.028642159 0.26121548 -0.41642383 -0.11746042 0.20063987 0.483399
0.07597866 0.32044193 0.8448773 0.051685702 0.25979322 0.13430732 0.42980388 0.7980644
0.10840092 -0.34083062 0.27435353 0.14761664 -0.22588402 -0.07583121 0.048411872 0.48090407
0.15229611 0.13004735 0.6368839 -0.13330545 0.2991873 0.27806705 0.32359046 0.41516292
-0.28614694 -0.3754823 0.07513158 0.13708057 -0.26950854 -0.031895496 -0.4092613 0.26362407
-0.1350241 -0.6266406 0.26013926 0.31005248 -0.13503924 0.042686205 -0.11992985 0.73985744
0.10677335 0.116065666 0.18233733 0.3203582 0.20938508 -0.45999315 0.32272154 0.26653558
0.0151168965 0.11980558 0.8257898 0.1799544 0.3165926 0.30236444 0.33077937 0.78170145
-0.07733775 0.42220885 0.45260286 0.14192349 -0.009298293 -0.17759793 -0.067450166 0.45772722
0.21073951 -0.094709255 0.13661277 0.14434315 0.11288177 0.032930613 -0.6786965 0.043010276
-0.044857763 0.18180451 0.73039424 0.36340758 0.38577196 0.6630202 0.2527622 0.8456917
0.24677375 0.37633204 -0.14355648 0.5757512 0.27143234 -0.044574566 0.1336443 0.6867394
-0.18420064 0.11151345 0.0117635885 0.00872317 -0.33520514 -0.3803612 0.2085994 -0.0100828195
-0.50332046 -0.5617212 0.18690789 0.15467085 -0.32868364 -0.255914 -0.3511511 0.38161662
-0.006160844 -0.05015543 0.49243596 0.38008985 0.38217318 0.46355245 0.12601219 0.74062186
-0.16946268 0.20408724 0.1515981 0.39655638 -0.029954731 -0.32238436 0.3109276 0.14327747
0.45518103 -0.07968121 -0.31626725 -0.14868957 -0.30072644 -0.71904355 -0.34395477 -0.39710516
0.20470293 -0.09648981 0.31748003 0.2622422 0.14021395 0.019185537 -0.75510955 -0.10948263
-0.3427511 -0.10408619 0.2201894 0.35104322 0.05261504 -0.09471555 -0.3426618 0.45096704
-0.039395805 0.22602476 -0.16247225 -0.2323226 -0.10859885 -0.5203376 0.03080008 0.056616694

fc_layers.0.weight f4 [64, 16]
00000000: 58d2 aebe e635 103e b38b ed3d 90a5 de3d
00000010: 6367 81be 9814 f2bd ef59 a0be cca0 b8be
00000020: e7ab 103e cf06 043e beb2 013e 3e8a 19be
00000030: 901a 18be 1d8e 2cbe 9c50 213e 7002 10be
00000040: 1e24 96be 3bef d23d 344e 923d 538e e83d
00000050: 9a92 e4be 5097 d6bd 1d05 bbbe ad8e dabe
00000060: 25ae 3e3e 401d 6d3e 0120 803e 2f79 28be
00000070: 67e8 3dbe 2d62 4cbe 4392 1a3e 7a27 aebe
00000080: f18e 153e 266e 763e 792c 453e 8338 4d3c
00000090: b475 b23e bbba 573a 6d6c 543e 5e8f 503e
000000a0: dd80 a43d bc42 233d e4c2 bd3c b7bd bfbd
000000b0: 68f7 95bd d952 9cbd 7848 d53d d4a1 4f3c
000000c0: 23ad b13c b372 b53d c629 a13d ce8a ad3d
000000d0: efcf 79bf 7a6e 10be 73f5 abbe e149 9cbe
000000e0: 73d5 6f3e 39cc 903e 0447 9e3e a9c0 07be
000000f0: de7e 59be 70b9 23be cb8c 103e 2683 e3be
00000100: 7b90 ee3d 82b0 773e 3b0e 503e 217c 033d
00000110: a964 af3e f430 39bc 6fc2 333e 00ab 503e
00000120: 0d86 ad3d 858b 633d 2733 123d d771 c1bd
00000130: 7565 a8bd 6324 c5bd 8f9e cd3d d096 c33a
00000140: 93b0 a5bd 61c4 023e 15c8 ea3d 5579 003e
00000150: c568 49bf 0036 1dbe fad9 b5be 934f bdbe
00000160: 79d5 443e 4ce9 893e 68e1 973e 5710 f7bd
00000170: 1f8f 3bbe cf59 2ebe 7d34 b63d 5839 e6be
00000180: 1556 8e02 fd2a 6b83 3b7b 7c83 7422 0384
00000190: 2124 3703 8f02 1181 3b65 8e80 704a 8e04
000001a0: 6a22 3505 514b b304 019b 1d05 3875 1d85
000001b0: baec f184 54a5 4385 b723 1c05 0b9d 9f84
000001c0: e8d2 8886 dd00 3907 709b 4a07 5c3c 4407
000001d0: a177 b486 2feb 3987 a55e af86 9a9f c086
000001e0: cec0 1c85 c35a 0f85 be48 e604 3157 5404
000001f0: 880e d784 316b 5005 400e e183 71ac 9985
00000200: dad6 180d 4678 4f8c c1b1 388c b3f9 a88c
00000210: 6bb4 1f0d 5167 b00c 241a 220d 1d53 1c0d
00000220: e769 2a0c 8734 3d0c 854a 1a0c 4d08 468c
00000230: 7e18 438c 3147 478c 03f1 650c c9f1 208c
00000240: f22c 02be eb14 013e 061b d53d 1781 0b3e
00000250: 5a87 40bf c332 20be a300 bfbe 5697 cbbe
00000260: 0933 3c3e 1676 893e 927c 8d3e ff8c f5bd
00000270: c57d 3abe d8c7 2bbe 6a7d ba3d 6a36 e1be
00000280: 8778 96bc b780 cc3b be62 f9ba 6a5f d23c
00000290: 0dd4 86bf f399 e4bd 5a2b cbbe 2c42 adbe
000002a0: ed18 543e 479d 853e f59c 933e d987 e1bd
000002b0: 5521 39be d796 0ebe 7c94 f83d d2d3 d7be
000002c0: 1a3e 49bd 86dd 8c3e 8f44 7e3e 1063 c83d
000002d0: e246 7e3e cf58 a1bd 9038 693d 9571 5d3d
000002e0: 14a5 093e 99f6 df3d 8546 ae3d 70b5 10be
000002f0: 230e 00be 502c 03be 29c5 113e e9ac 4fbd
00000300: fe8a 93be 48b7 833e e2c3 593e 85e9 353e
00000310: d91a 82bd 14fc 1bbe d74c 5fbe 16a0 74be
00000320: d446 f93d 36cb e23d 3bdc e23d cd5c 11be
00000330: b72c 0bbe 8449 14be 501c 133e 0867 9fbd
00000340: 65ec e289 fbe4 210b eec9 260b 667a 060b
00000350: 9f51 438a 36f0 0d8b 1642 498a 5a38 1f8a
00000360: f568 810a b48d 420a 7fb6 0c0a ca95 838a
00000370: a6e9 738a d95a 858a 60b3 860a 6a22 8d89
00000380: 6539 4cbe 9251 80bc a4c6 b2bc d04f 803c
00000390: 2a54 40bf 30e4 7abd 2481 d0be 011c e9be
000003a0: 8523 393e a0b7 833e 0ffc 863e 3632 17be
000003b0: ba41 3ebe cbbc 3cbe 1ff4 003e 9807 cebe
000003c0: bae1 c2bd 56d4 1b3e 7980 0e3e 6b67 193e
000003d0: 8b57 40bf 8448 39be 9193 bebe 993d bdbe
000003e0: 880f 423e 6a66 923e 048b 8e3e 28db 07be
000003f0: 72d9 40be 919f 2fbe 6ee6 e33d 6296 e6be
-0.34144855 0.1408306 0.11598911 0.10871422 -0.2527419 -0.11820334 -0.31318614 -0.36060178
0.14128076 0.12893222 0.12665841 -0.14994141 -0.14853883 -0.16851087 0.15753406 -0.1406343
-0.2932443 0.10299536 0.07143822 0.11355271 -0.44643098 -0.10478079 -0.3652734 -0.42686978
0.18621118 0.23155689 0.25024417 -0.16452478 -0.18545686 -0.19959326 0.15094857 -0.34014493
0.14605309 0.24065456 0.19255246 0.0125256805 0.34855425 0.0008229424 0.20744486 0.2036719
0.08032391 0.039858565 0.02316422 -0.09362357 -0.073225796 -0.076329894 0.10414213 0.01267286
0.021689003 0.08859768 0.07869296 0.084737405 -0.97582906 -0.14104643 -0.335857 -0.30525115
0.23421268 0.2828081 0.30913556 -0.13257088 -0.21239802 -0.15988708 0.14116208 -0.44435996
0.11648651 0.24188426 0.20317928 0.0321008 0.34256485 -0.011303175 0.1755464 0.20377731
0.08472834 0.055552978 0.035693314 -0.09445541 -0.082224764 -0.09626081 0.10040008 0.0014922265
-0.080903195 0.12770225 0.11463944 0.12546284 -0.7867549 -0.1535263 -0.35517865 -0.36974773
0.19222058 0.26935804 0.2966416 -0.120636635 -0.18316315 -0.17026447 0.0889673 -0.44965625
2.0914433e-37 -6.910964e-37 -7.4197606e-37 -1.5414796e-36 5.382034e-37 -2.663413e-38 -1.3076955e-38 3.34524e-36
8.5169e-36 4.2151865e-36 7.410574e-36 -7.403634e-36 -5.6876227e-36 -9.199222e-36 7.3416445e-36 -3.752494e-36
-5.1467413e-35 1.3918107e-34 1.524247e-34 1.4763139e-34 -6.7884253e-35 -1.3986967e-34 -6.596675e-35 -7.2456886e-35
-7.3704974e-36 -6.740498e-36 5.4139543e-36 2.4960517e-36 -5.0559602e-36 9.799801e-36 -1.3227583e-36 -1.4451396e-35
4.7097234e-31 -1.5982893e-31 -1.4228335e-31 -2.603478e-31 4.921283e-31 2.7179275e-31 4.995157e-31 4.8171255e-31
1.3128192e-31 1.4575837e-31 1.1886153e-31 -1.5255863e-31 -1.5029624e-31 -1.5351826e-31 1.7714045e-31 -1.2398711e-31
-0.12712458 0.12605636 0.10405545 0.13623463 -0.7520653 -0.15644364 -0.37305173 -0.39763898
0.18378843 0.26847905 0.27634102 -0.119897835 -0.1821204 -0.16775453 0.09105952 -0.43986827
-0.018368019 0.00624093 -0.001902662 0.025680263 -1.0533463 -0.11162176 -0.39681512 -0.33839548
0.20712633 0.26096556 0.28830686 -0.11012239 -0.18079121 -0.13924728 0.12137696 -0.42153794
-0.04913149 0.2751276 0.2483084 0.0978452 0.24831727 -0.07878267 0.056938708 0.0540634
0.13441879 0.10935707 0.08509544 -0.14131713 -0.12505393 -0.12809873 0.14235367 -0.05070201
-0.2881698 0.2572577 0.2126613 0.17764862 -0.06352777 -0.15232879 -0.21806656 -0.23889193
0.121717125 0.11073916 0.11077162 -0.14195557 -0.13591276 -0.14481169 0.14366269 -0.077833235
-5.4629825e-33 3.1179738e-32 3.2122352e-32 2.5899544e-32 -9.40426e-33 -2.7336327e-32 -9.690227e-33 -7.66617e-33
1.2461729e-32 9.3674116e-33 6.7750785e-33 -1.2671186e-32 -1.1743969e-32 -1.2841607e-32 1.2971204e-32 -3.3976878e-33
-0.1994377 -0.015663896 -0.021823235 0.015663058 -0.75128424 -0.061252773 -0.40723526 -0.45529178
0.18079956 0.25726032 0.2636418 -0.14765248 -0.1857976 -0.18431394 0.12593125 -0.4024017
-0.0951571 0.15217718 0.13916196 0.14980857 -0.7513358 -0.18094069 -0.3722196 -0.36961058
0.18951237 0.2859376 0.27840436 -0.13267195 -0.18832949 -0.17150714 0.11127935 -0.45036608

fc_layers.0.bias f4 [64]
00000000: bb8b 713e a464 123e 7e9e ba3e 7079 8dbe
00000010: 7c0a bb3e 28d9 a0bd 6cb7 0f87 0b5d 2988
00000020: 9e70 508e d0e7 e3bc ae31 b3be 7bf6 a53e
00000030: 7f90 8d3e 873e fb8b 60cd af3d 71fb 45bd
00000040: bf9f 8988 847d 693e b843 dc91 dbd7 0f83
00000050: 6fbf e487 a698 9793 193e 8f3e e42c b73e
00000060: 5dea d182 99c8 bb3e 1ab2 883e ea38 bc3e
00000070: 6134 7682 ffe7 1a94 5b3a b93e 04a8 3cbe
00000080: 2169 078b ec64 b83e a9c1 9d83 0ff3 bd3e
00000090: 7a46 173e d5b3 2c94 5cf4 1783 c59c d18a
000000a0: efb3 d086 f57e b93e c6d8 8483 1d0e bb3e
000000b0: 6128 be3e 547d ba3e c6b5 bc83 02d5 0085
000000c0: 3dfc 0384 4140 1782 25cd 148e 58c3 0689
000000d0: 296b 668e d3b9 e584 f893 8685 3cd3 0384
000000e0: 3708 9c3e 378c 7596 4a72 b484 1b48 f983
000000f0: f5da 7e85 bdea b53e 5196 1c85 7383 b43e
0.23588459 0.14296204 0.36449045 -0.27631712 0.36531436 -0.07853919 -1.0812027e-34 -5.096596e-34
-2.5692203e-30 -0.027820498 -0.3499884 0.32414612 0.27649304 -9.6775764e-32 0.08584094 -0.048335496
-8.282944e-34 0.22801787 -3.4751615e-28 -4.2271713e-37 -3.4418142e-34 -3.826828e-27 0.27977064 0.35776436
-3.0844308e-37 0.3667648 0.2669838 0.36762172 -1.8088258e-37 -7.820766e-27 0.36177334 -0.18423468
-2.6079144e-32 0.36014497 -9.272093e-37 0.37099501 0.14772978 -8.7192465e-27 -4.4655423e-37 -2.0184938e-32
-7.850529e-35 0.36229673 -7.8080315e-37 0.36534205 0.37140182 0.36423743 -1.109138e-36 -6.0576544e-36
-1.5514798e-36 -1.1112168e-37 -1.8341182e-30 -1.6221513e-33 -2.8401285e-30 -5.4008294e-36 -1.2655655e-35 -1.549597e-36
0.30475017 -1.9835186e-25 -4.2422755e-36 -1.4651459e-36 -1.1983239e-35 0.35530654 -7.3626935e-36 0.35256538

fc_layers.1.weight f4 [32, 64]
00000000: d7d7 3f3e 9c09 603e 6c99 4d3e 1b9d e83e
00000010: 2384 363e 5ba8 733e 3481 5385 7a83 1987
00000020: c4b3 f98d f385 6b3e 15de 2a3f fc37 4b3e
00000030: dd61 3a3e 17b4 6b0a cdef 813e 9a22 793e
00000040: 8138 8a87 6871 513e 97bc 1c10 db59 1c83
00000050: d958 8b06 54b6 b011 f7f9 3a3e 6ddc 603e
00000060: ee60 0f81 09aa 3b3e ff89 423e d700 453e
00000070: ef31 5702 d852 a792 9905 523e f8c3 b83e
00000080: 96cc 2f0a e3da 533e e83f 3e81 35ec 393e
00000090: 20fa 4e3e 50dd 6a13 3b01 1e82 b319 1b08
000000a0: ffeb 7586 359b 433e f860 9203 a0c0 3d3e
000000b0: eb23 2f3e 633d 383e 030e 4d01 f201 1683
000000c0: 3b63 9782 ff5f 4381 2180 238b ce4c 8a88
000000d0: e49e fd8a 9bd6 4404 416c 7684 e541 2304
000000e0: 2a08 523e 4556 a195 86b0 9402 4a08 0383
000000f0: 5947 8485 5d9a 473e d0ba 5d01 84d2 4d3e
00000100: c57c 513e 54a2 743e 3e4a 5b3e 2ea0 eb3e
00000110: 2dd4 463e 8c6f 833e c1aa 4585 4350 1d87
00000120: 6990 eb8d c5dd 883e 89da 2a3f a47b 523e
00000130: e1c4 553e 0f04 710a 50be 7d3e b1f9 803e
00000140: 175e 8987 4ac1 6b3e 54ec 1610 202b 1a83
00000150: 5c9b 8a06 28fc a811 adc0 3d3e 8001 5f3e
00000160: dc36 0681 d966 5a3e fd83 593e 7dbb 533e
00000170: b677 5102 5b5c 8092 f317 573e 533e be3e
00000180: e1f9 1c0a c898 5d3e dfb5 7381 5ada 453e
00000190: b857 6f3e 1a92 8013 ff73 3b82 8173 da07
000001a0: 6a95 7e86 6c68 563e 8b9c 8903 6309 613e
000001b0: a9ec 323e 1ec9 473e c137 5401 134f 1583
000001c0: fd73 a582 333a 5081 f735 6f0a 8fe2 8388
000001d0: ac8f ae89 a6c4 4804 2662 8f84 832e 2104
000001e0: 3851 5a3e ce1c 9295 2707 a502 0880 e182
000001f0: 3c01 8285 7479 6b3e 6b4a 3781 39e2 603e
00000200: 78f7 2782 ee49 8981 b175 3c83 0552 fc80
00000210: c188 3683 bcca 8181 23d7 8581 30a5 8501
00000220: 22d9 8581 8e37 fe00 33c9 6780 7803 d782
00000230: 0cfd 5d82 7fbc 8581 c68c 3c80 681e f500
00000240: 7389 8501 fcf5 2182 6486 8581 5e9c 8501
00000250: 4ecc 8501 85b1 8581 ec7e 7382 b5b0 3683
00000260: 7d87 8501 cf3b 3883 8716 4082 e591 3a83
00000270: 4ad7 8581 78b1 8501 1b96 3983 6df0 a680
00000280: 23a0 8501 fb7a 3883 bdd3 8581 bd4b 3983
00000290: 66d2 9381 eb9a 8501 03d1 8581 1787 8581
000002a0: 42c1 8581 50d8 3983 ea84 8501 8b5d 3883
000002b0: f683 3483 a75c 3683 0593 8501 e6d1 8581
000002c0: ebda 8501 ecde 8581 bea1 8581 9aa2 8501
000002d0: 7888 8581 d8a8 8501 c7a2 8501 b4c2 8581
000002e0: 5ce1 b782 7cd8 8581 d9b5 8581 358e 8501
000002f0: 3188 8501 7a82 3683 43d2 8581 cfd6 3683
00000300: b1ea 4f81 9fb1 5a81 cdac 8f82 2992 5f81
00000310: 1dd1 9382 08e7 6c81 16b9 8501 f48e 8501
00000320: 63a5 8501 deb1 7281 6a4b 5f81 f9f3 9982
00000330: a134 2f82 0fa8 8501 87fe 6381 2b26 7281
00000340: 04d6 8581 1acb 4f81 65d1 8501 9edf 8501
00000350: 8ea0 8581 5291 8581 d0bb 7a82 1aca 8b82
00000360: f9d1 8581 81b5 9382 2ea8 4781 b459 9282
00000370: 6f99 8501 e584 8501 dfc2 8f82 1fa0 6281
00000380: baa3 8501 dc1b 8d82 7f96 8501 2db4 9982
00000390: 8aef 5681 198a 8501 aec0 8581 dfd3 8581
000003a0: abda 8581 c86f 8f82 79d9 8501 0132 9482
000003b0: 3941 9e82 cbf5 9382 3689 8581 45cd 8501
000003c0: 0dcb 8501 eac9 8501 d0bb 8581 2bc9 8581
000003d0: 1eaa 8501 f9c0 8501 aebe 8581 3fca 8501
000003e0: 75c4 9882 57dd 8581 b08b 8581 bfd8 8501
000003f0: 8fcb 8581 3cbf 8a82 5c97 8581 2966 8882
0.1873468 0.21878666 0.20078057 0.45432362 0.17823844 0.23794691 -9.944903e-36 -1.1549078e-34
-1.5389087e-30 0.23000316 0.6674512 0.19845575 0.18201394 1.13487096e-32 0.25378266 0.24329606
-2.0797142e-34 0.20453417 3.091086e-29 -4.594743e-37 5.241654e-35 2.7880272e-28 0.18259417 0.21959086
-2.6334496e-38 0.18326582 0.18997954 0.19238602 1.5810036e-37 -1.0559604e-27 0.20509948 0.36087012
8.464422e-33 0.20688967 -3.494334e-38 0.18156512 0.20212603 2.9644068e-27 -1.160836e-37 4.6673825e-34
-4.625276e-35 0.19102176 8.603372e-37 0.18530512 0.17103545 0.17992167 3.7662606e-38 -4.408327e-37
-2.2244411e-37 -3.5884717e-38 -3.1489052e-32 -8.32363e-34 -2.4422782e-32 2.3138231e-36 -2.8966869e-36 1.9190815e-36
0.20510927 -6.516349e-26 2.1847965e-37 -3.8506955e-37 -1.243943e-35 0.19492479 4.072532e-38 0.20099837
0.20457752 0.23890048 0.2141504 0.46020645 0.19416876 0.2567104 -9.294258e-36 -1.1834954e-34
-1.4517759e-30 0.26731697 0.6673971 0.20554978 0.20875885 1.1604491e-32 0.2477963 0.251905
-2.066877e-34 0.23022953 2.9764345e-29 -4.5306038e-37 5.213811e-35 2.666113e-28 0.18530531 0.21777916
-2.4651273e-38 0.21328296 0.21241756 0.2067699 1.538925e-37 -8.100703e-28 0.2100523 0.37156925
7.558124e-33 0.21640313 -4.4762537e-38 0.19321576 0.23373306 3.245581e-27 -1.377188e-37 3.2868881e-34
-4.7881863e-35 0.20938271 8.088077e-37 0.21976237 0.17473091 0.19510314 3.8978252e-38 -4.3877937e-37
-2.4311145e-37 -3.8245322e-38 1.1517581e-32 -7.937539e-34 -4.2024085e-33 2.3600184e-36 -3.3709274e-36 1.8946816e-36
0.21320045 -5.9014376e-26 2.4248676e-37 -3.3134265e-37 -1.2225595e-35 0.2299555 -3.3665184e-38 0.21961297
-1.2340242e-37 -5.0431936e-38 -5.5383338e-37 -2.3171968e-38 -5.364198e-37 -4.7678026e-38 -4.916519e-38 4.9093516e-38
-4.9168054e-38 2.3346145e-38 -9.531233e-39 -3.1593402e-37 -1.6309137e-37 -4.912696e-38 -5.56063e-39 2.2510604e-38
4.9053714e-38 -1.1899006e-37 -4.9049325e-38 4.908086e-38 4.9149647e-38 -4.911121e-38 -1.7889245e-37 -5.3687843e-37
4.90509e-38 -5.4141397e-37 -1.4112397e-37 -5.4827966e-37 -4.916541e-38 4.911114e-38 -5.4538926e-37 -1.5330941e-38
4.908627e-38 -5.4213915e-37 -4.9160313e-38 -5.4453557e-37 -5.430118e-38 4.907878e-38 -4.91564e-38 -4.905033e-38
-4.9133795e-38 -5.461493e-37 4.9047206e-38 -5.418012e-37 -5.304873e-37 -5.3591353e-37 4.9067447e-38 -4.9157673e-38
4.9170616e-38 -4.917636e-38 -4.908857e-38 4.9089806e-38 -4.9052307e-38 4.9098763e-38 4.909006e-38 -4.913587e-38
-2.7018783e-37 -4.9167124e-38 -4.911742e-38 4.906054e-38 4.905191e-38 -5.3634773e-37 -4.9158195e-38 -5.373158e-37
-3.8188278e-38 -4.0167713e-38 -2.1111144e-37 -4.1063496e-38 -2.1719734e-37 -4.351211e-38 4.912207e-38 4.906161e-38
4.90938e-38 -4.4575994e-38 -4.1012738e-38 -2.2621363e-37 -1.2872073e-37 4.9097636e-38 -4.187593e-38 -4.4475764e-38
-4.916358e-38 -3.8165614e-38 4.915695e-38 4.917736e-38 -4.908687e-38 -4.906501e-38 -1.8420999e-37 -2.0540215e-37
-4.915778e-38 -2.1703887e-37 -3.667119e-38 -2.150426e-37 4.907665e-38 4.904718e-38 -2.1123812e-37 -4.1624526e-38
4.909142e-38 -2.0734078e-37 4.9072435e-38 -2.2584745e-37 -3.9477453e-38 4.9054644e-38 -4.9132966e-38 -4.9160504e-38
-4.9170257e-38 -2.107612e-37 4.916854e-38 -2.1775346e-37 -2.325345e-37 -2.1740787e-37 -4.905337e-38 4.915103e-38
4.914785e-38 4.9146216e-38 -4.912598e-38 -4.9145146e-38 4.910059e-38 4.9133386e-38 -4.9130096e-38 4.9146693e-38
-2.2447153e-37 -4.917409e-38 -4.9056926e-38 4.91675e-38 -4.9148576e-38 -2.038704e-37 -4.9073674e-38 -2.004204e-37

fc_layers.1.bias f4 [32]
00000000: d9ed a23b 60d7 503d 0d4b 1a84 cbdb 6982
00000010: c9bf eb3a 484f eb83 75a4 8581 beab 1988
00000020: 1653 a03d 2ea5 8581 273f a786 1284 af83
00000030: 4fa6 8581 c5ed f186 0a26 8b82 dbc8 8581
00000040: 3e6b 613b 42be 8581 a8b6 da3c e2af 8781
00000050: 98aa 8581 ecc7 8581 5dd1 8382 7936 7083
00000060: d8a9 8581 5711 9083 6aca 9c3e 6c76 ab81
00000070: 7123 4884 368e 733d 033b 6683 adf6 8f83
0.0049722013 0.050986648 -1.8137075e-36 -1.7181214e-37 0.0017986234 -1.3830261e-36 -4.909247e-38 -4.6243645e-34
0.078283474 -4.9093505e-38 -6.291121e-35 -1.0315897e-36 -4.9095125e-38 -9.1003495e-35 -2.0446048e-37 -4.91447e-38
0.0034396197 -4.912949e-38 0.026698425 -4.984355e-38 -4.9101274e-38 -4.914336e-38 -1.9368889e-37 -7.0592193e-37
-4.91002e-38 -8.46754e-37 0.3062318 -6.2985406e-38 -2.3526161e-36 0.059461795 -6.7658667e-37 -8.461419e-37

fc_layers.2.weight f4 [16, 32]
00000000: ef93 473e 1e4f 533e 2041 0003 b61b 1581
00000010: fcce 683e dbca 6804 fdac 8581 aec0 2905
00000020: 867d 3e3e fdc7 8581 c834 a803 d32f 6581
00000030: 3268 7a01 5913 7f85 30f9 3902 c3c7 8501
00000040: a6fe 4b3e 0e9f 8501 e853 573e eea1 8501
00000050: e596 8501 cacc 8581 2c56 3482 3343 e182
00000060: f1a5 8581 670f 0582 5440 a3be 7d8b 8501
00000070: 440e 080a 9b48 473e a2f5 1d83 b6cf 1d01
00000080: aecc 8581 2fc3 8581 50da 8581 8284 8501
00000090: 698e 8581 8caa 8581 588b 8501 44ab 8501
000000a0: efac 8581 5499 8581 b1b3 8581 44b8 8581
000000b0: 9988 8501 67a4 8581 05bd 8501 0a98 8581
000000c0: 55d4 8581 aacf 8581 9db7 8581 edaa 8581
000000d0: e2cc 8501 82e4 8581 fea4 8501 9dc7 8581
000000e0: 2bd1 8501 6c86 8581 06d3 8501 7da7 8501
000000f0: d7c7 8501 dab0 8581 d4cd 8581 39d4 8501
00000100: 7909 553e bf9f 553e 6520 0003 0c5c 1681
00000110: a6c4 5a3e c5c4 6804 aeba 8581 70e2 2905
00000120: c6d6 4a3e d8dd 8581 ac23 a803 0589 6581
00000130: fc57 7a01 ba0f 7f85 81ef 3a02 0f87 8501
00000140: 309e 4a3e f8c1 8501 3153 4e3e 00ae 8501
00000150: 17c2 8501 ea77 6a00 6868 3482 ead4 df82
00000160: 6f90 8581 fded 0482 a774 74be 48c7 8501
00000170: 0adb f409 e58c 593e 37d6 1d83 66f2 1501
00000180: a1bb 8581 d769 9581 5c84 8581 72a3 8501
00000190: a7ab 8581 1eb4 8501 bb83 8501 3888 8501
000001a0: 03bd a281 62e3 8581 1ca6 8501 7bdc 8501
000001b0: e0bc 8581 46b7 8581 3ac0 8501 929c 8581
000001c0: 44a3 8581 37c9 8501 fd87 8a81 6ba2 8581
000001d0: 29d0 8501 8b8f 8581 67ac 8581 b0b8 8501
000001e0: 20bf 8501 05bf 8581 51ca 8581 73cf 8581
000001f0: 1f87 8581 93a9 9181 019c 8581 d8bf 8581
00000200: c01d fe92 1f3a 0d93 87cb 8501 61de 8501
00000210: 809d 0d93 09c6 8501 2fc5 8501 f8b1 8581
00000220: dea5 0e93 c699 8501 bfdd 8501 aec6 8581
00000230: 8b9f 8581 1dad 8581 9fce 8581 5c94 8501
00000240: ab15 ec92 a8e4 8501 24b7 0c93 45e0 8581
00000250: 2bd8 8581 5fbc 8581 0dd0 8501 12ca 8581
00000260: 75b9 8581 89d6 8501 7eb1 0d91 f0ba 8501
00000270: 29de 8501 4861 0993 d0b6 8581 99c4 8501
00000280: 9e92 3f3e 1bde 423e bace 0403 470a 2381
00000290: 8e4f 473e 9b54 7004 45de 8581 9e2d 2f05
000002a0: 934c 303e edd3 8581 2b7f ad03 8c72 6381
000002b0: d49f 8581 fea8 8385 956d 4102 49b5 8501
000002c0: 75f7 413e fee3 8501 8ea3 303e 6ab1 8501
000002d0: c1a3 8501 e292 8581 6ca4 3d82 fd6f e882
000002e0: 6292 8581 f730 0b82 8f12 81be ecdd 8501
000002f0: 093f 8f0a 2c41 4a3e d0da 2383 90d0 2801
00000300: 489f 5e3e ae03 5d3e 76e7 0c03 678d 2581
00000310: 8181 763e ceb9 7e04 9bb5 8581 cabb 3905
00000320: afe6 523e ff9a 8581 9371 b803 2163 6181
00000330: 76b1 7a01 4d85 8b85 a4a0 4e02 6dc2 8501
00000340: 5ef2 543e 35e0 8501 a60e 603e 48e5 8501
00000350: 4594 8501 5fe3 8581 73c0 4b82 6cef f582
00000360: 92b7 8581 81a8 1682 4c89 68be 848f 8501
00000370: 6090 7f0a f636 5a3e 12c3 2c83 0ff8 3c01
00000380: fb2c 343e 9b59 383e f2b1 f902 bd82 1181
00000390: 0788 2d3e 5d75 6204 7ec6 8501 f05c 2505
000003a0: c7af 2c3e fece 8581 a129 a303 5edd 6581
000003b0: 95de 7a01 9107 7885 cb79 3302 d8b1 8501
000003c0: 5f0e 443e 0e87 8501 b978 2f3e 9ecd 8501
000003d0: df9a 8501 650f 6c00 aa6f 2e82 7590 d882
000003e0: 3893 8501 867c fd81 d7e7 31be 63a2 8501
000003f0: 6e2a 8409 c740 363e 657e 1883 4336 0801
0.19490026 0.2063565 3.769058e-37 -2.738686e-38 0.22735208 2.7364616e-36 -4.910471e-38 7.9817315e-36
0.18602571 -4.9143453e-38 9.8862705e-37 -4.209497e-38 4.5992505e-38 -1.1993596e-35 1.3663167e-37 4.914313e-38
0.1992136 4.9084716e-38 0.21028101 4.908884e-38 4.9073007e-38 -4.915034e-38 -1.3249042e-37 -3.309935e-37
-4.90946e-38 -9.775717e-38 -0.31885016 4.905664e-38 6.550845e-33 0.1946129 -4.6420126e-37 2.898537e-38
-4.9150185e-38 -4.913656e-38 -4.9169747e-38 4.9046623e-38 -4.906083e-38 -4.9101207e-38 4.905643e-38 4.910224e-38
-4.910463e-38 -4.90765e-38 -4.911433e-38 -4.912089e-38 4.905249e-38 -4.909239e-38 4.9127714e-38 -4.907465e-38
-4.9161165e-38 -4.915447e-38 -4.9119956e-38 -4.910175e-38 4.9150476e-38 -4.9184377e-38 4.9093236e-38 -4.9142915e-38
4.9156625e-38 -4.904937e-38 4.915929e-38 4.909682e-38 4.914324e-38 -4.9110254e-38 -4.9151833e-38 4.916101e-38
0.20804395 0.2086172 3.7653006e-37 -2.761669e-38 0.21364078 2.7361821e-36 -4.9124356e-38 7.987932e-36
0.19808492 -4.9174814e-38 9.882342e-37 -4.2158964e-38 4.5980874e-38 -1.1992931e-35 1.3733856e-37 4.9050284e-38
0.19786906 4.9134815e-38 0.20148923 4.910616e-38 4.913499e-38 9.77758e-39 -1.3254275e-37 -3.2889112e-37
-4.9063736e-38 -9.766128e-38 -0.23872624 4.914244e-38 5.8946847e-33 0.21245153 -4.638406e-37 2.754089e-38
-4.912572e-38 -5.488583e-38 -4.904641e-38 4.9091016e-38 -4.9102793e-38 4.911494e-38 4.904551e-38 4.905195e-38
-5.978062e-38 -4.918276e-38 4.909484e-38 4.917286e-38 -4.9127506e-38 -4.911947e-38 4.9132316e-38 -4.908115e-38
-4.909076e-38 4.9145213e-38 -5.088833e-38 -4.908954e-38 4.915518e-38 -4.906246e-38 -4.910387e-38 4.91215e-38
4.9130735e-38 -4.9130584e-38 -4.9146794e-38 -4.915416e-38 -4.9050373e-38 -5.3507915e-38 -4.908034e-38 -4.9131766e-38
-1.6036988e-27 -1.7825358e-27 4.914853e-38 4.917558e-38 -1.7874356e-27 4.914065e-38 4.913943e-38 -4.9111857e-38
-1.8004699e-27 4.907714e-38 4.9174674e-38 -4.9141575e-38 -4.9085417e-38 -4.910489e-38 -4.915297e-38 4.906937e-38
-1.4899035e-27 4.918459e-38 -1.776078e-27 -4.9178295e-38 -4.916667e-38 -4.9126783e-38 4.915502e-38 -4.914644e-38
-4.91226e-38 4.9164327e-38 -1.1177633e-28 4.9124726e-38 4.917527e-38 -1.7339794e-27 -4.9118807e-38 4.913859e-38
0.18708274 0.19030039 3.9028624e-37 -2.9945745e-38 0.19463941 2.8250713e-36 -4.9175425e-38 8.236839e-36
0.17216711 -4.916058e-38 1.01972225e-36 -4.17755e-38 -4.9085826e-38 -1.2381259e-35 1.4210849e-37 4.9116615e-38
0.18942054 4.9183637e-38 0.17249891 4.911106e-38 4.909146e-38 -4.906725e-38 -1.3932714e-37 -3.4153614e-37
-4.9066533e-38 -1.0226159e-37 -0.25209472 4.9174926e-38 1.379411e-32 0.19751424 -4.815258e-37 3.1006363e-38
0.21740448 0.21583435 4.1408006e-37 -3.0407165e-38 0.2407284 2.9942874e-36 -4.9117075e-38 8.7331496e-36
0.20595811 -4.907889e-38 1.0840623e-36 -4.1397095e-38 4.604507e-38 -1.3120464e-35 1.5180591e-37 4.913547e-38
0.2079558 4.9178205e-38 0.21880588 4.9185486e-38 4.906924e-38 -4.9182745e-38 -1.4969315e-37 -3.6136936e-37
-4.9119894e-38 -1.1068618e-37 -0.22708625 4.906242e-38 1.2304957e-32 0.21310028 -5.0770187e-37 3.470812e-38
0.17595284 0.18002932 3.6689397e-37 -2.6726094e-38 0.16946422 2.6620063e-36 4.9141306e-38 7.7753326e-36
0.16863929 -4.9153503e-38 9.5898365e-37 -4.221948e-38 4.6077443e-38 -1.1662294e-35 1.3185796e-37 4.911168e-38
0.19146107 4.905028e-38 0.17135896 4.915153e-38 4.9078713e-38 9.923756e-39 -1.2815547e-37 -3.1821262e-37
4.906773e-38 -9.3116204e-38 -0.17373596 4.90895e-38 3.1817745e-33 0.17798148 -4.481388e-37 2.5018186e-38

fc_layers.2.bias f4 [16]
00000000: eb08 073e e1d4 8501 9cf7 d03d edd8 8501
00000010: 4b58 c292 5bd3 e33d 502e cb3d 94d8 ab3d
00000020: 344e 2080 a5dd 0e3f e1c9 e53d 5665 9381
00000030: a143 013e 998e 8581 8a0a 0c3e becc 8501
0.13186996 4.916195e-38 0.10203478 4.9167757e-38 -1.2264887e-27 0.11124297 0.09920943 0.083909184
-2.96679e-39 0.5580695 0.11220146 -5.414468e-38 0.12623455 -4.90611e-38 0.13675895 4.9150275e-38
