checkpoints/neumf_first_try_Epoch18_HR0.6834_NDCG0.4038.model (torch, 645108 bytes, 13 tensors)

embedding_user_mlp.weight f4 [6040, 8]
000000 c6 2f 78 bd 77 e3 0b 3f f1 37 26 3f f0 51 7e 3e
       -0.060592435 0.5464396 0.6492911 0.24835944
000010 78 ba df be a5 7e d6 be b7 51 37 be 2a 24 03 bf
       -0.43696952 -0.41893497 -0.17902265 -0.51227057
000020 fb c4 62 be bf 5f f1 3d cd bb 65 3e e7 bc da 3d
       -0.22145455 0.1178584 0.22434922 0.106805615
000030 09 b8 bc 3d f4 29 ad 3d 3b 9b 93 3e e6 c7 86 3e
       0.092147894 0.084552675 0.2882937 0.26324385
000040 74 c8 46 be 34 a3 9d 3e d7 82 0d 3f 27 0a 2b 3e
       -0.19412404 0.30788577 0.5527777 0.16703092
000050 25 88 d5 3d 70 95 3b bf a3 ac 81 be c6 bb b8 bd
       0.10426358 -0.732749 -0.25327024 -0.0902019
000060 00 57 a4 bd cb 5f 40 3f 1a 0c 52 3f a1 cf ca 3e
       -0.080244064 0.7514617 0.82049716 0.39611533
000070 24 eb 15 bf 50 68 17 bf 80 f6 12 be 5a 21 eb be
       -0.5856192 -0.59143543 -0.14351845 -0.45923883
000080 d0 34 f7 be 95 a9 e5 3c e2 53 d8 bd 68 33 99 3d
       -0.4828248 0.028034965 -0.105628744 0.07480508
000090 4c 2f 08 bf 64 db 05 be b2 a4 35 bf a2 de bc be
       -0.5319717 -0.13071972 -0.7095443 -0.36888605
0000a0 62 55 c4 bd ad 8f fd 3d 3f 68 b0 3e e8 1a 2d 3e
       -0.09586598 0.123809196 0.34454533 0.16904795
0000b0 78 93 90 be ad 04 eb be 2f 4e 12 bf b1 7f 98 be
       -0.2823751 -0.45902005 -0.5715055 -0.2978492
0000c0 a2 99 62 be 3a af 2a 3f 26 8a 03 3f 97 39 3d 3f
       -0.22128919 0.66673625 0.5138267 0.73916
0000d0 a2 39 7d be 80 98 15 bf 8b b7 b3 be 04 05 d1 be
       -0.24729016 -0.5843582 -0.3510097 -0.4082414
0000e0 2c cf a2 3d a0 0d 05 3e c4 f9 ce 3e 85 ba 58 3e
       0.07949671 0.12993479 0.4042493 0.21164902
0000f0 15 a9 29 3f ce a8 b1 be 67 0e f1 3e f1 bb 87 3e
       0.66273624 -0.346991 0.470813 0.26510575
000100 57 0c 5c bd c7 c7 d5 3e f4 75 0f 3f f3 f2 bf 3e
       -0.053722706 0.4175398 0.5603936 0.37490043
000110 6f bb ac be 31 42 ce be 68 17 b1 be 38 32 b7 be
       -0.3373675 -0.40284875 -0.3458817 -0.357805
000120 58 fb 29 be 1f 64 22 be 43 89 03 3d 03 44 0e bd
       -0.16599786 -0.15858506 0.032113325 -0.03473283
000130 5e b2 63 be 84 d8 71 3d cb dd 4e 3e f6 d8 84 3d
       -0.2223601 0.059044376 0.20201795 0.064866945
000140 e6 3c 6f 3e 3b b0 43 3d 23 7b 02 3e e8 f7 d5 3e
       0.23363075 0.04777549 0.12742285 0.417907
000150 e6 0b fe bc 77 76 4f be d9 97 65 3e be e0 80 3d
       -0.031011533 -0.20260035 0.22421207 0.06292866
000160 15 b5 99 bd fd c9 70 bb 30 75 3d 3c 55 8b d4 3e
       -0.07505242 -0.0036741488 0.011563584 0.41512552
000170 ca 68 95 3e 1d 66 87 bd 50 98 cd bd 54 73 ec 3b
       0.2918151 -0.066112734 -0.10038817 0.0072158966
000180 fd 2c 07 3e 8d a5 8a 3e 1f ad e6 3e 81 d5 33 bd
       0.13200755 0.2707943 0.45053956 -0.043904785
000190 d8 87 10 3e 77 bf 0e be 60 65 4b 3e 59 1e 9b 3d
       0.1411432 -0.13940226 0.1986289 0.07574148
0001a0 d2 33 b2 be 77 be d9 bc 8f 6f ec bd 09 fc a1 3e
       -0.3480516 -0.026580079 -0.115447156 0.316376
0001b0 07 45 13 bf c1 c7 e7 bd e4 c8 36 be 9e 64 b0 be
       -0.575272 -0.11317397 -0.17850071 -0.34451765
0001c0 51 42 76 be a3 76 39 3e 6f ed 57 3e d1 6a 64 3e
       -0.24048735 0.18111663 0.21086667 0.22306372
0001d0 09 59 c3 be bf 2d e4 be 49 fa 1a 3e 37 91 14 3e
       -0.38153866 -0.44566151 0.15134539 0.1450852
0001e0 99 b2 d6 be a3 e2 98 bd b6 11 9d be 2d dc a8 3e
       -0.41933134 -0.074651025 -0.30677575 0.3298048
0001f0 4a 6e 6b bf 3e 6b 9d be e7 f1 65 bf 39 c0 20 bf
       -0.9196516 -0.30745882 -0.8982224 -0.6279331
000200 a4 2d 85 bd 9b ad 9a bd 84 5b ad bd 52 ad 78 3e
       -0.06502846 -0.07552644 -0.08464721 0.24284866
000210 a3 f3 ef be f6 71 c3 bd 17 63 80 be a2 08 84 be
       -0.46865568 -0.09543221 -0.250756 -0.25787836
000220 f2 9c 9f 3e 58 9c 91 be 0b 7f b5 3d 62 60 1e be
       0.31174427 -0.28439593 0.08862122 -0.15466455
000230 21 64 a0 3e 1f c0 de 3d 4e be 3c 3f a0 bd 0d bb
       0.31326392 0.10876488 0.7372788 -0.0021627918
000240 97 4d 27 be d1 48 37 3e e1 29 bd bd 94 da ab be
       -0.16338192 0.17898871 -0.092365034 -0.335652
000250 9c 3f 0f bf f0 32 44 3e d7 56 cc bd 9f 01 40 be
       -0.55956435 0.19160056 -0.09977501 -0.18750618
000260 48 46 ac 3d d4 02 e2 3e ca fe ed 3e 54 b4 e8 3d
       0.084118426 0.44142783 0.4648345 0.1136252
000270 db a5 c9 be df 7c 30 be d1 13 7d be 5f 63 4c bc
       -0.3938435 -0.17235135 -0.2471459 -0.012474864
000280 b1 a9 1a bf 21 33 ca bb cb 30 6a 3e 53 53 f7 3d
       -0.6041518 -0.006170646 0.22870176 0.1207644
000290 fa 8e c1 bd 2e 60 da bd 8f 4c a2 be 2d 89 81 be
       -0.09451099 -0.10662876 -0.31699035 -0.2529997
0002a0 0a 76 8f 3e 01 2c 38 3d ad 4a 86 bd 6f ed cb 3d
       0.28019744 0.04496384 -0.06557212 0.09957396
0002b0 98 5f 61 3e 16 32 22 3e 3f ff bc bd 4e 18 34 3e
       0.22009122 0.15839419 -0.09228372 0.17587397
0002c0 34 cd 53 3d 5d ed f6 bd 3d a2 6d be 90 3b 31 3e
       0.05170937 -0.12056992 -0.2320642 0.17307878
0002d0 c1 95 89 be 85 16 c6 bd 44 56 e3 be 09 11 21 bd
       -0.26872066 -0.09672264 -0.44401753 -0.039322887
0002e0 aa ac db be 4d 48 17 3b 72 b7 54 3c 63 12 c4 bd
       -0.4290517 0.0023083866 0.01298319 -0.095738195
0002f0 81 35 df bd f6 bd 89 bd 9c 4c 41 be 74 02 3b be
       -0.10898877 -0.06725685 -0.1887688 -0.18262655
000300 95 ea d4 be 45 61 50 bd a2 5a 1c bb 42 f8 a3 3e
       -0.41585222 -0.050874013 -0.0023857732 0.32025343
000310 0f 85 8c be d8 3d 77 bd 5a 83 34 be 8e ae 3d bf
       -0.27445266 -0.060361713 -0.17628232 -0.74094474
000320 85 d3 f2 3e 67 f0 b8 3c 27 fc 1f be aa d5 16 bc
       0.47427002 0.02257557 -0.15623532 -0.009206215
000330 65 e7 9b 3e e9 38 34 3e c2 58 15 3c 36 30 e1 3e
       0.30449978 0.17599835 0.0091154 0.43982095
000340 82 22 a8 3d fd 7a b1 3e 96 1f eb 3d a1 5c b4 3e
       0.08209707 0.34664145 0.11480634 0.3522692
000350 48 1d 0a bf ed 3e 8b be 58 71 99 be f3 9d 87 3e
       -0.5395093 -0.27196446 -0.29969287 0.26487693
000360 fa ff 81 3d b9 16 37 bd d8 88 11 bd b3 41 bc 3e
       0.06347652 -0.044699404 -0.035530895 0.36768875
000370 b0 47 ea be 8e 28 7e be d1 de 89 be 88 13 73 be
       -0.45757818 -0.24820158 -0.26927808 -0.2373792
000380 cb b9 dc bd 2c 97 32 3f c9 26 37 3f 2a a1 75 3e
       -0.10777625 0.6976192 0.71543556 0.2398726
000390 4c 26 3d 3e fb a6 2d 3e b3 d3 92 3e 79 97 7d be
       0.1847164 0.16958229 0.2867714 -0.24764813
0003a0 20 cd c3 bd c8 1f 6f 3e eb 85 01 3f 53 f1 69 3e
       -0.09560609 0.23351967 0.5059497 0.22845964
0003b0 5a a6 bd be 9d 39 c0 be 0e 8e a6 be 49 4f 26 bf
       -0.3704098 -0.37543955 -0.32530254 -0.6496473
0003c0 cd 37 b8 3c 5a 73 66 3e fb be 5e 3d 11 1a fb 3e
       0.022487545 0.2250494 0.054381352 0.49043325
0003d0 c4 86 b4 be 68 5d 0f bf 0d 25 59 bf 6a f9 8a 3d
       -0.35259068 -0.560019 -0.8482216 0.06785853
0003e0 db 45 6d 3d 54 c1 90 3d d4 02 6a 3d 76 94 55 3e
       0.057927947 0.070681244 0.057131603 0.20857415
0003f0 3b 5d 2e bf 12 d5 47 be 8d 71 cf bd 0b 29 75 be
       -0.6811101 -0.19514874 -0.1012908 -0.23941438

embedding_item_mlp.weight f4 [3706, 8]
000000 74 90 85 bf a7 f8 84 bf bf 3a d5 be 24 0f 8a 3f
       -1.0434709 -1.0388383 -0.41646382 1.078587
000010 06 95 b7 3f 80 5a 83 3f d0 11 67 bf aa 45 39 3e
       1.4342353 1.0261993 -0.90261555 0.18092981
000020 aa 2f 25 bf fd 8b 68 be 29 8f 2c be 6c 42 82 bd
       -0.64525855 -0.22709651 -0.16851486 -0.06360325
000030 2e ff 72 3d 9f 29 23 be 47 f6 4c be 87 cd b3 3e
       0.05932539 -0.15933846 -0.20015822 0.35117742
000040 e2 72 44 be 0d 7d 2c bb 9d b6 9b be 6f f8 62 3e
       -0.1918445 -0.0026319653 -0.3041276 0.22165082
000050 e0 45 8b 3e 67 27 93 3e d1 87 22 be 79 99 58 3e
       0.27201748 0.28741 -0.15872122 0.21152295
000060 24 da 26 bf 79 a0 30 bf 44 98 14 bf 1f 2d 25 3f
       -0.65176606 -0.6899486 -0.5804484 0.64521974
000070 f6 8a 9c 3e 57 0b 82 3f 2d c8 2a bf 4b 58 4a 3f
       0.3057477 1.0159711 -0.66711694 0.79040974
000080 09 cc fe be 6c 1a 98 bf ac 45 4d bf 38 93 0b 3f
       -0.4976504 -1.1883063 -0.80184436 0.54521513
000090 90 7c 05 3f 88 33 0c 3f 5d 88 d9 be 6c 5d 5b 3f
       0.5214319 0.5476613 -0.4248685 0.85689425
0000a0 53 bf 3f bf 9b 08 41 bf a7 3e ec be d0 ef 7c 3b
       -0.7490131 -0.75403756 -0.4614155 0.0038595088
0000b0 a2 ad 0b 3f 4c 8d 3d 3f 27 55 83 be 77 91 c3 3e
       0.5456182 0.74043727 -0.25650904 0.38196918
0000c0 63 27 56 be a9 b8 78 bd e6 c6 f1 bc 6a f2 89 be
       -0.20913462 -0.06072298 -0.029513787 -0.2694276
0000d0 4e 67 bc 3c ef 0a 29 3e 46 69 bf 3d df 18 00 3c
       0.022998478 0.16508077 0.09346251 0.00781843
0000e0 65 03 b5 be fb 4d 19 bf 3e 44 86 bc c6 54 05 be
       -0.35354152 -0.59884614 -0.016389962 -0.1302062
0000f0 ea 98 ae 3e 79 c2 cd 3e 62 e7 5b bd 93 13 a2 3d
       0.3410104 0.40187433 -0.05368746 0.0791389
000100 99 ed 06 3d 3c 5d 3d bc 83 ab 33 be 3d 08 06 be
       0.032941435 -0.011557873 -0.17545895 -0.1308908
000110 62 5e 2e bd 82 79 44 be 5c 53 04 3c 4f 36 14 3e
       -0.04257048 -0.19186977 0.008076515 0.14473842
000120 27 01 a9 be 9c 4e 13 be db b9 63 be ec 91 9f 3e
       -0.33008692 -0.14385456 -0.22238867 0.31166017
000130 93 58 a9 3e 30 3d e5 3e a4 ea b7 be a9 ac d3 3d
       0.3307539 0.44773245 -0.35921204 0.10335667
000140 f3 4d 5a be 55 73 4d be 99 93 21 be 85 f4 60 3d
       -0.21318798 -0.20063527 -0.1577896 0.054920692
000150 6b 6f 2a 3e 71 0b 10 3d d4 a8 2b be af 30 6e 3d
       0.16644065 0.03516716 -0.16763622 0.058151897
000160 b5 f2 c1 3d 39 98 fe 3d 7d 79 56 bd d4 74 1f 3d
       0.09470121 0.12431378 -0.052361954 0.038929775
000170 9b cd 9e 3c d2 6f 26 be a9 1b 0b 3d be 38 25 3e
       0.01938515 -0.16253594 0.033961926 0.16134927
000180 47 10 a2 3b 5c 7e 8d 3d 16 57 9f bb 83 3e ad bd
       0.004945788 0.06908867 -0.0048626764 -0.08459189
000190 dd a9 ca be 68 74 7f bd e2 1d 5e 3d c8 8b 14 bc
       -0.3958272 -0.062366873 0.054227717 -0.00906653
0001a0 43 4c 94 3e f4 a4 86 bd 5e 56 bd be a6 4b 2c be
       0.28964433 -0.06574431 -0.36979955 -0.16825733
0001b0 4a d2 8a be 80 35 6f 3e 6d 64 e0 3d 90 49 fc 3d
       -0.27113563 0.23360252 0.10956655 0.123187184
0001c0 6f 01 2f bf e8 e3 bf bd f8 dd 05 bf e9 f7 1f 3e
       -0.6836156 -0.093696415 -0.5229182 0.15621914
0001d0 0b 9e ba 3d 0e 35 9d 3d 5d ef d0 be 2d ae b7 3e
       0.091121756 0.07676135 -0.4080762 0.35875073
0001e0 02 33 49 bf b9 e7 5b be 5a bb f4 be f8 77 80 3e
       -0.78593457 -0.21475114 -0.47799188 0.2509153
0001f0 13 f6 9f 3d 2f 34 13 3e 7e 42 c8 be a2 16 a6 3e
       0.07810607 0.14375375 -0.3911323 0.32439142
000200 c8 1d 31 3e 4b d6 4b bf 3d ad f4 bd a7 ac 97 be
       0.17296517 -0.7962386 -0.11947105 -0.2962391
000210 28 41 2f 3e a2 f9 50 3e 12 15 aa 3e ed 9a 80 3e
       0.17114699 0.20407727 0.332192 0.251182
000220 89 9e 86 3d 7e 14 93 3d 04 7a 72 be 52 ec 6c be
       0.06573207 0.07181643 -0.23679358 -0.23137024
000230 52 8c 8c 3e 5f 38 86 be 73 fd 8c 3e be 4d d6 3d
       0.27450806 -0.26214883 0.27537116 0.10464047
000240 26 03 77 be 3b 0a 9d bd a9 92 a8 3d 9b 25 0c be
       -0.24122295 -0.07667967 0.08231098 -0.1368622
000250 1f 58 33 3e 2d ab 4f bb 73 19 23 3e ca cd 5c be
       0.17514084 -0.0031687722 0.15927677 -0.21562877
000260 6f 80 3d be 08 7a 65 be f7 d3 94 be ff 36 06 bd
       -0.18506025 -0.22409832 -0.29067966 -0.032767292
000270 de 0e 07 3e f0 56 74 3e 31 49 1e be e1 06 67 bb
       0.13189265 0.23861289 -0.15457608 -0.0035251903
000280 d2 65 96 be 86 42 c4 3d e3 a5 86 bd 88 b9 bd 3e
       -0.29374558 0.09583001 -0.06574609 0.37055612
000290 83 85 6f 3e b0 12 96 3e 7e 7a cf be 54 7e 90 3d
       0.23390774 0.29311132 -0.40523142 0.07055345
0002a0 73 c9 a5 3e b6 ad 20 bf f7 d8 f6 bb 56 04 42 be
       0.32380256 -0.6276506 -0.0075331884 -0.18946967
0002b0 c2 b4 a1 3e 3f 47 a1 3e 72 0f b8 3e 55 90 98 3e
       0.3158322 0.3149967 0.35949284 0.29797617
0002c0 5e 24 b9 be 0b b5 02 bf ba 28 16 bf 87 c5 21 3f
       -0.36160558 -0.510575 -0.58655894 0.6319203
0002d0 1f a4 be 3e f4 4f 3a 3f 7d ba 2d bf aa 02 85 3e
       0.3723459 0.7277825 -0.67862684 0.25978595
0002e0 f4 83 50 bf 21 3b 6d bf 46 2d 1a bf e8 ce 6d 3f
       -0.81451344 -0.9266835 -0.6022533 0.9289384
0002f0 c8 09 87 3f 4b 3e 38 3f 74 c3 5a bf fb 78 94 3d
       1.054986 0.7197005 -0.8545449 0.07249638
000300 61 44 74 bd fa d2 89 be 25 f6 45 3e 45 89 bb 3d
       -0.059635524 -0.26918775 0.19332178 0.091570415
000310 8d e5 b7 3c 40 cd b0 3e f1 ec 76 bd 3c 46 0f 3e
       0.022448326 0.34531593 -0.06028456 0.13991636
000320 f2 b8 1c be b2 6f 05 bd 4b bd af bc 95 8b 74 be
       -0.15304926 -0.032577224 -0.021452567 -0.23881371
000330 e1 20 60 bc da d9 08 be 92 4d 4a 3e 8a 2d 0d 3b
       -0.013679714 -0.13364354 0.19756153 0.0021542036
000340 88 f5 0e bf c4 19 5e bf ba c6 1b bf 30 e4 10 3f
       -0.558434 -0.86758065 -0.6085011 0.56598186
000350 d2 a2 03 3f 62 fa 2b 3f 5b 30 18 bf d7 8c c1 3e
       0.5142032 0.6717893 -0.59448785 0.37802765
000360 2b 2c 43 bf 6c 21 d5 be c8 79 dd be 3c 79 2a 3f
       -0.7623927 -0.4162706 -0.43256974 0.6659124
000370 74 fa 52 3f 61 02 82 3f 54 df 2f bf 58 56 59 3d
       0.8241341 1.0156976 -0.68700147 0.05306086
000380 c5 0b 88 3e 64 62 a3 be ed ba 89 3e fd ed b3 be
       0.2657148 -0.31911004 0.26900426 -0.35142508
000390 de d2 7e be 70 ea 02 3c 9c 2b e2 3e 2e 33 0e be
       -0.24885127 0.007990465 0.44173896 -0.13886711
0003a0 e0 c9 24 3e c1 86 4d bf 06 77 ad 3d e4 e4 b3 bc
       0.16092634 -0.80283743 0.084699675 -0.02195973
0003b0 9d bc 19 3f e5 9b 03 3f 57 b5 05 3e 79 6f fe 3e
       0.60053426 0.5140975 0.13057457 0.49694422
0003c0 f1 7b df bd 61 e9 6a be 58 f6 99 be 67 40 05 3d
       -0.10912312 -0.2294059 -0.30070758 0.032532122
0003d0 fa be 9a 3e d1 20 4a bd 76 52 6a bd 5b c3 da bc
       0.3022383 -0.049347702 -0.057207547 -0.02670448
0003e0 a2 51 31 be a6 b1 15 bf 33 f9 34 3e 96 6d ba 3e
       -0.17316297 -0.58474195 0.17673187 0.36411732
0003f0 60 8c 17 3e 4f eb 70 3f a0 98 31 be d3 b3 88 3b
       0.14799643 0.9410905 -0.17343378 0.0041718273

embedding_user_mf.weight f4 [6040, 8]
000000 d3 97 16 3e 9f aa 27 3e 06 19 95 be 94 3e 02 3f
       0.14706354 0.1637368 -0.29120654 0.50876737
000010 e4 58 69 3c 86 09 e2 be 3d e9 c0 3c 14 61 87 bf
       0.014242385 -0.4414789 0.023548717 -1.0576501
000020 a1 f8 f9 bc b4 f3 8f be 82 10 46 bd ed 5c 8f 3f
       -0.030514063 -0.28115618 -0.048355587 1.1200234
000030 e9 36 66 3e 13 66 c0 3d 8c 36 8e 3e 7c 68 4c 3d
       0.22481884 0.09394469 0.2777599 0.04990433
000040 d2 ad bb 3e 14 c1 0a bf 9b 6e 29 be 63 07 c6 3c
       0.36656052 -0.54200864 -0.16546099 0.024173444
000050 3b 66 3c bd 2a 1f 3c 3f 7d 7a b6 3e a2 ce 22 bf
       -0.045995932 0.7348505 0.35640326 -0.63596547
000060 8c db 33 be 7a b6 99 bd ec 2f b2 3e 1f 3e 28 3f
       -0.17564219 -0.07505508 0.34802186 0.6571979
000070 99 a3 aa be cb 71 60 3f 89 98 f8 3e cc 98 89 be
       -0.3332794 0.87673634 0.48553875 -0.26874387
000080 cd 0e ef 3c 86 81 c1 be 5b 9c a3 3a 2d a4 84 3e
       0.029181862 -0.3779413 0.0012482511 0.25906506
000090 af b1 4f bf 31 19 05 bf 7b 55 d9 be c6 d7 5d 3d
       -0.811305 -0.51991564 -0.4244803 0.054160856
0000a0 6e a3 ad 3e 48 73 3e 3e cf d8 f4 be b2 86 da 3e
       0.3391375 0.18598664 -0.47821662 0.4268089
0000b0 9b 86 44 3f 26 c4 14 bd db 9b ac 3e 3c 49 6d be
       0.7676789 -0.036319874 0.33712658 -0.23172468
0000c0 eb 10 37 3f d0 37 0d bf 67 c9 d4 3e c4 dc 14 3f
       0.7151019 -0.5516329 0.41559908 0.5814936
0000d0 16 f1 d5 be 41 a6 2b 3f b8 38 24 3e 69 b1 7d be
       -0.41785496 0.6705056 0.16037261 -0.24774708
0000e0 97 ee c4 3e 47 7f 12 bf 39 fc a5 3e ed 8c 44 3f
       0.3846328 -0.5722546 0.32418993 0.76777536
0000f0 89 fe 15 bf 25 a2 3d bf 00 be 13 be 7c e8 81 bd
       -0.58591515 -0.7407554 -0.14427948 -0.06343171
000100 05 84 61 3e ae 18 76 bf 69 7c 6c 3e 3d d4 38 3f
       0.22023018 -0.9613141 0.23094334 0.7219885
000110 24 c5 33 be 35 65 eb be cc 91 ae be 75 6e 2b bf
       -0.17555672 -0.45975652 -0.3409561 -0.6696542
000120 6c 17 86 3e ea ec 4c 3e 13 0c 2e bf 8a 71 d3 3e
       0.26189744 0.2001225 -0.67987174 0.4129756
000130 37 14 9c 3d fc 50 8b 3e 24 e6 fb bb 87 60 13 bf
       0.07621043 0.27210224 -0.007687347 -0.57569164
000140 14 2c 76 bd 9c 42 2d bf 18 1d cb be a5 1a 4d be
       -0.06010063 -0.6767976 -0.39670634 -0.20029695
000150 96 fd 8c be 4c 49 d1 be 7f 73 c8 3c eb cf 2b bf
       -0.2753722 -0.40876234 0.024469135 -0.6711413
000160 f7 c9 b1 be 53 aa da be b7 1d 8b 3e 40 5f b0 3d
       -0.347244 -0.42708072 0.27171108 0.086119175
000170 96 ae a5 bc b6 2e f9 3e 4c 4b 81 be e9 30 24 bf
       -0.02022485 0.4866845 -0.2525276 -0.6413713
000180 8f 52 e3 3e 1c 35 03 3e 9e ed 87 be fc e4 8c 3f
       0.44398925 0.12813228 -0.26548475 1.100738
000190 8b 98 fa bd e2 e7 03 3f 35 90 85 ba e2 ad 84 3e
       -0.122361265 0.515257 -0.0010190072 0.25913912
0001a0 d3 c1 bf bd e6 e5 79 bc f6 78 34 bd 9c e8 d5 bd
       -0.09363141 -0.015252566 -0.04406067 -0.10444757
0001b0 4f f5 aa be fc 32 36 3e 18 58 6f 3e 9b fc c4 be
       -0.3339028 0.17792886 0.23373449 -0.38473973
0001c0 6d b5 34 3f 4e 1c 46 bf ec 9e 9f 3e 07 3e a6 3e
       0.70589334 -0.7738694 0.31175935 0.32469198
0001d0 41 57 35 3d 27 be 5d be 15 ac a4 3e 7a 2d f0 be
       0.044272665 -0.21654569 0.32162538 -0.46909696
0001e0 4a 10 24 3f 28 9a 6b 3e 02 f1 96 be 41 86 43 3d
       0.64087355 0.23008025 -0.2948075 0.047735456
0001f0 bf 99 84 3e ec 7a 87 bd 23 9b 46 3e 22 39 38 3d
       0.2589855 -0.06615242 0.19395117 0.04497636
000200 bd 9d be 3d 12 db 1a bd 80 21 b3 3d 24 fc a0 3e
       0.0930743 -0.037806578 0.08746624 0.31442368
000210 21 8c 2f bf c7 27 9c 3e 04 87 14 be 65 46 e8 3e
       -0.68573195 0.30499098 -0.1450463 0.45366207
000220 fb 54 ec 3e ea 1a 67 3d 2c 15 7c be 74 5a 53 3f
       0.46158585 0.05642215 -0.24617451 0.82559896
000230 f5 f3 ac be af f8 cd 3d 09 6a 37 be 55 9b c5 be
       -0.33779874 0.10057198 -0.17911543 -0.3859507
000240 35 b2 ca 3e 09 2e ad 3d 7d ee 56 3e 3c 2e 9e bd
       0.39589086 0.08456046 0.20989414 -0.07723662
000250 13 90 5e be be b4 1e 3f d4 3a c5 3d d6 e8 34 bf
       -0.21734647 0.6199454 0.09630361 -0.7066778
000260 b2 02 b3 3e 77 e3 3b bf 29 a6 2a 3d 5f f3 b0 3d
       0.34962994 -0.7339396 0.04166237 0.08640169
000270 d7 c7 9c be 7e 99 9b 3e c2 46 c4 bd 82 25 62 be
       -0.30621216 0.30390543 -0.095838085 -0.2208462
000280 fc 4c 31 3f 78 72 7a 3e 05 06 c2 bd 35 cc 18 3e
       0.69258094 0.24457729 -0.094738044 0.14921649
000290 6b bc 64 be e6 2e 81 3e e9 3a 14 bf f3 d2 14 bf
       -0.22337501 0.25231093 -0.5790239 -0.5813438
0002a0 dd 4c fe 3e 93 49 16 bf 87 de 89 be eb a5 38 be
       0.49668017 -0.58706015 -0.26927587 -0.18032043
0002b0 de ef 0b bf e4 bc af 3e c7 8b a9 bc cc b3 05 bf
       -0.54662883 0.343238 -0.020696534 -0.52227473
0002c0 8e 2b fa bc 8f 37 4d be ba e0 78 be c6 4b 0e 3e
       -0.030538347 -0.20040725 -0.24304476 0.13896093
0002d0 5d 28 60 bf d0 89 dc 3e db 81 df bd 4f 37 3b 3e
       -0.8756159 0.43073893 -0.1091344 0.18282817
0002e0 8e 6c 14 bd 11 7e a6 be d3 29 2b bf 67 6f a5 3e
       -0.03623634 -0.32518056 -0.66860694 0.32311556
0002f0 4b bb 7b be c1 07 a6 bd ca cc a6 3e e5 7f 99 be
       -0.24583165 -0.08106948 0.32578117 -0.29980388
000300 fa 83 17 3f 80 f9 9d be 8f 88 ef bd 47 a4 8f 3e
       0.59185755 -0.30854416 -0.11695968 0.2805502
000310 f2 57 80 be 7e 3e d8 3e f7 59 b5 be a3 58 8f be
       -0.25067097 0.42235178 -0.354202 -0.27997312
000320 ed 0e ec 3e a7 0f 81 be f4 54 2b bf b7 99 a8 3c
       0.46105137 -0.25207254 -0.66926503 0.02058111
000330 58 01 ec 3d 61 76 31 be f0 f3 4e 3f 4c 79 7f be
       0.11523694 -0.17330314 0.8084097 -0.24948615
000340 27 bf d4 be d0 00 14 3e df 34 53 be 0f d8 b2 3e
       -0.41552088 0.14453435 -0.20625637 0.34930465
000350 13 f4 9d bd de 59 c4 3e 16 9f 1a be c4 e1 00 bf
       -0.07712569 0.38349813 -0.15099749 -0.5034449
000360 97 52 93 be 3a 3c c8 3d 6f 6d c5 be 71 00 b8 3e
       -0.2877395 0.09777112 -0.38560054 0.35937837
000370 51 49 f9 be 40 8d 05 be 81 cd 5f 3d a3 89 d4 be
       -0.48688748 -0.13042164 0.054639343 -0.41511258
000380 1e 68 fc bc da 1c 78 be d3 ae e0 3e 8f 6e 0b 3f
       -0.030811366 -0.24229756 0.4388338 0.54465574
000390 32 57 60 be 6a 2b 7a 3f 4b b1 e5 3e 34 51 aa 3e
       -0.21908262 0.97722495 0.44861826 0.33265078
0003a0 e7 33 24 be d9 f9 74 be 33 b7 90 3e fa 09 96 3e
       -0.16035424 -0.23923434 0.2826477 0.29304487
0003b0 d2 34 b9 be 7f 78 f8 be 5d 11 6c be 02 5a c9 be
       -0.3617311 -0.4852943 -0.23053499 -0.39326483
0003c0 50 7b 55 be 5f ca e8 bd aa f9 7b bf bb 5e cf be
       -0.20847821 -0.11366724 -0.9842783 -0.4050196
0003d0 b7 60 2b 3f 94 87 1e 3f 02 28 5b 3e 5d 28 48 be
       0.6694445 0.61925626 0.2140198 -0.19546647
0003e0 fe cc 7e 3b 5b 6c 8d be f7 96 ad 3d 49 b0 d3 3e
       0.003887951 -0.2762173 0.0847606 0.41345432
0003f0 e6 c6 a0 be 79 39 a7 be 3f 71 70 3d 48 ea 96 bd
       -0.31401747 -0.32661036 0.05870175 -0.07368904

embedding_item_mf.weight f4 [3706, 8]
000000 a7 b0 d1 3e 89 9b ef 3c 0c ca 08 be a1 36 93 3e
       0.40955088 0.02924897 -0.13358325 0.28752616
000010 c4 26 46 3e 45 4f ff 3d 1c a1 aa 3e dd 05 ba 3e
       0.19350725 0.12466291 0.33326042 0.36332598
000020 8b 2e 16 be 7c 0c 02 bf 14 16 e2 3d 00 93 04 3e
       -0.14666192 -0.508003 0.11039367 0.12946701
000030 97 e2 0f 3e 60 e9 01 be b0 5a 23 bf eb a7 f5 3e
       0.14051281 -0.12686682 -0.63810253 0.47979674
000040 d8 df 4b 3e 5f 3e 65 bf e3 20 86 3e b8 75 07 3f
       0.19909608 -0.89548296 0.26196966 0.52914
000050 96 93 d0 be a9 b3 8f be 99 c7 11 3e 15 48 99 3e
       -0.407376 -0.28066757 0.14236297 0.29937807
000060 8c 57 ce 3c b2 90 98 3e 62 d3 9b be 84 b0 8e bd
       0.02518823 0.29797894 -0.3043471 -0.069672614
000070 76 d5 ba be 23 20 ba be 54 a5 e1 3d b3 d9 1d 3e
       -0.36490983 -0.36352643 0.11017862 0.15415077
000080 48 e7 87 be 24 20 b6 3d 38 7c 9e 3e 6b 63 c5 3c
       -0.2654364 0.08892849 0.30954146 0.024095258
000090 b0 1c e1 bd 0a 7d 22 3b 84 e4 40 be cf d6 19 3f
       -0.109918 0.0024793767 -0.18837172 0.60093397
0000a0 24 f4 82 bd a4 2f 71 3e 4a a8 32 3f 73 09 91 3e
       -0.063942224 0.2355333 0.6978804 0.28327522
0000b0 31 cc a9 3e 5e b7 ae 3e fa b4 f9 3d 95 fc b7 3e
       0.33163598 0.34124273 0.12192722 0.35934892
0000c0 0a a9 26 3e c5 17 a9 be 9a 58 83 be 95 3e 37 3f
       0.16275421 -0.33025947 -0.25653535 0.7157987
0000d0 32 0c a8 be 84 02 0d 3f c2 cb 8f 3e ce 80 2f 3e
       -0.32821804 0.55081964 0.28085142 0.17138979
0000e0 fd 06 6d 3e a0 ba 17 3e 6e 84 b2 3e 26 12 47 be
       0.23147197 0.14817286 0.3486666 -0.19440517
0000f0 76 e9 93 3e 73 70 7a 3e 51 19 bb 3e e5 11 58 3f
       0.28889054 0.24456958 0.36542752 0.84402305
000100 f7 de c7 bd df c9 8a bf 8a 73 93 3e db 11 fd 3e
       -0.09759324 -1.0842856 0.28799087 0.49427685
000110 81 99 c2 3d 7a 48 d3 3c d0 7f a5 be c0 9a 9f 3f
       0.09501935 0.025791395 -0.32324076 1.2469101
000120 09 60 2c 3e 50 33 d8 be 5e 46 5e 3e f7 b9 31 3f
       0.1683351 -0.42226648 0.2170653 0.69424385
000130 4a 35 48 3e 11 d2 35 3e 94 ec 5e 3e 07 f9 84 3f
       0.19551578 0.17755915 0.21769935 1.0388497
000140 34 5e c6 be 1a 6a 15 bf 2d e9 92 3e 7e 13 22 3f
       -0.38743746 -0.58365023 0.28693524 0.6331099
000150 68 00 26 3e 31 43 87 be 21 3e c3 be db a1 8c 3f
       0.16211092 -0.2641845 -0.38133338 1.0986894
000160 16 bc b4 3e e8 af 93 bf 8a 26 16 3e 0e 8e 9b 3e
       0.35299748 -1.1538057 0.14663139 0.30381817
000170 ca 18 19 bf 19 1a c7 be 59 3a 5b be b5 b7 1b 3d
       -0.5980345 -0.38887098 -0.21408977 0.038016994
000180 15 82 95 3e f5 e3 37 bf f0 db 0c be cb e6 04 3f
       0.29200807 -0.7183221 -0.13755774 0.5191466
000190 ec 8c ee be 73 e6 56 be f5 9f 90 3e c4 a2 55 3f
       -0.4659189 -0.20986347 0.28247038 0.83451486
0001a0 e2 4a 31 3e 4f 49 db 3e e0 0a 83 3f 4e 67 5a be
       0.17313722 0.42829368 1.0237694 -0.2132847
0001b0 a8 c9 90 3e fe ab 92 3e 16 03 15 3f 48 9f 84 3f
       0.28278852 0.28646845 0.58207834 1.0361109
0001c0 33 f4 3b 3d d9 d3 06 bf 63 9e 96 3e e7 f0 8a 3e
       0.045887183 -0.52667004 0.29417714 0.2713692
0001d0 13 47 34 be 9b 7f dc bd b8 aa 23 3e 14 2b 1b 3f
       -0.17605238 -0.10766526 0.15983093 0.60612607
0001e0 cd 4a 62 3e 07 5c 96 3e a0 9e 41 3f 46 00 a4 be
       0.22098847 0.29367086 0.7563267 -0.3203146
0001f0 d7 75 2a 3e 17 4b c7 3e 25 1b d8 3e 00 ba 23 3f
       0.16646515 0.38924477 0.4220821 0.6395569
000200 b9 23 a5 be 5f a4 ee be 50 0c 88 bd 79 3d 81 3e
       -0.32253817 -0.4660978 -0.066429734 0.25242212
000210 c4 ec 1b be 8c 56 f2 bd 2c 2d f5 be 37 f6 01 3f
       -0.15227038 -0.11832914 -0.47886026 0.5076632
000220 28 cf a0 bd 80 ce 56 bf ba 33 17 3e 61 4f bc 3e
       -0.07852012 -0.83908844 0.14765826 0.3677931
000230 87 7b 86 bc 24 93 40 3c 4d 39 53 be 37 65 9f 3f
       -0.016416324 0.011753831 -0.20627327 1.2452763
000240 67 a9 3f 3d 35 b7 87 3d e6 1b 93 3d d1 7b f3 3e
       0.046792414 0.06626741 0.071830556 0.47555402
000250 8a 61 25 3e a2 0e 26 bf 4e 1f cf 3e 2f fd e6 3e
       0.1615049 -0.6486608 0.4045357 0.4511504
000260 f8 b4 28 bd 6b e9 67 3c a9 7b 5b 3f 93 40 e9 bb
       -0.04118821 0.014154772 0.85735565 -0.0071182935
000270 21 e6 c7 3e df 35 96 3e b8 70 d6 3e dc a2 21 3f
       0.39042762 0.29337975 0.41882873 0.6313913
000280 64 98 0f bd 66 20 06 3f 1a cd 11 3f 82 5c 71 bc
       -0.03505744 0.52393186 0.56953585 -0.014731528
000290 3a e8 03 be 96 a3 26 be f7 91 bc bd 31 c3 e6 3e
       -0.12881556 -0.1627334 -0.09207528 0.45070794
0002a0 14 b5 81 3e 3e e8 c0 bd 75 2a 9b 3d 4e 5b 80 3e
       0.25333464 -0.09419297 0.075764574 0.2506966
0002b0 82 b1 8a 3e d5 68 cc 3c 95 7e 5b bf a7 73 d9 3e
       0.27088553 0.024952332 -0.85740024 0.42471048
0002c0 1e 2a 1a bd 5d 54 b1 3d 26 80 53 3f 4a 6d 0d 3e
       -0.037637822 0.08658669 0.82617414 0.13811222
0002d0 7d 17 c2 3e 85 6a 03 3f b3 3c d1 3e fd 1f f6 3e
       0.37908545 0.5133441 0.40866622 0.4807128
0002e0 7a 63 25 3e f2 58 86 3e 08 56 4a be 43 82 0e 3f
       0.16151229 0.26239735 -0.19759381 0.55667514
0002f0 ab 2b 95 3e b2 09 23 be 6e 18 64 3e ab d9 00 3f
       0.2913488 -0.15921667 0.22274944 0.50332135
000300 0a 33 95 be 94 84 c8 3d e9 2b 1c bd d6 21 0a be
       -0.29140502 0.09790912 -0.038127813 -0.1348947
000310 95 f9 f6 be af 16 bc be ac 63 9b 3e 87 81 9a be
       -0.4823729 -0.36736056 0.3034948 -0.30176947
000320 b6 16 22 bf 2b dc 4c bf 34 56 1b 3e d9 4d a5 3e
       -0.63315904 -0.8002345 0.15169603 0.32285956
000330 2e 86 9f be cd d2 e3 be 2f c0 0a bf 7d d5 0e 3f
       -0.31157058 -0.44496766 -0.541995 0.5579451
000340 eb 8d f4 bd 82 33 a4 be 91 82 eb 3e aa 37 04 3f
       -0.11941131 -0.32070547 0.45998052 0.51647437
000350 12 4f 18 3f 7d c4 83 3e 3a a2 9a 3e fe 03 0b 3f
       0.5949565 0.25735846 0.30201894 0.54302967
000360 97 73 92 be d4 d0 08 3e c5 e0 2e 3d 18 81 c6 3e
       -0.28603813 0.13360912 0.042694826 0.38770366
000370 83 40 81 bd 02 9e bb be 23 52 b7 3e 76 8d 47 3e
       -0.06311133 -0.36643988 0.35804853 0.19487557
000380 ae f6 fd 3e 69 c8 78 be c5 6b 21 bf 2e 13 9f 3d
       0.49602264 -0.242952 -0.6305507 0.0776733
000390 82 cb 35 be 42 5a 6e bf 39 80 05 bf 2e 6b 56 be
       -0.17753413 -0.9310647 -0.5214878 -0.20939323
0003a0 cc 9e 6f 3e a5 64 3f 3c b8 d0 bd 3e 6b 54 5f 3e
       0.2340042 0.01168171 0.37073302 0.21809547
0003b0 af 21 93 3e 07 f8 c7 3c d7 42 6d bf fb 3f 8d 3e
       0.28736636 0.02441026 -0.92680115 0.27587876
0003c0 a4 0a d4 be ab 1d 97 be 65 1e ff 3d fc cf 91 3e
       -0.41414368 -0.29514822 0.12456969 0.28478992
0003d0 60 c0 39 3d 77 8a e1 bd c8 12 b8 be ae 8a 0f 3f
       0.04534948 -0.11012738 -0.3595183 0.56070983
0003e0 18 b2 0b bd 27 1c 2c 3e 6c 8b a0 be c7 91 ba be
       -0.03410539 0.16807614 -0.3135637 -0.36439344
0003f0 8f 91 9e bd 5f 7c 15 bf fe 5c b7 3a b7 a3 33 3c
       -0.07742607 -0.583929 0.0013989506 0.010964326

fc_layers.0.weight f4 [64, 16]
000000 e4 b3 a2 be 4c 65 e2 be 9b 80 24 be 5c c9 d1 3e
       -0.3177787 -0.44217908 -0.16064684 0.40973938
000010 1c 89 56 3d ee f2 12 bf 72 d5 19 bf d9 6e 93 be
       0.05237685 -0.5740193 -0.60091317 -0.28795508
000020 6e 2a 9c bd 08 97 00 be 56 2e 8e 3e 27 a3 81 be
       -0.0762528 -0.12557614 0.27769727 -0.25319788
000030 53 0d 0f bf a3 9e d3 be 91 08 6f 3e c1 01 6d 3e
       -0.55879706 -0.41331968 0.23343112 0.231452
000040 3f fb 4a bf cd 38 81 3e bf 04 b7 3c 32 6b c1 be
       -0.7928962 0.25238648 0.02234113 -0.37777096
000050 3c a8 8c be 34 a7 95 3e a4 c8 3a bc e7 a0 3a be
       -0.27472103 0.29229128 -0.0114003755 -0.18225442
000060 e3 5c 03 bf 9e d8 02 3e 94 0c b5 3e 51 3d 40 be
       -0.5131361 0.12777945 0.3536116 -0.1877339
000070 ed 4a ce 3e ea 74 b3 3d 00 68 25 3e 2a f6 44 bf
       0.4029154 0.08762534 0.16152954 -0.76938117
000080 ed ab ce 3e e4 63 44 3e 55 71 5d 3e d2 a0 64 3e
       0.40365544 0.1917873 0.21625264 0.22326973
000090 11 34 a2 3e 85 38 ad be 38 07 c1 3d 18 4e 22 3f
       0.3168035 -0.33832183 0.09425205 0.6340041
0000a0 dd 5a 19 3f 4c 0c a7 3d b1 48 99 3d 06 06 84 be
       0.5990427 0.08156642 0.07484568 -0.25785846
0000b0 ef d7 57 3f 4e e4 a8 3e be 2b 86 3e 70 4e e5 be
       0.84313864 0.32986683 0.26205248 -0.44786406
0000c0 b4 c2 29 3f 8a 26 1c 3e 22 37 93 bc d4 a2 41 3e
       0.6631272 0.15249076 -0.017970625 0.1890977
0000d0 cd 31 86 bf d2 34 84 be 6e 22 9a be 3c f0 f3 bc
       -1.0483948 -0.2582155 -0.30104393 -0.029777639
0000e0 f7 02 3d 3e 97 26 af 3d 5e 46 25 3f 84 3d d7 3d
       0.18458162 0.08552282 0.64560497 0.1050978
0000f0 b2 1e a6 be e5 c9 53 3e e2 de 21 be ba 59 e9 be
       -0.32445294 0.20682485 -0.1580768 -0.45576268
000100 29 a5 9f 3e 56 1e 05 3e d1 58 34 3e 49 28 49 3d
       0.31180695 0.12999853 0.17612006 0.049110685
000110 97 cf c8 3e 4a 56 df be 2f 18 d5 3c 99 29 01 3e
       0.39220878 -0.4362052 0.026012508 0.12613524
000120 6e e6 1a 3f 08 ba c0 bc f6 04 a7 bd 12 21 f1 bd
       0.6050786 -0.023526207 -0.08155243 -0.11773886
000130 73 bd 35 3e 4d 35 cb 3d 4a 78 31 3e 73 4c 7a 3d
       0.1774805 0.09922276 0.17331043 0.061108064
000140 65 f1 77 3e 52 f3 de 3d 96 68 3e 3e 0f 4f e8 3e
       0.24213178 0.108862534 0.18594584 0.45372817
000150 49 68 37 bf ae 3d ac be f8 3e de bc 13 d4 35 be
       -0.716435 -0.33640808 -0.027129635 -0.17756681
000160 17 8f 44 3e 73 1f 22 be 65 56 72 ba 9c f0 a0 bb
       0.1919521 -0.1583231 -0.0009244441 -0.0049114954
000170 1e ca f3 be fc f5 5e be b4 b8 c6 be 1d ce 0b bf
       -0.4761514 -0.21773523 -0.38812792 -0.5461138
000180 6d 71 97 3e 9b d8 12 be 33 26 bc be 7f b8 e4 3e
       0.29578725 -0.14340441 -0.36747894 0.4467201
000190 5c a8 20 3e 5a 61 99 be 43 99 3b 3e ac d6 ff be
       0.15689224 -0.29957086 0.18320183 -0.4996847
0001a0 4c fd 19 bf 17 16 a8 3e 70 8b a8 bd 9a d1 9e bd
       -0.60152125 0.32829353 -0.082297206 -0.07754822
0001b0 3e 84 56 be f5 de 8d bd cc ed 2f be 7a e8 72 3e
       -0.20948884 -0.06927291 -0.17180556 0.23721495
0001c0 6e e8 78 bd ac 50 2c 3d 55 e2 93 3d 61 21 ae bc
       -0.060768537 0.042069122 0.07220904 -0.02125615
0001d0 5e 78 da 3d 3d 59 e3 bc 7d c8 53 3c 9c e7 5e 3a
       0.106674895 -0.027752513 0.012926218 0.00085031404
0001e0 bc e8 2c 3d c6 05 83 bc 6a 3e 96 3c 69 b6 8e bc
       0.04221414 -0.015993964 0.018340308 -0.017420964
0001f0 2a f0 05 3d 45 00 11 bd bd f6 84 3d fc 9c 60 bc
       0.03269974 -0.035400648 0.06492374 -0.013709303
000200 a0 91 1a 3d b2 0d 5c bc 05 1d 10 3e c0 ff c3 bd
       0.037736535 -0.013431 0.1407357 -0.09570265
000210 48 e0 03 3e 09 ba a7 3b 55 2e 3d 3d 8c b8 74 bd
       0.12878525 0.0051186127 0.046186764 -0.05974631
000220 75 7b d0 bd 50 9e 7e bd 43 aa b9 3d 9c b8 5b bd
       -0.101797976 -0.062162697 0.09065678 -0.053642854
000230 c5 f7 78 3d e0 e1 39 bd c9 93 1e 3d 64 3f 43 3d
       0.060783166 -0.045381427 0.038715158 0.047667876
000240 ef 3c f1 be b1 1c 29 3e 0a 88 d7 3e a6 4a 65 bd
       -0.471168 0.16514851 0.42095977 -0.055979393
000250 f1 ea f4 be 60 3e 91 3e bd b3 9f be 70 09 35 bf
       -0.47835496 0.283679 -0.31191817 -0.70717525
000260 c0 d4 8e be 8a 72 01 3f 30 a0 bc 3e 1a b1 f1 bd
       -0.2789669 0.505654 0.36840963 -0.118013576
000270 ab 84 46 be a2 41 6c 3d fc 22 06 be 80 5f 6e bf
       -0.19386546 0.05767978 -0.13099283 -0.9311447
000280 ac 30 32 3f a0 d3 0c 3e 49 89 dd 3d 33 d4 04 be
       0.6960552 0.13752604 0.10817201 -0.12971573
000290 cf aa 5b bf b4 a1 00 bf a2 df 2f bf 55 44 c9 3d
       -0.8580751 -0.5024674 -0.6870061 0.098274864
0002a0 b6 60 b6 3e 15 54 46 3e c8 2d 1b 3f 5e 69 c8 3e
       0.3562066 0.19368012 0.6061673 0.3914289
0002b0 14 59 f7 3c d5 6b c2 3e ab 02 75 bd 13 05 04 bf
       0.030193843 0.37972894 -0.059816997 -0.5157024
0002c0 29 57 fe 3c 03 31 21 3e 4c 02 e2 3e 91 31 21 3e
       0.03104742 0.15741353 0.44142377 0.15741564
0002d0 39 d2 56 3e 90 21 d2 be 0e 84 89 3e 7c 95 bb bd
       0.20978631 -0.4104123 0.26858562 -0.09159371
0002e0 fd 0b f4 3c 1d 0b 11 3f 5d 2f 72 3d 7c c3 51 be
       0.029790873 0.5665758 0.0591272 -0.20484728
0002f0 1e 90 4d 3d e9 d5 db bd 63 b8 d2 3c ae 53 8d 3e
       0.05018627 -0.107341595 0.025722688 0.27602905
000300 69 48 bf be 4c 13 95 3c e5 a6 91 3e 29 18 24 3f
       -0.37359932 0.018197678 0.28447643 0.64099365
000310 12 a2 1a 3e 5e 55 96 be 51 62 67 be 32 cc f0 be
       0.15100887 -0.29362005 -0.22596098 -0.4703079
000320 00 54 a6 be 01 48 a1 3e 9d b1 00 3e cc b4 37 be
       -0.32485962 0.31500247 0.12567754 -0.17940062
000330 13 7f d2 be 82 3c db be 0a 90 90 3d be 98 ab 3d
       -0.41112575 -0.428196 0.07058723 0.08378743
000340 8f f5 5e be a5 ec ba be f9 6a 07 3f ff 67 2a be
       -0.2177336 -0.3650867 0.528976 -0.16641234
000350 ef 7b eb 3d ff 9f bd be e5 e1 b8 3e d4 56 10 3e
       0.11498248 -0.3703613 0.36109844 0.14095622
000360 80 1b 69 3e 96 bc fb 3e 2a 64 ae be d5 9e 35 be
       0.22764397 0.49167317 -0.34060794 -0.17736371
000370 94 29 1d 3e 90 ec a5 3e 1e 2a 44 3c e9 06 08 3e
       0.15347892 0.32407045 0.011972932 0.13283886
000380 30 1d 40 bf cb 81 3a 3e 3e 33 8d 3e 34 87 d5 be
       -0.75044537 0.18213575 0.27578157 -0.41704714
000390 42 65 18 bf f4 3e 66 3e 6f e6 36 be 65 ad 9c be
       -0.5952951 0.22484952 -0.17861341 -0.3060104
0003a0 6f 65 00 bf 08 7f f0 3e 8b 9c 32 3e c3 1a 01 bd
       -0.50154775 0.46971917 0.17442529 -0.031519663
0003b0 59 ea 2e 3e 47 34 94 3d ff 30 c4 bd 1f ae 8e bf
       0.17081584 0.072365336 -0.09579658 -1.1146888
0003c0 c8 01 74 3c 01 80 4d 3d 3c 09 ee 3c ca 83 cb 3e
       0.014893003 0.050170902 0.029057138 0.39748985
0003d0 a4 42 18 bf ae ed 59 3e 71 1b c4 bd 9a f8 20 bf
       -0.59476686 0.21282074 -0.095755465 -0.62879336
0003e0 95 44 c8 be 5a 4d 3c 3e ae e3 02 3e 97 c7 ac be
       -0.39114824 0.18388882 0.12782165 -0.33746025
0003f0 00 e3 11 bd e6 6a 59 bd 16 a3 92 bd 3f 7d 4d bf
       -0.035616875 -0.053080462 -0.071600124 -0.80269235

fc_layers.0.bias f4 [64]
000000 d8 5d 4b 3e 4d 9e e3 3d a2 8f 30 3e 49 2d 16 bf
       0.19860017 0.11114178 0.17242292 -0.5866285
000010 f2 e1 94 3e e5 1c ef be d5 bf 7d be 1c bb f4 bd
       0.29078633 -0.46701732 -0.2478021 -0.11949751
000020 30 44 5a be 42 f0 e9 bd 40 7e 15 bf e2 45 a5 3e
       -0.21315074 -0.11422779 -0.5839577 0.3227988
000030 2e fe 98 bc 42 bd 28 be 5c 35 0b 3e aa 6c 75 be
       -0.01867589 -0.16478446 0.13594574 -0.23967233
000040 97 b1 99 98 51 8a a6 3e 6b 20 42 be 95 a2 8d be
       -3.9728893e-24 0.32527402 -0.18957679 -0.27663103
000050 00 47 74 bd ab a1 55 be 30 df 35 3e ba 3d c7 3e
       -0.059638023 -0.20862453 0.1776092 0.3891428
000060 6e da b2 bd 75 3b dd 3e 1e 6d be 3e 90 02 eb 3e
       -0.087330684 0.43209425 0.37192625 0.45900393
000070 59 48 1f be 18 22 42 be f4 26 e9 3e d4 94 16 bf
       -0.15554942 -0.18958318 0.4553753 -0.58820844
000080 9e 67 4c 8a 8e 68 e6 3e 6b 21 a6 98 57 87 df 3e
       -9.841731e-33 0.45001644 -4.2943738e-24 0.43657944
000090 79 a3 eb 3d cf 13 12 bd f2 b5 b5 bd 1f 43 a9 be
       0.11505789 -0.035663422 -0.08872594 -0.33059022
0000a0 7c a0 36 b1 3d 81 e9 3e 11 f6 90 be 5b 8c e3 3e
       -2.657571e-09 0.45606413 -0.28312734 0.4444302
0000b0 e5 01 e1 3e 63 41 e6 3e bd 2d 07 be 2e 1c 85 bc
       0.43946758 0.4497176 -0.13201042 -0.016248789
0000c0 64 c8 9a be 24 d3 75 be 99 26 e7 bd b4 73 ef be
       -0.3023101 -0.24006325 -0.11286659 -0.46767962
0000d0 46 fb d8 be 15 b2 b6 be 4a 2f 45 be c3 c9 fa ba
       -0.42379206 -0.3568274 -0.1925632 -0.0019133616
0000e0 3e 2b c6 3e f5 44 c9 be d2 13 70 be 57 95 ac be
       0.38704866 -0.39310423 -0.23445061 -0.33707687
0000f0 63 27 72 bd 60 9e e7 3e 74 49 cb be 25 2d 2e 3e
       -0.059119593 0.45238018 -0.39704478 0.17009409

fc_layers.1.weight f4 [32, 64]
000000 e4 70 98 3e 2b f9 53 3e 30 5f 9b 3b 2e 6b 0a 3f
       0.2977363 0.20700519 0.004741572 0.54069793
000010 3f 3d 94 bc a0 1a 05 3e 53 86 fa 3e 28 ad 33 bb
       -0.01809561 0.12998438 0.48930606 -0.0027416442
000020 7a f8 27 bd df ff 25 3e 54 4b 4d 3f e7 60 c3 3d
       -0.04100845 0.16210888 0.80193067 0.09539967
000030 bf 5e e6 3d 83 56 0b 3f 74 a7 12 3e 64 a1 a3 3d
       0.1124854 0.5442888 0.14321691 0.07989767
000040 2b 07 61 01 d3 18 7d 3e c0 f5 93 bd e4 7e 08 3f
       4.1331116e-38 0.24716501 -0.072246075 0.5331862
000050 ce cc a9 3b fa fc 2d 3c 45 56 33 3e 82 3d 51 3e
       0.0051818853 0.010619396 0.17513378 0.2043362
000060 a7 56 58 3b 2a c9 f0 3d c1 16 83 3e bd 54 d5 3d
       0.0033010633 0.11757119 0.25603297 0.10416553
000070 1c f2 7e bd 30 73 08 bf d8 7e c7 3d cb ef b4 3e
       -0.062242612 -0.5330076 0.097409904 0.35339198
000080 bd 7c 6a 06 24 88 10 3e 2c 87 8a 97 b3 ac 97 3d
       4.4102152e-35 0.14114434 -8.952163e-25 0.07405987
000090 85 ea 40 3e 1f ed 0f 3a 0a f3 d1 be 81 b3 08 bf
       0.18839462 0.0005490351 -0.41005737 -0.533989
0000a0 9d 38 12 a9 8e 13 f9 3d ff d3 38 bf 58 ec e8 3d
       -3.2467617e-14 0.12161933 -0.7219848 0.11373204
0000b0 e7 83 94 3d 02 55 e9 3d 9f ae 01 bf 84 1b 1b 39
       0.07251721 0.11393167 -0.50657076 0.00014792202
0000c0 6b 52 f6 be 1c 01 95 bc 8e b6 bc bc 36 08 42 bf
       -0.48109755 -0.018189006 -0.023036268 -0.7579378
0000d0 e5 ac 38 bf 79 40 34 bf 50 09 ff 3d 66 9d 5a b6
       -0.72138816 -0.7041088 0.12452948 -3.257615e-06
0000e0 2f 17 19 3e c9 92 13 bf 95 cf 35 3f c0 19 56 bf
       0.1495025 -0.5764585 0.7101987 -0.8363304
0000f0 79 ed 2c 3f 0e a8 12 3e 90 78 f4 be 1e c2 c8 3e
       0.67549855 0.1432192 -0.47748232 0.392106
000100 cb 54 9f 3e e3 05 5a 3e 6b 07 3f 3c 65 73 0f 3f
       0.3111938 0.21291308 0.011659483 0.56035453
000110 2a eb 54 3c 4d 23 2d 3e 59 3e 15 3f f8 bd 75 ba
       0.012995521 0.16907997 0.5829826 -0.0009374316
000120 e8 05 26 bd 8c 1d 65 3e f5 a5 52 3f 9a 69 0c 3e
       -0.040532976 0.22374552 0.8228448 0.13712159
000130 83 51 22 3e 74 e5 15 3f 0d 36 1e 3e 23 59 e8 3d
       0.15851407 0.5855324 0.15450306 0.113451265
000140 15 02 08 01 07 3c 80 3e f4 17 15 be 50 ee 1a 3f
       2.498075e-38 0.25045797 -0.14559919 0.60519886
000150 67 f9 9d 3b a2 7d 71 3b 31 a3 4d 3e 9e b9 17 3e
       0.004820991 0.0036848565 0.20081784 0.14816901
000160 eb 1d a0 3b 97 eb 02 3e 40 63 8c 3e 24 ef cb 3d
       0.004886379 0.12785183 0.27419472 0.09957722
000170 79 18 9b bd a9 7b 10 bf 00 50 a2 3d c9 3f c1 3e
       -0.07573027 -0.5643869 0.07925415 0.37743977
000180 46 81 c3 06 8e 00 f1 3d f3 d2 fc 96 56 c9 99 3d
       7.35408e-35 0.11767684 -4.0845923e-25 0.07509105
000190 c9 67 43 3e c6 a5 f4 b9 b6 9b 0b bf 48 cd 0c bf
       0.1908256 -0.00046662817 -0.5453447 -0.55000734
0001a0 10 26 19 a9 3a 5e f2 3d 08 f5 34 bf 2b e4 04 3e
       -3.400584e-14 0.118343785 -0.7068639 0.12977664
0001b0 dc e5 e0 3d 67 f2 d8 3d eb d0 f8 be d8 f6 32 b8
       0.10981342 0.105931096 -0.48596892 -4.26684e-05
0001c0 1c 9e f8 be ce 5b 65 bc 45 58 4a bc 36 e5 49 bf
       -0.48558128 -0.013998939 -0.012350147 -0.78865373
0001d0 4e 51 4d bf 03 3f 3d bf 8a 96 31 3e 9d 25 e4 36
       -0.80202186 -0.73924273 0.17342582 6.7993083e-06
0001e0 e5 0a 40 3e e3 ca 0d bf 4b e1 3c 3f 80 a5 5d bf
       0.18754156 -0.55387706 0.7378127 -0.8658066
0001f0 7f e3 44 3f f8 9f 22 3e 30 1b 00 bf 90 96 ba 3e
       0.7690963 0.15881336 -0.50041485 0.36442995
000200 1b 22 20 8c 1a 96 97 8d 46 d6 3b 8d 00 3e b7 0a
       -1.2336215e-31 -9.342229e-31 -5.7881746e-31 1.7645581e-32
000210 da 63 12 8c c3 26 a7 89 85 89 75 8c 92 20 13 87
       -1.1277479e-31 -4.024024e-33 -1.8915497e-31 -1.1068622e-34
000220 6b 4e 1e 8a 13 6f 12 0d 63 64 f3 86 c0 97 c7 0c
       -7.622172e-33 4.5123424e-31 -9.1553946e-35 3.0752136e-31
000230 43 f5 1c 8c 3b 23 0c 0d d2 b7 75 0d 59 d2 3b 8b
       -1.2091609e-31 4.318324e-31 7.571772e-31 -3.6173138e-32
000240 b8 db 85 81 f2 4b 33 8d 11 9e 50 8d a7 92 ee 0b
       -4.9171765e-38 -5.525005e-31 -6.4285214e-31 9.1894923e-32
000250 d8 cc 85 81 78 aa 85 81 39 a2 27 8c 68 37 60 8d
       -4.915042e-38 -4.9101095e-38 -1.2914029e-31 -6.909202e-31
000260 e0 a1 85 81 76 45 22 8e 78 6c 9d 8d af a1 12 8e
       -4.9088763e-38 -2.0001486e-30 -9.701985e-31 -1.8073737e-30
000270 84 0d 71 8d 23 45 d4 8b e8 03 d7 8c 37 41 d3 0a
       -7.4280127e-31 -8.1763455e-32 -3.3128346e-31 2.0343092e-32
000280 23 a0 85 01 35 a1 a4 8d 58 ca 85 01 3e 39 42 8e
       4.908627e-38 -1.01460895e-30 4.9146833e-38 -2.3939907e-30
000290 11 03 2c 0d b0 ba 85 81 f7 67 31 8d d5 10 a9 0a
       5.3005283e-31 -4.912437e-38 -5.466748e-31 1.628044e-32
0002a0 b8 9b 85 01 12 77 2c 8e 81 dc a7 8d dc 42 10 8e
       4.907993e-38 -2.1257967e-30 -1.0345254e-30 -1.7781562e-30
0002b0 d0 86 6b 8b f9 e3 35 8e 2e eb 5b 8b e6 d1 85 81
       -4.5360775e-32 -2.2419737e-30 -4.2354795e-32 -4.9157673e-38
0002c0 2e e7 69 8c e2 87 c9 87 2a d1 6c 8a cf 47 d1 8c
       -1.8019235e-31 -3.0322983e-34 -1.1402326e-32 -3.2244767e-31
0002d0 e1 08 7c 0a 40 40 2b 8b ef 97 94 0c 38 c7 85 01
       1.21350286e-32 -3.2981738e-32 2.2894452e-31 4.914235e-38
0002e0 22 64 d6 0d 51 01 b6 09 31 a1 93 0c 5c 25 4a 87
       1.3212874e-30 4.3816144e-33 2.274595e-31 -1.520777e-34
0002f0 47 c4 03 8b 99 f5 09 8e dd 65 bf 8a 69 16 8e 8b
       -2.5377345e-32 -1.7004805e-30 -1.8430948e-32 -5.473013e-32
000300 5b d2 85 81 ef f4 85 81 14 8a 8b 81 58 84 85 81
       -4.915833e-38 -4.9207946e-38 -5.125867e-38 -4.904639e-38
000310 0d b7 86 81 2f 96 85 81 68 33 3c 80 f4 8e 85 01
       -4.948649e-38 -4.9071987e-38 -5.528571e-39 4.906161e-38
000320 63 a5 85 01 4a d1 85 81 3b c5 85 81 5f 99 85 81
       4.90938e-38 -4.91568e-38 -4.9139496e-38 -4.907656e-38
000330 2e e2 85 81 0f a8 85 01 21 ae d2 81 10 8c 85 81
       -4.9181036e-38 4.9097636e-38 -7.739168e-38 -4.9057464e-38
000340 04 d6 85 81 69 bc 85 81 74 bd 02 00 9e df 85 01
       -4.916358e-38 -4.912684e-38 2.51634e-40 4.917736e-38
000350 8e a0 85 81 52 91 85 81 c0 29 97 81 c6 49 8b 81
       -4.908687e-38 -4.906501e-38 -5.552855e-38 -5.1166396e-38
000360 f9 d1 85 81 65 d7 87 81 7e bf 85 81 be a1 89 81
       -4.915778e-38 -4.9900244e-38 -4.913126e-38 -5.055794e-38
000370 6f 99 85 01 e5 84 85 01 3c 7f 8b 81 2d df 85 81
       4.907665e-38 4.904718e-38 -5.124311e-38 -4.9176725e-38
000380 ba a3 85 01 f0 97 8b 81 7f 96 85 01 16 07 87 81
       4.909142e-38 -5.1278555e-38 4.9072435e-38 -4.9601336e-38
000390 6a 9e 85 81 19 8a 85 01 ae c0 85 81 df d3 85 81
       -4.9083797e-38 4.9054644e-38 -4.9132966e-38 -4.9160504e-38
0003a0 ab da 85 81 a2 70 89 81 79 d9 85 01 a9 e0 87 81
       -4.9170257e-38 -5.048747e-38 4.916854e-38 -4.991354e-38
0003b0 ed cf 85 81 3d 17 88 81 36 89 85 81 45 cd 85 01
       -4.9154843e-38 -4.9991855e-38 -4.905337e-38 4.915103e-38
0003c0 0d cb 85 01 ea c9 85 01 d0 bb 85 81 2b c9 85 81
       4.914785e-38 4.9146216e-38 -4.912598e-38 -4.9145146e-38
0003d0 1e aa 85 01 f9 c0 85 01 ae be 85 81 3f ca 85 01
       4.910059e-38 4.9133386e-38 -4.9130096e-38 4.9146693e-38
0003e0 7d d6 85 81 57 dd 85 81 b0 8b 85 81 9e 40 19 01
       -4.916426e-38 -4.917409e-38 -4.9056926e-38 2.8148022e-38
0003f0 8f cb 85 81 3f 4e 8b 81 5c 97 85 81 4c bd 8d 81
       -4.9148576e-38 -5.1172814e-38 -4.9073674e-38 -5.206685e-38

fc_layers.1.bias f4 [32]
000000 c1 bb 30 3b 92 d5 5a 3d d0 d3 47 8f 74 18 2c 82
       0.0026967379 0.053426333 -9.852251e-30 -1.2643582e-37
000010 85 c3 45 3c b4 de 85 81 aa d3 e0 8c 64 d4 d6 82
       0.012070541 -4.917605e-38 -3.4640055e-31 -3.156638e-37
000020 fb de 13 3d 5c fe 24 84 a7 0f 20 8b 68 c9 90 81
       0.036101323 -1.9394903e-36 -3.0826655e-32 -5.318625e-38
000030 4f a6 85 81 73 88 85 81 18 e0 a0 81 db c8 85 81
       -4.9095125e-38 -4.905228e-38 -5.9096276e-38 -4.91447e-38
000040 47 de 1f bc e1 69 5d 83 44 48 dc 3c e2 af 87 81
       -0.009757585 -6.5067606e-37 0.026889928 -4.984355e-38
000050 ae fc 8a 85 ec c7 85 81 73 66 49 85 e4 c8 c4 9b
       -1.3070277e-35 -4.914336e-38 -9.4697915e-36 -3.2555303e-22
000060 b1 5c 4e 85 38 90 96 81 ce 7d a5 3e 6c 76 ab 81
       -9.703098e-36 -5.530824e-38 0.32322544 -6.2985406e-38
000070 64 53 83 85 7f 07 36 3d 3f ac 85 81 f9 81 72 83
       -1.2349814e-35 0.044440743 -4.9103645e-38 -7.126661e-37
