checkpoints/neumf_first_try_Epoch32_HR0.6810_NDCG0.4074.model (torch, 645108 bytes, 13 tensors)

embedding_user_mlp.weight f4 [6040, 8]
000000 8b 5b 45 bd 3f eb 20 3f 80 0a 60 3f 42 a5 fe 3e
       -0.048183005 0.6285896 0.8751602 0.49735457
000010 fe f4 0e bf 06 65 3e be 13 f1 5a 3d 85 17 14 bf
       -0.5584258 -0.18593225 0.053452563 -0.5784839
000020 ea 87 b5 be c4 2b 3d 3e 97 b7 66 3e 6b eb f9 3d
       -0.35455257 0.18473727 0.22530971 0.122031055
000030 a8 31 0b 3e ff df 31 3c 7b 1c eb 3e 88 36 1c 3e
       0.13593161 0.0108566275 0.45920166 0.15255177
000040 7a d6 5f bd 06 cd cf 3e c2 cd 4d 3f 47 84 78 3e
       -0.0546479 0.40586108 0.80392087 0.2426921
000050 ec fb 34 bd f1 b8 f0 be 13 00 fe be bd 57 f6 bc
       -0.044185564 -0.470161 -0.49609432 -0.030071134
000060 09 03 91 3e 03 73 42 3f aa 44 86 3f e8 dc f5 3e
       0.28322628 0.75956744 1.0489705 0.480201
000070 92 b9 5b bf 6c c8 4f bf 1f 07 21 be 71 2c e1 be
       -0.8583003 -0.81165195 -0.15725373 -0.4397922
000080 9b 7e d3 be 6f 5f 40 3d 43 08 c6 be 7c b4 eb 3d
       -0.4130753 0.046966013 -0.38678178 0.11509034
000090 88 02 20 bf 69 93 49 be 71 19 0c bf b5 14 1e bf
       -0.6250386 -0.19685139 -0.5472632 -0.61750346
0000a0 0b 82 a6 bc b5 13 84 3a 9b 2f 24 3f e3 6e de 3e
       -0.020325681 0.0010076674 0.6413514 0.43443975
0000b0 93 f3 eb be d5 7c 5b be 8b 7b 33 bf f0 1e d3 be
       -0.4608427 -0.21434338 -0.70110387 -0.4123454
0000c0 09 91 9e 3c 94 cc 2d 3f c4 c1 40 3f 2e 7d 71 3f
       0.019356268 0.67890286 0.7529566 0.94331634
0000d0 75 23 cb be 22 e4 d9 be ba d7 d8 be 15 5d ae be
       -0.3967549 -0.42556864 -0.42352086 -0.3405539
0000e0 9e 1f e4 3a 4e 4c e5 3c e4 e4 0f 3f fe 8d 2b 3d
       0.0017404442 0.027990486 0.56208634 0.04188346
0000f0 df 8c 15 3f e5 73 39 bf cd 50 51 3e 33 50 d5 3d
       0.5841808 -0.72442466 0.2044098 0.104156874
000100 78 f2 82 be e0 37 b2 3e ae b4 fc 3e b2 7d e8 3e
       -0.25575614 0.34808254 0.49356598 0.45408398
000110 fc 90 09 bf 8b 9e d0 be 7f 0c d3 be 22 74 54 be
       -0.53736854 -0.4074596 -0.4122047 -0.20747426
000120 4e 2a 62 be 8f c6 21 be 82 c1 20 3d 84 d9 a6 bd
       -0.2208645 -0.157984 0.039247043 -0.081469566
000130 25 50 b0 be 42 6a ca 3d 99 7b 9a 3e b1 05 63 3d
       -0.34436145 0.09883548 0.30172423 0.05542535
000140 f4 26 35 3e 70 4f 61 bd 90 5c ef 3d 22 f7 fe 3e
       0.1769064 -0.055007398 0.11687577 0.49797922
000150 64 eb 05 be ea 88 c0 be e4 ed d7 3e 83 c4 99 bd
       -0.13078076 -0.37604457 0.42173684 -0.07508185
000160 50 e5 a5 3d fe 39 93 3d 38 8e 0c bb 1b bc 20 3f
       0.081003785 0.071887955 -0.0021447074 0.62787026
000170 f3 4d c8 3e da 25 7a bc 18 60 f6 3d f0 51 fe bd
       0.3912197 -0.015267814 0.12030047 -0.12417972
000180 23 18 bb 3d f4 0b a9 3e 1f 76 e5 3e ff 80 47 3d
       0.09135463 0.33016932 0.44816682 0.048707005
000190 6f 76 8c 3d 5b b1 36 bd 88 ce 72 3e 22 41 7d bd
       0.06858527 -0.044602733 0.23711598 -0.061829694
0001a0 98 c1 17 bf 2c 77 a4 be 14 56 97 3d bc 87 13 3f
       -0.59279776 -0.3212217 0.07389465 0.5762899
0001b0 f5 ac 32 bf 43 d6 93 be 1a e2 b2 be 16 28 ee be
       -0.6979516 -0.28874406 -0.34938127 -0.46514958
0001c0 01 cb ca be 3f 09 87 3d 0a 8d 09 3e b8 27 85 3d
       -0.39608005 0.065935604 0.13432708 0.065017164
0001d0 3c e0 15 bf ae 9a 03 bf b2 f6 00 3e 91 90 56 3e
       -0.5854528 -0.514079 0.12594107 0.20953585
0001e0 ed 3a ef be 20 1d 43 be b1 35 10 bf 0e 9e 12 3f
       -0.46724644 -0.19054079 -0.56331927 0.5727242
0001f0 c8 50 a0 bf 52 32 02 bf 10 ab 48 bf 39 80 44 bf
       -1.2524652 -0.5085803 -0.7838602 -0.7675815
000200 ad d2 2a be 92 87 91 be 72 eb 45 bd 93 16 15 3f
       -0.16681929 -0.28423744 -0.04832024 0.5823757
000210 d3 94 21 bf f5 4b 3d be 51 be 84 be a6 73 31 be
       -0.6311771 -0.18486007 -0.2592645 -0.17329273
000220 ea d6 8c 3e e8 95 7f be 1a c6 ad 3e 9c 65 93 be
       0.27507716 -0.24959528 0.33940202 -0.2878846
000230 18 ac b5 3e 77 ef c3 3e 0e c1 b5 3e b6 9c 29 be
       0.3548286 0.38268635 0.35498852 -0.16563687
000240 c6 11 a7 be a9 a9 0a 3f 3d 54 d6 bd 99 64 cb be
       -0.32630748 0.5416513 -0.10465286 -0.39725187
000250 7e 4f 1d bf 9d d1 f5 bc c8 be bf 3c 2b db 05 be
       -0.6144942 -0.030007178 0.023406401 -0.13071887
000260 29 04 19 be 4b e9 14 3f 1d 06 24 3e 1b 67 2f 3e
       -0.14942993 0.58168477 0.16017957 0.17129175
000270 78 f1 3e bf ea bd e6 3d f3 c0 1a bf 8b 50 7c be
       -0.745872 0.11266692 -0.6045067 -0.246401
000280 13 f4 5d bf ce 68 00 be 40 78 b0 3e 8f d8 3a 3e
       -0.8670055 -0.1253998 0.34466743 0.18246673
000290 63 a6 48 be c2 c6 8f bd 97 ae 54 be e4 34 91 3d
       -0.19594721 -0.07020332 -0.20769726 0.07090166
0002a0 9f 75 d6 3d dd 9d bb 3d 1a 59 0d be a3 be 14 3e
       0.10471653 0.091609694 -0.13803521 0.14525847
0002b0 8b eb 46 3e 71 62 8e 3e 23 38 34 be 01 97 8d 3e
       0.1942579 0.2780948 -0.1759954 0.2765427
0002c0 40 5f 8e 3d 5e f3 d6 bd 4d d1 c3 be ae 87 11 3e
       0.06951761 -0.10495637 -0.3824562 0.14211914
0002d0 7e a9 a1 be 67 38 6f be 17 2d c8 be 8a 65 28 be
       -0.31574625 -0.2336136 -0.390969 -0.16444984
0002e0 55 f8 1c bf 2d 69 35 3d 46 61 9c 3d 47 4b e9 bd
       -0.61316425 0.044289757 0.07635741 -0.11391311
0002f0 36 06 ec bd ce 27 3f 3d 2f 14 95 be 2e 5a 72 be
       -0.11524622 0.04666882 -0.2911696 -0.23667213
000300 88 e8 1e bf 41 dd f1 be 3a 16 ec 3d 59 07 1e 3f
       -0.62073565 -0.47239116 0.11527677 0.6172996
000310 9b 3a c1 be 0f 86 c6 bd 40 a8 d0 3c 23 df 4c bf
       -0.37740025 -0.096935384 0.025470853 -0.8002798
000320 3c 55 ae 3e e6 ef de bd 30 5c e1 3d 4f 27 8e 3b
       0.34049404 -0.10885601 0.110039115 0.004338182
000330 0e 8d b1 3e 7b d5 7e 3e 0e d9 8d bd 52 67 1c 3f
       0.3467793 0.24886124 -0.069261655 0.61095154
000340 e6 f2 9c bd a2 b1 de 3e a6 4b 3d 3e 46 52 a7 3e
       -0.07663517 0.43494898 0.18485889 0.32679957
000350 a5 be 0f bf b0 5f aa be f3 9a 02 bf 84 14 88 3e
       -0.56150275 -0.3327613 -0.51017684 0.26578152
000360 40 bb df 3e e3 0e 88 3d 55 28 90 be 74 9c de 3e
       0.43697548 0.066434644 -0.2815577 0.4347874
000370 5d 6f 41 bf 71 b6 c8 be bd 37 bf be 17 27 60 be
       -0.7556055 -0.39201692 -0.37347212 -0.21889912
000380 8d ee e5 bd 1e 42 35 3f 84 5e 2b 3f b8 d9 ba 3e
       -0.112271406 0.7080401 0.66941094 0.3649423
000390 7b f1 17 3e ed 41 c2 3e 4a 3a 43 be 40 8d a6 be
       0.14838211 0.37940922 -0.19065204 -0.3252964
0003a0 68 b2 a5 3c 70 86 9b 3e e6 11 12 3f b0 95 97 3e
       0.020226672 0.30376005 0.5705856 0.2960639
0003b0 7e 3f b3 be 4b ce a7 be 1b 05 63 be fb 3c 64 bf
       -0.35009378 -0.32774577 -0.22169916 -0.8915555
0003c0 0c bf 4c be 35 4b 91 3e 3f 18 d0 bd 99 9b 2f 3f
       -0.19994754 0.2837769 -0.101608746 0.685968
0003d0 e5 97 62 be 53 8c 20 bf 71 e1 4f bf a6 bc 49 bd
       -0.22128256 -0.6271412 -0.8120337 -0.049252175
0003e0 f3 fe ea 3d e5 15 a4 3e a7 70 00 3e 25 13 cc 3e
       0.11474409 0.32047954 0.12542973 0.39858356
0003f0 11 be 6f bf 4e 47 dc 3d 19 d0 d0 bd 74 5b c5 be
       -0.93649393 0.10755788 -0.101959415 -0.38546336

embedding_item_mlp.weight f4 [3706, 8]
000000 83 c2 8a bf 9b 48 aa bf 4a bf a9 be 0a fa da 3f
       -1.084061 -1.3303407 -0.33153754 1.7107556
000010 92 c3 a2 3f ed b3 a8 3f 64 72 47 bf 26 f5 9b 3d
       1.2715933 1.3179909 -0.7790892 0.07615118
000020 39 b7 39 bf b6 a7 a5 be 56 55 7d be fc 1b f1 bc
       -0.725452 -0.32354516 -0.24739584 -0.02943229
000030 1d b6 ae 3d d5 0d b4 be 25 79 0e bd 09 58 c6 3e
       0.08530829 -0.35166803 -0.0347835 0.3873904
000040 d7 fb b4 be 9b 03 33 3e 8f 88 e2 be 1c f0 68 3d
       -0.3534839 0.17481844 -0.4424481 0.05686961
000050 70 5b a4 3e bf 09 e8 3e ea 4f d4 bd af d2 2b 3e
       0.3210101 0.45319936 -0.10366805 0.16779588
000060 ff a1 4e bf fe 19 48 bf f2 b5 1c bf ad 60 10 3f
       -0.80715936 -0.7816466 -0.61215127 0.56397516
000070 0f 39 5d 3e e0 e8 93 3f e5 64 58 bf d5 f3 57 3f
       0.21603797 1.1555443 -0.8452895 0.84356433
000080 76 5f 04 bf cf 8f b6 bf 07 09 7e bf e6 09 0c 3f
       -0.5170816 -1.4262637 -0.99232525 0.54702604
000090 2b be da 3e f7 7d f2 3e d1 15 72 be 5b ab 92 3f
       0.42723212 0.4736173 -0.23641135 1.1458544
0000a0 32 9a 62 bf bf 7e 46 bf ec 4a b3 be a4 00 07 bf
       -0.88516533 -0.7753715 -0.35018098 -0.5273535
0000b0 de 72 d4 3e a2 d0 8e 3f 17 c9 66 be bb 5e e6 3e
       0.41493887 1.115742 -0.22537647 0.4499415
0000c0 f7 fb 9b be 70 23 12 be a3 0c b2 bd fd 13 a0 be
       -0.3046567 -0.14271331 -0.086938165 -0.3126525
0000d0 45 11 c9 3d e0 d2 54 3d 53 52 60 3d 62 ff e0 bd
       0.09817747 0.05195892 0.05476601 -0.109862104
0000e0 f2 ed 3e be 74 f5 ef be 92 b2 20 bd 4a 87 bd be
       -0.18645456 -0.46866953 -0.039232798 -0.3701728
0000f0 56 4a 07 3f bf 39 cd 3e a3 78 8d 3d af 19 8b 3a
       0.528478 0.4008312 0.06907775 0.0010612513
000100 14 50 ca bd 92 0b 81 3e 2d 49 a6 be 7d 7f c9 be
       -0.09878555 0.2520414 -0.32477704 -0.39355078
000110 7a 5e 92 3d fe 5a 47 be 39 01 fd bd 51 dc 1d 3e
       0.07146926 -0.19468305 -0.12353749 0.15416075
000120 6c a9 03 bf ff be f5 3c 8f 2f 9e be 82 d7 d5 3e
       -0.5143039 0.0299983 -0.3089566 0.41765982
000130 5f da df 3d b2 18 39 3f 08 91 84 be 9c 60 2c bc
       0.10930323 0.7230331 -0.258919 -0.01052108
000140 09 b0 f7 bd 09 ae 1b be 25 d6 4b be 56 70 90 be
       -0.12094123 -0.15203108 -0.19905908 -0.28210706
000150 a5 d4 66 3e 4c a0 97 3d c8 b8 99 be cf f5 89 3d
       0.22542055 0.07403621 -0.3002379 0.067363374
000160 62 e0 20 be d1 b3 92 3e ed 75 8c bd e3 d2 34 bc
       -0.15710595 0.28652814 -0.0685843 -0.011036607
000170 62 02 5e 3e 7a 2a 92 be e0 38 b3 bd dc 74 53 3e
       0.21680596 -0.28548032 -0.087510824 0.20650047
000180 6b 2f f0 3d f0 86 b0 3e 84 3b 21 3d c2 da 51 3d
       0.11727794 0.3447795 0.0393634 0.051234014
000190 52 26 d0 be 0e 88 4b 3d 0e b1 1c 3e 27 4f 9e bd
       -0.40654236 0.0496903 0.15301916 -0.07729941
0001a0 e0 54 06 3f 11 e0 be 3d 99 66 6a be 7b 4b ca be
       0.5247326 0.09320081 -0.228907 -0.39510712
0001b0 46 80 b0 be 76 2e fc 3d 9c af 51 3d 2a 12 30 3e
       -0.34472865 0.12313549 0.051192865 0.17194429
0001c0 7b bd 51 bf 32 ef c8 bd 9b 7a f0 be d2 80 1c 3e
       -0.8192975 -0.09811248 -0.4696854 0.15283516
0001d0 a8 f8 e2 3d dd 44 33 bd 78 54 f9 be 68 f8 e3 3e
       0.11082584 -0.043766845 -0.48697257 0.44525456
0001e0 07 c2 52 bf fa db aa be cd ff f7 be d7 e8 48 3e
       -0.8232731 -0.33370954 -0.48437348 0.19620071
0001f0 55 3b b1 bd 8e 16 e3 3d d4 3d 92 be 46 33 a5 3e
       -0.08653895 0.11088286 -0.28562796 0.3226568
000200 f4 ec 2b 3f 10 57 78 bf ed 7c 1b be 41 19 2b bf
       0.67158437 -0.97007847 -0.15184374 -0.6683541
000210 27 67 00 3f 8e 68 19 3e af 08 49 be 7e 44 ca 3e
       0.501574 0.1498129 -0.19632219 0.3950538
000220 6b ae b5 3d 0e a3 9e 3d 68 cc ee be e9 40 e6 be
       0.08871158 0.07745944 -0.46640325 -0.44971398
000230 60 9e e5 3e 2a 58 7c be f0 a9 67 3e be 61 48 be
       0.44847393 -0.24643007 0.2262342 -0.19568536
000240 b7 0d 67 be f6 52 fc bd 03 66 5f 3e 60 bd 3f 3e
       -0.22563826 -0.12320511 0.21816258 0.18724585
000250 bf 6a 5b bc a4 d7 38 be f9 c0 89 3e cc 9d c5 be
       -0.0133921495 -0.1805101 0.2690504 -0.38596952
000260 6d 92 5e be 8d a5 36 be 10 18 81 be e0 34 32 be
       -0.21735545 -0.1783659 -0.2521367 -0.17402983
000270 1e 14 a9 bd 62 e7 ee 3e 51 91 38 be c1 6b 6c bd
       -0.0825579 0.46660906 -0.18024184 -0.05771995
000280 7d 51 86 be b5 c2 44 3e cb 69 84 3e b1 9b e5 3e
       -0.26234046 0.192149 0.25861964 0.44845346
000290 0c 3c b4 3e b1 67 57 3e c4 64 01 bf f8 21 6b 3e
       0.35202062 0.21035649 -0.5054438 0.22962177
0002a0 c5 42 c5 3e 60 ce ed be c2 a2 33 3e 0f e9 c6 be
       0.38527504 -0.46446514 0.17542556 -0.38849685
0002b0 54 1b cd 3e 4d 87 bd 3e 7d 65 0d 3f 92 7d 26 3d
       0.40059912 0.3701729 0.55232984 0.040647097
0002c0 0e c3 72 be d0 a5 44 bf 92 55 1a bf 92 a0 58 3f
       -0.2370722 -0.7681551 -0.6028682 0.8462001
0002d0 c2 33 cc 3e 7d d2 45 3f 13 a5 2f bf b3 8f b1 3e
       0.39883238 0.77274305 -0.6861126 0.34679946
0002e0 bf 6a 67 bf 61 f8 98 bf 9d 27 43 bf 06 d1 9f 3f
       -0.90397257 -1.1950799 -0.7623232 1.2485664
0002f0 d5 05 87 3f 25 dd 40 3f b1 e3 30 bf a1 03 ed 3d
       1.0548655 0.7533744 -0.6909743 0.11572958
000300 25 a0 0b 3d c6 80 bb be e7 4b d9 3e 0c b9 1b bd
       0.034088273 -0.36621684 0.4244072 -0.03801827
000310 eb c5 cd 3b 47 9d 9f 3e 39 4e 4d 3c 34 d2 8f 3e
       0.006279697 0.3117468 0.012530857 0.2809006
000320 89 3f f7 bd e0 aa c0 3d fa f5 c4 bd e6 63 97 be
       -0.12072665 0.09407592 -0.09617229 -0.29568404
000330 7d a4 00 3e 37 62 25 be e4 e9 b9 3e 33 c4 5d 3d
       0.12562747 -0.16150747 0.36311257 0.05414219
000340 0a 5d c5 be de 3e 7e bf d1 51 14 bf ca a4 19 3f
       -0.38547546 -0.9931468 -0.5793734 0.60017073
000350 29 fa a9 3e 85 d7 39 3f 2e 44 17 bf 61 95 90 3e
       0.3319867 0.7259448 -0.5908841 0.28238967
000360 f1 4a 2c bf 74 68 23 bf b6 e5 b5 be 0d 10 4f 3f
       -0.6730185 -0.6383126 -0.35526818 0.80883867
000370 69 2b a5 3f ed b7 8b 3f cb 38 1e bf 0b ca 16 bd
       1.2903873 1.0915505 -0.6180541 -0.036813777
000380 08 90 95 3e 49 15 7d be 68 7f f3 3e fc 4f 2d bf
       0.2921145 -0.24715151 0.4755814 -0.6770017
000390 97 92 5d be 55 4b 36 3e 1f 31 c8 3e 44 52 74 be
       -0.21637951 0.17802174 0.39099976 -0.23859507
0003a0 ba a4 77 3e cb dc 10 bf 56 52 4f 3e 41 d8 99 be
       0.24183932 -0.56586903 0.20246252 -0.300478
0003b0 e7 77 81 3f 07 dc b1 3e b9 f5 82 3d 6c 99 ce 3e
       1.0114716 0.3473818 0.06394524 0.40351427
0003c0 b8 5e 8f 3d cd e0 b2 be 10 78 77 be cc 57 e0 3d
       0.07000488 -0.34937134 -0.24166894 0.10954246
0003d0 26 ea 8e 3e 87 45 dc bd 89 61 d5 3d 94 06 23 be
       0.27913016 -0.10755449 0.10418994 -0.15920478
0003e0 2b 27 15 be d0 1d 24 bf ee dc 93 3e 32 ee e8 3e
       -0.14565723 -0.6410799 0.28879493 0.4549423
0003f0 1d af 16 3e be a9 92 3f e0 1f fe bd b6 03 24 be
       0.14715238 1.1458051 -0.124084234 -0.1601704

embedding_user_mf.weight f4 [6040, 8]
000000 76 37 65 3d e5 fd 08 3e b7 00 67 be 99 c8 11 3f
       0.055961095 0.13378103 -0.22558866 0.5694671
000010 a9 66 fc bc 59 d4 0a bf ef da 84 bd ed 35 b8 bf
       -0.03081067 -0.54230267 -0.06487071 -1.4391457
000020 ec 42 7a bd c3 73 dd be ac 91 da 3d 0f 51 ab 3f
       -0.061098978 -0.43252382 0.10672316 1.3384112
000030 67 94 23 3e 11 9f 9f 3d 8d 57 b7 3e 03 96 65 bc
       0.1597458 0.077940114 0.35808983 -0.014012816
000040 ac ea f9 3e b7 5c 3d bf 85 c5 e6 bd d2 d7 33 bd
       0.48811853 -0.73969597 -0.112681426 -0.043906994
000050 c2 85 d6 3d 45 63 59 3f 78 83 9c 3e d2 11 58 bf
       0.10474731 0.849171 0.30569053 -0.8440219
000060 e4 a6 55 be ad 7b ea bd 5f 32 0a 3f 74 cd 4d 3f
       -0.20864445 -0.114493705 0.5398311 0.8039162
000070 39 8b 0c bf 44 f2 81 3f 77 8d 0a 3f 79 e5 07 bf
       -0.54899937 1.0152059 0.5412211 -0.5308452
000080 18 d1 ba bc 5e 93 01 bf 57 b5 4e bd 8e 75 be 3e
       -0.022804782 -0.5061549 -0.050465908 0.37199062
000090 8c 67 84 bf a7 96 1a bf b7 5c f6 be b3 08 0f 3d
       -1.03441 -0.6038613 -0.4811761 0.034920406
0000a0 91 aa a8 3e bb 6f 10 3e 7a 31 13 bf 56 03 25 3f
       0.32942632 0.14105122 -0.5749737 0.64458215
0000b0 72 c9 35 3f aa 7a 3d 3c 10 c3 fb 3e 75 76 b1 be
       0.71010506 0.01156489 0.49172258 -0.34660688
0000c0 17 88 46 3f 26 52 4e bf d2 44 29 3f 65 b0 f7 3e
       0.77551407 -0.805941 0.66120636 0.48376766
0000d0 6f a5 18 bf ed 10 64 3f 50 9d c3 3e f3 20 df be
       -0.5962743 0.89088327 0.38205957 -0.43579826
0000e0 c4 d4 07 3f 23 a3 5c bf df c1 ba 3e 6c bc 76 3f
       0.5305903 -0.86186427 0.36476037 0.9638126
0000f0 f5 b6 62 bf 02 e9 51 bf fc 15 2b be 09 12 16 be
       -0.8856042 -0.81996167 -0.16707605 -0.14655317
000100 de c7 80 3e b9 a4 a0 bf 05 58 ab 3e 8d 05 6f 3f
       0.25152487 -1.2550269 0.3346559 0.93367845
000110 e3 2b ab be f1 c1 07 bf 74 ce f0 be 61 69 5c bf
       -0.3343192 -0.53030306 -0.4703251 -0.86098295
000120 85 2b 8f 3e 02 59 9f 3e 4e a9 3d bf bf b9 ee 3e
       0.2796289 0.31122595 -0.74086463 0.46626088
000130 1a 70 28 3e f4 a7 94 3e c6 8a 7e 3d 1f 40 2b bf
       0.16449013 0.29034388 0.062144063 -0.66894716
000140 66 12 a8 3d e9 fd 4c bf e4 84 11 bf 2e 02 a6 be
       0.08206634 -0.80074936 -0.568434 -0.32423538
000150 e2 b2 c8 be ac cd f6 be e7 23 cd 3c 47 a1 5a bf
       -0.39198977 -0.4820379 0.025041534 -0.8540234
000160 5f 1c b6 be cd d9 0d bf a3 da 8b 3e 69 e6 60 3d
       -0.3556852 -0.5541046 0.27315244 0.054907236
000170 60 b3 a7 bd a7 f8 14 3f 87 3e 91 be 9b 61 39 bf
       -0.0818851 0.58191913 -0.28368017 -0.7241456
000180 50 ef 00 3f f1 e1 e3 3c 0b df 9b be c0 a1 ab 3f
       0.5036516 0.027817698 -0.30443606 1.3408737
000190 3e 5b 01 be 26 8b 28 3f 15 2a 0f 3d 1d aa 56 3e
       -0.12632462 0.65837324 0.034952242 0.2096333
0001a0 36 04 83 be 0c 99 36 be 3a 87 91 3d f3 1a ab be
       -0.2558915 -0.1783182 0.071058705 -0.33418998
0001b0 b5 0d f0 be ab 8b 82 3c 91 8a a7 3e 78 b8 bc be
       -0.46885458 0.01593574 0.32722905 -0.36859488
0001c0 c1 0f 33 3f c3 44 75 bf 51 9e bf 3e c4 77 bb 3e
       0.69945914 -0.9580805 0.37425473 0.3661481
0001d0 1f 72 d6 3a f7 64 06 be c2 02 fe 3e 70 6f 0e bf
       0.0016360915 -0.13124453 0.4961148 -0.5563879
0001e0 d8 d6 34 3f 03 cb 96 3e 71 33 96 be fa e2 7b 3e
       0.70640326 0.2945176 -0.29336122 0.24598303
0001f0 d7 e5 ca 3e 3d 35 db bd f7 75 89 3e fd 55 01 3e
       0.3962848 -0.10703514 0.26847813 0.12630458
000200 e3 70 0a 3e 89 ac 25 3d 91 a9 3c 3e 92 9c ce 3e
       0.13519625 0.040447745 0.1842406 0.4035383
000210 77 8d 4f bf 74 69 a4 3e 90 13 5f be 98 53 18 3f
       -0.81075233 0.32111704 -0.21784806 0.59502554
000220 e5 6a 14 3f 05 d3 14 bc 48 e9 6c be c2 ba 7c 3f
       0.5797561 -0.009083514 -0.23135865 0.9872247
000230 2a 4e af be 11 4f d8 3d 75 60 3e be d9 7a fd be
       -0.34239322 0.10561956 -0.18591483 -0.49507788
000240 e1 b5 fc 3e 55 66 0d 3e df 7e 86 3e fa 94 f5 bd
       0.49357513 0.13808568 0.2626867 -0.11991306
000250 f3 7f 8c be 4d 25 45 3f 9a f8 84 3d 0f 18 5a bf
       -0.27441368 0.7701004 0.064927295 -0.8519296
000260 7a c2 de 3e f9 68 58 bf 5d 5f 37 3e 9a c6 04 3e
       0.4350775 -0.84535176 0.17907472 0.12966385
000270 52 f2 e5 be c0 71 13 3f 97 0c 0d be 7d e7 af be
       -0.44911438 0.57595444 -0.13774334 -0.343563
000280 f0 06 49 3f 96 b6 9a 3e 6c 67 45 be ef c0 49 3e
       0.7852621 0.30217427 -0.19277734 0.19702505
000290 b2 26 e5 be 51 5d 95 3e 55 28 3d bf a5 52 1e bf
       -0.44756085 0.29172757 -0.73889667 -0.61844856
0002a0 7b 03 17 3f a8 19 18 bf fa be a1 be b8 3c 80 be
       0.58989686 -0.5941415 -0.31591016 -0.25046325
0002b0 58 b8 3a bf 10 ea d9 3e ca 19 29 3d a5 28 14 bf
       -0.72937536 0.42561388 0.04128436 -0.5787452
0002c0 c6 16 f2 3c 18 dd 5e be de 3e 70 be 03 74 82 3e
       0.029551875 -0.21764028 -0.23461482 0.25479135
0002d0 4c 66 8a bf a0 1b 19 3f b7 86 04 be 53 7f a6 3e
       -1.0812469 0.5980778 -0.12942015 0.32519016
0002e0 97 37 cd bd 02 34 d6 be 2d e4 52 bf 1d 2f b3 3e
       -0.100203685 -0.41836554 -0.8237942 0.34996882
0002f0 c5 05 b7 be 3d 8c 3c be 07 51 96 3e ca 81 2c be
       -0.3574659 -0.18412872 0.29358694 -0.16846386
000300 a4 45 42 3f 46 66 ce be 1b ea ec bd 44 1c 0f 3f
       0.75887513 -0.40312403 -0.115680896 0.55902505
000310 1a 45 d3 be 6f be 11 3f 79 18 15 bf f8 2a a9 be
       -0.41263658 0.56931204 -0.5824047 -0.33040595
000320 5a ed 0d 3f 7e f0 b6 be 7e 7d 4b bf 34 9d b8 3d
       0.55440295 -0.35730356 -0.7948836 0.09014359
000330 0c b1 f7 3d 88 b1 67 be 1f 73 75 3f c5 57 b3 be
       0.12094316 -0.22626317 0.95878786 -0.350279
000340 a3 9b f5 be d4 67 cf 3d d4 66 5a be e4 83 db 3e
       -0.47970304 0.101272255 -0.21328288 0.42874062
000350 f7 af 76 be 99 e7 f0 3e 07 20 db bd 9a 1a 04 bf
       -0.24090563 0.47051695 -0.10699468 -0.5160309
000360 03 3f 9c be 7a 17 13 3e 73 43 a6 be 52 6e db 3e
       -0.30516824 0.14364424 -0.32473335 0.42857605
000370 1e c3 0f bf 67 5a 45 be 63 47 bb 3b 25 0a 1a bf
       -0.561571 -0.19272767 0.005715297 -0.6017173
000380 1b 27 b5 3d 86 9c 48 be 52 76 1f 3f 8d 09 21 3f
       0.088453494 -0.19590959 0.6228992 0.629052
000390 ed ad 76 be d6 92 a8 3f f2 86 09 3f a3 58 82 3e
       -0.24089785 1.3169811 0.53721535 0.2545825
0003a0 bc 85 3c be 52 c5 b4 be 6d 25 88 3e f0 72 f2 3e
       -0.1841039 -0.35306793 0.26591054 0.47353315
0003b0 27 af 1f bf 74 22 27 bf 97 f1 46 be 04 64 cd be
       -0.62376636 -0.65286946 -0.19428097 -0.40115368
0003c0 c7 f4 93 be 2a 8a 51 be 61 b5 89 bf 0e 56 88 be
       -0.28897688 -0.20462862 -1.0758477 -0.26628155
0003d0 c4 83 36 3f de 8d 52 3f 42 9f 7a 3e ef 53 b6 be
       0.7129481 0.8224772 0.24474815 -0.3561091
0003e0 d1 f3 d1 bd c9 47 b1 be 66 30 ef 3d b7 7b 03 3f
       -0.102515824 -0.3462508 0.11679153 0.5136065
0003f0 02 d8 c6 be de 89 d8 be 9e 6e a0 3d 3c 5f d3 bd
       -0.38836676 -0.42292684 0.078335986 -0.10320899

embedding_item_mf.weight f4 [3706, 8]
000000 d1 00 e8 3e 34 d2 ca bc 95 94 5a be 50 6f 70 3e
       0.45313123 -0.024758436 -0.21345742 0.23479962
000010 99 dd 40 3e 8d ea 79 3d 98 ef da 3e fe dc f0 3e
       0.18834533 0.0610147 0.4276092 0.47043604
000020 5e 89 1e be 4e 51 24 bf 76 4d dd 3d 23 d8 0e 3e
       -0.15482089 -0.6418656 0.1080579 0.13949637
000030 21 45 34 3e e6 4c f8 bd 90 82 43 bf f7 ff 02 3f
       0.17604496 -0.12124042 -0.763711 0.5117182
000040 f2 f2 38 3e f0 be 88 bf a9 f6 94 3e 48 c5 0c 3f
       0.18061426 -1.068327 0.29094437 0.5498853
000050 9c be 07 bf 67 fd 9c be 62 11 21 3e 37 4c 96 3e
       -0.5302522 -0.3066208 0.15729287 0.29355022
000060 2a 4f ce 3c 93 58 90 3e 61 6d 97 be 60 e6 11 bd
       0.025184233 0.28192577 -0.29575637 -0.035620093
000070 b7 60 f0 be 27 e4 d7 be 47 04 9c 3d e6 fb 22 3e
       -0.46948788 -0.42166254 0.07618003 0.15916404
000080 1e 51 89 be 27 d0 e1 3d 3e 52 ac 3e 8b b6 cb 3d
       -0.268197 0.1102603 0.33656496 0.09946927
000090 a1 7e 16 be 13 3e 66 bc 2e 10 a3 be 74 a2 1a 3f
       -0.14696743 -0.014052886 -0.31848282 0.60404134
0000a0 66 82 9a bd 5a b1 5a 3e d3 b1 51 3f 3b 68 92 3e
       -0.07544403 0.21356717 0.81911963 0.28595147
0000b0 7b 21 d6 3e 38 70 d4 3e fd bd af 3d 5c 99 b2 3e
       0.4182242 0.41491866 0.08581159 0.3488263
0000c0 05 65 6f 3e 72 25 d6 be 80 c4 92 be 00 b5 48 3f
       0.2337838 -0.41825444 -0.28665543 0.78401184
0000d0 55 5c e2 be ea fc 1d 3f c0 6a 3b 3e c9 95 f8 3d
       -0.4421107 0.6171404 0.1830244 0.12137944
0000e0 d3 66 5e 3e 52 37 13 3e a6 03 fa 3e b4 7f 6c be
       0.21718912 0.14376572 0.4883091 -0.2309559
0000f0 fc bd b0 3e 65 7d 84 3e 4a f8 b5 3e 41 57 7a 3f
       0.34519947 0.25876918 0.35540992 0.9778939
000100 37 d3 34 be 60 8c 97 bf 1f 22 77 3e d8 f5 ea 3e
       -0.17658697 -1.1839714 0.2413411 0.4589069
000110 ef 86 02 3d bd ee d4 3d 5b f7 d7 be 22 01 b6 3f
       0.031866964 0.10397098 -0.42180905 1.4219096
000120 ce 3e 80 3e 82 d0 fe be 8f 1f 99 3e 22 95 4d 3f
       0.25047916 -0.49768454 0.2990689 0.80305684
000130 5b 24 97 3e 7c f4 60 3e 5a df 2f 3e 13 cf 9f 3f
       0.29519925 0.21968263 0.17175046 1.2485069
000140 ef c9 da be a8 39 22 bf e2 76 88 3e 27 8f 2b 3f
       -0.42732188 -0.63369226 0.266532 0.6701531
000150 00 ac fe 3d dc 9d 7f be f8 e3 cd be 02 0a 96 3f
       0.1243515 -0.24962562 -0.4021299 1.1721804
000160 ba 05 a6 3e b1 e8 b5 bf 70 2e 0e 3e 55 71 9c 3e
       0.32426244 -1.4211637 0.13884902 0.30555215
000170 fd 9c 50 bf bc 64 c4 be 1e cd a2 be 70 ab 94 3a
       -0.81489545 -0.38358104 -0.31797117 0.0011342596
000180 e4 00 9b 3e 48 d6 5e bf f2 58 76 be cd 8c 18 3f
       0.30274117 -0.8704572 -0.24057367 0.59589845
000190 bd 55 13 bf 40 16 7d be b5 54 bf 3e 47 db 66 3f
       -0.575527 -0.24715519 0.37369314 0.9017834
0001a0 1c 16 31 3e 50 c2 ef 3e f1 f1 9f 3f 4d 43 48 be
       0.1729359 0.46827936 1.249571 -0.19556923
0001b0 4d e1 c7 3e 3d 23 9e 3e 8c 10 34 3f 99 d6 91 3f
       0.39039078 0.3088626 0.7033775 1.1393615
0001c0 44 34 85 3d 2d 60 22 bf 71 be 63 3e 57 c7 80 3e
       0.065041095 -0.63428 0.22240616 0.25152084
0001d0 9a 02 a1 be f6 b7 f2 bd 93 ff cc 3d 68 6a 21 3f
       -0.31447297 -0.11851494 0.100096844 0.6305299
0001e0 72 45 80 3e 14 f6 b0 3e a1 0d 56 3f 40 6e ef be
       0.25052983 0.34562743 0.83614546 -0.46763802
0001f0 ea 90 34 3e d9 60 d3 3e 27 df f8 3e dc dc 40 3f
       0.17633405 0.41284826 0.48607752 0.75337005
000200 35 76 ca be ee bf 12 bf 7d 9b 68 bd 1e a8 bc 3e
       -0.3954331 -0.5732411 -0.05678891 0.36847013
000210 d8 b3 fe bd 1f 04 c4 bd d7 7a ed be 48 62 26 3f
       -0.12436646 -0.095710985 -0.46382782 0.64993715
000220 41 bc 17 bd f7 39 81 bf c7 b5 eb 3d 24 88 d2 3e
       -0.037044767 -1.0095814 0.11509281 0.41119492
000230 65 cd c9 bd e6 04 89 bc 38 15 94 be a5 5a a8 3f
       -0.09853629 -0.016725969 -0.2892244 1.3152663
000240 4c 0a 67 3d d2 34 96 3b ed e5 65 3d 47 d7 10 3f
       0.056406304 0.0045839334 0.056127477 0.5657849
000250 23 fc 9a 3e 2b 86 2d bf 8e dd df 3e c0 0d c9 3e
       0.3027049 -0.6778285 0.4372372 0.39268303
000260 bf 07 1f bd 75 4b 20 bd eb 65 78 3f d3 51 1d bd
       -0.038825747 -0.03913446 0.97030514 -0.03840811
000270 70 23 b1 3e 95 58 9a 3e 02 e1 02 3f da 72 2a 3f
       0.3459735 0.30145708 0.51124585 0.665815
000280 db 7c aa bd cd 79 17 3f 3b 4b 1a 3f 78 af 72 bd
       -0.083245955 0.5917023 0.6027104 -0.05924937
000290 39 5d c3 bd e7 58 6b be 7d 3c cc bd 38 e0 1e 3f
       -0.09539265 -0.22983132 -0.09972475 0.6206088
0002a0 35 7b 80 3e a3 b1 08 be 85 cc 7f 3d c7 aa 44 3e
       0.25094 -0.13349013 0.062450904 0.19205771
0002b0 21 26 80 3e 46 b0 0f 3c 50 7a 80 bf b1 be e1 3e
       0.2502909 0.008770054 -1.0037327 0.44090798
0002c0 31 19 73 bd f0 51 aa 3d 1a 95 86 3f 89 a5 30 3e
       -0.059350196 0.083164096 1.0514252 0.17250647
0002d0 e8 35 0e 3f 06 1b 13 3f 87 f5 f6 3e 9b 47 26 3f
       0.55551004 0.5746311 0.48234197 0.6495301
0002e0 f8 b2 28 3e 1b 69 8c 3e d3 a9 54 be 2b 2d 44 3f
       0.16474521 0.2742394 -0.20767908 0.7663142
0002f0 a1 0e d4 3e 83 4d 2b be 1b d3 ae 3e b8 eb 16 3f
       0.4141741 -0.16728787 0.34145436 0.5895343
000300 02 80 a6 be cd ad af 3d af 86 4c bd c6 53 4a be
       -0.32519537 0.08578072 -0.04993313 -0.1975852
000310 05 f9 14 bf 2b b9 04 bf 28 be 99 3e 5e f3 be be
       -0.58192474 -0.51845044 0.3002789 -0.3729505
000320 b2 1a 33 bf ea 75 66 bf 2f 4e 1b 3e 6d eb bb 3e
       -0.6996261 -0.9002367 0.15166543 0.36703053
000330 20 74 c9 be 92 36 e5 be b1 c7 27 bf 3d 11 0f 3f
       -0.3934641 -0.44768196 -0.6553908 0.5588568
000340 8c d4 10 be a4 53 b4 be 19 2a 33 3f b8 36 05 3f
       -0.1414358 -0.35220063 0.6998611 0.5203662
000350 20 77 4a 3f 44 97 45 3e c7 71 d7 3e 92 39 15 3f
       0.7908802 0.19295985 0.42078993 0.5829097
000360 cb a8 8c be c8 05 0a 3e 60 af e0 3d 18 4a f0 3e
       -0.2747253 0.13478768 0.1097095 0.4693153
000370 ff 90 ad bc 5e 15 df be fc 42 c9 3e 52 af 34 3e
       -0.021187304 -0.4357099 0.39308918 0.17645004
000380 7a 3b 07 3f 45 33 9d be d7 29 41 bf b2 f2 2b bd
       0.5282513 -0.30703178 -0.7545447 -0.0419795
000390 2a bb b6 be 50 e5 88 bf 83 17 21 bf bb 28 a8 be
       -0.3568967 -1.0694981 -0.629265 -0.32843575
0003a0 d2 99 59 3e 73 08 c8 3d 95 d7 e1 3e c4 51 59 3e
       0.21250084 0.097672366 0.4410979 0.21222597
0003b0 1b 65 9c 3e 47 6a fc 3c c8 bd 8a bf 78 b5 8a 3e
       0.30545887 0.030812396 -1.0839167 0.27091575
0003c0 29 3f db be 5a e1 94 be 32 93 3f 3e 93 80 a9 3e
       -0.42821625 -0.2907818 0.18708494 0.33105907
0003d0 a3 19 8e 3d d0 ef 30 be 6f e7 f8 be 18 62 22 3f
       0.069384836 -0.17278981 -0.4861407 0.6343093
0003e0 03 ab da bb 6e 68 30 3e 87 ba ad be 9d 70 e6 be
       -0.006673218 0.17227337 -0.33931372 -0.45007792
0003f0 13 ac 92 bd 5f ca 3b bf 2d ef a4 3d d8 c7 02 bd
       -0.07161727 -0.7335567 0.08053432 -0.031928867

fc_layers.0.weight f4 [64, 16]
000000 34 73 a5 be e9 47 d4 be 72 a2 31 be 1d 73 e5 3e
       -0.32314456 -0.41461113 -0.17347124 0.44814387
000010 79 3e 9c 3d c3 97 35 bf 6f 14 4f bf f3 57 be be
       0.07629103 -0.70934695 -0.80890554 -0.37176475
000020 c5 4a 25 bd 83 81 a2 3c 47 17 96 3e c1 1d 9c be
       -0.04035451 0.019837147 0.29314634 -0.3049145
000030 04 97 2c bf da 9f 09 bf 0d b9 75 3e 42 7e 70 3e
       -0.6741793 -0.5375954 0.23996373 0.23485664
000040 ed 3f 51 bf 57 6f ad 3e 3a 45 93 bc b1 84 ca be
       -0.8173817 0.33874008 -0.017977346 -0.3955436
000050 0e 6b a7 be 8f 32 3e 3e e4 36 f6 3c ba 74 c9 be
       -0.32698864 0.18573974 0.03005547 -0.39346868
000060 a6 7c 0b bf 0c bb 2d 3e 98 94 b3 3e 17 f3 c3 bd
       -0.54487073 0.16965884 0.35074306 -0.0956785
000070 bd 51 dd 3e 40 19 7a 3e 3d 9d d5 3e 1a ff 4f bf
       0.43226424 0.24423695 0.41721526 -0.8124863
000080 91 fd f7 3e 0b e0 ba 3e 5d ee 93 3e d0 8c 30 3e
       0.48435643 0.36499056 0.28892794 0.17241216
000090 07 17 60 3e a9 e4 14 bf f9 5e 39 3d e3 92 65 3f
       0.21883784 -0.5816141 0.04525659 0.89677256
0000a0 a0 f1 5b 3f a6 44 45 3d 4f a8 91 3e bb f1 0a bf
       0.85915565 0.04816117 0.28448722 -0.542751
0000b0 a4 7a a9 3f 68 f2 ee 3e 30 ac b0 3e f0 f7 37 bf
       1.3240552 0.46669316 0.3450637 -0.718627
0000c0 1c e3 43 3f 76 58 79 3e b4 dc 4f be 4c c3 0f 3e
       0.76518416 0.24350151 -0.20299035 0.14039344
0000d0 86 b2 7d bf 4b a7 01 bf f7 9f 88 be b2 c7 1f bd
       -0.9910053 -0.50645894 -0.26684543 -0.039008804
0000e0 14 1b 21 3e ba f9 55 3e ae 87 4a 3f b7 ba 03 be
       0.15732986 0.20896044 0.7911328 -0.12864195
0000f0 c8 2d ed be da 90 83 3e 6c cf a1 be 0e 2c 96 be
       -0.4632399 0.2569645 -0.31603563 -0.29330486
000100 48 74 05 3f 8d 58 18 3d 13 dd 52 3e 18 bc cc 3a
       0.52130556 0.037193824 0.20592146 0.0015620021
000110 2a 90 d3 3e ee 75 3c bf 36 f8 38 bc 2e a2 9d 3e
       0.41320926 -0.73617446 -0.011289647 0.30787796
000120 d6 5f 3a 3f 79 0f a1 bd a4 3b d0 bd 1b 14 37 bd
       0.72802484 -0.07864279 -0.101676255 -0.04469691
000130 e3 9e 8a 3e 49 df ab 3d 33 3d 55 be 1d 88 64 bd
       0.27074346 0.08392198 -0.20824127 -0.05579387
000140 9c 43 e7 3e ab e5 97 bd ef 4d 66 3e 8d f0 cb 3e
       0.4516877 -0.074168526 0.22490667 0.39831963
000150 62 8c e6 be 8b a5 17 bf 0d d9 da be 7f 13 b0 bd
       -0.4502898 -0.59236974 -0.42743722 -0.085974686
000160 61 37 eb 3e 91 11 81 be 68 2b 96 be b7 15 98 3c
       0.45940688 -0.25208715 -0.2932999 0.018565042
000170 5c 20 26 bf 1f 12 61 be d1 7d cf be 7a 46 e8 be
       -0.64893126 -0.21979569 -0.40525678 -0.4536627
000180 5a 61 87 3e bf 94 93 be de 60 c3 be 12 33 1d 3f
       0.2644146 -0.28824422 -0.3815984 0.6140605
000190 c2 ed 3e 3e 7e a3 f2 be 74 f5 de 3e 38 b8 13 bf
       0.18645385 -0.4739036 0.4354664 -0.5770297
0001a0 bb fe 23 bf 8a ea 0d 3f db 05 e8 3a f2 64 c4 be
       -0.6406056 0.55436003 0.001770194 -0.38358265
0001b0 ae 23 46 be 42 1d 6f 3d 3c fa a3 be b5 49 c9 3e
       -0.19349548 0.05837751 -0.3202685 0.39314047
0001c0 0c 75 1c 3d e6 c6 7b 3e 0e b1 ed bd 2b 52 f2 3d
       0.038197562 0.24587592 -0.11606036 0.118320785
0001d0 31 08 eb bc 29 d0 a4 3d 94 ee 01 bd e4 ed 86 bd
       -0.02869043 0.08047516 -0.031721666 -0.06588343
0001e0 02 b1 43 be c7 90 9d 3d 75 73 5e 3e 51 53 03 be
       -0.19110492 0.0769363 0.21723731 -0.12824751
0001f0 e9 74 05 bd 5b f9 a6 bd ac 1e 5d 3b 5e f8 c4 bc
       -0.032582197 -0.081530295 0.0033740206 -0.024044212
000200 be 95 ee 3d 02 44 a1 3e 0a 84 9d 3e d5 24 f4 be
       0.11649655 0.31497198 0.307648 -0.4768435
000210 9a 22 33 3f 10 c4 53 bd 8c 37 8d 3e 14 0f f1 be
       0.6997467 -0.05170065 0.2758144 -0.47081816
000220 c2 47 a6 be cf bf 3f be 07 0f df 3e cf 0a 77 bd
       -0.32476622 -0.18725513 0.43566152 -0.060313042
000230 c0 55 07 3e 48 5b 84 be 00 f7 cc bd 8b ef 72 be
       0.13216305 -0.25850892 -0.10008049 -0.23724191
000240 1e ec 0a bf bd cb 24 3c 34 30 0e 3f 88 07 05 3e
       -0.54266536 0.010058341 0.555423 0.12991154
000250 99 1f dd be de 87 8e 3e 97 60 09 bf f4 b0 4b bf
       -0.4318817 0.27838033 -0.5366301 -0.79566884
000260 6a 3b 81 be 3f a5 03 3f c3 9a cc 3e 2f d7 8a bd
       -0.25240642 0.5142402 0.39961824 -0.06779324
000270 7f 5e 39 be 8f 46 33 3c 89 6b 32 be 2b 28 8b bf
       -0.18102454 0.010942115 -0.17423834 -1.0871633
000280 21 1f 42 3f db 1b ce 3d 25 f6 1c 3e 07 aa 07 be
       0.7582875 0.10063907 0.15328272 -0.13248454
000290 07 c7 43 bf 53 1a 36 bf a9 3d 45 bf cd c1 20 bd
       -0.76475567 -0.7113392 -0.7704721 -0.039247323
0002a0 14 6f cf 3e 27 df ae 3e fb 39 33 3f 0e 09 c0 3e
       0.40514433 0.34154627 0.70010346 0.37506908
0002b0 89 ef 2f 3c 96 f3 e5 3e 51 29 39 bd b8 b8 da be
       0.010738262 0.44912404 -0.045205418 -0.42719054
0002c0 49 f7 20 3d 6e 4c 89 3e 30 8a 8f 3e 33 d7 94 3d
       0.03929833 0.26816124 0.28035116 0.072676085
0002d0 f9 3a 54 3e b1 81 24 bf d3 a7 d9 3e 8c 6f 4a be
       0.20725621 -0.64260393 0.42510852 -0.19769114
0002e0 a0 89 95 bc 39 8f f3 3e 41 17 13 3e 97 36 00 bf
       -0.018254101 0.47570208 0.1436434 -0.500833
0002f0 2e f4 a6 3e 07 97 4b 3d a2 28 0c 3d b3 0b ca 3e
       0.3260817 0.049704578 0.034218438 0.3946205
000300 4b ef c3 be 92 7b 56 3e 5a 39 6d 3e a0 56 0c 3f
       -0.38268504 0.20945576 0.23166409 0.5481968
000310 48 8a 30 3e 67 c6 55 be f1 ce e1 be 86 22 d6 be
       0.1724025 -0.20876466 -0.44103196 -0.41823214
000320 d7 f6 d2 be ce 53 a7 3e 99 72 6e 3e df 61 ef 3d
       -0.4120395 0.32681125 0.23285903 0.11688589
000330 3c 83 aa be a0 61 02 bf 92 d2 83 3e a9 6a c3 bc
       -0.3330325 -0.50930214 0.2574659 -0.02385457
000340 35 f0 c3 be c3 70 10 bf 9a b3 bd 3e 5e 4a 64 be
       -0.382692 -0.5642206 0.37051088 -0.22293994
000350 3b 78 4d 3e f9 db 30 bf 3f 8e 13 3f 1b d1 8b 3d
       0.20065396 -0.6908565 0.57638925 0.06826993
000360 2e 96 c1 3e 3b 43 fa 3e 22 9d d9 be 3f 60 f5 be
       0.3780989 0.48879418 -0.42502695 -0.47924992
000370 e6 26 c0 3e fd e1 a5 3e 07 de 7e be 16 35 3a 3e
       0.37529677 0.32398978 -0.24889384 0.18184313
000380 1c 0f 66 bf 12 5d 04 3d f2 5c c4 3e c6 a0 dd be
       -0.89866805 0.03231532 0.38352162 -0.43286723
000390 b3 be 31 bf 68 c5 3e 3e e2 f1 05 be 5e e8 ab be
       -0.6943161 0.18629992 -0.13080552 -0.3357572
0003a0 fc df f7 be 17 77 11 3f 6a be 54 3d 16 fe be 3d
       -0.48413074 0.5682234 0.051939406 0.09325807
0003b0 88 f8 81 3d 62 99 33 3e 57 ea 17 3a 2a 85 ac bf
       0.06346232 0.1753898 0.0005795112 -1.3478138
0003c0 ca bf 5a bd 51 44 2c 3d ac 0e 97 bd fc d9 0d 3f
       -0.05340556 0.04205734 -0.07375845 0.5541074
0003d0 b2 c5 ee be 84 53 6e 3e 14 89 6e 3e cb 59 56 bf
       -0.46635205 0.23274046 0.23294479 -0.83730763
0003e0 19 d2 20 bf aa 08 86 3e 26 b6 ce 3e cd 11 b3 be
       -0.62820584 0.26178485 0.40373343 -0.34974518
0003f0 8a df ba bd 07 71 36 bd 97 fb 21 3d 2f 0b 1b bf
       -0.09124668 -0.044541385 0.039546575 -0.6056394

fc_layers.0.bias f4 [64]
000000 1a 84 81 3e 1f 86 26 3e 91 2f 42 3e 29 6b 44 bf
       0.25296098 0.162621 0.18963458 -0.76726013
000010 e7 19 4b 3e e7 b4 20 bf 44 4e 08 bf cc 9a a6 be
       0.198341 -0.62776035 -0.53244424 -0.32539976
000020 34 f4 f4 be c0 52 6e be 39 f3 5b bf 80 c9 bc 3e
       -0.47842562 -0.23273754 -0.85918003 0.36872482
000030 c3 94 37 bc 29 94 94 be 09 5e 27 3e 08 67 f5 be
       -0.011204901 -0.29019287 0.16344465 -0.4793017
000040 e8 b1 38 be d5 ea ed 3e 67 8f bf be f4 71 e1 be
       -0.18036616 0.46468225 -0.37414095 -0.44032252
000050 f9 27 0e b7 3e 04 85 be 0a 8a 68 3e a1 86 02 3f
       -8.473166e-06 -0.259798 0.22708908 0.5098668
000060 9c b9 12 bf 6d f6 da 3e b7 81 0c 3f 8b cf 11 3f
       -0.5731447 0.42766133 0.5488543 0.5695731
000070 15 fa c2 be 97 7d a8 be 88 85 15 3f 24 a8 5f bf
       -0.38081422 -0.32908317 0.5840688 -0.8736594
000080 b1 16 a6 be e5 44 10 3f da 67 c3 be e4 c6 c5 3e
       -0.32439187 0.56355125 -0.3816517 0.38628304
000090 14 44 c5 3d 3e ad 80 be 1d 1f 6a be f0 de 09 bf
       0.096321255 -0.25132173 -0.22863431 -0.538558
0000a0 2d 35 11 bf d4 2f 09 3f c2 96 ec be 18 58 01 3f
       -0.56721765 0.53588605 -0.4620877 0.50525045
0000b0 35 27 1a 3f 15 44 f3 3e c6 2b 89 be 96 76 ba be
       0.60216075 0.4751288 -0.2679121 -0.364186
0000c0 12 3d c1 be ab 71 3b bf ac e7 05 bf 5b fa 3c bf
       -0.37741905 -0.7322032 -0.5230663 -0.7381951
0000d0 66 10 2c bf d9 a6 07 bf ae 0f c1 be 69 55 0a be
       -0.6721252 -0.52988964 -0.37707275 -0.13509144
0000e0 b8 14 bf 3e 4c 10 15 bf f6 15 c9 be b4 51 fd be
       0.37320495 -0.5822799 -0.39274567 -0.49476397
0000f0 b2 3f 25 be a5 0f 09 3f 39 93 42 bf 8d dd 40 3e
       -0.16137579 0.53539497 -0.76005894 0.18834515

fc_layers.1.weight f4 [32, 64]
000000 f4 8d bc 3e 4c 0a 0a 3e 2e c8 ad bd 23 a7 0c 3f
       0.36827052 0.1348049 -0.08485447 0.5494253
000010 a0 24 dc bc 0e 0d 08 3e 41 67 1a 3f 9d db 4b 3e
       -0.026872933 0.1328623 0.603138 0.19907995
000020 93 e4 76 be 80 ff 24 3e be d3 71 3f 74 13 39 3d
       -0.24110632 0.1611309 0.9446372 0.045184568
000030 1c c4 9e 3d c6 b6 2e 3f f9 5e 1a 3e f5 2e ec 3c
       0.07752249 0.6824764 0.15075292 0.028830985
000040 1f 9d f1 3d e7 29 9c 3e bf ac c7 bd 58 99 db 3e
       0.117975466 0.3050072 -0.097497456 0.4289043
000050 55 c2 93 ad 6f d2 6f be fe 49 2f 3e a2 3b 9f 3e
       -1.6798266e-11 -0.23420118 0.1711807 0.31100184
000060 55 42 29 bf 5a 40 ab 3d f7 8c b1 3e ee a5 71 3d
       -0.6611684 0.083618835 0.3467786 0.058996134
000070 4c c7 6d bd 51 6e 13 bf 76 34 0c 3e 3e ad 26 3f
       -0.058051392 -0.57590204 0.13691887 0.65108097
000080 d9 c6 27 be 28 01 51 3e 5a bf 72 be 5f b1 aa bc
       -0.16384448 0.20410597 -0.23705807 -0.02083653
000090 8a 31 49 3e 53 b0 b7 be 14 ab f3 be 75 82 39 bf
       0.19647804 -0.35876712 -0.4759146 -0.72464687
0000a0 05 11 07 3f 7e e3 3d 3d d5 58 1c bf 93 82 09 3d
       0.52760345 0.04635953 -0.61073047 0.03357179
0000b0 18 2b ca 3d 06 36 f8 3c a5 81 38 bf 64 bd 1c 3e
       0.09871501 0.030299198 -0.7207282 0.15306622
0000c0 49 07 f8 be 3d f4 66 bf 7f df e4 be bc 70 55 bf
       -0.48443058 -0.9021643 -0.44701764 -0.83375144
0000d0 b1 77 2a bf a7 79 35 bf 68 8b 2f 3e 98 93 ca 3b
       -0.66588885 -0.7088875 0.17143023 0.0061821453
0000e0 7e 9c b2 3d 6a 2d f3 be bf 17 47 3f 0b 2a 7e bf
       0.08721255 -0.47495586 0.7777061 -0.992829
0000f0 3a f3 0b 3f a8 d9 ac 3d 0d cd 63 bf 03 4f 01 3f
       0.5466801 0.08439952 -0.8898476 0.5051119
000100 39 c0 a3 3e 36 a6 4d 3e 3c 4c 3f 3b 01 e5 1b 3f
       0.31982592 0.20082936 0.0029189726 0.6089631
000110 0e 4d ce 3c 52 3c 73 3e d7 8c 3d 3f b5 3d 56 3e
       0.025183227 0.23753479 0.7404303 0.20921977
000120 92 17 36 be 3d 9c 6d 3e 4f b6 80 3f 28 4e 14 3e
       -0.17782429 0.23204131 1.0055636 0.14482939
000130 ad 5a e4 3d c8 e1 63 3f ec c2 46 3e 79 ac 3b 3e
       0.111501075 0.8901639 0.19410294 0.18327512
000140 67 10 1e 3e c1 fc 91 3e 2f 8d ea bd 8b 9a 05 3f
       0.15435944 0.28513148 -0.1145271 0.5218894
000150 b6 48 01 b1 61 ad 9c be 71 cb 38 3e 04 43 64 3e
       -1.8813302e-09 -0.30601028 0.18046357 0.2229119
000160 71 47 5c bf 6b 6a 03 3e d6 39 b5 3e fd 5e 9a 3d
       -0.8604651 0.12833564 0.35395688 0.07537649
000170 c9 6b fc bd cc c9 18 bf 06 d5 d1 3d 31 35 32 3f
       -0.12325246 -0.5968292 0.10245709 0.69612414
000180 5f 4f 78 bc f4 5f 1d 3e f1 ea 4b be a4 7f 09 3d
       -0.015155642 0.15368634 -0.19913842 0.033568993
000190 d9 e3 4e 3e 11 d9 83 be 29 85 12 bf be 26 4b bf
       0.20204104 -0.25751546 -0.57234436 -0.7935599
0001a0 47 04 14 3f 4b 04 ad 3d 36 12 29 bf b7 69 b6 3d
       0.57819027 0.084480844 -0.6604341 0.08906882
0001b0 e9 1a 54 3e 7c 2d 88 3d 5e 8e 25 bf a7 95 5e 3e
       0.2071339 0.066493005 -0.6467036 0.21736775
0001c0 ce 7b 06 bf 91 57 6c bf 2b 76 f9 be 59 d9 49 bf
       -0.5253266 -0.92321116 -0.48722968 -0.7884727
0001d0 1b dd 43 bf 9b 35 4c bf f5 27 91 3e dd 05 2a 3c
       -0.76509255 -0.79769295 0.28350797 0.0103773745
0001e0 6b cd a3 3d 21 fc 0d bf a2 3e 49 3f f4 11 6d bf
       0.07998165 -0.55462843 0.78611195 -0.9260552
0001f0 eb a2 1f 3f 20 b9 0d 3e f8 0b 77 bf ba b8 f0 3e
       0.6235797 0.13840151 -0.9650264 0.47015935
000200 54 03 8d 82 20 ad 9c 00 20 19 19 00 98 b7 85 01
       -2.0719998e-37 1.4388443e-38 2.3049e-39 4.911993e-38
000210 80 e1 28 00 88 e1 85 01 e0 10 e4 80 60 8a 85 81
       3.754314e-39 4.9180105e-38 -2.0944547e-38 -4.905504e-38
000220 70 2c 30 01 e0 8c dc 81 d0 d2 48 81 51 4a a7 81
       3.2357977e-38 -8.101738e-38 -3.688545e-38 -6.145275e-38
000230 58 91 f6 81 79 21 4e 82 a0 aa 4f 81 c0 aa 09 00
       -9.0574686e-38 -1.5144096e-37 -3.8142313e-38 8.87773e-40
000240 50 32 5b 01 6d 70 38 82 2d 7b 28 82 bc 9a 07 82
       4.0260045e-38 -1.355045e-37 -1.237804e-37 -9.96264e-38
000250 90 93 85 81 88 d1 85 81 b1 08 06 82 f0 27 99 81
       -4.9068226e-38 -4.9157147e-38 -9.84726e-38 -5.626063e-38
000260 f0 5a 59 81 00 2b 7d 80 41 f3 5d 82 90 cf 8e 81
       -3.992185e-38 -1.1494863e-38 -1.6306326e-37 -5.24604e-38
000270 b8 87 e9 81 80 e5 a9 00 c0 0d 79 81 10 25 4b 01
       -8.578543e-38 1.5602528e-38 -4.5743942e-38 3.7311802e-38
000280 e1 a8 ed 81 e0 b2 5b 80 98 be 85 01 18 a8 a7 81
       -8.730238e-38 -8.421198e-39 4.912997e-38 -6.1587314e-38
000290 e0 73 94 80 a0 63 4c 80 b5 63 45 82 38 d2 85 81
       -1.3633222e-38 -7.015236e-39 -1.4501889e-37 -4.9158133e-38
0002a0 a0 b3 4e 01 00 ed a8 81 20 ea 3b 01 e0 ac a9 80
       3.79651e-38 -6.205353e-38 3.4514452e-38 -1.5582215e-38
0002b0 90 df a6 81 e0 aa 89 80 e0 44 61 00 70 a8 0b 01
       -6.1299566e-38 -1.2642761e-38 8.932751e-39 2.5651116e-38
0002c0 e8 83 a5 81 30 a3 85 01 60 65 68 01 d8 92 85 81
       -6.0800704e-38 4.9090647e-38 4.2684403e-38 -4.9067194e-38
0002d0 c0 c8 7a 00 b8 96 81 01 10 91 0c 01 b0 ba 85 01
       1.1275946e-38 4.7603387e-38 2.5818016e-38 4.912437e-38
0002e0 40 b3 56 81 f0 82 3a 01 d9 32 ab 81 20 f1 76 81
       -3.9434198e-38 3.4256748e-38 -6.288844e-38 -4.5356063e-38
0002f0 c8 9d a3 81 00 1f f9 80 78 d2 85 81 d0 93 c0 81
       -6.010315e-38 -2.2878159e-38 -4.915849e-38 -7.074176e-38
000300 c0 a9 ae 8d c7 dc 0f 8e 02 38 bf 8d 55 a0 08 89
       -1.0764444e-30 -1.7732411e-30 -1.1784767e-30 -1.6445792e-33
000310 b7 2c aa 8c 73 af 01 8a 2c 39 06 8c 7f 7d 94 08
       -2.621956e-31 -6.2441224e-33 -1.0340189e-31 8.93693e-34
000320 c6 6f 59 0b 3a 3b 93 8d 22 8e de 0b 80 35 88 8d
       4.187677e-32 -9.073833e-31 8.572515e-32 -8.394527e-31
000330 af 65 25 8d b1 37 82 0c 48 5a 13 8e 99 1a 09 8d
       -5.096695e-31 2.006319e-31 -1.8162618e-30 -4.22484e-31
000340 d9 2c 19 0c be 61 98 8d 8b 0c aa 8b fc cf 84 8c
       1.1800187e-31 -9.391254e-31 -6.550049e-32 -2.0462996e-31
000350 56 a3 8d 81 cd a5 15 0c a9 96 0a 8d fb 9c 58 8d
       -5.2029595e-38 1.1528436e-31 -4.2705884e-31 -6.6749097e-31
000360 bd ac 87 8a d6 51 5b 8d ce 0f a2 8d 2b 38 48 8d
       -1.3065004e-32 -6.758309e-31 -9.987826e-31 -6.169737e-31
000370 0a 01 3f 8d 83 35 a0 0b 59 4b 83 8d 5f 71 29 8c
       -5.885767e-31 6.1710274e-32 -8.091638e-31 -1.3053403e-31
000380 d8 c8 bd 0c c5 98 93 8d 02 b1 ec 0b dd 42 06 8d
       2.924094e-31 -9.096352e-31 9.1170225e-32 -4.137242e-31
000390 f4 9a fb 8d 8c e4 1e 8c 33 04 34 0c 9d 73 38 0a
       -1.5506373e-30 -1.2240653e-31 1.3867959e-31 8.881022e-33
0003a0 dd 5a 1e 0b 85 a9 2a 8d 9b b9 82 8c 09 57 49 8d
       3.049805e-32 -5.2589346e-31 -2.0141379e-31 -6.204267e-31
0003b0 25 8c d5 8d ff 67 34 8d 14 c7 c1 8c ba d7 5d 8a
       -1.3160877e-30 -5.5591963e-31 -2.9856174e-31 -1.06813366e-32
0003c0 d2 5c 38 8d 73 eb 5c 8a 69 6b 3d 0b 38 07 3c 8b
       -5.6811106e-31 -1.0636898e-32 3.6480882e-32 -3.6212914e-32
0003d0 69 29 84 0b ad a9 9d 8c 6d ac 15 09 80 9d 01 87
       5.090686e-32 -2.42918e-31 1.8016297e-33 -9.751166e-35
0003e0 a0 37 4f 8d 77 75 87 8b ea 10 4b 8b 3a 61 c0 8c
       -6.3853756e-31 -5.217685e-32 -3.9109103e-32 -2.96408e-31
0003f0 71 f5 49 0c 77 35 29 8d b4 69 08 0b 20 85 4f 0c
       1.5558337e-31 -5.21415e-31 2.627217e-32 1.5986761e-31

fc_layers.1.bias f4 [32]
000000 3a 12 81 bd 61 97 ac 3c 6c 57 5d 82 eb ea f1 8d
       -0.063023046 0.021068277 -1.6261605e-37 -1.4909326e-30
000010 03 92 92 3c 25 d7 bb 92 66 e7 c3 98 0e 5f 21 95
       0.01789189 -1.1854396e-27 -5.063997e-24 -3.2588676e-26
000020 03 81 e8 bd df c2 85 81 45 4c e3 83 ec 61 99 8d
       -0.11352732 -4.913611e-38 -1.33593715e-36 -9.452927e-31
000030 5c c5 d6 82 ce 4a fa a1 87 74 b2 85 f4 96 ea 95
       -3.1557753e-37 -1.696046e-18 -1.6781845e-35 -9.475001e-26
000040 b1 d2 00 be 5a ce 2a 86 90 26 86 3c 1f 54 24 90
       -0.12580372 -3.212505e-35 0.01637581 -3.2408102e-29
000050 ec 5d 94 85 8b de e8 92 20 b2 85 81 49 99 82 91
       -1.3952355e-35 -1.4696119e-27 -4.911208e-38 -2.0604853e-28
000060 e8 14 71 8d 3b e4 13 91 fc bd 86 3e 6c 76 ab 81
       -7.4289024e-31 -1.1666584e-28 0.26316822 -6.2985406e-38
000070 91 2a 90 93 76 88 e7 3d bc 03 89 83 4c 78 0b 83
       -3.6392684e-27 0.11305325 -8.052994e-37 -4.0986523e-37
