checkpoints/neumf_first_try_Epoch34_HR0.6826_NDCG0.4111.model (torch, 645108 bytes, 13 tensors)

embedding_user_mlp.weight f4 [6040, 8]
0	0xbdb86f6d	-0.09005628
1	0x3f25d96d	0.6478489
2	0x3f57978a	0.84215605
3	0x3f104923	0.563616
4	0xbf0c8339	-0.5488773
5	0xbe253d9f	-0.16136788
6	0x3d2e3a55	0.0425361
7	0xbf1c062d	-0.60946923
8	0xbec89df6	-0.39183015
9	0x3e4c39ad	0.19943877
10	0x3e515539	0.20442666
11	0x3de6651c	0.11249754
12	0x3db82ecd	0.089933015
13	0x3d107493	0.035267424
14	0x3f0305a4	0.5118048
15	0x3e315d87	0.17320834
16	0x3d43c8c9	0.047798906
17	0x3eba4223	0.36378583
18	0x3f4c41cb	0.7978789
19	0x3e7e73a5	0.24848802
20	0xbd331243	-0.043718588
21	0xbf0cf30e	-0.5505837
22	0xbf1aa4ae	-0.6040753
23	0x3bea00ac	0.0071411934
24	0x3eb8bdba	0.3608225
25	0x3f531dfa	0.82467616
26	0x3f66b98e	0.90126884
27	0x3f0b0159	0.5429893
28	0xbf670658	-0.90244055
29	0xbf614854	-0.8800099
30	0xbdfd26ae	-0.12360893
31	0xbeddcdc6	-0.43321055
32	0xbeca6aad	-0.39534512
33	0x3dc6776c	0.09690747
34	0xbe9e2a7f	-0.30891797
35	0x3e0c164c	0.1368038
36	0xbf167cbe	-0.5878409
37	0xbe8951e1	-0.2682028
38	0xbf0fae39	-0.5612522
39	0xbf20d34a	-0.628224
40	0xbd53b74c	-0.051688477
41	0xbdbee564	-0.093210965
42	0x3f1c7275	0.6111215
43	0x3ed91302	0.42397314
44	0xbecca7c5	-0.39971748
45	0xbe50c853	-0.20388918
46	0xbf2f6c35	-0.68524486
47	0xbeac0c90	-0.33603334
48	0xbae7a9e0	-0.0017674528
49	0x3f3a4b83	0.7277147
50	0x3f56c89b	0.8389985
51	0x3f76c53c	0.96394706
52	0xbed47b31	-0.41500238
53	0xbee68c10	-0.45028734
54	0xbef7c3d9	-0.48391607
55	0xbecab20d	-0.39588967
56	0x3b90092e	0.0043956256
57	0xbcfa5664	-0.030558772
58	0x3f205218	0.62625265
59	0x3db12688	0.086499274
60	0x3f0ffeee	0.56248367
61	0xbf3af076	-0.73023164
62	0x3de1d04a	0.11026056
63	0x3e0d0168	0.13770068
64	0xbe743add	-0.2385058
65	0x3ec2cf9b	0.38049015
66	0x3ef4ceae	0.47813934
67	0x3eeb76bb	0.45989022
68	0xbf118b2a	-0.5685297
69	0xbeb091c8	-0.34486222
70	0xbed75e16	-0.4206397
71	0xbe9295c7	-0.28629896
72	0xbe463e87	-0.1935979
73	0xbe0247ae	-0.12722656
74	0x3d0da528	0.034581333
75	0xbdb6ac85	-0.08919624
76	0xbede630d	-0.43434945
77	0x3dd53467	0.104103856
78	0x3e845234	0.25843966
79	0x3d04da84	0.032434955
80	0x3e670772	0.22561434
81	0xbd93e797	-0.07221907
82	0x3e60bb8a	0.2194654
83	0x3f07b2e8	0.53007364
84	0xbd71de06	-0.05904963
85	0xbeddfb04	-0.43355572
86	0x3ed921c3	0.4240857
87	0xbd9262ca	-0.07147749
88	0x3d52ec22	0.051494725
89	0x3de51efc	0.111875504
90	0xbcb04bb4	-0.021520473
91	0x3f25c2ab	0.64750165
92	0x3ed64a56	0.4185359
93	0x3b77fc4e	0.0037839594
94	0x3df98a51	0.12184585
95	0xbdb93c8f	-0.09044754
96	0x3dda7056	0.10665958
97	0x3e9811fc	0.2970122
98	0x3f0355d0	0.51302814
99	0x3dba4621	0.09095407
100	0x3d246445	0.040134687
101	0xbdd65779	-0.10465903
102	0x3e56c974	0.20975286
103	0xbde5ee50	-0.11227095
104	0xbf16fe7d	-0.5898207
105	0xbe8f062a	-0.2793439
106	0x3db2a4bf	0.08722829
107	0x3efc9bf0	0.4933772
108	0xbf3a3a27	-0.72744983
109	0xbe85a21b	-0.2610024
110	0xbea85a4d	-0.32881394
111	0xbf035d1c	-0.5131395
112	0xbee14c04	-0.44003308
113	0x3da98eaf	0.08279168
114	0x3dee71c6	0.11642794
115	0x3dbc1e77	0.09185498
116	0xbf2229bd	-0.6334494
117	0xbf02ba2a	-0.51065314
118	0x3dd90c19	0.105980106
119	0x3e491dac	0.19640225
120	0xbf0f8f70	-0.56078243
121	0xbe7c1bf8	-0.24620044
122	0xbf0191c3	-0.5061304
123	0x3f0b6d49	0.5446363
124	0xbfac09d9	-1.3440505
125	0xbf00a547	-0.50252193
126	0xbf51cd6e	-0.81954086
127	0xbf57b0e1	-0.8425427
128	0xbe286130	-0.16443324
129	0xbe82c97e	-0.2554435
130	0xbd701a15	-0.058618624
131	0x3f2297a1	0.6351262
132	0xbf2bd394	-0.6711972
133	0xbe2587da	-0.16165105
134	0xbea6b633	-0.32560882
135	0xbe2efe7c	-0.17089266
136	0x3ea2bfea	0.31787044
137	0xbe4cbbf0	-0.19993567
138	0x3ece3565	0.40275112
139	0xbea427c0	-0.32061577
140	0x3ea59f5c	0.32348144
141	0x3ef47eec	0.47753084
142	0x3e8df755	0.27727762
143	0xbe16b152	-0.1471608
144	0xbe91c460	-0.28470135
145	0x3f1a6b21	0.60319716
146	0xbe1c6019	-0.15271033
147	0xbea432f7	-0.32070133
148	0xbf0e9792	-0.5570003
149	0xbcecf894	-0.028927125
150	0x3c95c585	0.018282661
151	0xbdf3c556	-0.11902873
152	0xbdda4f5f	-0.1065967
153	0x3f2805d3	0.6563389
154	0x3e82d979	0.25556543
155	0x3e3b9aa3	0.18320708
156	0xbf3d9647	-0.7405743
157	0xbae5c3cd	-0.0017529667
158	0xbf351717	-0.7073836
159	0xbe566ec7	-0.20940696
160	0xbf671e36	-0.90280473
161	0xbd495219	-0.04915056
162	0x3ee5ab9f	0.448575
163	0x3e1576a8	0.14596045
164	0xbe60f8fa	-0.21969977
165	0xbdac9f0a	-0.08428772
166	0xbe600476	-0.21876702
167	0x3e0c83a2	0.13722089
168	0x3de40c1b	0.111351214
169	0x3e000568	0.12502062
170	0xbd7c8629	-0.061651383
171	0x3e1cf9e9	0.15329708
172	0x3e7dd04d	0.24786492
173	0x3ec2a4c9	0.38016346
174	0xbe92227f	-0.28541943
175	0x3e971ce1	0.2951422
176	0x3c2a469e	0.010392813
177	0xbd7e13b8	-0.062030524
178	0xbed84007	-0.4223635
179	0x3e00d490	0.12581086
180	0xbe9b0b31	-0.30281976
181	0xbe844808	-0.25836205
182	0xbebec88e	-0.37262386
183	0xbe3eb1bb	-0.18622486
184	0xbf1abe4c	-0.6044662
185	0x3c1201a6	0.008911526
186	0x3dd69b2c	0.104788154
187	0xbe3a6986	-0.18204316
188	0xbe5cde17	-0.21569096
189	0x3d51ca98	0.0512186
190	0xbe9fa2cf	-0.311789
191	0xbe65c171	-0.22437073
192	0xbf230660	-0.636816
193	0xbf0531cf	-0.52029127
194	0x3db881d2	0.09009136
195	0x3f385799	0.72008663
196	0xbebd5f14	-0.369866
197	0xbd0d23ff	-0.034458157
198	0x3dba2dae	0.09090744
199	0xbf3a52dd	-0.7278269
200	0x3eaf92c0	0.3429165
201	0xbdc0f832	-0.094223395
202	0x3e08801f	0.13330124
203	0xbd64eee4	-0.055891886
204	0x3eaec5f1	0.34135392
205	0x3e8a9c06	0.2707216
206	0xbd35cb0a	-0.044383086
207	0x3f160ca5	0.58613044
208	0xbba91c4e	-0.005160845
209	0x3ed19006	0.40930194
210	0x3e501ab6	0.2032269
211	0x3ec369b2	0.38166577
212	0xbf19fe8e	-0.60154045
213	0xbea8fbac	-0.3300451
214	0xbefff2fa	-0.49990064
215	0x3e91a379	0.28445032
216	0x3eee0575	0.46488538
217	0x3dfc168a	0.123089865
218	0xbe5375d7	-0.20650421
219	0x3f0b2bdd	0.54363805
220	0xbf47b96f	-0.78017324
221	0xbeeb7904	-0.45990765
222	0xbec92aea	-0.39290553
223	0xbe5f1b4d	-0.21787758
224	0xbcc4b67b	-0.024012795
225	0x3f502763	0.813101
226	0x3f44ce68	0.7687745
227	0x3ebc3a22	0.36763102
228	0x3daf2ccd	0.08553467
229	0x3eb50851	0.35357907
230	0xbe4a26cd	-0.19741364
231	0xbea90231	-0.33009484
232	0xbcff7f99	-0.031188773
233	0x3e9e7a88	0.3095286
234	0x3f260058	0.64844275
235	0x3e80d42b	0.2516187
236	0xbeb06fa7	-0.34460184
237	0xbe8e10c1	-0.27747157
238	0xbe928731	-0.28618768
239	0xbf72e08e	-0.94873893
240	0xbd879338	-0.066198766
241	0x3eb0fc5f	0.34567544
242	0xbe1e1e63	-0.15441279
243	0x3f2251e7	0.63406223
244	0xbe35d56e	-0.17757198
245	0xbf285ab4	-0.657634
246	0xbf68ff60	-0.9101467
247	0xbc88f9ef	-0.01672074
248	0x3dc5ff39	0.096678205
249	0x3ebf6878	0.3738439
250	0x3e17f6e9	0.14840282
251	0x3ef8d197	0.48597404
252	0xbf643117	-0.89137405
253	0x3dc2d959	0.09514112
254	0xbde3868d	-0.11109648
255	0xbe982415	-0.29715028

embedding_item_mlp.weight f4 [3706, 8]
0	0xbf8351aa	-1.0259297
1	0xbfa80b97	-1.3128537
2	0xbeaec559	-0.3413494
3	0x3fddb192	1.7319815
4	0x3f9cd7c9	1.2253352
5	0x3fbda006	1.481446
6	0xbf568301	-0.83793646
7	0x3d9999b8	0.07500023
8	0xbf36f2df	-0.7146434
9	0xbe9d0585	-0.30668274
10	0xbe94a41d	-0.29031458
11	0xbd890863	-0.06691053
12	0x3e219de0	0.15782881
13	0xbe871121	-0.26380256
14	0x3c8f1063	0.017463868
15	0x3ea96ff1	0.33093217
16	0xbeb76b62	-0.35824114
17	0x3e544686	0.20730028
18	0xbf086778	-0.5328288
19	0xbd24fd7a	-0.040280797
20	0x3e923400	0.28555298
21	0x3ef60ecf	0.48058173
22	0xbe3f3ad8	-0.18674791
23	0x3dfdc11a	0.12390347
24	0xbf51d1a5	-0.8196052
25	0xbf41d34a	-0.75713027
26	0xbf2735f8	-0.65316725
27	0x3f03b572	0.5144874
28	0x3e584ba8	0.2112261
29	0x3f9e28ed	1.235624
30	0xbf60fb85	-0.8788379
31	0x3f574813	0.8409435
32	0xbee26cb0	-0.44223547
33	0xbfbc1fb8	-1.469718
34	0xbf79a5db	-0.975187
35	0x3f09767a	0.53696406
36	0x3eef7cc8	0.46774888
37	0x3ee093dc	0.43862808
38	0xbe9e4f11	-0.30919698
39	0x3fa17825	1.261479
40	0xbf5f565d	-0.87241155
41	0xbf43afac	-0.7643993
42	0xbec14798	-0.37749934
43	0xbf0fad9f	-0.561243
44	0x3ed3f8ec	0.4140085
45	0x3f9681ab	1.1758322
46	0xbea41c68	-0.32052922
47	0x3efde688	0.49589944
48	0xbe807d85	-0.25095764
49	0xbe21f47a	-0.15815917
50	0xbd4bdc42	-0.0497706
51	0xbe75d73d	-0.24007888
52	0x3da1b55a	0.07895918
53	0x3d476791	0.048682753
54	0x3dcfb71c	0.10142347
55	0xbdb1cef7	-0.086820535
56	0xbe10ccd2	-0.14140633
57	0xbeea426e	-0.45753807
58	0xbd568be8	-0.05237952
59	0xbed32134	-0.4123627
60	0x3f11cc98	0.5695281
61	0x3eff8870	0.4990878
62	0x3c967de4	0.018370576
63	0x3de9a86e	0.114090785
64	0xbd08db55	-0.033412296
65	0x3e9f11d5	0.31068292
66	0xbed07b4a	-0.40719062
67	0xbec70c73	-0.38876686
68	0x3d5b9e17	0.053617563
69	0xbe10efd6	-0.1415399
70	0xbd9a39e0	-0.0753057
71	0x3e1da24c	0.15393943
72	0xbefe52f5	-0.49672666
73	0x3d2570c4	0.040390745
74	0xbeb7ba92	-0.3588453
75	0x3ed18868	0.40924382
76	0x3de88431	0.113533385
77	0x3f42a628	0.76034784
78	0xbe3bc951	-0.18338515
79	0xbd0bdf9b	-0.034148794
80	0xbdf8cd9c	-0.12148592
81	0xbe389393	-0.18025045
82	0xbe7ebd63	-0.24876933
83	0xbe7ef0d2	-0.24896553
84	0x3e555874	0.20834523
85	0x3d893f67	0.06701546
86	0xbe83dccb	-0.2575439
87	0x3de0c41b	0.10974904
88	0xbdf49962	-0.11943318
89	0x3e713087	0.23553668
90	0xbd9545ac	-0.072886795
91	0xbd821e32	-0.063534155
92	0x3d9edf98	0.07757491
93	0xbea4d7ad	-0.32195798
94	0xbdf74bf1	-0.120750315
95	0x3e938333	0.28811035
96	0x3d24c7ca	0.040229596
97	0x3ed03103	0.40662393
98	0x3d83f199	0.064425655
99	0x3d1b1f59	0.037871692
100	0xbedade30	-0.4274764
101	0x3c50f503	0.012753728
102	0x3e29e29f	0.16590355
103	0xbc07ab47	-0.008280582
104	0x3ee68655	0.45024362
105	0x3cf0b83d	0.029384727
106	0xbe022c4e	-0.12712213
107	0xbedb2c57	-0.42807266
108	0xbe8d7cec	-0.2763437
109	0x3ddf011f	0.10888886
110	0x3d9e709e	0.07736324
111	0x3e106a8d	0.14103146
112	0xbf5867f8	-0.84533644
113	0xbd0c1a29	-0.034204636
114	0xbef81985	-0.4845697
115	0x3e19b334	0.15009767
116	0x3df4de9c	0.11956522
117	0xbc2c2f63	-0.010509345
118	0xbee91551	-0.45524076
119	0x3ed01872	0.4064365
120	0xbf58f611	-0.8475047
121	0xbe98d72c	-0.29851663
122	0xbedeaacd	-0.43489686
123	0x3e90165f	0.28142068
124	0xbda5aad8	-0.080892265
125	0x3ce20b3f	0.027593253
126	0xbea1ca56	-0.31599683
127	0x3e8ff2f9	0.2811506
128	0x3f3c7e0f	0.7362985
129	0xbf86069d	-1.0470768
130	0xbe7d0b7d	-0.24711414
131	0xbf36529b	-0.71219796
132	0x3f04a84d	0.51819307
133	0x3e081633	0.13289718
134	0xbdc6351d	-0.09678099
135	0x3ef06384	0.46950924
136	0x3df72e95	0.12069432
137	0x3d520ca8	0.0512816
138	0xbef95a19	-0.48701552
139	0xbec91d4f	-0.39280173
140	0x3ec0fc16	0.37692326
141	0xbe7be9b6	-0.24600872
142	0x3e61b2bc	0.22040838
143	0xbe8e7e35	-0.27830663
144	0xbe99b7f7	-0.30023167
145	0xbe262ddf	-0.16228436
146	0x3e7cd6b1	0.24691273
147	0x3e9472aa	0.28993732
148	0x3bbb4ddc	0.0057160687
149	0xbe2c3cd4	-0.16820079
150	0x3e8495a5	0.2589542
151	0xbebffe49	-0.37498692
152	0xbe8121ea	-0.25221187
153	0xbe3eb347	-0.18623076
154	0xbe9e6be3	-0.30941686
155	0xbe794d52	-0.24345902
156	0xbe0adeaa	-0.13561502
157	0x3f1b16e4	0.60581803
158	0xbdf41824	-0.11918667
159	0xbd33edbc	-0.043927893
160	0xbe83061a	-0.25590593
161	0x3e549379	0.20759381
162	0x3e999b92	0.30001503
163	0x3f03159a	0.51204836
164	0x3ea8c6cd	0.32964173
165	0x3de580fa	0.11206241
166	0xbef9306b	-0.48669752
167	0x3e189272	0.14899614
168	0x3eb2f7b1	0.349546
169	0xbecda616	-0.40165776
170	0x3e1ed4e7	0.15510903
171	0xbed184b3	-0.40921554
172	0x3eee110c	0.4649738
173	0x3ea3153f	0.31852147
174	0x3f08e707	0.5347752
175	0x3dc9bc71	0.098503955
176	0xbe59ebf6	-0.21281418
177	0xbf2688a5	-0.65052253
178	0xbf317cb0	-0.69330883
179	0x3f55a0be	0.834484
180	0x3ec20b57	0.37899277
181	0x3f30b545	0.69026595
182	0xbf2c9b58	-0.67424536
183	0x3e9d42c9	0.30715016
184	0xbf68f289	-0.9099508
185	0xbfa6d28e	-1.3033006
186	0xbf3b91bc	-0.7326925
187	0x3f9249eb	1.1428808
188	0x3f8c9ced	1.098539
189	0x3f2dcd73	0.67891616
190	0xbf298887	-0.6622395
191	0xbd68486a	-0.056709684
192	0xbc83214b	-0.016007086
193	0xbea041b3	-0.31300125
194	0x3ebdb2b5	0.37050405
195	0x3d357885	0.04430439
196	0xbbb6a846	-0.005574259
197	0x3ecac2a9	0.3960164
198	0xbb825df8	-0.003978487
199	0x3e6df151	0.23236586
200	0xbe2cc7e1	-0.16873123
201	0x3dfda9c0	0.12385893
202	0xbda4b810	-0.0804292
203	0xbea90141	-0.3300877
204	0x3da9f99d	0.08299563
205	0xbe025252	-0.12726715
206	0x3e99630b	0.29958376
207	0x3ce451d7	0.027871056
208	0xbeb46603	-0.3523408
209	0xbf779cf4	-0.96723866
210	0xbf17010c	-0.5898597
211	0x3f1df236	0.6169771
212	0x3ea6002e	0.32422012
213	0x3f2d0e22	0.6759969
214	0xbf09d47f	-0.5383987
215	0x3e962465	0.29324642
216	0xbf298f05	-0.66233855
217	0xbf3724d1	-0.7154055
218	0xbedbd7e3	-0.42938146
219	0x3f452584	0.7701037
220	0x3fa169e2	1.2610438
221	0x3f8b155f	1.0865897
222	0xbf19f041	-0.60132223
223	0xbd7875e6	-0.06065931
224	0x3ec04693	0.37553844
225	0xbe9ee9f4	-0.31037867
226	0x3eee512e	0.4654631
227	0xbf42411a	-0.7588059
228	0xbe456902	-0.19278339
229	0x3e4fd034	0.20294267
230	0x3eb41721	0.35173896
231	0xbe65fae1	-0.22458984
232	0x3eb52ac1	0.3538418
233	0xbf0bb418	-0.54571676
234	0x3e68f4a1	0.22749569
235	0xbeda7981	-0.42670825
236	0x3f6d1ad8	0.92619085
237	0x3ee5a48d	0.44852105
238	0x3e19c292	0.15015629
239	0x3eeb79ef	0.45991465
240	0x3de277fd	0.11058042
241	0xbece7d2d	-0.40329877
242	0xbe422910	-0.18960977
243	0x3dd9cac9	0.10634381
244	0x3e8e7358	0.27822375
245	0xbe06fe61	-0.13182975
246	0x3d7ad524	0.061238423
247	0xbe27a574	-0.16371709
248	0xbe058f21	-0.1304288
249	0xbf28c467	-0.65924686
250	0x3e8dabd9	0.27670172
251	0x3f04c308	0.51860094
252	0x3e1b3235	0.15155871
253	0x3f946380	1.1592865
254	0xbde204e9	-0.11036093
255	0xbe247204	-0.16059119

embedding_user_mf.weight f4 [6040, 8]
0	0x3df10280	0.11768055
1	0x3e5cc00f	0.2155764
2	0xbe66c838	-0.22537315
3	0x3f1313bc	0.5745199
4	0x3d00ecde	0.031475894
5	0xbf06044a	-0.52350295
6	0xbcfa9745	-0.030589709
7	0xbfc0816f	-1.50395
8	0xbd0972cc	-0.033556744
9	0xbeda0b23	-0.42586622
10	0x3e1473a4	0.14497238
11	0x3fb69687	1.4264687
12	0x3e2b950a	0.16756073
13	0x3dc9045f	0.09815287
14	0x3ebb1253	0.36537418
15	0x3d3b59f7	0.045740094
16	0x3ef9b581	0.4877129
17	0xbf4f37a9	-0.80944306
18	0xbd88b330	-0.06674802
19	0xbd709a39	-0.05874083
20	0x3dea4cef	0.11440455
21	0x3f5848df	0.8448619
22	0x3ec54c37	0.3853471
23	0xbf66c814	-0.90149045
24	0xbe23e821	-0.16006519
25	0xbda45a39	-0.08025021
26	0x3f1053de	0.5637797
27	0x3f50c2f2	0.8154746
28	0xbf16da07	-0.58926433
29	0x3f886e78	1.0658712
30	0x3f0edd59	0.558065
31	0xbf0da997	-0.553369
32	0xbcc0fab7	-0.02355705
33	0xbef308be	-0.47467607
34	0xbdfc8368	-0.12329751
35	0x3eaa44e3	0.3325568
36	0xbf8b4b98	-1.0882444
37	0xbf1b2b76	-0.6061319
38	0xbf045ed9	-0.51707226
39	0x3d9ae03a	0.07562299
40	0x3eb99636	0.36247414
41	0x3e2a4237	0.16626821
42	0xbf21c576	-0.63191926
43	0x3f1a542c	0.60284686
44	0x3f386b0a	0.7203833
45	0xbe313659	-0.17305888
46	0x3ee15dac	0.44016778
47	0xbeb88898	-0.36041713
48	0x3f4ac0dd	0.79200536
49	0xbf46d40e	-0.7766732
50	0x3f1c5624	0.6106894
51	0x3efb61cd	0.49098054
52	0xbf00822a	-0.50198615
53	0x3f64a5d5	0.8931554
54	0x3eafb904	0.34320843
55	0xbeb28ec3	-0.34874544
56	0x3f139d5b	0.5766198
57	0xbf4da77f	-0.80333704
58	0x3ebf87b5	0.37408224
59	0x3f7b1295	0.9807523
60	0xbf4b7fa6	-0.7949165
61	0xbf520396	-0.8203672
62	0xbe2904ad	-0.1650569
63	0xbe23fea8	-0.16015112
64	0x3e8b3185	0.27186218
65	0xbfa14f29	-1.2602283
66	0x3e912182	0.28345877
67	0x3f796aa2	0.97428334
68	0xbe8c86ab	-0.27446494
69	0xbf0929d5	-0.53579456
70	0xbef28604	-0.4736787
71	0xbf670c49	-0.9025312
72	0x3e8713a6	0.26382178
73	0x3e870c5b	0.26376614
74	0xbf490821	-0.7852803
75	0x3ef29179	0.47376612
76	0x3d57c7f5	0.05268093
77	0x3ea85be7	0.32882616
78	0x3d9e9d11	0.07744802
79	0xbf306889	-0.6890951
80	0x3d2085a2	0.039189942
81	0xbf548e15	-0.830293
82	0xbf143a95	-0.5790189
83	0xbed564dd	-0.41678515
84	0xbeaf803c	-0.34277523
85	0xbf076166	-0.52882993
86	0xbd360ba6	-0.044444703
87	0xbf54fa94	-0.8319485
88	0xbee82889	-0.45343426
89	0xbf0389dd	-0.5138224
90	0x3e7b4b83	0.24540524
91	0x3cb952d4	0.022622503
92	0xbdd5168d	-0.10404692
93	0x3f1bebf9	0.6090694
94	0xbe95f70c	-0.29290044
95	0xbf453609	-0.77035576
96	0x3ee9f47b	0.45694336
97	0x3dc17893	0.09446826
98	0xbe97d22c	-0.29652536
99	0x3fb1e257	1.3897198
100	0xbe4121aa	-0.18860498
101	0x3f3e55b1	0.74349505
102	0xbcf9f398	-0.030511662
103	0x3e840fe9	0.25793388
104	0xbe95f568	-0.29288793
105	0xbe034a41	-0.12821294
106	0x3c46bb67	0.012129641
107	0xbe8feecb	-0.28111872
108	0xbf0d1cbe	-0.5512198
109	0x3d8e7b4b	0.0695711
110	0x3ebd960f	0.37028548
111	0xbed2f80e	-0.41204876
112	0x3f41ad7d	0.7565535
113	0xbf80ebaf	-1.0071925
114	0x3ea57ccd	0.32321778
115	0x3eb0fe4a	0.34569007
116	0x3ceed64e	0.029154923
117	0xbe150493	-0.14552526
118	0x3ed31f80	0.4123497
119	0xbf0c0fdb	-0.54711694
120	0x3f430fa5	0.76195747
121	0x3e770230	0.24121928
122	0xbeb658c7	-0.35614607
123	0x3e74ba7c	0.23899263
124	0x3ed6bf76	0.41942948
125	0x3c8a5954	0.016888298
126	0x3eb49543	0.35270128
127	0x3dba4a08	0.090961516
128	0x3e318ef1	0.17339684
129	0x3d12604a	0.03573636
130	0x3e25eae2	0.16202882
131	0x3ef0d8b0	0.4704032
132	0xbf58533c	-0.84502006
133	0x3e9112f3	0.2833477
134	0xbe7645f5	-0.24050124
135	0x3f178ac9	0.59196144
136	0x3f11979a	0.5687195
137	0xbd22f11d	-0.039780725
138	0xbe43ac4b	-0.19108693
139	0x3f6f9f5d	0.93602544
140	0xbeb7bf08	-0.35887933
141	0x3da6afc8	0.08138996
142	0xbe8fa360	-0.28054333
143	0xbf022410	-0.50836277
144	0x3f0bdb06	0.5463108
145	0x3d81bb37	0.063345365
146	0x3e506b35	0.20353396
147	0xbda50bf5	-0.08058921
148	0xbed294e1	-0.4112921
149	0x3f5f8f36	0.873279
150	0x3d41969d	0.047262777
151	0xbf57c4dd	-0.84284765
152	0x3edd99b9	0.43281344
153	0xbf49c390	-0.7881403
154	0x3e0df8aa	0.13864389
155	0x3d87ac8e	0.06624709
156	0xbec1aafa	-0.37825757
157	0x3eeea949	0.4661353
158	0xbe0a7956	-0.13522848
159	0xbe87ab84	-0.26498044
160	0x3f40f7d2	0.75378144
161	0x3e45b0a6	0.19305667
162	0xbe806901	-0.25080112
163	0x3e5dd796	0.21664271
164	0xbed8bd0b	-0.42331728
165	0x3e8fcf6c	0.28087938
166	0xbf2fee9a	-0.6872345
167	0xbf20b3b9	-0.62774235
168	0x3f1b0562	0.6055509
169	0xbf1f3a14	-0.62197995
170	0xbe93c2b4	-0.28859484
171	0xbe82e829	-0.2556775
172	0xbf28af42	-0.6589242
173	0x3efd569f	0.4948015
174	0x3df42e89	0.119229384
175	0xbf1e5099	-0.6184173
176	0xbd5ffdc9	-0.054685388
177	0xbe68aa50	-0.22721219
178	0xbe84b435	-0.25918737
179	0x3e8b1052	0.2716089
180	0xbf82652d	-1.0187126
181	0x3f0bf29a	0.54667056
182	0xbe1b86a9	-0.15188088
183	0x3eb8fa23	0.3612834
184	0xbd472124	-0.04861559
185	0xbeda806a	-0.42676097
186	0xbf570fcb	-0.84008473
187	0x3edb59d0	0.4284196
188	0xbec37870	-0.38177824
189	0xbe3c3c30	-0.18382335
190	0x3eb30411	0.3496404
191	0xbe6d53cd	-0.23176499
192	0x3f31f5ff	0.69515985
193	0xbedd650c	-0.43241155
194	0xbd8dd44f	-0.0692526
195	0x3f0afb99	0.5429016
196	0xbefd6d9f	-0.49497697
197	0x3f241c5d	0.6410578
198	0xbf107870	-0.56433773
199	0xbeb897d5	-0.3605334
200	0x3f15974c	0.58433986
201	0xbebbbbd1	-0.3666673
202	0xbf67d8cc	-0.9056518
203	0xbc90798c	-0.017636083
204	0x3e3123e1	0.17298843
205	0xbe806ac2	-0.2508145
206	0x3f7e8d51	0.9943438
207	0xbe8cc2f2	-0.2749248
208	0xbefc6dbf	-0.4930248
209	0x3daeba76	0.08531658
210	0xbe90a7a7	-0.2825291
211	0x3edca9a3	0.43098173
212	0xbe802a83	-0.25032434
213	0x3f056c32	0.5211822
214	0xbdcf9fbd	-0.101378895
215	0xbf0a7192	-0.54079545
216	0xbe9a7f4a	-0.3017524
217	0x3de5a688	0.11213404
218	0xbec7a097	-0.38989708
219	0x3ed672d7	0.4188449
220	0xbf13c12e	-0.57716644
221	0xbe6fc711	-0.23415782
222	0xbab32e8a	-0.0013670486
223	0xbf033071	-0.5124579
224	0x3d7f9c05	0.06240465
225	0xbe76b1b7	-0.2409123
226	0x3f25e100	0.6479645
227	0x3f21e922	0.6324636
228	0xbe75af39	-0.23992623
229	0x3fa9fe07	1.3280648
230	0x3f16385a	0.58679736
231	0x3e98faef	0.29878947
232	0xbddb6cb2	-0.10714091
233	0xbecc1ec7	-0.3986723
234	0x3e862d81	0.26206592
235	0x3ef2fbc5	0.4745771
236	0xbf100371	-0.5625525
237	0xbf2be5d1	-0.67147547
238	0xbe61c4c4	-0.22047716
239	0xbedccded	-0.4312586
240	0xbea55cb9	-0.32297304
241	0xbe4a72aa	-0.19770303
242	0xbf9adbc4	-1.2098317
243	0xbec39667	-0.38200685
244	0x3f4507b0	0.76964855
245	0x3f582758	0.84435034
246	0x3e3794fa	0.17927924
247	0xbee5a21a	-0.44850236
248	0xbe0adc6f	-0.13560651
249	0xbed7ed79	-0.42173365
250	0x3cdfb064	0.02730579
251	0x3ef06d37	0.46958324
252	0xbef34478	-0.47513175
253	0xbebe989a	-0.372258
254	0x3e2d37f1	0.16915871
255	0xbe07a6f2	-0.13247278

embedding_item_mf.weight f4 [3706, 8]
0	0x3edbefb9	0.4295633
1	0xbd2ba303	-0.041903507
2	0xbdc2bbc6	-0.09508471
3	0x3e786eb2	0.24260977
4	0x3e9fa2f0	0.31179
5	0x3ca9eb74	0.020742156
6	0x3ecb3c02	0.3969422
7	0x3ee992ad	0.45619717
8	0xbe44a12f	-0.19202112
9	0xbf2c64f9	-0.6734157
10	0x3e212f05	0.15740593
11	0x3e217662	0.15767816
12	0x3e2ca76d	0.16860743
13	0xbdf1fe4d	-0.11816082
14	0xbf44d266	-0.7688354
15	0x3f185ac0	0.59513474
16	0x3e4ea9fb	0.2018203
17	0xbf917139	-1.1362678
18	0x3e8986d3	0.26860675
19	0x3f0db4bf	0.5535392
20	0xbf090a9c	-0.53531814
21	0xbe98d286	-0.29848117
22	0x3e32c838	0.1745919
23	0x3e9eff9c	0.3105439
24	0x3d1188da	0.035530902
25	0x3eb5751b	0.35440907
26	0xbebdbc6f	-0.37057826
27	0xbcb8a724	-0.022540636
28	0xbefdb926	-0.4955532
29	0xbed4d8d3	-0.41571674
30	0x3e01ea87	0.12687121
31	0x3de919d5	0.1138188
32	0xbe8725f2	-0.26396137
33	0x3d439ffb	0.04775999
34	0x3e9c4af3	0.30525932
35	0x3d184839	0.037178252
36	0xbe1dc71c	-0.15407985
37	0x3b80f130	0.003935002
38	0xbe911659	-0.28337362
39	0x3f18a66c	0.5962894
40	0xbe11cbfa	-0.14237967
41	0x3e7c77d6	0.24655089
42	0x3f3cb890	0.7371912
43	0x3e9296d8	0.2863071
44	0x3edade17	0.42747566
45	0x3ecfbe17	0.40574715
46	0x3d86c380	0.065802574
47	0x3eb94c6b	0.36191115
48	0x3e279476	0.16365227
49	0xbedda49a	-0.43289644
50	0xbe9c372a	-0.30510837
51	0x3f4c9d4a	0.79927504
52	0xbef359d9	-0.47529486
53	0x3f23c5c7	0.6397366
54	0x3e0f2fa0	0.13983011
55	0x3e4a068b	0.19729058
56	0x3e725b13	0.23667555
57	0x3dd666d7	0.10468834
58	0x3f02f7f0	0.5115957
59	0xbe76f516	-0.2411693
60	0x3eb37f83	0.3505822
61	0x3e857532	0.26065975
62	0x3ec265ce	0.37968296
63	0x3f75daea	0.9603716
64	0xbdfa336b	-0.122168384
65	0xbfa148ed	-1.260038
66	0x3e4f7a5d	0.20261522
67	0x3edccd48	0.43125367
68	0xbc992f5f	-0.018699346
69	0x3dc67859	0.09690923
70	0xbec3b56b	-0.38224348
71	0x3fb3ce49	1.4047328
72	0x3e77d215	0.24201234
73	0xbf0cacf0	-0.5495138
74	0x3e92e41c	0.2868966
75	0x3f520a6c	0.8204715
76	0x3e548f21	0.20757724
77	0x3e3d2df8	0.18474567
78	0x3e432fbb	0.19061176
79	0x3fa4367c	1.2829127
80	0xbedef908	-0.4354937
81	0xbf185866	-0.59509885
82	0x3e7f8e88	0.24956715
83	0x3f2dbf00	0.6786957
84	0x3da4eb64	0.0805271
85	0xbe95402f	-0.2915053
86	0xbedb4abc	-0.42830455
87	0x3f9dca46	1.2327354
88	0x3eb40434	0.35159457
89	0xbfb6fe2a	-1.4296315
90	0x3d957cb9	0.072991796
91	0x3e57261a	0.21010628
92	0xbf5246be	-0.82139194
93	0xbec01a85	-0.37520233
94	0xbeb0e29a	-0.34547883
95	0x3bf1bf29	0.0073775244
96	0x3e8fc060	0.28076458
97	0xbf611270	-0.8791876
98	0xbe7726a0	-0.24135828
99	0x3f1ba8ff	0.6080474
100	0xbf0a9967	-0.54140323
101	0xbe71f25e	-0.23627612
102	0x3eaea611	0.34111074
103	0x3f70b9ef	0.9403371
104	0x3e31f74b	0.17379491
105	0x3ef23976	0.47309464
106	0x3fa5ebc8	1.296258
107	0xbe566a8d	-0.20939083
108	0x3ec83944	0.3910619
109	0x3e98f928	0.2987759
110	0x3f442d0c	0.76631236
111	0x3f9257a1	1.1432992
112	0x3dcee775	0.10102741
113	0xbf2bd244	-0.67117715
114	0x3e65afca	0.2243034
115	0x3e77889e	0.24173209
116	0xbe6143e2	-0.21998551
117	0xbe2a8350	-0.16651654
118	0x3dd06895	0.101761974
119	0x3f2c0f84	0.67211175
120	0x3e878f7c	0.26476657
121	0x3ea74ee5	0.3267738
122	0x3f4b023c	0.79300284
123	0xbeec6eb7	-0.4617822
124	0x3df67956	0.12034862
125	0x3edcec9b	0.43149266
126	0x3f001496	0.5003141
127	0x3f353151	0.70778376
128	0xbec74b59	-0.38924673
129	0xbf0dc9bd	-0.55385953
130	0xbd9a123c	-0.07523009
131	0x3eb223eb	0.34793028
132	0xbe07a2db	-0.13245718
133	0xbd8a1f31	-0.067442305
134	0xbf0a3f86	-0.5400318
135	0x3f2261b3	0.6343033
136	0xbdba49de	-0.0909612
137	0xbf84968c	-1.0358443
138	0x3de27c5a	0.110588744
139	0x3eba1ff7	0.36352512
140	0xbdf21f00	-0.11822319
141	0x3cbab531	0.022791477
142	0xbea3292c	-0.3186735
143	0x3fa1ed96	1.265063
144	0xbb9ac0bc	-0.0047226828
145	0xb9c245ba	-0.00037054514
146	0x3da30af4	0.079610735
147	0x3f293274	0.6609261
148	0x3e99e504	0.30057538
149	0xbf42ab37	-0.76042503
150	0x3f01ae10	0.50656223
151	0x3ef0622e	0.46949905
152	0xbd46d5b5	-0.04854365
153	0xbd70f47f	-0.05882692
154	0x3f7fd33d	0.999317
155	0xbcb19ef1	-0.021682234
156	0x3ec15cc6	0.37766093
157	0x3e9d4078	0.30713248
158	0x3f0823d9	0.531797
159	0x3f2542a8	0.64554834
160	0xbdb69771	-0.08915604
161	0x3f0cc62f	0.54989904
162	0x3f1c21c9	0.6098905
163	0xbd8395ba	-0.064250425
164	0xbd563674	-0.052298024
165	0xbe27bfbe	-0.16381738
166	0xbda551f4	-0.08072272
167	0x3f17fd92	0.5937129
168	0x3e8f6cf9	0.28012827
169	0xbdce977d	-0.10087488
170	0x3d5d73df	0.05406558
171	0x3e82af08	0.25524163
172	0x3e7c5941	0.24643423
173	0xbbbf5734	-0.005839253
174	0xbf8ea1ac	-1.1143088
175	0x3ee9edda	0.4568928
176	0xbd4e3739	-0.050345633
177	0x3d92aa8d	0.07161436
178	0x3f845b2f	1.0340327
179	0x3dc829df	0.09773611
180	0x3f1d2db9	0.6139789
181	0x3f039379	0.513969
182	0x3f05031e	0.5195788
183	0x3f13f5d0	0.57796955
184	0x3dfc92a1	0.12332655
185	0x3e828b47	0.25496885
186	0xbe4b8f7a	-0.1987895
187	0x3f347e67	0.70505375
188	0x3eb8c6ab	0.36089072
189	0xbe1ff045	-0.15619
190	0x3e993351	0.29921964
191	0x3f2a6ae1	0.66569334
192	0xbeafdf04	-0.34349835
193	0x3dbb3010	0.091400266
194	0xba32aea7	-0.00068161864
195	0xbe10e73b	-0.14150707
196	0xbf089ead	-0.5336712
197	0xbf076e1e	-0.529024
198	0x3ead15a8	0.33805585
199	0xbed878ea	-0.4227975
200	0xbf34f0fa	-0.706802
201	0xbf70a7c2	-0.9400598
202	0x3e3ce424	0.18446404
203	0x3ec86724	0.3914119
204	0xbece13ef	-0.40249583
205	0xbef5cf04	-0.48009503
206	0xbf1b4061	-0.6064511
207	0x3f15a153	0.58449286
208	0xbe34cd7b	-0.1765651
209	0xbec45f14	-0.3835379
210	0x3f2dfef5	0.6796716
211	0x3f0eca59	0.5577751
212	0x3f462d98	0.7741332
213	0x3e2d5cf3	0.16929989
214	0x3ed9717d	0.42469397
215	0x3f210f1c	0.6291368
216	0xbea04994	-0.31306136
217	0x3e318810	0.1733706
218	0x3d884306	0.06653409
219	0x3f016131	0.5053893
220	0x3c85c036	0.016327005
221	0xbeeaff88	-0.4589808
222	0x3ec32ebc	0.38121593
223	0x3e5f93d8	0.21833742
224	0x3f0b937a	0.54521906
225	0xbe94e4fe	-0.29080957
226	0xbf528224	-0.8222983
227	0x3c91e0db	0.017807415
228	0xbeb9d16f	-0.36292598
229	0xbf8e10a2	-1.1098826
230	0xbf210caa	-0.6290995
231	0xbe996ac9	-0.29964283
232	0x3ea5a29a	0.32350618
233	0x3dfa45a5	0.12220315
234	0x3ec98e03	0.3936616
235	0x3e6b19d1	0.22959067
236	0x3e9cebda	0.3064869
237	0x3d92cd58	0.071680725
238	0xbf8b908f	-1.0903491
239	0x3e9dfaa7	0.30855295
240	0xbebc54e3	-0.36783513
241	0xbe95318f	-0.29139373
242	0x3e2d7326	0.16938457
243	0x3ebcb2ff	0.36855313
244	0x3daf091c	0.08546659
245	0xbe35e75f	-0.17764042
246	0xbedd2591	-0.43192723
247	0x3f2da01a	0.6782242
248	0x3c4f26d8	0.012643538
249	0x3e44fe09	0.19237532
250	0xbed7c0bc	-0.42139232
251	0xbee55bdb	-0.44796643
252	0xbe00bc72	-0.12571886
253	0xbf467526	-0.77522504
254	0x3c5c614a	0.01345093
255	0xbd80c85a	-0.06288214

fc_layers.0.weight f4 [64, 16]
0	0xbe908289	-0.2822459
1	0xbeca05cd	-0.3945755
2	0xbe37bdcc	-0.17943496
3	0x3ef636d2	0.480887
4	0x3d9beef4	0.07613936
5	0xbf38cbc6	-0.72185934
6	0xbf528293	-0.8223049
7	0xbebc207d	-0.36743537
8	0xbd68107e	-0.056656353
9	0x3d1e84a0	0.0387007
10	0x3ea00032	0.3125015
11	0xbe941d7b	-0.28928742
12	0xbf351e48	-0.7074933
13	0xbf0a3799	-0.53991085
14	0x3e637591	0.22212817
15	0x3e5cb768	0.21554339
16	0xbf54972d	-0.83043176
17	0x3eb07e8a	0.34471542
18	0xbd71ca25	-0.05903067
19	0xbeb96eb4	-0.36217272
20	0xbeb90386	-0.361355
21	0x3e40338e	0.18769667
22	0x3d02164b	0.03175954
23	0xbec82485	-0.39090362
24	0xbf10debf	-0.56589884
25	0x3e539ccb	0.2066528
26	0x3eaf8667	0.34282228
27	0xbd725839	-0.059166167
28	0x3ee3e9d8	0.44514346
29	0x3e7b7500	0.2455635
30	0x3ed45271	0.41469148
31	0xbf4ed9d9	-0.8080116
32	0x3eed84e0	0.46390438
33	0x3ebce0a0	0.36890125
34	0x3e95e8b6	0.29279107
35	0x3e40cd07	0.18828212
36	0x3e4c8652	0.19973114
37	0xbf2222aa	-0.63334143
38	0x3db2b2f4	0.08725539
39	0x3f713c8a	0.94233
40	0x3f57c8e2	0.842909
41	0x3d503ef4	0.050841287
42	0x3e97b166	0.29627532
43	0xbf0d5b8c	-0.55217814
44	0x3faf83ba	1.3712075
45	0x3ee5d4a0	0.44888783
46	0x3eb90633	0.36137542
47	0xbf4cfcfc	-0.80073524
48	0x3f4817ac	0.7816112
49	0x3e59125c	0.2119841
50	0xbe6179d3	-0.22019129
51	0x3dff6f2e	0.12472378
52	0xbf7d80c9	-0.99024636
53	0xbf03ad76	-0.51436555
54	0xbe9923a7	-0.29910013
55	0xbd0fe611	-0.035131518
56	0x3e1e47a1	0.15457012
57	0x3e6fbb90	0.23411393
58	0x3f4e312c	0.8054378
59	0xbe1d0815	-0.15335114
60	0xbef2ad19	-0.47397688
61	0x3e840668	0.25786138
62	0xbeade877	-0.3396642
63	0xbe95fa45	-0.29292503
64	0x3f096fbf	0.53686136
65	0x3ca63cdd	0.020292694
66	0x3e3d908a	0.18512169
67	0xbca7387d	-0.020412678
68	0x3ec4ef01	0.38463596
69	0xbf467aa2	-0.7753087
70	0xbca3c0df	-0.019989429
71	0x3e8e5f59	0.2780712
72	0x3f484888	0.78235674
73	0xbd9404fb	-0.072275124
74	0xbdc00a5a	-0.093769744
75	0xbd85b781	-0.06529141
76	0x3e4e1def	0.20128606
77	0x3d957a8e	0.07298766
78	0xbe44495b	-0.19168608
79	0xbd96b352	-0.073584214
80	0x3eed5df7	0.46360752
81	0xbd2aae55	-0.041670162
82	0x3e4f4fe8	0.20245326
83	0x3ed8fde4	0.42381203
84	0xbed66507	-0.41873953
85	0xbf1a29bd	-0.6021994
86	0xbeee4680	-0.46538162
87	0xbd82080c	-0.06349191
88	0x3edfd21f	0.43714997
89	0xbe818d13	-0.25302944
90	0xbe950de5	-0.29112163
91	0x3cdd0f98	0.026984975
92	0xbf289c6b	-0.65863675
93	0xbe7c1458	-0.24617136
94	0xbeead7bd	-0.4586772
95	0xbeeb2b32	-0.45931393
96	0x3e73fc97	0.23826824
97	0xbe94a97a	-0.2903555
98	0xbed56f1e	-0.41686338
99	0x3f255e7a	0.64597285
100	0x3e3450ec	0.17608994
101	0xbeeb832e	-0.4599852
102	0x3ef1c224	0.4721843
103	0xbf123329	-0.57109314
104	0xbf1f179e	-0.6214541
105	0x3f11fc93	0.5702602
106	0x3cec8592	0.028872285
107	0xbed0e0f4	-0.40796626
108	0xbe5b459f	-0.21413277
109	0x3d741763	0.059592616
110	0xbe907b71	-0.28219178
111	0x3ecc2908	0.39875054
112	0x3da7e74f	0.081984155
113	0x3eb4a5d5	0.3528277
114	0xbe2efe1f	-0.17089127
115	0x3e166433	0.1468666
116	0xbcd73b95	-0.026273528
117	0x3d9e0ad8	0.07716912
118	0x3d1e3b13	0.038630556
119	0xbd79a5f5	-0.060949285
120	0xbe94402c	-0.2895521
121	0xbba45f93	-0.005016276
122	0x3e837994	0.25678694
123	0xbdf6ce33	-0.12051048
124	0xbdc3b5c4	-0.095561534
125	0xbde61f77	-0.1123647
126	0x3c94847c	0.01812958
127	0xbda985b1	-0.08277453
128	0x3d777d15	0.060422022
129	0x3ebbac89	0.3665507
130	0x3ea5dda4	0.3239566
131	0xbee06c38	-0.43832564
132	0x3f3bda29	0.7337976
133	0xbd520fcc	-0.051284596
134	0x3e3f0e17	0.18657719
135	0xbef6358a	-0.48087722
136	0xbec9135c	-0.39272583
137	0xbe81b937	-0.2533662
138	0x3ee2761e	0.4423074
139	0xbc7613b3	-0.015019345
140	0x3e346954	0.17618304
141	0xbe81c5bf	-0.2534618
142	0xbe183610	-0.14864373
143	0xbe68e9d9	-0.22745456
144	0xbf0de681	-0.55429846
145	0xbb21e045	-0.0024700325
146	0x3f1080f7	0.56446785
147	0x3ddf9a59	0.10918111
148	0xbeeb14e3	-0.45914373
149	0x3e90d7cf	0.2828965
150	0xbf0c9ef6	-0.54930055
151	0xbf4d2966	-0.80141294
152	0xbe6a4ae1	-0.22880127
153	0x3f01b8d0	0.50672626
154	0x3ec873e6	0.39150923
155	0xbd98e1b4	-0.074649245
156	0xbe517ff0	-0.2045896
157	0x3a7f3dfb	0.0009736714
158	0xbe3fbead	-0.18725081
159	0xbf8d2ac6	-1.1028678
160	0x3f46982b	0.7757594
161	0x3dc020b7	0.0938124
162	0x3e12110a	0.14264312
163	0xbe258f32	-0.16167906
164	0xbf49343d	-0.78595334
165	0xbf4269b5	-0.75942546
166	0xbf4db78f	-0.80358213
167	0xbd8a56a1	-0.067548044
168	0x3ecc133c	0.39858425
169	0x3eac7f40	0.33690834
170	0x3f379eb8	0.7172656
171	0x3eb1252f	0.3459868
172	0xbc818655	-0.015811125
173	0x3eee4fc3	0.46545228
174	0xbd2912af	-0.041277584
175	0xbed79446	-0.4210531
176	0x3d828135	0.063723005
177	0x3eabe189	0.33570507
178	0x3e872b48	0.26400208
179	0x3d9353b9	0.07193703
180	0x3e6a8366	0.22901687
181	0xbf25bf1f	-0.6474475
182	0x3ef2a135	0.47388616
183	0xbe512e9b	-0.20427935
184	0xbcc507f6	-0.024051648
185	0x3ee3321c	0.44374168
186	0x3e13539f	0.14387368
187	0xbf00c36c	-0.5029819
188	0x3ebe81a4	0.37208283
189	0x3d2481e7	0.040162947
190	0x3d240a7a	0.040049054
191	0x3ed6ea48	0.41975617
192	0xbebd99be	-0.37031358
193	0x3e7165a0	0.23573923
194	0x3e712986	0.23550996
195	0x3f084b90	0.532403
196	0x3e439ba4	0.19102341
197	0xbe5fa51f	-0.21840332
198	0xbef81558	-0.48453784
199	0xbedcba3e	-0.43110842
200	0xbedb6d34	-0.42856753
201	0x3ea8b163	0.32947835
202	0x3e5ab9d6	0.21359953
203	0x3e08d102	0.1336098
204	0xbeb39565	-0.35074916
205	0xbf0a0ab1	-0.53922564
206	0x3e84b6f0	0.2592082
207	0xbc8158d5	-0.015789429
208	0xbecd7553	-0.40128574
209	0xbf13d731	-0.5775023
210	0x3ec92a44	0.3929006
211	0xbe74aa98	-0.23893201
212	0x3e5b3c4b	0.21409719
213	0xbf3615aa	-0.71126807
214	0x3f16afd0	0.5886202
215	0x3d2612b2	0.040545173
216	0x3ec155fb	0.3776091
217	0x3ef8ea80	0.4861641
218	0xbee78871	-0.45221284
219	0xbeeed599	-0.46647337
220	0x3ec52e26	0.3851177
221	0x3eb45b0c	0.35225713
222	0xbe8cb10c	-0.27478826
223	0x3e311015	0.17291291
224	0xbf62d161	-0.88600737
225	0x3cf9f669	0.030513005
226	0x3ed0186e	0.40643638
227	0xbec598d9	-0.38593176
228	0xbf40a242	-0.75247586
229	0x3e3c3e99	0.18383254
230	0xbe246e64	-0.16057736
231	0xbea6dd99	-0.3259094
232	0xbefa957f	-0.4894218
233	0x3f157f87	0.58397716
234	0x3d90e518	0.07074946
235	0x3dc5360d	0.0962945
236	0x3d78a60d	0.060705233
237	0x3e3169ce	0.17325518
238	0x3c40c7cf	0.011766388
239	0xbfb0bae9	-1.380704
240	0xbd61bf35	-0.05511399
241	0x3d049e09	0.032377277
242	0xbde8a214	-0.11359039
243	0x3f11e24a	0.56985915
244	0xbefad48c	-0.48990285
245	0x3e6b2000	0.22961426
246	0x3e51c260	0.20484304
247	0xbf5d8014	-0.86523557
248	0xbf24ed6b	-0.6442477
249	0x3e8d4990	0.27595186
250	0x3ee37853	0.44427738
251	0xbe9f68ad	-0.3113455
252	0xbde7dbf6	-0.11321251
253	0xbd29bbb9	-0.041438792
254	0x3d6463f4	0.055759385
255	0xbf256aa3	-0.6461584

fc_layers.0.bias f4 [64]
0	0x3e7cbe01	0.24681856
1	0x3e37e49f	0.17958306
2	0x3e573fdb	0.21020453
3	0xbf4af519	-0.7928024
4	0x3e56a84c	0.20962638
5	0xbf2803ce	-0.65630805
6	0xbf0fb1c4	-0.56130624
7	0xbecde0e9	-0.40210655
8	0xbefe1db5	-0.4963204
9	0xbe7c30fc	-0.24628061
10	0xbf60d998	-0.8783202
11	0x3ec3b6a2	0.38225275
12	0xbca5aa84	-0.02022291
13	0xbea1b711	-0.3158498
14	0x3e2a5ec7	0.16637717
15	0xbef53da8	-0.47898602
16	0xbe5e7d2d	-0.21727438
17	0x3ef8497f	0.48493573
18	0xbee045cd	-0.43803254
19	0xbeedfdab	-0.46482596
20	0xbd2241ec	-0.03961365
21	0xbe9d1670	-0.3068118
22	0x3e5c1eb9	0.21496095
23	0x3f0f302d	0.55932885
24	0xbf1d551b	-0.61457986
25	0x3ed8f4f9	0.423744
26	0x3f15eb3f	0.5856208
27	0x3f122821	0.5709248
28	0xbed32931	-0.41242364
29	0xbeaa909f	-0.33313462
30	0x3f1c6775	0.6109536
31	0xbf6a3da3	-0.915003
32	0xbec2a51d	-0.38016596
33	0x3f183a7b	0.59464234
34	0xbeceb3e8	-0.40371633
35	0x3e94901b	0.29016194
36	0x3db9d585	0.09073929
37	0xbe9b9e26	-0.30394095
38	0xbe757771	-0.23971345
39	0xbf0e415a	-0.5556847
40	0xbf26c269	-0.65140396
41	0x3f094696	0.5362333
42	0xbef5f5af	-0.48039004
43	0x3f01ebbc	0.5075033
44	0x3f1f276a	0.62169516
45	0x3eeec162	0.46631914
46	0xbe8f2858	-0.27960467
47	0xbec32665	-0.3811523
48	0xbec8d936	-0.3922822
49	0xbf47d76e	-0.78063095
50	0xbf10caf1	-0.56559664
51	0xbf478f66	-0.77953184
52	0xbf34c6d9	-0.7061592
53	0xbf0b1d99	-0.5434204
54	0xbec5c869	-0.38629463
55	0xbddbfde4	-0.10741785
56	0x3eb74b0c	0.35799444
57	0xbf227a96	-0.634683
58	0xbed8024b	-0.4218925
59	0xbf050e86	-0.51975286
60	0xbe36b6eb	-0.17843215
61	0x3f0be71a	0.5464951
62	0xbf518693	-0.8184597
63	0x3e33bdb0	0.17552829

fc_layers.1.weight f4 [32, 64]
0	0x3eb74024	0.35791123
1	0x3dfa3424	0.12216976
2	0xbdb95453	-0.09049287
3	0x3f0d1b70	0.5511999
4	0x3b4e126d	0.0031444088
5	0x3e1ba14b	0.15198247
6	0x3f1ea03b	0.6196324
7	0x3ec8cdca	0.39219505
8	0xbe7c0fbd	-0.24615379
9	0x3e2b6d25	0.16740854
10	0x3f79c000	0.97558594
11	0x3d8aeb51	0.06783164
12	0x3d8f84be	0.070077404
13	0x3f31ffc1	0.69530874
14	0x3e2c40a2	0.1682153
15	0x3d01c1f9	0.031679127
16	0x3dffd71c	0.12492201
17	0x3e9e6e50	0.30943537
18	0xbda1bb20	-0.078970194
19	0x3edb75c8	0.42863297
20	0xbd04db36	-0.03243562
21	0xbe6e24e8	-0.23256266
22	0x3e2c0814	0.16799957
23	0x3ea314d9	0.31851843
24	0xbf2f421c	-0.6846025
25	0x3d9c8add	0.076436736
26	0x3eb75109	0.35804012
27	0x3d4987f4	0.04920192
28	0xbda10d8e	-0.078639135
29	0xbf11508c	-0.5676353
30	0x3e193481	0.14961435
31	0x3f30ba42	0.69034207
32	0xbe3823f3	-0.17982464
33	0x3e5a86e0	0.21340513
34	0xbe42b8e8	-0.19015849
35	0xbd25a638	-0.04044172
36	0x3e545cce	0.20738527
37	0xbed274bd	-0.4110469
38	0xbef48ace	-0.4776215
39	0xbf3546e4	-0.70811296
40	0x3f1eb457	0.61993927
41	0x3d01911b	0.031632524
42	0xbf190429	-0.5977197
43	0x3c739317	0.014866612
44	0x3dd52cf3	0.10408964
45	0x3c8952cd	0.016763115
46	0xbf33e0ea	-0.70265067
47	0x3e39a1d2	0.18128136
48	0xbef828ad	-0.48468533
49	0xbf6da4d5	-0.9282964
50	0xbf03869a	-0.5137726
51	0xbf4ad9dc	-0.7923868
52	0xbf267d82	-0.6503526
53	0xbf2f7496	-0.6853727
54	0x3e31cdde	0.17363688
55	0xb8a3ec3c	-7.816448e-05
56	0x3dce2980	0.10066509
57	0xbeec1664	-0.46110833
58	0x3f47acd8	0.77998114
59	0xbf8075a5	-1.0035902
60	0x3f156c5c	0.5836847
61	0x3d9938f4	0.07481566
62	0xbf6c4f0a	-0.92308104
63	0x3f05fecd	0.5234192
64	0x3e9e0241	0.30861095
65	0x3e4077fe	0.18795773
66	0x3c3d2758	0.011545025
67	0x3f20aab6	0.62760484
68	0x3d304563	0.043034922
69	0x3e820c0b	0.25399813
70	0x3f3c27cd	0.7349823
71	0x3ec94738	0.39312148
72	0xbe452a2d	-0.1925437
73	0x3e68e31e	0.22742888
74	0x3f863e2a	1.0487721
75	0x3e155a5b	0.14585249
76	0x3de56eb3	0.11202755
77	0x3f691c66	0.9105896
78	0x3e547506	0.20747766
79	0x3e4bbcb9	0.1989621
80	0x3e24472e	0.16042778
81	0x3e96de6e	0.29466575
82	0xbdcb67cd	-0.09931908
83	0x3f089daa	0.53365576
84	0xbd04023e	-0.0322287
85	0xbeaf5574	-0.34244883
86	0x3e2743c6	0.16334447
87	0x3e713660	0.23555899
88	0xbf645bec	-0.8920276
89	0x3e009cea	0.12559858
90	0x3eba1f18	0.36351848
91	0x3d8b788d	0.068101026
92	0xbe00b3de	-0.12568614
93	0xbf1625bb	-0.5865132
94	0x3ddfddaa	0.10930951
95	0x3f3a5d60	0.7279873
96	0xbd199087	-0.037491348
97	0x3e28bfa1	0.1647935
98	0xbe2b8d41	-0.16753103
99	0x3c83f1dd	0.01610654
100	0x3e52a87d	0.20572086
101	0xbea15ea2	-0.31517512
102	0xbf11ed0b	-0.57002324
103	0xbf4a128b	-0.78934544
104	0x3f2ca212	0.674348
105	0x3d8c6463	0.06855085
106	0xbf20634b	-0.6265151
107	0x3d94a2e3	0.07257631
108	0x3e503de5	0.20336111
109	0x3d5a55ef	0.05330461
110	0xbf2f209c	-0.6840913
111	0x3e99c9d4	0.30036795
112	0xbf06f98c	-0.5272453
113	0xbf765e2b	-0.9623744
114	0xbf09b5a9	-0.53792816
115	0xbf4ea4bf	-0.8072013
116	0xbf479004	-0.77954125
117	0xbf4afb71	-0.7928992
118	0x3e815629	0.25261047
119	0x3b4d1ba7	0.0031297
120	0x3d8728ea	0.065996006
121	0xbf07800e	-0.5292977
122	0x3f463cdf	0.7743663
123	0xbf7065a8	-0.93905115
124	0x3f1ee503	0.62068194
125	0x3e052e74	0.13006002
126	0xbf80d496	-1.0064876
127	0x3ef4e5f5	0.47831693
128	0x83e020ff	-1.3173112e-36
129	0x80af87e0	-1.6119955e-38
130	0x8225fc54	-1.21947e-37
131	0x8318c087	-4.4889796e-37
132	0x82af496c	-2.575608e-37
133	0x82409f8c	-1.415172e-37
134	0x82138abc	-1.0839669e-37
135	0x0185e000	4.917791e-38
136	0x8185af78	-4.910827e-38
137	0x83840fb9	-7.7618725e-37
138	0x82886cd2	-2.0045864e-37
139	0x832b0407	-5.0257007e-37
140	0x81fedfb0	-9.362584e-38
141	0x82bae670	-2.7462508e-37
142	0x83181aad	-4.4699408e-37
143	0x8311a0ef	-4.2796413e-37
144	0x0185d708	4.916504e-38
145	0x8365cff0	-6.753575e-37
146	0x82826614	-1.9160373e-37
147	0x8330f756	-5.200568e-37
148	0x81d9e0ba	-8.003568e-38
149	0x0082f8e0	1.2027894e-38
150	0x82ae3692	-2.5598324e-37
151	0x831757b0	-4.447557e-37
152	0x8185c5b0	-4.914015e-38
153	0x8193e398	-5.432585e-38
154	0x8391338c	-8.534169e-37
155	0x82e1536a	-3.3108656e-37
156	0x83c41e70	-1.1526833e-36
157	0x8263e120	-1.6741934e-37
158	0x830c9396	-4.1311723e-37
159	0x82a6d1b4	-2.4511871e-37
160	0x808a7aa0	-1.2717288e-38
161	0x8300bfaa	-3.783584e-37
162	0x81858d30	-4.905908e-38
163	0x82a0d510	-2.363218e-37
164	0x83827cc8	-7.669362e-37
165	0x00f8a5b0	2.283464e-38
166	0x006aa2f8	9.793025e-39
167	0x82acdee4	-2.5401061e-37
168	0x828a4860	-2.0318819e-37
169	0x82aeee9a	-2.5703953e-37
170	0x8185a778	-4.909679e-38
171	0x82af3bc8	-2.5748252e-37
172	0x82c31ba6	-2.8668544e-37
173	0x82916838	-2.1365654e-37
174	0x0127b370	3.0801796e-38
175	0x824f9118	-1.5249598e-37
176	0x83dfbb1c	-1.314972e-36
177	0x81ce52e2	-7.579138e-38
178	0x011f91e0	2.9308348e-38
179	0x828409d0	-1.940129e-37
180	0x8285a1b2	-1.9635402e-37
181	0x83101dda	-4.2352065e-37
182	0x808ec8e0	-1.3112701e-38
183	0x0185a168	4.908809e-38
184	0x83277062	-4.92059e-37
185	0x826a1822	-1.7198531e-37
186	0x00575f40	8.023857e-39
187	0x8185e228	-4.9181e-38
188	0x82418d98	-1.4220036e-37
189	0x82bac708	-2.7444482e-37
190	0x82a5673c	-2.4303825e-37
191	0x8389b7a7	-8.094301e-37
192	0x852e08dd	-8.1830686e-36
193	0x858139b7	-1.2152303e-35
194	0x8525ae6d	-7.7903e-36
195	0x83045ae7	-3.8895664e-37
196	0x843cd6f1	-2.219799e-36
197	0x03219b9b	4.7492274e-37
198	0x835ae8b3	-6.4331568e-37
199	0x836e6616	-7.0059103e-37
200	0x02a38bb0	2.4030874e-37
201	0x856cba36	-1.1130868e-35
202	0x03d8cfa7	1.2743014e-36
203	0x8532030b	-8.370079e-36
204	0x84fd94ef	-5.9616788e-36
205	0x8428d908	-1.9847961e-36
206	0x859bc92b	-1.4650027e-35
207	0x8519968e	-7.221678e-36
208	0x00746b20	1.0691347e-38
209	0x8560bfdd	-1.0567669e-35
210	0x83fd9255	-1.49036e-36
211	0x84b6a720	-4.2941474e-36
212	0x818da356	-5.2029595e-38
213	0x83ce144b	-1.2112251e-36
214	0x84d33e15	-4.9662875e-36
215	0x850642ce	-6.31292e-36
216	0x03c4e166	1.1571594e-36
217	0x84ffb6e8	-6.0118185e-36
218	0x8584318e	-1.2431424e-35
219	0x85236ed2	-7.684578e-36
220	0x84be1439	-4.4687357e-36
221	0x03020b2f	3.8216405e-37
222	0x8513887e	-6.9369764e-36
223	0x83ce00ad	-1.2107747e-36
224	0x840df64c	-1.6687564e-36
225	0x8540efbf	-9.071831e-36
226	0x81e89530	-8.5437414e-38
227	0x84ce8bfe	-4.855893e-36
228	0x854b79e9	-9.5674055e-36
229	0x8483786e	-3.090855e-36
230	0x8503129d	-6.163009e-36
231	0x03702780	7.0575005e-37
232	0x03093f54	4.033338e-37
233	0x85183f04	-7.15858e-36
234	0x841bcbcc	-1.8313741e-36
235	0x84fe457c	-5.9778924e-36
236	0x8555756f	-1.0036781e-35
237	0x84e998ad	-5.4918247e-36
238	0x0286d59e	1.981214e-37
239	0x03021786	3.823057e-37
240	0x848ada8f	-3.264436e-36
241	0x01002cb0	2.354195e-38
242	0x826c68f0	-1.7368657e-37
243	0x83c82b0f	-1.1764829e-36
244	0x02290218	1.241676e-37
245	0x80a845c0	-1.5453385e-38
246	0x829aec7c	-2.2764002e-37
247	0x01858ef8	4.9061634e-38
248	0x84d7fefe	-5.078043e-36
249	0x03d631f7	1.2589261e-36
250	0x8436a77d	-2.1470904e-36
251	0x840b78c9	-1.6394833e-36
252	0x8415ddaf	-1.7616658e-36
253	0x8506ce6b	-6.338563e-36
254	0x02e9aa6c	3.433409e-37
255	0x0484798a	3.1144667e-36

fc_layers.1.bias f4 [32]
0	0xbd772222	-0.060335286
1	0x3c4bb59f	0.012433439
2	0x8376f70d	-7.2576503e-37
3	0x85cd786f	-1.9322348e-35
4	0x3ce0dc46	0.027448785
5	0x872de457	-1.3082177e-34
6	0x84fba4e1	-5.9161234e-36
7	0x86cd8149	-7.7302397e-35
8	0xbe0a3bce	-0.13499376
9	0x8185c2df	-4.913611e-38
10	0x9f1ec5ae	-3.3621318e-20
11	0x8966af31	-2.7767618e-33
12	0x852e0d0a	-8.1838356e-36
13	0x896a1a8f	-2.8179213e-33
14	0x85454266	-9.275091e-36
15	0x8a939de5	-1.4214978e-32
16	0xbe137ce4	-0.1440311
17	0x83e44ae4	-1.341783e-36
18	0x3cc139b2	0.023587082
19	0x87ee792c	-3.5881478e-34
20	0x9f5c6aac	-4.667505e-20
21	0x8727e255	-1.2630197e-34
22	0x8185b220	-4.911208e-38
23	0x8bfc7eb3	-9.7257505e-32
24	0x83bd63be	-1.1131321e-36
25	0x81aaa8c8	-6.2690327e-38
26	0x3e80e119	0.25171736
27	0x8f8dca67	-1.3981636e-29
28	0x8516eadf	-7.096105e-36
29	0x3de6925b	0.11258384
30	0x82f0e64a	-3.539701e-37
31	0x933f2be0	-2.4129221e-27

fc_layers.2.weight f4 [16, 32]
0	0x3dfe10ca	0.12405546
1	0x3e459ea2	0.19298795
2	0x8183af60	-4.837345e-38
3	0x8398619c	-8.956167e-37
4	0x3e66a0c6	0.22522268
5	0x05cc5fae	1.9219215e-35
6	0x02ba6ce3	2.7392742e-37
7	0x868e08a6	-5.342717e-35
8	0x3ea50ab1	0.3223472
9	0x8185abed	-4.9103185e-38
10	0x1d6a182b	3.0982137e-21
11	0x87dc2e7b	-3.312924e-34
12	0x817e9ae0	-4.676355e-38
13	0x878c60df	-2.1121794e-34
14	0x83deb547	-1.30896065e-36
15	0x8b185f04	-2.9345617e-32
16	0x3d474b32	0.048655696
17	0x83d6fccb	-1.2635828e-36
18	0x3e42b4b9	0.19014253
19	0x8548ed45	-9.447534e-36
20	0x1f8f80d2	6.077597e-20
21	0x8413703f	-1.7331308e-36
22	0x80ca2660	-1.8564537e-38
23	0x0af8811e	2.39301e-32
24	0x822f4dac	-1.287926e-37
25	0x81518aa0	-3.8486696e-38
26	0xbf7811b0	-0.9690199
27	0x8e3fc064	-2.36352e-30
28	0x0719b5d0	1.1563871e-34
29	0x3e836987	0.25666448
30	0x01518064	3.8479353e-38
31	0x1419c219	7.762805e-27
32	0x0185c380	4.913701e-38
33	0x8185cc60	-4.914975e-38
34	0x8185da50	-4.9169747e-38
35	0x01858482	4.9046623e-38
36	0x8185bf70	-4.9131183e-38
37	0x8185aa8c	-4.9101207e-38
38	0x01858b58	4.905643e-38
39	0x0185ab44	4.910224e-38
40	0x8185cbb8	-4.9148806e-38
41	0x81859954	-4.90765e-38
42	0x8185b3b1	-4.911433e-38
43	0x8185b844	-4.912089e-38
44	0x01858899	4.905249e-38
45	0x8185a467	-4.909239e-38
46	0x0185bd05	4.9127714e-38
47	0x8185980a	-4.907465e-38
48	0x0185d8d0	4.9167595e-38
49	0x8185cfaa	-4.915447e-38
50	0x81858ef8	-4.9061634e-38
51	0x8185aaed	-4.910175e-38
52	0x0185cce2	4.9150476e-38
53	0x8185e482	-4.9184377e-38
54	0x0185a4fe	4.9093236e-38
55	0x8185c79d	-4.9142915e-38
56	0x0185d12b	4.9156625e-38
57	0x8185866c	-4.904937e-38
58	0x0185cf28	4.915374e-38
59	0x0185a77d	4.909682e-38
60	0x0185c7d7	4.914324e-38
61	0x818593f8	-4.906881e-38
62	0x8185cdd4	-4.9151833e-38
63	0x0185d439	4.916101e-38
64	0x3e091720	0.13387728
65	0x3e448f88	0.19195378
66	0x817b9670	-4.6209353e-38
67	0x8393ff9f	-8.698571e-37
68	0x3e559968	0.20859301
69	0x05c7315b	1.8732e-35
70	0x02b5d554	2.6718004e-37
71	0x868a78f8	-5.208758e-35
72	0x3ea924e4	0.33035958
73	0x8185bffa	-4.9131957e-38
74	0x1d645bd0	3.0223015e-21
75	0x87cc06a9	-3.0698423e-34
76	0x81720870	-4.4454434e-38
77	0x87888f59	-2.0547258e-34
78	0x83d904be	-1.27552025e-36
79	0x8b14a473	-2.862748e-32
80	0x3d33c029	0.04388443
81	0x83d1dee0	-1.2335086e-36
82	0x3e3699c0	0.17832088
83	0x8543f696	-9.2141466e-36
84	0x1f8c08fe	5.930718e-20
85	0x84102460	-1.6943821e-36
86	0x80ca5c1c	-1.8583813e-38
87	0x0af25b2c	2.3338047e-32
88	0x82298c4e	-1.2456425e-37
89	0x815a65d0	-4.0113323e-38
90	0xbf646958	-0.8922324
91	0x8e3b30db	-2.3073053e-30
92	0x0715da9f	1.1273761e-34
93	0x3e8a89f7	0.27058384
94	0x014d6124	3.7722248e-38
95	0x1415e202	7.56715e-27
96	0x818625b8	-4.927795e-38
97	0x8185fd40	-4.921988e-38
98	0x8185845c	-4.904641e-38
99	0x0185a372	4.9091016e-38
100	0x81859108	-4.9064594e-38
101	0x0185b41e	4.911494e-38
102	0x018583bb	4.904551e-38
103	0x01858838	4.905195e-38
104	0x8185e420	-4.918383e-38
105	0x8185e362	-4.918276e-38
106	0x0185a61c	4.909484e-38
107	0x0185dc7b	4.917286e-38
108	0x8185bce0	-4.9127506e-38
109	0x8185b746	-4.911947e-38
110	0x0185c03a	4.9132316e-38
111	0x81859c92	-4.908115e-38
112	0x8185caa0	-4.9147237e-38
113	0x0185c937	4.9145213e-38
114	0x81899a18	-5.0546966e-38
115	0x8185a26b	-4.908954e-38
116	0x0185d029	4.915518e-38
117	0x81858f8b	-4.906246e-38
118	0x8185ac67	-4.910387e-38
119	0x0185b8b0	4.91215e-38
120	0x0185bf20	4.9130735e-38
121	0x8185bf05	-4.9130584e-38
122	0x81859538	-4.90706e-38
123	0x8185cf73	-4.915416e-38
124	0x8185871f	-4.9050373e-38
125	0x8185b450	-4.911522e-38
126	0x81859c01	-4.908034e-38
127	0x8185bfd8	-4.9131766e-38
128	0x81859a3c	-4.90778e-38
129	0x8185dcf7	-4.9173553e-38
130	0x0185cb87	4.914853e-38
131	0x0185de61	4.917558e-38
132	0x81858768	-4.905078e-38
133	0x0185c609	4.914065e-38
134	0x0185c52f	4.913943e-38
135	0x8185b1f8	-4.9111857e-38
136	0x8185a597	-4.9094094e-38
137	0x018599c6	4.907714e-38
138	0x0185ddbf	4.9174674e-38
139	0x8185c6ae	-4.9141575e-38
140	0x81859f8b	-4.9085417e-38
141	0x8185ad1d	-4.910489e-38
142	0x8185ce9f	-4.915297e-38
143	0x0185945c	4.906937e-38
144	0x81859202	-4.9065995e-38
145	0x0185e4a8	4.918459e-38
146	0x8185dc08	-4.9172213e-38
147	0x8185e045	-4.9178295e-38
148	0x8185d82b	-4.916667e-38
149	0x8185bc5f	-4.9126783e-38
150	0x0185d00d	4.915502e-38
151	0x8185ca12	-4.914644e-38
152	0x8185b975	-4.91226e-38
153	0x0185d689	4.9164327e-38
154	0x8185c4d2	-4.913891e-38
155	0x0185baf0	4.9124726e-38
156	0x0185de29	4.917527e-38
157	0x8185c1b8	-4.9134457e-38
158	0x8185b6d0	-4.9118807e-38
159	0x0185c499	4.913859e-38
160	0x3dd7ac43	0.10530903
161	0x3e29d7b7	0.16586195
162	0x814f21c0	-3.804411e-38
163	0x8386d556	-7.924792e-37
164	0x3e3a15b6	0.18172345
165	0x05b505cb	1.7023286e-35
166	0x02a2e79d	2.39367e-37
167	0x867cfd52	-4.7582043e-35
168	0x3e98cd20	0.29843998
169	0x8185d8df	-4.916768e-38
170	0x1d4f7f0e	2.7461908e-21
171	0x87bc9ca1	-2.8379154e-34
172	0x81438610	-3.591203e-38
173	0x8777af8f	-1.8633807e-34
174	0x83c4854d	-1.1550449e-36
175	0x8b06dcdb	-2.5973614e-32
176	0x3ce629dc	0.028096132
177	0x83bf0635	-1.1227396e-36
178	0x3e10fa97	0.14158092
179	0x85320da6	-8.3720266e-36
180	0x1f7e1747	5.3805847e-20
181	0x8402db55	-1.5382139e-36
182	0x80c9ae3c	-1.8521438e-38
183	0x0adbd483	2.1168871e-32
184	0x821f262c	-1.169243e-37
185	0x816af150	-4.3152145e-38
186	0xbf66d87c	-0.9017408
187	0x8e2a4092	-2.0985207e-30
188	0x0707edcf	1.0226157e-34
189	0x3e7e2e48	0.24822342
190	0x014879b4	3.6821516e-38
191	0x1407fd30	6.865691e-27
192	0x3e322fdd	0.17401071
193	0x3e6baa5e	0.23014209
194	0x81af6560	-6.4430313e-38
195	0x83b36482	-1.054375e-36
196	0x3e885611	0.26628163
197	0x05f0096c	2.2572953e-35
198	0x02dd7c7f	3.2544489e-37
199	0x86a63ab2	-6.2528505e-35
200	0x3ebc07dc	0.36724746
201	0x81aa7a90	-6.2624006e-38
202	0x1d897a1c	3.6389856e-21
203	0x87fcf793	-3.8062257e-34
204	0x81a95e68	-6.221626e-38
205	0x87a41867	-2.469032e-34
206	0x8403b936	-1.548402e-36
207	0x8b3336d7	-3.4515403e-32
208	0x3dad3d9d	0.084590174
209	0x83fbf62d	-1.4808973e-36
210	0x3e67ca61	0.22635795
211	0x856bd1f0	-1.1088206e-35
212	0x1fa8bc30	7.14621e-20
213	0x842d82d3	-2.0396124e-36
214	0x80ca327c	-1.856888e-38
215	0x0b12290d	2.814946e-32
216	0x8248c7c2	-1.4751007e-37
217	0x0185e508	4.918513e-38
218	0xbf635b64	-0.88811326
219	0x8e60e9b8	-2.7722663e-30
220	0x0734d5c0	1.360451e-34
221	0x3e9acda3	0.30235013
222	0x01531684	3.8770734e-38
223	0x1434e5b0	9.1329755e-27
224	0x3d1d3dbc	0.038388953
225	0x3dc9888f	0.098404996
226	0x809d0bc0	-1.4422388e-38
227	0x832da9bd	-5.103498e-37
228	0x3dc6b5a2	0.097026125
229	0x0564675a	1.0739491e-35
230	0x0250d633	1.5342899e-37
231	0x86246287	-3.0917358e-35
232	0x3e7d7587	0.24751864
233	0x81859c66	-4.9080905e-38
234	0x1d0275e9	1.7266315e-21
235	0x87e5c048	-3.4569103e-34
236	0x0046f260	6.515432e-39
237	0x86e83e57	-8.73603e-35
238	0x836e8119	-7.009011e-37
239	0x8aa585eb	-1.5939296e-32
240	0xbcb58bf2	-0.022161458
241	0x836f2c8b	-7.028692e-37
242	0x3da73704	0.0816479
243	0x84e0443a	-5.2724803e-36
244	0x1f0d74bc	2.9954472e-20
245	0x839fbf90	-9.389161e-37
246	0x80c9c980	-1.853122e-38
247	0x0a8e4ecd	1.3703744e-32
248	0x81cacfc0	-7.450119e-38
249	0x811cd790	-2.8807333e-38
250	0xbf5ff9c7	-0.87490505
251	0x8dcae3f9	-1.2504094e-30
252	0x06a88ea8	6.340419e-35
253	0x3e347184	0.17621428
254	0x014efdb4	3.8018247e-38
255	0x13ae07f2	4.393161e-27
