checkpoints/neumf_first_try_Epoch24_HR0.6801_NDCG0.4069.model (torch, 645108 bytes, 13 tensors)

embedding_user_mlp.weight f4 [6040, 8]
-0.10202553 0.6012153 0.6588794 0.42276227 -0.45793772 -0.3246716 -0.08547032 -0.5306894
-0.23271859 0.17238386 0.2614111 0.004923385 0.052472122 0.086843334 0.3452489 0.16155607
-0.14932013 0.22370923 0.68649083 0.15299934 -0.060905784 -0.61239874 -0.41454116 -0.108661205
0.11941678 0.68476003 0.8969399 0.43076858 -0.69870883 -0.7197568 -0.13331881 -0.48168522
-0.38556117 0.055010673 -0.19400597 0.0534608 -0.54299664 -0.099033654 -0.63491625 -0.48531404
-0.049553007 0.054356515 0.4776924 0.29051164 -0.34518754 -0.2961183 -0.6997318 -0.2923826
-0.020459605 0.6763072 0.5393449 0.90143883 -0.24583113 -0.62604916 -0.4637633 -0.37462065
0.05247003 0.03100345 0.4621098 0.1733236 0.5715691 -0.6550239 0.34834427 0.15391295
-0.25420377 0.46003923 0.46303043 0.40504465 -0.40059933 -0.3494522 -0.43300143 -0.35805804
-0.14631644 -0.10893292 0.0277301 -0.09688501 -0.29406947 0.1582531 0.32092187 0.09106115
0.16868979 0.033827104 0.19936106 0.4371396 -0.07198178 -0.25996724 0.38782364 0.012728093
0.0644121 -0.04513985 0.0340351 0.4971629 0.30086428 -0.073782295 -0.06808592 -0.122472025
0.10391687 0.33905157 0.45920837 -0.05282265 0.16734156 -0.12836666 0.3470813 0.09236635
-0.5126212 -0.31327328 -0.029123114 0.4039699 -0.64087754 -0.29723576 -0.347853 -0.40340543
-0.32580632 0.14489117 0.17348212 0.10779099 -0.48306355 -0.5259447 0.109614685 0.09785496
-0.4445724 -0.12337377 -0.4545246 0.4309396 -0.9981575 -0.32497755 -0.820281 -0.71686155
-0.15825853 -0.24886179 -0.10733242 0.4064106 -0.50994605 -0.13947497 -0.33503476 -0.22162291
0.2355155 -0.25717762 0.16277632 -0.23286524 0.25504738 0.29484493 0.5073674 -0.06319866
-0.32096708 0.42804936 -0.1642823 -0.42880556 -0.48972014 0.27044705 -0.02940681 -0.27762744
0.036344793 0.6974081 0.34159797 0.18140492 -0.5795485 0.028160056 -0.55104095 0.08429988
-0.8629341 -0.03482405 0.18318315 0.18412812 0.0100939 0.0771522 -0.31657234 -0.104268506
0.17115799 0.1613776 -0.09801252 0.044310205 0.22442369 0.18054894 -0.19943708 0.25011533
-0.09223152 -0.08267667 -0.26684532 0.027481025 -0.37971804 -0.15136984 -0.44819456 -0.11153883
-0.55944496 -0.10745364 0.014977118 -0.112294115 -0.16208088 -0.18439181 -0.27608222 -0.3021083
-0.4551414 -0.23322411 -0.0628372 0.46732485 -0.2763156 -0.037321404 -0.12754998 -0.751052
0.44898888 -0.06271023 -0.07856339 -0.049057554 0.33962432 0.13743863 0.0060054134 0.58490735
-0.026438693 0.39594626 0.094429426 0.36110246 -0.53809416 -0.24299213 -0.5148054 0.40876195
0.35508662 0.0039081746 -0.101150416 0.45550597 -0.56217873 -0.3550058 -0.31659403 -0.24417879
-0.030718664 0.6988608 0.72413087 0.3334236 0.17660789 0.3454531 0.18705682 -0.25652245
0.01214569 0.29763275 0.58324224 0.17329437 -0.4482198 -0.32113194 -0.2192989 -0.8116102
-0.0642441 0.18191339 -0.061593693 0.6041701 -0.23204921 -0.71589744 -0.8223727 0.060218353
0.18706408 0.22013104 0.13653626 0.2864451 -0.75302255 -0.088710554 -0.11271212 -0.27067292
00000000: c3f2 d0bd 3fe9 193f 52ac 283f 4c74 d83e
00000010: d076 eabe 5b3b a6be 100b afbd 43db 07bf
00000020: c84d 6ebe 6585 303e add7 853e 5954 a13b
00000030: 02ed 563d ebda b13d 77c4 b03e f46e 253e
00000040: 60e7 18be 0814 653e ddbd 2f3f dcab 1c3e
00000050: 5878 79bd 2ac6 1cbf bd3e d4be c489 debd
00000060: c990 f43d 6f4c 2f3f da9d 653f b38d dc3e
00000070: 95de 32bf fb41 38bf ba84 08be 729f f6be
00000080: 4668 c5be df52 613d 80a9 46be b6f9 5a3d
00000090: d401 0bbf 28d2 cabd df89 22bf 157b f8be
000000a0: 18f8 4abd f0a4 5e3d 1994 f43e f1bd 943e
000000b0: 6cbc b0be d19c 97be a021 33bf 2cb3 95be
000000c0: e79a a7bc 7822 2d3f 8212 0a3f b2c4 663f
000000d0: 28bb 7bbe c244 20bf 6272 edbe 47ce bfbe
000000e0: d0ea 563d f2fa fd3c a899 ec3e be7b 313e
000000f0: 5a52 123f a5af 27bf 2e5a b23e 5b9b 1d3e
00000100: ff26 82be 438a eb3e 5312 ed3e 0362 cf3e
00000110: 5b1b cdbe 66eb b2be 5db2 ddbe 6253 b7be
00000120: fad3 15be 3918 dfbd 3c2a e33c a66b c6bd
00000130: 4690 96be 1a0d 223e df4f a43e 457e ba3d
00000140: 04bd 2c3e 4a8e 0a3d 4e25 4c3e c3d0 df3e
00000150: 2f6b 93bd 6d1a 85be d290 c63e 7e89 503c
00000160: 7eea 833d 90e4 38bd 6468 0b3d 238c fe3e
00000170: e20a 9a3e 2c1b 97bd a170 8bbd 9dd2 fabd
00000180: 5ed2 d43d 2b98 ad3e 5c1d eb3e 905c 58bd
00000190: 965b 2b3e 8d72 03be a4b4 b13e 922a bd3d
000001a0: 253b 03bf 5b65 a0be 9993 eebc 25d5 ce3e
000001b0: 8d10 24bf 492f 98be ca19 b2be 288b cebe
000001c0: 16d0 a6be 5a5e 143e 4ca5 313e 86c1 dc3d
000001d0: 1b54 f7be 50a4 06bf aa7d e03d 2e68 c83d
000001e0: fe9e e3be 63ab fcbd 73b7 e8be 1ea4 dc3e
000001f0: 4087 7fbf 7563 a6be f0fd 51bf 3d84 37bf
00000200: 860e 22be a0d5 7ebe 1ad1 dbbd 0d15 d03e
00000210: d38b 02bf 87d2 0ebe ad89 abbe 1ef1 62be
00000220: fa2a 713e c9ac 83be d6ae 263e 3a74 6ebe
00000230: 9295 823e eaf5 963e d4e2 013f 4d6e 81bd
00000240: cc55 a4be 4929 db3e 9f39 28be 678c dbbe
00000250: 99bc fabe 0978 8a3e 8de6 f0bc 2f25 8ebe
00000260: 47de 143d 5689 323f eee5 ae3e 36c2 393e
00000270: 4a5d 14bf ebaf e63c 0511 0dbf 6aa5 ac3d
00000280: 40e9 5cbf aaa3 0ebd 5d94 3b3e 158c 3c3e
00000290: e360 253c f901 9e3d c515 a2be ba8a d5bd
000002a0: 0a44 2f3e 2b40 253e caba c8bd 9e7e 353d
000002b0: 53cf 653e d2e1 383e 3c39 4cbe 1e0f 803e
000002c0: e1e3 bcbd 6352 a9bd f39f 88be e31f e13c
000002d0: 676a c2be b200 1bbe c279 e5be 786e e4bd
000002e0: c937 0fbf a710 dcbd 9662 753c 75fa e5bd
000002f0: 88f8 25be 35d1 3cbe a65a 8dbe f0ad 9abe
00000300: 4b08 e9be 4dd2 6ebe cab0 80bd 3445 ef3e
00000310: 3d79 8dbe 54de 18bd 769c 02be f244 40bf
00000320: dfe1 e53e 396e 80bd d8e5 a0bd 93f0 48bd
00000330: 3de3 ad3e b6bc 0c3e 0fc9 c43b 7dbc 153f
00000340: f595 d8bc 78b9 ca3e 3764 c13d 6ce2 b83e
00000350: 8ac0 09bf eed2 78be 49ca 03bf 3f49 d13e
00000360: eacd b53e 2510 803b f327 cfbd 1438 e93e
00000370: f2ea 0fbf 52c3 b5be 9d18 a2be 010a 7abe
00000380: b5a5 fbbc 8be8 323f a460 393f 80b6 aa3e
00000390: b3d8 343e 3bdf b03e d38b 3f3e e956 83be
000003a0: b7fe 463c 5263 983e 5d4f 153f 1474 313e
000003b0: 117d e5be 686b a4be e48f 60be b0c5 4fbf
000003c0: 6992 83bd 8147 3a3e ab49 7cbd e4aa 1a3f
000003d0: 4f9e 6dbe 0e45 37bf 0487 52bf 85a7 763d
000003e0: ba8d 3f3e 086a 613e 29d0 0b3e efa8 923e
000003f0: 16c6 40bf e1ad b5bd 9dd5 e6bd a495 8abe

embedding_item_mlp.weight f4 [3706, 8]
-0.9642808 -1.1497682 -0.38208202 1.4619694 1.3360823 1.2063026 -0.86414254 0.15265772
-0.6549755 -0.45973122 -0.19837563 -0.055397257 0.06810845 -0.2503243 -0.15409008 0.3003219
-0.23327236 0.094536066 -0.40218982 0.11514666 0.25363156 0.34226114 -0.11920807 0.20957142
-0.68306863 -0.8139044 -0.58793235 0.60377836 0.32992283 1.0758895 -0.8412306 0.7435176
-0.5411522 -1.2861123 -0.9020647 0.6086034 0.46452343 0.54620236 -0.12601195 0.93963456
-0.75451297 -0.79563904 -0.3718734 -0.32257575 0.44045323 0.98551226 -0.17324743 0.49458808
-0.16646235 -0.116082095 -0.08383079 -0.24727058 0.06607121 0.19330505 0.032359436 -0.04153165
-0.2206058 -0.5239159 -0.052715484 -0.25411266 0.29649505 0.4448462 -0.018748663 0.105128355
-0.12996341 0.18202853 -0.20614056 -0.21278743 0.1106331 -0.2274376 -0.13568462 0.14407904
-0.42662475 -0.001722954 -0.2889989 0.40330198 0.1365601 0.6484256 -0.15822603 -0.015141129
-0.2005236 -0.17779694 -0.2761294 0.073106274 0.10389559 0.01349036 -0.2376032 0.10244094
-0.031697933 0.18517408 0.04767382 0.05476702 0.19784464 -0.23262765 -0.066476546 0.16438808
0.0561835 0.2153518 -0.01848292 0.00027605047 -0.43485993 0.02457478 0.122160584 0.0005279274
0.3609337 -0.06905017 -0.2206103 -0.19598319 -0.27996927 0.22662778 0.07525923 0.021215394
-0.7463994 -0.16110538 -0.54535 0.2028522 0.10264168 -0.007296717 -0.5451797 0.40029192
-0.7666433 -0.2690932 -0.49743402 0.32692555 -0.03493277 0.06256444 -0.36036894 0.30772132
0.36495313 -0.721204 -0.14745079 -0.5929572 0.43360102 0.23294082 0.1717756 0.25627643
0.08576707 0.047456402 -0.42669198 -0.25593603 0.38348535 -0.2990463 0.23557314 -0.027235027
-0.2683379 -0.075184315 0.15792824 0.059235606 -0.018715654 -0.03495536 0.2177781 -0.33519542
-0.10088934 -0.22892335 -0.27027598 -0.09008376 -0.022362813 0.45363435 -0.11120935 -0.049323797
-0.38899592 0.18260483 0.050125647 0.37305796 0.25159967 0.30484092 -0.39727673 0.12703846
0.25810444 -0.5984549 0.10068074 -0.3609437 0.4106784 0.2377585 0.37647048 0.1864627
-0.18205628 -0.59782845 -0.59893626 0.713187 0.41105098 0.64155686 -0.6965527 0.29435185
-0.9351846 -1.1185524 -0.6682259 1.0563645 0.92419094 0.7298685 -0.7353507 0.024346724
-0.05529396 -0.26965436 0.3211884 -0.026304817 -0.026296081 0.3636627 -0.011767228 0.24861576
-0.050017454 0.02383916 -0.04515193 -0.29760483 0.061908394 -0.18620968 0.20996946 0.16079646
-0.48415133 -0.873421 -0.61029124 0.60630035 0.40331826 0.69019836 -0.49387476 0.25567418
-0.76586497 -0.5612294 -0.40308124 0.7321364 1.0478258 0.99335593 -0.6861839 0.028185211
0.35530868 -0.379687 0.35604498 -0.502657 -0.22236809 0.19255811 0.4801488 -0.19074272
0.21221328 -0.5899985 0.17271309 -0.19156897 0.90218675 0.34059224 0.13493866 0.44652072
-0.062748626 -0.28438008 -0.29700267 0.09957026 0.31659943 -0.07060024 0.11114826 -0.06665408
-0.20399101 -0.6319513 0.2270877 0.41192466 0.20417936 1.0072619 -0.104332365 -0.14119482
00000000: 1bdb 76bf 9b2b 93bf 41a0 c3be d021 bb3f
00000010: bf04 ab3f 2068 9a3f 7238 5dbf 4e52 1c3e
00000020: 79ac 27bf e461 ebbe fb22 4bbe 3ce8 62bd
00000030: 717c 8b3d 822a 80be cac9 1dbe cbc3 993e
00000040: f3de 6ebe 209c c13d d3eb cdbe 03d2 eb3d
00000050: ffdb 813e da3c af3e 5c23 f4bd e499 563e
00000060: 96dd 2ebf 0a5c 50bf bc82 16bf 3891 1a3f
00000070: a5eb a83e bfb6 893f e35a 57bf 2b57 3e3f
00000080: f388 0abf 549f a4bf b6ed 66bf 6fcd 1b3f
00000090: 04d6 ed3e ebd3 0b3f 4709 01be e48b 703f
000000a0: c327 41bf 00af 4bbf 3166 bebe a628 a5be
000000b0: 1683 e13e 884a 7c3f c667 31be a63a fd3e
000000c0: 1b75 2abe 73bc edbd 7aaf abbd 8034 7dbe
000000d0: 5850 873d c2f1 453e 548b 043d 171d 2abd
000000e0: 7de6 61be 5a1f 06bf 31ec 57bd 0e1b 82be
000000f0: 33ce 973e e2c2 e33e cc96 99bc 894d d73d
00000100: 2115 05be b065 3a3e 8316 53be f3e4 59be
00000110: 9b93 e23d 67e5 68be e9f0 0abe 7589 133e
00000120: 8f6e dabe bed4 e1ba aaf7 93be 997d ce3e
00000130: 69d6 0b3e 38ff 253f 0106 22be 7f12 78bc
00000140: 0f56 4dbe 6710 36be d560 8dbe beb8 953d
00000150: 36c7 d43d ac06 5d3c 414e 73be 8ecc d13d
00000160: b1d5 01bd 469e 3d3e a045 433d 6253 603d
00000170: c997 4a3e f135 6ebe db24 88bd 5955 283e
00000180: ab20 663d 2f85 5c3e 7e69 97bc deba 9039
00000190: f6a5 debe 0d51 c93c 542f fa3d 9c64 0a3a
000001a0: 4dcc b83e 2d6a 8dbd abe7 61be d1af 48be
000001b0: 2258 8fbe 1d11 683e 8321 9a3d e8cb ad3c
000001c0: 0814 3fbf cff8 24be 0f9c 0bbf 7db8 4f3e
000001d0: cd35 d23d 4c19 efbb e690 0bbf 10f3 cc3e
000001e0: bc42 44bf 95c6 89be acaf febe c962 a73e
000001f0: aa15 0fbd c921 803d 4782 b8be a68d 9d3e
00000200: 23db ba3e d3a0 38bf 57fd 16be 0bcc 17bf
00000210: f400 de3e 0a88 6e3e f1e5 2f3e aa36 833e
00000220: a5a6 af3d a561 423d 5f77 dabe 0c0a 83be
00000230: 3158 c43e 991c 99be 163a 713e fe1b dfbc
00000240: 9663 89be 3cfa 99bd f1b7 213e 09a1 723d
00000250: 9251 99bc 5a2d 0fbd 3901 5f3e bc9e abbe
00000260: 129f cebd e26a 6abe 9d61 8abe d67d b8bd
00000270: 3832 b7bc c342 e83e bac1 e3bd c007 4abd
00000280: 792a c7be c3fc 3a3e 8d50 4d3d 7401 bf3e
00000290: acd1 803e 1c14 9c3e db67 cbbe 5f16 023e
000002a0: 4426 843e 5734 19bf b431 ce3d 9dcd b8be
000002b0: 7044 d23e f776 733e bdc0 c03e 14f0 3e3e
000002c0: f66c 3abe 490b 19bf e353 19bf 6c93 363f
000002d0: 4675 d23e 123d 243f 4751 32bf 49b5 963e
000002e0: 4268 6fbf ba2c 8fbf da10 2bbf f436 873f
000002f0: c797 6c3f a9d8 3a3f f23f 3cbf c872 c73c
00000300: eb7b 62bd 2310 8abe ce72 a43e 337d d7bc
00000310: e16a d7bc ff31 ba3e 55cb 40bc 2195 7e3e
00000320: 1adf 4cbd 584a c33c 3bf1 38bd a95f 98be
00000330: a893 7d3d c0ad 3ebe 3c02 573e d4a7 243e
00000340: afe2 f7be 8598 5fbf 0c3c 1cbf 8036 1b3f
00000350: bb7f ce3e d7b0 303f 27dd fcbe bae7 823e
00000360: ba0f 44bf bbac 0fbf aa60 cebe 4b6d 3b3f
00000370: 281f 863f 934c 7e3f c0a9 2fbf ace4 e63c
00000380: 05eb b53e 5666 c2be 874b b63e 21ae 00bf
00000390: 76b4 63be f42d 453e 10d6 f53e 0f52 43be
000003a0: 704e 593e 240a 17bf b3db 303e a82a 44be
000003b0: b6f5 663f 1b62 ae3e 5c2d 0a3e 5d9e e43e
000003c0: 5a82 80bd 449a 91be bc10 98be 7eeb cb3d
000003d0: 5219 a23e dc96 90bd b3a1 e33d ef81 88bd
000003e0: 05e3 50be 8fc7 21bf ae89 683e cae7 d23e
000003f0: 6514 513e f5ed 803f 35ac d5bd 6095 10be

embedding_user_mf.weight f4 [6040, 8]
0.05192377 0.17696658 -0.35052264 0.49345022 -0.04138657 -0.4734447 -0.0062412396 -1.1920285
-0.0368969 -0.42276484 0.042499665 1.2594321 0.15573029 0.20385434 0.35879877 0.07749798
0.46005943 -0.67670137 -0.15374675 0.051831856 0.03601226 0.74268985 0.3402818 -0.82054967
-0.12896657 -0.16111101 0.52145714 0.7828874 -0.33997118 0.9407487 0.41208565 -0.26842797
-0.06272354 -0.4994163 -0.013475686 0.38083944 -0.9673172 -0.54424375 -0.49170074 0.12986477
0.3901611 0.2019686 -0.58814347 0.53252673 0.7640038 -0.09958924 0.3955128 -0.2743273
0.74526626 -0.76246727 0.5790114 0.67587996 -0.5195289 0.6686511 0.22605543 -0.31616434
0.43732384 -0.6274869 0.28811553 0.920789 -0.5998627 -0.7712698 -0.23234898 -0.05442251
0.27389914 -1.1553738 0.23557115 0.79348105 -0.18762815 -0.41387495 -0.43625003 -0.73875046
0.27372935 0.24792613 -0.74485636 0.46028417 0.12927617 0.2870306 0.022962265 -0.6335076
0.07304684 -0.7702713 -0.5100121 -0.2868165 -0.31302246 -0.44212142 0.00021223111 -0.7678989
-0.38552466 -0.5110821 0.30102128 0.12099508 -0.063531205 0.52374935 -0.24606965 -0.6594624
0.42869446 0.0180297 -0.36432487 1.131912 -0.16524744 0.621823 0.043256626 0.24050736
-0.20951785 -0.12512301 0.122965395 -0.13882938 -0.49779597 0.13431905 0.36818796 -0.34727
0.7257376 -0.94068533 0.35158223 0.36810577 0.05119211 -0.23869674 0.4973462 -0.5069839
0.633118 0.22270645 -0.38443285 0.11231245 0.14990838 -0.07139185 0.17441873 0.03767065
0.12959577 -0.009327628 0.10486081 0.37184745 -0.7822324 0.29895717 -0.2363518 0.5458485
0.5437571 0.028451474 -0.27967897 0.896839 -0.36983812 0.13878769 -0.19833626 -0.39821056
0.48136792 0.1156844 0.23021682 -0.07134085 -0.26414427 0.7371759 0.0812925 -0.74622697
0.40472254 -0.7228405 0.20239466 0.14189608 -0.3202788 0.40088657 -0.08604558 -0.13225907
0.6270413 0.15517442 -0.18221316 0.21599667 -0.41262147 0.18773374 -0.5815692 -0.611646
0.5543743 -0.5245821 -0.24011897 -0.271085 -0.5586103 0.44346553 -0.044772595 -0.48371485
-0.07506647 -0.18136092 -0.27596703 0.11027662 -0.9560453 0.55018985 -0.13191749 0.25161022
-0.1112353 -0.34102756 -0.7867088 0.4182143 -0.26581392 -0.18965769 0.32264078 -0.23452964
0.67662686 -0.3245612 -0.16015348 0.32438508 -0.2974792 0.43803775 -0.5360493 -0.27949768
0.5352653 -0.32081085 -0.7472255 0.009617697 0.14063302 -0.19844833 0.9038076 -0.24000007
-0.41683102 0.102465935 -0.13094543 0.35976478 -0.20731053 0.48724172 -0.13247244 -0.48066843
-0.27699772 0.079246946 -0.2994938 0.38141036 -0.47184104 -0.13068047 0.054459747 -0.39224103
-0.045179453 -0.26567674 0.5495205 0.71565074 -0.27655345 1.1249275 0.50953585 0.287846
-0.15787478 -0.3136364 0.2546314 0.42478874 -0.48665532 -0.53215706 -0.16395855 -0.29219064
-0.2731789 -0.052906826 -1.0578325 -0.3318129 0.73002154 0.680732 0.139874 -0.2526199
-0.06764938 -0.32569152 0.056396388 0.42592722 -0.45385924 -0.3511902 0.05748101 -0.011818564
00000000: 05ae 543d ba36 353e b477 b3be 82a5 fc3e
00000010: f784 29bd 5867 f2be 5083 ccbb 6494 98bf
00000020: 3421 17bd a274 d8be 2114 2e3d 1235 a13f
00000030: c377 1f3e 31bf 503e 79b4 b73e 43b7 9e3d
00000040: e98c eb3e 4d3c 2dbf ca6f 1dbe a44d 543d
00000050: 9781 133d ec20 3e3f 6b39 ae3e 8b0f 52bf
00000060: d00f 04be 49fa 24be 377e 053f 4f6b 483f
00000070: b410 aebe e8d4 703f e4fc d23e 646f 89be
00000080: 3375 80bd 7eb3 ffbe 20c9 5cbc 63fd c23e
00000090: 1aa2 77bf 8f53 0bbf 33c0 fbbe 45fb 043e
000000a0: 32c3 c73e dbd0 4e3e 9290 16bf ac53 083f
000000b0: c195 433f 72f5 cbbd a780 ca3e a174 8cbe
000000c0: c5c9 3e3f 0e31 43bf 173a 143f 7806 2d3f
000000d0: d9ff 04bf b82c 2b3f 137b 673e 4be0 a1be
000000e0: e9e8 df3e fba2 20bf e183 933e d4b8 6b3f
000000f0: 9a90 19bf f071 45bf e4ec 6dbe 23ea 5ebd
00000100: 823c 8c3e 4ae3 93bf 9039 713e 9321 4b3f
00000110: 9821 40be 6be7 d3be 2a5c dfbe c01e 3dbf
00000120: 4126 8c3e 59e0 7d3e e8ae 3ebf 5eaa eb3e
00000130: f960 043e adf5 923e 5c1b bc3c 8e2d 22bf
00000140: 9599 953d 8030 45bf 2790 02bf 9dd9 92be
00000150: 7b44 a0be bd5d e2be 5b8a 5e39 0695 44bf
00000160: 7d63 c5be 47d6 02bf 761f 9a3e 45cc f73d
00000170: a61c 82bd 7014 063f aff9 7bbe 87d2 28bf
00000180: d77d db3e 05b3 933c ca88 babe 7ee2 903f
00000190: a036 29be cb2f 1f3f dc2d 313d 9047 763e
000001a0: d98b 56be 3f20 00be 48d5 fb3d 4a29 0ebe
000001b0: 1ddf febe ef8a 093e 2283 bc3e 60cd b1be
000001c0: f0c9 393f c1d0 70bf 9602 b43e 5c78 bc3e
000001d0: d1ae 513d eb6c 74be 29a4 fe3e b2c9 01bf
000001e0: 0514 223f 290d 643e 62d4 c4be 1204 e63d
000001f0: 9581 193e e435 92bd d39a 323e 8a4c 1a3d
00000200: c1b4 043e e8d2 18bc 44c1 d63d ca62 be3e
00000210: 6240 48bf ea10 993e 3506 72be babc 0b3f
00000220: aa33 0b3f 1113 e93c 1532 8fbe 3e97 653f
00000230: 6c5b bdbe 5c1e 0e3e a918 4bbe 41e2 cbbe
00000240: db75 f63e f1eb ec3d f5bd 6b3e 271b 92bd
00000250: eb3d 87be 8fb7 3c3f af7c a63d bb08 3fbf
00000260: cb37 cf3e 130c 39bf 8c40 4f3e 354d 113e
00000270: 95fb a3be 0141 cd3e aa38 b0bd ec6e 07be
00000280: c785 203f 0be6 1e3e 1696 3abe 3b2e 5d3e
00000290: 1f43 d3be 463d 403e b8e1 14bf d594 1cbf
000002a0: 79eb 0d3f 034b 06bf bfe1 75be a7cb 8abe
000002b0: 1601 0fbf ea0d e33e 7863 37bd 79a9 f7be
000002c0: 73bc 99bd adb6 39be 8d4b 8dbe b5d8 e13d
000002d0: 63bf 74bf 3ed9 0c3f 6115 07be 0ed3 803e
000002e0: 55cf e3bd 2a9b aebe bf65 49bf 2f20 d63e
000002f0: c318 88be a035 42be 2c31 a53e 8a28 70be
00000300: 6b37 2d3f e32c a6be 46ff 23be cd15 a63e
00000310: 324f 98be 7c46 e03e 873a 09bf 521a 8fbe
00000320: 2607 093f 5241 a4be 2c4a 3fbf 8c93 1d3c
00000330: 1a02 103e 0a36 4bbe ef5f 673f 94c2 75be
00000340: e06a d5be a9d9 d13d 8f16 06be 1733 b83e
00000350: 3649 54be bf77 f93e dba6 07be 2c1a f6be
00000360: a5d2 8dbe 394c a23d 4057 99be 3848 c33e
00000370: 2695 f1be 1ad1 05be 2f11 5f3d d1d3 c8be
00000380: 170e 39bd c806 88be 60ad 0c3f e334 373f
00000390: 6a98 8dbe a0fd 8f3f f170 023f 8d60 933e
000003a0: eda9 21be f394 a0be 0c5f 823e e97d d93e
000003b0: e32a f9be 723b 08bf c0e4 27be 039a 95be
000003c0: 1bde 8bbe d4b4 58bd 0e67 87bf 61e3 a9be
000003d0: b1e2 3a3f 7444 2e3f 213b 0f3e 6557 81be
000003e0: c28b 8abd 0ac1 a6be e6ff 663d 2213 da3e
000003f0: 3d60 e8be 34cf b3be 3571 6b3d a6a2 41bc

embedding_item_mf.weight f4 [3706, 8]
0.45899734 -0.009075395 -0.10900161 0.3241891 0.20158546 0.14542423 0.3455442 0.4239355
-0.17127182 -0.5374087 0.11916422 0.10823708 0.20501822 -0.119810335 -0.68103707 0.56603724
0.20010538 -0.9608641 0.27791703 0.553232 -0.44403622 -0.32355455 0.08210472 0.24818228
0.048050053 0.35914975 -0.2685515 0.02856672 -0.40739083 -0.3664234 0.07140734 0.21487096
-0.2678916 0.09409695 0.29696676 0.04292228 -0.05507826 0.011400843 -0.26963103 0.5881824
-0.05143737 0.26652947 0.6834836 0.33552435 0.3514396 0.46139377 0.09451665 0.40559396
0.20611419 -0.38236663 -0.24569432 0.77841455 -0.37084892 0.5570673 0.22613989 0.2232343
0.25476912 0.11584776 0.45750767 -0.23197123 0.29068047 0.2478969 0.3648349 0.9227877
-0.13803646 -1.1151695 0.26197392 0.44757897 0.02826874 0.05914524 -0.38471732 1.3489869
0.16603912 -0.41974315 0.22753687 0.68183815 0.21302657 0.2306798 0.15795548 1.1811293
-0.4483548 -0.56840926 0.30740395 0.61309195 0.07238933 -0.27993 -0.3701816 1.106077
0.3394329 -1.3506193 0.1438204 0.3121738 -0.640504 -0.43356538 -0.24243948 0.027254285
0.3556 -0.774435 -0.2067931 0.49045518 -0.49557123 -0.25781658 0.26431176 0.84056437
0.12060717 0.43929031 1.0782943 -0.21005327 0.34841028 0.2967976 0.59154105 1.1200637
0.09684813 -0.57361096 0.2675013 0.27192655 -0.24472673 -0.15545595 0.13308553 0.70447725
0.25258923 0.28235865 0.74144197 -0.3450713 0.17797887 0.36543787 0.46284455 0.6906436
-0.3396882 -0.49971837 -0.056948442 0.29940447 -0.2092144 -0.12274891 -0.4435074 0.60043
-0.07151603 -0.8747358 0.09884764 0.43482062 -0.051723648 0.0021937152 -0.21271376 1.2684274
0.063353635 0.076299235 0.077960394 0.44672397 0.22499162 -0.71161044 0.44056043 0.4024563
-0.05430851 0.0640134 0.90317225 0.008420235 0.32316655 0.29281685 0.4813692 0.57589185
-0.014221822 0.50930303 0.5921772 0.00797098 -0.034822617 -0.1291538 -0.10323089 0.50912064
0.27387244 -0.08775528 0.10258823 0.23523606 0.28399435 0.0371075 -0.92314374 0.43983746
-0.056194764 0.064694054 0.92732173 0.17474714 0.43910137 0.50631064 0.42181364 0.46345955
0.2206491 0.26901284 -0.17509598 0.62548375 0.38408676 -0.23206182 0.3301104 0.56873935
-0.28523618 0.08440334 -0.008575502 -0.089573875 -0.5040649 -0.45874134 0.38624674 -0.33566162
-0.6384195 -0.83895075 0.13856655 0.3847205 -0.40226787 -0.45787048 -0.56539583 0.554127
-0.17015873 -0.3320629 0.60866463 0.5515286 0.70501566 0.2534128 0.3765018 0.5538555
-0.26373455 0.104560256 0.11724757 0.4821409 -0.041251738 -0.38350514 0.40597576 0.26348677
0.46313143 -0.2992315 -0.6419421 0.013559934 -0.2974777 -1.0095036 -0.60802215 -0.31537852
0.27667868 0.060683906 0.3743384 0.17866495 0.22284006 0.07972723 -1.0292377 0.31494045
-0.3700574 -0.23524839 0.15205032 0.28938437 0.023317702 -0.1498443 -0.37173295 0.5483608
-0.025516914 0.14084807 -0.359733 -0.37293547 -0.13657236 -0.6930405 0.038911972 0.0126716625
00000000: b301 eb3e f7b0 14bc 3c3c dfbd 1dfc a53e
00000010: 6b6c 4e3e 17ea 143e 2beb b03e 130e d93e
00000020: e161 2fbe 9e93 09bf 5f0c f43d 67ab dd3d
00000030: 4cf0 513e 1f5f f5bd 7258 2ebf d1e7 103f
00000040: 6de8 4c3e 31fb 75bf 244b 8e3e 9da0 0d3f
00000050: b758 e3be f1a8 a5be 8526 a83d 7f23 7e3e
00000060: 22d0 443d 7ae2 b73e 957f 89be c104 ea3c
00000070: 8895 d0be d99b bbbe 033e 923d 2207 5c3e
00000080: 1629 89be e7b5 c03d 070c 983e 46cf 2f3d
00000090: be99 61bd 9aca 3a3c 140d 8abe 1f93 163f
000000a0: feaf 52bd 8d76 883e c8f8 2e3f d9c9 ab3e
000000b0: e4ef b33e ce3b ec3e f291 c13d 03aa cf3e
000000c0: 990f 533e 8fc5 c3be 4b97 7bbe 2d46 473f
000000d0: e9df bdbe f69b 0e3f 3791 673e 8897 643e
000000e0: 1971 823e 9741 ed3d 723e ea3e de89 6dbe
000000f0: 12d4 943e afd8 7d3e a4cb ba3e d13b 6c3f
00000100: 6e59 0dbe e0bd 8ebf 7221 863e 1229 e53e
00000110: d893 e73c 4742 723d abf9 c4be 9aab ac3f
00000120: 2906 2a3e 93e8 d6be 6dff 683e f28c 2e3f
00000130: a323 5a3e 5337 6c3e 15bf 213e 3f2f 973f
00000140: c38e e5be 4583 11bf 0d64 9d3e 98f3 1c3f
00000150: db40 943d fc52 8fbe 7188 bdbe ee93 8d3f
00000160: 26ca ad3e 18e1 acbf a845 133e 3fd5 9f3e
00000170: 12f8 23bf 48fc ddbe 0e42 78be 6144 df3c
00000180: 3411 b63e 5f41 46bf 92c1 53be f11c fb3e
00000190: 83bb fdbe 8900 84be df53 873e 3a2f 573f
000001a0: e400 f73d a9ea e03e 8c05 8a3f 3418 57be
000001b0: d562 b23e dbf5 973e 3c6f 173f 3f5e 8f3f
000001c0: 5058 c63d 2bd8 12bf eef5 883e f539 8b3e
000001d0: a599 7abe d82f 1fbe 9347 083e 9f58 343f
000001e0: 6053 813e 5091 903e 24cf 3d3f 2fad b0be
000001f0: 1840 363e ac1a bb3e f6f9 ec3e 05ce 303f
00000200: 9deb adbe 16db ffbe c542 69bd 8b4b 993e
00000210: 4d3c 56be c863 fbbd 6713 e3be c8b5 193f
00000220: ff76 92bd afee 5fbf a270 ca3d cfa0 de3e
00000230: 2ddc 53bd 6fc4 0f3b a3d1 59be d45b a23f
00000240: 8dbf 813d c642 9c3d b3a9 9f3d 01b9 e43e
00000250: 3464 663e 1a2c 36bf 2391 e13e c10e ce3e
00000260: 9a72 5ebd 7519 833d 4c36 673f 06f5 093c
00000270: 1676 a53e 17ec 953e 0676 f63e a66d 133f
00000280: a502 69bc af61 023f ed98 173f b798 023c
00000290: 29a2 0ebd e540 04be b86a d3bd bb55 023f
000002a0: 0239 8c3e 0ab9 b3bd c719 d23d b9e1 703e
000002b0: b567 913e 09fe 173d 2653 6cbf 6032 e13e
000002c0: 7b2c 66bd 517e 843d f564 6d3f eaf0 323e
000002d0: e5d1 e03e 939d 013f f5f7 d73e 924a ed3e
000002e0: d6f1 613e 0dbc 893e 5c4c 33be b41f 203f
000002f0: 05a7 c43e 9da1 6dbe 3b04 a93e e798 113f
00000300: 7a0a 92be a9db ac3d 4380 0cbc 8272 b7bd
00000310: 660a 01bf 25e0 eabe 22c2 c53e d7db abbe
00000320: 766f 23bf 7ac5 56bf 64e4 0d3e 16fa c43e
00000330: 0ef6 cdbe 006e eabe c8bd 10bf 44db 0d3f
00000340: 173e 2ebe 2604 aabe 72d1 1b3f fa30 0d3f
00000350: e87b 343f 53bf 813e d8c4 c03e 79c9 0d3f
00000360: 3708 87be b023 d63d 7e1f f03d 2cdb f63e
00000370: 95f7 28bd c95a c4be 0edc cf3e bde7 863e
00000380: 901f ed3e df34 99be 5156 24bf 7c2a 5e3c
00000390: ff4e 98be 6a37 81bf 57a7 1bbf 4b79 a1be
000003a0: d4a8 8d3e b08f 783d 48a9 bf3e f2f3 363e
000003b0: 2f30 643e 0848 a33d 10be 83bf e03f a13e
000003c0: 2a78 bdbe f4e4 70be 14b3 1b3e 302a 943e
000003d0: c404 bf3c c970 19be c853 bebe 6061 0c3f
000003e0: d908 d1bc 7a3a 103e ec2e b8be 66f1 bebe
000003f0: a0d9 0bbe 1a6b 31bf 2962 1f3d ce9c 4f3c

fc_layers.0.weight f4 [64, 16]
-0.28749493 -0.49307227 -0.14049119 0.41346782 0.10627944 -0.6718811 -0.68655777 -0.3428999
-0.068932764 -0.06267244 0.30051106 -0.27978435 -0.61820996 -0.49368516 0.2226679 0.2203706
-0.856143 0.30826497 -0.012484361 -0.358843 -0.25267518 0.28916588 0.011584107 -0.25562018
-0.49563643 0.14358869 0.34951815 -0.15660898 0.42024085 0.24384303 0.3144656 -0.7693661
0.45164394 0.24829502 0.2992034 0.22982179 0.24365747 -0.48614675 0.013550711 0.7589957
0.7054076 0.069746196 0.21310076 -0.43846518 1.0916793 0.39725772 0.19557127 -0.614899
0.7188141 0.20247258 -0.15357304 0.15432552 -1.0261594 -0.36149514 -0.32069474 -0.06425244
0.15083659 0.15705946 0.73254246 -0.06282526 -0.4053657 0.23694135 -0.27067003 -0.3661345
0.40396848 0.13088253 0.072380215 0.009205276 0.39229223 -0.6080017 -0.054410566 0.20407835
0.6867167 -0.07873014 -0.10583455 -0.065958686 0.15381892 0.10451153 0.0019920203 -0.004594776
0.3156962 0.048163414 0.19657928 0.4022705 -0.6065845 -0.5230606 -0.26884642 -0.103643544
0.35221735 -0.19569075 -0.09863221 -0.08627995 -0.5164639 -0.21949258 -0.42159173 -0.51749676
0.2966224 -0.21815822 -0.3687779 0.5389727 0.15894288 -0.40137297 0.3453732 -0.60345775
-0.5891571 0.48137072 -0.07130554 -0.27364716 -0.16765249 -0.00854057 -0.27310085 0.3090172
-0.052675847 0.038140435 0.009654636 -0.012845915 0.02539612 0.032416496 0.013178561 0.018051514
-0.015531478 0.031698618 -0.012219983 0.016415102 0.018192789 0.0004737491 0.016952718 0.00842528
0.17464599 0.22926213 0.24888906 -0.29026023 0.40002513 0.0024947375 0.19557515 -0.13574322
-0.28887406 -0.20480834 0.23512982 -0.14285032 0.17175204 -0.11876881 0.016865453 -0.16054699
-0.46471322 0.091503546 0.50191617 0.052673936 -0.42457515 0.32856682 -0.4519512 -0.7652608
-0.25168487 0.5078978 0.3777241 -0.100604996 -0.20519477 -0.0018605242 -0.12023067 -1.0063871
0.7305718 0.07673305 0.13945615 -0.15765117 -0.81568503 -0.61171305 -0.728891 0.047528166
0.3856039 0.25032976 0.64057696 0.4069157 0.003527816 0.40459147 -0.021239614 -0.45544648
0.041834168 0.18412608 0.33994767 0.1009119 0.18931352 -0.53632677 0.379589 -0.15444048
-0.028543789 0.58500046 0.10810617 -0.37154 0.14955805 -0.01384268 0.012400312 0.32371104
-0.34444314 0.083619274 0.21439032 0.6046361 0.16586776 -0.2502934 -0.29438627 -0.4398092
-0.4105076 0.35110343 0.24118072 -0.02711477 -0.35228634 -0.49561757 0.13417248 0.011192739
-0.29660714 -0.49036902 0.4059813 -0.18274014 0.23793732 -0.532713 0.49443108 0.082777515
0.30603945 0.50122756 -0.38754243 -0.38602287 0.28226393 0.32546633 -0.19655578 0.15874924
-0.8386467 0.091551155 0.3502703 -0.3738649 -0.61937773 0.21153085 -0.15116572 -0.3279104
-0.49415258 0.5400342 0.10330394 0.09873547 0.121403135 0.116096504 0.02291919 -1.2235091
0.020508828 0.08208807 -0.02300547 0.48066247 -0.5217971 0.27398324 0.017611101 -0.7076803
-0.52826756 0.23247266 0.21501364 -0.4188462 -0.042115882 -0.055291496 -0.08011353 -0.69665056
00000000: 8932 93be f873 fcbe ecdc 0fbe 0eb2 d33e
00000010: 09a9 d93d 6600 2cbf 40c2 2fbf 9390 afbe
00000020: 9f2c 8dbd 695a 80bd 96dc 993e e53f 8fbe
00000030: 0243 1ebf 4dc4 fcbe 0e03 643e d5a8 613e
00000040: 302c 5bbf e8d4 9d3e 358b 4cbc 45ba b7be
00000050: a45e 81be 8d0d 943e 44cb 3d3c a6e0 82be
00000060: 0fc4 fdbe ea08 133e 0bf4 b23e 1b5e 20be
00000070: cf29 d73e fdb1 793e a301 a13e 2df5 44bf
00000080: e03d e73e 0d41 7e3e 3031 993e 6756 6b3e
00000090: 5881 793e 3ae8 f8be cd03 5e3c 8b4d 423f
000000a0: 9895 343f 18d7 8e3d 1637 5a3e 827e e0be
000000b0: 26bc 8b3f 5d65 cb3e d643 483e 056a 1dbf
000000c0: 3304 383f f954 4f3e 4042 1dbe 8207 1e3e
000000d0: 3159 83bf e415 b9be 1a32 a4be c996 83bd
000000e0: e874 1a3e 32d4 203e e787 3b3f 88aa 80bd
000000f0: 188c cfbe c1a0 723e 4395 8abe fb75 bbbe
00000100: f5d4 ce3e 1206 063e 143c 943d bad1 163c
00000110: 87da c83e 00a6 1bbf 9ddd 5ebd eaf9 503e
00000120: aacc 2f3f 453d a1bd c9bf d8bd 5915 87bd
00000130: b582 1d3e 240a d63d 8e8c 023b c68f 96bb
00000140: efa2 a13e 0047 453d 144c 493e 66f6 cd3e
00000150: 1f49 1bbf 4de7 05bf 3da6 89be 1143 d4bd
00000160: d555 b43e 2863 48be afff c9bd 8bb3 b0bd
00000170: fa36 04bf aac2 60be dfda d7be ab7a 04bf
00000180: e4de 973e de64 5fbe 75d0 bcbe 1dfa 093f
00000190: ecc1 223e c280 cdbe c2d4 b03e 357c 1abf
000001a0: 00d3 16bf 3976 f63e a408 92bd 7b1b 8cbe
000001b0: 18ad 2bbe bfed 0bbc e0d3 8bbe 8137 9e3e
000001c0: a1c2 57bd 2539 1c3d 7a2e 1e3c ac77 52bc
000001d0: 860b d03c 29c7 043d e4ea 573c c5e0 933c
000001e0: be77 7ebc 69d6 013d 5336 48bc f778 863c
000001f0: 0b09 953c 8761 f839 6de0 8a3c 300a 0a3c
00000200: 66d6 323e b1c3 6a3e c6dc 7e3e fd9c 94be
00000210: 18d0 cc3e c07e 233b da44 483e 4500 0bbe
00000220: 4de7 93be 47b9 51be dfc5 703e 5b47 12be
00000230: c4df 2f3e 103d f3bd 6b29 8a3c 6e66 24be
00000240: e4ee edbe 3666 bb3d 947d 003f a0c0 573d
00000250: ea61 d9be e939 a83e 2666 e7be 22e8 43bf
00000260: d7dc 80be 9705 023f 0e65 c13e fe09 cebd
00000270: 941e 52be d5dc f3ba 7f3b f6bd 4bd1 80bf
00000280: c106 3b3f 3826 9d3d 98cd 0e3e 4f6f 21be
00000290: bcd0 50bf 3a99 1cbf 9a98 3abf e5ac 423d
000002a0: e06d c53e 392b 803e dafc 233f 4157 d03e
000002b0: ee32 673b 9d26 cf3e b3fe adbc 4830 e9be
000002c0: 4e5a 2b3d 8c8b 3c3e 9f0d ae3e e6aa ce3d
000002d0: 67db 413e b64c 09bf 7d59 c23e a525 1ebe
000002e0: aad4 e9bc 97c2 153f c566 dd3d 7e3a bebe
000002f0: bf25 193e 68cc 62bc ae2a 4b3c 74bd a53e
00000300: da5a b0be 9540 ab3d 2389 5b3e 6ec9 1a3f
00000310: 3dd9 293e 7526 80be ccb9 96be ac2e e1be
00000320: 0d2e d2be d4c3 b33e 14f8 763e cb1f debc
00000330: e05e b4be 96c1 fdbe 8364 093e c061 373c
00000340: e4dc 97be a611 fbbe c8dc cf3e 3b20 3bbe
00000350: d7a5 733e e15f 08bf 1226 fd3e 4287 a93d
00000360: 34b1 9c3e 7350 003f f66b c6be caa4 c5be
00000370: e684 903e 86a3 a63e eb45 49be 298f 223e
00000380: 8db1 56bf 2c7f bb3d a156 b33e 386b bfbe
00000390: 8a8f 1ebf 8b9b 583e 30cb 1abe dfe3 a7be
000003a0: 9101 fdbe ae3f 0a3f 0491 d33d d235 ca3d
000003b0: 35a2 f83d 01c4 ed3d 06c1 bb3c f29b 9cbf
000003c0: 2102 a83c ca1d a83d f875 bcbc 6419 f63e
000003d0: 7f94 05bf 8847 8c3e 2845 903c 892a 35bf
000003e0: 8b3c 07bf 500d 6e3e 892c 5c3e 0273 d6be
000003f0: b481 2cbd 5679 62bd 9012 a4bd b157 32bf

fc_layers.0.bias f4 [64]
0.2299395 0.14248288 0.15658261 -0.65949667 0.25283068 -0.5586775 -0.3967229 -0.08914779
-0.370244 -0.17144237 -0.69753754 0.3091079 -0.014063568 -0.19670916 0.149324 -0.3252051
-0.11688578 0.3740623 -0.30502495 -0.36086452 -0.1743226 -0.10891572 0.20231554 0.44535896
-0.2550488 0.42413688 0.4441623 0.50759697 -0.2479167 -0.22968608 0.5187583 -0.6940929
-0.16875033 0.48786125 -0.18257596 0.46516284 0.0926025 -7.459591e-10 -0.14330131 -0.41023046
-0.2191448 0.5066484 -0.3666776 0.47427958 0.52206767 0.47780254 -0.18483743 -6.575264e-27
-0.34121278 -0.52898216 -0.3317869 -0.5878539 -0.53106076 -0.43054843 -0.23128404 -5.3075373e-06
0.4130956 -0.47790602 -0.2986959 -0.40743056 -0.1073285 0.4869809 -0.58697474 0.1709953
00000000: 4375 6b3e 08e7 113e 3157 203e c6d4 28bf
00000010: 0673 813e 7d05 0fbf 441f cbbe 1e93 b6bd
00000020: 9f90 bdbe 978e 2fbe d291 32bf 6443 9e3e
00000030: e16a 66bc 206e 49be 64e8 183e 4881 a6be
00000040: d061 efbd 1885 bf3e 3b2c 9cbe 3cc3 b8be
00000050: a081 32be 340f dfbd ce2b 4f3e 1706 e43e
00000060: c295 82be 7828 d93e 3e69 e33e e0f1 013f
00000070: e0dd 7dbe d432 6bbe 58cd 043f 13b0 31bf
00000080: e3cc 2cbe f3c8 f93e 31f5 3abe d329 ee3e
00000090: 61a6 bd3d 340c 4db0 94bd 12be ba09 d2be
000000a0: 7f67 60be b6b3 013f 2bbd bbbe c6d4 f23e
000000b0: 3aa6 053f 89a2 f43e 0646 3dbe 8d3c 0294
000000c0: 71b3 aebe 606b 07bf f9df a9be 987d 16bf
000000d0: 99f3 07bf d870 dcbe b9d5 6cbe 6617 b2b6
000000e0: 4481 d33e 19b0 f4be abee 98be bd9a d0be
000000f0: 0bcf dbbd 8f55 f93e fa43 16bf 6419 2f3e

fc_layers.1.weight f4 [32, 64]
0.34673965 0.1927177 -0.016750824 0.5738427 -0.008429775 0.1617007 0.59774756 -0.0032700724
-0.13105312 0.17202933 0.86669576 0.062058967 0.116550185 0.6941942 0.14301017 0.06908667
0.15504044 0.28476587 -0.009708811 0.48933563 0.03312586 -0.010310892 0.16068268 0.26125854
-0.34713832 0.1102081 0.2988741 0.1020508 -0.07276748 -0.5411424 0.11165106 0.5332004
-0.05805526 0.16989097 -0.149648 0.060206376 0.19685757 2.6608037e-12 -0.44939736 -0.59979737
0.06653525 0.10621476 -0.6486409 0.10223247 0.09035035 0.102922566 -0.67656904 -4.399235e-36
-0.49000096 -0.66543823 -0.26701897 -0.74128133 -0.72964674 -0.7074698 0.1755019 -1.8348385e-11
0.10694597 -0.5604185 0.74167633 -0.8538482 0.5816625 0.13465846 -0.7653765 0.4567302
0.3226993 0.21643874 0.015625697 0.5878884 0.037578173 0.2146609 0.72475946 -0.003724042
-0.13235046 0.24803618 0.8810926 0.121852726 0.15405072 0.77786136 0.17873524 0.14158729
0.1535013 0.26546744 -0.10599303 0.5500127 0.019380279 -0.01789391 0.19078098 0.18318805
-0.2867554 0.12279406 0.30034566 0.09623937 -0.10816404 -0.56931126 0.08496414 0.5511321
-0.036358166 0.1307736 -0.15311259 0.06601853 0.19878863 4.3842072e-11 -0.6054165 -0.65075535
0.07752385 0.10564382 -0.6600398 0.11946639 0.1603854 0.096790545 -0.6042645 -6.851433e-35
-0.5159618 -0.68841314 -0.26787326 -0.73168355 -0.8171955 -0.763857 0.28017965 3.7862893e-11
0.14816678 -0.5623886 0.78224736 -0.8782557 0.689132 0.15451668 -0.809268 0.42559797
-7.2031116e-29 -3.630056e-29 -3.2029572e-29 1.3295319e-29 1.52146e-29 -1.3988685e-29 -1.7710395e-30 -1.0700417e-31
-6.634071e-30 1.6551917e-29 3.0133395e-29 4.6072942e-30 -2.7151387e-29 5.410725e-30 -2.059757e-29 -9.355062e-30
1.3182697e-30 -8.754303e-29 -2.0249233e-29 -1.3094777e-29 -2.6443298e-31 -5.518544e-32 -3.5712474e-29 -3.0166063e-29
3.949252e-31 -2.8028e-29 -9.614859e-29 -4.0171712e-29 1.5955499e-29 3.0375387e-30 -4.6256516e-29 -1.22133096e-29
-2.9253928e-30 -3.630381e-29 -3.4590172e-30 -2.9617212e-29 -2.1120803e-29 -4.912437e-38 -3.0682947e-29 -8.6695345e-30
6.2648917e-30 -3.8123293e-29 -3.1883644e-29 -3.5871032e-29 1.5732209e-30 -3.586611e-29 1.3112369e-29 -4.9157673e-38
-1.0987814e-29 -1.7076158e-30 -2.2180915e-31 4.6197477e-30 9.974816e-30 -8.234901e-30 -5.421983e-30 4.906836e-38
-1.4301971e-29 -1.5914961e-29 -7.02571e-31 1.9643649e-29 1.1812708e-29 -4.1421198e-29 -3.2657678e-30 9.924729e-30
-5.922143e-38 -5.411474e-38 -4.909401e-38 -4.9067553e-38 -4.909948e-38 -4.9051096e-38 4.9163066e-38 -4.915818e-38
4.917661e-38 -4.9045446e-38 -4.912688e-38 -4.917804e-38 -4.9097014e-38 -4.915717e-38 4.9174904e-38 -4.91345e-38
-4.9058495e-38 -4.905316e-38 -4.917526e-38 -5.0092945e-38 -5.2029595e-38 -4.906501e-38 -4.9157864e-38 -4.9102395e-38
-4.957817e-38 -4.929194e-38 -4.912181e-38 4.9057733e-38 -4.91041e-38 -4.911459e-38 -6.022987e-38 -4.9161003e-38
4.909123e-38 -4.9183424e-38 4.917683e-38 -5.055116e-38 -4.9124547e-38 -4.917728e-38 -4.91569e-38 -4.907011e-38
-4.908567e-38 -5.20102e-38 -4.929239e-38 -4.906186e-38 -4.917127e-38 -4.9053294e-38 -4.9078315e-38 4.915103e-38
4.907338e-38 -4.9101453e-38 4.914921e-38 -4.91743e-38 4.908023e-38 -5.301594e-38 -4.9051186e-38 4.912123e-38
-4.90893e-38 4.908697e-38 -5.159814e-38 -4.906123e-38 -4.907069e-38 -5.0223075e-38 -4.913849e-38 4.905056e-38
00000000: dc87 b13e ca57 453e 0639 89bc 5be7 123f
00000010: 0a1d 0abc de94 253e fc05 193f b64e 56bb
00000020: ca32 06be 7528 303e c6df 5d3f 8b31 7e3d
00000030: ddb1 ee3d b6b6 313f 4271 123e 507d 8d3d
00000040: ecc2 1e3e d5cc 913e b411 1fbc 338a fa3e
00000050: fbae 073d 04ef 28bc 008a 243e aec3 853e
00000060: 1dbc b1be c9b4 e13d 0706 993e 0300 d13d
00000070: 1e07 95bd 4f88 0abf 50a9 e43d d27f 083f
00000080: 5acb 6dbd e6f7 2d3e 533d 19be f69a 763d
00000090: 0895 493e c73c 3b2c 6917 e6be 528c 19bf
000000a0: a243 883d 2087 d93d 540d 26bf 425f d13d
000000b0: 9b09 b93d 11c9 d23d a133 2dbf 6d1f bb84
000000c0: 68e1 fabe 295a 2abf b6b6 88be 9dc4 3dbf
000000d0: 21ca 3abf be1c 35bf c5b6 333e e464 a1ad
000000e0: 7d06 db3d 9677 0fbf 80de 3d3f cc95 5abf
000000f0: d5e7 143f e8e3 093e b7ef 43bf 8ad8 e93e
00000100: d838 a53e 1ea2 5d3e 7601 803c db7f 163f
00000110: 92eb 193d 11d0 5b3e d689 393f 0f0f 74bb
00000120: e186 07be 32fd 7d3e 498f 613f ec8d f93d
00000130: 79bf 1d3e ec21 473f 5f06 373e 42fc 103e
00000140: 722f 1d3e 59eb 873e e012 d9bd a2cd 0c3f
00000150: 64c3 9e3c 4096 92bc 175c 433e a695 3b3e
00000160: 9bd1 92be 747b fb3d e8c6 993e 2619 c53d
00000170: 1c85 ddbd 62be 11bf ae01 ae3d fe16 0d3f
00000180: 4dec 14bd 84e9 053e 8cc9 1cbe b934 873d
00000190: 3f8f 4b3e c9d1 402e 93fc 1abf e797 26bf
000001a0: d3c4 9e3d c95b d83d 5ef8 28bf cbaa f43d
000001b0: 123c 243e 1f3a c63d 14b1 1abf 7024 b686
000001c0: 1316 04bf d83b 30bf af26 89be 9d4f 3bbf
000001d0: b933 51bf 228c 43bf b573 8f3e d485 262e
000001e0: 08b9 173e b3f8 0fbf 5d41 483f 5ed5 60bf
000001f0: f46a 303f 9f39 1e3e 302c 4fbf fae7 d93e
00000200: de9e b690 d210 3890 c368 2290 9fd4 860f
00000210: 5c4b 9a0f b4dc 8d8f 0daf 0f8e 3ce6 0a8c
00000220: 118e 068f 3cdb a70f 62cb 1810 e1e4 ba0e
00000230: 84ac 0990 2e7c db0e 59e2 d08f 42be 3d8f
00000240: c8e6 d50d adf2 dd90 045a cd8f fccb 848f
00000250: 77a0 ab8c 0445 8f8b 7115 3590 caf5 1890
00000260: 1a29 000d 6d1e 0e90 01c4 f390 ddb1 4b90
00000270: d8ce a10f 366f 760e 648c 6a90 21b7 778f
00000280: 0856 6d8e 0a15 3890 7d50 8c8e 572d 1690
00000290: bd30 d68f b0ba 8581 be94 1b90 ccd6 2f8f
000002a0: 5b22 fe0e dd4e 4190 56ab 2190 43e3 3590
000002b0: 0a45 ff0d dfdc 3590 a8f9 840f e6d1 8581
000002c0: fedb 5e8f cb89 0a8e 5ef6 8f8c 3466 bb0e
000002d0: 3550 4a0f 0d06 278f 17f1 db8e a893 8501
000002e0: 0a0a 918f 9a65 a18f 51ff 638d d435 c70f
000002f0: 1697 6f0f ca07 5290 ac79 848e 244c 490f
00000300: 5037 a181 7850 9381 88a5 8581 1893 8581
00000310: 58a9 8581 a087 8581 a8d5 8501 40d2 8581
00000320: 18df 8501 b083 8581 70bc 8581 18e0 8581
00000330: a0a7 8581 8cd1 8581 e8dd 8501 c0c1 8581
00000340: c88c 8581 1089 8581 28de 8581 b05d 8881
00000350: 56a3 8d81 5291 8581 08d2 8581 60ab 8581
00000360: f1f6 8681 782f 8681 e8b8 8581 408c 8501
00000370: 90ac 8581 e0b3 8581 18f6 a381 38d4 8581
00000380: 98a3 8501 d8e3 8581 40df 8501 049d 8981
00000390: d0ba 8581 90df 8581 5cd1 8581 e094 8581
000003a0: b89f 8581 d295 8d81 c82f 8681 208f 8581
000003b0: 60db 8581 2889 8581 989a 8581 45cd 8501
000003c0: 2897 8501 b8aa 8581 00cc 8501 7cdd 8581
000003d0: ee9b 8501 b852 9081 b087 8581 80b8 8501
000003e0: 40a2 8581 a0a0 8501 a876 8c81 b08e 8581
000003f0: 4895 8581 60b8 8881 88c4 8581 4087 8501

fc_layers.1.bias f4 [32]
-0.03083474 0.035698317 -9.6508025e-29 -5.705236e-38 -0.012261446 -4.889769e-28 -9.791515e-33 -6.5435692e-37
-0.010446299 -3.57388e-33 -4.7931797e-34 -8.805044e-34 -8.353945e-36 -4.905228e-38 -5.9096276e-38 -4.91447e-38
-0.058343455 -9.548499e-29 0.0006297946 -1.0676501e-33 -5.0462317e-31 -4.914336e-38 -4.911208e-38 -1.711811e-33
-8.674562e-36 -1.1877855e-19 0.30671477 -6.2985406e-38 -2.1329534e-37 0.073047906 -1.6620919e-33 -6.742973e-37
00000000: 2399 fcbc 6638 123d 4aad f490 b14f 9b81
00000010: 3be4 48bc 85f6 1a92 a05c 4b8a 87aa 5e83
00000020: f426 2bbc 0374 9489 dd47 1f88 844c 9288
00000030: 34ab 3185 7388 8581 18e0 a081 dbc8 8581
00000040: 8cf9 6ebd 4d15 f290 cd18 253a d064 b188
00000050: 74c2 238d ecc7 8581 20b2 8581 3236 0e89
00000060: cf7c 3885 9d3a 0ca0 b809 9d3e 6c76 ab81
00000070: 4a29 9182 249a 953d c914 0a89 9473 6583

fc_layers.2.weight f4 [16, 32]
0.16407983 0.21097581 1.5727015e-28 -4.9168183e-38 0.22354825 -7.128991e-29 -6.886152e-34 -2.9899055e-37
0.2801044 2.5653104e-32 -1.3312872e-34 1.4860075e-33 1.388781e-35 4.9133784e-38 4.90715e-38 4.914313e-38
0.14245686 -4.712265e-28 0.20162243 1.440129e-34 -2.4362856e-31 -4.915034e-38 -1.8564537e-38 -1.5201122e-35
-6.382298e-39 -3.6410478e-20 -0.9979224 4.905664e-38 2.007619e-38 0.23749092 -7.4002788e-34 -1.0697378e-37
4.913701e-38 -4.914975e-38 -4.9169747e-38 4.9046623e-38 -4.9131183e-38 -4.9101207e-38 4.905643e-38 4.910224e-38
-4.9148806e-38 -4.90765e-38 -4.911433e-38 -4.912089e-38 4.905249e-38 -4.909239e-38 4.9127714e-38 -4.907465e-38
4.9167595e-38 -4.915447e-38 -4.9061634e-38 -4.910175e-38 4.9150476e-38 -4.9184377e-38 4.9093236e-38 -4.9142915e-38
4.9156625e-38 -4.904937e-38 4.915374e-38 4.909682e-38 4.914324e-38 -4.906881e-38 -4.9151833e-38 4.916101e-38
0.1749133 0.21094076 1.541517e-28 -4.913966e-38 0.20771435 -6.9919984e-29 -6.7538317e-34 -2.9285174e-37
0.2894509 2.516717e-32 -1.3041674e-34 1.4566232e-33 1.3627574e-35 4.9118375e-38 4.9152797e-38 4.9050284e-38
0.1388202 -4.6244096e-28 0.19065909 1.4107937e-34 -2.3866356e-31 9.77758e-39 -1.8583813e-38 -1.4883272e-35
-8.203224e-39 -3.5690953e-20 -0.9236677 4.914244e-38 2.0894459e-38 0.25275484 -7.2516035e-34 -1.0432947e-37
-4.927795e-38 -4.921988e-38 -4.904641e-38 4.9091016e-38 -4.9064594e-38 4.911494e-38 4.904551e-38 4.905195e-38
-4.918383e-38 -4.918276e-38 4.909484e-38 4.917286e-38 -4.9127506e-38 -4.911947e-38 4.9132316e-38 -4.908115e-38
-4.9147237e-38 4.9145213e-38 -5.0546966e-38 -4.908954e-38 4.915518e-38 -4.906246e-38 -4.910387e-38 4.91215e-38
4.9130735e-38 -4.9130584e-38 -4.90706e-38 -4.915416e-38 -4.9050373e-38 -4.911522e-38 -4.908034e-38 -4.9131766e-38
-4.90778e-38 -4.9173553e-38 4.914853e-38 4.917558e-38 -4.905078e-38 4.914065e-38 4.913943e-38 -4.9111857e-38
-4.9094094e-38 4.907714e-38 4.9174674e-38 -4.9141575e-38 -4.9085417e-38 -4.910489e-38 -4.915297e-38 4.906937e-38
-4.9065995e-38 4.918459e-38 -4.9172213e-38 -4.9178295e-38 -4.916667e-38 -4.9126783e-38 4.915502e-38 -4.914644e-38
-4.91226e-38 4.9164327e-38 -4.913891e-38 4.9124726e-38 4.917527e-38 -4.9134457e-38 -4.9118807e-38 4.913859e-38
0.15273198 0.19137387 1.4842786e-28 -4.9150017e-38 0.18739168 -6.7432796e-29 -6.512549e-34 -2.8177108e-37
0.2628894 2.4274431e-32 -1.253743e-34 1.4032926e-33 1.3096367e-35 4.910827e-38 4.9165263e-38 4.9116615e-38
0.12917191 -4.4451166e-28 0.16042171 1.3575407e-34 -2.295594e-31 -4.906725e-38 -1.8521438e-38 -1.4316043e-35
-1.041176e-38 -3.43318e-20 -0.93275666 4.9174926e-38 2.1932316e-38 0.2367388 -6.9702457e-34 -9.92292e-38
0.20325832 0.23721097 1.75534e-28 -4.9133745e-38 0.25373837 -7.938774e-29 -7.680709e-34 -3.3496993e-37
0.31552535 2.857226e-32 -1.4887631e-34 1.657809e-33 1.5521475e-35 4.9064835e-38 1.364515e-38 4.913547e-38
0.1678369 -5.266246e-28 0.22695754 1.6084442e-34 -2.7230658e-31 -4.9182745e-38 -1.856888e-38 -1.6984381e-35
-1.143146e-39 -4.070418e-20 -0.91613793 4.906242e-38 1.5932517e-38 0.27237824 -8.275583e-34 -1.2569827e-37
0.11896269 0.1583173 1.2210793e-28 1.4977571e-38 0.13973178 -5.5864066e-29 -5.387993e-34 -2.2487284e-37
0.23695101 2.0116009e-32 -1.0255076e-34 1.15464595e-33 1.0769222e-35 4.9169114e-38 4.9078853e-38 4.911168e-38
0.10843342 -3.657894e-28 0.13663018 1.1129799e-34 -1.8797221e-31 9.923756e-39 -1.853122e-38 -1.172744e-35
-1.9543831e-38 -2.81645e-20 -0.858159 4.90895e-38 2.670422e-38 0.19426641 -5.709737e-34 -7.3411224e-38
00000000: 8b04 283e 0b0a 583e 155d 4711 39d9 8581
00000010: d5e9 643e ccbd b490 e7d4 6488 807b cb82
00000020: d869 8f3e d332 050b 5bf5 3087 c5e7 f608
00000030: 37ae 9305 40c1 8501 d895 8501 c3c7 8501
00000040: 36e0 113e 7056 1592 1c76 4e3e 0d6d 3f07
00000050: bd1f 9e8c cacc 8581 6026 ca80 64a5 a185
00000060: 407f 4580 91f1 2b9f d877 7fbf 7d8b 8501
00000070: 409c da00 d230 733e 9cea 7588 ec9a 1182
00000080: 80c3 8501 60cc 8581 50da 8581 8284 8501
00000090: 70bf 8581 8caa 8581 588b 8501 44ab 8501
000000a0: b8cb 8581 5499 8581 b1b3 8581 44b8 8581
000000b0: 9988 8501 67a4 8581 05bd 8501 0a98 8581
000000c0: d0d8 8501 aacf 8581 f88e 8581 edaa 8581
000000d0: e2cc 8501 82e4 8581 fea4 8501 9dc7 8581
000000e0: 2bd1 8501 6c86 8581 28cf 8501 7da7 8501
000000f0: d7c7 8501 f893 8581 d4cd 8581 39d4 8501
00000100: 791c 333e db00 583e 1669 4311 58c5 8581
00000110: 12b3 543e aa44 b190 3f6f 6088 f84d c782
00000120: e932 943e e8ac 020b 845a 2d87 e605 f208
00000130: c9e9 9005 83b6 8501 80ce 8501 0f87 8501
00000140: e226 0e3e ab8d 1292 233c 433e d286 3b07
00000150: c9e6 9a8c ea77 6a00 1c5c ca80 1f44 9e85
00000160: 4053 5980 b78b 289f 7d75 6cbf 48c7 8501
00000170: 4085 e300 1569 813e d2f9 7088 8401 0e82
00000180: b825 8681 40fd 8581 5c84 8581 72a3 8501
00000190: 0891 8581 1eb4 8501 bb83 8501 3888 8501
000001a0: 20e4 8581 62e3 8581 1ca6 8501 7bdc 8501
000001b0: e0bc 8581 46b7 8581 3ac0 8501 929c 8581
000001c0: a0ca 8581 37c9 8501 189a 8981 6ba2 8581
000001d0: 29d0 8501 8b8f 8581 67ac 8581 b0b8 8501
000001e0: 20bf 8501 05bf 8581 3895 8581 73cf 8581
000001f0: 1f87 8581 50b4 8581 019c 8581 d8bf 8581
00000200: 3c9a 8581 f7dc 8581 87cb 8501 61de 8501
00000210: 6887 8581 09c6 8501 2fc5 8501 f8b1 8581
00000220: 97a5 8581 c699 8501 bfdd 8501 aec6 8581
00000230: 8b9f 8581 1dad 8581 9fce 8581 5c94 8501
00000240: 0292 8581 a8e4 8501 08dc 8581 45e0 8581
00000250: 2bd8 8581 5fbc 8581 0dd0 8501 12ca 8581
00000260: 75b9 8581 89d6 8501 d2c4 8581 f0ba 8501
00000270: 29de 8501 b8c1 8581 d0b6 8581 99c4 8501
00000280: c665 1c3e 83f7 433e 9827 3c11 90cc 8581
00000290: 9be3 3f3e 63f6 aa90 a46a 5888 72c3 bf82
000002a0: 7099 863e 8214 fc0a aaa6 2687 7729 e908
000002b0: b443 8b05 78af 8501 30d7 8501 49b5 8501
000002c0: a445 043e 12df 0c92 9745 243e b772 3407
000002d0: 19fe 948c e292 8581 3cae c980 fa3b 9885
000002e0: c05f 7180 9920 229f 24c9 6ebf ecdd 8501
000002f0: 60d2 ee00 a86b 723e 4ba0 6788 5410 0782
00000300: f322 503e 6fe7 723e 0a84 5e11 39c1 8581
00000310: ffe9 813e 9745 c990 3f3c 7f88 fef7 e382
00000320: 8a8c a13e 0c5b 140b fce3 4587 b3b9 0909
00000330: 790d a505 3391 8501 2095 9400 6dc2 8501
00000340: 70dd 2b3e dde4 2692 8f67 683e 85cc 5507
00000350: b1bc b08c 5fe3 8581 7c32 ca80 e29b b485
00000360: a072 0c80 5638 409f 0488 6abf 848f 8501
00000370: 607d ad00 2975 8b3e 7080 8988 7417 2b82
00000380: b6a2 f33d ee1d 223e 4aca 1a11 6017 a300
00000390: d915 0f3e daa1 8d90 fa0b 3388 600a 9982
000003a0: 49a3 723e 86e5 d00a 3750 0887 35d9 bf08
000003b0: 3909 6505 dfd9 8501 f89a 8501 d8b1 8501
000003c0: 5712 de3d b9d8 e791 c8e8 0b3e bef0 1307
000003d0: 7b00 748c 650f 6c00 80c9 c980 426a 7985
000003e0: 40d0 d480 cb00 059f 4fb0 5bbf 63a2 8501
000003f0: 4064 1101 c6ed 463e 12bd 3d88 28d8 c781

fc_layers.2.bias f4 [16]
0.3228754 -5.4505225e-38 0.2914971 -5.734046e-38 -4.91581e-38 0.2989382 0.30692625 0.25036216
-4.9079515e-38 0.56289667 0.30320704 -5.414468e-38 0.31631067 -4.90611e-38 0.31071246 -5.5777996e-38
00000000: ed4f a53e 9960 9481 1c3f 953e 7818 9c81
00000010: 32d2 8581 6e0e 993e 7025 9d3e 782f 803e
00000020: 6e9b 8581 ff19 103f f43d 9b3e 5665 9381
00000030: 79f3 a13e 998e 8581 b415 9f3e 97d7 9781

fc_layers.3.weight f4 [8, 16]
-4.914661e-38 4.9092143e-38 -4.907688e-38 -4.907488e-38 -4.907602e-38 -4.905002e-38 -4.9276963e-38 -4.906603e-38
-4.915975e-38 -5.6137586e-38 -4.913392e-38 4.910288e-38 -4.910181e-38 4.90574e-38 -4.908419e-38 -4.9183614e-38
0.27815056 4.9069257e-38 0.26782158 -4.908836e-38 -4.9138246e-38 0.25229242 0.3025254 0.21021193
-4.90477e-38 -1.1816398 0.27958408 4.910827e-38 0.26704934 4.912945e-38 0.25135764 4.9168043e-38
0.18184584 3.6259102e-38 0.18626794 -4.9163514e-38 -4.9112826e-38 0.18137053 0.2013731 0.1363376
-4.9120405e-38 -0.9600432 0.19178256 -4.904737e-38 0.18118654 4.9118914e-38 0.16100863 4.907742e-38
-4.9090064e-38 -4.9081527e-38 -4.909809e-38 4.9103606e-38 4.9114956e-38 -4.912571e-38 -4.911033e-38 -4.915423e-38
4.917744e-38 -5.854692e-38 -4.9067553e-38 -4.906049e-38 -4.9138e-38 4.9123964e-38 -4.9167146e-38 4.9098286e-38
0.2069925 3.5215774e-38 0.2148623 -3.9747326e-38 -4.9182785e-38 0.20307897 0.24963422 0.19394842
-4.918366e-38 -1.0398524 0.21858868 -4.9163643e-38 0.21733178 4.909736e-38 0.20283191 4.917737e-38
0.15979046 3.7312116e-38 0.13765168 -4.916374e-38 -4.918018e-38 0.1437802 0.17054452 0.08547038
-4.9067884e-38 -0.88750416 0.12879121 -4.915163e-38 0.14593637 4.917422e-38 0.12379951 4.914625e-38
-4.9142887e-38 4.9050984e-38 -4.9076656e-38 -4.905624e-38 -4.917787e-38 -4.905984e-38 -4.9063383e-38 -4.9124053e-38
-4.9129715e-38 -4.9056567e-38 -4.913459e-38 -4.907532e-38 -4.905334e-38 -4.909239e-38 -4.9172213e-38 4.909589e-38
-4.914782e-38 -4.9164293e-38 -4.910253e-38 4.906737e-38 4.9054325e-38 -4.9122663e-38 -4.9192885e-38 -4.9181944e-38
4.914086e-38 -6.194811e-38 -4.9109704e-38 -4.9048966e-38 -4.906778e-38 -4.9141867e-38 -4.905706e-38 -4.9091913e-38
00000000: 30ca 8581 3ba4 8501 9899 8581 3398 8581
00000010: ff98 8581 e086 8581 0825 8681 0892 8581
00000020: 58d3 8581 30d2 9881 58c1 8581 b7ab 8501
00000030: f8aa 8581 058c 8501 b09e 8581 fae3 8581
00000040: c069 8e3e 4894 8501 e91f 893e 98a1 8581
00000050: 5cc4 8581 792c 813e 9ce4 9a3e cc41 573e
00000060: 4285 8581 f93f 97bf a525 8f3e 78af 8501
00000070: b1ba 883e 3bbe 8501 f3b1 803e 20d9 8501
00000080: cc35 3a3e d069 4501 06bd 3e3e f8d5 8581
00000090: a5b2 8581 32b9 393e c034 4e3e 159c 0b3e
000000a0: edb7 8581 64c5 75bf a662 443e 0785 8581
000000b0: f788 393e e3b6 8501 72df 243e f899 8501
000000c0: c8a2 8581 d59c 8581 60a8 8581 38ac 8501
000000d0: 21b4 8501 a0bb 8581 e8b0 8581 80cf 8581
000000e0: acdf 8501 4061 9f81 1893 8581 2c8e 8581
000000f0: 30c4 8581 68ba 8501 80d8 8581 83a8 8501
00000100: d8f5 533e a0bb 3f01 dd04 5c3e b067 5881
00000110: 66e3 8581 eff3 4f3e 1da0 7f3e 6a9a 463e
00000120: 02e4 8581 e219 85bf b6d5 5f3e 0fd6 8581
00000130: 398c 5e3e dea7 8501 2bb3 4f3e a0df 8501
00000140: 1ca0 233e 8025 4b01 90f4 0c3e 20d6 8581
00000150: 95e1 8581 1e3b 133e 39a3 2e3e 180b af3d
00000160: 5393 8581 7933 63bf d8e1 033e b0cd 8581
00000170: 5870 153e 6edd 8501 998a fd3d f0c9 8501
00000180: 98c7 8581 8c87 8501 7099 8581 368b 8581
00000190: f9df 8581 b88d 8581 3090 8581 78ba 8581
000001a0: 6abe 8581 708b 8581 d0c1 8581 8298 8581
000001b0: 3089 8581 67a4 8581 08dc 8581 d7a6 8501
000001c0: 08cb 8581 83d6 8581 78ab 8581 f792 8501
000001d0: e089 8501 80b9 8581 70ea 8581 d0e2 8581
000001e0: 2ec6 8501 88a3 a881 78b0 8581 2486 8581
000001f0: 4093 8581 e2c6 8581 c88b 8581 12a4 8581

fc_layers.3.bias f4 [8]
-4.911051e-38 0.4798472 0.4452451 -4.904939e-38 0.4605469 0.42643532 -4.910168e-38 -4.915217e-38
00000000: 08b1 8581 88ae f53e 2af7 e33e 7086 8581
00000010: cecc eb3e bb55 da3e e0aa 8581 10ce 8581
