checkpoints/neumf_first_try_Epoch20_HR0.6781_NDCG0.4030.model (torch, 645108 bytes, 13 tensors)

embedding_user_mlp.weight f4 [6040, 8]
0	0xbd913e62	-0.07091977
1	0x3f174c58	0.59100866
2	0x3f3ca075	0.7368234
3	0x3ea19305	0.3155748
4	0xbed828c7	-0.4221861
5	0xbeb07a1a	-0.34468156
6	0xbd46bb48	-0.04851845
7	0xbf18123a	-0.5940281
8	0xbe1d2d79	-0.15349378
9	0x3e1e1b1c	0.15440029
10	0x3e92569d	0.28581706
11	0x3d3e7cec	0.046505854
12	0x3dc1155e	0.094279036
13	0x3dab361a	0.083599284
14	0x3e85b4a2	0.26114374
15	0x3e67317b	0.22577469
16	0xbe42eaf7	-0.19034944
17	0x3e5cc1b1	0.21558262
18	0x3f38289c	0.71936965
19	0x3df52a5a	0.119709685
20	0x3d706ea6	0.058699273
21	0xbf6313fb	-0.8870236
22	0xbe9abd72	-0.3022266
23	0x3ccd28bd	0.02504384
24	0xbd9659e0	-0.07341361
25	0x3f2e96ff	0.6819915
26	0x3f5adb22	0.8549062
27	0x3ed7b807	0.4213259
28	0xbf248619	-0.64267117
29	0xbf290217	-0.66018814
30	0xbdffd240	-0.12491274
31	0xbee9e81b	-0.45684895
32	0xbef26183	-0.4734002
33	0x3d2fcc41	0.0429194
34	0xbdf59b8a	-0.11992557
35	0x3d84f6e9	0.06492407
36	0xbef13450	-0.47110224
37	0xbd7750e1	-0.060379867
38	0xbf33aadf	-0.70182604
39	0xbee92dde	-0.45542806
40	0xbdf00ebd	-0.11721561
41	0x3e1a37d6	0.15060362
42	0x3ed2c6ef	0.411674
43	0x3e54d131	0.20782925
44	0xbea023f7	-0.3127744
45	0xbecfe770	-0.4060626
46	0xbf169e01	-0.58834845
47	0xbeafb069	-0.34314278
48	0xbe3b588a	-0.18295494
49	0x3f18ab09	0.5963598
50	0x3f004eef	0.50120443
51	0x3f5034f8	0.81330824
52	0xbe84d570	-0.2594409
53	0xbf1e9d39	-0.6195865
54	0xbed4abba	-0.41537267
55	0xbee1c0c4	-0.4409238
56	0x3c138ce9	0.009005764
57	0x3da023f6	0.07819359
58	0x3ed06809	0.40704373
59	0x3e7d94e0	0.24763823
60	0x3f16b680	0.5887222
61	0xbee31aa9	-0.44356278
62	0x3eb7d8be	0.3590755
63	0x3e32db82	0.17466548
64	0xbe12b408	-0.14326489
65	0x3ee45eba	0.4460352
66	0x3ed118db	0.40839276
67	0x3eebbca8	0.4604237
68	0xbeab1f2e	-0.33422226
69	0xbeabec0f	-0.33578536
70	0xbec018ac	-0.37518823
71	0xbeaf88c0	-0.3428402
72	0xbe3f9bb3	-0.18711738
73	0xbe2cacb9	-0.16862763
74	0x3cecdcc8	0.02891387
75	0xbb674b26	-0.0035292595
76	0xbe8bc02d	-0.27295056
77	0x3dc16b45	0.09444288
78	0x3e967eb1	0.29393533
79	0x3e352e31	0.17693402
80	0x3e330c77	0.17485224
81	0x3d94c8eb	0.072648846
82	0x3e0396d1	0.128505
83	0x3ed86c8b	0.42270312
84	0xbd7cdc42	-0.06173349
85	0xbe4a84d0	-0.19777226
86	0x3e91b9c7	0.2846205
87	0x3d0449bc	0.03229688
88	0xbda2a498	-0.0794155
89	0x3d3214b2	0.043476768
90	0x3d4bd0ac	0.049759552
91	0x3ebb9f30	0.36644888
92	0x3eaff376	0.34365433
93	0xbc95107d	-0.018196339
94	0xbda5f859	-0.08104009
95	0xbcd64d7c	-0.026159994
96	0x3e1f9524	0.15584236
97	0x3eae129c	0.33998573
98	0x3ef80d10	0.48447466
99	0xb9fde783	-0.0004842841
100	0x3e0e3753	0.13888292
101	0xbe010a6c	-0.12601632
102	0x3e6aabb1	0.22917058
103	0x3df90fbf	0.121612065
104	0xbeea456a	-0.45756084
105	0xbdd802f6	-0.1054744
106	0xbe1575aa	-0.14595667
107	0x3ea262f7	0.3171613
108	0xbf0fe418	-0.5620742
109	0xbe2e0557	-0.16994224
110	0xbe80d255	-0.2516047
111	0xbeab69bb	-0.33479103
112	0xbe8c9ff1	-0.27465776
113	0x3e135907	0.1438943
114	0x3e498850	0.19680905
115	0x3e457070	0.19281173
116	0xbed80be2	-0.42196566
117	0xbf059c74	-0.52191854
118	0x3e3efbb4	0.18650705
119	0x3e324acb	0.17411344
120	0xbeed50a8	-0.46350598
121	0xbcfd5944	-0.030926354
122	0xbe949fb1	-0.29028085
123	0x3eb8af44	0.36071217
124	0xbf73a98a	-0.9518057
125	0xbe8cf860	-0.27533245
126	0xbf5d30d8	-0.86402655
127	0xbf212daa	-0.629603
128	0xbd8b44f1	-0.06800259
129	0xbe2ff99d	-0.17185064
130	0xbd84fb9a	-0.06493302
131	0x3e91f617	0.28508064
132	0xbefb75de	-0.49113363
133	0xbe0f8c51	-0.1401837
134	0xbe93a863	-0.28839406
135	0xbe78b074	-0.24286062
136	0x3eaa8076	0.33301133
137	0xbe4efe97	-0.20214306
138	0x3e074496	0.13209757
139	0xbe589f85	-0.21154602
140	0x3ea0af26	0.31383628
141	0x3e4eb702	0.20187
142	0x3f25b37d	0.64727
143	0xbd38fa96	-0.045160852
144	0xbe82040c	-0.25393713
145	0x3e89ad50	0.2689004
146	0xbdc61250	-0.096714616
147	0xbeb6cffe	-0.3570556
148	0xbf117865	-0.5682433
149	0x3e9862b8	0.29762816
150	0xbd9a3feb	-0.07531723
151	0xbeab3a80	-0.3344307
152	0x3e039270	0.1284883
153	0x3f0ba724	0.5455191
154	0x3ed0232f	0.40651843
155	0x3e2a762a	0.16646639
156	0xbef03e26	-0.46922415
157	0xbdcb03f3	-0.09912863
158	0xbea56be3	-0.32308874
159	0x3e00f8ce	0.12594911
160	0xbf3fb8ac	-0.7489116
161	0x3d34f5ef	0.044179853
162	0x3e3bc459	0.1833662
163	0x3e3f51cc	0.18683547
164	0xbcfdebf5	-0.030996302
165	0xbcfd2a11	-0.030903848
166	0xbe83b7cf	-0.25726172
167	0xbe1cfcdb	-0.15330832
168	0x3db0e55a	0.08637495
169	0x3d311f9c	0.043243036
170	0xbd84f385	-0.0649176
171	0x3d761acd	0.060084153
172	0x3e724bc4	0.23661715
173	0x3e2d458b	0.1692106
174	0xbdcf001a	-0.10107441
175	0x3e7a191b	0.2442364
176	0x3bf89f5c	0.0075873565
177	0xbdfb2437	-0.12262767
178	0xbe7ecfcf	-0.2488396
179	0x3dee0b85	0.11623291
180	0xbea407e3	-0.32037267
181	0xbdbcf599	-0.092265315
182	0xbeee0a4c	-0.4649223
183	0xbd633cfb	-0.055478077
184	0xbf00cb3b	-0.50310105
185	0x3b57fb97	0.0032956356
186	0x3c89852b	0.016787132
187	0xbda95240	-0.08267641
188	0xbdb585d2	-0.08863415
189	0xbe3161bb	-0.17322437
190	0xbe7ad18a	-0.24493995
191	0xbe360833	-0.17776565
192	0xbeefa952	-0.4680887
193	0xbdcfe9be	-0.10152005
194	0x3a8f94ba	0.0010954358
195	0x3ebff8a5	0.37494388
196	0xbebc1a8e	-0.3673901
197	0x3d8ec014	0.0697023
198	0xbdf97934	-0.12181321
199	0xbf41a0ac	-0.7563579
200	0x3eebe0aa	0.46069843
201	0xbd24a278	-0.040194005
202	0xbdca5fd2	-0.098815575
203	0x3a38eb08	0.00070540654
204	0x3ea7c46d	0.32767048
205	0x3e06bab4	0.13157159
206	0x3b163b0a	0.0022923374
207	0x3ee6de38	0.45091414
208	0xbc7d944b	-0.01547725
209	0x3e960277	0.29298756
210	0x3dfa7609	0.12229545
211	0x3ed1e504	0.40995038
212	0xbf0b5a78	-0.5443492
213	0xbe8b5cd1	-0.2721925
214	0xbea22a14	-0.31672728
215	0x3e97628e	0.2956738
216	0x3e1839e4	0.14865834
217	0xbd254c72	-0.040356107
218	0xbe01bea6	-0.12670383
219	0x3ef2c7f3	0.47418174
220	0xbeb334c1	-0.35001186
221	0xbe801015	-0.2501227
222	0xbe91b817	-0.28460762
223	0xbe824f34	-0.25451052
224	0xbd870f86	-0.06594758
225	0x3f2a6aa2	0.6656896
226	0x3f3abfb0	0.7294874
227	0x3e6c3696	0.23067698
228	0x3e19304b	0.14959829
229	0x3e72f07b	0.23724549
230	0x3e71dab9	0.23618592
231	0xbe8b410a	-0.27198058
232	0xbcc2dae3	-0.023786014
233	0x3e51c944	0.20486933
234	0x3edd3393	0.4320341
235	0x3e91734a	0.2840827
236	0xbec8ab2a	-0.39193088
237	0xbee01e6a	-0.43773204
238	0xbe8fc86b	-0.28082594
239	0xbf136dc2	-0.5758935
240	0xbd6f9548	-0.058491975
241	0x3e877c4c	0.26462018
242	0xbb05eba5	-0.0020434645
243	0x3f0d50b9	0.552013
244	0xbe83e2e5	-0.25759044
245	0xbf254bc4	-0.64568734
246	0xbf51eaf2	-0.81999123
247	0x3da49f0a	0.08038147
248	0x3e0c7f3b	0.1372041
249	0x3e2affbe	0.1669912
250	0x3d5e7756	0.054313026
251	0x3e8a4c10	0.27011156
252	0xbf414d4e	-0.7550858
253	0xbe4935b5	-0.19649394
254	0xbdd0660a	-0.101757124
255	0xbe92dcb6	-0.28684014

embedding_item_mlp.weight f4 [3706, 8]
0	0xbf88e6c3	-1.0695423
1	0xbf8fa2ff	-1.1221617
2	0xbec749e0	-0.3892355
3	0x3f97b132	1.1850951
4	0x3fb1ebb9	1.3900062
5	0x3f8b4178	1.0879354
6	0xbf62753a	-0.88460124
7	0x3e0a3afe	0.13499066
8	0xbf31952a	-0.6936823
9	0xbe92018b	-0.28516802
10	0xbe32f69b	-0.17476885
11	0xbd1e7241	-0.03868318
12	0x3d31932d	0.04335325
13	0xbe8bdb79	-0.27315882
14	0xbe40ede2	-0.18840745
15	0x3eabd131	0.33558038
16	0xbe929589	-0.2862971
17	0x3d010892	0.031502314
18	0xbe9945ff	-0.29936215
19	0x3e3998e0	0.18124723
20	0x3e7e8ae3	0.24857669
21	0x3e69cd4c	0.22832221
22	0xbe0cf518	-0.13765371
23	0x3e2a9fa1	0.16662456
24	0xbf2e324f	-0.68045515
25	0xbf2e65b3	-0.6812393
26	0xbf167d68	-0.58785105
27	0x3f19cd3a	0.60078776
28	0x3ea658d7	0.32489654
29	0x3f832596	1.0245845
30	0xbf41eec6	-0.75754964
31	0x3f3b2e57	0.73117584
32	0xbf01da03	-0.50723284
33	0xbf9ed3e0	-1.2408409
34	0xbf4fd52f	-0.8118467
35	0x3f1352a1	0.57547957
36	0x3ef41a79	0.47676447
37	0x3f00b91a	0.5028244
38	0xbea26539	-0.31717852
39	0x3f661a75	0.8988412
40	0xbf445eee	-0.7670735
41	0xbf37665c	-0.71640563
42	0xbee80981	-0.4531975
43	0xbd9070a9	-0.07052738
44	0x3f15cbb9	0.5851398
45	0x3f715033	0.94263
46	0xbe4b673d	-0.19863601
47	0x3eed9586	0.4640314
48	0xbe5e5a35	-0.21714099
49	0xbd8cc5ee	-0.068736896
50	0xbd060e19	-0.03272829
51	0xbe842dbc	-0.25816143
52	0x3d94b777	0.07261556
53	0x3e164923	0.14676337
54	0x3c5de150	0.013542488
55	0xbd0d9d3e	-0.034573786
56	0xbeaca202	-0.33717352
57	0xbf1e074b	-0.6172988
58	0xbdd634cb	-0.10459288
59	0xbe44f1d4	-0.19232875
60	0x3ea12eb6	0.3148095
61	0x3ecc40b1	0.39893106
62	0xbd382d34	-0.044964984
63	0x3de6f558	0.11277264
64	0xbd2266d8	-0.03964886
65	0x3db46622	0.08808543
66	0xbe7ece70	-0.24883437
67	0xbe15029a	-0.14551774
68	0x3d5c0af2	0.053721376
69	0xbe6c3575	-0.23067267
70	0xbd80b403	-0.062843345
71	0x3e33cb83	0.17558102
72	0xbea742bc	-0.32668102
73	0xbd23113f	-0.03981137
74	0xbe56e055	-0.20984013
75	0x3e928ae1	0.2862158
76	0x3e73e4e3	0.23817782
77	0x3f0435b6	0.51644456
78	0xbe91ace8	-0.2845223
79	0x3d43d978	0.047814816
80	0xbe12796a	-0.14304128
81	0xbe5aa613	-0.21352415
82	0xbe9237cd	-0.28558198
83	0xbc40b832	-0.011762666
84	0x3e1a8eb0	0.15093493
85	0x3d8c2210	0.068424344
86	0xbe1dbab1	-0.15403248
87	0x3d70c578	0.05878207
88	0x3cedcf1a	0.029029418
89	0x3debe00e	0.115173444
90	0x3ccb57da	0.024822164
91	0x3d862d2d	0.06551585
92	0x3dd606c6	0.10450511
93	0xbe5cd88f	-0.21566986
94	0xbcdee822	-0.027210299
95	0x3dc3d6c5	0.095624484
96	0x3d525540	0.051350832
97	0x3e383de0	0.17992353
98	0xbb1e52fc	-0.002415835
99	0xbdcf99ba	-0.10136743
100	0xbe9cfb93	-0.30660686
101	0xbd6650ee	-0.056229524
102	0x3df266d3	0.118360184
103	0xbda7b731	-0.08189238
104	0x3e9dc7d1	0.3081651
105	0xbdfc9b56	-0.123343155
106	0xbea9df69	-0.3317826
107	0xbe18ad2c	-0.1490981
108	0xbe9bb331	-0.3041015
109	0x3ea3a27a	0.31959897
110	0x3da0243f	0.078194134
111	0x3ce8883f	0.02838528
112	0xbf43eef3	-0.7653648
113	0xbde986d5	-0.1140267
114	0xbf0ecc3b	-0.5578038
115	0x3e6bc58c	0.23024577
116	0x3d4a05e0	0.04932201
117	0x3c51752b	0.012784283
118	0xbf02f81a	-0.5115982
119	0x3ec959b3	0.39326248
120	0xbf51df53	-0.8198139
121	0xbe88069a	-0.26567537
122	0xbf01c5f0	-0.50692654
123	0x3e9570b4	0.29187548
124	0x3d89816b	0.06714138
125	0x3e17a562	0.14809182
126	0xbec53380	-0.38515854
127	0x3e92c73f	0.28667638
128	0x3e1c36ac	0.1525523
129	0xbf592dd8	-0.84835577
130	0xbd5782a1	-0.05261481
131	0xbeb9d2ea	-0.36293727
132	0x3e4a3346	0.19746122
133	0x3e0e8586	0.13918123
134	0x3ea51c49	0.32248142
135	0x3e675f19	0.2259487
136	0x3d0e7169	0.034776125
137	0x3d9be36c	0.07611737
138	0xbea31c3f	-0.31857488
139	0xbe84d904	-0.2594682
140	0x3e955306	0.29164904
141	0xbe8a672d	-0.27031842
142	0x3e8f5a2b	0.2799848
143	0x3cc4c39d	0.024019057
144	0xbe80ecc2	-0.25180632
145	0xbd587416	-0.052845083
146	0x3da2a9e2	0.07942559
147	0xbb64c00f	-0.0034904515
148	0x3e0e91b7	0.13922773
149	0x3d2f15f5	0.04274555
150	0x3e0969ca	0.13419262
151	0xbe8da7e7	-0.27667162
152	0xbe47e61b	-0.19521372
153	0xbe88a5bb	-0.26688942
154	0xbea335ec	-0.31877077
155	0xbdf1e924	-0.11812046
156	0x3dc8e266	0.09808807
157	0x3e8b2f28	0.27184415
158	0xbe2351eb	-0.15949218
159	0xbce8b899	-0.028408336
160	0xbea1ea45	-0.31624046
161	0x3e0532b5	0.13007624
162	0xbcbe9aa9	-0.023267107
163	0x3ec2537c	0.3795432
164	0x3e778303	0.24171071
165	0x3eb0e4f6	0.34549683
166	0xbed46fec	-0.4149164
167	0x3dedff47	0.11620956
168	0x3ea76ed6	0.3270175
169	0xbf1fefb2	-0.6247512
170	0x3ccfa8bd	0.025349015
171	0xbe53934f	-0.20661663
172	0x3ea9d06a	0.3316682
173	0x3e93e661	0.28886703
174	0x3ebf29f9	0.3733671
175	0x3e8e8fc1	0.2784405
176	0xbe9a6355	-0.3015391
177	0xbf226443	-0.6343424
178	0xbf12cc77	-0.5734324
179	0x3f2b0594	0.66805387
180	0x3ecd24d8	0.40067172
181	0x3f3fe1d7	0.7495398
182	0xbf257506	-0.6463169
183	0x3eb01bde	0.3439626
184	0xbf573c88	-0.8407674
185	0xbf886045	-1.0654379
186	0xbf072d1f	-0.52803224
187	0x3f7d0829	0.98840576
188	0x3f7f56c2	0.99741757
189	0x3f4eb04d	0.80737764
190	0xbf52ae02	-0.82296765
191	0x3dcb122d	0.09915576
192	0xbdc8ac49	-0.09798486
193	0xbe93d84b	-0.28875956
194	0x3e6e5e77	0.23278223
195	0xbad1d282	-0.0016008171
196	0x3c336638	0.010949664
197	0x3eafcef1	0.3433757
198	0xbdb7c74a	-0.08973558
199	0x3e4ea916	0.20181689
200	0xbe20a17e	-0.15686604
201	0xbd9a5d90	-0.07537377
202	0xbc36d8f1	-0.011160121
203	0xbe631c4d	-0.22178765
204	0x3e0c6f7f	0.13714407
205	0xbe0209e7	-0.1269909
206	0x3e5b111d	0.21393247
207	0xbc6947fe	-0.014238356
208	0xbf088863	-0.5333311
209	0xbf6be4ef	-0.921462
210	0xbf3381ac	-0.7011974
211	0x3f1377f5	0.57604915
212	0x3efb781e	0.4911508
213	0x3f2ab969	0.66689163
214	0xbf10b6c3	-0.5652887
215	0x3eae2097	0.3400924
216	0xbf3a079f	-0.7266788
217	0xbf01d47b	-0.50714844
218	0xbef41a2c	-0.47676218
219	0x3f2e398a	0.6805655
220	0x3f66d9a7	0.9017586
221	0x3f7d6b80	0.98992157
222	0xbf340e91	-0.70334727
223	0x3b758519	0.0037463366
224	0x3ec1401f	0.37744233
225	0xbea53891	-0.3226972
226	0x3eb0eb6c	0.34554613
227	0xbec6ca87	-0.3882639
228	0xbe9c5559	-0.30533865
229	0x3e16c478	0.14723384
230	0x3ef1d6ae	0.472341
231	0xbe810e70	-0.25206327
232	0x3e548390	0.20753312
233	0xbf3c88f9	-0.73646504
234	0x3e75249b	0.23939745
235	0xbd850e41	-0.06496859
236	0x3f275c93	0.6537563
237	0x3f02c9bf	0.5108909
238	0x3e0e7592	0.13912037
239	0x3ece2ee3	0.40270147
240	0xbdcf9818	-0.101364315
241	0xbe94e65b	-0.29081997
242	0xbea6bb81	-0.3256493
243	0x3dd61022	0.10452296
244	0x3e8b6733	0.27227172
245	0xbd50fa65	-0.051020045
246	0xbbef6d5e	-0.0073067388
247	0xbce9a338	-0.028520212
248	0xbe485a90	-0.19565797
249	0xbf27feaf	-0.6562299
250	0x3e13df46	0.14440641
251	0x3eaa58f5	0.33270994
252	0x3e32a566	0.17445907
253	0x3f6b3647	0.91879696
254	0xbe1952a4	-0.14972931
255	0xbd7a4c39	-0.061107848

embedding_user_mf.weight f4 [6040, 8]
0	0x3db5c4d5	0.08875433
1	0x3dc99acd	0.09843979
2	0xbe997012	-0.29968315
3	0x3ebfb760	0.37444592
4	0xbc37d3b6	-0.011219909
5	0xbec69552	-0.38785797
6	0x3d57d483	0.0526929
7	0xbf847356	-1.0347698
8	0xbd4457c3	-0.04793526
9	0xbeb8a32c	-0.3606199
10	0xbc75716e	-0.014980657
11	0x3f88f133	1.0698608
12	0x3e5b926d	0.21442576
13	0x3e0ae1f6	0.1356276
14	0x3eb13f7a	0.3461874
15	0x3d01a342	0.031649835
16	0x3ea72514	0.32645476
17	0xbf1bb8bc	-0.6082876
18	0xbdebb1b3	-0.11508503
19	0x3c9e67c2	0.019336585
20	0x3db86e02	0.09005357
21	0x3f28ccb1	0.65937334
22	0x3edaaa97	0.42708275
23	0xbf3e8c88	-0.74433184
24	0xbe29556c	-0.16536492
25	0xbd4ba3c3	-0.049716722
26	0x3ec9e7f1	0.3943477
27	0x3f30b7a6	0.69030225
28	0xbedd9b3a	-0.4328249
29	0x3f650c79	0.89472157
30	0x3eebc273	0.4604679
31	0xbe8bf3c8	-0.27334428
32	0xbd37c97c	-0.044869885
33	0xbeda2787	-0.42608282
34	0xbbc02ba2	-0.0058645764
35	0x3e97a32d	0.2961668
36	0xbf56fcc0	-0.83979416
37	0xbf10b596	-0.5652708
38	0xbee40934	-0.4453827
39	0x3d19ca27	0.037546303
40	0x3ebd931c	0.37026298
41	0x3e0e5402	0.13899234
42	0xbeedeb17	-0.46468422
43	0x3ee30560	0.44340038
44	0x3f336adb	0.70084924
45	0xbd217762	-0.039420493
46	0x3eacacc8	0.33725572
47	0xbe4a0f1c	-0.19732326
48	0x3f3635aa	0.71175635
49	0xbf15c554	-0.58504224
50	0x3f03f872	0.5155097
51	0x3f197cf0	0.59956264
52	0xbef670e6	-0.4813301
53	0x3f2cfb41	0.67570883
54	0x3e63c80e	0.22244284
55	0xbe9c99e8	-0.3058617
56	0x3ec38e50	0.38194513
57	0xbf1de829	-0.61682373
58	0x3e8b5ebb	0.2722071
59	0x3f4db277	0.8035044
60	0xbf1d3c68	-0.614203
61	0xbf3fb73f	-0.74888986
62	0xbe0c7d3c	-0.13719648
63	0xbdd4045f	-0.10352396
64	0x3e6d2a07	0.23160563
65	0xbf8ddacf	-1.10824
66	0x3e766b8d	0.24064465
67	0x3f327593	0.69710654
68	0xbe4c7778	-0.19967449
69	0xbed10c03	-0.40829477
70	0xbec75146	-0.38929194
71	0xbf2f4892	-0.6847011
72	0x3e67af60	0.22625494
73	0x3e3a927d	0.18219943
74	0xbf327116	-0.69703805
75	0x3ed5056d	0.41605702
76	0x3d13f19a	0.03611908
77	0x3e811d9a	0.25217897
78	0x3c524f6c	0.012836318
79	0xbf1c0d21	-0.60957533
80	0x3b7aba20	0.0038257912
81	0xbf3cd303	-0.7375948
82	0xbed28872	-0.41119725
83	0xbe9248ac	-0.2857107
84	0xbe55eee0	-0.20891905
85	0xbee82391	-0.45339635
86	0xbd94bc3d	-0.07262466
87	0xbf1fb301	-0.62382513
88	0xbe7e736e	-0.2484872
89	0xbef189c6	-0.47175425
90	0x3e420b8e	0.1894972
91	0x3e0fd923	0.14047675
92	0xbd72d033	-0.059280585
93	0x3f002b27	0.50065845
94	0xbe72026e	-0.2363374
95	0xbf3cbb68	-0.7372346
96	0x3ec1eb74	0.3787495
97	0x3d8c2e6a	0.0684479
98	0xbea286d6	-0.31743497
99	0x3f91727f	1.1363066
100	0xbe26867f	-0.16262244
101	0x3f0783b5	0.52935344
102	0x3d3a7f2f	0.045531448
103	0x3e49f468	0.1972214
104	0xbdba3b61	-0.09093357
105	0xbda5fada	-0.08104487
106	0x3dbe1b12	0.09282507
107	0xbe3af822	-0.18258718
108	0xbec0891b	-0.37604603
109	0x3e2d7158	0.16937768
110	0x3e68b0da	0.22723714
111	0xbeb0f167	-0.34559175
112	0x3f30fb89	0.6913381
113	0xbf563871	-0.8367987
114	0x3e96cfb7	0.2945535
115	0x3ecab8bd	0.3959407
116	0x3cd8b384	0.026452787
117	0xbe93c487	-0.28860876
118	0x3ef7004b	0.4824241
119	0xbed1d599	-0.40983275
120	0x3f15ece3	0.58564585
121	0x3e4858b8	0.19565094
122	0xbeadfba0	-0.33981037
123	0x3e20a7a4	0.1568895
124	0x3e5750ad	0.21026869
125	0x3c912f17	0.01772265
126	0x3e337c3d	0.17527862
127	0xba91c587	-0.001112149
128	0x3d8a6336	0.06757204
129	0x3c1a3a55	0.0094133215
130	0x3e024a5b	0.12723677
131	0x3eb2eb44	0.34945118
132	0xbf26eaf5	-0.65202266
133	0x3e7f0f5b	0.24908201
134	0xbe036b12	-0.12833813
135	0x3ef04b2a	0.46932346
136	0x3eda4572	0.42631108
137	0x3d2aa4c4	0.04166104
138	0xbe8982ba	-0.2685755
139	0x3f504410	0.81353855
140	0xbeaa5e90	-0.3327527
141	0x3dec0744	0.11524823
142	0xbe38ea71	-0.18058182
143	0xbecda259	-0.40162924
144	0x3ef5b553	0.47989902
145	0x3db78e0c	0.0896264
146	0x3e523190	0.20526719
147	0xbe0a55ee	-0.13509342
148	0xbe596509	-0.21229948
149	0x3f1b247e	0.6060256
150	0x3dd05c5b	0.101738654
151	0xbf30e6b8	-0.6910205
152	0x3ecbd37b	0.39809784
153	0xbf3c3f35	-0.73533946
154	0x3e17268a	0.14760795
155	0x3df3cba1	0.119040735
156	0xbebc5674	-0.36784708
157	0x3ea012b0	0.31264257
158	0xbd1041d0	-0.035219014
159	0xbe24e2ea	-0.16102186
160	0x3f142098	0.57862234
161	0x3dcd122c	0.10013232
162	0xbcac156e	-0.021006312
163	0x3dc0cdff	0.09414291
164	0xbea30a16	-0.31843632
165	0x3e5ba837	0.21450888
166	0xbf029742	-0.5101205
167	0xbf03c3c6	-0.514706
168	0x3f076d88	0.52901506
169	0xbf02105d	-0.5080622
170	0xbe6a6947	-0.22891723
171	0xbe3203bf	-0.17384242
172	0xbf137f3f	-0.5761604
173	0x3ed0051b	0.40628895
174	0xbd03361d	-0.03203403
175	0xbece8121	-0.40332893
176	0x3b8ab597	0.004233073
177	0xbe52883b	-0.2055978
178	0xbe5b293f	-0.21402453
179	0x3dc3c25f	0.09558558
180	0xbf6eab66	-0.93230283
181	0x3f0f3351	0.5593768
182	0xbe1c11ac	-0.15241116
183	0x3e5492bf	0.20759104
184	0x3b1c0f57	0.0023812854
185	0xbeae4697	-0.3403823
186	0xbf2ba21c	-0.67044234
187	0x3eae384a	0.3402732
188	0xbe99db3a	-0.3005007
189	0xbdf833f2	-0.12119283
190	0x3ec2ad6d	0.38022938
191	0xbe7081d8	-0.23487031
192	0x3f137823	0.5760519
193	0xbe998804	-0.29986584
194	0xbe1ed21a	-0.15509835
195	0x3e77e1d4	0.2420724
196	0xbe93fd84	-0.28904355
197	0x3ee47cc4	0.4462644
198	0xbed0e98c	-0.40803182
199	0xbe75fccd	-0.24022217
200	0x3ef659c9	0.48115376
201	0xbe9b0057	-0.30273697
202	0xbf3ea303	-0.74467486
203	0x3dbdd51a	0.092691615
204	0x3dc32e4e	0.09530316
205	0xbe212577	-0.15736948
206	0x3f5c70ec	0.86109805
207	0xbea41c53	-0.3205286
208	0xbecf49ae	-0.404859
209	0x3df1ff83	0.11816313
210	0xbe4ae4d4	-0.19813854
211	0x3eaff5d6	0.34367245
212	0xbdb3b2c5	-0.08774332
213	0x3ed537b7	0.4164407
214	0xbdcd0200	-0.10010147
215	0xbf000e6f	-0.50022024
216	0xbe4708c6	-0.1943694
217	0x3d96e496	0.07367818
218	0xbe6be968	-0.23038256
219	0x3ecf4be3	0.40487584
220	0xbeb4357b	-0.35197052
221	0xbe4d1b6b	-0.2002999
222	0x3c96a404	0.018388756
223	0xbeaadf4e	-0.33373493
224	0xbd5047d6	-0.050849758
225	0xbe7fc402	-0.24977115
226	0x3f06fc6b	0.5272891
227	0x3f272f9a	0.6530701
228	0xbe923f03	-0.285637
229	0x3f87c1e8	1.060605
230	0x3ef79f86	0.48363894
231	0x3e97d048	0.29651093
232	0xbe4d54d0	-0.20051885
233	0xbe916cc8	-0.28403306
234	0x3e8107e8	0.25201344
235	0x3eb7aec3	0.3587552
236	0xbed80564	-0.42191613
237	0xbf00688f	-0.50159544
238	0xbe3ee200	-0.186409
239	0xbeb33754	-0.3500315
240	0xbe2f2ddb	-0.17107336
241	0xbd6b0626	-0.05737891
242	0xbf7321e2	-0.94973576
243	0xbea5fd16	-0.32419652
244	0x3f3179a9	0.69326264
245	0x3f16eb22	0.58952534
246	0x3e4e4357	0.20142876
247	0xbe6f8a0a	-0.23392501
248	0xbc1af6f2	-0.00945829
249	0xbe6aef15	-0.22942765
250	0x3d9c474a	0.07630785
251	0x3ec7d7e9	0.39031914
252	0xbea3cffc	-0.31994617
253	0xbeba8e41	-0.36436656
254	0x3ae31e16	0.0017327692
255	0x3d6fa5d4	0.058507755

embedding_item_mf.weight f4 [3706, 8]
0	0x3ed5b99d	0.41743174
1	0x3d923463	0.07138898
2	0xbde97d41	-0.114008434
3	0x3e80cdc7	0.25156996
4	0x3e036760	0.12832403
5	0x3e06cb06	0.13163385
6	0x3e953136	0.29139107
7	0x3eeae6f0	0.45879316
8	0xbe0415f1	-0.12898995
9	0xbf163e9f	-0.586893
10	0x3e2f896b	0.17142265
11	0x3e162e4e	0.14666101
12	0x3e31ac3e	0.17350861
13	0xbe0e7599	-0.13912047
14	0xbf2b448f	-0.6690149
15	0x3f0161fe	0.5054015
16	0x3e0d5755	0.13802846
17	0xbf74cd38	-0.9562564
18	0x3e786b1d	0.2425961
19	0x3ef7bb99	0.48385313
20	0xbecd8586	-0.40140933
21	0xbe9295da	-0.28629953
22	0x3e330fb4	0.17486459
23	0x3e7d245a	0.24720898
24	0x3d504f4d	0.050856877
25	0x3ec25fbd	0.37963668
26	0xbe9a3836	-0.3012101
27	0xbd083176	-0.033250295
28	0xbed63073	-0.4183384
29	0xbeb677d4	-0.35638297
30	0x3dea6176	0.114443704
31	0x3e1466db	0.14492361
32	0xbe8c72b9	-0.27431276
33	0x3d8b5e88	0.0680514
34	0x3e82a527	0.25516626
35	0xbbb90ec5	-0.0056475126
36	0xbdf141c0	-0.11780119
37	0x3c1b2632	0.009469556
38	0xbe60c9bb	-0.21951954
39	0x3efef3c5	0.49795356
40	0xbdcfd3bf	-0.10147809
41	0x3e7e803e	0.24853608
42	0x3f258c66	0.64667356
43	0x3e8514bd	0.25992385
44	0x3ec3c140	0.38233376
45	0x3ee2d1c3	0.4430066
46	0x3e31eb2c	0.17374867
47	0x3ede14c8	0.4337523
48	0x3e45013c	0.19238752
49	0xbea41442	-0.32046705
50	0xbe6ef6ca	-0.2333633
51	0x3f36b1d5	0.713651
52	0xbeb3eb94	-0.3514067
53	0x3f176d39	0.59151036
54	0x3e97e404	0.2966615
55	0x3e242dc6	0.16033086
56	0x3e73e104	0.23816305
57	0x3e0fb17b	0.14032547
58	0x3ed8162c	0.42204416
59	0xbe69a250	-0.22815824
60	0x3ea3eddc	0.3201741
61	0x3e86ba44	0.26313984
62	0x3ea16561	0.31522658
63	0x3f595280	0.8489151
64	0xbe0f77f5	-0.14010604
65	0xbf84e7ec	-1.0383277
66	0x3e8c6d0b	0.27426943
67	0x3ed21f5a	0.41039544
68	0x3ddd258e	0.107981786
69	0x3d453260	0.048143744
70	0xbeaa3be0	-0.33248806
71	0x3fa728d1	1.3059331
72	0x3e337311	0.17524363
73	0xbee78417	-0.45217964
74	0x3e476f14	0.19475967
75	0x3f307cd5	0.6894048
76	0x3e239552	0.1597493
77	0x3e7964fe	0.24354932
78	0x3e3ec265	0.18628843
79	0x3f873e24	1.0565839
80	0xbed686d2	-0.41899735
81	0xbf054d37	-0.52070946
82	0x3e885169	0.2662461
83	0x3f318c5a	0.69354784
84	0x3dfd9e2e	0.12383686
85	0xbe85d288	-0.26137185
86	0xbeb31200	-0.3497467
87	0x3f8f572e	1.119848
88	0x3e9764fe	0.29569238
89	0xbf9a14af	-1.2037562
90	0x3e404404	0.18775946
91	0x3ea4afcc	0.32165372
92	0xbf1df986	-0.6170887
93	0xbebf8ccd	-0.3741211
94	0xbe2e8a3a	-0.17044917
95	0x3ce28cd3	0.02765504
96	0x3e7ce734	0.24697572
97	0xbf383e45	-0.71970016
98	0xbe24cec6	-0.16094503
99	0x3f02dec3	0.5112116
100	0xbecb99f9	-0.3976591
101	0xbe8068da	-0.25079995
102	0x3e7e91ef	0.24860357
103	0x3f573370	0.8406286
104	0x3e217574	0.15767461
105	0x3f005947	0.50136226
106	0x3f840a2c	1.0315604
107	0xbe599a99	-0.2125038
108	0x3e9bea12	0.3045202
109	0x3e7aa6fe	0.24477765
110	0x3f22779a	0.6346375
111	0x3f8588a6	1.0432327
112	0x3db02a65	0.08601836
113	0xbf0dee66	-0.5544189
114	0x3e855191	0.26038793
115	0x3e9e2143	0.30884752
116	0xbe4597f3	-0.19296245
117	0xbddb0f26	-0.10696249
118	0x3e1f59dc	0.15561622
119	0x3f2097e5	0.6273177
120	0x3e3e01e4	0.18555409
121	0x3e793703	0.24337392
122	0x3f271ec0	0.65281296
123	0xbe954dfd	-0.29161063
124	0x3e5ca65b	0.21547835
125	0x3ed7519a	0.42054445
126	0x3ed9e656	0.42558545
127	0x3f38abbf	0.72137064
128	0xbeacdfdd	-0.33764544
129	0xbeea7ee4	-0.45799935
130	0xbb4a14e7	-0.0030835213
131	0x3e8fab9e	0.2806062
132	0xbe2e1915	-0.17001756
133	0xbe17a941	-0.14810659
134	0xbf0eb074	-0.55737996
135	0x3f198692	0.59970963
136	0xbd3eb2d4	-0.046557263
137	0xbf66c8ba	-0.90150034
138	0x3e19545e	0.1497359
139	0x3ec04c20	0.3755808
140	0xbc2373c6	-0.009976333
141	0x3d74d611	0.059774462
142	0xbe7f4a1e	-0.24930617
143	0x3fa0f8a0	1.2575874
144	0x3bcac9e5	0.0061886185
145	0x3d86ff3a	0.06591649
146	0x3d9ba254	0.07599321
147	0x3f0112ab	0.5041911
148	0x3e346967	0.17618333
149	0xbf2e2c43	-0.6803629
150	0x3ed29d56	0.41135663
151	0x3ed584f0	0.41702986
152	0xbd252532	-0.040318675
153	0x3d15ff4b	0.03662042
154	0x3f5c4d88	0.86055803
155	0x3d7fcad7	0.062449303
156	0x3ec46d18	0.38364482
157	0x3e86dc70	0.26340055
158	0x3ef63773	0.4808918
159	0x3f2ea657	0.68222564
160	0xbd5ba1b3	-0.053621005
161	0x3f0c1b67	0.5472931
162	0x3f0c2777	0.5474772
163	0xbcc278e2	-0.023739282
164	0xbddbc3a0	-0.10730672
165	0xbe35e667	-0.17763673
166	0xbe0ceda1	-0.13762523
167	0x3f0112cf	0.50419325
168	0x3e6a8c0b	0.22904985
169	0xbd815d21	-0.06316591
170	0x3d9f03d9	0.07764406
171	0x3e8fc777	0.28081867
172	0x3e60764f	0.21920131
173	0x3cf8b5bd	0.030360097
174	0xbf694598	-0.91121817
175	0x3ee8918a	0.45423537
176	0xbda0a9e2	-0.078449026
177	0x3ddedda2	0.10882117
178	0x3f5ef654	0.87094617
179	0x3e1ecd85	0.15508087
180	0x3eec9335	0.4620606
181	0x3f057828	0.5213647
182	0x3ed89815	0.4230353
183	0x3f0034f6	0.5008081
184	0x3e270b2b	0.16312854
185	0x3e895cfa	0.26828748
186	0xbe34df12	-0.1766322
187	0x3f129a59	0.57266766
188	0x3ec3530b	0.38149294
189	0xbe32be29	-0.17455353
190	0x3e7641f0	0.2404859
191	0x3f01170c	0.5042579
192	0xbe925c23	-0.2858592
193	0x3dade1c9	0.08490331
194	0x3bada0c4	0.005298706
195	0xbe030979	-0.12796582
196	0xbefd7b7a	-0.49508268
197	0xbed37a3f	-0.41304204
198	0x3ea82322	0.32839304
199	0xbe9b2066	-0.30298156
200	0xbf1f9355	-0.62334186
201	0xbf53a8d0	-0.8267946
202	0x3e1ca030	0.15295482
203	0x3eaeea90	0.34163332
204	0xbea40564	-0.32035363
205	0xbf01f2aa	-0.507609
206	0xbf0f3863	-0.55945414
207	0x3f030d94	0.51192594
208	0xbe0af8f2	-0.13571528
209	0xbe5f69be	-0.21817681
210	0x3f0c0911	0.54701334
211	0x3efe1ca4	0.49631226
212	0x3f226f66	0.6345123
213	0x3e7fd35d	0.24982972
214	0x3e9c7582	0.305584
215	0x3f14b5fa	0.58090174
216	0xbe9baf30	-0.30407095
217	0x3e08f597	0.13374935
218	0x3d44bf1e	0.048033826
219	0x3ead94f0	0.33902693
220	0xbdcd6f5c	-0.10031006
221	0xbec7e833	-0.3904434
222	0x3eb411d9	0.35169867
223	0x3e305582	0.17220119
224	0x3ee3d8bc	0.44501293
225	0xbe9c334e	-0.30507892
226	0xbf10cf0c	-0.5656593
227	0x3d06addf	0.03288066
228	0xbe832a17	-0.2561805
229	0xbf7e68e8	-0.99378824
230	0xbf0e5283	-0.5559465
231	0xbe820f0e	-0.2540211
232	0x3e8164dd	0.25272265
233	0x3d2a530b	0.041583102
234	0x3ebd216a	0.36939555
235	0x3e705897	0.23471294
236	0x3e7690ab	0.24078624
237	0x3c63844d	0.013886523
238	0xbf68b075	-0.9089425
239	0x3eab195e	0.3341779
240	0xbed53ea3	-0.4164935
241	0xbe8d9d6f	-0.27659175
242	0x3e25f58d	0.16206951
243	0x3ea48303	0.32131204
244	0x3d683eee	0.05670064
245	0xbe1f327d	-0.15546604
246	0xbed01ef7	-0.40648624
247	0x3f19d0ea	0.600844
248	0xbbfdc111	-0.0077439626
249	0x3e226e2a	0.15862337
250	0xbeb27a0d	-0.34858742
251	0xbea35bd1	-0.31905988
252	0xbd9d4ef6	-0.07681076
253	0xbf1b14a1	-0.6057835
254	0x3ca04696	0.019564908
255	0x3c695abf	0.014242827

fc_layers.0.weight f4 [64, 16]
0	0xbe9cfce4	-0.3066169
1	0xbee96465	-0.45584407
2	0xbe0744e8	-0.1320988
3	0x3ec4ce37	0.3843858
4	0x3daa2def	0.083095424
5	0xbf1bc73a	-0.6085087
6	0xbf1ff43c	-0.6248205
7	0xbe99d407	-0.30044577
8	0xbd688f06	-0.056777023
9	0xbde6a3c5	-0.11261705
10	0x3e8dca2a	0.276933
11	0xbe8ce552	-0.27518708
12	0xbf13db3c	-0.577564
13	0xbee8c883	-0.45465478
14	0x3e7bf5ae	0.24605438
15	0x3e6e9262	0.23298028
16	0xbf513f65	-0.8173736
17	0x3e9d94a7	0.30777475
18	0x3d316359	0.043307636
19	0xbeb5df8d	-0.35522118
20	0xbe903331	-0.28164056
21	0x3e8faf47	0.28063414
22	0x3c853f18	0.016265437
23	0xbe53b429	-0.20674194
24	0xbef2b217	-0.47401497
25	0x3df4c4bb	0.11951586
26	0x3eb9e3ce	0.36306614
27	0xbe2c4b6f	-0.1682565
28	0x3edb8f00	0.42882538
29	0x3e3901b6	0.18067059
30	0x3e7457b1	0.23861577
31	0xbf45e5cd	-0.77303773
32	0x3eceb225	0.40370288
33	0x3e45830d	0.19288273
34	0x3e843427	0.2582104
35	0x3e7506ef	0.23928426
36	0x3e93699d	0.28791514
37	0xbec600ec	-0.38672578
38	0x3e202b74	0.15641576
39	0x3f23abe9	0.6393419
40	0x3f20c7c8	0.6280484
41	0x3db43b40	0.088003635
42	0x3dd6cd89	0.104884215
43	0xbeb710a0	-0.3575487
44	0x3f76aa83	0.9635393
45	0x3eb7683f	0.3582172
46	0x3e7183e8	0.23585474
47	0xbf09ea76	-0.53873384
48	0x3f2f38c1	0.68445975
49	0x3e401ef6	0.1876181
50	0xbd94e579	-0.07270331
51	0x3e319438	0.17341697
52	0xbf86f68e	-1.0543993
53	0xbe7d4a4b	-0.24735372
54	0xbe9b1d10	-0.3029561
55	0xbd3091fc	-0.04310797
56	0x3e1fbfea	0.15600553
57	0x3e09e613	0.13466673
58	0x3f304c4d	0.68866426
59	0x3d111996	0.03542479
60	0xbeaa0ec4	-0.3321439
61	0x3e6f6de6	0.23381767
62	0xbe43fa00	-0.19138336
63	0xbed35c71	-0.41281465
64	0x3eb78094	0.35840285
65	0x3e3ccb36	0.18436894
66	0x3e084c47	0.13310347
67	0x3d96c6b6	0.0736212
68	0x3ec2f7e2	0.38079745
69	0xbf09a9b8	-0.53774595
70	0xbca03140	-0.019554734
71	0x3e397fc5	0.18115146
72	0x3f1d48a7	0.61438984
73	0xbc5c6386	-0.013451463
74	0xbdb172c6	-0.086644694
75	0xbdf06fc2	-0.11740066
76	0x3e3bc9f7	0.18338762
77	0x3de96599	0.11396331
78	0x3db13bdf	0.08653998
79	0xbbde86f5	-0.0067909905
80	0x3e894860	0.2681303
81	0x3e01c87c	0.12674135
82	0x3e3a37c7	0.1818534
83	0x3ee43262	0.4456969
84	0xbf2d9871	-0.6781073
85	0xbec86e27	-0.3914654
86	0xbd8b5a72	-0.068043604
87	0xbe051f6a	-0.13000265
88	0x3e75fc2a	0.24021974
89	0xbe564e41	-0.20928289
90	0xbd04cab6	-0.032419883
91	0xbda08be1	-0.0783918
92	0xbf049919	-0.5179611
93	0xbe705c09	-0.23472609
94	0xbeccdbbb	-0.4001139
95	0xbf007234	-0.5017426
96	0x3e993418	0.29922557
97	0xbe26d9b6	-0.16293988
98	0xbeb5127e	-0.3536567
99	0x3f008ab2	0.5021163
100	0x3e112b2e	0.14176628
101	0xbea703df	-0.3262014
102	0x3e82dd00	0.25559235
103	0xbf105153	-0.5637409
104	0xbf1a2f87	-0.6022877
105	0x3ec20fdb	0.37902722
106	0xbd6ae02d	-0.057342697
107	0xbe249b9b	-0.16074984
108	0xbe2776c3	-0.16353898
109	0xbd42ec9c	-0.04758893
110	0xbe4fe8e4	-0.20303684
111	0x3e886b9e	0.26644605
112	0xbcbe4473	-0.023225999
113	0x3bbe17bf	0.0058011706
114	0x3d10cdb4	0.035352424
115	0xbcb66c81	-0.022268536
116	0x3ce82b41	0.028340938
117	0xbb81183f	-0.003939658
118	0xbb75aed3	-0.0037488237
119	0xbbb6ec12	-0.005582341
120	0x3c78f463	0.015194985
121	0xbc885850	-0.016643673
122	0xbba9a936	-0.005177642
123	0x3c4240d2	0.011856275
124	0x3c3c866f	0.011506661
125	0xbc9d1242	-0.019173745
126	0x3c22aea6	0.009929335
127	0x3b93c16b	0.004509141
128	0x3e373b41	0.17893697
129	0x3d07465b	0.03302608
130	0x3e4c6daa	0.19963709
131	0xbddd475e	-0.10804628
132	0x3e9a92af	0.30190036
133	0x3ca4aa47	0.020100726
134	0x3e2a6d1c	0.16643184
135	0xbd32c55f	-0.04364526
136	0xbe3d8658	-0.1850828
137	0xbd5c5f00	-0.053801537
138	0x3e3b97ae	0.1831958
139	0xbddfe880	-0.10933018
140	0x3cd2837f	0.025697468
141	0xbdb74ed9	-0.08950586
142	0x3d3ffbe7	0.046871092
143	0xbdd6147b	-0.10453125
144	0xbeff40bd	-0.4985408
145	0x3e22856b	0.15871207
146	0x3eef4729	0.46733978
147	0x3c4f9c50	0.012671545
148	0xbee59fdd	-0.44848529
149	0x3e97b90d	0.2963337
150	0xbebcf67f	-0.36906812
151	0xbf453290	-0.7703028
152	0xbe9756ba	-0.29558355
153	0x3f0220be	0.5083121
154	0x3eaaf1e2	0.33387667
155	0xbdb5f0eb	-0.08883842
156	0xbe5013a9	-0.2032
157	0x3d8e1772	0.069380656
158	0xbe0e315e	-0.1388602
159	0xbf6d5776	-0.9271158
160	0x3f376760	0.7164211
161	0x3e09736a	0.13422933
162	0x3e065b6c	0.13120812
163	0xbe15fb6d	-0.14646693
164	0xbf58bb51	-0.8466082
165	0xbf0fb95f	-0.5614223
166	0xbf2fd823	-0.68689173
167	0x3d983227	0.07431441
168	0x3ebe3992	0.37153298
169	0x3e5486d8	0.20754564
170	0x3f1b8d87	0.6076283
171	0x3ecbab8a	0.3977931
172	0x3a0e20af	0.00054217404
173	0x3ec485e9	0.38383415
174	0xbc89e03f	-0.016830562
175	0xbef8c781	-0.4858971
176	0x3d6de93b	0.058083754
177	0x3e33ca50	0.17557645
178	0x3edc1411	0.4298406
179	0x3e0b5257	0.13605629
180	0x3e4b35b7	0.1984471
181	0xbee9d7f8	-0.45672584
182	0x3e961acd	0.29317322
183	0xbdcb05a9	-0.09913189
184	0x3bde3aa8	0.0067818947
185	0x3f15b957	0.5848593
186	0x3db2a479	0.08722777
187	0xbe93986a	-0.2882722
188	0x3d9478f2	0.07249631
189	0xbdcc41ae	-0.09973465
190	0x3c7a1689	0.015264162
191	0x3e897dc5	0.26853767
192	0xbeb7275c	-0.35772216
193	0x3d1d8814	0.038459852
194	0x3e8ed2fc	0.27895343
195	0x3f16fba3	0.5897772
196	0x3e18631a	0.14881554
197	0xbe866cb5	-0.26254812
198	0xbe6b5d6c	-0.22984856
199	0xbeec4717	-0.46147987
200	0xbebd42f9	-0.3696516
201	0x3ea2bfe0	0.31787014
202	0x3e496b0c	0.19669741
203	0xbe1eec3f	-0.15519808
204	0xbecf2ec9	-0.40465382
205	0xbef0cd8f	-0.4703183
206	0x3d875532	0.066080466
207	0x3d1816c0	0.03713107
208	0xbe70dee3	-0.23522525
209	0xbed1363b	-0.40861687
210	0x3ef7901b	0.4835213
211	0xbe2c4f51	-0.16827132
212	0x3e2e86bb	0.17043583
213	0xbed53838	-0.41644454
214	0x3ecef04f	0.40417716
215	0x3d75e152	0.060029335
216	0x3e5b38e5	0.21408422
217	0x3f00981f	0.5023212
218	0xbece84be	-0.4033565
219	0xbe6e2e32	-0.2325981
220	0x3e516703	0.20449452
221	0x3eae88b6	0.34088677
222	0xbd8e0d69	-0.069361515
223	0x3e10c34e	0.14137003
224	0xbf4a22af	-0.7895917
225	0x3e2498e4	0.16073948
226	0x3ea83b30	0.32857656
227	0xbecebc3a	-0.4037798
228	0xbf148997	-0.58022445
229	0x3e7e3d01	0.24827959
230	0xbe19fcde	-0.15037867
231	0xbe951d4e	-0.2912392
232	0xbf031909	-0.51210076
233	0x3f02f3bc	0.5115316
234	0x3e00dd3c	0.12584394
235	0xbc3e0741	-0.011598409
236	0x3deb094a	0.11476381
237	0x3d87ed7c	0.066370934
238	0xbceaba5a	-0.028653312
239	0xbf92a8c1	-1.145775
240	0x3b39f5c3	0.0028375245
241	0x3db5076a	0.08839305
242	0x3cdcc912	0.026951347
243	0x3ee03fbb	0.43798622
244	0xbf10222b	-0.56302136
245	0x3e84b62e	0.25920242
246	0xbd8bdfe0	-0.0682981
247	0xbf1f43eb	-0.6221301
248	0xbedf8b5e	-0.43661016
249	0x3e4a52be	0.19758126
250	0x3e1b815f	0.1518607
251	0xbec87f57	-0.39159653
252	0xbd8142ab	-0.06311544
253	0xbd482293	-0.048861098
254	0xbd630748	-0.055426866
255	0xbf42ca11	-0.7608958

fc_layers.0.bias f4 [64]
0	0x3e53e460	0.20692587
1	0x3df23b34	0.11827698
2	0x3e23e563	0.16005473
3	0xbf1cc6f5	-0.61241084
4	0x3e818cc5	0.2530271
5	0xbf00dfce	-0.503415
6	0xbe9de871	-0.308414
7	0xbdfc59a7	-0.12321787
8	0xbe7706b5	-0.24123652
9	0xbe03ddd5	-0.12877591
10	0xbf219031	-0.63110644
11	0x3ea17428	0.31533933
12	0xbd1f1a61	-0.038843516
13	0xbe3ad840	-0.18246555
14	0x3e00a3cb	0.12562482
15	0xbe8d5ea3	-0.27611265
16	0xbd9a5c8a	-0.07537182
17	0x3eab1d3b	0.3342074
18	0xbe77997f	-0.24179648
19	0xbea87695	-0.3290297
20	0xafb5b2f4	-3.3050862e-10
21	0xbca2063b	-0.019778362
22	0x3e539247	0.20661269
23	0x3ed28f15	0.41124788
24	0xb1439676	-2.8461762e-09
25	0x3ed8f695	0.42375627
26	0x3ecc73e8	0.3993218
27	0x3eef4ea8	0.46739697
28	0xbe38302a	-0.17987123
29	0xbe503dc4	-0.20336062
30	0x3ef4a02f	0.4777846
31	0xbf1ef240	-0.62088394
32	0xbe14b5a7	-0.1452242
33	0x3ee8fb51	0.4550424
34	0xbe0339d7	-0.12815033
35	0x3ee5b29f	0.4486284
36	0x3de236d0	0.11045611
37	0x9e2e9fe7	-9.24455e-21
38	0xbdf69b0a	-0.1204129
39	0xbeb33b73	-0.35006294
40	0x95554ccf	-4.30756e-26
41	0x3ef49ceb	0.4777597
42	0xbea2c331	-0.31789544
43	0x3ee2d376	0.44301957
44	0x3eedc0c1	0.46436122
45	0x3ee634dd	0.44962206
46	0xbe06085f	-0.13089131
47	0x96bbfab8	-3.0369705e-25
48	0xbea97028	-0.3309338
49	0xbeb82931	-0.35968927
50	0xbe6a5869	-0.22885288
51	0xbefe1c67	-0.49631044
52	0xbeecd148	-0.4625342
53	0xbebc3e89	-0.3676646
54	0xbe5c8273	-0.21534137
55	0x898b1b43	-3.348867e-33
56	0x3ecdb150	0.4017434
57	0xbed61ec4	-0.41820347
58	0xbe8ac23f	-0.27101323
59	0xbebc0aba	-0.36726934
60	0xbdabd5f5	-0.083904184
61	0x3eebbf9e	0.4604463
62	0xbeefebf1	-0.46859697
63	0x3e2485a9	0.16066612

fc_layers.1.weight f4 [32, 64]
0	0x3ea36918	0.31916118
1	0x3e599e4e	0.21251795
2	0xbc46424d	-0.012100768
3	0x3f0d8779	0.5528484
4	0xbca619be	-0.020275947
5	0x3e07c5c6	0.13259038
6	0x3f08e5b2	0.5347549
7	0x3b62a23c	0.0034581563
8	0xbd8abb2d	-0.06773982
9	0x3e34f07f	0.17669867
10	0x3f55c0b3	0.8349716
11	0x3da41e52	0.08013596
12	0x3deb616f	0.11493193
13	0x3f134bdd	0.57537633
14	0x3e10a82b	0.14126651
15	0x3da0ef45	0.07858137
16	0x3d8d0921	0.06886507
17	0x3e86dfb2	0.2634254
18	0xbd839d0d	-0.064264394
19	0x3f056d2c	0.5211971
20	0x20939a77	2.5004985e-19
21	0x389dc6f6	7.523403e-05
22	0x3e3189e2	0.17337754
23	0x3e6f1eed	0.23351641
24	0x2699c2a1	1.0669262e-15
25	0x3de2ba3e	0.11070679
26	0x3e8ad932	0.27118832
27	0x3dd5ac99	0.10433311
28	0xbd77e812	-0.060524054
29	0xbf065d0e	-0.5248574
30	0x3dccb989	0.099963255
31	0x3ed399de	0.4132833
32	0xbcb83f1b	-0.022491029
33	0x3e18c2d3	0.1491807
34	0xbcc6ded3	-0.024276173
35	0x3d8e41ed	0.06946168
36	0x3e44851e	0.19191405
37	0x109d30bc	6.200067e-29
38	0xbee07278	-0.43837333
39	0xbf12876f	-0.57237905
40	0x15c31a2f	7.8801183e-26
41	0x3deb9152	0.11502327
42	0xbf30d562	-0.69075596
43	0x3de24d98	0.11049956
44	0x3da3aa36	0.079914495
45	0x3de3e8d5	0.111283936
46	0xbf1b10fb	-0.60572785
47	0x098716a9	3.2521377e-33
48	0xbef8714a	-0.48523933
49	0xbe622a38	-0.22086418
50	0xbcc6475b	-0.024203947
51	0xbf3f7c3c	-0.7479894
52	0xbf3de871	-0.741828
53	0xbf3586d5	-0.7090886
54	0x3e1f44b6	0.15553555
55	0x0185882b	4.9051875e-38
56	0x3e09a615	0.13442262
57	0xbf1436e6	-0.5789627
58	0x3f3b1951	0.73085505
59	0xbf5980e3	-0.8496229
60	0x3f22b833	0.63562316
61	0x3e0fae8d	0.1403143
62	0xbf1795dc	-0.5921304
63	0x3ed5c42d	0.41751233
64	0x3ea3c491	0.31985906
65	0x3e66f5d4	0.22554713
66	0x3ba9b4f8	0.005179044
67	0x3f111bae	0.5668286
68	0x3ca0a913	0.01961187
69	0x3e301cc5	0.17198475
70	0x3f230265	0.6367553
71	0x3ba64b34	0.005074883
72	0xbda0804f	-0.07836973
73	0x3e7773f5	0.24165328
74	0x3f5981a6	0.8496345
75	0x3e0790a9	0.13238777
76	0x3e20357d	0.15645404
77	0x3f216502	0.6304475
78	0x3e267b5f	0.16258
79	0x3dfa8022	0.12231471
80	0x3d89dca7	0.06731539
81	0x3e84f9e5	0.25971904
82	0xbe175e0b	-0.14781968
83	0x3f1725d8	0.5904212
84	0x21901230	9.762634e-19
85	0x383eebcc	4.5519133e-05
86	0x3e4be492	0.19911411
87	0x3e2e6c70	0.17033553
88	0x279f97d9	4.4296e-15
89	0x3dfcbcf8	0.123407304
90	0x3e9251c8	0.2857802
91	0x3dcd8080	0.10034275
92	0xbda52e3c	-0.08065459
93	0xbf0d4a11	-0.5519114
94	0x3da704a4	0.08155182
95	0x3ede526d	0.4342226
96	0xbc373b35	-0.01118355
97	0x3dfa992d	0.12236247
98	0xbc889e06	-0.016676914
99	0x3d95b683	0.07310202
100	0x3e498340	0.19678974
101	0x9109ad0c	-1.0860719e-28
102	0xbf168156	-0.587911
103	0xbf1741ef	-0.5908498
104	0x15e0f5fb	9.086097e-26
105	0x3de8ae6e	0.11361395
106	0xbf3065ad	-0.68905145
107	0x3e025892	0.127291
108	0x3e04da53	0.12973909
109	0x3dd49c03	0.103813194
110	0xbf100d97	-0.56270736
111	0x890e8bdf	-1.7158395e-33
112	0xbefb233f	-0.49050328
113	0xbe6cdc9a	-0.23131028
114	0xbaab8a4a	-0.0013087478
115	0xbf46bcfa	-0.77632105
116	0xbf552e19	-0.83273464
117	0xbf4251a7	-0.7590584
118	0x3e5e442b	0.21705692
119	0x81858b79	-4.905662e-38
120	0x3e377554	0.17915851
121	0xbf0d5b21	-0.55217177
122	0x3f43644a	0.76324904
123	0xbf609428	-0.8772607
124	0x3f3cfc91	0.73822886
125	0x3e209d07	0.15684901
126	0xbf1fe55f	-0.6245937
127	0x3ec486bc	0.38384044
128	0x8040ada0	-5.939757e-39
129	0x844ec690	-2.4306359e-36
130	0x85469617	-9.3374824e-36
131	0x842f30be	-2.0593532e-36
132	0x84f9574d	-5.861979e-36
133	0x843cdf38	-2.220179e-36
134	0x03badec3	1.0983241e-36
135	0x018821a8	5.0006804e-38
136	0x020d66a8	1.0388505e-37
137	0x84743562	-2.8706574e-36
138	0x841ee7ee	-1.8679308e-36
139	0x850d0212	-6.6301684e-36
140	0x84aaad36	-4.0125877e-36
141	0x83c2c496	-1.1447429e-36
142	0x84c234cc	-4.5657667e-36
143	0x8403c43c	-1.5489082e-36
144	0x82046c28	-9.728868e-38
145	0x03b6e3f1	1.0749331e-36
146	0x029af62a	2.2769557e-37
147	0x036cd1e4	6.959511e-37
148	0x8185ccd8	-4.915042e-38
149	0x8185aa78	-4.9101095e-38
150	0x85090da2	-6.444213e-36
151	0x850cff29	-6.629634e-36
152	0x8185a1e0	-4.9088763e-38
153	0x8459c371	-2.559797e-36
154	0x03ccd6e6	1.2039381e-36
155	0x847620c9	-2.8932215e-36
156	0x03a0a589	9.44196e-37
157	0x83f0c2ec	-1.4150684e-36
158	0x848a3293	-3.249009e-36
159	0x8431750b	-2.0859994e-36
160	0x01690520	4.2799018e-38
161	0x848f80d2	-3.373744e-36
162	0x01256dd0	3.03845e-38
163	0x845637b8	-2.5181164e-36
164	0x84c3f9d8	-4.6073725e-36
165	0x8185bab0	-4.912437e-38
166	0x83b68aa6	-1.0728831e-36
167	0x83305ab5	-5.182588e-37
168	0x01859bb8	4.907993e-38
169	0x8460361b	-2.6355917e-36
170	0x83be17d9	-1.11726715e-36
171	0x847190f5	-2.8395975e-36
172	0x8522e61c	-7.659468e-36
173	0x8466e1da	-2.7140076e-36
174	0x8469acb4	-2.746832e-36
175	0x8185d1e6	-4.9157673e-38
176	0x84e2ec97	-5.3349618e-36
177	0x80674900	-9.485244e-39
178	0x81801670	-4.705197e-38
179	0x02bdc5e2	2.7884633e-37
180	0x8326de08	-4.9037895e-37
181	0x0296c7b6	2.2155148e-37
182	0x8340ec5a	-5.6695047e-37
183	0x0185c738	4.914235e-38
184	0x84c57c91	-4.6428874e-36
185	0x82d6feaa	-3.1590644e-37
186	0x84893553	-3.2257516e-36
187	0x843d90b6	-2.2283291e-36
188	0x8075b580	-1.0809863e-38
189	0x8489c824	-3.2392345e-36
190	0x8352590b	-6.181567e-37
191	0x84a566d1	-3.8885736e-36
192	0x82c3510e	-2.8699198e-37
193	0x81fb0190	-9.220508e-38
194	0x806d1560	-1.0017737e-38
195	0x820723e4	-9.928534e-38
196	0x825d34a4	-1.6251623e-37
197	0x8082cbe0	-1.2011751e-38
198	0x01821320	4.77819e-38
199	0x8185d240	-4.915818e-38
200	0x016c7290	4.342855e-38
201	0x81eaf810	-8.6313977e-38
202	0x8216a334	-1.1067097e-37
203	0x829c5490	-2.2970676e-37
204	0x8211585c	-1.0678275e-37
205	0x81537b60	-3.8843097e-38
206	0x82cdd3e4	-3.0243662e-37
207	0x80673800	-9.479145e-39
208	0x0182f8a0	4.811122e-38
209	0x82dc567e	-3.2375739e-37
210	0x80ce9660	-1.8972057e-38
211	0x80b773e0	-1.6847464e-38
212	0x8185a08e	-4.908687e-38
213	0x81859152	-4.906501e-38
214	0x82d9781e	-3.1954228e-37
215	0x83131f39	-4.323526e-37
216	0x8185d1f9	-4.915778e-38
217	0x82b0f1f8	-2.599976e-37
218	0x82e1729e	-3.3126566e-37
219	0x82d02f68	-3.0590063e-37
220	0x8232da9c	-1.3140112e-37
221	0x81fcc628	-9.285452e-38
222	0x82f1f9a4	-3.5555054e-37
223	0x80db8be0	-2.0162151e-38
224	0x0040e320	5.958949e-39
225	0x82ec0f5c	-3.46859e-37
226	0x0108bc60	2.5114407e-38
227	0x82c100c2	-2.8359236e-37
228	0x82abf276	-2.5265358e-37
229	0x01858a19	4.9054644e-38
230	0x815e29c0	-4.0804914e-38
231	0x00329300	4.644508e-39
232	0x8185daab	-4.9170257e-38
233	0x82da2984	-3.205605e-37
234	0x8185c820	-4.914365e-38
235	0x82c57338	-2.901268e-37
236	0x82ba1fda	-2.7348526e-37
237	0x82c5d174	-2.9066769e-37
238	0x81f47ab0	-8.980749e-38
239	0x0185cd45	4.915103e-38
240	0x82b7c300	-2.7001358e-37
241	0x0185bf98	4.913141e-38
242	0x81858d98	-4.905966e-38
243	0x817e71e0	-4.6734133e-38
244	0x81859140	-4.906491e-38
245	0x8144d7f0	-3.6154442e-38
246	0x002970c0	3.805702e-39
247	0x0185ca3f	4.9146693e-38
248	0x82c86d0c	-2.9449949e-37
249	0x014d84e0	3.7747887e-38
250	0x0077f3e0	1.101591e-38
251	0x004519a0	6.345842e-39
252	0x819927c0	-5.626036e-38
253	0x82cae3a8	-2.98119e-37
254	0x013d0c10	3.4722472e-38
255	0x81abf580	-6.3167755e-38

fc_layers.1.bias f4 [32]
0	0xbc18de0f	-0.009330287
1	0x3d43cb27	0.047801163
2	0x850956a5	-6.457623e-36
3	0x83ae7abd	-1.025498e-36
4	0x3a9a8975	0.0011790233
5	0x8185deb4	-4.917605e-38
6	0x89b16672	-4.270754e-33
7	0x8d076145	-4.171717e-31
8	0x3d15fafb	0.036616307
9	0x863805a6	-3.4610704e-35
10	0x83c0cb91	-1.1331482e-36
11	0x8190c968	-5.318625e-38
12	0x921610d9	-4.735242e-28
13	0x81858873	-4.905228e-38
14	0x81a0e018	-5.9096276e-38
15	0x8185c8db	-4.91447e-38
16	0xbccb76d3	-0.024836933
17	0x83804b5c	-7.5404655e-37
18	0x3c832724	0.016009875
19	0x8187afe2	-4.984355e-38
20	0x84dee74b	-5.240436e-36
21	0x8185c7ec	-4.914336e-38
22	0x839d8faa	-9.260614e-37
23	0x89815bb5	-3.114186e-33
24	0x90b7ce5a	-7.249871e-29
25	0x807b3b00	-1.1316931e-38
26	0x3ea162e2	0.31520754
27	0x81ab766c	-6.2985406e-38
28	0x8343f8a6	-5.7590784e-37
29	0x3d587304	0.052844062
30	0x8185ac3f	-4.9103645e-38
31	0x83110802	-4.2620863e-37

fc_layers.2.weight f4 [16, 32]
0	0x3e3dffb4	0.18554574
1	0x3e64574c	0.22298926
2	0x05a100b2	1.5140623e-35
3	0x81335540	-3.2938271e-38
4	0x3e6e062e	0.23244545
5	0x0185b9ac	4.912291e-38
6	0x874bc565	-1.5330032e-34
7	0x8cc7d20e	-3.0787227e-31
8	0x3e80878d	0.25103417
9	0x85c98041	-1.8949062e-35
10	0x0420e6b7	1.8913849e-36
11	0x8185c8b0	-4.9144456e-38
12	0x8ee8e37d	-5.741148e-30
13	0x0185c140	4.9133784e-38
14	0x018595d8	4.90715e-38
15	0x0185c7c3	4.914313e-38
16	0x3e34f9d8	0.17673433
17	0x02396c68	1.3622764e-37
18	0x3e5be8a8	0.2147547
19	0x0185a1ee	4.908884e-38
20	0x8219d678	-1.1302214e-37
21	0x8185ccca	-4.915034e-38
22	0x83c88ba6	-1.1787005e-36
23	0x07b57df8	2.730789e-34
24	0x10aea811	6.8889846e-29
25	0x80d78640	-1.9792791e-38
26	0xbf7b3355	-0.981252
27	0x01858b7d	4.905664e-38
28	0x0326e792	4.9048845e-37
29	0x3e6c4bcc	0.23075789
30	0x018590d0	4.906428e-38
31	0x00e37180	2.0887374e-38
32	0x0185c380	4.913701e-38
33	0x8185cc60	-4.914975e-38
34	0x8185da50	-4.9169747e-38
35	0x01858482	4.9046623e-38
36	0x8185bf70	-4.9131183e-38
37	0x8185aa8c	-4.9101207e-38
38	0x01858b58	4.905643e-38
39	0x0185ab44	4.910224e-38
40	0x8185cbb8	-4.9148806e-38
41	0x81859954	-4.90765e-38
42	0x8185b3b1	-4.911433e-38
43	0x8185b844	-4.912089e-38
44	0x01858899	4.905249e-38
45	0x8185a467	-4.909239e-38
46	0x0185bd05	4.9127714e-38
47	0x8185980a	-4.907465e-38
48	0x0185d8d0	4.9167595e-38
49	0x8185cfaa	-4.915447e-38
50	0x81858ef8	-4.9061634e-38
51	0x8185aaed	-4.910175e-38
52	0x0185cce2	4.9150476e-38
53	0x8185e482	-4.9184377e-38
54	0x0185a4fe	4.9093236e-38
55	0x8185c79d	-4.9142915e-38
56	0x0185d12b	4.9156625e-38
57	0x8185866c	-4.904937e-38
58	0x0185cf28	4.915374e-38
59	0x0185a77d	4.909682e-38
60	0x0185c7d7	4.914324e-38
61	0x818593f8	-4.906881e-38
62	0x8185cdd4	-4.9151833e-38
63	0x0185d439	4.916101e-38
64	0x3e49a40e	0.19691488
65	0x3e64dadd	0.22349115
66	0x059e4fed	1.4887609e-35
67	0x812abc40	-3.1359131e-38
68	0x3e5e522f	0.21711038
69	0x018595b0	4.9071275e-38
70	0x87484705	-1.5067198e-34
71	0x8cc47d04	-3.0273823e-31
72	0x3e85a91c	0.26105583
73	0x85c60322	-1.8620981e-35
74	0x041de873	1.8561997e-36
75	0x8185d388	-4.9160016e-38
76	0x8ee4b185	-5.6377285e-30
77	0x0185b683	4.9118375e-38
78	0x0185ce80	4.9152797e-38
79	0x0185870f	4.9050284e-38
80	0x3e31cfba	0.17364398
81	0x0234a148	1.3270597e-37
82	0x3e5134a3	0.20430236
83	0x0185ae00	4.910616e-38
84	0x8215757c	-1.0980508e-37
85	0x006a77ea	9.77758e-39
86	0x83c4f2da	-1.1575601e-36
87	0x07b258ec	2.6834727e-34
88	0x10ab956f	6.7677846e-29
89	0x80d8a160	-1.9894358e-38
90	0xbf67f3ed	-0.90606576
91	0x0185c748	4.914244e-38
92	0x03235230	4.799574e-37
93	0x3e7c936e	0.24665615
94	0x0185a0c9	4.90872e-38
95	0x00ea1300	2.1496322e-38
96	0x818625b8	-4.927795e-38
97	0x8185fd40	-4.921988e-38
98	0x8185845c	-4.904641e-38
99	0x0185a372	4.9091016e-38
100	0x81859108	-4.9064594e-38
101	0x0185b41e	4.911494e-38
102	0x018583bb	4.904551e-38
103	0x01858838	4.905195e-38
104	0x8185e420	-4.918383e-38
105	0x8185e362	-4.918276e-38
106	0x0185a61c	4.909484e-38
107	0x0185dc7b	4.917286e-38
108	0x8185bce0	-4.9127506e-38
109	0x8185b746	-4.911947e-38
110	0x0185c03a	4.9132316e-38
111	0x81859c92	-4.908115e-38
112	0x8185caa0	-4.9147237e-38
113	0x0185c937	4.9145213e-38
114	0x81899a18	-5.0546966e-38
115	0x8185a26b	-4.908954e-38
116	0x0185d029	4.915518e-38
117	0x81858f8b	-4.906246e-38
118	0x8185ac67	-4.910387e-38
119	0x0185b8b0	4.91215e-38
120	0x0185bf20	4.9130735e-38
121	0x8185bf05	-4.9130584e-38
122	0x81859538	-4.90706e-38
123	0x8185cf73	-4.915416e-38
124	0x8185871f	-4.9050373e-38
125	0x8185b450	-4.911522e-38
126	0x81859c01	-4.908034e-38
127	0x8185bfd8	-4.9131766e-38
128	0x81859a3c	-4.90778e-38
129	0x8185dcf7	-4.9173553e-38
130	0x0185cb87	4.914853e-38
131	0x0185de61	4.917558e-38
132	0x81858768	-4.905078e-38
133	0x0185c609	4.914065e-38
134	0x0185c52f	4.913943e-38
135	0x8185b1f8	-4.9111857e-38
136	0x8185a597	-4.9094094e-38
137	0x018599c6	4.907714e-38
138	0x0185ddbf	4.9174674e-38
139	0x8185c6ae	-4.9141575e-38
140	0x81859f8b	-4.9085417e-38
141	0x8185ad1d	-4.910489e-38
142	0x8185ce9f	-4.915297e-38
143	0x0185945c	4.906937e-38
144	0x81859202	-4.9065995e-38
145	0x0185e4a8	4.918459e-38
146	0x8185dc08	-4.9172213e-38
147	0x8185e045	-4.9178295e-38
148	0x8185d82b	-4.916667e-38
149	0x8185bc5f	-4.9126783e-38
150	0x0185d00d	4.915502e-38
151	0x8185ca12	-4.914644e-38
152	0x8185b975	-4.91226e-38
153	0x0185d689	4.9164327e-38
154	0x8185c4d2	-4.913891e-38
155	0x0185baf0	4.9124726e-38
156	0x0185de29	4.917527e-38
157	0x8185c1b8	-4.9134457e-38
158	0x8185b6d0	-4.9118807e-38
159	0x0185c499	4.913859e-38
160	0x3e34303e	0.17596528
161	0x3e521a0d	0.2051775
162	0x059af999	1.4573778e-35
163	0x81213be0	-2.9613988e-38
164	0x3e4acc8e	0.19804594
165	0x01859653	4.907219e-38
166	0x87437268	-1.470379e-34
167	0x8cbfebdf	-2.957017e-31
168	0x3e712aa4	0.23551422
169	0x85c13555	-1.8169224e-35
170	0x041a0e41	1.8109158e-36
171	0x8185c098	-4.913284e-38
172	0x8edf365a	-5.5026083e-30
173	0x0185af78	4.910827e-38
174	0x0185d730	4.9165263e-38
175	0x0185b549	4.9116615e-38
176	0x3e292a97	0.16520153
177	0x02307e98	1.2966768e-37
178	0x3e3384b3	0.1753109
179	0x0185b16a	4.911106e-38
180	0x82103b0c	-1.0596395e-37
181	0x818592e2	-4.906725e-38
182	0x83c05629	-1.1304527e-36
183	0x07addd9c	2.6160397e-34
184	0x10a7592a	6.6007265e-29
185	0x80d756c0	-1.9775752e-38
186	0xbf6a61c5	-0.91555434
187	0x0185ddec	4.9174926e-38
188	0x03209513	4.7190903e-37
189	0x3e6d6611	0.23183466
190	0x0185c3fd	4.9137713e-38
191	0x00f18ca0	2.2182801e-38
192	0x3e62d108	0.22150052
193	0x3e7bde4b	0.24596517
194	0x05b0ba81	1.6619471e-35
195	0x815f6ff0	-4.1038943e-38
196	0x3e84cef7	0.25939152
197	0x0185c405	4.913776e-38
198	0x87607ce1	-1.6888586e-34
199	0x8cdbe585	-3.388043e-31
200	0x3e91422f	0.28370807
201	0x85de1160	-2.0883162e-35
202	0x04315dcc	2.084932e-36
203	0x80c43e60	-1.8022133e-38
204	0x8f004b5d	-6.325402e-30
205	0x01859133	4.9064835e-38
206	0x00949520	1.364515e-38
207	0x0185c26d	4.913547e-38
208	0x3e4bafa9	0.19891228
209	0x0250fcb8	1.5353953e-37
210	0x3e72868a	0.23684135
211	0x0185e548	4.9185486e-38
212	0x82301ef8	-1.2939325e-37
213	0x8185e35f	-4.9182745e-38
214	0x83ddab93	-1.3028604e-36
215	0x07c854ca	3.014249e-34
216	0x10c09f5a	7.5976167e-29
217	0x80d7bf60	-1.9813284e-38
218	0xbf65d34e	-0.8977555
219	0x01858f84	4.906242e-38
220	0x0337616a	5.3890692e-37
221	0x3e8664e5	0.2624885
222	0x01859491	4.9069666e-38
223	0x00b98c00	1.703979e-38
224	0x3e17ce84	0.14824873
225	0x3e3680fb	0.1782264
226	0x0585b6cf	1.2574413e-35
227	0x80c96b20	-1.8497364e-38
228	0x3e2023eb	0.15638702
229	0x01859893	4.907542e-38
230	0x8727dbdb	-1.2628293e-34
231	0x8ca55b59	-2.5477253e-31
232	0x3e5c8916	0.21536669
233	0x85a5b58e	-1.5583218e-35
234	0x04049567	1.5585128e-36
235	0x8185a1b8	-4.908854e-38
236	0x8ebf3cbd	-4.7143624e-30
237	0x0185d9df	4.9169114e-38
238	0x01859af8	4.9078853e-38
239	0x0185b1d8	4.911168e-38
240	0x3e1a2b6c	0.15055627
241	0x02107118	1.0611905e-37
242	0x3e21598a	0.15756813
243	0x0185cd9e	4.915153e-38
244	0x81e3efd8	-8.373079e-38
245	0x006c0f65	9.923756e-39
246	0x83a452ef	-9.658094e-37
247	0x0794caa4	2.2387666e-34
248	0x108f4de6	5.6523576e-29
249	0x80d7db40	-1.9823284e-38
250	0xbf572c12	-0.8405162
251	0x0185a263	4.90895e-38
252	0x030926d3	4.030525e-37
253	0x3e4846a3	0.19558196
254	0x0185db00	4.9170734e-38
255	0x010f4060	2.631114e-38
