checkpoints/neumf_first_try_Epoch29_HR0.6831_NDCG0.4085.model (torch, 645108 bytes, 13 tensors)

embedding_user_mlp.weight f4 [6040, 8]
000000 6b a0 c3 bd 16 de 10 3f b1 01 2c 3f 66 a5 07 3f
       -0.09552082 0.56588876 0.6719008 0.52986753
000010 66 bb e7 be af fd 25 be 84 88 dd 3d 39 47 0b bf
       -0.4526016 -0.16210054 0.10817054 -0.5440555
000020 9c 6b 79 be 4d 6a 34 3e 93 36 71 3e a5 76 eb 3d
       -0.24357456 0.17618676 0.23555975 0.11497239
000030 67 0a 96 3d 6d 08 c6 3c be 9d c5 3e cd 18 29 3e
       0.07326203 0.02417394 0.3859691 0.16513367
000040 33 d6 6a bd 71 92 99 3e a7 77 3d 3f 76 76 6b 3e
       -0.057333183 0.29994538 0.740107 0.22994408
000050 5f d3 1b be 00 f0 04 bf 91 48 0a bf f3 07 86 bd
       -0.1521735 -0.5192871 -0.5401698 -0.06544485
000060 10 a9 5c 3e 30 09 31 3f 7d 45 76 3f 75 63 ec 3e
       0.21548867 0.69154644 0.9619978 0.4616963
000070 e6 24 5a bf 75 f1 43 bf 2b 99 67 bd bb 55 d4 be
       -0.8521255 -0.7654031 -0.056542557 -0.41471657
000080 2c bd d5 be 25 00 d1 3d 38 6f 81 be e9 5e ba 3d
       -0.4174589 0.10205106 -0.25280166 0.09100134
000090 49 49 10 bf 9f 05 86 bd b8 33 0d bf b7 8c 02 bf
       -0.56361824 -0.06544041 -0.5515704 -0.50995964
0000a0 2e 6b 31 3d 7f a4 41 bc e7 03 0e 3f 38 9f e5 3e
       0.043315105 -0.011819004 0.55474705 0.44848037
0000b0 f6 51 dc be 9d 18 52 be 4f 09 37 bf af d7 a6 be
       -0.4303128 -0.20517202 -0.7149858 -0.3258643
0000c0 03 69 af 3b d9 3b 2c 3f c5 2c 29 3f 79 67 5a 3f
       0.0053530945 0.6727882 0.6608394 0.85314137
0000d0 72 06 e3 be 9e 28 fb be a1 1c c8 be 2e ef af be
       -0.44340855 -0.49054426 -0.39084342 -0.34362167
0000e0 0a 10 c5 bb 6b 63 2b bd 86 ae 10 3f e5 b3 05 3e
       -0.006013875 -0.04184286 0.565163 0.13056906
0000f0 5c 40 07 3f a4 8c 2f bf 29 85 6a 3e d2 91 22 3e
       0.5283258 -0.68573976 0.22902359 0.15875939
000100 1e af 26 be d0 85 e1 3e bd ee d7 3e f8 2f ea 3e
       -0.1627774 0.44047403 0.4217433 0.45739722
000110 f0 3f 0e bf 03 fa bd be 9f e1 ea be d2 4d 97 be
       -0.5556631 -0.37104806 -0.4587526 -0.2955156
000120 15 64 46 be 1e fc cb bd c4 6c a0 3d d3 3e 71 bd
       -0.19374116 -0.09960197 0.078332454 -0.058897804
000130 07 e7 b3 be 7e c2 f8 3d 7b e7 6e 3e cc 2e 66 3d
       -0.35137197 0.121464714 0.2333049 0.056196973
000140 20 0e 19 3e 65 bc cb bb 99 42 31 3e e2 4c ee 3e
       0.14946795 -0.0062175267 0.17310561 0.46543032
000150 36 8f 91 bd f5 32 b2 be 31 ab c9 3e 9e dd 2f bc
       -0.071073934 -0.34804502 0.3938842 -0.01073399
000160 13 7e c8 3d 83 13 92 3c e8 69 6a 3d 9e e4 1a 3f
       0.09789672 0.01783157 0.057229906 0.6050509
000170 4e de 9c 3e f4 2b 55 bd 4f d1 c7 3d c4 00 2c be
       0.30638355 -0.05204387 0.09756719 -0.16797167
000180 b8 c2 17 3d 8c d7 b9 3e 3c 97 d4 3e 14 f9 16 bc
       0.037050933 0.36297262 0.41521633 -0.009214658
000190 76 ec 04 3d 5f 6f 14 be dc 33 ae 3e dc 74 bc 3d
       0.03245207 -0.1449561 0.3402394 0.09201977
0001a0 e7 c2 1e bf 14 6d 9a be 0d 4a 28 3d 13 af 07 3f
       -0.6201615 -0.30161345 0.041086245 0.5300152
0001b0 0f a3 32 bf 9b 01 bc be 72 9d 97 be 1d 85 fd be
       -0.6978006 -0.36719975 -0.2961231 -0.4951562
0001c0 16 75 b7 be 0c 2f af 3c 89 88 f0 3d 34 9f d8 3d
       -0.35831517 0.021384738 0.11744792 0.105772406
0001d0 ec 09 18 bf cd 98 16 bf 39 6c 04 3e fe eb f6 3d
       -0.5939014 -0.58826905 0.12931909 0.12056731
0001e0 3b 87 e5 be 35 1a c9 bd fd e4 fe be c6 e5 04 3f
       -0.44829735 -0.09819452 -0.4978408 0.51913106
0001f0 0b c6 8b bf 19 57 f3 be 37 e9 40 bf 2b 3e 20 bf
       -1.0919813 -0.47527388 -0.7535586 -0.6259486
000200 7c 02 fa bd b2 88 58 be 28 2b d0 bd a0 45 07 3f
       -0.12207505 -0.21145895 -0.101644814 0.52840614
000210 2e e8 03 bf 70 33 d9 bd 15 90 a6 be 7a a8 43 be
       -0.51526153 -0.10605514 -0.325318 -0.19107237
000220 11 0f 8b 3e e9 bd 5d be 6b b6 80 3e 9b d4 c2 be
       0.27159932 -0.21654476 0.25139174 -0.3805283
000230 b3 1b 8e 3e b7 81 ab 3e 6f a7 f1 3e 12 96 f2 bd
       0.27755508 0.33497402 0.47198054 -0.1184503
000240 05 4b a9 be db 87 f9 3e 29 f9 0b be d5 d1 b3 be
       -0.33065048 0.48736462 -0.13669266 -0.35121027
000250 47 a4 17 bf b2 76 6e 3d 54 7a 17 3d fd e1 77 be
       -0.5923504 0.058218665 0.036981896 -0.24207301
000260 cc 8b 38 bc 8c e1 24 3f 15 00 ae 3e 6e 86 13 3e
       -0.011263799 0.6440666 0.33984438 0.1440675
000270 1a 9f 32 bf 17 b5 9d 3d b4 52 1a bf da fa 07 be
       -0.6977402 0.07700556 -0.60282445 -0.13279286
000280 d1 0b 73 bf 3a 58 0f be eb 4a 6a 3e e5 79 50 3e
       -0.94939905 -0.139985 0.22880141 0.20358999
000290 48 93 0e be a0 8b 8f bd 6f c3 7d be 13 cb 19 3c
       -0.13923371 -0.07009053 -0.24781583 0.009386796
0002a0 df d2 eb 3d 0a 10 7a 3d e3 cc b0 bd 1a 33 f1 3d
       0.1151483 0.061050452 -0.08632829 0.11777325
0002b0 5f 1d 7e 3e 01 01 99 3e 02 cc 66 be 23 fb ab 3e
       0.24815892 0.29883578 -0.2253876 0.3359004
0002c0 1a 2c 26 3d b6 f7 e4 bd db 03 98 be e0 5d c9 3d
       0.040569402 -0.111800596 -0.2969044 0.09832358
0002d0 ca 40 c2 be 4b 54 5d be 3e fc ee be 6f db 22 be
       -0.37940055 -0.21614186 -0.4667682 -0.1590402
0002e0 2c cd 1e bf 65 bf 59 bd 83 b2 4e 3d a2 d2 c0 bd
       -0.6203182 -0.053161044 0.05046321 -0.09415175
0002f0 7a c9 3a be 35 0b a1 bc 0c 2c 85 be f9 d6 44 be
       -0.1824092 -0.019658664 -0.26010168 -0.1922263
000300 b8 6e 1c bf d6 35 f1 be 47 d6 ae 3d 6f ad 0b 3f
       -0.61106443 -0.47111386 0.08536964 0.54561514
000310 71 31 cb be 3a be 4b bd 5f 2a 5b bd 05 d5 4d bf
       -0.39686158 -0.04974196 -0.053507205 -0.80403167
000320 93 d1 cf 3e c2 af b9 bd 51 56 f9 3c 8f ab 36 bd
       0.4058958 -0.09066726 0.030436667 -0.044597205
000330 73 4c 87 3e 95 ad 56 3e 1d e2 12 be 59 c6 14 3f
       0.26425514 0.20964654 -0.14344068 0.58115155
000340 25 8c 7b bd 58 cb ab 3e 1c 58 cf 3d 7b f4 a7 3e
       -0.06141295 0.33553576 0.101242274 0.3280371
000350 5d a7 14 bf 2d 2c 8d be 6a 1b 05 bf 17 70 19 3e
       -0.58067876 -0.27572766 -0.51994956 0.14984165
000360 18 8d ee 3e 36 3d e3 3d 9e de ac be a0 21 f8 3e
       0.4659202 0.110956594 -0.33763593 0.48463154
000370 d0 b4 42 bf 96 83 bd be f6 e8 9b be 0f 0c 95 be
       -0.7605715 -0.37014455 -0.30451173 -0.29110762
000380 b9 0a 36 be 2a 50 1c 3f 0b 23 38 3f 71 2f cf 3e
       -0.17777528 0.6105982 0.7192847 0.40465882
000390 42 4a 34 3e 21 96 e8 3e 4c 7c 64 bd 2e 2b ab be
       0.17606452 0.4542704 -0.0557826 -0.3343138
0003a0 b9 32 bc 3c b6 be 8e 3e fe 78 1a 3f bd 9e 95 3e
       0.022973405 0.27879876 0.6034087 0.2922267
0003b0 da 92 ce be be 0e cc be 1b f0 75 be fc fc 74 bf
       -0.40346414 -0.39854997 -0.24017374 -0.95698524
0003c0 74 82 e1 bd 2a d2 72 3e 25 97 2d be d0 2e 21 3f
       -0.1101121 0.23712984 -0.16952188 0.62962055
0003d0 2f a9 40 be 32 08 25 bf 24 9d 58 bf 22 52 ef 3c
       -0.18814538 -0.6446563 -0.8461478 0.029213969
0003e0 70 fb f2 3d 80 ad 6c 3e 68 7b 0b 3e 24 7e da 3e
       0.11864364 0.2311306 0.13621294 0.42674363
0003f0 8f ae 55 bf d6 f5 82 3b 86 b7 7d bd 91 c2 ad be
       -0.8346948 0.003996591 -0.0619426 -0.33937505

embedding_item_mlp.weight f4 [3706, 8]
000000 ef f8 88 bf b9 fa a8 bf 36 ce b3 be 24 52 c8 3f
       -1.0700969 -1.3201514 -0.35118264 1.5650067
000010 ff e2 9a 3f 4e d0 a6 3f 96 4e 4d bf aa 02 70 3d
       1.2100524 1.303232 -0.8019804 0.05859629
000020 6e f3 34 bf 97 2a a6 be e3 c1 49 be 51 df 95 bd
       -0.70683944 -0.32454368 -0.19702868 -0.07317985
000030 26 0c b1 3d 70 98 79 be df e1 05 be 0c 2e 9b 3e
       0.08644895 -0.24374557 -0.13074444 0.30308568
000040 c6 ab 96 be 7e 4d 0c 3e 7e 37 f1 be 96 62 f7 bb
       -0.29427928 0.13701436 -0.4711265 -0.007549594
000050 e4 9c 57 3e 3d 59 e1 3e 15 20 ea bd 7a f9 43 3e
       0.21055943 0.44013396 -0.114319004 0.19138137
000060 b1 24 3b bf 2f 48 47 bf 35 c5 05 bf 95 93 27 3f
       -0.7310286 -0.7784452 -0.5225404 0.6545957
000070 f5 39 69 3e 2d 8d 9b 3f 93 63 5f bf 9d 7d 3b 3f
       0.22776015 1.2152458 -0.87261313 0.73238546
000080 52 16 f5 be 16 57 b1 bf 7d b0 7d bf d3 47 ff 3e
       -0.47868592 -1.3854702 -0.99097425 0.49859485
000090 89 1b f2 3e 75 22 f6 3e 22 a6 6c be a4 cd 87 3f
       0.47286633 0.48073164 -0.2311025 1.0609632
0000a0 4e ac 58 bf 66 c3 42 bf 4a 21 de be 09 9e cc be
       -0.84637916 -0.76079404 -0.43384773 -0.3996432
0000b0 8f 3a ae 3e 0c de 8a 3f 0e 0d 81 be 78 06 0c 3f
       0.34029052 1.0849013 -0.25205272 0.5469737
0000c0 0c fe 89 be af 88 9e bd e0 76 b3 3c 6c c5 61 be
       -0.26951635 -0.07740914 0.02190727 -0.22047967
0000d0 02 7a 25 3d ce 56 3b 3d be 2c 89 3d 13 51 e5 bd
       0.04039956 0.04573708 0.06697987 -0.11197104
0000e0 52 e9 33 be e6 6d 0f bf 97 74 67 3b 63 7b 84 be
       -0.17569473 -0.56027067 0.0035317296 -0.25875387
0000f0 05 b8 f6 3e ae b4 d1 3e c9 19 81 3d a2 ff 8c 3d
       0.4818727 0.4095816 0.06303746 0.068846956
000100 dc 58 9d bd c4 9b 6c 3e 9f 32 94 be d3 43 94 be
       -0.07682964 0.23106295 -0.2894487 -0.28957996
000110 00 6e 8c 3d ae 9c 3c be 28 d9 49 be 27 49 3e 3e
       0.06856918 -0.18419144 -0.19711745 0.18582593
000120 df 47 ff be f6 28 8a 3d 5f 8f ad be 16 f0 c9 3e
       -0.4985952 0.06746094 -0.33898446 0.39440984
000130 21 f8 00 3e 7e 41 2f 3f 2f a6 51 be 46 0d c7 bc
       0.12594654 0.6845931 -0.2047355 -0.024298321
000140 70 bc 52 be c3 ef 2f be 45 33 51 be 02 3d 28 be
       -0.20579696 -0.17181306 -0.20429714 -0.16429523
000150 ca e1 90 3e 41 d5 d6 3d 28 cb 81 be 63 18 d3 3d
       0.28297263 0.10489894 -0.25350308 0.10307386
000160 63 04 08 bd 20 66 86 3e d9 20 a8 bd b9 fa 08 3d
       -0.03320731 0.2624979 -0.0820939 0.033442233
000170 b8 36 2f 3e 4d eb 8e be cc 82 a3 bd bf fb 42 3e
       0.17110717 -0.27913895 -0.07983932 0.19041346
000180 da 8c 8d bb 97 69 ac 3e b9 51 73 3d da e2 89 bd
       -0.0043197693 0.3367431 0.05940411 -0.067327216
000190 e3 e4 dc be 29 1f d1 3d 43 21 18 3e 8a cc b9 bc
       -0.43143377 0.102110215 0.14856438 -0.02268054
0001a0 1c 4d bd 3e b6 8b 29 3d 27 52 75 be 31 e7 7d be
       0.36972892 0.041393004 -0.2395712 -0.24795224
0001b0 dc d6 a4 be 04 56 0a 3e 07 32 c9 3d 37 50 9d 3d
       -0.32195175 0.13509375 0.09823995 0.076813154
0001c0 eb 4e 3e bf 64 86 d3 bd ba 97 0b bf e7 75 23 3e
       -0.7433917 -0.10328367 -0.5452839 0.15962945
0001d0 c8 e2 fd 3d d3 be 68 bd ed ca 07 bf 72 c4 e7 3e
       0.12396771 -0.05682261 -0.53044015 0.45267063
0001e0 f5 5c 4e bf cf f4 a6 be 61 aa ef be b7 1d 80 3e
       -0.8061059 -0.3260865 -0.46809676 0.2502267
0001f0 c5 4e a2 bd ea 60 de 3d c4 d9 b6 be 93 c4 9e 3e
       -0.0792518 0.10858329 -0.35713017 0.3100935
000200 85 48 14 3f 53 9e 68 bf 92 60 6a be fd 72 16 bf
       0.57923156 -0.90866584 -0.22888401 -0.5876921
000210 69 ed f2 3e 23 45 19 3e 6f d0 a0 3c 2d a7 b1 3e
       0.47446755 0.1496778 0.019630639 0.34697857
000220 25 27 17 3e 51 9c 24 3d 60 e3 dd be 46 c1 a7 be
       0.14761026 0.040188137 -0.43337536 -0.32764643
000230 9d fb a2 3e ed 95 ad be 58 11 95 3e 82 4e 6c be
       0.3183259 -0.33903447 0.29114795 -0.23076823
000240 f2 33 87 be 18 c8 cd bd 5c db 41 3e dd 16 d1 3d
       -0.2640682 -0.100479305 0.18931335 0.10209439
000250 7d 50 39 3b cc 12 9f bd 82 c5 62 3e 26 f8 c3 be
       0.0028276735 -0.07767257 0.22145656 -0.3827526
000260 d5 5c 67 be 1a 6b 7b be 89 38 9d be af 5f d3 bd
       -0.22594006 -0.24552575 -0.30707195 -0.103209846
000270 b6 da b4 bd bb d1 e8 3e 7e 76 36 be bc dc 03 bd
       -0.08830778 0.45472512 -0.17818639 -0.03219293
000280 d2 b4 94 be 1b a8 56 3e 12 8b 23 3e 48 2f cf 3e
       -0.29044205 0.20962565 0.1597102 0.4046576
000290 9d 69 95 3e 33 2b 8a 3e b0 03 d7 be 6d d3 27 3e
       0.2918214 0.26986083 -0.41995 0.16389246
0002a0 32 00 90 3e 52 db 06 bf 32 b3 e9 3d 4d 26 d6 be
       0.2812515 -0.52678406 0.11411132 -0.41826096
0002b0 dd cf b9 3e c8 eb 6c 3e 84 41 0e 3f 71 fb 65 3d
       0.362914 0.23136818 0.5556872 0.056147996
0002c0 6c 7a 20 be 60 9c 33 bf 44 7d 2e bf 3e 58 4c 3f
       -0.156717 -0.70160484 -0.6815989 0.79822147
0002d0 b0 da ed 3e 77 29 42 3f 5f 7a 39 bf dc 2c 8b 3e
       0.46455908 0.7584452 -0.7245235 0.27182662
0002e0 d9 67 64 bf 4a 3d 9b bf 37 54 34 bf 9c a2 86 3f
       -0.8922096 -1.2128079 -0.70441 1.0518374
0002f0 eb 11 85 3f f3 32 3a 3f 61 c9 2c bf 1e b9 e9 3d
       1.0396093 0.7273399 -0.6749478 0.114122614
000300 a5 43 54 3b d0 72 ba be e1 24 bf 3e 3c 3f 46 bd
       0.0032388952 -0.3641572 0.37332824 -0.04840015
000310 e9 d2 76 3c a0 b7 a7 3e d3 5f 0b bd a9 8d 83 3e
       0.015064933 0.32757282 -0.034026932 0.25694016
000320 13 4e fb bd 3e e4 32 3d 17 43 82 bd d0 c1 9b be
       -0.12270751 0.0436747 -0.063604526 -0.30421305
000330 1c b7 b3 3d 86 e1 61 be 27 6d 9e 3e 20 b4 b6 3d
       0.0877516 -0.22058687 0.30942652 0.08921075
000340 55 64 db be ca e7 78 bf 13 c5 0f bf c6 ab 25 3f
       -0.42849985 -0.9722868 -0.56160086 0.6471523
000350 3c 35 fb 3e c5 05 28 3f 3f ed 15 bf c5 74 90 3e
       0.49064052 0.65633804 -0.58565134 0.28214088
000360 e8 4d 2c bf 63 ae 38 bf ec b4 d3 be b3 c6 50 3f
       -0.67306376 -0.72141093 -0.4134897 0.8155319
000370 7d d6 99 3f 41 d5 80 3f 01 04 29 bf 9b 9c 44 bd
       1.2018582 1.006508 -0.66021734 -0.048000913
000380 0d 64 91 3e 88 7d 9a be c0 90 e5 3e ff 04 1c bf
       0.28396645 -0.30173898 0.44836998 -0.60945123
000390 cf 8f 4d be ef e0 0d 3e e8 48 cf 3e 3b c6 5b be
       -0.2007439 0.13855337 0.4048531 -0.21462338
0003a0 dc f6 88 3e d9 5a 15 bf 58 10 73 3e b5 3a 83 be
       0.2675084 -0.5834175 0.23736703 -0.25630727
0003b0 73 eb 66 3f 28 20 98 3e 4b b6 f3 3d dc 5a e9 3e
       0.90203017 0.29712033 0.11900004 0.45577133
0003c0 b0 96 3d 3d ac 97 c7 be aa 23 7d be 63 1a 78 3d
       0.046286285 -0.38982904 -0.24720636 0.06057204
0003d0 9f 25 99 3e aa d4 a4 bd 10 3c 04 3e 38 e0 b9 bd
       0.29911515 -0.08048375 0.12913537 -0.090759695
0003e0 e2 1f 0a be 27 1f 2f bf 5b 85 94 3e d3 91 09 3f
       -0.13488725 -0.6840691 0.29007992 0.53738135
0003f0 95 2a 00 3e cb 89 85 3f 9b 5c c4 bd ac a2 13 be
       0.12516244 1.0432676 -0.095879756 -0.14417523

embedding_user_mf.weight f4 [6040, 8]
000000 bd f0 74 bc 4a 40 d4 3d f7 3a 8a be 53 e0 01 3f
       -0.014949975 0.10363825 -0.26998112 0.50732917
000010 44 de 55 bd 99 ec 04 bf 79 39 46 3d 76 c7 a9 bf
       -0.052213922 -0.5192352 0.048394654 -1.3263996
000020 61 6b fe bb d9 2c c9 be f4 d4 68 3c 4f fc a2 3f
       -0.0077642654 -0.3929203 0.014210928 1.2733248
000030 d3 2a 08 3e fb d5 a2 3d d3 ba c7 3e 1e 17 78 3d
       0.13297586 0.0795097 0.39009723 0.06056892
000040 52 b2 fd 3e 3b 6e 52 bf 21 65 88 bd f1 22 7b 3d
       0.4955011 -0.8219945 -0.06659914 0.06131262
000050 20 9d d0 3d 05 f7 5e 3f b6 f2 c1 3e d1 fa 55 bf
       0.10186219 0.8709567 0.37880486 -0.8358584
000060 68 31 54 be 59 94 2d be 50 98 03 3f 62 b7 50 3f
       -0.20721972 -0.16951121 0.51404285 0.8152982
000070 29 b1 f2 be 46 14 6c 3f ea 5a e4 3e 69 56 03 bf
       -0.47400787 0.92218435 0.44600612 -0.51303726
000080 75 15 ed bb 52 2b f7 be 90 1b 01 bd 62 36 d0 3e
       -0.007235224 -0.48275238 -0.031520426 0.4066649
000090 6b ac 82 bf 47 1d 13 bf f4 1f e1 be f0 25 41 3d
       -1.0208868 -0.5746655 -0.4396969 0.04715532
0000a0 92 c6 87 3e b3 7a 10 3e e0 72 10 bf 8e be 01 3f
       0.26518685 0.14109306 -0.56425285 0.5068139
0000b0 f8 6b 43 3f d6 99 23 bd 7a a4 e1 3e 90 5b b1 be
       0.7633662 -0.03994163 0.44070798 -0.3464017
0000c0 73 ad 4d 3f b1 f2 51 bf 62 86 1a 3f 82 96 07 3f
       0.8034279 -0.8201094 0.603613 0.5296403
0000d0 f6 4b 13 bf f2 eb 41 3f 92 7d a5 3e fb 25 eb be
       -0.5753778 0.7575065 0.32322365 -0.45927414
0000e0 5d 7c 04 3f 0a 9a 45 bf f8 9b ad 3e 11 25 7e 3f
       0.51752263 -0.7718817 0.33908057 0.9927531
0000f0 b8 3a 63 bf ce 69 53 bf e8 63 44 be 5e b7 04 be
       -0.8876147 -0.8258332 -0.19178736 -0.12960574
000100 e6 5c 84 3e cb 0d a2 bf c0 a5 93 3e 49 c3 57 3f
       0.25852126 -1.2660459 0.28837395 0.84282357
000110 e9 cf 9e be 07 3f f5 be c9 c4 e3 be e5 fa 56 bf
       -0.31017998 -0.4789965 -0.44486073 -0.83976585
000120 fb f6 83 3e dd 7f 90 3e 8c f8 3e bf f6 fe ee 3e
       0.2577437 0.28222552 -0.74598 0.46678895
000130 61 17 b8 3d b8 4a 9d 3e 4d 97 a6 3d 21 8d 28 bf
       0.08988834 0.30721068 0.08134327 -0.65840346
000140 7b da 74 3d b1 1e 3a bf ab a2 fa be e0 30 ac be
       0.05977867 -0.7270308 -0.4895223 -0.3363104
000150 98 12 ac be 14 c1 f3 be 75 a2 c3 3c 7c e4 2f bf
       -0.33607936 -0.47608244 0.023881176 -0.68708014
000160 df f1 8c be ac d1 11 bf 5f 03 76 3e 31 4c 6a 3d
       -0.27528283 -0.5696056 0.24024723 0.057201568
000170 3d e1 0c be 32 1a 02 3f 30 bf 5d be 6b c5 1f bf
       -0.13757797 0.5082122 -0.21654963 -0.6241061
000180 6c ba db 3e b5 6a 3e 3d 04 07 ac be 26 07 a3 3f
       0.42915666 0.046488483 -0.33599102 1.2736557
000190 e7 c7 14 be 11 1b 23 3f f2 9a 60 3d 99 4d 89 3e
       -0.14529382 0.63713175 0.054835267 0.26817015
0001a0 80 ed 89 be 25 8a 02 be dc 6d b6 3d 52 8d a7 be
       -0.2693901 -0.1274801 0.08907673 -0.32725006
0001b0 cf 2c e2 be ca 40 bc 3d b2 65 b8 3e d5 97 bc be
       -0.4417481 0.09192045 0.36015087 -0.3683459
0001c0 a4 4a 3d 3f d2 b9 64 bf 4a 35 a3 3e 99 8a ce 3e
       0.7394202 -0.8934604 0.31876594 0.40340117
0001d0 c4 b7 5c 3b 41 31 53 be 18 ff d9 3e 76 3a 1c bf
       0.0033678869 -0.20624258 0.42577434 -0.61026704
0001e0 90 2e 37 3f f7 f7 7a 3e ff 24 bb be bb e8 33 3e
       0.71555424 0.24508654 -0.36551663 0.17569248
0001f0 53 b4 91 3e be 35 87 bc d3 51 68 3e a2 45 1d 3d
       0.2845789 -0.016505118 0.22687463 0.038396485
000200 3b 84 1b 3e bf 1d 0d 3d 74 29 1d 3e c8 76 c0 3e
       0.1518716 0.034452196 0.15347844 0.37590623
000210 69 de 3d bf 69 e9 9a 3e 45 3d 5b be f3 6a 05 3f
       -0.74167496 0.30256203 -0.21410091 0.52116317
000220 9f 2e 04 3f eb 5d 97 3d 7a 50 7b be b5 72 7e 3f
       0.5163364 0.0739096 -0.24542418 0.9939378
000230 32 f7 9d be ff 4a fb 3d 6c 0c 7a be dc 99 e6 be
       -0.30852658 0.12270164 -0.24418801 -0.4503926
000240 e6 68 02 3f 7e 4b ff 3c d3 a7 7c 3e 45 ed 78 bd
       0.5094131 0.031163927 0.24673395 -0.060773153
000250 da 8c 8b be 72 cd 39 3f 39 39 9f 3d cc 45 4a bf
       -0.272559 0.7257911 0.07774586 -0.7901275
000260 56 a3 dc 3e d6 36 49 bf 48 36 ff 3d 3a 99 ee 3d
       0.43093365 -0.785993 0.12461525 0.116503194
000270 06 80 ea be 69 ff 0d 3f d2 70 59 bd a5 8f c0 be
       -0.458008 0.5546785 -0.05308611 -0.37609592
000280 94 91 21 3f 96 58 ef 3d dd 38 34 be 56 92 62 3e
       0.6311276 0.11686818 -0.17599817 0.22126135
000290 87 fe f2 be e2 6c 44 3e 99 b0 2f bf 53 8e 20 bf
       -0.47459814 0.1918216 -0.6862884 -0.6271717
0002a0 1d 55 15 3f a1 4d 0b bf fd bb 7a be 66 3f 53 be
       0.58333 -0.5441533 -0.24485774 -0.20629653
0002b0 a3 aa 29 bf 01 83 fc 3e 6c 20 cf bc 4f 93 10 bf
       -0.66275996 0.49318698 -0.025284015 -0.56474775
0002c0 37 6b 31 bb 0e 73 5c be 59 84 8c be 6c 48 1f 3e
       -0.0027071962 -0.21528265 -0.27444723 0.1555497
0002d0 8f 71 83 bf e5 bf 10 3f b1 35 13 be e7 64 88 3e
       -1.026903 0.5654281 -0.1437595 0.26639482
0002e0 1b 8a 0b be 20 f1 ca be 61 52 4c bf 17 bd ee 3e
       -0.13626902 -0.3963709 -0.798132 0.4662864
0002f0 04 f1 9a be 95 9e 66 be cb 71 88 3e 07 7f 61 be
       -0.30262005 -0.22521432 0.26649317 -0.22021113
000300 3b d6 3c 3f 1f b4 ad be db 1a 5f be a3 0e e3 3e
       0.7376439 -0.33926484 -0.21787588 0.44347104
000310 8f 2f e2 be 10 83 17 3f 6b b3 0d bf 32 b0 7b be
       -0.4417691 0.5918436 -0.55351895 -0.24578932
000320 3a 0f 09 3f 43 ce b7 be 5d ad 3c bf 2f 1a 5a 3d
       0.5353886 -0.35899553 -0.7370203 0.053247627
000330 ab ac 33 3e 1f c5 5a be 2d d7 76 3f 2d a0 8b be
       0.17546336 -0.21364258 0.9642208 -0.27270642
000340 52 a6 dd be fc 4e b3 3d a3 d6 2c be 1e eb f2 3e
       -0.43290955 0.087552994 -0.16878752 0.47445005
000350 88 51 52 be 05 d1 fc 3e 0f f0 e9 bd 26 18 ef be
       -0.20538914 0.4937822 -0.11422741 -0.4669811
000360 7e 7a 68 be 77 93 aa 3d 81 31 b2 be 13 3a d0 3e
       -0.22702977 0.08328908 -0.34803393 0.40669307
000370 2a 00 09 bf 8e ed 2c be 99 2b d9 bc 6a 46 10 bf
       -0.53515875 -0.16887495 -0.026510047 -0.56357443
000380 1a 45 27 bc 0b d4 98 be 76 6f 14 3f fe 2b 17 3f
       -0.010209346 -0.29849276 0.57982576 0.590515
000390 42 fb 97 be 7b 54 96 3f 65 9b 0e 3f 02 bb 6d 3e
       -0.29683882 1.1744531 0.55705863 0.23215869
0003a0 17 e6 08 be 07 d6 9e be 46 a0 6c 3e 52 a8 f7 3e
       -0.13369022 -0.31022665 0.23108014 0.48370606
0003b0 b8 f6 0d bf 08 19 14 bf 3a 2e 55 be 70 39 b6 be
       -0.5545459 -0.57850695 -0.20818415 -0.35590696
0003c0 37 b7 58 be e2 89 20 be 45 bc 8b bf da 26 9a be
       -0.21163641 -0.15677598 -1.091683 -0.30107766
0003d0 9e c9 46 3f 4d 8e 53 3f b0 3f 5f 3e 1f 78 c1 be
       0.77651393 0.8263901 0.21801639 -0.37786958
0003e0 5b 01 88 bd 58 10 c2 be f7 71 62 3c 5f c1 fa 3e
       -0.066408835 -0.37903094 0.013821117 0.48975655
0003f0 c8 97 eb be ec 56 00 bf 82 87 97 3c df d8 cb bd
       -0.46014237 -0.5013263 0.018497232 -0.09953474

embedding_item_mf.weight f4 [3706, 8]
000000 70 39 dd 3e 3f c8 49 bc 9e 3c bb bd 81 88 8e 3e
       0.43207884 -0.012315809 -0.09142421 0.2783852
000010 df 06 44 3e 68 1d 40 3d ec 4a b5 3e 02 89 f7 3e
       0.19143246 0.046903044 0.35408723 0.48346716
000020 0a 83 68 be 22 a8 1c bf e0 4b 0d 3e 02 c5 09 3e
       -0.22706237 -0.6119405 0.13798475 0.13454059
000030 95 73 4d 3e 05 e1 16 be a5 f2 42 bf 73 45 07 3f
       0.20063622 -0.14734276 -0.76151496 0.52840346
000040 25 f2 26 3e e2 ef 7e bf a7 a7 92 3e cd a9 05 3f
       0.16303308 -0.9958478 0.28643534 0.5221222
000050 1a b8 fc be e4 20 8e be 71 56 2a 3e 3d 13 8c 3e
       -0.49359208 -0.2775947 0.16634537 0.27358428
000060 81 9c b3 3d d8 c4 9c 3e 54 a1 ae be 6e 9e 5d bd
       0.08770085 0.3061893 -0.3410746 -0.05410617
000070 a2 16 f7 be 5e da b3 be 21 2c bd 3d d0 6b 39 3e
       -0.48259455 -0.35127538 0.092369325 0.18107533
000080 3d e9 8f be ef c2 ec 3d 43 08 90 3e 9e 19 84 3d
       -0.28107634 0.11560618 0.28131303 0.064501986
000090 97 77 96 bd 85 56 7c 3c 8f d3 91 be 63 b1 1a 3f
       -0.07347029 0.015401487 -0.2848172 0.6042692
0000a0 3c 15 c7 bd 39 65 74 3e 03 6f 31 3f f5 7f 8e 3e
       -0.09720847 0.23866738 0.69310015 0.27831998
0000b0 2c bf df 3e 15 b0 f4 3e 03 0d db 3d 76 cd bf 3e
       0.4370054 0.4779059 0.10695841 0.37461442
0000c0 8d 96 1c 3e 0c 71 d2 be cc fc 9b be df 74 50 3f
       0.15291806 -0.41101873 -0.30466306 0.8142833
0000d0 a2 f5 d3 be 7b 3e 1f 3f ca 16 6d 3e 27 1c fc 3d
       -0.4139834 0.6220471 0.23153225 0.12310057
0000e0 7e 6a 6c 3e fc ac ff 3d 6c 31 06 3f 26 30 86 be
       0.23087499 0.12484166 0.5241916 -0.2620861
0000f0 8e ef ba 3e c4 59 6e 3e ff 28 b9 3e f1 2b 73 3f
       0.3651089 0.2327643 0.3616409 0.94988924
000100 6b 96 fd bd 43 de 98 bf 55 79 9e 3e f6 cd cd 3e
       -0.123822056 -1.1942829 0.30951944 0.40196198
000110 7e 0e 96 3d fc 51 59 3d 27 63 c7 be 32 37 b4 3f
       0.07326983 0.053056702 -0.38942835 1.4079344
000120 d6 3d 88 3e 7a d0 f9 be 2c 31 af 3e f0 5a 4e 3f
       0.26609677 -0.48791867 0.34217203 0.8060751
000130 7b 8c 31 3e 8f ee 3d 3e 59 1d 58 3e 8d fc 97 3f
       0.17338745 0.18548034 0.21104945 1.1873947
000140 8e ed d8 be e9 af 1e bf 68 1a 79 3e 08 12 27 3f
       -0.4236874 -0.6198717 0.2432648 0.6526189
000150 7f a5 22 3e 3b e9 7c be 61 71 c7 be 41 32 97 3f
       0.15883444 -0.24698345 -0.3895369 1.1812211
000160 1c 5c 89 3e db c4 a2 bf d3 94 e7 3d 3e 03 80 3e
       0.26828086 -1.2716326 0.11307683 0.25002474
000170 b8 df 52 bf 90 a9 da be 5c 28 8f be d8 e8 46 bd
       -0.8237262 -0.4270749 -0.2796048 -0.0485619
000180 61 85 ae 3e a2 86 61 bf 3b f0 44 be 3d 35 03 3f
       0.34086135 -0.8809606 -0.19232266 0.5125311
000190 b1 d0 e7 be 86 22 5d be b4 eb 81 3e da cf 71 3f
       -0.45276406 -0.21595201 0.2537514 0.9445778
0001a0 bc 35 24 3e c9 78 fd 3e 77 d0 97 3f a3 f4 7a be
       0.16036123 0.49506214 1.1860493 -0.24507384
0001b0 ba bd 91 3e 59 3c 9c 3e 33 b3 31 3f 25 f5 95 3f
       0.28465062 0.30514792 0.6941406 1.1715437
0001c0 5d 66 b4 3d 0a 9d 1a bf 52 e0 87 3e 2b fb 82 3e
       0.08808587 -0.6039587 0.2653833 0.2558225
0001d0 b4 35 92 be ca f2 18 be f9 eb 0f 3e 9f ec 13 3f
       -0.28556597 -0.14936367 0.1405486 0.5778293
0001e0 ae 32 56 3e 65 a0 89 3e 21 54 3a 3f cf c2 c5 be
       0.2091777 0.26880184 0.7278462 -0.3862519
0001f0 3a 5f 30 3e c9 0f ff 3e 08 81 f4 3e 83 03 33 3f
       0.17223826 0.4981673 0.47754693 0.69927233
000200 83 b5 bf be 98 ca 06 bf ce 78 d5 3c 0b 58 c0 3e
       -0.3744317 -0.52652884 0.02605858 0.3756717
000210 d7 52 2c be 21 19 cd bd 11 46 f9 be ea 81 20 3f
       -0.16828476 -0.100145586 -0.4868627 0.62698233
000220 12 6d c0 bd 63 df 72 bf 86 61 a6 3d 55 9c b9 3e
       -0.093958035 -0.9487211 0.0812407 0.36252084
000230 4b 8b 03 be db 4c 04 3a e1 17 9e be c5 34 9d 3f
       -0.12846105 0.0005046853 -0.30877593 1.2281729
000240 11 85 1e 3c 4d 8a 8a 3c 5e 86 ba 3d 96 7b 0b 3f
       0.00967528 0.01691165 0.0910766 0.5448545
000250 6c 6d 76 3e 04 a0 46 bf 3e 7c 04 3f 3c 03 d6 3e
       0.24065179 -0.77587914 0.5175208 0.41799343
000260 46 d8 5e bd 96 63 cd bb 95 c1 76 3f f3 50 ef bc
       -0.054405473 -0.006267975 0.9638913 -0.029213404
000270 5a 46 dc 3e d4 6f 83 3e 72 f9 ed 3e a8 02 14 3f
       0.43022424 0.25671256 0.46479374 0.57816553
000280 c6 0d 43 bd 0c 78 0a 3f 1e da 14 3f 51 0f e8 bb
       -0.047620557 0.54089427 0.5814532 -0.007081904
000290 62 0b 25 be 33 c4 1f be e6 d8 81 bd 94 dc 07 3f
       -0.16117623 -0.15602188 -0.06340198 0.5307095
0002a0 cc 69 80 3e 2e 04 23 be d1 d7 b3 3d cb b7 81 3e
       0.25080717 -0.15919563 0.08781398 0.25335535
0002b0 2a 5b 7d 3e 68 3a 3b bc a2 56 84 bf b5 eb d4 3e
       0.24741808 -0.011427499 -1.0338938 0.4158608
0002c0 89 4a 26 bd 89 96 97 3d 71 79 73 3f 50 12 90 3e
       -0.040598426 0.07401759 0.9510718 0.2813897
0002d0 c8 63 15 3f 00 38 16 3f ca 23 0d 3f 1f e5 18 3f
       0.5835538 0.586792 0.55132735 0.5972461
0002e0 1f f3 35 3e 5a c6 a9 3e 69 a7 0d be 20 d6 2a 3f
       0.17768525 0.33159143 -0.13833393 0.6673298
0002f0 16 a6 d4 3e 4d 1d 4f be d7 30 91 3e 2c 2b 1e 3f
       0.41532964 -0.20226021 0.28357574 0.61784625
000300 8e 25 b1 be c8 62 e8 3d c3 f7 00 bd ff 61 0f be
       -0.34598964 0.11346966 -0.031486284 -0.14002226
000310 8b b0 08 bf 2e d9 04 bf be 04 a2 3e d4 67 93 be
       -0.53394383 -0.5189389 0.31644243 -0.28790152
000320 a3 df 2b bf 4a 90 57 bf aa 54 2a 3e 51 28 dc 3e
       -0.6713812 -0.8420454 0.1663386 0.4299951
000330 01 c5 d6 be 42 66 db be 6b 18 18 bf 7b 28 17 3f
       -0.41947177 -0.42851454 -0.5941226 0.59046143
000340 da 3b df bd 50 29 a9 be 20 55 20 3f a9 3d 18 3f
       -0.10900088 -0.3303933 0.6262989 0.59469086
000350 47 e2 51 3f c0 14 82 3e 04 17 c1 3e 16 97 22 3f
       0.81985897 0.25406456 0.37712872 0.6351179
000360 bc b9 97 be 13 8d 08 3e 4b c8 10 3e a2 95 df 3e
       -0.29633892 0.13335066 0.14138906 0.43668848
000370 13 4d ed bc 94 f7 da be 52 cb b4 3e 82 c0 87 3e
       -0.028967416 -0.42767012 0.3531137 0.2651406
000380 2b 10 00 3f c2 fb ae be 58 ea 2f bf f8 15 e2 bb
       0.5002467 -0.3417645 -0.68716955 -0.0068995915
000390 51 fd a4 be 40 0e 88 bf 7b a4 21 bf 91 94 b7 be
       -0.32224515 -1.0629349 -0.631416 -0.35855535
0003a0 18 8e 43 3e 44 4c 73 3d a2 b6 ce 3e 49 d3 33 3e
       0.19097173 0.059398904 0.40373713 0.17561068
0003b0 d5 3f 84 3e 3b 78 9c 3c e1 9b 82 bf d7 5e ac 3e
       0.2582995 0.0191003 -1.020382 0.33666107
0003c0 68 e9 d5 be 6f 6d 85 be 8c 1e 3e 3e 08 d9 a5 3e
       -0.41779637 -0.26060054 0.1856634 0.32392144
0003d0 a4 2c a8 3c 12 de 1a be 74 7f cb be 7f a7 17 3f
       0.020529099 -0.15123776 -0.39745677 0.59239954
0003e0 8d 63 0c bd 93 61 01 3e 7e 73 e2 be 10 19 fd be
       -0.034274627 0.12634878 -0.4422874 -0.49433184
0003f0 c2 87 13 be 36 f5 2c bf f9 a2 2d bd 3c a4 36 3c
       -0.14407256 -0.6756166 -0.04239175 0.011147555

fc_layers.0.weight f4 [64, 16]
000000 ec 17 a2 be 3d d4 dd be 6d f9 21 be 0d eb e9 3e
       -0.31658876 -0.43325987 -0.15817805 0.45687142
000010 fe 98 d4 3d 37 cb 2d bf 0a 95 41 bf d1 dc bb be
       0.103807434 -0.67888206 -0.7561804 -0.36691907
000020 46 52 9a bd 7a 61 b7 3a b3 af 9f 3e 87 91 95 be
       -0.07535224 0.0013990842 0.31188735 -0.2921259
000030 7e 7c 25 bf 94 07 06 bf 8d 88 5e 3e 7d aa 76 3e
       -0.64643085 -0.52355313 0.21731777 0.24088474
000040 1c c5 57 bf 30 51 9f 3e 9f f0 94 39 25 a5 c3 be
       -0.8428514 0.3111663 0.00028408036 -0.38211933
000050 c3 a3 9c be fc ee 54 3e c9 a7 03 3d 8c b6 b0 be
       -0.3059369 0.2079429 0.032142434 -0.34514272
000060 4e 71 07 bf c5 9a 3f 3e 15 78 a9 3e 5b af fe bd
       -0.52907264 0.18711384 0.33099428 -0.1243579
000070 00 59 d4 3e ed 97 4b 3e 65 eb e0 3e fa 04 4c bf
       0.41474152 0.19882174 0.43929592 -0.79695094
000080 8f 3e e8 3e 1a 86 a9 3e 45 29 8a 3e dc 37 58 3e
       0.45360228 0.33110124 0.2698461 0.21115059
000090 50 f4 40 3e 50 2c 0c bf d8 72 8c 3d 33 a5 61 3f
       0.18843198 -0.54755116 0.06857842 0.881427
0000a0 a6 68 52 3f 54 ae 2f 3d d4 49 87 3e e5 f1 01 bf
       0.8219093 0.04289086 0.26423514 -0.50759727
0000b0 58 25 9a 3f 38 97 dc 3e f9 ca 8b 3e 7b 86 3b bf
       1.2042646 0.4308412 0.27303293 -0.73252076
0000c0 a8 23 46 3f 11 d1 7d 3e 8f 73 50 be 30 15 f4 3d
       0.7739816 0.24786784 -0.20356582 0.11918104
0000d0 7e ee 7f bf 45 5e ec be cf 6f 9b be 65 84 8c bd
       -0.99973285 -0.46165672 -0.3035874 -0.0686119
0000e0 00 fd 1c 3e a8 4f 35 3e ca b8 46 3f c1 81 02 be
       0.15330887 0.17706168 0.77625716 -0.1274481
0000f0 fb 2a e8 be 16 54 78 3e dc 08 92 be 03 09 ab be
       -0.45345291 0.24250826 -0.28522384 -0.33405313
000100 a1 4b f0 3e fa 93 b2 3d fb b1 2c 3e 0f 13 86 bc
       0.469327 0.087196305 0.16864769 -0.01636651
000110 0e 8e c3 3e 8e 9c 35 bf 68 55 63 bc 3f 07 81 3e
       0.38194317 -0.7094201 -0.013875343 0.2520084
000120 1c 99 32 3f 01 40 cb bd 46 2e c6 bd 72 32 cf bc
       0.69764876 -0.09924317 -0.09676795 -0.025292609
000130 85 7e 4a 3e 59 bf c2 3d 04 93 f4 bd 16 b3 7e bd
       0.19774826 0.09509153 -0.119421035 -0.06218251
000140 df 6a be 3e 3e cb 0b 3c 0f db 6e 3e a9 cf d1 3e
       0.3719091 0.008532343 0.23325752 0.40978745
000150 03 d3 fc be b0 55 14 bf 9a 84 bb be 62 a5 9e bd
       -0.4937974 -0.5794325 -0.36624604 -0.07746388
000160 09 a8 ca 3e 30 c0 7e be f1 89 7c be 36 d7 cc bc
       0.39581326 -0.24878001 -0.24661995 -0.025004964
000170 4d 7f 1c bf b2 b4 7f be f3 75 d0 be 12 f6 e7 be
       -0.61131746 -0.24971274 -0.40714988 -0.45304924
000180 61 66 7e 3e 1d a5 65 be 68 03 b7 be fc 17 19 3f
       0.24843742 -0.22426267 -0.35744786 0.5980222
000190 27 86 3d 3e b0 2e e6 be 53 0f ce 3e 59 63 17 bf
       0.18508206 -0.44957495 0.40246066 -0.5913597
0001a0 7e 62 1a bf 4d b7 09 3f 6f 52 70 bc ca 83 b2 be
       -0.6030654 0.5379532 -0.014668091 -0.34866172
0001b0 03 e5 5d be 6e 14 19 3d 97 33 96 be 19 32 b6 3e
       -0.21669392 0.037373 -0.29336235 0.35585096
0001c0 2f 3c a3 3c 0a b8 7b 3d 45 c1 09 3d 9f da 3b 3d
       0.019926159 0.06145481 0.03363158 0.04586279
0001d0 04 eb 69 3c f8 12 35 3c 1e dc e5 bb 69 eb ac 3a
       0.0142772235 0.011051886 -0.0070147654 0.0013192716
0001e0 e4 0c cd bc 8b ed 56 3c bf 78 3b 3d 10 a9 6b bd
       -0.02503056 0.013118158 0.04576945 -0.057534277
0001f0 e2 50 37 bc 46 bf 16 3c 10 2b b0 3c c3 e4 c8 3c
       -0.011188718 0.009200877 0.021504909 0.024523145
000200 a4 e8 01 3e 03 03 a4 3e 07 3d a4 3e 96 f9 d5 be
       0.12686402 0.32033548 0.3207781 -0.4179198
000210 af 06 18 3f 7b f6 47 3b 10 bc 57 3e e5 03 b2 be
       0.593852 0.0030511904 0.21067834 -0.34768596
000220 4e c1 9e be 63 d6 86 be 85 6d c9 3e 0d f3 e0 bd
       -0.31006855 -0.2633544 0.3934137 -0.10983858
000230 02 4c 12 3e e0 59 22 be 2e 4a ba bd cd 8c 85 be
       0.14286807 -0.15854597 -0.0909618 -0.26083985
000240 cc 29 0d bf 1f d7 4b 3d c1 63 07 3f 00 2b a7 3d
       -0.551419 0.049765702 0.5288659 0.081624985
000250 1d 6c e6 be 82 ed 93 3e a7 48 05 bf 08 61 47 bf
       -0.4500436 0.28892142 -0.52063984 -0.7788243
000260 63 d2 77 be b9 20 fb 3e 3e 24 c7 3e 69 fe 7a bd
       -0.2420135 0.49048403 0.38894838 -0.06127778
000270 7f fa 6f be 01 18 e1 bc 8b 9f 0c be 64 07 88 bf
       -0.234354 -0.027477266 -0.13732736 -1.0627255
000280 92 8c 40 3f 92 4d c6 3d ac c8 3e 3e 3b 54 19 be
       0.75214493 0.09682764 0.18631238 -0.14973538
000290 05 76 4c bf 86 e2 2f bf e5 92 3d bf 15 01 bd bb
       -0.79867584 -0.6870502 -0.7405227 -0.0057679513
0002a0 e1 ad c6 3e 24 a4 9b 3e 53 5d 2c 3f 04 88 bb 3e
       0.38804534 0.30398667 0.673299 0.3662721
0002b0 19 99 a2 3b 97 f6 d7 3e b7 c9 e4 bc ce df e1 be
       0.0049620983 0.4218032 -0.027928216 -0.44116062
0002c0 17 03 a9 3d 09 63 5a 3e 2e 85 a1 3e 02 5c 89 3d
       0.082525425 0.21326841 0.3154692 0.06707002
0002d0 41 2f 48 3e 96 40 23 bf 9f 96 d1 3e 40 14 4a be
       0.19549276 -0.63770425 0.40935227 -0.19734287
0002e0 d1 a9 2c bd 77 89 f5 3e 08 da f9 3d 31 22 f6 be
       -0.042154137 0.4795644 0.12199789 -0.4807296
0002f0 3b 78 89 3e 6b 67 65 3d 99 f6 b4 3c 59 a5 b3 3e
       0.2684954 0.05600683 0.022090243 0.35087088
000300 3c fb c0 be 7a 00 59 3e 9c 2f 58 3e de 5a 13 3f
       -0.37691677 0.21191588 0.21111912 0.5756053
000310 54 3c 1f 3e ed 37 66 be 70 3a b7 be 28 46 c3 be
       0.15550357 -0.22482271 -0.35786772 -0.38139462
000320 f1 57 de be 1b d9 a9 3e 2c 95 52 3e e0 2d 9c 3d
       -0.4342647 0.3317345 0.20564717 0.076259375
000330 df d5 a1 be e7 d9 06 bf cb 47 80 3e d6 c5 b8 bc
       -0.31608483 -0.5267624 0.25054774 -0.022555273
000340 7b ab aa be 01 44 0a bf 41 65 c6 3e 75 d4 61 be
       -0.33333954 -0.54010016 0.38749126 -0.22053702
000350 05 8b 64 3e f0 91 21 bf 76 bc 0e 3f 13 c3 a1 3d
       0.22318657 -0.6311331 0.5575632 0.078985356
000360 72 d0 b6 3e ac 88 f7 3e c6 3d d2 be 80 3c f4 be
       0.35705906 0.4834646 -0.41062754 -0.47702408
000370 dd 51 b1 3e 6d c5 b0 3e b3 f5 76 be 07 e3 4b 3e
       0.3463277 0.34525624 -0.24117164 0.19910823
000380 d8 cf 5f bf 1d be 56 3d 18 ad c6 3e 17 85 cd be
       -0.8742652 0.0524274 0.38803935 -0.40140602
000390 cc 41 24 bf e8 10 5a 3e a9 02 f6 bd 5a c8 a7 be
       -0.641629 0.21295512 -0.12012226 -0.32770044
0003a0 1d 98 f3 be e2 b8 0e 3f 98 87 b1 3d 7f 3d b5 3d
       -0.4757699 0.5575086 0.086684406 0.0884962
0003b0 c5 b3 e0 3d bb 9a 1e 3e f1 a4 b7 3c b6 1a a9 bf
       0.10971788 0.15488712 0.022417517 -1.3211277
0003c0 9e 18 c1 bc 92 8b 86 3d 72 85 5e bd 02 87 04 3f
       -0.023571309 0.0656959 -0.054326482 0.51768506
0003d0 d0 3d f8 be a7 c4 87 3e 94 74 3c 3e 24 25 4b bf
       -0.4848466 0.2651722 0.18403846 -0.7935355
0003e0 cb 10 1f bf 70 a4 74 3e 83 a2 ab 3e b0 04 ba be
       -0.62135 0.23890853 0.33522424 -0.363317
0003f0 23 9f c8 bd 69 8a 0e bd 19 67 76 bd 74 93 20 bf
       -0.09795978 -0.034799967 -0.060156915 -0.62724996

fc_layers.0.bias f4 [64]
000000 4e 6d 77 3e b5 3e 12 3e b9 38 37 3e 2e 2d 38 bf
       0.2416279 0.14281733 0.17892732 -0.7194394
000010 0c 37 7a 3e 8f 16 1e bf bb 35 fa be 81 78 02 be
       0.24435061 -0.6175317 -0.48869118 -0.12741281
000020 5b b9 e4 be c8 0a 43 be 92 16 4c bf 51 aa ae 3e
       -0.44672665 -0.19047081 -0.7972194 0.34114316
000030 aa 1c be bc 89 ea 7e be 55 23 1d 3e bf a6 d4 be
       -0.023207027 -0.24894156 0.1534551 -0.41533467
000040 1f 26 1d be 7b 7c e2 3e d6 fa bc be 22 26 d3 be
       -0.15346573 0.44235596 -0.36910123 -0.4124003
000050 f3 e0 9b 92 aa ec 5e be 86 85 6c 3e 3e 3d 01 3f
       -9.8373295e-28 -0.21769968 0.2309781 0.50484073
000060 52 13 f1 be 5b c4 d6 3e 04 10 03 3f 6d 04 0c 3f
       -0.47085053 0.41946682 0.5119631 0.54694253
000070 f4 31 b5 be e7 aa 9a be c0 18 0e 3f c3 9c 4e bf
       -0.35389674 -0.30208513 0.55506516 -0.8070795
000080 94 d9 8b be 2f c1 0b 3f b1 20 a6 be e4 00 e3 3e
       -0.27314436 0.5459165 -0.32446817 0.44336617
000090 78 a9 d4 3d 7e 9d 1d be 8f d0 59 be bb 99 fb be
       0.10383886 -0.1539211 -0.21270965 -0.49140725
0000a0 21 d7 ea be be 17 04 3f 3a c5 dd be 0a 22 ff 3e
       -0.45867255 0.5159873 -0.43314534 0.49830657
0000b0 4e 3f 11 3f b8 d4 f7 3e 08 e1 64 be 01 29 b5 be
       0.5673722 0.4840448 -0.22351468 -0.35382846
0000c0 42 f5 ba be bb cf 2b bf 06 94 ea be 07 88 2f bf
       -0.36515242 -0.67113847 -0.45816058 -0.68566936
0000d0 1a 7b 21 bf 4b eb f6 be 71 55 a1 be 01 1f 86 bb
       -0.63078463 -0.4822639 -0.315105 -0.0040930514
0000e0 38 5a cc 3e f7 d7 11 bf 97 6f b8 be 44 79 e8 be
       0.3991258 -0.5697016 -0.36022636 -0.45405018
0000f0 77 ed 11 be 56 fd 02 3f 9a f3 32 bf 2f 13 34 3e
       -0.14250742 0.5116781 -0.69902956 0.17585443

fc_layers.1.weight f4 [32, 64]
000000 92 e9 b2 3e d4 d1 31 3e a1 bf 8b bd de 77 14 3f
       0.34943825 0.173652 -0.0682366 0.579954
000010 55 74 f1 ba 62 51 03 3e 71 aa 11 3f 5b 44 87 3b
       -0.001842151 0.12824014 0.569007 0.0041280217
000020 bb 63 5f be 80 a4 25 3e ab 19 6e 3f ad 1f 6e 3d
       -0.21815388 0.16176033 0.93007916 0.058135677
000030 b1 3d d7 3d d9 18 36 3f e9 67 21 3e fd 15 25 3d
       0.105098136 0.71131665 0.15762295 0.040304173
000040 41 72 23 3e 85 6d 9b 3e b3 5d 67 3c bc da ef 3e
       0.15961553 0.30356994 0.014121461 0.4684657
000050 48 99 85 81 2f a0 7c be 17 4a 29 3e 54 06 93 3e
       -4.907643e-38 -0.2467048 0.1653217 0.28715765
000060 e2 5d 2b bf b6 7c e1 3d 2d a1 af 3e 93 9e af 3d
       -0.6694013 0.11010115 0.34302655 0.085751675
000070 f6 0f 69 bd 87 e2 0f bf 44 2f 01 3e 85 0d 1e 3f
       -0.056899987 -0.5620503 0.12615687 0.6173938
000080 76 e0 d3 bd 3d 9b 3f 3e 78 6d 64 be 9c 8c 10 3d
       -0.10345547 0.18711562 -0.22307384 0.035290346
000090 df 55 51 3e c9 6f 88 bd 84 a7 e5 be 50 90 2e bf
       0.20442913 -0.06661946 -0.44854367 -0.68188953
0000a0 ca 90 ce 3e 2e b3 aa 3d 6d cc 1f bf 2d 2e 95 3d
       0.4034484 0.08334957 -0.62421304 0.07284198
0000b0 85 71 d9 3d 77 c1 8f 3d 64 fe 33 bf 86 e7 24 3e
       0.10617355 0.07019322 -0.70310044 0.16103944
0000c0 fa 48 00 bf 22 88 53 bf 0d 00 da be 3a 77 46 bf
       -0.50111353 -0.826296 -0.42578164 -0.77525675
0000d0 45 c0 30 bf d6 0f 2d bf 8d 4f 21 3e c4 95 ca b6
       -0.6904338 -0.6760229 0.15753002 -6.037504e-06
0000e0 2a 75 b4 3d 93 dd 05 bf 28 73 45 3f 39 71 68 bf
       0.0881141 -0.5229122 0.7712884 -0.90797764
0000f0 fe 8f 0a 3f 70 09 e7 3d 93 74 61 bf 03 07 f6 3e
       0.54125965 0.11281097 -0.88068503 0.48052225
000100 51 9c 9d 3e bc 47 5d 3e d1 bd 4d bb aa 4a 1c 3f
       0.30783322 0.21609396 -0.0031393657 0.6105143
000110 8e af 38 3d 17 2c 65 3e 42 25 35 3f fa 0f 81 3c
       0.045089297 0.223801 0.70759976 0.015754689
000120 cd 8e 21 be 1d 09 74 3e 31 08 74 3f 46 95 17 3e
       -0.1577713 0.23831601 0.95325 0.14803037
000130 c1 a6 14 3e de 77 5f 3f ae 6e 45 3e d4 91 21 3e
       0.14516737 0.8729228 0.19280502 0.15778285
000140 e1 58 35 3e 3f 28 90 3e 6b 20 7d bd ef 52 0b 3f
       0.17709686 0.28155705 -0.061798494 0.5442342
000150 bb 67 41 80 a9 07 8c be cb 92 4d 3e b3 a8 5b 3e
       -6.006519e-39 -0.27349594 0.20075528 0.21451072
000160 4a 15 38 bf 38 73 03 3e ee 5b ad 3e 2e f4 ba 3d
       -0.71907485 0.12836921 0.338592 0.09128605
000170 92 aa dd bd 68 44 13 bf 71 63 d6 3d 82 19 26 3f
       -0.10823549 -0.57526255 0.10468186 0.6488267
000180 24 47 cf 3c cb 35 1a 3e 9c 53 60 be 51 67 6c 3d
       0.025302477 0.15059583 -0.21906894 0.057715718
000190 39 41 4f 3e 8e 9f 3b bd 02 9d 10 bf 7f a9 3e bf
       0.20239724 -0.04580646 -0.56489575 -0.7447738
0001a0 88 ee e2 3e b7 5c c6 3d b3 20 25 bf 92 35 d8 3d
       0.4432261 0.09685653 -0.6450302 0.10557093
0001b0 98 9f 45 3e a2 10 a8 3d 97 f4 21 bf 86 09 28 3e
       0.19299161 0.082062975 -0.6326384 0.16409883
0001c0 a4 f7 06 bf 90 56 57 bf 90 3e e3 be 23 eb 3d bf
       -0.5272162 -0.8411646 -0.4438367 -0.74186915
0001d0 99 d5 48 bf f5 e7 44 bf 5f 49 92 3e c1 d2 c7 b8
       -0.78450924 -0.7691644 0.28571603 -9.5283154e-05
0001e0 a3 c3 e6 3d ca 82 08 bf f7 d4 4c 3f 43 e2 63 bf
       0.112677835 -0.5332457 0.8001246 -0.89017123
0001f0 56 72 24 3f 92 f4 17 3e 15 31 6d bf d9 ea ed 3e
       0.6423696 0.1483939 -0.9265302 0.46468237
000200 26 b2 76 8b 8f 56 e6 8a f4 49 f7 8b 3f fc 07 0b
       -4.75119e-32 -2.2180754e-32 -9.525221e-32 2.6189823e-32
000210 7c 92 ad 8b 87 97 55 0a 24 f2 fd 89 e4 1a 37 07
       -6.685758e-32 1.0284076e-32 -6.1135242e-33 1.3775292e-34
000220 3c ca 3f 8a 5a 5d ff 87 d4 70 0e 0b 07 27 b7 8b
       -9.2343515e-33 -3.8423003e-34 2.7433088e-32 -7.054776e-32
000230 c3 26 31 8b 7e 4c cb 09 fc 66 27 8b 7d b1 9f 89
       -3.411812e-32 4.8942405e-33 -3.2240507e-32 -3.8444767e-33
000240 a8 be ce 0a 70 14 a5 8b dd 32 b7 89 1a e7 0f 8a
       1.9908795e-32 -6.358644e-32 -4.410348e-33 -6.928665e-33
000250 90 93 85 81 55 c8 4f 0a 12 72 a5 8b d5 0f 05 8c
       -4.9068226e-38 1.0004366e-32 -6.372732e-32 -1.0250712e-31
000260 48 85 b6 8a 28 14 e0 8b d3 93 85 8b 20 c1 f7 8b
       -1.7576097e-32 -8.631199e-32 -5.145216e-32 -9.543152e-32
000270 20 8c 81 8a 7e 44 1f 8a 8a 57 f7 8b d8 9f 86 0a
       -1.2474957e-32 -7.6684535e-33 -9.5272653e-32 1.2963857e-32
000280 34 5c 67 0a 79 59 ff 8b 03 f1 0b 8a ad 45 ca 8b
       1.1139587e-32 -9.835705e-32 -6.737936e-33 -7.7912406e-32
000290 4c 89 68 89 1e a4 0b 89 d5 bf cd 88 20 81 b6 88
       -2.799054e-33 -1.6808684e-33 -1.2383088e-33 -1.0984084e-33
0002a0 52 84 8f 86 b3 b0 d9 8b 90 7e 38 8a 45 2d e0 8b
       -5.398505e-35 -8.3851227e-32 -8.8830815e-33 -8.6349776e-32
0002b0 c5 bf ed 8b d7 6d ce 8b 0a 63 41 0b 34 c3 f4 08
       -9.157762e-32 -7.951358e-32 3.7244957e-32 1.4731108e-33
0002c0 ce 4e 28 89 27 ac 89 07 41 c7 0f 09 f6 26 93 0a
       -2.0259318e-33 2.071465e-34 1.7306688e-33 1.417024e-32
0002d0 3d aa 66 0a 49 5b 6f 87 47 7e 91 0a a0 46 9f 81
       1.11061154e-32 -1.8007188e-34 1.4010492e-32 -5.850872e-38
0002e0 8c b9 a4 8b 25 a5 19 8a 08 d0 62 0b 2f 5a e7 09
       -6.344968e-32 -7.397742e-33 4.3682522e-32 5.5696035e-33
0002f0 98 58 f9 8a c5 3d e8 8b 1e 01 2d 0a d7 8a ba 8b
       -2.4011153e-32 -8.945609e-32 8.329857e-33 -7.1853497e-32
000300 64 21 80 82 2c 83 c6 82 9e 6d 88 82 f0 b5 85 01
       -1.8827075e-37 -2.9168774e-37 -2.0046321e-37 4.911755e-38
000310 60 30 95 00 b8 d0 85 01 bd 4d a4 84 40 d2 85 81
       1.3700843e-38 4.915598e-38 -3.8627606e-36 -4.915818e-38
000320 a0 e1 42 81 c4 69 45 82 d0 05 72 01 94 4c 29 82
       -3.579405e-38 -1.4503627e-37 4.445255e-38 -1.2438136e-37
000330 5c 97 2d 82 90 d1 1f 81 4e bf a6 82 60 bf 18 80
       -1.2753471e-37 -2.9354041e-38 -2.4501311e-37 -2.272704e-39
000340 20 41 b7 00 a0 b5 fd 81 99 af 5e 84 80 f4 ea 00
       1.6829258e-38 -9.319814e-38 -2.6176605e-36 2.1577216e-38
000350 56 a3 8d 81 40 b9 4c 80 c4 be 6f 82 94 1e 1f 82
       -5.2029595e-38 -7.045953e-39 -1.7613694e-37 -1.1690251e-37
000360 57 08 01 83 c0 d8 06 80 71 4f 42 84 15 1c 43 83
       -3.7919266e-37 -6.28768e-40 -2.2841068e-36 -5.7337586e-37
000370 c0 5c f4 00 a0 db 21 81 78 28 da 81 20 34 44 81
       2.2441133e-38 -2.9728603e-38 -8.013862e-38 -3.6036912e-38
000380 60 8d ba 00 5c f2 23 82 d0 80 0a 01 8c 26 d2 83
       1.7132118e-38 -1.2044902e-37 2.5439015e-38 -1.2351541e-36
000390 54 f5 5f 82 d0 e4 85 81 30 0c 81 81 50 8a 61 81
       -1.6453858e-37 -4.9184814e-38 -4.7404604e-38 -4.1425208e-38
0003a0 80 ae 5f 81 c0 cd e0 80 10 26 78 01 af 53 2e 83
       -4.108383e-38 -2.064496e-38 4.5577715e-38 -5.123007e-37
0003b0 30 ba ca 81 80 f6 dc 80 90 ee 61 01 04 ec 94 82
       -7.4470247e-38 -2.0292237e-38 4.1497133e-38 -2.1882112e-37
0003c0 80 dd 13 82 48 e3 85 81 b0 b6 85 81 07 1e f1 84
       -1.0863422e-37 -4.9182617e-38 -4.911863e-38 -5.6686403e-36
0003d0 ca 47 cc 84 e8 88 85 81 a0 4e 63 00 80 b8 85 01
       -4.8026097e-36 -4.9052935e-38 9.11992e-39 4.912123e-38
0003e0 50 fb 37 81 c0 ed a6 00 60 4c 4b 81 00 3d 5a 81
       -3.37921e-38 1.5329981e-38 -3.7340008e-38 -4.0084042e-38
0003f0 af de ed 83 c0 6f bd 00 38 d8 85 81 26 53 ef 84
       -1.3980734e-36 1.7396997e-38 -4.916674e-38 -5.626499e-36

fc_layers.1.bias f4 [32]
000000 ee f9 2a bd f7 ce e8 3c ee 9a 5b 8c 05 11 ff 84
       -0.041742258 0.028419001 -1.6917769e-31 -5.9965842e-36
000010 58 5b 80 3a 6d a6 ed 8b f9 51 c2 bc ad 74 63 87
       0.0009792848 -9.153949e-32 -0.023720728 -1.711187e-34
000020 b2 8e ac bd 48 ba 0b b9 4b ff e7 8d a8 82 be 94
       -0.084256545 -0.00013325468 -1.4297934e-30 -1.9236632e-26
000030 ba 80 ae 85 28 ff e2 81 a6 ad 24 8d 10 4a dd 81
       -1.6410168e-35 -8.338542e-38 -5.0745423e-31 -8.1288853e-38
000040 4e ca d3 bd 70 ed c0 85 f2 ef 32 3c 7f 82 c3 88
       -0.10341321 -1.8142814e-35 0.010921465 -1.1766815e-33
000050 b9 35 c4 94 1a 7e d2 8c 20 b2 85 81 2d 8b db 8a
       -1.9812132e-26 -3.2431518e-31 -4.911208e-38 -2.1141285e-32
000060 a1 cc 00 87 09 62 07 83 eb 0a 9a 3e 6c 76 ab 81
       -9.689785e-35 -3.9785473e-37 0.30086455 -6.2985406e-38
000070 94 38 07 82 d2 cd c2 3d 6f 32 be 9a 72 83 95 83
       -9.934471e-38 0.09511913 -7.866364e-23 -8.787611e-37
