checkpoints/neumf_first_try_Epoch11_HR0.6740_NDCG0.3958.model (torch, 645108 bytes, 13 tensors)

embedding_user_mlp.weight f4 [6040, 8]
-0.25283954 0.44618526 0.44918522 0.29734144 -0.33157957 -0.33173037 -0.16714998 -0.33612904
-0.09009209 0.104328476 0.09821672 0.11191733 0.062762335 -0.065636076 0.17195256 0.18412846
-0.13123405 0.34747025 0.37688717 0.21714249 0.035125405 -0.41625193 -0.26413816 -0.10383789
-0.3529871 0.74872786 0.73667705 0.4165389 -0.30653444 -0.47019812 -0.16966228 -0.34427086
-0.47673666 0.022257587 0.0069477716 -0.019967629 -0.30991033 -0.10551575 -0.42113405 -0.42968917
-0.124330096 0.056550737 0.06825631 0.17221354 -0.2075192 -0.23644142 -0.28661117 -0.20036724
-0.2723152 0.5212156 0.45045537 0.568716 -0.20275936 -0.5285706 -0.39374626 -0.103182904
-0.20428167 0.24178794 0.23914713 0.12405473 0.5100672 -0.14488809 0.091449514 0.067284994
-0.16613455 0.3620167 0.3679365 0.2548276 -0.29307392 -0.33987448 -0.19086169 -0.17008433
-0.12194716 -0.060209244 -0.03368955 -0.042328857 -0.15098323 -0.01287461 0.0056735384 -0.04368859
0.07936056 0.20001768 0.20976794 0.15953176 0.067542076 -0.17341556 0.003355103 0.063269064
-0.21399197 0.05022891 0.05329503 0.29145095 0.21017186 -0.16807058 -0.04518905 0.01628669
-0.07954339 0.24718165 0.24999233 0.09074553 0.09340918 -0.15670982 0.002486267 0.015442719
-0.41277862 0.13582578 0.082205474 0.166488 -0.4417041 -0.15250853 -0.33990747 -0.38558906
-0.1881683 0.2201982 0.22088481 0.20681934 -0.34748077 -0.2971134 0.17309913 0.08614744
-0.19804174 0.08272939 0.08314334 0.29570115 -0.78381413 -0.47886384 -0.64911336 -0.60722625
0.019167589 -0.06288878 -0.037275556 0.11130726 -0.4007388 -0.15545884 -0.25311634 -0.25135258
0.29691496 -0.06223147 -0.025219152 -0.18704091 0.15089206 0.14813925 0.5384836 0.28672317
-0.21691544 0.028031684 0.029104158 -0.3025844 -0.32377252 0.22216484 -0.14202908 -0.3065771
0.043798905 0.35948735 0.3379771 0.26939303 -0.34056506 -0.3315083 -0.17647086 -0.16369215
-0.62248474 0.06157636 0.029089108 0.1887768 -0.15620092 -0.10421828 -0.2892731 -0.35423505
0.20906751 0.03979087 0.015774872 0.07599073 0.25013962 -0.034757476 -0.009551807 0.19615167
-0.042470396 -0.1335869 -0.13194895 0.08798856 -0.2087722 -0.017601335 -0.13890041 -0.15092666
-0.33188978 0.05106937 0.032349184 0.09432818 -0.034669653 -0.06272076 -0.2526891 -0.27156916
-0.2772817 0.08203963 0.08053979 0.27626213 -0.43237576 -0.3057223 -0.44753262 -0.51863056
0.436518 -0.1097949 -0.13380909 -0.0027544051 0.26897067 0.06741232 0.034969132 0.32357988
0.09935019 0.23447981 0.21480078 0.24924657 -0.3618381 -0.31321594 -0.14519505 -0.03969072
0.023939248 -0.043336026 -0.026735365 0.32885286 -0.37421554 -0.3458497 -0.29732412 -0.19923663
-0.20548937 0.5464158 0.54926646 0.11670603 0.25521776 -0.17097595 0.024892656 -0.17881484
-0.2444312 0.30353537 0.30071375 0.25950742 -0.24455643 -0.27778354 -0.2575993 -0.2261409
0.062335547 0.29836714 0.29586402 0.3702721 -0.20258003 -0.5110889 -0.42000076 0.030395353
0.034299947 0.13288732 0.12814483 0.13204582 -0.541523 -0.24000841 -0.27782872 -0.20001683
00000000: 2f74 81be 6572 e43e 9bfb e53e 233d 983e
00000010: ccc4 a9be 90d8 a9be 5d29 2bbe 1b19 acbe
00000020: 3482 b8bd 2baa d53d d925 c93d ea34 e53d
00000030: 8a89 803d 356c 86bd 5514 303e 2c8c 3c3e
00000040: 3862 06be 9fe7 b13e 5bf7 c03e 9a5a 5e3e
00000050: a8df 0f3d f91e d5be 1e3d 87be f6a8 d4bd
00000060: baba b4be a1ac 3f3f de96 3c3f 9644 d53e
00000070: 15f2 9cbe cfbd f0be f3bb 2dbe 4544 b0be
00000080: d416 f4be 8b55 b63c 22aa e33b 2793 a3bc
00000090: 91ac 9ebe a418 d8bd e29e d7be 3800 dcbe
000000a0: c7a0 febd bfa1 673d f7c9 8b3d bf58 303e
000000b0: ea7f 54be b31d 72be b3be 92be 122d 4dbe
000000c0: e66c 8bbe 636e 053f 16a2 e63e 5f97 113f
000000d0: 26a0 4fbe 6750 07bf 1c99 c9be 8f51 d3bd
000000e0: 372f 51be 4297 773e fce2 743e 6810 fe3d
000000f0: c493 023f 8b5d 14be e249 bb3d b7cc 893d
00000100: 2d1f 2abe 415a b93e 2c62 bc3e c378 823e
00000110: c90d 96be 0704 aebe 3f71 43be 962a 2ebe
00000120: 6fbf f9bd f89d 76bd 0efe 09bd 0661 2dbd
00000130: 599b 1abe 07f0 52bc 17e9 b93b cff2 32bd
00000140: ca87 a23d 6fd1 4c3e 68cd 563e 4b5c 233e
00000150: 8053 8a3d d993 31be 4ae1 5b3b 3693 813d
00000160: b620 5bbe d4bc 4d3d e44b 5a3d 0f39 953e
00000170: 4b37 573e b21a 2cbe 2718 39bd aa6b 853c
00000180: a5e7 a2bd 301d 7d3e fdfd 7f3e cbd8 b93d
00000190: 504d bf3d 8a78 20be a3f0 223b 7503 7d3c
000001a0: b857 d3be ea15 0b3e 585b a83d d57b 2a3e
000001b0: 0a27 e2be 322b 1cbe 5a08 aebe ee6b c5be
000001c0: 31af 40be a37b 613e a12f 623e 73c8 533e
000001d0: 00e9 b1be 3f1f 98be e640 313e 126e b03d
000001e0: 74cb 4abe 076e a93d 0e47 aa3d 2466 973e
000001f0: 0ba8 48bf a42d f5be 4b2c 26bf 2e73 1bbf
00000200: 5905 9d3c d5cb 80bd 41ae 18bd 10f5 e33d
00000210: a32d cdbe 9a30 1fbe 7798 81be 49b1 80be
00000220: 3d05 983e 6de6 7ebd 6598 cebc a787 3fbe
00000230: 7383 1a3e d1b1 173e 10da 093f 61cd 923e
00000240: 151f 5ebe b4a2 e53c d86b ee3c 58ec 9abe
00000250: 83c5 a5be 2e7f 633e 1270 11be acf7 9cbe
00000260: 7b66 333d ba0e b83e 560b ad3e e2ed 893e
00000270: 8b5e aebe 75bb a9be c7b4 34be ea9e 27be
00000280: 295b 1fbf 7e37 7c3d 484c ee3c b54e 413e
00000290: 22f3 1fbe 6570 d5bd 9b1b 94be 4c5e b5be
000002a0: cb15 563e c0fb 223d 4e3a 813c 07a1 9b3d
000002b0: 4d12 803e db5d 0ebd 2f7f 1cbc fcdb 483e
000002c0: 70f5 2dbd 01cb 08be a01d 07be 5933 b43d
000002d0: 61c8 55be ad30 90bc e93b 0ebe 858c 1abe
000002e0: 75ed a9be 1e2e 513d 9480 043d 222f c13d
000002f0: c401 0ebd be73 80bd 7760 81be 1d0b 8bbe
00000300: def7 8dbe 6504 a83d 0cf2 a43d 3b72 8d3e
00000310: 5b60 ddbe a287 9cbe ff22 e5be f9c4 04bf
00000320: 4a7f df3e 26dc e0bd 4005 09be 4083 34bb
00000330: 86b6 893e 780f 8a3d cb3b 0f3d 43ac a53e
00000340: 1d78 cb3d 7a1b 703e bcf4 5b3e 7e3a 7f3e
00000350: d842 b9be d75d a0be 03ae 14be bd92 22bd
00000360: 3e1c c43c 1e81 31bd 2004 dbbc 675f a83e
00000370: 2e99 bfbe 3613 b1be de3a 98be b004 4cbe
00000380: ce6b 52be e8e1 0b3f ba9c 0c3f 9203 ef3d
00000390: e7ab 823e 5214 2fbe afeb cb3c 3d1b 37be
000003a0: 2c4c 7abe fd68 9b3e 27f7 993e 28de 843e
000003b0: 006d 7abe a539 8ebe 0ee4 83be 7b91 67be
000003c0: 8f53 7f3d 94c3 983e 7d7b 973e 4e94 bd3e
000003d0: 2471 4fbe b9d6 02bf 570a d7be adff f83c
000003e0: 1a7e 0c3d 9d13 083e 6638 033e 0537 073e
000003f0: 40a1 0abf c4c4 75be 913f 8ebe 36d1 4cbe

embedding_item_mlp.weight f4 [3706, 8]
-1.0711424 -0.95457715 -0.60322034 0.8467137 1.2321081 0.8637328 -0.88690233 0.31127954
-0.6167106 -0.22805046 -0.15207739 0.12191685 0.23284322 -0.020671027 -0.18333878 0.3451024
-0.1706177 -0.07029953 -0.22930777 0.25617898 0.24384868 0.2637791 -0.2448016 0.1462678
-0.5513573 -0.5356692 -0.81014246 0.80893314 0.38977218 0.79241127 -0.7428893 0.54322124
-0.47554737 -0.9894235 -0.7146902 0.49870348 0.5017323 0.6928514 -0.5019159 0.6522165
-0.6853743 -0.7159192 -0.5112945 0.36548197 0.58294374 0.530425 -0.43681577 0.4669924
-0.045333136 -0.086703956 -0.08883834 0.006899904 0.09176547 0.072858356 -0.014758612 0.11909994
-0.22896981 -0.6665382 0.056625314 0.07156888 0.42729726 0.33950743 -0.07185386 0.106041595
0.06904471 -0.046465468 -0.18226637 -0.034043465 -0.07282585 -0.067014456 0.020662138 0.04279926
-0.2890962 -0.18999565 -0.2393589 0.36208633 0.3478646 0.349079 -0.35908583 0.14968702
-0.16611959 -0.21329105 -0.23643719 0.050661907 0.07875265 0.040734533 -0.074085616 0.12491287
0.059463497 0.15303852 -0.098691575 0.0074125077 -0.10776699 -0.05663207 0.006951118 0.11195771
0.016297845 0.014064452 -0.19406027 -0.0775237 -0.13179894 -0.15400508 0.032786164 0.0013670451
0.18023315 -0.14404345 -0.28127703 -0.08366182 -0.07465161 -0.008590873 0.106559195 0.1655032
-0.5438358 -0.11301143 -0.34917983 0.39945176 0.20557277 0.17958315 -0.45922506 0.3119922
-0.55473423 -0.18185969 -0.41225904 0.31358367 0.23460653 0.1117931 -0.40771767 0.29081383
0.09630279 -0.52411056 -0.016429443 -0.08369138 0.18604052 0.14047495 0.1343661 0.19508542
-0.03488319 0.0600898 -0.1005638 -0.13493225 0.011427684 -0.1411482 0.1121865 0.055719584
-0.25441968 0.07055403 0.00075804844 -0.05004915 0.1616822 -0.032406215 0.031380087 -0.026334733
-0.05103549 -0.10091056 -0.19592394 0.13388117 0.07510766 0.14247726 -0.1377522 0.16069238
-0.19895108 -0.10432431 -0.1807018 0.3154332 0.20852637 0.31451568 -0.3231522 0.05451148
0.19434531 -0.50944793 0.057511352 -0.042520076 0.24984084 0.304317 0.11644255 0.37748984
-0.53153664 -0.60399574 -0.5190544 0.53955066 0.59356797 0.6497041 -0.56728303 0.36222717
-0.8577586 -0.7755839 -0.56965137 0.8540391 1.0435818 0.9710907 -0.8581644 0.17690691
0.012993101 -0.39736882 -0.010263723 0.12892081 0.21268257 0.32251105 -0.09134482 0.07659533
-0.036323167 -0.052817076 -0.0082753515 -0.103306636 0.057825137 -0.011623018 0.12540747 0.11512783
-0.6545147 -0.8112645 -0.5570814 0.50107336 0.79347456 0.6482672 -0.557774 0.35677862
-0.6644907 -0.6662064 -0.44655252 0.59563684 0.7369619 0.83602285 -0.6096153 0.12279518
0.15193067 -0.093119256 0.112967044 -0.31639978 -0.090060584 -0.14335361 0.35165727 -0.055685654
0.06473585 -0.86785626 -0.012305207 0.07746223 0.5080291 0.5980167 -0.004354272 0.35861424
-0.08878306 -0.2926706 -0.22949925 0.019958382 0.1564475 0.06789657 -0.05067821 0.06096663
-0.08424452 -0.42563564 -0.038094077 0.34640083 0.4260261 0.66899323 -0.24865958 0.093661994
00000000: 321b 89bf 2b5f 74bf a66c 1abf 3bc2 583f
00000010: b8b5 9d3f 981d 5d3f 080c 63bf 0860 9f3e
00000020: bfe0 1dbf 0f86 69be 2dba 1bbe 8baf f93d
00000030: 746e 6e3e 4956 a9bc 29bd 3bbe 43b1 b03e
00000040: 68b6 2ebe 33f9 8fbd a8cf 6abe e429 833e
00000050: 78b3 793e 0e0e 873e 45ad 7abe 3ac7 153e
00000060: c125 0dbf 9e21 09bf 7f65 4fbf 3e16 4f3f
00000070: 3890 c73e 77db 4a3f fe2d 3ebf 8c10 0b3f
00000080: f27a f3be dc4a 7dbf f0f5 36bf 1056 ff3e
00000090: 8771 003f b65e 313f 8f7d 00bf a9f7 263f
000000a0: b174 2fbf 7b46 37bf 32e4 02bf 7420 bb3e
000000b0: cd3b 153f efc9 073f 51a6 dfbe a119 ef3e
000000c0: 3daf 39bd d891 b1bd e0f0 b5bd 9718 e23b
000000d0: 89ef bb3d c336 953d 1bce 71bc abea f33d
000000e0: 1077 6abe 3fa2 2abf f2ef 673d b492 923d
000000f0: b5c6 da3e ebd3 ad3e 1e28 93bd 562c d93d
00000100: 5067 8d3d 9352 3ebd 09a4 3abe 2971 0bbd
00000110: b825 95bd e03e 89bd a543 a93c 474e 2f3d
00000120: 6b04 94be 388e 42be 801a 75be 6163 b93e
00000130: 4f1b b23e 7cba b23e 19da b7be 8e47 193e
00000140: 411b 2abe f868 5abe 971c 72be dc82 4f3d
00000150: 1249 a13d 41d9 263d 33ba 97bd 52d2 ff3d
00000160: ff8f 733d 21b6 1c3e cf1e cabd 9fe4 f23b
00000170: f1b4 dcbd 08f7 67bd 34c6 e33b 154a e53d
00000180: 0f83 853c 966e 663c bcb7 46be bfc4 9ebd
00000190: 4df6 06be 82b3 1dbe c94a 063d 6c2e b33a
000001a0: 0a8f 383e 2080 13be 8b03 90be e356 abbd
000001b0: f1e2 98bd bcc0 0cbc b53b da3d ac79 293e
000001c0: d338 0bbf 8972 e7bd b3c7 b2be f184 cc3e
000001d0: ab81 523e a5e4 373e 8c1f ebbe 71bd 9f3e
000001e0: 1003 0ebf 6d39 3abe 9e13 d3be 0a8e a03e
000001f0: b23c 703e c8f3 e43d 5fc0 d0be 8de5 943e
00000200: 663a c53d 1c2c 06bf 0a97 86bc 6366 abbd
00000210: 6881 3e3e aad8 0f3e 4497 093e 79c4 473e
00000220: ade1 0ebd b920 763d 65f4 cdbd ae2b 0abe
00000230: 2e3b 3b3c 2789 10be 09c2 e53d 383a 643d
00000240: 4c43 82be a27e 903d c5b7 463a 5600 4dbd
00000250: 0590 253e 61bc 04bd 6888 003d f0bb d7bc
00000260: 970a 51bd 32aa cebd 49a0 48be 2518 093e
00000270: 0bd2 993d 8fe5 113e ea0e 0dbe 8b8c 243e
00000280: d5b9 4bbe fca7 d5bd e509 39be 7680 a13e
00000290: f087 553e 3308 a13e 3574 a5be 6e47 5f3d
000002a0: 7502 473e 2e6b 02bf 0691 6b3d 8829 2ebd
000002b0: 47d6 7f3e 70cf 9b3e 6f79 ee3d 5946 c13e
000002c0: c912 08bf 779f 1abf c0e0 04bf fe1f 0a3f
000002d0: 12f4 173f 0253 263f 7639 11bf d775 b93e
000002e0: 1196 5bbf ab8c 46bf acd4 11bf 4ea2 5a3f
000002f0: 1794 853f 6699 783f aab0 5bbf 1627 353e
00000300: 04e1 543c ed73 cbbe 2d29 28bc d103 043e
00000310: 76c9 593e 2b20 a53e fe12 bbbd 03de 9c3d
00000320: 9ac7 14bd b856 58bd 5795 07bc 6e92 d3bd
00000330: 0dda 6c3d 796e 3ebc d16a 003e 24c8 eb3d
00000340: 468e 27bf 08af 4fbf e39c 0ebf 5846 003f
00000350: 2621 4b3f d7f4 253f 47ca 0ebf b0ab b63e
00000360: 101c 2abf 818c 2abf 88a2 e4be a87b 183f
00000370: 89a9 3c3f 9805 563f c00f 1cbf 0a7c fb3d
00000380: b793 1b3e 4fb5 bebd 445b e73d 27ff a1be
00000390: af71 b8bd 4acb 12be 6c0c b43e a416 64bd
000003a0: 3b94 843d d42b 5ebf c79b 49bc 85a4 9e3d
000003b0: 320e 023f 9f17 193f 48ae 8ebb 499c b73e
000003c0: e5d3 b5bd ecd8 95be da01 6bbe c37f a33c
000003d0: c633 203e 5b0d 8b3d f493 4fbd 25b8 793d
000003e0: 6488 acbd eaec d9be 8908 1cbd 735b b13e
000003f0: 1820 da3e 2443 2b3f 9ea0 7ebe dcd1 bf3d

embedding_user_mf.weight f4 [6040, 8]
0.005141039 0.08683144 -0.19941296 0.4788488 -0.023840385 -0.426106 -0.04662173 -0.7915544
-0.061141875 -0.29603583 -0.016494015 0.94411445 0.11036678 0.013403643 0.33329532 0.14835499
0.33472613 -0.34035778 -0.07790674 -0.02654937 0.07697682 0.61978775 0.26960465 -0.5440734
-0.07306088 -0.12091692 0.36704585 0.63268745 -0.2629122 0.7150622 0.37651956 -0.112083405
-0.063106515 -0.35770866 -0.03570156 0.2383784 -0.73547566 -0.46852857 -0.3860233 0.00839907
0.2673737 0.18747681 -0.39198902 0.4931654 0.6131006 -0.033490732 0.3975883 -0.20362931
0.5616492 -0.5065439 0.36683849 0.4949176 -0.38776916 0.4873715 0.14999509 -0.05130773
0.26754972 -0.52070516 0.21587174 0.6728568 -0.36458555 -0.6758573 -0.09102903 -0.12378926
0.1297417 -0.8375171 0.17021815 0.5473051 -0.054935914 -0.37267938 -0.32506183 -0.4301941
0.21326713 0.18627569 -0.556309 0.39569908 0.1282106 0.22680242 0.06135281 -0.53718096
-0.0015762284 -0.56007147 -0.3024124 -0.16418605 -0.22849588 -0.38399547 -0.029187763 -0.6635188
-0.3111972 -0.33781147 0.12387542 0.10105303 -0.08237253 0.41334972 -0.1777912 -0.49937454
0.35416484 0.088386945 -0.20158954 0.96457314 -0.062877566 0.46478593 -0.06871756 0.13860439
-0.19385706 -0.17828855 0.17778753 -0.2323082 -0.20381501 0.053937428 0.25564247 -0.30393004
0.65523 -0.72306687 0.24300265 0.1512494 0.075988814 -0.22577356 0.26281142 -0.41528746
0.62133783 0.10133435 -0.24568288 -0.039807405 0.22719386 -0.010710872 0.16584525 -0.009276108
0.06458051 -0.027348468 0.109744385 0.29562607 -0.58178353 0.30820593 -0.20680664 0.40353808
0.47054556 0.06886758 -0.20720993 0.79730034 -0.2871564 0.08581093 -0.112350166 -0.36572498
0.43680024 0.123012334 0.20355263 -0.055268466 -0.17577139 0.48929238 0.04786078 -0.5571571
0.3481454 -0.5116602 0.1352257 0.059644684 -0.34523335 0.23754054 -0.11668214 -0.12829503
0.51938534 0.24841028 0.031247457 0.06541665 -0.12326418 0.11619827 -0.4370055 -0.48428127
0.49477237 -0.4779366 -0.20101194 -0.14828643 -0.43337533 0.28633115 0.026324717 -0.3775881
-0.06337762 -0.11649522 -0.18542573 0.09786397 -0.7220067 0.46384612 -0.08954689 0.21553604
-0.038801737 -0.26565972 -0.6323003 0.25340775 -0.2696177 -0.095052615 0.29191592 -0.13181962
0.58582646 -0.25445712 -0.16292891 0.15208377 -0.22463728 0.40552163 -0.39785796 -0.14077891
0.48482934 -0.28678414 -0.5964361 -0.022781469 0.18020302 -0.19869861 0.6570564 -0.21624675
-0.41317096 0.14825809 -0.11583352 0.22792938 -0.05082443 0.28882244 -0.16376486 -0.3411302
-0.22752762 0.09234499 -0.28123382 0.30537754 -0.4624541 -0.16114064 0.08407993 -0.33658886
-0.008636314 -0.1446431 0.3511291 0.57817346 -0.2799966 0.8943392 0.4515126 0.29863116
-0.17975219 -0.14082101 0.19252749 0.18124592 -0.28897336 -0.42424497 -0.18379182 -0.2762578
-0.21976142 -0.04040831 -0.8422321 -0.30403593 0.52709156 0.5493026 0.1526055 -0.16308944
-0.1022147 -0.1987666 0.08815881 0.28665793 -0.31177858 -0.29670843 -0.040053304 -0.025037859
00000000: 2976 a83b afd4 b13d e932 4cbe ab2b f53e
00000010: e94c c3bc 912a dabe 6df6 3ebd 4fa3 4abf
00000020: e76f 7abd 0292 97be 751e 87bc 7cb1 713f
00000030: fa07 e23d f49a 5b3c afa5 aa3e 5fea 173e
00000040: 3961 ab3e 6043 aebe 928d 9fbd 107e d9bc
00000050: 06a6 9d3d 69aa 1e3f 9f09 8a3e 6548 0bbf
00000060: f1a0 95bd 4aa3 f7bd 6fed bb3e cef7 213f
00000070: 6e9c 86be 510e 373f 2cc7 c03e fc8b e5bd
00000080: fd3d 81bd 9725 b7be cd3b 12bd 7819 743e
00000090: 2248 3cbf fae2 efbe d9a4 c5be 419c 093c
000000a0: 35e5 883e ecf9 3f3e c9b2 c8be 2d80 fc3e
000000b0: 29f4 1c3f 942d 09bd b290 cb3e 3484 50be
000000c0: 3ec8 0f3f dcac 01bf 41d2 bb3e d765 fd3e
000000d0: ae89 c6be c288 f93e 5098 193e 0e28 52bd
000000e0: 47fc 883e ef4c 05bf 7b0d 5d3e 5840 2c3f
000000f0: f5aa babe fc04 2dbf 6e6d babd 3985 fdbd
00000100: 02db 043e 8567 56bf ab4d 2e3e 301c 0c3f
00000110: 7b04 61bd d5cf bebe 816e a6be 6742 dcbe
00000120: b362 5a3e 0ebf 3e3e 446a 0ebf 1299 ca3e
00000130: a449 033e e53e 683e 164d 7b3d b184 09bf
00000140: 7399 ceba d860 0fbf ccd5 9abe 6320 28be
00000150: d3fa 69be 0e9b c4be 2d1b efbc 5edc 29bf
00000160: 3d55 9fbe a0f5 acbe 65b2 fd3d e4f4 ce3d
00000170: eeb2 a8bd 93a2 d33e e50e 36be 05ae ffbe
00000180: 1855 b53e 3704 b53d 7d6d 4ebe 44ee 763f
00000190: f4c5 80bd 6cf8 ed3e cbbb 8cbd 4fee 0d3e
000001a0: 7782 46be 4691 36be ef0d 363e 33e2 6dbe
000001b0: e2b4 50be 7eed 5c3d 92e3 823e b89c 9bbe
000001c0: 27bd 273f e91a 39bf b0d5 783e 1fe1 1a3e
000001d0: 06a0 9b3d 2f31 67be 388f 863e 8fa0 d4be
000001e0: ff0f 1f3f 6288 cf3d 4b94 7bbe 170d 23bd
000001f0: 82a5 683e a77c 2fbc 56d3 293e d1fa 17bc
00000200: c942 843d e509 e0bc aac1 e03d 4d5c 973e
00000210: c4ef 14bf 2bcd 9d3e 1fc5 53be 8b9c ce3e
00000220: 59eb f03e 720a 8d3d d72e 54be e01b 4c3f
00000230: 2a06 93be a4bd af3d d817 e6bd 4e40 bbbe
00000240: 48a4 df3e e4ed fb3d 1a70 503e 3061 62bd
00000250: 6afd 33be 8884 fa3e aa09 443d d9a1 0ebf
00000260: 1d40 b23e 2afc 02bf 9b78 0a3e fc4d 743d
00000270: 6dc2 b0be d43d 733e 0cf7 eebd c65f 03be
00000280: 70f6 043f 445f 7e3e abfa ff3c 2af9 853d
00000290: ee71 fcbd 5cf9 ed3d 2fbf dfbe b7f3 f7be
000002a0: ce52 fd3e 1bb4 f4be 13d6 4dbe 66d8 17be
000002b0: 5fe3 ddbe ff99 923e efa6 d73c 3a53 c1be
000002c0: 20cc 81bd 0c95 eebd 3ee0 3dbe e86c c83d
000002d0: 6ed5 38bf 3d7d ed3e 5c64 b7bd 7bb5 5c3e
000002e0: 92ee 1ebd 8d04 88be 6fde 21bf a9be 813e
000002f0: 550b 8abe f2aa c2bd 0176 953e b9fb 06be
00000300: b9f8 153f 3448 82be d6d6 26be d9bb 1b3e
00000310: 5107 66be 88a0 cf3e 0ab4 cbbe 5928 10be
00000320: 8d3b f83e 5fd5 92be 09b0 18bf 34a0 babc
00000330: 2487 383e a677 4bbe d934 283f ca6f 5dbe
00000340: 258b d3be f8d0 173e 203a edbd 5266 693e
00000350: 472d 50bd 89e0 933e fab1 27be 9ea8 aebe
00000360: 00fd 68be 5f1f bd3d e1fd 8fbe 725a 9c3e
00000370: c9c6 ecbe 0d02 25be 1932 ac3d 6055 acbe
00000380: 547f 0dbc 521d 14be 32c7 b33e 2d03 143f
00000390: b75b 8fbe 6af3 643f a92c e73e 2fe6 983e
000003a0: f510 38be 6233 10be ed25 453e 8898 393e
000003b0: 51f4 93be a336 d9be ec33 3cbe aa71 8dbe
000003c0: 2309 61be 2f83 25bd 869c 57bf 99aa 9bbe
000003d0: 79ef 063f 189f 0c3f 9e44 1c3e eb00 27be
000003e0: f155 d1bd 7989 4bbe 9b8c b43d d4c4 923e
000003f0: 71a1 9fbe 2bea 97be ef0e 24bd 321c cdbc

embedding_item_mf.weight f4 [3706, 8]
0.42006063 -0.05657168 -0.07867163 0.18427798 0.16585761 0.10549946 0.24029522 0.40070382
-0.16444635 -0.46442166 0.13031006 0.13102078 0.18271194 -0.09074823 -0.510429 0.39386994
0.13634884 -0.86783385 0.23853508 0.4631358 -0.3379178 -0.23816049 0.13085508 0.21766366
0.030070337 0.29941413 -0.2669542 0.034797795 -0.3374311 -0.25745055 0.0810271 0.18338273
-0.30993342 0.14737722 0.3150576 0.14419563 -0.03880719 0.04542169 -0.20884 0.59824795
0.015693543 0.22362949 0.6383077 0.32076952 0.3299255 0.3843903 0.13735995 0.3518638
0.15067124 -0.27980965 -0.23064494 0.7020032 -0.25281885 0.5576208 0.24353485 0.2182434
0.1674573 0.09722117 0.43071985 -0.11049939 0.3539224 0.20000933 0.33145848 0.845837
-0.10919464 -0.89025897 0.27343822 0.47325593 0.08050283 0.049813066 -0.27773628 1.138461
0.22523625 -0.3646265 0.25626746 0.6300516 0.25438 0.24779543 0.18065886 0.97874194
-0.3537745 -0.50585765 0.26269406 0.6450762 0.19736534 -0.22273181 -0.3091059 1.0781667
0.35809198 -1.1250349 0.12983249 0.32372856 -0.65443563 -0.29722896 -0.14696772 0.090671726
0.26140645 -0.6107793 -0.12243602 0.4059387 -0.3344314 -0.19765587 0.29916435 0.69910115
0.110785715 0.43017116 0.94640744 -0.08155099 0.31823972 0.2729166 0.5628107 0.9307255
0.091978885 -0.50934094 0.19815826 0.10249754 -0.19803664 -0.06972845 0.11557562 0.5072107
0.17032512 0.28325182 0.6438178 -0.25938925 0.14265776 0.39601886 0.3715062 0.61646885
-0.2768722 -0.42228192 -0.062648796 0.27171296 -0.15113012 -0.13054927 -0.4019557 0.49316603
-0.081055954 -0.697296 0.15666334 0.38472265 0.022750186 -0.020392548 -0.20057613 1.0682752
0.060041744 0.08449066 0.04213368 0.461527 0.20049113 -0.61735296 0.3468307 0.43987206
-0.012870348 0.018222235 0.8315905 0.10066469 0.308139 0.3193638 0.45289716 0.64235455
-0.0627241 0.49148756 0.4992367 0.033251353 -0.018839136 -0.112296104 -0.030319024 0.46281305
0.21152067 -0.077199236 0.07255935 0.26806638 0.2230034 -0.046716522 -0.76438504 0.3545223
-0.042834222 0.106116995 0.74168354 0.22138484 0.42572105 0.5244259 0.4091057 0.55392486
0.18700303 0.28772077 -0.1364013 0.5846998 0.3244581 -0.18304776 0.22542728 0.5174009
-0.28484592 0.041815028 -0.033982385 -0.120626256 -0.43085012 -0.42276168 0.30393034 -0.2633792
-0.6005545 -0.74674374 0.113336645 0.3854101 -0.25509387 -0.42493835 -0.41243786 0.48336557
-0.1150208 -0.19829565 0.5051406 0.514719 0.5455106 0.22513528 0.22685128 0.5201036
-0.23261043 0.120653525 0.08634866 0.36620927 -0.033263355 -0.31350142 0.338042 0.17461275
0.49465385 -0.21590574 -0.5116564 0.122751124 -0.14680672 -0.9111048 -0.4627851 -0.24049532
0.22391997 0.015463415 0.33954546 0.18985236 0.24272838 -0.008514911 -0.880453 0.16107269
-0.39491865 -0.16146147 0.17004682 0.31598207 0.046617325 -0.121679455 -0.33896792 0.5599208
-0.0060576657 0.19185482 -0.2699296 -0.31823274 -0.06812386 -0.54707783 0.06760295 0.020450387
00000000: 3012 d73e b5b7 67bd 971e a1bd 5eb3 3c3e
00000010: 94d6 293e 1a10 d83d f30f 763e 0d29 cd3e
00000020: a064 28be adc8 edbe 0070 053e 502a 063e
00000030: d718 3b3e 35da b9bd 7aab 02bf 52a9 c93e
00000040: 089f 0b3e 5c2a 5ebf 8a42 743e 2320 ed3e
00000050: 9003 adbe 58e0 73be e0fe 053e 39e3 5e3e
00000060: 1156 f63c cf4c 993e 39ae 88be 2288 0e3d
00000070: c5c3 acbe 8fd0 83be 89f1 a53d afc8 3b3e
00000080: 98af 9ebe 0eea 163e 3b4f a13e 05a8 133e
00000090: 4af4 1ebd 180c 3a3d 27da 55be c726 193f
000000a0: bf8f 803c 21ff 643e 2268 233f e73b a43e
000000b0: ffeb a83e cece c43e 16a8 0c3e 7e27 b43e
000000c0: 9049 1a3e 3643 8fbe 302e 6cbe 7bb6 333f
000000d0: 7971 81be 3dc0 0e3f 3361 793e 337b 5f3e
000000e0: ed79 2b3e e51b c73d 5087 dc3e 814d e2bd
000000f0: 5135 b53e 3fcf 4c3e edb4 a93e c688 583f
00000100: 70a1 dfbd 03e8 63bf 1800 8c3e 9a4e f23e
00000110: abde a43d c908 4c3d 7333 8ebe 17b9 913f
00000120: 55a4 663e 53b0 babe 7d35 833e 104b 213f
00000130: 183e 823e 16be 7d3e a3fe 383e d58e 7a3f
00000140: ee21 b5be e37f 01bf d67f 863e b723 253f
00000150: 241a 4a3e cf13 64be 2143 9ebe 5e01 8a3f
00000160: d557 b73e 2501 90bf cff2 043e c0bf a53e
00000170: 1889 27bf 652e 98be b57e 16be 19b2 b93d
00000180: 11d7 853e 085c 1cbf bcbf fabd 33d7 cf3e
00000190: 983a abbe 4d66 4abe 122c 993e 4bf8 323f
000001a0: 9fe3 e23d 653f dc3e c247 723f 3504 a7bd
000001b0: 51f0 a23e b9bb 8b3e 5d14 103f 0744 6e3f
000001c0: 6d5f bc3d 2b64 02bf 00ea 4a3e 3bea d13d
000001d0: 1eca 4abe cacd 8ebd e9b2 ec3d 8fd8 013f
000001e0: b569 2e3e 6206 913e 3ed1 243f abce 84be
000001f0: e014 123e fcc2 ca3e 1036 be3e e7d0 1d3f
00000200: 31c2 8dbe 5635 d8be 034e 80bd f61d 8b3e
00000210: dbc1 1abe b5ae 05be 23cd cdbe 4280 fc3e
00000220: aa00 a6bd fe81 32bf 5b6c 203e 5efa c43e
00000230: 995e ba3c 460e a7bc d463 4dbe 3ebd 883f
00000240: 55ee 753d 7009 ad3d 5e94 2c3d 444d ec3e
00000250: 8c4d 4d3e d80a 1ebf cb93 b13e e936 e13e
00000260: 27de 52bc cc46 953c 1de3 543f 4a29 ce3d
00000270: 65c4 9d3e a783 a33e 23e2 e73e 5971 243f
00000280: 7e75 80bd 42a4 fb3e f49b ff3e 9232 083d
00000290: 8854 9abc 80fb e5bd 9a5f f8bc d5f5 ec3e
000002a0: e098 583e a21a 9ebd ff99 943d ff3f 893e
000002b0: 015b 643e d359 3fbd bdae 43bf f283 b53e
000002c0: f072 2fbd de53 d93d f9de 3d3f b5b2 623e
000002d0: 1cf8 d93e c740 063f 4d76 d13e 05ce 0d3f
000002e0: b97d 3f3e 2350 933e c8ac 0bbe e3ae 153f
000002f0: 5f1f a63e df70 3bbe 69d6 663e 6374 043f
00000300: 53d7 91be 3c46 2b3d 1d31 0bbd e60a f7bd
00000310: 6398 dcbe 3874 d8be c29c 9b3e a3d9 86be
00000320: f1bd 19bf 992a 3fbf 0b1d e83d 7954 c53e
00000330: aa9b 82be 8591 d9be 0e2b d3be b17b f73e
00000340: 0690 ebbd 040e 4bbe e550 013f a0c4 033f
00000350: 95a6 0b3f dd89 663e b44b 683e 8225 053f
00000360: 6e31 6ebe 3219 f73d 91d7 b03d c87f bb3e
00000370: 283f 08bd 4283 a0be d713 ad3e afcd 323e
00000380: 4543 fd3e 6516 5dbe eafb 02bf f164 fb3d
00000390: 8054 16be 2a3e 69bf 2bf2 ecbe 6844 76be
000003a0: 474b 653e 435a 7d3c e7d8 ad3e a868 423e
000003b0: ca8d 783e 2082 0bbc 5e65 61bf 3df0 243e
000003c0: c732 cabe 2856 25be c120 2e3e 67c8 a13e
000003d0: cff1 3e3d 1433 f9bd 348d adbe f856 0f3f
000003e0: 627f c6bb 9775 443e 3634 8abe 67ef a2be
000003f0: 8684 8bbd 4b0d 0cbf 6a73 8a3d 9287 a73c

fc_layers.0.weight f4 [64, 16]
-0.49341553 -0.24200968 -0.24306107 0.4451028 0.037273727 -0.2978977 -0.42734247 -0.20791538
-0.096984155 0.028252102 0.10439209 -0.29763088 -0.34423158 -0.4574036 0.23967713 0.17944336
-0.6878385 0.10836387 0.02917938 -0.3356604 -0.34947896 0.16889821 -0.051445458 -0.27328858
-0.5338506 0.078355916 0.38829532 -0.11723301 0.33500376 -0.07643386 -0.0015913816 -0.7338666
0.41569453 0.22079644 0.12783308 0.2639702 0.43660378 -0.12232463 0.17571655 0.40507627
0.336087 -0.15939432 -0.020211313 -0.15204999 0.052359845 0.2140459 0.24222003 0.11756147
0.46856222 0.08925895 0.065662004 0.23727195 -1.0683179 -0.23403092 -0.16059247 -0.003263262
0.35287157 0.09080254 0.37939394 0.19576752 -0.16042212 0.198454 -0.17676483 -0.6999004
0.21208979 0.24621333 0.16202463 0.1403557 0.33025086 -0.091643915 0.02720577 0.19376314
0.41506717 -0.11407791 -0.001193151 -0.17086142 0.02214117 0.121635675 0.28438017 0.11935486
0.28870052 0.09475402 0.10006378 0.39465514 -0.83322823 -0.100104116 0.009555164 -0.19651526
0.26863274 -0.10053183 0.06661811 0.07519927 -0.22705145 -0.054514907 -0.19884846 -0.67657775
0.092244394 -0.08754577 -0.09160502 0.23188403 0.0684391 -0.1333735 -0.05083415 -0.044607364
-0.27556634 0.031710975 0.050689325 0.033250354 0.026598107 -0.069716915 -0.07667887 0.07780427
-1.0958611e-05 1.7491882e-05 1.4699844e-05 7.981569e-06 5.242219e-05 2.0915477e-06 3.824416e-05 1.057835e-05
-0.000215569 -1.4372072e-05 0.00016861662 0.00034258526 -0.00017704333 0.0004312567 -0.00022967876 -0.00035825375
2.2875076e-20 2.0341397e-18 2.0501806e-18 -3.9657556e-19 2.4225642e-20 1.25421e-18 2.3675719e-18 6.7023736e-19
-4.8137734e-19 -4.391444e-19 8.5364244e-20 -3.519992e-19 -3.1575492e-19 -5.3788143e-19 -3.132771e-20 1.592283e-20
-0.5790531 0.23565656 0.19918182 -0.19822839 -0.6298199 0.13956763 -0.17172405 -0.48164487
-0.16590244 0.3362934 0.2622192 0.009243924 -0.052188877 -0.13581245 -0.16983694 -0.83523136
0.65555686 0.10313648 0.07130008 -0.064282864 -0.96323806 -0.323906 -0.39662173 0.03518441
0.33097354 0.22093196 0.40802145 0.33496776 -0.02976426 0.3129109 -0.22034396 -0.65746003
-0.05093903 0.35472122 0.38447434 0.23436902 0.27299178 -0.16682775 0.14200719 0.016267603
0.1946297 0.47718665 -0.11482883 -0.017723069 -0.0733137 -0.23462628 0.031153984 0.23504041
-0.4119144 0.08789926 0.10789617 0.7382442 -0.026488563 -0.33687535 -0.1757353 -0.1495088
-0.10361084 0.3022007 -0.14900598 -0.19800042 -0.3893945 -0.6560922 0.11034212 0.2833826
0.008121014 0.19165112 0.31587148 -0.13935947 0.032300286 -0.053298067 0.22878967 0.08297973
0.17596655 0.30190605 -0.11201683 0.11111785 0.03118088 0.035458356 -0.07989084 0.051911566
-0.7596559 0.21519901 0.1679691 -0.40500495 -0.5890641 0.1826691 -0.11177727 -0.38730732
-0.42911094 0.32098502 0.3391776 -0.008202748 0.1924812 -0.07988244 -0.1320061 -0.9321117
-0.22645912 0.05363817 0.037781227 0.3235659 -0.74150425 0.033467386 -0.10066632 -0.41586226
-0.03513 0.082399756 0.10700917 -0.09254121 -0.08790421 -0.1618607 -0.100596435 -0.79693264
00000000: f6a0 fcbe 63d1 77be 00e5 78be 84e4 e33e
00000010: 56ac 183d 0c86 98be a2cc dabe c5e7 54be
00000020: a19f c6bd f470 e73c 85cb d53d 1363 98be
00000030: 1f3f b0be ce30 eabe ec6d 753e 00c0 373e
00000040: 2f16 30bf e0ed dd3d 9809 ef3c aedb abbe
00000050: e8ee b2be a7f3 2c3e 79b8 52bd 7bec 8bbe
00000060: 6faa 08bf 1179 a03d a5ce c63e dc17 f0bd
00000070: 9d85 ab3e 5b89 9cbd e895 d0ba aede 3bbf
00000080: ead5 d43e 7618 623e ade6 023e 1a27 873e
00000090: 888a df3e 5685 fabd 0aef 333e 2866 cf3e
000000a0: 9813 ac3e 4438 23be 3292 a5bc feb2 1bbe
000000b0: 4777 563d d92e 5b3e 8708 783e 11c4 f03d
000000c0: 63e7 ef3e 65cd b63d cd79 863d 6bf7 723e
000000d0: a4be 88bf cda5 6fbe 5a72 24be 74dc 55bb
000000e0: 95ab b43e aff6 b93d ec3f c23e 4877 483e
000000f0: b245 24be 8637 4b3e d701 35be ac2c 33bf
00000100: 112e 593e 591f 7c3e c9e9 253e 68b9 0f3e
00000110: a416 a93e ceaf bbbd a3de de3c d869 463e
00000120: af83 d43e aea1 e9bd 8163 9cba 4cf6 2ebe
00000130: 6661 b53c 201c f93d 479a 913e 5270 f43d
00000140: 8ed0 933e 650e c23d 3dee cc3d 3d10 ca3e
00000150: 724e 55bf 6303 cdbd 438d 1c3c 4c3b 49be
00000160: 3b8a 893e a2e3 cdbd 136f 883d 1302 9a3d
00000170: 2d80 68be 064b 5fbd ee9e 4bbe 3334 2dbf
00000180: a1ea bc3d 324b b3bd 6a9b bbbd 0273 6d3e
00000190: cd29 8c3d 1093 08be 7837 50bd 36b6 36bd
000001a0: 0817 8dbe 5ee3 013d 9c9f 4f3d 8631 083d
000001b0: 46e4 d93c bec7 8ebd d009 9dbd d857 9f3d
000001c0: e0da 37b7 88bb 9237 599f 7637 94e8 0537
000001d0: e6df 5b38 845c 0c36 5b68 2038 ab79 3137
000001e0: 5d0a 62b9 941f 71b7 aece 3039 049d b339
000001f0: b5a4 39b9 4b1a e239 ecd5 70b9 01d4 bbb9
00000200: 8a0c d81e d017 1622 d146 1722 ce18 eaa0
00000210: 02ce e41e b716 b921 2bb2 2e22 b4d1 4521
00000220: d813 0ea1 d09c 01a1 858f c91f 9dc8 cfa0
00000230: 8963 baa0 2cc1 1ea1 e1f0 139f 0a63 961e
00000240: d33c 14bf f44f 713e 52f6 4b3e 62fc 4abe
00000250: e13b 21bf d1ea 0e3e 6ed8 2fbe 289a f6be
00000260: 54e2 29be a62e ac3e 9841 863e d473 173c
00000270: 01c4 55bd 6b12 0bbe bce9 2dbe b9d1 55bf
00000280: 93d2 273f 3839 d33d c705 923d bca6 83bd
00000290: c596 76bf 02d7 a5be 0112 cbbe 871d 103d
000002a0: 5d75 a93e fd3b 623e 30e8 d03e e580 ab3e
000002b0: 2dd4 f3bc dc35 a03e d9a1 61be 4d4f 28bf
000002c0: 72a5 50bd 059e b53e d2d9 c43e 6ffe 6f3e
000002d0: 94c5 8b3e e5d4 2abe 556a 113e a343 853c
000002e0: 024d 473e cf51 f43e 612b ebbd f82f 91bc
000002f0: 7e25 96bd df41 70be a436 ff3c 6fae 703e
00000300: 72e6 d2be 8704 b43d abf8 dc3d 92fd 3c3f
00000310: 8bfe d8bc ed7a acbe f4f3 33be d618 19be
00000320: ec31 d4bd 0dba 9a3e 0695 18be 9fc0 4abe
00000330: b75e c7be a9f5 27bf 0dfb e13d 8617 913e
00000340: 000e 053c 3140 443e e8b9 a13e 40b4 0ebe
00000350: 4e4d 043d 134f 5abd d747 6a3e 47f1 a93d
00000360: 9330 343e 6e93 9a3e 1469 e5bd c191 e33d
00000370: 0b6f ff3c c83c 113d cf9d a3bd 39a1 543d
00000380: cf78 42bf 215d 5c3e 1700 2c3e cf5c cfbe
00000390: e8cc 16bf 9c0d 3b3e 7beb e4bd 254d c6be
000003a0: 6eb4 dbbe 2658 a43e b0a8 ad3e d264 06bc
000003b0: cb19 453e 6899 a3bd 9b2c 07be df9e 6ebf
000003c0: e6e4 67be b3b3 5b3d 7dc0 1a3d 6eaa a53e
000003d0: 39d3 3dbf 1915 093d 252a cebd e6eb d4be
000003e0: 7ae4 0fbd 34c1 a83d a027 db3d 3f86 bdbd
000003f0: 1f07 b4bd d0be 25be 8105 cebd c703 4cbf

fc_layers.0.bias f4 [64]
0.19654536 0.08005531 0.2695506 -0.4593932 0.3465743 -0.32431972 -0.087078266 -0.014853324
-5.63001e-18 -0.028562646 -0.4858822 0.32893804 0.09249692 -0.06305999 0.06024345 -0.1490223
-4.827663e-05 0.27775022 -0.12588692 -0.18001394 -0.068174034 -0.048984423 0.23042549 0.37036723
-4.2126694e-27 0.4181045 0.3038963 0.41687003 -0.1037792 -0.15140443 0.42458016 -0.40851808
-9.886353e-34 0.41713634 -1.2011985e-36 0.4023301 0.0901055 -0.028465942 -0.1730895 -0.15228696
-0.0008806065 0.42370388 -0.18925782 0.4205818 0.37143657 0.42009363 -3.7917993e-15 -1.7107914e-26
-0.28524885 -0.123517804 -2.5580291e-26 -0.24261685 -0.22228965 -0.12973204 -0.0056920564 -0.03864086
0.36498395 -0.2658461 -0.13991769 -0.23541678 -0.0040553194 0.4202371 -0.07074391 0.18116842
00000000: 3043 493e 0af4 a33d 8902 8a3e 9635 ebbe
00000010: 3072 b13e 3c0d a6be 1756 b2bd 5b5b 73bc
00000020: f1b5 cfa2 36fc e9bc 8dc5 f8be 916a a83e
00000030: 066f bd3d 9925 81bd d6c1 763d 4d99 18be
00000040: a37c 4ab8 4735 8e3e 80e8 00be 9355 38be
00000050: d49e 8bbd e4a3 48bd a9f4 6b3e c6a0 bd3e
00000060: 8be1 a693 cb11 d63e 4c98 9b3e fd6f d53e
00000070: 308a d4bd c309 1bbe 9262 d93e 4829 d1be
00000080: e543 a488 e592 d53e 935f cc83 36fe cd3e
00000090: 3b89 b83d 6831 e9bc 603e 31be 1df1 1bbe
000000a0: 80d8 66ba b7ef d83e cdcc 41be 7f56 d73e
000000b0: ef2c be3e 8316 d73e 2d9d 88a7 b76d a994
000000c0: 230c 92be e7f6 fcbd be55 fd94 8d70 78be
000000d0: e69f 63be 7ad8 04be 6e84 babb e145 1ebd
000000e0: 2ddf ba3e fb1c 88be 9546 0fbe 1911 71be
000000f0: 7ce2 84bb 5129 d73e 2fe2 90bd 3784 393e

fc_layers.1.weight f4 [32, 64]
0.2087617 0.22267026 0.078492984 0.5843486 0.06356087 0.1633554 0.068873316 7.715791e-05
-2.0437646e-18 0.14696527 0.7419712 0.18751542 0.1921724 0.12189114 0.25082165 0.07717227
1.433873e-10 0.1947988 -0.11539239 0.46662343 0.0009773376 0.00029103743 0.20422763 0.126025
4.91208e-38 0.12343197 0.20400827 0.114045426 -0.08633161 -0.75526917 0.11551602 0.38483796
-4.9068954e-38 0.1368144 -4.915516e-38 0.082016245 0.21598351 0.00024180257 -0.10358648 -0.2510196
3.0057677e-07 0.13109502 -0.7872286 0.12198691 0.09118017 0.123654895 4.916465e-38 -5.792077e-28
-0.5013285 0.021633456 -4.9117434e-38 -0.37443045 -0.40940726 -0.13684532 0.000107396576 0.0023113985
0.21778482 -0.36372483 0.32427552 -0.7118663 0.5335596 0.14410977 -0.02402637 0.17192973
0.2440704 0.22849686 0.07915658 0.59586257 0.074279904 0.1838737 0.08374229 5.965904e-05
-2.2082002e-18 0.19483377 0.7594292 0.2138391 0.24491376 0.12708469 0.24369396 0.09251164
2.2533442e-10 0.22512946 -0.16465572 0.51382524 0.00016455397 0.00010301205 0.23182194 0.10999339
2.4269203e-38 0.13607785 0.23642124 0.114733405 -0.054714642 -0.7896323 0.108306125 0.40101936
-4.909166e-38 0.12878941 -4.909973e-38 0.08724799 0.22947475 0.00020175999 -0.15739764 -0.25518128
6.856711e-07 0.13167185 -0.78576946 0.1397161 0.10280947 0.12026266 4.916998e-38 -5.0004595e-28
-0.49693072 0.022006784 4.912694e-38 -0.43208525 -0.46832567 -0.14040887 7.7802644e-05 0.0021924647
0.24468617 -0.35178494 0.32886466 -0.7253524 0.58856845 0.16030848 -0.024783773 0.16620795
4.6415983e-37 -2.5381882e-36 -6.9393843e-37 5.482562e-37 -1.4472331e-36 7.390964e-39 6.987412e-38 4.910459e-38
-4.9168054e-38 -1.723647e-36 7.3267866e-37 -8.211262e-37 7.24652e-37 8.817925e-38 -2.6565019e-36 -1.3217796e-36
-4.9171765e-38 -2.0847734e-37 7.025303e-37 1.2941045e-36 4.9149647e-38 -4.911121e-38 1.0856942e-37 -1.2897689e-36
4.90509e-38 -2.4685964e-36 -4.5253062e-38 -2.5115857e-36 3.7971816e-37 -3.6622023e-37 -2.5464306e-36 2.6698803e-37
4.908627e-38 -2.3643379e-36 -4.9160313e-38 -1.865562e-36 -1.7040661e-36 4.907878e-38 1.1175912e-36 -1.1515113e-37
4.909993e-38 -2.5811216e-36 6.097128e-38 -2.5025705e-36 -1.5292687e-36 -2.6045022e-36 4.9067447e-38 -4.9157673e-38
-3.0890663e-36 4.9116117e-38 4.914245e-38 -7.944309e-39 4.332326e-38 3.481408e-39 4.909006e-38 -4.913587e-38
-1.0051477e-36 -1.0278804e-37 -2.5665645e-37 -1.1830144e-36 6.1652433e-37 -2.6315643e-36 -4.912078e-38 -4.5384977e-37
-4.915833e-38 -4.9067817e-38 -5.125867e-38 -4.904639e-38 -4.948649e-38 -4.9071987e-38 4.912207e-38 4.906161e-38
4.90938e-38 -4.91568e-38 -4.9139496e-38 -4.907656e-38 -4.9181036e-38 4.9097636e-38 -4.908545e-38 -4.9057464e-38
-4.916358e-38 -4.912684e-38 4.915695e-38 4.917736e-38 -4.908687e-38 -4.906501e-38 -5.552855e-38 -5.1166396e-38
-4.915778e-38 -4.9900244e-38 -4.913126e-38 -5.055794e-38 4.907665e-38 4.904718e-38 -5.124311e-38 -4.9176725e-38
4.909142e-38 -5.1278555e-38 4.9072435e-38 -4.9601336e-38 -4.9083797e-38 4.9054644e-38 -4.9132966e-38 -4.9160504e-38
-4.9170257e-38 -5.048747e-38 4.916854e-38 -4.991354e-38 -4.9154843e-38 -4.9991855e-38 -4.905337e-38 4.915103e-38
4.914785e-38 4.9146216e-38 -4.912598e-38 -4.9145146e-38 4.910059e-38 4.9133386e-38 -4.9130096e-38 4.9146693e-38
-4.916426e-38 -4.917409e-38 -4.9056926e-38 4.91675e-38 -4.9148576e-38 -5.1172814e-38 -4.9073674e-38 -5.206685e-38
00000000: a1c5 553e ac03 643e eec0 a03d df97 153f
00000010: 342c 823d a346 273e 740d 8d3d d6cf a138
00000020: 9fcd 16a2 107e 163e d3f1 3d3f 0b04 403e
00000030: d7c8 443e 10a2 f93d b26b 803e 7f0c 9e3d
00000040: f0a7 1d2f 5679 473e d852 ecbd 44e9 ee3e
00000050: 021a 803a 6296 9839 0c21 513e b30c 013e
00000060: 34b8 8501 e7c9 fc3d 8be7 503e a690 e93d
00000070: a1ce b0bd 5259 41bf aa93 ec3d 7b09 c53e
00000080: 1294 8581 1319 0c3e 26d0 8581 22f8 a73d
00000090: c82a 5d3e 628c 7d39 2625 d4bd a485 80be
000000a0: f55e a134 c63d 063e d087 49bf 46d4 f93d
000000b0: abbc ba3d c73e fd3d c3d6 8501 e98e 3792
000000c0: 1157 00bf a538 b13c dbb5 8581 59b5 bfbe
000000d0: d49d d1be 2e21 0cbe 193a e138 d57a 173b
000000e0: fc02 5f3e 243a babe 7107 a63e df3c 36bf
000000f0: 5d97 083f 8391 133e f3d2 c4bc 590e 303e
00000100: 97ed 793e 15fb 693e d81c a23d 738a 183f
00000110: 1020 983d 6349 3c3e 1481 ab3d 683a 7a38
00000120: b9ef 22a2 8182 473e f469 423f a3f8 5a3e
00000130: acca 7a3e 7d22 023e e98a 793e be76 bd3d
00000140: 00c2 772f 5688 663e 829b 28be 0d8a 033f
00000150: 1f8c 2c39 2c08 d838 bb62 6d3e 3744 e13d
00000160: 5522 0401 fe57 0b3e 6918 723e 59f9 ea3d
00000170: 761c 60bd 5825 4abf 9acf dd3d 6952 cd3e
00000180: e5a3 8581 5fe1 033e 85a9 8581 13af b23d
00000190: 6efb 6a3e 898f 5339 d92c 21be 1fa7 82be
000001a0: f60e 3835 fcd4 063e 3028 49bf bd11 0f3e
000001b0: c58d d23d 454c f63d 7ada 8501 8c78 1e92
000001c0: b46d febe 9247 b43c 7bbc 8501 473a ddbe
000001d0: 62c8 efbe 58c7 0fbe fa29 a338 74af 0f3b
000001e0: 038f 7a3e 281d b4be f360 a83e b2b0 39bf
000001f0: 6cac 163f e827 243e 5707 cbbc 6b32 2a3e
00000200: 06f2 1d03 d8ec 5784 9022 6c83 da8f 3a03
00000210: e43b f683 007b 5000 2837 be01 e8ac 8501
00000220: 22d9 8581 b5a1 1284 5051 7903 17b5 8b83
00000230: 1896 7603 f80b f001 7dfd 6184 9fe3 e083
00000240: b8db 8581 e0e1 8d82 050f 6f03 332e dc03
00000250: 4ecc 8501 85b1 8581 ecc6 1302 5c71 db83
00000260: 7d87 8501 4501 5284 9061 7681 7ea9 5584
00000270: 1e36 0103 903c f982 59a0 5884 e0b3 b502
00000280: 23a0 8501 b822 4984 bdd3 8581 58b4 1e84
00000290: 46f7 1084 eb9a 8501 f625 be03 50bc 1c82
000002a0: a8a9 8501 da93 5b84 c8fa a501 29e5 5484
000002b0: 8618 0284 0991 5d84 0593 8501 e6d1 8581
000002c0: f464 8384 f0b4 8501 4ac7 8501 8081 5680
000002d0: d0df 6b01 c0e8 2500 c7a2 8501 b4c2 8581
000002e0: 5b04 ab83 68e8 0b82 dcab ae82 8b47 c983
000002f0: d8ca 5103 65de 5f84 30b8 8581 e46f 1a83
00000300: 5bd2 8581 4793 8581 148a 8b81 5884 8581
00000310: 0db7 8681 2f96 8581 16b9 8501 f48e 8501
00000320: 63a5 8501 4ad1 8581 3bc5 8581 5f99 8581
00000330: 2ee2 8581 0fa8 8501 919f 8581 108c 8581
00000340: 04d6 8581 69bc 8581 65d1 8501 9edf 8501
00000350: 8ea0 8581 5291 8581 c029 9781 c649 8b81
00000360: f9d1 8581 65d7 8781 7ebf 8581 bea1 8981
00000370: 6f99 8501 e584 8501 3c7f 8b81 2ddf 8581
00000380: baa3 8501 f097 8b81 7f96 8501 1607 8781
00000390: 6a9e 8581 198a 8501 aec0 8581 dfd3 8581
000003a0: abda 8581 a270 8981 79d9 8501 a9e0 8781
000003b0: edcf 8581 3d17 8881 3689 8581 45cd 8501
000003c0: 0dcb 8501 eac9 8501 d0bb 8581 2bc9 8581
000003d0: 1eaa 8501 f9c0 8501 aebe 8581 3fca 8501
000003e0: 7dd6 8581 57dd 8581 b08b 8581 bfd8 8501
000003f0: 8fcb 8581 3f4e 8b81 5c97 8581 4cbd 8d81

fc_layers.1.bias f4 [32]
0.04556739 0.09628094 -2.0383816e-36 -4.908414e-38 0.05166768 -4.917605e-38 -4.909247e-38 -4.914034e-38
0.11994768 -4.9233635e-38 -8.959079e-28 -5.318625e-38 -4.9095125e-38 -4.905228e-38 -4.90809e-38 -4.91447e-38
0.041221224 -3.9285624e-33 0.06991491 -4.984355e-38 -4.9101274e-38 -4.914336e-38 -7.437874e-33 -7.02527e-37
-4.91002e-38 -3.2184554e-30 0.34211835 -6.2985406e-38 -5.628631e-37 0.10389496 -4.9103645e-38 -8.3270263e-35
00000000: dfa4 3a3d f12e c53d 0568 2d84 a79e 8581
00000010: 7da1 533d b4de 8581 75a4 8581 d2c5 8581
00000020: 21a7 f53d d606 8681 58f6 8d92 68c9 9081
00000030: 4fa6 8581 7388 8581 659c 8581 dbc8 8581
00000040: 96d7 283d a42f a389 8c2f 8f3d e2af 8781
00000050: 98aa 8581 ecc7 8581 857a 1a8a bc0e 6f83
00000060: d8a9 8581 5a8e 828e 232a af3e 6c76 ab81
00000070: 4b88 3f83 e1c6 d43d 3fac 8581 ce5e dd86

fc_layers.2.weight f4 [16, 32]
0.1944583 0.21656996 -1.0949567e-37 4.9085036e-38 0.22827663 4.912291e-38 -4.910471e-38 4.911746e-38
0.2085437 -4.9143453e-38 -1.2305459e-27 -4.9144456e-38 4.5992505e-38 4.9133784e-38 4.9152186e-38 4.914313e-38
0.19514205 6.770823e-34 0.2134702 4.908884e-38 4.9073007e-38 -4.915034e-38 -5.876704e-35 -9.675562e-39
-4.90946e-38 -3.773294e-31 -0.91779435 4.905664e-38 -5.748283e-38 0.21046746 4.906428e-38 2.642413e-35
4.913701e-38 -4.914975e-38 -4.9169747e-38 4.9046623e-38 -4.9131183e-38 -4.9101207e-38 4.905643e-38 4.910224e-38
-4.9148806e-38 -4.90765e-38 -4.911433e-38 -4.912089e-38 4.905249e-38 -4.909239e-38 4.9127714e-38 -4.907465e-38
4.9167595e-38 -4.915447e-38 -4.9061634e-38 -4.910175e-38 4.9150476e-38 -4.9184377e-38 4.9093236e-38 -4.9142915e-38
4.9156625e-38 -4.904937e-38 4.915374e-38 4.909682e-38 4.914324e-38 -4.906881e-38 -4.9151833e-38 4.916101e-38
0.20680867 0.21806216 -1.0767371e-37 4.9090596e-38 0.21383034 4.9071275e-38 -4.9124356e-38 4.910718e-38
0.21980032 -4.9174814e-38 -1.2120526e-27 -4.9160016e-38 4.5980874e-38 4.9118375e-38 4.910791e-38 4.9050284e-38
0.19304048 6.6688573e-34 0.2039355 4.910616e-38 4.913499e-38 9.77758e-39 -5.792184e-35 -6.953008e-39
-4.9063736e-38 -3.7170768e-31 -0.8407956 4.914244e-38 -5.626727e-38 0.22749712 4.90872e-38 2.6037935e-35
-5.013596e-35 -5.629951e-35 -4.904641e-38 4.9091016e-38 -5.9947876e-35 4.911494e-38 4.904551e-38 4.905195e-38
-5.316037e-35 -4.918276e-38 4.909484e-38 4.917286e-38 -4.9127506e-38 -4.911947e-38 4.9132316e-38 -4.908115e-38
-4.4881178e-35 4.9145213e-38 -5.648221e-35 -4.908954e-38 4.915518e-38 -4.906246e-38 -4.910387e-38 4.91215e-38
4.9130735e-38 -4.9130584e-38 -1.2962909e-36 -4.915416e-38 -4.9050373e-38 -5.2387077e-35 -4.908034e-38 -4.9131766e-38
-4.90778e-38 -4.9173553e-38 4.914853e-38 4.917558e-38 -4.905078e-38 4.914065e-38 4.913943e-38 -4.9111857e-38
-4.9094094e-38 4.907714e-38 4.9174674e-38 -4.9141575e-38 -4.9085417e-38 -4.910489e-38 -4.915297e-38 4.906937e-38
-4.9065995e-38 4.918459e-38 -4.9172213e-38 -4.9178295e-38 -4.916667e-38 -4.9126783e-38 4.915502e-38 -4.914644e-38
-4.91226e-38 4.9164327e-38 -4.913891e-38 4.9124726e-38 4.917527e-38 -4.9134457e-38 -4.9118807e-38 4.913859e-38
0.1869979 0.20088586 -1.0719938e-37 4.917411e-38 0.19596878 4.907219e-38 -4.9175425e-38 4.913867e-38
0.19504367 -4.916058e-38 -1.2163729e-27 -4.913284e-38 -4.9085826e-38 4.910827e-38 4.9071757e-38 4.9116615e-38
0.18571371 6.7000675e-34 0.17610537 4.911106e-38 4.909146e-38 -4.906725e-38 -5.8109025e-35 -7.449807e-39
-4.9066533e-38 -3.7295756e-31 -0.85172755 4.9174926e-38 -5.6609454e-38 0.21369933 4.9137713e-38 2.612698e-35
0.22408195 0.2332042 -1.2229367e-37 4.9088993e-38 0.24881883 4.913776e-38 -4.9117075e-38 4.9099974e-38
0.23557481 -4.907889e-38 -1.3305862e-27 -1.8022133e-38 4.604507e-38 4.9064835e-38 4.90936e-38 4.913547e-38
0.21102288 7.3163994e-34 0.22916268 4.9185486e-38 4.906924e-38 -4.9182745e-38 -6.3566183e-35 -1.0566833e-38
-4.9119894e-38 -4.0824557e-31 -0.8312462 4.906242e-38 -6.5980306e-38 0.23607256 4.9069666e-38 2.857435e-35
0.16866918 0.18339004 -9.424595e-38 4.908286e-38 0.16360089 4.907542e-38 4.9141306e-38 4.904607e-38
0.18428402 -4.9153503e-38 -1.0980555e-27 -4.908854e-38 4.6077443e-38 4.9169114e-38 4.911555e-38 4.911168e-38
0.18053971 6.057951e-34 0.16773225 4.915153e-38 4.9078713e-38 9.923756e-39 -5.252061e-35 -1.7558572e-38
4.906773e-38 -3.366682e-31 -0.7756269 4.90895e-38 -4.5752776e-38 0.18696767 4.9170734e-38 2.3612674e-35
00000000: 1420 473e 84c4 5d3e ac09 1582 479f 8501
00000010: 59c1 693e acb9 8501 fdac 8581 e0b5 8501
00000020: 7b8c 553e fdc7 8581 dffc c292 b0c8 8581
00000030: 3268 7a01 40c1 8501 13ce 8501 c3c7 8501
00000040: 51d3 473e cbff 6008 ef97 5a3e eea1 8501
00000050: e596 8501 cacc 8581 c63a 9c86 885b 6980
00000060: f1a5 8581 9ae6 f48c 92f4 6abf 7d8b 8501
00000070: b07b 9c81 c884 573e d090 8501 a97e 0c06
00000080: 80c3 8501 60cc 8581 50da 8581 8284 8501
00000090: 70bf 8581 8caa 8581 588b 8501 44ab 8501
000000a0: b8cb 8581 5499 8581 b1b3 8581 44b8 8581
000000b0: 9988 8501 67a4 8581 05bd 8501 0a98 8581
000000c0: d0d8 8501 aacf 8581 f88e 8581 edaa 8581
000000d0: e2cc 8501 82e4 8581 fea4 8501 9dc7 8581
000000e0: 2bd1 8501 6c86 8581 28cf 8501 7da7 8501
000000f0: d7c7 8501 f893 8581 d4cd 8581 39d4 8501
00000100: a7c5 533e b04b 5f3e d08e 1282 27a3 8501
00000110: 57f6 5a3e b095 8501 aeba 8581 b6ae 8501
00000120: 5613 613e d8dd 8581 b20e c092 88d3 8581
00000130: fc57 7a01 83b6 8501 38af 8501 0f87 8501
00000140: 67ac 453e 5d9c 5d08 78d4 503e 00ae 8501
00000150: 17c2 8501 ea77 6a00 90fb 9986 28b6 4b80
00000160: 6f90 8581 8840 f18c 613e 57bf 48c7 8501
00000170: 902c 9981 01f5 683e c9a0 8501 0071 0a06
00000180: c448 8586 76ab 9586 5c84 8581 72a3 8501
00000190: 695e 9f86 1eb4 8501 bb83 8501 3888 8501
000001a0: 1353 8d86 62e3 8581 1ca6 8501 7bdc 8501
000001b0: e0bc 8581 46b7 8581 3ac0 8501 929c 8581
000001c0: 18a1 6e86 37c9 8501 cd27 9686 6ba2 8581
000001d0: 29d0 8501 8b8f 8581 67ac 8581 b0b8 8501
000001e0: 20bf 8501 05bf 8581 6f8d dc83 73cf 8581
000001f0: 1f87 8581 cc44 8b86 019c 8581 d8bf 8581
00000200: 3c9a 8581 f7dc 8581 87cb 8501 61de 8501
00000210: 6887 8581 09c6 8501 2fc5 8501 f8b1 8581
00000220: 97a5 8581 c699 8501 bfdd 8501 aec6 8581
00000230: 8b9f 8581 1dad 8581 9fce 8581 5c94 8501
00000240: 0292 8581 a8e4 8501 08dc 8581 45e0 8581
00000250: 2bd8 8581 5fbc 8581 0dd0 8501 12ca 8581
00000260: 75b9 8581 89d6 8501 d2c4 8581 f0ba 8501
00000270: 29de 8501 b8c1 8581 d0b6 8581 99c4 8501
00000280: 617c 3f3e 06b5 4d3e 88e9 1182 5add 8501
00000290: 0aac 483e 5396 8501 45de 8581 a8c4 8501
000002a0: 87b9 473e edd3 8581 f2bd c092 98c0 8581
000002b0: d49f 8581 78af 8501 0696 8501 49b5 8501
000002c0: bc2b 3e3e dfa5 5e08 f754 343e 6ab1 8501
000002d0: c1a3 8501 e292 8581 f47a 9a86 081f 5180
000002e0: 6292 8581 3410 f28c d10a 5abf ecdd 8501
000002f0: 081b 9a81 ffd3 5a3e fdc3 8501 34ea 0a06
00000300: bd75 653e 15cd 6e3e 2075 2682 09a2 8501
00000310: 5dca 7e3e 05c4 8501 9bb5 8581 b0a9 8501
00000320: 863a 713e ff9a 8581 fdd6 d292 603e c480
00000330: 76b1 7a01 3391 8501 3fa5 8501 6dc2 8501
00000340: 6216 583e 0b21 7308 9fa9 6a3e 48e5 8501
00000350: 4594 8501 5fe3 8581 e7fc a886 0810 7380
00000360: 92b7 8581 b77b 048d 8dcc 54bf 848f 8501
00000370: 909d b381 01bd 713e 9194 8501 64ed 1706
00000380: 9db7 2c3e 99ca 3b3e ec47 0082 c39d 8501
00000390: fe86 273e 9398 8501 7ec6 8501 1f84 8501
000003a0: f3b4 3c3e fece 8581 6cfe ad92 b8a1 8581
000003b0: 95de 7a01 dfd9 8501 8bb4 8501 d8b1 8501
000003c0: 67df 383e 594f 4908 01c2 2b3e 9ecd 8501
000003d0: df9a 8501 650f 6c00 ad9f 8b86 2832 bf80
000003e0: 3893 8501 9982 da8c 7c8f 46bf 63a2 8501
000003f0: 101a 7981 7474 3f3e 00db 8501 d017 fb05

fc_layers.2.bias f4 [16]
0.28190622 -5.4505225e-38 0.2515272 -3.448278e-35 -4.91581e-38 0.26170918 0.25619787 0.22750613
-4.9079515e-38 0.5418531 0.2615475 -5.414468e-38 0.2762233 -4.90611e-38 0.2787287 -5.5777996e-38
00000000: 0356 903e 9960 9481 2cc8 803e 8757 3786
00000010: 32d2 8581 bffe 853e 5e2c 833e 5ef7 683e
00000020: 6e9b 8581 e2b6 0a3f 8ee9 853e 5665 9381
00000030: 246d 8d3e 998e 8581 87b5 8e3e 97d7 9781

fc_layers.3.weight f4 [8, 16]
-7.846795e-36 4.9092143e-38 -7.761125e-36 -4.907488e-38 -4.907602e-38 -7.2082506e-36 -8.542281e-36 -6.436006e-36
-4.915975e-38 -2.555088e-36 -7.884139e-36 4.910288e-38 -7.669663e-36 4.90574e-38 -7.50747e-36 -4.9183614e-38
0.25123414 4.9069257e-38 0.24286546 -4.2865403e-34 -4.9138246e-38 0.2354084 0.26785144 0.21141952
-4.90477e-38 -1.3128535 0.25136128 4.910827e-38 0.242919 4.912945e-38 0.22903463 4.9168043e-38
0.18571787 3.6259102e-38 0.19163531 -3.2737492e-34 -4.9112826e-38 0.19511823 0.19686182 0.16795437
-4.9120405e-38 -1.1385223 0.19393532 -4.904737e-38 0.1877868 4.9118914e-38 0.16960777 4.907742e-38
-5.0665473e-37 -4.9081527e-38 -4.954191e-37 4.9103606e-38 4.9114956e-38 -4.6779293e-37 -5.35033e-37 -4.217405e-37
4.917744e-38 -2.156161e-39 -5.069989e-37 -4.906049e-38 -4.96904e-37 4.9123964e-38 -4.9339983e-37 4.9098286e-38
0.19899634 3.5215774e-38 0.2087872 -3.5765364e-34 -4.9182785e-38 0.20506547 0.23389642 0.21389486
-4.918366e-38 -1.1870224 0.20926513 -4.9163643e-38 0.21212341 4.909736e-38 0.1994069 4.917737e-38
0.18210667 3.7312116e-38 0.16126072 -2.9715363e-34 -4.918018e-38 0.17580266 0.18438178 0.13510936
-4.9067884e-38 -1.0734216 0.14919929 -4.915163e-38 0.17091374 4.917422e-38 0.15077962 4.914625e-38
-2.9747677e-36 4.9050984e-38 -1.529784e-36 -4.905624e-38 -4.917787e-38 -2.7088017e-36 -8.687053e-37 -2.096629e-36
-4.9129715e-38 1.7095644e-36 -1.7404652e-36 -4.907532e-38 -2.8958272e-36 -4.909239e-38 -3.2003408e-36 4.909589e-38
-2.4467382e-33 -4.9164293e-38 -2.5603455e-33 4.906737e-38 4.9054325e-38 -2.3097514e-33 -2.7745101e-33 -2.1306597e-33
4.914086e-38 -3.503184e-33 -2.601146e-33 -4.9048966e-38 -2.4130934e-33 -4.9141867e-38 -2.3753358e-33 -4.9091913e-38
00000000: 04e2 2685 3ba4 8501 950f 2585 3398 8581
00000010: ff98 8581 734d 1985 9aac 3585 f3e0 0885
00000020: 58d3 8581 e45c 5984 56ad 2785 b7ab 8501
00000030: 9e1d 2385 058c 8501 8eaa 1f85 fae3 8581
00000040: c3a1 803e 4894 8501 b9b1 783e da71 0e88
00000050: 5cc4 8581 e60e 713e d323 893e 5c7e 583e
00000060: 4285 8581 950b a8bf 6db2 803e 78af 8501
00000070: c2bf 783e 3bbe 8501 0e88 6a3e 20d9 8501
00000080: d32c 3e3e d069 4501 0c3c 443e f593 d987
00000090: a5b2 8581 13cd 473e 2596 493e 3bfc 2b3e
000000a0: edb7 8581 19bb 91bf fb96 463e 0785 8581
000000b0: 2f4b 403e e3b6 8501 a9ad 2d3e f899 8501
000000c0: da67 2c83 d59c 8581 1795 2883 38ac 8501
000000d0: 21b4 8501 832e 1f83 f30f 3683 c782 0f83
000000e0: acdf 8501 807a 1780 d585 2c83 2c8e 8581
000000f0: 7116 2983 68ba 8501 30e5 2783 83a8 8501
00000100: b2c5 4b3e a0bb 3f01 50cc 553e 9db3 ed87
00000110: 66e3 8581 affc 513e 8b82 6f3e 4107 5b3e
00000120: 02e4 8581 5af0 97bf 9949 563e 0fd6 8581
00000130: e136 593e dea7 8501 5331 4c3e a0df 8501
00000140: 2c7a 3a3e 8025 4b01 8821 253e 127e c587
00000150: 95e1 8581 9d05 343e 94ce 3c3e 1c5a 0a3e
00000160: 5393 8581 e165 89bf b3c7 183e b0cd 8581
00000170: 0304 2f3e 6edd 8501 f965 1a3e f0c9 8501
00000180: b410 7d84 8c87 8501 bf23 0284 368b 8581
00000190: f9df 8581 7a70 6684 74cd 9383 895c 3284
000001a0: 6abe 8581 046f 1104 fa0f 1484 8298 8581
000001b0: 8859 7684 67a4 8581 a020 8884 d7a6 8501
000001c0: 5e44 4b89 83d6 8581 87b4 5489 f792 8501
000001d0: e089 8501 fbe2 3f89 4e7f 6689 1f02 3189
000001e0: 2ec6 8501 3e84 9189 4218 5889 2486 8581
000001f0: d278 4889 e2c6 8581 ce55 4589 12a4 8581
