checkpoints/neumf_first_try_Epoch5_HR0.6507_NDCG0.3795.model (torch, 645090 bytes, 13 tensors)

embedding_user_mlp.weight f4 [6040, 8]
-0.06741408 0.20930955 0.20856266 0.2089397 -0.2820857 -0.23155142 -0.2087553 -0.20830466
0.0014859837 0.11540611 0.11193006 0.07674656 0.09872986 -0.080553316 0.1068352 0.10778226
-0.28862414 0.22136469 0.21365763 0.16724853 0.11228612 -0.14997517 -0.05519792 -0.0938047
-0.28378072 0.39072728 0.38343847 0.32959792 -0.19761984 -0.35970834 -0.24140431 -0.23409596
-0.39543837 0.0029688545 -0.0024762894 0.033691414 -0.23652098 -0.082772486 -0.32095104 -0.35403597
-0.07662776 0.0374341 0.049406 0.042755563 -0.06455962 -0.079998694 -0.09052449 -0.09547817
-0.2745311 0.41195342 0.39801583 0.33953837 -0.2898257 -0.36749864 -0.2889596 -0.2940565
-0.10015915 0.1296078 0.11990362 0.09207517 0.1648824 -0.082306705 0.06342593 0.048934836
-0.24521163 0.1961847 0.189291 0.19409858 -0.24116746 -0.21384946 -0.21772064 -0.22581215
-0.12374482 -0.08438954 -0.06874152 -0.03977608 -0.042927563 0.047152083 -0.070389755 -0.09903466
0.018422227 0.15193248 0.1424977 0.08886742 0.08418729 -0.07057025 0.06851614 0.07559766
-0.24453531 0.06568195 0.06592001 0.069843285 0.037468996 -0.04831337 -0.026963891 -0.044682264
-0.071869865 0.14685482 0.13509744 0.12572445 0.05499132 -0.12737241 -0.043569166 -0.03724939
-0.22285135 0.059959304 0.058026716 0.084817976 -0.45683348 -0.16461028 -0.36546445 -0.36183313
-0.09335123 0.17927568 0.19435999 0.16560668 -0.17099258 -0.20970708 -0.16469918 -0.17134808
-0.107632816 0.09049608 0.09252046 0.29683566 -0.52158445 -0.33854967 -0.5095574 -0.46105856
0.0376793 -0.03975352 -0.027553717 0.0054306095 -0.23513056 -0.06025496 -0.15561028 -0.14158584
0.32390466 -0.084811755 -0.07750721 -0.14642863 0.06303537 0.12726884 0.1972188 0.21992654
-0.17913482 -0.029567853 -0.026204407 -0.018969003 -0.23223597 -0.026617536 -0.20972347 -0.23300044
0.056623176 0.20781747 0.2044104 0.19295813 -0.288086 -0.23462704 -0.18811391 -0.13814853
-0.37767184 0.042685606 0.042464368 0.08228349 -0.16492695 -0.066225015 -0.2228533 -0.25350147
0.20388262 0.077323794 0.0814976 0.013507781 0.20081422 -0.020823818 0.19048725 0.21289615
-0.11861762 -0.039307237 -0.026368314 0.010234219 -0.10678759 -0.0070334347 -0.10018831 -0.14147677
-0.22741586 0.13534239 0.123771556 0.08471449 -0.025445303 -0.09156255 -0.13265198 -0.18406785
0.010573829 0.12345045 0.12689073 0.10898496 -0.29049298 -0.18634634 -0.24154487 -0.22417822
0.40797895 -0.113661654 -0.11112803 -0.21264659 0.23133032 0.2189173 0.28326392 0.29251692
-0.032492768 0.22725382 0.22591919 0.20297098 -0.19948252 -0.23400562 -0.17699896 -0.15103096
-0.06760166 0.006257829 -2.306829e-05 0.12308117 -0.3253539 -0.13250038 -0.29624057 -0.26920614
-0.11904994 0.30255648 0.27379894 0.22842222 0.26482192 -0.21964923 0.10823711 0.09101183
-0.27281561 0.14322509 0.14378093 0.18026447 -0.12970892 -0.19960055 -0.17858204 -0.19993906
-0.122957245 0.17051496 0.18006967 0.14849994 0.044341482 -0.1665266 -0.02409408 -0.02399981
-0.15232576 0.07719158 0.060888167 0.06703926 -0.36718225 -0.1503065 -0.3102461 -0.27926108
00000000: 6510 8abd 3e55 563e 7391 553e 4af4 553e
00000010: 896d 90be d11b 6dbe f3c3 55be d14d 55be
00000020: 57c5 c23a 0a5a ec3d 963b e53d 4d2d 9d3d
00000030: e132 ca3d 23f9 a4bd 6acc da3d f2bc dc3d
00000040: 8bc6 93be 6dad 623e 11c9 5a3e 3343 2b3e
00000050: 44f6 e53d 1793 19be 3717 62bd ae1c c0bd
00000060: b54b 91be 680d c83e 0c52 c43e 0fc1 a83e
00000070: db5c 4abe b12b b8be b132 77be dab6 6fbe
00000080: e676 cabe 1d91 423b 3e49 22bb 0200 0a3d
00000090: 8e32 72be 9f84 a9bd b253 a4be 3444 b5be
000000a0: 04ef 9cbd 8054 193d f25d 4a3d 7520 2f3d
000000b0: d637 84bd 5bd6 a3bd e764 b9bd 0f8a c3bd
000000c0: 578f 8cbe 8feb d23e bbc8 cb3e f9d7 ad3e
000000d0: 0964 94be c828 bcbe 83f2 93be 938e 96be
000000e0: 3e20 cdbd e8b7 043e 0790 f53d e891 bc3d
000000f0: efd6 283e 6b90 a8bd 74e5 813d e56f 483d
00000100: c218 7bbe a4e4 483e 80d5 413e c7c1 463e
00000110: 9af4 76be 5afb 5abe 29f2 5ebe 4d3b 67be
00000120: ed6d fdbd 6cd4 acbd 5bc8 8cbd 3eec 22bd
00000130: d0d4 2fbd 8b22 413d 8128 90bd afd2 cabd
00000140: 36ea 963c 3094 1b3e ebea 113e 1f00 b63d
00000150: 636a ac3d 2387 90bd 3152 8c3d f2d2 9a3d
00000160: 7767 7abe 4284 863d 1201 873d ff09 8f3d
00000170: 1779 193d 3ee4 45bd 61e3 dcbc c004 37bd
00000180: 8230 93bd 1c61 163e fc56 0a3e e9bd 003e
00000190: 943e 613d ea6d 02be 9575 32bd d192 18bd
000001a0: 2533 64be e397 753d 6cad 6d3d 0cb5 ad3d
000001b0: 14e6 e9be 998f 28be 281e bbbe 3142 b9be
000001c0: ee2e bfbd 0b94 373e 4e06 473e cc94 293e
000001d0: ae18 2fbe 74bd 56be e7a6 28be df75 2fbe
000001e0: 986e dcbd 0256 b93d 5e7b bd3d d8fa 973e
000001f0: 8f86 05bf 6256 adbe 5b72 02bf de0f ecbe
00000200: 9c55 1a3d 96d4 22bd 55b8 e1bc 41f3 b13b
00000210: 11c6 70be e8cd 76bd 4d58 1fbe e1fb 10be
00000220: d5d6 a53e c9b1 adbd 1abc 9ebd 63f1 15be
00000230: b018 813d c352 023e baf3 493e 6c34 613e
00000240: 1e6f 37be 4838 f2bc a0aa d6bc e264 9bbc
00000250: 44cf 6dbe 050d dabc c0c1 56be ab97 6ebe
00000260: b4ed 673d 1ace 543e f650 513e d196 453e
00000270: 0280 93be 1242 70be efa0 40be cf76 0dbe
00000280: 345e c1be 1ad7 2e3d 1eef 2d3d 3f84 a83d
00000290: 9ce2 28be fba0 87bd a833 64be f2ca 81be
000002a0: 9bc6 503e f05b 9e3d 37e8 a63d bd4f 5d3c
000002b0: 3ea2 4d3e b696 aabc 170f 433e 7301 5a3e
000002c0: cbed f2bd a000 21bd 5d02 d8bc 6dad 273c
000002d0: 74b3 dabd ba78 e6bb 872f cdbd 49df 10be
000002e0: b4df 68be 3297 0a3e f17b fd3d ca7e ad3d
000002f0: ab72 d0bc 2585 bbbd ecd5 07be 487c 3cbe
00000300: da3d 2d3c 97d3 fc3d a5ef 013e 8233 df3d
00000310: 7fbb 94be 93d1 3ebe 8a57 77be fa8e 65be
00000320: 9ee2 d03e 71c7 e8bd 1897 e3bd 07c0 59be
00000330: dbe1 6c3e db2b 603e f807 913e c7c4 953e
00000340: 2317 05bd 3ab5 683e 5c57 673e a0d7 4f3e
00000350: 2545 4cbe 2b9f 6fbe 373f 35be dca7 1abe
00000360: bd72 8abd 790e cd3b c782 c1b7 fb11 fc3d
00000370: c994 a6be 2eae 07be d8ac 97be 63d5 89be
00000380: 74d0 f3bd afe8 9a3e 602f 8c3e 84e7 693e
00000390: bd96 873e baeb 60be 6bab dd3d 6964 ba3d
000003a0: 7dae 8bbe 99a9 123e 4f3b 133e 4097 383e
000003b0: 6ad2 04be 1664 4cbe 36de 36be d3bc 4cbe
000003c0: 02d1 fbbd 799b 2e3e 2f64 383e 5e10 183e
000003d0: 6a9f 353d f385 2abe f360 c5bc 409b c4bc
000003e0: 49fb 1bbe 9e16 9e3d df65 793d e14b 893d
000003f0: 50ff bbbe f2e9 19be 94d8 9ebe 4ffb 8ebe

embedding_item_mlp.weight f4 [3706, 8]
-0.75311047 -0.8248408 -0.6833958 0.7543902 0.76720524 0.7859482 -0.7520132 0.35419255
-0.24773945 -0.23877051 -0.29336897 0.22064418 0.21707518 0.21157499 -0.21826148 0.32355532
-0.16481847 -0.15946756 -0.14726532 0.19055745 0.1833942 0.19759147 -0.17867483 0.14029059
-0.5830657 -0.6651171 -0.67810225 0.5930763 0.58528596 0.60615855 -0.5919579 0.45004672
-0.45657477 -0.62717456 -0.52007014 0.4565747 0.47905657 0.5144762 -0.4556269 0.5084146
-0.5256043 -0.5407477 -0.5071217 0.53195417 0.53878 0.5607006 -0.53135043 0.37721083
-0.07103639 -0.062998846 -0.06504664 0.04970827 0.061017256 0.046374604 -0.065172225 0.06403636
-0.12251415 -0.23501311 -0.1677438 0.17544487 0.18051848 0.2419917 -0.16250807 0.23432013
-0.04796267 -0.035759926 -0.058751877 0.056439433 0.048706662 0.04550967 -0.049029168 0.08878768
-0.35466442 -0.24836487 -0.24721067 0.36578527 0.33048072 0.33747005 -0.3648859 0.20727658
-0.1006128 -0.10122058 -0.10354175 0.12978436 0.11755062 0.12790239 -0.12069295 0.11225958
0.059977833 0.022497967 0.017692598 -0.076900214 -0.062277872 -0.062182527 0.07735353 0.030658394
-0.013995293 0.0018930051 0.012990023 -0.0017139423 0.0018764362 -0.01035377 -0.006627509 -0.016153732
-0.015820734 0.006892879 0.010600325 0.03458229 0.015536433 0.041806143 -0.021149933 0.031628158
-0.40790448 -0.26937938 -0.27725536 0.421143 0.37661204 0.37755963 -0.42169482 0.24940032
-0.4540691 -0.30816767 -0.308219 0.41747275 0.41101754 0.3750847 -0.4440522 0.24796715
-0.09099255 -0.15380174 -0.14187938 0.13921677 0.13627523 0.14747825 -0.110103756 0.16699238
-0.026598748 0.0014050714 -0.021080267 -0.032184426 -0.0014353782 -0.030984076 0.020156495 0.05878433
-0.045311768 -0.027612383 -0.053067006 -0.0054300237 0.022669451 -0.03729425 -0.00077022036 0.08719018
-0.16991505 -0.13230045 -0.13279803 0.17339115 0.17249402 0.17547598 -0.1855223 0.11322597
-0.22633493 -0.22173184 -0.19635496 0.26164186 0.24544801 0.2718074 -0.26117516 0.1422764
-0.06758458 -0.17899165 -0.1762124 0.060493793 0.09272756 0.109837 -0.05116506 0.31163672
-0.5308309 -0.51228315 -0.51722914 0.4996989 0.51279795 0.48895985 -0.5144626 0.44057745
-0.84261894 -0.6651148 -0.5855456 0.8798765 0.8389064 0.88504213 -0.8944091 0.18064933
-0.11805443 -0.15344225 -0.10467935 0.18031763 0.17485799 0.20293689 -0.17077409 0.07669137
-0.014503517 -0.059749354 -0.047015805 -0.010691136 0.028741937 0.026390601 0.016654076 0.08752236
-0.55009764 -0.71285886 -0.5928784 0.55220455 0.56247896 0.59525895 -0.57731384 0.42003366
-0.62976694 -0.52227783 -0.46095642 0.6279806 0.6057021 0.6083426 -0.6371448 0.20162724
0.085002825 0.083772145 0.09826265 -0.094650745 -0.094011985 -0.093667276 0.10250781 -0.092139475
-0.26669416 -0.4067587 -0.36525366 0.30339077 0.31369027 0.33578292 -0.28299254 0.4545206
-0.07914564 -0.090700485 -0.08119359 0.0684218 0.08436322 0.07292343 -0.085929796 0.055652536
-0.22744982 -0.2084785 -0.16738272 0.29873195 0.27085823 0.31449196 -0.28212035 0.11285257
00000000: d9cb 40bf c428 53bf 07f3 2ebf b71f 413f
00000010: 9067 443f e733 493f f083 40bf ba58 b53e
00000020: 69af 7dbe 4280 74be 7534 96be 8cf0 613e
00000030: f548 5e3e 1da7 583e f07f 5fbe 0ba9 a53e
00000040: 2cc6 28be 774b 23be b8cc 16be 7e21 433e
00000050: b0cb 3b3e 6b55 4a3e 89f6 36be 56a8 0f3e
00000060: cb43 15bf 1d45 2abf 1c98 2dbf d9d3 173f
00000070: 4dd5 153f 352d 1b3f 8e8a 17bf 866c e63e
00000080: 2bc4 e9be 838e 20bf 5123 05bf 29c4 e93e
00000090: e746 f53e b6b4 033f ee47 e9be 7627 023f
000000a0: 018e 06bf 716e 0abf bad2 01bf 262e 083f
000000b0: 7ced 093f 138a 0f3f 9506 08bf c721 c13e
000000c0: 877b 91bd 8a05 81bd 2c37 85bd e69a 4b3d
000000d0: 3bed 793d 4cf3 3d3d 0479 85bd 7f25 833d
000000e0: b3e8 fabd 47a7 70be 08c5 2bbe d2a7 333e
000000f0: d6d9 383e accc 773e 8468 26be 9ef1 6f3e
00000100: 8174 44bd 0079 12bd cfa5 70bd 092d 673d
00000110: a380 473d 5968 3a3d cfd2 48bd 51d6 b53d
00000120: 9396 b5be 5c53 7ebe cb24 7dbe 3548 bb3e
00000130: c534 a93e e0c8 ac3e 53d2 babe 5040 543e
00000140: 150e cebd bc4c cfbd b20d d4bd 31e6 043e
00000150: 61be f03d d8f8 023e de2d f7bd 5ae8 e53d
00000160: 51ab 753d a84d b83c 11f0 903c dc7d 9dbd
00000170: 1517 7fbd 1bb3 7ebd 876b 9e3d 5027 fb3c
00000180: 834c 65bc b61e f83a 1bd4 543c 5ca6 e0ba
00000190: c0f2 f53a dca2 29bc 932b d9bb d554 84bc
000001a0: 7c9a 81bc a9dd e13b fcac 2d3c 29a6 0d3d
000001b0: 868c 7e3c eb3c 2b3d a042 adbc 878c 013d
000001c0: dbd8 d0be 18ec 89be 6af4 8dbe 0ea0 d73e
000001d0: 4bd3 c03e 7f4f c13e 62e8 d7be cc62 7f3e
000001e0: bf7b e8be 27c8 9dbe e1ce 9dbe fdbe d53e
000001f0: e470 d23e 1a0b c03e cf5a e3be 1aeb 7d3e
00000200: 4d5a babd 347e 1dbe d448 11be d78e 0e3e
00000210: bc8b 0b3e 8a04 173e 147e e1bd 0d00 2b3e
00000220: 9ee5 d9bc 5f2a b83a 86b0 acbc d1d3 03bd
00000230: 4d23 bcba 51d2 fdbc 3c1f a53c d6c7 703d
00000240: d598 39bd 5d33 e2bc ca5c 59bd 57ee b1bb
00000250: 49b5 b93c dbc1 18bd 9de8 49ba c490 b23d
00000260: 36fe 2dbe c579 07be 35fc 07be 738d 313e
00000270: 46a2 303e faaf 333e 8ff9 3dbe 04e3 e73d
00000280: 58c4 67be ac0d 63be 4611 49be ecf5 853e
00000290: b956 7b3e 572a 8b3e c0b8 85be e8b0 113e
000002a0: c969 8abd 9649 37be 0671 34be 57c8 773d
000002b0: f2e7 bd3d 39f2 e03d 7492 51bd d98e 9f3e
000002c0: 89e4 07bf fd24 03bf 2169 04bf 89d8 ff3e
000002d0: ba46 033f f258 fa3e d2b3 03bf 5e93 e13e
000002e0: e0b5 57bf f744 2abf 51e6 15bf 963f 613f
000002f0: 92c2 563f 1f92 623f fff7 64bf 23fc 383e
00000300: 85c6 f1bd f71f 1dbe 2162 d6bd 2fa5 383e
00000310: f90d 333e b0ce 4f3e 67df 2ebe 5d10 9d3d
00000320: 29a0 6dbc bdbb 74bd a593 40bd e029 2fbc
00000330: 3674 eb3c 1a31 d83c 216e 883c ec3e b33d
00000340: 33d3 0cbf eb7d 36bf e1c6 17bf 475d 0d3f
00000350: 9ffe 0f3f e462 183f d7ca 13bf a70e d73e
00000360: 6838 21bf 00b4 05bf 7b02 ecbe 56c3 203f
00000370: 4b0f 1b3f 57bc 1b3f ec1b 23bf 5f77 4e3e
00000380: f615 ae3d bb90 ab3d ee3d c93d 40d8 c1bd
00000390: 5b89 c0bd a1d4 bfbd 9def d13d 9fb3 bcbd
000003a0: 238c 88be ad42 d0be 8702 bbbe 0956 9b3e
000003b0: 039c a03e bdeb ab3e 66e4 90be edb6 e83e
000003c0: 1c17 a2bd 2dc1 b9bd d348 a6bd bb20 8c3d
000003d0: a0c6 ac3d e158 953d f6fb afbd eaf3 633d
000003e0: 9be8 68be 637b 55be 6066 2bbe 65f3 983e
000003f0: eead 8a3e 1705 a13e 1472 90be 401f e73d

embedding_user_mf.weight f4 [6040, 8]
0.086546384 0.1485809 -0.24878702 0.38776046 0.08005383 -0.30405328 -0.03893678 -0.60081387
-0.023786543 -0.18422067 0.04860248 0.7674937 0.14292903 0.08700481 0.35361636 0.08056393
0.30684745 -0.21553566 -0.13611196 0.097650215 -0.048636377 0.48152506 0.2740667 -0.37660956
-0.077918805 -0.0611684 0.19318295 0.48789713 -0.31491157 0.68072426 0.3277088 -0.10636832
0.012097433 -0.3388906 0.030375704 0.1400531 -0.5460436 -0.40512323 -0.17511861 0.06709616
0.30647537 0.12554565 -0.29462904 0.2938675 0.5005809 -0.06600783 0.2546652 -0.1898235
0.48777723 -0.47235712 0.22958563 0.3866958 -0.346961 0.387329 0.19964974 0.036429133
0.2521133 -0.4961463 0.15594114 0.54643536 -0.34325954 -0.5176113 -0.009521545 -0.031190326
0.050818447 -0.65829784 0.089882605 0.41716993 -0.19228943 -0.29131776 -0.21321388 -0.24452846
0.1453655 0.18162641 -0.5274623 0.29678014 0.18772689 0.238015 0.004014808 -0.42872685
0.030577162 -0.4537853 -0.3994594 -0.1548087 -0.20847331 -0.3559337 -0.013133779 -0.4477354
-0.22943372 -0.26053882 0.13928881 0.15290935 -0.10528355 0.26583305 -0.13367869 -0.2495111
0.3518362 0.03627152 -0.081173316 0.69728535 -0.0026644587 0.43717825 0.06737977 0.11428103
-0.005174307 -0.22311144 0.10059921 -0.088138364 -0.22139779 0.07822691 0.1591153 -0.42926565
0.48675853 -0.6560337 0.23656787 0.19310847 0.042815126 -0.20990053 0.26921043 -0.4180231
0.48746595 0.08233464 0.030676013 -0.14681941 0.344324 -0.094185114 0.094383076 0.024014384
0.037773535 -0.065594755 0.15295088 0.21103163 -0.5609997 0.31898144 -0.2433352 0.29804882
0.43395293 0.14070636 -0.12839288 0.5510453 -0.20082736 0.068944216 -0.12900883 -0.32459363
0.48540884 0.1970925 0.1357614 -0.070397064 -0.16800898 0.49246833 0.13988906 -0.36991537
0.23629503 -0.39901888 0.012141799 0.16671751 -0.28245744 0.27554074 -0.10703619 -0.15999858
0.5504753 0.08469686 -0.14417256 2.2963175e-05 -0.13217597 0.1686255 -0.28985885 -0.3662228
0.4755385 -0.44493112 -0.2069738 -0.1553385 -0.49174502 0.24245343 0.012212605 -0.42341554
-0.08654946 -0.15185867 -0.1041206 0.11586726 -0.6467359 0.37034076 -0.10843516 0.08692926
-0.016486946 -0.26869607 -0.5298915 0.24539779 -0.19262889 -0.20593762 0.2670533 -0.16904227
0.5845985 -0.34455296 -0.04007138 0.06633872 -0.16502845 0.344162 -0.36518973 -0.17308278
0.43599045 -0.25108546 -0.5384512 0.015438688 0.110297486 -0.15542348 0.59886235 -0.20871073
-0.32466072 0.21093611 -0.12772168 0.18833447 -0.071228005 0.2617783 -0.040674422 -0.17817362
-0.24729885 0.078033544 -0.24247631 0.4034803 -0.32670227 -0.02247056 0.11150563 -0.27447024
0.040760063 -0.113682 0.23093216 0.50929695 -0.17451255 0.729063 0.4465065 0.19550988
-0.22561648 -0.23198785 0.114860795 0.17165609 -0.293657 -0.32237217 -0.17366397 -0.14608663
-0.13953747 0.061283108 -0.7426255 -0.11912348 0.42056456 0.3910126 0.115088 -0.07405632
-0.0995774 -0.23841159 0.058529653 0.27256617 -0.21737282 -0.25106108 -0.029693335 -0.08976721
00000000: 3b3f b13d 9725 183e 06c2 7ebe 8a88 c63e
00000010: 43f3 a33d dfac 9bbe 2c7c 1fbd f0ce 19bf
00000020: ffdb c2bc 58a4 3cbe 6513 473d 787a 443f
00000030: fd5b 123e 942f b23d 340d b53e b4fe a43d
00000040: 1c1b 9d3e 61b5 5cbe ef60 0bbe d6fc c73d
00000050: f036 47bd 748a f63e 7852 8c3e f8d2 c0be
00000060: e593 9fbd b78b 7abd c0d1 453e a7cd f93e
00000070: 173c a1be f243 2e3f 73c9 a73e a2d7 d9bd
00000080: 5034 463c 1283 adbe 78d6 f83c 146a 0f3e
00000090: 83c9 0bbf 506c cfbe 4b52 33be b669 893d
000000a0: 57ea 9c3e 0a8f 003e 9ed9 96be cd75 963e
000000b0: 1226 003f 1d2f 87bd 7a63 823e 1761 42be
000000c0: f0bd f93e cbd8 f1be 7f18 6b3e fefc c53e
000000d0: dfa4 b1be fd4f c63e fb70 4c3e b736 153d
000000e0: ff14 813e e306 febe 09af 1f3e 30e3 0b3f
000000f0: b7bf afbe 2d82 04bf 4100 1cbc db82 ffbc
00000100: 0127 503d 3586 28bf 5f14 b83d 4c97 d53e
00000110: 85e7 44be 9a27 95be bd54 5abe ab65 7abe
00000120: b2da 143e 46fc 393e c507 07bf 91f3 973e
00000130: 7a3b 403e 34ba 733e a78e 833b 1682 dbbe
00000140: f57c fa3c 8c56 e8be f185 ccbe 2c86 1ebe
00000150: 077a 55be f13c b6be 102f 57bc 933d e5be
00000160: acf0 6abe 5865 85be baa1 0e3e 4594 1c3e
00000170: e79e d7bd 451b 883e 11e3 08be d67f 7fbe
00000180: e023 b43e 7291 143d 323e a6bd 4b81 323f
00000190: 339e 2ebb d4d5 df3e 68fe 893d 2c0c ea3d
000001a0: 3c8d a9bb 5377 64be f506 ce3d e381 b4bd
000001b0: 1ab6 62be 6e35 a03d 1fef 223e b5c8 dbbe
000001c0: 6a38 f93e d3f1 27bf d93e 723e 3abe 453e
000001d0: ea5e 2f3d 2af0 56be f3d5 893e 2007 d6be
000001e0: 2395 f93e 109f a83d 434c fb3c d457 16be
000001f0: 3c4b b03e 20e4 c0bd ea4b c13d d0b9 c43c
00000200: 6cb8 1a3d 8b56 86bd 289f 1c3e ad18 583e
00000210: ad9d 0fbf 8951 a33e dd2c 79be db99 983e
00000220: 142f de3e 5415 103e 6c79 03be 4e11 0d3f
00000230: b0a5 4dbe a032 8d3d e41a 04be 2331 a6be
00000240: 8287 f83e 9ed2 493e 0905 0b3e 562c 90bd
00000250: 8c0a 2cbe cf24 fc3e 143f 0f3e 8c65 bdbe
00000260: 53f7 713e 344c ccbe 65ee 463c ffb7 2a3e
00000270: 439e 90be ad13 8d3e ca35 dbbd abd6 23be
00000280: f3eb 0c3f 8c75 ad3d f9a1 13be 0ba1 c037
00000290: 2359 07be 2aac 2c3e 6168 94be 8e81 bbbe
000002a0: c879 f33e 03ce e3be f1f0 53be 0e11 1fbe
000002b0: 01c6 fbbe b645 783e 6117 483c ecc9 d8be
000002c0: d840 b1bd d780 1bbe 2e3d d5bd d04b ed3d
000002d0: 7c90 25bf 4e9d bd3e 4113 debd f807 b23d
000002e0: a20f 87bc 8892 89be f8a6 07bf 8f49 7b3e
000002f0: 8240 45be 50e1 52be 36bb 883e 6b19 2dbe
00000300: 3fa8 153f 3f69 b0be e321 24bd 98dc 873d
00000310: 38fd 28be 0036 b03e 26fa babe 9d3c 31be
00000320: 243a df3e 468e 80be f0d7 09bf 8df2 7c3c
00000330: a6e3 e13d 5527 1fbe 0b4f 193f 44b8 55be
00000340: ee39 a6be a3ff 573e 79c9 02be c0da 403e
00000350: fddf 91bd ce07 863e 399a 26bd 2573 36be
00000360: e93b 7dbe 0dd0 9f3d b64b 78be f894 ce3e
00000370: 8545 a7be 2e14 b8bc 105d e43d 5d87 8cbe
00000380: 06f4 263d 1cd2 e8bd 7b79 6c3e 4961 023f
00000390: 6bb3 32be dfa3 3a3f 809c e43e be33 483e
000003a0: 0208 67be 398e 6dbe 233c eb3d 9dc6 2f3e
000003b0: 365a 96be f70d a5be f8d4 31be bc97 15be
000003c0: e9e2 0ebe ff03 7b3d b41c 3ebf 03f7 f3bd
000003d0: 3d54 d73e ce32 c83e 42b3 eb3d d7aa 97bd
000003e0: 3cef cbbd 2b22 74be cabc 6f3d cb8d 8b3e
000003f0: fb96 5ebe 148b 80be 703f f3bc dfd7 b7bd

embedding_item_mf.weight f4 [3706, 8]
0.45668554 0.06959718 -0.17671794 0.17160752 0.13769244 0.10403558 0.2916004 0.45788965
-0.15350842 -0.40735596 0.08940294 0.041152697 0.17150594 -0.107103564 -0.5279433 0.34356573
0.15338744 -0.8310874 0.19873604 0.5201658 -0.26553607 -0.22015579 0.19058064 0.29087007
0.068942234 0.35062087 -0.25939658 -0.0087245265 -0.3236334 -0.28567836 0.03597662 0.3445696
-0.2906125 0.11024947 0.22586957 0.15419337 -0.07430883 0.016733358 -0.14238474 0.6147416
-0.04813716 0.19685651 0.59621465 0.36959282 0.3506061 0.3544644 0.12040744 0.33240333
0.18985042 -0.18277912 -0.21718472 0.6404795 -0.27893704 0.5537114 0.27827424 0.17808306
0.23648524 0.071492106 0.37590486 -0.12960318 0.2878135 0.19750485 0.28719407 0.8075879
-0.09025535 -0.841319 0.20001663 0.44896728 0.079892375 0.048245672 -0.28410766 1.0770226
0.21579105 -0.38159323 0.182827 0.6089095 0.16333614 0.21545842 0.23030035 0.991681
-0.3711929 -0.51989716 0.20259434 0.66648 0.16425507 -0.29394415 -0.33595908 0.9542221
0.29261136 -0.9342836 0.12877615 0.27934942 -0.5437023 -0.2730149 -0.1102874 0.073611535
0.22392888 -0.5202302 -0.11001657 0.34784916 -0.30705452 -0.16586195 0.22849847 0.640883
0.21202685 0.44616294 0.87946874 -0.08527794 0.23322764 0.27715734 0.48197186 0.9701374
0.060481668 -0.4126364 0.22129868 0.03160171 -0.20030805 -0.10048896 0.08752986 0.43520567
0.201867 0.25239503 0.560224 -0.27657667 0.11520022 0.35663027 0.33963713 0.4988612
-0.32649297 -0.4549317 -0.044527587 0.27515894 -0.16143529 -0.12810193 -0.4415888 0.3779506
-0.12580167 -0.70138127 0.12397774 0.41319004 -0.00017369905 -0.024181357 -0.16592601 1.022885
0.0448261 0.13200389 0.1516591 0.4676377 0.23191576 -0.56056327 0.335162 0.34188265
-0.04008266 0.11990746 0.7787973 0.04425359 0.28308228 0.32396856 0.40945822 0.64190197
-0.041899815 0.4295735 0.49849284 0.03954985 -0.10629921 -0.15013935 -0.069891185 0.4278982
0.22403137 -0.054998923 0.1452455 0.21868072 0.21202618 0.022436084 -0.76589936 0.22057235
-0.04985042 0.16037461 0.75954247 0.18115246 0.3742564 0.587476 0.2139812 0.70260227
0.18310711 0.2753235 -0.16915357 0.52328014 0.24189176 -0.14110106 0.24765773 0.4555398
-0.22130936 0.11094287 -0.0042583006 -0.036525737 -0.4117837 -0.42695737 0.20407759 -0.22420377
-0.5978642 -0.7203627 0.11295709 0.36434436 -0.2669483 -0.38458842 -0.40155303 0.4495641
-0.06929965 -0.19355881 0.4980997 0.46483755 0.55705667 0.2822291 0.19417514 0.5438033
-0.24089006 0.11471356 0.08632191 0.34428903 -0.030810596 -0.38181528 0.33474684 0.1225483
0.44022012 -0.12428511 -0.3969963 0.015313979 -0.16264328 -0.873138 -0.43372887 -0.30525768
0.21314661 -0.05550367 0.33840352 0.20047687 0.18368392 -0.076091714 -0.81402445 0.021400219
-0.36258093 -0.20495605 0.16100305 0.33427683 0.051793575 -0.11106417 -0.332542 0.5158052
-0.010641798 0.18119986 -0.29649726 -0.2539145 -0.12278426 -0.5251768 0.03596766 0.1298949
00000000: b0d2 e93e f788 8e3d 8cf5 34be e2b9 2f3e
00000010: 3fff 0c3e 9b10 d53d a64c 953e 8370 ea3e
00000020: 5031 1dbe f690 d0be e318 b73d bb8f 283d
00000030: 419f 2f3e 1d59 dbbd 4b27 07bf d9e7 af3e
00000040: 9911 1d3e 25c2 54bf 7681 4b3e 9629 053f
00000050: 58f4 87be 8570 61be 9227 433e ecec 943e
00000060: 9631 8d3d 9484 b33e a1cf 84be 51f1 0ebc
00000070: 47b3 a5be 6f44 92be 385c 133d 6d6b b03e
00000080: 29cb 94be 79ca e13d 5a4a 673e dee4 1d3e
00000090: 3a2f 98bd 6514 893c 4ecd 11be b55f 1d3f
000000a0: 782b 45bd c194 493e 86a1 183f 453b bd3e
000000b0: a582 b33e 5c7c b53e 2d98 f63d c530 aa3e
000000c0: 2668 423e 732a 3bbe ac65 5ebe 77f6 233f
000000d0: d6d0 8ebe 08c0 0d3f f679 8e3e 685b 363e
000000e0: 3029 723e 746a 923d 9a76 c03e b2b6 04be
000000f0: 4b5c 933e b63e 4a3e 1a0b 933e 15be 4e3f
00000100: ccd7 b8bd af60 57bf 29d1 4c3e 0adf e53e
00000110: 9d9e a33d 419d 453d 8f76 91be e0db 893f
00000120: 54f8 5c3e 3060 c3be 0037 3b3e 7ee1 1b3f
00000130: 9741 273e 22a1 5c3e dbd3 6b3e cede 7d3f
00000140: ff0c bebe fb17 05bf e474 4f3e 6f9e 2a3f
00000150: 7b32 283e d97f 96be d402 acbe e647 743f
00000160: 28d1 953e 362d 6fbf e5dd 033e e306 8f3e
00000170: 1330 0bbf 9cc8 8bbe 5cde e1bd a5c1 963d
00000180: 9d4d 653e ce2d 05bf 5e50 e1bd 4919 b23e
00000190: 4036 9dbe b7d7 29be 81fb 693e e910 243f
000001a0: 911d 593e 786f e43e dd24 613f 33a6 aebd
000001b0: 3ad3 6e3e 91e7 8d3e 04c5 f63e ed5a 783f
000001c0: a0bb 773d 1445 d3be 1f9c 623e cb70 013d
000001d0: 8e1d 4dbe 28cd cdbd db42 b33d 47d3 de3e
000001e0: 39b6 4e3e ec39 813e d76a 0f3f 759b 8dbe
000001f0: 18ee eb3d 3e98 b63e ebe4 ad3e bc6a ff3e
00000200: 162a a7be cfec e8be 8f62 36bd a2e1 8c3e
00000210: 4b4f 25be 272d 03be ed17 e2be be82 c13e
00000220: 27d2 00be b98d 33bf 0be8 fd3d a58d d33e
00000230: fc22 36b9 fb17 c6bc 82e8 29be e5ed 823f
00000240: 939b 373d 072c 073e 864c 1b3e 356e ef3e
00000250: 537b 6d3e 1381 0fbf 5b9a ab3e 3e0b af3e
00000260: b72d 24bd 0b92 f53d 435f 473f 4143 353d
00000270: 29f0 903e 35df a53e 82a4 d13e b053 243f
00000280: 249f 2bbd 0ff1 db3e 743a ff3e 06ff 213d
00000290: 66b3 d9bd 21be 19be 1c23 8fbd 7915 db3e
000002a0: 7b68 653e 8d46 61bd 3dbb 143e d7ed 5f3e
000002b0: 641d 593e e1cb b73c fb11 44bf b8dd 613e
000002c0: f42f 4cbd 3e39 243e 6071 423f 0880 393e
000002d0: 899e bf3e d464 163f e31d 5b3e bedd 333f
000002e0: 6e80 3b3e 34f7 8c3e 9836 2dbe b0f5 053f
000002f0: 79b2 773e cc7c 10be fd99 7d3e 833c e93e
00000300: ec9e 62be 0436 e33d 3789 8bbb 039c 15bd
00000310: 50d5 d2be 289a dabe b7f9 503e ac95 65be
00000320: a10d 19bf b169 38bf 0c56 e73d 588b ba3e
00000330: 73ad 88be c6e8 c4be 5c98 cdbe 442d e63e
00000340: faec 8dbd 4834 46be ed06 ff3e 30ff ed3e
00000350: 449b 0e3f 5580 903e d9d5 463e b136 0b3f
00000360: e2ab 76be f1ee ea3d 8bc9 b03d a746 b03e
00000370: 8166 fcbc 4b7d c3be f063 ab3e 9afa fa3d
00000380: 8864 e13e 3189 febd 1943 cbbe 7ce7 7a3c
00000390: f68b 26be f985 5fbf b611 debe bc4a 9cbe
000003a0: 1b43 5a3e d157 63bd 3a43 ad3e cf49 4d3e
000003b0: a317 3c3e f9d5 9bbd e863 50bf 834f af3c
000003c0: 35a4 b9be 00e0 51be fcdd 243e 5526 ab3e
000003d0: 8025 543d 9d75 e3bd f242 aabe cf0b 043f
000003e0: f05a 2ebc 758c 393e 7dce 97be 1501 82be
000003f0: 5076 fbbd fd71 06bf d352 133d 2b03 053e

fc_layers.0.weight f4 [64, 16]
-0.5819254 0.10982772 0.0727823 0.07677827 -0.05110493 -0.076246634 -0.22188689 -0.2853076
0.06430052 0.045150183 -0.043117166 -0.3064367 -0.14582878 -0.3008377 0.31202585 0.16699813
-0.79452026 0.063392565 0.019405624 -0.026709342 -0.16830762 0.055148512 -0.2094966 -0.39389777
-0.02337719 0.21510118 0.2884236 -0.063489355 -0.04802646 -0.13003157 0.0049271807 -0.6472108
0.36081806 0.30488592 0.2402086 -0.0038074185 0.29504812 -0.0077560935 0.20067649 0.24117687
0.07260533 -0.030545162 -0.02945848 -0.14136691 -0.03926186 -0.045257602 0.17484647 0.10790247
0.4531134 0.20248106 0.18334246 0.08206149 -1.1126754 -0.21159308 -0.09082188 0.032653533
0.13653812 0.293541 0.39164233 0.18419558 -0.0581584 0.1002827 -0.17482097 -0.77880305
0.28622332 0.2914956 0.23688188 0.013626634 0.29347965 -0.013156226 0.1592775 0.22599229
0.08218612 -0.0030116045 -0.015114617 -0.14290859 -0.05261129 -0.06901079 0.1753114 0.09550898
0.18893248 0.16590784 0.14715587 0.07754047 -0.89254487 -0.13008185 -0.16543372 -0.16952729
0.053401437 0.22084183 0.2955548 0.09420193 -0.035504244 0.0022973912 -0.14650051 -0.71205074
-3.1971706e-36 3.5519258e-36 3.778775e-36 4.856055e-36 -4.6061334e-36 -5.569066e-36 -4.6775445e-36 -4.586318e-36
-3.9026942e-37 -6.3316898e-37 -5.9307395e-37 -1.1354082e-37 4.4070962e-37 7.877037e-38 -1.0708431e-38 4.3206704e-37
0.009178339 0.0042860685 0.0047714747 0.0057453196 0.016707249 -0.002053281 0.01156667 0.009308972
0.0005610159 0.005949594 0.01146479 0.009161676 -0.00020218716 0.0020441813 -0.012533837 -0.020516219
-5.659501e-32 1.1882539e-31 1.2357529e-31 8.0134114e-32 -9.582957e-33 -8.5072254e-32 -4.332967e-32 -4.5233296e-32
5.8205837e-32 3.978102e-32 5.571239e-32 -7.6241024e-32 -5.8504524e-32 -6.5346795e-32 8.284779e-32 -4.1301735e-32
-0.41526413 0.07342561 0.038347527 -0.006847613 -0.6849493 0.013402163 -0.23328143 -0.34643728
0.004815919 0.2618415 0.32695594 0.07921576 -0.03403157 -0.025449688 -0.14457408 -0.80916905
0.4085236 0.06795289 0.056768462 -0.07476643 -1.1404836 -0.096068785 -0.2014255 -0.061733264
0.11026996 0.26690897 0.38390875 0.27034044 -0.0024706512 0.18361351 -0.22419591 -0.77043384
-0.11061091 0.3251664 0.28620195 0.17581682 0.30035847 -0.16040888 0.05804275 0.06496469
0.07494179 0.07321103 0.02124094 -0.18380213 -0.06449942 -0.13128877 0.19542874 0.05280212
-0.438537 0.28589132 0.22642335 0.22838344 -0.018493475 -0.19755302 -0.21071033 -0.22110131
0.080453336 0.04626739 -0.05793893 -0.31830594 -0.14981154 -0.29970527 0.32754967 0.29050165
1.6849133e-25 6.0021153e-25 5.6018916e-25 4.8704396e-25 2.1206418e-25 -4.2960196e-25 1.8958223e-25 2.00185e-25
1.7984458e-25 1.3593891e-25 1.02129954e-26 -2.4610022e-25 -2.3011536e-25 -2.723892e-25 2.2921993e-25 7.4243724e-26
-0.7902368 -0.017971411 -0.03574312 -0.10307258 -0.5116453 0.0697229 -0.288404 -0.46769068
-0.027252547 0.254549 0.34417558 0.030753111 -0.026564807 -0.04544184 -0.09278548 -0.8140402
-0.16056128 0.08946112 0.07066462 0.03162452 -0.7941913 -0.051348954 -0.2385785 -0.2897869
0.027168212 0.24674143 0.28170693 0.04793022 -0.047590148 -0.040508334 -0.10316103 -0.7372629
00000000: 10f9 14bf 5bed e03d e30e 953d ed3d 9d3d
00000010: 6753 51bd 3227 9cbd 5136 63be d613 92be
00000020: feaf 833d 66ef 383d a09b 30bd 45e5 9cbe
00000030: 2454 15be 6607 9abe dac1 9f3e 8f01 2b3e
00000040: ae65 4bbf f6d3 813d 8bf8 9e3c 8dcd dabc
00000050: d558 2cbe 68e3 613d 4786 56be f8ac c9be
00000060: 8581 bfbc 7c43 5c3e 42ac 933e b506 82bd
00000070: 65b7 44bd ff26 05be 3074 a13b 9baf 25bf
00000080: 25bd b83e 021a 9c3e 3ef9 753e e285 79bb
00000090: 8c10 973e d426 febb 237e 4d3e 12f7 763e
000000a0: 1ab2 943d d939 fabc e952 f1bc 7dc2 10be
000000b0: 0bd1 20bd 0960 39bd f40a 333e f8fb dc3d
000000c0: 7bfe e73e 3257 4f3e 20be 3b3e db0f a83d
000000d0: 266c 8ebf dbab 58be d200 babd b6bf 053d
000000e0: a6d0 0b3e 024b 963e 5885 c83e c49d 3c3e
000000f0: 8137 6ebd 0461 cd3d 4504 33be a35f 47bf
00000100: dd8b 923e e93e 953e 2a91 723e 3f42 5f3c
00000110: f742 963e 368d 57bc a419 233e 866a 673e
00000120: 3251 a83d 575e 45bb 4ca3 77bc a156 12be
00000130: f07e 57bd 8755 8dbd d584 333e 369a c33d
00000140: 8477 413e bfe3 293e 07b0 163e 8acd 9e3d
00000150: d27d 64bf 2d34 05be 7567 29be 9098 2dbe
00000160: 77bb 5a3d 5c24 623e f552 973e f1ec c03d
00000170: e66c 11bd d48f 163b 3b04 16be f548 36bf
00000180: 1bfe 8784 0c15 9704 37bb a004 c28d ce04
00000190: 5aec c384 c2e1 ec84 f3f5 c684 9514 c384
000001a0: 43cd 0483 cc74 5783 07d0 4983 348b 1a82
000001b0: 39f7 1503 f06e d601 c09a 7480 5906 1303
000001c0: be60 163c 2672 8c3b 085a 9c3b 3c43 bc3b
000001d0: a4dd 883c 5790 06bb 2182 3d3c a984 183c
000001e0: 2411 133a d0f4 c23b d1d6 3b3c db1a 163c
000001f0: 3402 54b9 acf7 053b b95a 4dbc a111 a8bc
00000200: d6ed 928b 823e 1a0c ef68 200c 410a d00b
00000210: bd07 478a 36dc dc8b 03fb 608b 5ddd 6a8b
00000220: 6a1c 970b 0c8e 4e0b 3ca3 900b daee c58b
00000230: ede2 978b 65a6 a98b cd15 d70b 6c73 568b
00000240: 809d d4be 2b60 963d 4c12 1d3d f161 e0bb
00000250: d658 2fbf bf94 5b3c 54e1 6ebe 3a60 b1be
00000260: dbce 9d3b 1710 863e c566 a73e df3b a23d
00000270: b064 0bbd dd7b d0bc 3a0b 14be b425 4fbf
00000280: 012a d13e e32a 8b3d 0c86 683d 241f 99bd
00000290: 5efb 91bf b6bf c4bd 7c42 4ebe 05dc 7cbd
000002a0: 37d5 e13d 4ba8 883e b08f c43e 106a 8a3e
000002b0: a6ea 21bb 2e05 3c3e 9d93 65be 273b 45bf
000002c0: f987 e2bd 367c a63e 1089 923e 5309 343e
000002d0: 96c8 993e 3a42 24be 3cbe 6d3d 350c 853d
000002e0: 157b 993d aaef 953d 7b01 ae3c a036 3cbe
000002f0: 4618 84bd 9070 06be 791e 483e 0947 583d
00000300: ec87 e0be 5960 923e 86db 673e 59dd 693e
00000310: a17f 97bc 574b 4abe 73c4 57be 6268 62be
00000320: b8c4 a43d e082 3d3d 5f51 6dbd fff8 a2be
00000330: 3268 19be f872 99be 97b4 a73e a2bc 943e
00000340: 0995 5016 a8c1 3917 c25e 2d17 99bb 1617
00000350: e942 8316 93f4 0497 02b1 6a16 29d1 7716
00000360: 06a3 5e16 c348 2816 0a4a 4a14 2354 9896
00000370: 3c6f 8e96 cb99 a896 59e1 8d16 8dd1 b715
00000380: f54c 4abf c838 93bc 6167 12bd b817 d3bd
00000390: 30fb 02bf e1ca 8e3d b0a9 93be 2775 efbe
000003a0: bc40 dfbc 3f54 823e c837 b03e f3ed fb3c
000003b0: 709e d9bc 3921 3abd 5006 bebd f064 50bf
000003c0: 2d6a 24be 6437 b73d 9db8 903d b688 013d
000003d0: 1f50 4bbf 4853 52bd ec4d 74be f35e 94be
000003e0: df8f de3c c9a9 7c3e e43b 903e 7a52 443d
000003f0: e3ed 42bd 11ec 25bd 1746 d3bd 43bd 3cbf

fc_layers.0.bias f4 [64]
0.2857011 0.13404657 0.34371406 -0.28292814 0.34569475 -0.18634652 -1.587244e-35 -0.06059801
-5.372253e-31 -0.07100978 -0.3589398 0.3421369 0.2962284 -3.4554948e-24 0.015374995 -0.13485532
-5.167762e-31 0.2922256 -2.9920386e-34 -1.0483595e-31 -0.060656354 -2.2682089e-32 0.27431908 0.35218343
-1.0602063e-33 0.38452822 0.33792415 0.367154 -2.9253266e-29 -4.8056473e-28 0.3571148 -0.24297078
-1.8830687e-23 0.36062327 -9.675681e-34 0.36480364 0.13498518 -2.5244288e-30 -2.1336662e-24 -2.1114922e-15
-0.010721464 0.358397 -2.2994794e-36 0.3627346 0.37184918 0.3614529 -1.3876663e-35 -9.2205605e-35
-0.17800623 -1.4804346e-32 -8.2327795e-34 -0.00021293503 -4.0855313e-25 0.013268502 -6.624594e-31 -3.4847514e-36
0.34558582 -4.3109093e-37 -1.10405925e-36 -0.15377629 -6.208385e-25 0.37804747 -0.0021423565 0.3314882
00000000: 6a47 923e 8143 093e 4afb af3e f5db 90be
00000010: e7fe b03e 9fd1 3ebe e4c8 a885 9e35 78bd
00000020: ef56 2e8d 936d 91bd f5c6 b7be 912c af3e
00000030: 40ab 973e 90ad 8598 67e7 7b3c 8317 0abe
00000040: 16b4 278d 989e 953e e6da c687 b815 088c
00000050: cc72 78bd 568b eb8a 8d73 8c3e 6351 b43e
00000060: 3028 b088 e2e0 c43e 6504 ad3e 9cfb bb3e
00000070: e954 1490 0b4c 1892 c0d7 b63e 55cd 78be
00000080: 861e b699 9da3 b83e ccc3 a088 8bc7 ba3e
00000090: 8e39 0a3e 56ce 4c8e 9d15 2598 2826 18a7
000000a0: 14a9 2fbc d07f b73e 3a9e 4384 59b8 b93e
000000b0: 0463 be3e 5b10 b93e df8f 9385 e21f f586
000000c0: 4447 36be b4bc 998a 5fca 8888 5047 5fb9
000000d0: d4e1 fc96 2264 593c f9fa 568d 9539 9484
000000e0: a0f0 b03e 51b1 1283 90d8 bb83 8877 1dbe
000000f0: e523 4097 708f c13e c766 0cbb d2b8 a93e

fc_layers.1.weight f4 [32, 64]
0.20555612 0.24328078 0.16829458 0.6808142 0.13797227 0.28371403 7.198452e-37 -0.0043955767
-1.4800186e-31 0.23013742 0.8487739 0.2008085 0.20627421 3.6147737e-24 0.26776806 0.22936223
5.1134155e-31 0.21625711 -1.6299413e-34 -4.4000596e-32 0.003558173 2.045605e-33 0.20198861 0.18113703
8.4010065e-34 0.14174122 0.21354614 0.15214366 5.0306e-29 -1.1249177e-28 0.1663385 0.48887533
6.774392e-26 0.16677298 3.561727e-35 0.14261977 0.24223977 -2.2988043e-30 3.8741783e-24 1.6003027e-16
-0.0006336128 0.15084586 -1.9935282e-36 0.14423093 0.14078064 0.1392988 -1.13694274e-35 6.6853733e-35
-0.34458402 2.3025073e-33 8.669693e-35 -4.040407e-14 -5.526222e-26 0.006872402 -2.0427908e-32 3.0836727e-38
0.2158216 -1.8039639e-37 -5.3424995e-37 -0.20615722 -8.6103897e-26 0.15367733 0.0077782418 0.16623737
0.23139505 0.25531715 0.17848778 0.6878729 0.15235281 0.30016953 7.084822e-37 -0.005899775
-1.4317786e-31 0.25935546 0.8505179 0.21125431 0.24467476 3.767768e-24 0.2506368 0.23353338
5.295371e-31 0.247921 -1.6974796e-34 -4.2125057e-32 0.008350187 2.118151e-33 0.21625046 0.17671649
8.573822e-34 0.17068157 0.24587233 0.16438015 4.9914314e-29 -1.1019856e-28 0.1688312 0.49916065
6.3681234e-26 0.17372303 2.9402575e-35 0.15248059 0.26432386 -2.2254956e-30 3.8974095e-24 1.5552373e-16
-0.0005928309 0.16741458 -1.9816773e-36 0.17685886 0.14418837 0.15265992 -1.0855716e-35 7.0900034e-35
-0.3506864 2.3176667e-33 8.610813e-35 -5.5333295e-14 -5.790199e-26 0.009933338 -2.1282388e-32 2.4853385e-38
0.2289273 -1.8975828e-37 -5.2949814e-37 -0.20099287 -8.7742866e-26 0.18710497 0.0076137697 0.18146938
-1.2756979e-32 -3.956249e-33 -3.287509e-33 1.798699e-34 -2.7749014e-33 -8.764306e-34 -4.916519e-38 4.910459e-38
-4.9168054e-38 9.4323624e-35 1.0802888e-33 -7.4203485e-33 -1.4566651e-32 -4.912696e-38 -1.7636386e-33 -7.172272e-35
4.9053714e-38 -1.3906004e-32 -4.9049325e-38 4.908086e-38 -2.792177e-38 -4.911121e-38 -1.3489703e-32 -4.8028076e-33
4.90509e-38 -9.938567e-33 -1.5579852e-32 -5.259241e-33 -4.916541e-38 4.911114e-38 -5.1459873e-33 -1.9075976e-34
4.908627e-38 -4.8142937e-33 -4.9160313e-38 -3.7627824e-33 -3.525037e-33 4.907878e-38 -4.91564e-38 -4.905033e-38
-4.9133795e-38 -5.490893e-33 4.9047206e-38 -4.918151e-33 -5.5920478e-33 -4.8795696e-33 4.9067447e-38 -4.9157673e-38
-1.1607379e-33 -4.917636e-38 -4.908857e-38 4.9089806e-38 -4.9052307e-38 -4.8422245e-33 4.909006e-38 -4.913587e-38
-7.8988555e-33 -4.9167124e-38 -4.911742e-38 -1.2075432e-33 4.905191e-38 -1.0289487e-32 -1.464148e-34 -2.606797e-33
-4.915833e-38 -4.9067817e-38 -5.125867e-38 -4.904639e-38 -4.948649e-38 -4.9071987e-38 4.912207e-38 4.906161e-38
4.90938e-38 -4.91568e-38 -4.9139496e-38 -4.907656e-38 -4.9181036e-38 4.9097636e-38 -4.908545e-38 -4.9057464e-38
-4.916358e-38 -4.912684e-38 4.915695e-38 4.917736e-38 -4.908687e-38 -4.906501e-38 -5.552855e-38 -5.1166396e-38
-4.915778e-38 -4.9900244e-38 -4.913126e-38 -5.055794e-38 4.907665e-38 4.904718e-38 -5.124311e-38 -4.9176725e-38
4.909142e-38 -5.1278555e-38 4.9072435e-38 -4.9601336e-38 -4.9083797e-38 4.9054644e-38 -4.9132966e-38 -4.9160504e-38
-4.9170257e-38 -5.048747e-38 4.916854e-38 -4.991354e-38 -4.9154843e-38 -4.9991855e-38 -4.905337e-38 4.915103e-38
4.914785e-38 4.9146216e-38 -4.912598e-38 -4.9145146e-38 4.910059e-38 4.9133386e-38 -4.9130096e-38 4.9146693e-38
-4.916426e-38 -4.917409e-38 -4.9056926e-38 4.91675e-38 -4.9148576e-38 -5.1172814e-38 -4.9073674e-38 -5.206685e-38
00000000: 4e7d 523e 991e 793e 6a55 2c3e d749 2e3f
00000010: 9a48 0d3e f742 913e 5cf3 7403 c508 90bb
00000020: 0e1e 408c 25a9 6b3e 3f49 593f bea0 4d3e
00000030: 8c39 533e fcd6 8b18 e518 893e efdd 6a3e
00000040: 98f0 250d 8172 5d3e 07a8 5887 d376 648b
00000050: 3d30 693b 35f1 2909 1ad6 4e3e fc7b 393e
00000060: ee95 8b08 9c24 113e d7ab 5a3e 8ccb 1b3e
00000070: ec14 7f10 ab99 0e91 a454 2a3e de4d fa3e
00000080: cfb9 a715 89c6 2a3e b75f 3d06 eb0a 123e
00000090: b40d 783e 4c80 3a8e 01e0 9518 9980 3825
000000a0: 0919 26ba 5677 1a3e 3397 2984 46b1 133e
000000b0: cd28 103e 58a4 0e3e 0dcd 7185 4bba b106
000000c0: 516d b0be ea48 3f09 e07a e606 b9f6 35a9
000000d0: 98d2 8895 e331 e13b b222 d48a 20e4 2701
000000e0: 5600 5d3e f88a 7582 bccb 3583 e11a 53be
000000f0: d42e d595 975d 1d3e 9fe0 fe3b 213a 2a3e
00000100: d3f2 6c3e eeb8 823e 80c5 363e 7018 303f
00000110: 6002 1c3e d2af 993e 8115 7103 e652 c1bb
00000120: 01db 398c 3dca 843e 8bbb 593f 0d53 583e
00000130: 058c 7a3e 2bc2 9118 7753 803e 6023 6f3e
00000140: 39d8 2b0d 01df 7d3e 3da2 6187 ceb9 5a8b
00000150: 39cf 083c 17f8 2f09 c370 5d3e 2bf5 343e
00000160: 0175 8e08 26c7 2e3e f5c5 7b3e 4553 283e
00000170: 7c18 7d10 7ab1 0b91 16e2 2c3e fc91 ff3e
00000180: c7aa 9d15 73e4 313e b654 1c06 df23 1c3e
00000190: 7555 873e bc8d 348e 13c6 9618 814e 3325
000001a0: 3568 1bba ba6e 2b3e 1c95 2884 7d1a 353e
000001b0: 1ea6 133e e252 1c3e 24e0 6685 107c bc06
000001c0: 2b8d b3be 528b 4009 28ea e406 f232 79a9
000001d0: bf5b 8f95 70bf 223c 4b02 dd8a 9050 0701
000001e0: eb6b 6a3e 8e24 8182 cb2d 3483 13d1 4dbe
000001f0: a63d d995 7298 3f3e ee7c f93b 1cd3 393e
00000200: de79 848a 0e56 a489 cb8e 8889 8e16 6f07
00000210: a087 6689 3c9f 9188 23d7 8581 e8ac 8501
00000220: 22d9 8581 55c1 fa06 677e b308 571d 1a8a
00000230: cd44 978a 7fbc 8581 7284 1289 f4ab be86
00000240: 7389 8501 8068 908a 6486 8581 5e9c 8501
00000250: 4405 1881 85b1 8581 c815 8c8a 3680 c789
00000260: 7d87 8501 7c6a 4e8a 5aca a18a d875 da89
00000270: 4ad7 8581 78b1 8501 86c1 d589 2f90 7d87
00000280: 23a0 8501 5afa c789 bdd3 8581 c44c 9c89
00000290: 9f6c 9289 eb9a 8501 03d1 8581 1787 8581
000002a0: 42c1 8581 3115 e489 ea84 8501 c14a cc89
000002b0: da48 e889 7cb0 ca89 0593 8501 e6d1 8581
000002c0: 54dc c088 ecde 8581 bea1 8581 9aa2 8501
000002d0: 7888 8581 5d23 c989 c7a2 8501 b4c2 8581
000002e0: 850d 248a 7cd8 8581 d9b5 8581 35a3 c888
000002f0: 3188 8501 4cb4 558a 609e 4287 7190 5889
00000300: 5bd2 8581 4793 8581 148a 8b81 5884 8581
00000310: 0db7 8681 2f96 8581 16b9 8501 f48e 8501
00000320: 63a5 8501 4ad1 8581 3bc5 8581 5f99 8581
00000330: 2ee2 8581 0fa8 8501 919f 8581 108c 8581
00000340: 04d6 8581 69bc 8581 65d1 8501 9edf 8501
00000350: 8ea0 8581 5291 8581 c029 9781 c649 8b81
00000360: f9d1 8581 65d7 8781 7ebf 8581 bea1 8981
00000370: 6f99 8501 e584 8501 3c7f 8b81 2ddf 8581
00000380: baa3 8501 f097 8b81 7f96 8501 1607 8781
00000390: 6a9e 8581 198a 8501 aec0 8581 dfd3 8581
000003a0: abda 8581 a270 8981 79d9 8501 a9e0 8781
000003b0: edcf 8581 3d17 8881 3689 8581 45cd 8501
000003c0: 0dcb 8501 eac9 8501 d0bb 8581 2bc9 8581
000003d0: 1eaa 8501 f9c0 8501 aebe 8581 3fca 8501
000003e0: 7dd6 8581 57dd 8581 b08b 8581 bfd8 8501
000003f0: 8fcb 8581 3f4e 8b81 5c97 8581 4cbd 8d81

fc_layers.1.bias f4 [32]
0.02616874 0.07135673 -4.6598665e-32 -4.908414e-38 0.025546333 -4.917605e-38 -4.909247e-38 -4.914034e-38
0.095525794 -4.9093505e-38 -5.0928666e-36 -6.259914e-37 -4.9095125e-38 -4.905228e-38 -4.90809e-38 -4.91447e-38
0.024373882 -4.912949e-38 0.047833618 -4.984355e-38 -4.9101274e-38 -4.914336e-38 -5.6897964e-38 -7.528896e-30
-4.91002e-38 -8.128397e-37 0.23874173 -6.2985406e-38 -2.9778563e-28 0.07875878 -4.9103645e-38 -8.472599e-33
00000000: d35f d63c 7a23 923d 40f4 718b a79e 8581
00000010: 8b46 d13c b4de 8581 75a4 8581 d2c5 8581
00000020: 07a3 c33d 2ea5 8581 68a0 d884 8b03 5583
00000030: 4fa6 8581 7388 8581 659c 8581 dbc8 8581
00000040: bcab c73c 42be 8581 2fed 433d e2af 8781
00000050: 98aa 8581 ecc7 8581 18e4 9a81 43b4 188f
00000060: d8a9 8581 2a4c 8a83 b678 743e 6c76 ab81
00000070: 7bbe bc91 494c a13d 3fac 8581 10f8 2f8a

fc_layers.2.weight f4 [16, 32]
0.1923838 0.20709413 -3.1543456e-32 4.9085036e-38 0.22628045 4.912291e-38 -4.910471e-38 4.911746e-38
0.18986122 -4.9143453e-38 -7.3891845e-36 2.3400433e-37 4.5992505e-38 4.9133784e-38 4.9152186e-38 4.914313e-38
0.19460216 4.9084716e-38 0.20936936 4.908884e-38 4.9073007e-38 -4.915034e-38 -3.8926233e-38 1.4777422e-30
-4.90946e-38 -3.4846055e-37 -0.69884443 4.905664e-38 -2.1599938e-29 0.19633716 -1.6796748e-38 -1.3559193e-33
-1.8087105e-34 -2.1954745e-34 -4.9169747e-38 4.9046623e-38 -2.2751374e-34 -4.9101207e-38 4.905643e-38 4.910224e-38
-2.1455412e-34 -4.90765e-38 -4.911433e-38 -4.912089e-38 4.905249e-38 -4.909239e-38 4.9127714e-38 -4.907465e-38
-1.5510157e-34 -4.915447e-38 -2.2107701e-34 -4.910175e-38 4.9150476e-38 -4.9184377e-38 4.9093236e-38 -4.9142915e-38
4.9156625e-38 -4.904937e-38 2.9102984e-35 4.909682e-38 4.914324e-38 -2.044218e-34 -4.9151833e-38 4.916101e-38
0.20539203 0.2092278 -3.1279966e-32 4.9090596e-38 0.2124566 4.9071275e-38 -4.9124356e-38 4.910718e-38
0.20177925 -4.9174814e-38 -7.3334984e-36 2.3063283e-37 4.5980874e-38 4.9118375e-38 4.910791e-38 4.9050284e-38
0.19313626 4.9134815e-38 0.20046052 4.910616e-38 4.913499e-38 9.77758e-39 -3.885045e-38 1.46667305e-30
-4.9063736e-38 -3.4399644e-37 -0.62042695 4.914244e-38 -2.1423425e-29 0.21403301 -1.6773828e-38 -1.3451752e-33
-5.543156e-38 -1.4528433e-38 -4.904641e-38 4.9091016e-38 -5.6809935e-38 4.911494e-38 4.904551e-38 4.905195e-38
-1.9983744e-38 -4.918276e-38 4.909484e-38 4.917286e-38 -4.9127506e-38 -4.911947e-38 4.9132316e-38 -4.908115e-38
-5.4135433e-38 4.9145213e-38 -6.027703e-38 -4.908954e-38 4.915518e-38 -4.906246e-38 -4.910387e-38 4.91215e-38
4.9130735e-38 -4.9130584e-38 -5.307043e-38 -4.915416e-38 -4.9050373e-38 -1.273013e-38 -4.908034e-38 -4.9131766e-38
-4.90778e-38 -4.9173553e-38 4.914853e-38 4.917558e-38 -4.905078e-38 4.914065e-38 4.913943e-38 -4.9111857e-38
-4.9094094e-38 4.907714e-38 4.9174674e-38 -4.9141575e-38 -4.9085417e-38 -4.910489e-38 -4.915297e-38 4.906937e-38
-4.9065995e-38 4.918459e-38 -4.9172213e-38 -4.9178295e-38 -4.916667e-38 -4.9126783e-38 4.915502e-38 -4.914644e-38
-4.91226e-38 4.9164327e-38 -4.913891e-38 4.9124726e-38 4.917527e-38 -4.9134457e-38 -4.9118807e-38 4.913859e-38
0.18516184 0.19164051 -3.1919136e-32 4.917411e-38 0.19417912 4.907219e-38 -4.9175425e-38 4.913867e-38
0.17660208 -4.916058e-38 -7.484044e-36 2.3885202e-37 -4.9085826e-38 4.910827e-38 4.9071757e-38 4.9116615e-38
0.1854089 4.9183637e-38 0.17220277 4.911106e-38 4.909146e-38 -4.906725e-38 -3.8903498e-38 1.4969192e-30
-4.9066533e-38 -3.5358339e-37 -0.6312248 4.9174926e-38 -2.1855554e-29 0.19982836 -1.6723314e-38 -1.3726239e-33
0.21770808 0.2194021 -3.425997e-32 4.9088993e-38 0.24249285 4.913776e-38 -4.9117075e-38 4.9099974e-38
0.2126074 -4.907889e-38 -8.027697e-36 2.571824e-37 4.604507e-38 4.9064835e-38 4.90936e-38 4.913547e-38
0.20617445 4.9178205e-38 0.22072831 4.9185486e-38 4.906924e-38 -4.9182745e-38 -3.8932062e-38 1.6058144e-30
-4.9119894e-38 -3.7814544e-37 -0.6093569 4.906242e-38 -2.3437102e-29 0.21764421 -1.6791362e-38 -1.4716612e-33
0.17176594 0.17909236 -2.9518888e-32 4.908286e-38 0.16674744 4.907542e-38 4.9141306e-38 4.904607e-38
0.17078252 -4.9153503e-38 -6.928709e-36 2.181689e-37 4.6077443e-38 4.9169114e-38 4.911555e-38 4.911168e-38
0.18517828 4.905028e-38 0.1687892 4.915153e-38 4.9078713e-38 9.923756e-39 -3.8894485e-38 1.3865652e-30
4.906773e-38 -3.2605628e-37 -0.5557391 4.90895e-38 -2.0234059e-29 0.17801946 -1.6690294e-38 -1.2713931e-33
00000000: 4200 453e 7c10 543e 72c8 238b 479f 8501
00000010: 10b6 673e acb9 8501 fdac 8581 e0b5 8501
00000020: fb6a 423e fdc7 8581 8c26 1d85 4e41 9f02
00000030: 3268 7a01 40c1 8501 13ce 8501 c3c7 8501
00000040: ca45 473e 0e9f 8501 ec64 563e eea1 8501
00000050: e596 8501 cacc 8581 40ef 5381 02c7 ef0d
00000060: f1a5 8581 6426 ed82 78e7 32bf 7d8b 8501
00000070: a50c db8f 9c0c 493e 80e6 b680 6e4a e188
00000080: 3b6b 7087 10ea 9187 50da 8581 8284 8501
00000090: 7535 9787 8caa 8581 588b 8501 44ab 8501
000000a0: 7e98 8e87 5499 8581 b1b3 8581 44b8 8581
000000b0: 9988 8501 67a4 8581 05bd 8501 0a98 8581
000000c0: 542a 4e87 aacf 8581 4eee 9287 edaa 8581
000000d0: e2cc 8501 82e4 8581 fea4 8501 9dc7 8581
000000e0: 2bd1 8501 6c86 8581 eebc 1a06 7da7 8501
000000f0: d7c7 8501 91dc 8787 d4cd 8581 39d4 8501
00000100: 4a52 523e d03f 563e 356a 228b 27a3 8501
00000110: 398e 593e b095 8501 aeba 8581 b6ae 8501
00000120: 389f 4e3e d8dd 8581 5df7 1b85 e8f5 9c02
00000130: fc57 7a01 83b6 8501 38af 8501 0f87 8501
00000140: 83c5 453e f8c1 8501 8645 4d3e 00ae 8501
00000150: 17c2 8501 ea77 6a00 a085 5381 37fb ed0d
00000160: 6f90 8581 a21c ea82 4dd4 1ebf 48c7 8501
00000170: 6442 d98f 782b 5b3e 9ca6 b680 6d81 df88
00000180: 29e6 9681 5c33 9e80 5c84 8581 72a3 8501
00000190: bfa6 9a81 1eb4 8501 bb83 8501 3888 8501
000001a0: 8c9a d980 62e3 8581 1ca6 8501 7bdc 8501
000001b0: e0bc 8581 46b7 8581 3ac0 8501 929c 8581
000001c0: e45e 9381 37c9 8501 f516 a481 6ba2 8581
000001d0: 29d0 8501 8b8f 8581 67ac 8581 b0b8 8501
000001e0: 20bf 8501 05bf 8581 b178 9081 73cf 8581
000001f0: 1f87 8581 6c9e 8a80 019c 8581 d8bf 8581
00000200: 3c9a 8581 f7dc 8581 87cb 8501 61de 8501
00000210: 6887 8581 09c6 8501 2fc5 8501 f8b1 8581
00000220: 97a5 8581 c699 8501 bfdd 8501 aec6 8581
00000230: 8b9f 8581 1dad 8581 9fce 8581 5c94 8501
00000240: 0292 8581 a8e4 8501 08dc 8581 45e0 8581
00000250: 2bd8 8581 5fbc 8581 0dd0 8501 12ca 8581
00000260: 75b9 8581 89d6 8501 d2c4 8581 f0ba 8501
00000270: 29de 8501 b8c1 8581 d0b6 8581 99c4 8501
00000280: 119b 3d3e 693d 443e cfbb 258b 5add 8501
00000290: e4d6 463e 5396 8501 45de 8581 a8c4 8501
000002a0: 2dd7 343e edd3 8581 032b 1f85 e48d a202
000002b0: d49f 8581 78af 8501 0696 8501 49b5 8501
000002c0: d5db 3d3e fee3 8501 ec55 303e 6ab1 8501
000002d0: c1a3 8501 e292 8581 90cf 5381 97e3 f20d
000002e0: 6292 8581 eaa2 f082 f397 21bf ecdd 8501
000002f0: 43a4 dd8f ce9f 4c3e cc19 b680 f710 e488
00000300: deee 5e3e f2aa 603e 50e3 318b 09a2 8501
00000310: 0c50 783e 05c4 8501 9bb5 8581 b0a9 8501
00000320: c1b5 593e ff9a 8581 f1ba 2a85 7e07 af02
00000330: 76b1 7a01 3391 8501 3fa5 8501 6dc2 8501
00000340: 651f 533e 35e0 8501 9a06 623e 48e5 8501
00000350: 4594 8501 5fe3 8581 60f7 5381 7647 020e
00000360: 92b7 8581 1dad 0083 d0fe 1bbf 848f 8501
00000370: 32ae ed8f 20de 5e3e 7cd7 b680 8b85 f488
00000380: 69e3 2f3e fd63 373e 5545 198b c39d 8501
00000390: d7bf 2a3e 9398 8501 7ec6 8501 1f84 8501
000003a0: 9de1 2e3e fece 8581 7b5b 1385 627a 9402
000003b0: 95de 7a01 dfd9 8501 8bb4 8501 d8b1 8501
000003c0: 609f 3d3e 0e87 8501 13d7 2c3e 9ecd 8501
000003d0: df9a 8501 650f 6c00 00c3 5381 aafb e00d
000003e0: 3893 8501 04e7 dd82 eb44 0ebf 63a2 8501
000003f0: 9f32 cd8f bc4a 363e c0bd b580 153f d388

fc_layers.2.bias f4 [16]
0.1838823 -2.962466e-34 0.15393263 2.2122708e-38 -4.91581e-38 0.16388042 0.1538501 0.13430402
-4.9079515e-38 0.5217014 0.16378535 -5.414468e-38 0.17828746 -4.90611e-38 0.18542422 -2.8659504e-37
00000000: a44b 3c3e bfe3 c487 84a0 1d3e 1ce5 f000
00000010: 32d2 8581 45d0 273e e18a 1d3e fe86 093e
00000020: 6e9b 8581 398e 053f 59b7 273e 5665 9381
00000030: fd90 363e 998e 8581 d9df 3d3e e60b c382
